models/20200923_003835/epoch_0000_loss_3666668.06250.pt (torch, 261509 bytes, 116 tensors)

encoder.model.weight_ih_l0 f4 [120, 3]
000000 9b 24 26 3e 24 9b 74 bc cf 7d bd 3d 15 10 c2 bc
       0.16224901 -0.0149295665 0.09252512 -0.02368931
000010 c1 ef a7 3d 8f 80 17 be 5a 13 37 be 77 66 2b 3e
       0.08200026 -0.14795135 -0.17878476 0.16738306
000020 e0 75 9d 3d 65 a2 27 be da ff a2 bd 81 4f be bd
       0.076884985 -0.16370542 -0.07958956 -0.09292508
000030 37 a6 8c bd e9 36 24 3e 66 0d 9d 3d 22 f0 9c bd
       -0.068676405 0.16036572 0.07668571 -0.07662989
000040 2b 94 23 be 71 6f 51 bb 3b 1e ea 3d 5f b8 1a be
       -0.1597449 -0.0031957293 0.11431547 -0.15109394
000050 9f 9f 05 be b4 7a 68 3c e8 e5 3c 3e 1f d6 61 bd
       -0.13049172 0.014189411 0.18447077 -0.055135842
000060 9b 25 68 bd df d5 ac 3d 73 3c c4 3d fa e5 e5 bc
       -0.05667649 0.0843923 0.09581842 -0.028063763
000070 50 98 0f be 08 fa 20 be 2c 9f a1 bd ff 73 f7 3d
       -0.14022946 -0.1572038 -0.07891688 0.120826714
000080 f6 4b 7d 3d ae b3 8d bd b4 8b be 3d 68 4a bc bc
       0.06184002 -0.06919037 0.0930399 -0.022984698
000090 fb 82 ae bc f4 fe ef bd 4a 11 c2 3d 69 aa 34 3e
       -0.02130269 -0.1171855 0.09475954 0.17643131
0000a0 87 6f 7e 3c c8 f2 69 bd 98 00 9a 3c b6 c8 82 bd
       0.01552952 -0.0571163 0.018799111 -0.06385939
0000b0 b1 3f c6 bd 15 2a fa 3d 1c de 90 bd cd 47 37 be
       -0.09680117 0.12215058 -0.07073614 -0.17898484
0000c0 49 e6 b7 bc 7e ba 37 be e0 5f 3e 3d 89 6f 15 be
       -0.022448676 -0.17942235 0.046478152 -0.14593329
0000d0 87 15 82 3c 9f 6b 28 bc 4a b7 f2 3d 39 19 fb 3d
       0.015879406 -0.010279565 0.11851366 0.1226067
0000e0 68 b1 f7 bb 4d 2a 1f be 5e 6f 18 bc 24 7d 08 be
       -0.0075589903 -0.1554348 -0.009303896 -0.13328987
0000f0 4e 5a e9 3d a4 fa 87 3d 13 86 0d 3e 98 a9 0b 3e
       0.113941774 0.06639603 0.13820677 0.13638914
000100 f7 ec b4 3d 03 3d 12 bb cf f9 1d 3d ce be 28 3e
       0.0883426 -0.0022314198 0.038568314 0.16479036
000110 6b 14 0f 3e 70 45 8a 3d 0e cf 05 be b2 a4 28 be
       0.13972633 0.067515254 -0.13067266 -0.16469076
000120 13 7d 23 3e 40 32 14 be 08 d2 39 3c dd 3e ee bd
       0.15965681 -0.14472294 0.011341579 -0.11633084
000130 63 59 86 3d 98 53 8d 3d 6b ba 4f bd bd 3d 98 bb
       0.06560018 0.0690071 -0.05071489 -0.0046460317
000140 ae 71 46 bc 23 03 54 bc 52 ec ab bc 64 7d 35 be
       -0.012112064 -0.012940201 -0.02098671 -0.17723614
000150 4a 69 bf bd 51 b6 28 be c3 6b ef 3b d3 90 72 3c
       -0.09346254 -0.16475798 0.0073065474 0.014805037
000160 6f d3 8f 3d 97 93 d2 3d 6c f4 19 3e 14 73 ea bd
       0.0702275 0.10282057 0.15034646 -0.11447731
000170 9a 94 34 be 3b fe 18 3e c0 74 9f bd 7d 64 86 3d
       -0.17634812 0.14940731 -0.0778594 0.06562135
000180 fc c6 02 be ca df 39 be 02 48 ee bd 9f fe 5d bd
       -0.12771219 -0.18151775 -0.11634828 -0.054197904
000190 9d fe ed bd 93 72 31 be b9 f5 2c be 0e 15 3f 3d
       -0.11620829 -0.17328863 -0.16890611 0.04665094
0001a0 dd c8 c9 bd b0 62 be bd f7 2f 17 be ce b2 e5 3d
       -0.09852765 -0.09296167 -0.14764391 0.11215745
0001b0 50 f1 3b 3e 1f 0d 88 bc ca 84 ef ba ca 3a e7 bb
       0.18353772 -0.01660782 -0.0018273827 -0.0070565687
0001c0 74 e7 42 bc 08 40 08 be 09 c2 17 be 5b 29 b1 bd
       -0.011896003 -0.13305676 -0.14820112 -0.08650466
0001d0 eb 13 e0 bd be 6e 41 be 73 b6 9b 3c 72 50 2b 3e
       -0.10941299 -0.18889901 0.019007897 0.16729906
0001e0 1b bb 42 3d ad 0e 38 3e 75 d9 ad 3d ea e9 5f 3d
       0.04754172 0.17974348 0.08488742 0.054666437
0001f0 a6 11 bb bd fb 8a 37 3e 2e e1 28 3e 74 23 ed 3c
       -0.091342255 0.1792411 0.16492149 0.02894757
000200 fd 7a 3b be 9d 23 b3 3d 16 16 13 3e fe 6d 0f be
       -0.18308635 0.08747027 0.14363894 -0.14006802
000210 21 f0 e2 bd 8c 89 98 bc ec d2 ad bd 9c 20 c8 bc
       -0.11080957 -0.018620275 -0.08487496 -0.024429612
000220 bd 54 2f 3c cd ec 2e 3e b0 65 e9 bd 8a 14 41 be
       0.0107013555 0.1708252 -0.113963485 -0.18855491
000230 04 40 d8 3d a6 30 d9 3d 0f 53 1f 3e ee 79 1d 3d
       0.10559085 0.10604982 0.15559028 0.03844636
000240 a1 a7 c6 3d ea 26 1b 3e 3f 60 2f 3e f1 3c dc bd
       0.096999414 0.15151563 0.17126559 -0.10753811
000250 1c 6f 0a bd ce b0 96 3c 7c d2 15 be 24 59 2d 3e
       -0.03379737 0.018394854 -0.14631075 0.16928536
000260 d7 83 a9 bc 84 6d 90 bd 7c 34 16 ba ca 32 a3 3d
       -0.020692749 -0.070521384 -0.00057298667 0.079686716
000270 d3 c7 b3 bd dd 7b f5 3d e6 ca 81 3d 50 75 a4 bc
       -0.08778348 0.11986516 0.06337528 -0.02007547
000280 82 08 42 3e 5b ff 88 bd 6a ff fc bd 7e 4b 9f bd
       0.18948558 -0.0668933 -0.12353404 -0.07778071
000290 74 16 39 3e af 91 27 3d d7 76 a8 3d 85 b8 da bd
       0.18074971 0.04091042 0.08225792 -0.106797256
0002a0 fe 19 68 bd 8d 20 de 3b 91 b8 eb 3d 86 ff b1 bc
       -0.056665413 0.0067787827 0.115098126 -0.021728288
0002b0 73 d8 d0 bd 28 ca b4 3d 6f 24 f0 3a da 83 49 bd
       -0.101975344 0.08827621 0.0018321405 -0.04919801
0002c0 31 46 ad bd 69 27 16 3e 2c 4f 76 bd 95 6f 19 be
       -0.084606536 0.14663471 -0.060134098 -0.14983971
0002d0 50 3d 0a 3e 7e d8 0b be 62 b7 07 be 38 0b 05 be
       0.13499951 -0.13656804 -0.13253549 -0.12992561
0002e0 79 75 15 3d 8f 4c 37 be d2 ce 17 be 75 b6 d1 3d
       0.036488984 -0.17900299 -0.1482499 0.10239879
0002f0 11 d0 2f be 90 f5 19 3d 3e f2 17 3e 12 dd 25 be
       -0.17169215 0.037587702 0.14838502 -0.16197613
000300 65 5a e5 bc ed a1 2e 3e c1 0a e7 3d 99 e9 82 bd
       -0.027997205 0.17053957 0.11281348 -0.063922115
000310 9c d9 c5 bc 81 2a 0e 3e dc 28 31 bd f6 d1 37 3e
       -0.024151616 0.13883401 -0.043251857 0.17951187
000320 d8 51 0b 3e 89 25 b4 bd 19 42 d6 3d 82 dd 1c be
       0.1360544 -0.08796222 0.10461826 -0.15318874
000330 10 29 6f 3b 77 a1 09 3c 70 78 bd 3d 72 41 15 be
       0.003649298 0.008400313 0.09251487 -0.14575747
000340 e7 6b 03 3c 45 fd 25 be 2c 9d 02 3d fd 6c 0a bd
       0.008021331 -0.16209896 0.031888172 -0.033795346
000350 2a 0a 07 3e 05 df 34 3e c2 43 8a bd d1 56 83 3d
       0.13187471 0.176632 -0.06751205 0.06413043
000360 d3 18 ac 3d fd 55 f3 3c 16 54 c8 bd 64 e5 bf bd
       0.08403172 0.029704088 -0.09781663 -0.09369925
000370 00 93 5d 3d 33 38 17 3e 5f f2 6e bc 04 2d 34 be
       0.05409527 0.14767532 -0.014584153 -0.17595297
000380 b3 69 10 be f4 ad 01 3e 80 31 36 3e 5f 73 ee bd
       -0.14102821 0.12664014 0.1779232 -0.11643099
000390 b3 5a 7b bd 7d 24 d3 bd f8 13 aa bc ef d6 17 bd
       -0.061365794 -0.10309694 -0.020761475 -0.03707021
0003a0 3b 1f 5e bd 1c 9b 0b 3d 63 42 b9 bd 91 f0 2e 3e
       -0.054229002 0.03408347 -0.090458654 0.17083956
0003b0 50 25 c4 bd ff 53 f7 bd e6 fe 19 3c 9c 78 7c bd
       -0.09577429 -0.12076568 0.009399151 -0.06163846
0003c0 31 ec 24 be b2 71 03 3e 45 66 38 be 10 13 33 3e
       -0.16105725 0.1283634 -0.18007763 0.1748774
0003d0 33 92 d6 bd b3 72 87 3d 83 83 1d bc 1e 3d 16 be
       -0.10477104 0.06613674 -0.009613874 -0.14671752
0003e0 ed 03 53 3d 6b 74 08 3e ed e4 f3 3d bf d9 0b be
       0.051517416 0.1332566 0.119088985 -0.13657282
0003f0 cf 21 ad 3d 26 f0 f4 bd 3e 7b f4 bd 1b 5b b2 bd
       0.08453714 -0.11959867 -0.11937569 -0.08708783

encoder.model.weight_hh_l0 f4 [120, 30]
000000 fc de 7a 3d 29 f7 b5 bd bc fa bc 3c 1d 81 fd bc
       0.06124781 -0.08885033 0.023068778 -0.030945355
000010 5f 97 f5 bd 5d 00 a1 bd cd 20 5c bd 08 d4 1d be
       -0.11991762 -0.078613974 -0.05374222 -0.15412915
000020 c6 4b 3c 3e 6c 95 a0 bd df 0d 03 be 21 0c 0d 3d
       0.1838828 -0.07841 -0.1279826 0.034435395
000030 83 2f 6a 3d d6 03 09 be eb 0b 20 3e d3 3c 96 3d
       0.057174217 -0.1338037 0.15629546 0.0733582
000040 f0 7c 92 bd bd dc d3 3d 8b 1d c4 3d b8 41 28 be
       -0.07152736 0.10344837 0.095759474 -0.1643132
000050 fe 1e 79 bd 1e 52 13 be d1 3d 0e 3e f0 7d 39 3e
       -0.060820572 -0.14386794 0.13890769 0.18114448
000060 a7 64 09 be fd 24 d1 3d d5 4a bd bd 82 d0 1c 3d
       -0.13417302 0.10212133 -0.09242789 0.038284786
000070 51 bb df ba 79 c2 3a 3e 30 18 3f 3b ce 9b ce 3d
       -0.0017069374 0.18238248 0.0029158704 0.10088311
000080 d3 fd 6a 3c 87 fa 33 3d 1a bd 31 3e 4e fa 31 3b
       0.014342743 0.043940093 0.17357293 0.002715725
000090 d1 2d 95 bd e8 d7 15 be c7 0b 1d be 83 42 ee bd
       -0.072841294 -0.14633143 -0.15336524 -0.1163378
0000a0 ff 88 30 3e 08 28 f7 bd 1c ab 69 3d 8c 0a d6 3d
       0.1723976 -0.12068182 0.05704795 0.104512304
0000b0 47 11 d3 bc f8 ee 17 3e 23 a9 cc 3c 56 70 21 3e
       -0.025765074 0.14837253 0.024982994 0.15765509
0000c0 89 d6 d2 3d 88 e6 fa 3d 11 96 ae bb 81 98 de 3d
       0.102948256 0.122510016 -0.005327948 0.108689316
0000d0 70 40 37 3e 1a 5d 24 3d c4 b3 28 be b6 14 85 bb
       0.17895675 0.04012785 -0.16474825 -0.004061307
0000e0 5c aa e2 3d af b0 80 bb e2 b9 ca bc 8b ab 2b 3e
       0.1106765 -0.0039273123 -0.024746839 0.16764657
0000f0 b2 51 e9 bc 64 56 0c 3d 7f 20 c1 3d 8c 99 39 3d
       -0.028481338 0.034262076 0.09430026 0.04531245
000100 19 3d ba bd 0d 46 e1 3c 42 7f 87 3c 50 de fd 3d
       -0.09093685 0.027499223 0.016540173 0.12395918
000110 93 5a 76 3c 77 95 9a 3c d7 8e 24 be db 3f 27 3e
       0.015036243 0.018870099 -0.16070114 0.16332953
000120 7a f6 39 be 89 76 14 3e 52 27 ed bd 3f 2f 86 3d
       -0.1816043 0.14498343 -0.115797654 0.0655198
000130 60 41 b0 3d 40 ad 1d be bc e1 3a 3c 89 04 ea 3d
       0.08606219 -0.15398121 0.011406358 0.11426646
000140 36 f9 53 bd 7e 9d 07 be bf 59 7d bd 8b 68 54 bd
       -0.051751338 -0.13243672 -0.061853167 -0.051857512
000150 e8 fa 1d 3e 60 61 c1 3d 0d 6e e7 3d 95 9a a1 3d
       0.15427744 0.09442401 0.113002874 0.07890812
000160 57 ee de 3d 41 83 19 be 61 69 a1 3c 51 19 e5 3d
       0.108853035 -0.14991476 0.019703569 0.11186469
000170 35 84 26 3e a8 63 16 3d a5 da 15 bd 74 5e aa bd
       0.1626137 0.036716133 -0.03658547 -0.08318797
000180 f3 3d 08 3e ea a0 b8 3d 34 40 cb bd 2c 59 3f be
       0.13304882 0.09015067 -0.09924355 -0.1868636
000190 c0 6d c9 bd 64 aa 14 be ee c7 f9 3d 36 1e 49 bc
       -0.09835386 -0.14518124 0.12196337 -0.012275269
0001a0 72 32 28 bd c6 61 98 bd ec c0 e5 3d 19 55 da 3b
       -0.041063733 -0.07440524 0.112184376 0.0066629765
0001b0 cd ec 6e 3c e2 6e 3b 3d be c8 9e 3d 60 df a7 3c
       0.014582825 0.045760043 0.07753132 0.020492256
0001c0 ac 30 01 3e cb ba 0e 3d fe c6 52 bd b6 bb 00 3e
       0.12616223 0.03484611 -0.051459305 0.12571606
0001d0 71 f2 3d be 85 3a 85 3d dc 2a f6 bd 28 9b d8 3d
       -0.18549515 0.06505302 -0.120198935 0.10576469
0001e0 82 0f f2 bd 52 36 f9 bc 01 61 35 be 3a 72 9a 3d
       -0.11819364 -0.03042141 -0.17712785 0.07541318
0001f0 78 0a 5d 3d 58 2a d7 3d b3 43 f1 bc a3 23 01 3c
       0.053965062 0.10506123 -0.029451227 0.007882032
000200 f0 df f1 3c a9 61 f4 bd 23 3b 89 bd 96 20 0a 3e
       0.029525727 -0.1193269 -0.067007326 0.13488993
000210 99 9b aa bc 50 da 29 bd 57 2f 0e 3d d0 4d 88 3d
       -0.020826148 -0.041467965 0.034713116 0.066554666
000220 95 3d d9 bd 4b ec 16 3d a1 df ac bd 3e 31 17 3d
       -0.10607449 0.03684644 -0.08441091 0.036912195
000230 72 be 9c 3d f2 74 9b 3d 52 dd b6 3d b4 2b 1f 3d
       0.07653512 0.07590665 0.08928932 0.038860038
000240 98 6f a0 3d 04 3f c9 3c c3 b5 07 3e d2 a7 25 3e
       0.07833785 0.024566181 0.1325293 0.161773
000250 5c 64 e5 bc 81 9b 44 bd 4f bf 43 bd 4d 55 7a bc
       -0.028001957 -0.047999863 -0.047789868 -0.015279126
000260 5b b8 e3 3d 96 44 23 3e 01 f5 f3 3d 72 1c be bd
       0.111191474 0.15944132 0.11911965 -0.09282769
000270 d6 57 0e be e2 ee 06 3e 28 2f da bd 4d 07 a0 3d
       -0.13900694 0.13177064 -0.106535256 0.078138925
000280 5a 58 23 3e 80 bd 5e bd 5b 3e 97 bd 55 ba a7 bc
       0.15951672 -0.05437994 -0.0738494 -0.020474592
000290 18 77 17 3e f3 2f 90 3d 9c af 24 be 66 45 d2 bc
       0.14791524 0.070403956 -0.16082615 -0.025667857
0002a0 ad 93 64 bd 04 7a 15 be be 88 20 be 4d 27 62 3d
       -0.055804897 -0.14597327 -0.15677163 0.05521326
0002b0 e2 3b b7 3c 4c 16 c0 bc 06 47 4d bd 60 42 0a be
       0.022367422 -0.023448132 -0.05011656 -0.13501883
0002c0 18 f4 ea 3d 8d 01 06 3c 45 5f df ba 93 99 2b 3e
       0.114723384 0.008179081 -0.0017041942 0.16757803
0002d0 47 e7 15 3d 05 23 30 be 7d 7f fb 3b 58 3e a4 bd
       0.036597516 -0.17200859 0.00767511 -0.080197036
0002e0 0d 55 ef 3c e0 75 ac 3d 41 6f 15 be 30 5a 0b 3c
       0.02921536 0.0842092 -0.14593221 0.008505389
0002f0 d0 05 be bd 5d ca bb 3d a7 f9 11 3d 62 a5 07 3e
       -0.092784524 0.09169457 0.035638478 0.13246682
000300 f1 c2 97 3d 9c a0 2a be 3a 2c 21 be 05 85 14 3e
       0.07410229 -0.1666283 -0.15739527 0.14503868
000310 f0 a3 27 be 9e 0d df 3c 7c 05 30 bd 44 ef 4d 3c
       -0.16371131 0.027228173 -0.04297398 0.012569252
000320 76 10 2b be fc 9d 8c 3d 8d 8e 01 3d 83 41 bf bd
       -0.16705498 0.06866071 0.031630088 -0.09338667
000330 33 f2 12 3e 1e 1b 62 3d 96 f9 2c bc f9 bc 3f bd
       0.14350204 0.055201642 -0.010557553 -0.046811078
000340 95 0d dd bd 23 29 7c 3d 75 11 3a be 83 ff ac 3d
       -0.10793606 0.06156267 -0.18170722 0.084471725
000350 a3 5b 76 bb 1c 46 13 3e b2 4f 01 bd c2 49 e4 bd
       -0.003759124 0.14382213 -0.031570144 -0.11146881
000360 97 af 4f bd da 6b b8 3c a4 69 18 3e db d1 88 bd
       -0.050704565 0.022512365 0.14884049 -0.06680652
000370 a8 ff 14 3e f0 a7 f8 bc 3e 05 ea bd ed 02 f1 bd
       0.1455065 -0.030353516 -0.11426781 -0.11768136
000380 5f db 00 be ea 92 78 3d 83 94 39 be c4 4c 1e bd
       -0.12583683 0.060686983 -0.18123059 -0.03864743
000390 6d 56 d3 3d 5b ee 5a 3c b9 20 b9 3d 1a ae e5 bd
       0.10319219 0.013362492 0.090394445 -0.11214848
0003a0 48 97 ad bd 8f f5 e9 bc 72 19 98 3d 2f 2f c7 3d
       -0.0847612 -0.028559474 0.07426728 0.097257964
0003b0 93 32 0f 3e 6e e2 22 bc c0 e1 3e bd 27 74 0e be
       0.13984136 -0.00994168 -0.04660201 -0.13911496
0003c0 c6 38 de 3d 53 3f 2c bd f0 d8 2c be e5 d3 0c 3e
       0.108506724 -0.04205258 -0.1687963 0.13752706
0003d0 35 3f f8 3d c5 3a 1e 3e bc 07 ff 3d 23 dd 63 3d
       0.12121431 0.15452106 0.12452647 0.055630814
0003e0 18 72 7a 3d d2 41 76 bd 06 c0 88 bc c7 b4 f4 bc
       0.061143965 -0.060121365 -0.016693126 -0.029871358
0003f0 da bc a6 3d 34 dc 91 3d 04 eb 22 be 9e 8e 00 bc
       0.08141489 0.071220785 -0.15909964 -0.007846503

encoder.model.bias_ih_l0 f4 [120]
000000 b8 54 9b 3c dd 65 39 be cf e2 1b be 6f 54 85 3d
       0.018961295 -0.18105264 -0.1522324 0.06510245
000010 4f 93 22 3e 7c bd c1 3d 4f f2 01 bc 65 e1 e4 3d
       0.15876506 0.094599694 -0.007931306 0.11175803
000020 7a 41 f6 3d 6c 34 77 bc 06 c7 e8 3c 7c ca 01 be
       0.120242074 -0.015088182 0.028415214 -0.12674898
000030 d4 55 80 3c b6 01 b1 bd d8 bb 9d bd 62 e9 dc 3c
       0.015665926 -0.086429045 -0.07701844 0.026966754
000040 13 73 be bd 14 06 61 3d 65 43 d8 bd 86 c6 28 be
       -0.092992924 0.054937437 -0.105597295 -0.1648198
000050 aa 0c 04 3e 69 4a 2d 3d 9f 64 b9 3d 2c f6 34 3e
       0.12895456 0.04230729 0.09052395 0.17672032
000060 3a 96 ee bd c3 19 83 3d a2 8a 3c bd 75 3a 78 bd
       -0.11649747 0.06401398 -0.046030648 -0.060602624
000070 18 d8 b9 3d 35 79 6d bd bb 76 0b 3d f4 05 8e bb
       0.0907442 -0.05797692 0.034048777 -0.0043342058
000080 1a 94 e2 3d 69 6c a4 3d c5 c5 1a 3e 41 b0 db bd
       0.110634044 0.0802849 0.15114506 -0.10726977
000090 b4 ed 87 bd e6 cf e8 bd 88 8d 42 be 15 37 a3 3d
       -0.06637135 -0.113677785 -0.18999302 0.079694904
0000a0 a8 70 14 be 36 ac eb bd 78 e1 e0 3b 2b 9b 71 3d
       -0.144961 -0.11507456 0.0068628155 0.05898587
0000b0 3f 6e 2a be fe 0e d6 bd 6c f2 25 3e 91 51 12 be
       -0.16643618 -0.10452078 0.16205758 -0.14288928
0000c0 6b 7d a0 3c a5 15 17 be 1b 4c d5 3c d0 b7 74 bc
       0.019591054 -0.1475435 0.026037266 -0.014936402
0000d0 1e ed c0 3d 8b 1b 33 bd 0d 10 08 3d c3 37 3c 3e
       0.094202265 -0.04372744 0.033218432 0.18380646
0000e0 6a 5d 99 bd bb cc 26 3e 5e 4c ac bc 7b 0a 16 be
       -0.074885204 0.16289036 -0.021032508 -0.14652435
0000f0 50 df a0 3d 57 e8 b8 3d e4 72 29 bc 01 93 84 3d
       0.078550935 0.0902869 -0.0103423335 0.06473351
000100 58 ed 0f 3e 16 2d dd bd 49 50 17 3d 6e 1f 30 3d
       0.14055383 -0.10799615 0.0369418 0.042998724
000110 74 e5 84 3b 72 11 3a 3d 9c e6 23 be c9 16 53 bd
       0.0040556733 0.045426793 -0.16005939 -0.0515354
000120 04 58 b3 bc b8 30 42 bd c7 71 34 3b c0 e4 29 be
       -0.021892555 -0.047409743 0.0027533637 -0.16591167
000130 13 86 b5 bd e5 52 2a be c0 d0 a6 3d 51 05 a1 3d
       -0.08863463 -0.16633184 0.08145285 0.07862342
000140 25 c5 db bc be c8 d5 3d 73 11 84 bd 19 cc 30 3e
       -0.026827404 0.10438679 -0.06448641 0.17265357
000150 cc c2 7d bd 68 e9 38 3d af 4c f1 3d 32 59 c0 3b
       -0.06195335 0.04514447 0.11782204 0.005870008
000160 86 8e ae bc 90 fe 72 bd f9 43 8f 3c 52 58 f0 3d
       -0.021308195 -0.0593248 0.017488467 0.11735596
000170 0e ec 08 be 34 9b 17 3d 79 c3 97 bd f5 48 3c 3e
       -0.13371298 0.037013248 -0.0741033 0.18387206
000180 8c 39 28 3e 47 71 2b be cf 9a c8 bd f3 bd 03 3e
       0.16428202 -0.1674243 -0.097951524 0.12865429
000190 14 cc 0a be f2 ef d3 3d c6 f4 33 3e 46 05 15 be
       -0.13554412 0.103485 0.17573842 -0.14552793
0001a0 8c fb 0a bd 51 43 01 be 9b bf 33 bd f3 63 24 be
       -0.0339313 -0.12623335 -0.0438839 -0.16053753
0001b0 f1 80 ed 3d 8d 61 24 3e 4d 7f e5 bd 1a f7 82 3d
       0.11596859 0.16052838 -0.11205921 0.06394787
0001c0 90 ed d5 bb 51 6a bb bd 7a e5 b7 bd 1f 57 45 3d
       -0.006528564 -0.091511376 -0.08979316 0.04817879
0001d0 10 20 0f 3e 4d 30 09 3d 52 a6 96 bd 46 ea d8 3d
       0.13977075 0.03349333 -0.07355942 0.10591559

encoder.model.bias_hh_l0 f4 [120]
000000 81 e2 88 bd 95 4c 18 be ab 04 f7 bc 62 a3 0b be
       -0.06683827 -0.14872964 -0.030153593 -0.13636544
000010 da 3c 9a bd dd 80 ab bc 82 38 99 3d 71 4e 4b 3c
       -0.07531138 -0.02093547 0.07481481 0.012408839
000020 23 22 2b be ae 20 20 be 34 9d d1 bc 8b 54 17 bd
       -0.16712241 -0.15637466 -0.025587656 -0.03694586
000030 f6 d3 c2 bc 76 f1 06 be 5b da ea 3c 2f 67 0f 3e
       -0.023782711 -0.13178048 0.028668573 0.14004205
000040 95 87 b6 3d c6 5a cc 3d 19 73 e4 3b c4 2a df 3d
       0.08912579 0.09978251 0.0069717285 0.10896829
000050 af 83 42 3e 5b fa 29 bd 3a b6 3f bd 5a 2d 04 3e
       0.18995546 -0.041498523 -0.046804644 0.12907925
000060 c0 f4 d2 3d 78 c5 41 3e 98 95 14 be 24 13 36 3e
       0.103005886 0.18922985 -0.1451019 0.17780739
000070 4d 78 f2 3d 8d fb a7 3d b8 3d 1e 3e df c0 21 bd
       0.11839352 0.082022764 0.15453231 -0.039490577
000080 ce 43 10 bd e0 c6 7a 3d f5 5a 39 3e bc e5 ad 3c
       -0.035220914 0.06122482 0.18101104 0.02122771
000090 2f 99 a4 3d 91 ee 12 be 39 60 dd 3d 41 ed 0a 3e
       0.0803703 -0.14348818 0.10809369 0.13567068
0000a0 06 5b ef 3d a9 9e 70 bd 60 d7 22 3e af 6d 0f 3e
       0.11687283 -0.05874506 0.15902472 0.14006685
0000b0 70 29 0a be 50 58 c7 3d 72 3e 43 bd 47 f7 08 3e
       -0.1349237 0.09733641 -0.047666974 0.13375579
0000c0 7f 0e 1b 3c 80 44 7f bb cd 36 2e be 39 76 72 3d
       0.009463905 -0.0038950741 -0.17013092 0.059194777
0000d0 0a 70 b6 bc b0 40 10 be d5 27 0e bd 63 a4 a0 3d
       -0.022270221 -0.14087176 -0.034705956 0.07843854
0000e0 c8 6e 1c 3e 05 6f 28 be 28 3a 02 be f0 b3 ac bb
       0.15276635 -0.164486 -0.12717497 -0.0052704737
0000f0 e0 a6 38 3e 3c 20 d7 bd 60 26 d9 bc e2 03 e1 3d
       0.18032408 -0.10504195 -0.026507556 0.10987069
000100 e8 01 b3 3c 6d 2b 2b 3d de a7 18 bd e6 9b f7 3c
       0.021851495 0.04178946 -0.037269466 0.030225705
000110 8f ad 24 3e 25 c7 fb 3a 2c e1 f5 3d 6a c0 11 3e
       0.16081832 0.001920913 0.12005839 0.14233556
000120 be 2a 03 3e 02 45 b4 bd ab c0 4b 3b fb 4c f0 3b
       0.12809274 -0.08802225 0.003109018 0.0073333955
000130 e8 c1 b9 3d f3 1e 33 bd e2 56 33 be 97 cf d6 bd
       0.09070188 -0.043730687 -0.17513612 -0.10488813
000140 b6 4c 23 3e 00 dc c1 bd 00 cd 01 be b1 cc ce bd
       0.15947232 -0.0946579 -0.12675858 -0.100976355
000150 aa 49 15 3e 6b c6 c9 3d 60 76 c2 3d da 6f 5f bd
       0.14578882 0.09852298 0.094952345 -0.05455003
000160 f9 72 12 bd a1 b8 68 3d ef 11 b7 3d 8f 91 cd bd
       -0.035754178 0.0568167 0.089389674 -0.10037529
000170 31 f8 1c be 4d 16 ee 3d f9 79 17 3e 84 b6 82 bc
       -0.15329053 0.11625347 0.14792623 -0.01595617
000180 20 6b 33 3d b0 24 bf bd bf 38 e1 bd 38 f4 bb 3d
       0.043803334 -0.093331695 -0.109971516 0.091774404
000190 fc e3 50 bd d4 9c d0 bc ac 82 db 3d 53 be 0b 3e
       -0.050998673 -0.025465406 0.10718283 0.13646822
0001a0 14 bd 02 3e 7f eb 6e bc 0d c4 29 3e 26 de 6b bd
       0.1276744 -0.014582514 0.16578694 -0.057584904
0001b0 91 59 57 3d 69 3c 37 be e8 45 89 3d 2e 57 23 3d
       0.05257565 -0.17894138 0.06702787 0.039878063
0001c0 ac e5 d9 3d ac 87 36 bc 32 4e 08 3e bc de b9 bd
       0.106395096 -0.011140745 0.13311079 -0.09075686
0001d0 c2 ca b6 bd 52 9d ab 3d 74 1c b1 bd cb 0b aa 3d
       -0.08925392 0.08379616 -0.08648005 0.083030306

encoder.model.weight_ih_l1 f4 [120, 30]
000000 09 59 11 be d2 f9 d4 3d 4a c0 20 3d 21 9f c9 3d
       -0.1419412 0.10399212 0.03924588 0.098448046
000010 29 ba 6e 3d 4c 92 36 bd 8f 41 46 bc 57 97 10 3e
       0.058283005 -0.044573113 -0.012100591 0.14120232
000020 58 69 a0 3c fb 80 86 bc 60 df 2c 3d 5d 2d cb 3d
       0.019581482 -0.016418925 0.042205215 0.09920762
000030 30 3f 06 be 7b 8b 90 3c 7d 47 dd bd 19 68 93 3d
       -0.13110042 0.017644634 -0.10804651 0.071975894
000040 8a 05 8c 3b fe ac 31 3e de d7 bf bd c8 91 bc bd
       0.0042731212 0.17351148 -0.09367345 -0.09207493
000050 59 9f 72 3b 03 14 17 be 2c 1c ed bd e5 5a 40 3e
       0.0037021248 -0.14753728 -0.11577639 0.18784674
000060 7d 39 ec 3c 20 05 20 3e 63 c6 18 3e f7 5a 0b be
       0.028836006 0.15626955 0.14919429 -0.13608919
000070 6e 71 d8 3d 67 9c 0f 3e d0 dd 0c 3e fb f6 e0 3d
       0.1056851 0.14024507 0.1375649 0.10984608
000080 48 c6 3a 3e 18 13 ff bd ba 32 30 bd eb 66 fd bd
       0.18239701 -0.12454814 -0.043017127 -0.12373146
000090 e6 de af bd c3 51 d1 bd 91 47 59 bd 0e b7 d9 3d
       -0.085874364 -0.10220673 -0.053046767 0.10630618
0000a0 30 0d 35 be 04 d9 ba 3d 28 6c 00 3e b8 8b 36 3e
       -0.17680812 0.09123424 0.12541258 0.17826736
0000b0 99 ce c7 3d 23 06 ad bd 6d 50 34 be 60 b3 be 3d
       0.09756202 -0.08448436 -0.17608805 0.09311557
0000c0 05 e9 98 bd b6 3d c8 bd 07 9b 2c be c5 6a fa 3d
       -0.0746632 -0.097773954 -0.16856013 0.12227396
0000d0 75 bb ec bc a7 a4 a7 3d c5 96 e7 bd 25 e1 d8 3d
       -0.02889798 0.08185702 -0.11308054 0.10589818
0000e0 08 38 35 3e 3f a7 05 3e 2a 72 79 bd 16 95 13 3e
       0.17697155 0.1305208 -0.06089989 0.1441234
0000f0 53 e3 e2 3d 3e e7 f8 3c da 4c 22 3e e2 2d 19 be
       0.11078515 0.030383702 0.15849629 -0.14958909
000100 c4 ba 8c 3d 89 a4 74 3d 42 b5 2f 3e 7a e5 dc 3c
       0.0687156 0.059727225 0.17158988 0.026964892
000110 10 16 dd bd ec 39 34 be 7b fb de 3d 24 26 fb bd
       -0.10795224 -0.1760022 0.1088781 -0.12263134
000120 f5 cb ed 3d c8 83 24 bd 16 7e 21 be b7 19 2f 3e
       0.11611167 -0.04016474 -0.15770754 0.17099653
000130 ae f5 dd bd 32 ab 20 bd d1 5c 65 bd 5b 12 f9 bc
       -0.10837875 -0.039225765 -0.05599672 -0.03040426
000140 c6 2e 5f 3d 56 d6 30 be 70 50 81 bd 65 b3 0f be
       0.054487966 -0.17269263 -0.0631417 -0.14033277
000150 5c 77 3e 3d 20 3b 75 3d 6a d7 73 3d 15 3d 29 be
       0.04650055 0.05987084 0.059531607 -0.16527207
000160 e8 44 18 be 6b 63 f9 3d 6c c3 e3 bc 0b 42 1e 3e
       -0.14870036 0.121771656 -0.027803145 0.15454881
000170 da 93 34 3d d5 64 cd bc d1 de 78 3d 85 43 f9 bd
       0.044086315 -0.025072495 0.06075937 -0.121710815
000180 c5 11 7f bd 14 6b 89 3d 53 64 eb 3c c3 48 0d be
       -0.062272806 0.06709877 0.028734362 -0.13797288
000190 dd 75 83 bd 1e 9d 19 be 52 bc 24 3e be 39 52 bd
       -0.06418965 -0.15001342 0.16087463 -0.0513246
0001a0 b9 3c 21 bc 89 90 3c 3d 6f 72 e3 bd 87 49 f1 bd
       -0.009841138 0.046036277 -0.11105811 -0.11781602
0001b0 9a 90 46 3d 27 09 52 3d 0b d8 ba bc e6 0d 9c 3d
       0.048477747 0.05127826 -0.022808095 0.076198384
0001c0 68 b8 f4 3d b1 b7 23 bd 72 e0 08 3d 89 1d 2c 3e
       0.11949235 -0.039970104 0.033417173 0.16808142
0001d0 8b 2a 70 3d 96 68 19 3d a4 da 94 bd 89 05 1b 3e
       0.058634322 0.037453257 -0.07268265 0.1513883
0001e0 b1 67 d1 3c 6d b8 2a be b4 a4 22 3e 46 13 11 be
       0.02556214 -0.16671915 0.15883142 -0.14167508
0001f0 07 d9 35 be 30 95 7b bd 3c 6a 9f bd 80 50 9b 3d
       -0.1775857 -0.061421573 -0.077839345 0.075837135
000200 dc 93 63 bd 4a 4c dd bd ed 13 1c 3e 51 e9 65 bd
       -0.05556093 -0.108055666 0.15241976 -0.05613071
000210 34 8b cc ba e7 9e 40 3d 0d dc 95 3d a4 3e 91 bd
       -0.0015605451 0.04702654 0.07317362 -0.07092026
000220 92 77 08 3e 7c ae bc bd 49 2e 8a bc 8a 63 0f be
       0.13326862 -0.09212968 -0.016867774 -0.14002815
000230 b2 b9 f1 bd 5c 58 dc bd 54 19 12 3e e7 b7 6a 3d
       -0.11802997 -0.10759041 0.14267474 0.05730429
000240 f8 47 03 be 66 36 98 bc 71 45 d3 bd d2 28 da 3d
       -0.12820423 -0.018580627 -0.10315979 0.10652317
000250 2a d3 c2 3b ce 52 ce bd d6 de 40 3d d1 bd 13 be
       0.005945583 -0.100743875 0.047087513 -0.14427878
000260 b1 c0 fd bd b2 79 08 be 44 6f d5 3b 67 cf a7 bd
       -0.123902686 -0.13327673 0.006513508 -0.08193856
000270 8d 30 90 3c 0e 87 86 3d 73 d0 12 3e 76 96 a4 bb
       0.017601276 0.065687284 0.1433733 -0.005022819
000280 74 5e d1 ba d2 5c 7b bd 08 d6 1e 3e 85 3d 02 bd
       -0.0015973584 -0.061367817 0.15511334 -0.03179695
000290 3a 5c e2 bc 0c 43 e8 3d 2f 30 78 bd 20 2f 55 bc
       -0.027631868 0.11340913 -0.060592826 -0.013011724
0002a0 e6 d2 d2 3d 46 0c 2b 3e c1 66 2f be b5 45 2d 3e
       0.10294132 0.167039 -0.17129041 0.16921122
0002b0 d6 5c 0b bd 49 a4 bc 3d e1 68 69 3c 46 9a 82 3d
       -0.034024082 0.092110224 0.0142461965 0.063770816
0002c0 63 0d df 3d 81 f6 98 3c f2 e1 18 3e a6 f1 30 3e
       0.10891225 0.01867223 0.14929941 0.17279682
0002d0 2b 89 94 3d 97 e1 9e 3c 42 de 91 3c 7b 00 b7 bd
       0.07252725 0.019394679 0.017806176 -0.089356385
0002e0 13 b8 8c 3d 62 20 fd bd 32 e6 c1 3d b1 49 1c be
       0.06871047 -0.12359692 0.094677344 -0.15262486
0002f0 e3 4f fe 3d 93 69 84 bd 61 98 14 be 38 c0 ee 3d
       0.12417581 -0.06465449 -0.14511253 0.116577566
000300 2c ac f7 3c 37 a6 2d be 7d a0 d2 bd dd bd af 3d
       0.030233465 -0.16957937 -0.10284517 0.085811354
000310 44 bc 72 bd b2 ee 0d 3e 69 25 31 3e df f2 ba bd
       -0.059261575 0.13860586 0.17299427 -0.09128355
000320 06 55 cb 3c dc ff f7 bb 3a ac 72 bd 2c 15 95 3c
       0.024820816 -0.0075683426 -0.05924628 0.018198572
000330 0a 62 1c 3e a5 87 1f 3d 6a 18 2b 3c f0 7b 10 3e
       0.15271774 0.03894772 0.0104428325 0.14109778
000340 b5 46 3c bd ce ea 14 3e b2 d2 70 3d 16 b6 4c bd
       -0.04596587 0.14542696 0.058794685 -0.04997834
000350 b1 dc 98 3c 32 19 17 be 77 e9 23 be 3f d3 ee 3d
       0.018659921 -0.14755705 -0.16007029 0.11661386
000360 79 64 a9 bd d3 1f b2 bd 15 54 36 3c 6f 51 36 3e
       -0.08271117 -0.08697476 0.011128445 0.17804502
000370 0a 83 99 3d b5 de 81 3b 4a 44 15 3e b2 24 92 bd
       0.07495697 0.0039633163 0.14576831 -0.07135905
000380 17 d9 02 be b2 69 af bc c3 c5 c6 3d 61 bb 0f 3e
       -0.12778126 -0.021412704 0.09705689 0.14036323
000390 7a 95 02 3e ac d6 21 be c7 d3 b1 3d a5 b6 20 be
       0.12752333 -0.15804547 0.086829714 -0.15694673
0003a0 0b 1b 2e be 51 a4 0a 3e cb 4c 9a 3d 2d 62 cb bd
       -0.17002504 0.13539244 0.07534178 -0.09930835
0003b0 54 13 02 be ef 91 59 bc 31 3a 14 be 61 04 bc 3d
       -0.12702686 -0.013279422 -0.14475323 0.09180523
0003c0 94 eb 50 bd 26 92 ea 3c f3 c1 b1 3d 48 f9 84 3c
       -0.051005915 0.028634142 0.08679571 0.016232148
0003d0 d5 d0 06 3e 11 ab 1b be d8 21 9b 3d f3 e1 45 bd
       0.131656 -0.15201975 0.075748146 -0.048311185
0003e0 19 d1 26 3e cd 22 cb bd 01 aa 55 3a 39 ab 2d be
       0.16290702 -0.09918747 0.0008150638 -0.16959848
0003f0 11 aa 1c bd 2b 41 18 3e 4c 61 fd 3b b0 de 18 be
       -0.038248125 0.1486861 0.007732546 -0.14928699

encoder.model.weight_hh_l1 f4 [120, 30]
000000 59 53 74 bd 74 da 3d 3d 37 af 6b 3d 3e 66 77 bc
       -0.0596498 0.04635091 0.057540145 -0.01510006
000010 6f f1 49 bd 88 b5 91 bd 33 ac 3e 3e 07 33 fd 3d
       -0.049302515 -0.071147025 0.18620376 0.12363248
000020 d0 4b 0a be e8 c9 aa bd 8f 71 12 be 70 ef 9c 3d
       -0.13505483 -0.08339292 -0.14301132 0.076628566
000030 36 4e ff bc 79 9a 25 be 0c 2f 96 bd 3c d4 7c bd
       -0.031165224 -0.16172208 -0.07333192 -0.06172584
000040 93 88 36 be 89 e4 a3 3c 0e 67 3a 3c 5f aa e8 3d
       -0.17825536 0.020006435 0.011377109 0.11360621
000050 82 89 ea 3d f6 f4 8f bd ea 9f 43 be 67 46 27 be
       0.11452009 -0.070291445 -0.19103971 -0.1633545
000060 b2 34 5c 3d 06 c2 28 be 3f f3 c3 3d c5 b7 c2 bd
       0.05376119 -0.16480264 0.0956788 -0.095077075
000070 81 96 f1 3d 22 51 01 be 3a ef 5d 3d 14 fb 81 bd
       0.117962845 -0.12628606 0.054183222 -0.063467175
000080 32 f8 0c 3e a1 f8 a1 bd ef 23 2f 3e 61 9f 24 be
       0.13766554 -0.0790875 0.17103551 -0.16076423
000090 7d 12 c3 bd 14 b7 d8 bd f4 94 ca 3d 2d 81 84 bd
       -0.09525011 -0.105817944 0.09891692 -0.06469951
0000a0 00 d3 08 be fd b3 2c 3e 40 8e 0c be 27 04 90 3d
       -0.1336174 0.16865535 -0.13726139 0.07032042
0000b0 f6 8d 16 3e 0a 29 ce 3d b5 73 35 be ef fc 94 bd
       0.14702591 0.10066421 -0.1771992 -0.07274806
0000c0 23 c2 43 3d 1b 89 1f be e2 91 d9 bd 43 c4 ab 3d
       0.047792565 -0.15579645 -0.10623528 0.08387043
0000d0 00 d0 0c be 3c da c1 3d f3 14 a4 3d d9 1f 2b be
       -0.1375122 0.09465453 0.08011808 -0.16711368
0000e0 82 8f a7 3d 1e 8c 2c 3e 8a f4 d1 bd c3 62 d3 3d
       0.08181669 0.16850325 -0.1025172 0.10321572
0000f0 ea c9 16 3e d9 fe 8a bd eb 7f 1c bd f7 08 d2 bd
       0.14725462 -0.067868896 -0.03820793 -0.10255616
000100 a2 ac 10 3d 9f de 32 bd 35 3a 2e 3e 6b 0a d3 bd
       0.035320885 -0.04366934 0.17014392 -0.103047214
000110 d9 33 07 be 68 63 80 3d 19 f9 d4 3d 3b 05 0e bc
       -0.13203372 0.0626896 0.10399074 -0.008668239
000120 32 72 91 3d 2e 36 0c 3e 46 11 e1 3d 34 05 37 3e
       0.07101859 0.13692543 0.10989623 0.17873079
000130 86 63 24 be 27 63 ed 3d 1f 5d 2a be ca 69 86 3c
       -0.1605359 0.115911774 -0.16637085 0.016407866
000140 ad 61 02 3e e6 92 15 bd 26 67 f2 3c 8f 59 97 bd
       0.12732573 -0.036517046 0.0295902 -0.07390129
000150 f0 08 05 be ea 63 58 bd e9 78 12 be f9 56 50 bd
       -0.1299169 -0.05282966 -0.14303936 -0.050864194
000160 d1 ad a9 bd 59 08 97 bd 3f ba 97 3d b1 99 f8 bd
       -0.08285106 -0.07374639 0.074085705 -0.12138689
000170 1c 69 04 3e bd c8 00 3e cd b8 32 be 88 f9 94 3c
       0.12930721 0.12576576 -0.17453308 0.018185392
000180 58 de b0 bc e2 20 87 3d b2 e5 0d 3e 16 47 24 bd
       -0.021590397 0.06598069 0.13857153 -0.040106855
000190 00 27 4d 3d c6 b7 d3 bd d0 df 35 3d 9b 55 24 3d
       0.05008602 -0.103377864 0.044402897 0.040120702
0001a0 44 96 b9 bc ac c8 33 be 30 cf 3f be 29 b8 bd bc
       -0.02265466 -0.17557019 -0.1873138 -0.023159103
0001b0 49 2e 19 be 1b ed 6c 3d 2c d1 99 3d f3 a7 21 3e
       -0.14959063 0.05784331 0.075105995 0.15786724
0001c0 e9 a2 b2 3d f0 1d 19 bd 37 1b 9f bd ed 24 ae 3d
       0.08722479 -0.037382066 -0.07768863 0.08503137
0001d0 bf 3c a5 bd 62 d9 ac 3d 7f b9 48 bd 18 db 37 be
       -0.08068227 0.084399 -0.049005028 -0.17954671
0001e0 b0 29 4d bb ed 6b a6 bd 6e d0 56 3c 6a 41 9d 3d
       -0.0031305365 -0.08126054 0.013111217 0.07678492
0001f0 12 02 56 3d ce ea fe 3c cc 15 3e 3d 0d 5d 1c be
       0.05224807 0.031117823 0.046407506 -0.15269871
000200 5f ea 15 3e 59 5b 3f bd 18 bb 20 be 51 e5 c5 bd
       0.14640187 -0.046717975 -0.1569637 -0.09662879
000210 43 2d cf 3d 05 17 85 bd 1f 54 aa bc 72 16 0f bd
       0.10116055 -0.06498531 -0.020792065 -0.034933515
000220 49 fd 30 be 40 35 8b bd 59 ff 19 bd 08 aa f7 3d
       -0.1728412 -0.06797266 -0.037597034 0.12092978
000230 1f 6e 30 be b9 0e 30 be 87 7a 7c 3d f5 6d ad bd
       -0.17229508 -0.17193116 0.06164029 -0.08468238
000240 05 f0 7f 3d 80 af 86 bd c4 ce 04 3e 74 b9 0d 3e
       0.06248476 -0.06576443 0.129695 0.13840276
000250 9c 3c 9e 3b 0d f1 0d 3e 25 31 5b 3d cc cd 77 3d
       0.0048290025 0.13861485 0.053513665 0.060498998
000260 3b c2 20 3e e9 0b a2 bc b8 26 cf 3c 16 bd c0 bc
       0.15699093 -0.01978107 0.025287017 -0.023527663
000270 58 7d 5a 3d f7 08 06 3e 1f 81 27 bd 37 63 65 bc
       0.053342193 0.13089357 -0.040894624 -0.014000705
000280 61 8c e6 bc df 56 3f bd 38 b3 f4 3d d0 99 2a be
       -0.02814311 -0.046713706 0.11948246 -0.16660237
000290 3e 8b 96 bd da ac 8d 3d 55 a6 1e 3e e5 a9 ca 3d
       -0.07350777 0.069177344 0.15493138 0.09895686
0002a0 c2 d8 48 3d 3a 61 17 3e 7c 1e 1e 3d 5b c7 7e 3d
       0.04903484 0.14783183 0.03860329 0.06220184
0002b0 67 41 b6 bd c9 ef 55 3d 08 e8 96 3d 16 04 af bd
       -0.08899193 0.05223063 0.07368475 -0.08545701
0002c0 32 1a 79 bd 00 3a d8 3d c9 fc 72 bd 15 b0 50 3d
       -0.060815997 0.105579376 -0.059323106 0.050949175
0002d0 a3 f4 30 bc 83 f9 1c be 08 90 db 3d 77 d3 32 bd
       -0.010800513 -0.15329556 0.10720831 -0.0436587
0002e0 e6 f3 3c be 94 20 c1 bd 6e b0 8c bd 2a c5 dc bd
       -0.18452415 -0.09430042 -0.06869589 -0.107797936
0002f0 ed 69 39 bd 9c 56 4e 39 3e 0c 31 be cf 58 5e 3d
       -0.045267034 0.00019677955 -0.17289826 0.054283913
000300 5e 7f 91 bd da c8 65 bd a4 d8 c1 3c 82 d4 5c 3d
       -0.071043715 -0.05609975 0.023662873 0.0539136
000310 ea a0 a3 bd bf a6 d5 3d 0a bd c9 bc be 33 36 3e
       -0.07989676 0.10432195 -0.024626274 0.17793176
000320 3c 3e 76 3d c5 ad 19 3e 54 76 05 3e 10 60 3e 3e
       0.060117945 0.15007694 0.1303342 0.18591332
000330 62 71 95 bc 1a 32 26 3e fe 5a 0e 3e 6d 9e 96 3d
       -0.018242542 0.1623005 0.13901898 0.07354436
000340 62 da 87 bd 75 50 1f be 95 c4 3e be c0 b0 0e be
       -0.0663345 -0.15558036 -0.18629678 -0.13934612
000350 3c da 17 3e 16 fe a2 bd 7c 7c dc bd b8 8c cd 3d
       0.14829344 -0.07958619 -0.10765931 0.100366056
000360 63 4e 28 be 62 03 88 bb 79 af f7 bd d6 8c 83 bc
       -0.16436152 -0.004150794 -0.12094016 -0.016058367
000370 a8 fa 89 3d 88 0b b9 bd eb d4 fe 3c d6 36 31 3e
       0.06737262 -0.090354025 0.031107387 0.17306075
000380 01 1e 5e bd b3 2e c9 bd ca 94 4e bc e1 49 36 be
       -0.054227833 -0.0982336 -0.012608716 -0.1780162
000390 f7 b9 92 3d 3d 7e ab bd 6c a5 0c bc 9e 86 e0 3c
       0.07164376 -0.083736874 -0.0085843615 0.02740794
0003a0 3c ee ba 3d ec f8 21 be 8d 81 1b be ef cf 60 3d
       0.09127471 -0.15817612 -0.15186138 0.0548858
0003b0 4e 16 a4 bd 1b d9 a6 3d 27 53 c0 3d 7b c5 12 be
       -0.08012067 0.08146878 0.0939086 -0.14333145
0003c0 53 ce f2 3d 67 ee c7 3d b8 a7 7f 3d fe 09 b2 bc
       0.118557595 0.097622685 0.06241581 -0.02173328
0003d0 3e 27 30 bd fa 21 f2 3b 18 f8 c9 bd a6 89 06 be
       -0.043006174 0.007389304 -0.09861773 -0.13138446
0003e0 3a ca 73 bc 95 02 b1 3d 58 ca 36 be 27 54 d1 3d
       -0.014879758 0.086430706 -0.17850626 0.10221129
0003f0 70 af d2 3d 67 4c 23 3d 5d 8b 07 be 73 93 f1 bc
       0.10287368 0.039867785 -0.13236757 -0.029489255

encoder.model.bias_ih_l1 f4 [120]
000000 a4 cb 8b bd e7 bb c4 bd 44 87 3e be e9 f7 de 3c
       -0.06825951 -0.09606152 -0.18606287 0.027217822
000010 44 15 03 3e 29 94 3b bb b4 e4 cf 3b c2 c1 4f 3d
       0.12801081 -0.0028622246 0.006344402 0.05072189
000020 ba de 27 3e 6d a0 02 be c6 8c 3e 3e b0 0a 1b be
       0.16393557 -0.1275651 0.18608388 -0.15140796
000030 d7 11 eb 3d dd 38 28 3e f3 27 19 be 42 32 db bd
       0.11478012 0.16427942 -0.14956646 -0.10702945
000040 dc 42 e4 bd b3 32 0d 3e 5b 21 ed 3d a8 54 2b 3e
       -0.11145565 0.13788871 0.11578628 0.16731513
000050 62 94 37 be 02 f0 0a 3d 3f bc c7 3d 41 62 e7 3d
       -0.17927697 0.033920296 0.09752702 0.11298037
000060 fa fb 4b bd 44 74 a2 3d 79 f3 b2 bd b8 93 9e 3d
       -0.04980085 0.07932332 -0.08737845 0.07743019
000070 bb d8 04 3e 84 72 b8 bd 30 41 1d 3e 10 8c f5 bc
       0.12973301 -0.09006217 0.15356898 -0.029974014
000080 ed 72 a7 bd 86 6f 26 be 45 01 00 be a9 b2 f9 bd
       -0.08176217 -0.1625348 -0.12500484 -0.1219228
000090 5d 02 86 3d 0e 94 10 3e 5e 69 b0 3d 46 ac 15 be
       0.065434195 0.14118978 0.08613847 -0.14616498
0000a0 42 67 c9 bd 70 7a 63 bb d0 e2 37 be 05 6f 7e 3d
       -0.09834148 -0.003471043 -0.17957616 0.062117595
0000b0 c5 2e 15 be f1 5b 59 bd a6 74 fc 3d c0 f0 cf 3d
       -0.14568622 -0.053066198 0.123269364 0.10153341
0000c0 d4 64 97 3d db 89 03 bd 72 76 10 3e 42 bc c0 3c
       0.07392278 -0.03211389 0.14107683 0.023527268
0000d0 75 4d ba 3d f9 1b 03 3e f9 fb 6f ba 7d 0d 53 bd
       0.09096805 0.1280364 -0.00091546733 -0.051526535
0000e0 3d 5d 8d bd b2 77 b7 bd 85 3d 0c be 55 13 07 be
       -0.069025494 -0.08958377 -0.13695343 -0.13190968
0000f0 4f 6e b8 bd c5 a8 8a bd d8 f0 2e 3e a7 f1 f1 3d
       -0.09005415 -0.067704715 0.17084062 0.1181367
000100 4b 0f b6 bc 16 79 f0 3d ef 14 fd 3d 7f 23 d5 3b
       -0.02222409 0.11741845 0.123575084 0.0065044756
000110 f4 fd 17 3d da 9c a7 3d 9b 8b b3 3d 3b 26 a4 3d
       0.037107423 0.08184214 0.08766862 0.080151044
000120 c9 68 e0 bc 94 26 bb bd e0 44 bd bd 30 5e 29 be
       -0.027393715 -0.091382176 -0.092416525 -0.16539836
000130 df 23 94 bd 81 13 aa 3d 72 75 fb bd 6e a6 18 3d
       -0.07233404 0.08304501 -0.1227826 0.037268095
000140 a4 96 d1 3d 9e a3 a3 3d 2d 0c 5f bc 6b e6 27 bd
       0.102338105 0.07990192 -0.013613743 -0.040991228
000150 d9 3e 03 be f8 8b d0 bd 9f 6a 2b be b5 98 c4 bd
       -0.12816943 -0.10182947 -0.16739891 -0.09599439
000160 8a 18 c5 bc b9 9b db 3d 37 82 09 be 9d 99 fe 3d
       -0.024059553 0.10723061 -0.1342858 0.12431643
000170 99 ea 1d 3d 36 04 cf bd a7 6b e0 3d 8a 69 36 3e
       0.038553808 -0.10108225 0.10958033 0.17813697
000180 00 5a 50 bc 10 fa 2c bd 40 d9 00 be 44 ee d1 bd
       -0.01271677 -0.042230666 -0.12582874 -0.10250524
000190 ea 74 03 3c db 91 95 bd db a4 cb 3d b4 cb 31 3d
       0.00802348 -0.0730321 0.09943553 0.043407157
0001a0 c9 96 a5 bc 92 d6 8b 3c 5c 0b 69 3d 5c 79 24 3e
       -0.020213502 0.017070089 0.0568956 0.1606192
0001b0 e0 5d 06 3e 9e b2 22 3d b4 6c 91 3d 24 8b 09 be
       0.13121748 0.039721124 0.071008116 -0.13431984
0001c0 3b 2e 96 3c 8d b4 29 3e 06 7f 31 bd b3 0a 80 bd
       0.018332591 0.16572781 -0.04333403 -0.06252041
0001d0 f2 7c a5 bd de 42 b3 bd 3a bc 83 3a e1 41 21 be
       -0.08080472 -0.08752988 0.0010050603 -0.15747787

encoder.model.bias_hh_l1 f4 [120]
000000 d1 c4 70 bd 6f 33 b4 bd eb 76 9b 3d 64 f8 92 3c
       -0.05878145 -0.08798873 0.07591041 0.017940708
000010 39 e4 d5 bc 22 22 e8 3c 46 a3 3b 3e f5 16 96 3b
       -0.026109802 0.028336588 0.18324003 0.0045803734
000020 5d 1b 27 3e c6 38 98 3d b5 73 31 3e 80 63 2a bd
       0.16319032 0.07432704 0.17329295 -0.041598797
000030 e8 66 0a 3d 9c 66 f3 3d c9 25 f4 3b 12 e0 30 be
       0.033789545 0.118848056 0.0074507934 -0.17272976
000040 88 cb 79 3c 25 a6 fa 3c 70 11 f1 3d a4 51 40 3d
       0.01524628 0.030596802 0.11770904 0.04695286
000050 5c b5 1d 3d 3c b6 8b bd 46 67 59 bd f5 f6 28 bd
       0.038503036 -0.06821868 -0.053077005 -0.04125114
000060 9a ac 38 3e e2 56 0c 3e c3 7a c5 bd 5f 80 24 3e
       0.18034592 0.13705018 -0.096425556 0.16064595
000070 db 1d 42 3d 3c d1 ec bd ce 40 2c 3e f5 f4 0f 3c
       0.047391754 -0.11563346 0.16821596 0.00878643
000080 99 d9 a5 bd 0a 8a c2 3c d2 3f 5d 3d 69 52 5c bd
       -0.08098144 0.023747463 0.054015942 -0.05378953
000090 0e 51 84 bc 7e 20 01 3e 61 11 b4 3d 33 6f 12 be
       -0.016151931 0.12610051 0.08792377 -0.14300232
0000a0 23 d8 ca bd 58 04 2e bc e0 23 31 bd 60 b0 74 bd
       -0.09904506 -0.010621153 -0.043247104 -0.059738517
0000b0 85 06 9b 3c 64 82 1a 3e 93 c8 32 3c 63 ab fd 3b
       0.018924007 0.15088803 0.010912078 0.007741378
0000c0 d6 d6 65 bc 33 72 39 3e f2 b1 93 3b 0e 9f 0a bd
       -0.014028272 0.1810997 0.0045072967 -0.033843093
0000d0 02 ba 24 3e 84 1f 81 bd 99 07 2f be c9 97 18 3d
       0.16086581 -0.06304839 -0.17092742 0.03725413
0000e0 d5 c0 a2 bd 41 0c 0c 3e 11 53 63 bc 48 6b cb bd
       -0.07946936 0.1367655 -0.013874785 -0.09932572
0000f0 9f 2a 27 bc 19 42 8f 3d 46 5f 19 be 00 33 92 3d
       -0.010203033 0.06995029 -0.1497775 0.07138634
000100 aa 9c a7 bc 86 82 ba bd 8f 73 c9 bd c6 25 1f 3e
       -0.020460445 -0.091069266 -0.09836494 0.15541753
000110 89 76 b4 3d ff df 2e be b9 11 a5 bd e1 99 24 3e
       0.08811671 -0.17077635 -0.08060021 0.16074325
000120 8d bc e7 bc fb eb 69 bd d5 07 2b 3e cb 55 9c 3d
       -0.02828815 -0.057109814 0.16702206 0.07633551
000130 ea a0 1d be 24 63 0a be af 63 a1 3d d5 b7 0b 3e
       -0.15393415 -0.13514382 0.07880341 0.13644345
000140 a3 05 29 3d 5d 16 9d 3d 83 b4 43 be ce 20 d7 3d
       0.04126514 0.07670281 -0.19111829 0.10504304
000150 6c e7 1e 3e 0d 3f 7a 3d 32 28 19 bd bf c3 bf bd
       0.15517968 0.061095286 -0.03739185 -0.093635075
000160 07 db 76 bd eb c9 ac bd d4 38 37 3e b4 f7 99 3d
       -0.060267475 -0.0843695 0.17892772 0.07517949
000170 5c 52 1a 3e 50 d0 fd 3d f6 85 ae bd 20 e0 e2 bd
       0.1507048 0.12393248 -0.08521645 -0.11077905
000180 98 9d 06 bd f6 8e 05 3e c9 27 91 bd b7 6c 0e be
       -0.032865137 0.13042817 -0.070876665 -0.13908659
000190 cf 38 3f bb e4 65 89 3d 77 a9 e1 bd 63 91 8e 3d
       -0.0029178148 0.06708887 -0.11018651 0.06961324
0001a0 8c d9 36 3e 65 40 27 bd 44 0a 88 bd 07 9f bc bd
       0.17856425 -0.040832896 -0.06642583 -0.092100196
0001b0 6f d5 1b 3e 53 5a 09 be 1d 90 23 bd ce c3 ad bb
       0.15218137 -0.13413362 -0.03993236 -0.0053028828
0001c0 e4 01 6d 3d 81 7b c5 bd a5 18 0c 3e dd 05 23 bd
       0.05786313 -0.09642697 0.13681276 -0.039800514
0001d0 b0 45 a3 bd 12 f9 d1 3c d8 07 cc bd 73 66 c0 bd
       -0.07972276 0.025631461 -0.099624336 -0.09394541

variational_latent.hidden_to_mu.weight f4 [15, 30]
000000 57 26 e3 3c 89 7e 4f bd ad b0 6a 3d 19 12 58 be
       0.027728243 -0.050657783 0.057297397 -0.21100654
000010 d5 1a 1c bd 9c 9b af be 4b 45 17 be 60 97 14 3d
       -0.038111527 -0.34298408 -0.14772527 0.036277175
000020 7d dd 8e be 26 fe f4 3c cf 7f 8a be 39 de a5 be
       -0.27903357 0.029906344 -0.27050635 -0.32396105
000030 73 a2 90 bd 26 33 f6 3c df 84 7b bc 78 55 b3 3e
       -0.07062235 0.030053686 -0.015351503 0.35026145
000040 b4 26 70 3d a5 92 0e 3e f8 a6 a3 be 10 08 97 be
       0.05863066 0.13923128 -0.31963325 -0.2949834
000050 3c a5 b9 3d e7 7c 02 3e 3c 38 04 be bd 85 b1 3e
       0.09064719 0.12742959 -0.12912077 0.34672347
000060 9a 8a c4 3d aa 25 87 be c0 19 94 3d fe cd a9 3e
       0.09596749 -0.26395923 0.07231474 0.33164972
000070 c4 92 2c bd 84 8b c6 bd 67 93 4e be 22 fc 01 3e
       -0.042132154 -0.09694579 -0.20173417 0.12693837
000080 49 30 92 be 68 bd a9 be 1e a8 e2 3b 33 35 94 be
       -0.28552464 -0.33152318 0.006917014 -0.28946838
000090 15 47 7f bd ea a5 23 be 40 6e f6 3d 58 2c 2f 3e
       -0.06232365 -0.1598126 0.12032747 0.1710676
0000a0 4f d3 56 be ae 12 f4 bd 86 06 18 3e c6 a1 b9 39
       -0.20979045 -0.11917625 0.14846238 0.0003540648
0000b0 01 05 93 be a3 06 9f 3e 2b 58 0b 3d bb c3 8d 3d
       -0.28714755 0.3105975 0.03401963 0.06922098
0000c0 62 76 60 3e 62 00 07 be aa df a5 3e cd 86 50 3e
       0.2192016 -0.1318374 0.32397205 0.20363922
0000d0 cd f6 65 bc 0f 2b 80 be b0 9c fa bd 92 44 74 be
       -0.014035893 -0.2503285 -0.12236917 -0.23854282
0000e0 36 81 38 3e 73 15 bd bb ad f0 97 be f1 cc b6 be
       0.1801804 -0.005770379 -0.2967581 -0.35703233
0000f0 39 11 5f 3e 0b 79 73 bd a7 81 00 3e 5d db 3f 3c
       0.21783914 -0.059441607 0.12549458 0.011710015
000100 83 0a 80 3e 3e e2 96 be 82 82 a3 be ab c0 71 3d
       0.2500802 -0.29469484 -0.31935507 0.059021633
000110 45 11 79 bb df 76 ef 3d e1 e2 85 be 01 89 9d 3e
       -0.0038004678 0.11692595 -0.26149657 0.30768588
000120 e2 2a ac be 41 4a b2 3d 39 89 87 be 85 d3 38 3e
       -0.33626467 0.08705569 -0.2647188 0.18049438
000130 77 8f 9e be 8c ec 0f 3e d3 91 2f 3e 2c 51 b6 be
       -0.3096883 0.14055079 0.17145471 -0.35608804
000140 cd 14 15 be c4 9a 70 3e d7 e5 c9 bd 10 8b e8 bd
       -0.14558716 0.23496538 -0.098582916 -0.11354649
000150 1a 3f 65 be 99 6e 29 be 6d be 95 bd a7 28 42 3d
       -0.22387353 -0.16546096 -0.073117115 0.04740205
000160 73 48 db 3d e3 db 79 3e 56 a6 26 3e 39 25 3a 3e
       0.10707178 0.24400286 0.1627439 0.18178262
000170 f5 64 ce bd bc ed 2a be 31 59 90 3e 23 06 ca 3c
       -0.1007785 -0.16692251 0.28193048 0.02466113
000180 0f ac 3c be 05 f4 7d be 3a 41 c9 3d cc d0 f4 3c
       -0.1842501 -0.24800117 0.09826894 0.029884718
000190 f4 54 6f be a1 b4 a2 be 4d 49 a4 be a5 31 82 be
       -0.23372251 -0.31778434 -0.32087174 -0.254285
0001a0 84 7d b5 be 55 e2 47 3e ad 65 90 3e 29 6a 07 bd
       -0.35447323 0.19519933 0.28202572 -0.033060227
0001b0 98 13 4e be 20 59 ff bd 8b 2f fb bd 89 0f 1e be
       -0.20124662 -0.12468171 -0.122649275 -0.15435614
0001c0 af 99 ad be a2 db 20 bd c5 fb 95 3e dd 6d 0c 3e
       -0.33906314 -0.03927196 0.29293647 0.13713785
0001d0 91 6d 87 be b4 90 c3 3c 94 b6 0a 3e 9f 04 8e be
       -0.2645078 0.02387271 0.1354621 -0.277379
0001e0 27 df f6 3c 83 d9 35 be 70 fc cc bc 46 98 82 be
       0.030135704 -0.17758755 -0.025022715 -0.255068
0001f0 54 4c 45 bc bd ec c3 3d 4a 13 6f bd 8c e8 21 3e
       -0.012042124 0.095666386 -0.058368005 0.15811366
000200 c7 73 62 3e 20 7d 90 be a1 ab 9f be b6 8e ba be
       0.22114478 -0.28220463 -0.3118563 -0.36437005
000210 d5 aa a8 3e df 3a a6 3e c8 df e5 bd 92 b5 2d 3e
       0.32942834 0.3246679 -0.112243235 0.16963795
000220 b3 dc 19 be 18 74 81 3d c4 cb 68 3e 8e 20 7f 3e
       -0.15025596 0.06320971 0.2273398 0.24914762
000230 72 7e c8 bb ae 76 4f 3d 9c 7d 14 3d 2e 2b b5 3e
       -0.006118589 0.05065029 0.036252603 0.35384506
000240 42 ba 0e 3e 2a 72 26 be f6 a2 b9 3e 67 37 95 3e
       0.13938239 -0.16254488 0.36257142 0.2914383
000250 0c 5c 4e be a2 1b 63 bd f1 43 2d 3e ae 7b b0 be
       -0.201523 -0.055446275 0.16920449 -0.3446936
000260 15 d8 b6 be b0 ca c4 3d 92 0c 2f be 14 3d a7 bd
       -0.35711733 0.09608972 -0.17094639 -0.081659466
000270 8f 09 bf 3e f8 26 a4 3e 25 cf a5 be 45 22 28 be
       0.3731198 0.3206098 -0.323846 -0.16419323
000280 5a 07 dd bd f6 b2 a1 be 58 33 1b 3e 47 01 de bd
       -0.10792418 -0.3158185 0.15156305 -0.108400874
000290 70 f3 81 3e 66 35 0b 3e a9 15 e6 3d ac 92 1b be
       0.2538104 0.13594589 0.112346 -0.1519267
0002a0 3f ba 78 be 15 62 9a be b0 14 13 3d 3e 6d 81 3e
       -0.24289797 -0.30152956 0.0359084 0.25278658
0002b0 e7 8a a7 bd 1b 00 5a be c8 84 52 bd 49 00 93 be
       -0.081807904 -0.21289103 -0.05139616 -0.28711155
0002c0 af 5c 37 be ee 41 5d 3e 0f 5e 2f be 83 a3 a4 3e
       -0.1790645 0.21607181 -0.17125724 0.32156
0002d0 31 32 5a 3e a4 41 80 bd 40 25 91 3e c8 d9 93 be
       0.21308209 -0.0626252 0.28348732 -0.2887709
0002e0 4a 38 a0 3e fd 54 44 be 55 71 82 3e cf e5 9e 3e
       0.31292945 -0.19173045 0.2547709 0.31034705
0002f0 a6 8b 77 be e9 1b 73 3c 13 0c ca bc cc 40 9a be
       -0.24174365 0.014838197 -0.02466396 -0.3012756
000300 57 60 c3 bc 0d a8 b2 be bc e1 4a 3e 95 65 b0 bd
       -0.02384965 -0.34893838 0.19812673 -0.08613125
000310 ad 57 95 be 98 5d c8 3d 77 68 03 3b 25 de b1 be
       -0.29168454 0.097834766 0.002005128 -0.34739795
000320 66 46 a5 3e 73 33 78 bd 7f d8 5b 3e 7e b0 31 3e
       0.32280272 -0.06059594 0.21469305 0.17352483
000330 c6 99 44 be e2 00 aa bd 67 66 44 3d dc aa 89 be
       -0.19199285 -0.0830095 0.04794922 -0.26888168
000340 41 e9 aa be 10 b0 8a be 0b 69 6d 3e 18 aa 55 3d
       -0.33381084 -0.2708745 0.23184602 0.052164167
000350 57 3f a4 3e 99 f4 8c 3d 74 e2 ad bd 31 d7 b4 be
       0.32079574 0.06882591 -0.08490458 -0.35320428
000360 0f 23 8b be 4c 66 00 3e f9 0d a6 bd c4 c8 3c 3e
       -0.27175185 0.12539023 -0.08108134 0.18435961
000370 45 4b f7 3d f8 63 c2 bd 80 9a 98 3d 52 47 f1 3d
       0.120749034 -0.09491724 0.074513435 0.117811814
000380 ae ad ad 3e 29 77 a8 3e 24 c7 36 3e 30 9b 9f 3e
       0.3392157 0.32903412 0.17849404 0.31173086
000390 5d 63 17 be 40 ba 89 3e 26 a5 8a 3e 54 09 62 be
       -0.14783998 0.2689991 0.27079123 -0.22073871
0003a0 c6 03 68 bd a8 2c 72 bd 59 95 86 3e 85 f9 9a be
       -0.056644224 -0.05912462 0.26285818 -0.30268493
0003b0 bd f9 98 be 15 24 49 be 1f 38 0d 3e 51 0e 5b 3d
       -0.29878035 -0.1964267 0.1379094 0.05348045
0003c0 1b 30 0e 3d 57 47 40 be ea a9 69 bc 5a b3 44 be
       0.034713846 -0.18777214 -0.014261702 -0.19209042
0003d0 0c ba 71 be 1e 67 d5 bd 70 ed 1d 3e d8 ef b4 be
       -0.23606128 -0.10420059 0.15422606 -0.35339236
0003e0 5d 41 63 3e 1f d2 b0 3e 3e d4 d3 bc de 64 26 3e
       0.22192903 0.3453531 -0.02585804 0.16249415
0003f0 14 18 a3 be e4 f1 bc 3e 94 a7 6c 3e 84 3a 80 3e
       -0.31854308 0.36903298 0.23110801 0.25044644

variational_latent.hidden_to_mu.bias f4 [15]
000000 01 7f f5 bd 01 9b ab 3d fd 63 2b 3c 19 ca 43 be
       -0.11987115 0.08379174 0.010460851 -0.19120063
000010 5d 9c a8 bd c2 d9 6f bd 04 d4 8c bd aa d1 e8 bd
       -0.08232949 -0.05855728 -0.06876376 -0.11368115
000020 d2 81 64 3d 42 ec 19 be bf 3f b2 3b 21 29 b4 3d
       0.05578787 -0.15031531 0.005439728 0.08796907
000030 e0 de 23 bc 38 70 0b be fb 16 03 be
       -0.010001868 -0.13617027 -0.12801735
