models/20200923_004701/epoch_0000_loss_3219893.59375.pt (torch, 261509 bytes, 116 tensors)

encoder.model.weight_ih_l0 f4 [120, 3]
000000 e8 5e f5 bd 3f d5 33 be ec 8f 19 3e 97 0c db bc
       -0.119809926 -0.17561816 0.14996308 -0.026739402
000010 f2 ea 05 bb 7a 79 13 3e a1 c0 c2 bd 78 b4 28 3d
       -0.0020434228 0.14401808 -0.09509397 0.041187733
000020 3c 40 e6 3d ba 14 10 be 7a 0c 08 3e d8 e4 73 3b
       0.112427205 -0.14070407 0.1328601 0.003721526
000030 87 64 85 bd 21 7d f1 3d c6 ba f0 bd 59 31 d1 bd
       -0.06513315 0.117914446 -0.11754374 -0.102144904
000040 78 33 1f be cf 19 a1 bc fc 60 24 3e 9f 79 fe bd
       -0.15546978 -0.019665627 0.16052622 -0.12425541
000050 93 a1 2b 3e 40 80 00 3e 45 db 11 bd cf 7a f2 bc
       0.16760854 0.12548923 -0.035609502 -0.029599575
000060 4a f2 82 bc ad 52 2e 3e 47 40 2b 3e 90 d2 65 3d
       -0.015984673 0.17023726 0.16723739 0.05610901
000070 51 af d2 bd e1 6a 69 bd 8b 15 6d 3c e9 7d cb bc
       -0.10287345 -0.056986693 0.014470468 -0.024840312
000080 66 2b 22 3e be e0 81 3d 14 1d 8b bd bc bd cd bc
       0.15836868 0.06341694 -0.067926556 -0.025114886
000090 d1 95 c9 bd 12 ac c7 bd 48 8e 0f 3c fa db 6f bc
       -0.09843028 -0.09749617 0.00876195 -0.014639849
0000a0 ac bd ad 3b bf f4 a0 bd 06 5c 8d bd 8f b9 ce bd
       0.0053021517 -0.078591816 -0.06902318 -0.10093986
0000b0 93 11 fb bd 36 8b 5b bd 7c 5b 24 3e e7 70 26 be
       -0.122592114 -0.05359956 0.16050524 -0.16254006
0000c0 ee b1 5a bd 87 84 1a 3e 1f 22 3b 3e 61 2b 11 be
       -0.053392343 0.15089618 0.18274735 -0.14176704
0000d0 d1 07 21 3c db 90 8a bd 71 1b 2c bd 1d b0 8e bd
       0.009828524 -0.0676591 -0.042018358 -0.06967185
0000e0 e5 c6 3d 3b e7 3d 3e be de 8c 23 be 3d 1e fe bc
       0.0028957662 -0.18578301 -0.15971705 -0.031020278
0000f0 d5 b1 2b 3d 55 f2 af bc 25 9c d7 3c cc b0 24 3e
       0.04191764 -0.021477858 0.026319573 0.16083068
000100 95 62 19 3d 86 2b ca bd 44 92 a6 3d 9e 4f d9 bc
       0.03744753 -0.09871583 0.08133367 -0.026527222
000110 7e 87 96 bc 16 2d e7 bd f4 f6 3d be f8 c2 b1 3d
       -0.018375155 -0.11287896 -0.18551236 0.086797655
000120 0e ec 11 3e dc b3 93 3d 90 0d 19 be 90 39 d5 3d
       0.14250204 0.0721204 -0.1494658 0.1041137
000130 db 73 40 3c e3 5c 99 3d 03 9d 27 3d 6b 57 1f 3e
       0.011746372 0.0748842 0.040921222 0.15560691
000140 a6 43 40 bd 04 f7 c4 bd 91 0b cd bd 8d 42 16 bd
       -0.046939515 -0.09617427 -0.10011972 -0.03668456
000150 4d 7d 16 be 4d 64 ec bd 3a b2 1d bd 1c f5 90 bd
       -0.14696236 -0.11542568 -0.03850005 -0.07078001
000160 9a 14 b1 3d 52 63 07 3d 36 07 56 3d 5b 64 09 be
       0.086465076 0.033053704 0.05225297 -0.13417189
000170 1b 1d 1e 3d ed 17 14 be 5f 97 39 be 1c 3e b6 3d
       0.038601976 -0.14462252 -0.1812415 0.08898565
000180 59 93 fb 3c 40 23 e1 bd a8 60 ef bc 69 ef 01 3e
       0.03070991 -0.109930515 -0.029220894 0.12688984
000190 bf ae f5 bd 55 de 10 3e ec 44 a0 bd 84 03 14 3e
       -0.11996221 0.14147313 -0.07825646 0.14454466
0001a0 f7 18 3e bc 3b 8d 26 be 4a e2 07 3e 42 b6 1c 3e
       -0.011602632 -0.16264813 0.13269916 0.15303901
0001b0 20 47 98 bd 78 3b e9 bd 8c fa 94 bd 7d 6a 6c 3d
       -0.07435441 -0.11388296 -0.072743505 0.057718743
0001c0 28 3e 9c 3d 7c d7 23 bb 87 e7 b9 3d 93 33 85 3d
       0.07629043 -0.0025000265 0.090773635 0.065039776
0001d0 ab b9 40 bd 97 30 2a be 9e c8 1c be b4 b1 c3 bd
       -0.047052067 -0.16620098 -0.15310904 -0.095553786
0001e0 41 31 8c 3d 68 03 1f bd 7b 88 9b 3d a4 5e 2a 3e
       0.06845332 -0.038821608 0.07594391 0.16637665
0001f0 90 ad bf 3d 42 4d 5e 3d f9 fc 33 3d bc 91 7b 3d
       0.09359276 0.054272898 0.043942425 0.06141828
000200 aa 39 e0 bd c7 e2 41 3d b6 91 0f 3d 7f a4 11 3e
       -0.109484985 0.047335412 0.03505107 0.14222907
000210 54 cf cf bd ac a9 c9 3d ea 74 3c 3d 31 9b 04 be
       -0.101469666 0.098468155 0.046009935 -0.12949826
000220 a5 b8 1e 3e e1 b8 4f 3d 85 06 78 bc 96 79 28 3e
       0.15500124 0.050713424 -0.015138273 0.16452631
000230 77 2e 23 bd 6a aa 21 3e 5d ad 17 be f0 64 f7 3d
       -0.039839234 0.15787664 -0.14812227 0.12079799
000240 53 c0 1b be b3 8e 0d be 4f 50 12 be 6d d0 a5 3d
       -0.15210085 -0.13823967 -0.14288448 0.08096395
000250 f7 e0 3c bd 76 fa 3b bd 63 b0 09 3d b4 c5 5e bd
       -0.04611298 -0.045893155 0.03361548 -0.054387763
000260 c2 54 16 bd 49 b7 24 be a5 5b 2f be d1 bb 11 3e
       -0.036701925 -0.16085543 -0.17124803 0.14231803
000270 7f 29 82 3c 01 8d 89 3c 06 30 84 bc 60 08 9c bd
       0.015888928 0.016790869 -0.01613618 -0.07618785
000280 59 53 b5 3d 79 5f 3e be 8e 2b 1e bd de 4f 0b 3e
       0.08853788 -0.18591107 -0.038615756 0.13604686
000290 8c 6e f2 3c eb fd 74 bc 5c d2 00 be 3c e9 5c bd
       0.029593728 -0.014953117 -0.12580246 -0.053933367
0002a0 15 b1 c7 bd 24 24 68 ba df c3 02 3d d8 d0 58 bd
       -0.097505726 -0.0008855483 0.03192508 -0.052933544
0002b0 5f 97 f7 bd 38 32 13 3d 1c d5 bf 3d e6 97 1d 3e
       -0.120894186 0.035936564 0.09366819 0.15389976
0002c0 06 33 28 3e 14 76 08 3e 61 66 f0 3d a3 35 36 bc
       0.16425714 0.13326293 0.11738277 -0.011121186
0002d0 54 74 24 be 56 1e 34 be 26 03 96 bc 9a e4 8f bd
       -0.1606 -0.17589697 -0.018312048 -0.07026024
0002e0 d7 2b 3f be be c1 30 be 7f 8c 11 3e 64 10 22 3e
       -0.18669067 -0.17261407 0.14213751 0.15826565
0002f0 8a dc d3 3d 76 1f af bd 17 af 34 3e be 8f 1c bd
       0.10344799 -0.085509226 0.17644916 -0.03822302
000300 d2 85 f9 3d c7 d2 0d be f8 a4 19 3e 8e 3f 8a bd
       0.12183727 -0.13849936 0.15004337 -0.06750403
000310 38 2e 96 bd 4d ec 0f 3e 5b 0e 17 3e e2 bf 36 bd
       -0.07333034 0.14054985 0.1475157 -0.044616587
000320 de 5f cf bd 73 89 c8 3c e3 5e a3 3d c5 b3 9f bc
       -0.10125707 0.024479603 0.079770826 -0.0194949
000330 a1 d0 2e be cc d3 b4 bc c8 36 66 b8 d1 99 2e bd
       -0.17071773 -0.022073649 -5.4887292e-05 -0.04262716
000340 ca 91 3a be cc f3 b4 3c aa 94 a1 bd f7 9e d5 bd
       -0.18219677 0.022088908 -0.078896835 -0.10430711
000350 44 70 9a bd 3d 6b 6d bd 6b 5f f2 3d c3 bf 9f 3d
       -0.07540944 -0.0579636 0.11834606 0.078002475
000360 8e a5 7b 3d 3e b9 b9 bd 70 05 af bd ef 74 ab bd
       0.061437182 -0.09068535 -0.08545959 -0.08371913
000370 3e 5d 63 bd c5 dc e7 bd 29 57 8c 3d 04 8f 8e 3c
       -0.055508845 -0.11321405 0.06852562 0.01740218
000380 04 79 3f be 89 ad ae 3d 28 24 99 3d cc 63 22 3e
       -0.18698508 0.08529193 0.074775994 0.15858382
000390 ec 74 10 be 3e 39 24 be ff ce b6 bd 15 fe 96 bd
       -0.14107102 -0.16037461 -0.089262 -0.07372681
0003a0 66 52 e2 3d 69 c9 2c be 38 2e dc bd b0 ed b4 3c
       0.110508725 -0.16873707 -0.10751003 0.022085994
0003b0 e6 0c d3 3c d2 22 77 bd af 87 3f 3e 59 8f 90 3b
       0.025762986 -0.06033594 0.18704103 0.0044116196
0003c0 f8 24 82 bd 8d 11 33 bd 68 fb e1 bd 2b 02 61 3c
       -0.063547075 -0.04371791 -0.1103428 0.013733427
0003d0 73 58 36 3d d5 47 0a 3d 0c 7d 39 be 41 97 8f 3c
       0.044517945 0.03375991 -0.18114108 0.017528178
0003e0 88 31 94 3c 74 9d ca 3d 94 d5 de bd 55 c9 a1 bd
       0.018090025 0.09893313 -0.108805805 -0.07899729
0003f0 10 0e a2 3d 8a b4 87 3d 43 06 fa bd 0e 00 9d bd
       0.079128385 0.06626232 -0.122082256 -0.07666026

encoder.model.weight_hh_l0 f4 [120, 30]
000000 e4 c9 e3 bd f0 82 23 be 8e 95 e0 3d 40 b0 12 be
       -0.11122492 -0.15967917 0.10966025 -0.14325047
000010 c6 a9 b4 bd e4 92 ad bc aa dc 9c bd 66 d9 0a 3d
       -0.08821444 -0.021188207 -0.07659276 0.033898734
000020 8e 16 a3 bd 2c 75 0c 3e 84 d9 28 3e 70 ea 6e 3d
       -0.07963286 0.13716573 0.16489226 0.058329046
000030 0c 54 cd bd cf 34 3d 3e 8e 90 1a 3e e7 7a 9e bd
       -0.10025796 0.18477176 0.15094206 -0.077382855
000040 94 ba 7f bd 1e 75 01 bd bb 92 27 3e 6d f2 83 ba
       -0.062433794 -0.031605832 0.16364567 -0.0010066755
000050 a0 93 bc 3d 5c 7e 34 be e6 1a 8c bd 72 f2 e3 bd
       0.09207845 -0.17626327 -0.06841068 -0.11130227
000060 56 4d 2a be 15 00 a1 bd 57 7e 32 be 30 76 31 be
       -0.16631064 -0.07861344 -0.17431007 -0.17330241
000070 8d d5 23 be b9 be 07 bd 63 29 28 3e c4 84 f5 bc
       -0.15999432 -0.03314087 0.16422038 -0.029970534
000080 bf 6e 4c bd 21 9b 56 bd 9f 12 7f 3c 53 78 0d 3e
       -0.049910303 -0.052394036 0.015568404 0.13815431
000090 66 5c 30 be 94 a2 16 bb 3f 2e 0e 3e 6d bb 51 bd
       -0.17222747 -0.0022985088 0.13884829 -0.051204134
0000a0 71 70 89 bd 69 03 ca 3d 5a 67 1c be fe 35 1e bd
       -0.067108996 0.09863932 -0.152738 -0.03862571
0000b0 0e 79 a5 3d 48 ae 3e bd 04 cd b2 bd 21 a6 2c 3e
       0.0807973 -0.046552926 -0.0873051 0.16860248
0000c0 16 fe 37 bd 9d ec 67 3d 3e 3d 27 3e 70 bd e6 bd
       -0.04492005 0.056622136 0.16331956 -0.11266601
0000d0 d8 0d 30 be 19 19 68 bd f0 1d b8 bd 26 f0 70 bd
       -0.17192781 -0.05666456 -0.08990085 -0.058822773
0000e0 0a 5b d5 bd 32 b3 5f bd 93 7a 30 be 02 d0 16 bd
       -0.10417755 -0.054614253 -0.17234258 -0.036819465
0000f0 c6 fe ac 3d 80 7c 0f 3e f2 e0 c5 3d 2e 12 7f ba
       0.08447032 0.14012337 0.096620455 -0.0009730187
000100 34 3b 01 3e ff 73 32 3e af 6b 77 bd 68 9a 54 3d
       0.1262024 0.17427061 -0.06040543 0.051905066
000110 8c c9 c8 bd 66 85 6d 3d 91 1c d9 bc 97 d6 17 bd
       -0.09804067 0.057988547 -0.02650288 -0.037069883
000120 25 38 3f bd 2d 0e 26 bc e4 a2 a9 3d 8c 6a 24 3e
       -0.046684403 -0.010135216 0.08283022 0.1605627
000130 73 bc f9 bb 95 fe 88 3c ef 51 b9 3d 16 79 06 be
       -0.007621342 0.016722957 0.09048831 -0.13132128
000140 21 f8 3d 3e 4d 4c b3 3d 35 c8 3e bd c6 ae 87 3d
       0.18551685 0.087547876 -0.04657765 0.06625132
000150 bd cb 2d bd 3d f6 3f bd 79 58 8e 3d ea 37 01 3e
       -0.042430628 -0.04686569 0.069504686 0.12618986
000160 76 de 1b bd 8a 56 ef 3d c6 8d 9e 3c 72 2d 21 bc
       -0.038053952 0.11686428 0.019354712 -0.009837495
000170 6c 1a 0c 3e 2f f6 e9 3d 16 e3 aa bd a6 8e db 3d
       0.13681954 0.11423909 -0.083440945 0.107205674
000180 6d ba c0 bd bf c7 d1 3d d0 c8 4f bd 35 c2 ea bd
       -0.09410558 0.10243177 -0.05072862 -0.11462823
000190 da ac 91 bd 62 b4 9c 3d ec 4b 92 3d 97 2b 0e 3e
       -0.07113047 0.07651593 0.07143387 0.13883816
0001a0 27 ea 07 be 1b cb 29 3d d9 f3 c9 3d 74 49 b4 3c
       -0.13272916 0.041453462 0.098609634 0.022007681
0001b0 2a aa 03 be 4d 0f b7 3d 95 c0 20 3e 79 e5 28 3e
       -0.12857881 0.08938465 0.15698464 0.16493787
0001c0 73 fb a4 3d 8b 3a 23 be 7b d9 fa bd 5e 2f 32 3e
       0.08055773 -0.15940301 -0.12248512 0.17400882
0001d0 73 e1 2e be d0 37 3b 3c f0 a5 97 3d 52 d3 27 be
       -0.1707819 0.011426881 0.07404697 -0.16389206
0001e0 6d ca f1 3d 3f e1 1a be 92 19 94 bd 4d 94 82 3d
       0.11806188 -0.15124987 -0.0723144 0.063759424
0001f0 02 e6 10 be 8a 65 2d bd b9 88 dd bd 95 7a a6 bd
       -0.14150241 -0.042333163 -0.108170934 -0.081288494
000200 1f d5 e5 bd b4 bf b1 bd 73 ce 25 be af 98 7e 3d
       -0.1122229 -0.086791426 -0.16192035 0.06215733
000210 ac 95 36 bc d7 34 39 be 3f 2a 2e be 7a 36 c7 3b
       -0.011144083 -0.18086563 -0.17008303 0.006079492
000220 4d 21 04 be 8e 00 a7 bd 3d 68 99 3d ee af ec 3c
       -0.12903328 -0.08154403 0.07490585 0.028892484
000230 97 a1 33 bd 11 51 22 3d 04 fe 58 3d 02 10 08 be
       -0.043855276 0.039628092 0.052976623 -0.13287356
000240 9b 86 29 be a5 8e 34 3e e6 3f 3c be 2a bf f0 bc
       -0.16555254 0.1763254 -0.1838375 -0.02938803
000250 f6 d6 cb 3d 94 19 b6 3b e7 ba 38 3e 77 e6 0a 3e
       0.0995311 0.0055572484 0.18040048 0.13564478
000260 27 c4 8c bd fa cd 02 3e 8f 14 8c bd 14 e2 fa 3d
       -0.068733506 0.12773886 -0.06839859 0.12250152
000270 40 63 8f bd 38 de 0b 3e 27 07 b8 bc 27 1b 2d be
       -0.07001352 0.13658988 -0.022464348 -0.16904889
000280 e1 3c 54 bd ea 89 d9 bc f2 0c 13 be 69 1d 18 3e
       -0.05181587 -0.02655502 -0.14360407 0.14854969
000290 f7 76 1b 3d 42 4b 39 3e 35 16 f4 3c 7f 99 9f bd
       0.03795525 0.18095115 0.029795745 -0.07792949
0002a0 91 b5 0a bd 73 45 5c bd 3e 62 bb bd 05 a2 ee bd
       -0.03386456 -0.05377717 -0.091495976 -0.116519965
0002b0 6d 7c 27 3e 62 cd 0d be ed 21 d2 3c 5a 31 ec 3c
       0.16356058 -0.13847879 0.025650943 0.028832126
0002c0 c3 0f b0 bd 6a 05 91 bd b3 78 41 3c 8a 99 41 3d
       -0.08596756 -0.07081111 0.011808562 0.047265567
0002d0 f9 62 ee 3d d5 ba f6 3d 1a b0 3d be 5b ec 1c be
       0.11639971 0.12047354 -0.18524209 -0.15324537
0002e0 dc 69 a9 3d 49 96 3f bd 9d fa c6 bc 00 07 03 be
       0.08272144 -0.046774182 -0.024289424 -0.12795639
0002f0 0b 49 9f bd 51 f2 e3 3c 53 a5 7f bd 65 16 b6 bd
       -0.07777604 0.027825506 -0.062413525 -0.0889099
000300 74 0b 16 3d 54 6c ec bd 57 1f 19 3e 6f 95 ee 3d
       0.036632016 -0.115440995 0.14953361 0.11649596
000310 68 ee 7c bd e5 75 24 be ad 1f 01 3e 52 22 8c 3b
       -0.0617508 -0.16060598 0.1260974 0.0042765522
000320 1e a8 f2 3d c3 f1 bf bb 70 fe f0 bd 79 57 2f be
       0.11848472 -0.0058576777 -0.1176728 -0.17123212
000330 50 83 bf bb 27 07 65 bd 44 34 58 bc 51 ae 88 bd
       -0.005844511 -0.055915024 -0.013196055 -0.06673873
000340 8c dc 89 3d 3a 81 37 be 51 cf be 3d 65 73 2d be
       0.06731519 -0.1792039 0.09316886 -0.16938551
000350 61 fa 04 be b8 e1 0c be dd 30 41 3d d3 84 96 bd
       -0.12986137 -0.1375798 0.04716574 -0.07349553
000360 ac b0 8c bb 7e 92 e7 3c ee 76 2b bd 9d 81 1f 3e
       -0.004293522 0.028268095 -0.041861467 0.15576787
000370 6e 8d e3 3c eb 33 a8 3d 6b f2 02 be fe 8b 30 be
       0.0277774 0.082130276 -0.12787788 -0.17240903
000380 27 53 26 bd 04 37 0a 3e e2 57 81 3d a7 60 7c bc
       -0.040606644 0.1349755 0.063155904 -0.015403903
000390 19 83 8d bc 0f 6f 8c ba 34 5d 56 bd 92 c1 08 be
       -0.017274426 -0.001071425 -0.05233498 -0.13355091
0003a0 bb 14 f8 3c 93 ae 99 bd fe 81 80 bd 73 fc 08 3e
       0.030283323 -0.075040005 -0.06274794 0.13377552
0003b0 0d 82 e8 3d 7e e1 eb 3d 41 1f 1b be 0f 21 95 3d
       0.1135293 0.115176186 -0.15148641 0.07281696
0003c0 7a 12 b7 bd 72 8b 00 be 9e 4f 3d be d0 0b 9a bd
       -0.08939071 -0.12553194 -0.18487403 -0.07521784
0003d0 dd f1 0f be c4 64 23 3e bd 4f ce bd 4c d6 9c 3a
       -0.14057107 0.15956408 -0.100738026 0.0011965721
0003e0 a1 de fb 3d 83 3b fe bd e3 e0 f8 3d d0 8f fe 3c
       0.122983225 -0.12413695 0.12152269 0.031074435
0003f0 0d c0 a0 3c 5e 0e 5e 3b 25 c5 d7 3d dd 37 b8 bd
       0.019622827 0.0033883075 0.10535649 -0.0899503

encoder.model.bias_ih_l0 f4 [120]
000000 0f 69 0f be 65 6c 37 3e aa 89 02 3e 82 aa 5f 3d
       -0.1400492 0.17912443 0.12747827 0.05460597
000010 e7 00 4e 3d d6 5a d4 3c fa 12 9e 3d 5c 6d 25 be
       0.05029383 0.02592222 0.07718463 -0.16154999
000020 33 33 9b bd 78 cc 9b bb 88 5f ce 3d dc fd 85 bb
       -0.07578125 -0.004754599 0.10076815 -0.0040891003
000030 d0 56 86 3d 20 fe d6 bd 53 2e d3 bd 9c eb 2a 3e
       0.06559527 -0.10497689 -0.1031157 0.1669144
000040 d2 7b 22 3e e8 3c e8 3d 78 35 83 3c 6a bf 02 bd
       0.15867546 0.11339742 0.016016707 -0.031920828
000050 76 e4 9c bd 05 dc 2b be 53 4a 3f 3d 56 ff 12 3e
       -0.07660763 -0.1678315 0.04670174 0.14355215
000060 6e dd 95 bd a1 4e 81 bb 98 af 83 3d ad f1 70 3d
       -0.07317625 -0.003946141 0.06429976 0.05882423
000070 67 95 be bc 93 d3 e6 3d 78 86 de 3c 05 64 91 3c
       -0.0232646 0.11270823 0.02716373 0.017747888
000080 79 94 e7 bd 66 8f 0d be 9f ff 8c bd 4c 16 16 be
       -0.11307616 -0.13824233 -0.06884693 -0.14656943
000090 a4 b3 78 3d 5a be 9e bd a6 86 96 bd 00 a4 df 3b
       0.060718194 -0.077511504 -0.07349901 0.0068249702
0000a0 81 7c 50 bd de 38 b6 3d 4d 94 24 be 04 a1 4b bd
       -0.050899986 0.08897565 -0.16072197 -0.049714103
0000b0 2d 20 85 3d 8f 9c cc 3c 6b 15 21 be 4b 25 e7 bd
       0.06500278 0.024976997 -0.15730827 -0.1128641
0000c0 02 c0 6f bb 62 4f 6f 3d b4 66 19 bd fb 8d 02 3e
       -0.0036582951 0.058425315 -0.03745146 0.12749474
0000d0 fc 49 4c 3d f9 a8 b0 bd 34 a9 bd bd be 88 13 3e
       0.049875244 -0.08625979 -0.092607886 0.14407632
0000e0 33 38 05 be 49 15 d1 bd c7 f4 0c 3e b4 25 9a bc
       -0.1300972 -0.10209138 0.1376525 -0.018816806
0000f0 3d d7 dd 3d e3 41 bd 3d 04 7e 39 be 41 fc 63 3d
       0.10832069 0.092410825 -0.18114477 0.05566049
000100 e3 4c 93 bd 5f 75 f1 3d 67 e2 4a 3c db 3c fc 3d
       -0.07192399 0.11789965 0.01238308 0.12316295
000110 60 9d fb bd f9 9a f4 3c ea 06 d9 bd 09 9d 30 3e
       -0.12285876 0.029859053 -0.10597022 0.17247404
000120 2b b2 54 3d a8 c8 a3 ba 35 a3 be bd f8 64 3e 3e
       0.051927727 -0.0012495713 -0.09308473 0.18593204
000130 e7 2b 3e 3d 0c 06 59 3d a2 0b d2 bc 32 58 36 3c
       0.046428587 0.052984282 -0.025640313 0.011129426
000140 2e c7 0a 3e 50 9e 01 3d 1e 5e dd bd 00 3b 1c 3c
       0.13552544 0.03164512 -0.10808967 0.009535551
000150 e3 aa 49 bd d5 fb c9 bd 4d 2e f5 bd de 43 d6 3d
       -0.049235236 -0.09862486 -0.11971722 0.104621634
000160 2d 58 1a 3e 96 d4 ce bd 19 cc 41 3d 81 99 9e bc
       0.15072699 -0.10099141 0.047313783 -0.019360306
000170 9b 5e 31 be 69 3d ef 3d bf f0 39 3d c3 e4 c3 3d
       -0.17321245 0.11681635 0.04539561 0.09565117
000180 f8 ae 80 bd 42 f3 07 3e 6b 80 d3 bd c4 09 2f be
       -0.06283373 0.13276389 -0.10327228 -0.17093569
000190 58 f5 3c 3e 66 1e 89 bd 80 0c 8c 3d 95 38 15 be
       0.18452966 -0.06695251 0.06838322 -0.14572366
0001a0 73 ec 78 bd 69 f6 c1 bd 56 41 8c bd 3d 7b 36 3e
       -0.06077237 -0.09470827 -0.06848399 0.17820449
0001b0 06 94 39 3e 21 d9 24 be 6c 29 b4 3d 05 37 d2 3d
       0.18122873 -0.16098453 0.08796963 0.102644004
0001c0 46 fa ba 3d e0 52 f5 3d 93 60 98 3d 46 d0 af 3d
       0.09129767 0.11978698 0.07440295 0.08584647
0001d0 ed 40 e4 bd ee 78 c9 3c c5 be ff bd ac c9 21 3e
       -0.11145196 0.024593797 -0.12487558 0.15799588

encoder.model.bias_hh_l0 f4 [120]
000000 03 d9 31 3e 2b a5 38 bd 1b 5f a9 bd 1b 66 13 be
       0.1736794 -0.04507939 -0.08270093 -0.14394419
000010 6b 22 1c be 3f 1e f5 bd 55 b6 ad 3c 95 3c 2b be
       -0.15247504 -0.119686596 0.021205107 -0.16722329
000020 2e b9 fd bd bb c4 e1 3c 7e e9 97 3d 32 cc d8 3d
       -0.12388836 0.027559629 0.07417582 0.10585822
000030 e0 e4 25 3e a5 fa 6e bc c9 da bc 3d 64 5c 87 bd
       0.1620059 -0.0145861255 0.092214175 -0.06609419
000040 96 5b 0c be 6f ba 66 bd 24 17 6c 3d e7 ca ec bd
       -0.13706812 -0.05633014 0.057639256 -0.11562138
000050 77 6e 73 ba 10 88 02 be ba e6 7a bd 61 24 35 3c
       -0.0009286175 -0.12747216 -0.061255194 0.011056037
000060 eb 59 4d bd db cf bf bc 24 c1 38 3e 62 3a d3 3d
       -0.05013458 -0.023414543 0.18042427 0.1031387
000070 71 70 17 3e c0 7d d2 3c 3b bd bb 3c f7 3e 81 bc
       0.14788987 0.025694728 0.02291738 -0.015777094
000080 c1 c4 d2 bd cc 4e 27 3e 30 d3 1a be 5f b0 c1 3d
       -0.10291434 0.16338652 -0.15119624 0.09457468
000090 15 e4 32 3e e0 70 9b bb b8 6c 9f 3d 2a 1c d9 bd
       0.17469819 -0.0047436804 0.07784408 -0.10601075
0000a0 24 da 86 3c 97 53 18 3e ee ea dd 3d 89 27 c4 3d
       0.01646144 0.14875637 0.10835825 0.09577853
0000b0 d8 0f 27 bd 4d cb 3b 3e cc 07 28 bc aa 01 2c be
       -0.040786594 0.18339272 -0.010255765 -0.1679751
0000c0 21 e3 b8 bc 26 74 22 bc 6f 0b 11 3c 4a 07 2d be
       -0.022569241 -0.009915387 0.008852824 -0.16897312
0000d0 e4 b8 e1 bd 7f fa 50 3d e6 0d 7c 3d e3 3e ec bd
       -0.11021593 0.05102014 0.061536692 -0.11535432
0000e0 fd 5f 2d be 99 23 9c bd 3e 02 21 3e 3c 00 13 3c
       -0.16931148 -0.07623977 0.15723512 0.008972224
0000f0 48 e4 09 be 0e 72 6c bd c6 89 36 be 27 c4 b4 bd
       -0.13465989 -0.05772596 -0.17825994 -0.088264756
000100 2e ad 2e 3e 41 75 2c be 39 c9 43 3e 33 42 02 3e
       0.1705825 -0.16841604 0.19119729 0.12720565
000110 a4 12 e6 bd 40 1e 2a 3e b5 34 38 3e 83 aa b3 bd
       -0.11234024 0.16613102 0.17988856 -0.08772757
000120 58 41 06 3e 11 92 94 bb 4a dc 2b 3e 5c 5f bf 3d
       0.13110864 -0.004534014 0.16783252 0.0934436
000130 7c ad 0b 3e 07 12 0e 3e 41 e6 1f be f7 8f d8 bd
       0.13640398 0.13874064 -0.15615179 -0.10574334
000140 db a8 75 bc 7f 92 31 3b 1f 0d 57 bd 70 5e a1 3d
       -0.014993872 0.0027095375 -0.052502748 0.07879341
000150 a6 d8 b8 3c 01 8a 4c 3d 43 4f 24 be c4 a1 b8 bd
       0.022564244 0.0499363 -0.16045861 -0.09015229
000160 1d 0e 2f be 3d 07 61 3d 7b 67 0a 3e 02 81 f5 3d
       -0.17095228 0.054938544 0.13516037 0.11987497
000170 15 62 19 be 81 fd 0d 3d d8 04 73 3d 72 b6 02 be
       -0.14978822 0.03466559 0.05933079 -0.1276491
000180 37 be d2 bd 68 13 1a bc 6c e7 ed bc 1e ef f9 3c
       -0.10290187 -0.009404041 -0.029041015 0.030509528
000190 f4 67 70 bd 07 12 9b 3d 10 58 64 3d 4b 22 86 bc
       -0.058692887 0.07571798 0.055748045 -0.016373774
0001a0 3d f1 1f bc ef 7a 3b 3e c4 19 ea b7 48 f1 1a be
       -0.0097621055 0.18308614 -2.7906972e-05 -0.15131104
0001b0 9a 7e 3c bd 5c 3d 0b bd d1 e9 6f 3d 97 dc 28 3e
       -0.046019174 -0.033994064 0.058572594 0.16490398
0001c0 d7 9a 34 be e9 10 28 3c 8b d7 bd bd 17 60 2e be
       -0.17637192 0.010257938 -0.09269627 -0.17028843
0001d0 42 20 05 be 70 3c b3 bd 7a 60 01 3e a7 aa d9 bd
       -0.13000587 -0.08751762 0.12634459 -0.106282525

encoder.model.weight_ih_l1 f4 [120, 30]
000000 c1 46 06 be 7f 3c da bd 3d 23 48 bd c8 c5 f8 bd
       -0.13112928 -0.1065607 -0.04886173 -0.12147099
000010 52 c5 06 3e 2d 33 31 3d 19 31 11 bd bf b3 23 3e
       0.13161209 0.043261696 -0.035447214 0.15986536
000020 88 2d 02 3e 19 36 64 bd 88 30 87 3d 75 cf 21 bc
       0.12712681 -0.055715654 0.066010535 -0.009876122
000030 13 cd 94 bd 84 81 35 be 66 5b 17 bd 1f 3f 4b 3d
       -0.07265677 -0.17725188 -0.0369524 0.049620744
000040 05 5f cb 3d 59 5a f4 3d 6d 80 03 3e 98 24 6a 3b
       0.09930233 0.11931295 0.1284196 0.0035727378
000050 d0 18 2d be 24 a7 33 3e 88 dd 81 3d 6f 62 40 3e
       -0.16903996 0.17544228 0.06341082 0.1878755
000060 e7 25 1f 3d 5e 64 d8 3d 86 90 c8 bd 92 ae d5 bd
       0.038854506 0.105660185 -0.09793191 -0.10433687
000070 35 28 2f bd ac ae 03 3e 84 c8 2b bc 4d 13 35 bd
       -0.042762954 0.12859601 -0.010484818 -0.04420786
000080 e5 46 e9 3d 4c ef 23 3e 15 f5 9c bc 26 af 88 3d
       0.11390475 0.16009253 -0.019159833 0.06674032
000090 e6 33 b1 3d e1 59 83 bd 1a dc bc bc 77 5b 30 3d
       0.08652477 -0.064136274 -0.023054171 0.043055978
0000a0 97 dd e0 bc e4 3e 8b bd 12 3e de 3d 70 f6 01 bd
       -0.027449412 -0.06799105 0.10851683 -0.03172916
0000b0 28 8d 35 3e 6d 35 17 3e 3e 0b 37 bd f1 bf 31 3e
       0.17729628 0.14766474 -0.044688456 0.17358376
0000c0 ab 98 ac bd 2a f9 15 3e 7f d3 85 bd 83 54 0f be
       -0.084275566 0.1464583 -0.0653448 -0.13997082
0000d0 e8 42 7e 3d af cd d5 3c ee a4 cb bd 33 33 89 bd
       0.062075526 0.026099054 -0.09943567 -0.066992186
0000e0 e9 96 49 3c 1d 1f a8 3c 9b b0 07 bd 6d 97 21 3e
       0.012304046 0.020522648 -0.03312741 0.1578042
0000f0 a0 12 2b 3e 90 e2 3c be fe b9 ab 3d a6 db ba 3c
       0.16706324 -0.18445802 0.083850846 0.022809815
000100 fd e0 24 be 49 22 28 be fd 79 09 3d f0 cd 31 be
       -0.16101451 -0.16419329 0.033563603 -0.17363715
000110 b7 1e 0b 3d 4d 21 0c be b0 52 3a be d2 ec 20 be
       0.03396484 -0.13684578 -0.18195605 -0.1571534
000120 d9 c9 26 3e 6e 55 18 be b9 78 32 be bf 79 02 3e
       0.16287936 -0.14876339 -0.17428865 0.12741755
000130 4d 81 cb bd 38 1d 22 3b f7 3b f7 3d cf 28 0e 3e
       -0.099367715 0.0024736654 0.12071984 0.13882755
000140 97 74 f5 3c d2 4b 27 be f5 85 f7 3d ce 49 48 bd
       0.029962821 -0.16337517 0.12086097 -0.04889851
000150 73 9e 92 bd df ad d7 bd 3d 4b d2 3d 24 90 08 3e
       -0.07159128 -0.1053121 0.10268257 0.13336235
000160 cc c1 22 3e b9 b2 f2 bd 99 95 2e 3e 60 95 cd 3d
       0.1589424 -0.11850495 0.17049254 0.10038257
000170 a1 5a 35 be 9e 2c d0 3d c0 39 d4 bb 7b aa 53 3d
       -0.17710353 0.1016476 -0.006476611 0.051676255
000180 94 bb 8b bd 4e 21 43 3e 71 14 99 bd d8 f9 e2 bc
       -0.06822887 0.19055673 -0.07474602 -0.027707025
000190 b0 ec 25 be a2 a7 62 bd 87 7b b7 3d 4c 56 3f 3d
       -0.1620357 -0.05533565 0.08959108 0.04671316
0001a0 45 cf 46 3d 3f aa f5 3d 70 8a ec 3b 67 35 72 3d
       0.04853751 0.119953625 0.0072186515 0.05913296
0001b0 91 4d 89 bb f7 1f 43 3d 28 00 19 be bc 6b 15 3e
       -0.004190155 0.047637906 -0.14941466 0.14591879
0001c0 f4 97 13 3e 10 29 c9 3d 5e d8 11 be 38 c8 cf 3d
       0.14413434 0.09822285 -0.14242694 0.101456106
0001d0 b2 9f 08 3e 4c e3 2e be 81 4d 67 bd 6c 64 ce 3d
       0.13342169 -0.17078894 -0.056470398 0.10077748
0001e0 1f a6 2a 3e 02 d0 89 bd 0d 2c cb 3d 1c 73 b2 bd
       0.16664933 -0.067291275 0.099205114 -0.087133616
0001f0 78 38 54 bc f2 cf 98 bd 3a 1a 7b bd cd 98 13 be
       -0.012952916 -0.074615374 -0.06130431 -0.14413758
000200 ee a7 00 be 28 bc a8 bd 51 a6 53 bb 7c 23 0d be
       -0.1256406 -0.08239013 -0.0032295177 -0.13783067
000210 67 1c cc 3d 27 4d 28 be d6 9e 35 be 75 05 10 3e
       0.09966355 -0.16435681 -0.17736372 0.14064582
000220 66 f0 47 bd 03 5c b7 bd 4a f4 5b 3d 8c 50 28 bd
       -0.048813246 -0.08953097 0.05369977 -0.04109244
000230 25 aa 00 3c dc f2 fe bd d0 b5 2d 3e 57 51 fd 3d
       0.007853066 -0.124486655 0.16963887 0.1236903
000240 2c 69 c9 bb 44 2a 17 bd 6f e3 59 bd 89 da 2e be
       -0.0061465707 -0.036905542 -0.053195413 -0.17075552
000250 68 ab b2 3d b0 8e d1 3c 6b 99 ca 3d 6e 9c 40 3e
       0.087240994 0.025580734 0.098925434 0.18809673
000260 11 30 a4 3d c0 ba db bd 4a 53 18 3d fa 29 08 be
       0.080169804 -0.10728979 0.037188806 -0.13297263
000270 46 b7 fb bc df 51 96 3b 88 a5 44 3d 48 ee 3d bd
       -0.03072704 0.0045873965 0.048009425 -0.04636982
000280 5f 23 ad bd 31 1c 70 3d b6 3c cf 3d 33 9c 2a bd
       -0.08454012 0.058620635 0.101190016 -0.04165287
000290 7d a7 a9 bd 29 6c cd 3d 88 7f 2d be 9d 47 be 3b
       -0.08283899 0.100303955 -0.1694318 0.005806877
0002a0 a8 08 b5 b9 5c dd a2 bd a0 18 c1 bd 9e 46 20 3e
       -0.0003452946 -0.07952377 -0.09428525 0.15651938
0002b0 bd b2 9f bd 60 87 1b 3e ed fe 73 bd 9b 3b e4 3d
       -0.077977635 0.1518836 -0.059569288 0.11144181
0002c0 22 b0 2f be 15 d0 b7 3d 9a ce 5b bd cd 81 45 3d
       -0.17157033 0.089752354 -0.053663827 0.04821949
0002d0 18 db 25 3e 5f 35 d2 3d e1 1b ce 3d fc 5f d4 3d
       0.16196859 0.10264086 0.10063911 0.1036987
0002e0 dd ce 18 be 3a 73 a7 3d 74 21 15 3d c4 22 c1 3d
       -0.14922662 0.081762746 0.036408857 0.09430459
0002f0 2d f7 15 be 54 68 fc 3d 84 71 26 be 90 dd 9b 3d
       -0.14645071 0.123245865 -0.1625424 0.07610619
000300 8f c5 c5 bd 25 57 36 bd e6 88 70 bd 27 e5 30 3e
       -0.09656822 -0.0445167 -0.058724307 0.17274915
000310 25 2f 21 be 1a 41 48 bd 6b 7f ce bd 82 78 69 3d
       -0.1574064 -0.04889021 -0.10082897 0.05699969
000320 4f 2c 09 be 36 56 21 3e d4 62 94 3c 5d 45 7e 3d
       -0.13395809 0.15755543 0.018113531 0.06207787
000330 56 2c 2b 3e 4c 36 20 be 7a 8f 94 bd 89 e9 2f bd
       0.16716132 -0.15645713 -0.072539285 -0.042947326
000340 5a c7 19 3d d9 5d ab 3d 1d 2e d1 bd df 78 86 bd
       0.037543632 0.083675094 -0.102138735 -0.06566023
000350 1d 48 dd 3c 05 90 6a 3d c4 6f 12 be 54 bc cb 3d
       0.027011925 0.057266254 -0.14300448 0.0994803
000360 21 b4 c1 3c 7c b2 30 3e 16 3b af bd ef fb ca bd
       0.023645462 0.17255586 -0.085561916 -0.09911334
000370 5c 5c 1f 3e 91 6a 2f be e0 24 1c 3e 3b a8 81 3d
       0.15562576 -0.17130496 0.15248442 0.063309155
000380 bd a4 06 3e 11 dd 0a be 2d 50 f3 bd eb 09 d2 bd
       0.1314878 -0.13560893 -0.11880527 -0.10255798
000390 57 e0 31 3e b8 27 f5 bd 25 e6 86 bd d1 ef 8d 39
       0.17370735 -0.119704664 -0.06586865 0.00027072293
0003a0 44 70 94 bd 1d 0a db bc ce ff 98 bc 9f 0b bf bd
       -0.072479755 -0.02673822 -0.018676665 -0.093283884
0003b0 c4 2f 26 3e 74 a1 1c 3e db b8 23 3d 34 44 8e bd
       0.16229159 0.15295964 0.039971214 -0.069466025
0003c0 7d 38 b9 bc 26 f0 c0 3d ed 7a 6d bd fa a4 20 3c
       -0.022609944 0.09420805 -0.05797856 0.0098049585
0003d0 9b 62 24 bd 28 5a 39 3d 19 68 04 bd 72 29 a9 bd
       -0.0401331 0.045251995 -0.032325838 -0.08259858
0003e0 6b ae 1d be 7a d0 da 3b 04 12 21 be 46 d9 8b 3d
       -0.15398566 0.0066776844 -0.15729529 0.06828551
0003f0 9f d8 1c be 10 8a c7 bd e0 8b 90 3d 7e e2 bd 3b
       -0.1531701 -0.0974313 0.07057929 0.0057948222

encoder.model.weight_hh_l1 f4 [120, 30]
000000 da 61 f9 bd a1 cd 31 3e 3f 36 21 bd 0b 71 05 be
       -0.12176867 0.17363597 -0.039358374 -0.13031404
000010 37 52 35 bc e6 65 7d 3a 14 3a 3e 3e 56 94 32 be
       -0.011066965 0.0009666368 0.18576843 -0.17439398
000020 f6 93 1b be 5d 34 16 be 7e 17 e3 3c 58 25 d9 3d
       -0.15193161 -0.14668413 0.027721163 0.10602826
000030 46 3d aa bc 48 5d 8a bc a7 b3 1c be 2c 75 cf bc
       -0.02078117 -0.016890183 -0.15302907 -0.025324427
000040 90 b2 d7 3d e1 24 bf bc 8e ab 00 be 4e 60 3f 3e
       0.10532105 -0.023333015 -0.12565443 0.18689081
000050 a1 0b ac bd fc 09 d7 3b a1 97 a4 3c 78 d3 18 3e
       -0.084006555 0.0065624695 0.020091834 0.14924419
000060 a3 ec 8c 3a 2c 7f ec bc 51 2c c4 3d 26 58 d2 bd
       0.0010751676 -0.028869234 0.09578765 -0.10270719
000070 59 82 41 3e 64 4d f7 bd 4c 86 29 3e 47 2e 12 3e
       0.1889738 -0.12075308 0.16555136 0.14275466
000080 27 84 3a 3e 79 0a ab bd 93 44 ac 3c 67 f9 0c be
       0.18214475 -0.08351607 0.021028792 -0.13767014
000090 d6 03 b5 bc 5f 6b d4 bd 24 36 dd bd 9a 5d 2c bc
       -0.022096556 -0.10372042 -0.10801342 -0.010520363
0000a0 7e e1 b3 3d d8 28 83 bd 7b 39 f3 3d 18 ff 55 bd
       0.087832436 -0.06404275 0.11876198 -0.05224523
0000b0 9a 4a f0 3d 14 2d 24 3e 82 33 3a 3d b6 16 93 bd
       0.11732979 0.16032821 0.045459278 -0.07182066
0000c0 c5 d7 18 3d 02 48 69 3d 70 98 f4 bd c5 6c 34 be
       0.03731515 0.056953438 -0.11943138 -0.17619617
0000d0 e2 32 2b bd b4 d8 d4 bc 50 8c 3a 3e 14 7a 27 3e
       -0.041796573 -0.025982238 0.18217587 0.16355163
0000e0 00 3b bf bc d0 43 ef bc 5b b2 3b 3e dd 0c 31 be
       -0.023343563 -0.02920714 0.18329756 -0.17290063
0000f0 6e 48 ad bb 6a 5e 1e 3e e7 3e b2 bd c5 ed 4e 3d
       -0.0052881753 0.15465704 -0.08703404 0.050519723
000100 be d1 85 bd 7f 0d fd 3d 4a 95 0a 3e ce aa 2f 3e
       -0.06534146 0.1235609 0.13533512 0.17155
000110 1a c8 e0 3d 80 92 b7 bc 3a 15 09 be 6b 76 41 be
       0.10975666 -0.022408724 -0.13387004 -0.18892829
000120 11 ab 29 be 8e eb 7c 3d 8c fe cd 3d 31 49 eb bd
       -0.16569163 0.06174808 0.100583166 -0.114885695
000130 69 f4 3d be c3 e7 58 3b 64 5a d5 bd 9b ef 1e bd
       -0.18550266 0.0033097125 -0.10417631 -0.038802724
000140 47 7f 95 bd da eb 1c be b9 9c db bd 15 0a 4a 3d
       -0.07299667 -0.15324345 -0.10723252 0.04932602
000150 57 df 1a 3e 7c 2a ba 3c fe 62 0b 3e cd 0a 84 3d
       0.1512426 0.022725336 0.13611981 0.064473726
000160 96 99 2f be 1e f5 f2 bd 95 c5 b6 bd 4c 2a e4 bd
       -0.17148432 -0.11863159 -0.089244045 -0.1114088
000170 35 e9 96 3d 98 e9 b4 3d 2b 1b a9 3c 0d 5b e8 3c
       0.073686995 0.08833617 0.020642838 0.028363729
000180 32 86 06 be 47 11 da bd 77 d4 68 3d ac 9d d1 bc
       -0.13137129 -0.10647827 0.056843247 -0.02558788
000190 51 b7 3f bd 16 1f 19 3e 1d 0e c4 3c 58 b6 19 3e
       -0.046805684 0.14953265 0.023932511 0.15010965
0001a0 d4 91 90 bd c1 79 05 3e c2 e0 e5 bb 5e 95 f7 3d
       -0.070590645 0.13034727 -0.0070153186 0.120890364
0001b0 8c 95 8b bd 4e 91 32 bc a3 14 f3 bd b5 31 a5 3d
       -0.06815633 -0.010898901 -0.118691705 0.080661215
0001c0 b1 b0 91 3d 49 de bd 3d 38 0c 03 be 9e 94 2e be
       0.07113779 0.09270913 -0.1279763 -0.1704888
0001d0 0f f0 1a be d7 4a ce bd 19 31 39 3e fc 62 ee 3c
       -0.15130638 -0.10072868 0.18085136 0.029099934
0001e0 10 f6 14 be c8 98 89 3d de aa 53 bd 69 f5 03 3d
       -0.1454699 0.06718594 -0.051676624 0.032216463
0001f0 d2 95 e3 3d 12 66 ae 3d 74 80 ce 3d 52 5a 81 3d
       0.1111256 0.08515562 0.10083094 0.06316055
000200 42 2d e9 bd 9e ec 10 3e 1e 47 31 be 61 c4 9b bd
       -0.11385585 0.14152762 -0.17312285 -0.07605816
000210 8c 69 e9 bd 92 e1 ce bd e7 ff 09 3e 74 6b 41 bc
       -0.113970846 -0.10101618 0.13476525 -0.011805404
000220 0a 23 df bb a4 b3 8e 3d a0 12 b6 bd ee b3 2a 3e
       -0.006809597 0.069678575 -0.08890271 0.166702
000230 0c 11 12 bd bf ea 6e bc 12 71 e9 3d 1e 91 84 3c
       -0.03566079 -0.014582335 0.113985196 0.016182479
000240 a9 f9 f5 bb 52 57 f1 3c 5e 11 be bd d3 db a8 bd
       -0.0075065685 0.029460583 -0.09280656 -0.08245053
000250 cd b9 ae 3d 0f 01 f5 3d b3 59 9d 3c b4 5f 17 bd
       0.085315324 0.119630925 0.019207811 -0.036956504
000260 17 1c 26 be 19 b7 36 3e 69 99 2b 3e 51 73 84 3d
       -0.16221653 0.17843284 0.1675774 0.06467307
000270 5d b0 ae bd 17 cb 1c 3e 36 1b 19 3e 93 92 4d 3d
       -0.085297324 0.15311848 0.14951786 0.050188612
000280 09 6d 49 bd 5e 87 c4 3d 90 9d 87 3d c6 1d c1 3d
       -0.04917625 0.09596132 0.066218495 0.09429507
000290 15 80 46 bd 18 6e 0c 3e ae 81 25 3d 6c 26 95 3d
       -0.048461992 0.13713872 0.040406875 0.07282719
0002a0 b1 f2 97 3d 2e e1 70 3d 70 de 8e bd 62 07 1f be
       0.074193366 0.058808498 -0.0697602 -0.1553016
0002b0 d5 bc 29 3e 8c bc 88 3d a2 b0 80 bd 96 56 7f 3d
       0.1657594 0.066765875 -0.0628369 0.062338434
0002c0 b7 19 41 3e 65 14 38 be c5 03 82 3d 3b 1b bb bc
       0.18857466 -0.1797653 0.06348375 -0.022840133
0002d0 00 65 f7 3d 9a 4e 67 bd e1 ea 2e be 4d 56 c7 bd
       0.12079811 -0.056471445 -0.17081787 -0.097332574
0002e0 7d 1a f2 bd 98 63 10 3c c9 15 62 3d c4 c0 3d be
       -0.118214585 0.0088128075 0.055196557 -0.18530566
0002f0 d0 cd 79 3c a7 56 34 bd 58 7f 1b 3c ca 37 20 3d
       0.015246823 -0.04402795 0.00949081 0.039115705
000300 dd 71 b6 bd f2 29 1d be 45 f0 0b be 20 d8 48 bc
       -0.089084364 -0.15348032 -0.13665874 -0.012258559
000310 40 f0 56 3c 11 d8 06 bd 2e 9a c3 bd c5 bf 85 3b
       0.0131188035 -0.0329209 -0.09550892 0.0040816986
000320 94 ee 2c 3e 32 d1 05 3e 5a 06 ae bd f6 71 0d 3e
       0.16887885 0.13068083 -0.08497305 0.13813004
000330 86 c7 be bb 54 f1 9c bd ab 5f 9b bc 70 7e c9 3c
       -0.005822125 -0.07663217 -0.018966516 0.024596423
000340 7b ac 03 be 78 7f ef bc 46 c1 79 3d a2 bf 09 be
       -0.12858765 -0.029235587 0.060975336 -0.13452008
000350 41 9c ac 3d 11 e2 92 bc 1b bc 25 be 66 ee 17 bd
       0.084282406 -0.017930062 -0.16185038 -0.03709259
000360 0a 18 01 be 26 37 d9 bc 2b 0e 22 3d 71 90 e1 bc
       -0.12606826 -0.026515555 0.039564293 -0.027534695
000370 b4 b2 21 be 09 0a f1 3d ba 46 ee 3d d8 1d 04 3e
       -0.15790826 0.11769492 0.11634584 0.1290201
000380 12 79 24 3e 21 84 42 be b4 70 13 be 8a 14 77 bc
       0.1606181 -0.18995716 -0.14398462 -0.0150805805
000390 8b 13 45 bb 9a c2 0a 3e 8b b2 10 3e 85 e3 2f be
       -0.0030071463 0.13550797 0.14130609 -0.17176636
0003a0 9b 13 42 3e 1b 28 f5 3c 92 37 2a be 34 f7 14 bd
       0.18952791 0.02992635 -0.16622761 -0.036368564
0003b0 72 f2 2a 3e 21 c0 d4 3c ed 58 f8 3d 92 7f 9c bd
       0.16694048 0.02597052 0.12126336 -0.076415196
0003c0 eb 4e e6 3d f1 d8 02 3e 7f 9e bb 3c 91 f6 17 3e
       0.11245521 0.12778069 0.022902725 0.14840151
0003d0 3b 65 13 be 92 49 61 3d c2 d3 8f bd 2b d5 e6 3d
       -0.14394085 0.055001803 -0.070228115 0.11271127
0003e0 dd 72 c3 3d 2e f7 00 3e f8 2f 0d 3d 63 90 23 3e
       0.09543393 0.12594292 0.034469575 0.15973048
0003f0 4d 6e d4 bd 5d 2c 32 be 14 24 d4 3d 82 ea ec bd
       -0.10372601 -0.17399736 0.10358444 -0.11568166

encoder.model.bias_ih_l1 f4 [120]
000000 eb e9 0e 3e 6d 7b 2e 3a 55 84 3c be 7f c8 fc 3c
       0.1395642 0.0006655965 -0.18409856 0.030857323
000010 5b 14 9e bd e4 df 1e be 3d a6 5a bd 88 8a cd bd
       -0.07718726 -0.15515095 -0.053381193 -0.10036188
000020 fa d3 81 ba e7 ba 46 39 b0 9f 8b bd a0 17 ef bc
       -0.0009905093 0.00018952378 -0.06817567 -0.02918607
000030 2b eb af bd 8f a2 88 3d 73 a6 0f 3e e0 49 e4 bd
       -0.085897766 0.066716306 0.14028339 -0.11146903
000040 6f de 74 bc b6 04 25 3e 8a a3 12 3d 8a 47 24 bd
       -0.01494561 0.16115078 0.035800494 -0.040107287
000050 be 51 60 3d 68 c3 2c bd 55 72 2c 3d 34 50 17 3e
       0.054765455 -0.04217854 0.042101223 0.14776689
000060 d8 33 48 bd c9 d1 e7 bb 21 f3 a8 bd 37 d3 1d be
       -0.048877567 -0.007074569 -0.08249498 -0.15412603
000070 f5 6a dc 3d cf 9e b2 bd 59 e9 52 3d 55 33 01 be
       0.10762588 -0.087216966 0.05149207 -0.12617238
000080 95 16 1d be 52 9f 3c 3e 20 d8 29 3d 25 a6 b8 bd
       -0.15340646 0.18420151 0.04146588 -0.090160646
000090 51 5f ff bd 99 a7 74 3c e9 c9 e6 3c 7d 76 a8 3d
       -0.12469352 0.0149325365 0.02817245 0.08225725
0000a0 45 f3 58 bd 24 af 39 3e bb 4a 20 3e 7c bc 36 3e
       -0.052966375 0.18133217 0.15653507 0.17845339
0000b0 cf d7 2c bd 02 8f 82 bd 25 3a 33 be 04 84 24 b9
       -0.042198 -0.06374933 -0.17502649 -0.00015689438
0000c0 c0 04 90 3d 5a b9 27 3e 69 d4 eb bd 84 fa dd 3d
       0.07032156 0.163793 -0.115151234 0.10838798
0000d0 c3 ec 42 3d 0a 6f e5 bd ab a7 2b be 28 d6 21 be
       0.047589075 -0.1120282 -0.16763179 -0.1580435
0000e0 65 f1 5f bc 37 aa 4e bd fc 3d ef 3a e8 89 29 3d
       -0.013668393 -0.0504553 0.0018252726 0.041391283
0000f0 fd df 38 3e 40 2a 22 3e 3c e6 ec 3d 9f b0 02 3e
       0.18054195 0.1583643 0.11567351 0.12762688
000100 3d 77 2f be 31 17 33 3e e6 15 0d 3e 3d 46 df bd
       -0.1713533 0.17489316 0.13777885 -0.10902069
000110 1b a5 00 be 48 60 99 bc a3 2c 0c bd fe 15 0e bd
       -0.12562983 -0.018722668 -0.034222256 -0.034688942
000120 db 84 6e bd df 66 c5 3c a2 69 79 3d 71 2e 38 3e
       -0.05823217 0.024096904 0.060891755 0.17986466
000130 fc 37 e1 3d 7a a9 de 3c cb 9c fa bd 4a d8 9c 3d
       0.10997006 0.027180422 -0.12236937 0.07658441
000140 22 8b 89 bd 49 50 12 be 4f a1 3f 3d 93 7c f6 3d
       -0.067159906 -0.14288439 0.046784695 0.120354794
000150 66 51 9f bd aa bc ee bd 45 be 1a bb b8 bb a9 bd
       -0.077791974 -0.116570786 -0.0023611945 -0.08287758
000160 b0 d4 dc 3d d7 71 fd 3d d9 75 ec bc 28 03 12 bd
       0.107827544 0.12375229 -0.028864788 -0.03564754
000170 0c b0 3f 3d 16 f9 8b 3d ef b1 16 3e 97 18 cc bd
       0.04679875 0.06834619 0.14716314 -0.09965628
000180 fd 6d 2e bc a5 3e d0 3d 03 bf df bd 3e 4e 8a bc
       -0.01064634 0.101681985 -0.109251045 -0.016883012
000190 68 26 1b be 8b 98 1b be 15 cc 1c 3e 01 45 b6 bd
       -0.1515137 -0.1519491 0.15312226 -0.0889988
0001a0 72 77 8d 3d f3 8c 5f bd d0 d5 ad 3c a1 a6 db bc
       0.06907548 -0.05457778 0.021220118 -0.026812853
0001b0 14 c4 e1 3d 23 b6 c2 3d 47 0b aa 3d 80 be 3b bc
       0.11023727 0.09507396 0.08302932 -0.011458993
0001c0 5e f5 32 3e c6 bc 1d 3e fe 0b 0f 3e 7d a1 50 3d
       0.17476413 0.15404043 0.13969418 0.050935257
0001d0 91 21 fd bd 42 34 33 3e 68 72 e3 bd 08 17 1c 3e
       -0.12359918 0.17500404 -0.11105806 0.1524316

encoder.model.bias_hh_l1 f4 [120]
000000 ec 56 21 be ba 68 c9 3d be fd 04 bd f6 b6 33 3e
       -0.15755814 0.09834428 -0.03246855 0.17550263
000010 27 01 1d be 17 c5 c3 3c a8 6f ab bd 16 d5 b6 bc
       -0.15332471 0.02389769 -0.08370906 -0.022318404
000020 25 ca 9b bd 1a 53 f0 3d 94 89 dc bb 6e a5 88 bc
       -0.076069154 0.117346 -0.006730268 -0.016680446
000030 b0 c8 0c be f0 ea d8 bd 3d 6a cd bd 62 c9 76 bd
       -0.13748431 -0.10591686 -0.10030029 -0.060250647
000040 4f 7c b4 bb 0d 9e b5 3d 20 76 0e be 1c 65 2b 3d
       -0.005507983 0.088680364 -0.13912249 0.041844472
000050 2c 0b c4 3d 9f 94 b7 3d 18 b7 23 be a2 0f d9 3d
       0.09572443 0.08963894 -0.15987813 0.10598685
000060 4c 6f 04 3e fb 69 2c be 05 85 07 3e b1 64 80 bd
       0.12933081 -0.16837303 0.13234337 -0.06269205
000070 0e 56 2e 3d 35 52 09 be ef 15 e9 3d 2d 5e 07 3e
       0.042562537 -0.13410266 0.113811366 0.13219519
000080 f9 d7 79 bd ea e2 31 3e 30 27 e8 bd 39 d1 cf 39
       -0.060996983 0.17371717 -0.113355994 0.00039638
000090 f5 4d 2d be 16 5f cf 3c ed 6d 3d be b4 0c 6d bd
       -0.1692427 0.025313895 -0.18498965 -0.057873443
0000a0 2c 08 27 3e a8 19 1a be ae f7 2a be 25 22 95 bd
       0.16311711 -0.1504885 -0.16696045 -0.07281903
0000b0 df 89 0c 3e 8c 00 e4 bc c8 e8 88 bd 94 56 6c 3d
       0.13724469 -0.027832292 -0.066850245 0.057699755
0000c0 04 1e d3 3d 42 0a 1d be df 8e 8e bc da 73 a6 3d
       0.103084594 -0.15335944 -0.01740211 0.08127566
0000d0 02 9f 80 3d ab 74 d8 bd 54 0d 41 3e 62 11 d2 bb
       0.06280328 -0.10569128 0.1885274 -0.0064107636
0000e0 7f 15 c7 bc e8 41 47 bc 5c d5 97 3d 06 1e c6 bd
       -0.024302242 -0.012161709 0.07413742 -0.09673695
0000f0 32 cf a7 3c 60 67 e0 3d ca 0b 29 3e 42 2f f3 bd
       0.02048454 0.10957217 0.16508403 -0.11874248
000100 af 67 00 3e ae 03 27 be 39 d8 21 3e 41 b0 27 be
       0.12539552 -0.16309997 0.15805139 -0.1637583
000110 28 7f 53 bc d4 0e aa bc f1 29 e9 3d bf 74 5c 3d
       -0.012908734 -0.020759024 0.11384953 0.053822275
000120 45 be 23 be 65 df c8 bd 73 4a db bd b3 4f 36 bd
       -0.15990551 -0.09808234 -0.107075594 -0.0445096
000130 00 15 41 bd 12 7d 07 bd 07 82 50 bd ad 46 03 3c
       -0.047139168 -0.03307826 -0.050905254 0.008012456
000140 b3 bb 12 3e 69 09 3b 3d 21 71 09 be ff 79 03 be
       0.14329414 0.04566327 -0.13422062 -0.12839507
000150 7c a9 fa 3d 15 f3 0e 3e 99 a1 15 3e 25 a3 c6 3d
       0.12239358 0.13959916 0.14612426 0.09699086
000160 f4 af 19 3e b8 f1 1d 3e 8e 26 c5 bd 55 bd 30 3e
       0.15008527 0.1542424 -0.09626494 0.17259724
000170 4a bf 33 be 0f 0c c0 3d 99 fb ad bd 08 0f ee bd
       -0.1755344 0.093773 -0.08495254 -0.11623961
000180 16 7a 21 3c c8 6f e5 3d f7 11 1e bd f4 0d cf 3d
       0.009855768 0.11202961 -0.03859135 0.10110083
000190 36 d4 85 3d a6 cd 48 bd ec 7f ba bd f5 83 74 3d
       0.06534617 -0.049024247 -0.091064304 0.059696157
0001a0 45 f6 c4 bd 22 6d 49 3d 1e 84 01 be 22 ab bd 3c
       -0.09617285 0.049176343 -0.12648055 0.023152892
0001b0 62 b7 03 bd d9 4a c5 bd 76 a2 f2 bd 6c df af 3c
       -0.03215731 -0.09633417 -0.11847393 0.02146884
0001c0 cb 38 e4 bc f5 37 34 3e 4c 09 47 bd 24 30 8d bd
       -0.027859112 0.17599471 -0.04859285 -0.06893948
0001d0 0f b6 e6 3c 40 d0 87 bd ad 1b c2 3d 41 1f fa 3d
       0.028162984 -0.066315174 0.09477935 0.122129925

variational_latent.hidden_to_mu.weight f4 [15, 30]
000000 c4 0f b7 be b7 d0 09 3e 9e da 3d 3e 27 9a 2b bd
       -0.35754216 0.13458525 0.18540427 -0.041895058
000010 e6 1d 7c bb 21 eb 28 be 4b b8 14 bd 92 f7 39 3e
       -0.003846997 -0.16495945 -0.036308568 0.18160847
000020 46 f1 c8 3d 74 f7 aa 3e d4 dd 2a be 8a 4d 3e bd
       0.09811644 0.33391917 -0.16686183 -0.046460666
000030 67 83 d9 bd df c5 86 3e fa 7a 0e 3e 0b 34 86 be
       -0.10620766 0.2632284 0.139141 -0.2621158
000040 cb ff 0d be 59 ec d9 bd 17 50 e0 bd f6 89 fe 3d
       -0.13867109 -0.10640783 -0.10952776 0.12428658
000050 e0 e0 92 3e e7 b2 50 3d 49 44 d0 3d e5 05 fc bc
       0.2868719 0.050951865 0.10169274 -0.03076453
000060 f9 42 a5 3e 37 9d 90 3e d4 e3 0a 3e 6d 9d 8b be
       0.3227766 0.28244945 0.13563472 -0.27268544
000070 b2 0e c8 3d cc 95 39 bd 78 4f 86 3c 03 bf 74 be
       0.09768428 -0.045308873 0.016395316 -0.2390099
000080 6f 5e 56 be 27 7b a5 bd 3e 01 42 3e 2a 15 0e 3e
       -0.20934461 -0.0808013 0.18945786 0.13875261
000090 2e 66 4e bd dd 32 84 be 49 54 90 3e d9 92 04 3e
       -0.050390415 -0.25820056 0.28189304 0.12946643
0000a0 6b 0a 86 be 84 90 ba 3d ae 5c 9e 3e 21 45 47 bc
       -0.26179823 0.091095954 0.30930084 -0.012162478
0000b0 e6 c4 51 bc c4 3a a4 be 0e 97 0f be fb 35 aa 3e
       -0.012803292 -0.32076085 -0.14022467 0.3324431
0000c0 4f dd 82 3d ac 04 b5 be aa 81 9d be 2a 2d 71 3d
       0.063898675 -0.35355127 -0.30762988 0.058880962
0000d0 b8 58 2d 3e af 94 e9 bd af 5f 3f 3b 41 1b a4 be
       0.16928375 -0.11405312 0.002920132 -0.32052043
0000e0 7d 1d b9 3c 55 a0 03 3e b6 29 a0 be 70 94 47 be
       0.022597069 0.1285413 -0.31281823 -0.19490218
0000f0 89 b1 23 be 69 4f a6 bd 84 43 30 be b7 e1 61 bc
       -0.15985693 -0.08120615 -0.17213255 -0.013786725
000100 1d 46 a4 bd fa 40 02 3e 93 03 95 3e ea 23 03 3e
       -0.080211855 0.12720099 0.2910429 0.12806669
000110 ed 75 17 3e da 3d 5b be 82 6e a6 3e e6 ad 4f 3e
       0.14791079 -0.21410313 0.32506186 0.2028118
000120 98 a7 85 be f5 16 61 3e 4c a9 99 bd f9 07 6e be
       -0.26104426 0.21981414 -0.07502994 -0.23245229
000130 ff e3 83 3e b4 01 b8 be 2f 53 aa 3d 9b 09 8b be
       0.25759885 -0.359388 0.08316647 -0.27155766
000140 77 4d 3f be c1 8e ee 3d ca fc 94 bc 3a fc 88 be
       -0.18681894 0.11648322 -0.018186945 -0.26754934
000150 a7 e4 9c be a7 10 a3 be 9f 97 bd be b4 57 09 3e
       -0.30643198 -0.31848642 -0.3702974 0.13412362
000160 59 eb 96 3e 8f 3b 4b bd de 8c 27 3d 6b 9e c2 bd
       0.2947643 -0.049617346 0.040905826 -0.09502872
000170 5e 37 a0 bd d3 04 83 be c5 d0 4a 3c 4c 46 f9 3d
       -0.078230605 -0.25589618 0.012378876 0.12171611
000180 f9 87 b5 3d 4d 96 4e bd e6 c4 81 3c ab 77 d6 3c
       0.08863825 -0.050436307 0.015840959 0.026180109
000190 15 6b b6 3d 8e 8e a0 3e 6e bf 22 3e 05 bb ec bd
       0.08907143 0.3135876 0.15893337 -0.11559109
0001a0 bc c2 8d 3e 7b 24 d9 bd 4b 48 e5 3c d6 35 55 3d
       0.27687633 -0.10602661 0.027988574 0.052053295
0001b0 ae 29 7c be 68 6e 27 bd 74 bb 27 bd 13 58 d6 bc
       -0.24625275 -0.040876776 -0.040950254 -0.026165044
0001c0 5e 58 71 3d 88 86 88 3e 15 76 c3 bd c3 83 7f be
       0.058922164 0.2666514 -0.09544007 -0.24952607
0001d0 a6 b6 1d be bb 3c ac be 70 94 73 be 3d dd 98 be
       -0.15401706 -0.33640084 -0.23787093 -0.2985629
0001e0 98 33 84 3e 2e bd a9 be 5b b3 84 be 20 ff d4 bd
       0.25820613 -0.33152145 -0.25918087 -0.10400224
0001f0 25 16 94 bd 03 22 74 be a4 3d 47 3d 98 73 8a 3e
       -0.07230786 -0.238411 0.04864277 0.27041316
000200 04 d3 82 3d da 43 8f 3e fe 41 6b 3e 8b 77 3e be
       0.06387904 0.27981454 0.22974393 -0.1860029
000210 50 dd 60 3e 41 b7 0f be c8 b1 88 be 50 d4 ab bd
       0.21959424 -0.1403475 -0.26698136 -0.08390105
000220 82 f2 5f be 49 f2 a6 3d 32 a3 9f 3e fe 3a ab 3e
       -0.21869853 0.08151681 0.31179196 0.33443445
000230 e8 07 28 be ce fe d0 bb 9c ec 97 be 9b c0 bb 3d
       -0.16409266 -0.0063780313 -0.29672706 0.09167596
000240 ea 1f ce 3d dd af da bd 14 cb 0a 3d e0 4a a1 be
       0.10064681 -0.106780745 0.033885077 -0.31502438
000250 a6 98 30 be 92 34 cf 3c 9b 46 a1 3d a8 2e fd 3d
       -0.17245731 0.025293622 0.07874795 0.123624146
000260 ad d3 81 be bd c1 51 3e 25 dd 2c 3c 2f e1 cf 3d
       -0.25356808 0.20484062 0.010550772 0.10150372
000270 26 92 38 be 51 65 81 3e ce f8 95 3e 9e 5c a3 bd
       -0.18024501 0.2527261 0.29291385 -0.0797665
000280 29 fc 3c be 33 bf 8c bd 76 c4 8e 3e 76 64 1b 3e
       -0.18455566 -0.06872406 0.27884263 0.15175042
000290 a2 36 12 be bb 4e 11 be 85 d7 95 3e 61 be 35 be
       -0.14278653 -0.1419019 0.2926599 -0.17748405
0002a0 df 2b 09 3e 0c 53 b4 bd 05 41 88 3e 6e cf 6b bc
       0.13395642 -0.088049024 0.26612106 -0.014392717
0002b0 04 f8 64 3e a6 47 9b be 31 56 6c 3e 29 26 b7 3e
       0.22360235 -0.303281 0.23079754 0.357713
0002c0 76 93 ed 3c 94 55 bf 3d 56 96 bc bc 64 03 3f be
       0.029000979 0.093424946 -0.023020905 -0.18653637
0002d0 9c b3 58 3e 7b 2e 88 3d 76 00 b1 bc 23 16 2c 3e
       0.21162266 0.066494904 -0.021606665 0.1680532
0002e0 69 68 3f bd 0b 06 b0 3e 8b 93 f3 3d b0 be 5c be
       -0.046730433 0.3437961 0.11893376 -0.21557117
0002f0 01 fd 63 3e 1a 99 75 be 11 46 58 be 92 ed 34 3c
       0.22264482 -0.23984185 -0.21120478 0.011042969
000300 4b 5d 1a be 03 50 83 be 11 1f 00 3e c6 fa 99 3e
       -0.15074651 -0.25646982 0.12511851 0.30074137
000310 29 de 8a 3e 2d 71 2f bd 9c 9d b5 3c f0 d1 c1 bd
       0.2712262 -0.042832542 0.02216988 -0.094638705
000320 ee e7 89 bd 9b d4 53 be 29 3e b7 be d8 04 3e be
       -0.0673369 -0.20686571 -0.35789612 -0.18556535
000330 e4 78 9c 3d a0 5d b0 bd 37 1d 72 3e 9b 44 55 be
       0.076402456 -0.086116076 0.23643957 -0.20826952
000340 57 a2 7a 3e 3a 75 61 bd 3c 27 ff bd 7e 84 6a 3c
       0.2447599 -0.055043437 -0.12458655 0.014313815
000350 65 f4 a9 3d 42 16 c4 3d 2e 01 ae 3e e7 b6 3b bd
       0.08298568 0.09574558 0.33985275 -0.045828726
000360 e0 be 87 3e 90 bc 30 3e a4 6c 8d be f0 30 a4 be
       0.26512814 0.17259431 -0.2762195 -0.32068586
000370 5d 0c d1 bb ed a7 12 3e 6f 2d d2 3d 97 5e 4d be
       -0.0063796476 0.14321871 0.10262572 -0.20055614
000380 cb a4 6d 3e 62 bb 6e be 4c 35 a8 3d 37 a1 99 3d
       0.23207395 -0.23313668 0.082132906 0.075014524
000390 ac 02 b4 3e 18 69 63 3e 76 10 85 3e 1f 40 28 3e
       0.35158288 0.22208059 0.2598912 0.1643071
0003a0 9c 4e 17 be 60 a9 12 bd 52 0e 60 bd df f5 57 3c
       -0.14776081 -0.03580606 -0.054701157 0.013181179
0003b0 ed e6 92 be e6 79 1f 3e 44 68 0c 3e 2c f9 32 3d
       -0.28691807 0.15573844 0.13711649 0.04369466
0003c0 a4 41 78 3e 43 03 b2 3e 3d 4b 49 be ee 13 2f 3d
       0.2424379 0.34768113 -0.19657607 0.042743616
0003d0 f9 f3 f9 bb d8 73 a9 3e 1f c9 ad 3e dc 34 90 3d
       -0.0076279608 0.33096194 0.33942506 0.07041332
0003e0 36 da 90 be f0 9d 68 3e 0d 16 8b 3e 56 9a 53 3e
       -0.28291482 0.22716498 0.2716526 0.20664343
0003f0 7d 9d 97 be 43 81 6f be 66 f8 b1 3d e2 c2 b4 bd
       -0.29612342 -0.23389153 0.08689956 -0.088262334

variational_latent.hidden_to_mu.bias f4 [15]
000000 70 5b 66 bd 51 37 07 be b9 41 a4 bd 1a 6d 11 3d
       -0.056239545 -0.13204695 -0.08020348 0.035504438
000010 7d f5 a6 3d 6e 45 a9 3d f6 93 a1 bd 47 62 60 3c
       0.08152292 0.08265196 -0.078895494 0.013695306
000020 f7 0c b3 3c 7b 9c dd bd cd 25 12 be b6 96 02 bd
       0.021856768 -0.10820862 -0.14272232 -0.03188201
000030 f8 f1 14 be 38 58 bf 3d 3b a6 0c be
       -0.14545429 0.09342998 -0.13735287
