models/20200923_004133/epoch_0000_loss_3780162.78125.pt (torch, 261509 bytes, 116 tensors)

encoder.model.weight_ih_l0 f4 [120, 3]
0	0xbd800c30	-0.062523246
1	0xbd1c1fb5	-0.038116176
2	0xbd3e5db3	-0.046476077
3	0xbde8f2c3	-0.11374428
4	0x3d86a33a	0.06574102
5	0xbe399bcb	-0.18125837
6	0x3def298c	0.11677846
7	0x3c2f44cd	0.010697556
8	0xbe14e1a2	-0.14539197
9	0x3e09dc19	0.13462867
10	0x3d4295e9	0.047506247
11	0x3e1e6c7c	0.15471071
12	0x3dae9381	0.08524228
13	0x3e2c6848	0.16836655
14	0x3d9aa75a	0.07551451
15	0x3c97134c	0.018441819
16	0xbe126fae	-0.14300415
17	0x3e197e05	0.14989479
18	0xbddf7a8e	-0.10912047
19	0xbe042ecd	-0.12908478
20	0xbd53871b	-0.05164252
21	0x3d895f1a	0.06707592
22	0xbd8b638f	-0.06806099
23	0xbe17169d	-0.1475472
24	0xbd900b4d	-0.070334055
25	0x3caa2b9e	0.020772751
26	0x3e0fdca6	0.14049014
27	0xbc8e38c5	-0.017361054
28	0xbe3839c2	-0.17990783
29	0x3e2c4cd2	0.1682618
30	0x3e2b6450	0.16737485
31	0x3de6d10c	0.11270341
32	0xbe3d87bd	-0.18508811
33	0x3da43033	0.08017006
34	0x3c49071b	0.0122697605
35	0xbdd929ce	-0.10603677
36	0x3e1da790	0.15395951
37	0xbd83b213	-0.06430449
38	0xbb662fe8	-0.003512377
39	0x3af1a61e	0.0018436348
40	0x3e150dba	0.14556018
41	0xbcdaa6dc	-0.026690893
42	0x3cd0b9f4	0.025479294
43	0xbe2c84de	-0.1684756
44	0x3c8781b9	0.016541349
45	0x3e139260	0.14411306
46	0x3d8767f3	0.066116236
47	0x3df45cbd	0.11931751
48	0x3dd5daf9	0.10442156
49	0xbc2d35c0	-0.010571897
50	0xbcfbeb80	-0.030751944
51	0xbd5d02a4	-0.053957596
52	0x3d91cc9f	0.071191065
53	0xbe1514a7	-0.1455866
54	0x3c181238	0.009281687
55	0xbdcdd8a0	-0.100510836
56	0xbe240e51	-0.16021086
57	0x3e313a57	0.17307411
58	0x3c9503fd	0.018190378
59	0xbc2a0999	-0.010378265
60	0x3d599d94	0.053128794
61	0xbd3d6260	-0.046236396
62	0xbd1933af	-0.037402805
63	0xbcad99e1	-0.02119154
64	0xbe3fe78e	-0.18740675
65	0x3e308387	0.17237674
66	0x3db1235c	0.086493224
67	0x3dfff188	0.1249724
68	0x3d519986	0.051171802
69	0xbdc64101	-0.09680367
70	0xbd265b59	-0.04061446
71	0x3dff28f8	0.12458986
72	0xbd8679e5	-0.06566218
73	0x3d95c31f	0.07312607
74	0xbdfa795b	-0.12230178
75	0x3e272154	0.16321307
76	0x3d973bd3	0.073844574
77	0x3bdb737a	0.0066971155
78	0xbdd3da61	-0.10344387
79	0xbd878cd1	-0.066186555
80	0xbe0052cb	-0.12531583
81	0xbe0a624f	-0.13514064
82	0x3e1527db	0.14565985
83	0x3e1614d7	0.14656387
84	0x3e008430	0.12550426
85	0xbdd66a42	-0.10469486
86	0xbe2d000d	-0.1689455
87	0x3dc69ae0	0.09697509
88	0xbdeae11f	-0.1146872
89	0x3e36dc16	0.17857394
90	0xbd20617a	-0.03915546
91	0x3e0ba2a7	0.13636266
92	0xbe2376e0	-0.15963316
93	0x3d393e93	0.04522569
94	0x3e068749	0.13137545
95	0xbd6cba11	-0.057794634
96	0x3d32a901	0.043618206
97	0x3dcdb4d9	0.100442596
98	0xbde6b699	-0.112652965
99	0xbd3d3698	-0.046194643
100	0xbde37dc0	-0.11107969
101	0xbd94eeda	-0.0727212
102	0x3d8fa25b	0.07013389
103	0xbe21f06c	-0.1581437
104	0x3e2bfa12	0.16794613
105	0xbe37f9ef	-0.17966436
106	0x3e0447cc	0.12918013
107	0x3c5bd850	0.013418272
108	0xbdbec65c	-0.09315178
109	0xbd51d22e	-0.051225834
110	0xbd4a5e1c	-0.049406156
111	0x3dd3336d	0.10312543
112	0xbe2d6ecb	-0.16936795
113	0xbdd434b3	-0.10361614
114	0x3e20d4f2	0.15706232
115	0xbd75b463	-0.059986483
116	0xbe19bca2	-0.15013364
117	0x3c89ca36	0.016820055
118	0x3e0bac62	0.13639978
119	0xbd6443b4	-0.05572863
120	0x3daaeb33	0.08345642
121	0xbc564148	-0.013077088
122	0x3cb6018e	0.022217538
123	0x3dd2576d	0.102705814
124	0xbe027db1	-0.1274326
125	0x3d2e88d4	0.04261096
126	0xbd1e5d88	-0.038663417
127	0x3a0d5ec1	0.00053928426
128	0x3df283e2	0.11841561
129	0x3de592ab	0.11209615
130	0x3e26662d	0.16249914
131	0xbe16fb18	-0.14744222
132	0x3e137ad9	0.14402331
133	0xbde5d788	-0.1122275
134	0x3d988162	0.07446553
135	0xbb84ccec	-0.004052749
136	0xbdfdbbf1	-0.123893626
137	0x3de29b9a	0.11064835
138	0xbddd032f	-0.10791623
139	0x3e283559	0.164266
140	0x3da8c429	0.082405396
141	0xbccf41f8	-0.025300011
142	0x3d874a19	0.0660593
143	0x3dfe3045	0.124115504
144	0xbc7336a1	-0.0148445675
145	0xbdfc2a43	-0.12312748
146	0x3dc85da1	0.09783483
147	0xbda7506b	-0.081696354
148	0xbe2cb4d7	-0.1686586
149	0xbd56c005	-0.052429218
150	0x3e42eea7	0.19036351
151	0xbc8417d5	-0.016124645
152	0xbde00cf9	-0.10939974
153	0x3db5cd18	0.08877009
154	0xbcf5a422	-0.029985491
155	0x3e0c648a	0.13710228
156	0xbd89fd1f	-0.06737732
157	0xbe08ea95	-0.13370736
158	0x3e2b2799	0.16714324
159	0xbe15f7f5	-0.1464537
160	0x3e31aa48	0.17350113
161	0xbd86b2e6	-0.06577091
162	0x3d836de7	0.064174466
163	0xbc13d560	-0.0090230405
164	0xbe2fca4a	-0.17167011
165	0x3de58772	0.11207475
166	0xbe0cb67f	-0.13741492
167	0xbd2cfc75	-0.04223295
168	0xbbb5ca16	-0.005547772
169	0xbded9714	-0.116010815
170	0x3e3ea4ff	0.18617629
171	0xbdf56aed	-0.11983285
172	0xbe166eab	-0.14690654
173	0xbd9de6d7	-0.07710045
174	0xbd28b0da	-0.041184284
175	0xbda18f51	-0.078886636
176	0xbbfb3fb4	-0.007667506
177	0xbe20a261	-0.15686943
178	0xbe2b4c3e	-0.16728303
179	0xbe09cd7d	-0.13457294
180	0xbe2e2aa9	-0.17008461
181	0xbd471946	-0.048608087
182	0x3cc79a26	0.024365496
183	0xbd9523b6	-0.07282202
184	0xbe02579e	-0.12728736
185	0x3e37ea0b	0.17960374
186	0x3e2d4120	0.16919374
187	0x3c811c6c	0.015760623
188	0xbd736ecb	-0.059431832
189	0xbdccc940	-0.09999323
190	0x3e362617	0.17787968
191	0x3e36dbac	0.17857236
192	0xbc381ce9	-0.0112373615
193	0xbc06db3e	-0.008230982
194	0xbd662c20	-0.056194425
195	0x3d99860e	0.07496272
196	0xbd7a6b6b	-0.061137598
197	0x3e363d93	0.17796926
198	0xbe1f770d	-0.15572758
199	0xbbd60b43	-0.006532104
200	0x3d90c0c0	0.07068014
201	0xbdfd4426	-0.12366514
202	0xbd6c1118	-0.05763349
203	0x3e26ac76	0.16276726
204	0xbd136dc7	-0.035993364
205	0x3e1387e9	0.14407314
206	0x3c18701d	0.009304074
207	0xbd320b08	-0.04346755
208	0x3e347eec	0.17626542
209	0x3d8f23b6	0.06989233
210	0xbda70fb2	-0.081572905
211	0xbd4a3eb6	-0.049376212
212	0xbde08dc5	-0.109645404
213	0xbd8efe4d	-0.06982098
214	0x3d93431a	0.07190533
215	0xbdd39bb4	-0.103324324
216	0x3e310519	0.17287101
217	0x3d19ad3f	0.037518736
218	0xb89c9ee8	-7.468258e-05
219	0x3cb2e6df	0.021838604
220	0x3dc9dfa8	0.09857112
221	0x3de697a5	0.11259393
222	0xbda4d15b	-0.08047744
223	0x3e0f2a5b	0.13981001
224	0x3d8f8dec	0.07009491
225	0xbd0f18b8	-0.034935683
226	0xbd828c0d	-0.06374369
227	0x3d9c4ca3	0.07631805
228	0xbd8abe74	-0.06774607
229	0xbdceb2f7	-0.100927286
230	0xbb3956ae	-0.0028280425
231	0x3ca9f0c1	0.020744683
232	0x3dcf67b6	0.10127203
233	0xbe0bb4da	-0.13643208
234	0xbe117687	-0.14205371
235	0x3dff68ad	0.12471137
236	0xbda3a079	-0.07989592
237	0x3df7ac85	0.12093452
238	0x3de37d34	0.11107865
239	0x3dc9247b	0.09821411
240	0x3e174708	0.1477319
241	0xbde4947c	-0.11161134
242	0x3ce02a6d	0.02736398
243	0x3dd4257e	0.103587136
244	0x3d1b93e7	0.037982848
245	0xbde9e5ab	-0.11420759
246	0xbdb8a675	-0.09016124
247	0x3e2aee02	0.16692355
248	0x3d55ea2a	0.05222527
249	0xbe04316f	-0.12909482
250	0xbe20dcb3	-0.1570919
251	0x3e32d29d	0.17463155
252	0xbdefa703	-0.11701777
253	0xbd81ea0c	-0.06343469
254	0x3da088be	0.078385815
255	0xbc2e80a0	-0.010650784

encoder.model.weight_hh_l0 f4 [120, 30]
0	0x3ca23b48	0.019803658
1	0xbe0771a6	-0.13226947
2	0xbdd8d461	-0.10587383
3	0x3de36b44	0.11104444
4	0x3e303e9d	0.17211385
5	0x3de16260	0.11005092
6	0x3c9c4b96	0.019079011
7	0xbe266f2e	-0.16253349
8	0x3d3cb1b0	0.046067894
9	0xbd9f65d5	-0.07783095
10	0xbe1ff1fe	-0.15619656
11	0xbd18f04c	-0.03733854
12	0x3cdc9e3d	0.026930923
13	0x3e1c3d14	0.15257674
14	0x3d05f37e	0.032702915
15	0x3e39ecd1	0.18156745
16	0x3c98d591	0.018656524
17	0xbdfbea8d	-0.123005964
18	0x3da8102f	0.08206212
19	0xbe02fe96	-0.1279243
20	0xbc29256a	-0.010323862
21	0x3dbcd2ec	0.09219918
22	0xbd8d8c54	-0.06911531
23	0x3d56ca05	0.052438755
24	0xbd856f91	-0.0651542
25	0xbd8c39f3	-0.068469904
26	0xbe146baf	-0.14494203
27	0x3e1d1a6c	0.1534211
28	0xbd7962c1	-0.060885195
29	0x3e3974d5	0.18110974
30	0xbd0b3606	-0.033987068
31	0xbe05defa	-0.1307334
32	0x3ddcd56d	0.10782895
33	0xbddb91b1	-0.10721148
34	0x3dc07dbb	0.09398981
35	0xbde1378f	-0.10996925
36	0xbd33869b	-0.04382954
37	0x3d188aba	0.037241675
38	0xbe0fd6a2	-0.1404672
39	0x3da7322a	0.08163865
40	0xbe0bb4a9	-0.13643135
41	0xbc2fa012	-0.010719316
42	0x3d3fd0ac	0.046829864
43	0x3e08cc76	0.13359246
44	0x3d797f7f	0.060912605
45	0x3dc9b3f2	0.09848775
46	0x3da780d8	0.08178872
47	0xbd70f124	-0.05882372
48	0xbc94a08e	-0.018142965
49	0x3cc4945a	0.02399652
50	0x3e41ba7a	0.18918791
51	0xbbacc32b	-0.0052722893
52	0xbd8ab0aa	-0.06771977
53	0x3e091a16	0.13388857
54	0xbc9f70d1	-0.019462975
55	0xbdabfd6c	-0.08397946
56	0x3dc9d043	0.09854176
57	0xbdc37c81	-0.095452316
58	0xbdbb82a7	-0.09155779
59	0xbd462460	-0.048374534
60	0xbda2f62b	-0.07957109
61	0xbe30032d	-0.17188711
62	0xbe07350a	-0.13203827
63	0x3d9f6b9e	0.07784198
64	0x3dfb9270	0.1228379
65	0xbb3eac0a	-0.0029094242
66	0x3ddd6ae8	0.108114064
67	0x3da3e551	0.08002723
68	0xbca1bd02	-0.019743446
69	0x3de34f2b	0.110990845
70	0x3e3e29f6	0.18570694
71	0xbc3a0559	-0.011353814
72	0xbdf5560e	-0.11979304
73	0x3d54d078	0.051956624
74	0xbe0bb947	-0.13644896
75	0xbdaa793e	-0.08323906
76	0xbe376625	-0.17910059
77	0xbd7e1a9b	-0.06203709
78	0xbd52a7e8	-0.05142966
79	0x3e1dc7fe	0.15408322
80	0x3e25fdcf	0.16210102
81	0x3d82e2e5	0.06390933
82	0x3e31bc62	0.17357019
83	0x3de16798	0.11006087
84	0xbc685016	-0.01417925
85	0x3dd7ccd4	0.10537115
86	0xbe1f201a	-0.1553959
87	0x3e0aa043	0.13537697
88	0x3e0072d4	0.12543803
89	0xbdc579e3	-0.09642389
90	0xbdd0f92d	-0.102037765
91	0xbdc36620	-0.09540963
92	0xbe22740e	-0.15864584
93	0xbd3e5b5e	-0.046473853
94	0xbdf82764	-0.12116888
95	0x3e233b4e	0.15940592
96	0x3e0a1725	0.13485391
97	0xbc5a346d	-0.013318163
98	0x3e2b37b9	0.16720475
99	0x3d41c86b	0.047310274
100	0x3da91da2	0.08257605
101	0x3d70921f	0.058733102
102	0xbc1b901b	-0.009494807
103	0x3e1a8c0e	0.15092489
104	0x3daff0f3	0.08590879
105	0xbe0e96dc	-0.13924736
106	0x3e0ab6fb	0.13546364
107	0xbdf87632	-0.12131919
108	0x3cd40521	0.025881352
109	0x3e2ca432	0.1685951
110	0x3c011103	0.007877591
111	0x3bf19d4b	0.007373487
112	0x3ded9864	0.11601332
113	0xbd996b06	-0.07491116
114	0x3e2418f1	0.1602514
115	0xbdd65353	-0.104651116
116	0x3b78c386	0.0037958338
117	0xbb075707	-0.0020651238
118	0x3d4b0a7a	0.049570538
119	0x3ad5b651	0.0016304945
120	0x3e0adf01	0.13561632
121	0xbd990b51	-0.074728616
122	0x3b2ff21e	0.0026847194
123	0x3e2b57da	0.16732731
124	0xbe02805b	-0.12744276
125	0x3c774f3c	0.015094575
126	0x3d41ff9c	0.04736291
127	0xbe435951	-0.1907704
128	0xbd5c85b0	-0.05383843
129	0x3df6ad5a	0.12044783
130	0xbdabea5c	-0.0839431
131	0x3ccb37f7	0.02480696
132	0x3dd684be	0.10474537
133	0x3e444b66	0.19169387
134	0xbe041126	-0.12897167
135	0x3d60a450	0.0548442
136	0xbdb87397	-0.09006422
137	0xbe16b143	-0.14716057
138	0x3d013db0	0.03155297
139	0xbdc4cebc	-0.09609744
140	0x3dbb8e94	0.09158054
141	0xbe04f276	-0.12983117
142	0x3e04f469	0.1298386
143	0x3dee076d	0.1162251
144	0x3e125696	0.14290842
145	0xbde8ce81	-0.113675125
146	0xbc058256	-0.00814875
147	0x3d1361b7	0.03598186
148	0xbca8ce77	-0.020606263
149	0xbdb72068	-0.08941728
150	0x3d040596	0.03223189
151	0xbe1843c4	-0.148696
152	0x3e01beab	0.1267039
153	0x3c0f441e	0.008744268
154	0xbdd3b3a2	-0.103369966
155	0x3d84177f	0.06449794
156	0xbde15ab0	-0.110036254
157	0x3d6b38d6	0.05742725
158	0xbe1344d9	-0.14381732
159	0x3c327436	0.010891965
160	0xbda50d60	-0.08059192
161	0x3e2f29f8	0.17105854
162	0xbe2fe5d9	-0.17177524
163	0xbc813c5d	-0.015775854
164	0xbe1ddb63	-0.1541572
165	0x3da52bdb	0.080650054
166	0x3e386a1f	0.18009232
167	0x3df1fedd	0.118161894
168	0x3e298c28	0.16557372
169	0x3e358f0c	0.1773035
170	0xbd9f21d2	-0.077701226
171	0xbde4811e	-0.1115744
172	0x3d271086	0.040787242
173	0xbd949e5b	-0.072567664
174	0xbdcd488e	-0.10023604
175	0xbe393426	-0.180863
176	0xbe182622	-0.14858297
177	0xbd28b033	-0.04118366
178	0x3ddb7876	0.107163355
179	0x3c88a34f	0.016679434
180	0xbd197af4	-0.037470773
181	0x3e19f127	0.15033399
182	0xbe31db44	-0.173688
183	0xbc207bf1	-0.009795175
184	0x3ce9b127	0.028526856
185	0x3c833258	0.016015217
186	0x3d8d2007	0.06890874
187	0xbe368d36	-0.17827305
188	0x3e078ba2	0.1323686
189	0xbe20d99d	-0.15708013
190	0x3b904a64	0.0044033993
191	0x3cf58c10	0.029974014
192	0x3da6519e	0.08121036
193	0x3d457d08	0.048214942
194	0x3df048b1	0.11732615
195	0xbd5f0d23	-0.054455888
196	0x3c1381af	0.009003087
197	0x3da75cd0	0.081719995
198	0x3dd98ad5	0.10622183
199	0x3d7c938b	0.061664145
200	0xbe163fb1	-0.14672734
201	0xbdd05374	-0.101721674
202	0xbd25296c	-0.040322706
203	0x3e2e3f9a	0.1701645
204	0xbdbe751b	-0.0929968
205	0xbd4cb452	-0.049976654
206	0xbe2438e9	-0.16037335
207	0xbe340710	-0.17580819
208	0x3dfc211b	0.12311002
209	0xbe1a08c1	-0.15042402
210	0x3c1592bf	0.009129225
211	0xbe238678	-0.15969265
212	0x3ba83ce6	0.005134213
213	0x3e1de6d6	0.15420088
214	0xbe128b99	-0.14311065
215	0x3e0c57e2	0.137054
216	0xbdfa6690	-0.122265935
217	0xbc6d72fb	-0.0144927455
218	0x3c88c322	0.01669461
219	0x3decad6a	0.115565136
220	0xbd9f197a	-0.07768531
221	0xbdf458a1	-0.11930967
222	0x3e008499	0.12550582
223	0x3d98e44f	0.074654214
224	0x3bdc61b2	0.0067255134
225	0x3d89d34e	0.06729756
226	0x3d938f50	0.07205069
227	0x3e3589df	0.17728375
228	0xbc91d579	-0.017801987
229	0x3c2dfe8c	0.010619771
230	0x3dc20277	0.094731264
231	0xbd8422ca	-0.06451948
232	0x3e245ac2	0.16050246
233	0xbc915a11	-0.017743142
234	0xbe366d52	-0.1781514
235	0x3d9f4119	0.07776088
236	0x3e324dd7	0.17412506
237	0x3ac4a964	0.0015004096
238	0xbdf061cf	-0.117374055
239	0xbd9331f6	-0.07187264
240	0xbd46975e	-0.0484842
241	0x3d92f1a2	0.07174994
242	0x3e0cb147	0.13739501
243	0x3d627826	0.055290364
244	0x3e011bc2	0.12608245
245	0x3ccfebbc	0.025380962
246	0x3de0f653	0.109844826
247	0xbe0846be	-0.13308236
248	0x3c475ade	0.0121676605
249	0x3cfaf6fd	0.030635351
250	0xbe167b52	-0.1469548
251	0xbd30211e	-0.043000333
252	0x39e053d4	0.00042787066
253	0x3d22ccbe	0.03974604
254	0x3d944537	0.07239764
255	0x3d288e58	0.041151375

encoder.model.bias_ih_l0 f4 [120]
0	0xbd18fd14	-0.03735073
1	0xbe23e562	-0.16005471
2	0x3cc3f442	0.023920182
3	0x3dec6e3f	0.11544465
4	0x3c352a4c	0.011057448
5	0xbe1b50b8	-0.1516751
6	0xbe0b5edf	-0.13610409
7	0xbe22a9c2	-0.1588507
8	0xbcf9c2ee	-0.030488458
9	0xbd139d4c	-0.036038682
10	0xbe07edbd	-0.13274284
11	0x3df15946	0.11784606
12	0x3e358cb5	0.17729457
13	0x3e15794e	0.14597055
14	0x3de53d41	0.11193324
15	0xbd596ed2	-0.053084202
16	0xbdee2f6c	-0.11630139
17	0x3e2b2abd	0.16715522
18	0x3e022b99	0.12711944
19	0xbdec5b7a	-0.11540885
20	0xbd4a2cf3	-0.049359273
21	0x3e1c615f	0.15271519
22	0x3e15ca1c	0.1462788
23	0x3e2900ac	0.16504163
24	0x3db4471d	0.08802626
25	0xbe3f38ae	-0.18673965
26	0xbd5fa483	-0.05460025
27	0xbd81f53d	-0.063456036
28	0xbc8082d5	-0.015687386
29	0x3d812f57	0.063078575
30	0x3e0d2baf	0.13786195
31	0xbe0d2c8b	-0.13786523
32	0xbe40f963	-0.18845133
33	0xbcc6c370	-0.024263114
34	0xbdf31201	-0.11868668
35	0x3d172978	0.036904782
36	0xbc897d0c	-0.01678326
37	0x3ccac1f9	0.024750696
38	0x3c7b666b	0.015344243
39	0x3da5f6da	0.08103724
40	0x3d015393	0.031573843
41	0x3e3f8943	0.18704705
42	0x3cc65b9f	0.02421361
43	0xbe37e5f5	-0.17958815
44	0xbccc884a	-0.024967331
45	0xbe2f2be2	-0.17106584
46	0xbd0358e3	-0.03206719
47	0xbe253d8b	-0.16136758
48	0xbe0a0c5b	-0.13481276
49	0x3d8fdd55	0.070246376
50	0x3c24ef93	0.010066885
51	0x3dde44c3	0.10852959
52	0x3d181709	0.037131343
53	0xbd89effb	-0.06735226
54	0x3de8102b	0.11331209
55	0xbd537acc	-0.05163078
56	0xbd966fd8	-0.07345551
57	0x3e0f3e29	0.13988556
58	0x3d2747ea	0.040840067
59	0x3da14681	0.07874776
60	0x3e0d9e4a	0.13829914
61	0xbdcf62f0	-0.10126293
62	0xbdf10324	-0.11768177
63	0xbd232a2c	-0.03983514
64	0x3e0dce69	0.1384827
65	0x3d5a0a5a	0.05323253
66	0xbdc4f986	-0.09617905
67	0xbe005795	-0.1253341
68	0xbdcff265	-0.10153655
69	0x3e164c15	0.1467746
70	0xbdbbb39a	-0.09165116
71	0xbc906e09	-0.017630594
72	0x3e1d4d4d	0.15361519
73	0x3de1cf64	0.11025885
74	0xbd6ed4fb	-0.058308583
75	0xbe3bb927	-0.18332349
76	0x3dbc5edb	0.0919778
77	0x3e1c5ca2	0.15269712
78	0xb8b02cb7	-8.400663e-05
79	0xbd9cff00	-0.07665825
80	0x3dafead7	0.08589714
81	0xbe2c4ffe	-0.1682739
82	0x3d724c03	0.05915452
83	0xbdd25deb	-0.1027182
84	0x3e25c3d1	0.1618798
85	0x3dc28937	0.09498828
86	0x3d751f14	0.05984409
87	0x3e040487	0.12892352
88	0xbdcfaa53	-0.10139909
89	0xbdafb8a0	-0.08580136
90	0xbe0a8aaf	-0.13529466
91	0xbd74cb61	-0.05976427
92	0x3e25c614	0.16188842
93	0xbd8c4c01	-0.06850434
94	0xbddee04a	-0.108826235
95	0xbdcfa37b	-0.10138603
96	0x3dc2c9e4	0.09511164
97	0xbe080013	-0.13281278
98	0xbd32f70c	-0.043692634
99	0xbdc67cda	-0.09691782
100	0xbe32d235	-0.17463
101	0xbdad5238	-0.084629476
102	0x3d9deb84	0.07710937
103	0xbe2aa594	-0.16664726
104	0xbcbf482f	-0.02334985
105	0x3dce7be3	0.10082223
106	0x3e3a0dd3	0.18169336
107	0xbdd52641	-0.10407687
108	0xbdf65c18	-0.12029284
109	0xbe188493	-0.14894323
110	0x3e1e77f6	0.15475449
111	0xbde4479a	-0.111464694
112	0x3dea8e63	0.11452939
113	0x3be65c6d	0.007030061
114	0x3d28fbc1	0.041255716
115	0x3d704c3c	0.058666453
116	0xbd5c760b	-0.053823512
117	0xbddee870	-0.10884178
118	0xbe0709ef	-0.13187383
119	0xbc4d4dbc	-0.01253074

encoder.model.bias_hh_l0 f4 [120]
0	0x3c9ac227	0.018891407
1	0xbdde16d2	-0.108441964
2	0xbc350300	-0.011048079
3	0xbb1ab7ac	-0.0023608012
4	0xbd8d12e9	-0.068883725
5	0xbe0edb0a	-0.13950744
6	0xbdb2a550	-0.08722937
7	0xbe048898	-0.12942731
8	0x3d8dfe87	0.06933313
9	0x3d9a8f28	0.07546836
10	0x3d989521	0.07450319
11	0xbe078d47	-0.13237487
12	0xbc6e837d	-0.014557716
13	0x3c9324e2	0.017961923
14	0xbdb30920	-0.08741975
15	0xbd2c7c49	-0.042110715
16	0xbdbfbfb5	-0.09362737
17	0x3d5f6275	0.054537255
18	0xbe2c926b	-0.16852729
19	0xbdbeb369	-0.093115635
20	0x3e20d1a8	0.15704978
21	0xbd83f12d	-0.06442485
22	0x3ced6464	0.028978534
23	0xbdf3b888	-0.11900431
24	0xbbe2ec9c	-0.0069251787
25	0xbd622134	-0.055207446
26	0xbd20a815	-0.039222796
27	0xbd303240	-0.043016672
28	0x3e2c096f	0.16800474
29	0xbe126977	-0.14298044
30	0xbcee9370	-0.029123038
31	0xbe0f2c65	-0.13981779
32	0x39d07646	0.00039760972
33	0xbc2b6a00	-0.010462284
34	0x3e01abfb	0.12663262
35	0xbe385242	-0.18000129
36	0xbdd61551	-0.104532845
37	0xbc70e330	-0.014702603
38	0x3dfb0499	0.12256736
39	0xbe25920f	-0.16168998
40	0xbddbb74c	-0.107283205
41	0x3e3c71ec	0.18402833
42	0xbd3ede67	-0.04659882
43	0xbca456e2	-0.02006096
44	0x3df9bfd1	0.12194789
45	0xbded49f8	-0.11586374
46	0x3d1f0975	0.03882738
47	0xbdec2771	-0.1153096
48	0x3e410d22	0.18852666
49	0xbce0ec48	-0.027456418
50	0xbd9b11d6	-0.07571761
51	0x3cc6d490	0.02427128
52	0xbd8b9753	-0.06815972
53	0x3d414181	0.04718161
54	0x3ddcfc15	0.10790268
55	0xbade4c1b	-0.0016959937
56	0xbd3a84d0	-0.045536816
57	0x3d125224	0.035722867
58	0x3beabf62	0.007163928
59	0x3cd85601	0.026408197
60	0x3ddab79f	0.10679554
61	0xbe350d93	-0.1768096
62	0x3c338f38	0.010959439
63	0xbe433c69	-0.19066013
64	0xbdd48bb3	-0.10378208
65	0x3e283b2e	0.16428825
66	0x3dbf1dd0	0.09331858
67	0xbdc090f0	-0.09402645
68	0x3c0ef40a	0.008725176
69	0xbe27758f	-0.16353439
70	0xbe2976b6	-0.16549191
71	0x3e18380b	0.14865129
72	0xbe29a92b	-0.16568439
73	0x3df9d9a6	0.12199716
74	0x3e3be875	0.18350394
75	0x3cae6cb5	0.02129207
76	0xbe2424e1	-0.16029693
77	0x3de1cd74	0.11025515
78	0x3e1c1ac8	0.15244591
79	0xbe306e20	-0.1722951
80	0xbdbf6ff5	-0.09347526
81	0xbbefcaeb	-0.007317891
82	0xbd6b1128	-0.05738941
83	0x3cf2b33e	0.029626485
84	0xbd89a22d	-0.06720386
85	0x3e30043b	0.17189114
86	0xbd847bdf	-0.06468939
87	0xbded7690	-0.115948796
88	0xbda23f5f	-0.07922243
89	0xbc73ee24	-0.01488832
90	0x3ddb75a7	0.107158
91	0x3e2582b9	0.16163148
92	0xbce0a3a5	-0.027421782
93	0xbde1398e	-0.10997306
94	0xbd7117ee	-0.05886071
95	0xbda9e718	-0.08296031
96	0xbd93545f	-0.07193827
97	0x3da91870	0.08256614
98	0x3e1dec27	0.15422116
99	0xbd833dd1	-0.06408275
100	0x3c6d3392	0.014477627
101	0xbcef1279	-0.029183613
102	0xbd29e702	-0.04148007
103	0x3ded5754	0.11588922
104	0x3e40d40e	0.18830892
105	0x3dcca891	0.09993089
106	0x3e2897ce	0.16464159
107	0xbdd64081	-0.10461522
108	0xbe0d94f2	-0.1382635
109	0x3e093eb1	0.13402821
110	0x3dbec233	0.09314384
111	0x3c23978a	0.00998486
112	0x3de99f57	0.11407345
113	0x3db06254	0.086125046
114	0x3e234fd0	0.15948415
115	0x3d9a6e9e	0.0754063
116	0x3c82ac2e	0.015951242
117	0xbd400f62	-0.04688967
118	0x3e0e05c8	0.13869393
119	0xbdb44828	-0.08802825

encoder.model.weight_ih_l1 f4 [120, 30]
0	0xbdfc2df5	-0.12313453
1	0xbd9b30c5	-0.075776614
2	0x3d935cee	0.07195459
3	0xbdadcaa5	-0.08485917
4	0xbe1608cb	-0.14651792
5	0xbe2b8109	-0.16748442
6	0x3ac2c6e4	0.0014860299
7	0x3daea23b	0.08527037
8	0xbe0a52d6	-0.13508162
9	0x3cbc48f3	0.022984004
10	0x3d9f2c83	0.07772162
11	0x3d814eb5	0.0631384
12	0x3ce64181	0.028107407
13	0x3df9e67b	0.12202164
14	0xbced1d96	-0.028944772
15	0x3e30b21b	0.17255442
16	0x3da3feee	0.08007608
17	0x3d3ecd12	0.04658229
18	0xbd9882e4	-0.074468404
19	0xbde8847b	-0.11353394
20	0xbdf1e737	-0.11811679
21	0xbcd52758	-0.026019737
22	0xbe309e7b	-0.17247956
23	0x3e1a8ed3	0.15093546
24	0xbdb009a5	-0.085955895
25	0xbc92ef1d	-0.017936284
26	0xbd92c266	-0.07165985
27	0xbe08a68e	-0.13344786
28	0x3e29e4ed	0.16591235
29	0xbdb1812b	-0.08667215
30	0x3dd796f9	0.105268426
31	0xbd037cb2	-0.03210134
32	0xbdfe3a58	-0.12413472
33	0xbd90ace3	-0.070642255
34	0x3e1acf17	0.15118061
35	0xbe0e34e4	-0.13887364
36	0xbe369e10	-0.17833734
37	0x3d839c29	0.064262696
38	0xbd8d0003	-0.06884768
39	0x3cf571ce	0.029961493
40	0x3e27d1fe	0.163887
41	0x3dd241bd	0.10266445
42	0xbdd87c83	-0.10570624
43	0x3e020efc	0.12701029
44	0xbe1c9dc9	-0.15294565
45	0xbce5ba20	-0.028042853
46	0x3c626536	0.013818076
47	0xbdc612f2	-0.09671582
48	0x3e08176e	0.13290188
49	0xbc2d068b	-0.010560642
50	0x3e0710dd	0.13190027
51	0xbe0d0787	-0.13772403
52	0xbe17e823	-0.14834647
53	0xbd970926	-0.07374792
54	0x3d84944f	0.064736
55	0x3c69b417	0.014264128
56	0xbac82648	-0.0015270198
57	0xbdf7c7fb	-0.1209869
58	0xbda9ec41	-0.08297015
59	0xbdaa4164	-0.083132535
60	0x3d91d04c	0.071198076
61	0xbd0eddfc	-0.03487967
62	0x3e1ee57b	0.15517227
63	0xbdd860b4	-0.1056532
64	0xbe2f50be	-0.17120644
65	0x3dbd2602	0.09235765
66	0xbda45605	-0.080242194
67	0xbdd1c578	-0.10242742
68	0x3ca1e970	0.019764632
69	0xbd97f0ca	-0.07418974
70	0x3db1a373	0.086737536
71	0x3dda8e40	0.10671663
72	0xbe12c583	-0.14333157
73	0x3abfe969	0.0014641705
74	0x3d63a652	0.055578537
75	0xbd6baad6	-0.05753597
76	0xbe227f46	-0.15868863
77	0xbccc3bb8	-0.02493082
78	0x3e11e055	0.14245732
79	0xbddd810a	-0.10815628
80	0x3cd4562e	0.02592
81	0x3d645651	0.05574638
82	0x3e4017e9	0.18759121
83	0x3db2c459	0.087288566
84	0xbcf9ed27	-0.03050859
85	0x3be2f30e	0.006925947
86	0xbe1c88a2	-0.15286496
87	0x3e3d5ab2	0.18491629
88	0xbe1bb6de	-0.15206477
89	0x3dec6146	0.11541991
90	0x3e26e24e	0.16297266
91	0xbe02d718	-0.12777364
92	0xbdb00933	-0.085955046
93	0xbdfa49d5	-0.122211136
94	0x3e0007af	0.12502931
95	0x3df86c9c	0.121300906
96	0xbde7c09d	-0.11316035
97	0xbe05deae	-0.13073227
98	0xbe3e5f66	-0.18591079
99	0x3d835aa5	0.064137734
100	0x3bf4d723	0.0074719354
101	0xbdd4771d	-0.103742816
102	0xbde9155e	-0.113810286
103	0x3dcd80f1	0.10034359
104	0x3c80d611	0.015727075
105	0x3e0f0a13	0.13968687
106	0xbe13c1d1	-0.14429404
107	0xbb98607d	-0.004650174
108	0x3d9e125a	0.07718344
109	0x3db54eb6	0.088529035
110	0x3d4ff01d	0.0507661
111	0xbd460f7b	-0.048354607
112	0xbe0d04f3	-0.13771419
113	0xbd10f800	-0.03539276
114	0x3e31a646	0.17348585
115	0x3e25580a	0.16146865
116	0xbd6df0e6	-0.058091067
117	0xbd7c1ee6	-0.061552905
118	0x3baaf359	0.0052169976
119	0xbe441d93	-0.19151907
120	0x3de4b652	0.11167587
121	0x3e048a47	0.12943374
122	0xbe126620	-0.1429677
123	0xbe1e5954	-0.15463763
124	0xbde8e2f5	-0.113714136
125	0xbe38432f	-0.17994379
126	0x3d938b98	0.0720436
127	0x3c911a59	0.017712759
128	0xbb2b298e	-0.0026117298
129	0x3dacf3af	0.084449165
130	0xbd96c783	-0.073622726
131	0x3b790b42	0.0038001095
132	0xbd790c77	-0.060802903
133	0xbdfc0ab4	-0.12306729
134	0x3e3201a3	0.17383437
135	0xbe28aa7d	-0.16471286
136	0x3dcfe820	0.10151696
137	0xbc631c7c	-0.013861772
138	0xbd2171d8	-0.03941521
139	0x3d930449	0.07178552
140	0xbc9e408c	-0.019317888
141	0x3dac217e	0.08404826
142	0xbd0c33e3	-0.03422917
143	0xbd9d41b1	-0.07678545
144	0xbde222f8	-0.11041826
145	0x3ba178f5	0.0049277493
146	0xbe302e4b	-0.1720516
147	0x3de7f135	0.113253035
148	0x3dc2ceaa	0.09512074
149	0x3e25becb	0.16186063
150	0xbd921fa6	-0.07134943
151	0x3d9da42d	0.0769733
152	0xbe2a9991	-0.16660143
153	0xbdc4f461	-0.09616924
154	0x3e14e979	0.14542188
155	0x3dbed64e	0.09318219
156	0x3e14f73a	0.14547434
157	0xbd191899	-0.037376974
158	0xbdce82e9	-0.10083563
159	0x3cd55837	0.02604304
160	0x3d90258c	0.070384115
161	0x3e1603df	0.14649914
162	0xbe08ab6a	-0.1334664
163	0xbdec5114	-0.11538902
164	0xbe3ef137	-0.18646704
165	0xbe2a5c6f	-0.16636823
166	0xbdf21a40	-0.11821413
167	0xbd5f7314	-0.054553106
168	0xbda906b3	-0.08253231
169	0x3da5c125	0.0809348
170	0xbc8b14d6	-0.016977709
171	0x3d13c98e	0.03608089
172	0x3e0d4c06	0.13798532
173	0xbd5c16de	-0.053732745
174	0xbdf8aaac	-0.12141928
175	0xbe3c276f	-0.18374418
176	0xbd9c0da7	-0.076197915
177	0xbdfdba6d	-0.123890735
178	0xbd820c8c	-0.063500494
179	0xbb8afec1	-0.004241795
180	0xbd86595a	-0.06560011
181	0x3cbc5eb9	0.022994386
182	0xbdf178af	-0.11790597
183	0x3c9b4dc5	0.018957982
184	0x3de5de5e	0.11224054
185	0x3e350fa0	0.17681742
186	0x3d114068	0.035461813
187	0x3e204c27	0.1565405
188	0x3de8221c	0.11334631
189	0x3d86e568	0.065867245
190	0x3dd8d620	0.10587716
191	0x3e0b34c2	0.13594344
192	0x3e15f274	0.1464327
193	0xbc27f6a5	-0.010251676
194	0x3bf27216	0.007398854
195	0x3d926afb	0.07149311
196	0x3df2b78a	0.118514135
197	0xbcc9dfee	-0.02464291
198	0x3d1a6818	0.037696928
199	0x3dcb484e	0.099259004
200	0xbda0ccf2	-0.0785159
201	0xbc3f0cd7	-0.011660776
202	0x3c34c298	0.011032723
203	0x3d792d79	0.06083438
204	0xbdb83e32	-0.08996238
205	0x3e117b40	0.14207172
206	0x3e2650e1	0.1624179
207	0x3d61bdc5	0.05511262
208	0xbdd1bade	-0.1024072
209	0x3d88e416	0.06684129
210	0x3dd48737	0.10377353
211	0xbbc48120	-0.005996838
212	0x3cabefe6	0.020988416
213	0xbe385795	-0.1800216
214	0x3d2cf9fc	0.04223059
215	0xbdeab926	-0.114610955
216	0x3d4acd6d	0.049512316
217	0x3dbc4c40	0.09194231
218	0x3d7e1af9	0.062037442
219	0xbd225b3c	-0.03963779
220	0xbdfe83bb	-0.12427469
221	0x3da21df4	0.07915869
222	0x3d34ce13	0.04414184
223	0xbda75fed	-0.08172593
224	0x3dad04a4	0.08448151
225	0x3df24d2f	0.11831128
226	0xbe1cb28d	-0.15302487
227	0xbe1e31b7	-0.15448652
228	0xbdf4df4b	-0.11956652
229	0x3b21c699	0.0024685024
230	0x3e1f4e04	0.15557104
231	0x3e1aad2c	0.15105122
232	0x3d5a1fe8	0.053253084
233	0x3e07a5d5	0.13246854
234	0x3e402cf8	0.18767154
235	0x3e24dbed	0.1609952
236	0xbdaf4b86	-0.08559327
237	0x3de9cc14	0.11415878
238	0xbe27334b	-0.1632816
239	0x3ce848db	0.028355053
240	0xbdc2975b	-0.09501525
241	0x3d88464e	0.066540346
242	0xbdb8e031	-0.09027136
243	0x3da9f131	0.08297957
244	0xbe3840e8	-0.1799351
245	0x3cb02080	0.021499872
246	0x3d5539d3	0.0520571
247	0xbe288898	-0.16458356
248	0x3c137f3b	0.009002502
249	0x3db7acfa	0.089685395
250	0xbda748ea	-0.08168204
251	0xbe226358	-0.15858209
252	0xbd30ad08	-0.043133765
253	0xbc0f027d	-0.008728621
254	0x3e0c6b26	0.13712749
255	0xbdc14c89	-0.09438426

encoder.model.weight_hh_l1 f4 [120, 30]
0	0x3de5096e	0.11183439
1	0x3e3082ba	0.17237368
2	0x3d360982	0.04444266
3	0xbbd9bb6f	-0.0066446583
4	0xbd66c9c1	-0.05634475
5	0xbc234cbc	-0.009967025
6	0x3c485c94	0.012229104
7	0xbdc3d88c	-0.095627874
8	0x3e04c20d	0.1296465
9	0x3ce7ac6a	0.028280456
10	0x3a510c2e	0.0007974532
11	0xbdfabafe	-0.12242697
12	0xbdf135f7	-0.11777871
13	0x3dd83ad0	0.105580926
14	0x3d895ef1	0.06707562
15	0xbe0615a1	-0.13094188
16	0x3e28a41b	0.16468851
17	0xbd93feb9	-0.07226319
18	0x3b373922	0.0027957638
19	0x3e200770	0.15627837
20	0x3da99ed0	0.08282244
21	0xbe128bb8	-0.14311111
22	0xbcbed689	-0.023295658
23	0x3d2bc59f	0.041936513
24	0x3e27346b	0.1632859
25	0x3dfcb45b	0.123390876
26	0xbe2201b5	-0.15820964
27	0x3da5d0f7	0.080964975
28	0x3c71512c	0.014728826
29	0x3ddf3359	0.10898466
30	0xbd15b1f4	-0.036546662
31	0xbe0b1901	-0.13583757
32	0xbe345888	-0.17611897
33	0x3ddef69d	0.108868815
34	0xbe0b5cde	-0.13609645
35	0x3d982fd7	0.07431
36	0xbdc7e138	-0.09759754
37	0xbdc74386	-0.09729676
38	0x3df2b31a	0.11850567
39	0x3dc487fa	0.09596248
40	0x3c8bd614	0.017069854
41	0xbd7acda4	-0.06123127
42	0xbcf482e5	-0.029847572
43	0xbd556684	-0.05209972
44	0xbd9c65c6	-0.07636599
45	0x3d83988f	0.064255826
46	0xbdf47640	-0.11936617
47	0x3e289a7d	0.16465183
48	0x3d4d869f	0.050177213
49	0xbd41a6f6	-0.047278367
50	0x3e10c372	0.14137056
51	0xbd2f0167	-0.042725947
52	0x3e305c7a	0.17222777
53	0x3dfd3e0d	0.12365351
54	0xbdeb69f7	-0.114948206
55	0x3e2e217c	0.17004961
56	0xbdbc2431	-0.091865905
57	0x3d8ed2d1	0.06973804
58	0x3c83a395	0.016069213
59	0xbe156910	-0.1459086
60	0xbe13186a	-0.14364782
61	0x3e086289	0.13318838
62	0x3ddcef8c	0.107878774
63	0xbd524ec9	-0.051344667
64	0x3db55b0b	0.08855256
65	0xbc88d206	-0.01670171
66	0xbe2827c0	-0.16421413
67	0x3cd179b1	0.025570722
68	0xbe3742bc	-0.17896551
69	0xbd9220b9	-0.071351476
70	0x3e1b6f93	0.15179281
71	0x3e0075a4	0.12544876
72	0xbcfcea3b	-0.030873409
73	0xbd5241b8	-0.051332206
74	0x3e3c7688	0.18404591
75	0xbc07b2d9	-0.008282387
76	0xbdd2c8a6	-0.10292177
77	0x3df5cd83	0.12002089
78	0x3dd81917	0.105516605
79	0x3e16f3dc	0.14741462
80	0xbe087eca	-0.13329616
81	0x3c79073f	0.0151994815
82	0xbcb75d45	-0.022383342
83	0x3db3781b	0.08763143
84	0x3d54e4a9	0.05197588
85	0x3ba5fd8b	0.005065625
86	0x3ce1d0f0	0.02756545
87	0xbd3ba6ba	-0.0458133
88	0xbc57f98d	-0.013182056
89	0x3e16a261	0.1471038
90	0x3e06ff82	0.13183406
91	0xbc742f43	-0.014903846
92	0x3dcc3342	0.09970714
93	0x3ddfb131	0.109224685
94	0x3d84aba6	0.06478052
95	0xbca2e352	-0.019883785
96	0xbcc02120	-0.023453295
97	0x3de06432	0.10956611
98	0x3e0246d4	0.12722331
99	0x3aa2c0f4	0.0012417124
100	0x3db11047	0.08645683
101	0x3dde7cb2	0.108636275
102	0x3dacd4a7	0.08438998
103	0xbacfce71	-0.0015854371
104	0xbde1d53e	-0.11027001
105	0x3d144817	0.036201563
106	0x3e012097	0.12610088
107	0x3e35cc27	0.17753659
108	0x3c08876e	0.00833307
109	0x3dcc2c0a	0.09969337
110	0x3c9b6be6	0.018972348
111	0xbe38388a	-0.17990318
112	0x3d7ea8f5	0.06217285
113	0xbd8f61dd	-0.07001088
114	0x3dc39dad	0.09551559
115	0x3e287719	0.16451682
116	0xbe1c1bb7	-0.15244947
117	0x3cb04ae2	0.021520082
118	0xbd19a966	-0.037515067
119	0xbe1604da	-0.14650288
120	0x3ccd8093	0.025085723
121	0x3e0b3a26	0.135964
122	0x3e14524f	0.14484523
123	0xbdc4503f	-0.09585618
124	0x3dcd2e3d	0.10018585
125	0xbddecfa2	-0.108794466
126	0x3daea278	0.08527082
127	0xbd61e876	-0.055153333
128	0x3e355ce0	0.1771121
129	0x3d9b3263	0.0757797
130	0x3e1612a6	0.14655551
131	0xbdc40253	-0.09570756
132	0x3d6beaa4	0.057596818
133	0xbe152604	-0.14565283
134	0x3dc762ca	0.097356394
135	0x3c353b1d	0.011061457
136	0x3df740ca	0.120729044
137	0x3e343fba	0.17602435
138	0xbe01489c	-0.12625355
139	0x3dbe0c30	0.09279668
140	0xbdd9137b	-0.10599419
141	0xbe05cf84	-0.13067442
142	0x3cdff1a6	0.027336907
143	0xbe3346e9	-0.17507519
144	0x3e0cad6f	0.13738035
145	0x3df31f6b	0.11871227
146	0xbdc02b11	-0.09383214
147	0xbd741868	-0.059593588
148	0xbd18de4c	-0.037321374
149	0xbe121fe6	-0.14269981
150	0xbe1a0de1	-0.15044357
151	0x3c9ff53a	0.019526113
152	0xbd8c0d04	-0.0683842
153	0x3c44785c	0.011991587
154	0x3e204068	0.15649569
155	0x3ddf22e7	0.10895329
156	0x3cd79093	0.026314056
157	0xbe2f9217	-0.17145573
158	0xbdb88758	-0.0901019
159	0x3e27a51a	0.16371575
160	0x3db47ae5	0.08812503
161	0xbdd0574a	-0.10172899
162	0x3d696a1a	0.056985952
163	0x3bcbe017	0.006221782
164	0xbe368d25	-0.1782728
165	0xbc843d96	-0.016142648
166	0xbc6bbc28	-0.014388122
167	0x3d791d9b	0.06081925
168	0xbd8cb311	-0.06870092
169	0xbcdc9f49	-0.026931422
170	0x3def6fbc	0.116912335
171	0x3ceaaaab	0.028645834
172	0xbca0decd	-0.01963749
173	0xbd59dd4e	-0.05318957
174	0xbdb98476	-0.09058468
175	0x3de52797	0.11189192
176	0x3e0383bf	0.12843226
177	0x3c25ed45	0.01012737
178	0xbc641d6b	-0.013923029
179	0x3e0bd540	0.13655567
180	0x3c4ca589	0.0124906385
181	0xbe2fd327	-0.17170392
182	0xbda5ecc4	-0.081018
183	0x3e28c9fa	0.16483298
184	0xbdad8072	-0.084717646
185	0x3d4b9868	0.049705893
186	0xbe213ffa	-0.15747061
187	0xbdbb1d5b	-0.091364585
188	0x3d4f6ec9	0.050642762
189	0x3db84bc9	0.0899883
190	0x3d3f1506	0.04665091
191	0x3e0c571d	0.13705106
192	0xbe272cd0	-0.16325688
193	0xbe0f4daf	-0.13994478
194	0x3da14164	0.078738004
195	0xbd880853	-0.06642213
196	0x3e374cb1	0.17900349
197	0x3e2a6a03	0.16642003
198	0xbdc919b3	-0.09819355
199	0x3e06a45c	0.13148636
200	0xbe195d8f	-0.14977096
201	0xbd877157	-0.06613415
202	0xbd2218c1	-0.03957439
203	0x3d9cbd9f	0.07653355
204	0xbd3149ce	-0.043283276
205	0xbe23bc41	-0.15989782
206	0x3e0328de	0.12808558
207	0xbe256259	-0.16150798
208	0x3d0a3db2	0.033750243
209	0xbd5d9184	-0.054093853
210	0x3e046c84	0.1293202
211	0x3dc7854b	0.097422205
212	0xbe2363d9	-0.15956058
213	0x3e107b4f	0.14109538
214	0xbe0462f2	-0.1292837
215	0xbe0f4511	-0.1399119
216	0xbe0d40fb	-0.1379432
217	0xbdc6afd2	-0.09701504
218	0x3d2927db	0.041297775
219	0xbd809a70	-0.062794566
220	0xbe1d36e2	-0.15352967
221	0xbda147f0	-0.07875049
222	0x3d40a437	0.047031607
223	0x3d3eb08f	0.0465551
224	0x3dc9486a	0.09828265
225	0x3d7176e8	0.05895129
226	0x3e318cbf	0.17338847
227	0xbd47be13	-0.048765253
228	0x3dc10e23	0.094265245
229	0xbd3ed3bc	-0.046588644
230	0x3bd31c3c	0.006442575
231	0xbdda83d4	-0.106696755
232	0x3d3e9d18	0.046536535
233	0xbd262f94	-0.040572718
234	0x3b87c098	0.004142832
235	0xbd86ad6b	-0.065760456
236	0x3d951d55	0.07280985
237	0x3e127576	0.1430262
238	0x3df8e06a	0.121521786
239	0x3c2b28d7	0.010446749
240	0x3dd49ecb	0.1038185
241	0xbd68c001	-0.056823734
242	0x3de6f3ff	0.11277007
243	0x3ca5a41e	0.020219859
244	0x3c93349f	0.017969428
245	0xbc0f68af	-0.008752986
246	0xbe071067	-0.13189851
247	0xbc59da9b	-0.0132967485
248	0xbde5e926	-0.1122611
249	0xbe2be916	-0.16788134
250	0x3d507e10	0.050901473
251	0x3d67477a	0.05646465
252	0xbdc4e915	-0.09614769
253	0xbccb2163	-0.024796193
254	0xbde43d4c	-0.11144504
255	0xbd914fd5	-0.07095305

encoder.model.bias_ih_l1 f4 [120]
0	0x3e157155	0.14594014
1	0xbd41668e	-0.047216944
2	0xbbc33b7b	-0.0059580184
3	0x3cfe77dd	0.031063015
4	0xbe25941d	-0.16169782
5	0x3cdc9250	0.026925236
6	0xbe1b0190	-0.15137315
7	0x3da8d58c	0.08243856
8	0x3c748690	0.01492466
9	0x3da9feec	0.083005756
10	0x3e1a9723	0.15096717
11	0x3e0c20ee	0.13684437
12	0xbc8cf7bd	-0.017207975
13	0x3e13bf73	0.14428501
14	0xbe210667	-0.15725099
15	0xbd4c9644	-0.049947992
16	0xbdfd6c18	-0.12374133
17	0xbc5b2486	-0.013375407
18	0x3e058920	0.1304059
19	0x3e312aa0	0.17301416
20	0x3d7af8c6	0.061272405
21	0xbe2e3066	-0.1701065
22	0xbc605781	-0.013692738
23	0xbd5edeb8	-0.05441162
24	0xbd9466c4	-0.072461635
25	0xbcd3e55b	-0.025866201
26	0xbcdde773	-0.027087903
27	0x3ce80452	0.028322373
28	0xbdabc587	-0.08387285
29	0xbd80b55f	-0.06284594
30	0xbddd30d0	-0.10800326
31	0x3d6415e2	0.05568493
32	0xbdb1c01f	-0.08679222
33	0xbbb329e2	-0.0054676393
34	0xbe14d7fa	-0.14535514
35	0x3bd704d0	0.006561853
36	0x3d7fb100	0.06242466
37	0x3da3afc4	0.07992509
38	0x3d7008e4	0.05860223
39	0x3da38c9c	0.079858035
40	0x3da45d82	0.08025648
41	0xbe042d56	-0.1290792
42	0xbdce5cc2	-0.10076286
43	0x3e399a77	0.1812533
44	0x3dd4492e	0.103655204
45	0x3d8c97ca	0.06864889
46	0xbcb7c3fa	-0.022432316
47	0x3e196bbc	0.14982504
48	0xbdd8a370	-0.10578048
49	0x3c4b2992	0.012400048
50	0x3d8c3c3f	0.068474285
51	0x3a374f76	0.00069927366
52	0x3c0f0733	0.008729744
53	0x3e425602	0.18978122
54	0x3d655a09	0.055994067
55	0x3e1bedc8	0.15227425
56	0xbdc184a7	-0.094491296
57	0xbdadcc5e	-0.084862456
58	0x3e2e7863	0.17038111
59	0x3db24ac9	0.087056704
60	0x3e2e6a34	0.17032701
61	0xbdb2160b	-0.086956106
62	0xbd1f6590	-0.038915217
63	0xbe0ccb72	-0.13749483
64	0xbe2cb46d	-0.16865702
65	0xbe1cb634	-0.1530388
66	0x3d33d42e	0.043903522
67	0x3d5e8421	0.054325227
68	0xbccddc37	-0.02512942
69	0x3d209180	0.03920126
70	0xbdf1a18f	-0.11798393
71	0x3e2e400a	0.17016616
72	0x3df01885	0.11723427
73	0x3d93b24c	0.07211742
74	0x3d0ca926	0.034341
75	0xbcc85920	-0.02445656
76	0xbd34ec5f	-0.044170734
77	0x3dd50acb	0.10402449
78	0xbe3b1871	-0.18271042
79	0x3d3f21c3	0.046663057
80	0xbdce4742	-0.10072185
81	0x3d0a808d	0.033814
82	0xbd2f66da	-0.042822696
83	0x3e0c6d37	0.13713537
84	0xbe068d1f	-0.13139771
85	0xbe3f3d84	-0.1867581
86	0xbda3d4de	-0.079995856
87	0x3e2a1bbf	0.16612147
88	0xbacbc798	-0.0015547154
89	0xbdeb3eb7	-0.11486571
90	0x3dcfb627	0.10142165
91	0x3d3f0e89	0.04664472
92	0x3da0718a	0.07834156
93	0xbdc13ca4	-0.094353944
94	0x3c79e903	0.015253308
95	0xbe42db14	-0.19028884
96	0xbc109b21	-0.008826048
97	0xbd537d88	-0.051633388
98	0xbe109a9d	-0.1412148
99	0x3e30204d	0.17199822
100	0xbcb5aab9	-0.022176133
101	0xbdb9f3d5	-0.090797104
102	0x3dd3c919	0.10341091
103	0xbdf79042	-0.12088062
104	0x3d6ba16d	0.057526994
105	0x3ddf130e	0.10892306
106	0xbdd3f376	-0.10349171
107	0xbdb8d23b	-0.09024473
108	0xbe1c30b5	-0.15252955
109	0xbd870fe0	-0.06594825
110	0x3ca713bc	0.020395152
111	0xbd26c068	-0.040710837
112	0x3cea2d67	0.028586103
113	0xbd4827f2	-0.04886622
114	0xbd68128e	-0.05665832
115	0xbc144d1c	-0.009051587
116	0xbd361054	-0.044449165
117	0xbe352100	-0.1768837
118	0x3da7ab41	0.08186961
119	0xbdb38db0	-0.08767259

encoder.model.bias_hh_l1 f4 [120]
0	0x3e0b3d00	0.13597488
1	0x3d6e7166	0.058213614
2	0xbe140319	-0.14454307
3	0x3e437b4f	0.19090007
4	0xbddd6e5b	-0.10812064
5	0x3c80c444	0.015718587
6	0xbd0ada96	-0.033899866
7	0xbe17005a	-0.14746228
8	0x3c045a91	0.008078233
9	0xbd672f06	-0.05644133
10	0x3de9877d	0.114027955
11	0x3d280ed5	0.04102977
12	0x3e0961df	0.13416241
13	0xbc91fa13	-0.01781944
14	0x3d7d921d	0.061906923
15	0xbe13ca78	-0.14432704
16	0x3dfca42f	0.12336003
17	0xbdd98d3e	-0.10622643
18	0xbdb2de67	-0.08733826
19	0xbdb17a29	-0.08665878
20	0xbe361c96	-0.17784342
21	0xbe04cd73	-0.12968998
22	0x3dcc3084	0.09970191
23	0x3c392672	0.01130067
24	0x3ba6fe7e	0.005096256
25	0x3e114a70	0.14188552
26	0xbd970f98	-0.07376021
27	0x3dc38a57	0.095478706
28	0x3c599f64	0.013282631
29	0x3dcf2f00	0.101163864
30	0xbc42f32d	-0.011898798
31	0xbe01cae3	-0.12675051
32	0x3e1f40f4	0.15552121
33	0x3cb86c0e	0.022512462
34	0xbcba19e9	-0.022717433
35	0x3d843443	0.06455281
36	0x3d37557b	0.044759255
37	0x3dd91abe	0.10600804
38	0x3e16bbc0	0.14720058
39	0x3c02d147	0.007984466
40	0xbe3d6caa	-0.18498483
41	0x3e01474b	0.12624852
42	0x3e1616b6	0.14657101
43	0x3d0f7976	0.035027944
44	0x3dce829a	0.10083504
45	0x3dd38c4c	0.10329494
46	0x3d0e9f8d	0.03482013
47	0x3cac26b3	0.021014547
48	0xbe1fabd4	-0.15592891
49	0xbe2ab3f7	-0.16670214
50	0xbe439bc7	-0.19102393
51	0x3d323315	0.043505747
52	0x3ccef85e	0.025264915
53	0x3d4e2b10	0.050334036
54	0xbdace2bd	-0.084416844
55	0x3e218075	0.15771659
56	0xbe212cd4	-0.15739757
57	0x3dddf102	0.10836984
58	0x3c3287eb	0.010896663
59	0x3e245518	0.16048086
60	0xbe1a054e	-0.15041086
61	0xbd9b2def	-0.075771205
62	0xbbd1aaa1	-0.0063985144
63	0x3ddfa7c9	0.10920674
64	0x3e3382dc	0.17530388
65	0xbc2854e6	-0.010274148
66	0xbdb433c1	-0.08798934
67	0xbe244901	-0.16043474
68	0xbd9a5b3c	-0.07536933
69	0xbdba57ec	-0.09098801
70	0x3cd8bccb	0.026457211
71	0xbdabcb69	-0.08388407
72	0x3d8d5e8f	0.06902801
73	0x3c4421f9	0.01197099
74	0x3daed0f5	0.08535949
75	0x3e16fc7e	0.14744756
76	0x3e1424e2	0.14467195
77	0x3e150eef	0.14556478
78	0xbccc3e60	-0.024932086
79	0xbd69fde9	-0.057126913
80	0xbdf825e6	-0.121166036
81	0xbdedf317	-0.11618631
82	0xbd8dee29	-0.06930191
83	0xbdb426c0	-0.087964535
84	0xb9972ef5	-0.0002883595
85	0x3da7e819	0.08198566
86	0xbe1e1753	-0.15438585
87	0xbd84f9d9	-0.06492967
88	0x3d052b62	0.032512076
89	0x3bc1154f	0.0058924328
90	0xbe2a971a	-0.16659203
91	0xbe2ff1cf	-0.17182086
92	0xbdf571ae	-0.11984573
93	0x3e2a73fa	0.16645804
94	0x3e020930	0.12698817
95	0xbe0ca566	-0.1373497
96	0x3dfeb313	0.124364994
97	0x3e1a992c	0.15097493
98	0x3ddbba06	0.107288405
99	0x3cd738a4	0.026272126
100	0xbdce7d9e	-0.10082553
101	0x3d65a4a8	0.05606523
102	0x3d1b0626	0.03784766
103	0xbc1ae885	-0.009454851
104	0xbd418751	-0.04724819
105	0x3e34658c	0.17616862
106	0x3dee79cb	0.11644324
107	0xba9ed521	-0.0012117961
108	0xbe1573d6	-0.14594969
109	0xbd470618	-0.048589796
110	0xba4d5f90	-0.00078343693
111	0x3e290130	0.16504359
112	0x3d094d22	0.033520825
113	0x3e2e6876	0.17032036
114	0x3a4f700d	0.000791312
115	0x3d448992	0.04798276
116	0x3e1a9b51	0.15098311
117	0x3e02dd48	0.12779725
118	0x3dcf948a	0.101357535
119	0x3dca3921	0.09874178

variational_latent.hidden_to_mu.weight f4 [15, 30]
0	0x3e693c20	0.22776842
1	0x3e1b7f95	0.15185387
2	0x3e8d8555	0.27640787
3	0x3ea8fab2	0.33003765
4	0x3ddc7f1e	0.10766433
5	0xbc894335	-0.01675568
6	0x3ccd200a	0.025039691
7	0x3e770a9e	0.24125144
8	0xbe4846b5	-0.19558223
9	0x3e54e969	0.20792164
10	0xbda4e258	-0.08050984
11	0xbe81c046	-0.25342005
12	0x3eaffa54	0.34370673
13	0xbeb771f4	-0.35829127
14	0x3d093d24	0.033505574
15	0x3ddf9b3d	0.10918281
16	0xbeaac91b	-0.33356556
17	0xbe5b2019	-0.21398963
18	0xbdf7a226	-0.12091474
19	0xbe25edee	-0.16204044
20	0xbdc95ea3	-0.09832504
21	0x3c1034c9	0.008801647
22	0xbe5144e0	-0.2043643
23	0xbe15d22d	-0.14630957
24	0xbe941e51	-0.2892938
25	0x3ce241d0	0.027619272
26	0x3eb485af	0.35258242
27	0x3e2596c7	0.16170798
28	0xbe1e31af	-0.1544864
29	0xbdbe3ef2	-0.092893496
30	0xbe89e491	-0.26932195
31	0xbe73c294	-0.23804694
32	0x3e2a5081	0.16632272
33	0xbc5fb66e	-0.0136543345
34	0x3ca4c927	0.020115448
35	0x3e93e5cc	0.2888626
36	0x3dd328e6	0.10310535
37	0x3dcfa4d6	0.10138862
38	0x3e509eb2	0.20373037
39	0x3b10beb9	0.0022086336
40	0x3e0fca9a	0.1404213
41	0x3e430ed5	0.19048627
42	0xbcea4853	-0.02859894
43	0x3e1e83fb	0.15480034
44	0xbe8b400c	-0.271973
45	0xbe2efeb8	-0.17089355
46	0x3ead3239	0.3382738
47	0xbe90b117	-0.2826011
48	0x3e2f2533	0.17104034
49	0xbde23b84	-0.11046508
50	0xbe810881	-0.252018
51	0xbeaa4d64	-0.3326217
52	0x3e26b4ec	0.16279954
53	0xbeac8318	-0.33693767
54	0x3ea9c737	0.331598
55	0x3de1de85	0.1102877
56	0xbe4e2817	-0.2013248
57	0x3e644a3b	0.22293942
58	0xbd019f77	-0.03164622
59	0x3eb4be81	0.35301593
60	0xbe3bf676	-0.18355736
61	0xbe65305f	-0.22381733
62	0x3db81e15	0.08990113
63	0x3e01abcb	0.1266319
64	0xbe9aef13	-0.30260524
65	0x3ea15d4b	0.3151649
66	0x3ea9e8bc	0.33185375
67	0x3e788dd7	0.24272858
68	0x3e094fc6	0.13409337
69	0xbe9f21db	-0.31080517
70	0x3e62c64d	0.22145958
71	0x3eaa515d	0.332652
72	0x3e9644ed	0.2934946
73	0x3eafdd12	0.3434835
74	0x3dc33a49	0.095326014
75	0x3e8291f3	0.25501975
76	0x3e9c5f47	0.3054144
77	0x3ea3bd17	0.31980202
78	0xbd3e1288	-0.04640439
79	0x3bba78c1	0.0056906645
80	0xbd7209cf	-0.059091385
81	0xbeaf724b	-0.34266886
82	0x3e3970f7	0.18109499
83	0xbe37d3d0	-0.17951894
84	0xbeb38406	-0.35061663
85	0xbe6410a8	-0.22271979
86	0x3d934ede	0.07192777
87	0x3dcea458	0.1008994
88	0x3eb254f6	0.34830445
89	0x3e84c7a1	0.25933555
90	0xbea75de3	-0.32688817
91	0xbe723d04	-0.23656088
92	0xbe962572	-0.29325444
93	0x3e08db9d	0.13365026
94	0xbd3623e2	-0.044467814
95	0xbcc8a903	-0.024494654
96	0x3e569369	0.2095467
97	0xbe72d506	-0.23714074
98	0xbdaffdc5	-0.085933246
99	0xbca2969f	-0.019847212
100	0x3e195db0	0.14977145
101	0xbd1b31f6	-0.037889443
102	0x3e0caad8	0.13737047
103	0x3dcee1e5	0.1010168
104	0x3d817a3d	0.06322143
105	0xbe06ae19	-0.1315235
106	0x3e5ccc40	0.2156229
107	0x3d5a5a1c	0.05330859
108	0xbe4e8b0e	-0.20170233
109	0xbd97afb3	-0.07406559
110	0x3dcccaf0	0.09999645
111	0xbe2f7b8c	-0.17136973
112	0x3cbb5b4b	0.02287068
113	0xbea00ff5	-0.31262174
114	0xbebdd19e	-0.37073988
115	0x3e4fb1c8	0.20282662
116	0x3d1cf106	0.038315795
117	0xbda9f4d9	-0.08298654
118	0x3e15f64a	0.14644733
119	0xbdecba7c	-0.115590066
120	0xbd20f92f	-0.03930014
121	0xbe0e386f	-0.13888715
122	0x3e90108a	0.28137618
123	0x3e462188	0.19348729
124	0xbda929b6	-0.08259909
125	0x3e9fdf42	0.3122502
126	0xbea7b370	-0.32754087
127	0x3dcc5cf0	0.09978664
128	0x3df9c900	0.12196541
129	0x3e304b60	0.17216253
130	0x3e2b1a27	0.16709195
131	0xbe8c501b	-0.27404866
132	0xbeb1bc83	-0.34714136
133	0x3d156c2a	0.036480106
134	0x3d14286c	0.03617136
135	0xbe7a5d8e	-0.24449751
136	0xbbfb890e	-0.0076762503
137	0xbea64c20	-0.32479954
138	0x3e0b73b6	0.13618359
139	0x3e854e8c	0.2603649
140	0xbeab64d3	-0.3347536
141	0x3cc13b39	0.02358781
142	0xbdd7eae8	-0.10542852
143	0x3e44d41c	0.19221538
144	0x3e09cd68	0.13457263
145	0x3cf322e4	0.029679723
146	0x3e7c7ca1	0.24656917
147	0x3ea520fb	0.32251725
148	0xbe4a28f1	-0.1974218
149	0x3d3c6152	0.04599125
150	0xbe3b140b	-0.18269365
151	0xbe20b884	-0.15695387
152	0x3d6d970c	0.058005378
153	0x3e8f001e	0.27929777
154	0xbe46323f	-0.19355105
155	0xbe8b1dc9	-0.27171162
156	0xbd45905a	-0.048233368
157	0x3bc2b24e	0.0059416657
158	0xbe6e8136	-0.23291478
159	0x3e05e102	0.13074115
160	0xbeb4ca64	-0.35310662
161	0x3e6ab4b3	0.22920494
162	0xbe944ebe	-0.28966326
163	0x3ea633f0	0.324615
164	0x3cf1822a	0.029481012
165	0x3eaf0600	0.34184265
166	0x3d86b070	0.065766215
167	0xbc5ad9e5	-0.013357614
168	0x3daa267b	0.08308121
169	0x3bdf833e	0.006821065
170	0xbe8b7298	-0.27235866
171	0x3e11e652	0.14248016
172	0xbe73d4fe	-0.23811719
173	0x3e9ab693	0.30217418
174	0xbe4b38f6	-0.19845948
175	0x3e94dc3b	0.29074273
176	0xbd050641	-0.032476667
177	0xbea0979e	-0.31365675
178	0xbdb7629a	-0.08954354
179	0xbd92c508	-0.07166487
180	0xbe6fb89a	-0.23410264
181	0x3eb2a4ab	0.34891257
182	0x3e0fc044	0.14038187
183	0x3e32885c	0.1743483
184	0xbdee5a9e	-0.116383776
185	0xbe61b87b	-0.2204303
186	0x3ebb1f02	0.36547095
187	0x3e09d00e	0.13458273
188	0xbe80f67b	-0.2518805
189	0xbe1ed9fe	-0.15512845
190	0xbe992d32	-0.29917294
191	0xbe15888a	-0.14602867
192	0xbe93e466	-0.28885192
193	0x3eb630c2	0.35584074
194	0xbdae4c95	-0.085107006
195	0xbeaaf982	-0.33393484
196	0x3e0c7376	0.1371592
197	0xbdf57d6e	-0.119868144
198	0xbe94a12e	-0.2902922
199	0xbdd259c9	-0.102710314
200	0x3d354273	0.044252824
201	0xbe1201fe	-0.14258572
202	0xbe49251f	-0.19643067
203	0x3e3de4ee	0.18544361
204	0xbe4010b0	-0.18756366
205	0xbdd9cc79	-0.10634703
206	0xbc5ea86f	-0.013589962
207	0x3dd3d53a	0.10343404
208	0x3ea32751	0.31865934
209	0xbe1a638a	-0.15077034
210	0x3c7462df	0.014916151
211	0x3e1f0062	0.1552749
212	0x3ea68a5a	0.3252743
213	0x3d04aad1	0.032389466
214	0x3e436574	0.1908167
215	0xbea55ead	-0.32298794
216	0xbe467a60	-0.1938262
217	0xbd20d36f	-0.03926414
218	0xbeb1aeb2	-0.34703594
219	0xbe9e2e5f	-0.30894753
220	0x3eabdf27	0.3356869
221	0xbe81703d	-0.25280944
222	0x3c63d2bf	0.013905226
223	0xbd942d1f	-0.07235169
224	0x3c2344e0	0.009965152
225	0x3e550c9b	0.2080559
226	0xbe922d2c	-0.28550088
227	0x3eb639df	0.35591027
228	0xbeb7dbba	-0.35909826
229	0x3ea17569	0.3153489
230	0xbd9879ce	-0.074451074
231	0xbe889e53	-0.26683292
232	0x3e9f9a9b	0.31172642
233	0xbeb3a381	-0.3508568
234	0xbe4eccb8	-0.20195282
235	0x3e21cbc6	0.1580039
236	0xbe3a3645	-0.18184765
237	0x3eb2a524	0.34891617
238	0xbe206a75	-0.1566561
239	0xbe3e054a	-0.18556705
240	0x3db411f4	0.08792487
241	0xbe1a95ba	-0.15096179
242	0x3da22a4c	0.07918224
243	0x3df09fe5	0.117492475
244	0xbe150d63	-0.14555888
245	0x3e0228da	0.12710896
246	0x3e2d5a6f	0.16929029
247	0x3cb8ca9f	0.022557555
248	0x3eaf149e	0.34195417
249	0x3eb0c86b	0.34527907
250	0xbdd33e67	-0.10314637
251	0xbea96e7b	-0.33092102
252	0x3e3d891f	0.18509339
253	0xbe0f6113	-0.14001875
254	0x3e7b3ff6	0.24536118
255	0x3ea24ff3	0.3170162

variational_latent.hidden_to_mu.bias f4 [15]
0	0x3d7b13ed	0.0612983
1	0x3dcab1e2	0.0989721
2	0xbd9ff6e8	-0.078107655
3	0xbe0a23ad	-0.13490172
4	0xbd11ccbe	-0.035595648
5	0x3e254133	0.16138153
6	0x3c40d289	0.0117689455
7	0xbbfbc5bf	-0.0076834853
8	0x3e02ca82	0.12772563
9	0x3e145a56	0.14487585
10	0x3d925729	0.07145531
11	0xbdba8d16	-0.09108941
12	0x3e122874	0.14273244
13	0x3db76816	0.089554
14	0x3e11c856	0.14236578
