models/20200923_181657/epoch_0400_loss_393395.27283.pt (torch, 801233 bytes, 96 tensors)

encoder.model.weight_ih_l0 f4 [240, 3]
-0.04513041 0.015839694 0.09282594 0.16414453 -0.2115268 0.058332734 -0.0971513 0.09201901
0.54327834 -0.041259605 0.1662638 -0.14533107 -0.0054613934 0.05623412 0.017432895 -0.116162315
0.030413533 0.05234203 0.043011595 -0.050524883 -0.08358988 0.04873482 0.07096443 0.08490597
-0.15839763 0.068250686 0.3435997 0.24797857 0.117950514 0.2258911 -0.14157292 0.024673345
-0.017624613 0.06287736 -0.10038019 -0.030116308 0.040347397 0.04027474 0.3591108 0.27499217
0.09321861 0.14931111 -0.0139033655 -0.13519448 -0.116183735 -0.0011097182 0.0075860675 -0.004479282
0.00033383528 0.05374509 0.1227067 -0.072038196 -0.2041059 0.011853536 -0.23532648 -0.2819846
-0.071804754 -0.14848153 0.002043887 0.08631188 -0.019387066 0.139618 -0.003898694 -0.0060663833
0.063802846 0.01840693 0.063871525 0.14398386 0.35051155 0.03591014 0.14012496 0.23517944
-0.04850915 -0.08448543 0.12027997 -0.017049186 0.16566987 0.008077998 0.124313846 0.28263292
-0.01370415 0.038122043 -0.072632834 -0.012657439 0.08852037 -0.06578395 -0.07888992 -0.095249824
0.107842 -0.121441446 0.022225432 0.004316821 0.06293623 0.15725476 -0.12436291 -0.17367187
0.0004965725 -0.14002399 0.0155249275 -0.1653518 -0.026208298 -0.0002668112 -0.073883526 -0.03297154
0.053112727 -0.107817955 0.057303857 0.09167489 0.022722486 0.018522376 0.024817996 -0.119723506
0.10143718 0.11939382 -0.02388224 0.13247725 -0.0066548325 0.18022007 0.010128536 0.14897326
0.0028992668 0.061316837 0.15180221 0.0005977112 -0.048822876 -0.0038033724 -0.044314355 0.106720224
0.49539453 -0.117601104 0.096507 0.02725066 -0.005571726 0.13215108 -0.027349716 0.10322658
0.014394955 -0.051317804 0.027388178 -0.067460835 0.04554213 0.074065484 -0.08581503 0.012491725
0.07425527 0.08286315 0.057890285 -0.0187044 0.0066041527 0.05402325 -0.3163352 0.14220081
-0.21560104 0.028285008 -0.072262384 0.2444396 -0.12583244 0.11905382 0.06407912 0.11937358
0.06737428 -0.029171329 0.009301298 -0.22388387 0.10955675 0.009723792 0.036113434 0.0952281
-0.030021347 0.023355812 0.0001420042 -0.0141189555 0.14141096 0.19349422 -0.0917378 0.116440065
0.15487155 0.061841745 -0.15186886 -0.06803528 0.15453722 0.07927703 0.03749622 0.13761863
0.02751257 -0.15570907 -0.17398378 0.018102286 0.0662385 0.0592219 -0.12354676 0.021955874
-0.06786634 0.11480823 0.094423145 -0.1330943 -0.059815757 0.040668603 0.082487926 0.1052177
0.028461596 0.053107075 0.17861816 0.17603761 -0.25794548 -0.025176337 0.04348746 0.24880932
-0.111634314 0.04829403 -0.017492944 0.12931052 -0.10890169 -0.07113313 -0.041626185 0.03457677
0.16118944 0.15721285 0.17360319 0.26989618 0.03410225 0.07731358 -0.015416292 -0.1211365
0.07476606 0.05546234 -0.15262848 -0.07596389 0.105570614 0.088091314 0.2802163 -0.014537581
-0.1978146 0.052008163 0.04085961 -0.14860126 0.09253896 -0.17211114 0.032765105 0.0067859986
0.0595151 -0.019492526 0.06770366 -0.08426761 -0.01739592 -0.072567545 -0.017642414 0.07664642
0.41021776 -0.032815363 0.03313377 0.2855768 -0.080713816 -0.12816578 -0.015500459 0.19970661
00000000: aada 38bd 3fc2 813c 871b be3d 8115 283e
00000010: 7b9a 58be 4eee 6e3d 43f7 c6bd 7674 bc3d
00000020: 4a14 0b3f d5ff 28bd 0f41 2a3e abd1 14be
00000030: 7df5 b2bb c055 663d 6ecf 8e3c 82e6 edbd
00000040: cd25 f93c 9964 563d ed2c 303d 2ef3 4ebd
00000050: 2c31 abbd 2a9e 473d cd55 913d 2ee3 ad3d
00000060: fd32 22be 04c7 8b3d 4dec af3e 18ee 7d3e
00000070: 0a90 f13d ff4f 673e 7ef8 10be c11f ca3c
00000080: 7e61 90bc d8c5 803d 2194 cdbd 7ab6 f6bc
00000090: 5043 253d 20f7 243d 5fdd b73e c6cb 8c3e
000000a0: 66e9 be3d 03e5 183e f1ca 63bc 6c70 0abe
000000b0: bdf1 edbd f773 91ba 8c94 f83b f1c6 92bb
000000c0: 9d06 af39 d023 5c3d a64d fb3d c388 93bd
000000d0: 2301 51be 5535 423c 6df9 70be 4960 90be
000000e0: 5f0e 93bd 8b0b 18be bcf2 053b 48c4 b03d
000000f0: a0d1 9ebc 05f8 0e3e 3b81 7fbb 83c8 c6bb
00000100: 11ab 823d 21ca 963c 13cf 823d 8170 133e
00000110: 4076 b33e 8316 133d eb7c 0f3e e1d2 703e
00000120: 88b1 46bd b206 adbd 5855 f63d bcaa 8bbc
00000130: 5da5 293e 9459 043c 4298 fe3d 43b5 903e
00000140: 5f87 60bc dc25 1c3d 86c0 94bd 2661 4fbc
00000150: 2b4a b53d bcb9 86bd 0a91 a1bd 5712 c3bd
00000160: 44dc dc3d 4bb6 f8bd 1c12 b63c 1f74 8d3b
00000170: b6e4 803d 6407 213e fbb1 febd 0ad7 31be
00000180: 6b2c 023a 7362 0fbe 445c 7e3c fb51 29be
00000190: c9b2 d6bc cbe2 8bb9 3f50 97bd 2a0d 07bd
000001a0: bb8c 593d a9cf dcbd 73b7 6a3d 0bc0 bb3d
000001b0: 8224 ba3c 3dbc 973c 1c4f cb3c 9931 f5bd
000001c0: 4cbe cf3d bf84 f43d b0a4 c3bc 1ea8 073e
000001d0: c810 dabb 9c8b 383e 29f2 253c 728c 183e
000001e0: a001 3e3b 5d27 7b3d 0a72 1b3e b8af 1c3a
000001f0: 7ffa 47bd 0042 79bb f882 35bd 2290 da3d
00000200: 5aa4 fd3e d9d8 f0bd 76a5 c53d c73c df3c
00000210: 0693 b6bb 9d52 073e 830c e0bc 7568 d33d
00000220: d1d8 6b3c 9e32 52bd 2c5d e03c e828 8abd
00000230: 628a 3a3d a5af 973d cabf afbd 18aa 4c3c
00000240: 2613 983d 28b4 a93d 5d1e 6d3d f839 99bc
00000250: a667 d83b 7c47 5d3d b0f6 a1be 179d 113e
00000260: 85c6 5cbe f6b5 e73c 4dfe 93bd 604e 7a3e
00000270: 38da 00be 7dd2 f33d ea3b 833d 237a f43d
00000280: 87fb 893d b6f8 eebc 7964 183c d041 65be
00000290: 4a5f e03d 8a50 1f3c aeeb 133d f306 c33d
000002a0: 54ef f5bc b054 bf3c f6e6 1439 3153 67bc
000002b0: 09ce 103e 5923 463e 07e1 bbbd 2178 ee3d
000002c0: a696 1e3e c54d 7d3d 8383 1bbe 1556 8bbd
000002d0: 013f 1e3e ff5b a23d a395 193d e6eb 0c3e
000002e0: 0b62 e13c 3372 1fbe ce28 32be 3f4b 943c
000002f0: 0da8 873d aa92 723d 1506 fdbd cedc b33c
00000300: 82fd 8abd 9420 eb3d ec60 c13d df49 08be
00000310: 5e01 75bd 1f94 263d 6eef a83d 617c d73d
00000320: 4b28 e93c ce86 593d aee7 363e 3443 343e
00000330: 6e11 84be 9b3e cebc e81f 323d dfc7 7e3e
00000340: 88a0 e4bd f6cf 453d 5d4d 8fbc fa69 043e
00000350: d907 dfbd 3fae 91bd 3880 2abd 5fa0 0d3d
00000360: d80e 253e 68fc 203e 09c5 313e d52f 8a3e
00000370: cdae 0b3d 9556 9e3d 9d94 7cbc 6a16 f8bd
00000380: f31e 993d 7b2c 633d a44a 1cbe f592 9bbd
00000390: 6835 d83d 3869 b43d 8378 8f3e 092f 6ebc
000003a0: e98f 4abe 8306 553d 685c 273d ee2a 18be
000003b0: 1185 bd3d e73d 30be b434 063d 155d de3b
000003c0: 1bc6 733d caae 9fbc 37a8 8a3d 7f94 acbd
000003d0: e381 8ebc 4b9e 94bd d386 90bc ccf8 9c3d
000003e0: 1008 d23e 6769 06bd 47b7 073d 1f37 923e
000003f0: 494d a5bd e43d 03be a3f5 7dbc e47f 4c3e

encoder.model.weight_hh_l0 f4 [240, 60]
0.033836804 0.03923628 0.042455368 0.08685741 0.18314035 0.17056575 0.11147075 -0.033829898
0.0066284295 -0.06832065 0.14080039 -0.012410934 0.066809095 0.06533152 0.039014455 0.048898943
0.07121451 0.04413006 -0.075970545 0.06370623 -0.07213297 -0.19241875 0.20434155 0.09546657
0.12093085 -0.08728854 -0.055073492 0.04886846 0.08713264 -0.07136155 0.046341 -0.08491295
-0.031726465 0.09284593 0.07061446 0.024875524 0.19307491 -0.049962476 -0.043090202 -0.05430048
0.022002278 0.0040532 0.11158073 0.0018109062 0.1311029 0.11714086 -0.14662804 -0.077869184
0.039096296 -0.17633396 0.093254045 -0.046586134 0.016215894 0.12420958 0.036784634 0.116901696
-0.101799466 0.03619489 -0.008041894 -0.13149332 -0.039217398 -0.0061639613 -0.19493593 0.01895369
0.024414806 -0.05834519 0.11547184 -0.04632089 0.038939506 0.094506614 -0.113016725 -0.07950181
0.015371859 -0.06492009 -0.032836817 0.13319954 0.06514587 -0.0017062961 0.04595021 -0.098250136
-0.15311521 0.0042914543 0.039973713 -0.13285074 -0.030617353 0.075014845 0.0120358 0.031373985
-0.05479116 -0.05568688 0.015854768 0.03551921 -0.138915 0.09111612 0.17677912 0.0034637824
0.13469048 -0.048515294 0.036741093 -0.09728024 -0.086480774 0.07149068 -0.08823156 -0.15143093
-0.014749545 0.029092891 -0.12767018 -0.108582206 0.10771734 -0.03722522 0.15776144 -0.09847193
-0.0504911 -0.021477412 -0.12000353 0.09733574 -0.07579749 0.092304274 -0.005576128 -0.08085442
-0.13834754 -0.22061104 -0.08671978 -0.21131198 0.17195983 -0.13813572 0.15662171 0.028595392
-0.075648814 -0.2407197 -0.3553324 -0.1945277 0.20065348 -0.19495054 -0.21532948 0.32462353
0.0018470468 -0.37108016 -0.22509922 -0.10703698 0.042820733 0.067677654 -0.054582532 0.09586126
-0.07623598 0.34030414 -0.10808178 0.10845605 0.23350383 0.21472844 0.045613453 0.122557946
-0.24538338 -0.38657454 0.11927746 0.26879087 0.14180326 -0.16734268 -0.38210344 0.22587657
0.25914702 0.31664884 0.23773965 -0.3523226 0.28706565 0.24687447 -0.119142525 0.33500403
0.19056852 -0.11599016 0.26993835 -0.002668779 0.1499601 0.19637573 -0.14259529 0.10981796
0.2148675 0.2676661 0.16349965 -0.37188527 -0.04681316 -0.019151948 -0.029445047 -0.026594335
0.044900306 0.023790412 -0.06890427 -0.14457245 0.1526606 -0.13788968 0.17206047 -0.057093028
-0.06910368 0.030211207 0.06548903 -0.06078597 -0.022514638 -0.15512252 0.078944914 -0.05854396
-0.009991473 -0.036912397 0.04115763 0.023092737 -0.0084072305 -0.045132067 -0.0747304 -0.1264563
0.14638121 0.04021881 0.07659854 0.05515074 0.026168844 -0.00015064505 0.10327053 -0.107554235
-0.02761224 0.042778466 -0.09505604 0.0032888446 -0.039149255 0.16571389 0.015841559 0.13736583
0.007927074 0.12544297 0.07021244 0.096930295 -0.020053018 -0.1912196 -0.060316987 0.13364881
0.10491107 0.042714085 -0.023082592 -0.043872796 0.03161023 0.004465331 0.16269107 -0.049282152
-0.20421316 -0.23335186 -0.09630696 -0.14816593 0.108753055 -0.16279322 -0.054188818 0.16460678
-0.08601736 -0.29027006 0.006259038 -0.0018255326 0.15412597 -0.07609667 -0.20349023 -0.010932514
00000000: 7698 0a3d 39b6 203d aee5 2d3d 4ce2 b13d
00000010: 2589 3b3e caa8 2e3e c74a e43d 3891 0abd
00000020: 4c33 d93b b2eb 8bbd fa2d 103e 3b57 4bbc
00000030: 35d3 883d 88cc 853d 9fcd 1f3d 424a 483d
00000040: ead8 913d b9c1 343d 7296 9bbd 6978 823d
00000050: 73ba 93bd 6c09 45be e93e 513e fa83 c33d
00000060: 98aa f73d 56c4 b2bd be94 61bd 4b2a 483d
00000070: 9972 b23d 0126 92bd 0fd0 3d3d d7e6 adbd
00000080: 9cf3 01bd 0226 be3d 509e 903d c1c7 cb3c
00000090: 6eb5 453e 74a5 4cbd 5a7f 30bd 2e6a 5ebd
000000a0: 1f3e b43c b5d0 843b 7084 e43d ee5b ed3a
000000b0: d73f 063e 8ce7 ef3d a925 16be e179 9fbd
000000c0: 7023 203d e490 34be fafb be3d 1ad1 3ebd
000000d0: 32d7 843c 9861 fe3d 7cab 163d 286a ef3d
000000e0: 3d7c d0bd 1841 143d 26c2 03bc 2fa6 06be
000000f0: 6ca2 20bd 0efb c9bb 499d 47be c544 9b3c
00000100: 8f01 c83c 5efb 6ebd 807c ec3d f9ba 3dbd
00000110: 087f 1f3d af8c c13d 5075 e7bd d8d1 a2bd
00000120: 40da 7b3c d3f4 84bd e67f 06bd 7665 083e
00000130: 336b 853d cca5 dfba 4a36 3c3d 5e37 c9bd
00000140: 3cca 1cbe 549f 8c3b 7abb 233d 060a 08be
00000150: 3ed1 fabc 62a1 993d ce31 453c 0282 003d
00000160: b26c 60bd ed17 64bd dce1 813c 977c 113d
00000170: bc3f 0ebe 179b ba3d 9605 353e a000 633b
00000180: 4dec 093e f9b7 46bd d47d 163d dd3a c7bd
00000190: d51c b1bd b569 923d c0b2 b4bd b610 1bbe
000001a0: 13a8 71bc 3754 ee3c f9bb 02be 5960 debd
000001b0: e99a dc3d 7979 18bd 378c 213e a7ab c9bd
000001c0: c1cf 4ebd 66f1 afbc 69c4 f5bd f657 c73d
000001d0: b73b 9bbd 060a bd3d f4b7 b6bb 0197 a5bd
000001e0: faaa 0dbe dce7 61be 249a b1bd 2b62 58be
000001f0: 3d16 303e 7373 0dbe 7161 203e e240 ea3c
00000200: c4ed 9abd 3a7f 76be 21ee b5be 4532 47be
00000210: 1b78 4d3e 1da1 47be 557f 5cbe 0e35 a63e
00000220: 9b18 f23a 38fe bdbe 6980 66be 3436 dbbd
00000230: cb64 2f3d 959a 8a3d ef91 5fbd e952 c43d
00000240: 9c21 9cbd 583c ae3e fb59 ddbd 351e de3d
00000250: a11b 6f3e c6e1 5b3e 2cd5 3a3d a9ff fa3d
00000260: c845 7bbe 19ed c5be be47 f43d f59e 893e
00000270: e034 113e e15b 2bbe 10a3 c3be 304c 673e
00000280: ebae 843e cc1f a23e 0672 733e a163 b4be
00000290: 45fa 923e a9cc 7c3e ff00 f4bd a685 ab3e
000002a0: 6524 433e 408c edbd 5c35 8a3e afe6 2ebb
000002b0: 248f 193e b816 493e 8004 12be 3de8 e03d
000002c0: 3a06 5c3e 880b 893e 746c 273e bf67 bebe
000002d0: 28bf 3fbd 8ce4 9cbc bd36 f1bc 5ddc d9bc
000002e0: 62e9 373d 1ce4 c23c af1d 8dbd cd0a 14be
000002f0: 0f53 1c3e f432 0dbe 9f30 303e 61da 69bd
00000300: 3b86 8dbd 7e7d f73c 1d1f 863d b6fa 78bd
00000310: 9e70 b8bc 70d8 1ebe dfad a13d cbcb 6fbd
00000320: 46b3 23bc 7431 17bd e794 283d fb2c bd3c
00000330: 7bbe 09bc 67dc 38bd 410c 99bd c37d 01be
00000340: f5e4 153e 7bbc 243d b2df 9c3d bee5 613d
00000350: 0b60 d63c 79f6 1db9 807f d33d 6545 dcbd
00000360: 1033 e2bc 7938 2f3d beac c2bd a889 573b
00000370: f85a 20bd e7b0 293e 28c6 813c a1a9 0c3e
00000380: 8fe0 013c 1f74 003e 8acb 8f3d 6483 c63d
00000390: 3a46 a4bc 12cf 43be f20e 77bd 3cdb 083e
000003a0: 9ddb d63d f7f4 2e3d b417 bdbc f6b3 33bd
000003b0: bb79 013d e951 923b 7d98 263e 15dc 49bd
000003c0: 411d 51be caf3 6ebe 953c c5bd cfb8 17be
000003d0: ecb9 de3d 44b3 26be 18f5 5dbd ae8e 283e
000003e0: df29 b0bd 479e 94be 9e18 cd3b b646 efba
000003f0: 33d3 1d3e 92d8 9bbd be5f 50be 4a1e 33bc

encoder.model.bias_ih_l0 f4 [240]
0.15507825 -0.064575955 0.08972253 0.022476904 0.14179072 0.14646754 -0.1056448 0.07056222
0.12188567 0.031538542 0.106508136 -0.022525175 0.1469584 0.09124868 4.939492e-05 0.016096517
0.051097807 0.077740155 -0.049008384 -0.0250786 0.022988955 0.30078128 0.18088248 0.08983453
0.07057232 -0.04586126 0.29683188 0.15059249 0.03695485 -0.010747675 0.1637939 0.07653124
-0.08422522 0.16880609 0.10961296 0.09439187 0.17358501 0.021795753 0.023698136 -0.018604401
0.100112066 -0.03426379 0.14945476 0.030626059 0.15926832 0.013975589 0.031270985 0.11082207
0.4067433 0.15055367 0.013163489 0.107414424 0.1469971 0.10739088 0.11403016 0.081536286
0.08899928 0.0046374197 0.20405559 -0.016900036 0.066909164 0.050818335 0.0045424635 0.045975495
-0.058742814 -0.06774347 -0.09546393 -0.17957929 0.022890868 -0.07802348 0.08882528 -0.045996122
0.036342196 0.06787507 -0.13107379 0.0012558876 -0.095205925 -0.120087154 0.027571457 -0.016891604
-0.105666764 0.02310857 -0.05347868 -0.036038917 -0.09431273 -0.020718694 -0.007319934 -0.021597661
0.058588695 -0.01716767 -0.100537255 0.051278286 0.06127419 -0.05090165 -0.06221681 -0.002915878
0.009020676 0.06256725 -0.09623969 0.063037045 0.055914775 -0.016319394 0.108210534 -0.024667785
-0.020231914 -0.09541008 -0.054389544 -0.09180056 -0.11797673 0.08365209 0.047023818 -0.022036768
-0.16587314 0.0049180076 0.0721418 -0.15242091 0.028083557 -0.009188186 -0.10377919 0.011461708
-0.18063052 0.045020778 0.064747974 -0.120525666 -0.10724598 0.11308976 0.036511827 0.066662304
-0.03205695 -0.0370244 -0.006075859 -0.07844675 0.11296783 -0.19615886 -0.18810667 0.06803708
-0.07656971 -0.13205221 -0.14736424 -0.19723697 -0.18419304 0.008902198 -0.050038945 -0.068898655
-0.0387803 0.1050591 0.1711502 0.038715217 0.07939613 0.051059987 0.1675652 0.0046258755
-0.1643344 -0.23793778 0.0699044 0.113243565 -0.08111458 -0.14765605 -0.09149617 0.07705608
0.08989682 -0.018327504 -0.09657124 -0.14823492 0.06887839 0.08364219 -0.18748109 0.070380524
0.18670337 0.07935407 -0.09349199 -0.08288283 0.04549833 0.19751225 -0.07581576 0.14758156
-0.052848607 0.08888279 -0.04361824 -0.13670665 -0.027376197 -0.10718877 -0.004959518 -0.061645668
0.10480595 -0.022510417 -0.007829671 0.20971821 -0.016709039 0.03306937 0.15028372 0.06416239
-0.022998678 0.12238508 0.105195634 0.112120725 0.09281787 0.0370248 -0.060628094 0.12497754
0.09382823 0.15149555 0.065619096 0.1071614 0.21133907 -0.03027239 0.25344774 0.00097003096
0.12730843 0.145461 0.1329168 0.0011330633 0.12830593 0.06880843 0.19875018 -0.049434822
-0.033081707 0.006626299 0.03448149 0.064047605 -0.0146168675 -0.002017549 0.1312526 0.110815555
0.17425542 -0.063634634 0.14461091 -0.110117175 0.48595604 -0.02478117 0.12133854 0.19611892
0.041413154 0.20104557 -0.029920753 0.117850795 0.025324933 0.0029052778 0.040406693 -0.09780883
00000000: d5cc 1e3e 6640 84bd 72c0 b73d 7c21 b83c
00000010: 9631 113e 96fb 153e 4d5c d8bd ed82 903d
00000020: 329f f93d 8f2e 013d f020 da3d b786 b8bc
00000030: 437c 163e 97e0 ba3d 642d 4f38 d8dc 833c
00000040: ef4b 513d 3b36 9f3d 04bd 48bd a371 cdbc
00000050: 5553 bc3c 0100 9a3e 4239 393e 2bfb b73d
00000060: 3888 903d 04d9 3bbd 59fa 973e eb34 1a3e
00000070: f85d 173d 0417 30bc 97b9 273e 69bc 9c3d
00000080: 467e acbd 81db 2c3e c27c e03d 8650 c13d
00000090: 45c0 313e 028d b23c 9822 c23c 4268 98bc
000000a0: 8e07 cd3d 3058 0cbd ab0a 193e 80e3 fa3c
000000b0: 3c17 233e def9 643c 0116 003d aef6 e23d
000000c0: a840 d03e be2a 1a3e adab 573c 18fc db3d
000000d0: 6886 163e c0ef db3d a588 e93d 7ffc a63d
000000e0: 4145 b63d 7ff5 973b f3f3 503e f271 8abc
000000f0: ac07 893d e326 503d f2d8 943b cd50 3c3d
00000100: 4e9c 70bd 17bd 8abd 9882 c3bd a2e3 37be
00000110: a185 bb3c c6ca 9fbd 07ea b53d 6e66 3cbd
00000120: 8edb 143d 1602 8b3d 3538 06be 989c a43a
00000130: 53fb c2bd 41f0 f5bd 89dd e13c 4360 8abc
00000140: d167 d8bd 2f4e bd3c 760c 5bbd 8b9d 13bd
00000150: 0827 c1bd 40ba a9bc 0fdc efbb 94ed b0bc
00000160: b3fa 6f3d 37a3 8cbc 7ae6 cdbd 2e09 523d
00000170: a5fa 7a3d 407e 50bd 0ed7 7ebd 5118 3fbb
00000180: 75cb 133c 4223 803d 5119 c5bd 9119 813d
00000190: e406 653d 40b0 85bc 7c9d dd3d 1814 cabc
000001a0: 66bd a5bc 5c66 c3bd 92c7 5ebd ef01 bcbd
000001b0: c99d f1bd c951 ab3d 0c9c 403d 7486 b4bc
000001c0: a6da 29be 3d27 a13b 14bf 933d 3a14 1cbe
000001d0: 7d0f e63c 0c8a 16bc 2f8a d4bd e3c9 3b3c
000001e0: 35f7 38be b567 383d 969a 843d 29d6 f6bd
000001f0: c8a3 dbbd 9b9b e73d 6d8d 153d 3f86 883d
00000200: 264e 03bd e6a6 17bd 0018 c7bb b1a8 a0bd
00000210: ad5b e73d dedd 48be 099f 40be 0657 8b3d
00000220: 95d0 9cbd b238 07be a7e6 16be 7df8 49be
00000230: 1a9d 3cbe 86da 113c a3f5 4cbd bd1a 8dbd
00000240: 18d8 1ebd 3a29 d73d ff41 2f3e d993 1e3d
00000250: 709a a23d 4724 513d 3696 2b3e a894 973b
00000260: 4747 28be f6a5 73be 0a2a 8f3d 3eec e73d
00000270: 671f a6bd 2633 17be 5862 bbbd 94cf 9d3d
00000280: d31b b83d 9023 96bc 24c7 c5bd e5ca 17be
00000290: 1d10 8d3d 994c ab3d 0bfb 3fbe aa23 903d
000002a0: 2b2f 3f3e 6384 a23d ba78 bfbd 79be a9bd
000002b0: 755c 3a3d a740 4a3e 4b45 9bbd 9f1f 173e
000002c0: c877 58bd 2e08 b63d 0aa9 32bd d4fc 0bbe
000002d0: 0c44 e0bc c985 dbbd 7483 a2bb 2b80 7cbd
000002e0: 80a4 d63d c467 b8bc 0548 00bc 5fc0 563e
000002f0: 65e1 88bc bf73 073d fae3 193e 9267 833d
00000300: b967 bcbc 07a5 fa3d cf70 d73d 8d9f e53d
00000310: 4c17 be3d 51a7 173d 2a55 78bd 39f4 ff3d
00000320: 0429 c03d a621 1b3e 4e63 863d 7077 db3d
00000330: 4569 583e cefd f7bc e7c3 813e ad49 7e3a
00000340: 245d 023e baf3 143e 571b 083e 4c83 943a
00000350: a162 033e 6feb 8c3d 2b85 4b3e 2b7c 4abd
00000360: af80 07bd 6d21 d93b 763c 0d3d 642b 833d
00000370: 967b 6fbc db38 04bb 1567 063e 44f3 e23d
00000380: 0370 323e e052 82bd e214 143e 1d85 e1bd
00000390: 3bcf f83e e101 cbbc 5780 f83d 66d3 483e
000003a0: d7a0 293d e4de 4d3e 5e1c f5bc c25b f13d
000003b0: 3c76 cf3c 7966 3e3b 7d81 253d ff4f c8bd

encoder.model.bias_hh_l0 f4 [240]
0.02503553 -0.08214468 -0.040702168 0.056636173 0.1669942 0.04950108 -0.11434824 0.18168804
0.033895373 0.013226816 -0.029574594 -0.050224386 0.13251927 0.12786244 0.0060069677 0.1136802
0.1444672 -0.061303884 -0.02128989 0.0350534 0.09521009 0.26199025 -0.018124534 0.073727354
0.001400911 -0.022155099 0.40439004 0.0070963395 0.11070587 0.13400973 0.21830618 0.00020863647
-0.08902304 0.23413011 0.17308438 0.012823011 0.09020757 0.010639429 -0.02589873 0.16537337
0.026173176 0.068100035 0.0840712 0.06414735 0.11031702 0.034781463 0.09388686 -0.056292295
0.47816822 0.030839669 -0.12237003 0.19794852 0.058821872 0.2960923 -0.11099251 0.19420233
0.17262594 0.0915939 0.09638603 0.043926556 0.14930858 -0.012952022 -0.08031049 -0.05046008
-0.087568544 0.041988846 -0.09868053 -0.0356594 -0.11532794 0.14464611 -0.030472098 -0.01871957
-0.04288087 0.017543845 0.014795579 -0.0027595952 -0.021273369 -0.04236502 0.0967579 -0.11807879
-0.07155913 -0.093440115 -0.10943335 -0.12493174 -0.092325926 0.13741028 -0.19602683 0.043570884
0.08504142 0.12351253 -0.15874098 0.095202476 0.06504962 0.07215413 -0.0005952146 0.018147068
0.12483502 0.08197403 -0.08478099 -0.052470524 -0.03574617 -0.098443165 -0.10929495 -0.12750766
-0.04960659 -0.023430498 -0.0057126144 0.00020157038 -0.18666136 0.10976378 -0.0055910116 -0.09040656
-0.07515285 0.111735046 -0.0017753093 -0.07529044 0.09856006 0.16818611 0.07375343 -0.088008106
-0.09580906 -0.095405035 -0.053655114 0.078322254 0.02269484 0.065873906 0.023506977 0.121311374
-0.114325404 -0.097819224 -0.06293951 -0.19889039 -0.11150106 -0.11840397 -0.11279834 0.20083542
0.051585544 -0.13331929 0.10076496 -0.098914325 0.012166958 0.14305478 -0.13473926 -0.06685647
0.009188691 0.035528976 0.18773617 0.117956094 -0.038742248 0.028427802 0.14235638 0.10475626
-0.12966062 -0.08911672 -0.042018563 -0.033829056 0.096194975 -0.13833244 -0.031630863 0.013595065
-0.04485637 0.10611587 0.09220642 -0.031543855 0.025904002 0.093295254 -0.13991003 0.07859455
0.10255979 -0.12960319 0.11896209 0.023034178 0.15821958 0.21729785 -0.138432 0.1641851
0.10778982 0.12930994 0.05802814 -0.13041441 -0.0837397 0.11674272 0.19475052 0.0919896
0.037507936 0.048129182 0.031892125 0.20847808 -0.028685085 -0.060891025 -0.017988814 0.017329473
0.07547431 0.06161424 0.17233385 -0.0012554006 0.07408697 -0.07485904 -0.010412599 0.0144977085
-0.021838559 0.11016355 -0.00030212835 0.09247031 -0.01038411 0.07239317 0.2692139 0.08880715
-0.027982134 -0.05360933 0.22815457 0.0822499 -0.06569961 0.17102996 0.04808882 0.120412536
-0.036829732 0.13302222 0.019198136 -0.023786867 -0.038543127 0.08423295 0.07722551 -0.010745055
0.046962257 0.0856952 0.1732685 -0.107112184 0.36038098 0.008896094 -0.13027126 0.095319055
0.09208297 0.20802124 -0.04840738 0.16367504 -0.010991456 0.037448347 0.15098622 0.08241951
00000000: 5017 cd3c 783b a8bd 51b7 26bd 55fb 673d
00000010: 8700 2b3e a5c1 4a3d 692f eabd 6e0c 3a3e
00000020: e0d5 0a3d 4ab5 583c 6b46 f2bc 16b8 4dbd
00000030: 22b3 073e 5fee 023e 19d6 c43b 2ad1 e83d
00000040: 36ef 133e c819 7bbd 2368 aebc 2794 0f3d
00000050: 82fd c23d 9623 863e e779 94bc 5efe 963d
00000060: c69e b73a 9c7e b5bc 360c cf3e 6988 e83b
00000070: c2b9 e23d d939 093e a88b 5f3e 6dc5 5a39
00000080: b651 b6bd cebf 6f3e 083d 313e 9b17 523c
00000090: bfbe b83d 0051 2e3c 9329 d4bc a357 293e
000000a0: 2169 d63c 0878 8b3d 852d ac3d b05f 833d
000000b0: e4ed e13d 0277 0e3d c147 c03d c092 66bd
000000c0: 77d2 f43e 79a3 fc3c 239d fabd 04b3 4a3e
000000d0: 34ef 703d 6999 973e 0b50 e3bd fadc 463e
000000e0: dbc4 303e 9595 bb3d 0a66 c53d 55ec 333d
000000f0: 59e4 183e b834 54bc d479 a4bd 3baf 4ebd
00000100: 2357 b3bd 7ffc 2b3d 0519 cabd 970f 12bd
00000110: 0e31 ecbd 1c1e 143e 9fa0 f9bc c959 99bc
00000120: daa3 2fbd 1cb8 8f3c 2869 723c 53da 34bb
00000130: 7d45 aebc f186 2dbd 0229 c63d 4bd3 f1bd
00000140: 988d 92bd 885d bfbd 981e e0bd 36dc ffbd
00000150: 6015 bdbd 48b5 0c3e 42bb 48be 6277 323d
00000160: 322a ae3d 23f4 fc3d ff8c 22be 84f9 c23d
00000170: bc38 853d 8bc5 933d 2d08 1cba 29a9 943c
00000180: 81a9 ff3d 00e2 a73d a8a1 adbd 55eb 56bd
00000190: 936a 12bd 929c c9bd 08d6 dfbd 5e91 02be
000001a0: 4830 4bbd 51f1 bfbc e230 bbbb a35c 5339
000001b0: 2824 3fbe d5cb e03d ce34 b7bb 1327 b9bd
000001c0: bde9 99bd 58d5 e43d 7fb1 e8ba e031 9abd
000001d0: dbd9 c93d fb38 2c3e 0a0c 973d 983d b4bd
000001e0: 8a37 c4bd b763 c3bd 77c5 5bbd 6b67 a03d
000001f0: 87ea b93c e6e8 863d b491 c03c 1972 f83d
00000200: 7023 eabd 7255 c8bd 6ee6 80bd eca9 4bbe
00000210: ab5a e4bd c87d f2bd d102 e7bd cda7 4d3e
00000220: 5d4b 533d da84 08be dc5d ce3d 9893 cabd
00000230: ec57 473c f47c 123e 17f9 09be 0cec 88bd
00000240: 2a8c 163c d586 113d e93d 403e f792 f13d
00000250: 31b0 1ebd 6ce1 e83c dfc5 113e 738a d63d
00000260: c1c5 04be d482 b6bd a81b 2cbd 5690 0abd
00000270: df01 c53d 05a7 0dbe 5d8f 01bd d6bd 5e3c
00000280: 50bb 37bd 4753 d93d b8d6 bc3d 2134 01bd
00000290: a134 d43c 9511 bf3d 9344 0fbe 2ef6 a03d
000002a0: de0a d23d b3b6 04be 65a2 f33d 2cb2 bc3c
000002b0: 5004 223e 5483 5e3e 1ec1 0dbe 2420 283e
000002c0: e9c0 dc3d d369 043e eaae 6d3d 5b8b 05be
000002d0: b87f abbd cf16 ef3d ae6c 473e 0b65 bc3d
000002e0: eca1 193d 1b23 453d 51a1 023d 477b 553e
000002f0: fcfc eabc de68 79bd 475d 93bc 8af6 8d3c
00000300: 4692 9a3d 375f 7c3d 4978 303e 418c a4ba
00000310: e9ba 973d b24f 99bd 9b99 2abc cc87 6d3c
00000320: c7e6 b2bc 6d9d e13d fb66 9eb9 1361 bd3d
00000330: 1d22 2abc df42 943d 68d6 893e 86e0 b53d
00000340: ca3a e5bc 7595 5bbd 5aa1 693e a372 a83d
00000350: 848d 86bd 7a22 2f3e c8f8 443d d99a f63d
00000360: c6da 16bd fa36 083e 6945 9d3c addc c2bc
00000370: 66df 1dbd 5382 ac3d 6828 9e3d 070c 30bc
00000380: 7f5b 403d f780 af3d 4c6d 313e a25d dbbd
00000390: db83 b83e ecc0 113c d465 05be a336 c33d
000003a0: ff95 bc3d 8503 553e d146 46bd 6e9a 273e
000003b0: 8215 34bc 7063 193d 229c 1a3e 8fcb a83d

encoder.model.weight_ih_l1 f4 [240, 60]
-0.045334376 -0.0664086 0.0052588466 0.061499633 -0.12731709 0.20115113 0.080066726 0.046583474
-0.05464617 0.103318214 0.11212571 0.07725012 -0.014908349 -0.11022833 0.01741428 0.107839696
0.05701117 -0.12096245 0.08977393 -0.14634305 -0.039881933 0.05423671 -0.06972491 -0.14020456
0.018136175 -0.059337642 0.07705087 -0.022070086 0.13378099 0.18019865 0.02289843 0.0636324
-0.033858325 -0.05465379 0.07507715 0.124675915 -0.014783033 -0.051432803 0.036626317 -0.12662834
0.022149412 0.09364443 0.0047496404 -0.15827869 0.09315507 -0.0617655 -0.06627027 0.08197324
-0.05602327 0.050729334 0.19047914 -0.056324735 -0.06515398 0.1616009 0.052935906 0.083025694
0.15660147 0.009312882 -0.16056685 -0.015699416 -0.24572335 -0.11104734 0.050014097 0.054526735
0.19855647 0.13515787 0.13474631 -0.0923802 0.0772537 -0.28819096 0.13985959 -0.18735252
0.15354978 -0.16516711 -0.18997021 0.0032599375 -0.09939943 -0.048010908 -0.13904542 -0.13519672
-0.13778819 -0.03312099 0.11431522 -0.065544575 0.08962985 0.0010514674 -0.082581826 -0.10108273
0.056905977 -0.0103788795 -0.06419955 0.15084772 -0.16942088 -0.01770651 0.069754794 -0.048078284
-0.014051576 -0.21587326 -0.04423554 0.15332897 0.1905897 0.15343772 0.049592093 -0.021407673
0.17926925 0.22449654 0.037687756 0.23808804 -0.07109265 -0.15880929 0.08534686 0.08723992
0.040381372 0.0048984955 0.008706066 0.01922978 0.19513762 0.08885346 0.076596074 -0.003079375
0.06010769 -0.074219905 -0.20417203 -0.1526609 0.027186437 -0.12229052 0.15592454 -0.056978747
-0.177512 -0.03866516 -0.10297121 -0.010915825 0.0972142 -0.07495211 0.036749624 0.03208883
-0.14337996 0.077344574 0.02345693 -0.10593835 -0.034920026 -0.0692033 -0.12516296 -0.15481402
-0.08330761 -0.056122616 -0.08490762 0.05465297 0.09839359 0.0027846526 0.10403089 0.12812637
0.039061107 -0.03086833 0.21411926 -0.02972723 0.023004975 0.059074175 -0.11583628 -0.0027460644
0.0013117732 0.07322547 -0.0065549235 -0.09757691 -0.092137605 -0.046987183 0.021396628 -0.0029580344
0.030247344 -0.1252309 -0.047310863 -0.19035667 -0.041293595 0.13144965 -0.009195594 0.014915543
0.016869528 0.009977197 -0.02604289 -0.007759016 -0.11064505 -0.1448611 -0.02597395 -0.06342391
-0.0302005 0.15965915 0.001800624 -0.07326574 0.0029604346 -0.18563184 0.15301041 0.024440655
-0.015009417 -0.1483995 -0.040421724 0.08630287 -0.07479021 -0.098663144 -0.06013858 -0.115751565
0.013541274 0.13766493 -0.14082535 0.026889415 0.005966468 0.033564676 0.043754622 0.23369925
0.1418632 0.007669527 -0.012702214 0.06520118 -0.13588136 -0.12024326 -0.056460943 -0.096493445
-0.0035737087 -0.036364287 0.035875272 0.021420484 0.106720336 0.054262817 -0.10435223 -0.015751058
-0.05435752 0.09493101 -0.14815503 0.0066820458 0.1368842 0.0023088146 -0.074190535 -0.09550277
0.016599983 -0.0215774 -0.051182307 0.15325193 -0.06820564 0.18917005 0.104139216 -0.114381455
0.07554912 0.12004729 -0.091701366 -0.056141198 -0.12658009 -0.115144275 -0.0535785 0.07427176
0.07354441 -0.12558474 0.16488133 0.059065737 -0.067072764 0.03471105 0.054531824 -0.094447024
00000000: 8ab0 39bd 3b01 88bd 6752 ac3b 0ae7 7b3d
00000010: 695f 02be 90fa 4d3e 06fa a33d 50ce 3e3d
00000020: aad4 5fbd 8098 d33d 2aa2 e53d 5035 9e3d
00000030: 2642 74bc 64bf e1bd 64a8 8e3c 0fdb dc3d
00000040: 8b84 693d 29bb f7bd 65db b73d f4da 15be
00000050: 3d5b 23bd 5027 5e3d efcb 8ebd c991 0fbe
00000060: 5192 943c 070c 73bd d9cc 9d3d 53cc b4bc
00000070: e2fd 083e ff85 383e 7d95 bb3c b451 823d
00000080: 07af 0abd a7dc 5fbd 0cc2 993d 1656 ff3d
00000090: 8934 72bc 34ab 52bd 7a05 163d dcaa 01be
000000a0: af72 b53c a7c8 bf3d dfa2 9b3b cf13 22be
000000b0: 16c8 be3d d2fd 7cbd b5b8 87bd 96e1 a73d
000000c0: a878 65bd 90c9 4f3d f70c 433e c4b4 66bd
000000d0: 736f 85bd b57a 253e 52d3 583d 6009 aa3d
000000e0: 235c 203e 0f95 183c a36b 24be 109c 80bc
000000f0: e79e 7bbe ca6c e3bd 95db 4c3d 6d57 5f3d
00000100: 6352 4b3e d366 0a3e f0fa 093e d531 bdbd
00000110: 3037 9e3d c48d 93be 5a37 0f3e 57d9 3fbe
00000120: 273c 1d3e 9121 29be 8d87 42be ada4 553b
00000130: ee91 cbbd 16a7 44bd ec61 0ebe 0271 0abe
00000140: 5918 0dbe e0a9 07bd 191e ea3d 3c3c 86bd
00000150: db8f b73d 64d1 893a a920 a9bd 7604 cfbd
00000160: 3e16 693d 2d0c 2abc 0e7b 83bd d377 1a3e
00000170: ab7c 2dbe 3e0d 91bc 9adb 8e3d bced 44bd
00000180: 9538 66bc e10d 5dbe 5330 35bd 4502 1d3e
00000190: f229 433e c71e 1d3e 1421 4b3d 255f afbc
000001a0: 5c92 373e 6ce2 653e 7a5e 1a3d 5acd 733e
000001b0: 0699 91bd e79e 22be 56ca ae3d d8aa b23d
000001c0: f066 253d 8f83 a03b e3a3 0e3c c687 9d3c
000001d0: 28d2 473e cef8 b53d 67de 9c3d 57cf 49bb
000001e0: 7b33 763d 9b00 98bd 7912 51be 2453 1cbe
000001f0: 17b6 de3c 7473 fabd afaa 1f3e 8c62 69bd
00000200: b5c5 35be 5c5f 1ebd 92e2 d2bd 4ad8 32bc
00000210: 3d18 c73d 7e80 99bd c686 163d 946f 033d
00000220: 32d2 12be d566 9e3d bf28 c03c 35f6 d8bd
00000230: 4d08 0fbd 76ba 8dbd b82a 00be 9187 1ebe
00000240: 2e9d aabd d4e0 65bd 0ce4 adbd cbdb 5f3d
00000250: 9482 c93d b87e 363b 260e d53d 8f33 033e
00000260: 8afe 1f3d 94df fcbc 1442 5b3e 8586 f3bc
00000270: ee74 bc3c c3f7 713d 923b edbd 51f7 33bb
00000280: ceef ab3a 3cf7 953d afca d6bb 67d6 c7bd
00000290: a4b2 bcbd a275 40bd fb47 af3c 95db 41bb
000002a0: 47c9 f73c 873c 00be 09c9 41bd dcec 42be
000002b0: 7923 29bd bd9a 063e 1ea9 16bc 5260 743c
000002c0: f731 8a3c 6677 233c e657 d5bc 583f febb
000002d0: df99 e2bd 7856 14be 52c7 d4bc 65e4 81bd
000002e0: 0a67 f7bc b07d 233e ea02 ec3a 590c 96bd
000002f0: da03 423b 4616 3ebe c3ae 1c3e c537 c83c
00000300: 0fea 75bc 0af6 17be 4091 25bd 8fbf b03d
00000310: 9c2b 99bd e70f cabd df53 76bd 280f edbd
00000320: 38dc 5d3c 09f8 0c3e 8534 10be 3147 dc3c
00000330: 5c82 c33b 1d7b 093d 0c38 333d db4e 6f3e
00000340: 9644 113e a850 fb3b f21c 50bc 3288 853d
00000350: 7c24 0bbe 1942 f6bd 9743 67bd 5b9e c5bd
00000360: e234 6abb b8f2 14bd f3f1 123d 037a af3c
00000370: 3190 da3d b042 5e3d 9fb6 d5bd 5d08 81bc
00000380: fea5 5ebd 306b c23d f4b5 17be 10f5 da3b
00000390: 5f2b 0c3e 7b4f 173b 35f1 97bd f596 c3bd
000003a0: b0fc 873c 16c3 b0bc 8aa4 51bd 13ee 1c3e
000003b0: 66af 8bbd cbb5 413e f146 d53d d340 eabd
000003c0: 7fb9 9a3d 5bdb f53d edcd bbbd 50f4 65bd
000003d0: 369e 01be c3d0 ebbd 2175 5bbd cb1b 983d
000003e0: 749e 963d 4999 00be a7d6 283e eaee 713d
000003f0: 725d 89bd 2d2d 0e3d c35c 5f3d 716d c1bd

encoder.model.weight_hh_l1 f4 [240, 60]
0.062730275 -0.065690875 0.052524954 -0.068029776 -0.10758525 -0.08158299 -0.08513497 0.07318376
0.023600766 -0.058993906 -0.10857084 -0.06059201 -0.11333053 -0.032620057 -0.14704043 0.012064061
0.104712345 -0.13394296 -0.07149446 0.095164254 -0.07569314 -0.0019783739 -0.001096518 0.030478029
-0.0028257736 0.053824045 0.08323476 -0.05938061 -0.108480245 0.03192174 0.08726024 -0.07714084
-0.05075845 0.0732395 0.13693604 -0.0054064887 -0.0018177757 0.1252537 -0.03468907 -0.015648337
0.018693274 0.04379901 -0.1406464 0.14367644 -0.11870232 -0.06346327 0.096746676 -0.15593311
-0.086205944 0.10026758 0.02733311 -0.11360213 0.0059760395 -0.12962742 0.08386176 -0.09387395
-0.06837119 -0.13879268 -0.0568225 0.12923579 -0.013807622 -0.07140911 -0.11563377 0.20020404
0.02454082 0.08175091 0.13479297 -0.07341844 -0.06906292 -0.13878427 -0.02565494 -0.12958539
0.2035266 0.009446109 -0.01665726 -0.045627993 0.03774936 -0.14005575 0.023699317 -0.1526396
0.17119187 0.1915931 0.17065473 0.07358656 0.13988559 0.2987645 0.18423255 0.014913669
-0.07826584 -0.21362412 -9.495419e-05 0.115188286 0.09330777 0.010804485 0.09819929 -0.09306541
0.012334084 0.14216319 0.045661677 -0.04904514 -0.08785783 0.15305983 -0.014358344 -0.10744667
0.08176888 0.06819511 -0.2681461 -0.099301405 -0.13435693 0.16676952 -0.05448931 -0.059721816
-0.23774974 -0.028420242 0.050844803 0.06940554 0.13067456 -0.16094656 -0.12258758 -0.04018837
-0.014156787 0.05860728 -0.002899382 0.029713219 -0.09647545 0.016789906 0.13224359 -0.017285155
-0.062776424 -0.014630376 0.034378394 -0.1255767 0.009644403 -0.12608612 -0.086351454 -0.0013572688
0.053555805 -0.015968068 0.08805636 -0.07796421 -0.034918472 -0.063388884 0.1679203 0.053007614
-0.10488241 0.010304038 0.22073212 0.06762264 -0.19116275 0.0058487034 0.13791184 0.04170664
0.024447912 0.04125326 0.14872357 -0.11198937 0.05845899 0.040802505 -0.13416699 -0.034418717
-0.07459855 0.052115124 0.036442332 0.107855126 0.022645382 0.1316392 -0.16078293 -0.12247682
0.049856953 0.18189298 0.021675507 -0.14654587 0.011195323 -0.1137435 -0.051063284 0.076260276
-0.042562015 -0.10117499 0.028548015 -0.0829036 0.12170934 -0.1079722 -0.12729472 0.052582506
-0.14653786 -0.0078354925 0.0021131649 -0.26247093 -0.009905154 -0.19266754 0.0525813 0.11831398
0.06565313 -0.09061942 -0.022509672 0.09411676 0.012865146 0.057626326 0.18731609 -0.16269606
-0.055856828 -0.06375599 0.10340959 -0.08632083 -0.06610954 -0.016514573 -0.116876066 -0.024425207
-0.007168012 -0.043044884 -0.029532682 -0.013251833 -0.082937546 0.013279352 -0.08944976 0.0316394
-0.021582672 -0.014998276 0.10358391 -0.08675788 0.05916118 0.09721989 0.113073334 0.027584156
0.13963369 0.18040985 -0.06416267 0.08160292 -0.07299443 -0.012289526 0.028237734 -0.124249876
-0.1665673 -0.05694773 0.13023098 -0.11465801 0.035189364 -0.029815987 -0.10629354 -0.06217487
-0.06463372 0.017892368 -0.08389492 0.035858862 -0.053373482 -0.027064992 -0.0133046685 0.023646278
-0.13130952 0.061116457 -0.022871695 -0.087046035 -0.073787495 0.054700367 -0.04343111 0.093666926
00000000: bb78 803d f088 86bd 6824 573d 3253 8bbd
00000010: a855 dcbd fc14 a7bd 3e5b aebd 5ee1 953d
00000020: 6556 c13c 98a3 71bd 635a debd 542f 78bd
00000030: d619 e8bd 9c9c 05bd c491 16be 57a8 453c
00000040: 6d73 d63d 5828 09be b06b 92bd 7ae5 c23d
00000050: 0105 9bbd 9ba7 01bb 0ab9 8fba 0fad f93c
00000060: 9d30 39bb 9a76 5c3d fc76 aa3d 1539 73bd
00000070: e42a debd 5fc0 023d 7fb5 b23d 04fc 9dbd
00000080: 18e8 4fbd 97fe 953d f638 0c3e ea28 b1bb
00000090: 6e42 eeba 8242 003e 2016 0ebd f130 80bc
000000a0: a322 993c 9766 333d 9c05 10be eb1f 133e
000000b0: 341a f3bd 08f9 81bd 1f23 c63d eeac 1fbe
000000c0: be8c b0bd 1759 cd3d b0e9 df3c 3ca8 e8bd
000000d0: a7d2 c33b 0dbd 04be b7bf ab3d fc40 c0bd
000000e0: 3206 8cbd ab1f 0ebe b6be 68bd 6356 043e
000000f0: 5d39 62bc f13e 92bd 66d1 ecbd 4a02 4d3e
00000100: d409 c93c 056d a73d 2b07 0a3e 685c 96bd
00000110: dc70 8dbd 771d 0ebe 4f2a d2bc 08b2 04be
00000120: 4769 503e dac3 1a3c ce74 88bc 6be4 3abd
00000130: 139f 1a3d c66a 0fbe 1225 c23c 8e4d 1cbe
00000140: ec4c 2f3e fb30 443e 1dc0 2e3e 8db4 963d
00000150: 2b3e 0f3e a9f7 983e 75a7 3c3e 7658 743c
00000160: d749 a0bd 48c0 5abe 2522 c7b8 d6e7 eb3d
00000170: 2518 bf3d 4b05 313c b61c c93d 1499 bebd
00000180: e614 4a3c 3a93 113e bd07 3b3d 8fe3 48bd
00000190: ceee b3bd b7bb 1c3e 423f 6bbc 000d dcbd
000001a0: 7176 a73d e1a9 8b3d 724a 89be 895e cbbd
000001b0: dd94 09be a1c5 2a3e 2f30 5fbd dd9e 74bd
000001c0: ab74 73be 91d1 e8bc a442 503d 7e24 8e3d
000001d0: 8dcf 053e 2dcf 24be 320f fbbd 8f9c 24bd
000001e0: def1 67bc 300e 703d 8f03 3ebb 2369 f33c
000001f0: ec94 c5bd fc8a 893c dd6a 073e 9999 8dbc
00000200: ed90 80bd 3fb4 6fbc 5cd0 0c3d 2e97 00be
00000210: 8f03 1e3c b81c 01be 08d9 b0bd 62e6 b1ba
00000220: 555d 5b3d 77cf 82bc e556 b43d b3ab 9fbd
00000230: ac06 0fbd 08d2 81bd 4df3 2b3e 831e 593d
00000240: 97cc d6bd 45d2 283c 9a07 623e bd7d 8a3d
00000250: 2bc0 43be 7ba6 bf3b c338 0d3e 95d4 2a3d
00000260: fd46 c83c 2ef9 283d fe4a 183e af5a e5bd
00000270: b272 6f3d 8720 273d 1263 09be a4fa 0cbd
00000280: 20c7 98bd ab76 553d 8e44 153d 26e3 dc3d
00000290: cf82 b93c 6dcc 063e 48a4 24be 21d5 fabd
000002a0: ce36 4c3d 2742 3a3e d590 b13c 1f10 16be
000002b0: 976c 373c 5af2 e8bd bc27 51bd 592e 9c3d
000002c0: 8255 2ebd d534 cfbd 87dd e93c 5dc9 a9bd
000002d0: bf42 f93d 8720 ddbd 8c59 02be c160 573d
000002e0: 050e 16be 7060 00bc 067d 0a3b 9762 86be
000002f0: 3a49 22bc a44a 45be 7d5f 573d 9a4e f23d
00000300: 2675 863d ad96 b9bd 3466 b8bc 4ac0 c03d
00000310: 55c8 523c 9509 6c3d cacf 3f3e cc99 26be
00000320: 21ca 64bd 8092 82bd 68c8 d33d fac8 b0bd
00000330: 7064 87bd 9249 87bc b85c efbd 5f17 c8bc
00000340: a5e1 eabb d54f 30bd 86ee f1bc 371e 59bc
00000350: 29db a9bd a491 593c 7031 b7bd 5198 013d
00000360: 25ce b0bc 54bb 75bc cd23 d43d 1eae b1bd
00000370: fe52 723d 391b c73d fe92 e73d 2bf8 e13c
00000380: 22fc 0e3e 5cbd 383e b867 83bd 6f1f a73d
00000390: 1b7e 95bd 025a 49bc d252 e73c b876 febd
000003a0: 9e90 2abe 0642 69bd 455b 053e d2d1 eabd
000003b0: b922 103d a840 f4bc 6db0 d9bd 14ab 7ebd
000003c0: af5e 84bd 0493 923c 1ad1 abbd bee0 123d
000003d0: 279e 5abd 67b7 ddbc d3fb 59bc d7b5 c13c
000003e0: 0176 06be 4055 7a3d 6c5d bbbc 3145 b2bd
000003f0: e61d 97bd 7e0d 603d d2e4 31bd 72d4 bf3d

encoder.model.bias_ih_l1 f4 [240]
0.028539764 0.045737945 0.16649467 0.037569523 0.081215724 0.023646785 0.096882 0.07401943
0.29820824 0.056990188 0.056089707 0.2108354 0.1241274 0.060953066 0.14717865 0.10390264
0.0654604 0.5451594 -0.07813953 -0.07310114 0.07786077 0.034839224 -0.043045428 0.19797052
0.46593258 0.20763609 -0.04315833 0.133082 0.04438559 0.042489264 0.21336529 0.089685425
0.17493136 -0.049655568 0.049821682 -0.075935625 0.7269349 0.039291684 0.11556935 0.063298106
-0.07572333 0.34072208 0.23932382 0.16784494 0.002707776 -0.022653922 0.16162576 -0.07558835
-0.04455029 -0.108375855 0.09529317 0.11498977 0.042816255 0.4873126 0.06617401 0.09801189
-0.09029154 0.13834094 0.18519413 0.102153376 -0.08139632 -0.10124073 0.10933186 0.061755605
-0.11820092 0.12745495 -0.09429381 0.043285385 -0.04411205 -0.104575574 -0.08181 0.10501396
-0.04840708 0.052207854 -0.08210482 -0.023691906 -0.085445575 -0.08118486 -0.043608405 0.012928188
-0.080385305 0.10427744 -0.095955424 0.056947876 -0.032103237 0.0906864 0.028550137 0.090571895
0.05918567 0.027989075 -0.017134547 -0.006830805 -0.019804798 -0.13151345 -0.13489588 -0.008984896
-0.13937 -0.18784012 -0.079733744 0.0050121476 -0.014443282 -0.21644984 0.029542403 0.04275163
-0.08922618 -0.127643 0.012294901 0.084724784 -0.03345092 0.07069042 -0.07116135 -0.12889762
0.11713637 -0.2393589 -0.09922994 -0.06834331 -0.13793318 0.0006497388 -0.0076003466 0.09332318
0.04692256 -0.050482735 -0.10904422 0.11970497 0.012457307 0.1378911 0.13956746 -0.11699073
-0.065899685 -0.13317212 -0.05002056 0.03841909 -0.020497652 -0.06384881 -0.032160457 -0.008203339
0.051038675 -0.18067369 0.08702439 -0.074456565 0.062801525 0.04109147 -0.058224496 -0.013818818
-0.038623687 0.14064267 -0.06799339 -0.029321635 0.052841928 -0.027080255 0.04204978 0.084144935
-0.059375443 -0.030397382 0.07330674 -0.070216976 0.2437748 0.16803908 -0.041345 0.06132636
0.00018295995 0.17029566 -0.12633134 0.008264551 -0.11048157 0.08207757 -0.09159418 -0.039035037
-0.10821265 -0.017124487 -0.11197392 -0.055445123 0.10405224 -0.057143085 0.068139136 0.008272891
0.09882062 -0.07287246 -0.01015051 -0.118065834 -0.061352573 0.11886122 0.15863387 0.22978354
-0.07441208 -0.05128531 0.119474486 0.07615172 0.3866636 -0.053995214 -0.06245135 0.040749047
-0.033852838 0.1269857 0.17824446 0.13115436 -0.06296673 0.46409702 -0.07545058 -0.11099068
0.059180826 -0.029767422 0.09734069 0.18081278 0.22738625 0.020669866 0.08457635 -0.025526214
-0.029785821 0.0797234 0.094107665 -0.051570345 0.1331362 0.097533464 -0.015509585 -0.018543737
0.7994051 0.063570604 -0.101301886 0.11719927 -0.012019563 0.3463985 0.032259483 0.04194555
0.12808625 0.13827167 0.0062176944 0.09487404 0.17891721 0.01814808 0.087320946 0.088777065
-0.07460992 0.37111738 -0.007637131 -0.034771744 0.13562638 -0.05707828 0.10580998 0.05740428
00000000: 39cc e93c b657 3b3d 947d 2a3e 80e2 193d
00000010: 6e54 a63d e7b6 c13c 126a c63d 8097 973d
00000020: c0ae 983e 8b6e 693d 52be 653d 3ce5 573e
00000030: 8236 fe3d eca9 793d 00b6 163e e8ca d43d
00000040: 1a10 863d 918f 0b3f 9e07 a0bd 0db6 95bd
00000050: 7875 9f3d 93b3 0e3d 6750 30bd c9b8 4a3e
00000060: b78e ee3e 8e9e 543e cac6 30bd a646 083e
00000070: aacd 353d 3909 2e3d 6e7c 5a3e feac b73d
00000080: 3521 333e a363 4bbd d211 4c3d 2384 9bbd
00000090: 6818 3a3f 51f0 203d a0af ec3d 70a2 813d
000000a0: d514 9bbd 2073 ae3e 4e11 753e 8bdf 2b3e
000000b0: f174 313b b894 b9bc 3981 253e 11ce 9abd
000000c0: 5d7a 36bd 29f4 ddbd 1129 c33d c27f eb3d
000000d0: 1960 2f3d 0981 f93e 3d86 873d 75ba c83d
000000e0: c5ea b8bd 3fa9 0d3e 88a3 3d3e ca35 d13d
000000f0: 1db3 a6bd 4d57 cfbd 62e9 df3d 72f3 7c3d
00000100: 5313 f2bd 8d83 023e 1d1d c1bd 044c 313d
00000110: d6ae 34bd b82b d6bd 008c a7bd 8f11 d73d
00000120: 8146 46bd e7d7 553d 9226 a8bd 8715 c2bc
00000130: 17fe aebd 3f44 a6bd ba9e 32bd c0d0 533c
00000140: 0da1 a4bd 698f d53d 4784 c4bd 2d42 693d
00000150: af7e 03bd cbb9 b93d fae1 e93c c27d b93d
00000160: ac6c 723d 5849 e53c c05d 8cbc f2d4 dfbb
00000170: ac3d a2bc 76ab 06be 2522 0abe 6335 13bc
00000180: 02b7 0ebe 2959 40be 724b a3bd f13c a43b
00000190: 84a3 6cbc 07a5 5dbe e902 f23c 551c 2f3d
000001a0: 37bc b6bd d9b4 02be 8d70 493c 3084 ad3d
000001b0: d503 09bd 24c6 903d 0bbd 91bd bdfd 03be
000001c0: 31e5 ef3d 801a 75be 1139 cbbd 94f7 8bbd
000001d0: 5b3e 0dbe 3c53 2a3a 540c f9bb 3920 bf3d
000001e0: df31 403d fcc6 4ebd 9352 dfbd e127 f53d
000001f0: bc19 4c3c 5333 0d3e c6ea 0e3e d698 efbd
00000200: 6af6 86bd 465e 08be 5ce2 4cbd 565d 1d3d
00000210: b1ea a7bc 2ac3 82bd afba 03bd 4c67 06bc
00000220: ee0d 513d 8602 39be d839 b23d af7c 98bd
00000230: 169e 803d 874f 283d cf7c 6ebd 5368 62bc
00000240: df33 1ebd a204 103e 1e40 8bbd ed33 f0bc
00000250: c770 583d 69d7 ddbc 643c 2c3d 2e54 ac3d
00000260: aa33 73bd ee03 f9bc d821 963d ebcd 8fbd
00000270: 1aa0 793e 7012 2c3e 6059 29bd 5931 7b3d
00000280: f0d8 3f39 fc61 2e3e 015d 01be 0a68 073c
00000290: 2944 e2bd 4918 a83d bb95 bbbd 34e3 1fbd
000002a0: 989e ddbd a748 8cbc 9552 e5bd 6d1a 63bd
000002b0: 5719 d53d de0e 6abd 888c 8b3d 058b 073c
000002c0: 7762 ca3d 283e 95bd 534e 26bc 80cc f1bd
000002d0: d64c 7bbd 836d f33d eb70 223e 604c 6b3e
000002e0: 5c65 98bd 8c10 52bd 0aaf f43d 6ff5 9b3d
000002f0: c5f8 c53e 162a 5dbd fdcc 7fbd 79e8 263d
00000300: 46a9 0abd 8a08 023e b785 363e 544d 063e
00000310: b3f4 80bd 209e ed3e d585 9abd 154f e3bd
00000320: 9867 723d cfda f3bc 8e5a c73d fc26 393e
00000330: f1d7 683e da53 a93c 5e36 ad3d 5a1c d1bc
00000340: 6501 f4bc 0646 a33d 85bb c03d 6d3b 53bd
00000350: db54 083e a0bf c73d ea1b 7ebc 09e9 97bc
00000360: d0a5 4c3f 4e31 823d 5d77 cfbd 2c06 f03d
00000370: b3ed 44bc 255b b13e 8522 043d 19cf 2b3d
00000380: 0b29 033e 1797 0d3e cdbd cb3b 524d c23d
00000390: 1336 373e 48ab 943c 53d5 b23d c0d0 b53d
000003a0: 16cd 98bd 1903 be3e e640 fabb d16c 0ebd
000003b0: a4e1 0a3e eaca 69bd e7b2 d83d c020 6b3d

encoder.model.bias_hh_l1 f4 [240]
0.16495948 0.12472006 0.03686 0.057520453 -0.0473316 0.04307205 0.055220988 0.115658276
0.41775268 -0.011242113 0.100226305 0.030091168 0.085599095 0.15015094 0.2159297 0.09645317
0.06989204 0.3389641 -0.12433476 -0.035261728 -0.010640471 -0.028920833 0.114437 0.21057102
0.45183983 0.20119461 0.045315024 0.045273174 0.16695206 0.16055106 0.07760595 0.043050844
0.29463455 0.14678375 -0.009959577 0.10100895 0.79232126 0.1455707 0.12405392 0.16668965
-0.09067921 0.39000788 0.0379123 0.15859929 -0.05982242 0.08907152 0.0066726883 0.14287679
0.07111376 -0.097837314 -0.012935202 0.11246274 -0.04350384 0.46647966 0.113414265 0.15991509
0.06531674 0.07858343 0.18150969 0.12245632 -0.024124747 -0.11210785 0.052956797 0.06173706
0.0044035083 -0.0035894504 -0.013863024 0.06956756 -0.05203208 0.017516376 0.011670383 0.08069414
0.058963884 0.04239618 -0.03203284 0.09381499 -0.081472985 -0.27238756 -0.112972856 0.051223814
-0.05658674 0.0014207793 -0.020377869 0.030984452 -0.12317984 0.091996185 0.104608424 -0.034129344
-0.09751571 -0.09471241 0.013761754 -0.023583103 -0.08939539 0.011723208 0.015453937 -0.20250161
-0.30736482 -0.07822214 0.0058974964 -0.0064457874 0.04773756 -0.06672309 0.08047283 -0.037081048
-0.06738289 -0.12970933 -0.03401495 0.114874706 0.031324822 0.106012695 -0.022590185 0.014438746
-0.11326191 -0.121060856 -0.058964785 -0.017648512 -0.12928194 -0.046940695 0.036574043 0.032637063
0.19507898 -0.037386063 0.04202495 0.12590103 -0.10579954 -0.03452109 0.09815735 -0.091307156
-0.17143993 -0.019312551 -0.0042000394 0.05561536 -0.0024583046 -0.032958645 -0.16367815 -0.023330186
0.17431843 -0.043165684 0.045498215 -0.1307998 0.17171149 0.10275094 -0.01998033 -0.17131364
-0.03846416 -0.039634623 0.04785291 -0.13905314 -0.15868683 -0.09476475 -0.08508254 0.009437868
0.02199263 0.06474412 0.052583143 0.06269885 0.11395781 -0.04193648 -0.026162878 -0.03253168
0.035652597 0.072249144 0.03136837 -0.04212669 0.05677089 0.1751724 -0.12641513 0.07179651
-0.06033602 0.09044078 0.013307903 -0.05554788 0.0143971555 -0.15431073 0.06081041 -0.052604012
0.0055832723 -0.016613405 -0.11406882 0.059370704 0.18159261 0.18639272 0.10190543 0.16253065
-0.06352541 0.03688239 -0.0817939 0.048351474 0.39145797 0.0099233575 0.009104424 0.050934598
0.12327784 0.072676904 0.110912174 0.08221017 -0.08570088 0.42302823 -0.022353461 -0.06414292
-0.03974504 0.13363518 0.045494635 0.17065208 0.44532588 -0.028362425 0.12540397 0.05702792
0.14281568 -0.012082772 0.077348635 0.021028006 -0.060664218 -0.07652939 0.08738174 -0.0028843742
0.7304915 0.043746818 -0.0083216205 0.0026248486 -0.1071445 0.54904366 0.2080837 0.221217
-0.019827668 0.0591159 -0.068631865 0.0563498 0.17216192 -0.028260672 -0.0075878166 0.0032078237
0.03400445 0.36404544 0.01857064 -0.038662877 0.11622915 0.14677766 0.21942635 0.06795765
00000000: 23eb 283e 3b6d ff3d 83fa 163d 919a 6b3d
00000010: c8de 41bd 516c 303d 672f 623d 3fde ec3d
00000020: aee3 d53e d730 38bc 7343 cd3d c181 f63c
00000030: 944e af3d 2bc1 193e ad1c 5d3e 3d89 c53d
00000040: 8f23 8f3d b48c ad3e 39a3 febd 9a6e 10bd
00000050: 5f55 2ebc 62eb ecbc f25d ea3d ee9f 573e
00000060: 8d57 e73e f605 4e3e 3f9c 393d 5d70 393d
00000070: 7bf5 2a3e 7f67 243e deef 9e3d 1556 303d
00000080: 57da 963e 7b4e 163e 7e2d 23bc c8dd ce3d
00000090: 91d5 4a3f 7c10 153e fb0f fe3d b1b0 2a3e
000000a0: 06b6 b9bd 1daf c73e ee49 1b3d da67 223e
000000b0: 5b08 75bd 216b b63d 91a6 da3b 4b4e 123e
000000c0: 17a4 913d ee5e c8bd 2bee 53bc dd52 e63d
000000d0: 1531 32bd 6cd6 ee3e bd45 e83d c8c0 233e
000000e0: c8c4 853d 59f0 a03d addd 393e 61ca fa3d
000000f0: 43a1 c5bc cd98 e5bd 3ae9 583d 00e0 7c3d
00000100: 4e4b 903b fc3c 6bbb bd21 63bc 7079 8e3d
00000110: 971f 55bd 817e 8f3c 2235 3f3c f842 a53d
00000120: 1d84 713d 9ea7 2d3d de34 03bd 1322 c03d
00000130: 4fdb a6bd 6276 8bbe 505e e7bd 10d0 513d
00000140: 7fc7 67bd 7139 ba3a 7def a6bc 1bd3 fd3c
00000150: b645 fcbd 7f68 bc3d f13c d63d 36cb 0bbd
00000160: 51b6 c7bd 94f8 c1bd fb78 613c 5a31 c1bc
00000170: ee14 b7bd b312 403c 8332 7d3c 955c 4fbe
00000180: ec5e 9dbe ee32 a0bd c93f c13b 2f37 d3bb
00000190: 7688 433d 1ea6 88bd f0ce a43d 4ce2 17bd
000001a0: 0a00 8abd 86d2 04be 4353 0bbd 6e43 eb3d
000001b0: 754e 003d 2f1d d93d 0d0f b9bc 7d90 6c3c
000001c0: dcf5 e7bd c1ee f7bd 0f85 71bd 9d93 90bc
000001d0: 7c62 04be e344 40bd aace 153d 71ae 053d
000001e0: c9c2 473e 2122 19bd 5b22 2c3d 33ec 003e
000001f0: 6ead d8bd fd65 0dbd b906 c93d 3fff babd
00000200: f38d 2fbe 5b35 9ebc 7ca0 89bb efcc 633d
00000210: 821b 21bb a5ff 06bd 3f9b 27be f21e bfbc
00000220: 8880 323e 80ce 30bd 565c 3a3d 62f0 05be
00000230: 23d5 2f3e 166f d23d caad a3bc d86c 2fbe
00000240: 988c 1dbd ea57 22bd 6a01 443d f263 0ebe
00000250: cd7e 22be 0514 c2bd c13f aebd 4aa1 1a3c
00000260: e329 b43c 9198 843d 6c61 573d 4168 803d
00000270: b662 e93d 96c5 2bbd 8853 d6bc f03f 05bd
00000280: 7508 123d 5cf7 933d 1f7c 003d 098d 2cbd
00000290: 9888 683d 6560 333e f872 01be 0c0a 933d
000002a0: e722 77bd 0439 b93d 6409 5a3c 2c86 63bd
000002b0: 0ce2 6b3c a203 1ebe 5614 793d 4e77 57bd
000002c0: e2f3 b63b d618 88bc ea9c e9bd b22e 733d
000002d0: 6af3 393e bcdd 3e3e cbb3 d03d 6f6e 263e
000002e0: 9c19 82bd fd11 173d 8f83 a7bd 320c 463d
000002f0: 2e6d c83e 9495 223c b92a 153c cca0 503d
00000300: 1879 fc3d a1d7 943d ec25 e33d ce5d a83d
00000310: f183 afbd 2897 d83e 9b1e b7bc 5d5d 83bd
00000320: b2cb 22bd a9d7 083e 9558 3a3d 6bbf 2e3e
00000330: c101 e43e 5158 e8bc e669 003e 1c96 693d
00000340: 463e 123e d2f6 45bc f668 9e3d ed42 ac3c
00000350: 0b7b 78bd 71bb 9cbd 33f5 b23d c507 3dbb
00000360: 7e01 3b3f dd2f 333d 6857 08bc a705 2c3b
00000370: 936e dbbd 208e 0c3f e513 553e b686 623e
00000380: a26d a2bc 8423 723d dd8e 8cbd 0ccf 663d
00000390: 374b 303e ed82 e7bc 38a3 f8bb 5a3a 523b
000003a0: 4048 0b3d 2a64 ba3e 7421 983c f75c 1ebd
000003b0: 8c09 ee3d e24c 163e 4db1 603e 612d 8b3d
