models/20200923_181657/epoch_0700_loss_266571.26364.pt (torch, 801233 bytes, 96 tensors)

encoder.model.weight_ih_l0 f4 [240, 3]
00000000: 56bf d5bd 358b f63c 74e4 023d eee4 453e
00000010: 5781 46be 824b 8f3d e196 58be fa4a d13d
00000020: 66d4 2e3f 4c4b 063c 16fb 2f3e 1793 b0bd
00000030: 92a6 74bc ce70 463d 080e 1a3d c9d9 debd
00000040: 8461 053d 513d 843d 4302 323c 499e 81bd
00000050: 2e79 ffbd db07 363d bf8a 543d 72e9 a13d
00000060: be21 53be 5ad9 9c3d c760 cc3e 2fc0 843e
00000070: 0c80 fe3d f9f7 883e ac36 29be ae7d 343d
00000080: e101 89bc 71e2 163b 280b ebbd 255a a1bd
00000090: 2800 1a3d e390 2a3d 0ead d43e 1d01 883e
000000a0: c08f b93d f1a5 0d3e 23b0 f8bc a394 3abe
000000b0: 1457 4ebe 85f2 70bd 4a7b a0bc 0257 7cbd
000000c0: 7d64 2b3d 12c5 393d 799e 1f3e c62e fbbd
000000d0: 1885 70be 3695 55bd 738e 8fbe ba33 93be
000000e0: 3fd1 a3bd b930 4fbe db36 d2bb ab47 ad3d
000000f0: 70cb 6d3c 40bd 113e 82f6 613c cb28 f6bb
00000100: da9e 443d efca 933c 77e3 a13c c047 1a3e
00000110: b5f3 d53e e7a3 133c 6e1e d93d bb09 9c3e
00000120: 214f 27bd 73ba 9cbd 822b 053e 8611 c3bd
00000130: 42ef 223e c5d8 78bd fe8e 773e 0cbf b33e
00000140: 6270 803c 9835 8d3d fc71 65bd 19c9 c53c
00000150: 2b44 e43d 5937 66bd 81df 57bd 1daf f4bd
00000160: 9f4d b63d b037 0cbe ae31 a83c fd36 bfbb
00000170: 9c9d 813d 7e9c 483e 5f0f 15be c5f3 4ebe
00000180: af01 e1bc a39a 0fbe f364 6bbc dbab 95be
00000190: 1ed5 17bd 7ce6 bf3c 55b5 babd 91cb 31bd
000001a0: 7f53 343d 2590 edbd cbad 5c3d ec08 fa3d
000001b0: 4cc6 3b3c 6af6 4cbc ea87 623c 022d a0bd
000001c0: fcc5 c43d 3726 203e f1e8 96bc 4d35 123e
000001d0: 9021 03bb 7dd3 493e f47a 223c 2756 423e
000001e0: 1c12 58bd 5c2a 8b3d b8fe 3a3e 613c 11bd
000001f0: af38 3dbd ae83 c8bc f39c 95bd a963 f13d
00000200: 731d 153f 8c9d 08be 834d c03d e48d e93c
00000210: 8deb 26bd d0a6 083e 548e 8bbd bc49 d93d
00000220: 7829 673c 223a 57bd 1806 d1bc ddbb cebd
00000230: 0aa8 86ba 0930 c2bc a564 b5bd 0e8d 80bd
00000240: b16d 6c3d f8f3 213d 580b 373d 6122 8cbc
00000250: 9bfd 003c c29e ab3d ff06 b9be 2d77 113e
00000260: 57c2 67be 0baa 4a3b a75e 96bd fb4b 9a3e
00000270: 44c7 39be 0563 9f3d e9fa ac3c d251 1b3e
00000280: bb0c 4d3d 1218 023c 49cd 973c c471 78be
00000290: ba15 f93d 7f8b 243d 6c21 933d 7b82 123e
000002a0: 5f78 12ba e929 773d 4ba5 043d f84e 9fbc
000002b0: fa25 023e 99f7 503e 8138 49bd 28d1 da3d
000002c0: 6a64 4c3e 6944 35bc d861 1ebe e502 f8bd
000002d0: 7d28 303e 96cc e43d 689c 493d a6b1 283e
000002e0: a72d 7f3d 7d79 0ebe 173d 3bbe 3c07 cb3c
000002f0: 3bb7 c73d 2609 b13b 8489 12be 8e39 2ebc
00000300: 6b87 93bd 8d31 023e b011 043e 368d 02be
00000310: 8f29 95bd 67a2 373d ed7c b03c 496b cc3d
00000320: f5c4 99bc 77d2 373d 8154 2b3e 6a68 3a3e
00000330: 81ab c1be 7f85 e2ba 5d0b ed3d 4bce 8b3e
00000340: 1d93 bebd 0033 953d 3ed3 27bd cffa ff3d
00000350: 3897 f3bd 7229 c9bd 28a8 a2bc e707 0c3c
00000360: e5fd 323e 92c5 203e ada8 5e3e d07b 913e
00000370: 5565 273d ff65 a53d b45d 89bc 64ca 04be
00000380: 1549 973d 0db3 a63d be9f 2ebe 206b 4dbd
00000390: c82f 093e 4c59 a83d 5602 9f3e 31cc 393b
000003a0: 6014 4ebe 7382 463d 94b3 623d 052b 09be
000003b0: 3a75 dd3d 923a 48be efd8 ba3c daeb f53b
000003c0: 3027 403d 3d90 31bc c186 b43d 4c7c bbbd
000003d0: 9ff8 be3a af4a 81bd 274c 3abd 49f6 b53d
000003e0: e1d9 f33e 11b3 c2bd 1fe3 b43c 7e67 b23e
000003f0: 498e c1bd 0803 13be f30e c3bc effa 393e
-0.10436885 0.030095676 0.03195615 0.19325611 -0.19385277 0.06996824 -0.21151306 0.10219379
0.68292844 0.008196663 0.17185625 -0.08621805 -0.014932292 0.048447423 0.037611037 -0.10881383
0.0325637 0.06457008 0.010864797 -0.063290186 -0.12474285 0.044441085 0.05189013 0.07905854
-0.2061834 0.07658644 0.39917585 0.25927874 0.12426767 0.26751688 -0.16524762 0.04406517
-0.016724529 0.0023023153 -0.11476737 -0.07878522 0.037597805 0.04164208 0.4153828 0.2656335
0.09060621 0.13832833 -0.030357426 -0.18220763 -0.20150405 -0.058825035 -0.019590039 -0.061606415
0.04184388 0.045353957 0.15587796 -0.12264781 -0.23488271 -0.05214425 -0.28038368 -0.28750402
-0.07998895 -0.2023343 -0.0064152307 0.08460935 0.014513835 0.1423235 0.013791682 -0.007512187
0.048003055 0.018041102 0.019761784 0.15066433 0.41787496 0.009011245 0.10601507 0.30476174
-0.040846948 -0.0765275 0.13004878 -0.09524827 0.15911582 -0.060753603 0.24175641 0.35106695
0.015678588 0.06894988 -0.056016907 0.024143742 0.111458145 -0.056205127 -0.052703384 -0.11947463
0.08901524 -0.13693118 0.020531502 -0.0058354125 0.0632889 0.19590947 -0.14556645 -0.20210178
-0.027466623 -0.14023833 -0.01436733 -0.29232678 -0.03706848 0.023425333 -0.091166176 -0.043407027
0.04402494 -0.11599759 0.05387668 0.12208733 0.011460852 -0.012509922 0.01382635 -0.078210846
0.09608075 0.15639578 -0.018421622 0.14278145 -0.0020009018 0.19709583 0.00991701 0.18978177
-0.052751645 0.06795189 0.1826123 -0.035457972 -0.046196636 -0.024476852 -0.07305326 0.11786587
0.5824806 -0.1334135 0.09389784 0.028510042 -0.040751982 0.13344884 -0.06814256 0.10609767
0.014109008 -0.052545674 -0.025515601 -0.10094426 -0.0010273468 -0.023704546 -0.08857087 -0.06276904
0.057721797 0.039539307 0.044688553 -0.017106237 0.007872964 0.0837989 -0.3613815 0.14205618
-0.22632729 0.0030924107 -0.07342272 0.30136093 -0.1814242 0.07782558 0.021115737 0.1516793
0.05006097 0.007940309 0.018530505 -0.24262148 0.12162347 0.040172096 0.07184109 0.14307587
-0.00055873947 0.060342703 0.0323842 -0.019446835 0.127098 0.20406951 -0.049126152 0.10684425
0.1996018 -0.0110636735 -0.15467012 -0.12109927 0.17202945 0.11171834 0.049221426 0.16474018
0.062299397 -0.13913532 -0.18285023 0.024783723 0.09751745 0.005402702 -0.1431027 -0.010633839
-0.07203563 0.12714215 0.12897372 -0.1274918 -0.07283317 0.044832613 0.021543944 0.099814005
-0.018770674 0.04487845 0.16731454 0.18203893 -0.3782616 -0.0017282217 0.11574433 0.27305827
-0.093054034 0.07285118 -0.04097294 0.1249901 -0.11894077 -0.09822358 -0.019855574 0.008546806
0.17479666 0.15700367 0.21744032 0.28414774 0.040868122 0.08076095 -0.016768314 -0.12967831
0.07386986 0.0813962 -0.17053124 -0.05015099 0.13397133 0.08220157 0.3105647 0.0028350467
-0.2012496 0.04846425 0.05534704 -0.13395317 0.10813375 -0.19553593 0.02280852 0.0075049223
0.046912372 -0.010837612 0.08814765 -0.09154567 0.0014569944 -0.06313073 -0.04548278 0.08884866
0.47627166 -0.095068105 0.022080956 0.34844583 -0.09450967 -0.14356625 -0.02381084 0.1816213

encoder.model.weight_hh_l0 f4 [240, 60]
00000000: 72f6 f53c 3b06 2a3d 13ba 823d f4dc c43d
00000010: 5267 463e 173b 423e 7962 d33d e8f0 26bd
00000020: 87b2 003d 5889 85bd cee1 0c3e 00a4 71bc
00000030: 4511 943d 6d1d 843d fb25 173d 57bf 3a3d
00000040: dc81 b83d 5b19 393d 0928 87bd d259 8d3d
00000050: ec06 75bd 6bac 4ebe 8a81 523e 9aa0 dd3d
00000060: 0fd5 103e 8d3c b0bd 41e8 4cbd fab8 0e3d
00000070: a3a7 a03d e705 acbd adc9 1c3d 5d89 bbbd
00000080: 78ec 01bd 9569 be3d 9f4f 683d f7e3 833c
00000090: 02fa 453e 6657 44bd 83d4 23bd a580 54bd
000000a0: c047 a23c 6124 953b 3722 f93d df71 fe3c
000000b0: 8433 0e3e 9c04 e93d 58a1 17be 849e a4bd
000000c0: 8dda f43c 19fe 34be 70af ac3d e663 cdbc
000000d0: 1ed9 9dbb b1f0 f63d c30a 2a3d db03 f03d
000000e0: 0194 e8bd 45cd 193d c407 7e3a 7caf 03be
000000f0: 57fa abbc 15e5 3c3b 69ed 42be 5a77 8c3c
00000100: ad19 a33c 7c31 4fbd cc42 d83d 8daa 3cbd
00000110: fdde 403d f147 dd3d aa72 dbbd dee9 8abd
00000120: 6d2b 683a 0c85 3fbd f391 a6bc a9ad ee3d
00000130: fb58 603d f090 423c 06ec 403d 3272 c7bd
00000140: 4847 0dbe e10b abbb 533f e93c cfd9 00be
00000150: 8b90 e3bc caa0 8d3d a46e 413b 9d8d ec3c
00000160: 50b2 6cbd db58 67bd 3119 2c3c 5b40 cc3c
00000170: 70f4 f6bd 40dc f03d 0c4f 353e ee5c 96bb
00000180: fea0 093e 91ea 26bd 3d93 4e3d 344a ebbd
00000190: a176 d4bd 2fcb 813d eb0d d4bd a20a 16be
000001a0: ddca 1abd 82b4 9d3c bc70 04be 1a74 f8bd
000001b0: 87da cb3d e102 9cbc 67f1 213e 4bb5 d6bd
000001c0: 76ff 88bd d472 d9bc 8507 d0bd 5a8f 943d
000001d0: 5cac 97bd 58a9 9b3d f978 bdbc 1c82 85bd
000001e0: 7ff5 20be d849 81be 793c a2bd 5eb0 55be
000001f0: 38a2 3e3e 344e 0ebe 33c9 213e 2cda a73c
00000200: 2e12 8abd 96d7 87be cc06 b3be 39d4 73be
00000210: 5c7b 5d3e 382d 69be 542b 70be 0e34 ad3e
00000220: 77d7 423c e2ce c1be 3493 8dbe d94d d2bd
00000230: 98a6 7c3d 12b8 333d 6744 fbbc 445a da3d
00000240: 5336 d9bd 0daa b93e 9e88 1dbe 5880 db3d
00000250: 8b93 a33e dbfe 563e c777 f73c 63a5 113e
00000260: fbb0 94be 4c48 c3be a2f1 fb3d b1d1 8b3e
00000270: 2503 203e 580e 32be 44f5 d2be 86b0 883e
00000280: f25c 883e 788a b03e 6651 823e 1c0f a1be
00000290: 5dee 993e 3fc9 893e d0ad dbbd ce8a c33e
000002a0: f1e6 2d3e ba08 21be d810 8a3e 4bdf 213a
000002b0: 11a6 e43d 3635 403e 5987 43be 285a e03d
000002c0: 1d62 5a3e 3f48 9d3e 4c75 363e c7e6 ccbe
000002d0: b22c 66bd 1f14 0bbb f20f 16bd fd50 ccba
000002e0: 5517 453d 8ad6 e13c 89df d9bd 6356 4abe
000002f0: e9ae 1f3e 90af 02be af11 323e aeee 2bbd
00000300: 8f73 83bd 19f7 0e3d ae52 9b3d 666e 60bd
00000310: 838c 0bbc e7cf 1ebe f795 b93d 72ad 8dbc
00000320: 4737 34bc e3db 8fbc 9c12 203d 658b fc3c
00000330: 2404 8fbc 0dcb b9bd 88a2 98bd aa3f 06be
00000340: 0dd5 133e ea2e 00bb 9a7a 9a3d 6356 6a3d
00000350: d1a8 173d 2ceb cb3a a391 de3d 6138 0fbe
00000360: 9ccf 5fbd 707a ca3d 8878 9bbd b1c3 aebb
00000370: 0680 47bd 3b73 123e e4f8 973c 2087 153e
00000380: dc64 bf3b fc39 c43d 66cf ae3d 8b24 953d
00000390: ffdd acbc 27b0 34be 3a1a 04be 687d 073e
000003a0: aecd d33d 7766 a43c baae 87bc c2e4 b1bc
000003b0: 1ac6 253c 1b3a 12bc c029 343e 7592 20bd
000003c0: 5e50 60be 038e 7fbe ba20 a9bd 559c 1bbe
000003d0: 2a38 fb3d 2819 34be e3f5 fdbc e7e1 323e
000003e0: 918a 9fbd fd6b 9fbe f979 313c 1c1d b0bc
000003f0: 2c88 313e c2f3 c9bd fcd8 58be cf2a b6ba
0.03002474 0.041509848 0.06383147 0.09612456 0.19375351 0.18967853 0.103215165 -0.04075709
0.031420257 -0.06520337 0.13758013 -0.014748573 0.072298564 0.06450925 0.036901455 0.045592632
0.09009144 0.045190196 -0.06599433 0.069018975 -0.059821054 -0.2018296 0.20557228 0.10821648
0.14143775 -0.08605299 -0.050026182 0.034844376 0.07844474 -0.08399563 0.03827827 -0.09157059
-0.031719655 0.09297482 0.056716558 0.016099913 0.19333652 -0.047934912 -0.03999759 -0.051880497
0.019809604 0.004551456 0.12164729 0.031060157 0.13886839 0.11377832 -0.14807642 -0.08038047
0.02988937 -0.17675056 0.084318995 -0.02507205 -0.004817142 0.12057627 0.04151417 0.11719485
-0.113563545 0.037549276 0.0009690488 -0.1285991 -0.020993395 0.0028823067 -0.19035877 0.017146755
0.019909704 -0.0505843 0.105596155 -0.046061087 0.04708766 0.10804737 -0.1071523 -0.06782888
0.00088565686 -0.046757743 -0.020333266 0.11654217 0.05477236 0.011875376 0.04710009 -0.09738578
-0.13796723 -0.005219922 0.028472578 -0.12583087 -0.027778884 0.06915434 0.002951541 0.02887612
-0.05778724 -0.056481224 0.010504053 0.02493303 -0.120583415 0.11760759 0.17705935 -0.004588715
0.1344032 -0.040751044 0.050433386 -0.114887625 -0.10374189 0.06337582 -0.10354217 -0.14652494
-0.03779112 0.019251112 -0.1293363 -0.121315196 0.0995379 -0.019044342 0.15814744 -0.10483798
-0.0668935 -0.026544012 -0.10157684 0.07253905 -0.07405922 0.07600659 -0.023128973 -0.06518957
-0.1571865 -0.2525165 -0.079216905 -0.2086806 0.18616569 -0.1389702 0.15799408 0.020489775
-0.06741749 -0.26531667 -0.34966123 -0.23811425 0.21629089 -0.22771156 -0.23454028 0.33828777
0.011892191 -0.37853152 -0.2765137 -0.102687545 0.061682314 0.043876715 -0.030672265 0.10661748
-0.10606065 0.3626255 -0.15384147 0.10717839 0.31948504 0.20995657 0.030208481 0.14223246
-0.29041275 -0.38141096 0.12301947 0.2730842 0.156262 -0.17388284 -0.41202748 0.26697177
0.26633412 0.34480643 0.25452727 -0.3145684 0.3006467 0.2691135 -0.107265115 0.38191837
0.16982628 -0.15725985 0.26965976 0.0006174936 0.11164487 0.18770298 -0.190946 0.10954696
0.2132649 0.30719182 0.17818183 -0.4001982 -0.05619497 -0.002122171 -0.0366363 -0.0015588101
0.048117954 0.02756812 -0.10638339 -0.19759516 0.15594067 -0.12762284 0.17389558 -0.04197567
-0.064185254 0.03490362 0.07584129 -0.054792784 -0.008517387 -0.15508996 0.09061807 -0.01729462
-0.010999507 -0.017560905 0.039080247 0.030828187 -0.01745803 -0.09071932 -0.074528754 -0.13110223
0.14436741 -0.0019559213 0.07542916 0.05721129 0.03702623 0.0015557758 0.10867622 -0.1398635
-0.05464135 0.09886634 -0.07591349 -0.005333387 -0.048706077 0.1430177 0.018551297 0.14602327
0.005840881 0.09581372 0.08535652 0.07282361 -0.02110195 -0.17645322 -0.1290063 0.13231432
0.10341965 0.02006839 -0.016562808 -0.021715526 0.010118032 -0.008924986 0.17594051 -0.039202172
-0.21905658 -0.24956517 -0.08258195 -0.15196355 0.12266572 -0.17587721 -0.031001037 0.17468987
-0.07790101 -0.31137076 0.010832303 -0.021498255 0.17337102 -0.09860946 -0.21176523 -0.0013898256

encoder.model.bias_ih_l0 f4 [240]
00000000: 0fcf 1c3e 284b afbd 63a1 843d 7dc1 cb3c
00000010: 399b 003e c11f 133e fdab f5bd 99c3 483d
00000020: 9851 f03d b07f de3c ff76 c93d 6a7d 00bd
00000030: 8f8b 123e 15ba bf3d 4963 e3b9 1e78 903b
00000040: e275 e73c d26f 9b3d dad2 83bd 9a8c 19bd
00000050: e0ea 023c 2752 a23e c2f0 303e 7c30 b33d
00000060: 15e8 673d 2ae1 0bbd cf3d b83e 74d5 113e
00000070: 1b78 ed3c c551 ccbc 4173 393e 6e58 653d
00000080: 0b90 a4bd c6ae 3a3e 4a18 c33d f570 c23d
00000090: 789a 213e 0b75 cb3c dd4b 353c 23a0 7bbc
000000a0: 18fc d13d a306 25bd 5f22 103e 7364 173d
000000b0: 02d2 153e d366 1f3c b1ff c23c 0f4c e33d
000000c0: da13 ee3e 7772 193e 0fbb 4a3c 04e9 d23d
000000d0: c35e 193e 76c3 fb3d 8ea7 da3d 4586 b93d
000000e0: fc7f be3d 5378 af3b 22a1 4f3e fb41 dfbc
000000f0: 292f 863d 3249 153d 5834 0bbc c2d3 493d
00000100: 0d78 8abd f716 95bd 0a4d ddbd 21ea 43be
00000110: a0c3 c03b 0ed3 a5bd b77d bc3d 5749 58bd
00000120: dca3 0a3d db8a 933d 479a 16be d4d2 80bc
00000130: d3cd ecbd 5ff1 02be fbfe 103c 1e5c f9bc
00000140: e02d eebd bc5e c83b 6e1a 84bd becd 36bd
00000150: 9d89 cdbd 9066 83bb 9a94 82bc a0e3 abbc
00000160: c5ea 4d3d 98ca 5ebc ac94 08be af61 033d
00000170: dbb3 873d a552 3ebd 2986 8cbd 2101 073b
00000180: 5c8a b73a 9236 9d3d 1cf9 cbbd 0eaf 883d
00000190: 9b5e 7b3d 2b50 a3bc 478f dd3d 2fb1 ebbc
000001a0: be57 acbc 1bf0 c7bd 6e0c 91bd 7f7a b8bd
000001b0: ba4b 26be 3d56 b13d d9d3 483d 7416 0ebd
000001c0: bad7 2fbe f37b 74bb e7a8 583d a19c 2cbe
000001d0: bd12 283d fa89 58bb d56e d1bd 5562 f439
000001e0: 3f00 3bbe 5d6a 703d f7de 883d 2011 f3bd
000001f0: 6047 d2bd 8b08 e63d b951 1b3d 895b 803d
00000200: 4f0b 1cbd 00bb 13bd 071c 07bc b6e9 90bd
00000210: a980 eb3d 1000 56be 8cf5 45be cd06 7b3d
00000220: 43c6 a8bd fb5d 05be 1c97 04be 16e5 42be
00000230: e296 5cbe 4b6d a03c bb39 5cbd 339a 8bbd
00000240: c19a 0bbd 9ee0 d73d 9e72 4d3e 1d08 193d
00000250: 0297 983d 71ac 543d 2f83 253e 2e72 6bbc
00000260: 26ac 30be d7fe 81be 5e28 8c3d 218f ef3d
00000270: 2a80 b3bd 72a0 1fbe d077 abbd d073 a93d
00000280: 50f3 c43d 055a a5bc 5088 c1bd 5928 18be
00000290: 5df0 8a3d f266 a73d 578a 43be 02d2 9c3d
000002a0: 0f8e 393e 6809 a03d af60 b3bd b29b a5bd
000002b0: ab8d 443d eae1 503e b88c 99bd ad2d 293e
000002c0: 4c57 4abd 0eca be3d 8196 29bd 1238 febd
000002d0: 92b9 febc dcfe 03be 88fb 97bc 89f6 63bd
000002e0: 270d b43d 3565 e8bc 2736 c7bc 37d5 443e
000002f0: 1f23 bdbc 53e8 ea3c 2836 0f3e 6e4b 663d
00000300: 82e3 ebbc 914c f53d c853 d43d e31c ce3d
00000310: f997 8b3d 84e2 153d 205a 9cbd 9190 e93d
00000320: 8f9a 923d 5065 2a3e 4ca0 4f3d 9cc4 f13d
00000330: 6cfe 493e 3aa0 d9bc 1ba0 8e3e f305 0dbc
00000340: aa46 f23d ceaa 093e 124e 063e 7a48 93bc
00000350: 2bfb 053e b655 b23d ed40 3e3e 7940 4fbd
00000360: c8ff 41bd 4975 f93b 9cc2 bb3c 2611 833d
00000370: f5fd 82bc ae78 ddbb e778 013e bfc7 e73d
00000380: 369b 293e a40b 90bd 5671 053e 13eb e1bd
00000390: 397c 083f a8f7 d4bc bc78 f73d f3a5 443e
000003a0: d6c0 433d 19ae 5a3e 930a 1bbd 29a1 fd3d
000003b0: aee7 f43c 84fb 5d3b 6b13 2c3d 7cf3 dcbd
0.15313362 -0.08559257 0.064760946 0.024872536 0.12559213 0.14367582 -0.11995695 0.04901466
0.11734313 0.027160496 0.0983715 -0.031369604 0.1431105 0.09361664 -0.00043370787 0.0044088503
0.028254453 0.075896874 -0.06436701 -0.037487604 0.007990569 0.31703302 0.17279342 0.08749482
0.056617815 -0.03415028 0.35984656 0.14241582 0.028987935 -0.024941335 0.18110372 0.055992536
-0.080352865 0.18230733 0.09526117 0.09494201 0.15781581 0.024836084 0.0110654505 -0.015358004
0.10253161 -0.040289532 0.14075612 0.03696103 0.14630893 0.009729105 0.023803564 0.110984914
0.4649952 0.14985071 0.0123737 0.102983505 0.14977555 0.122931406 0.1067649 0.09058813
0.09301755 0.00535492 0.20276311 -0.027253142 0.06551964 0.036446758 -0.008496366 0.049274214
-0.06761179 -0.07279771 -0.1080571 -0.19132282 0.0058826953 -0.08096896 0.09203666 -0.052804317
0.033847675 0.07204219 -0.1470729 -0.01572553 -0.11562695 -0.12787388 0.008849855 -0.030439433
-0.11629844 0.006114809 -0.064503536 -0.044629805 -0.10036013 -0.004010029 -0.01594 -0.020982563
0.05027272 -0.013598107 -0.13337964 0.03207558 0.066261016 -0.046465535 -0.068615265 0.0020600038
0.0014003026 0.07676424 -0.09959623 0.06674014 0.06136952 -0.019935688 0.108183436 -0.028771011
-0.021037932 -0.09762593 -0.07082449 -0.09007739 -0.16239825 0.08659027 0.04903016 -0.03468938
-0.17172137 -0.0037305325 0.052895453 -0.16856624 0.041033495 -0.0033041225 -0.10226218 0.0004661257
-0.18261813 0.058695186 0.06683152 -0.11868501 -0.1026752 0.11232098 0.037919734 0.06267459
-0.038096722 -0.03606701 -0.008246428 -0.07075827 0.11499149 -0.20898461 -0.1933195 0.061285783
-0.082409404 -0.13024132 -0.12948269 -0.19032702 -0.21541932 0.019583365 -0.053765994 -0.068165205
-0.03408313 0.10540889 0.20063254 0.037361253 0.074506775 0.051922265 0.16163324 -0.014370484
-0.1725317 -0.2538974 0.06843637 0.116972215 -0.0876468 -0.15588549 -0.08372462 0.082740426
0.09616721 -0.020184526 -0.09449828 -0.14859141 0.06784127 0.08173932 -0.19095741 0.07657243
0.18120597 0.07814294 -0.08758675 -0.08086337 0.047986668 0.2039868 -0.07497543 0.1652133
-0.04939966 0.093158826 -0.041403297 -0.12413038 -0.031094346 -0.1289019 -0.018552557 -0.055655036
0.08791571 -0.028368572 -0.024317814 0.1922196 -0.023088036 0.028675234 0.13985503 0.05622428
-0.028795008 0.119774945 0.103675425 0.100641035 0.06816096 0.036592975 -0.076343775 0.11404527
0.07158386 0.1664021 0.05068998 0.118050784 0.1972596 -0.02656566 0.27856526 -0.008607375
0.11829884 0.13444063 0.13115719 -0.017978895 0.13084094 0.08707754 0.18579455 -0.050598595
-0.047363073 0.0076128584 0.022919945 0.06399755 -0.015990237 -0.006758771 0.12643777 0.113173954
0.16563115 -0.0703347 0.13031515 -0.11031165 0.5331455 -0.025996998 0.12083575 0.1920393
0.047791325 0.21355475 -0.03785188 0.123842545 0.02989563 0.0033871839 0.042010706 -0.107886285

encoder.model.bias_hh_l0 f4 [240]
00000000: 0829 bd3c 3a46 d3bd ca7a 86bd 4fcb 713d
00000010: 2d6a 1a3e 7052 3f3d 87bf 03be e2fb 233e
00000020: ce75 f03c 2cfa 103c 3377 1abd 3cf2 71bd
00000030: 6ec2 033e 145b 053e ac01 b53b 70e1 d03d
00000040: 8015 f93d 4353 81bd ff1c 16bd c180 b93c
00000050: 3a46 a43d bc75 8e3e 79bd d6bc af33 923d
00000060: 88ad 4dbc cc1d 2bbc ac4f ef3e 1c8f 8dba
00000070: b568 d23d 0a62 f53d 5245 713e 9c8b a6bc
00000080: 7b63 aebd 1393 7d3e e88a 223e 4e1a 5b3c
00000090: 5073 983d 0721 603c 1ad3 1dbd a1aa 2c3e
000000a0: 483b ea3c a541 7e3d 6d5c 9a3d f058 903d
000000b0: 5a63 c73d 9124 fa3c 9dfc b03d 21e8 65bd
000000c0: e452 093f b0e0 f63c 273b fcbd 6f29 463e
000000d0: de50 7c3d 3e8e 9f3e 2231 f2bd 0922 503e
000000e0: 31e2 343e bb0d bd3d 34c0 c23d 3384 093d
000000f0: f777 173e 10d6 dfbc 082e bfbd 462c 41bd
00000100: fa80 c5bd c748 173d 77e3 e3bd b529 42bd
00000110: 1583 07be 071a 113e a351 dfbc c31f d1bc
00000120: 8cdb 39bd 83db b13c b5bc 9dba d7b7 a1bc
00000130: e7c7 2abd 316c 4dbd 9bd1 9f3d 1cc9 06be
00000140: a753 a8bd 1c2b e2bd d8b2 f6bd 10ba 08be
00000150: f577 c9bd 47d1 1d3e f18e 51be 5efc 343d
00000160: 3f22 9d3d d421 023e 8b2e 44be 95a5 9b3d
00000170: 446f 8f3d 6bdb 9c3d 002b e5bb 4d6c bd3c
00000180: 2b0e f03d 51f5 c43d 7381 b4bd 5fc0 47bd
00000190: a425 f8bc 7f04 d1bd 3de4 dfbd f6c4 06be
000001a0: 6f7d 4ebd 3c18 d2bc 8c6e b5bc 5149 fc3a
000001b0: f9a0 6cbe 49d0 e63d e7ed 6abb a310 d3bd
000001c0: cee3 a5bd 031f d33d ba35 acbc 7042 bbbd
000001d0: 745f e43d 633f 323e 6427 9a3d 72c2 cabd
000001e0: af49 c8bd 7462 a7bd a43c 53bd 742c a43d
000001f0: f25b df3c d355 853d 621a cc3c 5c47 f03d
00000200: ee81 f6bd 6d5f c6bd 7958 85bd 7bca 43be
00000210: af35 e0bd 2e61 06be 1db0 f1bd c2bd 463e
00000220: dc5f 3b3d 28aa 06be defc f23d 946c bcbd
00000230: c322 9cbc 096d 1d3e 21ca 0dbe 826b 87bd
00000240: 9a81 633c d3f5 123d 886e 5e3e 22cd ee3d
00000250: 0fb7 32bd d0f1 ef3c d8b2 0b3e faa2 af3d
00000260: a02a 0dbe 4b32 d7bd 071f 32bd fd94 f6bc
00000270: 1ca1 b73d 5114 16be b474 c3bc e5ef 9d3c
00000280: ab0c 1ebd b585 d53d 8c15 c13d 7ba9 02bd
00000290: 77b5 cb3c ee2b bb3d dfd3 12be 86a4 ad3d
000002a0: 8bc8 c63d 30f4 05be 77ba ff3d 7b3d cd3c
000002b0: b390 243e 9724 653e d0e4 0cbe 322e 3a3e
000002c0: 42d1 e33d afca 083e 73c1 763d 0255 f1bd
000002d0: 171d b3bd dd9e c23d 3881 393e dea9 c83d
000002e0: 5ae6 a83c 5724 2d3d d260 7c3c 1f90 433e
000002f0: 5d9f 0fbd 2ab4 85bd d0cb e8bc f8dd 193c
00000300: 43b3 8e3d 15ae 713d f5e9 2e3e 4ca6 50bc
00000310: 2e77 4a3d 4f32 9abd 1e0b d6bc d7ab 693b
00000320: 2a90 34bd 6e12 003e 8d8c 79bc 3fae d33d
00000330: ad67 c8bc 3fda 9b3d 9cb2 963e 2743 a23d
00000340: b784 17bd a85c 84bd 1ad4 673e 764e 813d
00000350: a25c 81bd a9d7 413e 4ae8 0f3d 7638 f43d
00000360: df59 51bd a839 093e e33b fa3b 4246 c3bc
00000370: 717f 23bd 80cc a23d 204c 943d 8d68 09bc
00000380: 7508 1d3d 33c8 a13d c1c9 223e 98c3 dbbd
00000390: 13ad d03e 7baa fb3b bae9 05be a3db ba3d
000003a0: dda5 c93d bad2 613e 30c3 66bd 43bd 2d3e
000003b0: 8765 d2bb c25c 1b3d af40 1c3e 1228 943d
0.023090854 -0.10316129 -0.06566389 0.05903178 0.15079565 0.046709478 -0.1286603 0.16014054
0.029353049 0.008848708 -0.037711333 -0.059068903 0.12867138 0.13023025 0.005523881 0.10199249
0.12162304 -0.06314709 -0.036648747 0.022644402 0.08021207 0.278242 -0.026213394 0.07138764
-0.01255358 -0.010444116 0.46740472 -0.0010800096 0.102738775 0.1198159 0.235616 -0.020330243
-0.08515068 0.24763136 0.15873301 0.013372971 0.07443869 0.013679749 -0.0385314 0.16861965
0.02859272 0.062074322 0.0753716 0.070482135 0.09735747 0.030535014 0.08641932 -0.05612958
0.53642106 0.030136436 -0.1231597 0.19351743 0.06160056 0.3116321 -0.118257776 0.20325483
0.1766441 0.092311345 0.09509316 0.03357334 0.14791857 -0.027323753 -0.09334952 -0.047161363
-0.09643741 0.03693464 -0.1112737 -0.047403056 -0.13233598 0.14170085 -0.027260607 -0.02552784
-0.04537539 0.021711117 -0.0012034388 -0.019740982 -0.041694548 -0.050152007 0.07803651 -0.13162655
-0.082190804 -0.11043379 -0.120458305 -0.13352227 -0.09837333 0.15411864 -0.20464684 0.04418599
0.076725475 0.12708217 -0.1915838 0.07599942 0.07003644 0.07659038 -0.0069936514 0.02312293
0.11721452 0.09617103 -0.08813753 -0.048767444 -0.030291386 -0.10205936 -0.10932205 -0.13161072
-0.05041259 -0.025646321 -0.02214744 0.0019247924 -0.23108281 0.11270196 -0.0035847367 -0.103059076
-0.08100091 0.103086494 -0.021021713 -0.09143531 0.11151019 0.17406993 0.075270444 -0.09900369
-0.09779679 -0.08173075 -0.051571503 0.08016291 0.027265523 0.0651051 0.024914924 0.11732361
-0.12036501 -0.0968617 -0.065110154 -0.19120209 -0.10947739 -0.13123009 -0.11801169 0.19408324
0.045745715 -0.13150847 0.11864637 -0.09200397 -0.019059544 0.15373625 -0.13846637 -0.06612302
0.01388588 0.035878967 0.21721852 0.1166022 -0.04363161 0.02929011 0.13642442 0.08576007
-0.13785791 -0.105076395 -0.04348662 -0.03010034 0.08966276 -0.14656188 -0.02385936 0.01927943
-0.0385863 0.10425893 0.09427938 -0.03189991 0.024866803 0.09139238 -0.14338635 0.08478646
0.09706219 -0.13081431 0.12486737 0.02505373 0.16070823 0.22377239 -0.1375916 0.18181685
0.11123897 0.13358568 0.06024308 -0.11783792 -0.08745783 0.09502957 0.181157 0.097980246
0.020617653 0.042270985 0.015403943 0.19097947 -0.03506409 -0.06528504 -0.028417498 0.0093913
0.06967785 0.05900391 0.17081435 -0.012734961 0.049430065 -0.07529127 -0.026128348 0.0035655403
-0.044082798 0.1250703 -0.015231264 0.10335969 -0.024463499 0.076099865 0.29433143 0.079229645
-0.0369918 -0.06462985 0.22639504 0.06313793 -0.063164964 0.18929924 0.035133637 0.119248316
-0.0511111 0.134009 0.0076365336 -0.023837212 -0.03991646 0.079491615 0.07241082 -0.008386743
0.038338143 0.07899513 0.15897276 -0.10730666 0.40757045 0.007680235 -0.13077441 0.09123924
0.09846089 0.22053042 -0.05633849 0.16966729 -0.0064207944 0.037930258 0.1525905 0.07234205

encoder.model.weight_ih_l1 f4 [240, 60]
00000000: 3ce7 34bd 8364 29bd cd0a 14bd edc6 823d
00000010: ae75 15be 628d 433e 893d 8f3d 6d91 843d
00000020: fc01 04be ae87 023e af7e ab3d 818b 683d
00000030: 01d1 12bd 7cc4 d0bd aef1 a2bb 2b50 043e
00000040: 0d9d d33c 1b19 0fbe de9e c83d cad3 33be
00000050: f244 6abd cf2b af3d 6c18 e4bd 8e4a 1dbe
00000060: 8c10 9cbc b3de 82bd 9630 cc3d 344b 6bbb
00000070: 6a32 133e d8c8 393e 2572 873d db49 913d
00000080: 33e3 00bd 232b aebd 2663 b13d 86ca fc3d
00000090: cc6e 11bd c26b 3abd 2522 1a3d 7d9c 0fbe
000000a0: 5274 673c 4ed6 8f3d 6634 a7bc cdb8 52be
000000b0: 7bd8 b23d a670 77bd e9ae c6bd 01cd b03d
000000c0: 4e72 003d c890 a23d 7694 553e 2427 e7bd
000000d0: e702 f9bc aad2 573e 1574 693d 3d77 de3d
000000e0: ba2d 103e 7073 ddbb 1e75 2ebe 0bcd 18bd
000000f0: 7520 78be 2fa7 e6bd 5389 593d 346c ad3c
00000100: 6733 4a3e a8e8 ce3d ef1c 243e e28f b2bd
00000110: d88c a73d 4996 93be de86 063e 5943 37be
00000120: 3c7e 193e 00ff 2abe 8b59 27be f2d7 3bbc
00000130: 0db0 cebd e40f 80bc 8e76 2fbe df7e 0abe
00000140: a431 e9bd 5837 8ebb f2e3 e13d 09be 90bd
00000150: cf6f 963d 8b51 993b b918 e3bd 7b5b b9bd
00000160: c6ce b83d 2c2b ad3c 9104 59bd a360 183e
00000170: 1532 2dbe c27c 6fbc f64d 973d 1d5f 05bd
00000180: b80c 28bd 1c17 68be 0797 5bbd fe82 1e3e
00000190: accb 5d3e 89d3 0a3e 5acd 3e3d 550e a2bc
000001a0: 1d06 2e3e b3d0 713e 944e bb3d f5dd 6c3e
000001b0: b1e4 81bd 83d9 23be 09f2 a83d 39a8 ad3d
000001c0: 246d 1d3d 1935 6d3b ce4c a13b 3303 be3c
000001d0: 9508 653e f136 b93d 4748 933d 627e 4f3b
000001e0: 1b6b 573d 4d9f a2bd 61f2 49be 308d 1dbe
000001f0: 1d80 eb3c 829f f5bd f733 2a3e 20b3 34bd
00000200: e315 20be 6722 3ebd 2459 ebbd 9ca8 c5bc
00000210: bed1 cd3d b971 acbd a9b6 cb3c 1bf1 213d
00000220: 28fa 0abe 6a42 883d c812 7f3c 7ab0 efbd
00000230: f696 b7bc 24e2 a7bd 2b88 f4bd cbdb 1abe
00000240: 4ec0 aebd 1275 3abd d621 babd 5d1c 683d
00000250: d533 e23d 1b68 c03c f64a db3d 94c3 093e
00000260: cd5c f23c 178c 1cbd 7b8c 543e d15b 9cbc
00000270: f681 b13c 8f21 3f3d 8b0b 00be 811a a33b
00000280: 66a8 7f3c 2898 ac3d e4e0 0fbb 0e0f d9bd
00000290: 6903 a5bd d7cd 1abd c1a1 913a f40d 063c
000002a0: c011 113d 0579 09be 6955 0fbd b502 41be
000002b0: ec66 e7bc 0729 0f3e f231 8abc 31ba b23c
000002c0: 26ac e53c d54a a03c 1c68 b3bc f141 89bc
000002d0: 4302 f2bd 4829 20be f3ae 12bd 04b6 a9bd
000002e0: 5c25 2abd 7be1 133e 1e4e c13c 5e5a b8bc
000002f0: 82f0 31bc 1f2d 40be 1fb5 213e a453 0a3b
00000300: 3b7b bfbc bea0 25be 89e0 72bd 02d1 e03d
00000310: fe2d aabd ce5b e6bd 8fe6 8dbd e52e 36be
00000320: bc95 8c3c 6b48 173e 18f4 0fbe a136 303c
00000330: f2c2 abbc cf59 c83d 2bf3 583c b345 7b3e
00000340: 69b0 293e d1c4 003d bc32 8bbb 9153 9f3d
00000350: f10a 1bbe a9c1 1cbe e8c9 56bd a9dc a3bd
00000360: de11 f2bb 023e a4bd 4de2 5d3c 2f18 143d
00000370: e5b5 8e3d d933 2d3d f1cc d6bd e86e 5dbd
00000380: 3a1b 7cbd f01a 033e 3dfc 27be 727f b33c
00000390: d976 213e 8b6c 1fbc 0fb7 eebc c565 ddbd
000003a0: 2ae2 f53c 0077 edbb c54d abbd 2722 253e
000003b0: 5936 6fbd 50ad 513e 383a bd3d 2e3d 1bbe
000003c0: 980e aa3d db9a fb3d 5d3a efbd 0013 95bd
000003d0: 17bc 12be 1e4d 0cbe 8e33 28bd 70cb b63d
000003e0: 596c 343d 1938 fcbd 0fd3 073e 9300 343d
000003f0: efd7 abbd bdac e43c aa6d 203d f728 bdbd
-0.044165835 -0.04135562 -0.036143113 0.06385598 -0.14595672 0.19096902 0.06994159 0.0647305
-0.12891382 0.1274707 0.08373772 0.056773666 -0.035843853 -0.101937264 -0.004972658 0.12921207
0.025831724 -0.1397442 0.097959265 -0.1756126 -0.057194658 0.08553278 -0.111374706 -0.15360472
-0.019050859 -0.06390133 0.099702045 -0.003590298 0.143747 0.18143022 0.06613568 0.07094165
-0.031466674 -0.085043214 0.08661489 0.12343316 -0.035506055 -0.045512922 0.03763022 -0.1402454
0.014126854 0.07023297 -0.020410728 -0.20578308 0.087326966 -0.060410164 -0.0970133 0.086328514
0.03135901 0.07937771 0.20857415 -0.11286762 -0.030396892 0.21076456 0.05699547 0.10862587
0.14079943 -0.006758146 -0.17036864 -0.03730492 -0.24231131 -0.112623565 0.05310948 0.02116976
0.19746171 0.101029694 0.16026662 -0.0871885 0.08181161 -0.28825596 0.13137385 -0.17896785
0.14989561 -0.16698837 -0.16342752 -0.01146506 -0.10092173 -0.015632577 -0.17135069 -0.1352496
-0.11386421 -0.0043400936 0.11029805 -0.07067496 0.073455445 0.00467891 -0.110887 -0.09050652
0.09023814 0.02113875 -0.05298287 0.14880614 -0.16913636 -0.014617147 0.07387917 -0.03256141
-0.041027755 -0.22665066 -0.053610828 0.15479657 0.21659726 0.13557257 0.046582557 -0.019782225
0.1699452 0.23614769 0.09145847 0.23131545 -0.063424475 -0.16000943 0.082492895 0.084793516
0.038434163 0.0036194979 0.004922486 0.023194885 0.22366555 0.09043682 0.0719152 0.0031661023
0.052592378 -0.079405405 -0.19721366 -0.1538589 0.028747613 -0.11993314 0.16621386 -0.04411614
-0.15633349 -0.046419527 -0.114916116 -0.02412825 0.10049771 -0.084201284 0.024867373 0.039536577
-0.1357199 0.066532925 0.015568443 -0.11703582 -0.022410851 -0.0819743 -0.119400345 -0.15122907
-0.08532773 -0.045521803 -0.09088485 0.056667674 0.110450424 0.023487141 0.10707657 0.13453513
0.029585266 -0.038219538 0.20756714 -0.01908675 0.021668416 0.046662863 -0.12504403 0.0049775247
0.015604114 0.08427459 -0.0021954114 -0.105985746 -0.08057291 -0.03779396 0.0011110828 0.008182038
0.03541732 -0.13425072 -0.034993563 -0.18848689 -0.02824732 0.13980494 -0.016869519 0.021817299
0.028036188 0.019566933 -0.02190023 -0.016755076 -0.11816838 -0.15640748 -0.035811376 -0.0828667
-0.041539535 0.14441483 0.02359682 -0.022504028 -0.010860564 -0.18767212 0.15791748 0.0021106983
-0.02337419 -0.161746 -0.059296165 0.10977365 -0.083095536 -0.11247979 -0.06928741 -0.17791326
0.017161243 0.14773719 -0.14057958 0.010755212 -0.02096698 0.09782755 0.0132415695 0.24538307
0.16571201 0.0314377 -0.0042479914 0.07779611 -0.15140893 -0.1530825 -0.052438647 -0.08001072
-0.007387384 -0.080196396 0.013542724 0.036155876 0.069682874 0.042285774 -0.10488308 -0.054060847
-0.061549403 0.12803245 -0.16404815 0.021911357 0.15767993 -0.0097304685 -0.029140024 -0.108104266
0.03001507 -0.007246852 -0.08364443 0.1612631 -0.05840144 0.2047627 0.0923962 -0.15160057
0.08303565 0.12285396 -0.11681054 -0.072790146 -0.14329563 -0.13701293 -0.04106479 0.089255214
0.04404864 -0.12315387 0.13264106 0.04394586 -0.083907954 0.0279144 0.039167084 -0.09236329

encoder.model.weight_hh_l1 f4 [240, 60]
00000000: 01bd 943d 03af 99bd 469e 953d 5f81 a6bd
00000010: 91cb c7bd c2f9 c5bd 8e6b a5bd 4999 8c3d
00000020: 1291 42bc f1aa 04be 7fbb c8bd b679 1dbd
00000030: 837d 0abe 0364 25bd cff9 21be e30a 6e3b
00000040: a4b2 e63d f5c1 3abe 9d52 83bd 2faa c03d
00000050: 9d91 a8bd 1eee 073d 9996 4fbc d4fe de3c
00000060: 9c69 f4bb df96 423d 206f 713d 51b9 57bd
00000070: 136f c6bd c434 be3c a46e a23d c266 c4bd
00000080: 44fe 16bd 3c09 1a3d f6a9 043e 68c5 03bc
00000090: 514c 763d 4284 193e 7371 1dbd fb48 acbb
000000a0: 7329 e93c b430 783d 621e 1bbe 3323 0e3e
000000b0: 550d ffbd d3be 69bd eb33 9c3d cb04 12be
000000c0: 1c4e 95bd 724f 3b3d c936 ea3c 9407 d5bd
000000d0: ebfe 0f3d 3a3f 16be e5df 943d 4e8c b2bd
000000e0: 0876 73bd 67db ffbd 6c13 71bd f28b f23d
000000f0: 2085 cabb 4197 8cbd 5569 0abe 91b3 613e
00000100: a8a7 f63c 07a3 af3d b002 073e f7df 7bbd
00000110: a79f 91bd 7106 07be 494e 2ebd 8b4a 0ebe
00000120: 44eb 553e ff48 393b 27e3 203b 0e98 52bd
00000130: 7168 ca3c 8f7e 15be f0aa a23b 13f6 2cbe
00000140: 0473 593e 5f47 393e 90ae 353e 2df5 9f3d
00000150: af04 323e 50e6 ab3e 80dc 583e 75e2 aa3c
00000160: ff6b ccbd 3bac 57be 3cb9 14bc caa9 023e
00000170: 2d7e c83d 661d 4fba 52e3 ce3d 76f7 c7bd
00000180: 5363 1c3c e189 093e 042a 803c 594d 38bd
00000190: c8b0 e2bd 2692 113e 1869 01bc 99fd 22be
000001a0: fe1e a83d d461 953d 486d 88be a4e9 e9bd
000001b0: 77c5 1bbe ca37 433e 7713 02bd 7891 52bd
000001c0: 27a9 77be 4a4e d4bb 570d 5a3d 8320 aa3d
000001d0: f92e 1c3e fb0b 33be 84dd 12be fcb8 4fbd
000001e0: 676b 23bc 4d2a 883d 6bee c2bc efe8 3c3d
000001f0: d807 adbd ca8b 5a3d 1b4f d73d ff86 26bc
00000200: e0d3 6ebd c959 6db9 a5dc ff3c f524 29be
00000210: 7b2e 033d 4bea 08be 15bf c7bd c908 7cbc
00000220: a3ec 823d 56ea 9dbb 4f43 9f3d 6954 c2bd
00000230: 9612 acbb f697 d7bd 4a58 223e e184 713d
00000240: 70e5 0bbe ab77 073d 3ee5 843e 4bd8 b73d
00000250: b899 4cbe d07f b9bb fa2e 013e 2b3c 3b3d
00000260: 61d7 073d ea31 283d 57d1 143e 25c9 cdbd
00000270: 4a2f b83d d5bc 5c3d 0859 0ebe d41b 34bd
00000280: c090 b6bd 948a 8f3d 5a89 5e3d e2d6 d43d
00000290: 966c 883c 8bf1 113e 3bc0 22be c16a 29be
000002a0: c56c 173d 6bf5 4a3e 2c9b d73b b8e8 12be
000002b0: c193 fb3a e858 0cbe 2290 83bd 1598 8d3d
000002c0: 7951 28bd f568 e9bd f991 813c 63cc 8dbd
000002d0: a770 053e 3ec7 d1bd 9aac 0abe fa62 953d
000002e0: 8b94 47be 71b7 b03b f028 df3c c981 90be
000002f0: 29b1 c5bc dcf2 81be 7d05 213d b410 dd3d
00000300: 5058 943d 8762 c6bd d0b5 acbc 5dae b73d
00000310: 58f2 b13c f856 de3c ecc9 353e a935 35be
00000320: 98f7 41bd 963f 54bd 7d47 d93d eadd acbd
00000330: 6232 bfbd e9fb 81bb 5463 e0bd cfea c1bc
00000340: 3da7 babc 01d2 8ebd 3076 3dbd b773 d8bc
00000350: 87f7 88bd f403 86bc 43bf e7bd a380 443d
00000360: 2f8f cbbc 4c3d 813d 1633 d83d 0504 babd
00000370: db69 0f3d d02a ec3d b8de ee3d f234 bc3d
00000380: ef69 f33d d80e 4d3e e571 98bd 454a 693d
00000390: cab7 b6bd 925c 0fbc 018b 423c eae2 07be
000003a0: 4eed 32be 69fa 87bd 81d7 073e 48b3 f9bd
000003b0: 3a63 4b3d 18ab 59bd 2def dcbd a934 97bd
000003c0: abb4 15bd c775 463c 1519 afbd ddce 553d
000003d0: 891f 7bbd 1361 ddbc e966 febb 58b1 243d
000003e0: 218b 28be 7900 743c 1201 05bd 64b3 c3bd
000003f0: d6ab 91bd d2f3 503d 25cb 96bd e9c0 bb3d
0.07262612 -0.07504084 0.07305579 -0.08130144 -0.09755624 -0.09666778 -0.08077155 0.06865174
-0.011875408 -0.12955834 -0.09801387 -0.03844615 -0.13524441 -0.04037858 -0.1581795 0.0036322407
0.11264542 -0.18238051 -0.064122416 0.0940746 -0.082308985 0.03318607 -0.012670183 0.02722112
-0.0074588787 0.047507163 0.058943868 -0.052666966 -0.096891545 0.02321852 0.07931259 -0.09589912
-0.03686358 0.037606463 0.1295546 -0.008042671 0.060131375 0.14991859 -0.03843827 -0.0052577234
0.028462147 0.060593322 -0.15148309 0.13880615 -0.12453715 -0.05706675 0.0762709 -0.14259641
-0.07290289 0.04573006 0.028590577 -0.10401836 0.035155218 -0.14672557 0.07269267 -0.08718167
-0.059438735 -0.124930196 -0.058856413 0.11843099 -0.0061804205 -0.06864787 -0.13516743 0.22041155
0.030109242 0.08576017 0.13184619 -0.061492886 -0.071105294 -0.13186051 -0.042555127 -0.13895623
0.20890528 0.0028272269 0.0024549456 -0.051414542 0.024708005 -0.1459906 0.004964225 -0.16890745
0.21235281 0.18093632 0.17742372 0.078104354 0.17384599 0.33574152 0.21177864 0.020859936
-0.09981536 -0.21061794 -0.009077366 0.12760082 0.09789691 -0.0007900804 0.10101952 -0.09763996
0.009545165 0.13431503 0.015645035 -0.04499564 -0.110688746 0.14215907 -0.007898591 -0.15917052
0.08209036 0.0729405 -0.26645875 -0.114215165 -0.15212046 0.1906425 -0.031756844 -0.05140826
-0.2418562 -0.0064790593 0.053235378 0.08306982 0.15252294 -0.17485039 -0.14342314 -0.050713524
-0.009974337 0.06648693 -0.023795327 0.04612058 -0.08448762 0.05335597 0.10513135 -0.0101640215
-0.05830753 -0.00022635529 0.031233141 -0.16518004 0.03202675 -0.13370626 -0.09753243 -0.015382954
0.06392791 -0.004819195 0.0777651 -0.09488756 -0.005251239 -0.10527031 0.15853992 0.058964614
-0.13661742 0.03307311 0.25956148 0.089768015 -0.19980514 -0.0056609884 0.12615576 0.045711678
0.033164386 0.041063227 0.14532982 -0.10048131 0.08993395 0.05389102 -0.1390115 -0.04397185
-0.089143276 0.070088536 0.054330207 0.10392548 0.01665334 0.14252298 -0.15893643 -0.1654463
0.036968965 0.19820182 0.006579777 -0.14346588 0.0019193814 -0.1370579 -0.064239755 0.06913773
-0.041093323 -0.11396972 0.015816675 -0.06923749 0.13031255 -0.102430806 -0.13542405 0.07294269
-0.19490258 0.0053929617 0.0272412 -0.28224018 -0.024132328 -0.253806 0.039311875 0.107942015
0.07243407 -0.09686761 -0.021082789 0.08968804 0.021722004 0.02714108 0.17752808 -0.17696251
-0.047355264 -0.051818453 0.106093384 -0.08440764 -0.09335782 -0.0039667976 -0.10956445 -0.023671536
-0.022784824 -0.06973649 -0.04625529 -0.026422365 -0.06687837 -0.016359307 -0.11315777 0.04797424
-0.024848549 0.063105196 0.10556619 -0.09082798 0.03501306 0.11531603 0.11663574 0.09189786
0.118854396 0.20025194 -0.07443599 0.056955595 -0.08921774 -0.008750098 0.011873961 -0.13270155
-0.17473337 -0.06639559 0.13265802 -0.12192398 0.049655177 -0.053141683 -0.10787807 -0.07383091
-0.03654925 0.012113041 -0.08549706 0.052199233 -0.06130937 -0.027023828 -0.0077637327 0.04020819
-0.16459323 0.014892691 -0.032471724 -0.095557004 -0.07112853 0.051013775 -0.073629655 0.09167654

encoder.model.bias_ih_l1 f4 [240]
00000000: 7473 cd3c 8f78 2a3d cba0 353e 761c 693d
00000010: f44c b73d 3e88 373d 3190 c33d 7b7b 993d
00000020: ca52 b13e 5097 4e3d c5e6 783d 6c79 723e
00000030: 56ab 053e 182b 1b3d ce3d 273e 2f79 d43d
00000040: fcec 8a3d 63b0 233f 3427 acbd cc38 96bd
00000050: 9d46 9f3d f173 013d 0a41 a6bc 17a8 553e
00000060: 0712 eb3e 5efd 523e 6497 78bd 32ee 013e
00000070: 9d76 4a3d b292 e43c 81b9 5b3e 1f6b 7b3d
00000080: 6d53 193e 65bb b5bc 5247 823c 2884 cdbd
00000090: 6fa0 593f 1a91 0f3d 05cf a83d 1d7e 7d3d
000000a0: 923a 96bd 8576 ec3e 3b3a 723e d60c 293e
000000b0: aeb1 0cbc cbeb 3bbd cc80 283e d02f aabd
000000c0: 909d 32bd 0a84 dbbd f6da de3d b8d6 b63d
000000d0: af9a 373d 2d7a f63e 4e84 593d 06bb a23d
000000e0: c5f0 06be 344d 093e 94f5 373e 7635 ca3d
000000f0: a42f a8bd 742f d2bd 8ddc ee3d d2fc 803d
00000100: 5848 d4bd 417a 143e 0bf0 c3bd 4a56 f93c
00000110: 06dd 21bd b86e f0bd a34b aabd 72f6 013e
00000120: 6037 3ebd ec87 463d a125 8ebd 6327 05bd
00000130: 0e0a b0bd 91df d0bd ad6f 18bd 4140 3d3c
00000140: ef98 c5bd 510c da3d e620 b5bd 6775 733d
00000150: 277c 84bd 1f3e cb3d af95 293d 50ac 913d
00000160: 816f 673d e035 073c c265 8abc d367 b2bc
00000170: 3e17 00bd b370 08be c25c 2cbe 673e fabc
00000180: 7794 1ebe 8856 55be 63d6 c5bd 2cef 143b
00000190: 2928 a4bc df33 76be 0442 5f3d a0e1 6d3d
000001a0: 5c3a d0bd b438 22be e69d 7f3c 5d87 c53d
000001b0: 52d5 19bd a9f6 9b3d d33a 5fbd 4870 18be
000001c0: 1a66 f83d 4814 82be e1ad e4bd 145f b2bd
000001d0: 3846 21be 85fd 60ba 7fd3 cbbc a5bf bf3d
000001e0: d740 713d e10f 3dbd 5eee 00be 8cf9 063e
000001f0: 3768 843c 5f32 053e 93eb 123e 7381 d2bd
00000200: b159 87bd fe95 f9bd deec 2bbd e490 153d
00000210: f453 b7bc f489 84bd 6d99 1abd 6e6c 88bb
00000220: bb71 863d a9c1 37be 5af3 a63d 0e56 a5bd
00000230: 40ee 893d ee14 1d3d 7d71 71bd 705f 193b
00000240: 0fcb 1abd 1f93 123e 28fe 82bd 346b 97bc
00000250: 36f9 6d3d 3b13 67bc a478 1f3d 316c 9a3d
00000260: b401 69bd 3a71 26bd 3c51 973d 3bbe 92bd
00000270: cb14 853e 36ba 343e 0c68 37bd b951 6e3d
00000280: 4c85 593b 035d 453e 4d9e f2bd 63b5 ddbb
00000290: ca75 f4bd e7a4 8e3d 859b d4bd 3a8b 3dbd
000002a0: 4a79 f2bd 2b2c 71bc c95f e0bd 4d05 18bd
000002b0: 1d54 d13d 1fbb 83bd c020 6e3d 9aaf 6a3b
000002c0: 5cc0 ac3d f4df 70bd a6a7 f1ba d0cc e2bd
000002d0: b686 87bd a399 f03d 59fe 223e fffb 713e
000002e0: 7192 8abd eb45 1ebd e9cf f03d ac6a a73d
000002f0: b001 d03e 8c70 24bd 5329 8ebd 066d 013d
00000300: 5dd3 33bd c376 0b3e 5be3 463e 21ba 033e
00000310: ffd1 68bd 1a91 f13e 2c5e a0bd 1890 e9bd
00000320: ed83 753d 591d cabc 9772 f33d 034b 3f3e
00000330: d4ca 7b3e e803 723c 0925 a23d 17a2 13bd
00000340: 4280 09bd be3f 853d a8ab c53d 7c9f a3bd
00000350: f32b 003e ac18 0e3e b3ae 20bd 8cf5 10bd
00000360: 272b 6f3f 793b 743d 45a3 08be 2046 eb3d
00000370: d6ba 57bc 6608 f13e 6347 e73c 6004 393d
00000380: dcb5 013e bd09 f03d 4158 6f3c 73c6 c13d
00000390: 9142 353e e782 653c 80a9 b73d c870 7a3d
000003a0: 6d68 9bbd 6cb7 ba3e c6b1 babc fa54 52bd
000003b0: aa8a bd3d 9227 77bd ad44 d03d d26e 7b3d
0.025079466 0.04161888 0.17737119 0.056911908 0.089502245 0.044807665 0.09548987 0.07494255
0.34633476 0.05043727 0.060766954 0.23679131 0.1305364 0.037882894 0.1633217 0.103746764
0.067834824 0.6394102 -0.08405915 -0.07335052 0.0777714 0.03160471 -0.020294685 0.20864902
0.4591219 0.20604464 -0.060691252 0.1268852 0.049429525 0.027901981 0.21457483 0.061381456
0.1497323 -0.022184083 0.015903149 -0.100349724 0.8501043 0.03505049 0.08242611 0.06188785
-0.0733539 0.46184173 0.23655026 0.16508803 -0.008587284 -0.045879167 0.16455382 -0.08309901
-0.043607295 -0.10718544 0.10881607 0.08927673 0.044825252 0.48140088 0.05310469 0.07945828
-0.13177784 0.13408357 0.17964774 0.09873478 -0.08212212 -0.10262957 0.116631605 0.06298222
-0.10365361 0.14499761 -0.09567269 0.030436654 -0.039517425 -0.11739868 -0.08315208 0.12691668
-0.04643953 0.04846947 -0.06940771 -0.032508265 -0.08595668 -0.10198892 -0.037215877 0.011550964
-0.096483104 0.106468804 -0.088441655 0.059438135 -0.06468993 0.09923958 0.041402515 0.07112944
0.056502823 0.008252591 -0.016894225 -0.021778023 -0.031272165 -0.13324241 -0.1683226 -0.030547334
-0.15486322 -0.2083379 -0.09660032 0.0022725565 -0.020038681 -0.24043225 0.054506317 0.0580765
-0.10167381 -0.15841943 0.015601611 0.09644959 -0.037556954 0.07615406 -0.05449946 -0.14886582
0.12128849 -0.25406098 -0.11165977 -0.08709541 -0.15749443 -0.0008582699 -0.024881123 0.09362725
0.058899727 -0.04615772 -0.1259093 0.13181132 0.016162975 0.13007496 0.14347677 -0.10278597
-0.06608904 -0.12186812 -0.04197394 0.03651513 -0.0223789 -0.06471625 -0.037743974 -0.0041633165
0.06564661 -0.17944969 0.081518844 -0.08073054 0.06734896 0.03835004 -0.05894612 0.0023402832
-0.037791308 0.14313935 -0.06396133 -0.018483736 0.058098994 -0.014103706 0.03893341 0.07540167
-0.05688639 -0.040635325 0.07388541 -0.0716519 0.25992426 0.17649159 -0.04477696 0.058183406
0.0033191023 0.19273762 -0.118466 -0.0067660077 -0.11936529 0.069650464 -0.103812255 -0.046275355
-0.1183954 -0.014720003 -0.109557696 -0.03711443 0.102211215 -0.06432175 0.0581367 0.0035810233
0.08435127 -0.05880733 -0.0018436804 -0.11074221 -0.06617491 0.11748054 0.15917338 0.23631285
-0.06766213 -0.038640898 0.11758406 0.08174643 0.40626287 -0.040146396 -0.06941476 0.031598113
-0.043902744 0.13619523 0.19422667 0.12863971 -0.056840893 0.47181016 -0.07830462 -0.11404437
0.059940267 -0.024672197 0.11887091 0.18680958 0.24589092 0.014771439 0.0791722 -0.036043253
-0.03356958 0.065062985 0.096518815 -0.079894036 0.12516765 0.13876599 -0.039229106 -0.03539042
0.9342522 0.05962703 -0.13343532 0.11487985 -0.013167104 0.4707672 0.028232282 0.045170188
0.1266703 0.117206074 0.014608444 0.09461679 0.17701174 0.01400826 0.089678764 0.061142713
-0.07588277 0.36468065 -0.022789847 -0.05135057 0.09254964 -0.06034047 0.10169349 0.061384983

encoder.model.bias_hh_l1 f4 [240]
00000000: 1760 253e aefd f63d 2687 433d 476a 9d3d
00000010: f4ed 1fbd 918c 833d 297b 5c3d 3ac2 ee3d
00000020: b887 ee3e fec6 91bc bdd7 d63d fc91 653d
00000030: 946e bc3d 7b21 023e 7ba4 6d3e 8437 c53d
00000040: 8000 943d 52ce dd3e 7f61 05be 5374 11bd
00000050: f1cb 2fbc 5db5 03bd f77a 0c3e 3c8f 623e
00000060: ddda e33e c664 4c3e 3397 e33c 8a0e 203d
00000070: ad1f 303e 6277 153e 336a a13d 819d 713c
00000080: 4bf3 893e fe6f 323e 86b9 33bd c3dd 9c3d
00000090: 985d 6a3f d2b8 103e 602f ba3d f53e 293e
000000a0: c3db b4bd 39d9 023f a6ed 0f3d 2595 1f3e
000000b0: faa5 91bd 65da 863d d94e 1d3c 719d 0a3e
000000c0: 9c92 933d cfee c5bd 9f1a 1a3a d3a9 b13d
000000d0: 7ff6 29bd 90cf eb3e 8981 cd3d 18c1 103e
000000e0: 8237 c33c 5238 983d b92f 343e 0dca f33d
000000f0: a593 cbbc f470 e8bd 98cf 763d 1cf3 803d
00000100: f53e 9b3c 599d 643c 8fb8 79bc f051 683d
00000110: c74d 42bd e8c9 993b 9237 293c 481e d23d
00000120: 1f93 793d a357 1e3d 7f65 9ebc c213 ae3d
00000130: 46e7 a7bd 161d 96be b546 dabd b92b 4c3d
00000140: b2db 94bd 43b7 6c3b b8c4 52bc c11c 093d
00000150: 6281 1fbe d3ec cd3d 4e8f f03d cd6d 5bbd
00000160: f034 cdbd 3964 eabd 0b69 653c dcd1 1dbd
00000170: 3191 cebd b0bf 233c 093c 93bc 1c71 65be
00000180: 944d a5be f72d cabd 17b8 33bc 3d7e 16bc
00000190: 4f9d 2c3d dec3 b9bd 51ef d73d ff39 b2bc
000001a0: 2f7e a3bd 6156 24be d78f fbbc 46a3 013e
000001b0: 08fa de3c b44d e43d 7742 c2bb fd2f b5bb
000001c0: f374 dfbd 9705 0bbe 5037 92bd 1619 15bd
000001d0: 596a 18be 2672 46bd fa0c 9e3c 4ded 063d
000001e0: 9706 543e 066b 07bd 181c ce3c bb51 0d3e
000001f0: a716 d1bd 056a 2dbd 0e08 d13d dce7 9dbd
00000200: 8cbf 2fbe 4738 03bc 0f17 7c3b 7e00 5c3d
00000210: ec32 8ebb 748d 0abd da52 2dbe 5e06 9ebc
00000220: e375 413e 5acb 2bbd 44cf 233d f45c 0cbe
00000230: 117d 343e d1d1 cc3d bd96 a9bc b8e0 1ebe
00000240: c823 1abd e61d 18bd 1685 543d e74a 03be
00000250: a51c 1dbe 8e80 a7bd a7a1 b4bd da19 363a
00000260: 978d c83c ce41 5f3d 70c0 593d dbef 7a3d
00000270: dc3a 053e 5e26 09bd 6970 f2bc 811f 12bd
00000280: eae0 1e3d c9ed c13d 2bb3 203d bd1d 6abd
00000290: 1925 443d b2a6 263e d9f5 0dbe 0236 843d
000002a0: 1f6c 90bd 9825 be3d 15d0 803c 0c71 18bd
000002b0: 6db9 4d3c 8c5d 25be 161c 503d 4faf 6abd
000002c0: 2c97 11bc ed02 27bb ae99 d8bd 0b97 883d
000002d0: 3b03 353e 9a73 3d3e aace d13d 0e1e 2d3e
000002e0: 598d 68bd 9edc 4a3d b062 abbd 4ef6 5c3d
000002f0: 1976 d23e a6bd c23c 2751 0c3b 5925 2b3d
00000300: f0e3 e73d 54b4 a73d 9af0 013e 6337 a33d
00000310: 45f8 a2bd 228a dc3e ef7f cebc 609e 89bd
00000320: 5daf 1fbd 530f 0e3e 4144 893d 72e3 343e
00000330: 1a7b ed3e 2a55 0cbd 8cc2 f53d 3f82 3e3d
00000340: 485e 0e3e 7614 dbbc 1959 a33d b610 efbb
00000350: 698f 8cbd 5393 10bd 5261 823d 30a3 a1bc
00000360: d586 5d3f b008 233d aab4 25bd e126 a039
00000370: 47c8 ddbd b064 2c3f 29f4 503e 14d4 653e
00000380: 9d06 aebc 54da 1b3d 62bf 76bd 40c1 653d
00000390: b557 2e3e 55b6 04bd 3062 abbb 5e1a c8bc
000003a0: 8811 063d 7d18 b73e befe 5f3b 2045 62bd
000003b0: 1dd1 953d dff5 123e 197a 5c3e 5854 933d
0.16149937 0.12060104 0.04773631 0.076862864 -0.03904529 0.06423295 0.053828392 0.116581395
0.4658792 -0.017795082 0.104903676 0.056047425 0.092007786 0.12708084 0.23207276 0.096297294
0.07226658 0.43321472 -0.13025473 -0.035511326 -0.010729776 -0.032155383 0.13718782 0.22124952
0.44502917 0.19960317 0.027782058 0.039076366 0.17199583 0.14596322 0.07881584 0.0147470245
0.2694343 0.17425534 -0.0438781 0.07659485 0.9154906 0.14133003 0.09091067 0.16527922
-0.08830979 0.51112705 0.03513875 0.15584238 -0.07111736 0.06584624 0.009601318 0.13536622
0.07205698 -0.0966469 0.00058786006 0.086749695 -0.041494843 0.46056795 0.100344725 0.1413616
0.02383018 0.07432617 0.1759633 0.119037725 -0.024850676 -0.11349669 0.06025657 0.062963694
0.018950919 0.01395353 -0.015241756 0.056718767 -0.047437456 0.0046932586 0.01032819 0.10259682
0.06093132 0.038657796 -0.019335506 0.08499862 -0.08198409 -0.29319066 -0.106580175 0.049846385
-0.07268466 0.0036119975 -0.012864284 0.033474687 -0.155767 0.10054936 0.11746083 -0.05357151
-0.10019863 -0.11444897 0.014002095 -0.038530216 -0.10086287 0.009994432 -0.017972963 -0.22406429
-0.3228575 -0.09872048 -0.010969183 -0.009185371 0.04214221 -0.09070562 0.10543693 -0.02175617
-0.07983052 -0.16048576 -0.030708237 0.1265994 0.027218834 0.11147633 -0.0059283334 -0.0055294023
-0.10910978 -0.13576351 -0.07139456 -0.036400877 -0.14884318 -0.048448704 0.019293297 0.03294115
0.20705639 -0.03306105 0.02515988 0.13800709 -0.10209399 -0.042337436 0.102066144 -0.07710239
-0.17162913 -0.008009023 0.0038465892 0.053711407 -0.0043395665 -0.033826306 -0.16926137 -0.019290145
0.18892626 -0.041941978 0.039992586 -0.13707334 0.17625834 0.10000957 -0.02070176 -0.15515411
-0.03763178 -0.03713789 0.051884733 -0.12821542 -0.15342958 -0.08178817 -0.08819895 0.0006946601
0.024481578 0.054506116 0.05316204 0.0612639 0.13010734 -0.033483855 -0.029594617 -0.035674576
0.038788714 0.09469182 0.039233368 -0.057157267 0.04788694 0.16274527 -0.13863315 0.06455614
-0.070518725 0.09284514 0.015724221 -0.037217185 0.012556416 -0.16148967 0.050808035 -0.057296094
-0.00888614 -0.0025483922 -0.10576187 0.06669434 0.17677014 0.1850113 0.10244496 0.16905996
-0.056775425 0.049526803 -0.083684325 0.053945832 0.41105726 0.023772072 0.0021410675 0.041783664
0.113227725 0.08188692 0.12689438 0.079695486 -0.0795751 0.43074137 -0.025207488 -0.06719661
-0.0389856 0.13873033 0.067024715 0.17664889 0.46382982 -0.034260906 0.119999975 0.04651093
0.13903153 -0.026743155 0.079759784 -0.0072956933 -0.06863291 -0.03529675 0.063662186 -0.019731134
0.8653386 0.039803207 -0.040455498 0.00030546545 -0.108292155 0.67341137 0.2040564 0.22444183
-0.021243388 0.03805001 -0.06024111 0.0560925 0.17025645 -0.032400448 -0.0052302107 -0.024426635
0.032731563 0.3576087 0.0034178938 -0.055241704 0.07315276 0.14351605 0.21530952 0.07193822
