models/20200923_181657/epoch_0500_loss_356782.21986.pt (torch, 801233 bytes, 96 tensors)

encoder.model.weight_ih_l0 f4 [240, 3]
0	0xbd727def	-0.05920213
1	0x3cb7a6db	0.02241843
2	0x3da43383	0.080176376
3	0x3e44db1e	0.19224212
4	0xbe470967	-0.1943718
5	0x3d972f80	0.07382107
6	0xbe1ba2dc	-0.15198845
7	0x3dbaa6d8	0.09113854
8	0x3f183d18	0.5946822
9	0xbd408623	-0.047002923
10	0x3e26802c	0.16259831
11	0xbe16220a	-0.14661422
12	0xbb95e96b	-0.0045749447
13	0x3d453497	0.048145857
14	0x3ceba117	0.028763337
15	0xbdd4a67a	-0.103833154
16	0x3cfdff6f	0.03100559
17	0x3d8a85fc	0.06763837
18	0x3d40f3c8	0.047107488
19	0xbd6178b1	-0.05504674
20	0xbdb209cc	-0.08693275
21	0x3d145e2b	0.036222618
22	0x3d7fa34f	0.062411603
23	0x3d9741b9	0.073855825
24	0xbe42e01f	-0.19030808
25	0x3d821a05	0.06352619
26	0x3ebb278a	0.36553603
27	0x3e806866	0.2507965
28	0x3dfc50fc	0.12320134
29	0x3e79e5db	0.24404089
30	0xbe18a996	-0.14908442
31	0x3ce91f68	0.028457358
32	0xbc759818	-0.014989875
33	0x3d300e51	0.042982403
34	0xbdec0fea	-0.11526473
35	0xbd370453	-0.04468186
36	0x3d27e8de	0.040993564
37	0x3d305c2a	0.043056644
38	0x3ec455e2	0.38346773
39	0x3e8de192	0.2771116
40	0x3dbe0c78	0.09279722
41	0x3e172538	0.14760292
42	0xbc634e1a	-0.013873601
43	0xbe1e635e	-0.15467593
44	0xbe15f5fc	-0.14644617
45	0xbcf411fe	-0.029793736
46	0xbbf78efe	-0.007554888
47	0xbd0a88ac	-0.033821747
48	0x3bdeeb7a	0.0068029733
49	0x3d2d01ed	0.042238165
50	0x3e0ca6d6	0.13735518
51	0xbdba90a9	-0.09109623
52	0xbe5f8121	-0.21826603
53	0xbc526076	-0.012840381
54	0xbe846e32	-0.25865322
55	0xbe92176c	-0.28533494
56	0xbd90818a	-0.070559576
57	0xbe2e72c9	-0.17035975
58	0x3be164ca	0.00687847
59	0x3dcb3ef7	0.09924119
60	0x3a31746c	0.00067693624
61	0x3e14806a	0.14502111
62	0x3c486957	0.012232146
63	0xbc57fb0d	-0.013182414
64	0x3d56458e	0.052312426
65	0x3c421696	0.011846205
66	0x3d83e5aa	0.06440289
67	0x3e0ff1c9	0.14057077
68	0x3ec2f01b	0.3807381
69	0x3c9e8e04	0.019354828
70	0x3df8bc21	0.12145258
71	0x3e86163f	0.26188847
72	0xbcd97bb0	-0.026548237
73	0xbd90a759	-0.07063169
74	0x3e12b191	0.14325549
75	0xbcea5887	-0.028606666
76	0x3e3440c9	0.17602839
77	0x3acc4621	0.0015584865
78	0x3e2b2d16	0.16716418
79	0x3ea078ea	0.3134225
80	0x3ba9ec4e	0.0051856404
81	0x3d9a2c55	0.07527987
82	0xbd7a0d80	-0.06104803
83	0x3cdc4467	0.026888086
84	0x3dc756d3	0.09733357
85	0xbd8990de	-0.06717084
86	0xbd8c0075	-0.06836025
87	0xbddd89fe	-0.108173355
88	0x3dcb4fb0	0.099273086
89	0xbe0785c8	-0.13234627
90	0x3c9412d1	0.018075379
91	0xbbbd565f	-0.0057781185
92	0x3d77f2d5	0.060534317
93	0x3e2cd108	0.16876614
94	0xbe03689b	-0.12832873
95	0xbe3a6a03	-0.18204503
96	0xbb76ab40	-0.0037638694
97	0xbe0edeb8	-0.13952148
98	0x3c30d869	0.010793784
99	0xbe578dc7	-0.21050178
100	0xbd1b2a76	-0.03788229
101	0x3c7682b1	0.015045808
102	0xbda10f49	-0.078642435
103	0xbd1eb3ee	-0.038745813
104	0x3d5be290	0.053682864
105	0xbde1e028	-0.110290825
106	0x3d59e040	0.053192377
107	0x3ddd315c	0.1080043
108	0x3b852253	0.0040629297
109	0x3b17524a	0.002308982
110	0x3be53d4c	0.0069958325
111	0xbdc82fb9	-0.097747274
112	0x3dceabfc	0.10091397
113	0x3e0f3238	0.13984
114	0xbbfcfe45	-0.007720741
115	0x3e143db8	0.14476669
116	0x3bc29fff	0.005939483
117	0x3e3d5c69	0.18492283
118	0x3c4213d4	0.011845548
119	0x3e29273f	0.16518877
120	0xbc757731	-0.014982031
121	0x3d952972	0.07283296
122	0x3e25cc19	0.16191138
123	0xbcb033f1	-0.021509143
124	0xbd3a0d86	-0.045423053
125	0xbc8eec33	-0.017446613
126	0xbd80b862	-0.06285168
127	0x3de22e22	0.110439554
128	0x3f070f05	0.52757293
129	0xbdf73f4b	-0.12072619
130	0x3dbbc8ca	0.09169157
131	0x3ce04163	0.027374929
132	0xbd152077	-0.036407914
133	0x3dfa9bb7	0.122367315
134	0xbd754f18	-0.059889883
135	0x3ddcbe13	0.10778441
136	0x3c0f1c2f	0.008734747
137	0xbd480386	-0.048831485
138	0x3aa592ab	0.0012632211
139	0xbda65065	-0.08120803
140	0x3cb6a8c2	0.022297267
141	0x3d02c2ed	0.031924177
142	0xbdbec4bf	-0.0931487
143	0xbcad0df5	-0.02112482
144	0x3d6796e4	0.056540385
145	0x3d492964	0.04911174
146	0x3d32a844	0.0436175
147	0xbc8dba0e	-0.017300632
148	0x3c5756ee	0.013143284
149	0x3d955c00	0.07292938
150	0xbeacb527	-0.33731958
151	0x3e16125f	0.14655446
152	0xbe5cc9a6	-0.21561298
153	0x3c844377	0.016145451
154	0xbd932caf	-0.07186257
155	0x3e8add5f	0.27122018
156	0xbe136658	-0.1439451
157	0x3dc7a723	0.09748676
158	0x3d612de4	0.054975405
159	0x3e041acd	0.12900849
160	0x3d683aba	0.05669663
161	0xbc8df173	-0.017327046
162	0x3c2a3622	0.010388883
163	0xbe70b01f	-0.23504685
164	0x3de75366	0.11295204
165	0x3cd0d82f	0.02549371
166	0x3d2f54a2	0.04280532
167	0x3de8caa4	0.11366776
168	0x3b3f5884	0.0029197047
169	0x3d719236	0.05897733
170	0x3d120f60	0.035659194
171	0xbc87b591	-0.01656607
172	0x3e095f4a	0.13415256
173	0x3e4a50a4	0.19757324
174	0xbda9a23e	-0.08282898
175	0x3de2e297	0.11078375
176	0x3e2d2b30	0.16911006
177	0x3d25a3c8	0.040439397
178	0xbe17be78	-0.14818752
179	0xbdac07be	-0.08399914
180	0x3e2b10d1	0.16705634
181	0x3dae9b5c	0.08525726
182	0x3d24a345	0.04019477
183	0x3e259f87	0.16174136
184	0x3d31f6a6	0.043448113
185	0xbe1258bb	-0.1429166
186	0xbe33e3fc	-0.17567438
187	0x3c9c4e23	0.019080227
188	0x3d99875a	0.074965194
189	0x3d042b44	0.032267824
190	0xbe090e7c	-0.13384432
191	0x3ba82a91	0.0051320274
192	0xbd8e8fed	-0.069610454
193	0x3def3711	0.11680425
194	0x3de0ca17	0.109760456
195	0xbe078f82	-0.13238338
196	0xbd82a8fd	-0.06379888
197	0x3d3e22e7	0.046420004
198	0x3dbac0dd	0.09118817
199	0x3dcd4a28	0.1002391
200	0x3c89a6ad	0.01680311
201	0x3d53abed	0.051677633
202	0x3e30c405	0.17262276
203	0x3e34ad33	0.17644195
204	0xbea23d3d	-0.31687346
205	0xbca9fb99	-0.020749854
206	0x3d8faeab	0.07015737
207	0x3e840c2c	0.25790536
208	0xbdd0851a	-0.10181637
209	0x3d704324	0.05865778
210	0xbc8b265a	-0.01698606
211	0x3e06f376	0.1317881
212	0xbdd87932	-0.10569991
213	0xbda123e8	-0.07868177
214	0xbd250999	-0.040292356
215	0x3cf66e14	0.030081786
216	0x3e2c97e2	0.16854814
217	0x3e23ef3d	0.16009231
218	0x3e45a11d	0.19299741
219	0x3e8fe99a	0.2810791
220	0x3d139fd6	0.036041103
221	0x3da332f6	0.079687044
222	0xbc231d33	-0.009955692
223	0xbdfc8826	-0.12330656
224	0x3da4717d	0.08029459
225	0x3d728dce	0.059217267
226	0xbe27548f	-0.1634085
227	0xbd95c57c	-0.07313058
228	0x3de53070	0.11190879
229	0x3da7fa36	0.08202021
230	0x3e96f160	0.2948103
231	0xbb892c47	-0.0041861865
232	0xbe51c80d	-0.2048647
233	0x3d65bb89	0.05608705
234	0x3d7d7518	0.061879247
235	0xbe0314d1	-0.1280091
236	0x3dea3019	0.11434955
237	0xbe32aa15	-0.17447694
238	0x3d053f21	0.032530908
239	0x3c5980cc	0.0132753365
240	0x3d83c7a6	0.06434564
241	0xbc6c9d85	-0.014441852
242	0x3dab5446	0.08365683
243	0xbdb09bd3	-0.08623471
244	0xbc9356d0	-0.017985731
245	0xbd8e8ce1	-0.06960464
246	0xbc9a86c7	-0.018863095
247	0x3d9f7da1	0.07787634
248	0x3ee1316a	0.43983012
249	0xbd88ffae	-0.06689392
250	0x3ce0111b	0.027351907
251	0x3e9e9ae5	0.3097755
252	0xbda579fe	-0.08079909
253	0xbe05ebca	-0.13078228
254	0xbc64db8b	-0.013968359
255	0x3e4ef2d6	0.20209822

encoder.model.weight_hh_l0 f4 [240, 60]
0	0x3ceeae9a	0.02913599
1	0x3d20592d	0.039147545
2	0x3d5c97ab	0.05385558
3	0x3dbb3dc4	0.0914264
4	0x3e4309d7	0.19046722
5	0x3e398a10	0.18119073
6	0x3de0b98b	0.109728895
7	0xbcf2be76	-0.029631834
8	0x3c7f8fcc	0.015598249
9	0xbd8d99e3	-0.06914117
10	0x3e08a55d	0.13344331
11	0xbca511b6	-0.020150047
12	0x3d8db572	0.069193736
13	0x3d7b0371	0.06128258
14	0x3d07817f	0.03308248
15	0x3d569fe8	0.052398592
16	0x3da39440	0.07987261
17	0x3d18d15d	0.03730904
18	0xbd9831e0	-0.07431388
19	0x3d6ed04e	0.058304124
20	0xbd7d9e85	-0.061918754
21	0xbe40668e	-0.18789122
22	0x3e5250f5	0.20538695
23	0x3dcdef1a	0.10055371
24	0x3e05192b	0.12997882
25	0xbda6dc8b	-0.08147534
26	0xbd5f8f2d	-0.054579902
27	0x3d2ec410	0.04266745
28	0x3da6ddb6	0.08147757
29	0xbd986321	-0.07440782
30	0x3d327e3b	0.043577414
31	0xbdac165f	-0.084027044
32	0xbd0c5e6e	-0.034269743
33	0x3dac9bb3	0.08428135
34	0x3d7da141	0.06192136
35	0x3cb7b217	0.022423787
36	0x3e45d4fb	0.19319527
37	0xbd5e2e9d	-0.054243673
38	0xbd3c63aa	-0.045993485
39	0xbd4c8b76	-0.049937688
40	0x3cbe655e	0.023241695
41	0x3bc6da4d	0.006068504
42	0x3df2e03c	0.118591756
43	0xbbeb8b8d	-0.0071882666
44	0x3e0fa798	0.14028776
45	0x3df41843	0.1191869
46	0xbe1dbd05	-0.15404136
47	0xbd9a73e0	-0.07541633
48	0x3d23b43a	0.0399668
49	0xbe35b9e8	-0.17746699
50	0x3dc7537b	0.097327195
51	0xbd1fed9b	-0.039044958
52	0x3c8bdb84	0.017072447
53	0x3e00aaca	0.12565151
54	0x3d0a2280	0.033724308
55	0x3e007756	0.12545523
56	0xbddb5a20	-0.10710549
57	0x3d20177c	0.039084896
58	0xba92418a	-0.0011158448
59	0xbe09d720	-0.1346097
60	0xbd1fd88e	-0.039024882
61	0xbb63d060	-0.0034761652
62	0xbe3e5c5b	-0.18589918
63	0x3cdff222	0.027337138
64	0x3d009dab	0.031400364
65	0xbd491de6	-0.04910078
66	0x3de3cf81	0.111235626
67	0xbd5193cf	-0.051166352
68	0x3d4b1d08	0.049588233
69	0x3dc49085	0.095978774
70	0xbde6af73	-0.11263933
71	0xbd9fb340	-0.07797861
72	0x3c82c937	0.015965087
73	0xbd81da50	-0.06340468
74	0xbd00f630	-0.031484783
75	0x3e074934	0.13211519
76	0x3d8c560a	0.06852348
77	0xb9763167	-0.00023478792
78	0x3d43986d	0.047752786
79	0xbdc737d8	-0.09727448
80	0xbe173304	-0.14765555
81	0x3b48829b	0.0030595425
82	0x3d2ee74d	0.042701054
83	0xbdf6ce6f	-0.12051093
84	0xbcc6053f	-0.024172423
85	0x3d96165d	0.07328484
86	0x3ae4851b	0.0017434688
87	0x3cb2d815	0.021831552
88	0xbd774318	-0.06036672
89	0xbd7cd8ba	-0.061730124
90	0x3c0fb320	0.008770734
91	0x3d0b815c	0.034058914
92	0xbe0b91c4	-0.13629824
93	0x3dbf3e0c	0.093380064
94	0x3e2c646e	0.16835186
95	0xba84a969	-0.0010121289
96	0x3e094b26	0.13407573
97	0xbd35fdc4	-0.044431463
98	0x3d1bebeb	0.038066786
99	0xbdc96dc0	-0.09835386
100	0xbdb4d2ec	-0.08829293
101	0x3d8fc178	0.07019323
102	0xbdae07a9	-0.08497555
103	0xbe1bceaf	-0.15215562
104	0xbc7bf9a7	-0.015379346
105	0x3cd8e314	0.026475467
106	0xbe01e8a0	-0.12686396
107	0xbde352b3	-0.11099758
108	0x3dd055fe	0.10172652
109	0xbd0dcc39	-0.03461859
110	0x3e1e27d6	0.15444884
111	0xbdc0d144	-0.09414914
112	0xbd5d1df9	-0.053983662
113	0xbcc9901b	-0.024604848
114	0xbdefed7f	-0.11715221
115	0x3dc2c58c	0.09510335
116	0xbda90dc5	-0.082545795
117	0x3db9bde2	0.090694204
118	0xbb57523c	-0.0032855412
119	0xbda272b8	-0.07932037
120	0xbe140152	-0.14453629
121	0xbe79d407	-0.24397288
122	0xbdb1f78a	-0.086897925
123	0xbe59bd79	-0.21263684
124	0x3e34276c	0.17593163
125	0xbe11b3e1	-0.14228775
126	0x3e262201	0.16223909
127	0x3ce7c8f7	0.02829407
128	0xbd97edc6	-0.074183986
129	0xbe8101b2	-0.25196606
130	0xbeb3516d	-0.3502306
131	0xbe575e87	-0.21032153
132	0x3e533395	0.20625146
133	0xbe54ce58	-0.20781839
134	0xbe617a42	-0.22019294
135	0x3ea9d8d5	0.33173242
136	0x3b89ad6b	0.0042015812
137	0xbebd41d3	-0.36964282
138	0xbe7d7c99	-0.24754561
139	0xbde6f842	-0.1127782
140	0x3d33886b	0.04383127
141	0x3d720b48	0.05909279
142	0xbd3ee3c8	-0.046603948
143	0x3dc891a3	0.09793403
144	0xbdb8860b	-0.09009942
145	0x3eb4b11e	0.3529138
146	0xbe0108af	-0.12600969
147	0x3ddffb0e	0.10936557
148	0x3e8bcb57	0.27303573
149	0x3e5cdf0d	0.21569462
150	0x3d296032	0.041351505
151	0x3e0a8024	0.13525444
152	0xbe87cb11	-0.26522115
153	0xbec7a3dd	-0.38992205
154	0x3dfc04e6	0.12305622
155	0x3e8c9f6d	0.27465382
156	0x3e19d3d5	0.15022214
157	0xbe3088e6	-0.17239723
158	0xbecd23e8	-0.40066457
159	0x3e780098	0.24218976
160	0x3e8a0903	0.2696
161	0x3ea69420	0.32534885
162	0x3e796781	0.2435589
163	0xbeb216f3	-0.34783134
164	0x3e94f840	0.2909565
165	0x3e85a95a	0.26105767
166	0xbde934e2	-0.1138704
167	0x3eb5c811	0.355042
168	0x3e3a98ae	0.18222305
169	0xbe0990de	-0.13434169
170	0x3e8af1ef	0.27137706
171	0xba9efc54	-0.0012129643
172	0x3e122311	0.1427119
173	0x3e47fcf7	0.19530092
174	0xbe28c9c8	-0.16483223
175	0x3ddd607c	0.108094186
176	0x3e5e1832	0.21688917
177	0x3e912b86	0.28353518
178	0x3e2c0d24	0.16801888
179	0xbec929ef	-0.39289805
180	0xbd55d151	-0.052201573
181	0xbc8130d4	-0.015770353
182	0xbcea403f	-0.028595088
183	0xbcaa25d2	-0.020769987
184	0x3d4e5800	0.050376892
185	0x3cd1233b	0.025529495
186	0xbd966969	-0.07344324
187	0xbe1bec3d	-0.15226837
188	0x3e1f063d	0.15529723
189	0xbe0bf942	-0.13669303
190	0x3e2879c6	0.16452703
191	0xbd6352ad	-0.055498768
192	0xbd853276	-0.06503765
193	0x3ce55eff	0.0279994
194	0x3d8edbb9	0.069755025
195	0xbd6b81cb	-0.057496827
196	0xbc6f9b7f	-0.0146244755
197	0xbe1b4bca	-0.1516563
198	0x3da39a67	0.07988434
199	0xbd40deda	-0.047087528
200	0xbb377d98	-0.0027998444
201	0xbcccea55	-0.025014082
202	0x3d31023b	0.043215018
203	0x3cd6371b	0.026149323
204	0xbbfbc629	-0.0076835346
205	0xbd571d7c	-0.052518353
206	0xbda4797f	-0.08030986
207	0xbe043960	-0.12912512
208	0x3e12a16d	0.14319392
209	0x3d04dda6	0.032437943
210	0x3d9678cd	0.0734726
211	0x3d6c00ff	0.057618137
212	0x3cd99033	0.026558017
213	0xbbb21a73	-0.005435282
214	0x3dcbc0d1	0.09948886
215	0xbde85150	-0.11343634
216	0xbd11a4cd	-0.035557557
217	0x3d4e90e9	0.050431166
218	0xbdc0a203	-0.09405901
219	0x3b9bb212	0.0047514522
220	0xbd2f5356	-0.042804085
221	0x3e22299e	0.15836188
222	0x3ca9126d	0.020638669
223	0x3e0e9e16	0.13927492
224	0x3c469ee7	0.012122846
225	0x3df9e9b6	0.1220278
226	0x3d9ffc9a	0.07811852
227	0x3dbbdab1	0.091725715
228	0xbc92f16f	-0.01793739
229	0xbe427bbb	-0.18992512
230	0xbd9a9867	-0.075486
231	0x3e0bbe03	0.13646702
232	0x3dd745e6	0.10511379
233	0x3d17585b	0.036949497
234	0xbcd58c6a	-0.026067931
235	0xbd13cec6	-0.036085866
236	0x3cca352c	0.024683557
237	0x3b876702	0.0041321525
238	0x3e2cf390	0.16889787
239	0xbd46369a	-0.048391916
240	0xbe55687b	-0.20840637
241	0xbe794117	-0.24341236
242	0xbdc5af29	-0.0965255
243	0xbe1dab02	-0.15397266
244	0x3de4c1cc	0.11169776
245	0xbe328888	-0.17434895
246	0xbd2f31f0	-0.042772233
247	0x3e2d2f5e	0.169126
248	0xbdb20320	-0.08692002
249	0xbe98aeba	-0.29820806
250	0x3c2c97eb	0.010534267
251	0xbbe25410	-0.0069069937
252	0x3e23ccdf	0.15996121
253	0xbdaa73a7	-0.0832284
254	0xbe5209f7	-0.20511614
255	0xbbdb8a29	-0.0066998196

encoder.model.bias_ih_l0 f4 [240]
0	0x3e201a29	0.1563498
1	0xbd892140	-0.06695795
2	0x3d93b685	0.07212547
3	0x3cdc8cda	0.026922632
4	0x3e0769c3	0.13223939
5	0x3e156c8a	0.14592186
6	0xbddb067e	-0.10694598
7	0x3d87aa75	0.06624309
8	0x3deef3e2	0.11667611
9	0x3cfb0287	0.030640854
10	0x3dd56710	0.10420048
11	0xbcdaefd9	-0.026725696
12	0x3e145aec	0.14487809
13	0x3dbb8da8	0.09157878
14	0x3a80e5f5	0.0009834158
15	0x3c71ef4e	0.014766527
16	0x3d2e3d8e	0.042539172
17	0x3d932a3c	0.0718579
18	0xbd5618fc	-0.05226992
19	0xbcf0f959	-0.029415773
20	0x3c98c71f	0.018649636
21	0x3e9fbf49	0.31200626
22	0x3e3334bf	0.1750059
23	0x3db05b78	0.08611196
24	0x3d802bb4	0.06258336
25	0xbd306843	-0.04306818
26	0x3ea9685b	0.3308743
27	0x3e12c5bc	0.14333242
28	0x3d06d770	0.0329203
29	0xbc4f44a5	-0.0126506435
30	0x3e33f2e1	0.1757312
31	0x3d938602	0.07203294
32	0xbdaa8913	-0.08326926
33	0x3e316300	0.17322922
34	0x3dcc7318	0.0998289
35	0x3dc2f595	0.09519497
36	0x3e336fc8	0.1752311
37	0x3cb8b77d	0.022548432
38	0x3cb4dbb0	0.022077411
39	0xbc90c67d	-0.017672772
40	0x3dd03a66	0.101673886
41	0xbd15d94c	-0.036584184
42	0x3e124dd3	0.142875
43	0x3d025827	0.03182235
44	0x3e1fca8f	0.15604614
45	0x3c5c1daf	0.0134348115
46	0x3ccaa6fd	0.02473783
47	0x3ddf75e1	0.109111555
48	0x3ed7e584	0.42167294
49	0x3e1b3371	0.15156342
50	0x3c761eab	0.01502196
51	0x3dd34574	0.103159815
52	0x3e15f43b	0.14643948
53	0x3ddcf568	0.10788995
54	0x3de8f68d	0.11375151
55	0x3db7e88c	0.08979902
56	0x3dc109be	0.09425686
57	0x3b7a4044	0.0038185278
58	0x3e4e1785	0.2012616
59	0xbc759734	-0.014989663
60	0x3d906a26	0.07051496
61	0x3d488581	0.048955444
62	0xbae88d0e	-0.0017742233
63	0x3d43ff73	0.047851037
64	0xbd824bde	-0.06362127
65	0xbd8269c1	-0.06367827
66	0xbdc78807	-0.09742742
67	0xbe3b9c05	-0.18321235
68	0x3c69fc76	0.014281383
69	0xbda0954f	-0.07840978
70	0x3dbc3077	0.091889314
71	0xbd3bcdf4	-0.04585071
72	0x3d0eac38	0.03483221
73	0x3d8fe42a	0.07025941
74	0xbe077e82	-0.13231853
75	0x389a6ecc	7.36393e-05
76	0xbdd33651	-0.103130944
77	0xbdf59c32	-0.119926825
78	0x3cb35222	0.02188975
79	0xbc779eb3	-0.01511352
80	0xbdddfcd8	-0.10839242
81	0x3c9a5604	0.018839844
82	0xbd686b9c	-0.05674325
83	0xbd397152	-0.045274086
84	0xbdc4a891	-0.09602464
85	0xbc87c3d9	-0.01657288
86	0xbc1813c5	-0.009282057
87	0xbcd301c8	-0.025757685
88	0x3d67d055	0.056595165
89	0xbc782e55	-0.015147765
90	0xbde14c66	-0.110009
91	0x3d3f3359	0.04667983
92	0x3d81564a	0.063152865
93	0xbd34bcf3	-0.04412551
94	0xbd883593	-0.066508435
95	0xbada2682	-0.0016643556
96	0x3c02e992	0.007990258
97	0x3d892a5f	0.06697535
98	0xbdbed830	-0.09318578
99	0x3d851de2	0.0649984
100	0x3d6f4082	0.05841113
101	0xbc91140c	-0.017709754
102	0x3ddcf3eb	0.10788711
103	0xbcca3c57	-0.024686975
104	0xbc810955	-0.01575152
105	0xbdc2898a	-0.0949889
106	0xbd75da3b	-0.060022574
107	0xbdbc179a	-0.09184189
108	0xbe0afe4e	-0.13573572
109	0x3dafd080	0.0858469
110	0x3d3f2613	0.04666717
111	0xbcedc6d2	-0.029025469
112	0xbe2d714c	-0.1693775
113	0xba0a9508	-0.00052864896
114	0x3d8bcf67	0.06826668
115	0xbe1dbb93	-0.15403585
116	0x3d0e2c5d	0.034710277
117	0xbbee3de6	-0.0072705625
118	0xbdd5ffbf	-0.1044917
119	0x3c67177e	0.014104722
120	0xbe37a91e	-0.17935607
121	0x3d4ddee8	0.050261408
122	0x3d837f77	0.06420796
123	0xbdf44a11	-0.119281895
124	0xbddace36	-0.10683863
125	0x3de6cd46	0.112696216
126	0x3d1484d7	0.0362595
127	0x3d801b39	0.06255192
128	0xbd16dba8	-0.036830574
129	0xbd18ace8	-0.03727427
130	0xbba7354c	-0.005102789
131	0xbd92798c	-0.071520895
132	0x3de88649	0.11353738
133	0xbe4abf31	-0.19799496
134	0xbe4447cb	-0.19168012
135	0x3d8b0c4b	0.06789454
136	0xbda5df99	-0.080992885
137	0xbe049c11	-0.1295016
138	0xbe0dd6ed	-0.13851519
139	0xbe44c593	-0.19215994
140	0xbe5305cc	-0.2060768
141	0x3c43fe4f	0.011962487
142	0xbd537da8	-0.051633507
143	0xbd9190c4	-0.0710769
144	0xbd1b9003	-0.037979137
145	0x3dccbe0d	0.09997187
146	0x3e4129ac	0.18863553
147	0x3d211787	0.039329078
148	0x3da113bc	0.07865092
149	0x3d4e4895	0.05036219
150	0x3e2de555	0.16982014
151	0xb98de152	-0.00027061492
152	0xbe29ef79	-0.16595258
153	0xbe7732b4	-0.24140435
154	0x3d95e4b7	0.073190145
155	0x3deb04c8	0.11475521
156	0xbdaa687e	-0.083207116
157	0xbe179c48	-0.1480571
158	0xbdb22e93	-0.087002896
159	0x3da041ce	0.07825051
160	0x3db9ef45	0.0907884
161	0xbca2c12e	-0.019867506
162	0xbdc5a38e	-0.09650336
163	0xbe17ace8	-0.14812052
164	0x3d8bd050	0.06826842
165	0x3da98ec0	0.082791805
166	0xbe3edda3	-0.18639235
167	0x3d8e076f	0.069350116
168	0x3e3b44b6	0.1828793
169	0x3da20eac	0.07912955
170	0xbdc19e37	-0.09454005
171	0xbda9e6db	-0.08295985
172	0x3d3f89db	0.04676233
173	0x3e4b35c9	0.19844736
174	0xbd9c3e0c	-0.07629022
175	0x3e1eefc3	0.1552115
176	0xbd56a5a2	-0.052404054
177	0x3db56df6	0.08858864
178	0xbd34db2e	-0.04415434
179	0xbe082cba	-0.13298312
180	0xbcefff0d	-0.029296422
181	0xbde1b64d	-0.11021099
182	0xbc9886d5	-0.01861898
183	0xbd63fd29	-0.055661354
184	0x3dc0ed0d	0.09420214
185	0xbcb66cc7	-0.022268666
186	0xbc208a64	-0.00979862
187	0x3e511e6b	0.2042176
188	0xbcbc4bf1	-0.02298543
189	0x3d03fb9f	0.032222386
190	0x3e17e418	0.14833105
191	0x3d761d9f	0.060086843
192	0xbcd36cea	-0.02580877
193	0x3df90b94	0.121604115
194	0x3dd87f87	0.10571199
195	0x3ddf7016	0.109100506
196	0x3daa3b67	0.08312111
197	0x3d007866	0.03136482
198	0xbd8948c5	-0.06703333
199	0x3def1d64	0.11675528
200	0x3daeee9f	0.08541607
201	0x3e2772d3	0.16352396
202	0x3d77f2e3	0.06053437
203	0x3de0de69	0.10979921
204	0x3e51091c	0.20413631
205	0xbce9eccf	-0.028555302
206	0x3e8b4793	0.27203044
207	0xbba371ab	-0.0049879155
208	0x3dfb81f4	0.12280646
209	0x3e12ad2f	0.14323877
210	0x3e05c120	0.13061953
211	0xbb899c6d	-0.0041995556
212	0x3e03ba71	0.1286409
213	0x3d9b6873	0.075882815
214	0x3e41f333	0.1894043
215	0xbd497d83	-0.049191963
216	0xbd037cc1	-0.032101396
217	0x3bd388e9	0.00645553
218	0x3d0aa40c	0.033847854
219	0x3d83f55c	0.06443283
220	0xbc6da3f8	-0.014504425
221	0xbb6464a2	-0.003485002
222	0x3e018f80	0.12652397
223	0x3de0395d	0.10948441
224	0x3e2f021d	0.1709065
225	0xbd857e5f	-0.06518244
226	0x3e0e1ab9	0.13877381
227	0xbde6d0de	-0.11270307
228	0x3efb996c	0.4914049
229	0xbcc4660f	-0.023974447
230	0x3dfdbfb3	0.12390079
231	0x3e436eb0	0.19085193
232	0x3d0b86c1	0.03406406
233	0x3e4b6cb0	0.1986568
234	0xbcf49773	-0.029857373
235	0x3dfd6cfa	0.12374301
236	0x3ce881fd	0.028382296
237	0x3b1de80f	0.0024094617
238	0x3d1e0fa1	0.038589124
239	0xbdc7f0e0	-0.0976274

encoder.model.bias_hh_l0 f4 [240]
0	0x3cd781c9	0.026307004
1	0xbdad1c52	-0.08452667
2	0xbd6ecb40	-0.058299303
3	0x3d7a310c	0.06108193
4	0x3e2138b4	0.15744287
5	0x3d4885d3	0.04895575
6	0xbdecd99a	-0.11564942
7	0x3e35a02d	0.17736883
8	0x3ceafe8e	0.028685834
9	0x3c4a0006	0.012329107
10	0xbd0296db	-0.03188215
11	0xbd5eecb1	-0.054424945
12	0x3e0591cb	0.13043897
13	0x3e0344d2	0.12819222
14	0x3be37166	0.0069410084
15	0x3de617e0	0.112350225
16	0x3e0b2b9e	0.13590857
17	0xbd8998db	-0.06718608
18	0xbcc9203a	-0.0245515
19	0x3cfba09f	0.030716239
20	0x3dba1a6d	0.090870716
21	0x3e8be2de	0.27321523
22	0xbcc49dc1	-0.024001004
23	0x3d8f5eab	0.07000478
24	0xbbd7dfba	-0.0065879496
25	0xbc9e9d0e	-0.019361999
26	0x3ee07a38	0.43843246
27	0xb92ba7fa	-0.00016370407
28	0x3dda766a	0.10667117
29	0x3e0746fb	0.1321067
30	0x3e6bc4f2	0.23024347
31	0xbb8c90bd	-0.004289715
32	0xbdb45c83	-0.08806708
33	0x3e74474d	0.23855324
34	0x3e273838	0.1633004
35	0x3c5f3f9e	0.013626007
36	0x3dbc1dbe	0.0918536
37	0x3c3aa608	0.011392124
38	0xbce1707b	-0.027519455
39	0x3e2a4bdb	0.16630499
40	0x3ce3347c	0.027734987
41	0x3d86b77a	0.06577964
42	0x3d9eb3a4	0.077491075
43	0x3d85d2e9	0.065343685
44	0x3ddb5487	0.10709482
45	0x3d0c3ff1	0.034240667
46	0x3db2e66e	0.08735357
47	0xbd6d9489	-0.058002982
48	0x3efc7753	0.49309787
49	0x3d027421	0.03184903
50	0xbdf6ceba	-0.12051149
51	0x3e4657a8	0.19369376
52	0x3d6ea6c3	0.058264505
53	0x3e97dac6	0.29659098
54	0xbde3e223	-0.111271165
55	0x3e4f531b	0.20246546
56	0x3e362717	0.17788349
57	0x3db9e842	0.09077503
58	0x3dbfad33	0.09359207
59	0x3d3bbf7b	0.045836907
60	0x3e1c9594	0.15291435
61	0xbc72ba58	-0.014814936
62	0xbdb169a1	-0.08662725
63	0xbd470095	-0.04858454
64	0xbdbd54cb	-0.092446886
65	0x3d3ca309	0.04605392
66	0xbdce1e74	-0.10064402
67	0xbd20f144	-0.03929259
68	0xbdfdd2f4	-0.12393752
69	0x3e13b8db	0.14425986
70	0xbce086e6	-0.027408075
71	0xbc9828e0	-0.018574178
72	0xbd35d330	-0.044390857
73	0x3ca3404d	0.019928122
74	0x3c5e0523	0.013551029
75	0xbb812a9d	-0.0039418475
76	0xbcef3147	-0.029198302
77	0xbd2cdef1	-0.0422048
78	0x3dba862c	0.091076225
79	0xbdee2f0a	-0.11630066
80	0xbd98229f	-0.074284784
81	0xbdc81b87	-0.097708754
82	0xbde6ce33	-0.11269798
83	0xbe0962f7	-0.13416658
84	0xbdc096e9	-0.09403784
85	0x3e10f410	0.14155602
86	0xbe4abd91	-0.19798876
87	0x3d216d46	0.039410852
88	0x3daa14fc	0.08304784
89	0x3e008b98	0.12553251
90	0xbe2c3ffb	-0.16821282
91	0x3db98e76	0.090603754
92	0x3d8911b4	0.0669283
93	0x3da1a62e	0.078930244
94	0xbba02202	-0.0048868665
95	0x3c9ee9c1	0.019398572
96	0x3dfd8d4f	0.12380468
97	0x3db0e91e	0.086382136
98	0xbda76087	-0.08172708
99	0xbd4ee2b9	-0.05050919
100	0xbd0830f5	-0.033249814
101	0xbdcc7588	-0.09983355
102	0xbde07f99	-0.10961837
103	0xbe02966a	-0.12752691
104	0xbd38d63b	-0.04512618
105	0xbcbc7dcf	-0.023009209
106	0xbc39e303	-0.011345628
107	0x392808ef	0.00016025057
108	0xbe51538d	-0.20442028
109	0x3de54a8c	0.11195859
110	0xbbc2e458	-0.005947631
111	0xbdc77736	-0.097395346
112	0xbda116f8	-0.07865709
113	0x3dd9adb4	0.10628834
114	0xbbb9274b	-0.005650436
115	0xbd9d8056	-0.07690494
116	0x3dd76c37	0.10518687
117	0x3e2e2fa6	0.17010364
118	0x3d95967a	0.07304092
119	0xbdaed3db	-0.08536502
120	0xbdc19b5b	-0.0945346
121	0xbdb8a811	-0.09016431
122	0xbd5dfbae	-0.0541951
123	0x3da2f383	0.079566024
124	0x3cbd4084	0.023102053
125	0x3d861a91	0.06548036
126	0x3cbe8087	0.023254646
127	0x3df0071a	0.117201045
128	0xbdf3ea29	-0.11909897
129	0xbdc8d864	-0.09806898
130	0xbd7dd0a3	-0.06196655
131	0xbe44925d	-0.19196458
132	0xbde3300f	-0.11093151
133	0xbdf640a0	-0.12024045
134	0xbdee5463	-0.11637189
135	0x3e4d8261	0.20069267
136	0x3d412d33	0.047162246
137	0xbe05e839	-0.13076867
138	0x3de07d2b	0.10961374
139	0xbdc02d99	-0.09383697
140	0xbc1f326e	-0.009716613
141	0x3e159f3e	0.14611527
142	0xbe0b9b0c	-0.13633364
143	0xbd8d6213	-0.06903472
144	0x3c23ac7d	0.009989855
145	0x3cf9613e	0.030441877
146	0x3e522596	0.2052215
147	0x3df2d4bd	0.11856983
148	0xbd21bdb4	-0.039487556
149	0x3ce32a22	0.027730051
150	0x3e1414fe	0.14461133
151	0x3dcc8348	0.099859774
152	0xbe066df3	-0.1312788
153	0xbdbd9c3d	-0.09258316
154	0xbd1ea63f	-0.038732763
155	0xbd045f30	-0.03231734
156	0x3dc0b8c8	0.09410244
157	0xbe0e1027	-0.13873349
158	0xbcde4fc6	-0.027137648
159	0x3c724f20	0.014789373
160	0xbd34147b	-0.043964844
161	0x3dd62bdd	0.10457585
162	0x3dbcfa4e	0.09227429
163	0xbd00bbed	-0.03142922
164	0x3ccf3520	0.025293887
165	0x3dbd53bc	0.09244487
166	0xbe0e272b	-0.13882129
167	0x3d9ed9f3	0.07756414
168	0x3dca35bf	0.098735325
169	0xbe04f196	-0.12982783
170	0x3df17ce8	0.11791402
171	0x3cbc10af	0.022957174
172	0x3e234fa6	0.15948352
173	0x3e5f7876	0.21823296
174	0xbe0e3d7b	-0.1389064
175	0x3e2ff048	0.17181504
176	0x3dddaa08	0.108234465
177	0x3e041cb5	0.12901576
178	0x3d6b7cc6	0.05749204
179	0xbe01bb41	-0.12669088
180	0xbdaf6e77	-0.08565991
181	0x3de8e64b	0.1137205
182	0x3e396fe1	0.18109085
183	0x3dc8a69e	0.09797405
184	0x3cdc6610	0.026904136
185	0x3d4620ac	0.048371002
186	0x3cf52171	0.029923173
187	0x3e4fd953	0.20297746
188	0xbd0f33b8	-0.034961432
189	0xbd7ce0fe	-0.061738007
190	0xbca35c6a	-0.019941527
191	0x3c5926c3	0.01325387
192	0x3d94d0f3	0.072664164
193	0x3d792c47	0.06083324
194	0x3e30ffbd	0.17285056
195	0xbb8c1a51	-0.004275598
196	0x3d83df04	0.06439021
197	0xbda4e745	-0.08051924
198	0xbc89c560	-0.016817749
199	0x3bcda38c	0.0062756
200	0xbcf7d05a	-0.030250717
201	0x3dfa3fc8	0.122191966
202	0xbbb08462	-0.005386875
203	0x3dc2c80c	0.09510812
204	0xbc90121e	-0.017586764
205	0x3d97c71d	0.07411025
206	0x3e935a14	0.28779662
207	0x3da9acd6	0.08284919
208	0xbd050e0d	-0.032484103
209	0xbd64afb5	-0.05583163
210	0x3e674723	0.2258573
211	0x3d9d86c8	0.07691723
212	0xbd85dde7	-0.06536465
213	0x3e3660fe	0.17810437
214	0x3d1eb118	0.03874311
215	0x3df71a1b	0.12065526
216	0xbd12d6d8	-0.035849422
217	0x3e080a2d	0.13285132
218	0x3c98148b	0.018564483
219	0xbcbfb4e4	-0.023401685
220	0xbd1d697d	-0.03843068
221	0x3da980ea	0.082765415
222	0x3d947936	0.07249682
223	0xbc45db94	-0.012076277
224	0x3d32a3b5	0.043613154
225	0x3dac5578	0.08414739
226	0x3e2b7323	0.1674314
227	0xbde0a963	-0.10969808
228	0x3ebb4e0c	0.36582983
229	0x3c1ef8bb	0.009702857
230	0xbe02c637	-0.12770925
231	0x3db86d2c	0.09005198
232	0x3dad88e9	0.08473379
233	0x3e529151	0.20563246
234	0xbd460457	-0.048343983
235	0x3e2da318	0.16956747
236	0xbc01fe1f	-0.007934122
237	0x3d175b95	0.036952574
238	0x3e18bfaa	0.14916864
239	0x3da92aae	0.08260094

encoder.model.weight_ih_l1 f4 [240, 60]
0	0xbd2e5dee	-0.042570047
1	0xbd476d75	-0.04868837
2	0xbc80923c	-0.01569473
3	0x3d9d97e9	0.0769499
4	0xbe0aa0c7	-0.13537894
5	0x3e56bcda	0.20970479
6	0x3d6fedfc	0.05857657
7	0x3d4b9c8f	0.049709853
8	0xbdaa6a34	-0.08321038
9	0x3dfa359c	0.122172564
10	0x3db83ee7	0.08996373
11	0x3d77abef	0.060466703
12	0xbcf31565	-0.029673288
13	0xbdd01e5a	-0.10162039
14	0xbb3616f7	-0.0027784684
15	0x3e018f07	0.12652217
16	0x3d3e8169	0.046510134
17	0xbe10bd45	-0.141347
18	0x3de111f8	0.109897554
19	0xbe273984	-0.16330534
20	0xbd3c154d	-0.04591875
21	0x3d839dc5	0.064265765
22	0xbdb1716a	-0.0866421
23	0xbe15788f	-0.1459677
24	0x3be4870e	0.0069741076
25	0xbd7b530c	-0.061358497
26	0x3da9b78b	0.08286961
27	0xbce2e97c	-0.027699225
28	0x3e0076e8	0.12545359
29	0x3e2bab0a	0.16764465
30	0x3cae357a	0.021265734
31	0x3d85b160	0.06527972
32	0xbd0a5596	-0.033773027
33	0xbd868b9c	-0.06569597
34	0x3d8e3a9a	0.06944771
35	0x3df41bfa	0.119193986
36	0xbcb4f872	-0.022091124
37	0xbd2705fb	-0.040777188
38	0x3d2ef9a8	0.04271856
39	0xbe0b5e2f	-0.13610147
40	0x3c09da23	0.008413824
41	0x3dae3926	0.08506994
42	0xbc0bcbe7	-0.008532501
43	0xbe396f4c	-0.18108863
44	0x3dc4d800	0.09611511
45	0xbd97cb4d	-0.074118234
46	0xbdba6c90	-0.09102738
47	0x3db4b095	0.08822743
48	0xbce87325	-0.028375218
49	0x3d908936	0.07057421
50	0x3e54d7b4	0.20785409
51	0xbdb40605	-0.08790211
52	0xbd26d206	-0.040727638
53	0x3e26c944	0.16287714
54	0x3d8435dd	0.06455586
55	0x3dc27d26	0.094965264
56	0x3e1144d2	0.14186409
57	0xbb5f7e06	-0.0034102215
58	0xbe2a4072	-0.16626146
59	0xbd06bdba	-0.03289578
60	0xbe7b6aaa	-0.24552408
61	0xbde7af49	-0.1131273
62	0x3d5e8af6	0.054331742
63	0x3d41d72e	0.047324352
64	0x3e4ccf30	0.20000911
65	0x3e00775e	0.12545535
66	0x3e112286	0.14173326
67	0xbdc2adac	-0.095057815
68	0x3db0b6b0	0.08628595
69	0xbe9419fe	-0.2892608
70	0x3e0d2b40	0.1378603
71	0xbe3c7be3	-0.18406634
72	0x3e1e4065	0.15454252
73	0xbe29f33c	-0.16596693
74	0xbe373e8c	-0.17894953
75	0xbb2861ae	-0.0025692987
76	0xbdc826cf	-0.09773027
77	0xbd143f7e	-0.036193363
78	0xbe197895	-0.14987405
79	0xbe065396	-0.13117823
80	0xbdf89d6b	-0.121394
81	0xbd0481a4	-0.032350197
82	0x3df1a147	0.11798339
83	0xbd7a0630	-0.061041057
84	0x3dac236a	0.08405192
85	0x3b26d9e1	0.0025459456
86	0xbdd0fb58	-0.1020419
87	0xbdccfc9e	-0.100091204
88	0x3d8de973	0.069292925
89	0xbbd8f41c	-0.006620897
90	0xbd8d597c	-0.069018334
91	0x3e1a0772	0.15041903
92	0xbe2d6767	-0.16933976
93	0xbc5bf71e	-0.013425617
94	0x3d903cd7	0.07042854
95	0xbd38ddfd	-0.04513358
96	0xbc888eae	-0.016669597
97	0xbe5db630	-0.2165153
98	0xbd41d37f	-0.04732084
99	0x3e1e7d1c	0.15477413
100	0x3e4d7974	0.20065862
101	0x3e1a606e	0.15075848
102	0x3d503016	0.05082711
103	0xbc478c9d	-0.012179521
104	0x3e359a16	0.1773456
105	0x3e690e15	0.22759278
106	0x3d7f6354	0.062350586
107	0x3e71dd17	0.23619495
108	0xbd9a2eaa	-0.07528432
109	0xbe245509	-0.16048063
110	0x3da96d22	0.082727686
111	0x3db5a57f	0.088694565
112	0x3d0b290b	0.03397469
113	0xbaa2c6b7	-0.0012418841
114	0x3c16a2cb	0.009194086
115	0x3c7bbe32	0.01536517
116	0x3e51766e	0.20455334
117	0x3db8db49	0.090262
118	0x3d9d9be9	0.07695753
119	0xba02ad58	-0.00049849367
120	0x3d6790da	0.056534626
121	0xbda12ac1	-0.07869483
122	0xbe4fade8	-0.20281184
123	0xbe1d1035	-0.15338214
124	0x3ce79208	0.028267875
125	0xbdfffb81	-0.124991424
126	0x3e24539c	0.1604752
127	0xbd5f4332	-0.05450744
128	0xbe2a02de	-0.16602656
129	0xbd2fb6e0	-0.042899013
130	0xbdd7cb82	-0.10536863
131	0xbc852c52	-0.016256485
132	0x3dcd2163	0.10016134
133	0xbda1bbb4	-0.0789713
134	0x3d05fdad	0.032712627
135	0x3d109ed8	0.035307735
136	0xbe0faf07	-0.14031611
137	0x3d97261b	0.07380315
138	0x3cb1968f	0.021678237
139	0xbde27906	-0.1105824
140	0xbd09a23a	-0.033601977
141	0xbdc0c77b	-0.09413048
142	0xbdf93f00	-0.121702194
143	0xbe171118	-0.14752614
144	0xbdb3ca78	-0.08778852
145	0xbd5550b6	-0.052078925
146	0xbdb1c396	-0.08679883
147	0x3d5d1c96	0.05398234
148	0x3dd57deb	0.104244076
149	0x3c32e0b2	0.010917829
150	0x3ddcd020	0.10781884
151	0x3e06a2a8	0.13147986
152	0x3d0eae49	0.03483418
153	0xbd0a46b3	-0.03375883
154	0x3e59d8a4	0.21274048
155	0xbcce6dd7	-0.02519886
156	0x3ced5fa6	0.028976273
157	0x3d5f7bc8	0.054561406
158	0xbdf704a3	-0.12061431
159	0x3a65c065	0.0008764326
160	0x3c461f37	0.012092403
161	0x3da1aa69	0.07893831
162	0xbb946379	-0.0045284596
163	0xbdd12d9e	-0.10213779
164	0xbdb317f2	-0.087448016
165	0xbd2e1c92	-0.042507716
166	0x3c5527d3	0.013009983
167	0x3b0853d2	0.0020801914
168	0x3d099662	0.03359068
169	0xbe052806	-0.13003549
170	0xbd326124	-0.04354967
171	0xbe40f7cf	-0.18844531
172	0xbd199d20	-0.03750336
173	0x3e0b1d8d	0.13585491
174	0xbc4287a7	-0.011873162
175	0x3c859e03	0.016310697
176	0x3cc8c9a7	0.024510218
177	0x3c6e58cd	0.014547539
178	0xbcbf87e2	-0.023380224
179	0xbc4599c8	-0.01206059
180	0xbde87655	-0.11350695
181	0xbe168c49	-0.14701952
182	0xbcec54ae	-0.028848972
183	0xbd8ab230	-0.06772268
184	0xbd0ad943	-0.033898603
185	0x3e1cbfd3	0.1530755
186	0x3c0c9d95	0.008582492
187	0xbd79713b	-0.060899
188	0xb9df5446	-0.00042596663
189	0xbe3ce94e	-0.18448374
190	0x3e1c0cde	0.15239283
191	0x3caacd15	0.020849744
192	0xbc966d02	-0.018362526
193	0xbe19ea85	-0.15030868
194	0xbd25b1c1	-0.040452722
195	0x3db77938	0.089586675
196	0xbd9a65ae	-0.07538925
197	0xbdc66372	-0.096869364
198	0xbd868b30	-0.06569517
199	0xbe0406a2	-0.12893155
200	0x3c95df4f	0.018294958
201	0x3e1373fc	0.14399713
202	0xbe0d3df0	-0.13793159
203	0x3cbf756a	0.023371417
204	0xbc401d38	-0.011725716
205	0x3d419bcd	0.047267724
206	0x3cef64fb	0.029222956
207	0x3e7486b8	0.23879516
208	0x3e1f59d4	0.1556161
209	0x3c3e0dd3	0.011599976
210	0xbc590821	-0.013246567
211	0x3d8d3bab	0.068961464
212	0xbe0d057b	-0.13771622
213	0xbe02c487	-0.12770282
214	0xbd56181b	-0.052269083
215	0xbdbff237	-0.09372371
216	0xbbc50b9b	-0.0060133464
217	0xbd34b323	-0.04411615
218	0x3d0201a3	0.031739842
219	0x3cd0ded1	0.025496872
220	0x3dc252ff	0.094884865
221	0x3d3d9ae8	0.04629031
222	0xbdd5b7f1	-0.10435475
223	0xbcbec444	-0.023286946
224	0xbd7cae3b	-0.061689597
225	0x3dcc6f34	0.09982148
226	0xbe139a9d	-0.14414449
227	0x3beb7b47	0.0071863267
228	0x3e0d78d5	0.13815625
229	0x39a70b01	0.0003186092
230	0xbd86e00c	-0.06585702
231	0xbdd229c3	-0.10261872
232	0x3c83ee79	0.016104924
233	0xbcb86af6	-0.02251194
234	0xbd742d51	-0.05961353
235	0x3e21d823	0.15805106
236	0xbd8ab77b	-0.06773277
237	0x3e44f20c	0.19232959
238	0x3dd32354	0.10309473
239	0xbdf5c911	-0.12001241
240	0x3d9e4b92	0.07729258
241	0x3df95df1	0.12176121
242	0xbdca7455	-0.0988547
243	0xbd6bb44a	-0.057544984
244	0xbe0531c2	-0.13007262
245	0xbdf2e337	-0.11859744
246	0xbd5ff845	-0.054680128
247	0x3d9d6401	0.0768509
248	0x3d8bface	0.068349466
249	0xbdfe0447	-0.124031596
250	0x3e1ec46a	0.15504614
251	0x3d606e34	0.054792598
252	0xbd92279e	-0.07136463
253	0x3d0ce73b	0.034400206
254	0x3d436811	0.047706667
255	0xbdbad3f8	-0.09122461

encoder.model.weight_hh_l1 f4 [240, 60]
0	0x3d8a21f8	0.0674476
1	0xbd813a83	-0.06309988
2	0x3da26e17	0.07931154
3	0xbdaa797a	-0.08323951
4	0xbdbcb8d6	-0.09214942
5	0xbdd77879	-0.10521025
6	0xbdccbd86	-0.09997086
7	0x3d9a8568	0.075449765
8	0x3cba3941	0.022732379
9	0xbd94da8d	-0.07268248
10	0xbdb159b0	-0.08659685
11	0xbd099559	-0.033589695
12	0xbe0e8616	-0.13918337
13	0xbd20babb	-0.03924058
14	0xbe218956	-0.15775046
15	0xbbc1723a	-0.0059035094
16	0x3dee826e	0.11645971
17	0xbe1a61d9	-0.15076388
18	0xbd86619c	-0.06561586
19	0x3dd79ef4	0.10528365
20	0xbdba8203	-0.09106829
21	0x3bb6a7f7	0.005574222
22	0xbc25115f	-0.010074942
23	0x3d1368a8	0.03598848
24	0x3bc48c5e	0.0059981784
25	0x3d1e8ab8	0.03870651
26	0x3d761e45	0.06008746
27	0xbd269d1b	-0.04067717
28	0xbdb345a9	-0.08753521
29	0x3ca0ae66	0.01961441
30	0x3d9d504d	0.07681332
31	0xbda1da17	-0.079029255
32	0xbd08a1b1	-0.033357326
33	0x3d751511	0.059834544
34	0x3e0294ab	0.12752025
35	0x3b2385b1	0.0024951512
36	0x3ca43748	0.020045891
37	0x3e0f3ecf	0.13988803
38	0xbcb4ae8e	-0.02205589
39	0xbc8e90c6	-0.017403018
40	0x3cd99e9e	0.026564892
41	0x3d2e84b9	0.042607043
42	0xbe1d034e	-0.15333292
43	0x3e09aa77	0.13443933
44	0xbe07f1ee	-0.13275883
45	0xbd824c0f	-0.06362163
46	0x3dbfb65b	0.093609534
47	0xbe1533c6	-0.14570531
48	0xbd93ede1	-0.07223106
49	0x3d92693b	0.07148977
50	0x3d40c474	0.047062352
51	0xbdcf8689	-0.101330824
52	0x3c9d03c4	0.019166835
53	0xbe074ba0	-0.13212442
54	0x3d8a0549	0.06739289
55	0xbdd4bd0e	-0.10387622
56	0xbdaedd8a	-0.08538349
57	0xbe04455e	-0.12917086
58	0xbd47660b	-0.0486813
59	0x3e11f5db	0.14253943
60	0xbc436588	-0.011926062
61	0xbd8f35c2	-0.06992675
62	0xbdf1408e	-0.11779891
63	0x3e5377d4	0.2065118
64	0x3cd7abcf	0.026327042
65	0x3da91398	0.0825569
66	0x3e08065b	0.13283674
67	0xbd8b0b41	-0.06789256
68	0xbd8b342b	-0.067970596
69	0xbe02b4a7	-0.12764226
70	0xbd096a1c	-0.03354846
71	0xbe06ce2f	-0.1316459
72	0x3e4f96f8	0.20272434
73	0x3bd29e6d	0.006427577
74	0xbc95c149	-0.018280642
75	0xbd473037	-0.048629966
76	0x3d0ae878	0.033913106
77	0xbe0937bf	-0.13400172
78	0x3c99d7e3	0.0187797
79	0xbe1f85c1	-0.15578367
80	0x3e380fbc	0.17974752
81	0x3e426eb8	0.18987548
82	0x3e33b5e4	0.17549855
83	0x3d9b784c	0.07591304
84	0x3e253cf3	0.16136532
85	0x3e9dbf00	0.30809784
86	0x3e43c3b2	0.1911762
87	0x3c96a990	0.0183914
88	0xbdb2c887	-0.08729654
89	0xbe59c845	-0.21267803
90	0xbb8fc75e	-0.00438778
91	0x3df93ac9	0.121694155
92	0x3dc2a551	0.09504188
93	0x3c2d75de	0.010587184
94	0x3dc8c146	0.09802489
95	0xbdc0c077	-0.0941171
96	0xba9f5c39	-0.0012158222
97	0x3e0d6b26	0.13810405
98	0x3d176784	0.036963955
99	0xbd48dd3f	-0.04903912
100	0xbdbdc312	-0.09265722
101	0x3e16dba3	0.14732222
102	0xbc414202	-0.011795523
103	0xbdffdcfc	-0.12493321
104	0x3da77ccb	0.08178099
105	0x3d8c6345	0.06854872
106	0xbe899829	-0.268739
107	0xbdd1e9d8	-0.1024968
108	0xbe0e3bf0	-0.13890052
109	0x3e2f38f7	0.17111574
110	0xbd3651eb	-0.044511717
111	0xbd6fde20	-0.058561444
112	0xbe75ee78	-0.2401675
113	0xbc66c742	-0.014085593
114	0x3d472eeb	0.04862873
115	0x3d943921	0.07237459
116	0x3e091f02	0.13390735
117	0xbe28c5fe	-0.16481778
118	0xbe00fdf1	-0.12596871
119	0xbd358e34	-0.04432507
120	0xbc55d71f	-0.013051777
121	0x3d80e32d	0.0629333
122	0xbbff9af5	-0.0078004547
123	0x3d153c8b	0.03643469
124	0xbdaa1fca	-0.083068445
125	0x3cd6d56a	0.02622481
126	0x3df19cfc	0.117975205
127	0xbc9effde	-0.019409116
128	0xbd8b4f19	-0.06802196
129	0xbc0fe3b2	-0.008782314
130	0x3d089af5	0.033350904
131	0xbe0cf488	-0.13765156
132	0x3c672039	0.014106804
133	0xbe060f22	-0.1309171
134	0xbdba1bda	-0.090873435
135	0xbc26a2dd	-0.010170666
136	0x3d685ab6	0.056727134
137	0xbcb1e651	-0.021716269
138	0x3dabe663	0.08393552
139	0xbdaaacfd	-0.08333776
140	0xbccd8035	-0.025085548
141	0xbda1dbb1	-0.07903231
142	0x3e25c59d	0.16188665
143	0x3d67a769	0.05655614
144	0xbdefac47	-0.11702781
145	0x3c8bf175	0.01708291
146	0x3e74187e	0.23837468
147	0x3da3617f	0.0797758
148	0xbe44c166	-0.192144
149	0x3ae34f3c	0.0017342339
150	0x3e05df0e	0.1307337
151	0x3d2c9dd9	0.042142723
152	0x3cf6c1f4	0.030121781
153	0x3d2220a1	0.0395819
154	0x3e14e8f7	0.14541994
155	0xbdde6149	-0.108583994
156	0x3daaedce	0.08346139
157	0x3d3c8c81	0.046032432
158	0xbe0a133b	-0.13483898
159	0xbd1dd267	-0.038530733
160	0xbda3230c	-0.07965669
161	0x3d7c0b57	0.061534252
162	0x3d3d2433	0.0461771
163	0x3de7dd1e	0.11321472
164	0x3cac12d7	0.021005077
165	0x3e0ab48c	0.13545436
166	0xbe220a2d	-0.15824194
167	0xbe0619b0	-0.13095737
168	0x3d350715	0.044196207
169	0x3e3cbc95	0.18431313
170	0x3ca651ff	0.02030277
171	0xbe17eb6d	-0.14835902
172	0x3bf70ccf	0.0075393687
173	0xbe0543c7	-0.13014136
174	0xbd721506	-0.05910208
175	0x3d9a1b41	0.075247295
176	0xbd2067e5	-0.03916158
177	0xbdd8fb08	-0.105947554
178	0x3c9f038f	0.019410877
179	0xbda2487f	-0.07923984
180	0x3df7e915	0.12105004
181	0xbdda878f	-0.10670387
182	0xbe047df8	-0.12938678
183	0x3d6ab00b	0.057296794
184	0xbe215679	-0.15755643
185	0xbb4bfd33	-0.003112626
186	0x3beb8525	0.007187503
187	0xbe8ba937	-0.27277538
188	0xbc20518a	-0.009785065
189	0xbe57bc3c	-0.210679
190	0x3d4e8bbd	0.050426234
191	0x3dec8155	0.115481056
192	0x3d8a6f3e	0.06759499
193	0xbdc68797	-0.096938305
194	0xbc8a9b67	-0.016919805
195	0x3db6c741	0.089247234
196	0x3c49229d	0.012276319
197	0x3d5dcf1b	0.05415259
198	0x3e40aeee	0.1881673
199	0xbe2a72df	-0.16645382
200	0xbd57fdde	-0.05273234
201	0xbd800eeb	-0.062528454
202	0x3dbdf529	0.09275276
203	0xbdaca6aa	-0.08430226
204	0xbda1caed	-0.07900033
205	0xbc50d2dd	-0.012745586
206	0xbde8fa79	-0.11375899
207	0xbcc41392	-0.023935113
208	0xbc33707f	-0.010952114
209	0xbd508950	-0.0509122
210	0xbd20e0dd	-0.039276946
211	0xbc8dcfe0	-0.017311037
212	0xbd9416a8	-0.07230884
213	0x3bc367ce	0.005963302
214	0xbdd3be55	-0.10339037
215	0x3d183561	0.03716028
216	0xbcc2c35e	-0.023774799
217	0x3abbbfda	0.0014324144
218	0x3dda16f3	0.106489085
219	0xbdbaaa21	-0.09114481
220	0x3d5608f8	0.052254647
221	0x3dcd671c	0.10029432
222	0x3ded8eaa	0.11599477
223	0x3d45a99f	0.048257466
224	0x3e0599d4	0.13046962
225	0x3e3dc5da	0.18532506
226	0xbd8fc680	-0.07020283
227	0x3d969123	0.073519014
228	0xbd9e7bc2	-0.07738449
229	0xbc3255e6	-0.010884738
230	0x3cc2df12	0.023788009
231	0xbe031ab1	-0.1280315
232	0xbe319eb6	-0.173457
233	0xbd76a726	-0.060218
234	0x3e04f8ea	0.12985578
235	0xbdf2509b	-0.118317805
236	0x3d22d580	0.03975439
237	0xbd19c42d	-0.037540603
238	0xbdd8419f	-0.10559391
239	0xbd873552	-0.06601967
240	0xbd811815	-0.063034214
241	0x3c8f147e	0.017465826
242	0xbda390da	-0.079866126
243	0x3d116e3e	0.035505526
244	0xbd545fdf	-0.051849242
245	0xbcec6933	-0.028858757
246	0xbc843a0b	-0.016140958
247	0x3ce3a292	0.02778748
248	0xbe0f916c	-0.14020318
249	0x3d54bef4	0.05193992
250	0xbcb2cb5f	-0.02182549
251	0xbdb0c3b1	-0.08631075
252	0xbd9c49a7	-0.076312356
253	0x3d56c7d2	0.052436657
254	0xbd4a5606	-0.049398445
255	0x3db9b86f	0.09068381

encoder.model.bias_ih_l1 f4 [240]
0	0x3c8313a5	0.016000578
1	0x3d2f1106	0.042740844
2	0x3e2ed607	0.17073832
3	0x3d2079af	0.039178547
4	0x3da67e68	0.08129579
5	0x3cf52647	0.029925479
6	0x3dbd7e0f	0.092525594
7	0x3da0618d	0.07831106
8	0x3e9f4938	0.3111055
9	0x3d70db92	0.05880315
10	0x3d6a6005	0.057220478
11	0x3e608f37	0.21929632
12	0x3e01a102	0.12659076
13	0x3d3d3b16	0.046198927
14	0x3e18c447	0.14918624
15	0x3dd5609b	0.10418817
16	0x3d78ca7c	0.06073998
17	0x3f0e653d	0.5562323
18	0xbda1cf8b	-0.07900914
19	0xbd9b09eb	-0.07570251
20	0x3d9f7c11	0.07787336
21	0x3d01c840	0.031685114
22	0xbd1c98d0	-0.03823167
23	0x3e483cd2	0.19554451
24	0x3eed6def	0.46372935
25	0x3e536442	0.20643714
26	0xbd4cb402	-0.049976356
27	0x3e05ec50	0.13078427
28	0x3d321437	0.04347631
29	0x3d14dcbf	0.036343332
30	0x3e5608fd	0.20901866
31	0x3d9f1acc	0.07768783
32	0x3e24655f	0.16054295
33	0xbd4c8ae9	-0.049937163
34	0x3d0d6b93	0.03452642
35	0xbda8c168	-0.08240014
36	0x3f42e290	0.76126957
37	0x3d006751	0.03134853
38	0x3ddbda23	0.10734966
39	0x3d7cedb4	0.06175013
40	0xbd9c1060	-0.07620311
41	0x3ebbd9ce	0.3668961
42	0x3e71f896	0.23629984
43	0x3e29b986	0.16574678
44	0xbc291de1	-0.010322065
45	0xbceda09f	-0.029007254
46	0x3e1fc947	0.15604125
47	0xbda567de	-0.08076452
48	0xbd2bea91	-0.041971747
49	0xbde2081e	-0.110367045
50	0x3dccb5f3	0.099956416
51	0x3ddd9ed5	0.108213104
52	0x3d32638a	0.04355196
53	0x3ef576d7	0.4794223
54	0x3d799d9d	0.060941327
55	0x3db86279	0.09003157
56	0xbdca752a	-0.098856285
57	0x3e05418a	0.13013282
58	0x3e3c30e5	0.18378027
59	0x3dcb70d0	0.09933627
60	0xbdb26cea	-0.0871218
61	0xbdd3a118	-0.103334606
62	0x3de88abe	0.11354588
63	0x3d804dc1	0.062648304
64	0xbdf52edd	-0.11971829
65	0x3e08f892	0.13376072
66	0xbdc6855d	-0.09693406
67	0x3d27a382	0.040927418
68	0xbd1f4cfc	-0.038891777
69	0xbdd457e0	-0.10368323
70	0xbda76255	-0.08173052
71	0x3ddb4bf1	0.10707844
72	0xbd3d0222	-0.046144612
73	0x3d407582	0.046987064
74	0xbda52856	-0.08064334
75	0xbcda44d9	-0.026644157
76	0xbdb8686a	-0.090042904
77	0xbda3e871	-0.08003319
78	0xbd283507	-0.041066196
79	0x3c374536	0.011185935
80	0xbda91599	-0.082560726
81	0x3dd27466	0.102761075
82	0xbdcda4d4	-0.10041204
83	0x3d5392e2	0.05165375
84	0xbd2e77dc	-0.042594776
85	0x3dc06403	0.09394076
86	0x3d014086	0.031555675
87	0x3da9aa12	0.082843915
88	0x3d6cf332	0.057849117
89	0x3c9e8baf	0.019353716
90	0xbcc1f59d	-0.023676688
91	0xbc45cea5	-0.012073194
92	0xbceec49b	-0.029146483
93	0xbe0a2000	-0.1348877
94	0xbe18cb12	-0.14921215
95	0xbc9983a0	-0.018739522
96	0xbe115a33	-0.14194565
97	0xbe4b7d2f	-0.19871973
98	0xbdb3b7d6	-0.08775298
99	0x3b780db9	0.0037849976
100	0xbc8b0504	-0.016970165
101	0xbe6b42ef	-0.22974752
102	0x3d1ff1d2	0.039048977
103	0x3d3dec71	0.046368066
104	0xbdcfa544	-0.10138944
105	0xbe0a7e35	-0.13524707
106	0x3c10d226	0.008839166
107	0x3daf42e3	0.085576795
108	0xbd04fc02	-0.032466896
109	0x3d900a58	0.07033223
110	0xbd87424f	-0.06604444
111	0xbe096f56	-0.13421378
112	0x3df488a8	0.119401276
113	0xbe7a9bb2	-0.24473456
114	0xbdd5f6cf	-0.10447466
115	0xbda2d50a	-0.0795079
116	0xbe0e580f	-0.13900779
117	0x3aa8c782	0.0012876841
118	0xbc4aa9aa	-0.012369553
119	0x3dbd23d9	0.09235353
120	0x3d3b46f7	0.045721974
121	0xbd50b1cf	-0.05095082
122	0xbdedc9ac	-0.116107315
123	0x3def6c13	0.116905354
124	0x3c8117bb	0.015758386
125	0x3e0a2b37	0.13493048
126	0x3e0bf630	0.13668132
127	0xbdf217c9	-0.11820943
128	0xbd8aff3e	-0.06786965
129	0xbe08aeb4	-0.13347894
130	0xbd413b84	-0.0471759
131	0x3d1201f0	0.03564638
132	0xbc9a4512	-0.018831763
133	0xbd80747e	-0.06272219
134	0xbcd9f8a0	-0.026607811
135	0xbc32ba31	-0.010908649
136	0x3d4dde17	0.05026063
137	0xbe3a65f7	-0.18202959
138	0x3daeaff4	0.08529654
139	0xbd9122c6	-0.07086711
140	0x3d82abc8	0.06380421
141	0x3d19a349	0.037509236
142	0xbd8a2bd2	-0.06746639
143	0xbc7b0814	-0.01532175
144	0xbd42daa8	-0.047571808
145	0x3e0ffd2a	0.14061418
146	0xbd867803	-0.06565859
147	0xbccbf61a	-0.024897624
148	0x3d695669	0.056967173
149	0xbcbb49e4	-0.022862382
150	0x3d27ab61	0.040934924
151	0x3da00408	0.07813269
152	0xbd722d6b	-0.059125345
153	0xbcd8da15	-0.026471177
154	0x3d948981	0.07252789
155	0xbd94895d	-0.072527625
156	0x3e85ab2d	0.2610716
157	0x3e2ebbe7	0.17063867
158	0xbd2c6b2a	-0.042094387
159	0x3d80096d	0.06251798
160	0x3b7e4395	0.0038797606
161	0x3e3744ff	0.17897414
162	0xbdfd2cb2	-0.123620406
163	0x3bcc5b2c	0.0062364545
164	0xbddf4c08	-0.10903174
165	0x3da5d2bf	0.08096837
166	0xbdba0921	-0.090837725
167	0xbd22374d	-0.03960352
168	0xbdf69cdb	-0.120416366
169	0xbc8b6713	-0.017016923
170	0xbde10374	-0.10986987
171	0xbd48f388	-0.049060374
172	0x3dd6b31f	0.104833834
173	0xbd7fe32c	-0.062472507
174	0x3d66821d	0.05627643
175	0x3c401b12	0.011725204
176	0x3dcd15aa	0.10013898
177	0xbd5c7359	-0.05382094
178	0xbc1faadf	-0.009745329
179	0xbdea93fb	-0.11454006
180	0xbd9eeb4b	-0.07759722
181	0x3def7dda	0.11693926
182	0x3e23746b	0.15962379
183	0x3e6c2394	0.23060447
184	0xbd9e7461	-0.07737041
185	0xbd4a9c55	-0.049465496
186	0x3deb9b04	0.11504176
187	0x3da9030e	0.08252536
188	0x3ec8a52b	0.39188513
189	0xbd524ad1	-0.05134088
190	0xbd88746b	-0.0666283
191	0x3d039310	0.03212267
192	0xbd1c22fc	-0.0381193
193	0x3dfe50fe	0.12417792
194	0x3e37fcc1	0.17967512
195	0x3e0550ea	0.13019148
196	0xbd915aaa	-0.07097371
197	0x3eec7c5e	0.46188635
198	0xbd9ae2ea	-0.07562812
199	0xbdeb8e17	-0.11501711
200	0x3d72c833	0.059272956
201	0xbd016037	-0.0315859
202	0x3dd1e34c	0.102484316
203	0x3e3672f6	0.17817292
204	0x3e74db17	0.23911701
205	0x3c9bfb42	0.019040707
206	0x3dab32d2	0.083593026
207	0xbcfad33c	-0.030618303
208	0xbd05b332	-0.032641597
209	0x3d969140	0.07351923
210	0x3dc1c25c	0.09460899
211	0xbd81a0d2	-0.06329502
212	0x3e0501a6	0.1298891
213	0x3dd162c4	0.10223916
214	0xbccbbffa	-0.024871815
215	0xbcd6ff47	-0.026244773
216	0x3f560d3a	0.8361393
217	0x3d68e67e	0.05686044
218	0xbdde66eb	-0.10859474
219	0x3deb9f0c	0.11504945
220	0xbc50fd20	-0.012755662
221	0x3ec0d62c	0.376634
222	0x3ce99ede	0.028518137
223	0x3d1fa06b	0.038971346
224	0x3df04867	0.1173256
225	0x3e07fb81	0.13279535
226	0x3bbf9021	0.005846039
227	0x3dbeabab	0.09310087
228	0x3e39679e	0.18105933
229	0x3c90b2c8	0.017663375
230	0x3dadd93e	0.08488701
231	0x3da857d4	0.08219877
232	0xbd9a3910	-0.07530415
233	0x3eba4d7b	0.36387238
234	0xbc70e4a6	-0.014702952
235	0xbd241051	-0.040054623
236	0x3e001af6	0.12510285
237	0xbd72518a	-0.059159793
238	0x3dd1646e	0.102242336
239	0x3d5c2500	0.053746223
