models/20200923_181657/epoch_0800_loss_213034.29697.pt (torch, 801233 bytes, 96 tensors)

encoder.model.weight_ih_l0 f4 [240, 3]
00000000: c069 18be 99aa 2c3d 1562 9ebc 3ec6 383e
00000010: 4d4c 3fbe 2785 863d 7b88 44be 7e49 df3d
00000020: eae9 343f 7e4d a93c 2a88 323e 5d17 91bd
00000030: c0d9 debc 2580 2e3d f59f bf3c ee17 08be
00000040: e196 073d 5e91 563d 7460 093c 20d4 86bd
00000050: d0be 07be 0015 4e3d 3876 5a3d 8508 b53d
00000060: 01d3 2fbe 24ae a53d b533 d13e 569e 833e
00000070: 0775 ff3d d164 8e3e bda5 35be 4e1e 8a3d
00000080: 2f3a 25bb fb7a 82bc a250 e6bd 9be4 bfbd
00000090: 90b9 263d ce26 2a3d c9e5 d53e 173e 8b3e
000000a0: de7a bb3d cd0d 0d3e 5323 dbbc 0e7b 4cbe
000000b0: 0ff4 67be ced4 96bd 7a76 d9bc bde6 9ebd
000000c0: 892f 983d f041 373d 3b5b 253e 0c74 cebd
000000d0: e4c1 7dbe 8096 9abd fff8 96be 1763 90be
000000e0: 81b6 7abd cea1 53be 378e b83a aa3e c73d
000000f0: 455c af3c 741a 043e 7895 233c 5e30 62bc
00000100: 45c1 253d 3764 4e3c db25 163a eaf0 1d3e
00000110: 1dac d73e 31a5 223c 97d8 dc3d fe45 a53e
00000120: b0cf 4abd c3e2 bcbd a9bf f73d 2fa5 05be
00000130: 0dc2 1d3e 6a2f b9bd 1bc1 843e 7a57 a83e
00000140: 86c0 0fbb 1701 933d 4966 70bd 062a e43c
00000150: 2765 f83d 40c0 5fbd 963a 31bd 474f fbbd
00000160: 5749 bd3d c847 05be 2550 cc3c a8b6 a0bb
00000170: 5d4c 8b3d 473c 4d3e f1a7 1abe 1540 57be
00000180: 277e 36bd 1183 0fbe f1a9 e9bc d45d 9ebe
00000190: d841 05bd a481 323d e591 ccbd 6f93 3fbd
000001a0: 36bd 063d 3693 dbbd 25df 6d3d 3794 153e
000001b0: de8c 4fbb 6bae 39bb 5766 3b3b 1fae 59bd
000001c0: 21b1 cb3d fc4b 323e 11f9 8fbd ff3e 123e
000001d0: d731 25bd 2479 513e 5ec7 2f3c b5d8 3e3e
000001e0: d82b 9dbd b09f 923d 6ee5 343e d552 63bd
000001f0: df12 37bd 17a5 29bd d979 83bd 4461 f83d
00000200: f179 163f e924 05be 2e2a c73d b950 243d
00000210: c572 5fbd a97a 093e aac9 aebd c071 e23d
00000220: ea48 8f3c cd02 44bd c5be 1bbd 242f ddbd
00000230: 304b 23bc 771d 3bbd 91fb adbd 8380 8dbd
00000240: 503e 6d3d af27 fc3c 323f 393d 6836 a6bc
00000250: cc80 1f3c 7c27 a33d 9b4f bfbe 4165 123e
00000260: 6de0 62be 95b9 3f3b f567 a0bd ae75 9a3e
00000270: fcb9 3fbe 75a8 853d b274 de3c fb47 2f3e
00000280: 2162 2c3d 6c04 dd3c 8b7d e23c 1b94 7fbe
00000290: 61b4 053e ecde 593d b278 553d 48f2 1f3e
000002a0: 3666 233b 6150 943d 960c 153d eee6 a5bc
000002b0: d737 ff3d 6439 433e 3b68 06bd c9dd d73d
000002c0: c7fb 593e 2349 10bd 9797 13be 15b0 eabd
000002d0: f8ab 433e 86b9 033e 220f 8d3d 2806 203e
000002e0: c49d 8f3d 1451 0fbe 68c8 35be 9872 f33c
000002f0: 7613 df3d 5c02 adbb bcb5 1abe 2356 34bc
00000300: 9789 88bd 5d9b 053e 1b90 043e 0a8c bbbd
00000310: 3dfc 99bd 2773 893d be83 c3b8 8b3a cc3d
00000320: 3f7a 03bd eb07 183d 1cd8 283e 5814 3c3e
00000330: f760 c1be 0811 7fba 54d6 fa3d 6259 8b3e
00000340: d5aa bbbd 40fb a43d c49c 07bd e53f f43d
00000350: 19c5 f6bd 2b0a dabd 1811 edbb 85b4 e438
00000360: e529 333e 8110 213e ff78 5f3e a94a 963e
00000370: 84d0 2c3d e633 a53d 5189 85bc 1537 08be
00000380: 9332 933d e360 d13d b60a 35be ca51 01bd
00000390: 76ba 1a3e 4b6f a13d 2aef 9f3e dd33 e73b
000003a0: e0e3 54be bf7f bd3c b7fc 053d 4473 20be
000003b0: c49e af3d c673 53be 9897 9d3c ff6a 3d3b
000003c0: 485c bf3c 186c 073b 0250 c23d 21e7 a7bd
000003d0: 532a 343c 425b 27bd 36ce 89bd 3906 ba3d
000003e0: 6ac8 f43e cd6d dabd 3550 b03c 035f b73e
000003f0: b61b bfbd 7bdf 25be b3a2 b3bc ae6c 233e
-0.1488409 0.042154882 -0.019333879 0.18044373 -0.1868145 0.065683655 -0.19192688 0.109026894
0.70669425 0.020666834 0.17434755 -0.07084534 -0.02720344 0.042602677 0.023391703 -0.13290378
0.033102874 0.052384727 0.008384813 -0.065834284 -0.13256383 0.050312996 0.0533354 0.088395156
-0.17170335 0.08089855 0.40859762 0.25706738 0.12473493 0.27811292 -0.17739005 0.067440614
-0.0025211682 -0.015927782 -0.11245848 -0.09369775 0.04070431 0.041540913 0.41776875 0.27195808
0.091542944 0.13774796 -0.026750242 -0.19968817 -0.22651695 -0.07364808 -0.026545752 -0.077588536
0.074309416 0.044740617 0.16148083 -0.10080728 -0.24780995 -0.07548237 -0.29486844 -0.282006
-0.061209206 -0.20667192 0.0014080469 0.09728749 0.021406302 0.12900716 0.009984367 -0.013805477
0.04046752 0.012597135 0.0005727687 0.15423933 0.421235 0.00992708 0.10783499 0.32279962
-0.049514472 -0.09222939 0.12097103 -0.13051294 0.15406056 -0.09042247 0.25928578 0.3287924
-0.0021934821 0.07177942 -0.058691297 0.02785207 0.12128668 -0.054626703 -0.043268763 -0.1227098
0.09242504 -0.13015664 0.02494056 -0.004904587 0.068016745 0.20042525 -0.15103127 -0.21020539
-0.044553902 -0.14014842 -0.028523417 -0.3093096 -0.032533497 0.043580666 -0.09988765 -0.046771463
0.03289529 -0.10721438 0.058074135 0.1460732 -0.0031669657 -0.002833272 0.0028594935 -0.05314457
0.09945894 0.17411798 -0.070299275 0.14281844 -0.040330734 0.20456368 0.010728685 0.18637355
-0.07674378 0.07159364 0.17665645 -0.055498917 -0.04469573 -0.041417208 -0.06419725 0.12127927
0.5877982 -0.13002361 0.09724842 0.040116046 -0.054552812 0.13425697 -0.08534558 0.11056852
0.017490823 -0.047854234 -0.03802373 -0.10800007 -0.009966657 -0.045682397 -0.08495248 -0.06909277
0.057920754 0.030780641 0.045226283 -0.020289615 0.009735297 0.079665154 -0.37365422 0.14296438
-0.22155924 0.0029254903 -0.07832328 0.30167907 -0.18723291 0.06526271 0.027155254 0.17117302
0.04208577 0.026979648 0.027647754 -0.24958842 0.1305709 0.05319111 0.052117057 0.15619767
0.0024932749 0.072418936 0.036388956 -0.020251717 0.124618225 0.19064862 -0.032814246 0.10540349
0.21287452 -0.035226 -0.14413296 -0.11459366 0.1910857 0.1286374 0.06887652 0.15627348
0.07012513 -0.13995773 -0.1775223 0.029717728 0.10892384 -0.0052798223 -0.15108389 -0.011006865
-0.06666868 0.13047548 0.12945597 -0.0915757 -0.07518814 0.06711417 -9.3228635e-05 0.09972104
-0.032099005 0.037116926 0.16488689 0.18367136 -0.3776929 -0.0009730016 0.12247911 0.2721663
-0.09163443 0.08055735 -0.033108488 0.119262494 -0.12049312 -0.10646471 -0.0072347037 0.000109055116
0.1749645 0.15728952 0.218235 0.29353836 0.042191043 0.080665395 -0.01630083 -0.13302262
0.07187381 0.10223558 -0.17679867 -0.03157214 0.15110192 0.078825556 0.31237155 0.007055743
-0.20790052 0.023132203 0.03271171 -0.1566897 0.08575204 -0.20649633 0.019237325 0.0028902886
0.023359433 0.0020663794 0.094879165 -0.08198381 0.010996419 -0.040858515 -0.06728785 0.09083218
0.47809154 -0.10665474 0.02152262 0.35814676 -0.09331457 -0.16198532 -0.021928167 0.15959427

encoder.model.weight_hh_l0 f4 [240, 60]
00000000: ee0c f53c dfc9 4d3d f31c 9d3d 92ee e63d
00000010: 1dc5 523e dd15 543e 4646 b83d c4f7 58bd
00000020: d986 423d 6570 76bd 16a1 0e3e 4342 e7ba
00000030: b38c a03d 3eb9 943d 5229 433d 6efe 2e3d
00000040: b7bb d63d 6be0 583d 7350 5abd e81c a13d
00000050: 8621 4bbd 8e7e 54be f338 573e 2950 fe3d
00000060: 83ca 213e eb13 bebd b2da 70bd 3b67 a03c
00000070: a4c0 863d 702d cbbd e3d9 d03c 265e c1bd
00000080: d563 bebc 949c cc3d e355 3c3d d501 fa3a
00000090: 38de 433e 3558 14bd f2b5 efbc b9f9 66bd
000000a0: c9b8 cc3b c4a9 b6bb 7ccf 023e 8ed7 653d
000000b0: 4fa0 0f3e 40bb d43d 3b3b 02be 4b8c bebd
000000c0: 050c 813c ee4e 2fbe b2f7 973d b356 25bc
000000d0: d4f1 d8bc 7efd d13d 0c52 4f3d 940c e73d
000000e0: 12cf 09be eb1c 023d 4b5e db3b 7fbe f9bd
000000f0: a1b8 11bc 82bf 113c 7388 3ebe bde0 4d3c
00000100: b414 ae3c 2fee 38bd ff6a cd3d 56e9 d6bc
00000110: bb9b 4f3d b617 fb3d a4e9 d8bd 610e 57bd
00000120: 5035 bbbb 315a e1bc cc55 73bb b180 cf3d
00000130: c260 573d bd52 ea3c bfb1 3e3d 94a7 dabd
00000140: 97f5 f3bd b8a4 96bc 6751 f73c 7981 fcbd
00000150: de73 a9bc 752c ae3d 0a37 2dbc dcef e13c
00000160: 5ac3 6bbd 328a 5bbd 82ad b93b 0a5c 973c
00000170: 5233 d0bd ce40 0e3e 4554 343e 0f84 17bc
00000180: 753d 033e 3475 41bd 0437 7b3d ea3d 01be
00000190: e0ff 01be 4b59 343d d14a dfbd 48e6 0ebe
000001a0: dcc9 6ebd 2ab0 ad3c 33f9 f5bd 0de0 0bbe
000001b0: ca7e ca3d 6997 96bb 6fdc 3a3e 57ae cebd
000001c0: 7bcc 99bd 8b81 25bd ede4 b3bd 5ff9 2a3d
000001d0: 5914 97bd 0750 803d 1576 0ebd a1a2 7ebd
000001e0: 9e9d 2ebe c765 70be 0f9c 83bd bfb2 4bbe
000001f0: bb4c 513e ac00 02be 16fd 1b3e 6de2 8c3c
00000200: 4c81 67bd cc9e 89be 05d9 b5be dd61 84be
00000210: f7ff 663e ebbb 77be d7f4 81be f239 b63e
00000220: dc7b ca3c 506e d2be b814 81be 9086 d6bd
00000230: 712d 763d 87c3 283d aafc afbc a403 f23d
00000240: 754b bfbd c6fc b93e 68a2 22be 2d5b bc3d
00000250: 8520 973e 8a78 4f3e 387f 8a3c 7226 1a3e
00000260: c522 9cbe 4b71 cdbe a918 c63d 9f2a 873e
00000270: 0652 1b3e 69ca 2ebe a67f d4be f800 923e
00000280: e4c7 893e 8463 a93e 6303 893e 3f73 9fbe
00000290: 6add a23e e983 893e bb8e d4bd 8b9b c63e
000002a0: dfac 2a3e 47be 2abe cc50 893e 6433 803c
000002b0: 4f69 d73d 80ee 393e 2f36 59be e710 043e
000002c0: 5cdc 4e3e 8390 a43e 0355 423e 0771 d4be
000002d0: e6f3 50bd 4108 f63a e005 31bd d9ef 81bb
000002e0: fcec 293d e7e6 b63c adda e0bd 0e40 54be
000002f0: b3ee 1a3e 8581 f8bd f97c 3c3e 9c1f fabc
00000300: 03ba 8cbd 6432 313d 2ea7 ac3d e722 7cbd
00000310: 1cbf 57bc e617 18be 3e8d b33d ede8 46bc
00000320: 7162 91bc 829e 99bc d924 123d 59ec d63c
00000330: 476c dcbc 6253 d4bd 3240 93bd 9e43 01be
00000340: a420 1f3e 55bd 89bb 4c19 a73d a197 633d
00000350: 5efb 383d 80f7 5b3c 789b f23d 6765 10be
00000360: b82f 71bd 69eb e53d 4b1d 88bd 3ebc 6abc
00000370: c5aa 46bd 5fda 0a3e 3af1 4b3c 7efc 1d3e
00000380: a443 d2bb dc26 b33d c79e b73d 1ec8 803d
00000390: affb adbc 2c91 2cbe 35e5 10be 052d 023e
000003a0: b275 c23d 657a 893c 95d0 3ebc 4fd8 d6bc
000003b0: be91 5b3c 2245 94bc 8c4b 2f3e 905b 05bd
000003c0: 1880 64be 0731 78be 1e21 9cbd e451 1bbe
000003d0: d990 053e 1602 2fbe 5aaa e7bc ae20 393e
000003e0: 34e9 9ebd 8e8a 9fbe 58b5 2c3c 612d 05bd
000003f0: 78d2 343e 236b d6bd a24e 60be 0a43 7f3b
0.029913392 0.050241347 0.07671537 0.112759724 0.20583005 0.20711465 0.089977786 -0.052970663
0.047491882 -0.06016578 0.13928637 -0.0017643649 0.07839336 0.07261895 0.047646828 0.04272311
0.104850225 0.052948397 -0.05329938 0.078668416 -0.049592517 -0.20751402 0.21017818 0.12417633
0.15799908 -0.09281143 -0.058802314 0.019580474 0.06579712 -0.09920776 0.025494521 -0.094417855
-0.023240963 0.099908024 0.045980345 0.0019074032 0.19127738 -0.036216933 -0.029261563 -0.056390498
0.006247614 -0.005574437 0.12774462 0.056113772 0.14025997 0.103872776 -0.12717907 -0.093041025
0.015752802 -0.17119953 0.07420291 -0.0100914715 -0.0264825 0.10253428 0.050615355 0.11281696
-0.13457897 0.03176586 0.00669459 -0.12194537 -0.008894117 0.008895757 -0.18606739 0.012565789
0.021250106 -0.045149025 0.100301735 -0.02623431 0.050685626 0.12260382 -0.105914384 -0.052503947
-0.0057131425 -0.027508827 -0.0037129996 0.10131968 0.05258251 0.028603906 0.04655623 -0.10676494
-0.11912077 -0.01838909 0.030190183 -0.123293824 -0.020685133 0.08504573 -0.010572204 0.027580194
-0.05755935 -0.05359859 0.0056664357 0.018476505 -0.101660386 0.13891909 0.17610271 -0.009247794
0.12816413 -0.047230914 0.061331764 -0.12621275 -0.12695265 0.04403047 -0.10902942 -0.13955033
-0.058297977 0.021202166 -0.120104216 -0.13659687 0.09887464 -0.004595686 0.18248151 -0.100918464
-0.07509705 -0.040406745 -0.087838985 0.041741725 -0.07376928 0.06265264 -0.03478058 -0.062166814
-0.17052314 -0.23476325 -0.0642625 -0.19892405 0.20439427 -0.12695569 0.15233263 0.017197812
-0.05651979 -0.26878965 -0.35517135 -0.25855914 0.2255858 -0.24192779 -0.2538211 0.35591084
0.024717264 -0.41099787 -0.2521112 -0.104748845 0.06010193 0.041202094 -0.021482784 0.11817101
-0.09340564 0.36325663 -0.15882266 0.09197078 0.29516998 0.20260826 0.016906366 0.15053728
-0.30495277 -0.40125498 0.09672672 0.26399705 0.15168008 -0.17069401 -0.41503638 0.28516364
0.26910317 0.33083737 0.26760396 -0.31142613 0.3180955 0.26858452 -0.10378786 0.38790545
0.16667508 -0.16674148 0.26819456 0.015649505 0.10518133 0.18157387 -0.21212076 0.12897073
0.20201248 0.32141504 0.18977742 -0.41492483 -0.05101385 0.001877077 -0.043218493 -0.0039653596
0.04148577 0.0223269 -0.10979209 -0.2072756 0.15130119 -0.12134079 0.18407048 -0.03053265
-0.068714164 0.043260947 0.084303245 -0.061556723 -0.013168123 -0.14852867 0.08767174 -0.012140495
-0.017747136 -0.01875234 0.035679672 0.026235746 -0.0269071 -0.103674665 -0.07189979 -0.1262345
0.15539795 -0.0042034783 0.08159122 0.055564526 0.045161597 0.013425708 0.118460596 -0.14101182
-0.0588834 0.112265415 -0.06646212 -0.014327107 -0.048502702 0.13559864 0.01244765 0.1542835
-0.006416755 0.08747646 0.08965831 0.06288169 -0.021238176 -0.16852254 -0.14149936 0.12712486
0.09495105 0.016781995 -0.0116464095 -0.02622619 0.013401447 -0.018099371 0.17118663 -0.032558024
-0.22314489 -0.24237452 -0.07623504 -0.15167958 0.13043536 -0.1709064 -0.028279472 0.18078873
-0.07759324 -0.31160396 0.010541283 -0.03251398 0.17658412 -0.104696535 -0.21904996 0.003894987

encoder.model.bias_ih_l0 f4 [240]
00000000: 670e 193e f188 d6bd 7664 ad3d 5e29 9c3c
00000010: 480d 093e 61ab 1c3e 5e5d 04be e3de 483d
00000020: 6f4a 0b3e bbf0 bf3c efac ca3d f6ab 0ebd
00000030: f889 123e d68f b83d 7d2c 3aba cb30 7d3a
00000040: 45c0 ec3c e319 a13d 979a a6bd ccc5 1bbd
00000050: e96f 8f3b 6d74 a83e 54eb 323e 3a6f ca3d
00000060: 17b4 7d3d f7e2 fdbc f4f0 bc3e b336 0e3e
00000070: 127b ec3c 9b6a eabc 8fd7 413e f598 563d
00000080: f1be a5bd 4846 3b3e 2eeb d43d f1f8 b73d
00000090: 5422 243e 92e9 c73c a8ce c93b 78d0 84bc
000000a0: d1ff d23d 2849 2dbd 8d54 163e 71f5 383d
000000b0: 7295 133e 1207 bc3b 1f51 c33c cd3e dd3d
000000c0: f302 f33e 82db 163e 8c27 1b3c 20ee e43d
000000d0: a9a4 183e c04e 033e 3885 db3d bbc2 ab3d
000000e0: 9758 b13d 07c6 923b dba2 4f3e 0b8e debc
000000f0: deba 673d 8f7f a53c 0476 d7bb 70e5 303d
00000100: 33fb 8bbd 55f1 92bd 2034 eabd 17df 45be
00000110: 5cc5 353b 1888 adbd 5590 b43d be7b 6fbd
00000120: 4e87 043d b679 863d 47e4 1ebe c1cb acbc
00000130: d81b f7bd 3b85 06be a590 e4bb 2efe 15bd
00000140: 4356 d7bd 37af b33b e605 92bd 2bd2 2ebd
00000150: 57b3 cebd 5943 96b9 88f9 babc 826c fcbc
00000160: 105c 3d3d 4b7d 80bc c411 11be f0af ec3c
00000170: d37e 853d 499b 4bbd c692 8abd 46bf fb3a
00000180: 7d94 a1ba 5f6d a23d fe63 cebd 8264 843d
00000190: fdfc 753d eb46 c7bc 49dd de3d df3b cebc
000001a0: 0065 e0bc 7141 cfbd 53a4 92bd d0e6 bfbd
000001b0: 5240 2ebe 0e3e ac3d 434e 473d b1cb 11bd
000001c0: 4c05 35be 1ae0 92bb ba3f 3a3d 8043 3bbe
000001d0: 835f 3a3d 532a 80bb d864 d7bd 4ea3 bcbb
000001e0: 8841 38be 333e 763d 8b4d 8a3d a1bb f5bd
000001f0: 9f48 d0bd f96c db3d b442 153d 9029 733d
00000200: 21fe 12bd 24ac 05bd ba37 62bc ee0f 8abd
00000210: ccf1 e83d 430a 59be 50ca 40be 4492 6a3d
00000220: f55b a3bd 18a9 01be 6717 04be 2c61 43be
00000230: 9d7f 5bbe 66e0 8f3c 495d 5cbd bda2 90bd
00000240: a200 0cbd a765 d73d 7330 433e 68fa 123d
00000250: bc8c 983d 9122 543d c1f1 1f3e e3dd 88bc
00000260: 59e5 31be 06ad 82be 51a2 893d 2904 eb3d
00000270: 2acd bcbd 3c8e 21be 929e b2bd 718b a93d
00000280: ee6c c83d 2b32 b1bc 910a c2bd 243d 17be
00000290: 8400 873d 66fe a53d c071 41be 11ca 9d3d
000002a0: 4bc1 2e3e 94b0 a23d b12b b3bd 098e a5bd
000002b0: ff58 2d3d 624d 4d3e 36c0 91bd 2d73 263e
000002c0: 2e13 43bd ccad c03d bc59 30bd b183 f9bd
000002d0: b2c2 16bd 874e 1abe 4f07 583b b8e3 72bd
000002e0: 7f00 ca3d 4de1 adbc aebd 08bd 3108 4c3e
000002f0: 40cc a1bb 021c cc3c f393 113e c68d 5b3d
00000300: d0ec e7bc df66 ea3d 6207 d33d a654 c63d
00000310: 9c5a 8e3d a314 213d 18c1 b9bd eccf ec3d
00000320: 7f2b 9a3d 8ad7 363e b980 483d 1827 063e
00000330: 4a32 4e3e 84de d1bc 50c3 943e 109c 34bc
00000340: c9b9 f23d 30c9 043e 7b68 103e 03df a4bc
00000350: 081b 053e fd97 b83d 936f 483e fe4b 65bd
00000360: e658 3cbd 67a7 d53b 6524 933c 650f 7a3d
00000370: 81ef 96bc d99d 11bc cc58 073e 2198 fe3d
00000380: cc35 283e 2bdc 99bd 9d04 053e 0ab8 e8bd
00000390: c75d 0c3f 7f5a eebc 265c fe3d a06d 533e
000003a0: be5c 4b3d 0dfc 613e ec33 14bd 95ce f63d
000003b0: 0e2e e03c af05 dd3a 5b3d 2d3d 095a e4bd
0.149469 -0.10475338 0.08466427 0.019062694 0.13383973 0.15299751 -0.12926242 0.049040686
0.13602613 0.023430219 0.09896266 -0.034831963 0.14310443 0.090118095 -0.0007101966 0.0009658455
0.028900275 0.078662656 -0.081349544 -0.03803043 0.0043773544 0.32901326 0.17472583 0.09884496
0.061939325 -0.030992014 0.36902583 0.13888054 0.028867278 -0.028615287 0.18929885 0.052391965
-0.0809306 0.18288529 0.103964195 0.08983029 0.1602872 0.024403367 0.0061586685 -0.016212687
0.10302699 -0.042306095 0.14680691 0.045155946 0.14412478 0.0057381475 0.023842392 0.10802994
0.47463188 0.14732173 0.009469878 0.11178231 0.14906563 0.1282301 0.10718769 0.08386751
0.08659475 0.004479173 0.20276968 -0.02716734 0.056574695 0.020202426 -0.006575348 0.04318756
-0.06835022 -0.07174937 -0.11435723 -0.19323383 0.0027736044 -0.084732234 0.08816592 -0.05846762
0.0323556 0.06566183 -0.15516768 -0.021093251 -0.12065858 -0.13136761 -0.006975251 -0.036619358
-0.105145 0.0054835337 -0.07130031 -0.0426809 -0.100928 -0.00028660407 -0.022824064 -0.03081346
0.046230376 -0.015684744 -0.14166933 0.028892487 0.065183304 -0.04970864 -0.06766276 0.0019206784
-0.0012327578 0.07931017 -0.10077666 0.06464483 0.06005572 -0.024325809 0.108820505 -0.025175033
-0.02739191 -0.10119904 -0.071602486 -0.09370196 -0.17016724 0.084102735 0.04865862 -0.035594646
-0.17677802 -0.0044822814 0.04547093 -0.18287468 0.045501243 -0.0039112954 -0.10517281 -0.005756772
-0.17993748 0.06011791 0.067530714 -0.11998678 -0.101701014 0.10714144 0.036440566 0.05936581
-0.035886887 -0.03263487 -0.013807232 -0.067413196 0.11374244 -0.21195321 -0.18827176 0.057268396
-0.07976524 -0.1266216 -0.12899552 -0.19080037 -0.214354 0.017563056 -0.0537999 -0.0706229
-0.03418029 0.105174355 0.1906145 0.035883337 0.07448718 0.051790778 0.15619566 -0.016707366
-0.17372645 -0.2552263 0.067204125 0.11475403 -0.092188194 -0.15776914 -0.08721651 0.082785495
0.09786402 -0.021630367 -0.09474672 -0.14769417 0.06591895 0.08105163 -0.18891048 0.07704557
0.17065923 0.07943836 -0.08748568 -0.08083732 0.0423212 0.2004905 -0.071167395 0.16254874
-0.047625713 0.09408149 -0.043054327 -0.12183321 -0.03680677 -0.15069018 0.003296334 -0.0592992
0.09863376 -0.021225596 -0.033384018 0.19925 -0.0049376786 0.024915699 0.14216594 0.053602003
-0.028311163 0.11445402 0.103041425 0.09684114 0.06950876 0.03932632 -0.09070033 0.115630955
0.075278275 0.17855659 0.048950884 0.1310085 0.20136371 -0.025618799 0.29055262 -0.011023536
0.11851842 0.12967372 0.14102356 -0.020125872 0.12998593 0.090133645 0.19573812 -0.055980675
-0.045983218 0.0065202 0.01796169 0.061049838 -0.018424751 -0.0088877315 0.13217467 0.1243136
0.16426772 -0.07512697 0.12990041 -0.11363228 0.5483059 -0.029095886 0.1241992 0.20647287
0.049648993 0.22068806 -0.03618233 0.12051121 0.02736571 0.0016862656 0.04229484 -0.11149985

encoder.model.bias_hh_l0 f4 [240]
00000000: d923 9f3c 0384 fabd 656f 3bbd 33ff 593d
00000010: 3bdc 223e e080 653d ec46 0dbe bd02 243e
00000020: 76c1 443d b1b8 a73b 7d0b 18bd 5c10 80bd
00000030: d7c0 033e fac5 013e 5ef2 ab3b 4fd4 c93d
00000040: 1a68 fa3d 7e52 77bd 62ac 5bbd 6d0e b53c
00000050: d1df 9c3d 0298 943e e3e8 c6bc 6d72 a93d
00000060: 9cfb ecbb 9fbe eebb d102 f43e 6b3b 97bb
00000070: 8129 d23d d8db ed3d a0a9 793e 6b0a c4bc
00000080: 6192 afbd 8a2a 7e3e 5474 2b3e 335a 073c
00000090: ed82 9d3d 090a 593c 3eec 31bd 98ca 2b3e
000000a0: e349 ee3c 1eff 753d b9c0 a63d 8e21 a13d
000000b0: 24ea c23d f072 d93c d910 b13d aa02 72bd
000000c0: 70ca 0b3f 0029 e23c d116 01be 0e2c 4f3e
000000d0: 6f68 793d bf44 a23e 7853 f1bd 5540 493e
000000e0: 784e 2e3e 9442 bb3d aec3 c23d 3bde 093d
000000f0: 2c4f 0e3e 7174 32bd c93e bbbd 981a 5abd
00000100: 2004 c7bd ea93 1b3d 8dca f0bd 4cfd 49bd
00000110: 1eb2 0abe 8b3f 0d3e 5e07 ffbc b884 ffbc
00000120: 1af8 3fbd 6b2d 7b3c 0057 18bc cab0 cdbc
00000130: ea63 3fbd abbb 5bbd 3ed1 7e3d 1c1d 0dbe
00000140: 0a7c 91bd 1776 e3bd 354f 02be 2cbb 06be
00000150: afa1 cabd 52a1 213e 999b 58be eeb7 0c3d
00000160: dada 943d bcfd ff3d a3ab 4cbe c720 953d
00000170: 3c3a 8d3d 2837 963d f2f4 c5bb 1148 bc3c
00000180: c2a9 ea3d 1e2c ca3d 55ec b6bd 7455 50bd
00000190: 8874 01bd 5402 dabd 3b96 debd 4f16 03be
000001a0: 0e84 68bd c95d efbc efcd bbbc 52ce deba
000001b0: 9195 74be 1ab8 e13d 10a4 81bb 39eb d4bd
000001c0: ff3e b0bd e594 d13d 2d08 e9bc 3c90 d8bd
000001d0: c785 ed3d 2da0 313e 6131 943d 1181 d7bd
000001e0: 36cc c2bd 8578 a4bd 715f 50bd f381 a13d
000001f0: 3157 e73c 7974 753d 4cfc bf3c a580 e93d
00000200: 4bfb f1bd 0558 bfbd fcbb 90bd be5d 40be
00000210: 8cc4 e2bd 616b 09be ce59 e7bd a6a0 423e
00000220: 5a34 463d 45f5 02be 37fc f33d e064 bdbd
00000230: 9968 93bc 7c5b 1b3e fbd2 0dbe 0c74 8cbd
00000240: 1dea 613c e5ff 113d 5d2c 543e 4bc6 eb3d
00000250: 99cb 32bd 24de ee3c 6a21 063e b7d9 aa3d
00000260: d363 0ebe 36eb d9bd 332b 37bd 8d60 04bd
00000270: 1c54 ae3d 1b02 18be 7a0f e0bc a74e 9e3c
00000280: 4b19 17bd ac8f d23d 4b93 c03d 1df9 fdbc
00000290: 19f6 bb3c 62c3 b93d 48bb 10be 959c ae3d
000002a0: ea2e b13d 7da0 04be 6aef ff3d ee73 cd3c
000002b0: 89c3 1e3e 0f90 613e 94fe 08be b273 373e
000002c0: 6373 e73d 77bc 093e 38fe 6f3d 8fa0 ecbd
000002d0: 1cd0 bebd a6ff 953d c3e0 4f3e 3733 c13d
000002e0: ce59 003d 2e66 4a3d dbac cf3b 19c3 4a3e
000002f0: b58e 8abc 3a67 8dbd a6dd d5bc 9ecf dd3b
00000300: fab0 8f3d a8e2 5b3d b643 2e3e c573 87bc
00000310: 7cfc 4f3d 4599 94bd 93d3 25bd cacb a83b
00000320: 476e 25bd aa84 0c3e 7005 8bbc fc37 ee3d
00000330: 79c8 a6bc b9ca 9d3d d1d5 9c3e 6f50 9d3d
00000340: 8b9e 16bd 0520 8ebd 83ee 713e 9ad1 793d
00000350: df1c 83bd c6f8 443e 0fa3 383d b132 e93d
00000360: fdb2 4bbd 4b1b 083e d485 2f3b 0f6c dbbc
00000370: 2678 2dbd 5570 9e3d ee0b a03d 9c6a 343b
00000380: 0b73 173d acf7 973d 085d 223e 8f90 e2bd
00000390: 4070 d83e 291f 963b ef77 02be 1c6b d83d
000003a0: ca73 cd3d ae20 693e 89ec 5fbd fc53 2a3e
000003b0: 16a6 12bc 3365 143d 1f8b 1c3e 85c1 8c3d
0.019426273 -0.122322105 -0.04576053 0.053221893 0.15904324 0.056031108 -0.13796586 0.1601667
0.04803606 0.0051184525 -0.03712033 -0.0625312 0.12866531 0.12673178 0.0052473983 0.09854948
0.12226887 -0.060381405 -0.053631194 0.022101605 0.07659877 0.29022223 -0.02428097 0.08273778
-0.0072321426 -0.0072859074 0.476584 -0.0046152375 0.102618225 0.116141975 0.24381113 -0.023930749
-0.085728414 0.24820915 0.16743594 0.008261251 0.07690988 0.0132470215 -0.04343819 0.16776502
0.029087966 0.06005775 0.08142228 0.07867728 0.09517315 0.026544064 0.086457916 -0.059084572
0.5460577 0.027607441 -0.1260636 0.2023165 0.06089061 0.31693074 -0.117834985 0.19653447
0.17022121 0.09143558 0.09509979 0.0336592 0.13897389 -0.04356808 -0.09142835 -0.053248018
-0.09717584 0.03798286 -0.117573835 -0.04931383 -0.13544509 0.13793771 -0.031131443 -0.031191215
-0.046867467 0.015330653 -0.009298086 -0.025108714 -0.046726145 -0.05364577 0.062211268 -0.13780636
-0.07103737 -0.11106508 -0.12725528 -0.13157338 -0.0989412 0.15784195 -0.21153106 0.034355097
0.07268305 0.12499568 -0.19987349 0.072816424 0.06895873 0.07334739 -0.0060411626 0.022983583
0.1145816 0.09871696 -0.089317955 -0.050862744 -0.031605273 -0.10644975 -0.10868498 -0.12801479
-0.056766562 -0.029219525 -0.022925345 -0.0016998744 -0.2388518 0.11021443 -0.0039563254 -0.10396428
-0.086057656 0.102334775 -0.028446281 -0.105743855 0.11597782 0.17346258 0.07235981 -0.10522664
-0.095116064 -0.080308 -0.05087227 0.07886114 0.028239818 0.05992553 0.023435734 0.1140149
-0.118155085 -0.0934296 -0.07067105 -0.1878576 -0.110726446 -0.13419868 -0.11296426 0.19006595
0.04838977 -0.12788875 0.119133405 -0.09247756 -0.017994212 0.15171617 -0.13850014 -0.06858072
0.013788727 0.03564443 0.20720048 0.11512431 -0.043651197 0.02915866 0.13098684 0.08342307
-0.13905267 -0.10640566 -0.044718932 -0.03231864 0.08512136 -0.14844553 -0.02735113 0.019324614
-0.036889356 0.102813095 0.09403094 -0.031002576 0.022944497 0.090704694 -0.14133942 0.085259594
0.08651526 -0.12951846 0.124968365 0.025079694 0.15504278 0.2202761 -0.13378364 0.17915228
0.11301305 0.134508 0.05859205 -0.115540616 -0.093170375 0.07324152 0.20300584 0.094335966
0.031335644 0.049413852 0.0063377446 0.19800986 -0.016913751 -0.069044545 -0.026106667 0.0067691347
0.070161775 0.053682953 0.17018017 -0.016534695 0.050777897 -0.07255796 -0.040484976 0.0051512467
-0.04038837 0.13722482 -0.016970366 0.11631772 -0.020359265 0.07704682 0.3063188 0.07681357
-0.036772292 -0.06939701 0.23626141 0.060990907 -0.06401991 0.19235525 0.04507738 0.11386622
-0.049731243 0.13291661 0.0026782649 -0.026784925 -0.04235091 0.077362694 0.078147754 0.0027529364
0.036974948 0.074202865 0.15855801 -0.110627286 0.4227314 0.0045813513 -0.12741064 0.105673045
0.10031851 0.22766373 -0.054668937 0.166336 -0.008950731 0.036229324 0.15287445 0.068728484

encoder.model.weight_ih_l1 f4 [240, 60]
00000000: 06f0 30bd c9f7 3ebd 36ce 1cbd 85ef 4c3d
00000010: d151 17be 4acb 3e3e 51a0 923d b1e8 8e3d
00000020: 86ff 06be 780c 003e 4724 a13d f0bf 4e3d
00000030: bc50 16bd e48e d2bd be06 2ebc 49bd 043e
00000040: 5c2b b23c ed91 13be f093 d43d 3e67 37be
00000050: ce97 4dbd 4a27 aa3d 4b32 eebd 0f70 25be
00000060: e0d1 99bc f275 73bd 28b5 ca3d 4ae4 d33b
00000070: e05f 0f3e 154f 4b3e cfb8 923d 215e 923d
00000080: c599 09bd c55c b0bd 269f b13d 18c5 073e
00000090: 0749 c4bc d45f 5bbd 0581 0f3d 8dfe 0ebe
000000a0: ede5 393c 049c ab3d e75d b0bc 2cd4 50be
000000b0: e70f b63d aa4a 64bd cd4b efbd 3e8d be3d
000000c0: e29e 173d 3728 a13d d5f6 5e3e 6956 e9bd
000000d0: 73e5 dfbc f122 673e fba2 6a3d 5ff2 dc3d
000000e0: 04e1 193e f090 bcbb 0f31 30be ec94 21bd
000000f0: fbb0 75be 2ac7 d9bd 8454 403d 660e 823c
00000100: 9570 453e 9aa4 c03d bd09 293e da84 a6bd
00000110: d585 8b3d 23ea 91be 7ee4 033e 1bf5 39be
00000120: 2fae 123e b78e 2bbe 0db0 2abe e16a 24bc
00000130: 8090 dcbd 37d6 b4bc 0ca3 36be 77c1 12be
00000140: c2e8 02be 3e8f a13c 25b0 c63d 27c8 a1bd
00000150: e4e4 873d ce2d 893b 6637 c3bd 0d44 aebd
00000160: 1a7e c13d 24dd e33c 70f2 21bd 724d 173e
00000170: 6ca0 2cbe da27 a9bc 1a01 9d3d 5fbd e7bc
00000180: ae72 6bbd 10bf 6bbe 80c3 6abd 7244 1c3e
00000190: feab 683e fc7b 013e c7c0 273d 2c86 2dbd
000001a0: 256c 2e3e 8826 733e 9b0e a73d 83d2 6b3e
000001b0: 4e34 43bd 8420 20be 117a a93d ca55 9c3d
000001c0: cc71 603d d3c7 923c e2f9 223a 4c31 173d
000001d0: 8b93 6a3e 598f b43d c1c4 8a3d ba43 4b3b
000001e0: 9440 5a3d 9442 9abd d89f 4abe bbb5 17be
000001f0: 6ecb d73c c712 eabd 92bd 283e 9bd3 37bd
00000200: 5a97 25be 4d01 38bd f173 f0bd 4e42 d9bc
00000210: 661c c43d 31fa abbd 7289 ac3c 61d1 223d
00000220: e4f3 0dbe 8315 763d fa13 cc3b 852d eabd
00000230: 5738 b5bc 8b1d 69bd 1f46 fdbd 5a3b 1abe
00000240: 66c5 b9bd b21d 41bd b662 abbd 59b6 7a3d
00000250: 9c78 ee3d d623 933c 1c9f dc3d c11f 093e
00000260: ddf3 fc3c 3cde 1dbd 03c3 563e 7284 adbc
00000270: 25a4 513c 3ff4 453d 9fd9 fdbd 9355 5a3b
00000280: cdf1 5a3c e7f4 aa3d 3058 abbb e10f e4bd
00000290: 1764 a1bd 3e57 24bd 81d2 8ebb c824 033c
000002a0: c2e7 123d 92cd 06be 6eda 13bd f7bb 48be
000002b0: 8cb9 abbc 0f4b 113e 8391 8fbc f6e5 d33c
000002c0: 029c da3c 63e2 933c 3523 bdbc 6489 73bc
000002d0: 3b2e fabd ec4b 21be b433 0abd 8b94 a3bd
000002e0: 76a4 1dbd 6f0b 163e 743a aa3c 9bf3 d6bc
000002f0: acee c6bb 8dbe 44be 4fbb 213e 59bd 593b
00000300: 1956 b0bc c5ab 29be c3d5 61bd 0aa9 e03d
00000310: e50f 9fbd 0440 cbbd f42f 95bd 9895 2ebe
00000320: ba9c d63c 7d6c 103e 315e 0cbe ba44 5d3c
00000330: 5674 b5bc 80a5 cc3d c58e f83b 68cd 793e
00000340: 12e7 293e e88e da3c 274d 02bc 147e a13d
00000350: 84e8 1dbe f174 1ebe d0a0 5bbd acf6 adbd
00000360: 9a53 0abc 2616 a0bd 5b80 a83c 07fa 213d
00000370: ae37 323d ecc3 203d 04df cebd 4f1e 37bd
00000380: e695 7abd 34a8 013e 7a59 20be 88a5 b23c
00000390: acab 1d3e b038 67bc 4e91 0cbd 3599 d9bd
000003a0: fc57 c33c 76a6 3cbc f558 b1bd 04e0 233e
000003b0: 8d23 7dbd c44a 573e 7800 c53d 4afe 1cbe
000003c0: ccb8 a43d 50c4 053e 99c7 f0bd 6992 88bd
000003d0: 38b3 11be a403 08be 5483 38bd 2c85 ad3d
000003e0: 6ee9 273d 264a fdbd da37 083e b4cc 2b3d
000003f0: f683 adbd 1046 d23c 02b8 0f3d 74c3 b4bd
-0.043197654 -0.046623025 -0.038282596 0.05003311 -0.14777304 0.18632236 0.07159484 0.06977976
-0.13183412 0.12504756 0.078682475 0.050476015 -0.036698088 -0.102811605 -0.010621725 0.12962832
0.021749191 -0.14411135 0.10379779 -0.17910478 -0.0501936 0.08308275 -0.11630686 -0.16156028
-0.018776834 -0.059438653 0.09897834 0.006466423 0.14001417 0.19854386 0.07164156 0.0714686
-0.03359391 -0.086114444 0.08672933 0.13258779 -0.023960603 -0.053558186 0.035035152 -0.13964291
0.0113463225 0.08379367 -0.021529151 -0.20393437 0.08889752 -0.055735268 -0.1168438 0.093042836
0.037016757 0.078689985 0.21773846 -0.113934346 -0.02733109 0.22571923 0.057284337 0.10788416
0.15027243 -0.0057545826 -0.17206214 -0.039448664 -0.23993294 -0.10633691 0.0469556 0.015876006
0.19281228 0.09406395 0.16507621 -0.08130808 0.06812636 -0.28498945 0.12880132 -0.18159907
0.14324258 -0.1675366 -0.1666872 -0.010035248 -0.10769749 -0.022074802 -0.17835635 -0.14331613
-0.12784103 0.019721624 0.09701566 -0.07899504 0.06635454 0.0041863685 -0.09532051 -0.085090734
0.0944788 0.027815409 -0.039537847 0.14775637 -0.16858071 -0.020648886 0.07666226 -0.028288541
-0.057482414 -0.23022103 -0.05731535 0.15260485 0.2272186 0.12644953 0.04095533 -0.042364284
0.17033441 0.23745167 0.08157083 0.23029523 -0.047657304 -0.15637404 0.082752354 0.076335505
0.054796025 0.01791755 0.0006217045 0.036912248 0.22907846 0.08816404 0.06775809 0.003101571
0.053284243 -0.0753223 -0.19787538 -0.14815418 0.02634212 -0.11429363 0.16478565 -0.044879537
-0.16171017 -0.044923116 -0.11740864 -0.026520874 0.09575729 -0.083973296 0.021061633 0.03975046
-0.13862568 0.06007911 0.0062279673 -0.114344634 -0.022121591 -0.05691294 -0.1236689 -0.15061703
-0.09070854 -0.04714746 -0.08368437 0.061209057 0.11644098 0.017961424 0.10772535 0.1339102
0.030878002 -0.038542017 0.20972829 -0.021181319 0.012795483 0.048328634 -0.123950236 0.0033315166
0.013363314 0.08347493 -0.0052290186 -0.11135841 -0.07880419 -0.040122263 -0.00435859 0.008004375
0.035865553 -0.13164356 -0.036096983 -0.19602953 -0.0209625 0.14188789 -0.01752544 0.02586649
0.026685718 0.018052286 -0.023088077 -0.014864299 -0.12215849 -0.15751618 -0.033740714 -0.07987317
-0.03848692 0.14652799 0.020779826 -0.026239207 -0.0060709324 -0.19213314 0.15794109 0.0033224432
-0.02152543 -0.16569431 -0.0551355 0.10969742 -0.077667035 -0.099243194 -0.07284537 -0.17049253
0.02619778 0.14103885 -0.13707806 0.013505155 -0.0221502 0.09992504 0.007585379 0.24394763
0.16592053 0.026679471 -0.007952965 0.078853756 -0.15420729 -0.15474297 -0.05362016 -0.084943146
-0.008442784 -0.078167245 0.020569017 0.039545085 0.04351013 0.039249346 -0.101011306 -0.04470664
-0.06117811 0.1266182 -0.15659133 0.021807447 0.15397519 -0.014112636 -0.03431826 -0.10624925
0.023845665 -0.011514297 -0.08659545 0.16003424 -0.061801482 0.21024615 0.0961923 -0.15331379
0.0804306 0.13063169 -0.1175682 -0.066685505 -0.14228523 -0.13282639 -0.04504712 0.08472666
0.0409941 -0.12367658 0.13302556 0.041943267 -0.08472435 0.025668174 0.035087593 -0.08826342

encoder.model.weight_hh_l1 f4 [240, 60]
00000000: 115a 943d f599 96bd 6830 a03d 19cd a1bd
00000010: ac3b a2bd 33aa c9bd 96f1 b0bd aaa3 943d
00000020: 9515 f7bc 49cf 10be 446b b5bd 2648 19bd
00000030: a636 0cbe b523 22bd 1bb8 21be 9717 363a
00000040: 4699 e53d 4372 58be 7a45 8cbd 705f c63d
00000050: 662e b0bd 5ece 1d3d 1c62 22bc a0d9 dd3c
00000060: 7b19 2abc d564 473d 0968 713d c253 56bd
00000070: e028 adbd bc43 c63c 24b1 a33d 992f cbbd
00000080: 6081 1bbd 9f2e 0d3d b479 063e bd27 5fbc
00000090: 23f5 993d 907d 1d3e deea 4cbd f5fc 08ba
000000a0: 1b4b c43c facd 873d 7564 18be 1f1d 0a3e
000000b0: 50ef fdbd b8eb 71bd f729 aa3d eb76 13be
000000c0: 6abe 95bd 032f fc3c aec7 e03c 6514 c9bd
000000d0: a433 223d 1c36 17be 4762 6e3d 0824 9dbd
000000e0: 710f 5bbd 624a fabd bd00 86bd 8ede fe3d
000000f0: 1315 923b d254 92bd e816 0ebe d380 673e
00000100: 4617 f23c ef5f a83d 667e 0a3e a458 67bd
00000110: ee2a a1bd 5f61 0bbe c479 3fbd 09ef 0cbe
00000120: 3b70 553e f5c0 b53a 8de8 ccbb 9d31 4fbd
00000130: 000d eb3c 228b 16be ee12 593b 84e2 36be
00000140: a75f 6f3e 6718 3c3e 93f3 353e d334 9f3d
00000150: a69d 313e b9db af3e 98eb 543e 91f5 a63c
00000160: 9dad dabd 6853 5abe 99ec 26bc 8957 fe3d
00000170: 4eb4 c83d 997c 54bc ea50 d63d bff7 d0bd
00000180: 49bb 1a3d aabc 0e3e 45e0 1d3c 81a5 21bd
00000190: 1647 f2bd 38b5 1d3e ceb4 3dbc 3b73 2bbe
000001a0: 06fb a73d f99f a53d d4d7 8bbe e9f5 e6bd
000001b0: 66ca 21be ff8e 493e e2bd e8bc 9aad 21bd
000001c0: 9627 73be e3ba 2cbc db9e 683d b85b b33d
000001d0: 9df6 1e3e 08e0 37be 36d8 13be 5b87 5ebd
000001e0: 7d30 0abb 6593 743d 55db 3abd 67df 413d
000001f0: 391f bfbd 2fc7 a33d 223f 0d3e 9f4c 193c
00000200: 8448 48bd ece1 043b f61e 8d3c 3212 3dbe
00000210: 7b51 503d d475 06be c6cf 01be 8f1c 61bb
00000220: f2e1 953d 47c2 d4ba e661 a03d 9847 dcbd
00000230: 7272 913c 9b38 c5bd 3187 2e3e 2797 673d
00000240: 5201 0bbe f021 303d 68fb 823e b515 ac3d
00000250: 197c 66be 3ca9 00bc 8080 043e 913c 393d
00000260: f06c e03c 26d6 203d e715 1b3e ee10 ccbd
00000270: 1840 a63d 7d20 603d eda8 15be 7ce4 29bd
00000280: cf16 babd ea80 9b3d ba38 413d 2d32 c13d
00000290: 9191 983c fa2c 183e 2266 3fbe 9f59 26be
000002a0: 64f3 163d 0cb4 4d3e fb2c 5bbc 4901 02be
000002b0: ec92 b63b 8729 0fbe 24b3 4bbd e7fe 863d
000002c0: a245 67bd 8fcd edbd 4602 bc3c 272e 9fbd
000002d0: 79fa 043e c00c cfbd 998d 09be f183 8f3d
000002e0: 3b28 47be 12f6 9c3b 1388 063d 4223 96be
000002f0: d492 dbbc ef68 84be 80ab 233d 2f24 de3d
00000300: de7a 913d 0ef1 cabd f5cb 9abc 1b8f b53d
00000310: 7a2b b03c 1a2d a03c 52c3 3a3e b34b 32be
00000320: e9b6 47bd e620 48bd 2cd9 d03d 0a17 acbd
00000330: b133 b8bd f17d eabb b864 e3bd fb0d b7bc
00000340: c7ff b1bc f2cd 96bd 56a7 43bd 21bf acbc
00000350: e472 84bd 19f2 9dbc 7a66 efbd ead6 383d
00000360: 3a81 afbc 82ef 8a3d 6883 e23d 297d b2bd
00000370: 2048 2b3d 3ec9 e83d 283b f33d 6862 d73d
00000380: c9f0 f23d c36d 523e 37d1 8fbd 2f37 813d
00000390: 2916 b1bd 859b 82bc cbd8 363c 13a5 0dbe
000003a0: 0516 31be cc79 82bd 358e 033e defb f5bd
000003b0: c7e5 6c3d 00a8 48bd 828b e3bd b095 a0bd
000003c0: bbd8 d2bc 8832 363c ec96 abbd 8fed 523d
000003d0: 81d2 85bd 4f41 0dbd 4551 04bc d0e3 0f3d
000003e0: a736 2cbe 0d65 583c 6df0 1abd e44b bdbd
000003f0: ad2a 9dbd 3c8c 413d 4542 a2bd 9419 b83d
0.07243741 -0.07353584 0.07821733 -0.079004474 -0.07921538 -0.09846916 -0.08639829 0.07257779
-0.030161658 -0.14141573 -0.0885835 -0.03742232 -0.13692722 -0.039584834 -0.15792887 0.0006946264
0.11210875 -0.21137337 -0.06849189 0.09686172 -0.086026 0.038526885 -0.009911086 0.02708131
-0.010382052 0.048680145 0.058937106 -0.05232597 -0.08455062 0.02420222 0.07992771 -0.09921188
-0.03796518 0.03446829 0.13132364 -0.013620314 0.07517459 0.1537993 -0.050028674 -0.0005225682
0.023961594 0.06631084 -0.14882071 0.13487671 -0.12399161 -0.05906269 0.083087854 -0.14400832
-0.07311709 0.030784136 0.027438965 -0.09818343 0.03960003 -0.14766735 0.058199193 -0.07672888
-0.053481523 -0.12221219 -0.065431096 0.12444793 0.0044580786 -0.071450844 -0.13875926 0.22607736
0.029552113 0.08221423 0.1352478 -0.05648102 -0.07869516 -0.13611363 -0.046746984 -0.1376306
0.20843594 0.001386671 -0.006253308 -0.050584424 0.028692722 -0.14701512 0.0033122855 -0.17859846
0.23376332 0.18368684 0.17768697 0.07773747 0.17345294 0.34347323 0.20792997 0.020380767
-0.10677645 -0.2132088 -0.010188245 0.1241904 0.098000154 -0.0129691595 0.10464652 -0.10203504
0.037776265 0.13939157 0.00963599 -0.039464477 -0.11829965 0.1540116 -0.011578752 -0.16743176
0.08202176 0.08087153 -0.273131 -0.112773724 -0.15799865 0.19683455 -0.028410856 -0.0394722
-0.2374557 -0.010542604 0.05679212 0.08757728 0.15523763 -0.17956555 -0.14437947 -0.054328304
-0.002108603 0.05971088 -0.045619328 0.047332194 -0.09332127 0.07996976 0.13793615 0.009356647
-0.04889728 0.0020276261 0.017226677 -0.18463972 0.050858956 -0.13130885 -0.12676916 -0.0034349298
0.07318486 -0.0016232216 0.07831173 -0.10755843 0.017754767 -0.09629937 0.17043759 0.056540634
-0.13574722 0.043001115 0.25582433 0.08402578 -0.22508277 -0.007852849 0.12939644 0.045223776
0.027395695 0.039266728 0.15145074 -0.099641666 0.08117694 0.054718483 -0.14615221 -0.041477665
-0.09086382 0.07592948 0.04717324 0.094333984 0.018624099 0.14860907 -0.18691304 -0.16245125
0.03685321 0.20088214 -0.013377423 -0.12695803 0.0055717137 -0.13980685 -0.04973139 0.065915875
-0.05646289 -0.11611473 0.022950303 -0.07772475 0.12986173 -0.10109854 -0.13432921 0.07007588
-0.1944894 0.004790076 0.032844614 -0.29323775 -0.026803412 -0.25861308 0.039958477 0.10846745
0.07103513 -0.09909259 -0.018896082 0.08865186 0.021505106 0.019552756 0.18238571 -0.1741169
-0.04875842 -0.0488595 0.10197672 -0.08402832 -0.08994234 -0.0071561267 -0.11103195 -0.022345534
-0.02172841 -0.073635 -0.047767006 -0.021087231 -0.06467226 -0.01928048 -0.11689468 0.045126833
-0.021423925 0.06783964 0.1106022 -0.08715279 0.04181683 0.11366509 0.118765175 0.105168164
0.118623324 0.20549683 -0.070223264 0.063093536 -0.08646805 -0.015943298 0.011160086 -0.13832502
-0.17293556 -0.06370887 0.12847216 -0.120109305 0.05783632 -0.048988342 -0.111105934 -0.078410506
-0.02573811 0.011120446 -0.083783954 0.051496085 -0.06534291 -0.03448611 -0.008076017 0.03512937
-0.16817723 0.013207686 -0.037826944 -0.092429906 -0.076741554 0.04725288 -0.07922796 0.08989254

encoder.model.bias_ih_l1 f4 [240]
00000000: 4d1f e63c 1410 313d a2e8 353e 801f 843d
00000010: bba6 c03d 8b63 403d a20d c73d d9a9 8e3d
00000020: fd3e b63e 86ea 6c3d 3dd6 873d 3ef6 763e
00000030: a0b2 043e 292e 293d 2b1e 2b3e 3872 cf3d
00000040: df1a 8b3d dada 2c3f 27f0 acbd c658 99bd
00000050: 79ab a03d c11a 073d af87 bebc 79cf 593e
00000060: f889 eb3e 4100 513e 0a54 83bd 12a0 fd3d
00000070: 8f43 493d f0b9 af3c bd62 5c3e 285f 803d
00000080: 56d0 173e f8c4 adbc b107 3e3c 1a1c f0bd
00000090: 5d31 5d3f e247 1a3d 1569 aa3d 07de 843d
000000a0: eceb 95bd 3dae fd3e 6d59 7b3e 395e 283e
000000b0: f621 c9bb 6500 64bd 3870 253e 9add b0bd
000000c0: 2c20 4cbd 8c79 d8bd 20fc df3d 5862 8f3d
000000d0: bf1d 383d 2df1 fa3e a658 4f3d b3aa 9c3d
000000e0: 3346 18be d036 0b3e 17c8 2d3e c309 ca3d
000000f0: aeeb a9bd b6bf d2bd 310b ee3d 7036 903d
00000100: cc5a c3bd 6bd6 183e 5ac7 c3bd f4eb a53c
00000110: f69f 2abd 32a6 f9bd e2fa a0bd 52da 0a3e
00000120: 53f7 42bd 72da 593d 4490 84bd 9dfa 0cbd
00000130: a6fc b2bd 0306 e5bd 4669 0dbd d4be 353c
00000140: 5c67 cebd 8ed3 d93d 1bd3 aebd 417c 823d
00000150: 3420 95bd ca8b c83d 0760 2a3d 3358 8b3d
00000160: c7b7 583d 38e6 f6ba 724d 6dbc c9e2 e0bc
00000170: e5a4 e8bc 1270 05be 3e78 30be 5de9 29bd
00000180: 23bd 2cbe a0b0 56be 1db7 c5bd 57aa be3a
00000190: f877 80bc 7b11 78be 2fbd 773d e2cf 533d
000001a0: ec9a cabd a4bd 30be 5e0a 313c 5b17 c23d
000001b0: 339a 31bd 7270 9d3d 0513 58bd dbe7 25be
000001c0: 0b93 f53d 9699 83be 6fae e5bd 40d7 bcbd
000001d0: 6e0f 2bbe 2e08 e8ba b02d 2cbd b85d bc3d
000001e0: 9401 833d 5728 37bd 7113 00be 64b3 0b3e
000001f0: bd07 6c3c d09e 063e 7189 173e 529c c9bd
00000200: be46 81bd 93ee e5bd d562 2bbd abb1 1e3d
00000210: cc4c bfbc 04d0 89bd 0808 1dbd a951 a1bb
00000220: d0fd 8b3d f399 3dbe 7468 a73d 85b1 acbd
00000230: d0d0 903d bb44 d23c 11c5 7bbd 4267 133c
00000240: d29e febc ca10 143e f430 82bd 0d60 a1bc
00000250: 6f11 6e3d 41d8 20bc 7aed 183d 1847 a13d
00000260: 884a 64bd 88f3 30bd a70a 983d 45b4 94bd
00000270: d741 843e 3c99 343e 504d 30bd 6a57 643d
00000280: 30d4 f3ba 88f9 423e 478c f1bd 6339 06bc
00000290: 7864 fcbd 9022 853d a441 d4bd 9aec 3abd
000002a0: 5249 fbbd cd64 8bbc 9516 e3bd d42b 18bd
000002b0: bbc1 d23d 5daf 80bd a39a 753d e559 6d39
000002c0: 09e0 a53d 9e29 89bd d930 84bb 4b44 e6bd
000002d0: 6ae7 80bd d007 f13d 4425 203e a2db 713e
000002e0: 2dcb 7ebd b001 14bd 9f7e f13d fd24 983d
000002f0: 1378 d33e 073d f0bc 4157 83bd 0e79 093d
00000300: 7822 40bd 17d9 103e 1910 4c3e db21 ff3d
00000310: 5ddf 64bd 5693 ef3e cea2 a1bd 445c ebbd
00000320: 26a8 743d 23f2 b5bc d064 e83d ea15 423e
00000330: e616 7a3e de65 1b3c 8f7c 973d eaaf 24bd
00000340: 5458 18bd aa54 6f3d 7c8e c23d 098d a5bd
00000350: 66c6 f63d 03cd 123e 54cd 2dbd b4e3 34bd
00000360: 1dc2 733f 780f 7e3d 238a 07be 41a7 ee3d
00000370: 19e1 6abc a23d fc3e d158 033d c810 2d3d
00000380: a7a3 053e ff84 dc3d c99a 373c 853e bf3d
00000390: c9d5 2d3e aa38 553c ccbb ba3d 8e06 133d
000003a0: bb7b 9ebd 2e7d bc3e 6304 d1bc b31b 66bd
000003b0: 386d 9f3d 037a 82bd 8912 be3d b0b6 783d
0.028091097 0.043228224 0.17764524 0.06451321 0.09406801 0.04696993 0.09719397 0.069659896
0.3559493 0.057840846 0.066326596 0.24117371 0.12958765 0.041303787 0.16710727 0.101292074
0.06792235 0.6752144 -0.08444243 -0.07487635 0.07845206 0.0329845 -0.023258058 0.21270551
0.460037 0.20410253 -0.064125136 0.123840466 0.049136695 0.021450967 0.2152204 0.062681496
0.14825568 -0.021212086 0.011598513 -0.1172411 0.8640345 0.03766621 0.08320824 0.06487661
-0.07320389 0.49546996 0.24545832 0.16442193 -0.0061380817 -0.05566444 0.1615609 -0.08636017
-0.04983537 -0.10570058 0.10936761 0.070011795 0.044950243 0.49012128 0.05062165 0.07649746
-0.14870529 0.13595128 0.1697086 0.09865143 -0.082969055 -0.10290472 0.11623228 0.07041633
-0.095388025 0.14925544 -0.09559508 0.020254113 -0.041656457 -0.12189902 -0.07860352 0.13559845
-0.047599148 0.05318684 -0.06472829 -0.03441869 -0.08739595 -0.11182787 -0.034524225 0.01109286
-0.10078308 0.10636054 -0.08536359 0.06371356 -0.07281533 0.09792288 0.041595485 0.06803932
0.05290964 -0.0018836921 -0.014483796 -0.02745189 -0.02839894 -0.13031033 -0.17233369 -0.04148232
-0.16869025 -0.20965815 -0.09654067 0.0014546615 -0.015682206 -0.24225418 0.060483154 0.051711924
-0.0989283 -0.17259842 0.010805694 0.09477111 -0.043359946 0.07687463 -0.052752513 -0.16201727
0.11990937 -0.25703114 -0.11214911 -0.09220743 -0.16705105 -0.0017702633 -0.04203576 0.09197563
0.063967854 -0.044716205 -0.12507416 0.13642651 0.014406142 0.1314652 0.14798523 -0.09844269
-0.06312321 -0.11227145 -0.0418423 0.038743656 -0.02335205 -0.06729129 -0.038337737 -0.0049230647
0.0683552 -0.18515758 0.0817422 -0.08432297 0.07071078 0.025667539 -0.061467234 0.008996787
-0.03108159 0.1445953 -0.06356993 -0.01969912 0.058122095 -0.009817184 0.03733585 0.07874888
-0.05573514 -0.043201 0.07423907 -0.07260946 0.25831482 0.1763658 -0.04304248 0.055747427
-0.0018602666 0.19040501 -0.11794334 -0.008192393 -0.123238504 0.06500733 -0.103640825 -0.045635797
-0.12269844 -0.017015839 -0.110882916 -0.037151173 0.102908574 -0.06283448 0.059961926 0.0002263557
0.08099372 -0.06697391 -0.0040341434 -0.112434946 -0.06294139 0.11769068 0.15639216 0.2361894
-0.062205482 -0.03613442 0.11791729 0.0742893 0.41302547 -0.029325975 -0.06413127 0.033562712
-0.046907872 0.14145313 0.19928016 0.12457629 -0.05587708 0.46792096 -0.07892381 -0.11492208
0.05973067 -0.022210186 0.113473535 0.18953672 0.24422798 0.009484736 0.073968045 -0.040206827
-0.03719361 0.05843035 0.09499833 -0.08083541 0.1204956 0.14336018 -0.042432144 -0.044162467
0.9521807 0.06202647 -0.13236289 0.11652995 -0.014335894 0.49265772 0.032067124 0.042252332
0.1305071 0.107675545 0.011206337 0.093380965 0.16976084 0.013013998 0.09117851 0.035894923
-0.077384435 0.36814255 -0.025514787 -0.05617876 0.07784504 -0.06370928 0.09280879 0.0607211

encoder.model.bias_hh_l1 f4 [240]
00000000: 9f75 283e 6c49 fa3d 71a6 443d 7cfb ac3d
00000010: 4c3a 0dbd 4efa 873d f575 633d 98f0 e33d
00000020: eb73 f33e 2641 2abc 943a e23d 2785 773d
00000030: 087d ba3d 30a2 053e d884 713e 8d30 c03d
00000040: 632e 943d 6623 f03e 03c6 05be 45b4 17bd
00000050: 67a5 24bc f31c fcbc 3272 093e 9eb6 663e
00000060: ce52 e43e a967 4a3e f875 c73c e395 133d
00000070: f9d2 2f3e 45dc 0e3e 88bc a23d f674 833c
00000080: c331 893e cc6e 333e 375b 45bd 9a8b 743d
00000090: 86ee 6d3f 8366 133e 70c9 bb3d 6e4e 2c3e
000000a0: 1d8d b4bd 0c75 0b3f 936a 343d 88e6 1e3e
000000b0: eda1 8cbd 29a0 653d 7888 d83b 7146 073e
000000c0: 4fd1 863d 51e4 c2bd 7a57 953a 7335 8a3d
000000d0: 6f73 29bd 9046 f03e b36b c83d e8b8 0d3e
000000e0: 682f e23b 7e0b 9c3d 3c02 2a3e 5a9e f33d
000000f0: bb83 d2bc 3601 e9bd fe2c 753d ba2c 903d
00000100: 99f5 de3c 8430 953c e172 78bc c79c 3e3d
00000110: b710 4bbd b835 4a39 e6bd 733c fee5 e33d
00000120: 2cd3 743d 29aa 313d b41f 70bc 1d2a aa3d
00000130: ded9 aabd b626 9bbe 76c3 d4bd 5e4b 4a3d
00000140: 1faa 9dbd a09c 653b 3256 20bc e29f 1a3d
00000150: 65d3 27be 7e3a cb3d 6ef4 f03d ee15 68bd
00000160: db90 d4bd 9826 ffbd 9473 863c 5a0f 35bd
00000170: c7ae c8bd c9c9 533c c517 b4bc 9aa3 70be
00000180: ec61 acbe 50e2 ccbd 18be 32bc b3e4 23bc
00000190: 5a75 3e3d 1a7f bdbd dd2c e43d 675d e6bc
000001a0: bfde 9dbd 51db 32be e66c 11bd 8ad6 ff3d
000001b0: 4170 af3c 7dc7 e53d 3b04 89bb ba08 99bc
000001c0: 0248 e2bd 2410 0ebe de37 93bd 5b09 2abd
000001d0: 8f33 22be 7c2e 4abd 8a28 0c3b 7d29 003d
000001e0: 3137 593e 7c83 01bd 8af4 d43c 930b 123e
000001f0: c8af d4bd 4cb8 27bd a343 da3d bb02 95bd
00000200: 0cb6 2cbe 6416 d03a b95b 823b 4221 653d
00000210: 7416 aebb 7319 15bd 78ee 2dbe b73f a4bc
00000220: ed3b 443e 212c 43bd 47b9 243d a60a 10be
00000230: 66ee 373e 7cd8 b23d ff3d bebc cb0f 18be
00000240: 4250 fdbc 1f27 12bd 761f 563d 8c89 04be
00000250: 8e16 1dbe 3bb9 9ebd 49e7 b7bd 2771 843b
00000260: 15fc d13c 80bf 543d 4f33 5b3d ad03 773d
00000270: 0195 033e 71aa 09bd f03a e4bc d019 1cbd
00000280: eba9 093d d526 bd3d 33d7 223d 68f5 6fbd
00000290: 9e47 343d 90e5 213e dcc8 0dbe 3c85 853d
000002a0: 263c 99bd e271 b93d 05e9 6b3c 9397 18bd
000002b0: 5127 593c bdd7 23be ff95 573d d96c 78bd
000002c0: e499 48bc 028e 2fbc 2016 ddbd 8f1f 853d
000002d0: ed52 383e c4aa 3d3e 911c cc3d b1fd 2c3e
000002e0: ac33 52bd d920 553d fab3 aabd f36a 3e3d
000002f0: 7cec d53e d3b0 0d3d bb49 f33b 6131 333d
00000300: 67bc e13d 0879 b23d 581d 073e d9e4 9a3d
00000310: ddfe a0bd 5e8c da3e 6f92 d3bc 8c6a 8bbd
00000320: 248b 20bd c894 103e f66c 7c3d 59ae 373e
00000330: 2da1 ec3e c1fc 21bd 121a eb3d 6c74 2d3d
00000340: 54a8 0a3e 19b5 08bd ed3b a03d 86f4 06bc
00000350: ee20 96bd 6384 fbbc 1aa4 773d 3e7f e9bc
00000360: cb1d 623f afdc 2c3d 0150 21bd 472a 003b
00000370: 112d e0bd 57ff 313f 79e1 543e 43d7 623e
00000380: c698 8ebc aea1 e93c 5f57 82bd 6cb1 603d
00000390: edea 263e e7c8 08bd fb7a 74bb 6f77 4bbd
000003a0: 81d5 ff3c 3fde b83e c8a7 353a d90b 76bd
000003b0: 3d67 6f3d b582 0f3e 0e61 533e 42f8 913d
0.16451119 0.12221035 0.048010293 0.08446404 -0.034479424 0.06639539 0.055532414 0.11129874
0.47549376 -0.010391509 0.11046329 0.06042972 0.09105879 0.13050151 0.23585832 0.0938426
0.0723541 0.46902007 -0.13063817 -0.037037153 -0.010049201 -0.030775523 0.13422468 0.225306
0.44594425 0.19766106 0.024348244 0.036031615 0.17170323 0.13951214 0.07946116 0.016046982
0.26795778 0.17522734 -0.048182692 0.059703447 0.9294208 0.14394574 0.091692805 0.16826794
-0.08815978 0.54475474 0.04404695 0.15517628 -0.068668224 0.056060944 0.006608065 0.13210465
0.06582891 -0.09516204 0.0011393868 0.06748476 -0.04136985 0.46928835 0.09786167 0.13840067
0.006902624 0.076193795 0.16602415 0.118954375 -0.02569758 -0.11377184 0.05985736 0.07039781
0.02721672 0.01821161 -0.015164108 0.046536233 -0.049576487 0.00019284233 0.014876818 0.11127852
0.0597717 0.043375168 -0.014655996 0.08308814 -0.08342336 -0.30302972 -0.10388844 0.049388282
-0.07698464 0.0035035983 -0.009786176 0.037750132 -0.16389234 0.09923266 0.11765371 -0.05666154
-0.103791915 -0.12458533 0.016412534 -0.044204094 -0.09798961 0.012926527 -0.02198399 -0.23499909
-0.33668458 -0.10004103 -0.01090958 -0.010003257 0.046498634 -0.09252758 0.111413695 -0.02812071
-0.07708501 -0.17466475 -0.035504244 0.12492092 0.021415832 0.1121969 -0.0041814125 -0.018680919
-0.11048891 -0.13873345 -0.0718839 -0.04151283 -0.1583998 -0.049360737 0.0021386468 0.031289566
0.2121246 -0.031619534 0.025995512 0.14262228 -0.1038509 -0.040947244 0.10657432 -0.072759114
-0.1686632 0.0015875814 0.0039782193 0.05593992 -0.005312735 -0.036401223 -0.169855 -0.020049913
0.19163485 -0.047649506 0.040215757 -0.14066562 0.17962036 0.08732697 -0.023222921 -0.14849775
-0.030922059 -0.03568184 0.052276097 -0.12943095 -0.15340635 -0.07750174 -0.08979661 0.004041809
0.025632897 0.05194044 0.05351573 0.06030624 0.12849809 -0.03360981 -0.027860135 -0.038110554
0.033609312 0.09235922 0.03975601 -0.058583647 0.044013612 0.15810227 -0.13846153 0.06519553
-0.074821755 0.090549245 0.014398818 -0.037253927 0.013254003 -0.16000266 0.05263328 -0.06065068
-0.012243722 -0.01071501 -0.10795236 0.0650016 0.18000384 0.18522173 0.09966386 0.1689365
-0.05131881 0.05203328 -0.08335109 0.046488713 0.41781986 0.03459246 0.007424561 0.043748263
0.11022263 0.08714491 0.13194788 0.075631805 -0.07861111 0.42685217 -0.02582666 -0.068074316
-0.039195195 0.14119256 0.06162735 0.17937602 0.46216717 -0.039547686 0.11479582 0.042347357
0.13540775 -0.033375833 0.0782393 -0.00823701 -0.073304996 -0.030702775 0.060459234 -0.028503057
0.8832671 0.042202648 -0.03938294 0.001955645 -0.10946096 0.6953024 0.20789136 0.22152428
-0.017406832 0.028519478 -0.06364321 0.054856703 0.16300555 -0.03339472 -0.0037304747 -0.049674448
0.031229736 0.3610706 0.00069296034 -0.060069893 0.058448065 0.14014705 0.20642492 0.071274295
