models/20200923_181657/epoch_0200_loss_442185.39754.pt (torch, 801233 bytes, 96 tensors)

encoder.model.weight_ih_l0 f4 [240, 3]
-0.07235167 -0.020605728 0.06594982 0.12209582 -0.2464436 0.060093693 -0.05055441 0.109283336
0.40755194 -0.03922039 0.14257272 -0.17370267 0.0067380634 0.07809238 0.0028495016 -0.10417101
0.05458966 0.050567433 0.07845323 -0.042618193 -0.046715956 0.09598371 0.07626734 0.07283257
-0.12033091 0.07788097 0.28689983 0.24745771 0.12769452 0.22197676 -0.04562886 0.0071697957
-0.0065332702 0.08965952 -0.08440438 -0.018047996 0.02788934 0.041880794 0.2931315 0.22061433
0.083592474 0.13535489 -0.019878529 -0.10631946 -0.1021218 -0.0012252983 -0.011630124 -0.0048841517
-0.0335628 0.070446 0.07611929 -0.07130805 -0.1916334 0.044977657 -0.22761604 -0.254694
-0.07672931 -0.07595678 -0.04291381 0.031817883 -0.014965307 0.12515919 0.014772042 -0.00021910231
0.07597359 0.023448441 0.051539883 0.14691296 0.28421307 0.022100974 0.16892262 0.17789795
-0.036034163 -0.06875279 0.13098037 0.037623674 0.15353619 0.03213431 0.08217379 0.21954209
-0.024879614 0.055655174 -0.05354353 -0.0069567543 0.10319063 -0.047567096 -0.066815555 -0.077638835
0.120428085 -0.1140776 0.038303174 0.008099291 0.062449288 0.03855045 -0.10996936 -0.15775917
0.0013483696 -0.14348812 0.021434344 -0.099338144 -0.04881193 -0.05779716 -0.053833917 -0.023618601
0.06060942 -0.099783555 0.06519291 0.060851682 0.024321401 0.017360497 0.026958838 -0.053570446
0.112993434 0.14572608 -0.023611087 0.1259839 -0.0035856278 0.14377514 0.009794935 0.11418326
0.016430954 0.057666127 0.12890205 0.024563158 -0.05495238 0.001589288 -0.025592413 0.11232221
0.41101837 -0.120243296 0.08944629 0.01823512 0.0026459135 0.12394208 -0.02151774 0.07830458
0.016785335 -0.04470142 0.025283173 -0.053454082 0.04084911 0.095025726 -0.08830658 0.0061465898
0.080998555 0.11194703 0.049518228 -0.01275258 0.010419952 0.027997743 -0.18035649 0.14571674
-0.19331972 0.04770274 -0.07398765 0.1809006 -0.119419046 0.12864739 0.059168715 0.02239369
0.038144913 -0.12324908 0.012833259 -0.21803597 0.10581007 -0.03811927 -0.01328509 0.012518772
0.0007748937 -0.024947884 0.018647129 -0.0032785388 0.15249714 0.19954516 -0.08577363 0.13524508
0.16057341 0.028598867 -0.14965011 -0.065510556 0.1049547 0.066939294 0.023644147 0.09783929
0.004734986 -0.15095069 -0.17370795 0.018349875 0.0554598 0.06376585 -0.13978447 -0.0012159531
-0.062805995 0.109027125 0.06876468 -0.13777497 -0.0458361 0.02166139 0.09932928 0.111608274
0.04913878 0.11009372 0.18044053 0.16546397 -0.20660484 -0.035846464 -0.01748494 0.23444475
-0.11464736 0.046757165 0.029597266 0.10606668 -0.10574877 -0.05978632 -0.04351144 0.037518203
0.14100425 0.15746659 0.13240826 0.2082317 0.027349405 0.065997764 -0.011293495 -0.1186334
0.07698041 0.055097613 -0.16746487 -0.077251926 0.06473064 0.10486455 0.23325384 -0.011258729
-0.21379472 0.058355473 0.050209563 -0.1345049 0.101006664 -0.13139896 -0.026241533 -0.05687639
0.0588084 -0.01574732 0.10656719 -0.084993094 -0.019447772 -0.080173634 -0.007996699 0.0762781
0.34369114 -0.018029295 0.0447735 0.23127115 -0.08074842 -0.12392793 -0.016239516 0.21164228
00000000: 1d2d 94bd 58cd a8bc b310 873d 600d fa3d
00000010: b65b 7cbe ce24 763d 2412 4fbd f1cf df3d
00000020: a6aa d03e 8fa5 20bd 95fe 113e 1ddf 31be
00000030: f9ca dc3b e6ee 9f3d b4be 3a3b 9c57 d5bd
00000040: 6899 5f3d cc1f 4f3d 16ac a03d 6a90 2ebd
00000050: 3b59 3fbd 1b93 c43d 0d32 9c3d 3e29 953d
00000060: 0d70 f6bd 0f80 9f3d 89e4 923e 8e65 7d3e
00000070: 5ac2 023e e04d 633e 54e5 3abd 9bf0 ea3b
00000080: 0b15 d6bb 699f b73d 34dc acbd 64d9 93bc
00000090: 2f78 e43c 328b 2b3d 5515 963e b9e8 613e
000000a0: 8832 ab3d 799a 0a3e 4cd8 a2bc 04be d9bd
000000b0: 3c25 d1bd 309a a0ba 478c 3ebc 3c0b a0bb
000000c0: 2679 09bd fe45 903d 6ee4 9b3d f409 92bd
000000d0: 8c3b 44be 7e3a 383d 2e14 69be 4167 82be
000000e0: 4224 9dbd 3a8f 9bbd 64c6 2fbd 7853 023d
000000f0: 0c31 75bc bb29 003e 6f06 723c d4be 65b9
00000100: 0b98 9b3d f216 c03c 7c1b 533d 5a70 163e
00000110: 6084 913e 1a0d b53c 0dfa 2c3e e12a 363e
00000120: 8f98 13bd 43ce 8cbd b81f 063e 481b 1a3d
00000130: 9738 1d3e 449f 033d bb4a a83d a4cf 603e
00000140: 55d0 cbbc aef6 633d 7650 5bbd 7cf5 e3bb
00000150: 9c55 d33d b7d5 42bd 98d6 88bd 1c01 9fbd
00000160: 00a3 f63d 84a1 e9bd cae3 1c3d e3b2 043c
00000170: d3ca 7f3d 14e7 1d3d 9e37 e1bd 9f8b 21be
00000180: c7bb b03a 8dee 12be 1497 af3c cc71 cbbd
00000190: 05ef 47bd b7bc 6cbd f480 5cbd cc7b c1bc
000001a0: 9541 783d 525b ccbd dc83 853d 9d3f 793d
000001b0: ad3d c73c 9a37 8e3c c8d8 dc3c af6c 5bbd
000001c0: 1a69 e73d 3839 153e 0a6c c1bc ec01 013e
000001d0: dafc 6abb ca39 133e ef7a 203c ead8 e93d
000001e0: 359a 863c 5133 6c3d e6fe 033e ad38 c93c
000001f0: bf15 61bd a84f d03a 2ea7 d1bc 3009 e63d
00000200: 0071 d23e 1e42 f6bd 9e2f b73d d261 953c
00000210: 1067 2d3b 58d5 fd3d f945 b0bc 275e a03d
00000220: 6681 893c d618 37bd a81e cf3c abf2 5abd
00000230: 6551 273d d99c c23d 15da b4bd 5569 c93b
00000240: 92e2 a53d 7c44 e53d a0d3 4a3d 33f0 50bc
00000250: 72b8 2a3c 865b e53c 5faf 38be c536 153e
00000260: 9bf5 45be f363 433d d686 97bd 023e 393e
00000270: f991 f4bd 24bc 033e e55a 723d f972 b73c
00000280: d73d 1c3d 036a fcbd 9742 523c d244 5fbe
00000290: f3b2 d83d f422 1cbd b5a9 59bc 891b 4d3c
000002a0: 3c22 4b3a 815f ccbc ddc1 983c c1dc 56bb
000002b0: 3628 1c3e 9155 4c3e 16aa afbd b07d 0a3e
000002c0: 5b6d 243e 2c48 ea3c e13d 19be 662a 86bd
000002d0: 7df2 d63d 7817 893d 5fb1 c13c f75f c83d
000002e0: f127 9b3b d192 1abe 7fe0 31be 7a52 963c
000002f0: d129 633d ac97 823d a923 0fbe 9e60 9fba
00000300: 6ea0 80bd 9d49 df3d 7fd4 8c3d e214 0dbe
00000310: a2be 3bbd 3a73 b13c 266d cb3d e192 e43d
00000320: bf45 493d d178 e13d 67c5 383e 636f 293e
00000330: 3890 53be bed3 12bd 943c 8fbc 4912 703e
00000340: 3ccc eabd 7184 3f3d f775 f23c 7d39 d93d
00000350: d092 d8bd 80e2 74bd 0d39 32bd b0ac 193d
00000360: 6b63 103e ec3e 213e 0896 073e b13a 553e
00000370: dc0b e03c d629 873d 5a08 39bc 11f6 f2bd
00000380: e8a7 9d3d 09ae 613d e97b 2bbe 4236 9ebd
00000390: 7f91 843d 3ac3 d63d 18da 6e3e 8876 38bc
000003a0: 01ed 5abe 2606 6f3d 8ba8 4d3d a7bb 09be
000003b0: 95dc ce3d 738d 06be 7cf8 d6bc 38f7 68bd
000003c0: 14e1 703d 8600 81bc e63f da3d dc10 aebd
000003d0: ef50 9fbc 1332 a4bd 9604 03bc b137 9c3d
000003e0: 49f8 af3e 2cb2 93bc 6b64 373d 58d2 6c3e
000003f0: 6d5f a5bd edcd fdbd bc08 85bc c1b8 583e

encoder.model.weight_hh_l0 f4 [240, 60]
0.032970913 0.020585941 0.010328836 0.06340422 0.14952873 0.14294039 0.13048248 -0.025132889
-0.026875153 -0.077982485 0.103718676 -0.02913352 0.05844427 0.057304908 0.017929247 0.059940938
0.04504267 0.034346454 -0.10500116 0.057854842 -0.08612647 -0.17789935 0.18741003 0.072783455
0.07366474 -0.08339279 -0.035578072 0.08356982 0.13234943 -0.05565643 0.081387356 -0.07097523
-0.045323957 0.07018461 0.117407106 0.051681954 0.1976615 -0.059452854 -0.05553321 -0.05367089
0.025473911 0.01692513 0.083468124 -0.015939781 0.12698655 0.13078141 -0.15937783 -0.05503003
0.07288493 -0.18346933 0.10691793 -0.07840828 0.047999993 0.1554702 0.017609198 0.13869026
-0.08242215 0.043019354 -0.024747338 -0.13861805 -0.041793056 -0.012233943 -0.22185153 0.0034951027
0.019820083 -0.08469195 0.12274267 -0.038869906 0.023050554 0.09011487 -0.115521684 -0.08174159
0.020764764 -0.06890148 -0.032665342 0.1365647 0.06689041 -0.004327876 0.042741153 -0.101599485
-0.15453933 -0.012108628 0.042253446 -0.14697494 -0.036607794 0.08117486 0.008232882 0.040701684
-0.04807371 -0.045218978 0.023881488 0.041824095 -0.14439297 0.0882918 0.19470492 0.011476581
0.1400874 -0.05544942 0.032132227 -0.09260985 -0.08161932 0.07456259 -0.08824171 -0.14814311
-0.01244936 0.035168763 -0.12609829 -0.1044458 0.11690508 -0.043543503 0.16727789 -0.08614348
-0.05108165 -0.01903638 -0.12473733 0.101054296 -0.06573175 0.09655266 -0.004605991 -0.08545558
-0.14015594 -0.20111431 -0.0794186 -0.2017023 0.17041337 -0.12777708 0.14372742 0.019154478
-0.068434514 -0.23955707 -0.3428519 -0.173953 0.20250142 -0.1896193 -0.21461634 0.31848162
0.0068236818 -0.37882748 -0.21709265 -0.079725884 0.020720765 0.05632017 -0.04873506 0.10407387
-0.07196618 0.3130401 -0.08651654 0.107149236 0.21480662 0.20431061 0.040779226 0.108381204
-0.23023014 -0.3653521 0.12501448 0.25346643 0.147546 -0.15299253 -0.35798833 0.21479948
0.2556503 0.3257659 0.23816589 -0.34343264 0.28150064 0.22899845 -0.11759915 0.31499028
0.17352425 -0.10843648 0.25765425 -0.0029214066 0.1471451 0.18728536 -0.119419664 0.082223475
0.20446339 0.262088 0.16724725 -0.3514756 -0.02160624 -0.023736637 -0.049121737 -0.05885438
0.01653812 0.00029489005 -0.043361217 -0.120292194 0.12543178 -0.13381699 0.19108447 -0.050407927
-0.08934774 0.04191052 0.067012556 -0.074151784 -0.059184585 -0.1513254 0.07345014 -0.0864657
-0.06376902 -0.039530046 0.012871953 -0.0045419894 -0.019272814 -0.01732973 -0.036708225 -0.0988733
0.16073409 0.07726459 0.10022505 0.04872377 0.030417843 -0.0017774418 0.12443034 -0.086568095
-0.01695517 0.0067489715 -0.09423099 -0.008125355 -0.017712709 0.16542345 -0.012607129 0.11696093
-0.017455881 0.13691731 0.048521508 0.10147828 -0.001047917 -0.18705702 -0.012427288 0.11656552
0.112934485 0.061865725 -0.022385161 -0.047576558 0.065290146 -0.004497137 0.13012947 -0.044892423
-0.20187397 -0.22385478 -0.105788015 -0.13153075 0.10130582 -0.14727262 -0.07035374 0.14493869
-0.08734855 -0.28378457 0.011620778 0.0016875981 0.14729452 -0.07094256 -0.20887297 -0.01180923
00000000: 820c 073d d9a3 a83c 473a 293c 12da 813d
00000010: 0f1e 193e f75e 123e 339d 053e 7de3 cdbc
00000020: 4829 dcbc 48b5 9fbd 756a d43d 6ba9 eebc
00000030: 4263 6f3d 8db8 6a3d 5be0 923c a184 753d
00000040: aa7e 383d deae 0c3d d90a d7bd 33f9 6c3d
00000050: 1363 b0bd 3f2b 36be 6ae8 3f3e 7e0f 953d
00000060: 8add 963d d7c9 aabd 50ba 11bd a726 ab3d
00000070: 9c86 073e fff7 63bd 6aae a63d 765b 91bd
00000080: 9da5 39bd f3bc 8f3d 2373 f03d 75b0 533d
00000090: c767 4a3e d684 73bd cb76 63bd 02d6 5bbd
000000a0: aaae d03c 92a6 8a3c 56f1 aa3d 2594 82bc
000000b0: c308 023e 90eb 053e f133 23be 2b67 61bd
000000c0: b244 953d 62df 3bbe caf7 da3d 8594 a0bd
000000d0: a49b 443d 9533 1f3e 2a41 903c d204 0e3e
000000e0: f2cc a8bd 1035 303d eeba cabc e4f1 0dbe
000000f0: 322f 2bbd e070 48bc 0c2d 63be 180e 653b
00000100: ba5d a23c f972 adbd 8260 fb3d 0d36 1fbd
00000110: 84d4 bc3c 258e b83d a296 ecbd 2268 a7bd
00000120: de1a aa3c 381c 8dbd 18cc 05bd 9ed7 0b3e
00000130: d7fd 883d dbd0 8dbb 5911 2f3d 6413 d0bd
00000140: 8f3f 1ebe 4463 46bc f311 2d3d 9980 16be
00000150: 0ef2 15bd 013f a63d 36e3 063c cfb6 263d
00000160: f0e8 44bd 8937 39bd 1ca3 c33c be4f 2b3d
00000170: c0db 13be 55d2 b43d ba60 473e 4508 3c3c
00000180: 1273 0f3e ee1e 63bd 159d 033d 3caa bdbd
00000190: 0828 a7bd 45b4 983d 12b8 b4bd d4b2 17be
000001a0: 67f8 4bbc 1f0d 103d e91f 01be aee7 d5bd
000001b0: ee6b ef3d ac5a 32bd e54a 2b3e fe6b b0bd
000001c0: fe3a 51bd 2ff2 9bbc 4976 ffbd 8ef5 ce3d
000001d0: 5e9e 86bd 67bd c53d daed 96bb 5603 afbd
000001e0: 0a85 0fbe e9f0 4dbe 38a6 a2bd 0c8b 4ebe
000001f0: d880 2e3e ffd7 02be 482d 133e dae9 9c3c
00000200: 6527 8cbd 734e 75be 498a afbe bc20 32be
00000210: 885c 4f3e 902b 42be 63c4 5bbe 0610 a33e
00000220: 3199 df3b adf5 c1be 894d 5ebe 5347 a3bd
00000230: 98be a93c fbaf 663d 6a9e 47bd ae24 d53d
00000240: 0163 93bd cb46 a03e 952f b1bd 0f71 db3d
00000250: 44f6 5b3e cd36 513e 1e08 273d f7f6 dd3d
00000260: 73c1 6bbe 6e0f bbbe cc03 003e 5ac6 813e
00000270: 4c16 173e 13aa 1cbe 3f4a b7be 65f4 5b3e
00000280: 99e4 823e caca a63e c2e1 733e 67d6 afbe
00000290: da20 903e 927e 6a3e d3d7 f0bd 6846 a13e
000002a0: 57b0 313e f213 debd 42eb 833e 1275 3fbb
000002b0: 35ad 163e bcc7 3f3e 4c92 f4bd c864 a83d
000002c0: da5e 513e 6630 863e dd42 2b3e 9cf4 b3be
000002d0: 92ff b0bc 5673 c2bc e033 49bd 4a11 71bd
000002e0: f47a 873c 799b 9a39 889b 31bd c15b f6bd
000002f0: 3071 003e 5207 09be a6ab 433e 8b78 4ebd
00000300: f3fb b6bd 5eaa 2b3d e13d 893d e4dc 97bd
00000310: 896b 72bd 0cf5 1abe 076d 963d ee14 b1bd
00000320: 5599 82bd 42ea 21bd e2e4 523c f8d4 94bb
00000330: 05e2 9dbc 14f7 8dbc 5d5b 16bd 167e cabd
00000340: 7a97 243e e63c 9e3d ca42 cd3d 9392 473d
00000350: d72e f93c 0df9 e8ba 56d5 fe3d 9d4a b1bd
00000360: 92e5 8abc 7a26 dd3b 2dfc c0bd 3520 05bc
00000370: 3e1a 91bc c464 293e 228e 4ebc 3689 ef3d
00000380: a3ff 8ebc 0d34 0c3e 7dbe 463d d8d3 cf3d
00000390: 425a 89ba e08b 3fbe d39b 4bbc e7b9 ee3d
000003a0: 324a e73d ea66 7d3d 1661 b7bc a3df 42bd
000003b0: d7b6 853d b85c 93bb a940 053e 1ee1 37bd
000003c0: 0db8 4ebe 303a 65be 63a7 d8bd ffaf 06be
000003d0: 6d79 cf3d a2ce 16be 9f15 90bd cf6a 143e
000003e0: cce3 b2bd 364c 91be 1365 3e3c 6532 dd3a
000003f0: 60d4 163e 554a 91bd cce2 55be 807b 41bc

encoder.model.bias_ih_l0 f4 [240]
0.17372413 -0.06211908 0.16014549 0.0056352913 0.16834238 0.17589422 -0.10486347 0.090687744
0.15320805 0.03534594 0.12305081 -0.00028770094 0.15579948 0.09286698 -0.019288626 0.017440807
0.076837115 0.08267961 -0.029838147 -0.021535814 0.058008872 0.28346494 0.17982928 0.10172281
0.09488803 -0.046002816 0.16361077 0.1589351 0.05175353 -0.006972111 0.14020883 0.08495662
-0.083545156 0.1420016 0.13698515 0.091228835 0.18126136 0.029160922 0.030954443 -0.017049145
0.09446868 -0.02602281 0.17113584 0.029156014 0.16441034 0.02234283 0.030255822 0.11379018
0.26910624 0.15251929 0.029728342 0.13280123 0.1373187 0.057260804 0.11806076 0.050177444
0.07295773 0.009995243 0.22169876 -0.016738921 0.08042773 0.054399375 0.02078088 0.03772297
-0.047018897 -0.06427537 -0.09391611 -0.16126038 0.039085425 -0.07665858 0.07677606 -0.027935397
0.04104511 0.067746006 -0.11278262 0.014997104 -0.07973772 -0.11100312 0.046298623 -0.016857823
-0.07663069 0.04075257 -0.045986354 -0.012831521 -0.082334444 -0.025817925 0.016815333 -0.00095650536
0.06964987 -0.017927201 -0.07497271 0.063519225 0.060206547 -0.03671859 -0.052180994 -0.004885444
0.015924202 0.06312724 -0.094630346 0.06231656 0.053257413 -0.0122010205 0.111997806 -0.012053543
-0.028762368 -0.091023445 -0.026871167 -0.09144257 -0.09301645 0.082303435 0.061504733 -0.0025563082
-0.14795947 0.011419728 0.08715997 -0.13567874 0.019736927 -0.010611837 -0.09770034 0.018572602
-0.22777142 0.04057037 0.07582115 -0.12066142 -0.10497401 0.123832256 0.038271233 0.05944014
-0.015365475 -0.03934115 0.013204778 -0.09787756 0.11410809 -0.19635126 -0.15822175 0.06304392
-0.064624526 -0.13826238 -0.17103152 -0.18923359 -0.12512276 -0.0021630758 -0.037838932 -0.055179052
-0.04100514 0.10654897 0.12160293 0.033903185 0.08012886 0.053953305 0.14014277 0.0052823634
-0.16394629 -0.20316465 0.05445356 0.10948601 -0.07431522 -0.14735562 -0.10506757 0.07759647
0.0905139 -0.012084172 -0.088931434 -0.1354034 0.07142038 0.08900752 -0.19542027 0.07197886
0.15097663 0.076985404 -0.09717361 -0.0820425 0.01822992 0.16891353 -0.06565309 0.10716657
-0.054226287 0.09332388 -0.03315391 -0.1286626 -0.0010606194 -0.1030783 0.04984508 -0.07571124
0.13306527 -0.00040596694 -0.0048074853 0.22150378 0.018110787 0.03676427 0.15251903 0.086303584
-0.013561329 0.12508026 0.08858373 0.111165114 0.11961071 0.041396108 -0.043056343 0.13084625
0.1286636 0.13413475 0.06459201 0.10958235 0.23626567 -0.027985519 0.13522854 0.009525502
0.14225593 0.14673522 0.11304478 0.01028648 0.12961617 0.03943487 0.22405185 -0.051773593
-0.026918657 0.015315624 0.04047798 0.06633088 -0.019118711 0.0053498494 0.14440969 0.11129383
0.17599718 -0.0542291 0.14934288 -0.10713991 0.37207115 -0.023001866 0.12651014 0.22266544
0.03068236 0.17052847 -0.025989175 0.086619295 -0.0030433196 0.0059236134 0.054456137 -0.09600094
00000000: bde4 313e 9470 7ebd 2efd 233e 40a8 b83b
00000010: f261 2c3e 9d1d 343e a9c2 d6bd 7fba b93d
00000020: 92e2 1c3e e8c6 103d 1002 fc3d 91d6 96b9
00000030: e689 1f3e 0b31 be3d 2e03 9ebc 06e0 8e3c
00000040: c75c 9d3d ed53 a93d 216f f4bc e06b b0bc
00000050: b69a 6d3d 5122 913e 2b25 383e 0c54 d03d
00000060: a854 c23d 736d 3cbd 9589 273e e2bf 223e
00000070: 82fb 533d 4e76 e4bb e792 0f3e bdfd ad3d
00000080: b919 abbd de68 113e d645 0c3e 2fd6 ba3d
00000090: 949c 393e e3e2 ee3c 2c94 fd3c a6aa 8bbc
000000a0: cc78 c13d ca2d d5bc 3c3e 2f3e 98d8 ee3c
000000b0: 2f5b 283e 5008 b73c 0fdb f73c d30a e93d
000000c0: 4bc8 893e 042e 1c3e da88 f33c 0cfd 073e
000000d0: 469d 0c3e 4e8a 6a3d d7c9 f13d dd86 4d3d
000000e0: dd6a 953d 16c3 233c 0005 633e 1020 89bc
000000f0: 4bb7 a43d e1d1 5e3d aa3c aa3c 6783 1a3d
00000100: e396 40bd cea2 83bd 1757 c0bd 7121 25be
00000110: 0a18 203d 2cff 9cbd c43c 9d3d c6d8 e4bc
00000120: eb1e 283d 6bbe 8a3d 93fa e6bd 6ab6 753c
00000130: 884d a3bd 9b55 e3bd a0a3 3d3d 6b19 8abc
00000140: 8df0 9cbd 2bec 263d 305c 3cbd 4d3b 52bc
00000150: f69e a8bd 1d80 d3bc 4fc0 893c fdbd 7aba
00000160: 97a4 8e3d 11dc 92bc 4b8b 99bd 5e16 823d
00000170: 249b 763d 3b66 16bd bdbb 55bd 1316 a0bb
00000180: 7973 823c db48 813d 8ecd c1bd a63f 7f3d
00000190: 7224 5a3d cae6 47bc 1b5f e53d 397c 45bc
000001a0: 0f9f ebbc 806a babd ec20 dcbc 3e46 bbbd
000001b0: 697f bebd b48e a83d 63ec 7b3d bc87 27bb
000001c0: b082 17be d019 3b3c ed80 b23d 5eef 0abe
000001d0: 56af a13c 45dd 2dbc 1e17 c8bd 9225 983c
000001e0: e93c 69be 1e2d 263d 1e48 9b3d 561d f7bd
000001f0: 9dfc d6bd c49b fd3d 4cc2 1c3d 8177 733d
00000200: 79bf 7bbc 3024 21bd da58 583c 0874 c8bd
00000210: 81b1 e93d 4e10 49be e204 22be 2c1d 813d
00000220: dd59 84bd a794 0dbe e322 2fbe 73c6 41be
00000230: 2e20 00be 64c2 0dbb fffc 1abd 6e03 62bd
00000240: 01f5 27bd 5936 da3d f50a f93d 11de 0a3d
00000250: 9a1a a43d 24fe 5c3d 9681 0f3e ad17 ad3b
00000260: 89e1 27be 650a 50be b20a 5f3d 343a e03d
00000270: 9432 98bd 64e4 16be ab2d d7bd e6ea 9e3d
00000280: 5a5f b93d b1fc 45bc af21 b6bd 30a7 0abe
00000290: d944 923d 9349 b63d 401c 48be a769 933d
000002a0: 9e99 1a3e 86aa 9d3d f502 c7bd e605 a8bd
000002b0: ea56 953c abf7 2c3e 2175 86bd 267a db3d
000002c0: 621c 5ebd 9720 bf3d 65cc 07bd 21c0 03be
000002d0: 7b04 8bba b71a d3bd 5b2a 4c3d 7f0e 9bbd
000002e0: 4342 083e f6d7 d4b9 1c88 9dbb e3d1 623e
000002f0: 135d 943c 2296 163d f32d 1c3e efbf b03d
00000300: 5630 5ebc 0a15 003e 636b b53d 89aa e33d
00000310: 76f6 f43d f78e 293d d95b 30bd 8ffc 053e
00000320: 64c0 033e 9f5a 093e d148 843d b66c e03d
00000330: a1ef 713e e341 e5bc 5a79 0a3e da10 1c3c
00000340: 8aab 113e c241 163e 0684 e73d a088 283c
00000350: 1aba 043e 7586 213d d96d 653e 8c10 54bd
00000360: 8484 dcbc 62ee 7a3c 3dcc 253d 7cd8 873d
00000370: d89e 9cbc ca4d af3b 22e0 133e 05ee e33d
00000380: 9b38 343e 551f 5ebd 57ed 183e 2b6c dbbd
00000390: 1c80 be3e 696e bcbc e08b 013e 6902 643e
000003a0: 9359 fb3c 049f 2e3e 40e7 d4bc 7565 b13d
000003b0: 6e72 47bb df1a c23b 660d 5f3d 249c c4bd

encoder.model.bias_hh_l0 f4 [240]
0.043681435 -0.079687774 0.02972073 0.039794493 0.19354586 0.07892717 -0.11356691 0.2018137
0.065217696 0.017034134 -0.013032041 -0.027986873 0.14136036 0.12948051 -0.013331068 0.1150245
0.17020665 -0.056364316 -0.0021197065 0.038596243 0.13022994 0.24467377 -0.019177945 0.08561563
0.02571675 -0.022296717 0.271169 0.015439004 0.12550475 0.13778543 0.1947211 0.008633951
-0.08834297 0.20732562 0.20045654 0.009660093 0.09788374 0.018004673 -0.018642424 0.16692878
0.020529818 0.07634096 0.1057523 0.06267737 0.11545971 0.043148585 0.09287167 -0.053323843
0.34053117 0.032805037 -0.10580525 0.22333513 0.049143545 0.24596237 -0.10696191 0.16284356
0.15658444 0.09695144 0.11402944 0.04408764 0.1628271 -0.009371012 -0.064072154 -0.058712605
-0.075844586 0.045456808 -0.09713271 -0.017340494 -0.09913343 0.14601164 -0.042521447 -0.00065874396
-0.038177956 0.017414702 0.03308664 0.010981617 -0.005805103 -0.03328086 0.115485005 -0.11804493
-0.042523045 -0.07579605 -0.10194104 -0.10172454 -0.08034764 0.13231108 -0.17189117 0.06421192
0.096102685 0.12275306 -0.13317639 0.10744356 0.06398204 0.08633732 0.009440593 0.01617753
0.13173892 0.08253396 -0.08317164 -0.053190973 -0.03840353 -0.094324686 -0.10550768 -0.11489342
-0.058137037 -0.019043928 0.021805737 0.0005595664 -0.16170083 0.10841513 0.008889864 -0.070926204
-0.05723887 0.118236825 0.013242803 -0.058548316 0.09021348 0.16676237 0.07983228 -0.08089739
-0.14294994 -0.09985536 -0.04258166 0.0781865 0.02496681 0.0766164 0.025266457 0.11408922
-0.09763387 -0.100135766 -0.0436589 -0.21832149 -0.110360794 -0.118595876 -0.082913406 0.19584243
0.063530676 -0.13952945 0.07709761 -0.090910845 0.071237184 0.13198972 -0.122539185 -0.053136878
0.0069638337 0.037018754 0.13818888 0.113144144 -0.038009573 0.031321004 0.11493398 0.105412565
-0.1292725 -0.054343812 -0.057469454 -0.037586596 0.10299434 -0.138032 -0.045202274 0.014135437
-0.044239253 0.112359196 0.09984622 -0.018712573 0.028446075 0.09866058 -0.1478492 0.08019289
0.066833004 -0.13197204 0.115280464 0.023874788 0.13095133 0.18869913 -0.12826924 0.12377033
0.10641214 0.13375111 0.06849252 -0.122370414 -0.05742412 0.12085319 0.24955538 0.077924006
0.06576751 0.070233494 0.034914225 0.22026365 0.0061347326 -0.05719612 -0.015753567 0.039470654
0.084911786 0.06430937 0.15572199 -0.0022110182 0.10087981 -0.07048746 0.0071591046 0.020366404
0.012996906 0.092802756 -0.0013291659 0.09489126 0.014542566 0.07467993 0.15099487 0.09736256
-0.01303465 -0.052335072 0.20828226 0.09140353 -0.06438966 0.14165613 0.07339083 0.118073985
-0.0306667 0.14171155 0.025194686 -0.021503633 -0.043044996 0.09160042 0.09038267 -0.010266818
0.048704043 0.09510069 0.17800047 -0.10413492 0.24649619 0.010675437 -0.12509975 0.12186511
0.081352316 0.17750414 -0.044475798 0.13244395 -0.03935977 0.040466677 0.16503575 0.0842274
00000000: 4eeb 323d 5833 a3bd e378 f33c 8dff 223d
00000010: e330 463e 91a4 a13d c595 e8bd 40a8 4e3e
00000020: db90 853d 2b8b 8b3c 5784 55bc ba44 e5bc
00000030: c5c0 103e 8a96 043e 8d6a 5abc f791 eb3d
00000040: a74a 2e3e 45de 66bd c6ea 0abb 1817 1e3d
00000050: ff5a 053e c38b 7a3e 111b 9dbc 3f57 af3d
00000060: efab d23c 9ba7 b6bc aad6 8a3e e0f3 7c3c
00000070: 5184 003e a017 0d3e f864 473e 6a75 0d3c
00000080: 29ed b4bd 2b4d 543e 7b44 4d3e 5e45 1e3c
00000090: 4577 c83d 897e 933c ffb7 98bc 61ef 2a3e
000000a0: 262e a83c a658 9c3d a994 d83d fe5c 803d
000000b0: 2476 ec3d 92bc 303d 8133 be3d 1a6a 5abd
000000c0: 1a5a ae3e 935e 063d 6cb0 d8bd f7b1 643e
000000d0: be4a 493d 8fdd 7b3e d90e dbbd 76c0 263e
000000e0: ac57 203e 7a8e c63d 4488 e93d 3e95 343d
000000f0: 26bc 263e e088 19bc 4338 83bd a17c 70bd
00000100: 6854 9bbd eb30 3a3d 84ed c6bd a70d 8ebc
00000110: 7806 cbbd 1384 153e f82a 2ebd 8faf 2cba
00000120: 7d60 1cbd 47a9 8e3c db85 073d 3dec 333c
00000130: bc38 bebb 8351 08bd 6783 ec3d 8ac1 f1bd
00000140: a52c 2ebd f63a 9bbd 77c6 d0bd f554 d0bd
00000150: 4e8d a4bd 8e7c 073e 3d04 30be 8a81 833d
00000160: 7cd1 c43d f565 fb3d 645f 08be 5f0b dc3d
00000170: 0409 833d 9fd1 b03d b8ac 1a3c bd86 843c
00000180: 91e6 063e 9107 a93d e555 aabd c7de 59bd
00000190: 054d 1dbd 4d2d c1bd 6914 d8bd 3e4d ebbd
000001a0: 1a21 6ebd 0302 9cbc f2a1 b23c deaf 123a
000001b0: e794 25be c008 de3d cba6 113c c241 91bd
000001c0: 4e73 6abd 2626 f23d 57f8 583c 5cd0 6fbd
000001d0: d8c1 b83d c1c3 2a3e 1b7f a33d 88ad a5bd
000001e0: 7861 12be f880 ccbd 1b6a 2ebd 3e20 a03d
000001f0: 3287 cc3c 0fe9 9c3d 9afb ce3c 9ca7 e93d
00000200: 44f4 c7bd fb13 cdbd add3 32bd ab8f 5fbe
00000210: d704 e2bd 65e2 f2bd 81ce a9bd eb8a 483e
00000220: 5f1c 823d cfe0 0ebe 5ae5 9d3d 772f babd
00000230: cde4 913d 5028 073e d3f5 fabd 0ea6 59bd
00000240: df30 e43b faa0 173d 6381 0d3e 1eb8 e73d
00000250: edaf 1bbd 744a 003d 8262 eb3d 8be2 d73d
00000260: 0360 04be 9e97 5ebd 1765 6bbd 67f4 19bd
00000270: b2ee d23d 4358 0dbe 0526 39bd 5298 673c
00000280: 3834 35bd 941c e63d 2d7c cc3d 1c4b 99bc
00000290: be07 e93c 8f0e ca3d c865 17be 2b3c a43d
000002a0: bedf 883d ae23 07be 2a18 ec3d 0f95 c33c
000002b0: 1b18 063e 583a 413e 0359 03be 4c7b fd3d
000002c0: 9cee d93d 0df6 083e ce45 8c3d 579d fabd
000002d0: 8e35 6bbd e181 f73d 728b 7f3e 9f96 9f3d
000002e0: 1eb1 863d 94d6 8f3d 3802 0f3d cb8c 613e
000002f0: de05 c93b 7b46 6abd a00d 81bc fbab 213d
00000300: 3be6 ad3d a2b4 833d 9675 1f3e bbe6 10bb
00000310: 139a ce3d bb5b 90bd ec96 ea3b 72d7 a63c
00000320: faf0 543c 5f0f be3d 6837 aeba 5956 c23d
00000330: f143 6e3c cbf1 983d 669e 1a3e 0666 c73d
00000340: 498f 55bc 4d5d 56bd f247 553e c631 bb3d
00000350: bade 83bd 4e0e 113e ee4d 963d c6d0 f13d
00000360: bb38 fbbc d51c 113e 1665 ce3c 6328 b0bc
00000370: f34f 30bd 0099 bb3d 8d1a b93d 2836 28bc
00000380: e47d 473d 27c4 c23d c145 363e b044 d5bd
00000390: 7f69 7c3e 07e8 2e3c 261a 00be 6a94 f93d
000003a0: 0b9c a63d a5c3 353e 412c 36bd 639f 073e
000003b0: b637 21bd 63c0 253d 22ff 283e 6a7f ac3d

encoder.model.weight_ih_l1 f4 [240, 60]
-0.06692142 -0.09231568 0.004296927 0.0816031 -0.12281227 0.19315355 0.07567888 0.0001865358
-0.040010072 0.066586845 0.13322423 0.07470291 0.011490461 -0.13244331 0.020649575 0.109665215
0.064580284 -0.11393475 0.063888565 -0.11746838 -0.038235888 0.024041012 -0.04710564 -0.1107756
0.0017862866 -0.07773026 0.078556255 -0.023097808 0.15941806 0.15137689 0.02178591 0.08033218
-0.05316166 -0.045555327 0.10585683 0.121742986 0.011052976 -0.011324635 0.020948328 -0.10774904
0.020726653 0.13249607 0.008884826 -0.13434197 0.12240609 -0.06320491 -0.03775434 0.100177296
-0.06620113 0.018971933 0.13600096 -0.049881775 -0.07949432 0.17211439 0.04496827 0.07355052
0.13350901 0.037206702 -0.14076002 -0.00712566 -0.2454228 -0.108964615 0.05141022 0.046617154
0.19924779 0.14207521 0.1412007 -0.057956424 0.0714634 -0.28793272 0.117406145 -0.19544998
0.15356104 -0.16646321 -0.20913641 0.011449698 -0.1013579 -0.06312137 -0.13126163 -0.1431857
-0.11672988 -0.009060543 0.10675706 -0.07589241 0.11340146 0.009455017 -0.06408899 -0.10216354
0.017499203 0.0060619423 -0.054940116 0.15339994 -0.17256503 -0.028855199 0.063821465 -0.038373247
-0.019618126 -0.2345448 -0.04625979 0.15358101 0.19146731 0.15747745 0.050076615 -0.028052535
0.18974483 0.22735262 -0.0020126915 0.24390282 -0.055384412 -0.15800239 0.11498384 0.09309197
0.05852341 0.021153674 0.005923619 0.025092175 0.19282307 0.08795908 0.07389897 -0.0075761788
0.06141618 -0.06703981 -0.19836909 -0.12383835 0.039741114 -0.091610365 0.14842293 -0.037958987
-0.15362878 -0.033499133 -0.115853265 -0.0063777687 0.09867283 -0.07176283 0.041300707 0.031644303
-0.13591929 0.076929696 0.033469766 -0.09932733 0.0039969003 -0.06504844 -0.12146511 -0.14474264
-0.048467834 -0.057058074 -0.10435638 0.030107824 0.06754626 -0.017625578 0.0674366 0.12589951
0.04276362 -0.029372975 0.19166757 -0.039007053 0.016982447 0.062319677 -0.11010013 -0.004014317
-0.021975404 0.06681089 0.002128811 -0.083745986 -0.09145304 -0.05213076 0.028513717 -0.0092733735
0.02842934 -0.120902345 -0.0326967 -0.17568265 -0.050849207 0.114148565 -0.003858039 0.01466125
-0.022141062 0.0054324535 -0.02233142 -0.0059560053 -0.1073235 -0.14534822 -0.0021413649 -0.05875398
-0.00676665 0.17068861 0.0020857253 -0.074774794 0.023355164 -0.19004667 0.14862171 0.03664845
-0.0041739717 -0.14546047 -0.02700016 0.07693308 -0.07283559 -0.09071794 -0.05419933 -0.10747412
0.03056206 0.117078796 -0.13229574 0.04415894 0.044040207 0.03318382 0.03495109 0.20975308
0.11899536 0.011236728 -0.027148703 0.060451724 -0.13328145 -0.10607718 -0.0770363 -0.09706235
0.0022849862 -0.032260574 0.037691824 0.020186044 0.11122622 0.06368566 -0.087991 -0.0025385972
-0.043194104 0.092351146 -0.13894278 0.0040214825 0.12811981 -0.00059135637 -0.08003391 -0.052965824
0.005898729 -0.025601821 -0.03522608 0.13693245 -0.07615343 0.18776022 0.10585133 -0.10555645
0.07570748 0.10489665 -0.098350935 -0.07760316 -0.13293365 -0.13087393 -0.023758188 0.10862089
0.06372333 -0.13471152 0.12987398 0.042370215 -0.066454746 0.02625603 0.038926926 -0.08397117
00000000: 190e 89bd 0110 bdbd 3ccd 8c3b 871f a73d
00000010: 0085 fbbd 0bca 453e 87fd 9a3d d398 4339
00000020: 9ae1 23bd af5e 883d ef6b 083e d7fd 983d
00000030: 7d42 3c3c 389f 07be 4c29 a93c 2898 e03d
00000040: ab42 843d 9f56 e9bd 02d8 823d 4393 f0bd
00000050: 3c9d 1cbd a8f1 c43c d8f1 40bd 51de e2bd
00000060: d521 ea3a 0b31 9fbd 1ae2 a03d 9d37 bdbc
00000070: 7d3e 233e 8b02 1b3e 5d78 b23c 3385 a43d
00000080: 0ac0 59bd 3998 3abd 77cb d83d 6354 f93d
00000090: 8b17 353c f68a 39bc d49b ab3c 87ab dcbd
000000a0: f1ca a93c 0dad 073e a991 113c f190 09be
000000b0: 0bb0 fa3d 9371 81bd 4ba4 1abd c129 cd3d
000000c0: 7594 87bd 076b 9b3c d643 0b3e d550 4cbd
000000d0: ebcd a2bd c13e 303e a630 383d a8a1 963d
000000e0: 96b6 083e 0e66 183d 6523 10be 5e7e e9bb
000000f0: 1d50 7bbe d728 dfbd 8693 523d a1f1 3e3d
00000100: 9d07 4c3e 2a7c 113e eb96 103e b763 6dbd
00000110: 675b 923d eb6b 93be a272 f03d 0a24 48be
00000120: 1b3f 1d3e 5575 2abe db27 56be 8497 3b3c
00000130: bb94 cfbd c745 81bd 7369 06be 469f 12be
00000140: 1310 efbd ac72 14bc 72a3 da3d 7b6d 9bbd
00000150: 063f e83d 37e9 1a3c 1741 83bd 1e3b d1bd
00000160: 7d5a 8f3c 42a3 c63b e308 61bd e014 1d3e
00000170: e3b4 30be bd61 ecbc d4b4 823d 442d 1dbd
00000180: 31b6 a0bc 832c 70be e87a 3dbd 5744 1d3e
00000190: 0210 443e c541 213e 231d 4d3d 6ece e5bc
000001a0: 784c 423e 20cf 683e 5ce7 03bb a9c1 793e
000001b0: c4da 62bd 61cb 21be a67c eb3d 01a7 be3d
000001c0: 3eb6 6f3d 784a ad3c eb1a c23b 1b8e cd3c
000001d0: 6973 453e e423 b43d 5858 973d 9841 f8bb
000001e0: 888f 7b3d 2b4c 89bd 4421 4bbe f69e fdbd
000001f0: 94c7 223d 379e bbbd 2efc 173e e27a 1bbd
00000200: dd50 1dbe 6336 09bd 7a44 edbd 9afc d0bb
00000210: fb14 ca3d 64f8 92bd ee2a 293d 759d 013d
00000220: 6d2e 0bbe 518d 9d3d 9817 093d 216c cbbd
00000230: 6ef8 823b 1e38 85bd b3c2 f8bd 6a37 14be
00000240: 3586 46bd bab5 69bd ccb8 d5bd afa4 f63c
00000250: b255 8a3d 8463 90bc 331c 8a3d cdeb 003e
00000260: e828 2f3d 989f f0bc 8144 443e dcc5 1fbd
00000270: c61e 8b3c eb42 7f3d 2d7c e1bd 888a 83bb
00000280: c305 b4bc 26d4 883d 8683 0b3b 0483 abbd
00000290: bb4b bbbd 1087 55bd 9995 e93c 59ef 17bc
000002a0: a6e4 e83c a69b f7bd faec 05bd 27e6 33be
000002b0: 4247 50bd b9c6 e93d 27d7 7cbb bd35 703c
000002c0: 2c61 b5bc b902 b23b 62f0 b6bc 982a c3bb
000002d0: 6ccc dbbd 2ad6 14be 2456 0cbb 03a8 70bd
000002e0: c6ba ddbb ffc8 2e3e aab0 083b 8723 99bd
000002f0: 5453 bf3c 989b 42be 4a30 183e af1c 163d
00000300: d0c5 88bb 97f3 14be 712f ddbc 178f 9d3d
00000310: d32a 95bd 54ca b9bd 1e00 5ebd 641b dcbd
00000320: 495d fa3c 02c7 ef3d 8978 07be 01e0 343d
00000330: 8163 343d c2eb 073d e028 0f3d 83c9 563e
00000340: d7b3 f33d 411a 383c f566 debc 3a9c 773d
00000350: ef7a 08be fe3e d9bd 35c5 9dbd a0c8 c6bd
00000360: b5bf 153b aa23 04bd be62 1a3d 345d a53c
00000370: 93ca e33d a16d 823d a034 b4bd 985e 26bb
00000380: 4dec 30bd 9922 bd3d 0447 0ebe a4c6 833b
00000390: d731 033e 4105 1bba d2e8 a3bd b1f2 58bd
000003a0: 204a c13b e9ba d1bc 3949 10bd 0538 0c3e
000003b0: 54f6 9bbd 3744 403e 95c8 d83d fb2d d8bd
000003c0: 860c 9b3d 0ed4 d63d 376c c9bd 68ee 9ebd
000003d0: c21f 08be d103 06be 88a0 c2bc a174 de3d
000003e0: 6181 823d d1f1 09be affd 043e 648c 2d3d
000003f0: 6d19 88bd e316 d73c d771 1f3d 14f9 abbd

encoder.model.weight_hh_l1 f4 [240, 60]
0.0937488 -0.059633154 0.001381482 -0.057260677 -0.11324412 -0.035451252 -0.057969205 0.040351916
0.0330686 -0.04106001 -0.13627152 -0.10819098 -0.06928907 -0.016807036 -0.14178155 0.057341333
0.13398921 -0.09172562 -0.038554747 0.060945198 -0.05035542 -0.02192596 0.008759204 0.022009306
-0.005113677 0.08136534 0.123114124 -0.11201787 -0.14283523 0.015771234 0.12442963 -0.082948275
-0.07310342 0.09924044 0.15382537 0.020083874 -0.019572264 0.13399312 -0.02620997 -0.052293103
0.0155257555 0.041141193 -0.11359981 0.168195 -0.10233958 -0.039706144 0.08470815 -0.15579413
-0.120662406 0.13046144 -0.012864423 -0.14052065 -0.022603543 -0.14252754 0.11494966 -0.11233916
-0.048447892 -0.15926154 -0.09918996 0.10166064 -0.009803446 -0.070950225 -0.12019967 0.19740006
0.022978708 0.078468055 0.1374421 -0.07055743 -0.08819335 -0.1637267 0.0011084183 -0.13424385
0.20900625 0.015484138 -0.0052915057 -0.041830324 0.03758349 -0.15656951 0.022886977 -0.15588342
0.17283803 0.19490466 0.16680558 0.06958698 0.091205314 0.29725716 0.19111092 0.008612291
-0.05694579 -0.21220705 0.010250116 0.10935868 0.08976222 0.013556447 0.1024569 -0.09342176
0.05684122 0.14634064 0.037574943 -0.050266266 -0.08625205 0.16054215 -0.015627936 -0.12601873
0.082697056 0.06533546 -0.24903153 -0.08833231 -0.12958695 0.17544888 -0.06057267 -0.058531836
-0.24048539 -0.046548195 0.05555512 0.07099959 0.13212103 -0.15611482 -0.12735888 -0.018609362
-0.016716454 0.05971312 0.02776609 0.019255793 -0.09874069 -0.019900698 0.12928995 -0.016892364
-0.02619792 -0.011552313 0.061257463 -0.08723169 -0.017471423 -0.12330097 -0.058084242 -0.0016171066
0.04157639 0.003731801 0.10378083 -0.06422711 -0.05850137 -0.060978692 0.15450421 0.05283705
-0.08940969 -0.0018970505 0.18407974 0.09329439 -0.16630796 0.01218969 0.14756851 0.055443056
0.025148094 0.047694962 0.147625 -0.11255211 0.03492776 0.030852864 -0.10892884 -0.031446394
-0.06543988 0.005058818 0.016756168 0.09066825 0.020643795 0.12503135 -0.15534985 -0.11108431
0.061613146 0.16731991 0.04920913 -0.14610699 0.012099575 -0.042955197 -0.054564293 0.073738
-0.048663516 -0.09589404 0.071605004 -0.0643403 0.12498743 -0.104303725 -0.14741062 0.05118118
-0.15374906 0.0032030449 0.015179935 -0.24838312 0.02106292 -0.1620563 0.04947515 0.10234739
0.08586214 -0.064135455 -0.0005136358 0.12023443 0.010387436 0.092805825 0.18158314 -0.17232352
-0.060501903 -0.06856849 0.14407358 -0.09324018 -0.057112034 -0.0055920705 -0.104669735 -0.036360294
-0.011255919 -0.030774934 0.006120841 -0.006192914 -0.10537735 0.04511091 -0.06097719 0.03773495
-0.052873727 -0.03272544 0.10340069 -0.09798251 0.05577949 0.055759758 0.1118338 0.05014267
0.14973547 0.17483422 -0.05860054 0.06196643 -0.074348316 0.0011846147 0.0077961558 -0.122904375
-0.16864237 -0.036481213 0.14550675 -0.116380155 0.030905997 -0.028085181 -0.106265076 -0.062402505
-0.052939557 0.012854037 -0.10315232 0.05919213 -0.0673872 -0.010987606 -0.0007102373 0.034434225
-0.13707487 0.052643504 -0.03696561 -0.105225764 -0.059164844 0.066721246 -0.049377326 0.10819797
00000000: 5fff bf3d e541 74bd d812 b53a 2c8a 6abd
00000010: 88ec e7bd 5535 11bd 1e71 6dbd 0d48 253d
00000020: f172 073d 8b2e 28bd c38a 0bbe 3c93 ddbd
00000030: 6ee7 8dbd e9ae 89bc 2f2f 11be bfde 6a3d
00000040: 7834 093e a4da bbbd 95eb 1dbd aca1 793d
00000050: 7c41 4ebd 129e b3bc c482 0f3c dc4c b43c
00000060: a290 a7bb dfa2 a63d 4223 fc3d a069 e5bd
00000070: 6643 12be ad32 813c f6d4 fe3d c9e0 a9bd
00000080: 3fb7 95bd 923e cb3d 6684 1d3e f086 a43c
00000090: 0356 a0bc 7e35 093e 4ab6 d6bc 4b31 56bd
000000a0: bd5f 7e3c ab83 283d 04a7 e8bd 4f3b 2c3e
000000b0: 6a97 d1bd e9a2 22bd 777b ad3d 7f88 1fbe
000000c0: da1d f7bd af97 053e 4dc5 52bc a5e4 0fbe
000000d0: 112b b9bc bdf2 11be ba6a eb3d 1312 e6bd
000000e0: 4c71 46bd 7515 23be 1b24 cbbd 7433 d03d
000000f0: a29e 20bc 5a4e 91bd 3f2b f6bd 3e23 4a3e
00000100: d83d bc3c dcb3 a03d 9fbd 0c3e 6a80 90bd
00000110: b79e b4bd f9a7 27be 5948 913a 3877 09be
00000120: bc05 563e 2fb1 7d3c 5e64 adbb 4656 2bbd
00000130: 25f1 193d c253 20be 787d bb3c e79f 1fbe
00000140: 74fc 303e 1695 473e 15cf 2a3e 9e83 8e3d
00000150: dac9 ba3d 1732 983e 95b2 433e 911a 0d3c
00000160: fd3f 69bd ce4c 59be 1af0 273c 72f7 df3d
00000170: 41d5 b73d dc1b 5e3c ecd4 d13d e853 bfbd
00000180: 57d2 683d 52da 153e 2fe8 193d 00e4 4dbd
00000190: eaa4 b0bd 2965 243e 2806 80bc 0e0b 01be
000001a0: 135d a93d 99ce 853d 1f02 7fbe 92e7 b4bd
000001b0: 71b2 04be dfa8 333e 0c1b 78bd 14bf 6fbd
000001c0: cd41 76be 52a9 3ebd c48d 633d 3c68 913d
000001d0: bc4a 073e 90dc 1fbe 5e6a 02be a972 98bc
000001e0: f2f0 88bc bf95 743d b675 e33c 53be 9d3c
000001f0: 8f38 cabd ca06 a3bc 9664 043e db61 8abc
00000200: 059d d6bc ea45 3dbc 1be9 7a3d 87a6 b2bd
00000210: 3b20 8fbc 3885 fcbd bee9 6dbd 18f5 d3ba
00000220: 014c 2a3d 3b91 743b 0b8b d43d 8189 83bd
00000230: 229f 6fbd cbc4 79bd 5a36 1e3e aa6b 583d
00000240: 6d1c b7bd 74a6 f8ba 667f 3c3e 2111 bf3d
00000250: a24c 2abe 44b7 473c 331c 173e 4218 633d
00000260: 6003 ce3c cb5b 433d 022b 173e b881 e6bd
00000270: 6910 0f3d 25bf fc3c 1516 dfbd efcd 00bd
00000280: 5805 86bd 71c4 a53b 3b44 893c 47b0 b93d
00000290: 2d1d a93c 3808 003e 0814 1fbe 2c80 e3bd
000002a0: 115e 7c3d e955 2b3e 838f 493d 129d 15be
000002b0: 4c3d 463c caf1 2fbd cf7e 5fbd f303 973d
000002c0: 6553 47bd 1864 c4bd a5a5 923d d9c4 83bd
000002d0: 69f9 ff3d 319d d5bd cff2 16be 5ba3 513d
000002e0: 6570 1dbe 2dea 513b 43b5 783c 2558 7ebe
000002f0: 258c ac3c 16f2 25be 74a6 4a3d 829b d13d
00000300: 7dd8 af3d 7359 83bd 84a5 06ba 783d f63d
00000310: 1030 2a3c fb10 be3d eef0 393e 9475 30be
00000320: d8d0 77bd a36d 8cbd 0688 133e b5f4 bebd
00000330: 4fee 69bd b03d b7bb 165d d6bd 88ee 14bd
00000340: bf6a 38bc b71b fcbc 5691 c83b eeed cabb
00000350: 14d0 d7bd 38c6 383d 38c3 79bd f78f 1a3d
00000360: 1f92 58bd 1c0b 06bd bec3 d33d 0eab c8bd
00000370: 0979 643d 5864 643d 1f09 e53d 6662 4d3d
00000380: 4154 193e be07 333e 1f07 70bd 83d0 7d3d
00000390: ee43 98bd 1345 9b3a e576 ff3b 4ab5 fbbd
000003a0: 96b0 2cbe 536d 15bd b9ff 143e b858 eebd
000003b0: 932e fd3c e512 e6bc 81a1 d9bd c599 7fbd
000003c0: 26d7 58bd bd99 523c 8641 d3bd 7273 723d
000003d0: 4d02 8abd 5c05 34bc 382f 3aba e70a 0d3d
000003e0: 5b5d 0cbe b7a0 573d 4069 17bd 9b80 d7bd
000003f0: d656 72bd 26a5 883d e13f 4abd e696 dd3d

encoder.model.bias_ih_l1 f4 [240]
0.04160865 0.054371506 0.16369914 0.024857143 0.085972674 0.013737534 0.10283633 0.06658933
0.17436029 0.05595192 0.054488987 0.18492371 0.108033136 0.06589606 0.12012948 0.09206943
0.059756845 0.35841528 -0.08068696 -0.070724584 0.067765824 0.026588771 -0.05101428 0.19620268
0.37411144 0.19734421 -0.052649356 0.13415343 0.046680894 0.049383476 0.1738782 0.12996519
0.14314066 -0.06076817 0.048449263 -0.07063905 0.3760166 0.032754567 0.117102854 0.07563545
-0.07345187 0.17957936 0.2611704 0.15053397 0.02109849 -0.016109476 0.1648845 -0.07448298
-0.05823584 -0.10922343 0.083731055 0.1303416 0.049178507 0.45361048 0.07269278 0.09192867
-0.078683704 0.16808529 0.18239287 0.11139152 -0.0613682 -0.08999281 0.10916003 0.05667611
-0.101385154 0.11925328 -0.074236594 0.047907524 -0.03683861 -0.08956445 -0.08048947 0.10205863
-0.04930053 0.04747648 -0.0912908 -0.019288803 -0.07641474 -0.03869233 -0.0474225 0.023253568
-0.06835432 0.10047781 -0.08088073 0.07071484 -0.015064156 0.09421775 0.01106788 0.10171565
0.070019424 0.041034337 -0.011260521 0.00853937 -0.0013105366 -0.13098691 -0.11658104 -0.0021404866
-0.0696772 -0.1781219 -0.07439907 0.0107536195 -0.016978303 -0.18482478 -0.00608021 0.006899419
-0.0689223 -0.11744578 0.025985215 0.081032276 -0.03775439 0.06580688 -0.066963434 -0.11932357
0.1164546 -0.21268696 -0.084589966 -0.060838494 -0.12814638 0.000119808545 -0.011360682 0.108370535
0.03520862 -0.04682474 -0.103073634 0.12392955 0.013824026 0.13005467 0.13626453 -0.110632315
-0.04518466 -0.13084526 -0.04160513 0.041473165 -0.0074315066 -0.06630676 -0.030353134 -0.006015402
0.046282243 -0.14020522 0.0853385 -0.07036318 0.045719307 0.043116763 -0.041143216 0.011500232
0.012118846 0.15339187 -0.06884293 -0.028156625 0.06423819 -0.021437129 0.048322055 0.117762275
-0.0681294 -0.0145383775 0.08785854 -0.06807517 0.15741521 0.15239015 -0.040281307 0.053786978
-0.010514378 0.12081031 -0.12860425 0.02160886 -0.11968453 0.07926379 -0.093741566 -0.04604281
-0.079266116 -0.011569571 -0.11294418 -0.07217523 0.09223369 -0.013054389 0.09529407 -0.022062728
0.09488581 -0.13106905 0.004650136 -0.11860828 -0.032045428 0.12469518 0.16305488 0.22276567
-0.061684098 -0.04938545 0.12499401 0.06680597 0.27638024 -0.056701705 -0.04904122 0.040737987
-0.034700237 0.117792085 0.15441506 0.12464128 -0.0630125 0.285543 -0.07691786 -0.1034661
0.05118566 -0.044075053 0.09215254 0.17949201 0.13005868 0.022739666 0.06718433 -0.019676642
-0.017662855 0.08977008 0.06351695 -0.014603214 0.13237655 0.085798696 -0.012217078 -0.012845509
0.4562636 0.059891097 -0.102694705 0.12773623 -0.01289791 0.20194149 0.029422628 0.008593158
0.14153603 0.14521356 0.0118256295 0.10092935 0.16360617 0.015067525 0.094092995 0.10375995
-0.070360035 0.3343952 0.00016001817 -0.040246073 0.14866874 -0.04063813 0.10245228 0.07394196
00000000: d56d 2a3d a8b4 5e3d bfa0 273e 35a1 cb3c
00000010: 7112 b03d 6513 613c db9b d23d fd5f 883d
00000020: 818b 323e d72d 653d d82f 5f3d a45c 3d3e
00000030: 7a40 dd3d 83f4 863d 7206 f63d e68e bc3d
00000040: 98c3 743d 3582 b73e 343f a5bd 0dd8 90bd
00000050: cfc8 8a3d b2d0 d93c 5af4 50bd 5be9 483e
00000060: 898b bf3e 9a14 4a3e daa6 57bd 845f 093e
00000070: 7734 3f3d 5446 4a3d 200d 323e 9815 053e
00000080: 7793 123e 0be8 78bd bc72 463d 35ab 90bd
00000090: 3f85 c03e a729 063d 9fd3 ef3d c2e6 9a3d
000000a0: ef6d 96bd a7e3 373e 20b8 853e 9425 1a3e
000000b0: bed6 ac3c 05f8 83bc 7bd7 283e 888a 98bd
000000c0: b488 6ebd 89b0 dfbd 307b ab3d 4578 053e
000000d0: 676f 493d a23f e83e f4df 943d 1945 bc3d
000000e0: ec24 a1bd 8d1e 2c3e 32c5 3a3e 3d21 e43d
000000f0: 395d 7bbd 264e b8bd 4b8f df3d 3525 683d
00000100: 05a3 cfbd 103b f43d 5b09 98bd ae3a 443d
00000110: 15e4 16bd 916d b7bd aad7 a4bd 1d04 d13d
00000120: 5aef 49bd b376 423d acf6 babd 8d03 9ebc
00000130: 557f 9cbd d97b 1ebd 183e 42bd 447e be3c
00000140: 5afd 8bbd 4fc7 cd3d cca4 a5bd f1d2 903d
00000150: a6cf 76bc 3cf5 c03d 0e56 353c 4b50 d03d
00000160: 5866 8f3d 9f13 283d 0c7e 38bc b7e8 0b3c
00000170: 50c6 abba 6f21 06be 0ac2 eebd 6847 0cbb
00000180: ebb2 8ebd 9665 36be 8a5e 98bd f32f 303c
00000190: 1516 8bbc b542 3dbe 803c c7bb 8514 e23b
000001a0: 2327 8dbd 6a87 f0bd f2de d43c 40f4 a53d
000001b0: 59a4 1abd c2c5 863d 2024 89bd ea5f f4bd
000001c0: c07f ee3d 9cca 59be 813d adbd c931 79bd
000001d0: ce38 03be b941 fb38 2722 3abc 5ff1 dd3d
000001e0: ea36 103d 4ccb 3fbd 4518 d3bd c7ce fd3d
000001f0: 2b7e 623c 0d2d 053e ee88 0b3e 3293 e2bd
00000200: 8d13 39bd 4dfc 05be 246a 2abd c4df 293d
00000210: ff83 f3bb d7cb 87bd 23a7 f8bc d91c c5bb
00000220: 7392 3d3d f591 0fbe f4c5 ae3d 921a 90bd
00000230: 2b44 3b3d 349b 303d ca85 28bd 786b 3c3c
00000240: 208e 463c c212 1d3e 86fd 8cbd b9a8 e6bc
00000250: 508f 833d eb9c afbc 59ed 453d 592d f13d
00000260: 6d87 8bbd 6032 6ebc 2eef b33d ff6a 8bbd
00000270: 7431 213e 2a0c 1c3e 03fe 24bd bc4f 5c3d
00000280: 7f44 2cbc 656b f73d d5b0 03be 1005 b13c
00000290: 2a1d f5bd 0e55 a23d 94fb bfbd 6397 3cbd
000002a0: 4656 a2bd 4c8e 3dbc 474f e7bd 9bd0 93bd
000002b0: 04e5 bc3d 13e2 55bc 8a29 c33d e5bc b4bc
000002c0: 7e53 c23d f736 06be 2b60 983b e6e8 f2bd
000002d0: 1142 03bd 3060 ff3d dcf7 263e af1c 643e
000002e0: 77a8 7cbd 6648 4abd dcfc ff3d 92d1 883d
000002f0: b681 8d3e 0c40 68bd 72df 48bd e0dc 263d
00000300: d621 0ebd fa3c f13d fb1e 1e3e ed43 ff3d
00000310: b30c 81bd b132 923e 1c87 9dbd 09e6 d3bd
00000320: 0ea8 513d 0b88 34bd 79ba bc3d c1cc 373e
00000330: 1a2e 053e 8948 ba3c f097 893d e930 a1bc
00000340: b1b1 90bc 60d9 b73d 2d15 823d 5242 6fbc
00000350: b88d 073e 3ab7 af3d 242a 48bc f875 52bc
00000360: 629b e93e 5e50 753d 9a51 d2bd 49cd 023e
00000370: c151 53bc c0c9 4e3e b907 f13c 51ca 0c3c
00000380: d2ee 103e ddb2 143e 49c0 413c 0cb4 ce3d
00000390: 6088 273e c8dd 763c d4b3 c03d 1980 d43d
000003a0: ec18 90bd d935 ab3e 8dca 2739 11d9 24bd
000003b0: 9e3c 183e 2b74 26bd 80d2 d13d e26e 973d

encoder.model.bias_hh_l1 f4 [240]
0.1780284 0.13335381 0.03406431 0.04480807 -0.04257464 0.033162896 0.061175458 0.10822818
0.29390508 -0.0122804 0.0986255 0.0041794423 0.06950483 0.1550938 0.18888058 0.08461996
0.06418848 0.1522202 -0.12688273 -0.032884955 -0.020735335 -0.03717127 0.106468394 0.20880318
0.3600187 0.19090274 0.035823997 0.046344575 0.16924733 0.16744514 0.038118836 0.08333075
0.26284304 0.13567129 -0.011332006 0.106305525 0.44140312 0.13903345 0.12558742 0.17902698
-0.088407755 0.22886534 0.05975849 0.14128833 -0.041431714 0.09561593 0.009931574 0.14398278
0.057428163 -0.09868489 -0.024497114 0.12781434 -0.037141588 0.43277755 0.11993304 0.15383162
0.07692457 0.10832783 0.17870842 0.1316942 -0.004096722 -0.100859925 0.05278505 0.056657564
0.021219507 -0.011791136 0.006194122 0.07418962 -0.044758637 0.032527715 0.012991108 0.07773881
0.058070436 0.03766481 -0.041218642 0.098218 -0.07244215 -0.22989514 -0.11678706 0.06154906
-0.044555843 -0.0023787543 -0.00530322 0.04475133 -0.106140815 0.09552753 0.08712607 -0.022985568
-0.086681955 -0.08166712 0.019635739 -0.008212911 -0.07090125 0.012249723 0.033768807 -0.19565724
-0.23767284 -0.06850392 0.011232105 -0.0007043257 0.045202427 -0.035098303 0.04485018 -0.0729333
-0.047078796 -0.11951211 -0.020324614 0.1111822 0.027021369 0.10112915 -0.018392257 0.024012588
-0.11394367 -0.09438889 -0.044324875 -0.010143757 -0.11949503 -0.047470644 0.032813746 0.04768434
0.18336515 -0.033728067 0.04799562 0.13012563 -0.104433 -0.042357862 0.09485496 -0.08494874
-0.15072466 -0.01698561 0.004215346 0.058669478 0.010607837 -0.035416603 -0.16187052 -0.0211423
0.16956195 -0.0026971346 0.043812357 -0.12670699 0.15462953 0.10477621 -0.002898985 -0.1459947
0.0122783715 -0.026885841 0.047003485 -0.13788822 -0.14728989 -0.0891218 -0.07881037 0.04305518
0.01323863 0.08060311 0.06713486 0.06484061 0.02759872 -0.057585485 -0.025099158 -0.04007106
0.02495532 0.022763846 0.029095653 -0.028782438 0.0475677 0.1723587 -0.12856235 0.06478869
-0.031389415 0.09599574 0.012337549 -0.07227797 0.0025783384 -0.11022204 0.08796539 -0.082939625
0.0016485071 -0.07481003 -0.0992681 0.058828272 0.21089989 0.19222724 0.10632637 0.15551278
-0.050797462 0.03878225 -0.0762743 0.03900568 0.28117463 0.0072168503 0.02251456 0.050923537
0.12243037 0.063482836 0.08708303 0.07569713 -0.08574694 0.24447419 -0.023820737 -0.056618057
-0.047740206 0.11932743 0.040306572 0.16933131 0.3479996 -0.026292626 0.108011924 0.0628775
0.15493903 -0.0020360826 0.046757966 0.05799512 -0.061423656 -0.08826416 0.09067384 0.0028138175
0.38735086 0.040067185 -0.00971446 0.013161821 -0.108022645 0.40458676 0.20524698 0.18786429
-0.006377357 0.066058144 -0.06302398 0.06240507 0.15685087 -0.03134125 -0.0008158257 0.018190715
0.038254187 0.32732326 0.026367806 -0.0441372 0.12927131 0.16321762 0.21606867 0.08449539
00000000: 144d 363e e78d 083e 0587 0b3d ab88 373d
00000010: bf62 2ebd d1d5 073d 1e93 7a3d bca6 dd3d
00000020: ba7a 963e bb33 49bc 2bfc c93d b4f3 883b
00000030: 8c58 8e3d e9d0 1e3e e969 413e 3b4d ad3d
00000040: 4075 833d 9ddf 1b3e 8ced 01be 60b2 06bd
00000050: 26dd a9bc e740 18bd 1a0c da3d 80d0 553e
00000060: 5f54 b83e 027c 433e 2fbc 123d cfd3 3d3d
00000070: 2c4f 2d3e bd76 2b3e 7f22 1c3d 50a9 aa3d
00000080: 5d93 863e 6aed 0a3e e1a9 39bc b6b6 d93d
00000090: 97ff e13e c95e 0e3e fd99 003e d952 373e
000000a0: 200f b5bd ad5b 6a3e 52c5 743d e3ad 103e
000000b0: 4db4 29bd 49d2 c33d 0ab8 223c 3970 133e
000000c0: cb39 6b3d 4e1b cabd 2cae c8bc c3e1 023e
000000d0: c721 18bd 0595 dd3e 749f f53d 0986 1d3e
000000e0: a18a 9d3d fbda dd3d 57ff 363e d8da 063e
000000f0: cc3d 86bb a68f cebd 2335 583d c311 683d
00000100: 88d4 ad3c 9c2f 41bc 10f8 ca3b baf0 973d
00000110: d554 37bd c83b 053d a8d8 543c 8635 9f3d
00000120: 44db 6d3d 6a46 1a3d e1d4 28bd 8526 c93d
00000130: 8d5c 94bd a269 6bbe 0e2e efbd de1a 7c3d
00000140: 3080 36bd e0e4 1bbb a2c6 adbb 2c4d 373d
00000150: 5b60 d9bd f0a3 c33d 276f b23d 3b4c bcbc
00000160: 4f86 b1bd 1741 a7bd 21db a03c 728f 06bc
00000170: ad34 91bd 10b3 483c 2951 0a3d 5f5a 48be
00000180: 8260 73be c94b 8cbd dd06 383c 7fa2 38ba
00000190: 2e26 393d 3dc3 0fbd d3b4 373d 0e5e 95bd
000001a0: b2d5 40bd c4c2 f4bd ce7f a6bc 7eb3 e33d
000001b0: eb5b dd3c cd1c cf3d 5cab 96bc 0cb6 c43c
000001c0: 4d5b e9bd f64e c1bd 008e 35bd 0032 26bc
000001d0: cfb9 f4bd 9470 42bd b567 063d a850 433d
000001e0: 13c4 3b3e 7126 0abd 0e97 443d a73f 053e
000001f0: f8e0 d5bd 707f 2dbd 5143 c23d 9bf9 adbd
00000200: 9157 1abe 6825 8bbc e320 8a3b 684f 703d
00000210: 7ecc 2d3c 0011 11bd 63c1 25be 9e32 adbc
00000220: a6a1 2d3e 69c2 30bb 9674 333d 7abf 01be
00000230: 3457 1e3e e994 d63d e6fc 3dbb a27f 15be
00000240: 392b 493c b23f dcbc ba86 403d 9232 0dbe
00000250: 29d3 16be 7e85 b6bd 5567 a1bd a15a 303d
00000260: d7e6 583c 3e13 a53d 007e 893d 27cb 843d
00000270: b616 e23c c2de 6bbd c09c cdbc 8d21 24bd
00000280: 196f cc3c 3f7b ba3c 025a ee3c 26c9 ebbc
00000290: 59d6 423d cd7e 303e d9a5 03be efaf 843d
000002a0: 3092 00bd 6a99 c43d 6e23 4a3c 7906 94bd
000002b0: 57f9 283b 18bc e1bd 3327 b43d 40dc a9bd
000002c0: b812 d83a 0036 99bd 134d cbbd eaf5 703d
000002d0: 24f6 573e 38d7 443e a4c1 d93d be3e 1f3e
000002e0: 0011 50bd 23da 1e3d b335 9cbd 6bc4 1f3d
000002f0: 1ff6 8f3e 547b ec3b 7470 b83c 3395 503d
00000300: c6bc fa3d 4a03 823d 9658 b23d 1907 9b3d
00000310: 179c afbd 7157 7a3e b523 c3bc 56e8 67bd
00000320: 3c8b 43bd f161 f43d 8118 253d 3065 2d3e
00000330: 012d b23e a263 d7bc 5b35 dd3d ebc5 803d
00000340: 56a8 1e3e cc6f 05bb 4885 3f3d 4a8c 6d3d
00000350: 5f97 7bbd d7c3 b4bd 35b3 b93d 0668 383b
00000360: da52 c63e 7d1d 243d 6629 1fbc aea4 573c
00000370: fa3a ddbd ff25 cf3e 442c 523e 7f5f 403e
00000380: 26f9 d0bb 7e49 873d b712 81bd 759c 7f3d
00000390: 849d 203e af5f 00bd 23dd 55ba b204 953c
000003a0: 6cb0 1c3d ea96 a73e 4c01 d83c 35c9 34bd
000003b0: b35f 043e 8522 273e 1b41 5d3e eb0b ad3d
