models/20200923_181657/epoch_0600_loss_315426.02737.pt (torch, 801233 bytes, 96 tensors)

encoder.model.weight_ih_l0 f4 [240, 3]
000000 1c 01 9b bd 54 8b 0a 3d c0 45 8e 3d c7 c2 4e 3e
       -0.07568571 0.03382428 0.069468975 0.20191489
000010 0d ec 4c be 76 c4 84 3d 61 f8 43 be b2 81 c0 3d
       -0.20011921 0.064827845 -0.19137718 0.093997374
000020 09 30 28 3f 11 d4 27 bd a4 07 2c 3e 4a d6 0c be
       0.65698296 -0.040973727 0.1679979 -0.1375362
000030 b7 eb 15 bb e2 91 48 3d 74 12 32 3d 33 c1 d6 bd
       -0.0022876093 0.04896725 0.04347463 -0.104860686
000040 76 57 0d 3d cb 09 88 3d bc 7e d2 3c 48 c6 63 bd
       0.034507237 0.06642493 0.025695197 -0.055609018
000050 cd 4a db bd 2f d9 28 3d 61 0f 65 3d 17 1a a0 3d
       -0.107076265 0.041222747 0.05592287 0.07817476
000060 dd 42 56 be 6c 13 9a 3d eb 76 cb 3e 5a bd 84 3e
       -0.20923944 0.07523236 0.39739165 0.25925714
000070 a2 e9 f7 3d 43 8a 81 3e 2e 79 19 be 3c 00 22 3d
       0.12105109 0.25300798 -0.14987633 0.039551005
000080 50 6b 17 bc 9b 94 d5 3c 06 2d fa bd 14 1f 76 bd
       -0.009241894 0.026071837 -0.12215619 -0.060088232
000090 0a 39 2c 3d 5a 34 22 3d 4c e0 ce 3e 24 d5 8b 3e
       0.042046584 0.039600708 0.404055 0.2731105
0000a0 ad cf bd 3d bd 9f 12 3e af ce a6 bc 01 9f 24 be
       0.09268127 0.14318748 -0.020362226 -0.1607628
0000b0 1b f6 38 be 3d 5c 24 bd df d0 1d bc 43 57 39 bd
       -0.18062632 -0.040127028 -0.009632318 -0.045249235
0000c0 9e d7 de 3c 0d fc 2e 3d a3 e8 1e 3e 4f 05 de bd
       0.027202424 0.042720843 0.15518431 -0.10840856
0000d0 ed b9 62 be 6b 88 fc bc c7 34 88 be 20 90 91 be
       -0.22141238 -0.030826768 -0.26602766 -0.2843027
0000e0 3b e8 9c bd 6d 78 3c be 97 38 44 bb 15 f5 ba 3d
       -0.07661482 -0.18405314 -0.0029940957 0.09128777
0000f0 47 54 97 3b 2e f0 16 3e 42 d8 19 3c bc ba 77 bc
       0.004618201 0.14740059 0.009389939 -0.015120205
000100 70 19 4a 3d 16 15 2d 3c 0c 6e 4e 3d 42 81 11 3e
       0.049340665 0.010564109 0.050397918 0.14209464
000110 02 0c d3 3e 66 08 ed 3b e4 b6 e8 3d 3d 19 9a 3e
       0.412201 0.007233667 0.113630086 0.3009738
000120 07 17 dd bc 58 c1 93 bd eb d9 12 3e 04 b9 2c bd
       -0.02698852 -0.07214612 0.14340942 -0.042168632
000130 85 98 23 3e 0e 81 8c bc 67 69 5c 3e ad 2e b1 3e
       0.1597615 -0.017151382 0.21524583 0.34605923
000140 cf a0 a3 3c e2 25 8c 3d 4b ce 66 bd cf 83 b9 3c
       0.01997414 0.06843163 -0.05634908 0.022645859
000150 ea 71 bf 3d da 9a 8d bd 6e 66 91 bd fd 81 ea bd
       0.09347899 -0.06914301 -0.07099615 -0.114505745
000160 12 ba c4 3d 92 17 09 be e8 6c 96 3c 04 72 eb bb
       0.096058026 -0.13387898 0.018362477 -0.0071852226
000170 5e f3 7a 3d 0a 8e 3b 3e f8 a6 0f be 1c af 4e be
       0.06126725 0.18315902 -0.14028537 -0.20183986
000180 c2 1b 5c bc a3 58 11 be e2 c6 d6 bb 37 b9 83 be
       -0.013434352 -0.14193968 -0.0065544704 -0.25727245
000190 4d 52 30 bd 6b cf a6 3c 9f 4d b3 bd c5 00 3c bd
       -0.04304724 0.020362576 -0.087550394 -0.04589917
0001a0 0b 92 40 3d 87 96 e4 bd 23 ea 6c 3d a5 64 f3 3d
       0.047014277 -0.11161523 0.057840478 0.11884431
0001b0 e1 76 25 3c 75 4b a2 b7 b6 a5 56 3c c3 0e ba bd
       0.010099144 -1.9347042e-05 0.013101032 -0.09084847
0001c0 2d 38 c4 3d db 10 15 3e 67 b0 02 bc c2 aa 02 3e
       0.09581027 0.14557211 -0.007976628 0.12760451
0001d0 a3 b8 32 bb af 9d 46 3e 01 78 c9 3b e2 8c 37 3e
       -0.0027270697 0.19396089 0.006148339 0.17924836
0001e0 ab 49 85 bc 96 9a 72 3d 1f 2d 26 3e 62 4d e2 bc
       -0.01627048 0.059229456 0.1622815 -0.02762479
0001f0 e8 10 36 bd 38 d8 ac bc 83 d0 90 bd a4 00 e4 3d
       -0.044449717 -0.021099195 -0.070710205 0.11132935
000200 d1 9d 10 3f 34 cc fe bd 3b 20 ad 3d bd 80 bf 3c
       0.5649081 -0.124412924 0.08453413 0.023376817
000210 3c fc 3e bd 17 73 fc 3d 42 b4 92 bd 55 42 e3 3d
       -0.04662727 0.12326639 -0.07163288 0.11096636
000220 96 ab 42 3c 9c 1b 40 bd 4e d8 2b bc 34 35 be bd
       0.01188173 -0.04690133 -0.010488583 -0.092874914
000230 53 36 35 3c 63 1d 2c 3c e5 b0 b7 bd 01 d8 14 bd
       0.011060315 0.010505053 -0.08969287 -0.03633881
000240 39 53 6b 3d 97 8e 44 3d 87 f5 36 3d 12 3c 54 bc
       0.057452414 0.047987547 0.044667747 -0.012953775
000250 6b 59 9a 3b 7f d4 ab 3d 3c 37 b2 be cb d9 13 3e
       0.0047103665 0.0839014 -0.34807765 0.1443855
000260 d4 20 63 be b4 32 4d 3c c1 9b 9d bd 0f 8c 97 3e
       -0.22180492 0.012524296 -0.07695723 0.29599044
000270 f2 63 26 be c8 d8 bc 3d 54 3c 31 3d 74 d5 0b 3e
       -0.16249064 0.09221035 0.043270424 0.13655645
000280 5f f1 61 3d b7 2b f8 bb 6f f5 2d 3c 30 f7 72 be
       0.05516183 -0.0075735706 0.010617598 -0.23727107
000290 d7 8c e9 3d 80 e2 f4 3c 06 48 7e 3d 43 17 fe 3d
       0.11403816 0.02989316 0.062080406 0.124067806
0002a0 ea 1a 26 3c e3 ed 8f 3d 41 83 30 3d ce 8a 69 bc
       0.010138253 0.07027795 0.043093923 -0.014254285
0002b0 73 80 02 3e 68 0b 52 3e 72 62 88 bd b7 14 d0 3d
       0.12744312 0.20512164 -0.06659402 0.10160201
0002c0 71 6f 39 3e b5 2b 9e 3c 29 3a 22 be 2d f8 f3 bd
       0.18108918 0.01930795 -0.15842499 -0.1191257
0002d0 e7 9b 2d 3e dc 5c d3 3d a6 2c 44 3d 49 a1 2d 3e
       0.16954003 0.10320446 0.047894143 0.16956057
0002e0 0a 10 63 3d a4 ed 0d be db 77 37 be 6d 2b 8a 3c
       0.055435218 -0.13860184 -0.17916815 0.01686641
0002f0 fc a7 b5 3d 4d cc ec 3c 94 59 0d be 55 da 6d 3b
       0.08869931 0.028906012 -0.13803703 0.0036293466
000300 33 db 8a bd 74 2f fa 3d a6 e5 03 3e 2c ed 07 be
       -0.0678009 0.12216082 0.12880573 -0.13274068
000310 04 73 85 bd 0e bc 37 3d b8 0e 94 3d 3e 1f d5 3d
       -0.06516078 0.044857077 0.0722937 0.104063496
000320 3f d5 b8 3b a3 96 3b 3d 7e c8 32 3e aa d7 3f 3e
       0.0056406553 0.045797955 0.17459294 0.18734613
000330 aa 8b ba be 75 14 2d bc e1 d6 db 3d b6 42 8a 3e
       -0.3643468 -0.010563959 0.10734344 0.2700402
000340 f6 59 ca bd a4 24 81 3d 52 04 ee bc 92 27 0a 3e
       -0.0988044 0.06305817 -0.029054794 0.13491657
000350 93 dc da bd e7 6e b0 bd 1f 16 02 bd da 4e bf 3c
       -0.106866024 -0.08614903 -0.031759378 0.023353029
000360 64 fa 32 3e 7c ed 1d 3e 4a ca 55 3e 03 fc 91 3e
       0.17478329 0.15422624 0.20877948 0.28512582
000370 47 ea 1b 3d 6d 09 a3 3d b8 e8 8e bc f8 cf 05 be
       0.03806522 0.07960782 -0.017444953 -0.13067615
000380 38 e6 94 3d 10 a5 7b 3d 33 f1 27 be eb b7 93 bd
       0.07270473 0.061436713 -0.16400604 -0.07212814
000390 71 0b 00 3e db 3a a4 3d 73 01 9f 3e 6e 2d 52 bc
       0.12504365 0.08019038 0.31055793 -0.012828214
0003a0 dc cc 50 be 73 c8 37 3d c0 7f 74 3d 26 63 05 be
       -0.20390648 0.044868898 0.059692144 -0.13026103
0003b0 4e f8 e5 3d 76 42 3f be c6 55 04 3d 7a 63 a6 3c
       0.11229001 -0.18677697 0.032308362 0.020311106
0003c0 d6 51 7a 3d 8b 84 4d bc 3d fd b6 3d 80 5e b3 bd
       0.0611132 -0.012543808 0.0893502 -0.08758259
0003d0 74 39 a6 bc 59 86 86 bd 21 58 db bc 8a f3 9f 3d
       -0.020291068 -0.065685935 -0.026775422 0.07810123
0003e0 18 49 f1 3e 75 73 c3 bd 73 01 d1 3c 18 f9 af 3e
       0.4712608 -0.09543506 0.025513386 0.3436973
0003f0 71 8a b2 bd ed 33 0f be 58 2c 97 bc 79 41 4a 3e
       -0.08717812 -0.13984652 -0.018453762 0.19751538

encoder.model.weight_hh_l0 f4 [240, 60]
000000 27 b4 e7 3c b3 58 28 3d f8 0c 79 3d 3a 89 c6 3d
       0.028284146 0.041100215 0.060803384 0.09694143
000010 5e d2 46 3e 85 44 3f 3e d9 eb d6 3d eb 4a 1c bd
       0.19416186 0.18678482 0.10494203 -0.038157385
000020 ca 5f e6 3c 64 21 8a bd 0d 9e 09 3e 4e 00 95 bc
       0.028121848 -0.0674465 0.13439198 -0.018188622
000030 6b 73 93 3d 70 63 80 3d 79 7c 11 3d 18 98 48 3d
       0.071997486 0.06268966 0.035519097 0.048973173
000040 42 f9 b2 3d 3b 57 2b 3d 19 d7 8e bd d2 9d 86 3d
       0.087389484 0.041831236 -0.0697462 0.065730706
000050 0b 6d 6e bd 96 7d 48 be 2c eb 53 3e ae 41 e4 3d
       -0.05820946 -0.19579157 0.2069518 0.1114534
000060 28 94 0c 3e 7b 0b ac bd 23 b6 5b bd 8d c0 14 3d
       0.13728392 -0.08400627 -0.053640496 0.036316443
000070 ef 9c a0 3d 96 db a6 bd c5 2d 1f 3d 3f 02 b5 bd
       0.07842433 -0.081473514 0.03886201 -0.08838319
000080 5a 05 06 bd 30 0a b4 3d 73 03 6c 3d dd 82 8e 3c
       -0.032719947 0.087910056 0.057620477 0.017396385
000090 3f 1f 47 3e b7 12 4c bd 9e c3 2d bd df 10 50 bd
       0.19445513 -0.049822535 -0.042422883 -0.05079734
0000a0 d9 bc a8 3c 5f db a0 3b 6c b2 f8 3d f1 6d 1b 3c
       0.020597862 0.0049089636 0.12143406 0.009486661
0000b0 a5 ff 0f 3e cc de ed 3d 73 40 17 be 99 05 a0 bd
       0.14062364 0.11614761 -0.14770679 -0.07813568
0000c0 b1 68 10 3d c1 53 35 be 02 2d b6 3d fd 16 f3 bc
       0.03525609 -0.17707731 0.08895303 -0.029674048
0000d0 0e 03 b9 3b 0d 84 f9 3d b8 ba 1f 3d d1 9b f5 3d
       0.005646116 0.1218339 0.03899643 0.1199261
0000e0 d2 60 ec bd 2e e5 1d 3d 7e e8 f2 3a 59 56 06 be
       -0.115419045 0.03854864 0.0018532423 -0.13118877
0000f0 38 3d e5 bc 9c c0 37 3b b3 2d 42 be c8 60 b8 3c
       -0.027983293 0.0028038388 -0.18962745 0.022507086
000100 c2 3f cf 3c 46 32 4b bd 71 5e d8 3d c6 56 4e bd
       0.025298957 -0.04960849 0.10564888 -0.050375722
000110 50 15 40 3d 9b f7 d6 3d 65 16 df bd ec 4a 92 bd
       0.046895325 0.10496446 -0.10892943 -0.071431965
000120 fa 51 c3 3b 7d 0b 59 bd cd 55 c4 bc 01 fa fd 3d
       0.0059607 -0.05298947 -0.023966694 0.124012
000130 93 7e 76 3d ec cf e2 3b 17 3c 4f 3d 89 c6 c8 bd
       0.060179304 0.006921759 0.050594416 -0.098034926
000140 7a 00 19 be f4 3f 4b 3c 30 9b e5 3c bb aa fe bd
       -0.14941588 0.012405384 0.0280281 -0.12434908
000150 25 6a b5 bc d0 b3 89 3d 1b 1c 18 3c 1b d5 b5 3c
       -0.02214534 0.0672375 0.009284045 0.022196343
000160 d0 37 84 bd 8f 01 71 bd d9 db 2a 3c 0c 58 e2 3c
       -0.06455958 -0.058839377 0.010428392 0.027629875
000170 ab 32 01 be 9c 02 d4 3d a8 64 2d 3e c5 c0 ad bb
       -0.12616985 0.1035206 0.16932929 -0.005302521
000180 fc a1 06 3e e6 d5 23 bd 93 61 3a 3d 11 ee df bd
       0.1314773 -0.03999891 0.04550321 -0.109340794
000190 6b 4e bf bd 60 f0 80 3d 15 c4 c6 bd 25 51 22 be
       -0.09341129 0.06295848 -0.097053684 -0.15851267
0001a0 31 a3 da bc 60 45 a0 3c c6 8f 04 be e9 cc f3 bd
       -0.026689144 0.01956433 -0.1294547 -0.11904318
0001b0 41 3a d7 3d 92 b0 bb bc 82 ea 1a 3e c2 0a cd bd
       0.10509158 -0.022911344 0.1512852 -0.100118175
0001c0 b5 58 6e bd 8d c1 be bc b1 e2 db bd 8e 3c b3 3d
       -0.058190066 -0.023285652 -0.10736597 0.08751784
0001d0 c5 84 a1 bd d3 0b a4 3d 5f 7a 77 bc 28 12 8f bd
       -0.07886652 0.08010068 -0.015104859 -0.06985885
0001e0 70 55 17 be 9e 6d 80 be 0f 62 b8 bd c4 bf 5c be
       -0.14778686 -0.2508363 -0.09003078 -0.21557528
0001f0 c3 e1 33 3e d7 37 16 be cc aa 27 3e f7 56 e3 3c
       0.1756659 -0.14669739 0.16373748 0.027751429
000200 eb 63 97 bd 7a 70 82 be 5c fc b6 be 8f 31 63 be
       -0.07392105 -0.25476438 -0.3573941 -0.22186874
000210 54 46 53 3e 97 e7 5c be c6 02 63 be 0e be a8 3e
       0.20632297 -0.2157272 -0.22169027 0.329575
000220 a3 ba a4 3b c2 90 bb be 80 be 8a be c9 58 d0 bd
       0.0050271316 -0.3663388 -0.27098465 -0.101731844
000230 88 0b 85 3d fe 01 58 3d bf 3f 29 bd bf 57 c8 3d
       0.0649634 0.052736275 -0.04132056 0.09782361
000240 55 26 d9 bd b9 24 bb 3e cf e8 14 be 0f 04 ee 3d
       -0.106030144 0.36551455 -0.14541934 0.11621868
000250 37 02 9e 3e 1e 80 5d 3e 5d d4 18 3d 78 0f 0d 3e
       0.30861065 0.21630904 0.0373119 0.13775432
000260 d2 25 8e be 7f d0 c0 be a2 97 04 3e ad f9 8e 3e
       -0.2776323 -0.3765907 0.12948468 0.27924863
000270 15 57 17 3e c8 f2 35 be 7c 96 c9 be 5b db 80 3e
       0.14779313 -0.17768395 -0.39372623 0.25167355
000280 b3 06 80 3e 13 6e a9 3e 82 83 7a 3e 73 81 a3 be
       0.2500511 0.33091792 0.24464229 -0.319347
000290 b1 c9 94 3e cc 5b 8a 3e b2 c6 d4 bd f0 b0 be 3e
       0.29060128 0.2702316 -0.103894606 0.37244368
0002a0 34 2e 35 3e 0e cf 14 be af a1 8c 3e 30 e4 01 bc
       0.17693406 -0.1453211 0.27467105 -0.007927939
0002b0 98 a3 00 3e e3 f4 42 3e 8f 31 3a be 93 ed cf 3d
       0.12562406 0.1903873 -0.18182968 0.101527356
0002c0 f4 f4 60 3e 8d 18 96 3e 71 3e 2d 3e 99 98 c9 be
       0.21968442 0.29315606 0.16918351 -0.39374235
0002d0 9b 37 80 bd 45 d9 51 bc 92 17 d2 bc a5 72 3f bb
       -0.06260606 -0.012808149 -0.025646005 -0.002921262
0002e0 b3 da 68 3d 03 3b 09 3d 5c fe b7 bd f2 9d 36 be
       0.056849193 0.033503544 -0.08984062 -0.17833689
0002f0 a8 6e 24 3e 34 13 0e be ca 05 30 3e 08 e1 5a bd
       0.16057837 -0.13874513 0.17189708 -0.053437263
000300 eb 3c 66 bd 37 dd c8 3c 61 a2 8b 3d dd d4 42 bd
       -0.05621044 0.024519546 0.06818081 -0.047566283
000310 d1 12 b0 bb 4e 33 20 be 59 b6 ac 3d 6f b7 15 bd
       -0.005373337 -0.15644571 0.084332176 -0.03655189
000320 b1 de 2e bc 5a d6 b8 bc 45 ac 42 3d ca 90 0f 3d
       -0.010673211 -0.022563148 0.04752757 0.03505019
000330 0c 49 c5 bb 28 8e 92 bd 96 8a 9e bd 0b 4f 0c be
       -0.0060206708 -0.071560204 -0.07741277 -0.13702027
000340 29 73 0e 3e 5b a5 32 3c 42 97 8f 3d 5d 40 7c 3d
       0.13911118 0.010903682 0.07011272 0.06158482
000350 6d 42 d5 3c a7 e3 41 bc e2 be c7 3d 25 c6 03 be
       0.02603265 -0.011834062 0.09753205 -0.12868555
000360 92 17 1a bd fe 58 9b 3d 3f b4 bd bd 47 a9 d7 3b
       -0.037620135 0.07585333 -0.09262895 0.0065814587
000370 6c a9 01 bd 28 c5 1e 3e 84 df e1 3c ff 94 09 3e
       -0.031655714 0.15504897 0.0275724 0.13435744
000380 d7 2d 8f 3c db 03 e5 3d 2d 4e a9 3d 7c f0 ae 3d
       0.017477913 0.11182376 0.08266864 0.085419625
000390 2d b0 90 bc 92 c7 41 be 44 23 e4 bd e4 e1 10 3e
       -0.017662132 -0.18923786 -0.11139539 0.1414867
0003a0 db 8f e1 3d d5 e5 ea 3c af c1 d1 bc b6 78 ba bc
       0.110137664 0.028674046 -0.02560505 -0.022762638
0003b0 af 79 18 3c 36 e0 89 3b 75 99 39 3e 26 0f 4b bd
       0.009306355 0.004207636 0.18124945 -0.049574994
0003c0 dc 68 5d be c8 a5 7e be d9 e8 ba bd f5 c8 1a be
       -0.21622032 -0.24867928 -0.091264434 -0.15115722
0003d0 ac d5 ef 3d 55 f1 33 be 2f 7f 1f bd b1 43 2f 3e
       0.117106766 -0.1757253 -0.03893965 0.17115666
0003e0 72 c0 a4 bd 96 74 9c be ce 15 16 3c d2 3d 62 bc
       -0.080445185 -0.30557698 0.009160472 -0.013808684
0003f0 e0 80 2b 3e 57 e3 bd bd 66 ea 56 be cd f2 d5 ba
       0.1674838 -0.09271877 -0.20987853 -0.0016322971

encoder.model.bias_ih_l0 f4 [240]
000000 37 45 1d 3e 0d 2d a0 bd d7 7b 74 3d 27 fb 06 3d
       0.15358435 -0.07821093 0.059688415 0.03295436
000010 c5 b3 02 3e d2 35 15 3e 7f 3b e7 bd 07 64 62 3d
       0.12763889 0.14571312 -0.11290645 0.055271175
000020 0b 48 f0 3d 83 63 e7 3c bf b8 d1 3d 22 a6 fa bc
       0.11732491 0.028245693 0.10240316 -0.030596796
000030 1c 4a 12 3e 0e b7 ba 3d e8 a9 dd ba 29 eb 22 3c
       0.14286083 0.09116946 -0.0016911598 0.009943762
000040 93 47 10 3d 8d 27 83 3d de 42 62 bd 03 e5 17 bd
       0.03522451 0.06404028 -0.05523955 -0.037083637
000050 3b 78 76 3c 84 4d a2 3e ec 46 2f 3e 42 40 b3 3d
       0.015043314 0.31699765 0.17116898 0.087524906
000060 16 a8 6c 3d 46 c3 27 bd 61 c5 b2 3e d1 05 17 3e
       0.057777487 -0.04095771 0.34916213 0.14748313
000070 55 17 fe 3c 29 8a 8e bc c7 62 2f 3e fa cc 77 3d
       0.031016985 -0.017399864 0.17127524 0.060498215
000080 5d 0a a9 bd 7d 1a 35 3e 2a fd be 3d ae 41 c2 3d
       -0.0825393 0.17685886 0.09325631 0.09485184
000090 82 3b 2c 3e fb 22 ad 3c ae 6b 79 3c 3d 2f 91 bc
       0.16819575 0.021134844 0.015223427 -0.01772272
0000a0 d5 04 cb 3d 95 83 23 bd 6b 76 0d 3e 6c b1 03 3d
       0.09913031 -0.03992041 0.13814704 0.032151625
0000b0 dd 21 19 3e be c6 2a 3c 8f 6a 8f 3c c3 6b dc 3d
       0.14954324 0.01042336 0.017506866 0.107627414
0000c0 ee 26 d9 3e b7 16 1a 3e 6b 06 5c 3c 6a 39 ca 3d
       0.42412513 0.15047728 0.013429265 0.09874232
0000d0 a5 78 16 3e 1e 1b e0 3d 28 6f d8 3d ef cf b3 3d
       0.1469446 0.10942672 0.10568076 0.087798946
0000e0 7a 50 c3 3d fb cb 5e 3b be 02 4d 3e f5 76 d2 bc
       0.09536834 0.0033996094 0.20020577 -0.025691489
0000f0 1a e0 8e 3d 17 da 29 3d 24 8b 02 bc dd 40 5f 3d
       0.06976338 0.041467752 -0.007967744 0.054505218
000100 4b f4 86 bd 33 36 85 bd f8 72 d2 bd b9 ee 3a be
       -0.06589564 -0.06504478 -0.10275835 -0.18255128
000110 33 84 34 3c 41 98 a3 bd ed d5 cc 3d fa e3 3f bd
       0.011017847 -0.079880245 0.100017406 -0.046848275
000120 10 cc 07 3d bc ef 91 3d e0 8b 0b be 07 05 3d bb
       0.033153594 0.07125804 -0.13627577 -0.0028842108
000130 9a ab e5 bd 4a 7d 01 be 39 37 8a 3c 01 1d a4 bc
       -0.11214371 -0.1264545 0.016872035 -0.020033361
000140 a6 68 e2 bd 27 0d 51 3c c3 9f 7f bd 06 57 39 bd
       -0.11055116 0.012759483 -0.06240822 -0.045249008
000150 ab 11 ca bd ae f2 17 bc a3 42 90 bc 53 23 b9 bc
       -0.09866651 -0.009274168 -0.0176099 -0.022599852
000160 dc bb 5b 3d 4f 98 10 bc 48 85 f7 bd dd e1 15 3d
       0.053645954 -0.008825376 -0.12085968 0.036592353
000170 f0 4e 84 3d ec 18 2b bd 0c 9d 8d bd 0d df 0f ba
       0.06460369 -0.041771814 -0.0691472 -0.0005488254
000180 a1 b3 ad 3b 83 5c 92 3d 9a c8 cc bd da 89 86 3d
       0.0053009544 0.071465515 -0.09999199 0.06569262
000190 39 7f 66 3d 1c 2d a4 bc 8d 43 d9 3d 8d 43 f1 bc
       0.056273673 -0.020041041 0.106085874 -0.029451156
0001a0 43 5c 97 bc bf 9c c5 bd ac c6 87 bd c2 c7 bd bd
       -0.018476611 -0.096490376 -0.066296905 -0.092666164
0001b0 a3 74 1d be f0 d4 b0 3d 40 36 57 3d b5 58 12 bd
       -0.15376525 0.086343646 0.05254197 -0.03572913
0001c0 75 22 33 be b5 01 37 bb 00 65 70 3d cd 8a 26 be
       -0.17493613 -0.0027924601 0.05869007 -0.16263886
0001d0 9e c2 16 3d f1 bb b5 bb b4 3e d6 bd 4b 9d 11 3c
       0.036806695 -0.005546086 -0.104611784 0.008887599
0001e0 b2 b6 34 be 25 4e 74 3d eb ed 84 3d a9 68 f2 bd
       -0.17647818 0.059644837 0.06490692 -0.118363686
0001f0 71 56 d7 bd 01 cf e4 3d fa 4d 0b 3d 18 e6 71 3d
       -0.10514534 0.11172295 0.03400991 0.059057325
000200 48 ad 1c bd 2b ec 15 bd 2f 29 de bb 87 e2 87 bd
       -0.03825119 -0.03660218 -0.006779812 -0.066350035
000210 12 2c e9 3d 47 2e 4d be 50 58 44 be 19 d8 81 3d
       0.11385359 -0.20037185 -0.19174314 0.063400455
000220 11 83 ab bd 62 f6 fa bd de e4 05 be ba bc 43 be
       -0.08374608 -0.12254025 -0.13075587 -0.19114962
000230 f3 17 57 be ae 87 8e 3c bc 81 5b bd 0b 39 92 bd
       -0.2100523 0.017398681 -0.05359052 -0.07139786
000240 59 55 14 bd 80 8c d1 3d 7e 0f 48 3e 0c 93 1d 3d
       -0.036214206 0.102318764 0.1953716 0.038470313
000250 85 7e 9e 3d 36 79 4c 3d 24 57 2d 3e 64 e6 4c bc
       0.077389754 0.049920283 0.16927773 -0.012506101
000260 36 47 2c be d4 82 7b be 90 de 93 3d 8c df ea 3d
       -0.1682404 -0.24561626 0.07220185 0.114684194
000270 36 d8 b0 bd 5c 87 19 be 71 64 a9 bd 88 b2 a2 3d
       -0.08634989 -0.14993042 -0.08271111 0.079442084
000280 4b 60 ba 3d 2e b4 b2 bc d0 da c4 bd 3b a2 17 be
       0.09100398 -0.021814432 -0.09612048 -0.1480798
000290 19 13 89 3d 6c d1 a2 3d 8d b3 3f be 76 fb 8d 3d
       0.06693096 0.079501 -0.18720837 0.06932728
0002a0 0b 58 39 3e f4 de a1 3d d2 d0 c1 bd 17 93 a9 bd
       0.18099992 0.07903853 -0.094636574 -0.08280008
0002b0 f4 05 3f 3d c2 68 4c 3e ec 7b 92 bd 89 0b 22 3e
       0.046636537 0.19961837 -0.071525425 0.15824713
0002c0 9c 23 51 bd be 78 b7 3d ec 83 35 bd 10 7a 01 be
       -0.05105935 0.089585766 -0.044315264 -0.1264422
0002d0 de fa f6 bc 80 a7 f7 bd c2 55 d3 bc e3 28 46 bd
       -0.03014892 -0.12092495 -0.025797728 -0.048378836
0002e0 14 af b3 3d 8e 1a b9 bc 33 8b 87 bc 25 27 4c 3e
       0.08773628 -0.02259567 -0.016545868 0.19936807
0002f0 c4 d9 bb bc 95 df f3 3c f2 b5 17 3e d4 80 68 3d
       -0.022930987 0.029769698 0.148155 0.056763485
000300 a9 37 eb bc b6 bc f3 3d 5c 5a d2 3d 54 78 d9 3d
       -0.028713064 0.11901228 0.10271141 0.10618654
000310 06 42 98 3d 0f 7d c8 3c 3a f5 8d bd c6 90 e3 3d
       0.07434468 0.024473695 -0.06931539 0.11111598
000320 63 61 a0 3d 97 b7 2a 3e 57 21 5f 3d 09 7b ee 3d
       0.07831075 0.16671596 0.054475155 0.11644561
000330 95 c8 4a 3e 38 a3 e5 bc f8 fc 8c 3e e0 e9 1f bb
       0.19803078 -0.02803193 0.2753675 -0.0024400875
000340 14 92 f6 3d 30 e9 13 3e 4c 58 f9 3d fc d6 67 bc
       0.12039581 0.14444423 0.121750444 -0.014150377
000350 35 fe 03 3e 57 8b a5 3d ae ae 3b 3e c3 34 4b bd
       0.12889941 0.080832176 0.18328354 -0.049610864
000360 33 9f 1f bd bf c0 f6 3b 58 7e cd 3c 8e fa 82 3d
       -0.038970184 0.0075303013 0.02508466 0.06395446
000370 c5 28 87 bc 31 f1 d5 bb 45 b2 fb 3d 3f 53 e1 3d
       -0.016498933 -0.0065289964 0.122898616 0.11002206
000380 e2 ac 29 3e 43 e8 8c bd d9 ab 03 3e 87 ec e8 bd
       0.16569856 -0.06880238 0.12858523 -0.11373239
000390 34 19 fc 3e 46 50 cd bc 0e f9 fc 3d 72 db 3e 3e
       0.49237978 -0.025062691 0.12352191 0.18638399
0003a0 7b 05 28 3d 1f 21 4d 3e 87 ba 23 bd c2 4d f9 3d
       0.04102085 0.20032166 -0.03997281 0.12173034
0003b0 55 8a 0a 3d ca 62 e7 3a 5f c1 1f 3d f3 96 d8 bd
       0.03382333 0.0017653343 0.039002772 -0.10575666

encoder.model.bias_hh_l0 f4 [240]
000000 2b da c0 3c 1f 28 c4 bd 36 de 90 bd e5 72 89 3d
       0.02354153 -0.09577965 -0.070736334 0.067113675
000010 b6 82 1c 3e d7 aa 47 3d 9c 0e f9 bd f0 63 2a 3e
       0.15284237 0.04874691 -0.1216099 0.16639686
000020 93 4f f0 3c db c1 22 3c 9a f3 09 bd d6 c7 6e bd
       0.029334819 0.009933914 -0.033679582 -0.058296047
000030 fb 80 03 3e 91 d9 02 3e 6f cd 8b 3b 55 37 dc 3d
       0.12842171 0.12778307 0.004266433 0.10752741
000040 08 ae 03 3e 88 9b 99 bd 33 74 e1 bc d7 cf bc 3c
       0.12859356 -0.07500368 -0.027521228 0.023048325
000050 d4 b7 b2 3d 19 71 8e 3e 0a 0c e4 bc 75 43 92 3d
       0.08726469 0.27820662 -0.027837772 0.07141773
000060 1e ad 3a bc 1f 53 8d bc 3e d7 e9 3e d3 a6 82 3b
       -0.011393813 -0.01725155 0.4567203 0.003987172
000070 9a 90 d6 3d f1 69 02 3e d8 34 67 3e 77 a2 81 bc
       0.10476799 0.12735726 0.22578752 -0.01582454
000080 cd dd b2 bd ca fe 77 3e 5c 7d 20 3e f8 9f 59 3c
       -0.087337114 0.24218288 0.15672821 0.013282768
000090 54 b5 ad 3d d6 7c 23 3c 2e cb 0c bd b4 3e 2a 3e
       0.08481851 0.009978494 -0.034373455 0.16625482
0000a0 1e 5e ce 3c a5 c4 7f 3d cc 04 95 3d 82 7f 86 3d
       0.025191363 0.062443394 0.072763056 0.06567289
0000b0 37 03 ce 3d 71 d4 ff 3c 5c 17 a4 3d b6 a8 73 bd
       0.10059207 0.03122923 0.08012268 -0.059487067
0000c0 bd b8 fd 3e aa 02 fc 3c bc 11 fa bd aa d1 41 3e
       0.49555007 0.03076299 -0.12210414 0.18927637
0000d0 57 b8 70 3d 30 a4 98 3e 88 69 f4 bd da 46 4d 3e
       0.05876955 0.29812765 -0.11934191 0.20046559
0000e0 61 4a 37 3e 9e 0c b9 3d a1 83 bd 3d cd e9 0f 3d
       0.17899467 0.0903561 0.09253622 0.03513508
0000f0 79 d0 1b 3e 1c b4 b6 bc c6 18 be bd 2b bf 2b bd
       0.15216245 -0.02230268 -0.09282069 -0.04193036
000100 38 fd c1 bd 33 0a 37 3d 65 09 d9 bd 2e 3c 1e bd
       -0.09472126 0.04468746 -0.10597495 -0.03863161
000110 e9 40 02 be 53 37 12 3e 1d f1 9d bc ec 54 a0 bc
       -0.12720074 0.14278917 -0.01928001 -0.019571744
000120 58 b3 3c bd bb 6e ab 3c ce 2e 1d 3c cb 16 e2 bb
       -0.046069473 0.020926824 0.009593679 -0.00689969
000130 5c 83 1c bd e5 9b 47 bd 73 3f b0 3d 6d 42 f8 bd
       -0.03821121 -0.048732657 0.08605852 -0.12122045
000140 6d 8e 9c bd 66 8f d4 bd 49 68 f2 bd 6b 5c 09 be
       -0.07644353 -0.103789136 -0.11836297 -0.13414161
000150 03 00 c6 bd 5f 6d 18 3e a9 44 53 be 7c 5c 2e 3d
       -0.09667971 0.14885472 -0.2063166 0.04256867
000160 c3 0a a4 3d fa 04 07 3e 7f 5c 37 be b9 e5 a4 3d
       0.08009865 0.13185492 -0.17906378 0.080516286
000170 59 0a 8c 3d 44 78 a6 3d af 98 f6 bb 20 0d a8 3c
       0.06837911 0.081284076 -0.0075255255 0.020514071
000180 50 0b f8 3d 42 1b ba 3d f1 50 b5 bd c8 0a 4c bd
       0.12111533 0.0908723 -0.08853329 -0.04981497
000190 3d f2 10 bd c4 3b d1 bd f7 2f e4 bd 4b 77 07 be
       -0.035387266 -0.102164775 -0.11141961 -0.132291
0001a0 be ff 43 bd 66 ca c8 bc b6 57 90 bc e6 10 2e ba
       -0.047851317 -0.024510574 -0.017619949 -0.00066400913
0001b0 e2 c9 63 be fc 4e e6 3d 98 d2 98 b8 d7 31 d5 bd
       -0.22244981 0.11245534 -7.287151e-05 -0.10409897
0001c0 33 79 ac bd ce 0a d5 3d b5 7a 79 bc 93 1e af bd
       -0.084215544 0.104024515 -0.01522701 -0.085507534
0001d0 64 b7 db 3d b2 f3 2f 3e 85 57 95 3d 30 83 b9 bd
       0.10728338 0.17182806 0.07292084 -0.09058225
0001e0 7c b6 bb bd 77 70 a5 bd a5 1e 5b bd eb d4 a4 3d
       -0.091656655 -0.080780916 -0.05349602 0.080484234
0001f0 b1 1f cb 3c 49 1c 84 3d d7 12 ac 3c e9 de e8 3d
       0.024795385 0.064507075 0.021005077 0.11370642
000200 f8 d2 f6 bd f1 77 c7 bd 8c 57 82 bd e2 46 3f be
       -0.12051958 -0.09739674 -0.063643545 -0.18679383
000210 46 8a e2 bd e6 1e fb bd 8e 75 ee bd 3b e8 48 3e
       -0.1106153 -0.12261753 -0.116435155 0.19619839
000220 5f e6 35 3d b4 8e fd bd 4e 61 f0 3d e0 1b be bd
       0.044409152 -0.12380734 0.117373094 -0.092826605
000230 2a 56 60 bc 41 30 1b 3e 25 9c 0d be 5a 0a 8e bd
       -0.013692418 0.15155126 -0.13829096 -0.06935568
000240 4a 97 40 3c 85 4d 06 3d 68 0b 59 3e 92 12 f1 3d
       0.01175482 0.032788772 0.21195757 0.1177112
000250 0c e8 26 bd 50 8b df 3c cd 86 13 3e 6a 74 b3 3d
       -0.04074864 0.027288109 0.14406891 0.087624386
000260 b0 c5 08 be ae 3c c6 bd aa b2 22 bd ac a9 04 bd
       -0.13356662 -0.096795425 -0.03972117 -0.032388374
000270 10 49 ba 3d 3b fb 0f be 17 27 bb bc 8d ea 82 3c
       0.09095967 -0.1406068 -0.022845788 0.015980983
000280 90 32 33 bd 35 2f d2 3d 0c c3 bd 3d 0b 91 00 bd
       -0.043749392 0.1026291 0.09265718 -0.031388324
000290 6e 40 c4 3c 68 96 b6 3d 15 fd 0e be fa cd 9e 3d
       0.023956504 0.089154065 -0.1396373 0.07754131
0002a0 62 5c c6 3d 64 09 05 be 4d 4a f1 3d a8 5f bd 3c
       0.096855894 -0.12991863 0.1178175 0.023116902
0002b0 c2 2e 23 3e 6f ab 60 3e 72 5c 09 be 0e 0c 33 3e
       0.15935805 0.21940397 -0.13414171 0.17485067
0002c0 16 6b e0 3d 06 22 05 3e 08 d4 6a 3d 2c 11 f6 bd
       0.10957925 0.1300126 0.057331115 -0.12014994
0002d0 78 2d b1 bd 18 f5 d2 3d 0c 16 32 3e c0 90 d7 3d
       -0.086512506 0.10300654 0.17391223 0.10525656
0002e0 1e 6e a7 3c bb c9 44 3d 67 db bd 3c 0d e2 4a 3e
       0.02043825 0.048043948 0.023175908 0.19812794
0002f0 9a fa 0e bd 68 76 83 bd 98 cd a4 bc 70 b3 22 3c
       -0.03490696 -0.064190686 -0.020117566 0.009930477
000300 35 de 8e 3d 6f 8e 6e 3d 30 ed 2d 3e eb 96 eb bb
       0.069759764 0.058241304 0.16985011 -0.0071896217
000310 42 cb 63 3d 4e 04 b3 bd 8e 77 9c bc f9 cd 26 3a
       0.055613764 -0.087410554 -0.019099977 0.000636309
000320 7d 02 19 bd b2 64 00 3e 4c 88 3b bc ac 64 d0 3d
       -0.03735589 0.12538412 -0.01144607 0.10175452
000330 e7 15 c2 bc 7e d9 98 3d 79 0f 95 3e 98 e4 ae 3d
       -0.023692084 0.07463358 0.29113367 0.085396945
000340 d2 ed 0e bd a2 bf 5f bd 24 32 5e 3e bb 25 89 3d
       -0.034894772 -0.054626115 0.21698815 0.0669665
000350 6c 56 85 bd 89 72 3b 3e d9 9e 05 3d 68 3e f6 3d
       -0.06510624 0.1830541 0.032622192 0.12023622
000360 4a f9 2e bd f3 23 09 3e 67 95 20 3c 38 a0 c3 bc
       -0.04271821 0.1339262 0.009801245 -0.02388011
000370 db 94 25 bd f9 44 a3 3d 93 0c 8d 3d 19 0d 3d bc
       -0.040425163 0.0797214 0.06887164 -0.011538767
000380 08 4f 1d 3d 94 eb a4 3d 43 04 21 3e 0c c5 e2 bd
       0.03840545 0.080527455 0.15724282 -0.1107274
000390 d4 cd bb 3e 14 24 0d 3c 82 29 03 be a6 46 af 3d
       0.36680472 0.008614559 -0.12808803 0.08558397
0003a0 33 c8 bb 3d c0 45 54 3e 24 73 6f bd 7e 93 2b 3e
       0.09169044 0.20729733 -0.058459416 0.16755483
0003b0 08 63 23 bb 2b b8 14 3d 1c 2c 19 3e 9b 84 98 3d
       -0.0024930853 0.03630845 0.14958233 0.074471675

encoder.model.weight_ih_l1 f4 [240, 60]
000000 ab a9 31 bd 62 67 1f bd 38 ca e6 bc c6 2e a2 3d
       -0.0433747 -0.038916953 -0.028172597 0.079190776
000010 b9 89 10 be f3 6a 52 3e c4 5d 63 3d f3 aa 4f 3d
       -0.14115037 0.2054861 0.055509344 0.05070014
000020 e5 0e e2 bd 4b 6b 04 3e f6 0a bc 3d 39 79 6d 3d
       -0.11037997 0.12931554 0.09181778 0.057976935
000030 a5 3d 12 bd 49 f7 ca bd 10 35 b6 bb c0 61 05 3e
       -0.03570332 -0.09910447 -0.0055605248 0.1302557
000040 d3 e9 07 3d e8 d9 12 be 0a 4d e1 3d 30 68 2e be
       0.033181977 -0.14340937 0.11001022 -0.17031932
000050 8c bb 6e bd c3 15 9b 3d 7a fc d1 bd 65 54 13 be
       -0.058284327 0.0757251 -0.10253234 -0.14387663
000060 d8 7e 32 bb ce 7c 8a bd 98 0b c4 3d b6 da b9 bc
       -0.002723625 -0.06762086 0.09572524 -0.022687297
000070 9d 66 03 3e 9f 99 27 3e cc ab 11 3d a3 fc 88 3d
       0.12832113 0.16367196 0.03556423 0.06688812
000080 67 07 f5 bc 50 6a 9c bd 7f 47 9f 3d 14 72 e9 3d
       -0.029910756 -0.07637465 0.07777309 0.11398712
000090 62 23 b6 bc 47 72 11 bd e8 ad 2c 3d 0d f6 10 be
       -0.022233669 -0.035509374 0.042158037 -0.14156361
0000a0 57 20 6a 3c fb af a2 3d f4 8d 91 bc ac 34 4b be
       0.014289937 0.07943722 -0.017767884 -0.19844311
0000b0 2b c9 be 3d 00 44 98 bd be 7a c3 bd 7a 16 b1 3d
       0.093157135 -0.07434845 -0.095448956 0.08646865
0000c0 14 d3 9c ba 78 01 a5 3d 57 bf 51 3e 4f f2 dd bd
       -0.0011964762 0.08056921 0.20483147 -0.10837232
0000d0 b3 b1 02 bd 88 01 3e 3e 12 5e 85 3d 0e 58 d4 3d
       -0.03190775 0.18555272 0.06512083 0.103683576
0000e0 44 9c 0b 3e e1 4c 16 bc d4 41 2b be a4 d0 0f bd
       0.1363383 -0.009173603 -0.1672433 -0.035111085
0000f0 ee b6 78 be 74 70 e9 bd 49 50 64 3d e1 6e dd 3c
       -0.24288532 -0.11398402 0.05574063 0.02703041
000100 08 a0 4c 3e 14 5c de 3d 92 96 1f 3e 05 c3 b3 bd
       0.19982922 0.10857406 0.15584782 -0.087774314
000110 c6 72 b4 3d 27 c2 93 be 86 ab 05 3e 5d 13 38 be
       0.08810954 -0.28859064 0.13053712 -0.17976137
000120 f2 54 1c 3e 14 09 2a be 71 a9 2a be 86 ca 20 bc
       0.15266779 -0.16605026 -0.166662 -0.00981391
000130 c9 25 ca bd e9 13 ab bc 64 57 24 be 0e 1f 09 be
       -0.09870488 -0.020883517 -0.16048962 -0.13390753
000140 37 9e d5 bd 2c 36 a2 bc 35 62 ee 3d d9 ae 86 bd
       -0.10430568 -0.019801222 0.11639825 -0.06576318
000150 a4 cb a1 3d ff 1e f0 3b 19 b4 ef bd 31 b8 c1 bd
       0.079001695 0.007327914 -0.11704273 -0.0945896
000160 99 98 a9 3d a4 96 80 3c c4 6e 7d bd 43 d4 18 3e
       0.08281059 0.015696831 -0.061873212 0.14924721
000170 d3 15 2d be c5 c8 41 bc 24 fd 92 3d b9 fc 10 bd
       -0.16902857 -0.011827652 0.07177189 -0.035397265
000180 ea 68 fb bc 87 3b 66 be 5a ed 4c bd d5 04 1f 3e
       -0.030689675 -0.22483645 -0.050031044 0.15529187
000190 03 ae 4a 3e f8 55 11 3e 52 a2 49 3d 74 72 07 bc
       0.19792943 0.1419295 0.049227066 -0.008267034
0001a0 38 72 30 3e f3 6c 70 3e 89 9e b0 3d 09 1c 6f 3e
       0.17231071 0.23479061 0.08623988 0.23350538
0001b0 4f ba 90 bd 5b e0 24 be e7 e7 b2 3d 02 49 b6 3d
       -0.070667855 -0.1610121 0.08735638 0.08900644
0001c0 b0 c5 fe 3c 76 14 10 bb fa 4d ec 3b a5 34 77 3c
       0.031100124 -0.0021984852 0.007211444 0.015088235
0001d0 52 2f 60 3e 03 b4 b9 3d b0 f1 95 3d f4 76 04 3b
       0.21893051 0.09067538 0.07321489 0.0020212503
0001e0 8d ae 5b 3d 21 4b a8 bd be b7 4d be 4e 63 20 be
       0.05363326 -0.08217455 -0.20089623 -0.15662882
0001f0 10 4b eb 3c b2 bc 01 be ca d6 29 3e 2b ca 48 bd
       0.028722316 -0.12669638 0.16585842 -0.049020927
000200 85 1a 24 be cf cb 3d bd ae ad df bd 29 c1 aa bc
       -0.16025741 -0.046336945 -0.10921799 -0.020844059
000210 1d 3b d0 3d 14 8c a9 bd c5 34 eb 3c ee d5 1b 3d
       0.10167525 -0.08278671 0.028711686 0.038045816
000220 2c 98 0c be 62 d3 8f 3d d1 d2 9a 3c b8 a6 ec bd
       -0.13729924 0.0702274 0.018899353 -0.115552366
000230 c2 0d 02 bd 3e a1 c5 bd 18 d0 f3 bd 29 1c 1a be
       -0.0317514 -0.09649895 -0.11904925 -0.15049805
000240 be 3e b3 bd 6f 6c 44 bd 0a 01 b6 bd c5 30 62 3d
       -0.087522015 -0.047954973 -0.08886917 0.05522229
000250 d4 be e2 3d 5c 6f a8 3c 21 f1 e0 3d 95 d5 09 3e
       0.11071554 0.020560913 0.10983492 0.13460381
000260 ce 34 fb 3c 51 55 16 bd 05 89 57 3e ff e6 a3 bc
       0.030664828 -0.036702458 0.21048363 -0.020007608
000270 f2 56 f6 3c f7 64 4b 3d 04 a7 fe bd 8f 51 88 3b
       0.030070756 0.049656834 -0.124341995 0.004160113
000280 be 2e 97 3c 5d 2b ab 3d 7b 98 26 bb e8 c8 d6 bd
       0.018454906 0.0835788 -0.0025420475 -0.104875386
000290 45 82 a9 bd 15 bb 1e bd e5 0a 00 3c e9 e9 d5 3b
       -0.082768 -0.038752634 0.007815097 0.0065281284
0002a0 b6 08 18 3d 39 6b 09 be a5 b1 21 bd ea fb 3e be
       0.037117682 -0.13419808 -0.039476056 -0.18650785
0002b0 49 2b 09 bd 23 0b 0f 3e f0 fa 78 bc 50 9f 9f 3c
       -0.033488546 0.13969092 -0.015196547 0.019485146
0002c0 71 a1 fa 3c 69 9c 97 3c e9 a1 b2 bc a2 e1 81 bc
       0.03059456 0.0185072 -0.02180572 -0.01585466
0002d0 81 6d e6 bd 1d 72 18 be ef 17 11 bd 73 39 99 bd
       -0.11251355 -0.14887281 -0.035423215 -0.07481661
0002e0 1f 98 28 bd e2 9c 16 3e 32 5e 47 3c 0f 3b 42 bd
       -0.0411607 0.14708284 0.012168454 -0.047419604
0002f0 03 ad c2 bb 76 b8 3a be 6b 50 23 3e 34 e9 75 3c
       -0.0059410348 -0.18234429 0.15948646 0.015009213
000300 ca 80 d3 bc 11 51 1a be 5c 69 38 bd 24 91 c2 3d
       -0.025818247 -0.15069987 -0.045022354 0.095003396
000310 2f e0 a5 bd 67 29 cf bd 49 25 89 bd 0e 38 18 be
       -0.080994 -0.10115319 -0.06696565 -0.14865133
000320 e9 6e b0 3c be 73 15 3e bd 49 0f be f3 16 8d 3c
       0.021537261 0.14594933 -0.13992973 0.017222857
000330 eb b1 b0 bc 54 37 87 3d 1c 8a 99 3c 3e 4b 79 3e
       -0.021569213 0.0660235 0.018742613 0.24345109
000340 d5 93 25 3e ed d1 92 3c 37 86 2e bc f8 1a 8e 3d
       0.16169675 0.017922366 -0.0106521165 0.06938738
000350 0f 8b 0e be a5 87 08 be 16 e8 4a bd d4 0f b9 bd
       -0.13920234 -0.13332994 -0.04953774 -0.09036222
000360 7f 69 fd bb de 9e 5f bd ac 64 e7 3c d3 54 d5 3c
       -0.0077335234 -0.054594867 0.028246246 0.026041424
000370 95 dc 97 3d ca 82 2a 3d 89 c6 de bd ee 04 14 bd
       0.074151196 0.041628636 -0.10877711 -0.036137514
000380 b9 82 88 bd d6 8d da 3d b8 81 18 be 72 5f 27 3c
       -0.06665558 0.10671584 -0.14893234 0.010215627
000390 3e 97 12 3e 3e 88 3a 38 ed 7f 55 bd 86 3d e4 bd
       0.14315507 4.447274e-05 -0.052123953 -0.11144547
0003a0 cb b8 a6 3c e1 80 9b bc c7 1a 87 bd 11 2d 20 3e
       0.020351788 -0.018982353 -0.06596904 0.15642191
0003b0 0f 0d 7f bd 8b 2b 46 3e 5c 3c c3 3d 8d 5e 04 be
       -0.062268313 0.19352548 0.09532997 -0.12926693
0003c0 df 1f 9e 3d af 3c f6 3d 84 cf d9 bd 1f 06 71 bd
       0.07720923 0.12023293 -0.106352836 -0.05884373
0003d0 54 f0 08 be 41 4e f8 bd e2 f9 69 bd 95 d5 99 3d
       -0.13372928 -0.12124301 -0.057123072 0.07511441
0003e0 eb 06 80 3d 77 7c 01 be f5 a8 18 3e 9c 34 41 3d
       0.062513195 -0.12645136 0.14908202 0.047169313
0003f0 40 11 98 bd 02 4e fa 3c dc 07 1c 3d fe b1 b1 bd
       -0.07425165 0.030554775 0.038093433 -0.086765274

encoder.model.weight_hh_l1 f4 [240, 60]
000000 cf 1d 94 3d 13 5a 93 bd 8f 9f a0 3d 5c 53 ae bd
       0.07232248 -0.07194915 0.078429334 -0.08511993
000010 6c 49 ad bd 29 08 d0 bd ac 83 c7 bd 05 0d 8d 3d
       -0.0846127 -0.101578064 -0.09741911 0.06887249
000020 f5 7a 0b 3c dc 55 b2 bd 7a 4f b4 bd 6a 73 05 bd
       0.008513202 -0.087077826 -0.088042215 -0.03258077
000030 ac cd 0e be e3 7d 28 bd 07 d6 23 be 4f 5a 1c bb
       -0.13945645 -0.04113568 -0.15999614 -0.002385754
000040 69 91 ee 3d 5e 7e 2e be 38 da 78 bd 35 05 cf 3d
       0.116488285 -0.17040393 -0.060754985 0.10108415
000050 e2 7b b7 bd 66 b8 a5 3c df 3e 59 bc 90 e6 03 3d
       -0.08959176 0.02022953 -0.013259619 0.032202303
000060 e5 c9 d6 3b a0 80 14 3d be ce 5c 3d db 70 39 bd
       0.0065548294 0.03625548 0.053908102 -0.045273643
000070 55 60 b4 bd 44 a3 b0 3c 27 8c 9e 3d 2c 2c b6 bd
       -0.088074364 0.021562226 0.07741576 -0.08895144
000080 32 ef 0f bd b5 8a 25 3d 0a cd 03 3e ed c6 48 39
       -0.035140224 0.040415484 0.12871185 0.00019147592
000090 fd c4 2e 3d 41 85 12 3e 5c ec a6 bc 4c 27 85 bc
       0.04266833 0.14308645 -0.020376377 -0.01625409
0000a0 a7 b8 02 3d 96 2c 60 3d 3c c9 21 be 15 84 11 3e
       0.03191438 0.05473002 -0.15799421 0.14210542
0000b0 2a 07 06 be 3f c9 6d bd c6 f8 a3 3d 2c c2 0f be
       -0.1308867 -0.05805325 0.08006434 -0.14038914
0000c0 e8 36 8d bd 7d 0a 54 3d 41 80 23 3d 85 56 d4 bd
       -0.06895238 0.051767815 0.039917234 -0.10368065
0000d0 da c3 13 3d 49 38 0e be fe b8 83 3d 23 22 cb bd
       0.03607545 -0.13888659 0.06431769 -0.099186204
0000e0 ff c1 ad bd e8 59 01 be 50 47 58 bd 59 d4 0a 3e
       -0.084842674 -0.12631953 -0.052802384 0.13557567
0000f0 72 f8 2b bc 29 ec 8c bd fa a5 02 be 0e 0e 5c 3e
       -0.010496246 -0.068809815 -0.12758628 0.21489736
000100 99 05 e3 3c 93 7c aa 3d db 09 09 3e 2c a9 79 bd
       0.02771263 0.08324542 0.13382666 -0.06095235
000110 ee 4d 92 bd 9b 22 06 be 2b 5a 22 bd 0b 21 0c be
       -0.0714377 -0.13099138 -0.039636772 -0.1368448
000120 1b 25 54 3e 05 24 9f 3b c1 c2 0b bc be 25 4d bd
       0.2071728 0.004856589 -0.00853032 -0.050084822
000130 dd 3a dd 3c 2a 23 09 be 06 fa 0a 3c a5 63 28 be
       0.027005607 -0.1339232 0.008482462 -0.16444261
000140 b3 68 49 3e c5 2a 3d 3e 27 fa 39 3e 95 39 9e 3d
       0.19668846 0.18473347 0.18161832 0.07725827
000150 5d 3e 32 3e 1f b8 a7 3e c0 a2 54 3e be 95 9e 3c
       0.17406602 0.3275766 0.20765209 0.019358512
000160 c3 50 c2 bd cd 93 57 be ae 9e db bb 4d e8 01 3e
       -0.0948806 -0.21052475 -0.0067022657 0.12686272
000170 d5 82 c4 3d 3b e3 cc 3b ed 02 ce 3d 36 41 c4 bd
       0.09595267 0.006252674 0.10059152 -0.095827505
000180 a8 44 fa bb 44 84 0a 3e 25 ad 8a 3c 43 1d 3f bd
       -0.007637579 0.13527018 0.016928265 -0.046658766
000190 99 5e d5 bd 05 f6 0d 3e 6a ae 0d bc 2c 13 1e be
       -0.10418434 0.1386338 -0.008647541 -0.15437001
0001a0 7b 71 aa 3d 63 0d 8d 3d c3 7c 88 be a3 15 e4 bd
       0.08322426 0.06887319 -0.26657686 -0.111369394
0001b0 b7 bd 15 be e2 d6 3c 3e 85 e4 15 bd 15 7a 5f bd
       -0.14623152 0.18441346 -0.036594886 -0.054559786
0001c0 28 6c 78 be 73 cd 9c bb 59 11 57 3d 44 40 a2 3d
       -0.24260008 -0.0047852336 0.05250678 0.07922414
0001d0 2d be 14 3e 02 10 2e be 52 eb 0b be ea 0f 49 bd
       0.14525671 -0.16998294 -0.13663986 -0.049087442
0001e0 f3 66 4b bc be a6 87 3d cb 66 83 bc 1b b7 2c 3d
       -0.012414682 0.066236004 -0.016040226 0.04216681
0001f0 a7 14 a5 bd ed b0 1b 3d f0 80 da 3d 75 c3 a7 bc
       -0.0806058 0.038010526 0.10669124 -0.020478943
000200 ba 4e 88 bd 9b 5d a2 bb d1 2a 0a 3d 88 96 1c be
       -0.06655641 -0.0049550063 0.03373224 -0.15291798
000210 75 34 c0 3c 61 bc 08 be 57 7f bd bd 2e 85 82 bc
       0.023462513 -0.13353111 -0.09252804 -0.015932646
000220 84 58 73 3d e5 63 9d bc da a2 a6 3d 1f fa b5 bd
       0.059410587 -0.019212672 0.0813653 -0.088855974
000230 e0 73 6a bc 47 f2 ca bd af cc 20 3e ac c5 70 3d
       -0.014309853 -0.09909492 0.1570308 0.058782265
000240 ca bb 05 be 0f bd c7 3c 5f 30 82 3e 6e 21 b5 3d
       -0.13059917 0.024382142 0.2542753 0.08844267
000250 40 ce 45 be e1 e4 f3 ba 2f cd 01 3e 6b 7a 36 3d
       -0.1931696 -0.001860764 0.12675928 0.04455034
000260 55 ed 05 3d 79 ad 28 3d de 57 13 3e c2 d5 d5 bd
       0.03269704 0.04118106 0.14388987 -0.10441162
000270 1a a5 bc 3d e8 a8 4e 3d 64 af 07 be a0 e1 28 bd
       0.09211178 0.05045405 -0.132505 -0.041230798
000280 e2 4f ac bd 8e 5f 88 3d 3f eb 56 3d 7f 80 e3 3d
       -0.08413674 0.066588506 0.052470442 0.11108493
000290 c4 fa a0 3c e4 b7 0e 3e 3e 1a 1d be f0 54 12 be
       0.019650824 0.13937336 -0.15342042 -0.14290214
0002a0 b2 c9 20 3d 04 7a 43 3e e1 61 67 3c 1a b8 18 be
       0.03925485 0.19089514 0.014122457 -0.14913979
0002b0 55 02 82 3b 87 8a 0a be 77 e0 89 bd f9 9e 94 3d
       0.003967563 -0.13529406 -0.067322664 0.07256884
0002c0 2e 28 19 bd bc 37 e2 bd d2 7b 88 3c 68 bc 92 bd
       -0.037391834 -0.11045787 0.016660605 -0.07164842
0002d0 1b e8 f8 3d ae 04 e4 bd de 01 07 be a9 ae 7b 3d
       0.121536456 -0.11133705 -0.13184306 0.061445866
0002e0 80 d2 34 be 71 9b c0 3a c4 f4 8d 3c 5c 4b 8f be
       -0.17658424 0.0014694763 0.017328627 -0.27987182
0002f0 12 73 44 bc 7f 6c 6d be ef 56 39 3d 5d 75 e5 3d
       -0.0119903255 -0.23185919 0.045248922 0.11204026
000300 ea 6e 8f 3d 22 7d c1 bd 34 8b 98 bc 05 b2 b8 3d
       0.07003577 -0.09447695 -0.018621065 0.090183295
000310 5e 65 34 3c f2 e2 38 3d 6f d1 3a 3e 15 a2 2e be
       0.011010496 0.045138307 0.18243955 -0.17054017
000320 2c 06 51 bd 32 2e 69 bd 7c 5e cc 3d c3 b0 b3 bd
       -0.051031277 -0.05692882 0.09978959 -0.08773949
000330 25 11 b1 bd f0 28 17 bc ad 6f e6 bd f7 07 cc bc
       -0.08645848 -0.009226069 -0.11251769 -0.024906142
000340 9b 0b 88 bc de 85 6e bd 09 a1 29 bd 0e 88 c2 bc
       -0.016607096 -0.058233134 -0.04141334 -0.023746517
000350 cc 2f 92 bd a6 50 a5 bb 79 cd da bd a1 33 28 3d
       -0.07138023 -0.0050450144 -0.10683722 0.041064862
000360 31 2e d2 bc 84 80 d9 3c fe ab df 3d eb 7c b8 bd
       -0.025656791 0.026550539 0.10921477 -0.09008201
000370 bc bd 3c 3d 4e e7 d8 3d 41 29 e7 3d 7a a2 98 3d
       0.046079382 0.10590993 0.112871654 0.07452865
000380 65 b0 01 3e 51 bf 42 3e 6b 69 9d bd 61 78 84 3d
       0.12664945 0.19018294 -0.076861225 0.06468273
000390 57 60 a5 bd ac a5 33 bc ad a6 91 3c 2d 9f 04 be
       -0.08075016 -0.010964792 0.017779673 -0.12951346
0003a0 fa 73 31 be 9f fa 7e bd d1 27 06 3e b7 cc f5 bd
       -0.17329398 -0.06225073 0.13101126 -0.12001937
0003b0 81 84 2d 3d 15 fb 2f bd 72 aa d8 bd b6 e8 95 bd
       0.042362694 -0.04296406 -0.10579385 -0.07319777
0003c0 f1 5f 67 bd f0 cf 8f 3c 5f 0e 9e bd d5 9e 1d 3d
       -0.05648798 0.017555207 -0.07717585 0.038481552
0003d0 3a be 53 bd 95 a6 fe bc 7a 36 97 bc a3 7e db 3c
       -0.051695086 -0.031085292 -0.018458594 0.026793784
0003e0 66 32 18 be 89 7b 38 3d 90 93 b4 bc 8f 4c b2 bd
       -0.14862975 0.045039687 -0.02204302 -0.08706009
0003f0 27 ab 9e bd 2f d0 4b 3d 0e a1 62 bd 9a eb b1 3d
       -0.077474885 0.049759086 -0.055329375 0.086875156

encoder.model.bias_ih_l1 f4 [240]
000000 f7 0b 83 3c 87 19 27 3d 5f 4f 33 3e 8b ad 24 3d
       0.015996916 0.04079583 0.17510746 0.040204566
000010 99 56 ae 3d d7 70 1b 3d 63 d9 b7 3d 22 16 9e 3d
       0.08512611 0.03794941 0.0897701 0.07719065
000020 81 20 a4 3e 5d 22 5c 3d 38 cb 67 3d 79 2e 6b 3e
       0.3205605 0.05374371 0.05659029 0.22966947
000030 9b 6f 05 3e b8 55 22 3d 1b 27 1e 3e 0f d3 d2 3d
       0.13030855 0.03963253 0.15444605 0.102941625
000040 a1 da 77 3d 98 97 14 3f 39 6f a6 bd 38 7e 9b bd
       0.060511235 0.58043814 -0.08126683 -0.07592434
000050 ed f1 96 3d 3a 0b e7 3c 19 ad e8 bc ac 35 4e 3e
       0.073703624 0.028203595 -0.028402852 0.20137662
000060 50 62 e9 3e ee 08 53 3e 2d 51 6d bd 0a 0f 03 3e
       0.4558282 0.20608875 -0.057938743 0.12798706
000070 5f 63 40 3d f0 74 04 3d 17 32 59 3e 39 f7 8a 3d
       0.046969768 0.032338083 0.21210514 0.06785435
000080 23 d2 1d 3e 49 82 ff bc 79 08 a6 3c 6a 07 b9 bd
       0.15412192 -0.031190054 0.020267712 -0.09034617
000090 5d dd 4a 3f d4 78 00 3d d3 3b c8 3d 9e dd 70 3d
       0.79244024 0.03136523 0.097770356 0.0588051
0000a0 b3 56 9c bd 06 c2 c7 3e b4 0a 71 3e 5a f1 27 3e
       -0.07633724 0.39015216 0.23539239 0.16400662
0000b0 44 07 3e bc 0a 3d 15 bd 36 36 20 3e 6f ab af bd
       -0.011598412 -0.036435165 0.1564568 -0.0857762
0000c0 66 29 27 bd 6c e9 e5 bd 85 b8 d7 3d 4e 5f cb 3d
       -0.040810965 -0.11226162 0.10533241 0.09930287
0000d0 1e f3 38 3d d2 d3 f3 3e 73 d0 60 3d a1 f9 a6 3d
       0.04515373 0.47622544 0.054886293 0.08153082
0000e0 11 b7 ea bd f5 bb 09 3e 43 82 39 3e 05 e0 c2 3d
       -0.114606984 0.13450606 0.18116097 0.095153846
0000f0 1d fd af bd 20 66 d4 bd b5 d5 ee 3d b0 34 6f 3d
       -0.085931994 -0.10371041 0.11661855 0.058399856
000100 5e 3f ea bd f1 db 0f 3e 3c 74 ca bd 7e f8 1c 3d
       -0.114378676 0.14048745 -0.09885451 0.038322918
000110 f4 46 2e bd af 42 e2 bd 92 54 af bd d6 d8 e7 3d
       -0.042548135 -0.11047875 -0.085610524 0.11320655
000120 11 ff 34 bd fa ba 40 3d 84 a4 95 bd 30 3b 01 bd
       -0.044188563 0.047053315 -0.073067695 -0.031550586
000130 eb ba b9 bd be 2b ad bd 29 03 1f bd bf 81 26 3c
       -0.09068855 -0.08455609 -0.038821373 0.01016277
000140 cc 7f bb bd b2 61 d2 3d 22 22 b6 bd fe 60 63 3d
       -0.09155235 0.1027254 -0.08893229 0.05551242
000150 fe e3 78 bd bf a4 c6 3d ce 97 08 3d b0 46 98 3d
       -0.060764305 0.096993916 0.033347897 0.074353576
000160 b4 7c 66 3d 3e 7c 5a 3c 48 4f ac bc 83 9e 95 bc
       0.05627127 0.013335286 -0.021033898 -0.01826406
000170 d5 50 f9 bc 67 39 02 be 43 16 27 be ee b6 db bc
       -0.030434052 -0.1271721 -0.16317086 -0.026820626
000180 3c 14 18 be bf ca 52 be b7 15 a7 bd 4a 44 a1 3a
       -0.14851469 -0.20585154 -0.08158439 0.0012303677
000190 3e 22 a3 bc 29 83 7b be 33 c1 40 3d 5b 66 67 3d
       -0.019913789 -0.24561752 0.04705925 0.0564941
0001a0 49 33 da bd 8c 2c 15 be 3e be 36 3c a4 c4 ae 3d
       -0.10654313 -0.14567775 0.011153756 0.085336
0001b0 04 fe 02 bd b9 6f 90 3d e9 a1 6e bd 1d 5c 11 be
       -0.03198053 0.070525594 -0.05825988 -0.14195295
0001c0 8b d0 f8 3d bb eb 7f be 1a 08 e5 bd 95 49 b4 bd
       0.121491514 -0.24992268 -0.11183186 -0.08803097
0001d0 8e 03 1a be b2 4b a5 3b b9 2e a3 bc b3 ef b3 3d
       -0.15040419 0.005044424 -0.01991974 0.087859534
0001e0 fc c0 3e 3d 8c e7 4c bd b2 08 fc bd 8f 04 ef 3d
       0.046570763 -0.050025508 -0.12306346 0.11670791
0001f0 18 7d 91 3c 45 9d 07 3e 26 4f 0c 3e 4b 3b ef bd
       0.017759845 0.13243587 0.13702068 -0.11681231
000200 19 21 91 bd 35 ce 06 be cd cf 3e bd d9 e8 0b 3d
       -0.07086391 -0.13164599 -0.046584893 0.034157608
000210 99 57 9c bc d3 ba 80 bd f2 8a cd bc fe 31 40 bc
       -0.019084739 -0.06285634 -0.025090668 -0.011730669
000220 95 af 52 3d ae a9 39 be 6f 58 ab 3d 27 82 8f bd
       0.05143698 -0.18131134 0.08366477 -0.070072465
000230 0f 22 85 3d 3b 95 1c 3d 0d c7 8b bd c6 05 01 bc
       0.06500637 0.038228255 -0.06825075 -0.007874912
000240 db eb 39 bd 92 24 10 3e 8c 55 84 bd ff a8 ae bc
       -0.045390945 0.1407645 -0.06461629 -0.021320818
000250 90 87 79 3d c8 dd 85 bc 50 80 23 3d c8 13 9b 3d
       0.060920298 -0.016341105 0.03991729 0.07572132
000260 9c 74 77 bd 77 20 0e bd 5a 83 95 3d 60 2c 98 bd
       -0.06041394 -0.03469893 0.07300444 -0.07430339
000270 9e 9f 8a 3e ab 17 31 3e 89 41 2d bd 31 0e 7e 3d
       0.27074903 0.17294185 -0.042298827 0.062025253
000280 4a a4 e6 3b 57 06 3d 3e 51 4f f8 bd 7a 9b 80 3b
       0.0070386278 0.1845945 -0.121245034 0.0039247843
000290 f9 e6 de bd 15 f6 9c 3d de 74 bc bd 7e 72 22 bd
       -0.10883898 0.07664124 -0.09201978 -0.03965997
0002a0 33 15 f9 bd 4b 9f 8f bc 12 83 e1 bd 98 ff 37 bd
       -0.121622466 -0.017532011 -0.11011328 -0.044921488
0002b0 00 dc d5 3d 28 0f 7e bd e2 37 5b 3d 05 f4 1e 3c
       0.10442352 -0.062026173 0.05352009 0.0097017335
0002c0 ac 65 c1 3d 3d 45 5a bd 74 21 10 bc dd 92 e2 bd
       0.094432205 -0.053288687 -0.008797038 -0.11063168
0002d0 12 d5 9e bd 46 19 ee 3d 7e 10 24 3e 40 e4 6a 3e
       -0.07755484 0.11625914 0.16021916 0.22938633
0002e0 be 7e 98 bd 9a a4 38 bd a6 c2 e7 3d 24 65 a8 3d
       -0.07446049 -0.04507885 0.11316423 0.08222416
0002f0 b3 ac c8 3e 8c 87 38 bd 53 88 93 bd e9 35 f5 3c
       0.3919426 -0.045051143 -0.07203736 0.029932933
000300 77 67 26 bd c0 46 08 3e 76 cc 3d 3e 5c 84 03 3e
       -0.040626016 0.13308239 0.18535027 0.1284346
000310 e8 63 88 bd 01 b0 ee 3e 30 69 9b bd 88 b8 ef bd
       -0.066596806 0.46618655 -0.07588422 -0.117051184
000320 4b 04 62 3d d1 c4 04 bd 43 41 e9 3d 83 75 3a 3e
       0.055179875 -0.03241426 0.11389401 0.1820889
000330 ca 85 77 3e 70 db 8e 3c 04 05 a6 3d dc 56 0d bd
       0.2417213 0.01743862 0.081064254 -0.034506664
000340 20 99 0b bd e1 a9 8d 3d 8a 98 c5 3d fc ae 93 bd
       -0.03408158 0.069171675 0.09648235 -0.0721111
000350 12 32 03 3e 55 c7 00 3e d0 a2 0f bd 01 7f 02 bd
       0.12812069 0.12576039 -0.03506738 -0.0318594
000360 b2 6e 5e 3f 04 12 6a 3d ec 9a eb bd ad a9 e5 3d
       0.8688766 0.057146087 -0.115041584 0.11214004
000370 ba 78 60 bc a7 a0 cf 3e d0 60 d9 3c 9a f6 25 3d
       -0.013700658 0.40552256 0.026535422 0.04051838
000380 0a 3a f8 3d 17 4b 01 3e 74 e0 10 3c 7f 5b c0 3d
       0.12120445 0.12626301 0.008842576 0.093924515
000390 3d f6 38 3e 78 b5 82 3c 2d 67 b2 3d 00 7b 94 3d
       0.18062682 0.015955672 0.087110855 0.07250023
0003a0 5b d9 99 bd 2d d8 b8 3e 3e 60 b0 bc fc 85 36 bd
       -0.075121604 0.3610243 -0.021530267 -0.04456137
0003b0 bf 74 de 3d 77 af 6f bd 1e b1 cb 3d b4 dd 5f 3d
       0.10862111 -0.058516946 0.09945892 0.054654792
