models/20200923_173706/epoch_0200_loss_443534.53687.pt (torch, 232273 bytes, 96 tensors)

encoder.model.weight_ih_l0 f4 [120, 3]
0	0xbdbcf012	-0.09225477
1	0xbd79bb97	-0.060969915
2	0x3e24eaa6	0.16105136
3	0xbdde2c16	-0.108482525
4	0x3db421c3	0.08795502
5	0xbdf8a06f	-0.12139975
6	0x3d6c3485	0.057667274
7	0xbe03828a	-0.12842765
8	0xbd5f3d83	-0.05450202
9	0xbd3495b7	-0.04408809
10	0x3dc19485	0.09452156
11	0xbdcb7005	-0.099334754
12	0xbd3c728c	-0.046007678
13	0x3db20150	0.086916566
14	0x3e656015	0.22399934
15	0xbea17f60	-0.31542492
16	0xbda5d80a	-0.08097847
17	0xbe7d8b0a	-0.2476007
18	0xbdc2a53a	-0.09504171
19	0xbe1d0908	-0.15335476
20	0xbccc0b45	-0.024907717
21	0x3cc80c80	0.024420023
22	0x3ccb2c92	0.024801526
23	0xbe46f6bd	-0.1943006
24	0x3d6b7444	0.057483926
25	0xbdccd44e	-0.100014314
26	0x3ddedb55	0.10881678
27	0xbdc4edab	-0.09615644
28	0xbe25bd53	-0.16185503
29	0xbdd43633	-0.103619
30	0xbe5bd070	-0.21466231
31	0xbe16d59f	-0.14729927
32	0x3d12ea2e	0.035867862
33	0xbe0605cd	-0.1308815
34	0x3e1f7c2e	0.15574715
35	0x3e17285c	0.1476149
36	0xbe41950e	-0.18904516
37	0xbc0a9994	-0.008459467
38	0xbe0f5de0	-0.14000654
39	0xbe80d672	-0.2516361
40	0x3e24a9c0	0.1608038
41	0x3e6ec279	0.23316373
42	0xbcbec12c	-0.02328547
43	0xbd08797b	-0.033318978
44	0xbadb29e3	-0.0016720857
45	0xbe42068b	-0.18947808
46	0xbd512451	-0.051060025
47	0xbdf4a9e1	-0.11946464
48	0xbe0391d0	-0.12848592
49	0x3c8d164f	0.017222552
50	0x3e19f0af	0.1503322
51	0xbe35fe9a	-0.17772904
52	0x3de22665	0.110424794
53	0xbc22d379	-0.009938114
54	0xbdd3cbe7	-0.10341626
55	0xbdd9810a	-0.106203154
56	0x3e1bc777	0.15212809
57	0xbe513f17	-0.20434223
58	0x3d387080	0.045029163
59	0x3dce761c	0.10081121
60	0x3dcce4ec	0.10004601
61	0xbe4766c0	-0.1947279
62	0xbd80f317	-0.06296366
63	0xbe171d5d	-0.14757295
64	0x3cea16bc	0.028575294
65	0xbd84e1f0	-0.06488407
66	0xbe0a940a	-0.13533035
67	0x3dc00661	0.09376217
68	0xbe0a45e6	-0.13503227
69	0xbe1ec92d	-0.1550643
70	0xbd4cad57	-0.049969997
71	0x3da59ee2	0.08086945
72	0x3de1fa96	0.110341236
73	0x3d1a64b1	0.037693683
74	0x3dc4acb2	0.096032515
75	0xbad2b4d2	-0.0016075617
76	0xbe1e2a90	-0.15445924
77	0xbd2832b5	-0.041063983
78	0x3d9a6173	0.07538118
79	0x3d2cd32d	0.04219358
80	0x3d181061	0.037124995
81	0xbe00c868	-0.12576449
82	0xbd80a650	-0.062817216
83	0x3dee2287	0.11627679
84	0x3db43248	0.08798653
85	0x3d62e42d	0.055393387
86	0xbca54a85	-0.020177135
87	0xbe54c560	-0.20778418
88	0xbe121345	-0.14265163
89	0x3d84564b	0.064617716
90	0xbdd250cd	-0.10269318
91	0xbc4526a8	-0.012033142
92	0x3e4590d3	0.19293527
93	0xbe10000e	-0.14062521
94	0xbd967a7a	-0.07347579
95	0x3e06debb	0.13170902
96	0xbd8b323e	-0.06796692
97	0xbe1a6957	-0.15079246
98	0xbab7d174	-0.0014024214
99	0xbd44a6b4	-0.048010543
100	0x3d72fb9c	0.059321985
101	0xbd2b246e	-0.04178279
102	0x3dfeaa9f	0.12434887
103	0xbd85612b	-0.06512674
104	0x3e3f33a8	0.18672049
105	0xbe6f2d4d	-0.23357125
106	0x3b39c1a5	0.002834418
107	0xbe72ca98	-0.23710096
108	0x3cb0b0d4	0.021568693
109	0xbde9e704	-0.11421016
110	0x3bc2b16f	0.005941562
111	0x3df6392a	0.12022622
112	0xbdfc76fc	-0.12327382
113	0xbd9f4b4b	-0.07778033
114	0xbb8516f0	-0.0040615723
115	0x3e5ea1e2	0.21741441
116	0x3e643ba6	0.22288379
117	0xbe0126f3	-0.12612514
118	0xbddba6d8	-0.10725182
119	0x3e4ce157	0.20007835
120	0x3dea46ee	0.1143931
121	0xbcd1d0ee	-0.02561232
122	0xbdedb34e	-0.11606465
123	0xbe417eaf	-0.18895982
124	0xbe1185ed	-0.14211245
125	0xbcc446dc	-0.02395957
126	0xbe692b6e	-0.22770473
127	0xbe12d589	-0.1433927
128	0xbdda2a5f	-0.10652613
129	0x3db831e6	0.08993892
130	0x3e2047bd	0.15652366
131	0xbd90e2b5	-0.07074491
132	0xbc92eb88	-0.017934576
133	0x3dd7af1e	0.10531448
134	0xbd946d05	-0.07247356
135	0x3e3454ef	0.17610525
136	0xbdde5cd0	-0.10857546
137	0x3cd12474	0.025530078
138	0xbde8ade7	-0.11361294
139	0xbdda7133	-0.10666122
140	0xbb40c557	-0.0029414499
141	0xbd810cf2	-0.06301297
142	0xbd21e4c9	-0.039524827
143	0xbd23859f	-0.039922353
144	0x3e249751	0.16073348
145	0x3d739fe0	0.05947864
146	0xbde155b4	-0.11002675
147	0xbcb46382	-0.022020105
148	0x3ce16d30	0.027517885
149	0xbe0a5411	-0.13508631
150	0x3da568e6	0.080766484
151	0xbe1e7c25	-0.15477045
152	0x3e26b9dc	0.16281837
153	0xbcb05b92	-0.02152804
154	0xbc9dc1dc	-0.019257478
155	0x3db0246a	0.086006954
156	0xbd10fb70	-0.03539604
157	0xbd215999	-0.039392088
158	0x3dbc9e69	0.09209902
159	0x3e30cbd9	0.17265262
160	0xbe20131d	-0.15632291
161	0x3df21e3c	0.11822173
162	0x3e5e1b77	0.21690165
163	0x3c93479a	0.017978478
164	0xbd83750a	-0.06418808
165	0xbe0377fc	-0.12838739
166	0xbd7813be	-0.060565703
167	0x3e334393	0.17506246
168	0x3de444cb	0.11145934
169	0x3c3e2063	0.011604401
170	0x3d404389	0.046939407
171	0xbd7e1e74	-0.06204076
172	0x3d982fd4	0.074309975
173	0x3c1f88bf	0.009737193
174	0xbd7caa01	-0.061685566
175	0xbdbba3dc	-0.09162113
176	0xbd76f794	-0.060294703
177	0x3da8b668	0.08237916
178	0xbd8ca3ae	-0.06867157
179	0x3b104309	0.0022012612
180	0x3e2d7b03	0.16941456
181	0xbe540e78	-0.20708644
182	0x3d019413	0.031635355
183	0xbbffdeac	-0.007808527
184	0x3e13f1ea	0.14447752
185	0x3c1396bf	0.009008109
186	0x3c4d1476	0.012517085
187	0x3d13c8ca	0.03608016
188	0x3e0acc97	0.13554607
189	0xbda76dd7	-0.08175247
190	0xbc04df15	-0.0081098275
191	0xbc15db00	-0.009146452
192	0x3cd7e098	0.026352212
193	0x3cc9164c	0.024546765
194	0x3e45ab32	0.19303587
195	0x3de680a9	0.11255009
196	0xbe183b01	-0.14866258
197	0x3df3fffa	0.11914058
198	0xbd1d2c8e	-0.03837257
199	0xbdd3faa1	-0.10350538
200	0xbdb5fd5e	-0.088862166
201	0x3db69025	0.08914212
202	0xbd977c24	-0.07396725
203	0xbe263edf	-0.16234921
204	0x3dc546d2	0.096326485
205	0x3a98d19c	0.0011659148
206	0x3e2c5480	0.16829109
207	0xbd496c73	-0.04917569
208	0xbb2f1287	-0.0026713924
209	0x3e654d95	0.22392876
210	0x3d118296	0.035524927
211	0xbdd5ade1	-0.104335554
212	0xbc14919e	-0.009067921
213	0xbd8019eb	-0.062549435
214	0xbda2b059	-0.07943792
215	0x3df85b03	0.12126734
216	0x3e153998	0.14572752
217	0xbdf0d505	-0.1175938
218	0xbc98572d	-0.018596256
219	0x3e3a18c4	0.1817351
220	0x3c1b978d	0.009496582
221	0xbceafb9a	-0.028684426
222	0x3dc422ea	0.09576972
223	0xbd3c7f65	-0.04601993
224	0xbe35cf82	-0.17754939
225	0xbc6840d2	-0.014175611
226	0xbd7acc0e	-0.061229758
227	0xbe0ed152	-0.13947037
228	0x3d1d887d	0.038460243
229	0x3ddc149d	0.10746119
230	0x3e694f30	0.22784114
231	0xbd91f867	-0.07127457
232	0x3e164f59	0.14678706
233	0xbe6b882d	-0.23001166
234	0xbd37db06	-0.04488661
235	0x3d998dad	0.07497726
236	0x3dc84ae6	0.09779911
237	0xbe2b718e	-0.16742536
238	0x3da1c835	0.078995146
239	0x3d11e7c2	0.035621412
240	0x3d03dd50	0.032193482
241	0xbc99db92	-0.018781457
242	0x3e2ad2fe	0.1668205
243	0x3e00dcd9	0.12584247
244	0x3dbdeb59	0.09273405
245	0xbd71f64b	-0.059072774
246	0xbd651b6d	-0.05593436
247	0xbd07878a	-0.033088244
248	0xbe146f60	-0.14495611
249	0xbb4def92	-0.0031423313
250	0x3b29c6a6	0.0025905757
251	0xbe65f31c	-0.2245602
252	0xbdd596e2	-0.10429169
253	0x3e13742e	0.14399788
254	0x3e3434be	0.17598245
255	0xbe4379d5	-0.19089444

encoder.model.weight_hh_l0 f4 [120, 30]
0	0x3d2afcd3	0.04174502
1	0x3e3c76ec	0.1840474
2	0xbdc87618	-0.097881496
3	0xbdcd8e0c	-0.10036859
4	0x3e336af8	0.17521274
5	0xbd58ecc0	-0.052960157
6	0xbd98058c	-0.07422933
7	0x3dc738b1	0.0972761
8	0x3df561d1	0.119815476
9	0xbdac6952	-0.08418526
10	0xbcfc4fa6	-0.030799698
11	0xbe4c8c57	-0.1997541
12	0x3dc947c5	0.09828142
13	0x3d598658	0.053106636
14	0xbb2ad7fb	-0.0026068676
15	0xbc2b0f60	-0.010440677
16	0x3dda3ec2	0.10656501
17	0x3e2327b4	0.15933114
18	0x3daaa7bd	0.08332775
19	0xbdd92ed5	-0.106046356
20	0x3df84c6b	0.121239506
21	0x3e87ebc0	0.2654705
22	0x3bca757f	0.0061785574
23	0xbe1e6e38	-0.15471733
24	0x3e2edb2b	0.17075793
25	0xbdb04664	-0.08607176
26	0xbe1ac0d4	-0.1511262
27	0x3ddb2e10	0.10702145
28	0xbd9e0dcf	-0.077174775
29	0x3d745c8c	0.059658572
30	0x3e007422	0.12544301
31	0xbe04b169	-0.12958302
32	0x3e10dd1d	0.14146848
33	0x3dfdc00b	0.12390145
34	0xbb80a1ca	-0.0039255368
35	0x3df71ecd	0.12066422
36	0x3bbc79fb	0.005751846
37	0x3dcf5124	0.10122898
38	0x3d6c7b09	0.057734523
39	0x3d6f9ef6	0.058501206
40	0x3e5bece0	0.2147708
41	0x3deb083c	0.1147618
42	0xbd27a380	-0.04092741
43	0xbdfb1009	-0.12258918
44	0x3b5fd2bc	0.0034152707
45	0xbcdd17d1	-0.026988896
46	0x3e0fdd6b	0.14049308
47	0x3d9dc728	0.07704002
48	0x3da6bebc	0.081418484
49	0xbdd17aa9	-0.10228474
50	0x3e58f316	0.2118648
51	0x3dac3d5f	0.08410143
52	0x3defb68b	0.11704739
53	0xbe5c0766	-0.21487197
54	0x3e2db382	0.16963008
55	0xbd980b45	-0.074240245
56	0x3e26ebd7	0.16300903
57	0xbe77759c	-0.24165958
58	0x3d9afd32	0.075678244
59	0xbd92b4a6	-0.07163362
60	0xbd9b0430	-0.07569158
61	0xbdc1b73e	-0.09458779
62	0xbe009fa0	-0.12560892
63	0xbd786003	-0.06063844
64	0x3ad4d3df	0.0016237459
65	0xbe39fb29	-0.18162216
66	0xbd846b36	-0.06465761
67	0x3e5bc501	0.2146187
68	0xbdb75862	-0.089524046
69	0xbaf7db42	-0.0018909948
70	0xbce660ee	-0.028122392
71	0x3dfb7243	0.12277653
72	0xbe159c23	-0.14610343
73	0xbe1a4607	-0.15065776
74	0x3e6545de	0.22389933
75	0xbdc14c5b	-0.09438392
76	0x3d63d960	0.055627227
77	0x3c9743ef	0.01846501
78	0x3dc07178	0.093966424
79	0x3e2affa2	0.16699079
80	0x3dcf7602	0.1012993
81	0x3c08658e	0.008324994
82	0x3e5995a5	0.21248491
83	0x3d6b7b6d	0.057490755
84	0x3dcfd8d9	0.10148782
85	0x3c70737e	0.014675973
86	0x3b73c424	0.0037195766
87	0xbd74a322	-0.059725888
88	0x3e103b9d	0.1408524
89	0x3ca014b4	0.019541122
90	0x3de385cf	0.11109506
91	0xbe0f84a0	-0.14015436
92	0xbe26f07c	-0.16302675
93	0x3e7daac1	0.24772169
94	0x3e7a4aeb	0.24442641
95	0xbd9224e5	-0.07135943
96	0xbdf07948	-0.117418826
97	0xbd10fc10	-0.035396636
98	0x3da8853b	0.08228537
99	0x3ddebfb8	0.10876411
100	0x3de5853e	0.112070546
101	0x3dddc29a	0.10828133
102	0xbdad650f	-0.08466541
103	0xbe1852af	-0.14875291
104	0x3dc86e34	0.097866446
105	0x3e00f1b0	0.12592196
106	0x3ba15441	0.004923374
107	0x3e05c269	0.13062443
108	0x3e1dff5a	0.1542944
109	0x3e4e8aa1	0.2017007
110	0xbdc0d322	-0.094152704
111	0xbe5c6bc1	-0.2152548
112	0x3d859138	0.06521839
113	0xbd47f27c	-0.048815235
114	0x3e185ac7	0.14878379
115	0x3e0d8197	0.13818966
116	0xbe206fc4	-0.15667635
117	0xbd92b6d7	-0.0716378
118	0x3e614c0b	0.22001664
119	0x3bdf3d08	0.0068126954
120	0xbe0dcddd	-0.13848062
121	0x3be9b854	0.0071325693
122	0x3df3f68f	0.11912262
123	0x3e006825	0.12539728
124	0xb84fddc3	-4.9559178e-05
125	0xbd912429	-0.07086975
126	0x3e23b099	0.15985335
127	0xbdce3c54	-0.100701004
128	0x3e089814	0.13339263
129	0x3dd6542e	0.10465275
130	0xbde98f3f	-0.11404275
131	0x3dedc074	0.11608973
132	0xbdc00fdb	-0.09378024
133	0xbe3a29f7	-0.18180071
134	0x3e8364bb	0.2566279
135	0xbd948de9	-0.0725363
136	0x3da4de7e	0.080502495
137	0x3ce02b9e	0.027364548
138	0x3dcaa13d	0.09894035
139	0xbda6ca32	-0.081440344
140	0x3e54ae34	0.20769578
141	0x3dd6b2ca	0.1048332
142	0x3e3c108e	0.1836569
143	0xbc70ab99	-0.01468935
144	0x3e19f237	0.15033804
145	0x3cffb6cf	0.0312151
146	0xbe062fbf	-0.13104151
147	0xbe0dd932	-0.13852385
148	0x3e866c31	0.26254418
149	0x3e3d334c	0.184766
150	0xbe2714b2	-0.16316488
151	0xbe3dd0b2	-0.18536642
152	0xbd321183	-0.04347373
153	0xbc3a3467	-0.011365033
154	0x3d6c88b2	0.05774755
155	0x3e1f5103	0.15558247
156	0xbce4bc75	-0.027921895
157	0xbd713745	-0.0588906
158	0xbdae93d5	-0.085242905
159	0x3e3e13d5	0.18562253
160	0xbccd2b00	-0.025044918
161	0xbe06bb46	-0.13157377
162	0x3e2f0188	0.17090428
163	0xbe432dba	-0.19060412
164	0x3e0062fe	0.12537763
165	0xbe201684	-0.15633589
166	0x3b171013	0.0023050352
167	0x3c6aca3d	0.014330444
168	0xbc4f0fee	-0.012638075
169	0x3e00630e	0.12537786
170	0x3d7ea254	0.062166527
171	0xbdd5130b	-0.10404023
172	0xbdfbd7b7	-0.12297004
173	0x3d6cd81e	0.057823293
174	0x3dc76eeb	0.09737953
175	0x3e4d453d	0.20045944
176	0x3cdbfc12	0.026853595
177	0x3e098c62	0.13432458
178	0x3cfd0642	0.030886773
179	0x3e75f9fa	0.2402114
180	0x3e152f00	0.1456871
181	0xbe499d48	-0.19688904
182	0x3cacdceb	0.021101436
183	0x3d61805e	0.05505406
184	0x3e46819f	0.19385384
185	0x3b931c2d	0.004489443
186	0xbe15ec7b	-0.14640991
187	0xbe1dc78c	-0.15408152
188	0xbd06aee4	-0.032881632
189	0xbd0fadfd	-0.035078038
190	0x3d5e7533	0.05431099
191	0x3cd8d6c6	0.0264696
192	0xbd69275e	-0.05692231
193	0xbdca0866	-0.09864883
194	0x3dec0ca2	0.11525847
195	0xbe0dccee	-0.13847706
196	0xbe4d2088	-0.20031941
197	0x3d335a9d	0.043787587
198	0xbe0f1099	-0.13971175
199	0xbdd4f6b2	-0.10398616
200	0xbdd9f68d	-0.10642729
201	0xbdc45f99	-0.09588546
202	0xbd81b51e	-0.063333735
203	0x3dfc8395	0.12329785
204	0x3c5ec58b	0.013596903
205	0x3de1d694	0.11027256
206	0x3e47ef46	0.1952487
207	0xbd056f12	-0.032576628
208	0xbe156179	-0.14587964
209	0xbe2916bd	-0.1651258
210	0x3e3c81dc	0.18408912
211	0xbe14366e	-0.14473888
212	0xbb6705b9	-0.0035251214
213	0xbc14aa78	-0.009073846
214	0xbd0b1673	-0.033956956
215	0x3b9c97f7	0.004778858
216	0x3e11d689	0.14241995
217	0x3e098ce1	0.13432647
218	0x3d6ec751	0.05829555
219	0x3d98abc1	0.074546345
220	0x3dec0e23	0.11526134
221	0x3d1f73bf	0.038928743
222	0x3e3fd8de	0.18735072
223	0x3c30e4c2	0.010796728
224	0x3d205bf8	0.03915021
225	0x3e3d2761	0.18472053
226	0x3d705b48	0.058680803
227	0x3db449aa	0.08803113
228	0xbe40ae4f	-0.18816493
229	0xbdeeb11d	-0.116548754
230	0x3c604633	0.013688612
231	0xbd2d298c	-0.04227595
232	0xbd91836d	-0.071051456
233	0x3cdb6d96	0.026785653
234	0xbdeaf133	-0.11471786
235	0x3e0fbc0f	0.14036582
236	0xbdbe7957	-0.093004875
237	0xbd886d4a	-0.0666147
238	0x3e1a046c	0.1504075
239	0x3d0c8e4d	0.034315396
240	0xbe3b99ef	-0.1832044
241	0x3c3b0d11	0.0114166895
242	0x3df7af39	0.12093968
243	0x3e28577b	0.16439621
244	0x3da9d35b	0.08292266
245	0xbd54eddd	-0.051984657
246	0x3d8c351f	0.068460695
247	0x3e332c01	0.17497255
248	0x3e36977e	0.17831227
249	0x3e4b84d2	0.19874886
250	0x3df6e57a	0.12055488
251	0xbced6084	-0.028976686
252	0xbce4ff53	-0.02795378
253	0xbe6b1be4	-0.22959858
254	0x3e5cd7ee	0.21566746
255	0xbe7b2d19	-0.24528922

encoder.model.bias_ih_l0 f4 [120]
0	0xbe048a37	-0.1294335
1	0xbdaa90e1	-0.08328415
2	0xbb69cc4e	-0.0035674754
3	0xbd1fbf8a	-0.039001025
4	0x3d1c8ece	0.038222127
5	0x3e23ec45	0.16008098
6	0xbdb99823	-0.09062221
7	0xbe113f6f	-0.14184354
8	0x3e3345c5	0.17507084
9	0x3e448dd2	0.19194725
10	0xbc8425a8	-0.016131237
11	0x3e00a606	0.12563333
12	0xbda3e0ea	-0.08001883
13	0x3e698497	0.22804485
14	0x3e68961a	0.22713509
15	0xbd5cffba	-0.053954817
16	0x38cce72e	9.7705386e-05
17	0x3e7ab9e8	0.2448498
18	0x3e12e06d	0.14343424
19	0x3e2163f2	0.15760782
20	0x3e35e2b5	0.17762263
21	0xbd633e16	-0.05547913
22	0x3db3f935	0.08787767
23	0x3d821ee4	0.06353548
24	0x3dd71c94	0.10503498
25	0x3e11f299	0.142527
26	0x3d679775	0.056540925
27	0xbd89d408	-0.06729895
28	0xbd74a91a	-0.05973158
29	0x3e46d336	0.19416508
30	0x3e34df38	0.17663276
31	0xbbc245a2	-0.005928711
32	0xbdb4f0e3	-0.08835008
33	0xbdb9ef69	-0.09078867
34	0x3e701866	0.23446807
35	0x3cae9448	0.02131094
36	0xbdb83e33	-0.089962386
37	0x3d572d60	0.052533507
38	0x3dc540a7	0.09631472
39	0xbb2d555a	-0.0026448579
40	0x3e78e680	0.24306679
41	0x3e41efee	0.18939182
42	0x3cd81e57	0.026381655
43	0x3deaa995	0.114581265
44	0xbccd03b9	-0.02502619
45	0x3da483f8	0.080329835
46	0x3e12e8c2	0.14346603
47	0x3e164a39	0.14676751
48	0x3e2cc666	0.16872558
49	0x3d990ef8	0.07473558
50	0xbcb3fe05	-0.021971712
51	0x3d14bd62	0.036313422
52	0x3daaa333	0.08331909
53	0x3dcfb43e	0.101418
54	0xbd1830c6	-0.03715589
55	0x3e64b9e5	0.22336538
56	0xbd4d72b8	-0.050158232
57	0x3bdf34ba	0.0068117054
58	0xbd28e754	-0.041236237
59	0xbd980dc3	-0.074245
60	0xbe1c92c6	-0.15290365
61	0xbd47d0a2	-0.048782952
62	0xbc07d89c	-0.00829139
63	0x3e10cdf9	0.14141072
64	0xbd95cbe2	-0.07314278
65	0x3dc8ccd0	0.0980469
66	0xbd98fa02	-0.0746956
67	0x3e19ac15	0.1500705
68	0x3dfcd99e	0.12346195
69	0x3e61d920	0.22055483
70	0x3d782465	0.060581584
71	0xbce3702f	-0.027763454
72	0x3c56c2e2	0.013107987
73	0xbe6bade7	-0.23015557
74	0x3e028eb2	0.12749746
75	0xbe70fd7b	-0.23534195
76	0x3e1d8eae	0.15386459
77	0x3d9cd4e6	0.07657795
78	0x3e0d0001	0.13769533
79	0x3dbb9637	0.091595106
80	0x3e67ce49	0.22637285
81	0xbdf173bb	-0.11789652
82	0x3e41246f	0.18861555
83	0xbe3411eb	-0.1758496
84	0xbceaa387	-0.028642429
85	0x3e049b73	0.12949924
86	0x3cc9c5ff	0.024630545
87	0xbe11f5f3	-0.14253978
88	0xbd34100c	-0.043960616
89	0x3d14e417	0.036350336
90	0x3b33c314	0.0027429508
91	0x3e3b1eb5	0.18273433
92	0xbdc5f0c0	-0.0966506
93	0x3e338289	0.17530264
94	0x3e13ac84	0.14421278
95	0x3d5fbecc	0.054625317
96	0x3d83c8ac	0.064347595
97	0xbdc1b8b3	-0.09459057
98	0xbd847207	-0.064670615
99	0x3e5d05b9	0.21584214
100	0xbde0cd55	-0.10976664
101	0x3d70762e	0.058706455
102	0xbd92c81b	-0.07167073
103	0x3e4c6031	0.19958569
104	0x3de64670	0.11243904
105	0xbdae8de3	-0.085231565
106	0x3e0a7ea3	0.1352487
107	0xbd11c234	-0.035585597
108	0x3dc3e365	0.095648564
109	0x3a864d4a	0.0010246423
110	0x3e6a2cf1	0.22868706
111	0x3e2c4dea	0.16826597
112	0x3da1ef3d	0.07906959
113	0x3e0d6bb1	0.13810612
114	0x3d517ae0	0.051142573
115	0x3e11a0f2	0.14221552
116	0x3dfb1ab4	0.122609526
117	0x3e81ceab	0.25352988
118	0x3c8fcee0	0.0175547
119	0xbba7e450	-0.0051236525

encoder.model.bias_hh_l0 f4 [120]
0	0x3e566e26	0.20940456
1	0x3d32aa49	0.043619428
2	0xbe1191b9	-0.14215745
3	0x3d785e88	0.060637027
4	0x3e87898e	0.26472133
5	0x3daec01b	0.08532735
6	0x3df82531	0.12116469
7	0x3e039b63	0.12852244
8	0x3e046c62	0.1293197
9	0x3e32c8c7	0.17459403
10	0x3cc30ce4	0.023809858
11	0x3e3bd676	0.18343529
12	0xbd5fe043	-0.054657232
13	0x3e3887fb	0.18020622
14	0x3e018e54	0.1265195
15	0x3ddbc155	0.107302345
16	0xbd20a40d	-0.03921895
17	0x3e1063b4	0.14100534
18	0xbd9e69f5	-0.077350534
19	0x3d487187	0.048936393
20	0x3e0ba638	0.13637626
21	0x3d89ccce	0.067285165
22	0xbe00267d	-0.12514682
23	0xbd545422	-0.051838048
24	0x3e3bd19e	0.18341681
25	0x3d969007	0.0735169
26	0xbe0c1089	-0.13678183
27	0x3d996649	0.074902125
28	0x3e1e678f	0.15469192
29	0xbd9190e7	-0.07107716
30	0x3d4b79d5	0.049676735
31	0xbd8a55bf	-0.06754636
32	0xbd348454	-0.04407151
33	0xbddfb7d3	-0.109237336
34	0x3de10486	0.10987191
35	0xbd97012b	-0.0737327
36	0x3d8d92d7	0.06912773
37	0xbd1c9780	-0.03823042
38	0x3e0e1288	0.13874257
39	0x3e4cd3ac	0.20002621
40	0x3e5af78e	0.21383497
41	0xbb36acf2	-0.002787408
42	0x3ca4a311	0.020097287
43	0xbd73620b	-0.059419673
44	0x3e4514fd	0.19246288
45	0x3e14df88	0.14538395
46	0x3e234764	0.15945202
47	0x3d720052	0.059082337
48	0x3c97e642	0.018542413
49	0xbd7b5145	-0.0613568
50	0xbcc67b57	-0.024228735
51	0x3e53ec92	0.20695713
52	0x3e25e9f5	0.16202529
53	0xbd45663b	-0.048193198
54	0xbe21b208	-0.1579057
55	0x3d6e8169	0.058228884
56	0xbdac3be0	-0.08409858
57	0x3dc42f96	0.09579389
58	0xbdd4647b	-0.10370728
59	0xbde0144c	-0.10941371
60	0x3dc90034	0.09814492
61	0xbe6900cb	-0.22754209
62	0x3e17dc3e	0.1483011
63	0x3d89d8b0	0.06730783
64	0x3e28ca57	0.16483437
65	0x3e4fd650	0.20296597
66	0x3e3195f9	0.17342366
67	0x3d10babb	0.03533433
68	0x3de3239f	0.110907786
69	0x3e27832d	0.16358633
70	0xbac2b42c	-0.0014854721
71	0xbe1c3c05	-0.1525727
72	0x3e07a02c	0.13244694
73	0xbe847257	-0.25868484
74	0x3e21e1d6	0.15808806
75	0xbe6126b4	-0.2198742
76	0xbdc7b3be	-0.0975108
77	0xbe6ef733	-0.23336487
78	0x3e0c02aa	0.13672891
79	0x3e1eb75e	0.15499637
80	0x3de8934a	0.11356218
81	0xbe382573	-0.17983036
82	0xbe2550f1	-0.16144158
83	0x3c80c00b	0.015716573
84	0x3d57b996	0.052667223
85	0x3e0403c5	0.12892063
86	0x3d38dc60	0.04513204
87	0xbe76b5da	-0.24092808
88	0x3e60448a	0.21901146
89	0x3e1dc973	0.15408878
90	0x3d3aa63f	0.0455687
91	0xbda7fa9d	-0.082020976
92	0x3e3a034e	0.18165323
93	0xbcf776d4	-0.030208029
94	0x3d0aaaa5	0.033854146
95	0x3e476c4e	0.19474909
96	0xbd806f79	-0.06271262
97	0x3d5604e9	0.052250776
98	0x3dc72601	0.097240455
99	0x3e843ede	0.25829214
100	0xbd34e822	-0.04416669
101	0xbdaec74e	-0.08534108
102	0x3e2e936e	0.17048427
103	0xbcb6d25d	-0.022317106
104	0x3dd3ff12	0.10351385
105	0x3d25ed68	0.04050961
106	0x3cf20028	0.02954109
107	0xbd540eb4	-0.051771834
108	0xbde4cc2c	-0.11171755
109	0x3cf3c296	0.029755872
110	0x3dd6a71b	0.104810916
111	0x3db4177c	0.08793542
112	0x3dae7d9a	0.0852005
113	0x3e72d640	0.23714542
114	0xbd96ded4	-0.0736672
115	0x3e3e3a6d	0.18576975
116	0xbe297749	-0.1654941
117	0x3e0eaf65	0.13934095
118	0x3d8e1daa	0.06939252
119	0xbb7242f1	-0.003696617

encoder.model.weight_ih_l1 f4 [120, 30]
0	0xbdf9e482	-0.122017875
1	0x3d554ee3	0.052077185
2	0xbdffa556	-0.12482707
3	0xbdd85359	-0.10562772
4	0x3e6aa0f5	0.22912963
5	0xbe1cd88a	-0.15316978
6	0x3e521841	0.20517065
7	0x3d021949	0.031762395
8	0xbd147b3c	-0.036250338
9	0x3e1ddb38	0.15415657
10	0x3dfe234b	0.12409075
11	0xbd15c0fd	-0.036561
12	0xbd99d753	-0.07511773
13	0x3c8f73db	0.017511299
14	0x3de7d745	0.11320356
15	0x3d9c09a8	0.07619029
16	0xbd895245	-0.06705145
17	0xbe458023	-0.19287162
18	0xbc969db9	-0.018385755
19	0x3e527979	0.2055415
20	0xbddaaab5	-0.10677091
21	0x3df9bef7	0.12194627
22	0x3dd865c4	0.10566285
23	0x3e12c03a	0.14331141
24	0x3d33ddc9	0.043912683
25	0x3e10aec6	0.14129171
26	0xbe234ead	-0.15947981
27	0x3de7c9fd	0.11317823
28	0x3bfc10af	0.0076924185
29	0xbda5dbbd	-0.080985524
30	0xbdaa355c	-0.08310959
31	0x3de9357e	0.11387156
32	0xbdc0625d	-0.09393761
33	0x3e258c07	0.16166697
34	0x3e7b5f0d	0.24547978
35	0xbe11d47f	-0.14241217
36	0x3e3886f5	0.18020232
37	0x3df9045e	0.12159036
38	0xbdbc46e2	-0.09193207
39	0xbcb52f07	-0.022117151
40	0xbcfb5380	-0.030679464
41	0xbd9813f2	-0.07425679
42	0xbcaafecc	-0.02087345
43	0x3cab23c2	0.020891074
44	0x3da1012c	0.07861552
45	0xbe2a41cb	-0.1662666
46	0x3e3d0ae9	0.18461193
47	0xbe5021b5	-0.20325358
48	0x3d5408d3	0.051766228
49	0x3ced53e3	0.028970664
50	0xbdc92b13	-0.09822669
51	0x3ca27f1a	0.019835997
52	0x3df7697c	0.120806664
53	0x3e01e8b9	0.12686433
54	0xbc080369	-0.008301594
55	0x3e1db440	0.15400791
56	0xbda1d4f9	-0.079019494
57	0xbd3ea3ff	-0.046543118
58	0x3e35339a	0.17695466
59	0x3dcd1703	0.10014155
60	0x3dcd8b7a	0.10036369
61	0x3da29fbc	0.07940623
62	0xbe011fa7	-0.1260973
63	0xbd6cf2de	-0.057848804
64	0x3e6121f7	0.21985613
65	0x3dee7ba6	0.11644678
66	0x3c62a61c	0.013833549
67	0xbcae730c	-0.021295093
68	0x3cde4a91	0.027135165
69	0xbe05bc0f	-0.1306002
70	0x3d65de37	0.056120124
71	0xbe1b528c	-0.15168208
72	0x3e432092	0.19055393
73	0xbe3488da	-0.1763033
74	0xbbc3d590	-0.0059763864
75	0xbd9408b2	-0.07228221
76	0xbe142bf6	-0.14469895
77	0xbd957a91	-0.07298768
78	0xbd862893	-0.06550708
79	0xbc95681c	-0.01823812
80	0x3e020e5e	0.12700793
81	0xbe110433	-0.14161758
82	0x3ca4e2b3	0.02012763
83	0x3db1a1cb	0.08673438
84	0xbcdc5a77	-0.026898606
85	0x3cf75048	0.030189648
86	0x3e34f989	0.17673315
87	0xbdf1b004	-0.118011504
88	0x3e179d8b	0.14806192
89	0x3da0872f	0.07838284
90	0x3d178a4b	0.03699712
91	0xbe1258f8	-0.14291751
92	0xbe4d6f45	-0.20061977
93	0xbe005f77	-0.12536417
94	0x3df373c3	0.11887314
95	0xbe2058cf	-0.15658878
96	0x3df4e984	0.11958602
97	0x3daf692d	0.085649826
98	0xbc61062a	-0.01373438
99	0x3d90ec5d	0.07076333
100	0x3e55ceba	0.20879641
101	0xbe099b37	-0.13438116
102	0x3e44abe6	0.19206199
103	0x3cd23a5f	0.0256626
104	0xbdc7bacb	-0.09752425
105	0x3cd51a7c	0.026013605
106	0xbe1f714c	-0.15570563
107	0xbc6f0267	-0.014587975
108	0x3d31ed8d	0.043439437
109	0xbcf036d9	-0.029323028
110	0x3cd69c88	0.026197687
111	0x3d8add6c	0.06780514
112	0x3db586a7	0.088635735
113	0x3d913e4e	0.07091962
114	0x3cebceb1	0.028785082
115	0xbe0447a3	-0.12917952
116	0x3cd50408	0.026002899
117	0xbc70cdb2	-0.014697479
118	0x3e2a43c0	0.16627407
119	0xbe16b265	-0.1471649
120	0x3e00f728	0.12594283
121	0xbd20450a	-0.03912834
122	0xbca0f5a6	-0.019648384
123	0xbd260249	-0.040529523
124	0x3d0a53c8	0.033771306
125	0xbd3ba9cb	-0.045816224
126	0x3e5153a7	0.20442067
127	0x3da9e9ec	0.0829657
128	0x3de8ef5f	0.113737814
129	0xbe130789	-0.14358343
130	0x3dce7b15	0.1008207
131	0x3de60e5e	0.11233209
132	0xbd802b94	-0.06258312
133	0x3cfb5deb	0.030684432
134	0x3df7ed91	0.12105859
135	0x3e2b6d5e	0.16740939
136	0x3dad8bee	0.08473955
137	0x3cb94447	0.022615565
138	0xbdff03c8	-0.12451893
139	0x3dabf60a	0.083965376
140	0xbd129d88	-0.035794765
141	0xbd27b3c6	-0.04094293
142	0xbd312b30	-0.043254077
143	0x3dc798bc	0.09745929
144	0xbe08a47b	-0.13343994
145	0xbe19058a	-0.14943519
146	0x3d54cb63	0.051951777
147	0x3dc73359	0.09726591
148	0xbe079766	-0.13241348
149	0x3e0694b7	0.13142668
150	0x3c6adccf	0.014334871
151	0x3d842ae2	0.06453492
152	0xbca6fa7f	-0.020383118
153	0x3dd80767	0.10548287
154	0x3d856d0d	0.065149404
155	0xbdcaf218	-0.09909457
156	0xbe064eca	-0.13115993
157	0x3c3e941a	0.01163199
158	0xbdce6f3c	-0.1007981
159	0xbb65316d	-0.0034972087
160	0x3da2d35c	0.0795047
161	0xbdbbcdf2	-0.0917014
162	0x3def7b07	0.116933875
163	0xbe078c75	-0.13237174
164	0xbdaeb69f	-0.08530926
165	0xbda2daad	-0.07951865
166	0x3e13e288	0.14441884
167	0x3d864475	0.06556026
168	0x3e44dbb7	0.1922444
169	0xbdad7cad	-0.08471046
170	0xbdc684ed	-0.09693322
171	0x3da0af81	0.07845975
172	0x3e4a32f8	0.19746006
173	0x3e41093d	0.1885118
174	0xbd2d6bc6	-0.04233911
175	0xbc0826b1	-0.008310006
176	0xbda3d655	-0.07999865
177	0xbcbd9346	-0.023141515
178	0x3d8ba928	0.06819373
179	0x3d3693ac	0.044574425
180	0x3cb596e9	0.022166686
181	0xbe6927ea	-0.22769132
182	0xbe4a6b88	-0.19767582
183	0xbd650938	-0.055916995
184	0xbcd26133	-0.025681114
185	0xbd5a22a8	-0.053255707
186	0x3e2c4975	0.16824897
187	0x3e37e46f	0.17958234
188	0xbc914911	-0.017735036
189	0x3d7f1a3c	0.06228088
190	0x3e0a6e9e	0.1351876
191	0x3e38cac6	0.18046102
192	0xbcb45045	-0.022010932
193	0xbdd94c26	-0.10610227
194	0x3d92a0db	0.07159587
195	0xbd49140f	-0.049091395
196	0x3e34e4d1	0.17665412
197	0x3c354010	0.011062637
198	0x3defa0f2	0.1170062
199	0x3da4d269	0.08047945
200	0x3df78470	0.12085807
201	0x3dd7469d	0.10511515
202	0x3e434f1c	0.19073147
203	0x3e160887	0.1465169
204	0x3c9e8346	0.019349705
205	0xbe29306e	-0.1652238
206	0x3dbabf0c	0.091184705
207	0xbe1c8518	-0.15285146
208	0xbddbcac2	-0.10732032
209	0xbe048d2b	-0.12944476
210	0xbdd6411e	-0.10461639
211	0xbde6e61d	-0.112743594
212	0xbca7b54d	-0.020472193
213	0x3e18ffcb	0.14941327
214	0x3d690814	0.05689247
215	0x3ded8752	0.11598076
216	0x3e3c0c00	0.18363953
217	0xbd0c5148	-0.034257203
218	0xbdfce33f	-0.12348031
219	0xbdac4ead	-0.08413444
220	0x3c9a49e3	0.01883406
221	0x3c2a2182	0.010383965
222	0x3e4d73ba	0.20063677
223	0xbd189750	-0.037253678
224	0xbd3d7c8a	-0.046261348
225	0x3cce456e	0.025179591
226	0x3d9e380c	0.07725534
227	0xbd348246	-0.04406955
228	0x3e42f8b8	0.19040191
229	0x3e1094ee	0.14119312
230	0xbd4b363c	-0.04961227
231	0xbe057e46	-0.1303645
232	0xbcdaf84f	-0.02672973
233	0x3c8f439f	0.017488299
234	0x3d9c97c4	0.076461345
235	0x3e2ca57d	0.16860004
236	0xbc8baff8	-0.017051682
237	0x3deb55d5	0.114909805
238	0xbd95dc15	-0.07317368
239	0x3ba95c2f	0.00516846
240	0xbe0fabda	-0.140304
241	0xbe368fba	-0.17828265
242	0xbe014bf8	-0.12626636
243	0x3dc56ef1	0.09640301
244	0x3e4ed1e0	0.20197248
245	0xbd2d2b49	-0.042277608
246	0x3e3bdd48	0.18346131
247	0x3dd6721b	0.10470983
248	0x3e7318a1	0.23739864
249	0x3defffb8	0.11718696
250	0x3e2e2d3c	0.17009443
251	0x3d7e2384	0.06204559
252	0x3e5e5e7f	0.21715735
253	0xbd2cb364	-0.042163268
254	0xbde62e24	-0.112392694
255	0xbe13ad0a	-0.14421478

encoder.model.weight_hh_l1 f4 [120, 30]
0	0x3d0f2756	0.034949623
1	0x3d8f1341	0.06986094
2	0x3dd3c744	0.10340741
3	0x3e321f10	0.17394662
4	0xbdd44b27	-0.10365897
5	0xbdcca286	-0.099919364
6	0xbd0f77ab	-0.035026234
7	0xbcc16cea	-0.023611505
8	0x3de56dfc	0.112026185
9	0xbd52c611	-0.051458422
10	0xbd939494	-0.072060734
11	0xbdcd1c6a	-0.10015185
12	0xbd184743	-0.037177335
13	0xbe585784	-0.21127135
14	0xbe150347	-0.14552031
15	0x3e13e73b	0.14443676
16	0x3ce158c4	0.027508147
17	0x3d8e1ffc	0.06939694
18	0x3d777d4c	0.060422227
19	0x3e0f5500	0.13997269
20	0x3da48d70	0.080347896
21	0xbe1a898c	-0.15091532
22	0xbd70f1ba	-0.05882428
23	0xbe6a7920	-0.22897768
24	0x3e6fb67b	0.23409455
25	0x3d07f2bf	0.033190485
26	0xbdd0a369	-0.10187418
27	0x3daad414	0.08341232
28	0x3e0a466b	0.13503425
29	0x3d87d999	0.066333
30	0xbe184980	-0.14871788
31	0x3dab346f	0.0835961
32	0xbd767f10	-0.06017977
33	0x3e2a8967	0.16653977
34	0xbd38cc9e	-0.045117013
35	0x3de8fdc0	0.11376524
36	0xbd81b15b	-0.06332656
37	0x3e18886d	0.14895792
38	0x3db54820	0.088516474
39	0x3de81094	0.11331287
40	0xbcc5b8e2	-0.02413601
41	0xbdd4483c	-0.1036534
42	0x3dc7f179	0.09762854
43	0x3db7ce4f	0.08974897
44	0xbe087e64	-0.13329464
45	0x3e37d800	0.17953491
46	0xbd3c2b83	-0.045939934
47	0xbe01c7c1	-0.12673856
48	0xbdfae44c	-0.122505754
49	0xbdb0ed61	-0.086390264
50	0xbd2777be	-0.04088568
51	0xbe538b3a	-0.2065858
52	0x3d59f67f	0.053213593
53	0xbe6335e8	-0.22188532
54	0x3e129129	0.14313187
55	0xbe2395b2	-0.15975073
56	0xbd8cf1a3	-0.06882026
57	0xbdc4c08c	-0.09607038
58	0xbd84b423	-0.06479671
59	0x3da689e9	0.08131773
60	0xbe155659	-0.1458372
61	0x3dc399fc	0.095508546
62	0x3d2a4008	0.04156497
63	0x3dfebe90	0.12438691
64	0x3ca21cb0	0.01978907
65	0xbda0ee41	-0.07857943
66	0xbdce57b0	-0.10075319
67	0x3a63c676	0.0008688936
68	0xbdc6a466	-0.09699325
69	0xbe5f4679	-0.21804227
70	0xbdb462c8	-0.088079035
71	0x3dfd7ebf	0.123776905
72	0x3e217875	0.15768607
73	0xbe536462	-0.20643762
74	0x3dc527fe	0.096267685
75	0xbe034184	-0.12817961
76	0xbce166d1	-0.027514847
77	0xbe12f454	-0.14351016
78	0xbd791d97	-0.060819235
79	0xbd38db10	-0.04513079
80	0xbd96743c	-0.07346389
81	0x3db1bf50	0.08679068
82	0x3db50b4a	0.08840044
83	0x3d7de599	0.06198654
84	0x3e260c97	0.1621574
85	0xbd86caec	-0.06581673
86	0xbda656a1	-0.08121992
87	0xbe18fc8d	-0.1494009
88	0xbd410c24	-0.04713072
89	0x3d9bfdb9	0.07616753
90	0xbdf6eea1	-0.120572336
91	0x3e1aa569	0.15102161
92	0xbdbbaf79	-0.09164328
93	0x3c5300d4	0.012878615
94	0x3d9b8171	0.07593048
95	0x3ca52503	0.02015925
96	0xbdb4198e	-0.08793937
97	0x3dc6ab81	0.097006805
98	0x3dfc4467	0.12317734
99	0xbdd09e00	-0.10186386
100	0x3db5e5fe	0.08881758
101	0xbd017f76	-0.031615697
102	0xbcd99112	-0.026558433
103	0x3c96d679	0.018412815
104	0x3d62b9c2	0.055352934
105	0x3e5c0f3b	0.21490185
106	0x3e0d073d	0.13772292
107	0xbc9efb50	-0.019406945
108	0xbd329c6a	-0.0436062
109	0xbdf53fd3	-0.11975064
110	0xbc9d2f04	-0.019187458
111	0xbe3f0c00	-0.18656921
112	0xbcac4f4c	-0.021033905
113	0xbca0ab37	-0.019612892
114	0xbd0d4100	-0.034485817
115	0xbd2b7da4	-0.041867867
116	0x3c96f6a8	0.018428162
117	0xbe225e0e	-0.15856192
118	0x3e034dec	0.12822694
119	0xbe3638ea	-0.17795148
120	0xbcf93f3b	-0.030425658
121	0x3db0d887	0.08635049
122	0xbc0271cf	-0.007961704
123	0x3d9b9e63	0.07598569
124	0xbda8c28d	-0.082402326
125	0xbda8f25a	-0.0824935
126	0x3e5de965	0.21671064
127	0x3dbcfa11	0.09227384
128	0x3db08518	0.086191356
129	0xbdb3edbc	-0.087855786
130	0xbdb8ebb1	-0.090293296
131	0x3d9741a3	0.07385566
132	0x3d9b19c6	0.07573275
133	0x3dd40856	0.103531525
134	0x3d80005a	0.06250067
135	0xbe0c1217	-0.13678776
136	0xbe320e35	-0.17388232
137	0xbd71da32	-0.059045978
138	0xbd012bec	-0.031536028
139	0xbdbe79c3	-0.09300568
140	0x3d6bc70a	0.057562865
141	0xbe3afadf	-0.18259762
142	0xbc8c2bd2	-0.017110739
143	0xbd9d5afc	-0.076833695
144	0x3e3ba19d	0.1832337
145	0x3dccb0c4	0.09994653
146	0xbdcab1a8	-0.098971665
147	0xbc25b72c	-0.010114472
148	0x3d3c3b26	0.045954846
149	0xbe1b844c	-0.15187186
150	0xbe5332cb	-0.20624845
151	0x3daa56eb	0.083173595
152	0xbd2db1a1	-0.04240573
153	0xbddbb53d	-0.10727928
154	0x3d745666	0.05965271
155	0x3def46e3	0.116834424
156	0x3e6a4a52	0.22879913
157	0x3dd07f29	0.10180504
158	0xbda29252	-0.07938065
159	0x3e1602e2	0.14649537
160	0x3df315c9	0.118693896
161	0x3e6acffe	0.22930905
162	0x3d223c23	0.039608132
163	0xbd49a175	-0.049226243
164	0xbd640d7a	-0.055676915
165	0x3e0ee330	0.13953853
166	0xbe303e78	-0.1721133
167	0xbdbbbb9b	-0.09166642
168	0x3df4cf3e	0.11953591
169	0xbd459a49	-0.04824284
170	0x3c254025	0.010086094
171	0xbe2bec87	-0.16789447
172	0xbdbe79f9	-0.09300608
173	0xbe44a40b	-0.19203202
174	0x3e3b35e2	0.18282273
175	0xbe382957	-0.1798452
176	0xbd990efc	-0.07473561
177	0x3de27158	0.11056775
178	0x3e1902d5	0.14942487
179	0xbdd0e244	-0.10199407
180	0x3d38f2ae	0.045153312
181	0x3e01f33a	0.1269044
182	0xbe124545	-0.14284237
183	0xbc2e72c0	-0.010647476
184	0xbd740ff0	-0.05958551
185	0xbe2062f9	-0.15662755
186	0x3c7b1709	0.015325316
187	0x3da00110	0.07812703
188	0xbe1aa0bf	-0.15100382
189	0xbe1da39d	-0.15394445
190	0xbe8076b4	-0.25090563
191	0xbd0baa23	-0.034097802
192	0xbddf273d	-0.10896156
193	0xbe3b426e	-0.1828706
194	0x3d57993f	0.05263638
195	0x3e736dcd	0.23772354
196	0x3dd95513	0.1061193
197	0x3dc64b88	0.09682375
198	0x3e0b1148	0.13580811
199	0x3b825040	0.0039768517
200	0xbd8246c4	-0.06361154
201	0xbe4f2bf5	-0.20231612
202	0xbdd13d35	-0.102167524
203	0xbde6aa70	-0.11262977
204	0x3ddd8407	0.10816198
205	0xbd01ace3	-0.03165902
206	0xbe5723f9	-0.21009816
207	0xbd3baf56	-0.04582151
208	0x3e637dad	0.2221591
209	0xbcd7b4dd	-0.02633136
210	0x3c85d919	0.016338872
211	0x3c729a82	0.014807345
212	0xbddbc26f	-0.10730445
213	0xbd8c55a9	-0.06852276
214	0x3d282aa7	0.0410563
215	0xbdc02b97	-0.09383314
216	0x3db01a74	0.085987955
217	0xbdcabc93	-0.09899249
218	0x3da8f06f	0.08248984
219	0xbcea9e3c	-0.028639905
220	0xbcfb401f	-0.030670224
221	0x3be17bb8	0.0068812035
222	0xbda5233d	-0.08063362
223	0x3d8d6f2e	0.069059715
224	0x3c0d9e4f	0.008643701
225	0x3e2eb4ad	0.1706111
226	0xbd176613	-0.03696258
227	0xbe1e8e3d	-0.15483947
228	0x3e4760af	0.19470476
229	0xbd10b7c6	-0.03533151
230	0x3cbba54a	0.022905964
231	0xbe39641a	-0.18104592
232	0xbdb0e049	-0.08636529
233	0x3df1a236	0.117985174
234	0x3e1aa038	0.15100181
235	0x3df91124	0.121614724
236	0x3dcbac6a	0.09944995
237	0xbbd3de75	-0.006465728
238	0x3d5ecb32	0.054393
239	0xbe42a5b8	-0.19008529
240	0xbc5fd372	-0.013661252
241	0x3e4d20d0	0.20032048
242	0xbe4e5d53	-0.20152788
243	0x3e67a960	0.22623205
244	0xbda2fd5d	-0.079584815
245	0xbe1b1ef6	-0.1514853
246	0x3e113db8	0.141837
247	0x3e1f6e1d	0.15569349
248	0xbc93594e	-0.01798692
249	0x3db0cf5a	0.08633299
250	0x3d3023b6	0.043002807
251	0x3bad8ee4	0.005296575
252	0x3d06d6ee	0.032919817
253	0xbd264cce	-0.04060059
254	0xbd7c0d22	-0.061535962
255	0x3e1040cb	0.14087217

encoder.model.bias_ih_l1 f4 [120]
0	0xbdb86a47	-0.09004646
1	0x3df7b243	0.120945476
2	0x3e364bba	0.17802325
3	0x3e1e0270	0.15430617
4	0xbce4ac2b	-0.027914127
5	0xbd570f80	-0.052505016
6	0x3e2e95b4	0.17049295
7	0xbdc1780c	-0.09446725
8	0x3e20ac12	0.1569064
9	0xbd6bb0cb	-0.05754165
10	0xbc7c1a2f	-0.015387102
11	0x3c55d290	0.01305069
12	0x3e1dabe1	0.15397598
13	0xbe0c323e	-0.13691041
14	0xbdf0866d	-0.1174439
15	0xbe252922	-0.16128972
16	0x3d1d073c	0.038336977
17	0xbd965346	-0.07340102
18	0x3e2810db	0.1641268
19	0x3e1d547f	0.15364264
20	0xbe1c1c02	-0.15245059
21	0x3e16b64a	0.14717975
22	0x3e0ade38	0.13561332
23	0x3d9b7a56	0.07591693
24	0x3d161a17	0.036645975
25	0xbdbfe202	-0.093692794
26	0xba74cd9b	-0.0009338499
27	0xbdfff34a	-0.124975756
28	0x3e3382de	0.1753039
29	0x3c42a8fb	0.011881108
30	0x3e321a48	0.17392838
31	0x3c89688f	0.01677349
32	0x3cb56de3	0.022147125
33	0x3e16c0d5	0.14721997
34	0x3e33f0b1	0.17572285
35	0x3dd66376	0.104681894
36	0x3e49b603	0.19698338
37	0x3c2e636b	0.01064382
38	0xbe02c35b	-0.12769835
39	0x3c7967a0	0.01522246
40	0x3d1bcc5b	0.038036685
41	0x3d2163dd	0.039401878
42	0xbc4acf43	-0.012378517
43	0xbd525954	-0.05135472
44	0xbd9bdf25	-0.07610921
45	0x3dde68db	0.10859843
46	0x3d4ef380	0.05052519
47	0x3e1cc1e7	0.15308343
48	0x3e57854c	0.21046942
49	0xbe0ccd81	-0.13750269
50	0xbda1ce01	-0.0790062
51	0x3e2140b4	0.15747339
52	0x3e37b8d4	0.179416
53	0x3ddffbe0	0.10936713
54	0x3d282678	0.04105231
55	0x3e15274c	0.14565772
56	0x3c1a1392	0.00940408
57	0xbcb5e5a0	-0.02220422
58	0x3e6d34e9	0.23164715
59	0xbc0d1ce7	-0.008612848
60	0xbe52615b	-0.2054495
61	0x3ddd1a9b	0.1079609
62	0x3dbaf8b5	0.09129468
63	0x3e2dcf87	0.16973697
64	0xbe1fab75	-0.1559275
65	0xbe3724e5	-0.17885168
66	0xbc8da896	-0.017292302
67	0xbd72eceb	-0.059307974
68	0xbde2d7db	-0.110763274
69	0xbd4d3d40	-0.05010724
70	0x3dee7509	0.116434164
71	0x3d6b015e	0.05737435
72	0x3e4559dd	0.19272561
73	0xbdcc6623	-0.099804185
74	0x3d8ef742	0.069807544
75	0x3e29db01	0.1658745
76	0xbd5afda6	-0.053464554
77	0xbdb4c45a	-0.088265136
78	0x3de52cb8	0.1119017
79	0x3d67d83f	0.056602713
80	0xbe10018f	-0.14063095
81	0xbe0e29fd	-0.13883205
82	0x3df4d86f	0.11955344
83	0xbe35ea00	-0.17765045
84	0x3d3bf1d5	0.045884926
85	0x3e0f4e9b	0.1399483
86	0xbdb4373f	-0.087996
87	0xbd32881f	-0.043586846
88	0x3cec069f	0.028811751
89	0xbe0982f4	-0.13428861
90	0xbd5ba57b	-0.05362461
91	0x3c86f0cd	0.016472245
92	0xbdd087f3	-0.1018218
93	0xbd821444	-0.063515216
94	0x3d371e33	0.044706535
95	0xbd9ee6c1	-0.077588566
96	0xbbaf29e3	-0.0053455695
97	0x3d802ace	0.06258164
98	0x3cb6cb66	0.022313785
99	0x3e35c8c1	0.17752363
100	0x3b017369	0.0019752628
101	0x3e3a6c01	0.18205263
102	0xbda0f8f4	-0.07859984
103	0x3db969c7	0.090533786
104	0x3d9e4f78	0.07730001
105	0x3e5728ca	0.21011654
106	0x3cc5db8e	0.024152543
107	0xbd7f153a	-0.062276103
108	0x3e834234	0.25636446
109	0x3d9f0feb	0.07766708
110	0xbd5abe41	-0.053404097
111	0x3d7672a0	0.06016791
112	0xbde80e51	-0.11330856
113	0x3d9fe50b	0.07807358
114	0xbd130f23	-0.035903107
115	0xbdd69311	-0.104772694
116	0xbe0321c3	-0.12805848
117	0xbd8400d8	-0.064454734
118	0x3dcf1201	0.10110856
119	0xbdb0a12d	-0.08624492

encoder.model.bias_hh_l1 f4 [120]
0	0x3dd89217	0.105747394
1	0xbdb7e73a	-0.0897965
2	0x3e2c996c	0.16855401
3	0x3e0f2bbc	0.13981527
4	0x3db7dca3	0.0897763
5	0x3e312a3a	0.17301264
6	0x3e1289f0	0.14310431
7	0xbe03e83a	-0.12881556
8	0x3ce68e4f	0.02814403
9	0xbda53efa	-0.080686525
10	0x3d33ac9b	0.04386578
11	0xbd68991f	-0.056786653
12	0x3d722dc7	0.059125688
13	0x3e34d231	0.17658307
14	0x3e6151b4	0.22003824
15	0xbdd31ec1	-0.103086
16	0x3e21a776	0.15786538
17	0x3d9d522b	0.07681688
18	0x3e5ebfff	0.21752928
19	0xbd470f52	-0.048598595
20	0xbd87b1b6	-0.066256925
21	0x3e4e3d17	0.20140491
22	0x3c213fc0	0.009841859
23	0xbdc980d9	-0.09839029
24	0x3d088943	0.033334028
25	0xbcb991a7	-0.02265246
26	0x3df3e3c3	0.119086765
27	0xbb1eb179	-0.0024214669
28	0x3db00836	0.08595316
29	0x3d52d943	0.05147673
30	0x3e0b5487	0.13606463
31	0x3dd063e6	0.10175304
32	0x3d94514f	0.07242071
33	0x3d9c0326	0.07617788
34	0x3db3e266	0.087834165
35	0x3e44604f	0.19177364
36	0xbd3ab37a	-0.04558132
37	0xbc82a3b2	-0.015947197
38	0xbdd804e2	-0.10547806
39	0x3df49a40	0.11943483
40	0x3e15af84	0.14617735
41	0x3c833745	0.016017566
42	0x3d8f1eca	0.069882944
43	0xbd9c3e57	-0.07629078
44	0x3e1508df	0.14554165
45	0x3ceaaf4c	0.028648041
46	0x3d9fcbfd	0.078025796
47	0xbd6f2305	-0.058383007
48	0x3e64b93a	0.22336283
49	0x3e208efd	0.15679546
50	0x3e454c99	0.19267501
51	0x39b0a180	0.00033689663
52	0xbd8b3d86	-0.06798844
53	0x3d0af6c6	0.033926748
54	0x3e3cf1e3	0.18451647
55	0x3dc1e95e	0.094683394
56	0x3dfd4063	0.123657964
57	0xbd38bef2	-0.045103975
58	0xbdbf1497	-0.09330099
59	0xbe1c5e28	-0.15270293
60	0xbd35eded	-0.044416357
61	0xbdca791c	-0.09886381
62	0xbe4ba7c7	-0.1988822
63	0x3de088b6	0.109635755
64	0xbd8a408a	-0.06750591
65	0xbd7de984	-0.061990276
66	0xbd45e6a8	-0.048315674
67	0x3de4befe	0.11169241
68	0x3d331300	0.04371929
69	0xbd0b6ece	-0.03404122
70	0xbde5d655	-0.11222521
71	0x3e0f4d2c	0.13994282
72	0x3d1a1dc7	0.037626054
73	0xbdeb1cbe	-0.114800915
74	0x3dcae4f4	0.099069506
75	0xbc27449b	-0.010209228
76	0xbd2eaae3	-0.04264344
77	0xbe0f7063	-0.14007716
78	0x3da9d77e	0.08293055
79	0xbb7e18f2	-0.0038772193
80	0xbd4242e4	-0.047427073
81	0xbdccc536	-0.099985525
82	0x3de105b7	0.10987418
83	0xbdbcf0c8	-0.09225613
84	0x3e06ec8e	0.13176176
85	0xbdc366d5	-0.09541098
86	0xbe2eeaa9	-0.17081703
87	0xbdb2f81c	-0.08738729
88	0x3e3ed272	0.18634966
89	0xbce0cd07	-0.027441515
90	0xbd8f0bd7	-0.0698468
91	0x3da9ecc5	0.08297113
92	0x3d8a0e63	0.06741025
93	0x3e540657	0.20705543
94	0x3e5b9ccd	0.21446534
95	0xbd69db01	-0.057093624
96	0xbbf26361	-0.007397101
97	0x3e6a0315	0.22852738
98	0x3e5b7325	0.21430643
99	0x3e178a2c	0.14798802
100	0xbcc451a9	-0.02396472
101	0x3d485e7c	0.048918232
102	0xbdd66d82	-0.10470106
103	0xbdc3f422	-0.09568049
104	0xbcedf7bc	-0.029048793
105	0x3db5ec17	0.08882921
106	0x3e17771d	0.14791532
107	0xbd9f5040	-0.07778978
108	0x3e3e2239	0.18567742
109	0xbbd9a62c	-0.0066421237
110	0xbd49ef16	-0.049300276
111	0x3de58910	0.11207783
112	0x3deb8242	0.11499454
113	0x3e102aa6	0.14078769
114	0x3de9e5c7	0.1142078
115	0xbd887789	-0.066634245
116	0xbe01146f	-0.12605451
117	0x3d2b987c	0.041893467
118	0x3df3a476	0.11896603
119	0x3e50d173	0.20392399

variational_latent.hidden_to_mu.weight f4 [15, 30]
0	0xbde0da74	-0.109791666
1	0x3bfdb270	0.0077422187
2	0x3e71ee9e	0.23626181
3	0xbd46b231	-0.04850978
4	0x3eb9f9e6	0.3632347
5	0x3d1196a2	0.035544045
6	0xbe9a1b64	-0.30099022
7	0xbe5386a7	-0.20656835
8	0xbde395a4	-0.11112526
9	0xbe4d9234	-0.20075303
10	0x3e02e3ef	0.12782262
11	0xbe9eec14	-0.31039488
12	0x3da3c144	0.07995847
13	0x3e06e2a1	0.1317239
14	0x3cee7417	0.02910809
15	0x3e9f822b	0.31153998
16	0x3e3def4b	0.18548314
17	0xbe856873	-0.2605625
18	0x3e0e2c88	0.13884175
19	0x3c014741	0.007890523
20	0x3c874ddf	0.016516624
21	0x3e522733	0.20522766
22	0xbbac3d6f	-0.005256347
23	0x3e39bd94	0.18138725
24	0xbe5c4954	-0.21512347
25	0x3eb14c3a	0.3462847
26	0xbe94b843	-0.2904683
27	0xbead48f7	-0.3384473
28	0xbea8da06	-0.3297884
29	0x3dfa7fab	0.12231382
30	0xbbafbf92	-0.005363413
31	0xbde04f6a	-0.10952647
32	0xbeb33f23	-0.35009107
33	0xbeb66f10	-0.3563161
34	0x3e719d91	0.23595263
35	0x3e2a67cd	0.1664116
36	0xbeabb9b7	-0.33540127
37	0x3d453a99	0.048151586
38	0x3d367207	0.04454234
39	0x3e1f2a8a	0.15543571
40	0xbd180231	-0.037111465
41	0xbea74677	-0.32670948
42	0x3e9c4229	0.30519226
43	0xbec85854	-0.3912989
44	0x3e1581af	0.14600252
45	0x3a1bf1de	0.0005948822
46	0xbdaca8d8	-0.08430642
47	0x3e972a1d	0.29524317
48	0xbe889d2e	-0.2668242
49	0xbe90bd4f	-0.2826943
50	0xbe9f326c	-0.31093156
51	0x3e8a8f0f	0.2706227
52	0xbd64ac02	-0.055828102
53	0x3e29c6a1	0.16579677
54	0x3c823f89	0.015899437
55	0xbedd1a7d	-0.4318427
56	0xbe9dcd4a	-0.30820686
57	0x3e11b731	0.14230038
58	0xbe5c1d03	-0.21495442
59	0x3e1d887e	0.15384099
60	0xbcbed77a	-0.023296107
61	0x3dbb5489	0.09146983
62	0x3d2f4242	0.042787798
63	0xbcb5db99	-0.022199439
64	0x3ea67a3e	0.32515138
65	0x3c4870f2	0.0122339595
66	0xbdd38d3f	-0.10329675
67	0xbe77f7ab	-0.24215572
68	0x3e8971c2	0.26844603
69	0xbe0629c7	-0.13101874
70	0xbdf200e7	-0.11816578
71	0x3e1f5424	0.15559441
72	0xbd1dc1bc	-0.038514838
73	0x3e7e0925	0.24808176
74	0xbd35009d	-0.044190038
75	0x3da80d95	0.082057156
76	0xbe972872	-0.29523045
77	0xbe8ef17c	-0.27918613
78	0xbe07977a	-0.13241377
79	0x3ba7eae8	0.0051244386
80	0xbdc2d7e1	-0.09513832
81	0x3e0e9c83	0.13926892
82	0xbe8ea28e	-0.27858394
83	0x3e15b7e7	0.14620934
84	0x3e5cd5da	0.21565953
85	0xbddd6090	-0.108094335
86	0xbe200aa1	-0.15629055
87	0xbe9a9052	-0.30188233
88	0x3dcd2338	0.10016483
89	0xbd45f5e9	-0.04833022
90	0xbe9bfb82	-0.30465323
91	0x3e23ae5a	0.15984479
92	0x3eb0201f	0.34399506
93	0x3e712ff1	0.23553444
94	0x3e8af1be	0.2713756
95	0x3eae9595	0.34098497
96	0x3a29480b	0.00064575736
97	0x3e9d7663	0.30754384
98	0xbe3c6bbc	-0.18400472
99	0xbe98fe00	-0.29881287
100	0xbe0fb2da	-0.1403307
101	0x3dbc5cb1	0.09197367
102	0xbeb082b0	-0.34474707
103	0xbe6204b7	-0.22072111
104	0x3dd5fc7a	0.10448547
105	0xbd2c8622	-0.042120107
106	0x3e1b30db	0.15155356
107	0x3e980cdd	0.29697314
108	0x3e674145	0.22583492
109	0xbd20439f	-0.03912699
110	0x3de1028a	0.109868124
111	0x3e8d5cc6	0.27609843
112	0xbc81d394	-0.015847959
113	0xbe8bcc4e	-0.2730431
114	0xbdef8a72	-0.11696328
115	0xbea4606c	-0.32104814
116	0x3e869766	0.26287383
117	0xbdec9345	-0.11551527
118	0x3e7b4771	0.24538971
119	0x3e6ca2c0	0.23108959
120	0xbd8ab937	-0.06773608
121	0xbe275ea9	-0.16344704
122	0x3da0d528	0.07853156
123	0xbdf7e0b9	-0.12103409
124	0xbcbe9842	-0.023265962
125	0x3e0da814	0.13833648
126	0xbd1a1119	-0.03761396
127	0x3e63de7e	0.22252843
128	0x3c36b535	0.011151602
129	0xbea2e172	-0.31812626
130	0x3e869215	0.26283327
131	0x3eb4460a	0.35209686
132	0x3e8430e1	0.25818542
133	0x3e3ae405	0.18251045
134	0xbe78b37c	-0.24287218
135	0x3d414b5a	0.047191
136	0xbd4aa53b	-0.049473982
137	0xbe649971	-0.22324158
138	0x3e070372	0.13184908
139	0x3e145783	0.14486508
140	0xbe83c772	-0.25738102
141	0xbe31ed33	-0.1737564
142	0x3ead419d	0.3383912
143	0x3ddfa182	0.10919477
144	0xbdfd365b	-0.12363883
145	0xbe7fa453	-0.24965028
146	0xbe203b9f	-0.15647744
147	0x3c9dfb63	0.01928491
148	0xbe541aab	-0.20713298
149	0xbdbc9577	-0.09208196
150	0xbc8df538	-0.017328843
151	0x3e92ad69	0.28647926
152	0x3ea9ff18	0.33202434
153	0xbe787996	-0.24265131
154	0x3badf0c3	0.005308242
155	0xbe329b1c	-0.17441982
156	0xbe0930d1	-0.13397528
157	0x3e8acbed	0.27108708
158	0x3e1fdf99	0.1561264
159	0xbe511616	-0.20418581
160	0x3e8f5140	0.27991676
161	0xbe99ec1a	-0.30062944
162	0xbc136cc4	-0.0089981
163	0xbe7e4a53	-0.2483304
164	0x3d6a46cd	0.057196427
165	0x3db51e5a	0.0884368
166	0xbe71b1ad	-0.23602934
167	0x3d818fee	0.063262805
168	0x3e86c74b	0.26323923
169	0x3e4e7f40	0.2016573
170	0x3e755831	0.23959424
171	0x3e4560d1	0.19275214
172	0x3df1f455	0.11814181
173	0x3e1dca8d	0.15409298
174	0x3e9aa0dc	0.3020085
175	0xbeb96e09	-0.36216763
176	0xbe48724a	-0.19574848
177	0x3e87c3cf	0.26516578
178	0x3e39239d	0.18079992
179	0x3e59df49	0.21276583
180	0xbdcbcda6	-0.09951334
181	0xbde1a10c	-0.110170454
182	0x3e82ec4f	0.25570914
183	0x3ddfe4b1	0.10932291
184	0x3e9989fa	0.2998808
185	0x3d5f96c8	0.054587156
186	0xbd76b2ad	-0.060228992
187	0xbe429f9e	-0.19006202
188	0xbe99219d	-0.29908457
189	0x3eaaf0c9	0.3338683
190	0x3c8a70cf	0.016899494
191	0x3d422823	0.04740156
192	0x3ecc39d8	0.3988788
193	0x3e2044d4	0.15651256
194	0x3e997956	0.29975384
195	0xbd801b9b	-0.06255265
196	0xbe6bd238	-0.23029411
197	0xbeb5fa72	-0.35542637
198	0xbdce8ae8	-0.10085088
199	0x3e7fc5e8	0.24977839
200	0xbe0ce633	-0.13759689
201	0x3dc53ee9	0.0963114
202	0x3e22c507	0.15895472
203	0xbd8c1dbb	-0.06841608
204	0x3e9e7b9b	0.30953678
205	0x3e53d13c	0.20685285
206	0xbd912e77	-0.070889406
207	0xbebcdec5	-0.3688871
208	0xbd93ea30	-0.07222402
209	0xbdd8981c	-0.105758876
210	0x3e9f8024	0.3115245
211	0xbea05bc9	-0.31320027
212	0xbdc49077	-0.09597867
213	0x3d906716	0.07050912
214	0xbe83016d	-0.25587025
215	0x3db00d9b	0.08596345
216	0xbe925d93	-0.28587016
217	0x3ea9feb6	0.33202142
218	0x3da9a818	0.082840145
219	0x3d991be4	0.07476023
220	0xbe9eac9a	-0.3099106
221	0x3b7fa880	0.0039010346
222	0xbea21bce	-0.31661838
223	0x3e1bc57a	0.1521205
224	0x3d968b70	0.07350814
225	0x3e125e76	0.14293846
226	0x3e83cadc	0.25740707
227	0x3e5e66cd	0.21718903
228	0xbeba754a	-0.3641761
229	0xbc98da60	-0.018658817
230	0xbb4a8701	-0.0030903223
231	0xbeb6a3c3	-0.35671815
232	0x3e1605d8	0.14650667
233	0xbe84a18c	-0.259045
234	0xbddba7ff	-0.10725402
235	0x3c99dd9e	0.018782433
236	0xbea52949	-0.3225806
237	0xbd223e3b	-0.03961013
238	0x3e89ad37	0.26889965
239	0xbcdd6f67	-0.02703066
240	0xbd32dccb	-0.043667596
241	0x3ca8405f	0.020538507
242	0xbc0ae09f	-0.008476405
243	0x3aa1d2a6	0.0012346103
244	0x3de95f6a	0.11395152
245	0xbe13dcec	-0.14439744
246	0x3e7c89a5	0.24661882
247	0xbe8decf4	-0.27719843
248	0xbe3e16a7	-0.18563329
249	0xbe98b5f8	-0.2982633
250	0x3e1c714a	0.15277591
251	0xbdf01f1f	-0.11724686
252	0x3e1138d1	0.1418183
253	0xbe8732da	-0.26405984
254	0x3e13e5c6	0.1444312
255	0xbe5fde14	-0.2186206

variational_latent.hidden_to_mu.bias f4 [15]
0	0xbe074469	-0.1320969
1	0xbe200225	-0.15625818
2	0xbdd80c5a	-0.10549231
3	0xbe1f6d34	-0.15569001
4	0xbd814aa7	-0.06313067
5	0xbe2d00d0	-0.16894841
6	0x3e01d301	0.12678148
7	0x3d75225f	0.059847232
8	0x3ddc4f05	0.10757259
9	0xbc8f4a88	-0.017491594
10	0xbd80de83	-0.06292441
11	0x3e233f40	0.15942097
12	0x3e11b52a	0.14229265
13	0xbe0a5768	-0.13509905
14	0x3dbd9691	0.09257234
