models/20200923_173706/epoch_0600_loss_260433.58362.pt (torch, 232273 bytes, 96 tensors)

encoder.model.weight_ih_l0 f4 [120, 3]
0	0xbdefb563	-0.11704519
1	0xbd62420d	-0.055238772
2	0x3e24beb4	0.16088372
3	0xbe0fd998	-0.14047849
4	0x3d11c33d	0.035586584
5	0xbe31a032	-0.17346266
6	0x3c804dcd	0.015662098
7	0xbe13dce7	-0.14439736
8	0xbda6a328	-0.08136588
9	0xbd491d4b	-0.0491002
10	0x3dac4c30	0.08412969
11	0xbdd62775	-0.104567446
12	0xbdbfdfe2	-0.09368874
13	0x3dc6d6ff	0.09708976
14	0x3e58a2fe	0.21155927
15	0xbea279ac	-0.31733453
16	0xbe00c080	-0.12573433
17	0xbe97782f	-0.2958388
18	0xbe09138b	-0.13386361
19	0xbe2d0103	-0.16894917
20	0xbd4b4afb	-0.049632054
21	0xbc825286	-0.01590849
22	0x3c3f2ee1	0.011668892
23	0xbe6c4456	-0.23072943
24	0xbc02c3e3	-0.007981273
25	0xbe296660	-0.16542959
26	0x3d325c5a	0.043545105
27	0xbde29a17	-0.110645466
28	0xbe25daff	-0.16196822
29	0xbdbe8f5c	-0.093046874
30	0xbe5e2947	-0.21695434
31	0xbe0d178b	-0.13778512
32	0x3d0ed7ef	0.0348739
33	0xbe06f450	-0.13179135
34	0x3e29e0b5	0.16589625
35	0x3e2680a3	0.16260009
36	0xbe4743d6	-0.19459471
37	0xbd741da9	-0.0595986
38	0xbe46c9a8	-0.19412863
39	0xbe8d9847	-0.2765524
40	0x3e11dcae	0.14244339
41	0x3e7a7fff	0.24462889
42	0xbd16af18	-0.036788076
43	0xbd5694be	-0.052387945
44	0xbc7ce0bf	-0.015434443
45	0xbe6bda53	-0.23032503
46	0xbd086a08	-0.033304244
47	0xbdbe192c	-0.09282145
48	0xbe24e7e9	-0.16104092
49	0x3cd3b29e	0.025842007
50	0x3e0e6edb	0.13909476
51	0xbe5b72b7	-0.21430479
52	0x3d6e1720	0.058127522
53	0xbd4e8c50	-0.05042678
54	0xbe299cf9	-0.16563787
55	0xbde734df	-0.11289381
56	0x3df6028c	0.120122045
57	0xbe63113e	-0.22174546
58	0x3d4fb125	0.050706048
59	0x3d802d93	0.062586926
60	0x3d6cd5a1	0.05782092
61	0xbe4b7c7b	-0.19871704
62	0xbdab872a	-0.0837539
63	0xbe2bb418	-0.16767919
64	0xbcf5b0c1	-0.02999151
65	0xbdce28b2	-0.10066356
66	0xbe12661f	-0.14296769
67	0x3da8d17a	0.082430795
68	0xbe2932e9	-0.16523327
69	0xbe31f45d	-0.17378373
70	0xbd409e10	-0.04702574
71	0x3d9400c9	0.07226712
72	0x3d852516	0.06501214
73	0xbba1fc8d	-0.0049434365
74	0x3d502b69	0.05082265
75	0x3e1072a8	0.14106238
76	0xbe058d42	-0.13042167
77	0x3d4c69ef	0.049905714
78	0x3db4aeb8	0.088223875
79	0x3d4de750	0.050269425
80	0x3d46919d	0.04847871
81	0xbde8d23b	-0.11368223
82	0xbd4464f8	-0.047947854
83	0x3e10aaf9	0.14127721
84	0x3da0e141	0.07855464
85	0x3d675f36	0.056487285
86	0xbc2d38eb	-0.010572652
87	0xbe736ea2	-0.23772672
88	0xbe188eff	-0.14898299
89	0x3d99223a	0.07477231
90	0xbe12b0d3	-0.14325266
91	0x3b320d65	0.0027168628
92	0x3e498a2b	0.19681613
93	0xbe287a23	-0.16452841
94	0xbdd3b812	-0.10337843
95	0x3de26677	0.110547
96	0xbd15b357	-0.036547985
97	0xbe265e7e	-0.16246983
98	0x3d3b570e	0.04573732
99	0xbd7734b9	-0.060353015
100	0x3d1a93b0	0.037738502
101	0xbd5fcdc3	-0.05463959
102	0x3e0a3289	0.1349584
103	0xbd3b152a	-0.04567448
104	0x3e674e21	0.22588398
105	0xbe4bc035	-0.1989754
106	0xbcb7f9c0	-0.022457957
107	0xbe8a6c07	-0.27035543
108	0x3cc319ef	0.023816077
109	0xbe00866c	-0.12551278
110	0x3c310219	0.010803723
111	0x3daafe72	0.08349313
112	0xbe10ecec	-0.14152879
113	0xbde7154b	-0.11283358
114	0x3d69d850	0.057091057
115	0x3e855c1a	0.2604683
116	0x3e90c6a9	0.28276566
117	0xbd467965	-0.048455615
118	0xbdce75ba	-0.10081048
119	0x3e93fc75	0.28903547
120	0x3dbfab06	0.09358792
121	0xbca71db9	-0.020399915
122	0xbe1461ec	-0.14490479
123	0xbe4934eb	-0.19649093
124	0xbe01cf72	-0.1267679
125	0xbbff592a	-0.0077926116
126	0xbe547464	-0.20747524
127	0xbe37631b	-0.179089
128	0xbe0ba03f	-0.13635348
129	0x3dc883ce	0.09790765
130	0x3e31c181	0.17358972
131	0xbd122c7e	-0.035686962
132	0x3c691f25	0.014228617
133	0x3dd8cc54	0.105858475
134	0xbd30b455	-0.043140728
135	0x3e69d499	0.22835006
136	0xbd909b3f	-0.07060861
137	0x3db7f970	0.08983123
138	0xbded491b	-0.115862094
139	0xbdc7df68	-0.09759408
140	0x3bd9c6e0	0.006646022
141	0xbd250835	-0.04029103
142	0xbd95e5bc	-0.07319209
143	0xba968455	-0.001148353
144	0x3e4d5a74	0.20054036
145	0x3d960ed1	0.07327045
146	0xbd5e1ec2	-0.05422855
147	0xbd0603e3	-0.03271855
148	0x3d1440f2	0.03619475
149	0xbe2ce914	-0.16885787
150	0x3dd7c66c	0.10535893
151	0xbe1e7470	-0.15474105
152	0x3e517d31	0.20457913
153	0x3b244706	0.0025066747
154	0xbd502e9f	-0.05082571
155	0x3dccef8f	0.1000663
156	0xbce982bf	-0.028504727
157	0xbcbf7f9f	-0.023376284
158	0x3d9ec5f1	0.07752598
159	0x3e4d5f0f	0.20055793
160	0xbe170c86	-0.14750871
161	0x3e1c7e84	0.15282637
162	0x3e8691e1	0.26283172
163	0x3b17b523	0.0023148737
164	0xbc8940ab	-0.016754469
165	0xbcc5d296	-0.024148267
166	0xbd36fef4	-0.044676736
167	0x3e84139f	0.2579622
168	0x3dcfeffd	0.10153196
169	0x3c65a9e4	0.014017556
170	0x3d291913	0.04128368
171	0xbd503d0c	-0.05083947
172	0x3dc75029	0.09732086
173	0x3d164002	0.036682136
174	0xbdaa6b4d	-0.08321247
175	0xbdbe4f11	-0.092924245
176	0xbd7d3614	-0.06181915
177	0x3e0c125f	0.13678883
178	0xbd4436fa	-0.047903992
179	0x3d7c2c5d	0.061565746
180	0x3e47fe52	0.19530609
181	0xbe3d7146	-0.18500242
182	0x3d5673e7	0.052356627
183	0xbba82072	-0.005130821
184	0x3e0e9520	0.13924074
185	0x3b8589b7	0.004075255
186	0x3cc2a703	0.023761278
187	0x3cd10402	0.025514606
188	0x3e4b3e30	0.19847941
189	0xbdb300d1	-0.0874039
190	0xbcda1738	-0.0266224
191	0xbcb543c1	-0.022127034
192	0xbb12689b	-0.0022340182
193	0x3d224ea2	0.03962577
194	0x3e56f53c	0.20991987
195	0x3e071a8a	0.13193718
196	0xbe142bff	-0.14469908
197	0x3e2b3cfb	0.16722481
198	0xbb31e7e9	-0.0027146286
199	0xbdd334d3	-0.1031281
200	0xbe0a748e	-0.13521025
201	0x3d28133d	0.041033972
202	0xbd2e4935	-0.042550284
203	0xbe314adc	-0.17313713
204	0x3db40692	0.08790316
205	0xbb1c429a	-0.0023843409
206	0x3e4333ea	0.19062772
207	0xbce25059	-0.027626203
208	0xbbdec166	-0.0067979572
209	0x3e95a252	0.29225403
210	0x3cfd7926	0.030941557
211	0xbdd17e15	-0.10229126
212	0xbc585095	-0.013202806
213	0xbd767770	-0.0601725
214	0xbdb397de	-0.08769201
215	0x3de723e8	0.112861454
216	0x3e2fd6b3	0.17171745
217	0xbdeaa510	-0.114572644
218	0x3d3aa564	0.045567885
219	0x3e5d46e3	0.21609072
220	0x3c2fcc66	0.010729885
221	0xbd06ae90	-0.03288132
222	0x3dae8621	0.08521677
223	0xbd806c66	-0.06270675
224	0xbe4b00b5	-0.19824488
225	0xbd31942d	-0.043354202
226	0xbd8e5fd5	-0.06951872
227	0xbe5c0709	-0.21487059
228	0xbbd7c0f9	-0.0065842834
229	0x3ddb4d5b	0.10708114
230	0x3e7d52d1	0.24738623
231	0xbd8165b5	-0.06318227
232	0x3e1605ae	0.14650604
233	0xbe7f1559	-0.24910487
234	0x3aa691d0	0.001270825
235	0x3d741bc8	0.059596807
236	0x3e42f8aa	0.1904017
237	0xbe2f3a38	-0.17112052
238	0x3dcd1447	0.10013633
239	0xbc98ea43	-0.018666392
240	0x3d2a5ffd	0.041595448
241	0xbd3c2468	-0.045933157
242	0x3e96bf6a	0.29442912
243	0x3e041d89	0.12901892
244	0x3dbc33d1	0.09189571
245	0xbd5fda00	-0.05465126
246	0xbcc718e5	-0.024303863
247	0xbd09fa2a	-0.03368584
248	0xbe32c6c1	-0.17458631
249	0x3ca7db47	0.020490302
250	0xba41f741	-0.00073992094
251	0xbe718159	-0.23584498
252	0xbdc060c7	-0.09393459
253	0x3df9c7cf	0.121963136
254	0x3e5c10ce	0.21490785
255	0xbe6052b9	-0.21906556

encoder.model.weight_hh_l0 f4 [120, 30]
0	0x3cf7bcf1	0.030241461
1	0x3e710f3c	0.23540968
2	0xbdf32f4a	-0.11874254
3	0xbdd41d0e	-0.10357104
4	0x3e30fdce	0.17284319
5	0xbe09296c	-0.13394707
6	0xbdca38b5	-0.09874097
7	0x3da34998	0.07973021
8	0x3ddeddf4	0.10882178
9	0xbde15009	-0.110015936
10	0xbd86df55	-0.06585566
11	0xbe3f3fa3	-0.18676619
12	0x3ccbf452	0.024896774
13	0x3d5dac6c	0.054119512
14	0xbcb29dab	-0.021803698
15	0xbaf94b7b	-0.0019019687
16	0x3dd4b5d0	0.103862405
17	0x3e622cb5	0.22087367
18	0x3d9c41ca	0.07629736
19	0xbde72432	-0.112862006
20	0x3da4f061	0.08053661
21	0x3ea668bc	0.3250178
22	0xbc1e9bfd	-0.009680745
23	0xbe067120	-0.13129091
24	0x3e26e90c	0.16299838
25	0xbdc5c051	-0.09655822
26	0xbe204618	-0.15651739
27	0x3de07283	0.109593414
28	0xbda65a96	-0.08122747
29	0x3d26296d	0.04056685
30	0x3e32499d	0.17410894
31	0xbe05b80c	-0.1305849
32	0x3e0ab7c9	0.13546671
33	0x3de81cde	0.11333631
34	0xbc6b6a6c	-0.014368635
35	0x3df8274c	0.1211687
36	0x3c8c708e	0.017143514
37	0x3dc3a7a5	0.0955346
38	0x3d500978	0.05079028
39	0x3d65008b	0.05590872
40	0x3e5bda1f	0.21469925
41	0x3dfca2c5	0.12335733
42	0xbd2746dd	-0.040839065
43	0xbde2900d	-0.11062632
44	0x3a522585	0.0008016455
45	0xbca575ae	-0.020197716
46	0x3e0449ec	0.12918824
47	0x3d9c0c8d	0.07619581
48	0x3d913f3e	0.070921406
49	0xbdd228bf	-0.10261678
50	0x3e564ade	0.20926997
51	0x3daa9b78	0.083304346
52	0x3de8384a	0.11338861
53	0xbe54277b	-0.20718186
54	0x3e250bf7	0.16117845
55	0xbda78000	-0.08178711
56	0x3e3fb2a4	0.1872049
57	0xbe6d1c06	-0.23155221
58	0x3d84135e	0.064490065
59	0xbda126b5	-0.07868711
60	0xbda0e7d1	-0.078567155
61	0xbd5a51c7	-0.053300645
62	0xbe097cb5	-0.13426478
63	0xbd8385a3	-0.064219736
64	0xba9f2829	-0.0012142706
65	0xbe4b9b19	-0.19883384
66	0xbd455b5e	-0.048182838
67	0x3e4b4122	0.19849065
68	0xbdc17ac2	-0.09447242
69	0xbc56f2ce	-0.013119413
70	0xbd056716	-0.032569014
71	0x3e03adab	0.12859218
72	0xbe333c8a	-0.17503563
73	0xbe179d06	-0.14805993
74	0x3e5e6c36	0.21720967
75	0xbdb2ee88	-0.087369025
76	0x3d5187a3	0.051154744
77	0x3d28c0ff	0.04119968
78	0x3db9201d	0.09039328
79	0x3e2c98c5	0.16855152
80	0x3dbc709e	0.092011675
81	0x3d74a88b	0.059731048
82	0x3e4a2a79	0.19742765
83	0x3d85b5a3	0.06528785
84	0x3dc3040f	0.095222585
85	0x3bf0a9a3	0.007344441
86	0x3ba07d1e	0.0048977276
87	0xbd68fb14	-0.05688007
88	0x3e0b4775	0.13601477
89	0x3c189e8e	0.009315146
90	0x3e057988	0.13034642
91	0xbe1cc3ec	-0.15309113
92	0xbe1de3f4	-0.15418988
93	0x3e84fd2f	0.25974414
94	0x3e8299a9	0.25507858
95	0xbd746bb3	-0.059673022
96	0xbdd2873c	-0.102797
97	0xbc91865c	-0.017764263
98	0x3dbdfa27	0.092762284
99	0x3df61a00	0.12016678
100	0x3e02eb74	0.1278513
101	0x3dc64b6f	0.096823566
102	0xbd94b2a4	-0.072606355
103	0xbe2325b7	-0.15932356
104	0x3de6678d	0.112502195
105	0x3dec2403	0.11530306
106	0x3c6f72dd	0.014614788
107	0x3df5fcb1	0.12011088
108	0x3e294fba	0.1653432
109	0x3e5e16fb	0.21688454
110	0xbda9ed90	-0.082972646
111	0xbe69d160	-0.22833776
112	0x3da1c88a	0.07899578
113	0xbd6e27b8	-0.058143348
114	0x3e229d8b	0.1588041
115	0x3e189fb2	0.14904669
116	0xbe2a4de5	-0.16631277
117	0xbda96d5e	-0.08272813
118	0x3e6b9cbd	0.2300901
119	0x3c856f8e	0.016288545
120	0xbe285cfe	-0.16441724
121	0xbbb171b5	-0.0054151663
122	0x3e0f1570	0.13973022
123	0x3e15424f	0.14576076
124	0x3ca4465d	0.020053083
125	0xbd3c7c05	-0.04601671
126	0x3e301c82	0.17198375
127	0xbda4548b	-0.08023938
128	0x3e1d7db9	0.1537999
129	0x3dfdb72a	0.123884514
130	0xbdc3db71	-0.095633395
131	0x3dbc4b81	0.09194089
132	0xbd990ef3	-0.074735545
133	0xbe50be7f	-0.20385168
134	0x3e8df98a	0.27729446
135	0xbdbdcf4f	-0.092680566
136	0x3dce3305	0.10068325
137	0x3c349623	0.0110221235
138	0x3df7e5d6	0.121043846
139	0xbd8021de	-0.0625646
140	0x3e6a137e	0.22858998
141	0x3dc181a7	0.09448557
142	0x3e4d83ff	0.20069884
143	0xbd1497e2	-0.03627766
144	0x3e2e7ee3	0.17040591
145	0x3d529f51	0.051421467
146	0xbe1c5b40	-0.15269184
147	0xbe22ade4	-0.15886647
148	0x3e9154e9	0.28385094
149	0x3e53c214	0.20679504
150	0xbe016dc3	-0.12639527
151	0xbe3b9376	-0.1831797
152	0xbd6119bf	-0.054956194
153	0xbd342b5e	-0.04398667
154	0x3cca3f8b	0.024688503
155	0x3e1d366d	0.15352793
156	0xbc9b8fe3	-0.018989509
157	0xbd87cf75	-0.06631366
158	0xbdefbbbf	-0.117057316
159	0x3e366693	0.17812566
160	0xbcce7944	-0.025204308
161	0xbdcfc22b	-0.101444565
162	0x3e2c556e	0.16829464
163	0xbe20f342	-0.15717795
164	0x3dcd06e9	0.10011084
165	0xbe01e482	-0.12684825
166	0xbcf8f931	-0.030392261
167	0x3c89d90f	0.016827134
168	0xbd39ed29	-0.04539219
169	0x3dca26a4	0.09870651
170	0x3d778b3d	0.060435522
171	0xbdcb0763	-0.09913518
172	0xbe0f6c7c	-0.14006227
173	0x3db2c69b	0.08729287
174	0x3d890818	0.06690997
175	0x3e2e6b6d	0.17033167
176	0x3d741585	0.059590835
177	0x3e2b8a01	0.16751863
178	0xba4e078e	-0.0007859402
179	0x3e5b74fe	0.21431348
180	0x3e4fa4b4	0.20277673
181	0xbe574ce3	-0.21025424
182	0x3c8bbf5c	0.01705902
183	0x3d236a04	0.039896026
184	0x3e38e898	0.18057477
185	0x3c8f56c4	0.017497428
186	0xbe11925d	-0.1421599
187	0xbe279ac9	-0.1636764
188	0xbd2a386e	-0.04155772
189	0xbd0b6974	-0.034036115
190	0x3d565bed	0.05233376
191	0x3d1c3cf9	0.038144086
192	0xbd481e8b	-0.048857253
193	0xbda9c4d1	-0.08289493
194	0x3dea9226	0.11453657
195	0xbe04f8d2	-0.12985542
196	0xbe5b6f3d	-0.21429153
197	0x3d0a3ecc	0.033751294
198	0xbe1da126	-0.15393505
199	0xbded79a9	-0.115954705
200	0xbdd7b479	-0.10532469
201	0xbde8c88c	-0.11366376
202	0xbd742ce3	-0.05961312
203	0x3e060fb6	0.13091931
204	0x3b308423	0.0026934228
205	0x3dd06989	0.10176379
206	0x3e626f90	0.2211287
207	0xbca2e4fd	-0.01988458
208	0xbe248e07	-0.16069804
209	0xbe2ea513	-0.17055158
210	0x3e4800ff	0.1953163
211	0xbdfea110	-0.12433064
212	0xbcc0b20b	-0.023522398
213	0xbcda8143	-0.026672965
214	0xbd4fff84	-0.050780788
215	0xbc7c9bdb	-0.015418018
216	0x3e0a9ca1	0.13536312
217	0x3df225d5	0.11823622
218	0x3d22f852	0.039787598
219	0x3d6af00e	0.05735784
220	0x3dd2fe60	0.103024244
221	0x3d7dbd4e	0.061948113
222	0x3e2bcddf	0.16777752
223	0x3cf2626e	0.02958795
224	0x3cba87b6	0.02276979
225	0x3e4d7d30	0.20067286
226	0x3d2104b4	0.039311126
227	0x3ddab018	0.106781185
228	0xbe575918	-0.2103008
229	0xbdf60447	-0.120125346
230	0xbb811640	-0.00393942
231	0xbc898dc4	-0.016791232
232	0xbda8051a	-0.08204098
233	0x3d3d0707	0.04614928
234	0xbe0a8171	-0.1352594
235	0x3dfa6f6c	0.12228283
236	0xbda3e488	-0.08002573
237	0xbd4de7ac	-0.050269768
238	0x3e05223f	0.13001345
239	0x3c472f5f	0.01215729
240	0xbe8fa2a2	-0.28053766
241	0xbc9ae31c	-0.018907122
242	0x3db14cab	0.086572014
243	0x3e5ff7d0	0.21871877
244	0x3e04c1fa	0.12964621
245	0xbdd00801	-0.101577766
246	0x3dd73327	0.105078034
247	0x3e7a61b1	0.24451329
248	0x3e43bede	0.19115779
249	0x3e4ab03e	0.19793794
250	0x3e2a5fa2	0.16638044
251	0xbda1a07d	-0.07891939
252	0x3b9c523a	0.0047705444
253	0xbe8fb3d1	-0.28066877
254	0x3e8acbc9	0.271086
255	0xbe86be09	-0.2631686

encoder.model.bias_ih_l0 f4 [120]
0	0xbe06a457	-0.13148628
1	0xbdbaa05d	-0.09112618
2	0xbac22570	-0.0014812183
3	0xbcd28f04	-0.02570296
4	0x3d7ebb85	0.06219055
5	0x3e1ee33b	0.15516369
6	0xbddd31b9	-0.108004995
7	0xbe20228d	-0.1563818
8	0x3e5b57a5	0.21420152
9	0x3e554605	0.20827492
10	0xbca016eb	-0.019542178
11	0x3e20b723	0.15694861
12	0xbd9dcbed	-0.077049114
13	0x3e81dfd4	0.2536608
14	0x3e62ecfb	0.22160713
15	0xbd1234e9	-0.03569499
16	0x3c8f8a89	0.017522113
17	0x3e8657cb	0.26238856
18	0x3e1ec1c5	0.15503605
19	0x3e117c2a	0.14207521
20	0x3e49efa0	0.19720316
21	0xbd66c5fb	-0.056341153
22	0x3d8a724a	0.0676008
23	0x3d8918fc	0.066942185
24	0x3e16e815	0.1473697
25	0x3e203f7c	0.15649217
26	0x3d66d60b	0.05635647
27	0xbd3d4f3b	-0.04621814
28	0xbd1fb474	-0.038990453
29	0x3e4aa5f2	0.19789866
30	0x3e39ca52	0.18143585
31	0xbc93684b	-0.017994067
32	0xbdc1d599	-0.09464569
33	0xbda37ae5	-0.07982425
34	0x3e8123d5	0.2522265
35	0x3b6805e2	0.0035403897
36	0xbdb9cd6d	-0.09072385
37	0x3d45e0f7	0.048310246
38	0x3dbd63d0	0.09247553
39	0xbcb413fa	-0.021982182
40	0x3e842a6a	0.2581361
41	0x3e4da38c	0.2008192
42	0x3c8b52dd	0.017007286
43	0x3e065af5	0.13120635
44	0xbd2307df	-0.03980243
45	0x3da8aed7	0.08236473
46	0x3e1da796	0.1539596
47	0x3e01d121	0.12677433
48	0x3e2c7899	0.1684288
49	0x3d8fafc6	0.07015948
50	0xbc9ce1df	-0.019150672
51	0x3c9f813a	0.0194708
52	0x3d6d7076	0.05796858
53	0x3dbbaa70	0.09163368
54	0xbd3f37be	-0.04668402
55	0x3e6feb61	0.23429634
56	0xbd5a651d	-0.053319085
57	0x3cbf2e7b	0.023337593
58	0xbce6bc8d	-0.02816608
59	0xbdb74cde	-0.08950208
60	0xbe1b2729	-0.15151657
61	0xbd567480	-0.052357197
62	0x3c88939e	0.016671952
63	0x3e182fc6	0.14861974
64	0xbd546f8d	-0.051864196
65	0x3df733b1	0.12070406
66	0xbdd4d081	-0.103913315
67	0x3e18cfa7	0.14922963
68	0x3e104530	0.14088893
69	0x3e7c9851	0.24667479
70	0x3d697dcc	0.057004735
71	0xbd79330b	-0.060839694
72	0x3cd1dbb0	0.02561745
73	0xbe7b186d	-0.24521036
74	0x3df97b21	0.12181688
75	0xbe83cfba	-0.2574442
76	0x3e360051	0.17773558
77	0x3d870cc4	0.06594232
78	0x3e226dda	0.15862218
79	0x3d87f5c4	0.06638673
80	0x3e81699a	0.2527588
81	0xbe043ada	-0.12913075
82	0x3e2b9f63	0.1676002
83	0xbe43766b	-0.19088142
84	0xbc6afa2c	-0.014341872
85	0x3e194721	0.1496854
86	0x3ccfe0ed	0.025375808
87	0xbe228612	-0.15871456
88	0xbc9448f1	-0.018101187
89	0x3d6c338f	0.057666358
90	0x3baae784	0.005215587
91	0x3e38e6b4	0.18056756
92	0xbdcd543e	-0.100258335
93	0x3e2819e4	0.16416126
94	0x3e282644	0.16420847
95	0x3d608894	0.05481775
96	0x3d86945a	0.065712646
97	0xbd97d2d5	-0.0741326
98	0xbd8731cb	-0.06601294
99	0x3e68b0a7	0.22723638
100	0xbe031964	-0.12802655
101	0x3d857292	0.06515993
102	0xbd9b7da1	-0.07592321
103	0x3e6893d7	0.22712646
104	0x3db5cd37	0.08877032
105	0xbdab0c6c	-0.08351979
106	0x3e0642fd	0.13111492
107	0xbd0df7b3	-0.034660053
108	0x3dd46634	0.10371056
109	0xbc85d74f	-0.016338019
110	0x3e802822	0.2503062
111	0x3e3d4214	0.18482238
112	0x3d669c44	0.05630137
113	0x3e0d2b98	0.13786161
114	0x3d204494	0.0391279
115	0x3e167fd6	0.14697203
116	0x3df0b324	0.11752918
117	0x3e85b881	0.26117328
118	0x3cdd8eb5	0.027045587
119	0x3c269636	0.010167649

encoder.model.bias_hh_l0 f4 [120]
0	0x3e545406	0.20735177
1	0x3d128b60	0.03577745
2	0xbe0f6eed	-0.14007159
3	0x3d976b4e	0.073935136
4	0x3e93cf41	0.2886906
5	0x3da4adef	0.08040988
6	0x3dd48b9b	0.1037819
7	0x3de970de	0.11398481
8	0x3e2c7e42	0.16845039
9	0x3e4380fa	0.1909217
10	0x3ca71b9f	0.020398913
11	0x3e5be793	0.21475057
12	0xbd53b5d9	-0.051687095
13	0x3e52c30c	0.20582217
14	0x3df7ca64	0.1209915
15	0x3e009350	0.12556195
16	0xbcb28a8a	-0.021794576
17	0x3e225980	0.15854454
18	0xbd86a780	-0.06574917
19	0x3d08d244	0.03340365
20	0x3e1fb323	0.15595679
21	0x3d8808ee	0.06642328
22	0xbe14ea22	-0.1454244
23	0xbd465fbc	-0.048431143
24	0x3e672b69	0.22575153
25	0x3db3298c	0.08748159
26	0xbe0c40bf	-0.13696574
27	0x3dc49292	0.095982686
28	0x3e33a477	0.17543207
29	0xbd89eba0	-0.06734395
30	0x3d5f264d	0.054479886
31	0xbda30b6b	-0.07961162
32	0xbd4e4d31	-0.050366584
33	0xbdc9434f	-0.09827291
34	0x3e02b1ab	0.12763087
35	0xbdbb65ee	-0.09150301
36	0x3d8c039d	0.06836627
37	0xbd2de3e9	-0.04245368
38	0x3e0a23ec	0.13490266
39	0x3e39067c	0.1806888
40	0x3e6a6586	0.2289029
41	0x3c0d9026	0.008640325
42	0x3c2faf86	0.010723
43	0xbd2f4968	-0.042794615
44	0x3e35f357	0.17768608
45	0x3e16f4fa	0.14741889
46	0x3e2e0638	0.1699456
47	0x3d201baa	0.039088883
48	0x3c957856	0.018245857
49	0xbd8707f2	-0.06593312
50	0xbcaf5f32	-0.021407697
51	0x3e42ad6e	0.1901147
52	0x3e0bf453	0.13667421
53	0xbd6d79ee	-0.05797761
54	0xbe2b73db	-0.16743414
55	0x3d8da40c	0.06916055
56	0xbdb2b4ca	-0.08725889
57	0x3de60815	0.1123201
58	0xbdb99fdb	-0.09063693
59	0xbdff536b	-0.124670826
60	0x3dcbd7aa	0.09953244
61	0xbe6ca9d3	-0.23111658
62	0x3e316c40	0.1732645
63	0x3d989c5e	0.074517
64	0x3e3e944f	0.18611263
65	0x3e6709d8	0.22562349
66	0x3e13aa8d	0.14420529
67	0x3d0d48d8	0.034493297
68	0x3e036a3e	0.12833497
69	0x3e42425e	0.1897063
70	0xbba5e2cb	-0.005062436
71	0xbe3e1ac4	-0.18564898
72	0x3e146f77	0.14495645
73	0xbe8c2799	-0.2737396
74	0x3e1c10a4	0.15240723
75	0xbe77c8a4	-0.24197632
76	0xbd96d04b	-0.073639475
77	0xbe79db27	-0.24400006
78	0x3e217083	0.15765576
79	0x3e04e731	0.12978818
80	0x3e0f4e94	0.13994819
81	0xbe43a66c	-0.19106454
82	0xbe3ad5fd	-0.18245693
83	0x3a33532a	0.00068407005
84	0x3d89265a	0.06696768
85	0x3e18af73	0.14910679
86	0x3d3be9ea	0.045877375
87	0xbe83a2f4	-0.2571026
88	0x3e7abf78	0.24487102
89	0x3e339d51	0.1754048
90	0x3d44c72a	0.0480415
91	0xbdac6a9f	-0.08418774
92	0x3e365171	0.17804505
93	0xbd295e0c	-0.041349456
94	0x3d5c9200	0.053850174
95	0x3e479eda	0.19494191
96	0xbd7b4762	-0.061347373
97	0x3d94e865	0.07270888
98	0x3dc46647	0.0958982
99	0x3e8a1436	0.26968545
100	0xbd7fb347	-0.06242683
101	0xbda18fbf	-0.078887455
102	0x3e2a389e	0.1662316
103	0x3bab2845	0.0052233064
104	0x3da385d9	0.07984514
105	0x3d2cf05f	0.042221423
106	0x3cd022e1	0.025407257
107	0xbd504433	-0.05084629
108	0xbdd4495d	-0.103655554
109	0x3c4b0ccb	0.012393187
110	0x3e0176d1	0.12642981
111	0x3dd5fffe	0.10449217
112	0x3d7fb900	0.06243229
113	0x3e729628	0.23690093
114	0xbdaf7a03	-0.08568194
115	0x3e431951	0.19052626
116	0xbe2eaafc	-0.17057413
117	0x3e1682d0	0.14698339
118	0x3da18dcc	0.07888374
119	0x3c3df7a7	0.011594689

encoder.model.weight_ih_l1 f4 [120, 30]
0	0xbe00579e	-0.12533423
1	0x3d197c72	0.037472196
2	0xbe0f9aa3	-0.14023833
3	0xbdb95978	-0.09050268
4	0x3e7d2941	0.24722768
5	0xbe2d271e	-0.16909453
6	0x3e61ed23	0.22063117
7	0x3d3d1ff3	0.046173047
8	0xbd57b283	-0.052660476
9	0x3e0db49c	0.13838428
10	0x3e0eb80f	0.139374
11	0xbd571cfa	-0.05251787
12	0xbdb75144	-0.08951047
13	0x3c2aa2be	0.010414777
14	0x3e031aae	0.12803146
15	0x3dbc3acf	0.09190904
16	0xbda6c395	-0.08142773
17	0xbe357f0a	-0.17724243
18	0xbc88baa0	-0.016690552
19	0x3e624d95	0.22099908
20	0xbdfb1953	-0.122606896
21	0x3dddd781	0.1083212
22	0x3df7de57	0.12102955
23	0x3e22bb2a	0.1589171
24	0x3d10816e	0.035279684
25	0x3e1ed020	0.15509081
26	0xbe1e0bf3	-0.15434246
27	0x3dd9c8b6	0.10633986
28	0x3cc15c59	0.023603605
29	0xbdc598bf	-0.09648275
30	0xbdb62070	-0.08892906
31	0x3dfb8306	0.1228085
32	0xbda54069	-0.08068926
33	0x3e1be71c	0.1522488
34	0x3e815f76	0.25268143
35	0xbe054a13	-0.13016538
36	0x3e2d46a6	0.16921481
37	0x3ddec0d8	0.10876626
38	0xbd860f3b	-0.06545874
39	0xbc22f870	-0.009946927
40	0xbd1ea147	-0.038728025
41	0xbd7d1860	-0.061790824
42	0xbb8f14a1	-0.004366473
43	0x3c546dc0	0.01296562
44	0x3d965fc7	0.07342487
45	0xbe389dd1	-0.18028952
46	0x3e4f6521	0.20253421
47	0xbe5b8cd5	-0.21440442
48	0x3d859364	0.06522253
49	0x3ca6bc88	0.02035357
50	0xbdaf7df6	-0.08568947
51	0x3d037479	0.0320935
52	0x3de458cf	0.111497514
53	0x3debb18f	0.11508476
54	0xba55ad0e	-0.00081510923
55	0x3e160d70	0.14653563
56	0xbdae5272	-0.08511819
57	0xbd615c7d	-0.055019844
58	0x3e2b6aa7	0.16739903
59	0x3de4f69d	0.1117985
60	0x3da4371b	0.08018323
61	0x3dbf8403	0.09351351
62	0xbde4c973	-0.11171236
63	0xbd918077	-0.07104581
64	0x3e799fb9	0.24377336
65	0x3e05f0d3	0.13080148
66	0xb9af7d81	-0.0003347211
67	0xbd0bd802	-0.034141548
68	0x3d16b947	0.036797788
69	0xbded29b6	-0.11580221
70	0x3d2caf77	0.042159524
71	0xbe15412b	-0.14575641
72	0x3e565b5a	0.20933285
73	0xbe4e3bb4	-0.20139962
74	0xbc9c15b2	-0.019053314
75	0xbdb29674	-0.08720103
76	0xbe02024e	-0.12696192
77	0xbdb2db02	-0.08733179
78	0xbd2402aa	-0.040041603
79	0xbd043d37	-0.03228494
80	0x3e112023	0.14172415
81	0xbe05f1a3	-0.13080458
82	0x3bc96cad	0.0061469884
83	0x3d939dc7	0.07207828
84	0xbc0a3fc9	-0.008438059
85	0x3d0c1005	0.034194965
86	0x3e1f0985	0.15530975
87	0xbe12a524	-0.14320809
88	0x3e11518f	0.14191268
89	0x3dbe7f1b	0.09301587
90	0x3c617873	0.0137616275
91	0xbe1fbde0	-0.15599775
92	0xbe488eeb	-0.19585769
93	0xbdd7c6c2	-0.10535957
94	0x3e150439	0.14552392
95	0xbe231c49	-0.15928759
96	0x3dfadf1f	0.12249588
97	0x3dd3c6ac	0.10340628
98	0x3b09dc57	0.0021035874
99	0x3d96fe20	0.07372689
100	0x3e6770ff	0.22601698
101	0xbe204663	-0.1565185
102	0x3e54d111	0.20782878
103	0x3c28828b	0.01028503
104	0xbdacb00b	-0.08432015
105	0x3c978e60	0.018500507
106	0xbe06d8ff	-0.13168715
107	0xbc83cf5f	-0.016090093
108	0x3d768f73	0.060195398
109	0xbccd4b68	-0.02506037
110	0x3ceb6201	0.028733255
111	0x3d5270a1	0.051376943
112	0x3dc7fe7c	0.09765336
113	0x3d89533a	0.06705327
114	0x3d5de6e4	0.054175273
115	0xbde12df1	-0.10995091
116	0x3a971802	0.0011527541
117	0xbcfdd96e	-0.030987468
118	0x3e4419a5	0.19150408
119	0xbe0f6feb	-0.14007537
120	0x3df86e14	0.12130371
121	0xbd4f30f2	-0.050583787
122	0xbcfe5da4	-0.03105051
123	0xbcfc03bd	-0.030763501
124	0x3d3cc3d7	0.046085205
125	0xbd76cb80	-0.060252666
126	0x3e5f7ebf	0.21825694
127	0x3da98588	0.08277422
128	0x3dcf6a5a	0.10127707
129	0xbe22c2a6	-0.15894565
130	0x3de6a60f	0.11262142
131	0x3dcc87bf	0.09986829
132	0xbd9fbb21	-0.07799364
133	0x3cdf84ff	0.027285097
134	0x3e061986	0.13095674
135	0x3e3afb9a	0.18260041
136	0x3d91819a	0.07104798
137	0x3d18a78d	0.037269164
138	0xbe00026a	-0.12500921
139	0x3dc82334	0.097723395
140	0xbd516a7f	-0.051126953
141	0xbd45fe4c	-0.04833822
142	0xbcf60a93	-0.030034339
143	0x3de583dd	0.112067915
144	0xbe0e7be7	-0.13914452
145	0xbe0e3203	-0.13886265
146	0x3d522f73	0.051314782
147	0x3dbfbeaa	0.09362538
148	0xbdf51c98	-0.119683444
149	0x3df0d1ec	0.117587894
150	0x3d0d1c7b	0.03445099
151	0x3d0cb8a4	0.034355775
152	0xbcfe3b77	-0.031034214
153	0x3e00defc	0.12585062
154	0x3dadb55c	0.08481857
155	0xbde36bb8	-0.1110453
156	0xbde739f4	-0.112903506
157	0x3cebe193	0.028794086
158	0xbddf231d	-0.10895369
159	0xbc5f6ca2	-0.01363674
160	0x3dcef5bb	0.10105463
161	0xbdfc6691	-0.123242505
162	0x3e0c6691	0.13711001
163	0xbe160da9	-0.14653648
164	0xbd82c33e	-0.06384896
165	0xbd90497f	-0.07045268
166	0x3e16503d	0.14679046
167	0x3d992ae4	0.07478884
168	0x3e554560	0.20827246
169	0xbd8a6ca1	-0.067590006
170	0xbddb4649	-0.10706765
171	0x3d2dbd08	0.042416602
172	0x3e5da0b2	0.21643332
173	0x3e4af50a	0.19820037
174	0xbc97eee7	-0.018546535
175	0x3c77d424	0.015126262
176	0xbdb03be3	-0.086051725
177	0xbd212932	-0.039345928
178	0x3dc372c0	0.09543371
179	0x3d0bf2b2	0.034167
180	0x3d021afd	0.03176402
181	0xbe8b0264	-0.2715026
182	0xbe800a02	-0.25007635
183	0xbd1a5032	-0.037674136
184	0xbd505b21	-0.050868157
185	0xbdac25b1	-0.084056266
186	0x3e565538	0.20930946
187	0x3e6129e8	0.21988642
188	0xbd8d20b2	-0.06891002
189	0x3c740b37	0.014895252
190	0x3e220353	0.1582158
191	0x3e54ba9f	0.20774315
192	0xbd40c928	-0.047066838
193	0xbdb67f70	-0.089110255
194	0x3dc55a97	0.09636419
195	0xbb4ae500	-0.0030959249
196	0x3e1bae69	0.15203251
197	0x3d29f7b6	0.041496
198	0x3dbc211f	0.09186005
199	0x3dd85b94	0.10564342
200	0x3d90766c	0.07053837
201	0x3d8b0579	0.06788153
202	0x3e56149c	0.209063
203	0x3e4ada41	0.1980982
204	0xbc61168e	-0.013738288
205	0xbe3fca5b	-0.18729536
206	0x3de96b33	0.113974
207	0xbe067a11	-0.13132502
208	0xbe004883	-0.12527661
209	0xbe38b6af	-0.18038438
210	0xbde4f483	-0.111794494
211	0xbde905e3	-0.11378076
212	0xbccacea0	-0.02475673
213	0x3e1a7a2f	0.15085672
214	0x3d87d926	0.06633215
215	0x3de4f26b	0.1117905
216	0x3e416708	0.1888696
217	0xbd1764ac	-0.036961243
218	0xbdf12edf	-0.11776518
219	0xbdb87e01	-0.09008408
220	0x3cbe22ff	0.023210047
221	0xbbd8f31a	-0.006620777
222	0x3e48daf5	0.19614775
223	0xbd3f36ca	-0.04668311
224	0xbd390d6e	-0.045178823
225	0x3cf65c41	0.030073287
226	0x3d8fdda6	0.07024698
227	0xbd209e40	-0.03921342
228	0x3e3d1b8b	0.18467538
229	0x3e15c52a	0.14625993
230	0xbd5f1d79	-0.054471467
231	0xbdf99e30	-0.12188375
232	0xbcb17c71	-0.021665784
233	0x3cb94e41	0.022620322
234	0x3d89054c	0.066904634
235	0x3e3732c7	0.17890464
236	0xbc1377c8	-0.009000726
237	0x3ddca3e3	0.107734464
238	0xbd729774	-0.05922647
239	0x38248170	3.9221195e-05
240	0xbdfbc0bc	-0.122926205
241	0xbe2ec575	-0.17067511
242	0xbde42467	-0.11139756
243	0x3dca2a1a	0.098713115
244	0x3e46ce84	0.19414717
245	0xbd02d716	-0.031943403
246	0x3e35e580	0.17763329
247	0x3dad89a0	0.084735155
248	0x3e94882f	0.2901015
249	0x3e069c51	0.13145567
250	0x3e3aa5bd	0.18227287
251	0x3d982695	0.07429234
252	0x3e7779f8	0.24167621
253	0xbd13fafa	-0.03612802
254	0xbdd0463b	-0.101696454
255	0xbe25e6cc	-0.16201323

encoder.model.weight_hh_l1 f4 [120, 30]
0	0x3c9dd19f	0.019264994
1	0x3d613e59	0.0549911
2	0x3df3171b	0.118696414
3	0x3e421a09	0.18955244
4	0xbdf42b15	-0.1192228
5	0xbdec8110	-0.11548054
6	0xbca323c6	-0.019914519
7	0xbc040e04	-0.008059982
8	0x3e0202c5	0.12696369
9	0xbd88feb0	-0.06689203
10	0xbd6ef2f3	-0.058337163
11	0xbdadb3dd	-0.08481572
12	0xbd5184cd	-0.05115204
13	0xbe48cbd7	-0.19609009
14	0xbe056ba3	-0.13029341
15	0x3e23df3f	0.1600313
16	0x3d2ea914	0.042641714
17	0x3d5f7850	0.0545581
18	0x3d396892	0.04526574
19	0x3e1edd53	0.15514116
20	0x3d916c32	0.07100715
21	0xbe2a7ebc	-0.16649908
22	0xbd31b8b0	-0.043389022
23	0xbe79ee2e	-0.24407265
24	0x3e7fdc7a	0.24986449
25	0x3d45482b	0.048164528
26	0xbdefa625	-0.117016114
27	0x3d991e03	0.074764274
28	0x3e1a1fa1	0.15051128
29	0x3d53fcdd	0.05175482
30	0xbe1505c4	-0.1455298
31	0x3ddc3eb7	0.107541494
32	0xbdb32e6b	-0.08749088
33	0x3e21abf8	0.15788257
34	0xbd1ecec0	-0.03877139
35	0x3df971cf	0.121799104
36	0xbd9792f4	-0.07401076
37	0x3e19fbad	0.15037413
38	0x3d8a9fbb	0.067687474
39	0x3de2a9d4	0.110675484
40	0xbd6d292c	-0.057900593
41	0xbdf245f9	-0.118297525
42	0x3e01f6fc	0.12691873
43	0x3d855e4e	0.06512128
44	0xbe181493	-0.14851598
45	0x3e31de7e	0.1737003
46	0xbd9e21e5	-0.077213086
47	0xbe093d29	-0.13402237
48	0xbdd74d14	-0.10512748
49	0xbdd37bb4	-0.10326329
50	0xbd6c2cf2	-0.05766005
51	0xbe4b2ecf	-0.19842075
52	0x3d1fa4c3	0.03897549
53	0xbe61686e	-0.22012493
54	0x3e11520f	0.14191459
55	0xbe32e855	-0.1747144
56	0xbda6425a	-0.08118124
57	0xbdfaf706	-0.12254147
58	0xbd9a3401	-0.0752945
59	0x3dc685fd	0.09693525
60	0xbe085220	-0.13312578
61	0x3de3c6ec	0.11121926
62	0x3ccabf0b	0.0247493
63	0x3de2bb6f	0.11070906
64	0x3d0843da	0.033267833
65	0xbd855765	-0.0651081
66	0xbdeac075	-0.114624895
67	0xbc3f5cfa	-0.011679882
68	0xbde3d44a	-0.11124475
69	0xbe52bfe6	-0.20581016
70	0xbdde927c	-0.108677834
71	0x3de06b77	0.10957997
72	0x3e3683e8	0.17823756
73	0xbe62490a	-0.22098175
74	0x3da808c7	0.08204799
75	0xbe10cfc9	-0.14141764
76	0xbd1a5201	-0.03767586
77	0xbe08a853	-0.1334546
78	0xbd3e1607	-0.046407726
79	0xbd736a58	-0.05942759
80	0xbdd0bd4a	-0.10192354
81	0x3dcd9afd	0.10039327
82	0x3d980397	0.0742256
83	0x3d99b340	0.07504892
84	0x3e193bfd	0.1496429
85	0xbda14255	-0.0787398
86	0xbda23823	-0.079208635
87	0xbe146be5	-0.14494283
88	0xbd7985ef	-0.060918745
89	0x3db4cf3a	0.08828588
90	0xbe0d90e6	-0.13824806
91	0x3e377507	0.17915736
92	0xbde70a1f	-0.11281227
93	0x3ccc463f	0.02493584
94	0x3d809237	0.06277888
95	0x3b8f00ea	0.0043641226
96	0xbddca87c	-0.10774323
97	0x3df2bc6a	0.118523434
98	0x3dcc1274	0.09964457
99	0xbdefdb17	-0.1171171
100	0x3d74930d	0.05971055
101	0xbd235ae3	-0.0398816
102	0xbb442b9e	-0.0029933224
103	0x3b278f2f	0.0025567522
104	0x3d2b744e	0.041858964
105	0x3e71bbbd	0.23606773
106	0x3e0f2f20	0.1398282
107	0xbd179c62	-0.037014373
108	0xbcd440c9	-0.025909798
109	0xbe0be078	-0.13659847
110	0xbd35fbab	-0.044429462
111	0xbe49f600	-0.19722748
112	0xbcef897b	-0.02924036
113	0xbd1a4f5a	-0.03767333
114	0xbc1ed2a6	-0.009693777
115	0xbd09ab8c	-0.033610865
116	0xbaa2ad69	-0.0012411299
117	0xbe2ca183	-0.16858487
118	0x3e0b5414	0.13606292
119	0xbe3912bf	-0.18073557
120	0xbd367bbd	-0.0445516
121	0x3d9ae5ea	0.07563384
122	0x3bba9344	0.005693825
123	0x3db81362	0.08988072
124	0xbdc58663	-0.09644773
125	0xbdc3b0ea	-0.09555228
126	0x3e68d5c0	0.22737789
127	0x3dd964c1	0.106149204
128	0x3dc737a9	0.09727413
129	0xbdd1a24a	-0.10236032
130	0xbd9dc0fe	-0.07702826
131	0x3db14103	0.08654978
132	0x3d7f9fd8	0.0624083
133	0x3df0bcb6	0.11754744
134	0x3d979b57	0.074026756
135	0xbdfdfe7b	-0.12402054
136	0xbe2793e1	-0.16365005
137	0xbd9525fd	-0.07282636
138	0xbd3670e0	-0.04454124
139	0xbda45afc	-0.080251664
140	0x3d4944b5	0.04913779
141	0xbe4933e1	-0.19648696
142	0xbb67bff0	-0.0035362206
143	0xbdb5699f	-0.08858036
144	0x3e4a6d09	0.19768156
145	0x3dd86668	0.105664074
146	0xbde6c1a6	-0.11267404
147	0xbc8d714e	-0.017265942
148	0x3d70d20c	0.058794066
149	0xbe1d211a	-0.15344658
150	0xbe6ce4c9	-0.2313415
151	0x3dafdb31	0.08586729
152	0xbd232f30	-0.039839923
153	0xbdb17ec8	-0.0866676
154	0x3d19bb4e	0.037532143
155	0x3dc470ec	0.09591851
156	0x3e72cc65	0.23710783
157	0x3e06d680	0.13167763
158	0xbd9d23cc	-0.07672843
159	0x3df71c20	0.12065911
160	0x3dda5217	0.10660189
161	0x3e75fac5	0.24021442
162	0x3d46a72f	0.048499282
163	0xbd3fd587	-0.046834495
164	0xbd3b730c	-0.045764014
165	0x3e28c2aa	0.16480508
166	0xbe21c398	-0.1579727
167	0xbdeeb0c3	-0.11654808
168	0x3de9ae09	0.11410148
169	0xbd2fe261	-0.0429405
170	0xbc512960	-0.012766212
171	0xbe4045fa	-0.18776694
172	0xbdaa33ef	-0.08310687
173	0xbe5d5292	-0.2161353
174	0x3e5a8ff8	0.21343982
175	0xbe29c701	-0.1657982
176	0xbdcfd359	-0.10147733
177	0x3dc49a09	0.095996924
178	0x3e2b323a	0.16718379
179	0xbdf83c18	-0.12120837
180	0x3d37455d	0.044743884
181	0x3df06276	0.1173753
182	0xbe0ae5df	-0.13564251
183	0xbbb97f46	-0.005660924
184	0xbd7e802b	-0.06213395
185	0xbe280510	-0.16408181
186	0x3c67ebde	0.014155356
187	0x3d9b0601	0.075695045
188	0xbe102c63	-0.14079432
189	0xbe19fe4f	-0.15038417
190	0xbe7b2e7b	-0.2452945
191	0xbc3b9a80	-0.01145041
192	0xbde874c8	-0.11350399
193	0xbe339fd6	-0.17541441
194	0x3da17338	0.07883304
195	0x3e76a4f5	0.24086364
196	0x3dfa75d9	0.12229509
197	0x3dd0bda9	0.10192425
198	0x3df564ed	0.11982141
199	0x3cace0fb	0.021103373
200	0xbd682633	-0.056677055
201	0xbe54e7e0	-0.20791578
202	0xbda76f86	-0.08175568
203	0xbdebf1c3	-0.11520722
204	0x3dd33604	0.10313037
205	0xbcf48c81	-0.029852154
206	0xbe53354e	-0.20625803
207	0xbd12bc76	-0.03582426
208	0x3e6a3a05	0.22873695
209	0xbc6627e0	-0.014047593
210	0x3c63b83f	0.013898908
211	0x3c0043cd	0.007828665
212	0xbdc96d3f	-0.0983529
213	0xbd831d35	-0.06402055
214	0x3d189e67	0.03726044
215	0xbdc6847a	-0.09693237
216	0x3db54d85	0.08852676
217	0xbdcb4dfe	-0.09926985
218	0x3db04b4b	0.08608111
219	0xbce35ab2	-0.027753208
220	0xbca710bc	-0.020393722
221	0x3c37dff1	0.011222825
222	0xbdbac75c	-0.09120056
223	0x3d96e4e8	0.07367879
224	0x3c4c195f	0.012457221
225	0x3e315218	0.17316473
226	0xbd8527f4	-0.06501761
227	0xbe205abf	-0.15659617
228	0x3e42eb77	0.19035135
229	0xbcfe0758	-0.031009361
230	0x3c796e93	0.015224117
231	0xbe3da800	-0.18521118
232	0xbda89045	-0.08230642
233	0x3df1d966	0.118090436
234	0x3e217a61	0.1576934
235	0x3df4e82f	0.11958348
236	0x3dc0b513	0.09409537
237	0x3c956f2d	0.01824149
238	0x3d6dc3c4	0.058048025
239	0xbe3f3c5a	-0.18675366
240	0xbc286739	-0.010278516
241	0x3e68507f	0.22686957
242	0xbe6b57dd	-0.22982736
243	0x3e6b7001	0.22991945
244	0xbda88f9b	-0.082305156
245	0xbe1d3124	-0.15350777
246	0x3e1c2188	0.15247166
247	0x3e1a9d87	0.15099154
248	0xbd3328f2	-0.04374022
249	0x3db3bd54	0.08776346
250	0x3cf4ab0b	0.029866716
251	0xbbf0c920	-0.0073481947
252	0x3d4c03e1	0.049808387
253	0xbd8e971d	-0.06962416
254	0xbd9f7976	-0.07786839
255	0x3e0fa608	0.1402818

encoder.model.bias_ih_l1 f4 [120]
0	0xbd9a33ca	-0.07529409
1	0x3debfb87	0.115225844
2	0x3e29a4e3	0.16566806
3	0x3e21d2b0	0.15803027
4	0xbc89031e	-0.01672512
5	0xbd197f32	-0.03747482
6	0x3e40382f	0.18771432
7	0xbdb393b1	-0.08768404
8	0x3e262b5e	0.16227481
9	0xbd548b2b	-0.051890533
10	0x3a06e8be	0.00051463756
11	0xbbc1bb0a	-0.0059121894
12	0x3df5ca6f	0.12001502
13	0xbe1908c4	-0.1494475
14	0xbdce58f4	-0.1007556
15	0xbe13ed99	-0.14446105
16	0x3da0bd62	0.07848622
17	0xbd8e2e9b	-0.06942483
18	0x3e3ce478	0.18446529
19	0x3e27828e	0.16358396
20	0xbe2245ae	-0.15846893
21	0x3e1f8bc6	0.15580663
22	0x3e11b653	0.14229707
23	0x3db5773b	0.08860632
24	0x3d50433b	0.050845366
25	0xbdb26af3	-0.08711805
26	0xbb222005	-0.0024738323
27	0xbe10b827	-0.14132749
28	0x3e33e6b6	0.17568478
29	0x3c8c0276	0.017091017
30	0x3e41f3bf	0.18940638
31	0xbc4596ac	-0.012059849
32	0x3c0076b7	0.007840804
33	0x3e23156b	0.15926139
34	0x3e4174fe	0.18892285
35	0x3e037b01	0.12839891
36	0x3e3b42a2	0.18287137
37	0x3c4eacb8	0.012614422
38	0xbe267f39	-0.16259469
39	0x3c953e17	0.018218083
40	0x3cb59eb8	0.02217041
41	0x3c87524c	0.016518734
42	0xbd548c5a	-0.051891662
43	0xbdb21221	-0.08694864
44	0xbdcdd3c9	-0.100501604
45	0x3e041b9c	0.12901157
46	0x3dbad1de	0.0912206
47	0x3e1ea5dd	0.1549296
48	0x3e3c20b9	0.18371858
49	0xbe2a02b4	-0.16602594
50	0xbdc1c2ff	-0.09461021
51	0x3e284a56	0.16434607
52	0x3dfd13c6	0.12357287
53	0x3dfa073c	0.12208411
54	0x3d65a169	0.056062136
55	0x3e0cc499	0.13746871
56	0x3bc04c90	0.005868502
57	0xbd19c551	-0.03754169
58	0x3e6cf290	0.23139405
59	0xbcf78163	-0.030213064
60	0xbe5eff0f	-0.21776985
61	0x3df8ea92	0.12154116
62	0x3db017eb	0.08598312
63	0x3e2abe6d	0.16674204
64	0xbe27df77	-0.16393839
65	0xbe4001bf	-0.18750666
66	0xbcce2495	-0.025163928
67	0xbd3b1e91	-0.045683447
68	0xbdf179fe	-0.11790846
69	0xbd856942	-0.06514217
70	0x3dd96b23	0.10616138
71	0x3d6bb6d3	0.0575474
72	0x3e574e1e	0.21025893
73	0xbdf3e454	-0.119087845
74	0x3d76e02a	0.060272373
75	0x3e357da1	0.17723705
76	0xbd259b67	-0.040431406
77	0xbdd03e8e	-0.10168181
78	0x3e046e43	0.12932687
79	0x3d35588f	0.04427391
80	0xbe159500	-0.1460762
81	0xbe11fe06	-0.14257059
82	0x3ddfab4b	0.109213434
83	0xbe4c2454	-0.19935733
84	0x3d72bedf	0.05926406
85	0x3e19e797	0.15029751
86	0xbdbf499f	-0.09340214
87	0xbd350d81	-0.04420233
88	0x3c4fee74	0.012691129
89	0xbdfc38f6	-0.12315552
90	0xbd317cf2	-0.043332048
91	0xb886a0f3	-6.419597e-05
92	0xbdf30e68	-0.11867982
93	0xbd86744c	-0.065651506
94	0x3d0f731f	0.035021897
95	0xbd927483	-0.07151129
96	0x3b91d31b	0.0044502146
97	0x3d810cfb	0.06301304
98	0x3c920faa	0.017829735
99	0x3e36199d	0.17783208
100	0xbbb87d2a	-0.005630155
101	0x3e48a795	0.19595177
102	0xbe024633	-0.12722091
103	0x3d74da7a	0.059778668
104	0x3dc664e9	0.09687216
105	0x3e68d613	0.22737913
106	0x3d4a99fb	0.049463253
107	0xbd700980	-0.05860281
108	0x3e76e145	0.24109371
109	0x3da53a0e	0.08067714
110	0xbd72d441	-0.059284452
111	0x3d6a1a5d	0.05715405
112	0xbdd77bd6	-0.10521667
113	0x3da5fcdd	0.081048705
114	0xbd31f651	-0.043447796
115	0xbde95623	-0.113933824
116	0xbe0ded91	-0.13860156
117	0xbd98592e	-0.07438885
118	0x3dc8f117	0.09811609
119	0xbdb375a1	-0.0876267

encoder.model.bias_hh_l1 f4 [120]
0	0x3df6c894	0.12049976
1	0xbdc39df6	-0.09551613
2	0x3e1ff295	0.15619881
3	0x3e12fbfc	0.14353937
4	0x3dcec6c0	0.10096502
5	0x3e408e5c	0.18804306
6	0x3e242c6b	0.16032569
7	0xbdf9ec43	-0.122032665
8	0x3d09445c	0.03351246
9	0xbd99ac10	-0.075035214
10	0x3d74ceb9	0.05976746
11	0xbd9b2292	-0.07574953
12	0x3cce26b0	0.025164932
13	0x3e27fbab	0.16404597
14	0x3e726893	0.23672704
15	0xbdb0a7f9	-0.08625788
16	0x3e4ac451	0.19801451
17	0x3da576d7	0.080793075
18	0x3e73939d	0.23786779
19	0xbd1e5691	-0.038656775
20	0xbd9404d5	-0.07227484
21	0x3e571293	0.21003179
22	0x3c8760b7	0.01652561
23	0xbdaf83f5	-0.08570091
24	0x3d42b23f	0.04753327
25	0xbc83b54f	-0.016077666
26	0x3df0bc6e	0.1175469
27	0xbc99c87f	-0.018772362
28	0x3db0cfa5	0.08633355
29	0x3d683027	0.056686547
30	0x3e1b2dfe	0.15154263
31	0x3d9556f3	0.07291975
32	0x3d6e095c	0.058114395
33	0x3db4ac5b	0.08821937
34	0x3dceeb10	0.10103428
35	0x3e5ca9b8	0.21549118
36	0xbd748081	-0.059692863
37	0xbc64fe0f	-0.013976588
38	0xbe0fbe3f	-0.14037417
39	0x3dfabce0	0.12243056
40	0x3e057056	0.13031134
41	0xbbe0f81e	-0.0068655154
42	0x3cf8ca7e	0.030369993
43	0xbde523d2	-0.11188473
44	0x3df81d49	0.12114961
45	0x3d48f445	0.04906108
46	0x3df32439	0.11872143
47	0xbd67932d	-0.056536842
48	0x3e4954a7	0.19661199
49	0x3e0359ca	0.1282722
50	0x3e355209	0.17707075
51	0x3bec3f87	0.0072097215
52	0xbdfd9b79	-0.1238317
53	0x3d3f0dc7	0.046644
54	0x3e4c50bf	0.19952677
55	0x3db123ff	0.08649444
56	0x3df602b3	0.120122336
57	0xbd77914e	-0.060441308
58	0xbdbf9907	-0.093553595
59	0xbe327cdd	-0.17430444
60	0xbd686501	-0.05673695
61	0xbdaea921	-0.085283525
62	0xbe511823	-0.20419364
63	0x3dda668a	0.10664089
64	0xbd9aa86d	-0.07551656
65	0xbd90ae8c	-0.07064542
66	0xbd6624a1	-0.056187276
67	0x3e005310	0.12531686
68	0x3d15ce80	0.036573887
69	0xbd490406	-0.049076103
70	0xbdfae036	-0.12249796
71	0x3e0f7a8f	0.14011596
72	0x3d61eed1	0.055159394
73	0xbe094d6b	-0.13408439
74	0x3db75dc9	0.08953435
75	0x3a972c6f	0.0011533628
76	0xbcf29160	-0.029610336
77	0xbe1d2d88	-0.153494
78	0x3dcd8752	0.10035576
79	0xbc84c2a3	-0.016206091
80	0xbd5890ca	-0.052872457
81	0xbdd46d5d	-0.10372422
82	0x3dcbd893	0.09953418
83	0xbde9654b	-0.11396273
84	0x3e149fc2	0.14514068
85	0xbdae3581	-0.08506299
86	0xbe3473c9	-0.17622294
87	0xbdb43acc	-0.08800277
88	0x3e2e508e	0.17022917
89	0xbc859913	-0.016308343
90	0xbd73ef1e	-0.05955421
91	0x3d880ef8	0.0664348
92	0x3d4f0fdf	0.050552245
93	0x3e51d647	0.20491897
94	0x3e51b20d	0.20478077
95	0xbd50f673	-0.051016282
96	0x3b1d3339	0.002398683
97	0x3e6a7418	0.22895849
98	0x3e56dba9	0.20982231
99	0x3e17db08	0.14829648
100	0xbd014fc5	-0.031570215
101	0x3d80a66c	0.062817425
102	0xbe1d0078	-0.1533221
103	0xbe01785a	-0.12643567
104	0xbc1b43cb	-0.009476612
105	0x3dd94696	0.10609166
106	0x3e316223	0.17322592
107	0xbd97ca70	-0.07411659
108	0x3e2e7f22	0.17040685
109	0xbb6e0968	-0.0036321525
110	0xbd620516	-0.05518063
111	0x3ddf5cd7	0.1090638
112	0x3dfc14bd	0.12308643
113	0x3e13367c	0.14376253
114	0x3dda7216	0.106662914
115	0xbd9b3a9b	-0.075795375
116	0xbe0be03c	-0.13659757
117	0x3d02e73d	0.031958807
118	0x3ded838c	0.11597356
119	0x3e4f6716	0.20254168

variational_latent.hidden_to_mu.weight f4 [15, 30]
0	0xbe0f9c80	-0.14024544
1	0xbc84ea80	-0.0162251
2	0x3e840035	0.25781408
3	0xbca670b4	-0.020317413
4	0x3eab95c3	0.33512697
5	0x3b8ede4a	0.004359995
6	0xbe8a17d9	-0.2697132
7	0xbe34f68b	-0.17672174
8	0xbdaca5ed	-0.08430085
9	0xbe697ead	-0.22802229
10	0x3df3d662	0.11906125
11	0xbe90cbb7	-0.28280422
12	0x3d9acc39	0.07558484
13	0x3e215409	0.15754713
14	0x3d68e3af	0.05685776
15	0x3eaf7033	0.3426529
16	0x3e783230	0.24237895
17	0xbe90db5c	-0.28292358
18	0x3de76612	0.11298765
19	0x3d0d98d9	0.034569595
20	0xbb79af50	-0.003809888
21	0x3e34de2e	0.1766288
22	0x3cac2950	0.021015793
23	0x3e1a8e00	0.15093231
24	0xbe44612c	-0.19177693
25	0x3eca5a1f	0.39521882
26	0xbea18cbf	-0.31552693
27	0xbeb2bff8	-0.34912086
28	0xbe99d367	-0.300441
29	0x3d828f2d	0.06374965
30	0xbd708561	-0.05872095
31	0xbe2aac4c	-0.16667289
32	0xbe97c53a	-0.2964266
33	0xbe9b445d	-0.30325595
34	0x3e3d245f	0.18470906
35	0x3dd7beb0	0.10534418
36	0xbe884aff	-0.26619717
37	0x3dbf52ca	0.09341963
38	0x3de42b44	0.11141065
39	0x3de516e9	0.111860104
40	0xbceee095	-0.029159823
41	0xbe888026	-0.2666027
42	0x3e8f2753	0.2795969
43	0xbea63c67	-0.32467958
44	0x3e554479	0.20826901
45	0x3d6af86a	0.057365812
46	0x3dcc8625	0.099865235
47	0x3e8cdeee	0.27513832
48	0xbea5e775	-0.3240315
49	0xbe6560e2	-0.22400239
50	0xbe9fcf02	-0.31212622
51	0x3e5dd973	0.21664982
52	0x3b169c39	0.00229813
53	0x3ddc7ec2	0.10766365
54	0x3d20f422	0.039295323
55	0xbe9b03b6	-0.3027627
56	0xbea1f22b	-0.31630072
57	0x3dd36a5a	0.10323019
58	0xbe1ecd1b	-0.15507929
59	0xbc8ecae5	-0.017430732
60	0xbd423d7a	-0.04742191
61	0x3d8e03d5	0.06934325
62	0x3d7b5658	0.06136164
63	0x3a9aeb2d	0.0011819355
64	0x3e9a6546	0.3015539
65	0xbc4df055	-0.012569507
66	0xbd994fbc	-0.07485911
67	0xbe5ea8ab	-0.21744029
68	0x3e963b72	0.29342228
69	0xbe206024	-0.15661675
70	0xbde2b4e4	-0.110696584
71	0x3e392ff4	0.18084699
72	0xbd400a3e	-0.046884768
73	0x3e89b4a7	0.2689564
74	0xbc9d8149	-0.019226687
75	0x3dda0e21	0.10647226
76	0xbe856d25	-0.26059833
77	0xbe9baea5	-0.3040668
78	0xbe219c94	-0.15782386
79	0x3d000d46	0.03126266
80	0xbdcbf31f	-0.09958481
81	0x3deca648	0.11555153
82	0xbe8202b9	-0.25392702
83	0x3df43e1f	0.11925911
84	0x3e754281	0.2395115
85	0xbd94a313	-0.072576664
86	0xbe2b68d5	-0.16739209
87	0xbea0a988	-0.31379342
88	0x3dfd57ef	0.123702876
89	0xbdb6c430	-0.089241385
90	0xbea09bec	-0.3136896
91	0x3e1edd4a	0.15514103
92	0x3eaf1c88	0.34201455
93	0x3e78c5be	0.24294183
94	0x3e86c479	0.26321772
95	0x3ea9baee	0.3315043
96	0x3c7d91d3	0.015476662
97	0x3ea380a3	0.3193408
98	0xbe31e5f7	-0.17372881
99	0xbe9ee9ec	-0.31037843
100	0xbe12f169	-0.14349903
101	0x3dd379aa	0.1032594
102	0xbeaf61c1	-0.34254268
103	0xbe5b9095	-0.21441872
104	0x3dec2b9f	0.115317576
105	0xbd06b6e8	-0.032889277
106	0x3e2a4adb	0.16630118
107	0x3e93631d	0.28786555
108	0x3e5c5707	0.21517573
109	0xbce5fb6a	-0.028073985
110	0x3ddd9bbf	0.10820722
111	0x3e8924ca	0.2678588
112	0xbbd3c944	-0.0064632017
113	0xbe92efd7	-0.28698608
114	0xbde2b899	-0.110703655
115	0xbe9ad132	-0.30237728
116	0x3e8041b7	0.25050136
117	0xbe053d2d	-0.13011618
118	0x3e82849d	0.254918
119	0x3e570a53	0.21000032
120	0xbd32e2f6	-0.043673478
121	0xbe128082	-0.14306834
122	0x3d79427b	0.060854416
123	0xbe133e64	-0.14379269
124	0xba1c31f2	-0.000595837
125	0x3e26c146	0.16284665
126	0xbd7cabc5	-0.06168725
127	0x3e4acda3	0.19805007
128	0xbc1d3c54	-0.009596903
129	0xbe975bb0	-0.2956214
130	0x3e84c072	0.25928074
131	0x3ea8992f	0.3292937
132	0x3e8934c0	0.26798058
133	0x3e278d63	0.16362529
134	0xbe87c7d6	-0.2651965
135	0x3cb12fa3	0.02162916
136	0xbdb1bf2c	-0.08679041
137	0xbe515bb7	-0.20445143
138	0x3e1df6d7	0.15426193
139	0x3df958e2	0.12175156
140	0xbe7ac548	-0.2448932
141	0xbe1aa26a	-0.15101019
142	0x3ea1bf79	0.31591395
143	0x3e087473	0.13325672
144	0xbe14c486	-0.14528093
145	0xbe8e64b9	-0.2781122
146	0xbe0eac5c	-0.13932937
147	0x3cdda024	0.0270539
148	0xbe6bd169	-0.23029102
149	0xbd884434	-0.06653634
150	0xbd5d4018	-0.054016203
151	0x3e811cb4	0.2521721
152	0x3eb94752	0.36187226
153	0xbe4fd3cf	-0.20295642
154	0xbd02c4ed	-0.031926084
155	0xbe5ea0e2	-0.2174106
156	0xbdad607d	-0.08465669
157	0x3e9a81c7	0.30177137
158	0x3e4fb969	0.20285572
159	0xbe733d1c	-0.2375378
160	0x3e96109c	0.29309547
161	0xbe829909	-0.25507382
162	0xbce1981f	-0.027538357
163	0xbe51f07e	-0.20501897
164	0x3dd5309e	0.104096636
165	0x3e036e2f	0.12835
166	0xbe1a3ca0	-0.15062189
167	0x3d3ab031	0.045578185
168	0x3e61bcbd	0.22044654
169	0x3e7b16d3	0.24520425
170	0x3e7b15ac	0.24519986
171	0x3e1c005b	0.1523451
172	0x3e22c35d	0.15894838
173	0x3de64093	0.11242785
174	0x3ea51423	0.32241926
175	0xbe91823b	-0.2841967
176	0xbe4880d3	-0.19580393
177	0x3e74eec3	0.23919205
178	0x3e6792ce	0.22614595
179	0x3de6889f	0.11256527
180	0xbd93ee5f	-0.072232
181	0xbda1c4e2	-0.078988805
182	0x3e69505a	0.22784558
183	0x3dab3216	0.083591625
184	0x3ea65076	0.32483262
185	0x3daa0690	0.08302033
186	0xbdb99a16	-0.09062593
187	0xbe57e869	-0.21084751
188	0xbea882c3	-0.32912263
189	0x3eb5d1c7	0.3551161
190	0xbbe405fd	-0.0069587217
191	0x3ca49856	0.02009217
192	0x3edaf716	0.42766637
193	0x3dfd3b33	0.12364807
194	0x3e8aebfc	0.27133167
195	0xbdb6ced6	-0.089261696
196	0xbe993c76	-0.2992894
197	0xbeb16717	-0.34648964
198	0xbd94bf07	-0.07262998
199	0x3e624cda	0.22099629
200	0xbe1ad78c	-0.15121287
201	0x3dfa4360	0.12219882
202	0x3e0674f4	0.13130552
203	0xbd334be9	-0.043773565
204	0x3e97ab51	0.29622892
205	0x3e2497bb	0.16073506
206	0xbd877546	-0.06614165
207	0xbeb85b3e	-0.36007112
208	0xbdcaa6c8	-0.09895092
209	0xbd746f0c	-0.059676215
210	0x3eb35c2a	0.35031253
211	0xbe8632ec	-0.26210725
212	0xbe127edb	-0.14306204
213	0x3cec989f	0.02888137
214	0xbe5cb504	-0.21553427
215	0x3e0869bc	0.13321584
216	0xbeadf105	-0.33972946
217	0x3e974294	0.29542983
218	0x3cef11be	0.029183265
219	0x3ddcae5f	0.10775446
220	0xbeac1ff4	-0.33618128
221	0xbd3316db	-0.04372297
222	0xbe8e4750	-0.27788782
223	0x3dcb83cb	0.09937247
224	0x3cae11ec	0.02124878
225	0x3dc88792	0.09791483
226	0x3e1b669d	0.15175863
227	0x3e687cc5	0.22703846
228	0xbea26357	-0.31716415
229	0xbd87f893	-0.06639209
230	0xbc821304	-0.015878208
231	0xbea01a95	-0.3127028
232	0x3dd02abd	0.10164402
233	0xbe578a6e	-0.210489
234	0xbe01a69c	-0.12661213
235	0xbd95331b	-0.07285138
236	0xbea4f686	-0.32219332
237	0xbc570649	-0.013124057
238	0x3e5e0aea	0.21683851
239	0x3d971240	0.07376528
240	0xbd70bf0e	-0.058775954
241	0x3c0d0b90	0.008608714
242	0x3bb9eabc	0.0056737345
243	0x3c84ea08	0.016224876
244	0x3dca927b	0.0989122
245	0xbe233295	-0.15937264
246	0x3e83f8bd	0.2577571
247	0xbe85a87d	-0.2610511
248	0xbe3220a0	-0.17395258
249	0xbe9fcddd	-0.3121175
250	0x3e21420a	0.15747848
251	0xbdd6395a	-0.10460158
252	0x3e0626d9	0.13100757
253	0xbe80d443	-0.25161943
254	0x3e20dc0f	0.15708946
255	0xbe4fb502	-0.20283893

variational_latent.hidden_to_mu.bias f4 [15]
0	0xbddcaf58	-0.10775632
1	0xbde9ff48	-0.11425644
2	0xbdad455c	-0.08460495
3	0xbe1a72e8	-0.15082896
4	0xbda834a8	-0.082131684
5	0xbe11a597	-0.14223324
6	0x3dd1cb12	0.10243811
7	0x3cf4de87	0.029891266
8	0x3df9dd59	0.12200422
9	0xbcae7272	-0.021294806
10	0xbd94f768	-0.072737515
11	0x3e262c23	0.16227774
12	0x3e22902c	0.1587531
13	0xbdd65a1f	-0.10466408
14	0x3dc14592	0.094370976
