models/20200923_173706/epoch_0000_loss_1014622.32617.pt (torch, 232209 bytes, 96 tensors)

encoder.model.weight_ih_l0 f4 [120, 3]
00000000: 79b8 a3bd 99de febd fc14 f03d 5f23 b6bd
00000010: 6576 f23d da1d c2bd 2e59 383e 1cf3 dabc
00000020: 4485 7d3d 9bf5 9bbc aa77 ec3d b0c6 98bd
00000030: 70f6 733b 65f4 823d ab98 353e df1d 22be
00000040: dd10 8fbd fd66 3dbe d2c5 3ebd 2924 d0bd
00000050: 9041 b63c 60a6 e23d 1284 003e 8ee5 ddbd
00000060: e834 a03d 68a1 acbd 1df3 033e 7268 0abd
00000070: 7eb9 edbd 1f56 c8bd d26f 31be 177d 01be
00000080: 106e 873d 97db 04be 0e09 1d3e db39 173e
00000090: 9a26 adbd 4016 ac3c 40db b1bd 249b 34be
000000a0: 6ef1 143e 9419 283e 4d28 413c de8f ba3a
000000b0: b1b4 083d 8100 f1bd ec48 1fbd 43d8 26be
000000c0: 823f c2bd 9d59 083d 1299 393e 30f1 2cbe
000000d0: 6c37 103e 7be0 43bb faf3 0bbd 7cfd 21be
000000e0: d4b8 2f3e a686 1abe 83e0 583d 5d95 213e
000000f0: eff1 ef3d 4a7d 35be ff59 3ebd 5f34 c5bd
00000100: 9d4b 033d 6e54 9fbc 269f a8bd c04e 263e
00000110: dca8 adbd cce7 16be 0b6d 35bd 11d1 b23d
00000120: 7a01 d43d 4644 8d3c 67a5 b43d a03b 7f3d
00000130: 627b 32be 5c72 b1bd c7c6 5b3d 0d19 543c
00000140: 6bad 853c 65e1 d5bd 5e84 bdbd 45db c43d
00000150: 4c9e 743d 63bf 413d f89e bcbd 3d3d 11be
00000160: d41c c7bd 222b dd3d 7f0c 9dbd 7954 bcbd
00000170: 930e 133e 6b6d 04be 66cb 16bd f9ab 163e
00000180: 12a3 24bc 603e adbd 7287 503d 9e07 ed3c
00000190: 0cb9 ae3d 2f90 033d 4ba2 ed3d fe6d c6bd
000001a0: 5e85 023e 1948 ddbd 7e08 983c d8f4 22be
000001b0: dcb2 063d d9a0 c7bd a00d 8d3c b0f7 183e
000001c0: ed51 81bd 2f33 45bd f43e a4bd 2594 2f3e
000001d0: 3f0c 0c3e c190 31be 0746 7cbd d7fb 1d3e
000001e0: ec8f 113e 1306 78bc 3342 b6bd 44b3 25be
000001f0: 2df7 16be ac2d 35bd 78d2 2abe 9152 b0bd
00000200: ef1e 96bc 6534 ed3d b57b bd3d eb28 1abe
00000210: 1888 bc3d 7248 223e 0f87 173d 80fd a53d
00000220: 2ddb e5bd f991 adbd e5f6 f6bd 70fe cdbd
00000230: 412f 60bc d951 4ebd b916 db3c 6615 b9bc
00000240: 8c8c 023e 3aa1 dfbc a66b 3abe b025 bc3a
00000250: 6250 58b9 27cf ecbd 10ea a13d 8ce8 19be
00000260: 6881 243e e8cf b63c 927a cb38 6181 043e
00000270: 05a1 153d bc19 0d3c 8af5 273e 349c 203e
00000280: 90bf 2bbe f965 cf3d 966d 243e 9816 93bc
00000290: fb4b fdbd 3c05 00bc 00a4 94bd 71b0 213e
000002a0: b664 e23d 0cbc c9bb 5d02 613d 845f a1bd
000002b0: 19f3 943c f2a7 0dbd 2745 76bd e30c b3bd
000002c0: 2bc6 d0bd b082 e53b 44f8 72bd e8bf a2bd
000002d0: 48b4 c83d 1ed1 1cbe 1627 243d 281c 80bc
000002e0: eeb9 2f3e c73c 913d 038c f73d 1ca1 e23d
000002f0: 3177 a23d 0127 84bd 4e27 f6bc 5bf4 cfbc
00000300: 1b9a 4d3d cf53 93ba 4414 133e 7bf7 0a3e
00000310: 374c 29be dd7b e43c b3c6 e0bd d0c4 20be
00000320: 8389 bfbd 5e95 213e 5b6b 24be d047 bcbd
00000330: 1c39 393e cfe9 323c 90f8 0f3e 8277 02bd
00000340: b0c7 503d 224c c53d c3d7 643d d069 c3bd
00000350: 300c 383c 5bc5 88bd 7e43 a6bd 0d02 f23d
00000360: cc6e 253e d766 14be 054d cebd 7e79 013e
00000370: d060 203d e1cd 813c 65cf fc3d 2a0f 1bbd
00000380: e81b 18be f95b a3bc 1c2c 0cbe 3e75 45bd
00000390: e09a fa3d a962 003e a79c 223e f69e 56bd
000003a0: 4d6b 053e 6d8c 3ebe de10 c33c 63dc 403e
000003b0: f260 913d 8217 36be 16ba d33c 8206 493d
000003c0: 144a 1c3e ead3 293e 7ba1 c13d e2e0 ca3d
000003d0: 8e0b a53d c601 39bd 343a e5bd 06bd b5bd
000003e0: 48a4 12be bdec 88bd 9a7b 1a3c 8258 28be
000003f0: daea 9abc 1d57 1b3e db95 2d3e bc8a 04be
-0.0799417 -0.12444801 0.117227525 -0.08893465 0.11838988 -0.0947835 0.1800277 -0.026727252
0.06189467 -0.019038012 0.115462616 -0.07459772 0.0037225746 0.06394271 0.1773402 -0.15831707
-0.06985638 -0.18496318 -0.046575375 -0.10163147 0.02224806 0.1106689 0.12550381 -0.108348
0.07822591 -0.08429223 0.12885709 -0.033791013 -0.116076455 -0.09782051 -0.17327812 -0.12645374
0.0661279 -0.12974392 0.15335485 0.14768164 -0.08454628 0.021006703 -0.08684397 -0.17637306
0.14545223 0.16416007 0.011789394 0.001423355 0.033375446 -0.11767674 -0.038887903 -0.16293435
-0.094847694 0.033288587 0.18124798 -0.1688888 0.14083642 -0.002988844 -0.03416822 -0.15819353
0.1716035 -0.15090427 0.052948486 0.15779634 0.11716067 -0.17723575 -0.046472546 -0.096291296
0.032054532 -0.019449439 -0.0823348 0.16240978 -0.08479473 -0.14736861 -0.044293445 0.087312825
0.10351844 0.01724447 0.088206105 0.062312722 -0.1742988 -0.086643904 0.053656366 0.012945426
0.016318044 -0.10443381 -0.09253763 0.09612135 0.059721276 0.04730166 -0.092100084 -0.14183517
-0.097222954 0.107992426 -0.07668399 -0.091957994 0.14361028 -0.12932365 -0.03681507 0.1471404
-0.010048645 -0.08459163 0.05091042 0.028934296 0.08531389 0.032119926 0.116032206 -0.09688948
0.12746188 -0.10804767 0.018558737 -0.15913713 0.032885417 -0.09747476 0.017218411 0.14938235
-0.06314454 -0.048144516 -0.0801982 0.17146356 0.13676547 -0.17340375 -0.06159022 0.154281
0.14215058 -0.015138167 -0.08899345 -0.16181666 -0.14742728 -0.04423301 -0.1668185 -0.08609498
-0.018325297 0.11582259 0.09252111 -0.15054671 0.09205645 0.15847948 0.036994036 0.08104992
-0.11223445 -0.08475108 -0.1205881 -0.10058296 -0.013683141 -0.050371025 0.026744233 -0.022593211
0.12748927 -0.027298559 -0.18205127 0.0014354493 -0.0002062931 -0.11562949 0.07905972 -0.15030116
0.1606499 0.022315934 9.702625e-05 0.12939979 0.036530513 0.008612093 0.1640226 0.15684587
-0.16772294 0.101268716 0.16057429 -0.01795511 -0.12368008 -0.007813748 -0.07257843 0.15789963
0.11054365 -0.00615645 0.054933894 -0.07879546 0.018182324 -0.034583993 -0.060124543 -0.08742692
-0.101940475 0.0070041046 -0.059318796 -0.079467595 0.09800011 -0.15314147 0.040076338 -0.015638426
0.1716077 0.070916705 0.12087252 0.110658854 0.0793289 -0.06452752 -0.030048039 -0.025385072
0.050195795 -0.0011240187 0.143632 0.13570969 -0.1653298 0.027891094 -0.10975399 -0.15700078
-0.093524 0.15779635 -0.16056578 -0.09193385 0.18088192 0.010920002 0.14059663 -0.031852253
0.050971687 0.09633662 0.05586983 -0.095416665 0.0112333745 -0.066782676 -0.08118342 0.118167974
0.16155547 -0.14492355 -0.10073284 0.12644002 0.039154828 0.015845241 0.12344245 -0.03785626
-0.14854395 -0.019941317 -0.13688701 -0.048207514 0.12236571 0.12537636 0.1588007 -0.05239769
0.13029213 -0.18608256 0.023811754 0.18834071 0.07098569 -0.17782405 0.025845569 0.049078472
0.15262634 0.16584745 0.09454628 0.09906174 0.080588445 -0.045167707 -0.11192742 -0.08873944
-0.14320481 -0.06685779 0.009428883 -0.16440013 -0.018910814 0.1516995 0.16951697 -0.12943548

encoder.model.weight_hh_l0 f4 [120, 30]
00000000: 1dc5 f03d d2eb ca3d 37db 19be 1a7a 24be
00000010: c2d3 ef3d 7280 dc3c 5b8c f9bc c597 233e
00000020: 88fe 823d 49e2 edbd b08f d3bc fe92 1bbe
00000030: 6148 333e 4be8 e53d ddbd efbc d17a 103d
00000040: 0e17 103d 7a38 cb3d 3006 c83c 614e 12be
00000050: 86c6 c43d 0bc2 343e 6b5a 303d fcd3 e1bd
00000060: 271c f03d 5c8d 07be 9452 8bbd 982c 263e
00000070: 54c4 08be e1d9 3d3c 3f09 f13d ebc0 8bbd
00000080: 9361 0c3e debf 833d 5bd3 95bd 0e5a 883d
00000090: 4e6b 4ebd 232c 493d df72 06bc 7058 08bc
000000a0: 54a1 173e 5ec6 123e cc1f d5bd 6a71 95bd
000000b0: f1c2 6dbd 7d65 0c3d 85ba fc3d 8fb6 193e
000000c0: 40e4 613c c5b7 19be 135d 163e de83 0d3e
000000d0: a95b 7e3d d715 22be 6c30 073e 056c 0cbe
000000e0: 3af2 023e 781a 3abe ce54 7b3a 1dba 22be
000000f0: 4d60 d1bd 68fc 2bbd 41c2 f0bd 77f9 eebd
00000100: 55fb e2bc e845 14be 4916 10be d97f 313e
00000110: 3ac3 e7bd 6d4a 273b bf09 ecbd d5b8 f53d
00000120: fee6 3cbe 2139 19be 3ba9 293e 641b ccbd
00000130: f1a7 693d 5db9 ccbb ba6e c13d 89cb c73d
00000140: 4904 ea3d d1f2 263d 6a70 293e 6781 363d
00000150: 8295 e33d 7948 faba c175 81bc 3f8d 36bd
00000160: 9be6 003e e998 843d 7e6a 1b3e 2445 afbd
00000170: cec5 31be e027 423e 19e3 323e 059f 99bd
00000180: de4f 1ebe e344 aebd d1af a83c 808b b73d
00000190: 7788 763d 3682 263e e6f3 0cbe 84e4 bcbd
000001a0: d3b0 3d3d 7897 293e 9f41 bdbc 55b0 043e
000001b0: 8ca7 c63d ebe2 283e 3561 dfbd 507a 2cbe
000001c0: a3c8 8b3c 258c 51bd 7706 cb3d 22c3 a53d
000001d0: 6db9 25be 6e89 68bc d111 213e 1847 51bc
000001e0: c862 c3bd 30ce 923d 9313 9c3d b1f9 1e3d
000001f0: 816d aabd f49c 1cbe 1251 af3d 7da7 1bbe
00000200: 249f 2f3d 910c 983c 4b43 39be 4514 323e
00000210: b9a9 29be 4427 b9bd b9ad 333e c851 4b3c
00000220: 5850 ca3c 3f38 c13d 8c25 9b3b e810 26be
00000230: 57fd f63d a7f2 2c3e 0b6a 173e df0d 893d
00000240: daa0 b03d 93ad 5dbd b911 ffbd 9615 4abd
00000250: 97e2 2a3e e528 c13d 4e96 2bbe 74b1 1dbe
00000260: 8f23 b9bd 816d 8dbd b27f 13bc 2b17 e03d
00000270: f818 8fbd 121f c4bd 26f9 17be 0120 f13d
00000280: 2ec0 dbbd e18f dabd 4dcf 003e cd94 13be
00000290: 61c0 4e3d 5e28 c5bd 5ac2 3fbd 157b 7e3d
000002a0: ecfe 91bd 4ae1 8e3d 729f aebb 9194 a6bd
000002b0: 37d3 36be 9e06 f83d 71a3 863d 6684 0f3e
000002c0: 67a4 103d 2ca8 413e 52ba 24bd 144f 293e
000002d0: 2190 143e 7940 27be 3bf3 c83c fcba 133d
000002e0: 03eb 2a3e c57d 7cbc 1061 2cbe 141a 32be
000002f0: e99c 75bd 855b 53bd caa4 083d 90d7 3a3d
00000300: 343f bbbd d458 adbd a47d bc3d 5ffe f6bd
00000310: 9433 3cbe 4aff 7b3d d8e1 1ebe 217c f2bd
00000320: 1926 fabd 334f 71bd aadc 95bd 2d3d 103e
00000330: f986 713b 487d b13d 4019 093e b162 81bc
00000340: 6e6d 2cbe 3cd7 26be a0c7 013e 0c56 e4bd
00000350: 60fc 3e3d a0cc b8bc e09f 19bd fd91 b63c
00000360: eef0 d13d 254b dc3d fcc0 593d 4d04 a33d
00000370: c765 6c3d 3140 abbb ec4d 283e b4b8 9ebc
00000380: f6fe 493c ea00 353e 45a8 d53d 04c8 d53d
00000390: b9bd 20be c657 1cbe 9460 fb3c cb1c a4bc
000003a0: a5a0 f2bd 57e4 9cba 4eb7 8bbd a0b4 093e
000003b0: e474 1cbe 3eed 93bd 8316 1a3e 9288 b63d
000003c0: 83a7 41bd 7bb7 7a3d 2956 9f3d 0147 b93d
000003d0: 08f2 903b 2e11 e5bd 7d17 0a3d ffcd 133e
000003e0: fe53 d93d 3c01 123e f83b 953d 3698 3c3d
000003f0: a0c5 b6bd 5619 12be cfab 183e 42c0 37be
0.117563464 0.099082604 -0.1502503 -0.16062203 0.117103115 0.026916716 -0.030462435 0.15975864
0.06396204 -0.11615426 -0.025825351 -0.15192792 0.17508079 0.11225947 -0.029265339 0.035273377
0.035178237 0.099228814 0.024417013 -0.14287712 0.09608178 0.17652147 0.04305498 -0.11026761
0.1172412 -0.13237518 -0.0680286 0.16227949 -0.13356143 0.011587591 0.11769342 -0.068239056
0.13709097 0.0643308 -0.073157035 0.066578016 -0.050395302 0.049114358 -0.008206098 -0.008321866
0.14807636 0.14333484 -0.104064554 -0.07297023 -0.05804724 0.034276474 0.12340263 0.15011047
0.013787329 -0.15011509 0.14683942 0.13819835 0.062099133 -0.15828644 0.13202065 -0.13713081
0.12787715 -0.1817416 0.0009587527 -0.15891309 -0.10223446 -0.04198876 -0.11755801 -0.116686754
-0.027707735 -0.14479792 -0.14071001 0.17333926 -0.113165334 0.002552654 -0.115252964 0.119981445
-0.18447492 -0.14963199 0.16568463 -0.09966162 0.057044927 -0.006247683 0.094449475 0.09755618
0.114265986 0.04075891 0.16546789 0.044557 0.11112501 -0.0019095085 -0.01580322 -0.044568297
0.12587969 0.06474478 0.15177342 -0.085581094 -0.17360613 0.18960524 0.17469443 -0.07501034
-0.15460154 -0.08509233 0.020591648 0.089621544 0.060188737 0.16260609 -0.13764915 -0.092232734
0.04631121 0.16561687 -0.02310258 0.1295789 0.09699926 0.16492812 -0.10907213 -0.16843534
0.017063444 -0.051159043 0.099133424 0.08093859 -0.16184016 -0.014192922 0.15729453 -0.012773298
-0.095403254 0.071682334 0.07620921 0.038812343 -0.083216675 -0.15294248 0.08560385 -0.1520061
0.042876378 0.01856068 -0.18092076 0.17390545 -0.1656865 -0.090406924 0.17546739 0.012409635
0.024696514 0.09434556 0.0047347005 -0.16217387 0.120600395 0.1688944 0.14786546 0.06692099
0.0862443 -0.05412061 -0.12454552 -0.049336992 0.16688 0.09431628 -0.16756555 -0.15399724
-0.090399854 -0.06905652 -0.009002613 0.10941919 -0.06987184 -0.09576239 -0.14841136 0.117736824
-0.10730015 -0.10671974 0.12579079 -0.14412232 0.050476436 -0.0962684 -0.046816207 0.0621291
-0.071287006 0.06976564 -0.005329066 -0.081338055 -0.1785401 0.12110637 0.06574143 0.1401535
0.035313036 0.18911809 -0.04021675 0.16534072 0.14508106 -0.16333188 0.024530044 0.036066994
0.16691212 -0.015410845 -0.16833901 -0.1739276 -0.059964094 -0.05160095 0.03336028 0.045615733
-0.091429144 -0.08464208 0.092036515 -0.12060236 -0.1837905 0.06152276 -0.1551584 -0.11840082
-0.12214298 -0.05891342 -0.07317479 0.14085837 0.0036854132 0.086664736 0.13388538 -0.01579413
-0.16838619 -0.16293043 0.12673807 -0.11149225 0.046627402 -0.02255851 -0.037505984 0.02228641
0.10251032 0.1075652 0.05316256 0.07959805 0.05771425 -0.005226158 0.16435975 -0.019375183
0.012328854 0.1767613 0.104324855 0.104385406 -0.15697373 -0.15267858 0.0306857 -0.02003326
-0.11847047 -0.0011969906 -0.06822072 0.13447809 -0.15278965 -0.07222985 0.1504765 0.089127675
-0.047278892 0.061210137 0.077801056 0.09046746 0.0044233836 -0.111849174 0.033713806 0.1443405
0.10611723 0.14258283 0.07286829 0.046043597 -0.08924413 -0.14267477 0.1490929 -0.17944434

encoder.model.bias_ih_l0 f4 [120]
00000000: d7e6 2cbe 0305 0cbe b6b5 4bbd 49c3 b8bd
00000010: 862f 5fbd 12d2 8f3d 6163 cbbd 06f3 2cbe
00000020: 46c2 a43d 5132 053e c73d 32bd 27f0 543d
00000030: eab5 22be f691 0f3e 0bb5 2c3e b89c ddbd
00000040: ab33 cdbd c69d 103e 5b8c ca3d 548f 0e3e
00000050: 2b43 bd3d 6871 09be c9e4 a03d 897b e63b
00000060: 2bc5 ac3d 2d9e ae3d 7d76 7a3d 627f 12be
00000070: 9d49 12be 9d5e 283e 7b12 0b3e ee94 42bd
00000080: f370 cfbd ff87 19be 2e81 1a3e ea65 e4bc
00000090: 9264 e3bd aa6c 963d d84f 133d 95bf 2bbd
000000a0: 255e 273e 80a5 143e 3ace d1bc 98fa 3a3d
000000b0: 7c51 a2bd 987a 303d b844 9e3d 4821 c43d
000000c0: f4aa 0b3e b1a3 1a3d f27b acbd 472b 0dbc
000000d0: 0f3e 7b3d 16fb 8c3d 447f 71bd 249b 343e
000000e0: 500f 5dbd 9fd4 71bd 666f e3bd 73dc adbd
000000f0: ca6b 1fbe 90fc f9ba ce53 ddbd ea9b d83d
00000100: 1fe4 0dbe cab8 243d 76ec b2bd 3fa3 f43d
00000110: 949d 3f3d 658f 073e db23 b03c 9c23 1d3d
00000120: b2e8 40bd f3be 21be 5731 ad3d d1c4 3cbe
00000130: 2e86 a63d d2ec 0e3e 01ca e63d f34f c43d
00000140: eafd 123e f696 8dbd eb36 2a3e b268 00be
00000150: 0929 3dbd e83b a23d dbdb e63c b3fa 9fbd
00000160: 32dd f5bd cc3c 63bc ec3a 4bbc 3164 ec3d
00000170: 286a 0abe b1b4 ea3d 0058 523d 9902 6abc
00000180: 49d8 5a3d 2c01 16be 6300 01be 088a fd3d
00000190: 5e87 3fbe 768b e73c 7a26 17be 05b8 e03d
000001a0: cd1f 823d 6e99 19be 6429 ba3d bdd1 fbbd
000001b0: b680 453d d69b a2bc 4c60 0f3e 5c4d a33d
000001c0: 1774 053d 7011 b93d e13c c83c 1704 a13d
000001d0: f821 fe3d f75b 343e d16b 59bd ee9e 83bd
-0.16884933 -0.13673787 -0.04973384 -0.09021623 -0.05448868 0.070224896 -0.099310644 -0.16889581
0.08044867 0.13007475 -0.043515947 0.05198684 -0.15889707 0.14020523 0.16865937 -0.10820907
-0.100196205 0.14122686 0.09890052 0.13921863 0.09241327 -0.13422167 0.07856137 0.0070337695
0.08436044 0.085262634 0.061148155 -0.14306405 -0.14285894 0.16442342 0.13581268 -0.04750531
-0.10128965 -0.14993285 0.1508834 -0.027880628 -0.11103167 0.07344945 0.035964817 -0.041930754
0.16344507 0.14516258 -0.025611032 0.04564914 -0.07925698 0.043085665 0.07727951 0.095766604
0.13639432 0.037753765 -0.08422078 -0.008616275 0.06133848 0.06883828 -0.05895926 0.17637306
-0.05396968 -0.059040662 -0.11105232 -0.08489313 -0.15568462 -0.0019072462 -0.10807 0.10576613
-0.13856553 0.04021529 -0.087365076 0.11945199 0.046781138 0.13238294 0.021501472 0.038364038
-0.047096916 -0.15795498 0.084566765 -0.18434455 0.081310615 0.13957527 0.11268998 0.095855616
0.14354673 -0.06913559 0.16622512 -0.12539938 -0.046181712 0.079215825 0.028181007 -0.07811489
-0.1200508 -0.013869476 -0.012404185 0.115425475 -0.13517058 0.114602454 0.051353455 -0.014282846
0.05342892 -0.14648885 -0.12597804 0.12379843 -0.18703982 0.028264742 -0.14760771 0.10972599
0.06353722 -0.14999935 0.09089926 -0.12295864 0.04821845 -0.019849699 0.14001578 0.079737395
0.032581415 0.09036529 0.024443092 0.07862108 0.12408823 0.17613207 -0.053081337 -0.06426798

encoder.model.bias_hh_l0 f4 [120]
00000000: 8611 2e3e f41f 21bc ded7 40be 035e 1a3c
00000010: 8723 303e 2d66 94bb d659 e63d 60cf cf3d
00000020: b31e 0e3d 8cda e63d de47 6abb 00d9 e03d
00000030: 7dbd 08be b72a bd3d 705a 8b3d f448 593d
00000040: 73dc 0ebe 5a1e 193d 709e f9bd 2d3e fa3c
00000050: df94 513d 5db8 3bbc b6b0 09be 38e1 ddbd
00000060: f0a5 263e c023 853c d558 07be a02b 62ba
00000070: 9290 923d 177a cebd ed1a 113c d37b dfbd
00000080: 8584 69bd 2e6c 2cbe 6e58 d73c b6bf fbbd
00000090: ecd8 443d 03d7 8dbc 298c a03d 0e99 243e
000000a0: 336f 093e 8c94 40bd c3a4 02bd a36e 03be
000000b0: d48c 0d3e 2478 dd3d 0902 bf3d 5167 043c
000000c0: 1cea 61bc cc65 c9bd 411b b1bd 7aea 253e
000000d0: e667 0f3e 376c a5bd 9a05 38be 8e19 383c
000000e0: 2a0a b4bd 2048 f53c feaf 31be 04e3 f5bd
000000f0: e84d c33d a500 39be a2bf 463d 25b1 013d
00000100: 1198 cb3d 049e 143e bf9c 243e 0c87 9a3b
00000110: 9831 0c3d 2373 9a3d dd27 26bd 4b0a b1bd
00000120: b1f3 933d b8f5 3ebe a9d7 eb3d 0aee 2cbe
00000130: 6425 2ebe db74 2ebe 53cf e43d 5614 233e
00000140: 40c9 fb3c 2d37 06be 753e 3cbe 5d82 873d
00000150: 53e2 0f3d 900c a13d 4e67 473d 3dbd 34be
00000160: ef59 123e 50b9 d43d 9536 f93c f2e9 18be
00000170: 6e91 123e f22d babd f7af 71bd 68dc 003e
00000180: 26cc 96bd c5c0 b839 822e 133d f83c 2a3e
00000190: 98b5 f8bd 7c1f edbd e7a1 c13d 2ebd e5bd
000001a0: deb0 5f3d 92b8 c6bc 9b9e 72bc fe7b 0ebe
000001b0: a5f7 22be 8583 113c 5e37 843c f787 1bba
000001c0: cd90 1e3d 4df3 413e 1b8d cdbd 1137 fa3d
000001d0: bef3 27be fcb7 7d3d e9f9 a2ba c0b2 80bd
0.16998872 -0.009834278 -0.18832347 0.009421828 0.17201053 -0.004528782 0.112476036 0.101469755
0.034697246 0.11272153 -0.0035748403 0.109788895 -0.13353534 0.09236663 0.06804359 0.05304809
-0.13951282 0.03738246 -0.12188423 0.030547226 0.051167365 -0.01145753 -0.13446316 -0.10833973
0.16274238 0.016252398 -0.1321748 -0.00086277165 0.07156481 -0.100818805 0.008856517 -0.109122895
-0.057011146 -0.16838142 0.026287284 -0.12292425 0.048058435 -0.01731444 0.078392334 0.1607401
0.13421325 -0.047016665 -0.03189541 -0.12835173 0.13823253 0.10813931 0.0932656 0.008081273
-0.013788726 -0.09833869 -0.086477764 0.16202727 0.14004478 -0.08077281 -0.17970887 0.011236561
-0.08791001 0.029941618 -0.17352292 -0.120061904 0.09536344 -0.18066652 0.0485226 0.03166308
0.09941114 0.14513403 0.16075419 0.004715806 0.034226984 0.07541492 -0.04056536 -0.08644541
0.07224215 -0.18648422 0.11515743 -0.1688768 -0.17006451 -0.17036764 0.111723565 0.15925726
0.030735612 -0.13106985 -0.183832 0.06616662 0.03512795 0.07863724 0.048682503 -0.17650314
0.1429212 0.10386908 0.030421535 -0.14932993 0.1431329 -0.090907946 -0.059005704 0.12584078
-0.07363157 0.0003523884 0.035933025 0.1662482 -0.12144011 -0.11578271 0.094547085 -0.11217724
0.054612033 -0.024257932 -0.014808322 -0.13914487 -0.15914781 0.008881454 0.016139682 -0.0005933041
0.03871231 0.18940468 -0.10036679 0.12217534 -0.16401574 0.06194304 -0.0012434098 -0.06284094

encoder.model.weight_ih_l1 f4 [120, 30]
00000000: ebce c8bd a4b2 c53d c950 d8bd 4780 19be
00000010: 8567 393e fc94 27be 2bf6 303e 1327 6cbc
00000020: ef3a 92bd 3125 0d3e ece1 bd3d 1cd1 eeb9
00000030: 6d73 dfbd c1d5 493d cae4 933d 1f22 cf3d
00000040: 561e 7bbd 489b 3ebe aee8 3bbd 87fc 323e
00000050: 937e f5bd 6708 203e 89f0 863d e753 1b3e
00000060: 0abd 963c d832 d63d 5bff 30be 4165 173e
00000070: cecf ffbc bb9f c0bd f057 a3bd 29d1 313e
00000080: f8b7 16be 7242 dd3d d429 253e db09 25be
00000090: 809c 1e3e 6cb4 903d 15e6 32be 847a 5abd
000000a0: 3ed5 d4bd 1e8b adbc cbbe 0bbe 565c a63d
000000b0: 2233 023d cb7a febd 07d0 dc3d 338f 33be
000000c0: 98d9 42bc d779 4a3c cfcf fbbd 0acd cf3d
000000d0: 6d45 893d d726 143e be2e 88bd 07dc 813d
000000e0: 0117 65bd 181b d73c 2b57 d93d b11d d53d
000000f0: 80f5 0c3e b4c3 f53d 8f31 05be e261 c4bd
00000100: 5cc3 223e c984 a63d 7b4c 8b39 abf1 8fbd
00000110: 6600 42bd 339f 26be de2c ee3c f7d2 b3bd
00000120: 7ac6 e93d cfca dcbd 0bde 29bd 1146 ddbc
00000130: 58c0 33be e6fe 5ebd 16bf 09be e99e fcbc
00000140: 255a c73d cf44 a6bd d7e7 d13b d90a de3d
00000150: e439 a9bd 19bd 3fbd 168d 263e 854d 51bd
00000160: 9721 ca3d 4c06 8a3d 9b93 383d d031 f0bd
00000170: 4977 1fbe 282c 1dbe fd3c e73d 9592 14be
00000180: 3e00 c33d 47dc 8e3d 90ff 9bbc 6fa9 903d
00000190: 544c 2b3e 80b0 05be 8f17 383e 1efd 173d
000001a0: 9efa fabd 0f0f 053d 3255 07be dcca abbc
000001b0: 5468 193d 8eac 56bd 3598 e43c 664f a73d
000001c0: 6e49 523d 633a 893d 0048 e33c 3061 15be
000001d0: aa50 173c 5027 6cba a1c1 1d3e 8e67 12be
000001e0: 3b9d 133e f1fa 34bc 17fd c63c 11bf a1bd
000001f0: c769 033d 5548 b7bc b200 383e 7bd9 893d
00000200: dfbe df3d b2e8 08be 0086 523d a2a1 ea3d
00000210: 68ee 8abd 6bdb 363d aec9 bb3d a996 2c3e
00000220: 08da df3d 9af2 d03b 3f32 03be 4075 753d
00000230: d75a c3bc fcce 0cbd 7e30 abbd 2d98 a93d
00000240: 0097 06be ba0f 2bbe 7f00 343d 5714 e83d
00000250: 09e2 0ebe a485 1d3e aa0a 6a3d eb3e c53d
00000260: 6c3c 47bc 8860 803d bd0e 3e3d f8b3 c0bd
00000270: 9ae7 25be 832e 8dbc 8a0b fbbd 3d54 a6ba
00000280: 2f96 2d3d 3381 83bd 3082 d03d 5f4e d9bd
00000290: cd62 f9bd 7fdb 87bd 0487 123e 4b87 4c3d
000002a0: 3e3d 333e 1de3 ebbd d0c1 b9bd 9a1b c43d
000002b0: db15 283e b4f4 353e e501 80bd 2493 19bd
000002c0: b640 7bbd f43d 903b d7f5 3f3d 5237 443d
000002d0: 32ef 50bc 9f68 13be 7188 22be f080 01be
000002e0: 886c 33bd 2737 883c 6025 e03d 97b4 bb3d
000002f0: fc4b e7bc 31a5 d93d 76c8 163d ca39 363e
00000300: 7a5d 79bd 71df d7bd bebf 8aba fe8f bcbd
00000310: 83a0 403e 293b 1dbd ed44 f73d bbca a63c
00000320: ab1f 2f3e ee88 2b3e 0edd e63d 416f b73d
00000330: 1d49 093d 8901 41be a8cf 3d3d d706 12be
00000340: a4b2 07be 6d2b 8ebd 59e4 e1bd d43e 74bd
00000350: f5cb d9bc fec2 ca3d 9934 283c 271a f33d
00000360: 5f78 1e3e 8f78 b3bd cf4e 22be 2ac7 babd
00000370: 3229 00bd ca64 013d 6eb1 273e 7037 39bc
00000380: 745d b2bd 6cab 1b3d 203a 623d 28e7 30bd
00000390: 6056 243e 895e f13d f289 56bd 02ad cdbd
000003a0: 177d 9bbd 6255 293c d504 2d3d ef89 083e
000003b0: c11b 9dbc ef38 1b3e aace f7bd d14f 833b
000003c0: 83ca f1bd bc1d 0dbe 452a 14be 5884 e83c
000003d0: 11dc 0f3e e133 ec3a 1be3 143e e89d b13d
000003e0: 5d78 283e ddef fc3d 37cd cd3d b045 ff3d
000003f0: 177d 113e 9691 703c bf40 2bbe 9800 12be
-0.098050915 0.096532136 -0.105622835 -0.1499034 0.18105896 -0.16365427 0.17281406 -0.014413613
-0.07140147 0.13783719 0.09271607 -0.00045550696 -0.109106876 0.049276117 0.072213724 0.1011393
-0.061308227 -0.18613923 -0.045876198 0.17479144 -0.11987033 0.15628205 0.06588847 0.15168725
0.018400688 0.104589164 -0.1728491 0.14784719 -0.031227019 -0.09405466 -0.07975757 0.17364945
-0.14718616 0.10803689 0.16129237 -0.16117041 0.15489388 0.07065663 -0.17470582 -0.053339496
-0.10392235 -0.0211845 -0.13647 0.081230804 0.031787045 -0.12425765 0.107818656 -0.17535095
-0.011892699 0.01235815 -0.12295496 0.1014653 0.06702695 0.14467941 -0.0664954 0.06340795
-0.05593014 0.026258036 0.10612329 0.10406054 0.13765526 0.12000218 -0.13007186 -0.09588982
0.15894836 0.081307955 0.00026569128 -0.070285164 -0.04736366 -0.16271667 0.029074129 -0.08780473
0.114148095 -0.1078087 -0.041471522 -0.02701095 -0.17553842 -0.05444231 -0.134518 -0.030837493
0.097339906 -0.08118593 0.0064058113 0.10841913 -0.08262995 -0.046811197 0.16264758 -0.05109932
0.09869688 0.06739482 0.045062643 -0.11728251 -0.15572847 -0.15348876 0.112909295 -0.14509042
0.095215306 0.06975608 -0.01904276 0.07063567 0.16728336 -0.1305561 0.17977737 0.037106626
-0.12254833 0.032485064 -0.13216093 -0.020970754 0.03745301 -0.052410655 0.02790461 0.08169441
0.05133956 0.067005895 0.027744293 -0.14587855 0.00923554 -0.00090085436 0.15405895 -0.14297315
0.14415447 -0.011046157 0.024290605 -0.07897771 0.0320833 -0.022373358 0.17969015 0.06730934
0.10925078 -0.13370016 0.051397324 0.1145661 -0.06783754 0.044642847 0.09169327 0.16854347
0.10930258 0.0063765766 -0.12812136 0.05992627 -0.023847027 -0.034377083 -0.083588585 0.08280978
-0.1314354 -0.16705218 0.043945786 0.113320045 -0.13953413 0.15383011 0.057139076 0.09631141
-0.012160402 0.06268412 0.046400774 -0.09409326 -0.1620163 -0.017234093 -0.1225806 -0.00126899
0.042379554 -0.06421127 0.10181081 -0.10610651 -0.12177048 -0.066336624 0.14309317 0.049933713
0.17503831 -0.11517928 -0.0907017 0.09575577 0.16414587 0.17769128 -0.06250361 -0.03749384
-0.06134101 0.0044019166 0.04686531 0.04790432 -0.012752341 -0.14395379 -0.15872361 -0.12646842
-0.043804675 0.016627861 0.10944629 0.09165304 -0.028234474 0.10627211 0.03681227 0.17795482
-0.06088016 -0.10540665 -0.0010585708 -0.09207152 0.1881123 -0.038386498 0.120736934 0.020360341
0.17101924 0.16751453 0.112726316 0.08956767 0.033516992 -0.18848242 0.046340615 -0.14260422
-0.1325174 -0.069418766 -0.11029882 -0.05963023 -0.026586512 0.09900473 0.0102664465 0.118702225
0.15475605 -0.08763229 -0.15850376 -0.09120019 -0.031289287 0.03159026 0.16376278 -0.011304721
-0.08709231 0.038005278 0.055231214 -0.043189198 0.16048574 0.11785609 -0.05237765 -0.10042764
-0.07592218 0.010335298 0.042240936 0.13333867 -0.019178273 0.15158437 -0.12099965 0.0040073176
-0.11806204 -0.13780874 -0.1446925 0.028383419 0.14048792 0.0018020832 0.14539759 0.08672696
0.16452165 0.12350438 0.10048907 0.12464464 0.14207874 0.014683148 -0.16723917 -0.14258039

encoder.model.weight_hh_l1 f4 [120, 30]
00000000: 4221 983d 79e4 953d 7b99 0d3e 0df8 073e
00000010: bb2d 81bd f8e0 6abd 32f8 93bd e930 84bd
00000020: 5b9b 053e a2fe 0cbc e89d 13bd a4dc 11be
00000030: 0b77 8bbd b2f2 39be 27bc 2fbe 1688 d13d
00000040: b8bd 963c 0ada d83d ca54 f93c c4b9 1e3e
00000050: 6446 f33d e9a6 dfbd a37e c8bd 7273 40be
00000060: 4b05 3d3e 1377 273c eee0 a9bd 3481 023e
00000070: d627 b03d 6d16 d83d 012a b3bd 0fcf 90bb
00000080: 945c 913b e22d eb3d c388 033c 36bd 2d3e
00000090: fafa b5bd 542f b03d 9a05 0f3e 5f87 353e
000000a0: 652f 8e3d cceb 01be 65ce e93c c5a7 123e
000000b0: 8645 06be 328f f73d 8810 d0bc 0fe0 41bd
000000c0: f635 32be c2b6 0cbd a9c8 143d 7326 1cbe
000000d0: 4f25 983c 7ab4 21be aa98 933d d129 0bbe
000000e0: 68ca 5cbd f41d 2cbd 662a f3bd 87ec 283e
000000f0: 7ec7 cabd 00ed af3d 33a2 a43d cf41 a43d
00000100: aa00 863d b2c8 0dbd 0d27 14be 10df 30bd
00000110: 207d 9abd b07c 25be 7ef1 3dbd 197d a03d
00000120: d7cd e83d 130d 23be 588b a43d 3573 29be
00000130: b4aa 74bd 50ef acbd a38a d5bd 2846 80bc
00000140: 135d a3bc 7efc 0a3e 228e 463d 5e34 f53d
00000150: d461 ea3d 1ca7 b2bd da30 4abd 715e d8bd
00000160: 34cf d4bd a564 163e f8cb b8bd 0783 2f3e
00000170: 4de9 6fbd f558 aabc 1833 db3d 47f8 583d
00000180: 09e3 0abe b5ed 903d 6bdc 063e d384 95bd
00000190: b11e b33d 2a17 9abd 4943 5ebd e309 2a3d
000001a0: 2556 963c cf35 3c3e 124d 0a3e 51bc ea3b
000001b0: 14ac 3ebd d26c 08be cdd1 833b 4361 1ebe
000001c0: 9a45 59bd 68c8 45ba fc60 96bd 1df0 62bd
000001d0: 414f e53c 7b5e fdbd f69e c83d 55a1 22be
000001e0: 2dce c73b ecf4 f13d 6df8 313c b95f 043d
000001f0: c3e8 2abd fa78 1cbd 8432 1b3e b4d1 763d
00000200: 9cc9 a73d 0510 5abd a8e6 b3bd ae01 683c
00000210: 28d4 5d3d 1882 023e 5843 0d3c 0e9a 34be
00000220: fa6e 2fbe 7417 fcbc da68 c7bc cedc e6bd
00000230: 4072 a53d 4066 0fbe c3c2 78bd 5444 0dbd
00000240: d2b0 033e ab98 933d 5619 c0bd a025 0d3d
00000250: bd30 743b b552 03be a92c 2abe 714a b53d
00000260: 26d2 33bc e23d 1bbe fda1 d23d 48b9 253e
00000270: 8347 2a3e 8ead 7e3d b1dc 81bd 14c8 3d3e
00000280: cb32 103e 0012 323e 0cfa 043c 65da 93bc
00000290: 0ae2 a1bd 0fb5 c63d 769e 28be 4e4a 67bd
000002a0: f9c5 d73d 1a72 35bd fbd8 3f3d 3034 febd
000002b0: d7fa 0cbe 3697 14be 1066 0c3e 9cd5 3dbe
000002c0: 0566 aebd 4fec 1f3e 6c9a d43d d5f4 85bd
000002d0: f897 db3d a26b b33d 5335 e0bd 61e8 8fbd
000002e0: 94b9 ac3a 2fbb c2bd 7f60 b0ba c5fb 12bb
000002f0: 22f4 12be 8a37 cdbd 576c 3fbe 9801 48bd
00000300: 8dd7 1bbe 587c 22be d3d5 efbb 737b 273e
00000310: e040 143e 302a 173e 6cfc 223e 841b dcbc
00000320: bc46 58bc 732d 14be 0956 0ebe 311f e5bc
00000330: a5fd 063d fc82 9bbd e370 02be 8fad 2c3c
00000340: 91de 333e d2fe 023c 2a44 843d bb92 6bbc
00000350: 68ff 9bbd 63ec eebd b017 b43d 83ae 26bd
00000360: b8b4 e53d 59bd 17be f6fd eb3d 33c6 ec3b
00000370: 5ddf 873c d5aa bf3c 18cd ddbd d4cc af3d
00000380: 4aca 91bc d0ba e13d 2c3c 92bc f91c f6bd
00000390: 0145 2f3e 826b b0bc cd0b 843d 187b 0bbe
000003a0: 5774 e4bd 54d2 2a3e a2f5 b53d d6a3 b83d
000003b0: 9a15 063e 0b31 2c3d d5eb 923c 32fe 28be
000003c0: acf0 4e3d b7d3 233e adbd 26be a0fc 283e
000003d0: a096 9ebc acae aebd 8a45 8d3d 059a bf3d
000003e0: a05d 10bc 16b4 1d3e 46b4 e33d 8515 8abd
000003f0: 29d7 36bc b276 72bc b28a babd 0079 973d
0.074282184 0.07318968 0.1382808 0.13278218 -0.063075505 -0.057343453 -0.07225074 -0.06454641
0.13047545 -0.008605631 -0.036039263 -0.14244324 -0.06809815 -0.18158987 -0.17161618 0.102310345
0.018401012 0.10588463 0.030435938 0.15500551 0.1187866 -0.109205075 -0.09789779 -0.18794039
0.1845905 0.010221261 -0.08294855 0.127446 0.08601348 0.105511524 -0.08748246 -0.0044192146
0.004436085 0.11483361 0.008028212 0.1696671 -0.088857606 0.08602777 0.1396698 0.17727421
0.069426335 -0.12687606 0.0285408 0.14321811 -0.13112459 0.12087859 -0.025398508 -0.04733282
-0.17403397 -0.03435398 0.036324177 -0.15249042 0.018572478 -0.15791503 0.07206853 -0.1359017
-0.053903967 -0.042020753 -0.11873321 0.16496478 -0.09901331 0.08590126 0.080387495 0.080203645
0.065430954 -0.034615226 -0.14468022 -0.04318148 -0.07543397 -0.16160846 -0.046372883 0.078363605
0.11367386 -0.15922956 0.0803439 -0.16547854 -0.059733108 -0.08444083 -0.104268335 -0.015658453
-0.019941842 0.1357288 0.048475392 0.11972879 0.114444405 -0.0872328 -0.049362995 -0.10564888
-0.10391083 0.1468683 -0.09023279 0.17139827 -0.058572102 -0.020794371 0.10703105 0.05297115
-0.1356317 0.07076589 0.1317002 -0.07300725 0.08746088 -0.075239494 -0.054263387 0.041513335
0.018351624 0.18379901 0.13505962 0.0071635623 -0.046550825 -0.13322762 0.004022813 -0.1546679
-0.053044893 -0.00075448165 -0.07342717 -0.05540477 0.027991893 -0.12371536 0.097959444 -0.15881856
0.006097576 0.11814293 0.010862452 0.03231785 -0.041725885 -0.03820131 0.15155989 0.060258582
0.08192751 -0.053237934 -0.087842286 0.014160557 0.054157406 0.1274494 0.008622013 -0.17636892
-0.17132178 -0.030772902 -0.02434199 -0.11272584 0.08078432 -0.14003849 -0.060732614 -0.03448899
0.1286042 0.072068535 -0.093798324 0.03445971 0.0037260496 -0.12824519 -0.16618599 0.08852089
-0.010975396 -0.15160325 0.10284803 0.1618396 0.16628842 0.062177233 -0.06340922 0.18533355
0.14081876 0.17389679 0.008116256 -0.018048475 -0.07904442 0.09702503 -0.16466698 -0.056467347
0.10535807 -0.04429827 0.046837788 -0.12412298 -0.13767563 -0.14510807 0.13710809 -0.18538517
-0.085155524 0.15617488 0.10381016 -0.06540839 0.10722345 0.08760764 -0.10947671 -0.07026745
0.0013177865 -0.09508359 -0.0013456492 -0.0022427898 -0.14350942 -0.10020359 -0.18693672 -0.048829645
-0.15218945 -0.15867746 -0.007319191 0.16355686 0.14477873 0.14762187 0.15916604 -0.02686859
-0.013200458 -0.14470463 -0.13900007 -0.027968975 0.032956738 -0.07593343 -0.12738375 0.0105394265
0.17565371 0.007995324 0.06458314 -0.014378245 -0.07617074 -0.11666181 0.087935805 -0.04069377
0.1121611 -0.14818324 0.115230486 0.0072257756 0.016586 0.023396889 -0.10830134 0.0858399
-0.017796654 0.1102196 -0.017850958 -0.12017245 0.17116167 -0.021535639 0.06447563 -0.13621175
-0.111550026 0.16681796 0.08884741 0.09015624 0.13094178 0.04203896 0.01793472 -0.16503218
0.05052249 0.15998732 -0.16283293 0.16502619 -0.019358933 -0.0852941 0.06898029 0.09355549
-0.008811384 0.15400729 0.11118369 -0.06742386 -0.011159697 -0.014798807 -0.09108485 0.07396126

encoder.model.bias_ih_l1 f4 [120]
00000000: 69c4 f8bd f60a 9c3d 9b7b 083e 2f2a 0b3e
00000010: 5eab 51bd 0241 a7bd 71a6 cd3d 498d 03be
00000020: 8da9 df3d 56b5 cfbd 67c7 99bd fd54 cdbc
00000030: bc9e 003e 1780 32be 5dc5 3ebe e0f1 3ebe
00000040: f7f2 da3c 6de3 d5bd f1fc 033d ee7b 923d
00000050: 5045 37be 94ac f43d 4d80 d53d 7694 8f3d
00000060: d679 2cbc 5e20 babd 2f81 a13b 0f80 25be
00000070: 577d 0a3e 3971 37bd 2290 0b3e f51f 13bc
00000080: 7455 4cbc d016 f33d 0ca9 093e 782d 803d
00000090: 215f 293e 1761 f6bc 0d0c 29be 2b7c d2bc
000000a0: b914 163d c578 a33b 7cce 18bd 2287 9bbd
000000b0: 8ad4 ecbd f2d0 993d fbd9 3c3d c868 fd3d
000000c0: 056d 223e 0464 2cbe ff56 c0bd 41df fb3d
000000d0: ce92 2e3e f07c ad3d ae93 9cbc 4882 183e
000000e0: 663d 5a3c 9349 82bd 454e 3f3e 1050 2ebd
000000f0: e099 3abe 8512 b13d d6ef f63d 4bd4 233e
00000100: 7766 11be 1d9b 23be 309d 5abc 00d0 9abd
00000110: e870 e2bd db8f aebc d3a7 143e 4f81 393d
00000120: c7ea 313e 66aa cebd 80cc 5d3d aaea 1f3e
00000130: 2072 81bd 53b7 66bd 403d b13d debb 9d3d
00000140: d5ca ecbd 957c e9bd 6f1e ed3d 4e9e 30be
00000150: cee0 943c 6d53 163e 3f33 a7bd 9e5b 94bc
00000160: fa0b 3438 8899 09be 33c6 e2bd 26dd 17bd
00000170: ea95 1ebe 4776 e9bd d813 a9bc 8b86 05be
00000180: e3cc 96bd 7e34 84ba de9f 14bd ca3f 0a3e
00000190: ae3f afbd 9466 e23d 1505 ddbd 75df 643d
000001a0: 8a43 1c3b 90b9 2f3e 1288 893c 0415 ddbd
000001b0: 74b0 163e 1ee6 50bc 12d0 bfbd 3905 883c
000001c0: 290e 25be 8f81 083d 567a 80bd 1a7e 09be
000001d0: 2a7f fbbd 4478 f0bd b005 9d3d d1f4 25be
-0.12146837 0.07619278 0.13328402 0.1359031 -0.05118882 -0.08166696 0.10041512 -0.12846865
0.10921011 -0.10142009 -0.07508736 -0.02506494 0.12560552 -0.17431675 -0.18629976 -0.18646955
0.026727183 -0.10443769 0.032223646 0.07152544 -0.17897534 0.11946979 0.10424862 0.070107386
-0.010527095 -0.09088205 0.00492873 -0.16162132 0.13524376 -0.044785712 0.13629201 -0.008979787
-0.0124715455 0.118695855 0.13443393 0.062586725 0.16540195 -0.030075593 -0.16508503 -0.025693974
0.036640856 0.004988762 -0.037306294 -0.07594134 -0.11563976 0.07510556 0.04610632 0.12373501
0.158619 -0.16835028 -0.09391593 0.12298442 0.17048189 0.084710956 -0.019113388 0.14893448
0.013320303 -0.063616894 0.18682201 -0.042556822 -0.18222761 0.086461104 0.12057464 0.15998952
-0.14199243 -0.1597714 -0.0133431405 -0.07559204 -0.110566914 -0.02130883 0.14517145 0.045289334
0.17374717 -0.10091095 0.054150105 0.15616861 -0.06320596 -0.056327175 0.08654261 0.077018484
-0.11562125 -0.11400715 0.1157807 -0.17247888 0.018173601 0.14680262 -0.08164071 -0.018110093
4.29265e-05 -0.13437474 -0.1107296 -0.037076138 -0.15486875 -0.11399513 -0.020639345 -0.13039605
-0.07363298 -0.0010086445 -0.036285274 0.13500896 -0.08557068 0.110547215 -0.10791985 0.055877168
0.0023843967 0.1716063 0.016788516 -0.10795024 0.14715749 -0.012750177 -0.09365858 0.016604053
-0.16118683 0.03332668 -0.06273334 -0.1342701 -0.12280114 -0.11741689 0.076671004 -0.16206671

encoder.model.bias_hh_l1 f4 [120]
00000000: f537 983d 44c7 09be 9992 fd3d f8a6 f83d
00000010: 1d32 883d a44d 133e e18e 953d 4cb9 26be
00000020: 152c a0bc 0a1c ffbd 3db7 81bc 1b5c c2bd
00000030: 27f2 fb3c 5884 0e3e 8ccf 1a3e 2958 03be
00000040: 14c4 153e 0384 3b3d ad5c af3d 6dda 05be
00000050: 7a04 bebd 17dd 313e ce50 b0bc ba66 d5bd
00000060: 2dbd 62bc 558b a2bc 56e5 ff3d 0105 20bd
00000070: 76fa 3b3d d411 aabb c494 c93d c4a5 9b3d
00000080: 43d6 1a3d 6530 433d a6a5 3e3d 5b45 193e
00000090: 6907 9ebd 411b 68bd 2f4b 12be 33ce a03d
000000a0: c841 143e 53b2 96bc eb22 383d bf98 cebd
000000b0: 741c d93d 8bc1 9ebb 33bf 963d ccac b3bd
000000c0: f3a0 2f3e 7cf8 003e 0b08 363e 89e3 0bbd
000000d0: a389 9dbd 48e3 173c 8dab fe3d 6b9f c83d
000000e0: c7a2 023e aa2f b1bd de70 0dbe 5420 3fbe
000000f0: 309f adbc 3281 f6bd 40ac 2dbe f191 cc3d
00000100: 066d 5bbd 2dc2 2fbd a2b9 35bd 6b65 c33d
00000110: b3e0 333d 2acb abbb 0bfc aabd 24ed 023e
00000120: 2ec2 983c 0661 edbd e5d3 aa3d da25 a3bc
00000130: 6e91 56bd 2d78 ddbd 0dd0 6b3d 177c 873c
00000140: 3ba4 b7bc 02ee 99bd 834b d93d 7959 b2bd
00000150: 5418 d53d 1c5d b5bd ba68 28be 3696 7dbd
00000160: de5c 213e 1481 e1bc a5ff 01be 0a08 f13c
00000170: cd53 6b3c 6355 203e adb2 183e c413 e1bd
00000180: 7a00 9bbd 55e5 283e c371 1f3e 6002 d83d
00000190: b25f e4bd 9c08 b9bc d23c 09be 1977 05be
000001a0: 4eeb d4bd 561b 4e3d afec 0f3e a9da fcbd
000001b0: 6f9c 9c3d 14c7 c6bd 8068 b7bd 1b51 8c3d
000001c0: 3474 893d 2eb1 c43d 0cf3 b23d b1e0 c4bd
000001d0: 8264 f7bd 4758 35bc 0698 c13d 542d 033e
0.07432548 -0.1345492 0.12381477 0.12141222 0.06650183 0.14385086 0.073026426 -0.16281623
-0.01955227 -0.1245652 -0.015834445 -0.09490224 0.030755116 0.13917673 0.15118235 -0.12826599
0.14625579 0.045780193 0.085625984 -0.13071604 -0.092781976 0.17369495 -0.021522906 -0.10419984
-0.013839048 -0.01984183 0.12494914 -0.039067272 0.045893155 -0.0051901136 0.09842828 0.07599977
0.037801992 0.047653574 0.046544693 0.14967863 -0.07716257 -0.056666616 -0.14286493 0.078518294
0.14478219 -0.018395578 0.044955175 -0.10087728 0.1060113 -0.0048448495 0.07360687 -0.08773193
0.17151241 0.1259479 0.17776506 -0.03415254 -0.07692268 0.009270497 0.124350645 0.097960316
0.12757407 -0.08651669 -0.13812587 -0.18664676 -0.02119407 -0.12036361 -0.1696024 0.099887736
-0.05357077 -0.04290979 -0.044366486 0.09540828 0.04391546 -0.005242725 -0.08348855 0.12785774
0.01864728 -0.115907714 0.08341197 -0.01991551 -0.052384786 -0.10813937 0.05757146 0.016538663
-0.022417178 -0.075160995 0.10610106 -0.08708472 0.10405031 -0.0885565 -0.164462 -0.06191083
0.15758082 -0.02752737 -0.12695177 0.029422779 0.014363241 0.15657572 0.1491191 -0.10990098
-0.0756845 0.16493733 0.1557074 0.10547328 -0.11151065 -0.022587113 -0.13402107 -0.13033713
-0.10396443 0.05031904 0.14055131 -0.123463936 0.07647025 -0.0970594 -0.08955479 0.06851407
0.06711617 0.09604107 0.08737764 -0.09613169 -0.12079717 -0.01106841 0.09452824 0.1281026

variational_latent.hidden_to_mu.weight f4 [15, 30]
00000000: 9c3f e6bd 67a3 f43c 6d3e 663e adb1 3bbd
00000010: 463b bb3e faf3 0a3d 3ba5 adbe ed35 4dbe
00000020: 4ced 09be 316a 40be 4a2d d53d 0d0a a6be
00000030: 9f34 cb3d ffb9 dc3d 7038 913d 471a a83e
00000040: 51a0 133e 8edd 86be 69ee 083e d13f 743c
00000050: 3057 a8bb 8353 563e 2717 64bc c375 243e
00000060: 24aa 3dbe e044 b13e b51d b0be 3000 adbe
00000070: b7a6 afbe 655f 383e 4b9a 8bbd 49d2 34be
00000080: 8804 abbe 866c 8ebe 87c4 273e ffe0 bd3d
00000090: bd39 6dbe 5784 013e e23b ec3d 6fcd d43d
000000a0: 6b91 0ebd 7b81 59be c3b5 933e 801d bcbe
000000b0: a685 883e 192d 9e3d 60c6 e1bd 95f4 863e
000000c0: f199 b0be aeb8 4abe e3e7 a7be 48ec 4b3e
000000d0: 60b4 a43c 2694 963d 140f b13d 2615 adbe
000000e0: 4d3c bcbe ca77 803d 3b58 17be e620 483d
000000f0: cc14 48bc 24a6 fb3d c90f 5e3d 3699 27bd
00000100: d348 ae3e 7ceb d93c 05bd 20be e4f5 7bbe
00000110: 61aa 883e 731d febd 0beb 14be 205b de3d
00000120: 9349 3abd 79df 883e a665 97bd 1906 963d
00000130: d4ea 96be 832e 8bbe 02ed f2bd e4e9 dcbc
00000140: 5496 bdbd a772 1f3e fb62 9cbe d644 1f3e
00000150: a876 543e 044f e8bd 675a 1bbe 18ae 92be
00000160: 86fd a83d 5fb8 62bd 6f19 a6be c970 fe3d
00000170: e959 af3e 11d0 833e 5fa9 7d3e 7594 a43e
00000180: 0b84 023d f96e ac3e 6dfa 26be fed5 a4be
00000190: 8397 0abe d770 f83d b32e b1be 98b2 60be
000001a0: 799b c23d 3770 e6bc 32bd 183e b947 913e
000001b0: fac1 623e 46e2 0bbd 93fc c03d 67d8 803e
000001c0: 4a05 2e39 a053 96be 813b e7bd 3ac6 a0be
000001d0: cfb4 853e 8922 10be 2a5f 8c3e f1f4 413e
000001e0: cacb 97bd 0ca0 10be ae30 913d 4a2a eabd
000001f0: 61ac fcbc 51a5 013e fb15 a1bb fb76 693e
00000200: 7c72 583c 666d a8be 445f 733e fb3b be3e
00000210: 7f18 8d3e ef63 3e3e bc55 7ebe e139 5f3d
00000220: ca75 7bbd bf42 6bbe 467d 063e 17a7 083e
00000230: 874a 8ebe 2014 3abe 2645 b33e c4ca e33d
00000240: ef58 d3bd 3279 83be 6c6a 15be d718 a63b
00000250: d3bd 44be 6f31 bebd 2be7 6abd aef3 823e
00000260: 6f86 a43e 1a4f 52be 0fee 0abd afdf 5abe
00000270: 0c49 e2bd e343 a13e 7a25 2d3e d95d 83be
00000280: 951d 903e 7163 88be 43c6 0bbc 21de 76be
00000290: afd3 933d f142 fa3d 2d08 54be 5985 f33c
000002a0: 5ab2 8b3e 4d84 583e 0528 5f3e c1d3 1b3e
000002b0: 5a1d 1e3e bbd9 f53d e8cf a63e 53c4 a2be
000002c0: f2ae 54be af14 663e 4a52 693e 8997 033e
000002d0: 6a0b 7cbd acb7 31be 8826 9f3e e1b9 883d
000002e0: 71f6 ab3e 4dea c93d 9c0d d2bd 1aa9 61be
000002f0: 5564 86be 517c b73e 2986 b73d 294e 8b3c
00000300: 6964 af3e 019b 513e 86ec 833e 23e4 efbd
00000310: bfc1 2ebe 04c1 a4be 12f8 e8bd fee8 883e
00000320: e963 a5bd 24a1 073e 28f2 f43d aa89 5dbd
00000330: cbde 6f3e e36c 583e 99a2 45bd 0f55 a6be
00000340: d2d8 d7bd 7a0a eabd 2d6a a73e fc5d 9ebe
00000350: bc5f e1bd b50e 573d 7bf1 75be 14bd e03d
00000360: 2ff4 97be dae1 a23e ac8a 963d 0d6f ab3d
00000370: 7134 9abe ca04 17bb 8e97 9cbe 298a 0c3e
00000380: 536c b03c c693 e23d f125 903e a863 613e
00000390: 5b38 abbe b9ce 3bbd 7285 3ebc 128c adbe
000003a0: a893 033e 09fb 68be 540e 18be f6ca 81bc
000003b0: 295d 9cbe 4af7 c4bc 8cc8 823e 45a2 d13b
000003c0: 6ab1 39bd 79eb a23d 643b 41bc ab58 4fbb
000003d0: 5938 f23d f0e1 1abe 4af1 5d3e 988c 90be
000003e0: f2ce 52be 108f 98be 08b8 d53d 549a 2fbe
000003f0: 04c1 133e 02fc 82be 43b9 1a3e 3f59 4dbe
-0.11242601 0.029863073 0.22484751 -0.04582374 0.3656866 0.03392408 -0.33915123 -0.20040102
-0.13469428 -0.18790509 0.10409029 -0.32429543 0.09922146 0.107776634 0.07090843 0.32832548
0.14416625 -0.26340908 0.13372196 0.014907793 -0.0051373467 0.20930295 -0.013921536 0.16060548
-0.18521935 0.3462286 -0.34397665 -0.33789206 -0.3430688 0.1800514 -0.068165384 -0.17658342
-0.33401895 -0.27817172 0.16383563 0.0927143 -0.23166557 0.1264814 0.11534859 0.10390746
-0.03480665 -0.21240799 0.2884961 -0.36741257 0.26664466 0.077234454 -0.11024165 0.26358476
-0.34492448 -0.19797012 -0.32794103 0.19914353 0.02010554 0.07352476 0.08645454 -0.33805197
-0.36764756 0.06272848 -0.14779751 0.0488595 -0.01221199 0.12287548 0.054214273 -0.040917598
0.34039935 0.026601546 -0.15697105 -0.24605519 0.2669249 -0.12407961 -0.14542787 0.108572245
-0.045480322 0.26732996 -0.07392435 0.07325382 -0.29476035 -0.27183923 -0.11861612 -0.026966996
-0.092571884 0.1557108 -0.30544266 0.15553603 0.20748389 -0.11343196 -0.15171205 -0.28648448
0.08251481 -0.05535161 -0.3244128 0.12423856 0.34248284 0.2574468 0.24771641 0.32144514
0.031864207 0.33678415 -0.16306467 -0.32194513 -0.1353436 0.121308975 -0.3460594 -0.21943128
0.0950231 -0.02812968 0.14915922 0.28375033 0.22144309 -0.034151338 0.09423175 0.25165102
0.00016595903 -0.29360676 -0.11290646 -0.31401235 0.26114509 -0.14075674 0.27416354 0.18941094
-0.074119166 -0.14123553 0.07089363 -0.11433847 -0.030843915 0.1266072 -0.0049159504 0.22799294
0.013210889 -0.32895964 0.2376681 0.37155136 0.27557752 0.18592809 -0.24837393 0.054498557
-0.06139163 -0.2297468 0.13133726 0.1334499 -0.27791235 -0.1817174 0.35013694 0.11122659
-0.10319697 -0.25678402 -0.14591378 0.005068879 -0.19213037 -0.092867725 -0.057349365 0.25576538
0.32133815 -0.20537987 -0.033918437 -0.21374391 -0.11049089 0.31497106 0.16908827 -0.25657538
0.2814757 -0.26638368 -0.008531156 -0.24108173 0.0721811 0.12219799 -0.20706244 0.029726671
0.2728451 0.21144219 0.2179261 0.15217496 0.15440884 0.120044194 0.32580495 -0.31790408
-0.20769861 0.22468828 0.22785297 0.12850775 -0.061534323 -0.17355222 0.31084085 0.066760786
0.33586457 0.098591425 -0.10256502 -0.22037163 -0.26248422 0.35837033 0.08961136 0.017005043
0.34256294 0.20469286 0.2576639 -0.117134355 -0.17066096 -0.3217851 -0.11375441 0.2674026
-0.08075697 0.13245064 0.1196025 -0.054086365 0.23424833 0.21135287 -0.04825077 -0.3248677
-0.10539402 -0.114277795 0.32698193 -0.3093108 -0.11004588 0.05250426 -0.24017899 0.10973564
-0.29678485 0.31812936 0.07350668 0.08370791 -0.30118135 -0.0023043626 -0.30584377 0.13724579
0.021536028 0.11063342 0.28153947 0.22010672 -0.33441433 -0.045851443 -0.0116284955 -0.33895928
0.12849295 -0.22752012 -0.14849216 -0.01584385 -0.30539826 -0.024043698 0.2554363 0.006397518
-0.04533521 0.07955069 -0.011793945 -0.0031638544 0.11827154 -0.15125251 0.21674076 -0.28232265
-0.20586756 -0.29796648 0.10435492 -0.17148715 0.14429098 -0.25582892 0.15109734 -0.20053576

variational_latent.hidden_to_mu.bias f4 [15]
00000000: 52c8 04be 06ef c6bd 1ed2 f8bd 7204 10be
00000010: ea46 87bd fdcb 13be 85a2 d83d 206d 513d
00000020: afe8 c33d 80cf a93c 3d2c 44bd 6332 0a3e
00000030: 5522 0e3e bc39 f0bd 47d4 7b3d
-0.12967041 -0.09713559 -0.12149452 -0.14064196 -0.06605323 -0.14433284 0.10577873 0.05112946
0.09565865 0.020728827 -0.04789375 0.13495784 0.13880284 -0.11729762 0.06148174

variational_latent.hidden_to_logvar.weight f4 [15, 30]
00000000: e4b7 0e3c 2a2f 69be 126c 27be 0bbb 3ebe
00000010: 3bd1 e1bd 8edf b43e ef10 a13d 0098 38be
00000020: e7a4 923e 88bf 81be 3405 6bbe f020 96be
00000030: 1257 cc3d ea33 83bd 7d67 7a3e 83e1 af3e
00000040: 4534 1fbe d0c0 583e 46bc 7a3d 4265 8c3e
00000050: 66ea 23be 1394 123b 5d39 afbe 5923 843e
00000060: 026d 233e 0259 443e b084 373e 7d2b a1be
00000070: eb0f 563e f022 b7be 13a0 953e 6f0a 6ebe
00000080: ff18 7ebe 0927 38be 3c46 583e cdb1 723e
00000090: bc4c b8be a320 8bbe a76c 0ebe 2c49 88be
000000a0: 7e7f dc3c 2320 4b3e 4394 863d 4ed9 55be
000000b0: 25b3 49be 9414 da3d f03d 273e 1aa2 22bd
000000c0: a0c3 293e dc5d 4b3e 2fbe 0ebe 4e72 8ebe
000000d0: f85f 5e3e ebc2 a5be 5723 68be 11f7 533c
000000e0: aeb8 2d3d 154f 313e 6fe9 f9bc 0769 7fbe
000000f0: 873b 5dbe 2c82 60be 6981 a1be b505 9f3e
00000100: b4e4 4f3e 006b 20be 4ad0 973e fea3 64be
00000110: 3d70 2bbe a932 a3be 1cf7 383d 4c81 f93c
00000120: 5dea 82be c057 8c3e 5e40 97bc 9c45 183e
00000130: 7db7 92be 4a4f 7c3e 85b5 b23e 6582 3fbe
00000140: e588 99be 153c 57be 4088 713d 5960 4e3e
00000150: 05ae 69be de04 90be 857e 05be fd0a 863e
00000160: 811b 033e de4d 08be 4c74 f7bb a127 a13d
00000170: f895 393d af0f 4cbe 6f13 6b3e 3328 1a3e
00000180: 93d5 bd3d 447d 9ebe efa5 5f3e 2a99 d7bd
00000190: 9ada 56be ace9 cbbd 60ae a0bc 7874 023e
000001a0: a274 a33e 50de 8f3e 97e9 8d3e e91c e23d
000001b0: 9814 85be 0573 ab3d 98b5 813e 7a93 1b3e
000001c0: a59c 8e3d e967 a63c 0290 a43e a29c 6e3e
000001d0: d8cc 913d dfcf d5bc 0294 56be 8d35 153d
000001e0: 11cb 7c3e 31b6 43be 7005 64bc f40c d2bd
000001f0: 7a2e 113e fea5 5cbe 3554 5f3e f62f 8cbe
00000200: f36d d13d e7c4 1bbe 5573 323e 0ec8 6fbe
00000210: 5951 7d3e 9050 97bc 12a3 653e 90ee 6f3e
00000220: 2646 23bd 4239 a2be 3aec 44be 885f adbd
00000230: d41f 6e3e 8a97 b1be e72f 8ebe dced 2ebe
00000240: 582e b0be 4492 953e d6fa 803e 96e0 a9bd
00000250: 47fc 353e 244b b13e 9adc 0e3e 704e a1be
00000260: d598 193e e2c4 bc3d fb62 acbe d102 94bc
00000270: 7110 803e afc8 fd3d 0280 90be 8041 633e
00000280: df98 a8be 481f b83d 301f 7a3e 062f 5e3e
00000290: f1f0 94be 5724 2e3e 2f03 e93c d29d f83d
000002a0: 1cef ffbc d36f 503d 73c2 8ebd b4b3 923e
000002b0: bcdc aa3e 2bee 8fbe 2b76 813e 359d 74be
000002c0: f345 7dbe cd63 acbe 07ae 843e 971a c23d
000002d0: 4ba6 2dbe c34c c63d 1a86 3bbe 8ca5 a4be
000002e0: f90c a93e 1511 9e3e fe44 5bbd 679a 483b
000002f0: 7ef4 8fbe 6d3c d5bd 37da 89be e737 5f3e
00000300: 218b 72be c841 9fbe 8f50 5d3e ff82 b1bd
00000310: 8ff4 f93d 1acd 9abb 5bc8 e43d 5c0a 53be
00000320: aad9 a33e 5747 343e 51ea f73b 89c5 b03e
00000330: 4fb1 3dbe dcdb e73d b6a0 fabd 821d a6be
00000340: 640e 94be 4d62 8a3e 3975 c43c abde 27be
00000350: 2960 4dbd 3862 8b3e a9b3 6b3d d3e4 6a3e
00000360: 2e0e 13be ae30 b3be 070e 7cbe e407 803e
00000370: aa4d 68be 1852 a03e 1cc8 a93e c226 73be
00000380: c537 a9bd 5f07 db3d ee9c b03e 48b8 333e
00000390: c850 933d 000a abbe 23aa f1bd 8f49 f6bd
000003a0: eb4d 753e a007 26be 6733 b2be 2ecd a5be
000003b0: e643 223e 11ad 833e d419 e5bd fe94 9fbe
000003c0: ab2f e0bd fe33 9bbe 532f acbe b9bc 933e
000003d0: 2cde 513e d8c6 b53e 9eba 70be 6d17 be3d
000003e0: 10df 853e 1630 853e 1d12 80be 5119 f1bd
000003f0: bae5 31be 8242 88be ec24 76be a2be 033e
0.008710835 -0.22771898 -0.1634982 -0.18626039 -0.11026236 0.3532681 0.07864558 -0.18026733
0.28641436 -0.2534144 -0.22951204 -0.29322004 0.09977545 -0.06406386 0.2445354 0.3435174
-0.15547283 0.21167302 0.061214708 0.27421004 -0.16007385 0.002236609 -0.34223452 0.25808218
0.15959552 0.19174579 0.1792171 -0.3147849 0.2090451 -0.35768843 0.2922369 -0.23246168
-0.24814223 -0.1798364 0.21120542 0.23700638 -0.35996044 -0.27173337 -0.13908635 -0.26618326
0.026916262 0.19836478 0.065712474 -0.20883676 -0.19697244 0.10648456 0.16332221 -0.039705373
0.16578531 0.19860023 -0.13939737 -0.27821583 0.21716297 -0.32375273 -0.22669731 0.012937323
0.042412452 0.17315324 -0.030506818 -0.24942409 -0.21604739 -0.21924657 -0.31544045 0.31059042
0.20302087 -0.15665817 0.296511 -0.22328183 -0.16742034 -0.31874588 0.045157537 0.030457161
-0.2556943 0.27410698 -0.01846331 0.14870304 -0.28655615 0.24639621 0.34904113 -0.18702085
-0.29987255 -0.21019013 0.05896783 0.20153941 -0.2282029 -0.28128713 -0.13036545 0.26180258
0.1280346 -0.13310954 -0.0075517055 0.07868887 0.045309037 -0.19927858 0.22956632 0.15054397
0.09269252 -0.30954945 0.21840642 -0.105272606 -0.20981827 -0.09956679 -0.019614398 0.12739742
0.3192492 0.28099298 0.27717277 0.110406704 -0.25992274 0.083715476 0.25333858 0.15192977
0.06963471 0.02031322 0.3214112 0.23301938 0.07119149 -0.026100097 -0.20954898 0.036428023
0.24686839 -0.1911247 -0.013917312 -0.10256377 0.14177886 -0.21547696 0.21809466 -0.2738034
0.10226049 -0.15211831 0.17426808 -0.23416159 0.24738063 -0.018471032 0.22425488 0.23430848
-0.03986182 -0.3168431 -0.19230738 -0.08465487 0.23254329 -0.34685928 -0.27770922 -0.17082924
-0.34410357 0.29213154 0.25191373 -0.082947895 0.17772017 0.3462764 0.1395134 -0.31505156
0.14999707 0.0921724 -0.33669266 -0.01806775 0.25012544 0.12391793 -0.28222662 0.22192955
-0.3292913 0.089903414 0.2442596 0.21697626 -0.29090074 0.1700605 0.0284439 0.12139477
-0.031241946 0.050887894 -0.06970682 0.28652728 0.33371532 -0.28111395 0.25285468 -0.23888095
-0.24733715 -0.33669892 0.25914022 0.09477728 -0.16957967 0.0968261 -0.18312874 -0.32157552
0.3301771 0.30872408 -0.053532593 0.003060961 -0.2811622 -0.10411916 -0.26924297 0.21798669
-0.23685886 -0.31104875 0.21612762 -0.08667564 0.12204849 -0.004724157 0.11171027 -0.2060942
0.32002002 0.17605339 0.0075657745 0.34525707 -0.18524669 0.11321232 -0.122376844 -0.32444388
-0.2891723 0.27028123 0.023981677 -0.16393535 -0.050140534 0.27223372 0.057544384 0.22938852
-0.14360878 -0.34998077 -0.24614726 0.2500602 -0.22685876 0.31312633 0.33160484 -0.23745254
-0.0826259 0.10694765 0.34494728 0.17550766 0.07193142 -0.33406067 -0.11800029 -0.12025749
0.23955505 -0.16213846 -0.34804842 -0.32383102 0.15846214 0.25717977 -0.11186567 -0.3116836
-0.10946592 -0.30313104 -0.33629856 0.2885492 0.20494908 0.35503268 -0.23508689 0.09281812
0.26146746 0.2601325 -0.2501382 -0.11772407 -0.1737279 -0.2661324 -0.24037522 0.1286569

variational_latent.hidden_to_logvar.bias f4 [15]
00000000: b3d8 213d 70ab 37bd 4efd 36bd b275 963d
00000010: 820c f4bd 68a6 903d 2735 2e3d 91af 2abc
00000020: e2e1 01bd b1e1 aabd e600 dd3d 0d16 b5bd
00000030: 2bdc 5b3d f42c 8f3d 11fc 7dbd
0.0395133 -0.04484123 -0.044675164 0.07346667 -0.11916448 0.070629895 0.04253116 -0.010417835
-0.03170956 -0.083438285 0.10791187 -0.088420965 0.053676765 0.06990996 -0.062007967
