models/20200923_173706/epoch_0400_loss_337485.59131.pt (torch, 232273 bytes, 96 tensors)

encoder.model.weight_ih_l0 f4 [120, 3]
000000 b9 d4 e4 bd 41 3c 71 bd 8f b7 22 3e a1 57 e1 bd
       -0.11173386 -0.058895353 0.15890335 -0.11003042
000010 bc 36 ac 3d 4c 51 00 be 18 fd 4f 3d 72 b3 0c be
       0.08408877 -0.12531012 0.05077848 -0.13740328
000020 38 35 7a bd 34 5e 34 bd b7 ae c1 3d c4 5b cb bd
       -0.06108591 -0.04403515 0.09457152 -0.09929612
000030 4e 6e 6b bd f8 0a b5 3d 26 43 65 3e 82 ea b4 be
       -0.05747824 0.08839983 0.22388896 -0.35335165
000040 23 26 ae bd a0 15 84 be dd 0b cd bd 42 16 23 be
       -0.08503368 -0.2579775 -0.10012028 -0.1592646
000050 4e 5b f9 bc e4 6a 90 3c 6b f7 98 3c c8 57 4e be
       -0.030439045 0.017629094 0.018672666 -0.20150673
000060 7d 87 72 3c fa 48 12 be 61 c2 87 3d 3f 13 d6 bd
       0.014802811 -0.14285651 0.06628872 -0.1045289
000070 e3 b1 28 be 45 61 cd bd 9f 99 5a be 3d af 16 be
       -0.16474108 -0.10028318 -0.21347664 -0.14715286
000080 5a 25 0b 3d 70 1b 06 be 0e a0 1f 3e e7 53 17 3e
       0.033971168 -0.13096404 0.155884 0.147781
000090 be fd 4c be ee b7 91 bc d0 1a 1b be 18 83 8c be
       -0.2001867 -0.0177879 -0.15146947 -0.27443767
0000a0 68 15 08 3e ac 8c 74 3e 72 b3 b8 bc af 58 05 bd
       0.13289416 0.23881787 -0.022546504 -0.03255528
0000b0 19 59 75 ba 27 52 58 be 17 94 39 bd 03 85 df bd
       -0.0009359285 -0.21125089 -0.045307245 -0.10914042
0000c0 56 35 08 be e4 fb 95 3c 43 dc 15 3e d4 ac 39 be
       -0.13301596 0.018308587 0.14634804 -0.18132335
0000d0 2e c0 d2 3d 03 d2 5f bc 67 65 e4 bd 06 d7 dd bd
       0.102905616 -0.013660911 -0.111521535 -0.10832028
0000e0 13 9c 14 3e 18 25 53 be 1b c2 3e 3d 89 ac c9 3d
       0.14512663 -0.20619619 0.046571832 0.098473616
0000f0 75 e2 c5 3d 92 0b 4b be cb 8f 87 bd d2 62 15 be
       0.09662334 -0.19828632 -0.06619223 -0.14588478
000100 10 ae ba 3c f4 3b 8c bd f8 48 0d be 20 25 ce 3d
       0.022788078 -0.06847373 -0.13797367 0.10065675
000110 09 52 0c be 95 b6 24 be 30 74 5d bd e3 be 9a 3d
       -0.13703169 -0.16085275 -0.054065883 0.0755594
000120 bd 13 dc 3d 29 b3 0d 3d 76 b2 be 3d da a6 4e 3d
       0.10745952 0.03459469 0.093113825 0.05045209
000130 10 55 18 be 55 97 7a bc 2c 5a 99 3d af 53 26 3d
       -0.14876199 -0.015294869 0.07487902 0.04060715
000140 5d eb 13 3d b5 2a 05 be dc 5d 87 bd e5 18 ec 3d
       0.03611313 -0.13004573 -0.06609699 0.11528186
000150 cc 93 bc 3d 4a 1f 84 3d 2c 9a 07 bc b0 1a 5b be
       0.092078775 0.064512804 -0.0082765035 -0.21396899
000160 ae 67 13 be e7 29 86 3d d2 b5 0d be 7f e5 93 bb
       -0.1439502 0.06550961 -0.1383889 -0.004513442
000170 82 1b 44 3e cc 0c 0c be c2 02 a9 bd 11 4b 09 3e
       0.19151118 -0.13676757 -0.08252479 0.13407542
000180 12 88 85 bd 58 b2 20 be 58 48 bc 3a 1d 20 3f bd
       -0.06520094 -0.15693033 0.0014364822 -0.046661485
000190 59 1d 71 3d 77 d5 25 bd 0d 67 fd 3d 35 95 7b bd
       0.05886588 -0.04048678 0.12373171 -0.06142159
0001a0 e9 b3 43 3e c4 5d 4c be fb 0c 88 bc b3 8b 86 be
       0.19111599 -0.19957644 -0.016607752 -0.26278457
0001b0 af ba bb 3c f4 50 ea bd a9 88 ec 3b e3 9f ea 3d
       0.022916166 -0.11441222 0.0072184396 0.11456277
0001c0 c2 95 04 be d1 49 ab bd 43 1b 6c 3c ba 45 61 3e
       -0.12947753 -0.08363689 0.014410797 0.21999255
0001d0 0e 90 75 3e 11 18 bc bd 1e a7 e0 bd 95 8d 71 3e
       0.23980734 -0.09184278 -0.10969375 0.23589166
0001e0 27 80 e8 3d 2b d9 d7 bc 91 b5 ef bd 0c e3 43 be
       0.11352568 -0.026348671 -0.11704553 -0.1912958
0001f0 3a 09 0d be 3b bc 97 bc 25 0b 57 be da 7d 35 be
       -0.13773051 -0.018522372 -0.21000345 -0.1772379
000200 73 ef 08 be 23 01 ba 3d 2c 96 20 3e 04 d8 8e bd
       -0.13372593 0.09082248 0.15682286 -0.069747955
000210 3c 02 14 3c 99 44 ef 3d d2 09 3d bd fd 75 42 3e
       0.009033736 0.11683006 -0.046151944 0.18990321
000220 65 d8 cc bd 3a 4b 28 3d 79 c4 e7 bd f3 89 d4 bd
       -0.100022115 0.041087367 -0.11316771 -0.10377874
000230 b5 df 06 ba 8d d7 84 bd ce 97 80 bd cf 1d 33 bd
       -0.0005145029 -0.064864255 -0.062789544 -0.0437296
000240 48 72 33 3e 58 3d 88 3d c5 ae c0 bd a9 d7 c0 bc
       0.17524064 0.066523254 -0.09408335 -0.023540335
000250 0a d0 e0 3c 1c 7d 0c be 5b 0b ab 3d cb 9c 20 be
       0.02744295 -0.137196 0.08351775 -0.15684812
000260 d4 66 29 3e 35 a7 bc 3b f4 a2 ff bc 3e be df 3d
       0.16543132 0.0057572373 -0.031205632 0.10924958
000270 67 ea 15 bd 6a 24 bd bc 28 7e ba 3d 27 f5 30 3e
       -0.036600497 -0.023088653 0.09106094 0.17281018
000280 86 47 21 be e3 41 f3 3d 13 1f 6d 3e 5f f7 ac 3c
       -0.1574994 0.11877801 0.23156385 0.02111405
000290 4b cd 4b bd 3a 61 5a bd 50 63 64 bd 7e f3 68 3e
       -0.04975633 -0.05331538 -0.055758774 0.22749135
0002a0 4c fc d1 3d cc ee 21 3c 4f 6f 1a 3d ef f3 81 bd
       0.102532 0.009883594 0.03770381 -0.06345355
0002b0 4f 7f 9b 3d ae cb 15 3c 86 31 77 bd f9 a4 ab bd
       0.075926416 0.009142799 -0.060349964 -0.083810754
0002c0 65 92 4d bd ca ee cc 3d b8 9e 87 bd 5a fc a8 3c
       -0.05018844 0.10006483 -0.0662207 0.020628143
0002d0 0a c2 3f 3e 52 99 3b be 81 86 56 3d a6 71 44 bc
       0.18726364 -0.18320206 0.052374367 -0.0119899865
0002e0 9b 49 10 3e 97 c7 82 3b 44 c8 91 3c fa a0 da 3c
       0.14090578 0.003991078 0.01779569 0.026688088
0002f0 b6 82 22 3e 5d 28 a6 bd 0d 68 f7 bb 3c 36 16 bc
       0.15870175 -0.081131674 -0.0075502456 -0.009168204
000300 e6 fe ab 3c 59 e3 ca 3c 2a b2 46 3e 1b c2 00 3e
       0.020995568 0.024766611 0.19403902 0.12574045
000310 87 02 18 be a6 e5 16 3e 6a 02 73 bb 47 fe bf bd
       -0.14844714 0.14736041 -0.0037080296 -0.093746714
000320 45 16 c3 bd ca fc ac 3d e1 50 3d bd 5e ee 24 be
       -0.09525732 0.08446653 -0.04621971 -0.16106555
000330 60 67 91 3d c1 a9 83 bc ef ea 2d 3e 6d 49 1b bd
       0.07099795 -0.016072156 0.16984151 -0.03791182
000340 2d 5d 1a bc 84 6d 85 3e c7 6e 11 3d 4d 30 d5 bd
       -0.009421629 0.26060116 0.035506036 -0.10409603
000350 ec bc 16 bc b5 47 7f bd e7 b7 9d bd 3b 3c f8 3d
       -0.009200316 -0.062324245 -0.07701092 0.12120863
000360 da 57 22 3e a3 0f f4 bd a1 93 a2 bb 39 a3 51 3e
       0.15853825 -0.11917045 -0.0049614464 0.20472421
000370 46 f4 66 3c 9b c3 eb bc d0 26 c6 3d 5c 4b 56 bd
       0.014096325 -0.028779795 0.09675372 -0.052317962
000380 84 19 36 be 77 b9 e7 bc e2 e2 32 bd 03 c1 3d be
       -0.17783171 -0.028286679 -0.043673404 -0.1853066
000390 aa 21 9f 3c ec df d0 3d 41 a9 6f 3e 1e ae 83 bd
       0.019425232 0.1019896 0.23404409 -0.064296946
0003a0 ff 67 17 3e ed 24 73 be 4e 8d bf bc a4 a1 11 3d
       0.14785765 -0.23744555 -0.023382809 0.035554543
0003b0 d1 71 1b 3e 90 31 1b be 9f 60 cb 3d 11 5e a5 3c
       0.15180136 -0.15155625 0.099305384 0.020186456
0003c0 94 d8 09 3d fa d1 5a bd 45 ae 7b 3e 14 af f0 3d
       0.03365381 -0.053422906 0.24578197 0.117521435
0003d0 13 c8 b4 3d eb 5b 90 bd 85 76 15 bd 32 4a 06 bd
       0.08827224 -0.07048782 -0.036489982 -0.032785602
0003e0 e8 c4 1e be 7e a5 66 3c d5 a3 cc 3b 49 d9 70 be
       -0.15504801 0.014077542 0.0062451162 -0.23520388
0003f0 df c8 ee bd bc 26 02 3e 39 3e 36 3e 82 4c 49 be
       -0.11659407 0.12710088 0.17797174 -0.19658092

encoder.model.weight_hh_l0 f4 [120, 30]
000000 5e ea 15 3d b8 d8 5c 3e e3 2e ec bd 1e 11 da bd
       0.036600463 0.21567047 -0.115323804 -0.10647796
000010 f8 bb 2c 3e 15 43 e7 bd 14 9e c4 bd 8b 62 b6 3d
       0.1686858 -0.11292092 -0.096004635 0.08905514
000020 1d 36 dd 3d 64 f7 d7 bd a7 e2 8a bd 83 7c 3d be
       0.10801337 -0.10545233 -0.06781512 -0.18504529
000030 81 42 2d 3d 49 80 6c 3d 0d 51 c8 bc 9e d6 9a 39
       0.04229975 0.05773953 -0.02445271 0.0002953307
000040 e9 e7 cd 3d 96 93 51 3e 8f 5a 97 3d 09 6c f3 bd
       0.10053999 0.20466456 0.073903196 -0.118858404
000050 96 36 b0 3d c5 86 9b 3e 5f 40 1a bc 09 66 07 be
       0.086041614 0.30376258 -0.009414761 -0.13222517
000060 cf d9 24 3e a2 07 ca bd ff c5 17 be c7 65 e7 3d
       0.16098712 -0.09864737 -0.14821623 0.11298709
000070 69 ca ad bd c4 7f 2a 3d 14 bd 02 3e 94 4e 05 be
       -0.08485872 0.041625753 0.1276744 -0.13018256
000080 73 c1 0d 3e 7f ef f8 3d 18 ae e0 bb e8 de f2 3d
       0.13843326 0.12155055 -0.006856691 0.11858922
000090 5a b5 8f 3b 6f d4 ce 3d 0b 5f 62 3d 92 e2 6c 3d
       0.0043856325 0.10099112 0.05526642 0.05783326
0000a0 34 cd 59 3e 3e 63 f2 3d 9f 3c 2c bd 48 1e f6 bd
       0.21269685 0.11835335 -0.04205 -0.120174944
0000b0 e9 e5 10 3b 88 21 d6 bc ca 3b 0d 3e d2 a8 9c 3d
       0.0022109693 -0.026139036 0.13792339 0.076493874
0000c0 1d bd 9e 3d c8 4f d3 bd d4 f3 56 3e 0c 37 ab 3d
       0.07750914 -0.103179514 0.2099145 0.08360109
0000d0 b7 0e f5 3d 95 a7 58 be d8 e0 2a 3e df ed 9a bd
       0.11965697 -0.21157677 0.16687334 -0.075649016
0000e0 76 37 29 3e 75 1e 75 be 11 af 95 3d 31 fa 97 bd
       0.16525063 -0.239374 0.07308782 -0.07420767
0000f0 65 c7 a2 bd 87 55 89 bd 8c 28 07 be 2a 3a 82 bd
       -0.07948188 -0.06705766 -0.13199061 -0.0635875
000100 82 94 8f ba b7 18 45 be 59 f0 87 bd fe 9d 4f 3e
       -0.0010954293 -0.19247709 -0.066376396 0.20275113
000110 42 b3 bf bd 4b 1c 27 bc 92 c4 0f bd 34 c3 02 3e
       -0.093603626 -0.010199617 -0.035099573 0.12769777
000120 d3 2b 2c be ef e3 17 be 56 29 5c 3e c9 32 b5 bd
       -0.16813593 -0.14833044 0.21500143 -0.08847577
000130 3a 61 54 3d fb a5 09 3d 63 c2 ba 3d 29 6e 29 3e
       0.051850535 0.033605557 0.091191076 0.16545929
000140 df 6e c0 3d 2f eb 34 3d 6a 92 49 3e e1 14 81 3d
       0.09396147 0.0441696 0.19684759 0.063028105
000150 00 e2 c4 3d 94 63 0c 3c 04 97 c0 3b 44 0a 6a bd
       0.096134186 0.008568663 0.0058773775 -0.057138696
000160 88 39 0c 3e 68 8b 3f 3c 73 08 e7 3d a9 61 10 be
       0.13693821 0.011690952 0.112809084 -0.14099754
000170 c7 25 26 be 87 f6 7d 3e 33 b8 7a 3e 3b 30 8f bd
       -0.16225348 0.24801074 0.24484329 -0.06991621
000180 40 00 f0 bd 51 08 10 bd e5 9e a9 3d bb ba df 3d
       -0.11718798 -0.03516418 0.0828226 0.10924288
000190 ad ec e6 3d f2 59 db 3d 5f 40 ab bd 8f ac 18 be
       0.11275611 0.10710515 -0.08361887 -0.14909576
0001a0 b9 bb c9 3d ef 7c 00 3e 79 7b ad 3b 24 15 05 3e
       0.098502584 0.12547658 0.00529426 0.12996346
0001b0 34 9f 1e 3e 43 d6 4e 3e f4 7c bf bd 07 c6 5d be
       0.15490419 0.20198922 -0.09350005 -0.21657573
0001c0 97 3e 86 3d 6b 53 4a bd ac ff 18 3e b0 fa 0d 3e
       0.06554907 -0.04939596 0.14941281 0.13865161
0001d0 b9 35 21 be cf 6c 93 bd d4 ba 61 3e 96 7e f3 3b
       -0.1574315 -0.07198488 0.22043926 0.0074308617
0001e0 37 3f 12 be cd ef f3 3b af 4a f5 3d 9e 8b 01 3e
       -0.14281927 0.007444358 0.119771354 0.12650916
0001f0 a7 4c 85 3a 49 2b 90 bd 59 d7 23 3e 15 86 cd bd
       0.0010169939 -0.07039506 0.16000117 -0.1003534
000200 e2 5d 09 3e d9 0c d7 3d b2 38 e8 bd 36 26 ea 3d
       0.1341472 0.10500497 -0.11338939 0.114330694
000210 37 d7 bf bd 62 84 3b be 9f dd 83 3e 89 ee 95 bd
       -0.09367221 -0.18312219 0.2575502 -0.073208876
000220 d2 1a a7 3d 6a e9 e0 3c 77 47 cd 3d 49 32 a5 bd
       0.081594124 0.02745505 0.100233965 -0.08066232
000230 5d 3b 55 3e 11 3c d8 3d 15 2d 3c 3e 4d 50 80 bc
       0.20823427 0.10558332 0.18376572 -0.01566329
000240 f1 15 1b 3e be dc 02 3d c7 ab 09 be 2c bf 0e be
       0.15145089 0.031948797 -0.13444434 -0.13940114
000250 40 0b 87 3e 03 36 3e 3e bf d9 2a be e1 fc 3d be
       0.2637577 0.18575291 -0.16684626 -0.18553497
000260 4d b6 23 bd b1 a4 d1 bb 88 a7 7d 3d f4 8b 1c 3e
       -0.039968777 -0.0063978066 0.06192735 0.15287763
000270 33 fd f2 bc 45 49 68 bd 11 00 a6 bd 9f cd 42 3e
       -0.02966175 -0.0567105 -0.081054814 0.1902375
000280 70 91 a2 bc cd f5 0b be eb b3 2e 3e f4 7e 47 be
       -0.01984474 -0.13667984 0.17060821 -0.19482023
000290 7d 3f 09 3e 9f 12 27 be 5b 80 e8 3b 62 f9 56 3c
       0.13403125 -0.16315697 0.0070953793 0.013120981
0002a0 1d eb 0a bc 54 10 04 3e 27 4c 85 3d a6 5d d3 bd
       -0.008478907 0.12896854 0.065086655 -0.103205964
0002b0 47 55 e0 bd 79 a2 5b 3d 21 ef d3 3d b3 64 53 3e
       -0.10953765 0.053621743 0.103483446 0.20643882
0002c0 c4 08 b8 3c d0 4f 05 3e 0e ee 15 3d 75 34 7e 3e
       0.022465117 0.13018727 0.03660398 0.24824698
0002d0 32 68 2f 3e f1 87 4e be 19 35 99 3c d3 5b 43 3d
       0.17129591 -0.20169045 0.018702077 0.047694992
0002e0 39 8b 3f 3e 31 7e 2f 3c 1c d4 15 be 95 e0 1d be
       0.18705453 0.010711239 -0.14631695 -0.15417702
0002f0 42 cb 16 bd d6 83 12 bd a8 e1 55 3d 68 69 07 3d
       -0.036814936 -0.03577026 0.052217156 0.033059508
000300 f1 52 5e bd 6b 99 b8 bd 0c a3 e5 3d f3 bd 09 be
       -0.054278318 -0.09013637 0.11212739 -0.13451366
000310 2c 0b 55 be d5 e8 24 3d e2 e1 15 be 54 cd dc bd
       -0.20805043 0.04026111 -0.14636949 -0.10781351
000320 65 e4 db bd 6b 8e d6 bd b2 a7 82 bd 3e e1 01 3e
       -0.10736922 -0.10476383 -0.063796416 0.1268358
000330 ad 9d e1 3b 51 a7 d9 3d 7c 1e 58 3e f2 1f da bc
       0.0068852515 0.10627616 0.21105379 -0.02662656
000340 f8 40 1d be b9 15 2d be 7a a6 39 3e b1 18 07 be
       -0.15356815 -0.16902818 0.18129912 -0.13193013
000350 b4 a1 96 bc e0 99 b7 bc bf 47 43 bd b7 2e 25 bc
       -0.018387653 -0.02241224 -0.047675844 -0.0100819385
000360 78 d6 0b 3e 84 1d 02 3e 50 bd 34 3d 98 9e 7d 3d
       0.13656032 0.12706572 0.044125855 0.061918825
000370 cc 59 d5 3d 2f 66 6b 3d 86 0c 31 3e 27 37 d7 3c
       0.10417518 0.057470497 0.17289934 0.026271416
000380 93 42 d2 3c f6 13 4a 3e 82 27 30 3d 97 75 ce 3d
       0.02566651 0.19734177 0.043006428 0.10081022
000390 7a 04 52 be 2a 53 f7 bd 7c 42 9a 39 72 50 c6 bc
       -0.2050952 -0.12076409 0.00029422704 -0.024208281
0003a0 c5 c5 9e bd 4d 26 28 3d e7 ee 06 be 21 3b 01 3e
       -0.07752565 0.04105215 -0.13177072 0.12620212
0003b0 ab 08 a2 bd 02 e8 5b bd 5d 7d 09 3e 6c e3 8d 3c
       -0.079118095 -0.053688057 0.13426729 0.017320357
0003c0 00 7b 7d be 81 e0 86 bb c3 9d c2 3d 78 1e 4b 3e
       -0.24753952 -0.0041161184 0.09502747 0.19835842
0003d0 f5 d6 c1 3d 4e 52 ae bd 31 ad bd 3d 30 c5 5e 3e
       0.09464828 -0.08511792 0.09261549 0.21754909
0003e0 48 cb 35 3e 4f 58 40 3e a0 ed 18 3e 2a c4 5b bd
       0.17753327 0.18783687 0.14934397 -0.053653874
0003f0 f9 ec f7 bc a9 32 7a be 81 d6 80 3e 3a da 76 be
       -0.030264365 -0.24433388 0.25163653 -0.24106684

encoder.model.bias_ih_l0 f4 [120]
000000 e9 89 09 be 9f 4e ac bd 77 9f 12 bb 86 0e 23 bd
       -0.13431515 -0.08413433 -0.002237288 -0.039808773
000010 2e 50 23 3d ea 56 41 3e 56 3e cd bd f5 65 1d be
       0.039871387 0.18880811 -0.10021655 -0.15370925
000020 a4 08 4d 3e 7a 01 4e 3e 69 89 de bc df ba 0f 3e
       0.20022827 0.20117751 -0.027165132 0.1403613
000030 c4 dc 93 bd 45 08 76 3e a7 db 65 3e b2 8e 43 bd
       -0.07219842 0.24026592 0.22447072 -0.047743507
000040 43 8d ca 3b 44 0a 83 3e f9 41 17 3e 4c cd 14 3e
       0.0061813905 0.2559377 0.1477126 0.1453144
000050 e7 02 42 3e 08 5c 58 bd fe 36 b5 3d ec 6c 96 3d
       0.1894642 -0.052822143 0.088483796 0.07344994
000060 be c6 d7 3d 0e 1b 16 3e c3 98 68 3d 7d a2 7c bd
       0.10535954 0.14658758 0.05678631 -0.0616784
000070 e1 a6 55 bd 0c c9 4f 3e 65 83 35 3e 68 97 78 bc
       -0.0521611 0.20291537 0.17725904 -0.015172817
000080 e3 d1 bd bd 0c fb b9 bd 53 1b 72 3e 8d e9 97 3b
       -0.09268548 -0.090810865 0.23643236 0.0046359957
000090 0b 36 ba bd 45 9f 3a 3d 7a 6d c5 3d 79 60 03 bc
       -0.09092339 0.045562048 0.096400216 -0.008018606
0000a0 2c 3e 7a 3e 4f 48 45 3e 07 fa 9e 3c 9e d8 eb 3d
       0.24437779 0.19265865 0.019406332 0.11515926
0000b0 b5 ca 0b bd 2d b8 a3 3d a7 06 16 3e 7f cd 05 3e
       -0.034128863 0.07994113 0.14650975 0.13066672
0000c0 7b 6b 2c 3e 33 d7 94 3d 12 97 be bc 09 0e 9d 3c
       0.16837876 0.072676085 -0.023265395 0.019171732
0000d0 f5 b1 c5 3d ae b6 d2 3d c0 7f 1f bd cc 94 65 3e
       0.09653083 0.1028875 -0.03894019 0.22420043
0000e0 b3 f1 53 bd c3 a6 f4 3b df d4 15 bd 70 d9 9e bd
       -0.051744174 0.0074661686 -0.036579963 -0.07756317
0000f0 84 42 1c be c5 ba 52 bd 83 12 26 3c 70 9c 0f 3e
       -0.15259749 -0.05144765 0.0101362495 0.1402452
000100 87 05 91 bd a3 8d eb 3d 58 1f b0 bd 12 24 19 3e
       -0.070811324 0.115016244 -0.08599728 0.14955166
000110 63 59 09 3e 7c 6f 71 3e a7 fb 5d 3d aa 96 2b bd
       0.13413005 0.23577684 0.054195073 -0.04189173
000120 a9 af ae 3c d4 ea 73 be 92 a7 fa 3d 6f 46 76 be
       0.021323996 -0.23820049 0.12238993 -0.24050306
000130 86 8e 22 3e e6 17 8e 3d 4a ac 12 3e 82 8f 93 3d
       0.15874681 0.06938152 0.14323536 0.07205106
000140 ac 43 76 3e 74 a5 fc bd 06 de 32 3e 0e 35 3c be
       0.24049252 -0.12336245 0.17467508 -0.18379614
000150 4f 85 c9 bc 2b b0 06 3e 4c 68 d9 3c ce 88 19 be
       -0.0245997 0.1315314 0.02653899 -0.14993593
000160 8c 93 15 bd 60 8a 50 3d a8 87 0c bb 7b 1e 32 3e
       -0.036517665 0.050913215 -0.0021443162 0.1739444
000170 64 a3 b9 bd 3a d4 31 3e 17 cb 17 3e 2c d2 88 3d
       -0.090643674 0.17366114 0.14823566 0.06680712
000180 c7 c4 66 3d f5 d6 c6 bd 96 63 69 bd f4 42 65 3e
       0.056340005 -0.097089685 -0.05697974 0.22388822
000190 c5 6a e9 bd fd 39 82 3d 0a d6 90 bd 98 2f 58 3e
       -0.11397318 0.06358717 -0.07072075 0.21111906
0001a0 0c 82 dc 3d 03 ed a2 bd e6 8d 0e 3e 36 48 00 bd
       0.10766992 -0.07955363 0.13921317 -0.031318866
0001b0 59 77 d1 3d 39 33 08 bc 7d eb 75 3e bf 95 22 3e
       0.10227842 -0.008312994 0.24015613 0.15877436
0001c0 0b 72 a2 3d ec d9 16 3e 6b e9 40 3d d2 a3 0f 3e
       0.07931908 0.14731568 0.047097605 0.14027336
0001d0 03 dd f9 3d b0 bb 84 3e bc 95 a6 3c 7b 21 1e 3b
       0.12200358 0.25924444 0.02033507 0.0024128843

encoder.model.bias_hh_l0 f4 [120]
000000 74 6e 51 3e f1 2e 2f 3d 15 35 10 be 8c 0f 75 3d
       0.20452291 0.042769376 -0.14082749 0.05982928
000010 d3 61 88 3e 92 95 e9 3d fe 7e e4 3d b7 e9 ee 3d
       0.26637134 0.114054814 0.11157034 0.11665671
000020 41 2f 1e 3e 6f 3c 3c 3e 41 52 51 3c 4f eb 4a 3e
       0.15447713 0.18382429 0.0127759585 0.19816326
000030 b1 d7 3f bd a9 0b 45 3e ad a7 fd 3d b6 79 e8 3d
       -0.04683656 0.19242729 0.12385497 0.113513395
000040 da b8 07 bd 76 be 1b 3e 24 a7 95 bd 0f 17 16 3d
       -0.033135273 0.15209374 -0.0730727 0.036643084
000050 6a c6 17 3e ce 3d 8f 3d 39 0f ff bd ee b7 2b bd
       0.14821783 0.0699421 -0.12454075 -0.041923456
000060 a7 26 3c 3e c2 e0 9e 3d 1e d0 0b be 01 e9 a4 3d
       0.1837412 0.07757713 -0.13653609 0.080522545
000070 e7 27 26 3e 69 4a 7f bd 99 0a 4e 3d 54 44 9d bd
       0.16226159 -0.062326822 0.050303075 -0.07679048
000080 ec 45 46 bd 76 c3 df bd 4d 0a e5 3d 95 27 b9 bd
       -0.048406526 -0.10925953 0.11183605 -0.09040753
000090 ff 9a 8b 3d 9b 25 39 bd c9 28 0e 3e f1 52 47 3e
       0.068166725 -0.04520188 0.13882746 0.19465233
0000a0 3a 4f 5c 3e 64 7e fb 39 85 fd 56 3c 2c 04 71 bd
       0.21514598 0.0004796862 0.013121967 -0.05884187
0000b0 b9 c2 3b 3e b0 79 14 3e 49 65 26 3e 46 0d 30 3d
       0.18336 0.14499545 0.16249575 0.04298141
0000c0 ae 0e 95 3c 85 e0 81 bd 64 14 d1 bc 02 5f 42 3e
       0.018195476 -0.06341652 -0.025522418 0.18981555
0000d0 4c 71 33 3e 3e 61 3f bd ce 85 23 be 85 ed 71 3d
       0.17523688 -0.046723597 -0.15969011 0.059064407
0000e0 30 7b af bd ce 86 c5 3d 1f db ca bd f9 df e6 bd
       -0.08568418 0.096448526 -0.09905075 -0.11273188
0000f0 da a0 c9 3d 64 bb 6b be f7 ba 2a 3e ca 75 87 3d
       0.09845133 -0.23020703 0.16672884 0.06614263
000100 80 2d 2b 3e b1 36 61 3e 45 03 26 3e ac 9a 0e 3d
       0.16716576 0.2199352 0.16212185 0.034815475
000110 e3 fc f8 3d 89 19 37 3e a9 f9 00 bc b6 b3 2a be
       0.12157609 0.17880835 -0.007872024 -0.16670117
000120 f9 09 10 3e cf 90 88 be e9 a6 1c 3e a8 6f 66 be
       0.14066304 -0.2667298 0.15298046 -0.22503531
000130 f0 b3 bd bd 94 55 76 be f3 ae 11 3e 21 b4 0a 3e
       -0.09262836 -0.24056083 0.14226894 0.13545276
000140 03 bf 02 3e 50 be 3d be 5a 97 33 be 51 98 fe 3b
       0.12768178 -0.1852963 -0.17538205 0.0077696224
000150 ab 48 68 3d 7d 18 06 3e 82 ad 40 3d b5 48 7e be
       0.056709927 0.13095279 0.04704047 -0.24832423
000160 ab e3 67 3e 03 b3 2c 3e ab a1 26 3d 27 fb b9 bd
       0.22645442 0.16865163 0.040681522 -0.09081107
000170 d7 29 40 3e e6 74 02 bd 42 25 1b 3d ba e5 53 3e
       0.1876596 -0.031849764 0.03787733 0.20693102
000180 a8 d5 90 bd 5e c8 4b 3d 3a e6 d6 3d 81 5d 88 3e
       -0.07072002 0.049751632 0.10493131 0.26633838
000190 ff 22 46 bd 56 c8 a4 bd 71 8c 2f 3e 35 af 30 bc
       -0.04837322 -0.080460235 0.17143418 -0.01078396
0001a0 ae 3a ca 3d 1c 2f 3d 3d dc 3c 09 3d b7 94 42 bd
       0.098744735 0.046187505 0.033505306 -0.047505107
0001b0 38 38 d7 bd 08 44 a7 3c 3a 24 ee 3d 4c a7 a0 3d
       -0.1050877 0.020418182 0.116280034 0.07844409
0001c0 68 00 af 3d 7b 44 7c 3e a6 27 9f bd 4d 3d 3c 3e
       0.08544999 0.24635498 -0.07771234 0.1838276
0001d0 12 16 2a be 50 89 14 3e 84 cf 93 3d 35 a7 7b 3b
       -0.16609982 0.14505506 0.07217315 0.0038399224

encoder.model.weight_ih_l1 f4 [120, 30]
000000 17 79 fb bd 26 b0 59 3d 5c a7 fe bd 25 fe d9 bd
       -0.122789554 0.053146504 -0.12434265 -0.10644177
000010 a9 e3 6a 3e 65 ce 1c be 9e b7 51 3e b0 0a f7 3c
       0.22938408 -0.15313108 0.204802 0.030156463
000020 f7 5f 15 bd d1 dd 1d 3e ec d9 fc 3d 87 d9 12 bd
       -0.036468472 0.15416647 0.12346253 -0.03585198
000030 4c 9f 9b bd 03 71 93 3c d7 d0 e5 3d 9a e1 9b 3d
       -0.07598743 0.017998224 0.11221474 0.076113895
000040 35 70 87 bd d5 ad 45 be 9b 59 9a bc 4c 18 52 3e
       -0.06613199 -0.19304593 -0.018841555 0.20517081
000050 ce b0 da bd 73 ed fd 3d 9f 56 d7 3d c8 86 12 3e
       -0.10678254 0.123988055 0.105145685 0.14309227
000060 7e 88 37 3d 9d 06 10 3e 60 42 25 be 94 5c e8 3d
       0.044807903 0.14065023 -0.16138601 0.11345783
000070 07 a3 f0 3b 7b 2c a5 bd 5c 92 b2 bd 90 48 e6 3d
       0.007343653 -0.080651246 -0.08719322 0.11244309
000080 df eb c0 bd d8 85 27 3e 2a 1c 7f 3e 22 1d 12 be
       -0.09419989 0.16359651 0.24913087 -0.14268926
000090 64 60 39 3e 86 21 fc 3d 87 cb b6 bd f4 55 b6 bc
       0.18103176 0.123110816 -0.089255385 -0.022257783
0000a0 1c 75 f1 bc 84 71 a0 bd e7 ab 7e bc 72 76 80 3c
       -0.029474787 -0.078341514 -0.015543914 0.01568148
0000b0 b4 07 a5 3d 43 f9 29 be 58 c9 3e 3e 68 7d 4f be
       0.0805811 -0.16598992 0.18631494 -0.20262682
0000c0 a3 83 6e 3d 93 2d f7 3c 33 9c c9 bd 40 6c 8b 3c
       0.058231007 0.030173099 -0.09844246 0.017019391
0000d0 2c 86 f8 3d ae 67 02 3e 0e b6 eb bb f1 c8 26 3e
       0.12134966 0.12734863 -0.0071933335 0.1628759
0000e0 a8 82 a1 bd 90 d2 51 bd 51 2e 3a 3e 11 2b cc 3d
       -0.07886249 -0.0512262 0.18181731 0.09969152
0000f0 06 5c d2 3d 4b 6f 9f 3d 31 20 02 be 79 6e 66 bd
       0.10271458 0.07784899 -0.12707593 -0.0562577
000100 26 02 62 3e 0b d9 ec 3d ba d0 72 3c 36 14 9d bc
       0.22071132 0.11564835 0.014820272 -0.019174676
000110 4b 50 c7 3c 4e 67 06 be 56 10 6a 3d d4 db 1c be
       0.024330279 -0.13125345 0.057144485 -0.15318233
000120 a1 b8 46 3e 1a 99 37 be 9d 8a 8d bb a7 43 92 bd
       0.19406368 -0.17929497 -0.0043195025 -0.0714181
000130 66 34 15 be 31 c7 93 bd 30 fa 80 bd 5e 43 8d bc
       -0.1457077 -0.07215727 -0.062977195 -0.017244037
000140 1a 55 01 3e 21 96 15 be 3d 8c ac 3c 5b 57 b3 3d
       0.1263012 -0.14608051 0.021062965 0.08756896
000150 16 d7 e6 bc af 24 1d 3d 96 ef 38 3e 1d 78 f5 bd
       -0.028178733 0.038365062 0.18060145 -0.119858004
000160 2d d0 19 3e 04 cd 9e 3d c1 95 14 3d 3a 39 11 be
       0.15020819 0.077539474 0.03627563 -0.14181986
000170 ef 79 4f be 5b 32 01 be 97 b7 f1 3d cb f3 23 be
       -0.20261358 -0.12616865 0.11802595 -0.16010968
000180 16 77 f4 3d a3 b5 aa 3d 74 83 88 bc 6d 5b 8f 3d
       0.11936776 0.08335426 -0.016664244 0.0699986
000190 61 8d 55 3e e5 87 07 be 50 28 42 3e ab 9c e3 3c
       0.20854713 -0.13235433 0.1896069 0.027784666
0001a0 09 fe ca bd e6 63 db 3c 70 cf 1e be 17 04 6a bc
       -0.099117346 0.026781034 -0.15508819 -0.014283202
0001b0 6f 89 2b 3d 95 b4 f1 bc c8 b7 ce 3c 02 5c 90 3d
       0.041879114 -0.029505054 0.025234118 0.07048799
0001c0 f9 0c b6 3d ac 1e 92 3d 44 fe f9 3c fb 4c 05 be
       0.08889193 0.071347564 0.030516751 -0.13017647
0001d0 6d a9 bd 3c 29 03 59 bc b8 7d 28 3e 91 63 17 be
       0.023152078 -0.013245382 0.16454208 -0.14784075
0001e0 13 27 fe 3d aa bc 16 bd 46 a4 a2 bc 03 9b 2c bd
       0.124097966 -0.036801018 -0.019853722 -0.04214002
0001f0 72 8f 03 3d bc 38 43 bd f8 dc 50 3e 29 4c a1 3d
       0.032119222 -0.047661528 0.20396793 0.078758545
000200 31 f3 e2 3d a0 cb 13 be 28 b6 cc 3d 51 c3 eb 3d
       0.11081541 -0.14433146 0.09995681 0.11511863
000210 03 ed 86 bd 49 a7 07 3d 86 fb f2 3d e0 36 2c 3e
       -0.06588175 0.03311852 0.118643805 0.16817808
000220 ac 3c ae 3d 46 a3 bb 3c c2 f5 01 be 7c 00 ab 3d
       0.08507666 0.022905003 -0.12691405 0.08349702
000230 aa 4c 16 bd d1 47 14 bd 65 c1 32 bd e1 31 c8 3d
       -0.036694206 -0.036201302 -0.043641467 0.09775139
000240 e2 36 07 be 26 c3 1a be c9 b4 45 3d 13 95 ca 3d
       -0.1320453 -0.15113506 0.048268113 0.09891715
000250 85 30 0a be e3 41 06 3e 12 3a 1e 3d 33 8f 7e 3d
       -0.13495071 0.13111071 0.0386296 0.062148284
000260 33 18 a0 bc ec b0 d4 3d 76 be 7e 3d 99 3e cb bd
       -0.01954279 0.10385308 0.062193356 -0.09924049
000270 2d d2 05 be 67 0e 27 3c 9e d4 d1 bd 81 3b 77 bb
       -0.13068457 0.010196305 -0.10245632 -0.0037724676
000280 87 cc a4 3d 30 40 bb bd 59 f9 f9 3d 89 8d 03 be
       0.08046823 -0.09143102 0.122057624 -0.1284696
000290 eb e6 af bd 08 de a0 bd cd 6c 12 3e 8b 80 83 3d
       -0.08588966 -0.07854849 0.14299317 0.06421002
0002a0 f3 9e 41 3e 84 11 ae bd e9 1c c7 bd b3 02 95 3d
       0.1890829 -0.084994346 -0.09722311 0.072759055
0002b0 68 d8 4a 3e c3 dd 40 3e d6 0f 16 bd eb c8 0f bc
       0.19809115 0.18834595 -0.036636196 -0.00877593
0002c0 32 d3 94 bd 08 f6 ab bc 74 31 85 3d 97 ea 36 3d
       -0.07266845 -0.02099134 0.06503573 0.044657316
0002d0 ae 3a 11 3c 71 fe 69 be e7 58 4f be b4 d7 47 bd
       0.008864088 -0.22850968 -0.20248757 -0.048789695
0002e0 53 e3 d4 bc d1 af 68 bd 9c a3 2d 3e a2 12 44 3e
       -0.025987303 -0.056808297 0.16956943 0.19147733
0002f0 f1 76 b1 bc de 4c 78 3d 55 00 0d 3e a3 a5 3a 3e
       -0.021663161 0.06062018 0.13769658 0.18227248
000300 a5 56 04 bd 4c 40 e6 bd 1e ef a0 3d f7 fd 3f bd
       -0.032309193 -0.112427324 0.07858108 -0.04687306
000310 25 b0 34 3e ff 79 73 3c e3 55 f4 3d 8a 40 ac 3d
       0.17645319 0.014860629 0.11930444 0.08410747
000320 bc 30 f2 3d e2 ec e2 3d e6 1d 45 3e 71 bf 19 3e
       0.118257016 0.11080338 0.19249687 0.15014435
000330 fb 6d 55 3c 06 9b 26 be aa 20 bb 3d 3d a3 1f be
       0.01302671 -0.16270074 0.091370896 -0.15589614
000340 20 08 d7 bd 77 07 08 be fb a2 cd bd 25 22 db bd
       -0.104995966 -0.13284098 -0.10040852 -0.10699872
000350 9c 89 81 bc 43 43 12 3e 42 cb 65 3d 1b 06 f7 3d
       -0.015812688 0.14283471 0.056102045 0.120617114
000360 f5 e1 37 3e c5 38 31 bd 00 78 ee bd ac 00 a5 bd
       0.1795729 -0.04326703 -0.11643982 -0.08056769
000370 e0 be 6a 3c e9 05 51 3c 98 80 4e 3e fa c0 15 bd
       0.014327735 0.012757757 0.20166242 -0.03656099
000380 a7 6c 58 bd 1d 8e ac 3c 9a c4 a3 3d 2e 31 45 bd
       -0.052837994 0.021063859 0.07996483 -0.048142605
000390 5a 9b 42 3e 8b 51 0c 3e 67 b3 3a bd ee fc f1 bd
       0.19004574 0.13702981 -0.045581248 -0.11815821
0003a0 b8 7b fd bc a1 05 5d 3c 0a 40 9c 3d 29 34 24 3e
       -0.030942783 0.013490112 0.07629402 0.16035523
0003b0 14 d4 5e bc 1b 29 ec 3d 56 16 9c bd aa 25 18 3c
       -0.013600368 0.11531278 -0.07621448 0.009286324
0003c0 99 1d 04 be 71 3a 35 be a6 74 fe bd 83 9a bd 3d
       -0.12901916 -0.17698075 -0.12424593 0.092579864
0003d0 7c 5e 49 3e e7 44 23 bd a8 74 3a 3e 43 bb ca 3d
       0.19664949 -0.039860632 0.18208563 0.098989986
0003e0 c9 02 7b 3e 85 9d f3 3d 90 84 2c 3e fc e7 82 3d
       0.24512781 0.11895279 0.16847444 0.06391904
0003f0 35 42 69 3e 69 64 1d bd 7d b2 eb bd dd 36 15 be
       0.22779162 -0.038425837 -0.11508653 -0.1457171

encoder.model.weight_hh_l1 f4 [120, 30]
000000 fa d8 0f 3d 97 b0 90 3d 46 fb d2 3d e4 e1 31 3e
       0.035119034 0.07064932 0.10301833 0.17371327
000010 f5 d9 d3 bd c9 f9 cb bd 0e 41 12 bd af 4d c3 bc
       -0.103443064 -0.09959752 -0.035706572 -0.023840753
000020 30 e1 e3 3d 6f f6 51 bd a1 17 95 bd 6e 2c ce bd
       0.111269355 -0.051260408 -0.072798975 -0.10067068
000030 60 da 16 bd d7 c4 58 be be ac 15 be 09 94 13 3e
       -0.036829352 -0.21168838 -0.14616677 0.1441194
000040 29 74 d7 3c 68 29 8e 3d bd e9 79 3d 93 b0 0e 3e
       0.026300507 0.06941491 0.061013926 0.13934545
000050 43 1c a4 3d 7d 48 1a be 0f 66 72 bd a2 f0 69 be
       0.08013203 -0.15066715 -0.059179362 -0.228457
000060 0e 9d 6f 3e e4 af 03 3d dc f4 d0 bd dc 7e ab 3d
       0.23399755 0.032150164 -0.10202953 0.08373806
000070 12 da 09 3e 22 d7 8a 3d 00 b6 1b be bc ed af 3d
       0.13462093 0.067793146 -0.15206146 0.08590266
000080 e6 e7 81 bd f9 7f 2b 3e fc 6e 3e bd d0 2b e6 3d
       -0.06343059 0.16748036 -0.04649256 0.11238825
000090 57 42 82 bd a4 2f 1c 3e a0 55 b1 3d 4b c5 e0 3d
       -0.063603096 0.15252548 0.0865891 0.10975131
0000a0 12 8c 0b bd a8 9b d5 bd ce ad d1 3d ba a7 b1 3d
       -0.03406913 -0.1043008 0.10238229 0.086745694
0000b0 f6 3a 09 be 66 ec 39 3e c8 3a 4b bd 15 1a 0a be
       -0.13401398 0.18156585 -0.049616605 -0.13486512
0000c0 0b 40 f9 bd ff 2d b2 bd c3 83 4c bd 8b 79 54 be
       -0.12170418 -0.08700179 -0.049930345 -0.2074949
0000d0 ba f7 56 3d db 5e 64 be 17 f5 14 3e 4b e0 23 be
       0.052482344 -0.2230181 0.1454662 -0.1600353
0000e0 2c a6 ab bd 34 9d c6 bd 50 22 84 bd ce 5a a9 3d
       -0.08381304 -0.09697953 -0.06451857 0.08269273
0000f0 b0 e6 16 be 11 6d c1 3d eb 35 2d 3d 2a 6f 00 3e
       -0.14736438 0.09444631 0.04228775 0.12542406
000100 32 17 99 3c ad 66 a3 bd e4 01 cc bd 5f 36 17 3b
       0.018687818 -0.07978568 -0.09961298 0.002307318
000110 e6 21 c4 bd 9c 11 61 be 22 5c b2 bd a4 73 ff 3d
       -0.09576778 -0.21979374 -0.08708979 0.124732286
000120 f8 f4 20 3e 56 e0 51 be 4a 3d c7 3d 5f fb 01 be
       0.15718448 -0.20495734 0.09728487 -0.12693547
000130 31 7f b6 bc a5 c7 14 be 9c 07 7d bd 2f db 34 bd
       -0.022277446 -0.14529283 -0.061774835 -0.044154342
000140 be 82 96 bd ed 88 af 3d 57 20 b7 3d 82 29 79 3d
       -0.07349156 0.085710384 0.08941715 0.0608306
000150 50 ac 26 3e f5 92 82 bd 19 25 a8 bd b0 31 1a be
       0.1627667 -0.06375686 -0.08210201 -0.15058017
000160 1d a9 3c bd c2 d6 96 3d 2a 90 f7 bd 45 3c 1c 3e
       -0.046059716 0.073651806 -0.12088044 0.15257366
000170 aa e3 bc bd ec 80 55 3c ee 22 9b 3d db 56 a3 3c
       -0.09223111 0.013031226 0.07575022 0.019938877
000180 31 12 b6 bd 3e d1 c7 3d 9a 54 fa 3d 23 2b d1 bd
       -0.088901885 0.09756707 0.12223168 -0.10213306
000190 5a 6c b2 3d 2f 84 03 bd 77 b9 d3 bc 63 6e 94 3c
       0.08712073 -0.032108482 -0.025845272 0.018119043
0001a0 e1 c1 5f 3d 51 97 5c 3e d6 02 0d 3e 50 9a a1 bc
       0.054628257 0.21542098 0.13770613 -0.019726902
0001b0 41 6e 30 bd fa 9e f6 bd b8 77 a4 bc 7e 22 3f be
       -0.043073896 -0.12042041 -0.020076618 -0.18665501
0001c0 76 f2 ae bc 98 30 a2 bc c6 32 0a bd 55 00 2c bd
       -0.021355849 -0.019798562 -0.033739828 -0.041992504
0001d0 71 97 92 3c d9 a6 22 be 8d 61 03 3e 90 fd 35 be
       0.017894479 -0.1588396 0.12830181 -0.17772508
0001e0 80 5a f7 bc 12 ed b1 3d b0 2f 05 bc af 22 9b 3d
       -0.030194521 0.08687796 -0.008129045 0.07574975
0001f0 26 46 a8 bd fb 42 a8 bd 46 64 5d 3e cf 54 bc 3d
       -0.08216505 -0.082159005 0.21620283 0.091958635
000200 2e 6a af 3d 74 94 b3 bd 78 fe b8 bd 4e 82 96 3d
       0.08565174 -0.087685496 -0.09032911 0.073490724
000210 b5 3c 9b 3d 05 b2 d3 3d b7 fd 7d 3d c9 6e 0c be
       0.07579938 0.10336689 0.06200954 -0.13714136
000220 a6 9b 32 be fe 57 71 bd 89 52 00 bd 91 19 bf bd
       -0.17442188 -0.058921807 -0.03132871 -0.09331048
000230 b9 42 6c 3d 25 b7 3a be 96 5c 8e bc 1b 1c 9c bd
       0.05768082 -0.18233927 -0.017378133 -0.07622548
000240 b4 60 3b 3e a6 6f ca 3d 94 17 ca bd 2b 68 20 bc
       0.18298608 0.098845765 -0.098677784 -0.009790461
000250 b6 b5 3a 3d 10 cc 19 be dd 29 53 be ae a2 ad 3d
       0.04558345 -0.1501925 -0.20621438 0.08478294
000260 a6 4a 2e bd 85 a5 db bd 3c 5d 74 3d 93 c2 ef 3d
       -0.04255166 -0.1072493 0.059659228 0.11707034
000270 fc 74 68 3e 7c a4 d0 3d ad 53 a4 bd 97 fd 15 3e
       0.22700876 0.10187623 -0.080237724 0.14647518
000280 ca 68 f0 3d 71 2a 6a 3e 62 ba 22 3d ca b0 4a bd
       0.11738737 0.22867753 0.03972853 -0.049485005
000290 df ae 66 bd 2f ff 0e 3e d5 11 2f be 46 06 bc bd
       -0.056319114 0.13964532 -0.17096646 -0.09180884
0002a0 c6 34 f7 3d b1 cc 4b bd e1 92 16 3c 12 e8 2b be
       0.120706126 -0.049755756 0.009190292 -0.16787747
0002b0 86 a7 bf bd e0 f8 43 be 8e 3b 3b 3e 01 18 39 be
       -0.093581244 -0.19137907 0.18284437 -0.18075563
0002c0 52 51 97 bd 73 db e1 3d 8a 46 19 3e 0e 1b d7 bd
       -0.073885575 0.11028185 0.14968315 -0.10503207
0002d0 63 9a 26 3d cd d5 05 3e 61 20 18 be 31 df 11 bc
       0.04067458 0.1306984 -0.14856102 -0.008903311
0002e0 2e f8 7e bd 8a 68 23 be 3a 49 94 3c 43 6e ac 3d
       -0.0622484 -0.15957847 0.018101323 0.08419468
0002f0 bb 23 1f be b7 7a 22 be 38 4f 83 be d5 76 0d bd
       -0.15540974 -0.15867124 -0.25646377 -0.034537155
000300 65 e5 d1 bd 65 38 41 be 2c ee 50 3d f5 d1 76 3e
       -0.10248832 -0.18869169 0.05100839 0.2410353
000310 62 c7 cb 3d 1c b7 bb 3d a2 b2 0b 3e 11 96 85 3b
       0.09950139 0.09165785 0.13642362 0.004076727
000320 fc 21 8b bd b9 14 51 be f4 69 d3 bd 2d b0 ef bd
       -0.067935914 -0.20418061 -0.10322943 -0.11703525
000330 51 c3 e5 3d 99 d9 00 bd 07 29 5e be 76 40 3f bd
       0.11218894 -0.031457517 -0.21695338 -0.046692334
000340 38 7b 63 3e 0d 52 82 bc cb 40 b3 3c c0 6f 99 3c
       0.22214973 -0.015908265 0.021881482 0.018730044
000350 5a 39 e2 bd dc c1 95 bd ac ba 3b 3d 3f 1b b5 bd
       -0.11046095 -0.07312366 0.04583232 -0.088430874
000360 34 75 a5 3d db 50 d7 bd 7c bc 9e 3d 6c db bc bc
       0.08078995 -0.10513469 0.07750794 -0.023053847
000370 aa f5 fa bc 06 43 27 3b 9e ee 9f bd 29 97 82 3d
       -0.03063472 0.0025522127 -0.078091845 0.06376488
000380 5a a4 84 3b 55 04 29 3e dc 04 81 bd 35 72 1b be
       0.0040479125 0.16505559 -0.06299755 -0.15180285
000390 53 a9 4b 3e 9b 51 22 bd 50 c4 bf 3c 71 9b 34 be
       0.19888811 -0.039628606 0.023409039 -0.17637421
0003a0 e9 26 ba bd 38 b3 fc 3d 83 db 17 3e 4c 65 e7 3d
       -0.09089453 0.12338871 0.14829831 0.11298618
0003b0 78 c0 cf 3d e8 9d 96 ba b3 c0 4a 3d cd 64 39 be
       0.101441324 -0.0011491152 0.04950018 -0.18104859
0003c0 2d 50 1d bc 1f 7c 4e 3e fa cc 4f be 85 33 65 3e
       -0.009601635 0.20164536 -0.20293036 0.22382934
0003d0 31 9f 9d bd 26 08 18 be 3c d4 0e 3e 49 1f 1b 3e
       -0.07696379 -0.14846858 0.13948148 0.15148653
0003e0 da f1 a4 bc c5 66 b9 3d 1d 5d 3b 3d cc 9b 66 3b
       -0.020134855 0.09052805 0.045743097 0.0035188077
0003f0 f8 9b 09 3d 7e 1d 31 bd 54 e1 81 bd d3 e5 0c 3e
       0.03359601 -0.043241017 -0.06341806 0.13759546

encoder.model.bias_ih_l1 f4 [120]
000000 52 1a ba bd f9 2c ff 3d e8 70 38 3e 73 47 1b 3e
       -0.090870515 0.1245975 0.1801182 0.15163974
000010 09 6d fe bc 2e ef 67 bd de b1 3d 3e 70 8a c8 bd
       -0.031057851 -0.056624584 0.18524882 -0.0979203
000020 ce 58 20 3e da 96 7b bd 15 0d 17 b9 07 17 62 3c
       0.15658876 -0.06142316 -0.00014405356 0.013799435
000030 a9 26 1c 3e d4 7b 0a be 66 5d ec bd bc ff 25 be
       0.15249123 -0.13523799 -0.11541252 -0.16210836
000040 ee 7f 1d 3d 4d 0d 97 bd 04 14 45 3e da d1 29 3e
       0.03845208 -0.07375584 0.19245917 0.16583958
000050 c3 f3 19 be 6c 4b 15 3e bb a2 08 3e 2e bf 93 3d
       -0.15034394 0.14579552 0.13343327 0.07214199
000060 18 ed 0c 3d 19 ff b8 bd 47 b7 9d 3b 5c 68 02 be
       0.034405798 -0.09033031 0.004813108 -0.12735122
000070 93 0d 30 3e 05 97 77 3b 7b d3 31 3e b5 d3 4f 3c
       0.17192678 0.0037779224 0.1736583 0.012684752
000080 bf df b8 3c 02 da 16 3e e4 8c 33 3e cc 1a d4 3d
       0.022567628 0.14731601 0.17534214 0.103566736
000090 60 f7 42 3e 1e 9d b7 3b 06 22 0c be 43 61 2c 3c
       0.19039679 0.0056034466 -0.13684854 0.010521236
0000a0 02 41 03 3d fe 7f 19 3d 98 76 76 bc c3 64 7a bd
       0.03204442 0.03747558 -0.015042923 -0.06113125
0000b0 c0 b2 a4 bd 14 94 e0 3d 8f a5 44 3d c6 65 1a 3e
       -0.08041906 0.10965744 0.04800945 0.15077886
0000c0 fa b1 4c 3e 1e 60 14 be 26 6a b0 bd 12 2f 21 3e
       0.19989768 -0.14489791 -0.08613996 0.15740612
0000d0 40 d6 30 3e 33 f9 df 3d 21 f0 20 3d fc 33 15 3e
       0.1726923 0.10936203 0.039291505 0.14570612
0000e0 3c b8 38 3c ab 90 c8 bc d4 8d 6d 3e 08 ba be bc
       0.011274394 -0.024483046 0.23198634 -0.023282066
0000f0 c5 10 51 be e2 90 e3 3d 42 d3 b4 3d e4 dd 28 3e
       -0.20416553 0.111116186 0.08829357 0.16490895
000100 94 9b 19 be c4 ce 2e be 73 40 e7 bc 99 45 76 bd
       -0.15000755 -0.17071062 -0.028228974 -0.060124967
000110 72 e5 ef bd d3 a6 4e bd f3 7c e2 3d b5 65 5d 3d
       -0.11713685 -0.050452065 0.110589884 0.054052074
000120 5b da 48 3e 2f fe dd bd e9 84 81 3d cf 4a 24 3e
       0.19614546 -0.10839497 0.06324179 0.16044162
000130 7a 0a 2a bd b4 bd b8 bd 14 2d fd 3d ac d6 42 3d
       -0.041513897 -0.09020558 0.123621136 0.04756801
000140 a8 ea 11 be d6 27 0c be e4 33 e2 3d 51 56 32 be
       -0.1424967 -0.13687071 0.110450536 -0.1741574
000150 6f a9 31 3d 80 04 0c 3e 8c 1b b9 bd ab 44 15 bd
       0.043374475 0.13673592 -0.09038457 -0.03644244
000160 16 67 bb 3c 5e 86 fb bd fe 39 5f bd 43 d4 96 3c
       0.022876304 -0.12281488 -0.054498665 0.018411761
000170 a8 22 ce bd 4e df 86 bd ca 25 17 3d be 91 a4 bd
       -0.10065204 -0.06585561 0.036901273 -0.080356106
000180 a3 d5 cf bb 37 3e 6e 3d fc f7 a5 3c cc 45 33 3e
       -0.006342606 0.0581648 0.02025985 0.17507094
000190 a1 a3 12 3c b3 a5 34 3e 60 5b a6 bd 0e cc ae 3d
       0.008950145 0.17641334 -0.08122897 0.08535014
0001a0 ac f0 9e 3d e9 28 58 3e cf 84 be 3c 7b 37 81 bd
       0.07760748 0.21109356 0.023256687 -0.0630941
0001b0 68 54 86 3e ee 00 a4 3d 7a 2a 52 bd 81 41 63 3d
       0.26236272 0.0800799 -0.05131004 0.05548239
0001c0 6c 40 e8 bd e4 e1 96 3d 89 00 31 bd b7 64 d7 bd
       -0.113404125 0.07367304 -0.0432134 -0.10517257
0001d0 97 fd fd bd 6a 66 99 bd bd 06 bf 3d a2 4c c7 bd
       -0.12401884 -0.07490237 0.09327457 -0.097314134

encoder.model.bias_hh_l1 f4 [120]
000000 0c e2 d6 3d 84 6c b0 bd 9a be 2e 3e bf 70 0c 3e
       0.10492334 -0.08614448 0.17064896 0.13714884
000010 60 6c b1 3d 56 f2 2c 3e 1a a6 21 3e 82 71 07 be
       0.08663249 0.16889319 0.15786019 -0.13226894
000020 8d f3 e3 3c e2 31 ad bd 1c 1c 72 3d 07 88 65 bd
       0.027826095 -0.0845678 0.05910884 -0.05603793
000030 0a 19 6c 3d 9b 88 36 3e 3a 66 63 3e 2a cc d4 bd
       0.057641067 0.17825548 0.22206965 -0.10390504
000040 9d c5 21 3e 24 98 9c 3d 28 c3 7b 3e 87 19 15 bd
       0.1579804 0.07646206 0.24586165 -0.036401298
000050 1d 61 83 bd 39 d2 4c 3e 76 0f fb 3b 01 3c d1 bd
       -0.06415007 0.20002069 0.007661755 -0.10216523
000060 94 b8 fe 3c 1a 06 9e bc df a8 ff 3d c7 2a 9d bb
       0.031093873 -0.019290019 0.124833815 -0.004796359
000070 45 1d a9 3d 58 a8 31 3d ba 0d 0b 3e 41 04 c8 3d
       0.08257536 0.043373436 0.13579455 0.09766436
000080 bf 2d 95 3d 84 35 9c 3d df 1a b3 3d 05 3c 43 3e
       0.07284116 0.07627395 0.0874536 0.19065864
000090 b7 ad 55 bd 1c ee ab bc 1c c2 ea bd 7b f9 ea 3d
       -0.05216762 -0.020987563 -0.11462805 0.11473366
0000a0 c0 8c 0f 3e 36 df 66 3c ed a9 89 3d 10 44 b0 bd
       0.14018536 0.014091304 0.06721864 -0.08606732
0000b0 14 9f 10 3e 80 5c f3 3c 0e a5 9a 3d ba 93 78 bd
       0.14123183 0.029707193 0.07551013 -0.060687758
0000c0 e8 e5 59 3e 60 fc 18 3e 71 fe 3d 3e 7c 67 8d 39
       0.21279109 0.14940023 0.18554093 0.00026970718
0000d0 bd 02 99 bd 65 f1 0a 3d 4b 24 3b 3e 9f 02 c2 3d
       -0.074712254 0.033921618 0.18275563 0.09473156
0000e0 6f 8a 00 3e 56 14 42 bd 91 62 be bd 9b 63 2b be
       0.12552808 -0.047382675 -0.09296144 -0.16737215
0000f0 45 ab 30 bd d5 02 c4 bd 58 ba 4e be 7c a5 d6 3d
       -0.043132085 -0.09570853 -0.20188272 0.104807824
000100 4b 41 7c bd 0e 91 5c bd a0 b2 72 bd b3 12 e3 3d
       -0.061585706 -0.053849272 -0.05925238 0.11087551
000110 98 f7 18 3d 61 d8 0c bd 6b ce f1 bd 2d e6 0b 3e
       0.0373455 -0.034386043 -0.11806949 0.13662024
000120 ab 1f 28 3d ca b4 fc bd 9d 72 bd 3d 7d 23 80 bc
       0.041045826 -0.1233917 0.092503764 -0.015641922
000130 57 6f fb bc 00 6d 11 be da d7 c1 3d b0 8c 53 bc
       -0.03069274 -0.14201736 0.094649985 -0.0129119605
000140 5c e7 49 bd e7 c0 c8 bd 2c 61 ce 3d 37 c9 b5 bd
       -0.049292907 -0.09802418 0.10077128 -0.08876269
000150 66 5a 04 3e 7e fb c9 bd c8 5c 31 be 66 56 a4 bd
       0.1292511 -0.098624215 -0.1732055 -0.08024292
000160 7e be 38 3e 70 ce 82 bc 10 d6 90 bd ad e5 ad 3d
       0.18041417 -0.015967578 -0.07072079 0.08491073
000170 ae 73 8c 3d d3 a0 51 3e b9 9e 53 3e fa 30 75 bd
       0.06858002 0.20471506 0.20666017 -0.05986116
000180 93 87 09 bc 44 7d 65 3e a9 58 59 3e 37 07 15 3e
       -0.00839414 0.22411066 0.21225227 0.14553533
000190 4f 2e 8b bc 57 45 31 3d ee cf db bd db 91 ce bd
       -0.016989855 0.04327902 -0.10733019 -0.100864135
0001a0 ae 72 eb bc 3b ec b7 3d 3e 8c 16 3e 23 fd a0 bd
       -0.028741207 0.08980604 0.14701936 -0.07860782
0001b0 c6 46 44 3e a4 95 8a bb 4f 5b 41 bd 68 f0 db 3d
       0.19167623 -0.0042292643 -0.04720622 0.10739213
0001c0 27 50 eb 3d 06 a9 0b 3e 10 ed da 3d 2f 49 89 bd
       0.11489897 0.13638696 0.10689747 -0.06703412
0001d0 f4 e2 f9 bd 1f cd 00 3d 32 99 e3 3d 99 7b 45 3e
       -0.12201491 0.03144562 0.11113204 0.1928543

variational_latent.hidden_to_mu.weight f4 [15, 30]
000000 e4 3b f1 bd c7 ab a7 3a 31 b1 75 3e cb 70 2c bd
       -0.11779001 0.0012792283 0.23993374 -0.042099755
000010 cc 76 b6 3e a6 e7 e1 3c 2f 4b 95 be 1c b9 4a be
       0.3563751 0.027576279 -0.29158923 -0.19797176
000020 d7 32 d4 bd 3e 43 56 be 40 4d 02 3e 18 7d 9b be
       -0.103612594 -0.20924088 0.12724781 -0.30368876
000030 14 0d 9f 3d 08 d9 0e 3e 3a 3e 13 3d 9e 8c a3 3e
       0.07766166 0.13949978 0.035948016 0.3194322
000040 36 44 50 3e 22 d7 87 be 82 46 07 3e d5 9d 74 3c
       0.2033852 -0.2653132 0.1321049 0.014930208
000050 35 3e 84 3c 08 21 4b 3e 8c 60 8a 3a 4b a9 30 3e
       0.016142944 0.19836819 0.0010557338 0.1725208
000060 a9 f7 57 be bb 58 b9 3e 35 69 95 be 45 c2 b0 be
       -0.21090569 0.36200508 -0.2918183 -0.34523216
000070 bf 54 a5 be ef 7e d3 3d 48 03 d2 bc be 03 06 be
       -0.3229122 0.10326945 -0.02563633 -0.13087365
000080 18 e8 aa be f6 18 ad be 18 4a 5e 3e 16 53 14 3e
       -0.33380198 -0.33808106 0.21707952 0.1448482
000090 10 ae 9e be 57 60 8a 3d be 30 90 3d 26 fb 09 3e
       -0.30992174 0.067566566 0.07040547 0.13474712
0000a0 e2 79 00 bd 23 0d 9d be 78 76 94 3e fc a6 b9 be
       -0.031366237 -0.30674085 0.28996634 -0.3626021
0000b0 a9 0a 2b 3e f7 2d ab 3c cb 69 80 bb 82 28 92 3e
       0.16703285 0.020895941 -0.0039188615 0.2854653
0000c0 f0 c6 92 be c5 4b 86 be 12 4b 9d be c3 c8 80 3e
       -0.28667402 -0.26229683 -0.30721337 0.2515317
0000d0 c4 ee 13 bd 60 78 12 3e 3b 2c c8 3c 6b 32 c3 be
       -0.036116377 0.14303732 0.024435153 -0.38124403
0000e0 43 37 9c be 5a ec f9 3d 36 94 47 be 66 a5 a5 3d
       -0.3051091 0.122032836 -0.19490132 0.08088188
0000f0 b7 a4 bf bc 05 e1 af 3d e4 82 3b 3d 46 36 b1 bc
       -0.023393972 0.08587841 0.045779124 -0.021632325
000100 fd 2f a6 3e a5 67 36 3c 1c cf c9 bd ad 2b 78 be
       0.32458487 0.011133109 -0.09853956 -0.24235411
000110 ab a3 8b 3e a4 81 06 be fd 66 e5 bd 92 56 22 3e
       0.27273306 -0.13135391 -0.11201284 0.15853336
000120 f7 33 2e bd 31 f8 80 3e 45 34 29 bd 9c a8 a8 3d
       -0.042530026 0.25189355 -0.041309614 0.08235285
000130 96 a9 95 be 2a 38 8e be bc d3 0b be 24 bf 1b 3c
       -0.29230946 -0.27777225 -0.13654989 0.009506021
000140 3f e3 b5 bd a2 bb 0d 3e 15 1b 8d be 34 f4 13 3e
       -0.088812344 0.13841107 -0.27559724 0.14448625
000150 df 43 5c 3e be 7c d3 bd be 03 1d be 02 96 9a be
       0.21510266 -0.10326527 -0.15333459 -0.30192572
000160 95 a4 ce 3d e3 de 4e bd 46 6a 9e be 92 4b 21 3e
       0.10089985 -0.05050553 -0.30940455 0.15751484
000170 c6 1c b0 3e 32 7d 74 3e 89 0e 89 3e 0b 4d ac 3e
       0.34396952 0.23875883 0.26768902 0.3365253
000180 7f 7d b2 3b a7 53 a0 3e ec cd 39 be a7 88 9b be
       0.005447089 0.31313822 -0.18144959 -0.30377695
000190 73 d3 12 be 35 4f c2 3d f4 b5 af be b1 01 60 be
       -0.14338474 0.09487764 -0.34318507 -0.21875645
0001a0 9f 4f dc 3d d3 1b 19 bd b5 d0 1f 3e 1d 2c 96 3e
       0.10757374 -0.03738005 0.15606959 0.2933053
0001b0 f2 ff 63 3e 29 31 12 bd 56 9c dc 3d cf 95 8b 3e
       0.22265604 -0.035691414 0.10772006 0.27262732
0001c0 ed e4 56 bc ec 61 8e be 86 a2 e8 bd 0a 7f a0 be
       -0.013116104 -0.27809083 -0.11359124 -0.31346923
0001d0 d0 86 83 3e 3a 78 f3 bd 7b 5b 7e 3e 5f ef 66 3e
       0.2568879 -0.11888166 0.24839585 0.2255225
0001e0 32 a1 80 bd 83 e3 24 be 35 49 a0 3d b7 3d ff bd
       -0.062807456 -0.16102414 0.07826463 -0.12462943
0001f0 3d 77 9e bc 6d 7d 12 3e 92 7b 2d bd e2 d2 5d 3e
       -0.019343967 0.14305659 -0.042354174 0.21662477
000200 e6 a2 0b 3c 44 25 a0 be d5 ce 87 3e 45 8f b2 3e
       0.008522725 -0.3127843 0.26524988 0.3487493
000210 d8 b8 83 3e 81 ca 38 3e 6f 2d 7c be 5c 49 2b 3d
       0.25726962 0.18045999 -0.24626707 0.041818008
000220 64 a9 70 bd 03 fa 60 be 36 a8 0a 3e a5 59 10 3e
       -0.058755293 -0.21970372 0.1354073 0.14096697
000230 78 b9 82 be 56 21 2e be e7 90 ab 3e cb ce e9 3d
       -0.25532126 -0.17004904 0.3350899 0.11416396
000240 c5 b7 02 be 4d dd 82 be 48 74 1d be 14 38 be 3c
       -0.12765415 -0.25559464 -0.15376389 0.0232201
000250 70 ab 57 be 92 49 b5 bd c4 fe c9 bc cc 59 8c 3e
       -0.21061492 -0.08851923 -0.024657615 0.2741226
000260 16 68 af 3e 82 7f 70 be 1b 1f 16 bb d2 a6 3b be
       0.342591 -0.2348614 -0.0022906724 -0.18325356
000270 71 d7 f7 bd 11 5e 8e 3e 25 41 2e 3e 6f d2 59 be
       -0.12101639 0.27806142 0.17017038 -0.2127168
000280 11 cc 92 3e ed 7e 94 be 70 30 ab bc 83 43 6f be
       0.28671315 -0.29003087 -0.02089712 -0.23365597
000290 d9 d8 8a 3d 82 ab c5 3d d3 7b 55 be 95 39 79 3d
       0.06779642 0.09651853 -0.20848016 0.06084593
0002a0 b7 72 81 3e 12 36 59 3e e2 82 7a 3e e8 e7 3c 3e
       0.25282833 0.21212032 0.2446399 0.1844784
0002b0 df 17 02 3e 45 b1 13 3e ed 11 9c 3e 94 c5 ad be
       0.12704419 0.14423092 0.30482426 -0.33939803
0002c0 83 08 44 be 4f 1a 83 3e 0b ef 42 3e 8c c4 35 3e
       -0.19143872 0.2560601 0.190365 0.17750758
0002d0 74 12 bb bd 6a 71 d6 bd 1f 7a 81 3e 2f 55 d4 3d
       -0.09134379 -0.10470851 0.25288484 0.1036781
0002e0 85 ba 9c 3e 42 48 7c 3d b8 97 8a bd 0d 23 4a be
       0.30611053 0.061592348 -0.06767219 -0.19739933
0002f0 bd 36 9c be 7c 49 af 3e fb 76 95 3c 82 89 2c 3d
       -0.30510512 0.34235752 0.01824521 0.042123325
000300 33 e5 cc 3e 48 1c 19 3e f0 a0 96 3e f7 24 8e bd
       0.40018615 0.14952195 0.2941966 -0.06940644
000310 fa 29 80 be 30 84 b2 be 3a e4 c2 bd 39 a4 79 3e
       -0.25032026 -0.34866476 -0.09516187 0.24379052
000320 f7 f9 0b be 15 68 d1 3d f5 0a 1d 3e 7d 51 7b bd
       -0.13669573 0.1022493 0.15336211 -0.06135701
000330 40 8c 9c 3e ab 84 46 3e 76 6c 84 bd 29 e3 b9 be
       0.30575752 0.19386546 -0.06466 -0.36306122
000340 33 c4 9e bd 02 f6 c0 bd 31 83 a6 3e 6e 8b 98 be
       -0.07752266 -0.09421922 0.32521966 -0.29793876
000350 26 4b dc bd 1c 47 6b 3d 58 f3 77 be 81 f4 cf 3d
       -0.10756521 0.057440862 -0.24213922 0.10154057
000360 07 65 9b be 01 d6 a1 3e d9 cc 83 3d 23 27 b8 3d
       -0.30350515 0.31608585 0.06435556 0.0899184
000370 04 ec 9f be 8d cf 28 bc f8 4c 9d be d0 76 08 3e
       -0.31234753 -0.01030339 -0.30722785 0.13326573
000380 71 64 69 3d 46 a4 02 3e e0 7c 5d 3e fb d1 65 3e
       0.056980554 0.12757978 0.21629667 0.22443382
000390 91 1e b3 be fa 49 08 bd 07 b4 6c bb 77 36 af be
       -0.34984258 -0.033273675 -0.0036118047 -0.3422124
0003a0 99 3d 08 3e 03 ef 76 be 75 3a ea bd fc 5c 6c bc
       0.13304748 -0.24114613 -0.11436931 -0.014426466
0003b0 b3 94 a3 be 4c 9d bf bc b6 fa 80 3e fb e0 2b 3c
       -0.31949386 -0.023390435 0.25191277 0.010490651
0003c0 e8 ad 38 bd d7 74 b5 3c 63 87 12 bc dc 68 24 3b
       -0.045087725 0.02215044 -0.0089434115 0.0025086915
0003d0 2f ca e6 3d a4 39 15 be b7 6a 7b 3e 34 c3 8c be
       0.11269032 -0.1457277 0.24552427 -0.27492678
0003e0 f7 a0 3e be 6a 6b 99 be 1b 51 1a 3e b3 8c f0 bd
       -0.1861609 -0.29964763 0.15070002 -0.11745586
0003f0 4e 33 12 3e 60 6b 87 be 34 e8 13 3e 86 d8 5d be
       0.14277384 -0.26449108 0.14444047 -0.21664628

variational_latent.hidden_to_mu.bias f4 [15]
000000 28 8f 02 be 7e 1e 12 be 64 48 d7 bd 19 1c 1d be
       -0.12749922 -0.14269444 -0.10511854 -0.1534275
000010 08 3b 85 bd 4e 61 29 be 57 0d f9 3d 49 d4 54 3d
       -0.065054 -0.16541025 0.121607475 0.051960263
000020 51 43 dd 3d 2d da 4d bc 0a 07 7d bd e8 38 1f 3e
       0.10803855 -0.012564224 -0.06177429 0.15549052
000030 2b 54 14 3e b0 fd 01 be fd e3 af 3d
       0.14485233 -0.1269443 0.08588407
