models/20200923_173706/epoch_0800_loss_199782.44751.pt (torch, 232273 bytes, 96 tensors)

encoder.model.weight_ih_l0 f4 [120, 3]
00000000: 8e59 f0bd 0457 62bd e1d1 243e 13e3 0ebe
00000010: b135 123d 2d91 31be e332 803c a3cc 13be
00000020: 6e99 a6bd f204 49bd 087f af3d 1a01 d6bd
00000030: edfe bfbd b2c4 c63d 5196 583e 60b8 a2be
00000040: 70b7 00be 3772 97be 7300 09be b5ce 2cbe
00000050: 3a02 4bbd 183f 82bc 0921 453c 943b 6cbe
00000060: a7d2 0abc bee9 29be 7259 303d e8ee e2bd
00000070: cca1 25be 1510 bebd 33e0 5dbe 0620 0dbe
00000080: 0e61 0e3d 20fa 06be 53e3 293e 11ad 263e
00000090: 9172 47be 77b8 73bd d6ac 46be b5b5 8dbe
000000a0: 782b 103e b1a0 7b3e fbd3 14bd 4984 54bd
000000b0: 436e 75bc 5435 6cbe ddf3 07bd b2d7 bdbd
000000c0: abea 24be 1fe3 d43c 8b82 0e3e 267c 5bbe
000000d0: ac8f 6d3d 8797 4ebd 6204 2abe 7b29 e7bd
000000e0: ae62 f53d ff09 63be e045 4f3d 6b1a 803d
000000f0: efc9 6c3d 594d 4bbe 4f64 abbd 6758 2bbe
00000100: 6319 f4bc 81ac cdbd 6d45 12be 5bdc a83d
00000110: 7f16 29be 821e 32be f716 40bd 25c3 933d
00000120: 7a3a 843d 566a afbb 1958 4e3d 219e 103e
00000130: 9a32 05be 7c39 4e3d 1b3a b33d 973c 4d3d
00000140: f031 453d 19dc e9bd a9fb 46bd 61b2 103e
00000150: 0cd1 a03d c123 683d 2f3f 2abc 0d9b 73be
00000160: 5f5d 18be 3083 993d 5987 13be 7ea7 3a3b
00000170: 06c1 493e ca5e 28be 5b75 d3bd 6697 e23d
00000180: dbc0 15bd 3a53 26be b95c 3b3d 8f31 77bd
00000190: 1209 203d ae54 5fbd ce31 0a3e 6c08 3bbd
000001a0: 1a50 673e d5f6 4bbe 6338 b7bc f25d 8abe
000001b0: 3f6f c33c 6f0a 00be 369c 313c 83fe aa3d
000001c0: 22c7 10be 5212 e7bd 2bcf 693d 0c5c 853e
000001d0: 91c6 903e fb8d 46bd 4118 cebd 4a00 943e
000001e0: efac bf3d 7fc9 a7bc 5b72 14be 5a50 49be
000001f0: 22b1 01be 7212 fabb d69c 54be 8f49 37be
00000200: 8b85 0bbe 067e c83d 7dc3 313e 1716 12bd
00000210: 6a5a 963c 097d db3d 8424 20bd 72d0 693e
00000220: bc52 90bd 0c02 b83d 328f edbd a685 c7bd
00000230: 08fa e03b dc0d 25bd 47da 95bd ac81 94ba
00000240: 4c53 4d3e c436 963d dd2c 5ebd f9da 05bd
00000250: 14d1 133d dcfe 2cbe e2bf d73d 8c4a 1ebe
00000260: cf9e 513e 748e bc3b 2f63 4ebd 1fc0 d23d
00000270: e2b0 e0bc 9fc1 bebc c4f3 a03d d536 4d3e
00000280: aedb 16be 1981 1c3e 6191 863e 12c2 3b3b
00000290: 113b 89bc 4187 c6bc ee91 35bd 294f 843e
000002a0: 4191 cf3d caea 623c d933 283d 5439 50bd
000002b0: 6350 c73d ff47 163d 2488 aabd 65e3 bdbd
000002c0: 6348 7cbd a0ee 0b3e ac89 43bd c311 7c3d
000002d0: 1a94 4c3e baec 3cbe df80 583d 5154 abbb
000002e0: b65e 0e3e c2f9 7f3b 1cb0 c03c ca7a d13c
000002f0: 8358 4b3e 2378 b1bd aa4c c0bc 22bf aabc
00000300: 3f7d 44bb 79e8 213d d1f4 563e f20b 073e
00000310: 7c12 14be 765f 2b3e 16e4 a738 632a d3bd
00000320: 0f57 0abe 1130 293d 4451 2cbd 2914 31be
00000330: 9443 b33d 8b2c b2bb 2c3a 433e 9972 e3bc
00000340: a9ab dabb 81b5 953e cf05 fe3c e55c d1bd
00000350: 1fb7 58bc cdbe 75bd 3361 b3bd 98fb e63d
00000360: 73d0 2f3e ad59 eabd 3a50 3b3d b7e6 5e3e
00000370: 474e 5f3c 377f 06bd e503 af3d 4dee 80bd
00000380: 29f9 4abe eecb 30bd 7d05 8ebd 3610 5cbe
00000390: 0259 f1bb 6c47 db3d 826f 7d3e 6438 81bd
000003a0: 33e9 153e c43b 7fbe 24e4 973a 348b 723d
000003b0: 4cfb 423e 949e 2ebe 25d0 cd3d 06d8 98bc
000003c0: 9f03 293d 7e07 3cbd 72cf 963e 89d6 033e
000003d0: 4da2 bb3d a8fc 60bd 57ba c5bc 0a87 0abd
000003e0: 6fea 32be a708 a93c 81d7 5cba e4a7 71be
000003f0: 7c70 c0bd 7fa6 f83d 1614 5c3e d9f5 60be
-0.11735831 -0.055258766 0.16095687 -0.1395381 0.035695735 -0.17340536 0.015649265 -0.14433531
-0.08134733 -0.04907698 0.08569151 -0.10449429 -0.09374795 0.097054854 0.21151091 -0.31781292
-0.12569976 -0.29579327 -0.13379078 -0.16875727 -0.04956267 -0.015899226 0.012031802 -0.23069602
-0.008473075 -0.16593072 0.04305405 -0.11080724 -0.16175002 -0.09280411 -0.21667556 -0.13781747
0.034760527 -0.13181353 0.16590624 0.16276957 -0.19477297 -0.05950209 -0.19401869 -0.27677694
0.14079082 0.24573018 -0.036334973 -0.05188397 -0.014979902 -0.23067218 -0.03319155 -0.09269656
-0.16105144 0.025987206 0.13916986 -0.21434078 0.057998344 -0.050437476 -0.16603234 -0.11287209
0.11981712 -0.22171782 0.050603747 0.06255039 0.057809766 -0.19853725 -0.08368742 -0.16732942
-0.029797262 -0.10042668 -0.14284296 0.082451545 -0.16512488 -0.1739445 -0.0468969 0.07214955
0.06456466 -0.0053532524 0.050376985 0.14122821 -0.13007584 0.05034779 0.08751317 0.05010661
0.048143327 -0.114189334 -0.048579846 0.14130546 0.078523725 0.056674723 -0.010391041 -0.23789616
-0.14879368 0.07495725 -0.144071 0.002848118 0.19702539 -0.16442409 -0.10325118 0.11064033
-0.036560874 -0.16242686 0.045742724 -0.060349997 0.03907115 -0.054524116 0.13495561 -0.04566233
0.2258915 -0.19918378 -0.022365754 -0.270248 0.023856757 -0.1250398 0.010840466 0.083493255
-0.14138463 -0.11282791 0.057082336 0.2604679 0.28276494 -0.048475247 -0.1006322 0.2890647
0.09359156 -0.020481823 -0.14496748 -0.19659558 -0.12665227 -0.0076315934 -0.20762953 -0.17899154
-0.13625161 0.09789662 0.17359729 -0.035665598 0.01835366 0.10717208 -0.039097324 0.22833422
-0.0704703 0.089847654 -0.11599578 -0.09742288 0.0068657435 -0.04029642 -0.07317024 -0.0011330149
0.20051306 0.073346645 -0.054242004 -0.03267953 0.036088064 -0.16894096 0.105346456 -0.15458125
0.20470737 0.0057542864 -0.050387558 0.102905504 -0.027428094 -0.023285685 0.078589946 0.20040448
-0.14732239 0.15283622 0.2628279 0.002864961 -0.016751798 -0.024234416 -0.044328623 0.25841644
0.10135127 0.013849923 0.04106507 -0.050835922 0.097321294 0.036689755 -0.08326748 -0.09271888
-0.06159247 0.13665247 -0.047738716 0.061540376 0.19978371 -0.18449679 0.052857276 -0.005228557
0.13903317 0.003905878 0.023521475 0.025571246 0.19857983 -0.086654924 -0.023474056 -0.020843092
-0.002998188 0.039528344 0.20991828 0.1318815 -0.14460176 0.16735634 8.005665e-05 -0.10310819
-0.13509773 0.041305605 -0.04206969 -0.17292847 0.08753124 -0.005437439 0.1906516 -0.027764605
-0.0066732955 0.2924004 0.03100863 -0.10222796 -0.013227253 -0.059996415 -0.08758774 0.112784564
0.17169361 -0.114428855 0.045730807 0.21767698 0.013629503 -0.032836165 0.08545665 -0.06295452
-0.1982161 -0.043163233 -0.069346406 -0.21490559 -0.007365347 0.10706982 0.24749568 -0.06309584
0.1463974 -0.24925143 0.0011588377 0.059214786 0.19041175 -0.1705268 0.10049466 -0.018657696
0.04126322 -0.045905583 0.29455143 0.12874807 0.09161816 -0.05492845 -0.024136705 -0.03382019
-0.17472242 0.020634009 -0.00084244466 -0.23599201 -0.09396455 0.121411316 0.21492037 -0.21968783

encoder.model.weight_hh_l0 f4 [120, 30]
00000000: 2c2e f73c 9fb3 713e b10b f4bd 269b d4bd
00000010: 3dbb 303e c7ce 09be f6ca cebd bf43 a23d
00000020: 1d2c de3d 8937 e2bd 5dc4 87bd b3ed 3ebe
00000030: fc45 c73c d8a2 5e3d 705b b5bc 8f01 d3ba
00000040: 6e37 d43d fec5 623e d0a7 9b3d 5cc2 e7bd
00000050: fbf0 a33d 81ad a63e b9b7 22bc f60a 06be
00000060: 379f 263e 2c57 c6bd 7821 20be 39f7 e03d
00000070: 2bda a6bd 0caf 243d 8d1b 323e b798 05be
00000080: c088 0a3e a60c e83d 54c6 6bbc ecac f73d
00000090: b856 863c df3a c33d 5fb1 4f3d fd97 643d
000000a0: 0497 5b3e f7c5 fc3d cb1a 28bd f994 e2bd
000000b0: c276 213a 9f1d a5bc b94c 043e 2750 9c3d
000000c0: fa26 913d e339 d2bd c827 563e aefd aa3d
000000d0: 3f2e e83d 230b 54be f6f9 243e eb93 a7bd
000000e0: 9892 3f3e 5a16 6dbe d517 843d 9c4a a1bd
000000f0: 071e a1bd de6e 5abd 8f5d 09be 3e51 83bd
00000100: 9908 90ba 6077 4bbe 06aa 42bd b55f 4b3e
00000110: 6e3d c1bd ec56 55bc d2d4 04bd b48e 033e
00000120: 5420 33be 1dba 17be ba7d 5e3e 3829 b3bd
00000130: 8ef8 513d 257c 283d 1a5f b93d edb4 2c3e
00000140: 51ac bc3d 8c85 743d bf28 4a3e 8c76 853d
00000150: 5036 c33d 6c31 f43b 6c12 9d3b 1473 69bd
00000160: fe63 0b3e b944 1a3c deaa 043e 7ec4 1cbe
00000170: 19c4 1dbe 872f 853e c2d0 823e 0f61 74bd
00000180: 1bcb d2bd 9679 90bc fa84 be3d 2767 f63d
00000190: 81ff 023e f1a1 c53d 67a7 94bd 29af 23be
000001a0: da82 e63d 1777 eb3d 728a 773c 65e4 f53d
000001b0: 9abb 293e 464b 5e3e b1ab a9bd f3c5 69be
000001c0: 2cd5 a13d cb25 6fbd 3cde 223e 3efa 183e
000001d0: 0e33 2bbe d64b aabd 7922 6c3e 526e 873c
000001e0: 755d 28be 19d6 b6bb f818 0f3e 4148 153e
000001f0: b165 a43c 2a33 3cbd 3c36 303e 921f a4bd
00000200: da82 1d3e cac8 fd3d 34cc c3bd e33f bc3d
00000210: 32f3 98bd 22c4 50be 38fd 8d3e 87d9 bdbd
00000220: 073a ce3d 0efd 333c a1f1 f73d 5012 80bd
00000230: 561c 6a3e d1e0 c03d fd87 4d3e 42ab 14bd
00000240: 1c82 2e3e 66b4 523d 235b 1cbe 5eb3 22be
00000250: b257 913e a8c6 533e b79a 01be 4aa4 3bbe
00000260: 6a69 60bd 7072 33bd fdea cb3c 524b 1d3e
00000270: 7096 9bbc 4077 87bd b64e efbd f593 363e
00000280: fa57 ccbc d82a d0bd e76d 2c3e d426 21be
00000290: aa43 cd3d 1c19 02be cb68 f7bc cf0c 893c
000002a0: d812 39bd 13e4 ca3d 1752 783d 740f cbbd
000002b0: 0662 0fbe cb60 b23d 395f 893d 919c 2e3e
000002c0: f455 733d 2f55 2b3e 713b 1bba 53a2 5b3e
000002d0: e0aa 4f3e 26b5 57be d40c 8e3c 9283 243d
000002e0: 0d34 393e 37c7 913c 3b75 11be 6846 27be
000002f0: 3ee1 28bd c910 0abd 677f 573d 92f2 1a3d
00000300: 46f0 46bd 995f aabd e52b eb3d 3843 05be
00000310: ab22 5bbe 84e8 083d 364c 1dbe 4e96 ecbd
00000320: 71fd d6bd b25b e9bd 034d 73bd 0cb8 053e
00000330: 5cb8 413b fd01 d13d e728 623e 714a a5bc
00000340: 4544 24be 654e 2ebe d56f 473e 7a6b febd
00000350: 4f96 c1bc 102b dabc 9bb6 4fbd 651b 7fbc
00000360: 0624 0a3e b8ae f13d ace4 223d 84c0 6a3d
00000370: 3ba7 d23d bbb0 7d3d 03ab 2b3e 0978 f13c
00000380: f8b6 b93c b574 4d3e b576 213d f3d6 da3d
00000390: d64f 57be 7f0a f6bd 669f 83bb cd82 88bc
000003a0: 7f13 a8bd be31 3d3d ec83 0abe 1586 fa3d
000003b0: e29b a4bd 0b32 4ebd 153e 053e ff0f 473c
000003c0: a2a2 8fbe 4760 a6bc c8c2 ae3d 649c 603e
000003d0: 3ac3 043e 7c61 d2bd 4676 d93d ed69 7b3e
000003e0: d6d6 423e 489e 493e 8264 2b3e 43a7 a1bd
000003f0: bfd8 8b3b d3b4 8fbe 7f50 8b3e ba6d 86be
0.030173384 0.23603676 -0.119162925 -0.10381155 0.17258926 -0.13457786 -0.100973055 0.07923078
0.10848258 -0.11045749 -0.0662925 -0.18645363 0.024325363 0.05435452 -0.022138327 -0.0016098487
0.10362135 0.2214584 0.07600367 -0.11316368 0.08004948 0.32554248 -0.009931498 -0.13090119
0.16271673 -0.096845955 -0.15637767 0.10984654 -0.08147081 0.040206 0.17393322 -0.13046537
0.13528728 0.113305375 -0.014390547 0.12093529 0.016398773 0.09532713 0.050706264 0.05580901
0.21444327 0.12342446 -0.041041177 -0.110635705 0.0006159359 -0.020155726 0.12919892 0.07632475
0.07087512 -0.10264947 0.20913613 0.08349167 0.11336946 -0.20707373 0.16110978 -0.0818251
0.18708265 -0.23153058 0.06449858 -0.07875559 -0.078670554 -0.053328387 -0.13414596 -0.0641198
-0.001098889 -0.19869757 -0.04752543 0.19860728 -0.09435545 -0.013021212 -0.032429524 0.12847406
-0.17492801 -0.1481709 0.21727648 -0.08748096 0.05126243 0.04113402 0.09051342 0.16865893
0.09212554 0.059697673 0.19742106 0.06516752 0.09531844 0.0074521806 0.004793456 -0.056994513
0.13612363 0.009415799 0.12955806 -0.15309331 -0.15406837 0.26012823 0.25549895 -0.059662875
-0.102926455 -0.017636102 0.09302707 0.120313935 0.1279278 0.096500285 -0.07258492 -0.15984787
0.11255427 0.11497324 0.0151086915 0.120064534 0.1657547 0.21708402 -0.08284701 -0.22829418
0.079019874 -0.05838565 0.15905088 0.1493921 -0.16718695 -0.08315246 0.23060025 0.016532097
-0.16441901 -0.0055797216 0.13974369 0.14578344 0.020068021 -0.04594723 0.17208189 -0.08013834
0.15381947 0.12391813 -0.09560433 0.09191873 -0.07468261 -0.20387319 0.27732253 -0.09270006
0.100696616 0.010985626 0.12106634 -0.06253493 0.22862372 0.0941788 0.20071407 -0.036296137
0.1704182 0.051441573 -0.15269141 -0.15888736 0.2838722 0.2068125 -0.12656675 -0.1832439
-0.05478803 -0.043810308 0.024892325 0.15360764 -0.018992633 -0.06614542 -0.11684935 0.17829879
-0.024944294 -0.10164422 0.168388 -0.15737468 0.100226715 -0.12704891 -0.030201336 0.01672974
-0.045183986 0.09906783 0.060625162 -0.09915057 -0.14002237 0.08709868 0.067076154 0.17051913
0.059408143 0.16731714 -0.0005921638 0.2144864 0.20280027 -0.21065196 0.017340101 0.040164538
0.18086262 0.017795188 -0.14204876 -0.16335452 -0.041230433 -0.033707414 0.052611735 0.03782899
-0.048568986 -0.08319015 0.114829816 -0.13013923 -0.21399944 0.03342487 -0.15361103 -0.11552106
-0.10497559 -0.113944426 -0.059399616 0.1305849 0.002955935 0.10205457 0.22085916 -0.020177098
-0.16041668 -0.17022093 0.19476254 -0.12422843 -0.023631243 -0.026631862 -0.050711256 -0.015570496
0.13490304 0.11800903 0.03976886 0.057312503 0.10285803 0.06193612 0.16764455 0.029476183
0.022670254 0.20064051 0.03941985 0.106855296 -0.21026549 -0.12013721 -0.0040168045 -0.016663933
-0.082068436 0.046190016 -0.13526887 0.12232605 -0.08037545 -0.050340693 0.13011964 0.01214981
-0.28053766 -0.02030958 0.08533245 0.21934658 0.12965098 -0.102725 0.10618262 0.24552126
0.19027266 0.19689286 0.1673756 -0.07893231 0.0042677815 -0.28067645 0.2720985 -0.2625559

encoder.model.bias_ih_l0 f4 [120]
00000000: 01e9 06be 22f8 babd 6521 b1ba 8ed5 d4bc
00000010: 6b77 7f3d 235b 1f3e 5816 ddbd 0029 20be
00000020: 940b 5c3e 5c8a 553e f1da a2bc 8e17 213e
00000030: f43d 9dbd ba33 833e e36d 623e 3f88 11bd
00000040: 5899 903c 4ba3 863e f3e5 1e3e 9915 113e
00000050: 0d30 4a3e 9414 66bd 3e72 8a3d ffa0 893d
00000060: 5874 173e b592 203e 3073 663d 6a12 35bd
00000070: 6dfa 1ebd 85dd 4a3e 38be 393e f4b6 93bc
00000080: d38c c1bd 37ce a1bd 2c25 813e 279d 6d3b
00000090: db58 b9bd 1c4f 453d 04aa bd3d e9ba b2bc
000000a0: 7f21 843e f7bb 4d3e 0bf8 8b3c b182 063e
000000b0: 298c 25bd 70ea a83d 5ccd 1d3e b3dd 013e
000000c0: 6b8a 2c3e 8265 8f3d d697 9bbc 0adf 9f3c
000000d0: 2b48 6d3d 4817 bc3d 0376 3ebd e23c 703e
000000e0: 14d4 5abd bd64 bf3c d251 e5bc 3ae9 b6bd
000000f0: 7b90 1abe f25d 57bd 5947 8b3c 5844 173e
00000100: f529 52bd e390 f73d 0cc5 d8bd 6eec 183e
00000110: 12dc 123e 0d35 7d3e 4e8a 653d 68ec 7cbd
00000120: 09bc d33c c85c 7ebe 318b f83d 0d69 84be
00000130: 12a2 363e 60c0 863d f1f8 233e 48d7 823d
00000140: e5cc 813e e693 04be 4c65 2b3e 00b3 43be
00000150: a225 48bc 8bcf 193e fe66 cf3c 1b99 25be
00000160: f29d 8fbc e578 6e3d 2a0c 9a3b 6830 363e
00000170: ace2 ccbd 0e84 283e c463 283e a271 683d
00000180: d335 863d 97fd 97bd b09a 86bd daef 683e
00000190: 0e40 03be 44c5 853d 160d 9bbd 76f5 683e
000001a0: 5ba4 b53d a695 aabd 6d8c 063e 87d4 0cbd
000001b0: 4ff2 d43d 65d2 86bc be4a 803e 35a9 3c3e
000001c0: 0d9f 663d c477 0d3e 10ee 203d 79df 163e
000001d0: 6c6d f03d 71d3 853e c2c4 de3c 1805 2b3c
-0.13174821 -0.09129359 -0.0013513981 -0.025980737 0.062369745 0.1556211 -0.10795277 -0.1564064
0.21488792 0.20853561 -0.01987979 0.15731642 -0.07677832 0.25625402 0.22112231 -0.035530325
0.017651245 0.26296458 0.15517406 0.14168395 0.19744892 -0.05617197 0.06760071 0.06720161
0.14790475 0.15680964 0.056262195 -0.044207014 -0.038813043 0.19811065 0.18138969 -0.018031575
-0.09450688 -0.079006605 0.25223672 0.0036257 -0.09050151 0.048171148 0.092609435 -0.021817641
0.25806805 0.20091234 0.01708605 0.13135792 -0.04041687 0.082478404 0.1541037 0.12682228
0.16849677 0.07001783 -0.0189933 0.019515533 0.057930153 0.09184128 -0.046499263 0.23460725
-0.05342491 0.023363465 -0.027993117 -0.08931203 -0.15094177 -0.052579828 0.017001795 0.14772165
-0.051309545 0.12088182 -0.10584459 0.14933941 0.14341763 0.24727269 0.0560401 -0.061748892
0.025846498 -0.2484008 0.12135924 -0.25861397 0.17835262 0.06579661 0.16012932 0.06388718
0.25351635 -0.12947044 0.1673786 -0.19111252 -0.012216004 0.15020578 0.025317665 -0.16171686
-0.017531369 0.058220763 0.004701157 0.17791903 -0.10004172 0.16456625 0.16444308 0.056748994
0.06553235 -0.07421415 -0.06572473 0.22747746 -0.12817404 0.06531766 -0.07570855 0.22749886
0.08869239 -0.083293244 0.13139506 -0.03438237 0.10397779 -0.016457746 0.25057024 0.18423922
0.056304026 0.13815218 0.039289534 0.14733686 0.117396206 0.2613788 0.02719343 0.010438226

encoder.model.bias_hh_l0 f4 [120]
00000000: 5c0f 543e 0cdc 113d ce4c 0fbe add9 963d
00000010: abe6 933e b49d a53d fca6 d43d ff63 e93d
00000020: 3132 2d3e 51c5 433e 9957 a43c fe47 5c3e
00000030: ee99 52bd e36a 553e 1fcc f63d 93be 003e
00000040: bb7b b1bc 60f0 223e d65e 86bd 2c38 073d
00000050: 90f3 1f3e a661 883d 4cea 14be 974f 45bd
00000060: acb7 673e 09d0 b33d 6759 0cbe e8b0 c83d
00000070: f2d2 333e 707c 89bd bbf5 5e3d 051f a3bd
00000080: cfbb 4dbd a196 c7bd ccb4 023e 2339 bbbd
00000090: 2f78 8c3d c475 2ebd 0347 0a3e 8631 393e
000000a0: 6e52 6a3e be18 0f3c eff9 303c b7aa 2ebd
000000b0: 4552 353e 9112 173e fe2b 2e3e 744d 203d
000000c0: 9f06 963c 3652 87bd 2915 aebc 26b9 423e
000000d0: 05ea 0b3e 5aa0 6cbd 6d43 2bbe fa46 8e3d
000000e0: 4dec b2bd c115 e63d 2645 b9bd c7ef febd
000000f0: d204 cd3d 23e4 6cbe bdc2 313e 89c5 963d
00000100: b825 3f3e 5838 673e 3eb0 113e 04bc 0d3d
00000110: 1901 063e 1adf 423e 207e c5bb 1709 3fbe
00000120: 85ab 143e bdc9 8dbe 9998 1b3e 83fb 78be
00000130: d78c 95bd 6001 7abe 9afb 223e 0958 023e
00000140: 2c15 103e 78ff 43be 1410 3bbe 1676 ed39
00000150: cc80 8d3d dd37 193e f9ac 3b3d 5b2c 85be
00000160: de54 7b3e a42e 343e 9eab 423d 0bd7 b1bd
00000170: 178a 363e 18b6 27bd e087 5d3d 0899 493e
00000180: 5304 7cbd a3bd 943d 62fd c43d cb33 8a3e
00000190: 3527 80bd 0d3d a1bd eb70 2a3e 8559 b73b
000001a0: fd5c a33d e0dd 2d3d ae6d d23c 0721 4fbd
000001b0: 42bd d3bd a716 493c 39bc 013e 58ce d43d
000001c0: c9bb 7f3d 54e2 723e 3e25 afbd f478 433e
000001d0: e8cd 2ebe aab8 163e 48db a13d 8966 423c
0.20708984 0.035610244 -0.13994142 0.07365737 0.28886923 0.0808672 0.10383412 0.11396026
0.16913678 0.19118239 0.020061301 0.21511838 -0.05141633 0.20841555 0.12050652 0.12572698
-0.021665445 0.15912008 -0.06561057 0.033012554 0.15620255 0.0665925 -0.14542502 -0.048171606
0.22628659 0.08779914 -0.1370598 0.09799367 0.17560938 -0.06713188 0.054433566 -0.07964901
-0.050227936 -0.09745527 0.12764281 -0.09141757 0.06858861 -0.04259278 0.13503651 0.18085298
0.22883007 0.008733926 0.010801776 -0.042643275 0.17707165 0.14753176 0.17008969 0.039136365
0.018313704 -0.06607477 -0.021250324 0.19015941 0.1366349 -0.05777011 -0.1672494 0.069471315
-0.08736477 0.11234618 -0.09046392 -0.12448078 0.10010685 -0.23133902 0.17359443 0.073618956
0.18666732 0.22580087 0.14227387 0.034603134 0.13086356 0.19030419 -0.006026998 -0.18655811
0.14518555 -0.27692977 0.1519493 -0.24314694 -0.07302254 -0.24414587 0.15916291 0.12728895
0.14070576 -0.19140422 -0.18267852 0.00045292143 0.06909332 0.14962716 0.045819256 -0.26010403
0.24544093 0.17595917 0.04752695 -0.08683594 0.17826115 -0.040945143 0.05408466 0.19687283
-0.06152756 0.07262733 0.096186414 0.2699264 -0.06257478 -0.07872973 0.16644637 0.0055953884
0.079767205 0.042447925 0.025687065 -0.050568607 -0.103388324 0.012273467 0.12669457 0.103909194
0.062434945 0.2371915 -0.08552025 0.19089109 -0.17070735 0.14718881 0.07903153 0.011865267

encoder.model.weight_ih_l1 f4 [120, 30]
00000000: 18c3 00be 44d0 193d df99 0fbe 7666 b9bd
00000010: 8db8 7c3e 892b 2dbe 3fe8 613e 7909 3d3d
00000020: 17b8 57bd afad 0d3e 0db3 0e3e 32e7 55bd
00000030: 9121 b8bd b363 363c 3e10 033e 2a44 bc3d
00000040: 74c5 a6bd 307e 35be bebb 8fbc a648 623e
00000050: 3326 fbbd 1204 de3d 5bd8 f73d 26bc 223e
00000060: ab3e 123d e67c 1e3e 836d 1fbe 2bc5 da3d
00000070: 3702 c03c 2499 c5bd e692 b6bd 5c75 f83d
00000080: d768 a6bd 9acc 1c3e f785 813e 30e3 05be
00000090: 14f5 2d3e dc3b e03d eccf 86bd 9c37 29bc
000000a0: 8980 1bbd 0a8a 7ebd 5439 8fbb bc6b 4f3c
000000b0: 9b29 983d b452 38be 5aa7 4f3e 5101 5bbe
000000c0: 130b 863d 676c ac3c 0960 b0bd 8ee3 f93c
000000d0: cdd1 e53d 058a ec3d a988 51ba 3d5e 163e
000000e0: 33c8 aebd 799b 62bd 23c9 2b3e bb10 e43d
000000f0: 8758 a43d cb0d bf3d e204 e5bd 8d3d 91bd
00000100: e6ad 793e 81d4 053e c962 65b9 6757 0bbd
00000110: 1147 163d d85a edbd 2730 2d3d 4c69 15be
00000120: 8732 563e e674 4ebe 1ee7 9abc 475e b2bd
00000130: 8005 02be 71a2 b2bd 1a41 24bd 24c3 03bd
00000140: 9b05 113e 7b33 06be 4c70 cd3b c8d5 933d
00000150: 7567 11bc 78ac 0c3d 0d28 1f3e b8ce 12be
00000160: 1c76 113e 3647 be3d 26d9 583c 9e0e 1ebe
00000170: 3665 4abe ce68 d9bd 73b0 143e df59 26be
00000180: 8a57 fa3d 019b d03d 0824 323a ad21 953d
00000190: deb1 663e ed25 1fbe a395 523e 5fc5 3d3c
000001a0: 29fa afbd 5ff6 9d3c 12d2 06be 825e 7fbc
000001b0: b1c9 713d e755 cfbc 4135 e23c a67a 5c3d
000001c0: dede c73d f047 8a3d ea9e 5f3d 47f1 e2bd
000001d0: f724 3338 c438 f6bc 7b72 433e ee29 10be
000001e0: 3609 f63d d223 4ebd f8ab febc 9e84 fcbc
000001f0: e9a1 353d 434d 77bd 4176 5f3e 5a6d a93d
00000200: 3042 cf3d aaed 22be c694 e63d 580e cf3d
00000210: 1c38 a3bd a5b4 f03c a8fa 053e f51e 3b3e
00000220: 415c 913d 0beb 183d fb69 02be 2b12 c83d
00000230: 6e11 52bd ace8 44bd b80f f6bc 7ea6 e53d
00000240: 1cab 0dbe 8e75 0fbe 109e 483d f6e1 c23d
00000250: da9f f6bd 5db6 f03d c23a 0b3d 583c 0f3d
00000260: 9417 ffbc d1b4 003e 5132 ad3d 7525 e4bd
00000270: 386a e7bd 59d1 ea3c 4793 dfbd 63e2 66bc
00000280: 55c5 ce3d 3504 fbbd e043 0b3e 7203 15be
00000290: b26e 83bd 4191 8fbd c146 163e 408d 993d
000002a0: 625b 543e 049a 8abd 3230 dcbd cc76 303d
000002b0: a39d 5d3e 5a24 4b3e 3448 96bc b71a 6e3c
000002c0: 370f b2bd 1936 1ebd 0192 c23d f95b 0b3d
000002d0: d707 fe3c e966 8abe a94d 80be 2235 1abd
000002e0: 020e 50bd 8f63 aebd 03a4 553e 2bdd 603e
000002f0: ba69 8dbd b353 6c3c 1a93 213e a7db 543e
00000300: be8d 83bd e3df b6bd fd52 c43d c63a 4abb
00000310: 74d4 1b3e dc7e 2f3d 7c32 bc3d 8168 d83d
00000320: fc49 8f3d a62d 8e3d b0df 553e e118 4b3e
00000330: f5bb 64bc d3d1 3fbe 4f9e e83d ab92 06be
00000340: b519 00be b9ee 38be b7b9 e4bd 4956 e9bd
00000350: 9e70 cbbc eb8d 1a3e 82a8 873d 58c9 e43d
00000360: 057a 413e 6715 17bd 8858 f1bd 78a4 b8bd
00000370: 13c3 be3c 86ab d6bb f2a9 483e 7cc2 3ebd
00000380: a2b3 38bd 3c0d f73c 36c3 8f3d 8f50 20bd
00000390: 4ceb 3c3e 25d8 153e 646f 5fbd 4af7 f9bd
000003a0: fed5 b0bc 6aef b93c 2b89 883d ec1d 373e
000003b0: e3c7 11bc 7ad8 dc3d b2c7 72bd 5c3d 16b8
000003c0: 88c6 fbbd e69a 2cbe 7c33 e0bd 6001 c63d
000003d0: 49df 463e 1b10 f4bc 14df 333e e8b2 a83d
000003e0: 8314 953e b4e1 073e c3a6 383e cbfc 973d
000003f0: 80f4 783e 5c3e 14bd 4af6 d3bd 40c7 26be
-0.12574422 0.037552133 -0.14023541 -0.09052746 0.24679776 -0.16911139 0.22061251 0.046151612
-0.052665796 0.13835786 0.1393549 -0.05222244 -0.08990777 0.011132169 0.12799165 0.09192689
-0.0814313 -0.17723918 -0.017545577 0.22098026 -0.12263145 0.1084062 0.121018134 0.15892085
0.035704296 0.15477332 -0.15569119 0.10682138 0.023438556 -0.0964835 -0.089147374 0.121317595
-0.08125465 0.15312424 0.2529752 -0.13074946 0.16988021 0.10948917 -0.06582627 -0.0103282
-0.037964378 -0.062143363 -0.0043708477 0.012659963 0.074298106 -0.18000299 0.20278683 -0.21387221
0.06545081 0.021047784 -0.08612067 0.030504014 0.11221657 0.11549763 -0.0007993081 0.14684387
-0.08534279 -0.05532405 0.16775946 0.111360036 0.08024698 0.09328803 -0.11182572 -0.07091818
0.24382743 0.13069345 -0.00021875942 -0.0340189 0.036688868 -0.11589593 0.04228225 -0.14590949
0.20917712 -0.2016178 -0.018909033 -0.08709388 -0.1269741 -0.087223895 -0.04010115 -0.032168522
0.14162295 -0.13105576 0.0062694903 0.0721851 -0.008874764 0.034344167 0.15542622 -0.1433667
0.14205211 0.09290926 0.013235366 -0.15435264 -0.19765171 -0.10615693 0.14520435 -0.1624522
0.12223728 0.10185815 0.000679553 0.07281814 0.22528788 -0.15541811 0.20564894 0.0115827015
-0.08592636 0.019282518 -0.13166073 -0.015586497 0.05903024 -0.025309516 0.027613284 0.053827904
0.097593054 0.06752002 0.05459491 -0.11081176 4.2711352e-05 -0.030056365 0.1908664 -0.14078495
0.120134756 -0.05032713 -0.03108786 -0.030824956 0.044343863 -0.060376417 0.21822454 0.0827281
0.10120046 -0.15910974 0.11258845 0.10110158 -0.079696864 0.029383013 0.13083899 0.18273528
0.07097674 0.03733353 -0.12735741 0.0976909 -0.051286153 -0.048073456 -0.030036792 0.112133965
-0.13834804 -0.14009687 0.048978865 0.09515755 -0.12042208 0.11753533 0.033991583 0.034969658
-0.031139173 0.12568976 0.08456863 -0.11139957 -0.112995565 0.028664278 -0.10916763 -0.014092061
0.10096232 -0.12256662 0.13600111 -0.14552096 -0.06417598 -0.07010127 0.14675428 0.074976444
0.20737985 -0.067676574 -0.1075138 0.043082044 0.21642165 0.19838086 -0.018344976 0.0145327365
-0.08694308 -0.03862581 0.09500504 0.03402326 0.031009598 -0.2703164 -0.2505925 -0.037648328
-0.05079461 -0.08515083 0.20863347 0.21959369 -0.06904931 0.014424252 0.15778771 0.20786916
-0.064235196 -0.08929422 0.09586141 -0.0030857786 0.15217763 0.042845592 0.09189317 0.105668075
0.06996533 0.069423005 0.20886111 0.1983371 -0.013960828 -0.18732385 0.1135832 -0.13141887
-0.12509806 -0.18059815 -0.11168235 -0.11393411 -0.024833973 0.150932 0.06623937 0.11171216
0.18894203 -0.036885645 -0.11784464 -0.09015745 0.023286378 -0.006551209 0.19596079 -0.046572194
-0.045093186 0.030157678 0.070196554 -0.039139327 0.18449134 0.14633234 -0.05454959 -0.1220537
-0.021586414 0.02269717 0.06666788 0.17882508 -0.008897754 0.10783477 -0.059272476 -3.5819932e-05
-0.12293726 -0.16855964 -0.1094732 0.09668231 0.19421114 -0.029792836 0.17565566 0.08237249
0.29117212 0.13269693 0.18032365 0.07421263 0.2431202 -0.036192283 -0.1034971 -0.16286945

encoder.model.weight_hh_l1 f4 [120, 30]
00000000: 92ee 9d3c 4f47 613d 9512 f33d f317 423e
00000010: a524 f4bd 577b ecbd 2340 a3bc 9f56 04bc
00000020: 1400 023e b6f3 88bd 430a 6fbd 5ab9 adbd
00000030: d687 51bd a7cd 48be f46d 05be 89dc 233e
00000040: be9b 2e3d 8c85 5f3d 2074 393d d9da 1e3e
00000050: 3465 913d 6f7c 2abe e7c3 31bd f7e8 79be
00000060: a3d9 7f3e 9a3c 453d 819e efbd c35b 993d
00000070: 831d 1a3e ed08 543d 7823 16be 0a45 dc3d
00000080: 4838 b3bd 6193 223e 981e 23bd e790 f73d
00000090: a211 96bd fb27 1b3e 373a 8b3d 84d4 df3d
000000a0: 6d64 6ebd e500 f1bd 6a51 023e 3e4d 853d
000000b0: f778 17be a8ed 323e 7fa8 9cbd fbf1 09be
000000c0: 8c1b d8bd 0c9a d2bd 1f90 6dbd af1c 4cbe
000000d0: 09b4 213d 4ff1 62be cf22 123e 2724 32be
000000e0: 68f3 a6bd 0adf 00be 42ae 98bd 300a c53d
000000f0: 2179 08be 689e e33d aa45 cb3c 2ffc e23d
00000100: aeaf 073d e299 85bd 3779 eabd c252 3cbc
00000110: 4498 e3bd f3f1 52be e978 debd eca8 e03d
00000120: 3c8f 363e d239 62be 2d48 a83d 58ab 10be
00000130: cfdb 19bd 3dcf 08be 1c88 3ebd 6ef4 72bd
00000140: f1d6 d0bd fa56 cd3d 923d 983d 3d4c 993d
00000150: 6a63 193e ab02 a1bd 0a82 a2bd f7bb 14be
00000160: 4908 79bd e38e b43d 0499 0dbe 7b80 373e
00000170: 6423 e7bd d06c cc3c 7b85 803d 7322 8e3b
00000180: dba8 dcbd cdd4 f23d 26fb cb3d 76ec efbd
00000190: d35c 743d 0385 23bd 61f6 41bb addc 253b
000001a0: c033 2b3d 11c6 713e c028 0f3e 6ebe 17bd
000001b0: 4315 d4bc 09eb 0bbe d321 36bd ddf8 49be
000001c0: 72d4 efbc d86d 1abd c920 1ebc 4aa4 09bd
000001d0: 68df a5ba 29a4 2cbe 0651 0b3e 2608 39be
000001e0: 4d71 36bd d1df 9a3d c3ee ba3b 2f11 b83d
000001f0: 5d83 c5bd ccae c3bd 60d6 683e bd5c d93d
00000200: a93b c73d b299 d1bd 688e 9dbd f940 b13d
00000210: ea5e 7f3d 73c3 f03d ad9b 973d e401 febd
00000220: cf93 27be 890c 95bd 4478 36bd f258 a4bd
00000230: 1f1c 4a3d d732 49be a2a6 67bb bc63 b5bd
00000240: d466 4a3e 3f66 d83d 9f79 e6bd bf4f 8dbc
00000250: 75d0 703d 1321 1dbe d6e2 6cbe e2d5 af3d
00000260: 6022 23bd 3c81 b1bd 79c3 193d 5973 c43d
00000270: a6cd 723e 59d4 063e 0e20 9dbd f021 f73d
00000280: a859 da3d 7afa 753e ef92 463d 9cc5 3fbd
00000290: 3673 3bbd e0c1 283e 8fc3 21be 90a5 eebd
000002a0: 37a8 e93d c0dc 2fbd a6d1 50bc 4944 40be
000002b0: 6734 aabd 934f 5dbe 338c 5a3e 15c7 29be
000002c0: e0c3 cfbd dba1 c43d 8631 2b3e 9d3b f8bd
000002d0: a92e 373d 4a3a f03d 47f5 0abe 2aad b9bb
000002e0: b161 7ebd 5f0b 28be 3de6 6f3c fe11 9b3d
000002f0: c828 10be 2701 1abe 2e30 7bbe b8c3 33bc
00000300: dc58 e8bd 11a9 33be feb3 a03d 55a3 763e
00000310: ea45 fa3d dbb6 d03d 402c f53d 9685 ae3c
00000320: 23df 67bd f0d5 54be 3f6b a7bd ac00 ecbd
00000330: 8744 d33d 30e5 f3bc a938 53be 8116 12bd
00000340: a2fe 693e 56c5 61bc 6444 623c c77f fe3b
00000350: ec4d c9bd b4f5 82bd 2144 183d ffac c6bd
00000360: 4d7d b53d 5315 cbbd c175 b03d f95c e4bc
00000370: fb4d a6bc 5a2b 393c 13dc babd d5ff 963d
00000380: b874 4d3c 0168 313e aef4 84bd e86b 20be
00000390: 49d7 423e 6163 fdbc 78a6 7a3c cdbc 3dbe
000003a0: d468 a8bd 7c95 f13d b28c 213e e311 f53d
000003b0: e6c9 c03d 47b0 913c 1515 6e3d b151 3fbe
000003c0: 8d31 17bc 1aca 683e 96c1 6bbe 48c2 693e
000003d0: afb1 a5bd 8a87 1bbe 47a2 183e 2fe8 193e
000003e0: 845c 37bd 7d98 b53d 18c9 f33c 2fa2 27bc
000003f0: 6021 4c3d 706f 8fbd 60ec a4bd 045a 0e3e
0.019278798 0.054999646 0.118687786 0.18954448 -0.11921052 -0.11546963 -0.019928044 -0.008077293
0.12695342 -0.06687109 -0.058359396 -0.08482619 -0.051154934 -0.196097 -0.13030225 0.16002096
0.042628996 0.05457072 0.04527676 0.15513171 0.07099381 -0.1664903 -0.043399718 -0.24405275
0.24985366 0.048153497 -0.11700154 0.07488205 0.1505032 0.051766325 -0.14661968 0.10755356
-0.08750969 0.15876533 -0.0398241 0.12088185 -0.07327582 0.1515197 0.06798213 0.10929206
-0.058201242 -0.11767749 0.1272637 0.065088734 -0.14792238 0.17473471 -0.076493256 -0.13471214
-0.10552129 -0.10283288 -0.057998773 -0.19932817 0.039478336 -0.22162364 0.14271091 -0.17396604
-0.08151895 -0.12585083 -0.07455112 0.09621084 -0.13327457 0.11114198 0.024813492 0.110832565
0.033126526 -0.065234914 -0.11448901 -0.01149434 -0.11113027 -0.20600109 -0.108629055 0.10969719
0.17828077 -0.22092369 0.082168914 -0.14127862 -0.03756314 -0.13360305 -0.046516523 -0.059315138
-0.10197247 0.10026355 0.074336186 0.074852444 0.1497933 -0.07861837 -0.07934959 -0.14524828
-0.060798917 0.08816316 -0.13827902 0.17920105 -0.11286047 0.02495423 0.062754594 0.0043376028
-0.10774394 0.11856995 0.09960012 -0.11715023 0.059658837 -0.03992177 -0.0029596316 0.0025308535
0.0417974 0.23610713 0.13980389 -0.037046842 -0.025889045 -0.13663878 -0.04446585 -0.1972384
-0.029276107 -0.03770241 -0.009651371 -0.033603944 -0.0012655081 -0.16859497 0.13605127 -0.18069515
-0.044541646 0.07562221 0.005704732 0.089876525 -0.09644196 -0.09554824 0.22738028 0.106133915
0.09728176 -0.10234393 -0.076931775 0.08654971 0.062346376 0.11756029 0.0740274 -0.12402704
-0.16364978 -0.072777815 -0.044548288 -0.080247775 0.049343225 -0.196483 -0.0035347124 -0.088569134
0.19765788 0.10566377 -0.11253666 -0.01724994 0.05879255 -0.15344648 -0.23133406 0.08585717
-0.039827704 -0.086672276 0.037539933 0.09592313 0.23711261 0.13166942 -0.076721296 0.1206702
0.10661632 0.2402133 0.04847997 -0.046819314 -0.04576417 0.16480207 -0.15797256 -0.11652672
0.114090376 -0.042935133 -0.012745297 -0.18776049 -0.08310776 -0.21612386 0.21342544 -0.1657985
-0.10144782 0.09601184 0.1671811 -0.12120745 0.044722233 0.11729868 -0.13570128 -0.0056663947
-0.062104885 -0.16410588 0.014642295 0.07571791 -0.14078057 -0.15039502 -0.24530098 -0.010971956
-0.113450736 -0.17544962 0.07846831 0.24085744 0.12220366 0.10191127 0.11971331 0.021303933
-0.056609284 -0.20784736 -0.081747524 -0.11523566 0.10315805 -0.029772371 -0.20627083 -0.035665993
0.22851041 -0.013779959 0.013810251 0.007766697 -0.098293155 -0.063945204 0.037174348 -0.09700965
0.0886179 -0.09916177 0.0861621 -0.027876364 -0.020300856 0.01130184 -0.09124007 0.07373015
0.012540035 0.1732483 -0.064919814 -0.15666163 0.19027437 -0.030931177 0.015298478 -0.18529053
-0.082231194 0.1179609 0.15776327 0.11966302 0.09413509 0.01778425 0.058125574 -0.18683507
-0.009228122 0.22733346 -0.23023066 0.22828019 -0.08090531 -0.15188423 0.14905654 0.15029977
-0.044765964 0.088669755 0.029758975 -0.010231539 0.049836516 -0.07003677 -0.080528975 0.13901526

encoder.model.bias_ih_l1 f4 [120]
00000000: fc92 9abd 4df6 ed3d 0ed2 293e 294a 1f3e
00000010: f0eb 8ebc eea4 20bd 7698 403e 5476 b3bd
00000020: 86d8 243e bf8d 5dbd f874 a13a 6817 e4bb
00000030: d513 f83d a303 19be 4aa2 cdbd 4410 14be
00000040: be81 a03d 78de 8ebd b895 3d3e 0328 283e
00000050: c7cf 20be b16c 1e3e b2e6 113e 6984 b13d
00000060: 72b3 4d3d 0dfe b2bd 3e53 08bb 0e44 11be
00000070: 0fe8 323e 9346 8c3c afed 413e 6a36 42bc
00000080: 34b4 013c 6e1a 233e 9e74 413e b678 033e
00000090: 1947 3b3e a30a 503c 28cc 26be a88d 7b3c
000000a0: fb77 b63c f08f 853c 1656 53bd acf2 b1bd
000000b0: ffd0 cdbd d917 043e 8ac3 ba3d 5d52 1e3e
000000c0: 952e 3c3e 71f6 29be 470f c1bd 2739 283e
000000d0: dcb6 fd3d 6e6a f73d 7747 643d 96aa 0c3e
000000e0: 0fb9 c63b b1f3 1dbd eb6f 6c3e 085a f7bc
000000f0: 972e 5ebe 98fb f83d dae3 af3d 52c9 273e
00000100: 357e 26be 7021 3dbe db5a d1bc 8341 3bbd
00000110: d11b f2bd 1d88 84bd d4e0 d83d a847 6b3d
00000120: f60a 583e 1a05 f5bd e176 753d 5ac4 343e
00000130: 851c 1fbd 2f65 d1bd d590 043e 959c 343d
00000140: 46be 16be 3b40 10be 99d5 de3d ab4d 4bbe
00000150: d3b9 6d3d 900f 193e b39a c1bd aa29 34bd
00000160: 2652 553c 7a91 fbbd 1d04 34bd f6be 573a
00000170: 378c f2bd 1c62 87bd 1b5a 0c3d 6032 93bd
00000180: 8439 773b 2810 813d 2838 7a3c c417 343e
00000190: 114b acbb 1f70 443e c9fe 01be 91cb 723d
000001a0: 6902 c63d 12be 683e ccde 4a3d 242f 70bd
000001b0: 2b0e 773e ff9a a43d e36c 71bd 1183 643d
000001c0: bf0d d7bd 0698 a43d a80b 39bd 4d0d e7bd
000001d0: a770 0dbe 056c 9dbd a5d9 c53d 11b7 b3bd
-0.07547566 0.11619244 0.16584036 0.15555634 -0.017446488 -0.03921979 0.18808159 -0.08762804
0.16098222 -0.054090258 0.0012318185 -0.006960798 0.12113158 -0.14942794 -0.1004072 -0.1445933
0.07837246 -0.06976026 0.18514144 0.16421513 -0.15704261 0.1547115 0.1424816 0.08667833
0.05021996 -0.087398626 -0.002080157 -0.14186117 0.17471336 0.017123496 0.18938325 -0.011853794
0.007916499 0.15928051 0.18892142 0.12839016 0.1828884 0.0126978485 -0.16288817 0.015353598
0.022274008 0.016303986 -0.05159577 -0.08688864 -0.100496285 0.12899722 0.09119327 0.15461107
0.18377145 -0.16597916 -0.09426742 0.16428052 0.12388393 0.12080847 0.055732217 0.13736948
0.006064541 -0.03856248 0.23089568 -0.030194297 -0.2169746 0.12157363 0.08588381 0.16385391
-0.16259082 -0.18469787 -0.025556019 -0.045716774 -0.11821712 -0.06471274 0.105897576 0.057441384
0.21097931 -0.11963864 0.059927825 0.17653027 -0.038845558 -0.10224377 0.12945874 0.04409464
-0.14721021 -0.14087002 0.10880584 -0.19853847 0.058038544 0.14947343 -0.09453335 -0.043985046
0.013020074 -0.12283607 -0.043949235 0.00082300545 -0.1184315 -0.0661051 0.03426562 -0.07187343
0.003772349 0.0630191 0.015272178 0.17587191 -0.005257972 0.19183396 -0.12694849 0.059276167
0.096684285 0.22728756 0.049528882 -0.058638707 0.24126498 0.08037376 -0.058941733 0.055789057
-0.10500669 0.08036809 -0.045177132 -0.11281834 -0.13812505 -0.07686619 0.09660653 -0.087751515

encoder.model.bias_hh_l1 f4 [120]
00000000: 6269 f63d 30a3 c1bd c01f 203e 7573 103e
00000010: 9a4c cd3d f9c4 3e3e b28c 243e e6ce f9bd
00000020: f5f8 033d 572d 9ebd abbe 773d 4348 9dbd
00000030: 694c d73c cc00 283e e3c3 723e 10ed b0bd
00000040: 99a6 4a3e fac6 a43d dd44 743e 8ec0 1bbd
00000050: 1719 91bd 7ef3 553e 53e3 883c c776 b3bd
00000060: 7622 403d ae01 86bc d38a f13d 4828 9ebc
00000070: 89d2 ae3d 2552 683d ee27 1b3e 05c3 953d
00000080: d558 6e3d fcb5 b43d f2e9 ce3d 6da7 5c3e
00000090: 336e 74bd 24a0 63bc 2e0b 10be 1adf f43d
000000a0: 668b 053e 9501 e8bb fe36 fb3c 5d04 e5bd
000000b0: 1320 f83d a2e4 483d e515 f33d 01e1 68bd
000000c0: 8362 493e 0d66 033e eaab 353e ce19 ea3b
000000d0: 63f8 fcbd 37d4 393d 4afa 4b3e 31f0 b03d
000000e0: 6e69 f63d aebf 7bbd 6f9e c0bd 0d79 32be
000000f0: f122 65bd 1b98 aebd 1832 51be 777c d43d
00000100: fce5 97bd 22ee 8abd aebf 67bd 5e4a 003e
00000110: 158b 143d cb41 47bd 856a fbbd b55e 0f3e
00000120: ebe1 643d a1dd 09be 2ea9 b63d c545 ea39
00000130: ac93 e5bc e8c0 1dbe 5bcc cd3d 663a 86bc
00000140: c835 5dbd eef1 d0bd e102 cb3d 0fb8 e7bd
00000150: 805e 133e 7ce5 afbd 559c 35be d4c8 b3bd
00000160: c6a6 2e3e 46fb 82bc 4976 76bd 1ee0 893d
00000170: f113 503d 445f 513e cceb 503e 2772 52bd
00000180: 6c8d e13a ba75 6a3e 453d 543e 2fd9 153e
00000190: 0c93 ffbc d76e 703d 0eb9 1cbe 36fc 01be
000001a0: 5457 1ebc a216 d93d 7173 313e 53dd 97bd
000001b0: 08ac 2e3e b4f5 80bb b89d 60bd 3691 dc3d
000001c0: d482 fc3d 0b84 123e 5ee7 d63d c5f1 98bd
000001d0: 5263 0bbe e182 f13c 1a6c ea3d 5a46 4f3e
0.12031819 -0.09454954 0.15637112 0.14106543 0.10024376 0.18629827 0.16069296 -0.12197666
0.032219846 -0.07723492 0.06048457 -0.076797985 0.026281552 0.16406554 0.23707537 -0.08638966
0.19790114 0.08045764 0.23854394 -0.03802543 -0.07084864 0.20893666 0.01670996 -0.08762889
0.046907865 -0.016358223 0.11794057 -0.019306317 0.0853625 0.056718964 0.1515195 0.07312588
0.058190186 0.08823773 0.10103215 0.21548243 -0.059675407 -0.013893161 -0.14066765 0.11956616
0.13041458 -0.0070802667 0.03066587 -0.11182473 0.12115493 0.049046166 0.118694104 -0.056855205
0.19666485 0.12831898 0.17741361 0.0071441894 -0.123520635 0.0453684 0.19919696 0.08639563
0.12031828 -0.061462097 -0.09405219 -0.1742899 -0.055941526 -0.085251056 -0.20429265 0.10375302
-0.07416913 -0.067837015 -0.056579284 0.12528369 0.03626545 -0.04864673 -0.12276176 0.14000972
0.055879515 -0.13463451 0.08918987 0.0004468394 -0.028024517 -0.15405619 0.10048743 -0.016385268
-0.054006368 -0.102023944 0.099126585 -0.11314403 0.14391518 -0.085886925 -0.17735417 -0.08778539
0.17055807 -0.015988957 -0.0601714 0.067322 0.050800268 0.20446497 0.2040245 -0.051378395
0.0017208285 0.22896472 0.20726497 0.1463363 -0.031198047 0.058699455 -0.15304968 -0.12693867
-0.009664375 0.1060002 0.17329194 -0.07415261 0.17057812 -0.00393554 -0.054837912 0.10769884
0.12329641 0.14308183 0.104933485 -0.07467989 -0.13612106 0.029481353 0.114464 0.2024168

variational_latent.hidden_to_mu.weight f4 [15, 30]
00000000: ed92 12be 8cc6 98bc 98dd 843e ef86 92bc
00000010: 4c35 aa3e be54 eb3a 9850 88be 5b80 31be
00000020: 4ece a6bd d27c 6dbe 30df f83d 5c6b 8fbe
00000030: a514 9a3d fb02 233e cab5 733d 75d1 b03e
00000040: ba33 7b3e d094 91be 8dcf e13d 9641 193d
00000050: f360 28ba 0957 323e daf6 c03c d433 163e
00000060: de39 42be 45b9 cb3e 6827 a1be bcca b6be
00000070: 9ca2 98be 55cc 7a3d 0ea4 a5bd bf06 41be
00000080: 4b85 8cbe f5fd 8dbe bf0d 243e 4dba a13d
00000090: 2ebb 6ebe e4de e13d b9ee 113e 3fb4 be3d
000000a0: cfa5 9bbc 7ee5 71be c061 8c3e 7946 9cbe
000000b0: 1b68 753e d3b7 a63d 0c0f 073e 81fb 8a3e
000000c0: 3703 b5be acb2 45be 50b3 9bbe 7f9c 423e
000000d0: 5fb3 043d b5da a53d 72a4 473d e069 8abe
000000e0: 8778 9fbe c373 963d f115 01be a09b 44bd
000000f0: e936 3fbd d276 8e3d 9928 793d 7150 083a
00000100: c3cc 9a3e 4546 43bc 405d 9abd 6785 5fbe
00000110: 0ced 953e de5c 1fbe 4433 e3bd 0492 383e
00000120: 819a 3ebd f980 893e c277 a3bc d78c d83d
00000130: 62d2 85be 7b6f 9bbe 2a10 21be 8cf7 fb3c
00000140: 9cc5 cabd aa33 ee3d b850 82be 1458 f63d
00000150: 55b1 743e 1eeb 95bd 1a6e 2bbe 9469 9fbe
00000160: 42be fb3d 972d b5bd a72d a2be ff0d 1a3e
00000170: 3974 af3e 7dba 7b3e 198e 853e 34e3 a73e
00000180: c561 bf3c 08cb a43e a08a 2dbe a641 a0be
00000190: c379 11be 18c0 dc3d f9d5 aebe 53d9 59be
000001a0: 8adc f23d ced9 f4bc cc7e 2e3e 2013 933e
000001b0: 296c 573e 619a b7bc 756c e53d d705 883e
000001c0: 681d 2fbb c0e5 94be 0490 dfbd 6905 98be
000001d0: 3137 803e 32d3 06be be55 833e 7162 543e
000001e0: 6f2e 3bbd 7467 14be ead8 803d a957 11be
000001f0: c3e9 30bb 79d5 243e b737 73bd ed2c 4d3e
00000200: 6ebc eabb 9dea 98be 8b96 873e 5eac a93e
00000210: 4295 873e 965b 293e e097 86be b967 c13c
00000220: 75b2 acbd 6f7e 51be 16bf 1b3e 04b9 fd3d
00000230: 3299 75be 9cba 1cbe 11d3 a23e c41f 053e
00000240: 05bb 13be bd5b 8dbe 3a06 0abe dd75 2f3c
00000250: 379e 69be c7e2 8cbd 3572 69bd 38f8 7d3e
00000260: d149 bb3e 779b 4cbe 322c 0fbd fae0 61be
00000270: 2e8e a5bd d5c0 9b3e 30c9 533e dfc1 75be
00000280: 70e7 963e 58d8 80be ad78 e3bc 5bf5 4ebe
00000290: f922 dc3d dc8e 063e 8aa0 16be d777 363d
000002a0: 5241 5e3e 62c6 7e3e 4942 7c3e 2ed1 183e
000002b0: 1d21 263e dfa1 df3d 7510 a63e 07a7 8fbe
000002c0: fa8f 48be 68a0 713e a5cd 6a3e e8b8 df3d
000002d0: 027a 92bd b8ad 9fbd a0a0 683e 63e0 a93d
000002e0: 3faa a63e 5d6b ab3d 47d4 bbbd bbb2 58be
000002f0: 4903 a9be 3d50 b63e 00f8 13bc 4ad3 9d3c
00000300: 1c53 db3e 85d7 fb3d f681 8a3e 8e32 b8bd
00000310: 49ac 99be 3170 b1be 34df 92bd 0d53 613e
00000320: 78cb 1dbe 0a99 fb3d 9da0 053e f1a9 2ebd
00000330: 177e 973e 49cb 233e 5cd8 89bd a114 b7be
00000340: 3cf8 cbbd 1386 71bd 7209 b73e 5d8c 82be
00000350: 0641 1abe 7254 b13c 14de 54be cae3 0f3e
00000360: 5836 b2be c7f0 933e f6f2 a53c bd2f eb3d
00000370: 1fc4 afbe 644e 53bd 5b00 8cbe 6748 be3d
00000380: 170f 513c 0167 b93d 537c 123e c95d 6a3e
00000390: 4a52 9ebe 4569 98bd 3c32 a2bc 3a25 9cbe
000003a0: 4611 c03d 464d 4ebe d8c3 05be 9586 a5bd
000003b0: a9a0 a6be 0557 8aba 02cb 553e d405 a83d
000003c0: 44b0 6bbd 8817 233c eae3 983b eba0 773c
000003d0: f60a cd3d 0f03 22be 2328 833e b357 86be
000003e0: 169e 33be fb05 9fbe 56c1 1e3e 3fda d8bd
000003f0: f1ff 063e 4c52 81be 9489 1f3e 72ec 50be
-0.1431386 -0.018649362 0.25950313 -0.017886607 0.33243787 0.0017954332 -0.26623988 -0.1733412
-0.08144818 -0.23192146 0.12151945 -0.28011596 0.07523469 0.15919106 0.05949954 0.34534803
0.24531451 -0.28433847 0.11025915 0.037416063 -0.0006423138 0.17416014 0.023555208 0.14668208
-0.18967387 0.39789787 -0.31475377 -0.3570155 -0.2981156 0.061230022 -0.080879316 -0.1885023
-0.27445444 -0.27732816 0.16020869 0.07896862 -0.23313591 0.11028841 0.14251222 0.09311723
-0.018999962 -0.236227 0.27418327 -0.30522516 0.23965494 0.081405304 0.13189334 0.27145007
-0.35354015 -0.19306439 -0.30410242 0.19005011 0.032397624 0.08098356 0.04874081 -0.270339
-0.31146643 0.073462985 -0.12606026 -0.047999978 -0.046683226 0.06956257 0.060829733 0.0005199975
0.30234346 -0.011918609 -0.07537317 -0.21828233 0.29282415 -0.1556277 -0.110937625 0.1802445
-0.046534065 0.2685621 -0.019954566 0.10573738 -0.26137072 -0.3035849 -0.15728822 0.030757688
-0.09900972 0.11630948 -0.2545221 0.12028518 0.23895772 -0.07320236 -0.16741219 -0.31135237
0.12292148 -0.08846586 -0.31675455 0.15044402 0.34268358 0.24582858 0.26084974 0.3279053
0.02336205 0.3218615 -0.16947412 -0.31300086 -0.14206605 0.107788265 -0.34147623 -0.21274309
0.11858471 -0.029889014 0.17040557 0.2872553 0.21037354 -0.02241248 0.11202327 0.26566955
-0.0026720408 -0.29081535 -0.10916141 -0.29691628 0.25042108 -0.13166502 0.25651354 0.20740677
-0.04569858 -0.14492589 0.06291373 -0.14193596 -0.0026994802 0.16097058 -0.059379306 0.20036669
-0.007163576 -0.29866496 0.26482043 0.33139318 0.26481062 0.16538844 -0.26287746 0.02360903
-0.084324755 -0.20458387 0.15209612 0.123888046 -0.2398422 -0.15305561 0.31801656 0.13000399
-0.14426811 -0.27609053 -0.13478938 0.010709253 -0.2281426 -0.06879192 -0.056993682 0.24801719
0.36579755 -0.1998118 -0.034954257 -0.22058478 -0.08083759 0.30420557 0.20682216 -0.23999737
0.29473448 -0.25165057 -0.027767504 -0.20210783 0.10748858 0.13140434 -0.14709678 0.044547882
0.21704605 0.24880365 0.24634661 0.14923546 0.16223569 0.10919546 0.3243443 -0.2805712
-0.19586173 0.23596346 0.2293001 0.1092394 -0.071521774 -0.07796806 0.22717524 0.082947515
0.32551762 0.08370087 -0.09171348 -0.2116193 -0.3301032 0.35608092 -0.009031296 0.01926579
0.42836845 0.122969665 0.27052277 -0.089940175 -0.30014256 -0.34655908 -0.07171479 0.22004338
-0.15409648 0.12285049 0.1304955 -0.042642538 0.29588386 0.15995516 -0.067307204 -0.35757926
-0.09959456 -0.058965754 0.35749394 -0.25497714 -0.15063867 0.021646712 -0.20787841 0.14051738
-0.34807086 0.28894636 0.020257454 0.11483715 -0.34329316 -0.05158843 -0.2734402 0.092911534
0.012759945 0.090528496 0.14305238 0.22887339 -0.30922157 -0.074419536 -0.019799344 -0.30497152
0.09378295 -0.20146665 -0.1306299 -0.0808231 -0.3254445 -0.0010554498 0.20878223 0.082042366
-0.057541147 0.009954341 0.0046658413 0.015114049 0.10011856 -0.1582148 0.2561656 -0.26238784
-0.17540774 -0.3105925 0.1550344 -0.10588502 0.13183571 -0.252581 0.15579826 -0.20402697

variational_latent.hidden_to_mu.bias f4 [15]
00000000: 9c08 d8bd e475 b9bd 925a aebd 3584 17be
00000010: 8b17 a5bd c59f 0ebe b58c d03d 3a9b c03c
00000020: 71c6 f73d 3385 7fbc 79e1 90bd ac6a 1f3e
00000030: 4b2d 263e 50af c5bd e1b6 b23d
-0.10548517 -0.09055689 -0.08513369 -0.14796527 -0.08061131 -0.13928135 0.10183088 0.023511518
0.120983966 -0.015595722 -0.070742555 0.15568036 0.16228215 -0.09652579 0.08726288

variational_latent.hidden_to_logvar.weight f4 [15, 30]
00000000: 4685 673d 70e1 3cbe 6391 3fbe 290e 81be
00000010: fa85 3dbd 83ac d63e 0a25 913c ec42 68be
00000020: 8256 853e 49ca 5bbe add2 96be 09b6 bcbe
00000030: ed77 0b3e 9b46 bfbd 9a04 4d3e e56c 943e
00000040: b8f3 18be 0c54 593e c555 ae3d ccec 6d3e
00000050: 39d2 41be 1729 993d 326c d5be 6f62 9c3e
00000060: b6ae c63d 7dc0 203e 1cc3 ff3d 7631 8abe
00000070: 7409 063e 0703 89be c982 923e 43c0 46be
00000080: de3f 6ebe 0b60 3dbe 3adb 5c3e 7c36 6c3e
00000090: 65be cbbe da47 8bbe c01f 18be 3f1c 89be
000000a0: 6d8f 07bc ec23 063e 945e 7f3d c5dd 3fbe
000000b0: ada5 56be df16 033e 1e8b 363e 5369 12bd
000000c0: 426c 2f3e 3f3f 373e 14a6 03be 86c1 8bbe
000000d0: 1676 523e 9b6b a8be 23b8 59be c702 203d
000000e0: 5d6c 193d 44e0 303e dccc 1bbd 83e0 77be
000000f0: 3435 38be 5f54 7abe 4949 90be 2dc1 8b3e
00000100: e644 743e 447a f4bd 6268 7b3e f331 79be
00000110: bd9a 04be 4fe4 8fbe 2523 7c3d fe7c 79bc
00000120: b959 95be 3cc3 9c3e bf68 1ebd 5392 f73d
00000130: 6c99 92be 7384 943e ed53 a33e de49 2fbe
00000140: c20d 7fbe 8276 2fbe 6e41 683c af07 513e
00000150: 78cc 90be 482f 86be 3a66 fbbd 9bf2 833e
00000160: 058e ac3d 5827 e0bd 4997 ebbc 73fa 5e3e
00000170: dc53 25bd 206a 50be e065 6c3e 56c1 0e3e
00000180: ff42 dfbb 6896 97be 0f51 e03d 497f f0bd
00000190: d407 aabe f9db 54be 15cd 8c3d eb8e 8a3d
000001a0: 410b 843e 23bc a23e 7367 803e d050 8e3d
000001b0: b98b 2abe eb45 b4bc f997 253e ee00 213e
000001c0: de2c ef3c 72b3 2d3d ff15 be3e fa3d 3c3e
000001d0: 4f8f 3f3d 1f07 dcbc a32f 63be 24ec 893d
000001e0: 00b2 833e cbc5 b2bd d57c 7abd 689a 04be
000001f0: 3718 293e 0f5a 47be 8aed 073e bd65 93be
00000200: f81b 053d 4565 15be 67a5 b53d 36b4 a3be
00000210: b857 983e d6df 61bd ab2a 283e e89d 673e
00000220: 683f e6bc 3e56 a6be 4976 f0bd d3fe 26be
00000230: 9856 443e e8e1 a4be 5e49 a4be 7a17 13be
00000240: 38ef aabe b171 823e f402 763e ebcb 96bd
00000250: 73c5 1b3e 3483 c03e 5d25 4e3e 1624 a7be
00000260: 3afb 343e 6845 1c3d 4f98 8fbe 9b70 233d
00000270: d7c1 4a3e 8c00 863d af70 87be 449c 933e
00000280: 3561 8dbe 9213 333d 4473 5a3e 6b01 673e
00000290: 507f a0be 1ed7 f03d b554 5e3c ad59 3b3e
000002a0: b579 40bd ab8e 3c3d e6f5 6cbc b3b2 b03e
000002b0: 54b6 913e 8642 76be 4023 383e 92af 8dbe
000002c0: 1c9e 5abe 46b3 8cbe c28d 4c3e fd3e 353e
000002d0: c70d 4cbe 788e 003e d6b8 31be 849f 96be
000002e0: 347f 9b3e e444 893e a5fd 42bd 420e ff3c
000002f0: f206 8cbe dc40 08be cab6 9abe cd4d 3e3e
00000300: 86dc 76be 6216 91be 7e51 763e 4397 11bd
00000310: 0fb0 863e 94a1 69bc 6e9e c93d 54a4 4fbe
00000320: 9285 a63e 333c 153e aa8f 153d 7510 993e
00000330: 704e 23be c132 573e 915c e6bd cf70 d9be
00000340: f24d 80be 4056 343e aa0e 623c e61f 1fbe
00000350: 8016 babc 4cb6 8c3e 1af9 5f3d a01d 613e
00000360: d392 24be 7913 afbe f76b 61be 6ab0 723e
00000370: 583c 6dbe 2cf7 933e 9b43 993e f135 48be
00000380: 75ee 9cbd b582 003e b610 c33e d0f4 373e
00000390: 099a 4a3d 5de5 a3be 8a50 a6bd be33 fcbd
000003a0: ef13 793e bf01 41be 76b0 adbe 0500 90be
000003b0: f3b1 193e 6d45 883e eaaa e4bd 0d50 98be
000003c0: 74d7 bebd a210 66be ca2f b9be 2f6f 823e
000003d0: dcf9 6d3e bcff c23e 3251 a2be 6c16 ae3d
000003e0: 98de 5c3e c98f 8a3e f039 9fbe 049e 49be
000003f0: aaf7 16be cd90 8fbe 802d 93be 83ff e53d
0.056523584 -0.18445373 -0.18707804 -0.25206116 -0.046270348 0.4192849 0.017717857 -0.22681779
0.26042563 -0.21463884 -0.29457608 -0.36857632 0.13619967 -0.09339639 0.20021287 0.2898933
-0.14936721 0.21223468 0.08512453 0.23234862 -0.1892785 0.074785404 -0.4168411 0.3054385
0.09701292 0.15698428 0.12488386 -0.2699086 0.13089544 -0.26760122 0.28615406 -0.1940928
-0.23266551 -0.18493669 0.21568003 0.23067659 -0.39793697 -0.27203256 -0.14855862 -0.26779363
-0.008273941 0.1309964 0.062346056 -0.18736942 -0.20961638 0.12801693 0.17826506 -0.035744976
0.17131141 0.1789522 -0.12856323 -0.27296084 0.20552859 -0.32894596 -0.21261649 0.03906515
0.03745686 0.1727305 -0.038037166 -0.24206738 -0.17989045 -0.24446248 -0.28180912 0.2729582
0.23854408 -0.11937383 0.24551538 -0.2433546 -0.12949653 -0.28103873 0.061556954 -0.015227554
-0.29170015 0.30617702 -0.038674112 0.12088456 -0.28632677 0.290073 0.31899968 -0.17118022
-0.24907592 -0.17135051 0.014175756 0.20413087 -0.28280997 -0.26207948 -0.122753575 0.2577103
0.084255256 -0.10945004 -0.028758662 0.21775226 -0.040363178 -0.20352983 0.23085737 0.1394094
-0.0068134065 -0.29606938 0.10952961 -0.11743028 -0.33209097 -0.20787038 0.06875054 0.06765541
0.25789836 0.31784162 0.25078925 0.069490075 -0.16654862 -0.022005996 0.16171254 0.15723011
0.029196199 0.04240746 0.37126157 0.18383017 0.04676753 -0.026858864 -0.2218614 0.067344934
0.2572174 -0.08729132 -0.061154205 -0.12949526 0.16513143 -0.19467948 0.13274208 -0.28788558
0.032497376 -0.14589413 0.088694386 -0.31973428 0.29754424 -0.055145107 0.16422527 0.2261883
-0.028106406 -0.32487673 -0.11741311 -0.16308145 0.19173658 -0.32203603 -0.32087225 -0.14364424
-0.33385634 0.25477365 0.24024564 -0.07363113 0.1521204 0.376001 0.2013144 -0.3264472
0.1767396 0.03815213 -0.2804589 0.03990231 0.19800507 0.06543073 -0.26453158 0.2883016
-0.27613226 0.043719836 0.21333033 0.22559135 -0.31347132 0.1175978 0.01357 0.18295927
-0.04699107 0.046034496 -0.014462924 0.34511337 0.28459418 -0.24048814 0.17982197 -0.27673012
-0.21349376 -0.27480525 0.19975951 0.1769981 -0.1992713 0.12554348 -0.17355666 -0.29418576
0.30370486 0.26810372 -0.047605176 0.031134728 -0.2734905 -0.13305992 -0.30217582 0.18584366
-0.2410756 -0.2833739 0.24054524 -0.035544645 0.26306197 -0.014259715 0.09844671 -0.2027753
0.3252378 0.14573745 0.03651396 0.29895368 -0.1594789 0.21015455 -0.112481244 -0.4246888
-0.25059468 0.17611027 0.0137974415 -0.15539512 -0.022715807 0.2748283 0.05468092 0.21983957
-0.16071634 -0.34194544 -0.22013842 0.23700109 -0.2316755 0.28899515 0.2993439 -0.19551827
-0.076626696 0.12549861 0.38098687 0.17964482 0.049463306 -0.32010928 -0.0812083 -0.123145565
0.2432401 -0.18848322 -0.33923692 -0.28125015 0.15009288 0.26615468 -0.11165412 -0.29748574
-0.09318438 -0.22467282 -0.36169273 0.2547545 0.23239845 0.38085735 -0.31702572 0.085003704
0.21569288 0.27062824 -0.3109889 -0.19689184 -0.14742914 -0.28040162 -0.2874565 0.112303756

variational_latent.hidden_to_logvar.bias f4 [15]
00000000: 1dc0 03bc 3906 58bd 974d 9cbd 1dce 773d
00000010: ed88 10be 0bdc d93c 76ae 523d 5704 fcbb
00000020: ee01 76bd b5ce ddbd ff92 003e 6062 adbd
00000030: 301b c43c 5e3f d53c 99bd fdbc
-0.008041409 -0.05274031 -0.076319866 0.0604993 -0.14114733 0.026594182 0.05143591 -0.007690947
-0.060060434 -0.10830442 0.12556075 -0.08466029 0.023938745 0.026031192 -0.030974196
