models/20200923_003659/epoch_0000_loss_2856431.01562.pt (torch, 261509 bytes, 116 tensors)

encoder.model.weight_ih_l0 f4 [120, 3]
-0.15041263 0.08709685 -0.1144585 0.015593126 0.0047444175 0.14984497 0.13038403 -0.11141406
-0.0006402017 0.0692872 0.14637095 -0.1691209 0.16559802 0.0664889 0.10101488 0.007392529
0.14539097 -0.072506435 0.015153557 -0.13967028 -0.0023944534 0.036989577 -0.019388763 -0.067772865
-0.00057741115 -0.13585182 -0.0855362 -0.13859876 0.071411155 -0.09950893 0.14752898 0.08619502
-0.0798354 0.055367835 0.03864768 -0.1469613 -0.1707801 0.009629815 -0.1503558 0.17216983
0.15012555 0.14772882 -0.057887856 -0.007567184 0.03014186 0.031504445 0.03873985 0.065849766
-0.09790414 0.13277833 0.12625116 -0.036562294 -0.04156516 -0.027228676 -0.123873666 -0.19051677
0.0135612525 -0.079582065 -0.05573083 0.12233058 -0.14202239 0.041514363 0.090434976 -0.14523496
0.010803479 -0.15733868 -0.14281265 0.15191646 -0.067830235 0.15685621 -0.052147556 0.14101347
-0.046495676 -0.087497644 -0.042174317 0.12186789 0.15192406 -0.051128052 -0.064944044 0.010558164
0.1408356 0.11465951 -0.094872385 -0.053129856 -0.05014505 -0.031564564 0.086238556 -0.16034283
0.054386403 0.12367927 0.18268552 0.09998628 0.087979846 -0.04040036 0.03878609 -0.16267617
-0.10175268 -0.11472606 -0.0048101908 -0.15247971 0.07465846 -0.06577626 0.12830144 -0.08317717
0.1095261 -0.16417706 0.088482 0.021875674 -0.17326383 -0.03384448 0.1703612 0.15796906
0.14253445 0.00828643 -0.164988 0.1321605 -0.09937225 -0.17766206 0.008887269 -0.02105556
0.14983585 -0.023212511 0.089364536 -0.0032421027 -0.045580797 0.1652334 -0.042280853 -0.012380587
-0.14068495 0.1014002 0.12259523 0.052160226 0.16468872 0.05013604 0.018536415 -0.14624864
0.052672382 -2.7620812e-05 -0.13272578 0.033069212 -0.06991886 -0.024754813 -0.0009698948 -0.14493944
-0.017716967 -0.0033575497 -0.18150519 0.115158066 -0.015216485 -0.13199951 -0.14468582 -0.09388763
0.087053 0.15410894 -0.13775027 0.06001698 -0.07724934 0.013150172 -0.0062964424 0.15986581
-0.064631395 -0.015063189 -0.15694907 -0.15206704 0.15127079 0.024505913 0.0031478996 -0.09566141
0.09719974 -0.055638775 -0.13353409 -0.13268097 -0.03927465 0.051564652 -0.071399905 0.08266499
0.13475288 0.14737406 0.17711212 -0.13893257 -0.16360506 0.15009715 0.04423988 0.10361671
0.048092496 -0.14965902 -0.110928126 0.109699085 0.032379236 -0.03154741 0.10943635 -0.018544357
-0.02592768 0.07605055 -0.022818217 -0.078987926 -0.02385202 0.1004819 -0.015805673 0.1031306
0.0630796 0.03972663 -0.10784505 0.18077964 -0.10312519 -0.010959372 -0.1113882 -0.001240612
-0.05699408 0.11832741 0.15034176 -0.13346985 0.167962 0.024578964 0.13431643 -0.10654246
-0.15687716 0.08134949 0.04309934 0.05290909 0.086901955 0.064327955 0.07368858 0.06975882
-0.17228988 0.022850573 -0.057502717 0.11407384 -0.09224576 0.121820785 0.11383162 0.030477634
-0.057144318 -0.1596609 -0.17844002 -0.08142277 0.08764743 -0.08682876 0.09518275 0.13479406
0.03363708 0.07204728 -0.030799637 -0.045489345 -0.1173009 -0.16826233 -0.061279267 0.10453636
-0.098221034 -0.17438063 -0.011233952 -0.051143482 -0.09722543 0.07153997 -0.14647453 -0.16636176
00000000: c505 1abe d55f b23d 3869 eabd 507a 7f3c
00000010: 0f77 9b3b f670 193e 6483 053e 0e2d e4bd
00000020: 35d3 27ba 73e6 8d3d 44e2 153e 072e 2dbe
00000030: 8792 293e 552b 883d e4e0 ce3d 073d f23b
00000040: 5fe1 143e 417e 94bd a046 783c ba05 0fbe
00000050: 43ec 1cbb 6282 173d 2fd5 9ebc 80cc 8abd
00000060: 685d 17ba bd1c 0bbe 9a2d afbd d5ec 0dbe
00000070: 0340 923d 57cb cbbd d611 173e 0487 b03d
00000080: be80 a3bd 62c9 623d 084d 1e3d 067d 16be
00000090: fbe0 2ebe 5fc6 1d3c dff6 19be 4a4d 303e
000000a0: 83ba 193e 3946 173e d11b 6dbd 24f6 f7bb
000000b0: 10ec f63c ce0a 013d adad 1e3d 3edc 863d
000000c0: f781 c8bd 0bf7 073e fc47 013e 58c2 15bd
000000d0: 3b40 2abd ac0e dfbc 7ab1 fdbd d416 43be
000000e0: 0430 5e3c ecfb a2bd 0346 64bd 7588 fa3d
000000f0: 516e 11be f70a 2a3d f935 b93d 79b8 14be
00000100: 1301 313c 641d 21be 7b3d 12be fd8f 1b3e
00000110: 94ea 8abd ea9e 203e ad98 55bd d665 103e
00000120: 4072 3ebd f731 b3bd fabe 2cbd df95 f93d
00000130: fb91 1b3e a66b 51bd 6201 85bd 26fc 2c3c
00000140: 3537 103e 9bd2 ea3d 744c c2bd b19e 59bd
00000150: e564 4dbd d849 01bd d79d b03d e930 24be
00000160: 47c4 5e3d 8f4b fd3d ea11 3b3e 9bc5 cc3d
00000170: c72e b43d d97a 25bd 2ade 1e3d 9594 26be
00000180: b663 d0bd 7ff5 eabd ce9e 9dbb a423 1cbe
00000190: 89e6 983d b4b5 86bd 7461 033e cb58 aabd
000001a0: 384f e03d 081e 28be 0d36 b53d 9d34 b33c
000001b0: 136c 31be 82a0 0abd 2b73 2e3e a4c2 213e
000001c0: 8df4 113e cec3 073c 9df2 28be 1555 073e
000001d0: ae83 cbbd 0bed 35be e89b 113c b67c acbc
000001e0: 926e 193e 2a28 bebc c104 b73d 7579 54bb
000001f0: eeb2 3abd f232 293e b02e 2dbd f2d7 4abc
00000200: b70f 10be e8aa cf3d 3513 fb3d f6a5 553d
00000210: 29a4 283e 735b 4d3d aed9 973c 34c2 15be
00000220: ffbe 573d 3eb3 e7b7 44e9 07be 9573 073d
00000230: 9f31 8fbd 9bca cabc 8a40 7eba 016b 14be
00000240: 2c23 91bc 560a 5cbb 7fdc 39be fed7 eb3d
00000250: 904e 79bc e12a 07be 8528 14be 2848 c0bd
00000260: d848 b23d bcce 1d3e 680e 0dbe 5dd4 753d
00000270: e734 9ebd d273 573c 6352 cebb ddb3 233e
00000280: 775d 84bd 98cb 76bc 42b7 20be 76b7 1bbe
00000290: bbe6 1a3e a0c0 c83c fe4c 4e3b 21ea c3bd
000002a0: a810 c73d 7ce5 63bd 29bd 08be 85dd 07be
000002b0: 75de 20bd 7535 533d 1d3a 92bd 434c a93d
000002c0: a9fc 093e 3ae9 163e e15c 353e 5744 0ebe
000002d0: 1688 27be 11b3 193e e034 353d ff34 d43d
000002e0: a3fc 443d 3740 19be 492e e3bd eaa9 e03d
000002f0: 17a0 043d db37 01bd 2a20 e03d 56ea 97bc
00000300: 4966 d4bc 64c0 9b3d 45ed babc 6cc4 a1bd
00000310: 5065 c3bc 74c9 cd3d e67a 81bc 2336 d33d
00000320: e12f 813d 64b8 223d dedd dcbd 4c1e 393e
00000330: 4d33 d3bd f08e 33bc 7f1f e4bd 089c a2ba
00000340: a072 69bd a455 f23d 31f3 193e 52ac 08be
00000350: 3bfe 2b3e d359 c93c 3f8a 093e ef32 dabd
00000360: 68a4 20be 909a a63d ef88 303d 34b7 583d
00000370: a7f9 b13d 60be 833d 0aea 963d b6dd 8e3d
00000380: c26c 30be 2031 bb3c f887 6bbd 8c9f e93d
00000390: 58eb bcbd 2d7d f93d 8d20 e93d 3bac f93c
000003a0: 2910 6abd 267e 23be fbb8 36be fbc0 a6bd
000003b0: 7f80 b33d 47d3 b1bd 2cef c23d 7407 0a3e
000003c0: 09c7 093d 868d 933d 854f fcbc 0953 3abd
000003d0: 743b f0bd f64c 2cbe f8ff 7abd 2917 d63d
000003e0: 1c28 c9bd d690 32be 9c0e 38bc d47b 51bd
000003f0: 201e c7bd 8c83 923d 6bfd 15be bd5a 2abe

encoder.model.weight_hh_l0 f4 [120, 30]
-0.060778514 0.10320401 0.03696188 -0.052358285 0.07707607 0.04033083 -0.09180915 -0.17309722
-0.17205879 -0.05426581 -0.1902329 -0.08151757 0.08999254 0.055757787 0.14066224 -0.08262366
-0.16083051 0.10631799 0.13625598 0.046371665 -0.1097511 -0.12141656 0.030584173 -0.06904955
0.12080746 0.08097966 0.039558265 0.12496375 0.04467699 -0.11072493 -0.14288396 -0.16905653
-0.052091304 0.054135293 -0.15764433 -0.10933078 -0.07627507 0.1371495 0.019184107 0.08292492
-0.0014965113 0.11356691 0.008861446 -0.090512715 -0.1446789 -0.09396568 -0.08624248 -0.08813288
0.030155284 -0.05848742 -0.11457867 0.085038155 0.16912983 -0.16995524 -0.117843434 0.08383378
-0.06861316 0.07098504 -0.06632667 0.1267438 0.11457498 -0.04177284 -0.048441406 -0.014968485
-0.0061800564 0.13120621 0.16816431 0.1672096 0.11364429 -0.17835887 0.13986333 -0.13385735
-0.042492077 0.17776649 -0.12758435 0.16148117 0.08601171 -0.14617689 0.18227807 -0.078805774
-0.16639096 -0.013634564 0.07764153 -0.15418237 -0.1051697 -0.10046639 -0.065270975 0.059356607
0.17644672 0.025137607 -0.029546248 -0.0641409 -0.10856004 -0.049814936 -0.09850239 0.06505593
0.12871803 -0.012948516 0.078867905 0.047232103 0.054948505 0.09955116 0.05544451 0.10895965
-0.15260854 0.061834257 -0.118439704 -0.04230926 -0.009827779 0.06809298 0.00754846 -0.08939198
0.009660794 -0.11649692 0.078555524 0.048868407 -0.1501444 -0.055860866 -0.114888616 0.014794556
-0.077844135 0.02641938 0.18486059 0.07716691 -0.15070216 -0.10180463 0.10766966 0.0954815
0.05270379 -0.07854878 -0.107535854 -0.1728576 -0.13261034 0.1454945 -0.12408133 -0.0072750044
0.061355762 -0.029550802 -0.056366194 0.09632478 0.07963601 0.14393227 0.068359144 0.18063141
-0.011075457 0.1560997 0.17074041 -0.11751494 -0.100620024 0.15160128 0.13072805 -0.12555681
-0.088654876 -0.13417707 0.03411037 -0.02332167 0.084861234 -0.09103999 -0.111221395 -0.14046086
0.08293625 0.018620046 -0.12914342 0.021137625 -0.13923667 0.07323672 -0.07483084 0.047635958
0.036777657 -0.06460165 0.08688874 -0.03478957 -0.13619393 0.11401628 -0.05640716 0.06881884
0.14853288 0.050181862 -0.11620694 -0.165012 0.08180051 0.01886079 0.14971706 -0.14944647
0.06829215 0.15149315 -0.13581267 0.14673242 -0.13129838 -0.028307592 0.06364921 0.15508206
-0.021281192 0.051603764 0.120340854 -0.10825928 0.02849327 0.10124026 -0.07860987 -0.11133295
-0.1340965 0.13784213 0.09788514 0.14379442 -0.11825731 -0.0938604 0.016921233 -0.07780326
0.027261246 -0.03595798 0.1475794 0.11318572 -0.17523406 0.08521164 0.092336394 0.019134171
-0.034015443 0.14164758 -0.06710813 -0.04480551 -0.15081654 -0.0552921 0.14966379 -0.18637598
0.07873348 0.09396848 0.03297026 -0.12878045 -0.16369833 -0.012509293 0.014198622 -0.011729021
-0.07351038 -0.08941598 0.15662695 0.01856907 0.054821778 -0.08446813 0.08122248 -0.16553676
0.14905377 0.03742665 -0.051040165 -0.16871402 0.09706144 -0.05996411 -0.06874765 0.047069494
-0.13605063 -0.059786413 -0.11676732 -0.09809327 0.18074729 0.09754924 -0.018511377 -0.018770318
00000000: e4f2 78bd a05c d33d 5765 173d a475 56bd
00000010: 0fda 9d3d f131 253d 7006 bcbd 6640 31be
00000020: 2e30 30be d345 5ebd 6acc 42be aff2 a6bd
00000030: 024e b83d 4762 643d c309 103e 9836 a9bd
00000040: c1b0 24be 3fbd d93d b086 0b3e 37f0 3d3d
00000050: 2fc5 e0bd 3fa9 f8bd a98b fa3c da69 8dbd
00000060: e769 f73d aad8 a53d d907 223d ffec ff3d
00000070: 38ff 363d c1c3 e2bd 2c50 12be 281d 2dbe
00000080: b15d 55bd f8bc 5d3d 846d 21be d1e8 dfbd
00000090: 1b36 9cbd eb70 0c3e fd27 9d3c 8ad4 a93d
000000a0: 9626 c4ba c595 e83d 992f 113c bb5e b9bd
000000b0: b526 14be 1471 c0bd e69f b0bd 037f b4bd
000000c0: 3708 f73c 8190 6fbd 39a8 eabd 7c28 ae3d
000000d0: 5f30 2d3e bf08 2ebe e657 f1bd 0bb1 ab3d
000000e0: 0e85 8cbd 9b60 913d 47d6 87bd 20c9 013e
000000f0: 4aa6 ea3d ff19 2bbd 7f6a 46bd 603e 75bc
00000100: 1282 cabb ec5a 063e 4433 2c3e fe38 2b3e
00000110: 56be e83d b5a3 36be 5538 0f3e e711 09be
00000120: 2c0c 2ebd 6b08 363e 79a5 02be 525b 253e
00000130: e826 b03d 65af 15be 1aa7 3a3e ec64 a1bd
00000140: 6462 2abe 8263 5fbc 8602 9f3d fce1 1dbe
00000150: 3663 d7bd 53c1 cdbd caac 85bd ea1f 733d
00000160: 73ae 343e 62ed cd3c f90a f2bc 4e5c 83bd
00000170: ba54 debd bf0a 4cbd 9fbb c9bd 0b3c 853d
00000180: a9ce 033e 0326 54bc 7f85 a13d 7376 413d
00000190: af11 613d 7be1 cb3d c819 633d 3d26 df3d
000001a0: 6a45 1cbe eb45 7d3d 8490 f2bd 7a4c 2dbd
000001b0: b104 21bc 5574 8b3d 1259 f73b 2413 b7bd
000001c0: 4f48 1e3c f095 eebd b8e1 a03d 3d2a 483d
000001d0: 74bf 19be 5dce 64bd b94a ebbd de64 723c
000001e0: bf6c 9fbd 756d d83c 184c 3d3e af09 9e3d
000001f0: ab51 1abe f27e d0bd e981 dc3d ce8b c33d
00000200: eedf 573d 2fde a0bd c23b dcbd 9501 31be
00000210: 01cb 07be 83fc 143e 5a1e febd 2963 eebb
00000220: 2e50 7b3d 8614 f2bc 3de0 66bd ed45 c53d
00000230: 3418 a33d fb62 133e e1ff 8b3d 71f7 383e
00000240: d575 35bc 9ad8 1f3e 93d6 2e3e acab f0bd
00000250: df11 cebd 5e3d 1b3e 93dd 053e f791 00be
00000260: b090 b5bd b765 09be 51b7 0b3d 160d bfbc
00000270: bacb ad3d 2d73 babd 0bc8 e3bd f9d4 0fbe
00000280: 7bda a93d 1189 983c 2c3e 04be d028 ad3c
00000290: 0f94 0ebe 22fd 953d e940 99bd ec1d 433d
000002a0: 2ba4 163d df4d 84bd b9f2 b13d 827f 0ebd
000002b0: 6c76 0bbe 5e81 e93d 320b 67bd e4f0 8c3d
000002c0: 0119 183e 7f8b 4d3d e7fd edbd e8f8 28be
000002d0: 0787 a73d f281 9a3c 6e4f 193e 7f08 19be
000002e0: c1dc 8b3d 0521 1b3e 7a12 0bbe 0641 163e
000002f0: 1573 06be 53e5 e7bc 845a 823d d5cd 1e3e
00000300: e555 aebc 785e 533d 4475 f63d 0bb7 ddbd
00000310: b86a e93c 0e57 cf3d 36fe a0bd 8802 e4bd
00000320: 9850 09be 7d26 0d3e 0178 c83d d83e 133e
00000330: e330 f2bd e239 c0bd 669e 8a3c 5157 9fbd
00000340: fa52 df3c ad48 13bd 0e1f 173e eacd e73d
00000350: 8f70 33be 7183 ae3d dd1a bd3d 44bf 9c3c
00000360: c753 0bbd 100c 113e fd6f 89bd fc85 37bd
00000370: a76f 1abe f879 62bd 7741 193e 58d9 3ebe
00000380: 053f a13d 8c72 c03d d30b 073d 06df 03be
00000390: 89a0 27be c7f3 4cbc 56a1 683c 142b 40bc
000003a0: 9c8c 96bd ba1f b7bd d162 203e 2a1e 983c
000003b0: cd8c 603d a0fd acbd f957 a63d 7882 29be
000003c0: 8da1 183e b04c 193d 7e0f 51bd 5ec3 2cbe
000003d0: 26c8 c63d ed9c 75bd 91cb 8cbd f1cb 403d
000003e0: db50 0bbe 99e2 74bd b423 efbd 20e5 c8bd
000003f0: d115 393e e5c7 c73d 2ca5 97bc 36c4 99bc

encoder.model.bias_ih_l0 f4 [120]
-0.106800936 0.14220344 0.14290215 0.14039601 -0.031327527 -0.129623 -0.033043437 -0.10363803
-0.10656282 -0.17871402 -0.15825509 0.18134765 0.08024804 0.012444014 0.16027553 -0.012858564
-0.09721165 0.15651447 0.16331255 0.027395299 -0.15940927 -0.067378685 0.16184074 0.0814855
0.10614002 -0.122957654 0.15466979 0.09257591 0.005052773 0.022234336 0.035349365 -0.038709883
0.10090018 0.17038685 0.07408511 0.16597393 -0.019015156 0.081099615 -0.047012378 0.13339384
0.051843435 -0.16963387 -0.052094392 0.121425055 -0.10359077 0.055125296 -0.10495652 0.14373046
0.16314308 -0.033818774 0.10417104 0.096308485 0.053707972 -0.02087778 0.0092683425 -0.12953939
0.10614029 0.06180464 -0.03169403 -0.13161871 -0.065039225 0.07795001 0.16433412 0.05135317
-0.16198303 0.081895635 -0.015458962 0.07054991 -0.18629405 -0.12538265 0.04421725 0.13677004
-0.018604632 -0.11912383 0.13107522 -0.035207693 -0.07287582 0.0815004 0.18144359 -0.06849061
-0.08483897 0.06907246 0.08820107 -0.07273289 0.13819388 0.15519965 0.18778564 -0.15948242
-0.08621513 -0.0420329 -0.14142473 -0.064914525 -0.01380537 0.1386779 0.08836745 0.07747948
-0.15227738 0.0062180166 0.12519151 -0.116722904 0.029220652 0.047596898 0.12040024 -0.11803981
0.17417671 -0.044609226 0.042172797 -0.14963466 -0.024545955 0.102224186 -0.06548179 0.09234808
-0.055571754 -0.16384499 -0.091716886 -0.029731989 -0.12464514 -0.19048776 0.027674334 0.1087291
00000000: 73ba dabd c79d 113e f154 123e f9c3 0f3e
00000010: 4b51 00bd e4bb 04be 8e58 07bd 2d40 d4bd
00000020: 9c3d dabd cf00 37be 9f0d 22be 33b3 393e
00000030: 1659 a43d fae1 4b3c 451f 243e baac 52bc
00000040: e716 c7bd 5445 203e 683b 273e 1b6c e03c
00000050: 2f3c 23be d6fd 89bd 94b9 253e dfe1 a63d
00000060: f05f d93d 39d1 fbbd c261 1e3e 7098 bd3d
00000070: bb91 a53b c824 b63c 7fca 103d 418e 1ebd
00000080: c1a4 ce3d e479 2e3e efb9 973d 12f5 293e
00000090: acc5 9bbc 8e17 a63d 0d90 40bd 6598 083e
000000a0: c859 543d 80b4 2dbe ee60 55bd b3ad f83d
000000b0: 6627 d4bd 10cb 613d 72f3 d6bd 142e 133e
000000c0: fb0e 273e 8e85 0abd a057 d53d 623d c53d
000000d0: e4fc 5b3d e107 abbc 3fda 173c f9a5 04be
000000e0: 1560 d93d dd26 7d3d 99d1 01bd 0ec7 06be
000000f0: 4933 85bd 41a4 9f3d 3447 283e b457 523d
00000100: e1de 25be e6b8 a73d 9647 7dbc 797c 903d
00000110: dec3 3ebe 4f64 00be 261d 353d 720d 0c3e
00000120: be68 98bc 32f7 f3bd 9538 063e f135 10bd
00000130: eb3f 95bd afe9 a63d 59cc 393e ce44 8cbd
00000140: 0ec0 adbd dd75 8d3d c3a2 b43d fbf4 94bd
00000150: b282 0d3e a8ec 1e3e e14a 403e 5c4f 23be
00000160: 8f91 b0bd b12a 2cbd a5d1 10be e8f1 84bd
00000170: eb2f 62bc 9401 0e3e fef9 b43d 90ad 9e3d
00000180: 9aee 1bbe 81c0 cb3b 3432 003e 6b0c efbd
00000190: 2660 ef3c f7f4 423d 6794 f63d dbbe f1bd
000001a0: 615b 323e 2ab8 36bd 62bd 2c3d d439 19be
000001b0: 9914 c9bc ea5a d13d 511b 86bd fd20 bd3d
000001c0: 359f 63bd fbc6 27be 10d6 bbbd 8090 f3bc
000001d0: f345 ffbd 390f 43be 49b5 e23c 5dad de3d

encoder.model.bias_hh_l0 f4 [120]
-0.11939553 0.039530262 -0.098456554 -0.031367198 -0.085628904 0.1057231 0.010619687 -0.1410116
-0.06594566 -0.092693 0.12060901 0.15500791 -0.1519729 -0.026309984 0.06853657 -0.05304541
0.12519173 -0.07966769 0.07177525 0.14606044 -0.01055963 0.048565455 -0.12933408 0.11908381
-0.10036832 -0.038927633 -0.08933033 -0.08505568 0.15222682 -0.06759968 0.01205071 0.0897907
0.15114592 0.0055053295 -0.1855299 -0.032247268 0.118099555 0.121382274 0.006918237 0.09895657
0.10539386 0.029503489 -0.03754619 -0.04236884 -0.17847702 0.16925985 0.02448367 0.024422176
-0.1404463 -0.18229184 0.049391963 -0.09633291 -0.14088939 -0.07626359 -0.081100665 0.020036068
0.0850863 0.16739632 0.13264902 -0.042242862 -0.04233387 0.13894695 -0.0003930645 -0.01805796
0.0931699 -0.059768576 0.15367776 0.16974664 0.023661204 0.13296406 0.17796107 0.1231588
0.18887399 -0.012389432 -0.057404812 -0.0197693 -0.07868007 -0.10614592 -0.0041785357 -0.12021521
-0.03529303 -0.061890233 0.14696302 -0.0011218841 0.022907577 0.06866273 -0.08808237 -0.085763164
-0.1082435 -0.14135578 -0.046988573 -0.03279472 0.13035609 0.1428089 0.065920286 -0.15123318
0.0025729954 -0.14287624 0.12303795 -0.0908759 -0.03646672 -0.12824835 -0.11257043 0.0631885
-0.12337471 0.1534816 0.105040826 -0.08050006 -0.11900857 -0.14641178 0.048556555 0.10412243
0.1393301 0.18219058 -0.101830736 0.10924474 0.1808012 -0.006756852 -0.08177898 -0.07453169
00000000: a585 f4bd 7cea 213d 97a3 c9bd e47a 00bd
00000010: 355e afbd 5a85 d83d 32fe 2d3c 5865 10be
00000020: 850e 87bd d4d5 bdbd db01 f73d 65ba 1e3e
00000030: c99e 1bbe 0988 d7bc e75c 8c3d 2546 59bd
00000040: 4332 003e d028 a3bd e7fe 923d de90 153e
00000050: 4c02 2dbc 92ec 463d 2770 04be 36e2 f33d
00000060: e88d cdbd 9572 1fbd d2f2 b6bd ac31 aebd
00000070: 59e1 1b3e b371 8abd 5770 453c 30e4 b73d
00000080: ffc5 1a3e 0d66 b43b 8dfb 3dbe b615 04bd
00000090: 2ede f13d 4597 f83d 61b2 e23b bea9 ca3d
000000a0: bcd8 d73d 4db1 f13c 09ca 19bd f38a 2dbd
000000b0: aec2 36be 7452 2d3e fa91 c83c 0411 c83c
000000c0: 28d1 0fbe b6aa 3abe 3a4f 4a3d 304a c5bd
000000d0: 4f45 10be 1630 9cbd 1b18 a6bd ae22 a43c
000000e0: ba41 ae3d f169 2b3e 25d5 073e da06 2dbd
000000f0: 4866 2dbd 1c48 0e3e 3914 ceb9 49ee 93bc
00000100: dccf be3d e5cf 74bd b45d 1d3e 10d2 2d3e
00000110: 24d5 c13c bb27 083e 6d3b 363e ae3a fc3d
00000120: 2f68 413e 0bfd 4abc 4f21 6bbd 3af3 a1bc
00000130: 0423 a1bd 0863 d9bd 19ec 88bb 6433 f6bd
00000140: 6d8f 10bd 9d80 7dbd 797d 163e 2f0c 93ba
00000150: aca8 bb3c 0c9f 8c3d 8864 b4bd 99a4 afbd
00000160: c5ae ddbd 92bf 10be 1777 40bd c253 06bd
00000170: 117c 053e 7f3c 123e 3701 873d dfdc 1abe
00000180: b39f 283b 264e 12be 52fb fb3d 251d babd
00000190: 215e 15bd 8953 03be 538b e6bd f968 813d
000001a0: e1ab fcbd 482a 1d3e a51f d73d 37dd a4bd
000001b0: c4ba f3bd f8ec 15be 3de3 463d 243e d53d
000001c0: 8dac 0e3e 2b90 3a3e a28c d0bd b5bb df3d
000001d0: f323 393e 9568 ddbb bd7b a7bd 12a4 98bd

encoder.model.weight_ih_l1 f4 [120, 30]
0.007713085 -0.033651106 0.07019901 -0.017660407 0.11877439 0.17594339 0.14092287 0.14915076
0.059175815 -0.082937054 0.056932453 0.03380691 -0.14323382 0.117558636 0.14685243 -0.17556295
-0.02768452 0.1283197 -0.04650101 0.020773342 0.11058523 -0.109403454 -0.13583106 -0.04979983
0.11369029 -0.12972075 -0.035023775 -0.15180075 -0.11175649 0.120726764 -0.1047003 0.11717448
0.081517965 0.14283103 0.13534957 -0.052491367 0.039429903 0.04590544 0.117351495 0.1802426
0.0653802 0.028347507 0.00020390072 -0.17496747 0.100288786 -0.088762015 0.12659778 0.1510312
-0.043081656 0.02768161 -0.115957394 0.07126781 0.01527549 0.11147326 -0.028557163 -0.10753997
-0.052153736 0.010792875 -0.1241932 0.09514951 0.081792705 -0.10554005 0.17002966 -0.12827335
0.02964179 0.15174657 -0.1691523 -0.057737287 0.03334161 -0.13131087 -0.031359587 0.061591744
0.10313728 -0.080450654 0.09085233 -0.007930044 -0.063712 -0.17919677 -0.004573307 -0.01779663
0.07154408 -0.10631709 -0.13104029 -0.17238103 0.17822467 0.12687497 0.023744922 -0.11967348
-0.17640978 -0.16512662 -0.16596109 0.047078677 -0.11774412 -0.024648933 0.003947556 0.101221174
-0.045169286 -0.09199767 0.040219344 -0.1466984 -0.10271334 0.049759477 -0.15512086 0.17745267
-0.03991161 0.08052074 -0.06414356 -0.039108377 -0.105210565 0.06995236 -0.186463 -0.15164411
0.18040934 0.061790396 -0.00023044909 0.11920716 -0.021944867 0.13409232 -0.09998551 0.13860275
-0.1507634 -0.04162085 0.17713703 0.07850765 0.1751408 -0.18687722 0.06169665 0.1678241
-0.15032656 -0.17621529 0.1601398 -0.065824024 -0.014492946 -0.051819447 0.109154135 0.08994229
-0.032109257 0.121200256 0.03611786 -0.059135217 0.008096177 0.13547543 0.0797745 0.18757251
0.03696802 0.113882616 0.15077147 -0.08648846 0.07186375 -0.02834756 -0.053719793 0.057765983
-0.13128754 -0.032808915 0.07239741 -0.035343803 -0.17049624 -0.14530826 0.078272946 0.14859228
0.052676074 -0.09978235 0.0064561777 0.08889437 -0.14848292 0.12853822 -0.14462923 0.16433442
-0.18564531 0.14219783 0.11276826 -0.10269629 0.059699632 -0.1577447 0.0360356 -0.14482155
-0.006634934 -0.16990131 -0.1566048 -0.0043587293 0.10499207 0.07167469 0.030613476 0.05838862
-0.12122412 -0.15879476 0.08166318 -0.17750072 -0.07128437 -0.18117294 -0.050725557 0.1651113
-0.03423297 0.026800698 0.07004276 -0.042974465 -0.020628788 0.12894045 0.090486914 0.08360533
-0.021391984 -0.055069204 -0.07832313 0.16327323 0.09915406 0.12571049 -0.104383975 -0.06742834
0.15157351 0.029418193 0.18765707 -0.12825501 0.17031571 0.000697496 -0.06522494 0.121175595
0.06496655 -0.09263704 -0.09173036 0.07581404 -0.035444587 -0.07769982 0.029684642 -0.05381036
0.16508196 -0.14856832 -0.17580876 -0.086045764 0.13378438 0.05480466 -0.13923024 0.03819189
0.1286137 0.1149883 -0.10428388 -0.019800171 0.106492005 -0.038853418 -0.16034105 -0.15700418
-0.13757885 -0.15331699 -0.048591837 0.027028732 -0.14099415 0.11420758 -0.11495156 -0.04074839
0.12538178 -0.167107 -0.020940073 0.16530812 -0.028109103 0.0929462 -0.1427668 -0.14386041
00000000: 0cbe fc3b bed5 09bd 80c4 8f3d 8fac 90bc
00000010: fd3f f33d 812a 343e 164e 103e faba 183e
00000020: 5762 723d e7da a9bd 0132 693d 1d79 0a3d
00000030: e3ab 12be 95c2 f03d 7c60 163e c6c6 33be
00000040: a6ca e2bc 3d66 033e d877 3ebd db2c aa3c
00000050: 827a e23d eb0e e0bd 4c17 0bbe e8fa 4bbd
00000060: 74d6 e83d 84d5 04be 1775 0fbd a871 1bbe
00000070: 96e0 e4bd 983f f73d 1c6d d6bd 2cf9 ef3d
00000080: e4f2 a63d 4c42 123e 1499 0a3e 3001 57bd
00000090: 4081 213d 5807 3c3d fb55 f03d 8491 383e
000000a0: 0ee6 853d 0839 e83c 2fce 5539 ac2a 33be
000000b0: 3564 cd3d dcc8 b5bd d9a2 013e eca7 1a3e
000000c0: 6476 30bd 8bc4 e23c 127b edbd dcf4 913d
000000d0: 0c46 7a3c 184c e43d b6f0 e9bc ea3d dcbd
000000e0: 289f 55bd 99d4 303c 0159 febd bfdd c23d
000000f0: ef82 a73d 6225 d8bd 411c 2e3e 175a 03be
00000100: 57d3 f23c 7463 1b3e 4336 2dbe ef7d 6cbd
00000110: 3691 083d 5b76 06be e972 00bd a047 7c3d
00000120: a339 d33d 50c3 a4bd c910 ba3d 04ed 01bc
00000130: 707b 82bd 5c7f 37be aedb 95bb 3dca 91bc
00000140: b485 923d c6bc d9bd 6d2f 06be a784 30be
00000150: 8780 363e 83eb 013e b684 c23c 5f17 f5bd
00000160: c4a4 34be f416 29be b4f1 29be 92d5 403d
00000170: d423 f1bd 8fec c9bc 805a 813b 0c4d cf3d
00000180: 6e03 39bd 4669 bcbd 0abd 243d 1b38 16be
00000190: 5f5b d2bd 98d0 4b3d 01d8 1ebe 27b6 353e
000001a0: 5b7a 23bd 0fe8 a43d b35d 83bd 1b30 20bd
000001b0: a378 d7bd 2f43 8f3d 28f0 3ebe 9848 1bbe
000001c0: 3abd 383e ed17 7d3d b5a4 71b9 e222 f43d
000001d0: b9c5 b3bc 7f4f 093e 34c5 ccbd e1ed 0d3e
000001e0: b961 1abe a07a 2abd 6963 353e 9ec8 a03d
000001f0: 1c58 333e be5c 3fbe a0b5 7c3d 15da 2b3e
00000200: 35ef 19be c871 34be b0fb 233e bfce 86bd
00000210: d273 6dbc a140 54bd 348c df3d aa33 b83d
00000220: ff84 03bd d737 f83d 52f0 133d c537 72bd
00000230: d4a5 043c 12ba 0a3e d060 a33d 0213 403e
00000240: c76b 173d 4a3b e93d d663 1a3e dd20 b1bd
00000250: 4d2d 933d 2439 e8bc 4909 5cbd 069c 6c3d
00000260: 3e70 06be a462 06bd 1845 943d aac4 10bd
00000270: 9196 2ebe b0cb 14be 914d a03d 9328 183e
00000280: dec2 573d b05a ccbd 588e d33b 400e b63d
00000290: e80b 18be 869f 033e af19 14be 4847 283e
000002a0: ce19 3ebe 4f9c 113e 0cf3 e63d 6f52 d2bd
000002b0: 9a87 743d d487 21be 119a 133d 1a4c 14be
000002c0: dc69 d9bb 9cfa 2dbe 025d 20be acd3 8ebb
000002d0: 1506 d73d 2eca 923d 1dc9 fa3c e828 6f3d
000002e0: 5a44 f8bd 189b 22be 063f a73d c0c2 35be
000002f0: 8afd 91bd 6685 39be 9ac5 4fbd f012 293e
00000300: df37 0cbd 238d db3c 9472 8f3d fe05 30bd
00000310: b4fd a8bc f708 043e 3451 b93d 4539 ab3d
00000320: 3e3e afbc 3f90 61bd e167 a0bd 1931 273e
00000330: 4911 cb3d 40ba 003e 44c7 d5bd df17 8abd
00000340: 1636 1b3e 6cfe f03c 2d29 403e 4855 03be
00000350: 3e67 2e3e 2ad8 363a a794 85bd e92a f83d
00000360: 2f0d 853d 7db8 bdbd 21dd bbbd 6444 9b3d
00000370: 582e 11bd 1521 9fbd 352d f33c 4168 5cbd
00000380: 3f0b 293e 4b22 18be 3607 34be c338 b0bd
00000390: c6fe 083e da7a 603d 5f92 0ebe 196f 1c3d
000003a0: 4fb3 033e fc7e eb3d c992 d5bd f833 a2bc
000003b0: 7b18 da3d c324 1fbd 7230 24be b4c5 20be
000003c0: 78e1 0cbe 21ff 1cbe 3c08 47bd 5c6b dd3c
000003d0: c560 10be aae5 e93d b96b ebbd c9e7 26bd
000003e0: 1564 003e 191e 2bbe 848a abbc 8846 293e
000003f0: 1045 e6bc 945a be3d 7631 12be 2550 13be

encoder.model.weight_hh_l1 f4 [120, 30]
0.0898363 -0.06684908 0.16443032 -0.09839657 -0.06810401 0.11512641 -0.06817741 0.14493404
-0.059409022 -0.09432735 0.072640374 -0.1082533 -0.07667087 0.09251701 -0.088207036 -0.09142798
0.0010164458 0.11884739 0.17281562 -0.1586075 -0.06817684 0.15212913 -0.057407536 -0.105074905
0.17961839 0.094881825 0.10477261 -0.09961899 0.082983844 0.08887262 0.08765308 -0.11115689
0.15099865 -0.033991247 0.090798356 -0.14721157 -0.13854711 0.1795875 -0.042014312 0.1705653
-0.017614834 -0.17977303 -0.18508182 -0.1890575 0.059566524 0.04072451 0.03531206 -0.15438059
0.062269405 0.028316775 -0.07695628 0.024893604 0.15404415 -0.024829626 -0.12367214 -0.06739801
-0.15491135 -0.04569855 -0.13957666 0.16808341 0.15904821 -0.071477905 -0.05872175 -0.054961074
-0.13178152 -0.16088443 0.0014650635 0.018039564 -0.08107455 -0.0986965 -0.08658311 -0.0012970174
-0.10373538 0.048607357 -0.008179062 -0.04557629 -0.060415797 0.19057065 0.10932286 0.11078786
0.0025487656 -0.01785934 0.11630106 -0.17157009 0.16345838 -0.10619576 -0.18267779 0.17124376
0.05478956 -0.13645776 -0.18325676 -0.0010828988 -0.0044148187 0.026578384 0.15770234 -0.05829343
-0.18022723 -0.08245084 -0.17467774 0.18530571 0.08929973 0.029172404 0.16143103 -0.07103709
0.13324155 0.08921412 0.18897524 0.056418706 0.17878401 -0.06634041 0.07257064 -0.16001041
0.14437409 -0.12388044 -0.082710974 -0.07666953 -0.18067743 0.15141852 0.053585842 -0.16274829
0.12332142 0.045790832 0.056944504 0.081708856 0.13843593 0.16730759 0.16091739 0.13512458
-0.016277073 0.05788412 0.0037195631 0.1868666 -0.08508867 -0.02110193 0.11066402 0.06039876
-0.075544275 -0.0877823 -0.12228551 0.11199827 -0.09626587 0.12886205 0.036509868 -0.029198015
-0.016902333 -0.011370513 0.17416051 0.07085647 0.18488026 -0.086468704 -0.12442951 0.099673614
-0.032885376 0.17286679 -0.10770464 -0.013822618 0.14183173 0.15451814 -0.10174525 -0.09556713
0.1574418 -0.0294856 0.052134097 0.16198756 -0.09104846 0.14260364 -0.1807751 0.06917539
-0.08319269 -0.16561155 0.023391964 -0.05187517 0.10413269 0.09745815 -0.027067477 0.037105277
0.13160296 0.040695228 0.09180716 0.057808876 -0.09410166 0.024194593 0.12428708 0.16255285
-0.047005992 -0.14451896 -0.10038254 -0.089745075 0.07523267 -0.098542884 0.13256769 -0.08275709
-0.12988535 -0.02190982 0.16658315 0.012697196 0.14013398 0.008988956 -0.019384382 0.11852084
-0.13417852 -0.171513 0.064455256 0.023156261 -0.14729638 0.027696984 -0.07506498 -0.14753954
-0.16137877 0.12089259 0.1725006 -0.02074507 -0.10758485 0.09567712 -0.14468497 -0.047458567
0.0454935 0.085758224 0.10659741 -0.030011686 -0.14803068 0.057874262 -0.06847148 -0.061744675
-0.04151262 -0.12025914 0.040600043 -0.024695037 -0.009780478 0.17008719 0.08662767 0.0118578775
0.14139293 0.13357267 -0.16021279 0.09046551 0.020388465 0.17137699 0.00084783195 -0.049336847
-0.005376371 -0.12166613 0.045214735 0.14859343 -0.1423287 0.13678479 0.16095977 0.15567371
0.117989354 -0.030792221 0.07633953 0.0026462674 -0.09317002 0.090797774 0.1728909 -0.16431862
00000000: 18fc b73d 2ce8 88bd 6c60 283e 2484 c9bd
00000010: 1d7a 8bbd 65c7 eb3d 99a0 8bbd 9769 143e
00000020: e056 73bd b32e c1bd 7ac4 943d e8b3 ddbd
00000030: 9e05 9dbd 8f79 bd3d e4a5 b4bd 983e bbbd
00000040: 433a 853a 4366 f33d 94f6 303e 016a 22be
00000050: 4da0 8bbd bdc7 1b3e 2a24 6bbd 8331 d7bd
00000060: e2ed 373e 6751 c23d 0693 d63d 0b05 ccbd
00000070: 6ff3 a93d d902 b63d 7583 b33d 39a6 e3bd
00000080: 649f 1a3e 683a 0bbd 7df4 b93d a1be 16be
00000090: 4bdf 0dbe c9e5 373e 3317 2cbd aca8 2e3e
000000a0: fc4c 90bc 6c16 38be 1786 3dbe 4a98 41be
000000b0: 07fc 733d bece 263d 61a3 103d f215 1ebe
000000c0: 340e 7f3d 95f8 e73c 419b 9dbd aced cb3c
000000d0: c0bd 1d3e 8067 cbbc d247 fdbd f807 8abd
000000e0: 15a1 1ebe 672e 3bbd 2fed 0ebe 0f1e 2c3e
000000f0: 89dd 223e 0263 92bd 3886 70bd dd1e 61bd
00000100: bcf1 06be e3be 24be 6007 c03a b5c7 933c
00000110: 6a0a a6bd 6421 cabd 7c52 b1bd af00 aaba
00000120: 3773 d4bd 8218 473d 7901 06bc 34ae 3abd
00000130: 8e76 77bd f424 433e aae4 df3d bfe4 e23d
00000140: 3109 273b c04d 92bc 402f ee3d 12b0 2fbe
00000150: a261 273e 2a7d d9bd e30f 3bbe 865a 2f3e
00000160: 056b 603d 95bb 0bbe a9a7 3bbe 0ef0 8dba
00000170: 2faa 90bb e9ba d93c b97c 213e 17c5 6ebd
00000180: 7d8d 38be fcdb a8bd b9de 32be c8c0 3d3e
00000190: c7e2 b63d f7fa ee3c 2d4e 253e e57b 91bd
000001a0: 7970 083e e4b5 b63d ba82 413e 4d17 673d
000001b0: 2813 373e 7bdd 87bd ea9f 943d c5d9 23be
000001c0: cdd6 133e 07b5 fdbd 5f64 a9bd ea04 9dbd
000001d0: 8103 39be 750d 1b3e d47c 5b3d 7da7 26be
000001e0: f18f fc3d 2b8f 3b3d a43e 693d f956 a73d
000001f0: 26c2 0d3e ae52 2b3e 87c7 243e 195e 0a3e
00000200: 7f57 85bc e617 6d3d eac3 733b f559 3f3e
00000210: f842 aebd f4dd acbc d1a3 e23d b164 773d
00000220: f5b6 9abd 35c7 b3bd d370 fabd 595f e53d
00000230: 0a27 c5bd 6af4 033e 5f8b 153d ad30 efbc
00000240: c376 8abc 634b 3abc 2257 323e 321d 913d
00000250: 4051 3d3e 8116 b1bd e6d4 febd ae21 cc3d
00000260: d1b2 06bd fe03 313e 4094 dcbd 4378 62bc
00000270: 563c 113e 013a 1e3e d05f d0bd b3b8 c3bd
00000280: 6c38 213e c98b f1bc 908a 553d 11e0 253e
00000290: 9d77 babd b006 123e 1c1d 39be d4ab 8d3d
000002a0: ee60 aabd 1396 29be 81a0 bf3c 0f7b 54bd
000002b0: 8543 d53d 2398 c73d 9dbc ddbc b4fb 173d
000002c0: edc2 063e 0ab0 263d 6405 bc3d 00c9 6c3d
000002d0: 5fb8 c0bd bd33 c63c 398a fe3d 4174 263e
000002e0: 5b89 40bd c7fc 13be 5c95 cdbd 44cc b7bd
000002f0: 9613 9a3d dad0 c9bd d3bf 073e 8d7c a9bd
00000300: aa00 05be 397c b3bc c694 2a3e e607 503c
00000310: 487f 0f3e 6a46 133c ffcb 9ebc 0ebb f23d
00000320: 1866 09be 1ba1 2fbe 1e01 843d 33b2 bd3c
00000330: ddd4 16be c9e4 e23c abbb 99bd 9b14 17be
00000340: 7a40 25be 8996 f73d ffa3 303e 91f1 a9bc
00000350: 7255 dcbd 5ef2 c33d 4c28 14be ea63 42bd
00000360: 6457 3a3d 02a2 af3d be4f da3d 11db f5bc
00000370: 5b95 17be 900d 6d3d c63a 8cbd fce7 7cbd
00000380: 2309 2abd 6d4a f6bd 3b4c 263d 3f4d cabc
00000390: 4c3e 20bc 562b 2e3e d969 b13d 8b47 423c
000003a0: 4fc9 103e 46c7 083e d20e 24be fb45 b93d
000003b0: b605 a73c 737d 2f3e 0a41 5e3a 6f15 4abd
000003c0: 452c b0bb 182c f9bd 1633 393d e028 183e
000003d0: 9dbe 11be 5011 0c3e a3d2 243e ee68 1f3e
000003e0: 67a4 f13d f83f fcbc e657 9c3d 006d 2d3b
000003f0: eccf bebd 2ff4 b93d 500a 313e 2443 28be

encoder.model.bias_ih_l1 f4 [120]
0.106517024 -0.07944777 0.03727099 0.17678641 0.10996492 0.12152039 0.036190283 0.07098907
0.032399416 -0.10080098 -0.003184761 -0.04705001 -0.008074056 0.102156915 0.11675018 -0.017248392
0.14654064 -0.17652541 0.030779265 0.093100876 0.08255811 0.129537 0.049715072 0.10087094
0.10759969 0.040764377 -0.11210272 -0.103501886 0.14909033 0.11104097 -0.15714581 -0.0011312516
0.014391531 -0.0827746 0.03340385 -0.075681195 0.12276345 -0.0062399674 -0.097493425 -0.14974633
-0.045026302 0.05053837 0.17258921 -0.09920036 -0.1407015 -0.16753425 -0.15578201 -0.14182898
0.108803965 -0.18336092 0.046171945 0.12355014 -0.025124745 -0.02522749 -0.14500292 -0.09505708
-0.07511885 0.043176815 0.059329912 -0.012994733 -0.013468265 0.16621077 0.09738834 -0.0147885075
0.13910738 0.012297222 -0.06422472 0.07279382 -0.071775086 0.18514551 -0.109626204 0.0101868855
0.111771524 -0.15674521 -0.012357552 -0.13668165 -0.04180325 0.15162331 0.155159 -0.055199496
0.052858617 -0.0024311305 -0.10674 0.000637023 0.057635814 0.031935435 0.052133594 -0.022139892
-0.04019018 0.0048395013 0.058464374 0.18214107 -0.10219225 0.038905885 -0.12843277 -0.16358921
-0.15397641 0.12128035 0.030889926 0.17115128 -0.120778404 0.023059241 0.0042896564 0.020783316
0.18838176 -0.048147365 0.11083957 -0.137176 -0.16821617 -0.09544606 -0.023902062 -0.014665364
0.031287596 -0.104182616 0.0962455 0.17425331 0.02072145 -0.045280788 -0.15248342 0.18000123
00000000: 9925 da3d 83b5 a2bd 77a9 183d 7f07 353e
00000010: 4a35 e13d afdf f83d 433c 143d b862 913d
00000020: 40b5 043d bf70 cebd 6cb7 50bb 83b7 40bd
00000030: 0c49 04bc a537 d13d b81a ef3d 804c 8dbc
00000040: c00e 163e 14c3 34be cc24 fc3c acab be3d
00000050: 3a14 a93d 59a5 043e 08a2 4b3d 6c95 ce3d
00000060: 3a5d dc3d 8cf8 263d 1c96 e5bd ccf8 d3bd
00000070: 23ab 183e 7369 e33d d5ea 20be 8146 94ba
00000080: 75ca 6b3c bb85 a9bd 7ad2 083d befe 9abd
00000090: 676b fb3d a478 ccbb a2aa c7bd 1a57 19be
000000a0: 806d 38bd 5201 4f3d 3abb 303e 8f29 cbbd
000000b0: 0e14 10be 198e 2bbe 5285 1fbe 9e3b 11be
000000c0: 9dd4 de3d f7c2 3bbe cb1e 3d3d db07 fd3d
000000d0: 69d2 cdbc e2a9 cebc a57b 14be 49ad c2bd
000000e0: e9d7 99bd 2cda 303d ec03 733d dce7 54bc
000000f0: ffa9 5cbc 2833 2a3e 8a73 c73d 7f4b 72bc
00000100: 2a72 0e3e 4a7a 493c 4088 83bd ed14 953d
00000110: d1fe 92bd c996 3d3e b483 e0bd e5e6 263c
00000120: 78e8 e43d d181 20be 5477 4abc 46f6 0bbe
00000130: e239 2bbd 2443 1b3e 00e2 1e3e de18 62bd
00000140: 4782 583d 9a53 1fbb 809a dabd e4fd 263a
00000150: 8813 6c3d bbce 023d 098a 553d b85e b5bc
00000160: 759e 24bd ae94 9e3b 5778 6f3d 3083 3a3e
00000170: 2c4a d1bd c75b 1f3d e183 03be ee83 27be
00000180: feab 1dbe d561 f83d df0c fd3c 4842 2f3e
00000190: ab5a f7bd bce6 bc3c 3f90 8c3b c641 aa3c
000001a0: 26e7 403e 2c36 45bd dbff e23d de77 0cbe
000001b0: dc40 2cbe 3979 c3bd 42ce c3bc ff46 70bc
000001c0: 6c27 003d b25d d5bd 5c1c c53d 766f 323e
000001d0: 08c0 a93c 5978 39bd 9d24 1cbe 3e52 383e

encoder.model.bias_hh_l1 f4 [120]
0.06551002 0.020586478 0.12853386 0.039560247 0.015353993 -0.114501804 0.15980437 -0.064348556
0.025038254 0.16397665 0.048642352 0.105048016 -0.11125208 0.030084377 -0.0312928 0.037679948
0.13235617 -0.03253963 0.10124835 -0.16908728 0.13213399 -0.0062500197 0.050682046 -0.064104505
-0.030740496 -0.15695299 -0.057988852 0.15258203 -0.14067547 0.16862637 0.1902634 -0.15345965
-0.13256492 -0.17137325 -0.08281401 -0.13456404 0.044681907 -0.073799595 -0.14932097 -0.00048244343
-0.11446476 -0.13119878 -0.1406985 -0.110190295 -0.09375599 -0.11679693 0.07968154 0.0039465087
0.04383376 0.09587399 0.06675531 0.10229957 0.085068494 0.17281264 -0.055042654 0.12988497
0.048764218 -0.07932564 -0.13503774 -0.0050025536 -0.004458747 0.14126728 -0.018527783 0.074404836
-0.1639667 -0.06290777 -0.06267363 -0.092481256 -0.0130689535 -0.11932271 0.13392171 -0.18919972
-0.14031482 0.032624766 0.14177199 -0.090144046 -0.054704178 0.05979326 -0.18441476 -0.091727346
0.062831864 -0.16201672 0.08248075 0.09964685 0.0069789416 -0.12856132 -0.1639611 -0.036612377
-0.06650405 0.13688047 -0.01091406 0.0997077 -0.06314521 0.055074558 -0.050468974 0.14614277
0.14978097 0.08470178 0.17227836 -0.15368544 0.08133978 0.18749818 0.1474351 -0.11958505
0.03615933 -0.13581143 -0.11420972 -0.14660421 0.07301071 0.15925193 0.16061062 -0.043812543
0.07132407 -0.122144 -0.09135192 -0.09036195 0.12365155 -0.16754392 0.15756594 0.16175313
00000000: 1e2a 863d f9a4 a83c 619e 033e ed09 223d
00000010: 508f 7b3c ec7f eabd c2a3 233e 2dc9 83bd
00000020: 061d cd3c 7fe9 273e 343d 473d 6a23 d73d
00000030: 21d8 e3bd 8373 f63c e12c 00bd 4a56 1a3d
00000040: 6088 073e 4648 05bd 4c5b cf3d 3725 2dbe
00000050: 224e 073e f7cc ccbb fa97 4f3d 3949 83bd
00000060: 7ed3 fbbc 49b8 20be b885 6dbd 773e 1c3e
00000070: 3b0d 10be 64ac 2c3e 69d4 423e 8724 1dbe
00000080: 19bf 07be 787c 2fbe 649a a9bd 28cb 09be
00000090: 6004 373d 3e24 97bd 99e7 18be 76f0 fcb9
000000a0: 806c eabd f958 06be 4513 10be 73ab e1bd
000000b0: 2403 c0bd 3b33 efbd 1330 a33d b751 813b
000000c0: 078b 333d 9559 c43d 02b7 883d 7082 d13d
000000d0: 6438 ae3d ccf5 303e 6874 61bd 9100 053e
000000e0: fdbc 473d 7b75 a2bd 5547 0abe 76ec a3bb
000000f0: ae1a 92bb 5fa8 103e 94c7 97bc 9061 983d
00000100: e3e6 27be cad5 80bd 085b 80bd d066 bdbd
00000110: 2a1f 56bc 775f f4bd c622 093e 92bd 41be
00000120: b0ae 0fbe 8ca1 053d ad2c 113e 719d b8bd
00000130: 7d11 60bd c7e9 743d 39d7 3cbe 8cdb bbbd
00000140: fead 803d b6e7 25be abeb a83d a613 cc3d
00000150: 9baf e43b 94a5 03be 6be5 27be dcf6 15bd
00000160: 4633 88bd 652a 0c3e e3d0 32bc 8d33 cc3d
00000170: 4752 81bd dc95 613d 8eb8 4ebd 73a6 153e
00000180: 2f60 193e 2078 ad3d bd69 303e b75f 1dbe
00000190: 7895 a63d 86ff 3f3e 3af9 163e 02e9 f4bd
000001a0: ce1b 143d 2712 0bbe c9e6 e9bd 6a1f 16be
000001b0: a486 953d f012 233e 1c77 243e c874 33bd
000001c0: 5b12 923d a226 fabd b716 bbbd b00f b9bd
000001d0: 063d fd3d a290 2bbe f758 213e 9da2 253e

variational_latent.hidden_to_mu.weight f4 [15, 30]
-0.11716255 -0.19010024 0.19544604 -0.19755398 0.19750594 0.27118233 -0.08369193 0.062761106
-0.22039919 -0.2166983 -0.33045897 0.2948795 0.021571027 0.300924 -0.037664905 0.0028519058
-0.33143467 0.2471164 0.21918243 0.036162656 -0.29130876 -0.13922232 0.16866429 -0.08529025
-0.31712332 -0.08982775 0.2439828 -0.10946902 -0.024828324 0.27162284 0.22278756 -0.31216556
0.16735677 -0.22871268 0.34438112 -0.12306353 0.22918095 -0.27048898 -0.27887404 -0.36815318
-0.11852057 0.33987185 -0.12639041 -0.027765125 -0.20927213 0.3565648 -0.15592146 -0.035937775
0.2875347 0.13872162 -0.22587797 0.06301898 0.3550482 0.056737974 0.10682031 -0.06346387
-0.30790597 0.3385669 -0.024263667 -0.29847097 -0.036691032 -0.09262594 0.34127513 0.12568772
-0.23283991 -0.1432322 -0.24701513 0.27881414 0.04210275 -0.10529799 -0.078615196 -0.35474104
-0.17124459 0.0523 -0.06955937 -0.11937347 -0.037074875 0.2646952 -0.10367545 0.21663661
0.18312664 0.09619289 0.29361966 0.22435758 0.059226688 -0.20601949 0.28952703 -0.24201882
-0.32504252 0.043023936 -0.22009245 0.11328612 0.35708275 0.113505855 -0.24259521 -0.10292622
-0.059182547 -0.3382598 0.17312028 0.28440124 -0.14257495 -0.2592311 0.14022239 -0.36526263
-0.099264756 0.10612096 -0.30616367 0.2362121 -0.30421683 0.15256451 -0.04451037 0.048660927
-0.11317344 -0.04068009 0.30326515 0.34544447 0.19763091 -0.22044866 0.22289892 0.19919471
0.33889267 0.20756993 -0.2851218 -0.118476644 0.038155876 -0.34985083 -0.2896062 -0.30636975
-0.121371165 -0.2567959 0.18324216 0.25992742 -0.36734143 -0.215455 -0.27298614 0.14880337
-0.017531352 0.34550413 -0.24533375 0.23706461 -0.06848871 0.17843255 0.1589143 -0.10139059
0.28105193 -0.022065928 -0.029109007 0.08547747 -0.19557881 0.3613472 -0.093309924 0.35583514
0.13227552 0.12199702 -0.013121429 -0.0022991698 0.23821321 -0.19986646 -0.24989308 0.1508891
-0.11910484 -0.32563663 0.34640908 -0.05651089 0.24304868 -0.3614234 0.21308953 -0.12918499
0.35340488 0.14509293 0.3230016 0.2573555 0.1882443 -0.3491251 0.32614216 0.02811467
-0.15170364 -0.24007751 0.16856751 -0.3070122 -0.04321018 0.08319645 0.09472818 0.36599547
-0.029652549 0.104441024 0.116015844 0.2238666 0.15955412 0.087335 0.065488026 -0.19596373
-0.14556044 0.0043634637 -0.044598844 0.05549581 0.31067935 0.09740527 -0.17846726 0.024960492
0.14469895 0.20809978 -0.05525868 -0.11553191 -0.022915699 -0.24676509 0.05768944 -0.0014154178
-0.30059648 0.24730772 0.08145626 0.2958791 0.023715599 -0.18802021 -0.1737739 -0.14018326
0.0887849 -0.0029359753 0.07196428 0.26606232 0.12939847 -0.027812598 0.35977483 -0.08178195
-0.36503127 -0.17403077 0.019679427 -0.13714798 0.09213268 -0.18570757 0.22860429 0.048275203
-0.13424692 0.30851015 0.08015819 -0.05344063 -0.3342444 -0.11660197 0.05629416 -0.17483509
-0.18172872 0.34909675 -0.047860578 -0.09736724 -0.17438218 -0.018986147 -0.15061235 -0.22030155
-0.08738636 0.07601033 -0.19220886 0.1714598 0.11632854 -0.21336396 0.2096122 -0.20470545
00000000: ebf2 efbd a3a9 42be 0223 483e 974b 4abe
00000010: ff3e 4a3e 69d8 8a3e ad66 abbd e588 803d
00000020: 53b0 61be 29e6 5dbe eb31 a9be 72fa 963e
00000030: b9b5 b03c b612 9a3e 8446 1abd 0ae7 3a3b
00000040: ceb1 a9be 150c 7d3e 5c71 603e 4b1f 143d
00000050: 6c26 95be 4c90 0ebe 55b6 2c3e a8ac aebd
00000060: fd5d a2be 9df7 b7bd a1d6 793e 4b31 e0bd
00000070: c564 cbbc 2612 8b3e 6c22 643e 2ad4 9fbe
00000080: 935f 2b3e a833 6abe b952 b03e bb08 fcbd
00000090: 69ae 6a3e 887d 8abe 94c8 8ebe 937e bcbe
000000a0: eaba f2bd af03 ae3e 7d6c 01be b073 e3bc
000000b0: 6f4b 56be a98f b63e e0a9 1fbe 7d33 13bd
000000c0: c037 933e 0a0d 0e3e 8e4c 67be 1810 813d
000000d0: e1c8 b53e 1466 683d 9bc4 da3d 58f9 81bd
000000e0: daa5 9dbe a458 ad3e 99c4 c6bc 30d1 98be
000000f0: 5649 16bd abb2 bdbd 9dbb ae3e 48b4 003e
00000100: 966d 6ebe 76ab 12be 89f1 7cbe bac0 8e3e
00000110: ef73 2c3d 79a6 d7bd 0101 a1bd 9ea0 b5be
00000120: be5a 2fbe 8638 563d 2575 8ebd 147a f4bd
00000130: d3db 17bd 2186 873e cb53 d4bd fdd5 5d3e
00000140: 8d85 3b3e c700 c53d 5155 963e febd 653e
00000150: af97 723d c6f6 52be e33c 943e c8d3 77be
00000160: f96b a6be de39 303d ea5f 61be 8e02 e83d
00000170: 8dd3 b63e c275 e83d e16a 78be fbca d2bd
00000180: 6669 72bd 6330 adbe 7146 313e 0a9d 913e
00000190: 2bff 11be f0b9 84be 7596 0f3e b403 bbbe
000001a0: 524b cbbd f255 d93d 7cc1 9cbe 96e1 713e
000001b0: 4fc2 9bbe df39 1c3e 8150 36bd ae50 473d
000001c0: 7ac7 e7bd 2ba0 26bd 9245 9b3e 19de b03e
000001d0: c25f 4a3e 4bbd 61be 9d3f 643e b3f9 4b3e
000001e0: 5783 ad3e 368d 543e 7cfb 91be e2a3 f2bd
000001f0: 5649 1c3d a61f b3be 4447 94be 7fdc 9cbe
00000200: 7291 f8bd c17a 83be d5a3 3b3e 3515 853e
00000210: 2d14 bcbe 3ca0 5cbe d7c4 8bbe e95f 183e
00000220: e99d 8fbc ebe5 b03e c538 7bbe 11c1 723e
00000230: cf43 8cbd 06b7 363e 6eba 223e dfa5 cfbd
00000240: 0ae6 8f3e 9bc3 b4bc 0376 eebc d00e af3d
00000250: d045 48be 8002 b93e 4619 bfbd 0630 b63e
00000260: 3c73 073e 93d9 f93d 43fb 56bc abad 16bb
00000270: 2aee 733e cba9 4cbe f9e3 7fbe ac82 1a3e
00000280: 3ded f3bd d8b9 a6be 885c b13e f777 67bd
00000290: c1e1 783e 7d0c b9be 2434 5a3e 1249 04be
000002a0: 7cf1 b43e 3e93 143e 7760 a53e 1ac4 833e
000002b0: 1dc3 403e 86c0 b2be 1bfc a63e bd50 e63c
000002c0: 3358 1bbe e1d6 75be f69c 2c3e b430 9dbe
000002d0: 28fd 30bd e662 aa3d d900 c23d c263 bb3e
000002e0: e7e9 f2bc 2de5 d53d b799 ed3d 493d 653e
000002f0: 2862 233e b1dc b23d 961e 863d b7aa 48be
00000300: cc0d 15be 63fb 8e3b 47ad 36bd 934f 633d
00000310: 5d11 9f3e 6a7c c73d 1fc0 36be f279 cc3c
00000320: f62b 143e 1c18 553e ed56 62bd fe9b ecbd
00000330: b4b9 bbbc fdaf 7cbe c34b 6c3d 8a85 b9ba
00000340: c8e7 99be 3c3e 7d3e 8ad2 a63d 777d 973e
00000350: 3747 c23c 5f88 40be c9f1 31be 338c 0fbe
00000360: dcd4 b53d 7e69 40bb 0262 933d 5239 883e
00000370: 0881 043e 3fd7 e3bc 6834 b83e 4c7d a7bd
00000380: 61e5 babe 1f35 32be c036 a13c 8570 0cbe
00000390: 0fb0 bc3d 202a 3ebe 3e17 6a3e 38bc 453d
000003a0: 0678 09be 0bf5 9d3e fa29 a43d 90e4 5abd
000003b0: 1522 abbe 03cd eebd b594 663d f807 33be
000003c0: 1817 3abe cfbc b23e 7409 44bd 7a68 c7bd
000003d0: 3e91 32be d688 9bbc 203a 1abe bb96 61be
000003e0: 9ff7 b2bd 4eab 9b3d 66d2 44be 2893 2f3e
000003f0: a83d ee3d 157c 5abe 95a4 563e 4e9e 51be

variational_latent.hidden_to_mu.bias f4 [15]
0.15083274 -0.086754106 0.1360889 -0.073518634 0.0046693217 -0.12277792 0.13072085 -0.10413833
0.09760215 0.16559565 0.088460386 0.013963536 -0.09256216 -0.11172175 0.13014159
00000000: e673 1a3e 23ac b1bd e35a 0b3e f090 96bd
00000010: 1c01 993b fd72 fbbd b0db 053e 7a46 d5bd
00000020: a3e3 c73d e891 293e b82a b53d 51c7 643c
00000030: 3b91 bdbd 5fce e4bd d643 053e

variational_latent.hidden_to_logvar.weight f4 [15, 30]
0.1936237 -0.15442543 0.32265478 -0.20992875 0.2632132 -0.29461268 0.06856593 0.31323978
0.34031674 0.25396672 -0.0033218116 0.23985282 0.012714172 0.007372626 -0.17229067 -0.33753178
-0.10481246 0.12397381 0.13162372 0.124954 -0.26114008 -0.09318108 0.3116816 0.08800525
0.08025482 0.11601863 0.30935478 0.32371008 0.2314861 -0.030545747 -0.08769573 -0.23534329
0.24540405 0.29776734 -0.218225 -0.23281321 0.13075359 0.33473852 0.27585292 0.29088932
-0.19869149 0.24113294 0.32720792 0.19068557 -0.2342697 -0.09751437 -0.23132086 0.25045303
0.29703107 -0.013186169 -0.094295494 -0.1964047 -0.21786039 -0.15015219 0.035371892 -0.3269196
0.15271176 -0.17238258 -0.26086825 -0.0457727 0.2214768 0.118442304 0.16900662 -0.26623958
0.077018306 -0.252415 0.33511353 -0.20509477 -0.14296195 -0.2981542 0.23508233 -0.08371801
0.19591433 0.34905788 0.17982762 -0.10306874 -0.082406156 -0.068630636 -0.08004343 -0.21303491
-0.15694039 -0.345367 -0.21578017 0.1471018 0.3738391 0.14474197 -0.10289067 0.1291917
-0.18197086 -0.0091160815 -0.18378401 -0.3084622 -0.25474915 -0.029604532 0.07179757 -0.054224897
0.34540653 0.34507748 0.20492145 -0.36544135 0.28922385 -0.23291147 0.34259102 -0.21401335
0.07015358 -0.060514484 0.21394882 0.24693641 0.29346827 -0.28164378 0.08819349 -0.27106252
0.16768283 0.16202047 -0.1887474 -0.33342022 0.05957242 -0.029137796 -0.17007603 0.115527175
-0.26778567 0.26661488 -0.18137562 0.2776532 -0.09513277 -0.06592414 -0.14128257 0.33925143
-0.25119847 -0.26779673 0.2461092 -0.110608466 -0.04354068 -0.24715252 0.32802287 0.16424116
0.06612451 -0.13860954 0.34481362 -0.06183995 -0.26998878 -0.2354886 -0.08638494 -0.15261719
0.22036912 0.24835964 -0.28263962 -0.19129579 -0.054179788 -0.3025803 0.18010496 -0.1712581
0.25361186 0.28355196 0.22030576 -0.2897985 -0.13359812 0.31754434 -0.27916744 -0.09807143
-0.105835795 -0.34613025 -0.08823434 0.2222069 -0.2318243 0.36415845 -0.29505938 -0.0708414
0.15916817 0.010511277 0.031114597 0.306287 -0.022074278 0.0715609 0.099104635 0.11779797
0.07351128 -0.052995447 -0.13904439 0.05540439 -0.22756916 0.13578278 -0.267311 0.29149756
0.24951048 -0.26479894 -0.2292291 0.16993815 -0.26972842 0.32395297 0.04529298 -0.15881984
-0.008430555 -0.086117074 -0.3562951 0.09489449 0.20568314 0.15173621 0.36646357 -0.19737566
-0.31241962 -0.13926639 0.18826069 0.31552655 -0.35454515 -0.0851612 0.1751715 -0.26526627
0.21687931 -0.1829657 -0.053911578 0.3260887 -0.2864254 0.09311836 -0.33050793 -0.0031290203
0.040487055 -0.29274714 -0.23357062 -0.08959468 -0.059235513 0.1278926 0.103451416 -0.17397429
-0.13596681 -0.24863009 0.027932458 -0.13017043 -0.1490485 -0.24470723 -0.04677218 -0.18143208
-0.23410745 -0.2465205 -0.105366714 -0.30541864 -0.17450495 0.02247062 0.08624266 -0.24326715
0.1535553 0.2036674 -0.05003337 -0.34365088 0.002873598 -0.1387211 -0.13005394 -0.18623476
-0.13593338 -0.12177364 0.021260805 -0.092457496 -0.222963 0.35357156 -0.3548895 -0.20327152
00000000: 4b45 463e b321 1ebe 0233 a53e 90f7 56be
00000010: e1c3 863e 79d7 96be 4b6c 8c3d f760 a03e
00000020: ff3d ae3e ed07 823e c0b2 59bb fa9b 753e
00000030: 1a4f 503c 1296 f13b f76c 30be f7d0 acbe
00000040: eaa7 d6bd fbe5 fd3d 5ec8 063e e2e7 ff3d
00000050: 27b4 85be b9d5 bebd bb94 9f3e 193c b43d
00000060: a45c a43d 2d9b ed3d c063 9e3e 54bd a53e
00000070: b10a 6d3e 133b fabc d299 b3bd d5fd 70be
00000080: 334b 7b3e f674 983e 6076 5fbe 9666 6ebe
00000090: 45e4 053e d962 ab3e 983c 8d3e 72ef 943e
000000a0: c875 4bbe 8eeb 763e cc87 a73e 1443 433e
000000b0: 65e4 6fbe 9db5 c7bd 60df 6cbe 613b 803e
000000c0: 7514 983e cd0a 58bc ff1d c1bd 501e 49be
000000d0: cb16 5fbe 7fc1 19be 1ee2 103d 0162 a7be
000000e0: 7960 1c3e 0f85 30be 8690 85be 287c 3bbd
000000f0: d0ca 623e e191 f23d 1210 2d3e 8e50 88be
00000100: c6bb 9d3d 8a3c 81be 0094 ab3e 5d04 52be
00000110: 9e64 12be aba7 98be 6cb9 703e 5974 abbd
00000120: c49d 483e b7b7 b23e bb24 383e b415 d3bd
00000130: 8fc4 a8bd 388e 8cbd cfed a3bd d325 5abe
00000140: fbb4 20be f2d3 b0be 7af5 5cbe dba1 163e
00000150: d767 bf3e 3d37 143e 58b8 d2bd d44a 043e
00000160: 9256 3abe 9e5b 15bc e031 3cbe c2ee 9dbe
00000170: 7b6e 82be 3485 f2bc 9b0a 933d ed1a 5ebd
00000180: 20d9 b03e ffad b03e eed6 513e 211b bbbe
00000190: 2615 943e 5880 6ebe 1768 af3e 5126 5bbe
000001a0: aeac 8f3d 09de 77bd 6615 5b3e e6dc 7c3e
000001b0: 7941 963e 9d33 90be ca9e b43d b5c8 8abe
000001c0: 0cb5 2b3e b2e8 253e 0047 41be 0eb6 aabe
000001d0: 3602 743d 63b2 eebc 6928 2ebe 8399 ec3d
000001e0: 341b 89be bf81 883e 88ba 39be 8f28 8e3e
000001f0: f8d4 c2bd 3c03 87bd 61ac 10be 5db2 ad3e
00000200: 169d 80be a71c 89be 0d04 7c3e b186 e2bd
00000210: b657 32bd 8d15 7dbe 9df2 a73e d62e 283e
00000220: 496c 873d a9ef 0dbe 698b b03e e34b 7dbd
00000230: f83b 8abe ec23 71be 96ea b0bd ae47 1cbe
00000240: 71a8 613e fd51 7e3e 24b6 90be 0be3 43be
00000250: a0eb 5dbd ceeb 9abe 6f6d 383e 495e 2fbe
00000260: 6ad9 813e b92d 913e d597 613e 7860 94be
00000270: f2cd 08be 2c95 a23e 09ef 8ebe add9 c8bd
00000280: 70c0 d8bd fc37 b1be 35b4 b4bd 358a 633e
00000290: 5963 6dbe fa72 ba3e 0612 97be 4c15 91bd
000002a0: fbfc 223e 7e37 2c3c 0ae4 fe3c a6d1 9c3e
000002b0: 1ed5 b4bc 858e 923d 5ff7 ca3d 1040 f13d
000002c0: 158d 963d c111 59bd a761 0ebe b7ef 623d
000002d0: e407 69be a40a 0b3e fddc 88be 2b3f 953e
000002e0: ad7f 7f3e ba93 87be 08bb 6abe 4404 2e3e
000002f0: d819 8abe 2add a53e 2285 393d aba1 22be
00000300: 5020 0abc 265e b0bd 506c b6be 0b58 c23d
00000310: 9a9e 523e bd60 1b3e 1da1 bb3e d81c 4abe
00000320: 77f5 9fbe d99b 0ebe 69c7 403e b28c a13e
00000330: f186 b5be ff68 aebd 2860 333e fbd0 87be
00000340: 9c15 5e3e 5c5b 3bbe 63d2 5cbd 19f5 a63e
00000350: 5aa6 92be d7b4 be3d 5638 a9be 4010 4dbb
00000360: c1d5 253d f4e2 95be 232d 6fbe 6a7d b7bd
00000370: f0a0 72bd 47f6 023e 56de d33d 5126 32be
00000380: e23a 0bbe e398 7ebe 9cd2 e43c 664b 05be
00000390: 2ca0 18be 8894 7abe 2f94 3fbd 55c9 39be
000003a0: ddb9 6fbe df6f 7cbe 81ca d7bd d55f 9cbe
000003b0: 6db1 32be 4e14 b83c fe9f b03d 061b 79be
000003c0: 9a3d 1d3e 308e 503e caef 4cbd 02f3 afbe
000003d0: f952 3c3b e70c 0ebe dc2c 05be 53b4 3ebe
000003e0: 1f32 0bbe 7564 f9bd 242b ae3c 5b5a bdbd
000003f0: 6a50 64be 5507 b53e 14b4 b5be 6926 50be

variational_latent.hidden_to_logvar.bias f4 [15]
-0.1387356 0.043472826 -0.08117824 0.13856189 -0.08543608 -0.18831743 -0.13131194 -0.13534173
0.13911527 0.15171356 -0.059353057 -0.08398048 -0.1683106 0.06277641 0.16041477
00000000: b510 0ebe 9010 323d c740 a6bd 2be3 0d3e
00000010: 1df9 aebd 49d6 40be a376 06be 0697 0abe
00000020: 3c74 0e3e cd5a 1b3e 311c 73bd f5fd abbd
00000030: 9d59 2cbe eb90 803d c543 243e
