models/20200923_173545/epoch_0000_loss_2626408.90625.pt (torch, 261509 bytes, 116 tensors)

encoder.model.weight_ih_l0 f4 [120, 3]
-0.002732 -0.1254132 -0.017003817 -0.008958854 -0.11262425 -0.040238094 0.036251716 -0.05944612
0.070688464 0.073633954 0.1813907 0.018449806 0.17807585 -0.0995987 -0.012646262 0.099593736
0.03326705 -0.12220581 -0.0028757981 0.10676456 0.016965883 -0.16152841 0.07374738 0.07898994
0.020101225 -0.1429502 0.07022739 0.1644838 -0.045000803 -0.14275174 0.09697381 0.15854825
-0.10008303 -0.1711981 -0.06575138 -0.09969879 -0.1765423 -0.0015011138 0.050963756 -0.09583493
0.09215272 -0.08173144 0.0818062 -0.027356714 -0.09689712 -0.010141749 -0.15295745 -0.04345792
0.08761898 -0.08642488 -0.008892487 0.05716039 -0.06998188 -0.09021008 0.13697705 0.020715848
-0.048006456 0.09258744 0.039084576 0.14895537 0.019053888 -0.11037965 -0.08536174 0.0042216363
0.16477169 -0.043550283 0.027695546 0.15635677 -0.17381994 -0.16472536 -0.13230392 -0.005516053
-0.057138424 0.064212985 0.16114534 -0.062742315 -0.09792154 0.12485791 0.059568737 0.08214102
-0.13836907 0.055388983 -0.17991856 0.065560445 0.14945064 -0.03419467 0.053466883 0.16257872
-0.0787522 -0.054713123 -0.110159256 -0.027329406 0.04192917 -0.090349734 -0.005412673 -0.1167204
-0.09036744 0.070574015 0.08310292 0.11035759 -0.09194086 0.10676939 -0.05414817 0.06574103
0.17455408 -0.10579564 -0.14627731 -0.033228688 -0.11864837 0.09505816 -0.0037238833 -0.15804024
-0.14238967 -0.019464599 0.04074504 -0.1700886 0.16081806 0.16966599 0.021834359 -0.049622647
-0.14801379 0.10963101 0.18350472 0.12098642 -0.057077512 0.020954596 0.035904046 -0.051529795
0.057554077 0.11311525 -0.023497524 -0.028848618 0.037982047 0.09041256 0.06465783 0.0038327766
0.02455874 0.0037604838 -0.016237663 -0.10340205 0.15432362 0.1558391 0.13236041 -0.07076558
-0.13893487 0.13786167 0.15166947 -0.052062303 -0.040805273 0.14310497 0.030404208 0.14789021
-0.13449231 0.07786986 -0.11760272 -0.048286725 0.101811595 0.13867675 -0.12684636 0.13099647
-0.09418234 -0.018759986 -0.02601141 0.005581521 0.04048382 -0.09545309 -0.0767179 0.05804314
-0.12758248 -0.1387558 0.12128289 -0.048996158 0.007007546 -0.15135996 -0.09866839 0.02415687
0.027707513 -0.055837765 -0.12193578 -0.13042715 0.042357408 0.07226524 -0.024856988 -0.08282651
0.12673454 -0.020985205 0.009951411 0.028368391 -0.1355522 -0.14340267 -0.11402601 0.06034369
-0.08602112 -0.032899756 0.16860206 -0.15391125 -0.030518798 -0.110402144 0.14986221 0.12986585
0.073734134 -0.040931422 0.13530602 -0.02214823 0.13922803 -0.07405243 -0.059493992 -0.13164857
0.09682144 -0.15589169 -0.1595579 0.13169923 -0.17225863 0.083154686 0.13841386 0.12055561
-0.079920426 0.04065539 -0.1452887 -0.13195868 -0.028713087 0.14847042 0.12217328 0.08709951
0.069061294 -0.12511605 -0.18149161 -0.07239774 -0.1270927 -0.03585614 0.074550286 0.03920867
-0.06231178 -0.070331424 -0.077096894 -0.060749773 0.14728054 -0.1632373 -0.0023719128 0.17450419
0.0562161 0.09187395 -0.058060728 -0.12743044 -0.025248747 0.04506724 -0.050138183 0.16254689
0.04647625 -0.029710568 -0.12926394 0.018603187 -0.023881799 -0.09429485 0.164993 -0.18099575
00000000: 5b0b 33bb 516c 00be 974b 8bbc 28c8 12bc
00000010: 8ba7 e6bd b3d0 24bd ae7c 143d c67d 73bd
00000020: 1dc5 903d 66cd 963d 7cbe 393e 0c24 973c
00000030: 8459 363e 67fa cbbd 4432 4fbc cdf7 cb3d
00000040: 0843 083d 0a47 fabd e377 3cbb 61a7 da3d
00000050: 09fc 8a3c b467 25be de08 973d 7ac5 a13d
00000060: 53ab a43c 8a61 12be 61d3 8f3d 716e 283e
00000070: c352 38bd 832d 12be 349a c63d 795a 223e
00000080: 55f8 ccbd 8e4e 2fbe a9a8 86bd e12e ccbd
00000090: 81c7 34be 05c1 c4ba 5fbf 503d 1b45 c4bd
000000a0: 91ba bc3d d062 a7bd 028a a73d 301b e0bc
000000b0: ff71 c6bd 9429 26bc e1a0 1cbe ef00 32bd
000000c0: 9471 b33d 87ff b0bd cbb1 11bc 0321 6a3d
000000d0: a952 8fbd 10c0 b8bd b643 0c3e 48b4 a93c
000000e0: 6ba2 44bd 7c9e bd3d 2617 203d c287 183e
000000f0: e616 9c3c ba0e e2bd 23d2 aebd a755 8a3b
00000100: e9b9 283e c861 32bd c5e1 e23c fd1b 203e
00000110: dbfd 31be c4ad 28be ae7a 07be 02c0 b4bb
00000120: fb09 6abd 1982 833d 4903 253e 0b7f 80bd
00000130: 178b c8bd 81b5 ff3d 59fe 733d 8d39 a83d
00000140: 9fb0 0dbe 8fdf 623d 923c 38be 8e44 863d
00000150: 9709 193e b60f 0cbd 1700 5b3d 097b 263e
00000160: d548 a1bd de1a 60bd 2d9b e1bd ebe1 dfbc
00000170: ecbd 2b3d 4809 b9bd cb5c b1bb 1b0b efbd
00000180: 9012 b9bd 1c89 903d dd31 aa3d 2903 e23d
00000190: 7d4b bcbd e9a9 da3d 79ca 5dbd 3ca3 863d
000001a0: 4ebe 323e 62ab d8bd b8c9 15be ce1a 08bd
000001b0: ebfd f2bd daad c23d 650c 74bb 4dd5 21be
000001c0: 99ce 11be 3974 9fbc 45e4 263d b52b 2ebe
000001d0: 7dad 243e ecbc 2d3e f8dd b23c 1e41 4bbd
000001e0: ed90 17be 3986 e03d a9e8 3b3e bac7 f73d
000001f0: 1cca 69bd f9a8 ab3c 1f10 133d e810 53bd
00000200: d3bd 6b3d f8a8 e73d e17d c0bc f053 ecbc
00000210: 1093 1b3d 382a b93d 536b 843d 522f 7b3b
00000220: 692f c93c 7372 763b d904 85bc 74c4 d3bd
00000230: 0307 1e3e 4994 1f3e 7d89 073e 8bed 90bd
00000240: f144 0ebe 9c2b 0d3e 3e4f 1b3e 483f 55bd
00000250: 6e23 27bd 1c8a 123e 3f12 f93c 8870 173e
00000260: 5ab8 09be 3c7a 9f3d b2d9 f0bd 4dc8 45bd
00000270: 9982 d03d 4701 0e3e 03e4 01be f023 063e
00000280: ace2 c0bd 8bae 99bc e115 d5bc 31e5 b63b
00000290: 5dd2 253d e97c c3bd 461e 9dbd a5be 6d3d
000002a0: fba4 02be 0016 0ebe 2a63 f83d 32b0 48bd
000002b0: 8e9f e53b 1bfe 1abe a712 cabd a1e4 c53c
000002c0: defa e23c 24b6 64bd 77b9 f9bd b28e 05be
000002d0: f67e 2d3d ccff 933d e2a0 cbbc f2a0 a9bd
000002e0: b3c6 013e 2ae9 abbc 3e0b 233c d464 e83c
000002f0: 32ce 0abe 26d8 12be 7886 e9bd f22a 773d
00000300: d72b b0bd e5c1 06bd 05a6 2c3e e99a 1dbe
00000310: 8f02 fabc 851a e2bd 7b75 193e 8efb 043e
00000320: ec01 973d b5a7 27bd a98d 0a3e 3470 b5bc
00000330: cb91 0e3e cda8 97bd f9af 73bd e2ce 06be
00000340: 524a c63d 12a2 1fbe 2563 23be 2adc 063e
00000350: 9164 30be 014d aa3d 5dbc 0d3e dce5 f63d
00000360: 52ad a3bd 4486 263d 90c6 14be 2d20 07be
00000370: b537 ebbc a108 183e fc35 fa3d 3a61 b23d
00000380: 0270 8d3d 6c1e 00be f0d8 39be 4445 94bd
00000390: 9724 02be e3dd 12bd d2ad 983d 4599 203d
000003a0: a33a 7fbd ec09 90bd fae4 9dbd c1d4 78bd
000003b0: b6d0 163e ae27 27be 1872 1bbb 3ab1 323e
000003c0: da42 663d 6928 bc3d 16d1 6dbd 207d 02be
000003d0: 76d6 cebc 6d98 383d b25d 4dbd b172 263e
000003e0: e15d 3e3d 9463 f3bc c45d 04be b665 983c
000003f0: c3a3 c3bc a91d c1bd edf3 283e f356 39be

encoder.model.weight_hh_l0 f4 [120, 30]
-0.0020078481 0.13554874 0.04525111 0.10357647 0.0589763 0.06254373 0.1374334 -0.0984549
0.15656565 0.11041239 -0.05037586 0.06209682 0.034370698 0.14596292 0.11867464 0.050480165
0.12924743 0.13671328 -0.13525459 0.105668895 -0.1453985 0.15255374 -0.041849136 -0.18470752
0.09833586 -0.08842636 -0.11786453 -0.14502405 -0.025550034 -0.121732034 -0.18031964 -0.07263732
0.11265633 -0.07755623 0.09436313 -0.1464249 -0.08252329 0.15296496 0.07557198 0.10123626
0.0689859 -0.053194713 0.116414204 0.15090176 0.15382104 -0.060214527 0.03897577 -0.13061117
-0.11585418 -0.18986623 0.114956066 0.0802805 0.13367935 -0.018874042 0.0067689703 0.034093104
0.09449814 0.10304264 -0.094519086 -0.18258001 -0.07512074 -0.026417479 -0.081468284 -0.0029154858
-0.14642358 0.057081804 -0.116715744 -0.16041897 0.14471644 -0.017769147 0.003933598 -0.15379289
0.047937736 0.16641936 -0.16174082 0.07249919 -0.12613761 0.07530314 -0.11049057 0.039601948
-0.038774885 -0.15805045 -0.08473226 0.149526 0.03817412 0.102737315 -0.09970945 -0.10961215
-0.12506475 0.10452298 0.033305846 0.07152144 -0.043894347 0.057247523 -0.06085833 0.084653266
0.049821854 -0.09073785 0.03968929 0.004418228 0.063955426 -0.09925681 -0.0011732704 -0.03391885
-0.11327182 -0.0019358079 -0.078092724 0.18588756 -0.13048273 -0.0017304628 -0.07343299 -0.12415149
-0.1771635 -0.12978971 -0.13870521 -0.13961206 0.021143522 0.14051044 -0.11218721 -0.10613766
-0.013802706 -0.1304956 -0.103578925 0.13162182 0.12208624 0.01021931 0.057489097 0.011406323
-0.0001976073 -0.17023486 0.022833366 -0.104322754 0.06056227 -0.14273088 0.010767356 -0.036241166
0.060132805 -0.10818502 -0.0078683905 -0.05884135 0.15458499 0.10464908 0.028426167 -0.06459768
0.15031399 0.16687343 0.16596013 -0.011531507 0.05683018 -0.11543126 -0.07858137 -0.16503876
-0.13982764 -0.08732548 0.026050247 0.05946183 0.1633055 -0.07081614 -0.008537271 0.11855386
-0.11108964 -0.10003939 0.03152303 0.11039341 -0.15871628 -0.049857628 0.06605643 0.06714496
-0.09327882 0.15670332 -0.033588734 0.003692759 -0.011647071 -0.08870482 0.09742621 0.113581955
-0.16918315 0.15831311 0.01734489 -0.16558567 -0.16654585 -0.07527961 -0.027796939 0.03251298
0.12034115 0.16286922 -0.16328925 0.09784684 -0.036985487 0.033602186 -0.026459027 0.020790216
-0.049339972 -0.1640856 0.09898444 0.06543618 0.0417733 0.09283978 0.10290131 -0.040763777
-0.1296112 -0.064361036 0.17397135 0.1380549 0.1184647 -0.11549752 0.118399315 0.1123038
-0.13235474 0.16926405 0.09051412 -0.12056103 0.09173917 0.11367843 -0.148718 0.0053631826
-0.13174878 0.10656724 0.10562061 -0.11704084 -0.09172307 -0.006599768 -0.08013528 -0.084176764
0.10989853 0.049606793 0.17050026 0.024538118 -0.09858166 0.15969767 -0.0010018175 0.122337684
0.093301825 0.03474856 -0.11965625 0.016492272 -0.16646583 0.101114355 0.15841755 0.17743586
0.14573804 -0.14396283 -0.12422626 0.13198335 -0.16401717 -0.114131525 -0.13205439 -0.1746991
0.03053663 0.008103176 -0.07837332 -0.12962438 0.018817836 0.0047848206 -0.07885521 0.0475588
00000000: 1a96 03bb 4acd 0a3e 3a59 393d e61f d43d
00000010: 2291 713d ed16 803d 57bb 0c3e b9a2 c9bd
00000020: bf52 203e e41f e23d eb56 4ebd 3c59 7e3d
00000030: 4ac8 0c3d 4e77 153e b10b f33d 4ac4 4e3d
00000040: 7059 043e 91fe 0b3e 2e80 0abe ef68 d83d
00000050: 58e3 14be 0c37 1c3e 006a 2bbd f823 3dbe
00000060: 5064 c93d e118 b5bd f562 f1bd 2f81 14be
00000070: 4e4e d1bc a54e f9bd b6a5 38be e0c2 94bd
00000080: 5db8 e63d cdd5 9ebd 7541 c13d 69f0 15be
00000090: f801 a9bd d9a2 1c3e 7bc5 9a3d f554 cf3d
000000a0: 7b48 8d3d b3e2 59bd 926a ee3d fe85 1a3e
000000b0: 4383 1d3e 82a3 76bd 0fa5 1f3d efbe 05be
000000c0: f544 edbd 4b6c 42be 166e eb3d 1a6a a43d
000000d0: 3de3 083e bc9d 9abc 3dce dd3b 36a5 0b3d
000000e0: 3e88 c13d 0508 d33d 3993 c1bd 41f6 3abe
000000f0: e7d8 99bd 7869 d8bc d8d8 a6bd bc11 3fbb
00000100: 10f0 15be 9cce 693d aa08 efbd df44 24be
00000110: 8c30 143e 9a90 91bc 69e5 803b e27b 1dbe
00000120: 5c5a 443d d669 2a3e 639f 25be 757a 943d
00000130: 382a 01be 8838 9a3d e148 e2bd a735 223d
00000140: 6ad2 1ebd fad7 21be 1b88 adbd 581d 193e
00000150: 775c 1c3d f167 d23d 7834 ccbd 567c e0bd
00000160: f910 00be 2510 d63d b66b 083d d579 923d
00000170: 8fca 33bd 617c 6a3d 9646 79bd b15e ad3d
00000180: 0012 4c3d c4d4 b9bd 3d91 223d c8c6 903b
00000190: 10fb 823d 2847 cbbd 6cc8 99ba 7eee 0abd
000001a0: 0efb e7bd efba fdba 14ef 9fbd 4f59 3e3e
000001b0: 449d 05be b2d0 e2ba 0964 96bd 2343 febd
000001c0: 596a 35be 98e7 04be bd08 0ebe 77f6 0ebe
000001d0: 2e35 ad3c f8e1 0f3e 68c2 e5bd b45e d9bd
000001e0: bf24 62bc a3a0 05be 3021 d4bd dfc7 063e
000001f0: 5a08 fa3d e56e 273c b079 6b3d 96e1 3a3c
00000200: ce34 4fb9 0c52 2ebe 0a0d bb3c 2ba7 d5bd
00000210: 2510 783d 0b28 12be 9069 303c 9e71 14bd
00000220: d14d 763d 1c90 ddbd 6cea 00bc a103 71bd
00000230: 874b 1e3e 4252 d63d fedd e83c ca4b 84bd
00000240: e9eb 193e dee0 2a3e 74f1 293e a5ee 3cbc
00000250: c3c6 683d 3967 ecbd 45ef a0bd ecff 28be
00000260: fa2e 0fbe b4d7 b2bd 5467 d53c 3f8e 733d
00000270: 8f39 273e 0d08 91bd e9df 0bbc 5ecc f23d
00000280: f782 e3bd 74e1 ccbd 4b1e 013d f115 e23d
00000290: 8586 22be 8337 4cbd 9848 873d 4c83 893d
000002a0: f708 bfbd d676 203e 5794 09bd 3702 723b
000002b0: 5bd3 3ebc dfaa b5bd 6587 c73d a89d e83d
000002c0: 593e 2dbe d51c 223e df16 8e3c 4a8f 29be
000002d0: ff8a 2abe 322c 9abd 68b6 e3bc 552c 053d
000002e0: 6c75 f63d 30c7 263e 4c35 27be ed63 c83d
000002f0: 187e 17bd 72a2 093d 9ac0 d8bc 3e50 aa3c
00000300: b618 4abd 0e06 28be 5bb8 ca3d 6703 863d
00000310: 7b1a 2b3d c822 be3d ecbd d23d ebf7 26bd
00000320: ccb8 04be b8cf 83bd 8c25 323e 445e 0d3e
00000330: 9f9d f23d f789 ecbd 577b f23d 89ff e53d
00000340: 0088 07be 8e53 2d3e 785f b93d b4e8 f6bd
00000350: bfe1 bb3d 3dd0 e83d 8849 18be a3bd af3b
00000360: 27e9 06be ed3f da3d 9e4f d83d 1cb3 efbd
00000370: 4ed9 bbbd de42 d8bb f71d a4bd de64 acbd
00000380: 7b12 e13d 7e30 4b3d 9f97 2e3e 2a04 c93c
00000390: 2ee5 c9bd c987 233e 6b4f 83ba 2e8c fa3d
000003a0: 0715 bf3d 8254 0e3d 560e f5bd cd1a 873c
000003b0: 0576 2abe 0b15 cf3d 3638 223e bfb1 353e
000003c0: 5a3c 153e fe6a 13be 566a febd a526 073e
000003d0: 1ef4 27be cabd e9bd 4439 07be 52e4 32be
000003e0: f427 fa3c 2fc3 043c 3182 a0bd 41bc 04be
000003f0: dd27 9a3c fcc9 9c3b d77e a1bd 04cd 423d

encoder.model.bias_ih_l0 f4 [120]
-0.1362346 -0.023806797 -0.16236156 0.1318656 0.03487164 0.07650533 0.07764219 -0.11046023
-0.052512515 -0.03145699 -0.1546031 0.044607017 0.10509561 -0.14547928 -0.13348489 -0.11223597
-0.055012748 -0.092165284 0.15281922 -0.05106952 -0.18082197 -0.16771844 -0.087751046 0.027094299
-0.12202457 0.0139173735 8.034742e-05 0.13471635 0.1435126 0.12834728 -0.07009632 -0.15890896
-0.06346823 -0.055641595 0.013558783 -0.029089535 0.064724214 0.11800527 -0.0422077 -0.079100065
0.17567967 0.14628185 -0.008519134 -0.080878675 -0.07165583 -0.016881505 -0.13396683 -0.18143623
-0.0051905448 0.090361565 -0.17095758 0.041528344 0.13903518 -0.07791588 0.02389151 -0.056983773
-0.16571985 -0.07749545 0.18605773 0.15131949 0.15203616 0.0052456646 0.056652386 -0.07450909
-0.07186957 -0.18615176 0.09946515 0.0006248571 -0.16130462 0.050149567 -0.17523159 -0.03423453
0.07899074 0.028533276 -0.090816475 0.15691818 0.09671329 -0.057139765 -0.03285046 0.18016864
0.06899816 -0.071917765 0.10753195 0.038980685 0.047756653 0.12230247 -0.12817483 0.052160744
0.016576646 0.028918527 -0.10845373 0.15273894 -0.056918155 0.055727005 0.08509816 0.032796495
-0.17335226 0.07672566 0.12370965 -0.13138069 -0.1648522 -0.011534171 -0.093439676 -0.108750395
0.17180127 -0.044802137 -0.1419874 0.0016731725 0.10315566 -0.10879323 0.1389479 0.11612728
-0.049381264 -0.031758558 -0.11316518 0.015614836 -0.011772569 0.15462571 -0.16042006 -0.08494267
00000000: 1581 0bbe 7906 c3bc 1c42 26be c707 073e
00000010: 91d5 0e3d d4ae 9c3d de02 9f3d f938 e2bd
00000020: 5d17 57bd 0bd9 00bd 4650 1ebe d9b5 363d
00000030: 5e3c d73d 85f8 14be 43b0 08be f9db e5bd
00000040: 0c55 61bd 27c1 bcbd a47c 1c3e 462e 51bd
00000050: 6529 39be 62be 2bbe d2b6 b3bd ddf4 dd3c
00000060: 05e8 f9bd b205 643c 3180 a838 15f3 093e
00000070: f8f4 123e 786d 033e a98e 8fbd 08b9 22be
00000080: a2fb 81bd 71e8 63bd a825 5e3c 2d4d eebc
00000090: 218e 843d bfac f13d fbe1 2cbd 37ff a1bd
000000a0: 5fe5 333e e9ca 153e d693 0bbc b8a3 a5bd
000000b0: 4bc0 92bd 154b 8abc 9a2e 09be 6bca 39be
000000c0: 7215 aabb 7c0f b93d 810f 2fbe a019 2a3d
000000d0: 3d5f 0e3e 5c92 9fbd 21b8 c33c d167 69bd
000000e0: 77b2 29be efb5 9ebd eb85 3e3e 7ff3 1a3e
000000f0: 5eaf 1b3e d3e3 ab3b 550c 683d 3998 98bd
00000100: 5a30 93bd 919e 3ebe 62b4 cb3d 73cd 233a
00000110: 0a2d 25be a269 4d3d e96f 33be 8239 0cbd
00000120: e6c5 a13d 9ebe e93c fdfd b9bd 29af 203e
00000130: 9e11 c63d 630b 6abd 348e 06bd 217e 383e
00000140: e84e 8d3d 9f49 93bd b639 dc3d 36aa 1f3d
00000150: 7b9c 433d b879 fa3d 4340 03be 81a6 553d
00000160: bfcb 873c 8ce6 ec3c fd1c debd 9967 1c3e
00000170: 0323 69bd 0042 643d f247 ae3d 9e55 063d
00000180: 4183 31be 5822 9d3d 7c5b fd3d a988 06be
00000190: 04cf 28be d2f9 3cbc 4d5d bfbd 87b8 debd
000001a0: acec 2f3e 7282 37bd 2565 11be 5a4e db3a
000001b0: 4643 d33d fcce debd 5c48 0e3e 24d4 ed3d
000001c0: 0244 4abd 4315 02bd 25c3 e7bd 5ed5 7f3c
000001d0: bce1 40bc 3456 1e3e 2845 24be 6cf6 adbd

encoder.model.bias_hh_l0 f4 [120]
0.1348516 0.103208706 0.024481669 0.07923498 0.021719003 -0.15408231 0.08398008 0.13813901
-0.075823046 -0.010726649 0.17061476 0.06875267 -0.17291164 0.06465659 -0.039077345 0.13377327
-0.036730338 0.1289279 0.031573907 0.08154288 -0.032253865 0.05912824 -0.037935182 -0.18729092
-0.024863949 -0.16076392 0.016107015 0.13619326 -0.016139995 0.018924613 -0.044251718 0.17165145
-0.0448191 -0.068731315 0.16524 -0.0123281665 0.11537529 -0.10780776 -0.17603827 -0.13379815
-0.033708297 0.070575245 0.17565519 0.07240655 0.11540593 -0.17938505 -0.14247076 -0.12605964
-0.16116427 -0.1299553 -0.109569676 -0.025529895 0.012787621 -0.18837783 -0.026527328 -0.114670545
-0.0009977331 0.090631366 0.06180316 0.052280847 0.13088682 -0.07693274 -0.17754465 0.15714076
-0.1799183 -0.0020540257 0.004949791 -0.14938225 -0.052081317 -0.1088497 0.00021933478 -0.1655101
0.1144252 -0.11156113 -0.0322062 0.047804035 -0.022192992 -0.06727553 -0.1456926 -0.061689876
0.043587346 0.0028964656 0.16576551 0.14714591 -0.095425 -0.14893337 -0.03401002 0.105461456
0.062261723 0.0012229134 0.04303016 0.16406956 0.09699239 -0.045252576 -0.0797897 0.030915689
0.11299698 -0.14506026 -0.07151499 -0.086985454 0.088952355 0.08718983 -0.11522892 0.14620213
-0.13138576 -0.025564829 -0.14458333 -0.10203634 -0.16615395 -0.17414875 -0.18104267 -0.12710088
0.08406668 0.13130574 0.11950152 -0.048099414 0.11757573 -0.06460421 0.10673793 0.047746528
00000000: 8a16 0a3e 165f d33d c88d c83c f345 a23d
00000010: 0dec b13c c1c7 1dbe c0fd ab3d 5074 0d3e
00000020: 1d49 9bbd d4be 2fbc a3b5 2e3e 33ce 8c3d
00000030: c00f 31be ad6a 843d 910f 20bd dcfb 083e
00000040: 8d72 16bd ad05 043e a453 013d f4ff a63d
00000050: a11c 04bd 7430 723d ec61 1bbd 31c9 3fbe
00000060: 7baf cbbc 4c9f 24be dcf2 833c 3f76 0b3e
00000070: 0638 84bc ca07 9b3c 4a41 35bd 66c5 2f3e
00000080: 3c94 37bd 01c3 8cbd ad34 293e 14fc 49bc
00000090: e149 ec3d 51ca dcbd 6043 34be 6202 09be
000000a0: b611 0abd c189 903d f4de 333e e349 943d
000000b0: f259 ec3d b7b0 37be dbe3 11be c715 01be
000000c0: 3f08 25be 0113 05be 1166 e0bd 1224 d1bc
000000d0: 2b83 513c 1ee6 40be d74f d9bc 64d8 eabd
000000e0: 5ec6 82ba f09c b93d 4f25 7d3d 7124 563d
000000f0: 3207 063e ea8e 9dbd 44ce 35be 82e9 203e
00000100: 813c 38be d59c 06bb db31 a23b a9f7 18be
00000110: 3853 55bd 97ec debd 3bfd 6539 7b7b 29be
00000120: c257 ea3d 297a e4bd a6ea 03bd 2ace 433d
00000130: 14ce b5bc c1c7 89bd 7130 15be 86ae 7cbd
00000140: a588 323d a1d2 3d3b 6fbe 293e 6bad 163e
00000150: 2f6e c3bd fd81 18be 174e 0bbd 2dfc d73d
00000160: 2606 7f3d 2a4a a03a 6540 303d da01 283e
00000170: f2a3 c63d c45a 39bd c868 a3bd e642 fd3c
00000180: f66a e73d ad8a 14be 7376 92bd 6e25 b2bd
00000190: a72c b63d 9590 b23d 24fd ebbd 03b6 153e
000001a0: fd89 06be 556d d1bc a70d 14be 6ef8 d0bd
000001b0: 4324 2abe 0d54 32be 4063 39be bc26 02be
000001c0: 272b ac3d 0375 063e 37bd f43d e403 45bd
000001d0: 8bcb f03d 364f 84bd 6a99 da3d dd91 433d

encoder.model.weight_ih_l1 f4 [120, 30]
-0.14219344 0.05522154 0.04903565 0.010382516 -0.16445827 -0.04360103 -0.061599784 0.052423872
0.03618372 0.10478507 -0.0348405 0.09196385 0.10641219 0.042671226 -0.16521564 0.12746643
0.11885938 -0.07637318 -0.0825274 -0.1705986 0.034713857 -0.17262563 0.0546001 -0.028608363
0.11130374 -0.063941814 -0.036143057 -0.014268433 0.09431151 0.0040472443 0.07743003 -0.15937158
-0.08865588 0.059212197 0.16416892 0.07736985 -0.16629434 0.052183036 0.1424265 -0.18568507
-0.12525211 -0.15366524 0.071860135 -0.0023957412 0.06704131 0.18882184 -0.099972494 -0.17791912
0.123039946 0.12837814 0.18767507 0.021735061 0.070650384 -0.09337868 0.07316107 0.0038739522
0.117908314 0.17830648 0.00808971 0.12989497 -0.027414177 0.13814561 0.01826379 -0.042853348
-0.06494328 -0.1356312 -0.14718552 0.14098606 -0.08157713 0.104092106 -0.043906257 0.07220738
-0.08309258 -0.14035727 -0.17065066 0.1498939 0.02011181 -0.007908295 0.14291674 0.16036154
0.051965956 -0.029637331 0.0873155 -0.10350307 -0.06487693 0.091113314 0.13539582 0.11632427
-0.03677425 0.11907939 -0.11791807 -0.13615711 3.253039e-05 0.0054858527 -0.127151 -0.14591415
-0.007104839 0.0787313 0.0955917 0.1059825 0.01836179 0.00087155664 -0.17249076 -0.08530941
0.062456828 -0.04148095 -0.09593429 -0.04416565 0.122121796 -0.029955128 0.07786334 -0.08348311
-0.13185132 -0.02318236 0.002537429 -0.15865004 0.047506507 -0.10780983 -0.014568248 0.15482293
-0.0029460443 -0.15814714 -0.1292389 0.14650129 0.026617205 0.118131466 -0.12772605 0.014673376
-0.0027328434 0.058939334 -0.0361205 -0.17150167 -0.17459545 -0.15968175 0.08091818 0.14219333
-0.11659384 0.15713643 -0.09612391 0.04188478 -0.0008554237 -0.13216645 0.1119078 0.003086048
0.07078573 -0.018571114 -0.07854779 0.03414703 0.1341661 0.18462068 0.11260604 -0.039107118
0.18484566 -0.15396252 0.16021748 -0.052501816 0.06524907 -0.076549865 0.049272094 -0.046158105
0.15371047 -0.04726353 -0.14787398 -0.1353099 0.18310456 0.08362487 -0.03613259 -0.09211759
-0.0124082845 -0.09897531 -0.017494658 -0.15538199 -0.043266345 0.126201 0.025597744 -0.091451064
-0.06305077 0.012626844 0.008938477 -0.121108085 0.01127847 -0.14548184 0.15541539 -0.025827054
-0.12849365 -0.17164293 -0.1416182 0.11625708 -0.045068353 0.06692662 -0.11923359 0.050479252
0.1536897 -0.0604843 0.01679053 -0.1806108 0.11652274 0.007768195 -0.13785492 -0.13459782
0.038581584 -0.112433 -0.11248935 -0.12426298 0.13218366 -0.11880576 -0.07875425 0.032714963
-0.1391473 0.017175958 0.016328646 -0.17153682 0.09242955 -0.056179203 0.11135709 0.0017939879
0.16400255 0.12430335 0.08325953 0.060549345 0.056523986 -0.14602406 0.025425263 -0.029917322
-0.07932756 -0.05826258 -0.044345215 -0.14688797 -0.18399858 -0.09908754 -0.16830201 -0.15237898
-0.13826674 -0.16052009 -0.13034351 0.116564974 0.022640504 -0.016300138 -0.058821578 0.13343586
-0.15915412 0.11690669 0.15103677 0.046806555 0.16953403 -0.019625096 0.14265399 -0.089567475
0.049148876 0.12502733 -0.16994998 0.076143205 -0.18657678 0.08175446 -0.13854228 0.08951648
00000000: 289b 11be fb2f 623d 9bd9 483d 6e1b 2a3c
00000010: c067 28be fe96 32bd 0e50 7cbd 6aba 563d
00000020: 6135 143d 8e99 d63d eab4 0ebd 8b57 bc3d
00000030: a2ee d93d 06c8 2e3d 4a2e 29be 8f86 023e
00000040: 8c6c f33d 8b69 9cbd 2004 a9bd 66b1 2ebe
00000050: 1e30 0e3d c6c4 30be 5ba4 5f3d 165c eabc
00000060: 37f3 e33d edf3 82bd be0a 14bd 25c6 69bc
00000070: 6526 c13d bf9e 843b a393 9e3d 4e32 23be
00000080: 3791 b5bd 7d88 723d e61b 283e 1574 9e3d
00000090: 1049 2abe e1bd 553d 41d8 113e 3a24 3ebe
000000a0: 1742 00be 6c5a 1dbe 682b 933d de01 1dbb
000000b0: f44c 893d 835a 413e 61be ccbd 6e30 36be
000000c0: 5efc fb3d 8f75 033e e52d 403e ba0d b23c
000000d0: 26b1 903d 523d bfbd 79d5 953d 22e2 7d3b
000000e0: ea79 f13d f995 363e b48a 043c 3003 053e
000000f0: b293 e0bc 0b76 0d3e f29d 953c fe86 2fbd
00000100: fb00 85bd e8e2 0abe cdb7 16be a65e 103e
00000110: e911 a7bd 3e2e d53d 0cd7 33bd 76e1 933d
00000120: 712c aabd d1b9 0fbe 0cbf 2ebe c97d 193e
00000130: 86c1 a43c cb91 01bc c458 123e d135 243e
00000140: 41da 543d fdc9 f2bc 78d2 b23d 6bf9 d3bd
00000150: 32de 84bd 9e99 ba3d 34a5 0a3e 6b3b ee3d
00000160: 99a0 16bd e5df f33d 077f f1bd c56c 0bbe
00000170: 3e71 0838 abc2 b33b df33 02be 856a 15be
00000180: b6cf e8bb e03d a13d 95c5 c33d 5a0d d93d
00000190: 776b 963c 2d79 643a 6ba1 30be b3b6 aebd
000001a0: bbd2 7f3d eee7 29bd 3279 c4bd 0ae7 34bd
000001b0: fe1a fa3d 7564 f5bc d176 9f3d 31f9 aabd
000001c0: 0804 07be efe8 bdbc ff4a 263b 2875 22be
000001d0: 2f96 423d 66cb dcbd a9af 6ebc e789 1e3e
000001e0: 6c12 41bb 53f1 21be 3457 04be 6f04 163e
000001f0: 530c da3c e9ee f13d 9eca 02be 9a68 703c
00000200: 8119 33bb 5f6a 713d 17f3 13bd 229e 2fbe
00000210: 26c9 32be 9d83 23be 6eb8 a53d 219b 113e
00000220: c0c8 eebd 5fe8 203e 9ddc c4bd 608f 2b3d
00000230: 833e 60ba a456 07be eb2f e53d 4b3f 4a3b
00000240: 1cf8 903d 7322 98bc aadd a0bd c2dd 0b3d
00000250: d762 093e 340d 3d3e ff9d e63d c92e 20bd
00000260: 2e48 3d3e 5aa8 1dbe 0d10 243e 250c 57bd
00000270: 4ea1 853d 2dc6 9cbd 89d1 493d 4810 3dbd
00000280: 4766 1d3e 6797 41bd 476c 17be ae8e 0abe
00000290: c37f 3b3e 8443 ab3d c4ff 13bd 26a8 bcbd
000002a0: 1e4c 4bbc 91b3 cabd f550 8fbc 751c 1fbe
000002b0: 0d38 31bd d63a 013e 5cb2 d13c b24a bbbd
000002c0: c320 81bd d3e0 4e3c b172 123c 8407 f8bd
000002d0: 55c9 383c 31f9 14be 3625 1f3e 4293 d3bc
000002e0: d793 03be 2ac3 2fbe 5d04 11be 3118 ee3d
000002f0: 9899 38bd d310 893d be30 f4bd 55c3 4e3d
00000300: d560 1d3e 63be 77bd 4b8c 893c 0af2 38be
00000310: 79a3 ee3d 588c fe3b d729 0dbe 03d4 09be
00000320: b907 1e3d 4643 e6bd d160 e6bd 977d febd
00000330: 275b 073e 6f50 f3bd e949 a1bd 2000 063d
00000340: a17c 0ebe 98b4 8c3c a7c3 853c 59a7 2fbe
00000350: b44b bd3d 2a1c 66bd 300f e43d 3f24 eb3a
00000360: 49f0 273e c192 fe3d f983 aa3d 9702 783d
00000370: b285 673d 5587 15be a448 d03c 2c15 f5bc
00000380: 7d76 a2bd bea4 6ebd 54a3 35bd cd69 16be
00000390: 206a 3cbe 68ee cabd 5d57 2cbe 3c09 1cbe
000003a0: cc95 0dbe 615f 24be c578 05be 9eb9 ee3d
000003b0: 9478 b93c de87 85bc e5ee 70bd 69a3 083e
000003c0: 4cf9 22be c66c ef3d 62a9 1a3e 3bb8 3f3d
000003d0: 549a 2d3e cfc4 a0bc e313 123e 276f b7bd
000003e0: 5550 493d 2a07 003e 5e07 2ebe f8f0 9b3d
000003f0: fc0d 3fbe e26e a73d 07de 0dbe 6b54 b73d

encoder.model.weight_hh_l1 f4 [120, 30]
0.05031803 0.11525077 -0.090282716 -0.08361428 0.01881255 -0.13138233 0.058556028 -0.13373923
-0.063156076 -0.16246453 0.055911206 -0.12565199 -0.017292438 -0.07717109 0.13128431 -0.15179309
0.15573516 -0.14101501 0.026856566 -0.12045961 0.0010293651 0.020065287 -0.050012838 -0.07845693
-0.058686428 0.034631804 0.045750365 -0.13109438 0.06586169 -0.05174844 0.041658215 0.088841856
0.012090695 0.16375448 0.045996234 -0.038514983 0.16556668 0.021393457 0.13710378 0.17285123
0.16227297 -0.06517422 0.12466037 0.034097876 0.09780835 0.17444344 0.0691299 -0.183579
0.031194618 0.020341238 0.15636142 0.096108444 0.03375249 -0.13819745 0.12774248 -0.0024327373
-0.13907269 -0.08092307 0.04144824 0.12713434 0.11165266 0.06936306 -0.16102833 0.008525885
0.08695966 0.020529933 0.14746223 -0.1644525 0.10525138 -0.06671435 -0.036802296 -0.14813201
-0.09003813 0.14325601 0.16970505 0.12912236 0.10034668 0.06424961 -0.039162725 0.14787506
-0.11725849 -0.10734608 -0.04733813 -0.031092696 0.054581676 -0.0152515555 -0.14902575 -0.06940817
0.16165178 -0.10303491 -0.16467941 0.12799619 0.14620578 -0.033815492 0.095361896 -0.13526715
-0.01603282 -0.0898425 0.074752815 -0.1162107 0.049116142 -0.15863407 0.15277682 -0.10500039
0.06699345 -0.015359251 0.11168301 0.08897062 -0.05273341 -0.12672657 -0.17016466 0.17042042
-0.1575017 0.15236856 -0.13661261 0.012402501 0.1481667 -0.04738365 0.17068233 -0.13123159
0.011997159 -0.045474853 0.022633964 0.14673582 0.036557015 0.15685919 -0.023645816 0.19021675
0.026178772 0.089651205 0.1687086 -0.07526133 0.10393085 0.061497316 0.10770052 0.013838684
0.07306462 -0.1129276 0.062996775 0.012154874 0.17378657 0.008000948 0.039204128 0.14704621
0.1526357 -0.16518496 0.090425834 -0.069617696 0.02516713 -0.037787236 -0.081589215 0.1142986
0.055004217 0.036500387 -0.044925563 0.12603207 -0.14908053 -0.12443012 0.062932834 -0.13279726
0.12430868 0.021841867 0.17210555 -0.16333555 -0.05851628 0.033381253 -2.9213566e-05 0.100417234
-0.04231108 0.11483605 -0.079627946 -0.03586428 -0.123945355 -0.06752645 -0.13343103 0.023207169
0.1524826 -0.1601245 -0.019199738 0.12944353 0.16334777 0.07627396 0.066180736 0.08231401
-0.056875147 0.14955239 0.0070097824 0.06401767 0.060366925 0.108560756 -0.008240722 0.11275727
-0.13740113 -0.0852857 -0.09036465 -0.012752768 0.065006986 -0.027580753 0.042025868 -0.1076271
0.1608909 -0.058914337 -0.064125314 0.047675278 0.09699891 0.057230543 -0.068138815 0.09938935
0.06463873 -0.1568816 -0.117618635 0.16154954 -0.12778127 -0.07775296 -0.094291456 -0.13212585
0.15001874 0.078965805 -0.06504296 0.16477063 -0.08128639 0.108794615 -0.16240199 0.16021031
0.089727685 0.124092095 -0.09026085 0.08258938 0.082518674 0.036118403 -0.03725454 -0.1319501
-0.051746365 0.026930429 0.016280886 0.1730225 0.04164398 -0.1181581 -0.13571945 -0.18883863
-0.09150548 0.042036377 0.17352948 -0.06323939 -0.041547716 -0.15317091 -0.17771313 0.09589212
-0.07415584 0.011542879 0.087386094 -0.01630731 0.035406422 -0.17819987 -0.15392347 -0.17706285
00000000: 471a 4e3d 9808 ec3d 25e6 b8bd f73d abbd
00000010: c71c 9a3c 1789 06be 72d8 6f3d f0f2 08be
00000020: f957 81bd 1a5d 26be 2603 653d eaaa 00be
00000030: dfa8 8dbc e00b 9ebd 656f 063e a66f 1bbe
00000040: 0a79 1f3e 3d66 10be 4d02 dc3c 87b3 f6bd
00000050: c3eb 863a f55f a43c 43da 4cbd 07ae a0bd
00000060: 2e61 70bd 14da 0d3d bc64 3b3d 9b3d 06be
00000070: 7ee2 863d 2cf6 53bd cea1 2a3d b8f2 b53d
00000080: 0d18 463c 41af 273e 8c66 3c3d e3c1 1dbd
00000090: 508a 293e 5541 af3c ef64 0c3e eaff 303e
000000a0: e32a 263e 107a 85bd f04d ff3d 37aa 0b3d
000000b0: bf4f c83d 4da1 323e fa93 8d3d 22fc 3bbe
000000c0: db8b ff3c aba2 a63c 351d 203e 81d4 c43d
000000d0: 0d40 0a3d a283 0dbe edce 023e 8f6e 1fbb
000000e0: 1269 0ebe ffba a5bd a1c5 293d 812f 023e
000000f0: 26aa e43d 380e 8e3d 9ce4 24be 27b0 0b3c
00000100: e817 b23d 642e a83c 5700 173e 3c66 28be
00000110: 098e d73d 88a1 88bd 01be 16bd ebaf 17be
00000120: e965 b8bd b4b1 123e 29c7 2d3e a738 043e
00000130: 8f82 cd3d 4d95 833d 1869 20bd 8f6c 173e
00000140: 3825 f0bd 43d8 dbbd a1e5 41bd 1cb6 febc
00000150: 0991 5f3d a9e1 79bc 359a 18be df25 8ebd
00000160: 0b88 253e f803 d3bd b8a1 28be 6f11 033e
00000170: f8b6 153e 1d82 0abd 194d c33d 7983 0abe
00000180: 4357 83bc 58ff b7bd 0118 993d e0ff edbd
00000190: 022e 493d f870 22be 8771 1c3e 720a d7bd
000001a0: dd33 893d 5ea5 7bbc 10ba e43d 3a36 b63d
000001b0: fdfe 57bd 9cc4 01be a53f 2ebe b182 2e3e
000001c0: 2048 21be 8106 1c3e 2de4 0bbe dc33 4b3c
000001d0: 03b9 173e 5c15 42bd 59c7 2e3e 9361 06be
000001e0: bb8f 443c d743 3abd dd6a b93c ea41 163e
000001f0: cfbc 153d b29f 203e dfb4 c1bc 2ec8 423e
00000200: dd74 d63c 0d9b b73d f2c1 2c3e 9d22 9abd
00000210: b3d9 d43d 9ce4 7b3d 1792 dc3d a6bb 623c
00000220: e7a2 953d 9646 e7bd 7404 813d 3d25 473c
00000230: 1bf5 313e 6816 033c 8294 203d 4893 163e
00000240: 884c 1c3e 3f26 29be 2e31 b93d b993 8ebd
00000250: 4c2b ce3c cac6 1abd 3f18 a7bd 6215 ea3d
00000260: 1a4c 613d 6e81 153d de03 38bd 8d0e 013e
00000270: 91a8 18be 38d5 febd eee2 803d 01fc 07be
00000280: 8d95 fe3d b7ed b23c 703c 303e 6f41 27be
00000290: c4ae 6fbd c8ba 083d a80f f5b7 8da7 cd3d
000002a0: 624e 2dbd 2a2f eb3d fa13 a3bd 6ce6 12bd
000002b0: 10d7 fdbd 4f4b 8abd 25a2 08be f61c be3c
000002c0: 6624 1c3e adf7 23be c548 9dbc d88c 043e
000002d0: a344 273e 8635 9c3d c489 873d 3f94 a83d
000002e0: eaf5 68bd 4324 193e 51b2 e53b b21b 833d
000002f0: 4f43 773d 1a55 de3d 1804 07bc 49ed e63d
00000300: e2b2 0cbe 45aa aebd 1a11 b9bd fcf0 50bc
00000310: 6222 853d 08f1 e1bc 5123 2c3d 996b dcbd
00000320: 96c0 243e 2950 71bd 2254 83bd 2747 433d
00000330: 5da7 c63d 936a 6a3d 5d8c 8bbd a58c cb3d
00000340: 4f61 843d 92a5 20be 0ae2 f0bd 3e6d 253e
00000350: 18d9 02be f23c 9fbd e11b c1bd 004c 07be
00000360: 839e 193e d3b8 a13d 3e35 85bd a2b9 283e
00000370: 7b79 a6bd b6cf de3d b54c 26be 2c0e 243e
00000380: 26c3 b73d ff23 fe3d aeda b8bd 9f24 a93d
00000390: 8dff a83d e4f0 133d 3798 18bd ed1d 07be
000003a0: fff3 53bd 349d dc3c 7e5f 853c cf2c 313e
000003b0: e192 2a3d e0fc f1bd 0afa 0abe ea5e 41be
000003c0: 3a67 bbbd 562e 2c3d b6b1 313e a783 81bd
000003d0: f02d 2abd d6d8 1cbe 6efa 35be 1663 c43d
000003e0: 04df 97bd 581e 3d3c 7bf7 b23d e896 85bc
000003f0: 5306 113d 077a 36be 1d9e 1dbe f74f 35be

encoder.model.bias_ih_l1 f4 [120]
-0.02126676 0.1514793 0.1664644 -0.012662233 -0.093962975 -0.046413623 -0.07878173 0.16893396
-0.14392017 0.016373698 -0.10077306 0.11055163 -0.13487568 -0.03176594 0.055058967 0.04841113
-0.070296206 -0.054747857 -0.0009088754 0.063247204 0.18828906 0.07690835 0.14757651 -0.14402287
-0.13191889 0.07543477 0.1451715 0.107664414 0.07104928 -0.12362048 -0.078557245 0.040265508
-0.059030928 -0.0567649 0.18819496 0.1513188 -0.13779816 0.03687074 -0.08171152 -0.046722468
0.13170747 -0.12150355 -0.09501774 -0.08596894 0.025177438 0.12911075 0.106367625 0.16695048
-0.07712422 -0.045137536 0.003876263 -0.13143629 0.0912573 0.16694367 0.1536331 -0.11850836
0.055211898 0.14162396 0.053763397 -0.06331554 0.041007932 0.14553022 -0.09169936 0.07785717
0.014992325 0.010119831 0.12184396 0.17080785 -0.043780137 -0.06894762 -0.09547787 -0.07485492
0.032237012 0.087423064 0.11009599 0.12726079 0.08554734 -0.12228558 0.06763123 -0.061478667
-0.007899577 0.15021956 -0.03373815 0.15391742 0.014060717 0.05844176 -0.12765945 0.13855866
-0.09224353 -0.059774972 0.09859662 0.09111516 0.017657692 0.12322905 0.15825267 0.028145293
0.019144202 -0.085645385 -0.058312554 -0.025834484 0.039279174 -0.18491448 0.008043299 0.18825902
-0.0713834 0.088591136 0.15466677 0.09175388 0.008441979 -0.13033608 0.06710808 0.14416726
0.062282626 -0.0027676208 -0.0025532204 -0.11814188 -0.04495358 0.095793866 -0.094806165 0.18072848
00000000: a137 aebc 641d 1b3e a575 2a3e 4175 4fbc
00000010: a96f c0bd 361c 3ebd 5158 a1bd 06fd 2c3e
00000020: cf5f 13be 2222 863c 1b62 cebd e568 e23d
00000030: da1c 0abe 011d 02bd 8385 613d c04a 463d
00000040: 75f7 8fbd 4a3f 60bd 9841 6eba c087 813d
00000050: d9ce 403e 2082 9d3d 4c1e 173e bb7a 13be
00000060: bf15 07be 8b7d 9a3d d6a7 143e 297f dc3d
00000070: 4982 913d bc2c fdbd 9fe2 a0bd 72ed 243d
00000080: 6aca 71bd 5082 68bd 2eb6 403e 51f3 1a3e
00000090: f61a 0dbe c605 173d 5f58 a7bd 0f60 3fbd
000000a0: 53de 063e dad6 f8bd a998 c2bd 7c10 b0bd
000000b0: ea40 ce3c 9c35 043e 45d7 d93d 11f5 2a3e
000000c0: 4ef3 9dbd 23e2 38bd e708 7e3b 3c97 06be
000000d0: 1be5 ba3d 48f3 2a3e ff51 1d3e 83b4 f2bd
000000e0: df25 623d df05 113e 0237 5c3d 94ab 81bd
000000f0: eff7 273d e005 153e e0cc bbbd 9473 9f3d
00000100: 5ea2 753c a6cd 253c 5389 f93d 41e8 2e3e
00000110: cd52 33bd 6934 8dbd e789 c3bd 894d 99bd
00000120: f50a 043d dd0a b33d 027a e13d a750 023e
00000130: 7233 af3d dd70 fabd 3e82 8a3d 0ed1 7bbd
00000140: 3a6d 01bc 28d3 193e 0431 0abd 879c 1d3e
00000150: ec5e 663c a060 6f3d 29b9 02be 52e2 0d3e
00000160: 2dea bcbd 9ad6 74bd 06ed c93d 969a ba3d
00000170: dda6 903c 835f fc3d fd0c 223e f590 e63c
00000180: 4dd4 9c3c d966 afbd 25d9 6ebd d7a2 d3bc
00000190: 33e3 203d 395a 3dbe 0bc8 033c f9c6 403e
000001a0: 7631 92bd 456f b53d f760 1e3e 75e9 bb3d
000001b0: 3a50 0a3c d276 05be f66f 893d 95a0 133e
000001c0: 111c 7f3d f960 35bb ee53 27bb 5ff4 f1bd
000001d0: 3f21 38bd 932f c43d bc29 c2bd e310 393e

encoder.model.bias_hh_l1 f4 [120]
0.08716517 0.110091746 -0.102613494 0.110546805 0.056972947 -0.13635296 0.01103672 0.15370215
-0.12205503 -0.01732669 -0.016507016 0.077307366 0.17122737 -0.025821785 0.11490537 -0.17511411
0.10664212 0.16821763 -0.17422745 -0.112743445 -0.1457862 -0.16964467 -0.113550335 0.0075030006
0.026732944 -0.13438518 -0.01755113 0.034890067 -0.16269518 0.16139054 -0.036582645 -0.14211796
0.13313778 0.049896944 -0.1388706 0.016880753 0.053877283 0.108742364 -0.04988527 0.009049498
-0.057557445 -0.13812892 -0.16822608 -0.050190922 0.008570636 0.15172471 0.008949089 -0.011821561
0.15055156 -0.16230595 -0.16246745 -0.035609093 0.1058946 -0.110744 0.044917908 0.1679024
0.12238318 0.029526941 0.17171119 0.18204321 0.10448352 0.10177343 -0.109666295 -0.059190113
0.16318835 0.13127413 -0.052205298 -0.092774816 0.012954165 0.05544417 -0.18324167 0.07794551
0.02056976 -0.025417672 0.116117656 0.064371526 0.06766217 -0.09038127 0.09680109 0.051903937
-0.15565635 0.007972843 0.086021066 -0.060566895 -0.0099342745 0.15861242 -0.0209196 -0.13497609
0.17980283 -0.14636078 0.14113374 -0.016535992 -0.14972687 -0.063569374 0.064862184 -0.08576935
-0.16444087 0.028044159 0.12268706 -0.09966649 0.10217307 0.17500815 0.13758329 0.10811819
0.16814394 0.16639909 -0.15718842 0.012606142 -0.014198909 0.050260298 -0.04904755 0.18813659
-0.033753093 -0.012532781 -0.1864898 0.039956357 0.11526877 0.14389135 -0.11968904 0.10394027
00000000: a783 b23d c877 e13d 0627 d2bd 5d66 e23d
00000010: 775c 693d 1ca0 0bbe 5cd3 343c 1964 1d3e
00000020: fdf7 f9bd b4f0 8dbc b939 87bc 5353 9e3d
00000030: 3a56 2f3e 3588 d3bc 8253 eb3d 1d51 33be
00000040: 2f67 da3d 3e41 2c3e ae68 32be 09e6 e6bd
00000050: fa48 15be 55b7 2dbe 148d e8bd bbdb f53b
00000060: 0cff da3c 459c 09be 63c7 8fbc e3e8 0e3d
00000070: 9199 26be 9043 253e afd7 15bd 5f87 11be
00000080: 4555 083e bd60 4c3d 1834 0ebe 8149 8a3c
00000090: 6dae 5c3d 51b4 de3d 7f54 4cbd 5844 143c
000000a0: 5bc1 6bbd ab71 0dbe 7543 2cbe ff94 4dbd
000000b0: da6b 0c3c b95d 1b3e 339f 123c 38af 41bc
000000c0: 302a 1a3e 8833 26be de5d 26be d7da 11bd
000000d0: 45df d83d c0cd e2bd d7fb 373d 9bee 2b3e
000000e0: 08a4 fa3d 7ce2 f13c 0fd5 2f3e 8969 3a3e
000000f0: 75fb d53d 976e d03d b998 e0bd 5571 72bd
00000100: d91a 273e ba6c 063e 39d5 55bd b900 bebd
00000110: b53d 543c 6d19 633d b4a3 3bbe e5a1 9f3d
00000120: ea81 a83c b938 d0bc 18cf ed3d 38d5 833d
00000130: 7792 8a3d d119 b9bd a63f c63d 3999 543d
00000140: 6164 1fbe 87a0 023c d02b b03d fe14 78bd
00000150: 5ec3 22bc 4b6b 223e 955f abbc 2c37 0abe
00000160: 3c1e 383e 9adf 15be 5d85 103e 7d76 87bc
00000170: 0052 19be a930 82bd 77d6 843d d7a7 afbd
00000180: 3063 28be ddbc e53c 5a43 fb3d f21d ccbd
00000190: 1d40 d13d 5635 333e a2e2 0c3e 126d dd3d
000001a0: ed2d 2c3e 8664 2a3e 00f6 20be fe89 4e3c
000001b0: 8aa2 68bc bedd 4d3d 15e6 48bd e1a6 403e
000001c0: af40 0abd 4b56 4dbc 2ff7 3ebe 47a9 233d
000001d0: 0812 ec3d 4158 133e 871f f5bd a3de d43d

variational_latent.hidden_to_mu.weight f4 [15, 30]
-0.1863996 0.039508257 -0.097967066 -0.20299296 -0.3185983 0.23106135 0.217186 -0.04447845
0.22237487 0.04472844 -0.1992982 -0.0042141704 -0.32821065 0.0883691 0.26014832 -0.12668951
0.2752461 -0.021576153 0.12916107 0.22440945 -0.3265029 -0.2025708 -0.2527068 0.05146264
0.14214377 0.10594507 -0.30126664 0.25932643 -0.08665687 0.0734176 -0.15262029 0.079783015
-0.009115733 0.2572707 0.21592775 0.35524896 -0.26587108 0.33117113 -0.036043186 -0.35830027
0.087141275 -0.12132116 -0.20338432 -0.18281779 0.07079864 -0.2403432 0.33310387 0.341429
0.015119238 -0.19626601 0.080297664 -0.33577597 0.14511253 -0.27872106 -0.21935582 0.015490203
0.34111297 -0.08746889 0.28265405 0.21277547 0.17735107 -0.274516 0.15473941 -0.083319604
0.02804562 0.10084971 0.17302279 -0.26794508 -0.032505184 -0.15043597 -0.095278256 -0.04312218
-0.18516612 0.010571044 -0.0912768 -0.15999727 -0.25856474 0.26020992 -0.3701291 -0.347173
-0.023644298 -0.24060515 -0.14347509 -0.028657304 -0.10278261 -0.124752134 -0.08674309 0.3247523
0.024751551 0.08215443 0.07717229 -0.12413698 -0.0787052 -0.29807687 -0.34673703 0.11979691
0.1900901 -0.12747787 0.044194244 -0.033896737 -0.18563484 -0.31028765 0.007251873 -0.30247593
0.1490951 -0.33422124 -0.19756056 0.08490879 -0.010534424 0.110193975 -0.07249207 -0.01287443
0.27939796 0.017357074 0.16543482 -0.14483176 0.052980427 0.2506401 -0.28835955 -0.13282606
0.2395483 0.1915712 -0.03227952 -0.094453916 -0.31538814 -0.33159003 0.18648168 0.0669572
0.32328212 -0.18516962 -0.3251517 -0.08129341 0.15333909 0.23297401 -0.23666056 -0.32523075
0.10334548 -0.10939234 -0.05691839 0.2540692 0.24761446 0.004022921 -0.23002565 0.03937853
0.017792262 0.030754345 -0.25621325 -0.08645771 -0.13603039 -0.21012689 -0.23188472 -0.31497583
-0.26257926 0.16431548 0.35034364 0.1960405 -0.2617753 0.072976835 -0.22940783 -0.049944457
-0.19382668 0.20018099 0.16797365 0.1989679 -0.15752526 0.27659127 -0.19300522 -0.28750113
-0.1894571 -0.2179503 0.040202986 0.24923688 -0.17209804 0.37089255 -0.3079089 -0.17798495
0.066277936 -0.027573247 0.1329984 0.3132844 0.19414316 0.106937714 -0.2043209 -0.18440102
-0.25521797 0.098563805 -0.00038821922 0.037251964 -0.06492881 -0.095518 0.044756606 0.29057717
0.19420768 -0.2777297 0.15555914 -0.014573663 -0.08312094 -0.28380597 0.061990343 -0.026695464
0.31732053 0.20345388 0.13280463 0.27636403 0.34663773 0.3558239 -0.057193305 -0.095232144
0.036489286 -0.06264228 0.2164838 -0.11232529 -0.009441033 -0.040569287 -0.25859463 0.072735146
0.003875467 0.11497902 0.019877676 0.14376219 0.08208749 0.010522035 -0.22845913 -0.055654697
0.35395306 -0.18227477 0.09172012 -0.07693921 0.057846636 0.29488403 0.031103538 -0.102152646
0.14328161 -0.33411324 0.051819067 -0.07624698 0.101313196 0.1579662 -0.03015655 0.045589127
0.073629685 0.21451315 -0.15374471 -0.114577025 0.2297902 -0.04923005 0.23237921 -0.11741302
0.15383922 -0.15121937 0.23154882 0.08950271 0.028631793 -0.10787018 0.22715268 -0.16727087
00000000: 89df 3ebe 69d3 213d f5a2 c8bd 63dd 4fbe
00000010: 511f a3be 599b 6c3e 0266 5e3e 092f 36bd
00000020: 3db6 633e 2b35 373d d414 4cbe 0617 8abb
00000030: 3a0b a8be dcfa b43d 2932 853e e5ba 01be
00000040: 0fed 8c3e 79c0 b0bc cd42 043e 97cb 653e
00000050: 632b a7be b86e 4fbe c962 81be 7dca 523d
00000060: 238e 113e bbf9 d83d 9f3f 9abe 6fc6 843e
00000070: 2879 b1bd f75b 963d 7e48 1cbe 4765 a33d
00000080: 285a 15bc fcb8 833e 2a1c 5d3e 31e3 b53e
00000090: 4120 88be 438f a93e 05a2 13bd 2273 b7be
000000a0: 2077 b23d 3a77 f8bd fb43 50be 9634 3bbe
000000b0: e1fe 903d 871c 76be 978c aa3e c8cf ae3e
000000c0: aeb6 773c f5f9 48be 1a73 a43d d4ea abbe
000000d0: 6198 143e 87b4 8ebe d09e 60be 9fca 7d3c
000000e0: 5ca6 ae3e e422 b3bd 08b8 903e d0e1 593e
000000f0: 859b 353e 5c8d 8cbe 0274 1e3e 78a3 aabd
00000100: eebf e53c 4b8a ce3d e32c 313e 1930 89be
00000110: 2824 05bd e30b 1abe 3f21 c3bd e2a0 30bd
00000120: 309c 3dbe 2c32 2d3c 55ef babd 53d6 23be
00000130: 9962 84be 3c3a 853e 9081 bdbe a9c0 b1be
00000140: b0b1 c1bc 3261 76be 22eb 12be b9c2 eabc
00000150: b07f d2bd 0c7e ffbd 5ca6 b1bd ef45 a63e
00000160: c4c3 ca3c 9540 a83d 810c 9e3d 873b febd
00000170: 3130 a1bd 889d 98be 8487 b1be 1558 f53d
00000180: fba6 423e 8f89 02be 0605 353d 4ed7 0abd
00000190: 0f17 3ebe 06de 9ebe 1fa1 ed3b 20de 9abe
000001a0: 63ac 183e 0c1f abbe 514d 4abe a9e4 ad3d
000001b0: 9498 2cbc 61ad e13d b976 94bd 46ef 52bc
000001c0: 400d 8f3e 6c30 8e3c bf67 293e c74e 14be
000001d0: 0102 593d e653 803e dda3 93be 8e03 08be
000001e0: 264c 753e 3e2b 443e 8837 04bd 0e71 c1bd
000001f0: 8e7a a1be 2bc6 a9be 0ef5 3e3e db20 893d
00000200: 3c85 a53e 1b9d 3dbe 497a a6be 297d a6bd
00000210: ec04 1d3e bd90 6e3e 2557 72be a584 a6be
00000220: cca6 d33d 1709 e0bd 4223 69bd 5c15 823e
00000230: a58e 7d3e b5d2 833b d88b 6bbe 624b 213d
00000240: 14c1 913c 89f0 fb3c 622e 83be bd10 b1bd
00000250: 8d4b 0bbe 812b 57be 3073 6dbe 8344 a1be
00000260: ca70 86be 5142 283e 3e60 b33e d7be 483e
00000270: 6a07 86be e174 953d e3e9 6abe 8f92 4cbd
00000280: 807a 46be 3ffc 4c3e 4901 2c3e 3ebe 4b3e
00000290: 4d4e 21be 5f9d 8d3e 29a3 45be 5933 93be
000002a0: 0b01 42be 5d2e 5fbe e3ab 243d f437 7f3e
000002b0: 783a 30be a1e5 bd3e 3ca6 9dbe b041 36be
000002c0: babc 873d 4ae1 e1bc bc30 083e d066 a03e
000002d0: 77cd 463e 2902 db3d 7f39 51be 9fd3 3cbe
000002e0: eeab 82be d2db c93d e789 cbb9 8495 183d
000002f0: 65f9 84bd f19e c3bd b452 373d 88c6 943e
00000300: 61de 463e 9632 8ebe e54a 1f3e 5fc6 6ebc
00000310: 503b aabd 044f 91be 96e9 7d3d 72b0 dabc
00000320: d677 a23e 3756 503e f0fd 073e 967f 8d3e
00000330: 807a b13e 8d2e b63e 8743 6abd 1209 c3bd
00000340: ca75 153d 984a 80bd eead 5d3e cd0a e6bd
00000350: 90ae 1abc fb2b 26bd 8466 84be 2af6 943d
00000360: 8cfb 7d3b 1f7a eb3d 82d6 a23c 6536 133e
00000370: 7c1d a83d 9d64 2c3c 31f1 69be 2ef6 63bd
00000380: 5639 b53e 3da6 3abe c2d7 bb3d 4e92 9dbd
00000390: 98f0 6c3d 0afb 963e d9cc fe3c 6835 d1bd
000003a0: 6ab8 123e e410 abbe 3b40 543d 6027 9cbd
000003b0: 4b7d cf3d e4c1 213e df0a f7bc aabb 3a3d
000003c0: 29cb 963d 56a9 5b3e 416f 1dbe 5ca7 eabd
000003d0: 1f4e 6b3e 73a5 49bd d1f4 6d3e 3d76 f0bd
000003e0: 0788 1d3e 40d9 1abe 221b 6d3e 324d b73d
000003f0: 398d ea3c 0aeb dcbd b69a 683e 0e49 2bbe

variational_latent.hidden_to_mu.bias f4 [15]
-0.042292375 0.062974095 -0.029199518 0.16253754 -0.05001952 0.14549507 0.13818052 0.012692386
0.09556081 -0.1113845 -0.10666393 -0.090274416 0.09662819 0.08377356 0.05180198
00000000: c53a 2dbd 90f8 803d d433 efbc 3e70 263e
00000010: 45e1 4cbd a9fc 143e 327f 0d3e baf3 4f3c
00000020: 63b5 c33d 8f1d e4bd 9e72 dabd cbe1 b8bd
00000030: 00e5 c53d 7991 ab3d 502e 543d

variational_latent.hidden_to_logvar.weight f4 [15, 30]
0.36064932 0.3041154 0.3410569 -0.18398866 -0.19954854 0.08681201 0.33783522 0.16515036
-0.31072995 -0.20346387 -0.2772719 -0.27111238 -0.22612317 -0.10918676 0.0067811627 -0.15882748
-0.3202169 -0.28411016 0.19414145 0.15855542 0.0046807947 0.28209552 0.25400105 -0.03164999
0.36477232 -0.1347178 -0.06465742 0.022928856 0.22741848 0.2199932 0.12016501 -0.076966174
-0.11867502 0.07674169 -0.24779747 -0.17221266 -0.07534404 0.074954644 0.33357432 -0.22123629
-0.1230437 -0.23571791 0.042191133 0.19409275 0.15067089 0.27936426 0.054257113 -0.0630005
0.06392358 -0.27876002 -0.09434752 -0.005789642 0.07974689 -0.36013213 0.27435747 0.083378434
-0.24419062 0.0044673076 -0.25811654 0.2504248 -0.053969495 -0.03073902 0.081161104 -0.10952225
-0.2917312 -0.19480535 -0.21471648 0.15812443 -0.111597724 -0.27737203 0.13184528 -0.26679865
-0.021028161 -0.26006404 -0.19495669 -0.19181441 0.29657176 0.14729884 -0.26681167 0.14224306
0.18908195 -0.07436427 -0.08087618 -0.36283484 -0.19689162 -0.28296378 -0.21046408 0.30052638
0.19851445 0.08700492 0.0122712655 -0.015740741 0.09814383 -0.30330172 -0.27254057 -0.34815097
0.021629825 0.15845482 -0.32288507 -0.30932045 -0.2613279 -0.28007227 0.095522344 0.010737373
0.16472477 0.051972717 -0.2952551 -0.083258376 -0.2748209 0.2421363 -0.17140497 -0.23877457
-0.06036356 0.26666242 -0.3451246 -0.20886898 -0.051663894 0.23269592 -0.32374468 0.30032718
-0.28694096 0.006280184 0.3618251 0.25549528 -0.2547118 -0.33294198 -0.27107713 -0.17280878
0.29916656 0.1799621 0.3527074 -0.081471026 -0.017931294 0.15538886 -0.2304136 0.16749324
-0.29909372 -0.35588306 0.043615814 0.039572384 0.29461822 -0.08630516 -0.15243565 -0.25410786
0.31804258 0.2608714 0.13076131 -0.2196244 0.19450983 0.00017159751 0.36394003 0.10256249
0.27911305 0.21937482 0.03126702 -0.30528632 -0.06693431 0.047741126 -0.072621435 -0.020321632
-0.35472155 0.27364582 -0.25375307 -0.00304709 -0.25726786 0.058234133 0.20320828 -0.36486122
-0.11911167 0.1991629 0.1479835 0.27723104 0.27708054 0.2897989 0.07452324 0.13734247
0.09456383 0.090866536 -0.10495351 -0.09134781 0.358049 0.06801294 0.32214123 -0.1728309
0.15664698 -0.08342743 0.33682573 0.19617204 -0.27353486 -0.26576927 0.029561678 0.10460799
-0.34585974 -0.105132654 -0.038903475 -0.020387994 0.3201488 0.16178639 0.2590033 -0.08067248
0.25013632 0.2985282 0.13959402 0.07727983 -0.04908105 -0.2235322 0.089300945 -0.013386173
-0.26287735 -0.10222146 0.14826512 0.21826328 0.20002607 0.09597101 -0.29441217 -0.24887307
-0.1825979 0.11004518 -0.06375064 -0.058503043 -0.3553234 -0.07017754 -0.10524623 -0.2772996
-0.16008145 0.363405 0.05778289 -0.23161088 0.13011192 -0.33093256 -0.12095183 -0.1517546
0.32713798 -0.00093445403 -0.17185293 -0.034909267 -0.13142192 -0.2581996 0.09213347 -0.160883
0.117957145 0.24583218 -0.29793757 -0.20366214 -0.043970566 0.18816054 0.14829057 -0.3636682
-0.016355174 -0.27876318 -0.09527617 -0.09256888 0.09087001 0.06928023 -0.30494356 0.021140229
00000000: 07a7 b83e 04b5 9b3e 039f ae3e 8667 3cbe
00000010: 7456 4cbe 7fca b13d bdf8 ac3e 2d1d 293e
00000020: ff17 9fbe d558 50be 95f6 8dbe 3ecf 8abe
00000030: d58c 67be 4f9d dfbd 8434 de3b aca3 22be
00000040: 78f3 a3be e376 91be 04cd 463e 5a5c 223e
00000050: 5a61 993b d36e 903e 6d0c 823e 6ba3 01bd
00000060: 70c3 ba3e 77f3 09be 1c6b 84bd 4cd5 bb3c
00000070: 64e0 683e e645 613e 1319 f63d 71a0 9dbd
00000080: e40b f3bd bf2a 9d3d 9fbe 7dbe 8458 30be
00000090: fa4d 9abd d281 993d 41ca aa3e c48b 62be
000000a0: 56fe fbbd 0960 71be 9cd0 2c3d 40c0 463e
000000b0: 7849 1a3e d508 8f3e b53c 5e3d 6806 81bd
000000c0: 5eea 823d a2b9 8ebe 4639 c1bd 0ab7 bdbb
000000d0: 5652 a33d 3d63 b8be 9578 8c3e 50c2 aa3d
000000e0: 1b0d 7abe 7e62 923b da27 84be ae37 803e
000000f0: 1e0f 5dbd 66d0 fbbc cb37 a63d 344d e0bd
00000100: cb5d 95be 0e7b 47be a3de 5bbe 5feb 213e
00000110: 598d e4bd b503 8ebe 7302 073e d599 88be
00000120: 4043 acbc 1d27 85be baa2 47be ff6a 44be
00000130: 41d8 973e 82d5 163e 8a9b 88be 2aa8 113e
00000140: b39e 413e 4b4c 98bd 69a2 a5bd 7dc5 b9be
00000150: f59d 49be a1e0 90be e583 57be 98de 993e
00000160: 5f47 4b3e a32f b23d 6b0d 493c baf2 80bc
00000170: a2ff c83d 5d4a 9bbe 708a 8bbe d840 b2be
00000180: 0831 b13c fb41 223e 3151 a5be 405f 9ebe
00000190: c5cc 85be a265 8fbe 38a1 c33d ceeb 2f3c
000001a0: 9cad 283e 58e1 543d ad2b 97be 5e83 aabd
000001b0: 53b5 8cbe 94f2 773e c984 2fbe 5281 74be
000001c0: c83f 77bd fa87 883e 2cb4 b0be c0e1 55be
000001d0: 859d 53bd d747 6e3e ddc1 a5be 7cc4 993e
000001e0: ede9 92be 00ca cd3b 2441 b93e 47d0 823e
000001f0: 9669 82be 5f77 aabe 9fca 8abe c9f4 30be
00000200: 5c2c 993e fc47 383e 1096 b43e 48da a6bd
00000210: a6e4 92bc 421e 1f3e 8bf1 6bbe 5983 2b3e
00000220: d022 99be 4e36 b6be 7fa6 323d a716 223d
00000230: 33d8 963e c2c0 b0bd 1718 1cbe 6d1a 82be
00000240: 7ad6 a23e f090 853e 4be6 053e 38e5 60be
00000250: 962d 473e dbee 3339 5956 ba3e 480c d23d
00000260: e8e7 8e3e cba3 603e d911 003d 7d4e 9cbe
00000270: db14 89bd 338c 433d 8cba 94bd 8d79 a6bc
00000280: 109e b5be 4e1b 8c3e eceb 81be b0b1 47bb
00000290: 9db8 83be ea86 6e3d d515 503e 17cf babe
000002a0: d2f0 f3bd 5cf1 4b3e fd88 173e 3af1 8d3e
000002b0: 80dd 8d3e 8560 943e a49f 983d 81a3 0c3e
000002c0: aeaa c13d 3c18 ba3d def1 d6bd 9014 bbbd
000002d0: 3352 b73e 5e4a 8b3d b2ef a43e 95fa 30be
000002e0: 1168 203e 00dc aabd 6c74 ac3e 53e1 483e
000002f0: c30c 8cbe e912 88be 552b f23c b73c d63d
00000300: 8714 b1be ca4f d7bd 4059 1fbd b904 a7bc
00000310: 8bea a33e 55ab 253e 159c 843e 9d37 a5bd
00000320: de11 803e b0d8 983e bcf1 0e3e e344 9e3d
00000330: 3609 49bd a0e5 64be 6ae3 b63d ae51 5bbc
00000340: dc97 86be 7c59 d1bd d0d2 173e 6980 5f3e
00000350: a2d3 4c3e 738c c43d 31bd 96be 95d8 7ebe
00000360: f2fa 3abe 5e5f e13d b28f 82bd e3a0 6fbd
00000370: f3ec b5be 3eb9 8fbd 568b d7bd 37fa 8dbe
00000380: 64ec 23be 3810 ba3e c0ad 6c3d 672b 6dbe
00000390: 0f3c 053e fe6f a9be 98b5 f7bd 8f65 1bbe
000003a0: a17e a73e 26f6 74ba 37fa 2fbe 05fd 0ebd
000003b0: 7893 06be bd32 84be 79b0 bc3d 83be 24be
000003c0: 8493 f13d 6ebb 7b3e 468b 98be cf8c 50be
000003d0: 7b1a 34bd 28ad 403e 7cd9 173e b832 babe
000003e0: 49fb 85bc 0cba 8ebe 2720 c3bd c194 bdbd
000003f0: 0e1a ba3d cbe2 8d3d 9021 9cbe 462e ad3c

variational_latent.hidden_to_logvar.bias f4 [15]
0.13121675 0.04903206 -0.087310776 0.06506859 -0.16342914 0.08086128 0.12997936 0.08033926
0.01136654 0.019824818 -0.027182272 0.07787749 -0.037520513 0.049488317 -0.08133554
00000000: af5d 063e d7d5 483d fecf b2bd ae42 853d
00000010: f859 27be 999a a53d 4f19 053e e988 a43d
00000020: b93a 3a3c a867 a23c 5bad debc 3c7e 9f3d
00000030: 1caf 19bd 43b4 4a3d 3f93 a6bd
