models/20200923_134931/epoch_0000_loss_3449212.87500.pt (torch, 261509 bytes, 116 tensors)

encoder.model.weight_ih_l0 f4 [120, 3]
000000 c8 f7 37 bd 9d d6 11 3e 46 46 39 be b7 66 11 3e
       -0.044914037 0.14242025 -0.18093213 0.14199339
000010 bd d7 f3 bd a1 35 94 bd bd 66 cb 3d 60 11 99 3d
       -0.11906383 -0.072367914 0.09931705 0.07474017
000020 25 4c dc 3d 4c 69 22 3e 40 25 f4 3d ab 44 08 bd
       0.10756711 0.1586048 0.119211674 -0.033268612
000030 fa 1a 02 3e 5f 50 95 3d 38 fd ba 3d 91 32 b6 bd
       0.12705603 0.0729072 0.09130329 -0.088963635
000040 b5 ff 1f 3e 45 57 d0 bd 8e 03 aa bd 30 fb cc bb
       0.15624888 -0.10172895 -0.08301459 -0.00625553
000050 a4 a0 28 3e 2b 3d d8 3c bd e8 4e 3b 87 80 16 be
       0.1646753 0.026396355 0.0031571828 -0.14697467
000060 b2 27 0a 3e 6d a9 9b 3d 03 bd 0e be ee 50 29 3e
       0.13491705 0.07600675 -0.1393929 0.16534778
000070 88 d5 41 3e 19 01 a5 3d 7a ae 87 3d 95 5f 55 bc
       0.18929112 0.0805685 0.06625076 -0.013023277
000080 b7 48 bc bd 30 8a 31 3e 86 a5 be 3d e4 5c 3f 3e
       -0.09193557 0.1733787 0.09308915 0.18687779
000090 a4 49 05 be 6a 8c 16 3e d5 11 90 3c 55 f8 e3 3d
       -0.13016373 0.14702001 0.017586628 0.1113135
0000a0 10 55 a0 bd d5 8e 23 be 88 cb 2f 3e d4 32 0f bd
       -0.078287244 -0.15972455 0.17167485 -0.034960583
0000b0 c6 ec 11 3e e0 9c 21 be ad 70 0f 3e 1b 2e fb 3d
       0.14250478 -0.157825 0.14007826 0.12264653
0000c0 aa c5 1f bc 7d ef 2e 3e 59 42 08 bd 6d a3 06 3e
       -0.009751717 0.17083545 -0.0332664 0.1314828
0000d0 0c 45 f6 3d 98 76 be 3c 6e d4 a3 3d 07 f4 29 be
       0.120248884 0.02324991 0.07999502 -0.16596995
0000e0 7f 1e 38 bd 06 e2 cb 3d 56 ca 34 3e 2a 54 19 be
       -0.04495096 0.0995522 0.1765531 -0.14973512
0000f0 e2 41 23 be 09 54 ba 3d 9f 4a bd 3d 89 df fd bc
       -0.15943101 0.0909806 0.092427485 -0.030990379
000100 41 6b 08 be 04 f3 2c be e6 7d 8d bd 8d f9 08 be
       -0.13322164 -0.16889578 -0.06908779 -0.13376446
000110 06 b8 ee bd e6 03 03 bd 48 3b 10 bd 5a 0e 42 bd
       -0.116561934 -0.03198614 -0.035212785 -0.047376968
000120 1f df 2e 3e ad 40 15 be 10 d5 16 bc 28 75 a1 3d
       0.17077301 -0.14575453 -0.0092060715 0.07883674
000130 97 3e 99 3d 09 7b d6 ba 80 6f 12 bd a4 a3 41 3d
       0.07482641 -0.0016363572 -0.035750866 0.0472752
000140 1a d3 c9 ba 59 55 37 3e cc 3a 17 bd 3e 3c ca bb
       -0.0015397996 0.17903651 -0.036921307 -0.006171732
000150 bd 96 b0 3d d6 0b cc 3d 53 f9 ea bd 2a 08 02 3e
       0.08622501 0.09963195 -0.11473336 0.12698427
000160 22 ca 25 3e d1 92 94 3c 40 22 bf 3d 52 29 41 be
       0.16190389 0.018136414 0.093327045 -0.18863419
000170 9d 96 0d be 7c db 02 3e 49 c5 b4 3d 08 1b 22 3e
       -0.13826986 0.12779039 0.08826692 0.15830624
000180 35 96 ef bd 35 9e a2 3d 04 24 28 be 60 00 98 3d
       -0.116985716 0.07940332 -0.16419989 0.074219465
000190 dd 0a be 3b 4f 07 35 3c d2 22 11 3c 5e 99 2d 3e
       0.005799635 0.011049106 0.0088583995 0.16953036
0001a0 5e 6d c3 bd 39 79 78 3d f9 68 42 3d d2 d3 22 3e
       -0.095423445 0.060662482 0.04746339 0.15901116
0001b0 fc 19 32 3e 6f 84 a1 3d da b6 d1 bc d1 9c 84 3d
       0.17392725 0.07886588 -0.025599886 0.06475223
0001c0 b6 2e d6 bc 3d da 1d 3e da 3e 57 bd cd c7 02 3d
       -0.02614532 0.15415283 -0.052550174 0.031928826
0001d0 e7 42 ab 3c 82 5c 06 3d 3a 4a 36 3d aa 36 bc b7
       0.020905925 0.032803066 0.04450438 -2.2436801e-05
0001e0 c7 3e 45 bd 7f d9 24 bd 42 1f 92 bb 2f 6c 06 be
       -0.048155572 -0.040246483 -0.0044592926 -0.13127206
0001f0 da c2 59 bd 5a 38 55 bd 23 ee 08 3e 51 34 09 be
       -0.05316434 -0.052055694 0.13372092 -0.13398863
000200 1e 3e 48 3d 9b 2c ee 3d bf a3 f0 3d af e0 ed 3d
       0.048887365 0.116296016 0.11749982 0.116151206
000210 55 28 86 3d a6 a6 dc 3c 52 13 1c 3e 02 cb a0 bd
       0.065506615 0.026934933 0.15241745 -0.07851221
000220 78 90 cf 3d 87 43 3c be c2 56 96 bc 47 2f e9 3d
       0.10134977 -0.18385135 -0.018351916 0.113859706
000230 67 c6 57 3d 4d b5 1a be b5 10 ec 3d ae 9a ce bd
       0.052679446 -0.15108223 0.11526624 -0.100880966
000240 7a 15 9a 3d e2 9d a1 bd 80 78 0e be 88 45 13 be
       0.075236276 -0.07891442 -0.13913155 -0.14381993
000250 2e d2 dc bd 02 68 e7 bd e2 ad 10 be cb 75 28 be
       -0.10782276 -0.11299135 -0.14128831 -0.16451184
000260 9c 03 26 be 4e 21 b4 3d 48 33 f3 3d 94 ea 1d 3e
       -0.16212314 0.08795415 0.118750155 0.15421516
000270 bc 92 7d 3d ad a9 b0 3d 74 1a 1a 3e 0e d5 15 bc
       0.061907515 0.08626113 0.15049154 -0.0091450345
000280 52 9a 9d bb 2f ce d6 3d e5 05 ea 3d ba 99 b9 3c
       -0.004809656 0.10488545 0.114269055 0.02265631
000290 45 fd 69 bd bb 0c 40 bd 0e 94 fb bd 0a 54 16 be
       -0.057126302 -0.04688714 -0.122840986 -0.14680496
0002a0 9c 1c 0d 3e c5 3e 38 3e 88 f3 d5 3d 1f ee 3d bd
       0.13780445 0.17992695 0.104468405 -0.046369668
0002b0 32 86 94 bd 3c d6 f0 bd f9 84 bd 3d 76 26 17 3d
       -0.07252158 -0.11759612 0.09253878 0.036901914
0002c0 fc 5b 7a bd ee 82 f8 3d 24 e6 cc bd 3b 64 a9 bc
       -0.06112288 0.12134348 -0.10004833 -0.020677676
0002d0 4a 8b f4 bd 64 1e 11 be a4 18 29 3e ca ad b3 3d
       -0.1194063 -0.1417175 0.16513306 0.08773382
0002e0 94 8d c6 bd 92 d8 e2 bd 06 bc a3 bd e2 c4 d9 bd
       -0.09694973 -0.11076464 -0.07994847 -0.106332555
0002f0 2c 0c 0d 3e 10 06 99 bd 33 ee 25 3e f0 61 15 3d
       0.13774174 -0.074718595 0.16204147 0.036470354
000300 49 f0 fa bd 92 48 35 be 3e f5 b7 bc 5f 56 d7 bd
       -0.12252862 -0.17703465 -0.022455808 -0.10514521
000310 2f 0f 2c 3e 25 d1 b2 3c d1 b9 00 3e 29 ec 08 3e
       0.16802667 0.021828244 0.12570883 0.13371338
000320 95 29 38 3e aa e6 14 3e 1e d9 09 3e 6a 78 2d 3d
       0.17984612 0.14541116 0.1346173 0.042351164
000330 54 20 30 be fc 98 62 3d 54 8f b8 bd ea 5f 51 bd
       -0.17199832 0.05532168 -0.09011713 -0.05111686
000340 fe 3b 1f be 4c 6e 98 3d 43 79 3b bd 0c 8d 51 bd
       -0.15550229 0.074429125 -0.04576994 -0.051159903
000350 e0 04 8f 3d df 54 3b be 78 fd ab bd a2 71 19 3d
       0.06983352 -0.18294095 -0.08397955 0.037461884
000360 ce 8b 6d 3c 58 91 06 bd 0d 13 4a 3d b1 83 3c be
       0.014498664 -0.032853454 0.049334574 -0.18409611
000370 34 59 01 3d 6f 96 de bb 18 1b fd bc 84 f6 00 3e
       0.03157921 -0.0067928354 -0.030896708 0.12594038
000380 12 80 0f 3d 8f 29 f3 3d 89 65 b2 bd d6 00 38 be
       0.035034247 0.11873161 -0.087107725 -0.17969069
000390 19 7e 78 bd 4d 44 fe bd fd 32 19 3e a7 00 0f 3e
       -0.06066713 -0.12415371 0.14960857 0.13965093
0003a0 28 9d 44 3d 32 8e 09 3d 07 77 50 3d 81 93 4b bd
       0.04800144 0.033582874 0.050894763 -0.049701218
0003b0 b1 da f0 bd e0 a6 c3 bd c4 7f a3 3d e0 74 63 3d
       -0.11760462 -0.09553313 0.07983354 0.055531383
0003c0 fc f3 cc bd 31 44 a5 3d 15 b1 cc bd 83 33 28 3e
       -0.10007474 0.08069647 -0.09994713 0.164259
0003d0 4d b9 0b 3e bd 88 22 be 28 cc 33 be b2 4c 1f 3e
       0.13644905 -0.15872474 -0.17558348 0.155566
0003e0 d4 c3 9a ba f5 be ea 3d e2 de 11 3e 09 25 10 be
       -0.0011807629 0.114622034 0.1424518 -0.14076628
0003f0 a2 29 81 3d 95 a8 13 3e 59 63 18 bd 6c 23 ad bd
       0.06306769 0.14419778 -0.03720412 -0.08454022

encoder.model.weight_hh_l0 f4 [120, 30]
000000 75 f1 0a be c0 20 56 3d 44 af 00 3d 69 ef d5 3d
       -0.13568671 0.052277327 0.031417146 0.104460545
000010 2d c4 93 bc de b9 01 3e 35 2c 31 be 6a b6 18 3e
       -0.01803788 0.12668559 -0.1730202 0.14913335
000020 c7 2a 24 be 07 1b 77 3d ed 44 82 3d 8c 08 84 3b
       -0.16031943 0.06032851 0.06360803 0.004029339
000030 23 1d b9 3c 14 37 1e bd d7 fa b8 3d 03 33 85 3d
       0.022596901 -0.038626745 0.09032219 0.0650387
000040 26 b0 0c 3e 97 54 11 be 89 92 f6 3d ff 46 14 be
       0.1373907 -0.14192425 0.12039668 -0.14480208
000050 f7 82 18 be be a9 15 be 24 2a 2f 3e 6e 28 13 be
       -0.14893709 -0.14615533 0.17105919 -0.14370891
000060 18 cf 10 be 1c f4 95 3d 25 00 d7 bc 47 e1 13 be
       -0.141415 0.07321951 -0.026245186 -0.14441405
000070 41 19 8f 3d fd ad 09 be 7f 83 46 3d 7b 4f df bb
       0.06987239 -0.13445278 0.04846525 -0.0068148947
000080 2b 28 64 bc a9 9c 10 3e 8e eb 73 bd 0d 55 b4 bd
       -0.013925592 0.14122261 -0.059550814 -0.08805285
000090 0e 95 0a 3c c3 e6 39 3e 53 10 df 3d de 33 a1 3c
       0.008458389 0.18154435 0.108917855 0.019678053
0000a0 4d 93 07 3e b2 6f 31 3e c9 59 c6 3d 7a 13 f6 3b
       0.13239785 0.17327765 0.09685094 0.007509646
0000b0 24 2c 06 be bc 22 17 be a1 1c 17 bd bf f8 b1 bd
       -0.13102776 -0.14759344 -0.036892537 -0.08690023
0000c0 f3 08 d2 bd 24 8c e5 bd 6e 81 2b 3e 3b ba 14 be
       -0.10255613 -0.1120837 0.16748592 -0.14524166
0000d0 35 84 e1 3c a9 38 dd bd 8d 96 ef 3d d5 cb 04 3d
       0.027528862 -0.10801823 0.11698637 0.032420952
0000e0 51 86 9d bd 0a ef a3 bd 8f 86 81 bd 4a ce ca 3d
       -0.076916344 -0.080045775 -0.06324493 0.09902628
0000f0 94 0d fd bd 2c d2 90 bd c8 91 07 be 6a 51 57 bd
       -0.123561054 -0.07071337 -0.13239205 -0.052567877
000100 d2 b9 ef 3d 21 c2 b1 bd 7b 0e ac bb ab c0 08 3e
       0.11705364 -0.08679605 -0.0052507496 0.13354747
000110 68 f0 6e 3d 32 b2 1f be 8c 3b 04 be 41 f3 99 3d
       0.058334738 -0.1559532 -0.1291334 0.075171
000120 37 85 1e bd 51 a2 25 bd d7 cd 85 bd 83 31 2c bc
       -0.038701262 -0.040438 -0.065334015 -0.010509851
000130 c9 4c cb bd 01 5d db bd 38 74 35 be 14 62 e6 bd
       -0.09926755 -0.107110985 -0.17720115 -0.11249176
000140 74 e5 8b 3c a0 f6 b1 3d 12 58 07 3d 06 28 0e 3d
       0.017077185 0.08689618 0.033042975 0.034706138
000150 b0 69 28 3e 28 1b c1 bd a2 03 be bd fb 90 2d bc
       0.16446567 -0.09429008 -0.09278037 -0.010593648
000160 52 86 e5 bd 8f 8c 9d 3a ed 8b 26 be 56 78 95 bd
       -0.1120726 0.0012020039 -0.16264315 -0.07298343
000170 38 7c 37 bd 0c 75 d1 3d 8e ee 76 3d 2b 7e 38 be
       -0.0447962 0.10227403 0.060286097 -0.1801688
000180 73 0d 31 3e d7 31 ef bd 3b 93 ce 3d 32 b5 ee bd
       0.17290287 -0.11679428 0.10086676 -0.11655654
000190 6c af 51 bd 27 5b 37 be 2f 8a b2 bd 9c 96 0e bd
       -0.051192686 -0.17905866 -0.08717763 -0.0348116
0001a0 19 c1 3a bd 54 f1 e3 bd a4 a7 ee bd 19 5d 2d 3e
       -0.04559431 -0.11130014 -0.11653069 0.16930045
0001b0 e2 b8 c0 3b 94 0d e5 bd 68 00 d5 bd fa dc aa bd
       0.0058814147 -0.111842304 -0.10400468 -0.08342929
0001c0 b2 5c 47 bd e8 67 55 3c ce 59 27 be 99 ab 03 3d
       -0.048672386 0.013025261 -0.16342852 0.03214607
0001d0 26 3c 18 be b7 42 a3 bd 24 79 2d 3e c3 bf bf bc
       -0.14866695 -0.07971709 0.16940743 -0.023406869
0001e0 da 27 1a be 9e 5a 4b bd 87 34 0d 3d de 6a 19 be
       -0.15054265 -0.049646966 0.034473922 -0.14982173
0001f0 28 2b 02 3e 8b 5f 54 bd 09 1f ca 3d 05 95 cc 3d
       0.12711775 -0.05184893 0.09869201 0.09989361
000200 94 97 6f bd 14 c9 dc bd 11 dc 29 3d 32 e2 e0 3c
       -0.058494166 -0.1078054 0.041469637 0.027451608
000210 60 d4 09 bc ba cf 77 3d d2 17 16 be 4a 51 1b 3e
       -0.008412451 0.060500838 -0.14657524 0.15167728
000220 e0 f6 05 be a0 3e 69 3c 63 c0 a1 3d ea d9 33 3e
       -0.13082457 0.014236122 0.07898023 0.17563596
000230 56 0c b6 bd 8c 7a 03 be ab c3 87 bd a0 bd 25 3e
       -0.08889072 -0.12839717 -0.066291176 0.16185617
000240 c3 78 0a be ca 0b 23 be c5 e1 1a be 1b 9d 1d bd
       -0.1352263 -0.15922466 -0.15125187 -0.038479906
000250 ae cb 1e be a8 61 17 3e 41 e8 c1 bd 15 ee af 3c
       -0.15507385 0.14783347 -0.09468127 0.021475831
000260 fe 66 0c be 78 bd c1 bb 34 77 fe 3c e1 8c 32 bd
       -0.13711163 -0.005912479 0.0310627 -0.043591384
000270 c9 8d 6e 3d 89 83 8d 3d 9d 79 14 3d f2 95 77 3c
       0.058240686 0.06909854 0.036248792 0.015111433
000280 f1 24 0d bd 29 eb de 3c 75 d0 b9 3d 6d 5c c3 bd
       -0.03445906 0.027211742 0.09072963 -0.09539113
000290 ea 74 7a 3d 5b b6 e0 3c 1d a8 41 bd e4 9a 49 bd
       0.061146654 0.027430704 -0.047279466 -0.04921998
0002a0 bd 27 17 be 7a 58 09 3e 5b d8 c0 3d ce 9e 7a bd
       -0.14761253 0.13412657 0.094162665 -0.061186604
0002b0 41 e3 da 3d 98 ff 0b be 93 6f 09 3e 48 88 be bd
       0.106878765 -0.1367172 0.13421468 -0.09303337
0002c0 3c 62 10 3e 47 54 29 3e 47 48 11 be b5 7c d1 bd
       0.14099973 0.16536056 -0.14187728 -0.10228864
0002d0 e9 3f d6 bd ae be c9 3c 0b cf 92 bd 13 2b 15 be
       -0.10461409 0.024627056 -0.071683966 -0.14567213
0002e0 5b aa bb bd 42 d5 b2 bb df 0e 19 3d 77 31 01 3d
       -0.09163352 -0.005457551 0.037367698 0.031541314
0002f0 8d 66 31 be 80 6a 3f be 89 c6 6c 3d 90 f6 a5 bb
       -0.17324276 -0.1869297 0.057806525 -0.005064793
000300 e5 a2 93 bc 90 12 ac 3d 1b c1 b4 3c 12 19 ff bd
       -0.01802201 0.08401978 0.022064736 -0.12455954
000310 ec 57 2e 3d 9a 68 da bd b7 2e fd 3d a2 ac f2 3b
       0.042564318 -0.106644824 0.12362426 0.0074058333
000320 1f f0 bb 3d 59 f4 41 be c5 f5 cc bd c7 58 af bd
       0.09176659 -0.18940867 -0.10007814 -0.08561855
000330 1c ed 4f bd 7c 8a e1 bb d8 75 12 be 11 5a 1b 3e
       -0.050763234 -0.0068829637 -0.14302766 0.15171076
000340 c2 7e 31 be c6 35 2b 3e c6 0e f4 3d c1 c5 24 3e
       -0.1733351 0.16719732 0.1191688 0.16091062
000350 d7 2e 50 3c 0c 75 30 3e 03 bd 02 be 61 3f 0e be
       0.01270648 0.1723215 -0.12767415 -0.13891365
000360 68 36 14 be bf c3 a6 3d 94 de fd bd 7d bd bd 3c
       -0.1447388 0.08142804 -0.12395969 0.023161644
000370 8c c2 82 bd 33 7f e0 bd bd a6 06 3e 3b 45 24 3e
       -0.06384763 -0.10961761 0.13149543 0.16042034
000380 c2 11 38 3e c7 85 19 3e 87 7a c0 3d 6a 04 7e 3d
       0.17975524 0.14992438 0.0939837 0.06201593
000390 de 6e e8 3d 63 b0 d7 bd e2 53 89 bc 37 04 ef bd
       0.11349271 -0.1053169 -0.016763631 -0.11670726
0003a0 a1 62 fe 3d 18 ed 2c be 74 c9 c1 3d b1 23 1c 3e
       0.12421156 -0.16887319 0.09462252 0.1524799
0003b0 47 48 02 3d 7f 38 24 be 9b 2c cf bd ac 11 8f 3d
       0.03180721 -0.16037177 -0.1011593 0.069857925
0003c0 e4 19 bf 3c b2 22 89 bd ea 44 00 3e 57 5a fa ba
       0.023327775 -0.06696071 0.12526289 -0.001910041
0003d0 75 ce 22 3e fc 58 c9 3c 06 2d a6 bd 2e 9d 41 3e
       0.1589907 0.024578564 -0.08114056 0.18907616
0003e0 75 19 9f 3c a6 96 3c 3c b2 5c 78 3c a3 97 2a 3e
       0.019421319 0.011510527 0.015158819 0.16659407
0003f0 36 b6 0a 3e c1 47 01 be 6d 5d 67 3b ef a3 0b 3e
       0.1354607 -0.12625028 0.003530349 0.13636754

encoder.model.bias_ih_l0 f4 [120]
000000 ca 4e c5 3c 5b dd 25 bd ed e4 b5 bd 96 6c d6 3d
       0.024085421 -0.040494304 -0.08881555 0.1046993
000010 93 25 1d be ef 3e 18 be ea 2d 9a 3d f9 5f 22 3e
       -0.15346365 -0.14867757 0.07528289 0.15856923
000020 26 2e 3d 3d f0 3d ab 3d 0c ce c7 3d c6 2a 86 3c
       0.04618659 0.08361423 0.09756097 0.016377818
000030 94 03 1f 3e b4 fc 86 3d 2f 39 54 3d 56 22 07 be
       0.15528709 0.06591168 0.051812347 -0.13196692
000040 bd f6 dc bb 04 af 1f bd 17 bb ad 3c 2c 5d b3 3d
       -0.0067432807 -0.038985267 0.021207375 0.087580055
000050 f9 3e 32 3e 24 4d 2d be 78 91 04 3e fe f6 23 be
       0.17406835 -0.16923958 0.12946117 -0.16012189
000060 ad 11 48 bd cb 74 b4 bd bb 31 bd bd cf 61 7c 3c
       -0.048844982 -0.08811339 -0.09238001 0.015404179
000070 0d 5c f5 bd 9a 1a 98 bd b9 64 04 3e 8f d8 c4 bd
       -0.11980448 -0.07426949 0.12929048 -0.09611618
000080 9b 8c 9a bc 82 1c cc 3d 9b cd 82 bd f2 ca 7e bc
       -0.018865874 0.09966375 -0.063868724 -0.015551316
000090 ab c6 30 be 87 05 3f be e5 ce 3d 3e f5 0f 08 3a
       -0.17263286 -0.18654452 0.18535955 0.0005190366
0000a0 77 33 9f bb d8 f7 06 bc 71 e2 5b bc ce 99 18 3e
       -0.00485843 -0.0082378015 -0.013420687 0.14902422
0000b0 74 a7 2d be 8b db 4b bd 36 12 cb bd 44 96 2f 3e
       -0.1695841 -0.04976992 -0.09915583 0.17147166
0000c0 33 ee 61 bd 38 6e 1d be ea 40 86 bd 33 c9 c8 3b
       -0.055158805 -0.15374076 -0.0655535 0.0061275004
0000d0 5b b7 30 be 7a ec 2f b9 be 63 da 3b d8 ea e3 bd
       -0.17257445 -0.00016777395 0.006664722 -0.11128777
0000e0 f6 76 36 3e 0e 30 05 3d 1f b8 a7 3d be ed f2 3d
       0.17818817 0.03251653 0.08189415 0.11861752
0000f0 04 bc ba 3d c8 bb a7 3d 05 37 f9 3c 09 99 13 be
       0.091178924 0.08190113 0.030421743 -0.14413847
000100 0e 39 a9 3c c9 42 1e 3e 9a 94 bf 3d 42 dc 74 3d
       0.020657089 0.15455164 0.093545154 0.059780367
000110 fb ea 06 3c 94 01 02 bc 79 a9 c2 3d d6 94 4a bd
       0.008234735 -0.007934947 0.095049806 -0.049458347
000120 15 f3 d8 3d 00 53 02 3e d6 7c 8f 3d 0e 33 24 3e
       0.10593239 0.12726974 0.070062324 0.16035101
000130 d5 98 dc bd 0c 24 22 3e e2 1f 8b bb e2 9f 25 3e
       -0.10771338 0.15834063 -0.004245744 0.16174272
000140 c7 bd 3a 3e ce 48 aa bd 7d 4e f8 bd e1 08 16 be
       0.18236457 -0.08314668 -0.121243455 -0.14651825
000150 a5 69 cf bc 04 c9 a9 3d 49 39 0b 3e b8 54 89 ba
       -0.02531893 0.08290294 0.13596071 -0.0010477519
000160 40 e0 10 be 2f 5c 26 3e 58 07 fd bc ea a2 91 3d
       -0.14148045 0.16246103 -0.03088729 0.071111515
000170 b8 0c b6 bd e8 51 fe bd 95 7b ef bd ec 48 1d be
       -0.08889145 -0.12417966 -0.11693493 -0.15359849
000180 cd fb 08 be 07 ed 19 be 5f 31 00 bd 10 b8 ab bd
       -0.13377304 -0.15031825 -0.031297084 -0.083847165
000190 82 5a 15 be 99 cc c3 bd f2 1b aa 3d df d9 c5 bd
       -0.14585307 -0.09560508 0.083061114 -0.09660696
0001a0 7f 50 9c 3d 95 51 62 bd e3 c9 d9 bd 52 91 96 3d
       0.07632541 -0.055253584 -0.1063421 0.073519364
0001b0 9c 37 fc 3d 80 fe 1e 3e 83 49 3f 3e dd c2 ba 3d
       0.12315294 0.15526772 0.18680386 0.091191985
0001c0 f3 ea f8 bb 8a aa c1 3c 38 95 0a 3e 13 cd db 3d
       -0.0075963675 0.02364089 0.13533485 0.10732474
0001d0 a5 ed 79 bd 73 9b 65 bd e1 d7 96 3c 86 9b 17 be
       -0.06101765 -0.05605645 0.018413486 -0.14805421

encoder.model.bias_hh_l0 f4 [120]
000000 ef 5e 16 be 09 94 94 3d d4 a4 cd bd c4 dc 26 be
       -0.14684652 0.07254798 -0.10041204 -0.16295153
000010 f5 dc 31 be 04 84 ab bd 1b 16 12 be 26 2f ca 3d
       -0.17369445 -0.08374789 -0.14266245 0.09872274
000020 cf 16 9c 3d e5 41 fe bd 1d 76 02 3d c6 2d 4d 3d
       0.07621538 -0.12414912 0.031850923 0.05009248
000030 16 27 a8 3d dd e2 fc 3d 00 0c 9a bc 0d 97 69 bd
       0.0821058 0.12347958 -0.01880455 -0.05702882
000040 ba fc 13 3e 74 3e 82 bc 2d c3 8e bc a2 1d 28 3e
       0.14451876 -0.01589892 -0.017427051 0.16417554
000050 5e 52 ee 3d bb 9e 94 bd 7f 1a a0 bd 68 c3 c9 3d
       0.11636804 -0.07256838 -0.07817554 0.09851724
000060 fd d9 0f 3d 40 b6 ee 3c 51 86 08 3d e9 ff b9 bd
       0.03512 0.029139638 0.03333122 -0.09082014
000070 7d 6a 1e 3d 09 3d 2d 3e 2f a5 17 3e d1 44 ea 3d
       0.038675774 0.16917814 0.14809106 0.11438907
000080 c9 48 4f bd 45 06 24 3b d7 97 50 bd bb a1 3f 3e
       -0.050606523 0.002502815 -0.050926056 0.18714039
000090 74 a3 5b 3a 55 62 a5 bd a6 e9 24 3e 96 a4 02 3e
       0.00083785434 -0.08075396 0.16104755 0.12758097
0000a0 13 79 57 bb c1 cc 1a bd 99 ec 5c bd 8d 9b 05 3e
       -0.0032878562 -0.037792925 -0.053936575 0.13047619
0000b0 66 99 9a bc ef 7c d0 bd 60 af c0 3d 57 c0 73 bd
       -0.018871974 -0.10180079 0.0940845 -0.0595096
0000c0 59 71 cc 3c 63 d7 0c 3e 5f ee 8f 3d e4 2c ef bd
       0.024956392 0.13754039 0.070278876 -0.11678484
0000d0 42 89 a9 3d f0 a7 11 bd 93 41 23 3e a2 03 13 3e
       0.08278133 -0.03556055 0.15942983 0.14356855
0000e0 2c 26 29 be 83 5d 08 be b5 b7 5d bb d1 5b 13 3e
       -0.16518468 -0.13316922 -0.0033831422 0.14390494
0000f0 e4 f9 21 3e 07 53 19 3e 84 8f 02 bd 79 e5 3d bd
       0.15817982 0.14973079 -0.03187515 -0.04636142
000100 37 3e e6 bc 80 2c 2b 3e 34 70 96 3b 68 06 1e 3e
       -0.028105838 0.16716194 0.0045910124 0.15432131
000110 c3 10 2b be 42 8c ac 3d 86 f0 cb 3d 70 e1 9e bd
       -0.16705613 0.084251896 0.099579856 -0.077578425
000120 da 9a 0a be 23 9a 15 3e 21 48 25 be 36 ec a0 3d
       -0.13535634 0.1460958 -0.16140796 0.07857554
000130 d7 0e 88 bd ad de ce 3d 31 5d 07 3d a3 83 7f 3d
       -0.066434555 0.10101066 0.03304786 0.062381398
000140 ac c7 1f 3d ef ec cc 3d 46 42 0c be 49 e1 bb bd
       0.03900878 0.10006129 -0.13697156 -0.09173829
000150 06 5c 04 3e 1b a7 83 3c de 76 d2 3d e7 03 1f be
       0.12925729 0.016070893 0.10276578 -0.15528832
000160 67 51 62 bd 0a 46 27 be 51 20 ab 3d 66 3e 92 bd
       -0.055253413 -0.16335312 0.08355773 -0.07140808
000170 10 0f 34 bd 52 ba 3e be 05 4d ba 3d 91 bf 6d 3d
       -0.043959677 -0.18625763 0.090967216 0.05804402
000180 68 99 1d bd bd bf 2f 3e e0 92 d7 3d bd a0 8b 3d
       -0.038476378 0.17162986 0.10526061 0.06817768
000190 7d 92 0f 3e d5 92 a5 bd aa 30 fc bc 74 72 29 be
       0.14020725 -0.080846466 -0.030784924 -0.16547567
0001a0 5a d2 88 bd a9 9b 3f 3d 43 53 c8 bd 17 d2 e2 bc
       -0.066807464 0.04677931 -0.09781506 -0.02768807
0001b0 c9 0d 2f 3e 05 42 a3 3d 50 ce db bd 5d d8 ac 3c
       0.17095102 0.079715766 -0.1073271 0.021099264
0001c0 fe 21 13 3d 9a 43 a1 3c 89 a5 80 bd b0 03 12 3c
       0.03592109 0.019685555 -0.06281573 0.008912012
0001d0 58 8c 1b be 60 e5 d2 3d 7c 58 d1 ba cc 47 38 be
       -0.15190256 0.10297656 -0.0015971805 -0.17996138

encoder.model.weight_ih_l1 f4 [120, 30]
000000 7f d8 17 be ff b6 54 bd ed a4 a9 3d 93 87 50 3c
       -0.1482868 -0.05193233 0.0828341 0.012727636
000010 34 33 51 bd 32 d9 3b 3e aa 54 13 be 5e 47 08 be
       -0.05107422 0.18344572 -0.14387766 -0.13308474
000020 b1 2b 8f 3c 01 44 c9 3d ce e3 e6 bc 7b 13 df bb
       0.017476888 0.09827424 -0.028184798 -0.006807742
000030 da 8f 43 bd 59 fb f7 3d 1f 61 09 3e cc 65 12 3e
       -0.04774461 0.12108488 0.13415955 0.14296645
000040 56 b4 11 be 1c 34 3e 3d 0a 3b 11 3e e9 4d 11 3d
       -0.14228949 0.046436414 0.14182678 0.03547469
000050 1a d5 b3 bd 47 33 12 3c 6d 2d 90 3a cf 4b 2d 3d
       -0.0878088 0.008923358 0.0010999866 0.042308625
000060 73 0e e9 bd 9f 4e d9 bd b0 d0 3d 3e 8d 30 78 bd
       -0.11379709 -0.10610699 0.18536639 -0.060593177
000070 12 13 9b 3d cb 2f e8 bd f3 66 16 3e 13 65 00 3d
       0.07571997 -0.11337241 0.1468771 0.031346392
000080 ad 14 86 3d 09 fe c9 3d d2 d3 4e bd 33 e6 14 bd
       0.06546912 0.098629065 -0.050494976 -0.036352348
000090 d9 67 4c 3d 86 87 ee 3d 72 3f e2 3d 66 3e 12 bd
       0.049903724 0.11646943 0.110472575 -0.03570404
0000a0 cd 45 52 3d 98 76 0e 3d c2 94 10 be a8 2a 19 3e
       0.0513361 0.03478107 -0.14119247 0.14957678
0000b0 db a1 8f 3c 84 07 ce 3d 28 71 27 3d e1 1e 0b bd
       0.017533233 0.10060027 0.0408794 -0.033964995
0000c0 a6 2d e1 bd 36 6c c3 3d 22 8d 17 3c 57 4a fd bc
       -0.10995035 0.09542124 0.009249957 -0.030919237
0000d0 09 e5 99 3c 0e 8a 18 3e cb aa d5 3d 0b e2 72 3d
       0.01878597 0.14896414 0.10432967 0.059297603
0000e0 fa fb 04 3e 9e 0f f1 3d 7b 8d 91 3d 44 98 48 bd
       0.12986746 0.11770557 0.071070634 -0.048973337
0000f0 fc 84 1e 3e df 1d cc 3d 31 5c ea 3c 10 c1 a8 3d
       0.15480417 0.09966635 0.028608413 0.08239949
000100 18 f7 fd 3c f0 7b 2f be 50 94 18 3e 96 1c 36 be
       0.031001613 -0.17137122 0.14900327 -0.17784342
000110 54 13 21 3e 41 79 ef bc 0a a6 28 3e 8d 57 51 bc
       0.1573003 -0.029232623 0.16469589 -0.012777221
000120 f8 04 33 3e 57 55 0f 3e 5b a8 b8 3d 9f c4 2c be
       0.17482364 0.13997398 0.09016486 -0.1687188
000130 6f ce 03 3e 59 50 83 3d 62 ad 0f be bd 03 67 bd
       0.12871717 0.064118095 -0.14030984 -0.05640005
000140 f6 5b 03 3e 46 e8 b4 bd 04 63 22 be b0 f2 c8 3d
       0.12828049 -0.08833365 -0.15858084 0.09811914
000150 fe dd c2 3d e0 22 35 3e 16 26 81 3b b3 e0 76 bd
       0.09514998 0.17689085 0.003941308 -0.060272884
000160 ed 59 43 bd 5d 28 05 3e f4 5e 3d 3d c2 83 7a 3d
       -0.04769318 0.13003679 0.046233132 0.06116081
000170 ee ec 32 3d 8c 63 e7 bd 8f c1 60 bd b1 0e 61 3b
       0.043682985 -0.11298284 -0.05487209 0.0034341032
000180 39 30 87 3c b8 7b bd 3d a0 61 11 3e 59 91 bf bd
       0.016502487 0.09252113 0.14197397 -0.09353895
000190 0e a0 2c 3e e6 31 19 be 7f a7 3c 3d 73 83 e7 bd
       0.16857931 -0.14960441 0.046058174 -0.11304369
0001a0 83 68 91 bd c9 9d bb bd 41 66 22 3e a9 7e 92 3d
       -0.07100012 -0.091609545 0.1585932 0.07153065
0001b0 a4 90 85 3c 92 58 10 be 95 8b 80 3d 67 d7 dc bd
       0.016304322 -0.14096287 0.06276623 -0.10783272
0001c0 e3 ba 3b be 52 b8 0d 3c 51 15 b2 3d 86 0b 02 3d
       -0.1833301 0.008649902 0.08695472 0.03174927
0001d0 d4 48 d7 bb 97 55 04 3e df f8 9c 3b c3 af 65 bc
       -0.006569961 0.12923275 0.00479041 -0.014018956
0001e0 14 db cc bd 2a 4e 64 3b 39 63 75 bd 07 32 b5 bd
       -0.10002723 0.0034836628 -0.05990908 -0.088474326
0001f0 df 4b 10 3e a4 11 79 3d a0 23 19 3e 12 35 13 bd
       0.14091443 0.06080784 0.14954996 -0.035939284
000200 d0 02 8d 3d 64 16 b7 bd c6 e9 0a 3e 95 7a 42 bd
       0.06885302 -0.089398175 0.1356574 -0.047480185
000210 d6 db 4e bd 4f 8b c8 bd 98 ff c8 3d 69 a9 23 3e
       -0.05050262 -0.09792196 0.09814376 0.15982594
000220 bd b8 39 be aa 78 0e 3d 5b a7 a4 3b ab 05 39 bd
       -0.18136878 0.034783043 0.005024833 -0.04517142
000230 5d be ab 3d e3 be 3c 3e f0 9c 50 3d c4 81 ab 3d
       0.08385918 0.18432193 0.050930917 0.0837436
000240 e5 3a 84 bd 83 f7 cc 3d 91 c3 09 3d 58 13 a0 bd
       -0.06456546 0.100081466 0.033633772 -0.078161895
000250 d3 16 1e 3e 83 0a fd 3d 59 3a f8 3d 9c dd 69 3d
       0.15438394 0.123555206 0.12120504 0.05709611
000260 93 fc cc bd ae 95 0c bd f2 cc 8b 3d 1f 87 1e 3e
       -0.10009112 -0.034322433 0.068261996 0.15481232
000270 c0 37 b6 3d af 8e 6b 3c 82 44 fe bd b9 6b 81 bc
       0.08897352 0.01437728 -0.124154106 -0.015798436
000280 9a 6f c8 bd 53 45 7c 3d 47 c1 71 3d c1 c6 15 bd
       -0.09786911 0.06158955 0.059022214 -0.0365665
000290 d3 c6 d5 bd e7 e0 b9 3c 84 4f 03 be 31 3b 08 3c
       -0.10438313 0.02269025 -0.12823302 0.008314894
0002a0 13 84 10 ba f8 f4 fc 3d 2a 49 27 3e 83 62 d0 3c
       -0.00055128447 0.123514116 0.16336504 0.025437599
0002b0 4c e8 25 be 85 66 27 3d b9 2a 21 3e 41 54 2d 3e
       -0.16201895 0.040869255 0.15738954 0.16926672
0002c0 6c 0f c6 3d 8c 62 34 be a5 c6 c7 3d 99 51 af 3d
       0.0967091 -0.17615718 0.09754685 0.085604854
0002d0 0d 12 bb 3c 4a 60 d7 bd 4d dc dc 3d 6b 79 f4 bd
       0.022835756 -0.105164126 0.107842065 -0.11937221
0002e0 7f f6 1f be 1d c4 80 bc 57 29 20 3e 41 22 4e bd
       -0.15621375 -0.015718514 0.1564077 -0.050325636
0002f0 5b 53 e2 bd eb b4 41 bd 92 91 23 3d 91 9a 07 3e
       -0.11051055 -0.047291677 0.03993375 0.13242556
000300 7b fd b7 bd 5c 81 b0 3c a4 2e 92 bd ac 87 ed 3d
       -0.089838944 0.021546058 -0.07137802 0.11598143
000310 69 d0 86 3d 40 5a 08 be 85 43 b3 3b f6 f6 09 3e
       0.0658272 -0.13315678 0.0054706954 0.13473114
000320 6b 10 db 3c ae 16 4d bd 94 63 05 3e b5 69 9c 3d
       0.026741227 -0.050070457 0.13026267 0.076373495
000330 c1 05 06 bd 50 03 f4 3d 8d ae f8 bc ef 24 7a bd
       -0.03272033 0.11914694 -0.03035667 -0.06107038
000340 86 72 c3 bd a9 55 93 3d 7f 07 06 3d 47 3e aa bd
       -0.09543328 0.07194073 0.032721993 -0.0831266
000350 9b e8 f9 3d 2f 70 43 bd ee 1f 7d bd c0 ed dd bd
       0.12202569 -0.04771441 -0.06179803 -0.10836363
000360 0a 94 98 bd 80 ce 11 3e 9d 5d 0a be 3d 68 60 3d
       -0.07450111 0.1423893 -0.13512273 0.05478691
000370 8d cc 75 bd 1d 42 d2 3d cc 87 07 3e 85 31 56 bd
       -0.060009528 0.10266516 0.13235396 -0.05229332
000380 8a 55 e5 bb fb b6 bd 3d 49 4e 37 3e 01 a9 0f be
       -0.0069987224 0.092634164 0.17900957 -0.14029314
000390 76 92 dd bc cb c9 b9 3d 2b 45 05 be 31 92 b6 bd
       -0.027047377 0.09071692 -0.13014667 -0.089146025
0003a0 8a da 95 3d ea f0 e7 bd 95 1a 20 3e 04 cf 54 bc
       0.07317074 -0.113252476 0.1563514 -0.0129888095
0003b0 ff 75 2d bd 4a fd f2 3d 61 eb 1a be 95 78 74 3c
       -0.042348858 0.11864717 -0.15128852 0.014921327
0003c0 33 59 2d be 4b 5e b3 bd 56 80 29 3e 23 b4 cb bd
       -0.16928558 -0.08758219 0.16552863 -0.09946468
0003d0 45 19 a1 3d 01 41 f1 bb 35 ac 29 be d6 c6 16 be
       0.07866148 -0.0073624854 -0.16569598 -0.14724287
0003e0 8b 5d 14 bd 62 39 58 3d 7d 20 25 bd 16 40 ae bd
       -0.036222022 0.0527891 -0.040314186 -0.08508317
0003f0 e3 be d6 3d 44 c8 96 bd c3 6d 14 bd f2 d8 80 3d
       0.104856275 -0.073624164 -0.03623749 0.06291379

encoder.model.weight_hh_l1 f4 [120, 30]
000000 55 72 bb bd 70 47 01 bd 38 d0 a6 bd 69 1b 13 bd
       -0.091526665 -0.03156227 -0.08145183 -0.035914812
000010 17 6f 15 be 82 7c d0 bc 77 a3 2a be 4a 48 e2 bd
       -0.14593159 -0.025449995 -0.1666392 -0.11048944
000020 8e 7f 8c 3d ce 1d 03 be 9f 32 a8 bd e8 67 dd 3d
       0.068602666 -0.12804338 -0.0821278 0.10810834
000030 01 2a 06 be f9 0a 74 3d fb 2b 26 3e 7c 2d 5a bc
       -0.1310196 0.059580777 0.16227715 -0.013316508
000040 4e b7 fc bd cf 52 1d 3e 46 70 7e bc 06 b5 24 3e
       -0.1233965 0.1536362 -0.015529698 0.1608468
000050 2c c5 22 3e 7b 42 87 bd e9 c1 f3 bc c4 ae 2c 3c
       0.15895528 -0.06604477 -0.02975555 0.010539714
000060 8a ac 3c be 79 36 0c bd 07 5b 95 3d 9c 98 b0 bd
       -0.18425193 -0.034231637 0.07292753 -0.08622858
000070 40 85 f3 3d b4 b5 d9 3d cf e8 d5 bb 27 98 82 bd
       0.1189065 0.1063036 -0.006527997 -0.06376677
000080 e5 bd 07 be 7c eb f0 3d d9 87 26 be 47 38 18 3e
       -0.13256033 0.11763665 -0.1626276 0.14865218
000090 21 03 49 3d 09 3c 0d be 53 8c a4 bd bb ec 02 be
       0.04907525 -0.13792433 -0.08034577 -0.12785618
0000a0 36 8f 4d bd 08 35 27 be b0 e6 12 3e 5f 5e b6 3b
       -0.050185405 -0.16328824 0.14345813 0.005565449
0000b0 3b b8 01 be d6 34 88 3d 94 c1 35 be 7c 96 26 3d
       -0.12667935 0.06650703 -0.17749625 0.040670857
0000c0 10 30 1f 3e 7f 0e e1 bd 52 ad 22 3e 35 92 25 3d
       0.15545678 -0.10989093 0.15886429 0.040422637
0000d0 b6 0f 89 bd fe eb 3d 3e 56 61 09 bc e7 b0 c9 bd
       -0.0669245 0.18547055 -0.008385023 -0.098481946
0000e0 11 bc f9 bd d0 60 cc 3d 59 7b 1c bd 0b ae cc bc
       -0.12194074 0.09979403 -0.03820357 -0.024985334
0000f0 e9 5c a5 bd b9 e2 a5 3d a2 90 08 be ba ce 2e 3e
       -0.08074362 0.080998845 -0.13336423 0.17071047
000100 d5 ab 25 bd 36 0f d3 3b 5a 74 06 3d 27 fb 2f be
       -0.040447075 0.0064410223 0.032825805 -0.17185651
000110 c6 ba 30 3e e7 47 40 3e 7e 7b 1e be 07 d2 cf 3c
       0.17258748 0.18777429 -0.15476796 0.025368704
000120 d8 2f ca 3c 36 c5 16 3e ec 55 81 bc 11 c1 25 be
       0.024681017 0.14723668 -0.015788041 -0.1618693
000130 24 5f b6 3d 5f 59 17 3e 4e 67 2c 3e eb cb f7 3d
       0.089048654 0.14780186 0.16836283 0.12099441
000140 d7 17 3f bc 48 f6 be 3d e3 88 b1 bd 4e 99 95 3c
       -0.011663399 0.09324318 -0.08668687 0.018261578
000150 e8 53 27 3e a7 85 ee bd 6d ba c1 bd cf a3 97 3d
       0.16340601 -0.11646586 -0.09459386 0.07404291
000160 c3 57 00 3d e3 ec eb 3d 64 cb d0 3a de 15 aa 3c
       0.031333696 0.11519792 0.0015929756 0.02076238
000170 c4 77 45 bd f1 ed 00 3e f6 ce 0e be 72 ae 35 bc
       -0.04820992 0.12590767 -0.13946137 -0.011088954
000180 08 f1 ef bd ed 1e 2d 3e 1e 8f 29 3e e3 99 25 3e
       -0.11715895 0.16906328 0.16558501 0.16171984
000190 36 5b 16 be 1b 3c 1d 3e e6 42 08 3e 37 ae 21 3e
       -0.14683232 0.1535496 0.1330677 0.15789114
0001a0 f6 1c 81 3d b9 21 af bc da bd c7 3d 20 c4 b0 3d
       0.06304352 -0.021378385 0.09753008 0.08631158
0001b0 e8 2c 2d bc 31 d6 f9 3d 06 0c 91 3d ff b8 9f bd
       -0.0105697885 0.12199057 0.070823714 -0.07798957
0001c0 91 62 13 be 28 59 73 bd f0 98 a4 bd b9 4f 05 be
       -0.14393069 -0.059411198 -0.08036983 -0.13018693
0001d0 9a 79 22 3e de 3a 11 3e c9 0f 1f be 5c 5b 8c bd
       0.158667 0.14182612 -0.15533365 -0.06853363
0001e0 d7 a8 c8 3d b3 d0 b8 bd bd 04 13 bc 61 da c8 3d
       0.09797829 -0.09024181 -0.008973298 0.098072775
0001f0 84 69 e7 3d 96 20 1a bd 0a 99 00 be 18 82 20 be
       0.112994224 -0.037628733 -0.1255838 -0.15674627
000200 53 cc 87 bc 11 b8 1f 3d 96 30 4a 3c 87 e6 7a 3d
       -0.016576922 0.0389939 0.012340685 0.061255004
000210 8d e1 5a 3d ab 36 a5 bd 04 57 87 3d a0 9f ac bd
       0.05343776 -0.08067068 0.06608394 -0.084288836
000220 d5 4e cb bd a3 dd ba bd ea b7 2b bc 03 a7 15 bd
       -0.099271454 -0.09124305 -0.01048086 -0.036536228
000230 c9 98 2d bd e5 0e 35 bd 51 70 f7 bd 42 71 14 3d
       -0.042382035 -0.044203658 -0.120819695 0.036240824
000240 25 85 0f 3d 77 48 9b 3d 76 2a 3d be 50 39 38 be
       0.035039086 0.07582181 -0.18473229 -0.17990613
000250 db 71 00 3e ce ed 35 3e 64 d0 19 3e cc 7d 3c 3d
       0.12543432 0.17766497 0.15020901 0.046018407
000260 9f 04 2b bd 5c aa 41 3d 34 af 45 bd b8 b8 7d 3d
       -0.041752454 0.047281608 -0.04826279 0.06194374
000270 36 23 95 bc 8b 8f 3c bd 08 f3 08 bb 36 45 09 3e
       -0.018205266 -0.04603533 -0.002089681 0.13405308
000280 fb e1 c8 3d 7d b9 11 3e 04 2a bb 3d cb 7b 26 3e
       0.09808727 0.14230914 0.09138873 0.16258161
000290 86 47 1b 3e f9 26 71 bd 2c 95 09 3e ee 6c 2e be
       0.15164003 -0.058875058 0.13435811 -0.17033741
0002a0 14 11 20 be 71 25 0d bc ac 3e 36 be d6 71 bb 3d
       -0.15631515 -0.008614884 -0.17797345 0.09152572
0002b0 55 48 23 bc cf c0 8d bb 09 69 13 be 16 a1 36 3b
       -0.009965976 -0.004325963 -0.14395536 0.002786701
0002c0 3e 31 2e 3e 75 2e 29 be 7f b6 e0 bc d4 c4 91 bd
       0.17010972 -0.16521628 -0.02743077 -0.0711762
0002d0 c3 e5 dc bd d5 14 27 3e 2a c0 7a 3d 81 69 98 3d
       -0.10786011 0.1631654 0.06121842 0.07441998
0002e0 be d5 e0 bd cf eb 41 3e 41 bc a6 bd ba 08 07 bd
       -0.10978268 0.1893761 -0.08141375 -0.032967307
0002f0 37 ca 20 3e 1f 58 02 be 4c 17 14 3d 5f b6 be bc
       0.15702139 -0.12728928 0.03615503 -0.02328032
000300 eb d4 32 be e8 1e bc bd fd ed ae bc a2 22 a1 3a
       -0.17464034 -0.091855824 -0.021353716 0.0012293647
000310 8f bf 9f bd c7 98 5e bd 5f d4 82 3d 4e 19 0b 3d
       -0.07800209 -0.05434492 0.06388163 0.03395968
000320 90 6b f1 bd 57 f0 bf 3d ef fc f1 3d 2f 25 30 bd
       -0.11788094 0.09372013 0.118158214 -0.04300421
000330 00 0d 58 3d 78 f6 17 3e cc f2 23 3e fc 8b 9d 3d
       0.052746773 0.14840114 0.16010588 0.076927155
000340 df cc 13 3e d0 49 d0 3d 92 79 21 3e a6 c5 12 bd
       0.14433621 0.101703286 0.15769032 -0.035833023
000350 ce a4 0d bd a3 62 02 3d b0 fd 19 be 05 f4 01 3c
       -0.034580998 0.03183235 -0.1503818 0.007931714
000360 32 d8 cb bd 15 72 b7 3d 16 5b a0 3d e0 ba 27 3e
       -0.09953345 0.08957306 0.07829873 0.16379881
000370 fd a9 12 be 4d a2 49 bd 4a 30 dd bd 4b cf 7d bd
       -0.14322658 -0.049227048 -0.10800226 -0.061965268
000380 05 77 97 bc db 36 e7 3d e5 0b 26 bc fb d6 32 3e
       -0.01848937 0.1128976 -0.010134672 0.17464821
000390 22 54 00 3e fe 2b 46 3c 9a 7a 1c be 82 cf 0b be
       0.12532094 0.0120954495 -0.15281144 -0.13653377
0003a0 5c 0d 41 3c 51 6c e6 3d 64 5d 03 3e 6b bb 3e 3e
       0.01178297 0.112511285 0.12828594 0.18626182
0003b0 d0 1f 2f be 30 a0 d9 bb 9a 73 1b 3d 93 a0 58 3d
       -0.1710198 -0.0066414103 0.037952043 0.05288751
0003c0 09 32 a2 3d 45 f4 ed bc 8d 9e 09 3e 9d 9a 66 bd
       0.079197 -0.02904714 0.13439389 -0.056299794
0003d0 61 8e e3 3d f7 fe 13 bd 73 d3 da bd 2c 96 dc bd
       0.11111141 -0.036131825 -0.10684862 -0.107708305
0003e0 86 01 b1 bc a7 92 c6 3d 76 1d da bd 9c bf 76 3d
       -0.021607172 0.096959405 -0.106501505 0.060241327
0003f0 51 63 51 3d 10 34 28 3b 48 4b ec bb 7a 5a 75 3c
       0.051120106 0.0025665797 -0.0072111227 0.014975185

encoder.model.bias_ih_l1 f4 [120]
000000 69 a7 07 be a7 6a 3a 3e 78 e0 03 3e 41 16 0e be
       -0.13247456 0.18204747 0.12878597 -0.13875677
000010 29 bf 16 3e bf 99 d8 3d ec 05 19 bd ce 6b 12 3e
       0.1472136 0.105762 -0.037359163 0.14298937
000020 9a 5e d6 bd 40 6b e9 bc 85 9d a1 bc 80 ea 3e 3e
       -0.104672626 -0.028493524 -0.019728431 0.18644142
000030 7d 9d 12 be 09 00 9d bd ae 06 14 be ce 00 67 3d
       -0.1431789 -0.07666022 -0.14455673 0.05639725
000040 a2 6f e2 3d 3a b9 ad 3d 81 9b 28 3e 88 c6 c7 bc
       0.110564485 0.08482595 0.1646557 -0.02438666
000050 b5 ff a9 bc 11 3f 2a 3e bb 05 e2 3c 33 50 ab 3d
       -0.020751813 0.1662562 0.027590623 0.08364906
000060 74 36 e0 3d 19 08 13 be 46 1e be bc 98 08 de 3d
       0.10947886 -0.14358558 -0.023207795 0.10841483
000070 92 b2 0b be 35 bb f4 bd 42 61 3f 3e f4 67 f1 bd
       -0.13642338 -0.119497694 0.18689445 -0.117874056
000080 54 25 34 3e 7d 7f 06 3e 77 11 a5 bd f2 69 f1 bc
       0.17592365 0.1313457 -0.08059972 -0.029469464
000090 91 c7 1e 3e 71 ae 91 bd 2d 5a 44 3e 80 94 75 3c
       0.15505816 -0.0711335 0.19175024 0.014989018
0000a0 42 9c d9 bd 5b 79 47 3c 5d 86 a6 bd bd cd df bd
       -0.10625507 0.0121749295 -0.081310965 -0.10927913
0000b0 92 4b 0e bd ed fd e1 3b b5 a6 f1 bd b1 7e c2 3d
       -0.03474004 0.0068967254 -0.11799375 0.09496821
0000c0 b6 c7 c1 3d b5 7d a7 bd 9c 1a f6 bd 97 b4 2b be
       0.0946192 -0.081782736 -0.12016794 -0.16768108
0000d0 78 3e 2f 3e 15 ba 68 bd 2d 0a 17 3e 40 49 0a 3e
       0.17113674 -0.056818087 0.14749976 0.13504505
0000e0 8e 3d e1 bc 0a c9 c9 bd 93 dd 30 be ec f6 92 3d
       -0.027495172 -0.09852798 -0.17272024 0.07176003
0000f0 13 fb 39 be 0a f6 65 bc b0 0a 89 bd 5f 4f b7 bd
       -0.18162183 -0.014035711 -0.066914916 -0.08950686
000100 f4 2d fe 3c ff 33 31 be 77 e0 1e 3e 4d c0 a6 3d
       0.031027772 -0.17304991 0.15515314 0.08142147
000110 7f 62 28 3e c7 09 df bd 65 ab ca 3d 7a de f6 3b
       0.16443823 -0.10890537 0.09895972 0.0075338455
000120 63 40 f2 bc 5d 27 01 3e 80 6e c4 bc 7b a3 02 bc
       -0.029571718 0.12612672 -0.023978472 -0.007973547
000130 38 cd 82 3d 3f a4 53 3b 8e c5 0d be f3 18 fc bd
       0.063867986 0.0032293943 -0.13844892 -0.12309446
000140 a7 bc 55 bd 11 cf 9c 3d 97 4b 3a 3e 86 02 31 3e
       -0.052181866 0.07656682 0.18192898 0.17286119
000150 d0 bd 27 be f7 cf 15 bd 50 70 a6 3d 41 e7 8c bd
       -0.16381001 -0.036575284 0.08126891 -0.06880046
000160 c4 a0 ba 3d 65 d5 a6 39 f3 92 99 3d 94 9e 9a bd
       0.09112695 0.0003182098 0.074987315 -0.075497776
000170 e6 af ce 3d d2 fd 91 3c 84 bc 7d bd 98 48 38 3e
       0.10092144 0.017821226 -0.06194736 0.17996442
000180 46 84 39 be c8 81 06 3c f9 03 2d 3d 3b 30 0b 3e
       -0.18116865 0.008209653 0.042240117 0.13592617
000190 ff 0d f2 bd e1 27 75 3d 78 4a 2a be 54 f5 39 be
       -0.11819076 0.059852485 -0.1662997 -0.18159992
0001a0 6f c8 1d 3d 87 47 79 3d c0 a0 1c bc 8a 4d 18 3e
       0.038521226 0.06085923 -0.00955981 0.14873329
0001b0 a0 db 1d bd f0 a0 ec bd e0 5c f0 3d 20 b2 2f be
       -0.03853953 -0.11554134 0.117364645 -0.17157793
0001c0 af 49 42 3e b2 39 26 bd 2a 5f 48 3d 29 82 0a be
       0.1897342 -0.040582366 0.04891888 -0.13526215
0001d0 c5 b9 27 3e 2d c8 0b 3e 8e 73 86 3d 34 18 8b bd
       0.16379459 0.1365058 0.06565009 -0.06791726

encoder.model.bias_hh_l1 f4 [120]
000000 8f 40 84 3d c6 4b c9 bd 39 03 b7 3d 9e 2f 67 bd
       0.06457626 -0.09828906 0.089361615 -0.056441896
000010 b7 01 0d bd 53 3b b5 bd ea 71 ea 3a 07 55 8f 3d
       -0.034425464 -0.08849206 0.0017886732 0.069986396
000020 83 ba dd 3d 23 dd 90 3d a7 91 28 3e 8e 9c 80 bd
       0.1082659 0.070734285 0.16461812 -0.062798604
000030 11 1e d9 3d db e8 8a bc b1 c5 81 3d c9 c6 ab bc
       0.10601438 -0.016956737 0.06336535 -0.020968812
000040 da d6 a7 bd 51 53 0d bd 21 e6 80 3d f2 a5 1d be
       -0.081952766 -0.034503285 0.062938936 -0.15395334
000050 21 ac 67 3c 8b ec 6a bb 05 67 79 3c cb 5d 19 3e
       0.01414016 -0.0035846557 0.015222316 0.14977185
000060 d5 e3 83 3d 78 a3 12 be 82 85 47 3d 33 53 e8 3c
       0.0643994 -0.14320171 0.048711307 0.028359985
000070 ab bd 03 3e 8d 22 91 bd 9b 49 02 3e fd 2e 98 3d
       0.12865321 -0.07086668 0.12723391 0.07430837
000080 c4 1e a4 bc 9e c4 ef bd a1 c2 b9 bd 70 8c f6 3d
       -0.020034201 -0.117074236 -0.09070326 0.12038505
000090 73 ce e2 bc 93 81 cf 3d e9 61 05 3e 96 22 2f bd
       -0.027686333 0.10132136 0.13025631 -0.042757593
0000a0 d4 19 39 3d cc da 32 3d 3e cd 2c 3d 13 57 08 3e
       0.045190647 0.043665692 0.04218792 0.13314466
0000b0 32 72 83 bb 82 01 21 be 85 90 42 3e 59 ff e8 3d
       -0.004011416 -0.15723231 0.19000442 0.11376829
0000c0 78 eb dc 3d 69 99 2f be 35 d2 e4 bd 0a a0 2b be
       0.107870996 -0.17148365 -0.11172906 -0.16760269
0000d0 50 b8 f9 bc 84 43 1b 3e 3f 13 70 bc ae 64 1f 3e
       -0.030483395 0.15162474 -0.014653026 0.1556575
0000e0 e8 68 16 3e 6f b1 82 bc 35 ac 1a be 04 a0 17 3e
       0.14688456 -0.015953748 -0.15104754 0.14807135
0000f0 0f 06 73 3d 7e 03 23 be 3a 61 91 3d 9b bf f1 3d
       0.05933195 -0.15919301 0.070986226 0.11804124
000100 4a 04 df bc 52 c6 f9 3d c0 12 ed 3a 5a 74 02 bc
       -0.027223725 0.1219603 0.0018087253 -0.007962311
000110 16 f5 4f 3d a1 4e 21 3e 8d 35 19 be 02 4f 74 bd
       0.05077084 0.15752651 -0.14961834 -0.05964566
000120 ce 05 0b 3d a3 70 02 be 4c b8 ba 3d f4 2c 37 be
       0.033941083 -0.1273828 0.09117183 -0.17888242
000130 30 4c c4 bd ea 64 fa bd 5d 07 8b bd dc ac 2b be
       -0.09584844 -0.12226279 -0.06788514 -0.1676516
000140 a7 35 02 be 6f 8a ef bd bd ce 07 be 62 16 81 3d
       -0.12715779 -0.11696326 -0.13262458 0.06303097
000150 30 9d 02 be 2b b5 bb 3d 79 44 f0 bd 3c 66 e8 3d
       -0.12755275 0.091654144 -0.1173181 0.11347625
000160 b1 8c 40 3e 8f c3 4c 3d 76 e4 f2 bd ad 51 7a 3d
       0.1880367 0.049991187 -0.11859982 0.06111305
000170 b9 cb 5d bd c1 e6 3c 3e bf 86 cb bd a7 36 c3 3d
       -0.054149363 0.184474 -0.0993781 0.095319085
000180 a3 5b 8a 3d 54 5d 39 be 04 3e 1a be 39 06 f7 bd
       0.067557596 -0.18102008 -0.1506272 -0.12061734
000190 99 a7 04 3e 04 92 f8 bd 5a d3 31 3e fc a1 2c 3e
       0.12954558 -0.12137225 0.1736578 0.16858667
0001a0 c0 8f 3f bd 78 61 27 3e 6c 76 22 be c7 47 d5 bc
       -0.04676795 0.16345775 -0.15865487 -0.026035203
0001b0 68 a6 9d bd 43 38 5f bc 64 fa ee ba 01 66 2a bd
       -0.07697755 -0.013624254 -0.0018232581 -0.041601185
0001c0 23 42 c8 3d d0 fc a2 3d d6 9d 0a be fd 96 ef 3c
       0.097782396 0.079583764 -0.13536772 0.029246802
0001d0 9d ba 0f 3e 11 24 fa 3d 34 2b ae bd b7 e1 23 be
       0.14036031 0.1221391 -0.08504334 -0.16004072

variational_latent.hidden_to_mu.weight f4 [15, 30]
000000 c7 c7 f8 3d 49 33 fd 3d 62 aa 41 be f7 1a 8b 3e
       0.121474795 0.123632975 -0.18912652 0.2716901
000010 36 0b 4a 3d 4c f9 6b 3d 55 d1 44 be 06 19 8b be
       0.049327098 0.057610795 -0.19220479 -0.2716753
000020 6f 12 88 be 67 bc 9e 3e 76 77 36 3e e4 a6 3c be
       -0.26576564 0.31003115 0.17819008 -0.18423039
000030 a4 99 76 3e 9e 68 ea 3c 96 6b 0b bc 2f da 88 3e
       0.24082047 0.028614338 -0.008509537 0.2672896
000040 7f 85 1d 3e e8 5d ae 3e 42 ff 0d 3d 6e 42 d4 bd
       0.15382956 0.3405602 0.03466726 -0.10364233
000050 a0 67 a7 be 26 61 a0 bd 22 3e a2 3d 97 c8 ba 3e
       -0.32696247 -0.078310296 0.07922007 0.36481163
000060 c5 e6 98 bd 3e 80 45 be c7 5b 12 3e e1 34 e1 bc
       -0.07465891 -0.19287202 0.14292823 -0.027491035
000070 c4 ea 88 3d c5 2d 86 3e df 55 79 be 96 93 46 be
       0.06685403 0.26206794 -0.24349163 -0.19392237
000080 20 98 85 3e 4c 4b ab 3e 33 91 b7 bd 7f 9c c9 bd
       0.26092625 0.33455884 -0.089632414 -0.098443024
000090 4e da 24 be 3c 8a 0a 3d 2b 38 a9 3e ed 28 b5 bc
       -0.16098902 0.033823237 0.33050665 -0.022114241
0000a0 1a 2b d8 3d 11 c4 61 be d2 59 22 be 2a 76 b0 3d
       0.10555096 -0.2204745 -0.15854576 0.08616288
0000b0 dd 43 ad be 22 ee 4a 3d ce a1 e8 3c 70 23 ea bd
       -0.33840838 0.049543507 0.028397467 -0.114325404
0000c0 79 58 81 be 69 9c 2d 3e 09 b1 a9 be 17 86 89 be
       -0.25262812 0.16954197 -0.3314288 -0.26860115
0000d0 4e d7 38 be af 28 92 3a 58 0f 8c be b9 f1 73 be
       -0.18050882 0.0011151041 -0.27355456 -0.23822679
0000e0 6f 58 3e 3d 2e 48 9c 3d ab 1e 97 3d de ea a2 be
       0.046471056 0.07630955 0.07378896 -0.31819814
0000f0 d0 c2 2f be a5 2c 81 3e 7e ed 46 3e 5e 49 55 3e
       -0.17164159 0.25229374 0.19426534 0.20828769
000100 ea 35 ae be 5d 1c 11 be 57 d7 f1 bc 68 03 07 3e
       -0.34025508 -0.14170976 -0.029521627 0.13184893
000110 cc 93 5e 3e 21 8b b4 3d 56 e1 66 be 4e b5 36 3e
       0.21736068 0.08815599 -0.22546896 0.178426
000120 05 bc a0 3d f3 ec ac 3e 1d 42 77 be d3 8c 58 3d
       0.07848362 0.33774528 -0.24146314 0.052868675
000130 66 23 8d bd 79 a7 b0 3e 84 e8 1d be 39 28 66 3d
       -0.06891517 0.34502771 -0.15420729 0.056190703
000140 90 ed ab bd d0 5d a4 3e 15 e9 8b be 31 20 6f bd
       -0.08394921 0.32102823 -0.27326265 -0.05838031
000150 31 81 36 be a6 41 51 be de 9c 55 3e 5f 9d 97 3d
       -0.1782272 -0.20435199 0.20860621 0.07403063
000160 da fc 3b 3e 18 7f 60 bc 13 22 af be f3 91 6f 3e
       0.18358174 -0.0137021765 -0.34205684 0.23395519
000170 93 f1 43 be 3b a8 62 3d f1 23 b3 be 87 80 94 3c
       -0.19135122 0.05533622 -0.3498836 0.018127693
000180 8c 74 89 be 9d 03 a5 3e e3 46 36 3e 61 e6 5c 3e
       -0.2684673 0.3222932 0.17800479 0.21572258
000190 7c 3e 89 be 93 84 42 be d8 0d d4 3d 0d 84 96 3d
       -0.26805484 -0.18995886 0.10354203 0.073494054
0001a0 da 1a 96 bd e5 55 33 3d aa 89 a6 bd e7 10 94 bc
       -0.0732934 0.043783087 -0.08131726 -0.018074466
0001b0 dd 61 1f be fc 97 aa be 3b 1b 70 be 9e 93 16 bd
       -0.15564676 -0.3331908 -0.23447888 -0.036761872
0001c0 10 8c 72 be 3c f0 36 3e 75 11 bb 3e fa ea d2 bb
       -0.23686242 0.1786508 0.36536756 -0.006436703
0001d0 12 1f b7 3e fe 53 ef bc c2 28 27 3d f3 8f 99 3e
       0.35765892 -0.029214855 0.040810354 0.29992637
0001e0 73 16 a6 be 7b f0 43 bd 48 86 9e 3e 8d 7b ac 3e
       -0.32439002 -0.047836762 0.30961823 0.33688012
0001f0 7f 9a 2d be 28 14 8f 3e a5 88 02 3e 0c 88 15 3e
       -0.16953467 0.27945065 0.12747438 0.14602679
000200 64 4f f8 bd 10 41 05 3e a9 6d 5a 3e a4 f1 89 3e
       -0.121245176 0.130131 0.21330895 0.2694217
000210 33 c2 0f be 44 ff 8d be b6 e5 12 be ec b6 f4 bd
       -0.14038925 -0.27733815 -0.1434544 -0.11948952
000220 2a 27 12 3e d9 59 ad 3d 29 67 7e 3e 05 40 b6 be
       0.14272752 0.08464403 0.2484404 -0.35595718
000230 d9 08 9f be 5f d0 bf 3d d0 e2 92 3e 55 71 b8 be
       -0.31061438 0.093659155 0.2868867 -0.36023965
000240 ff 80 ab be 3e 25 20 3e 2b a1 ab 3e d6 07 68 3e
       -0.33496854 0.15639207 0.335214 0.22659239
000250 c1 dd 68 3e fc 3b 9d bc b5 11 8d be cd 88 a3 be
       0.22740842 -0.019193642 -0.27552572 -0.31940308
000260 50 1f 96 be fa 47 a8 3e 93 d9 85 3e ed eb 09 bd
       -0.29320765 0.32867414 0.26142558 -0.033672262
000270 73 35 5c bd 96 0f 44 3e ab 39 10 3e 56 f4 54 be
       -0.05376191 0.1914657 0.14084499 -0.20796332
000280 cf 55 98 be 39 22 ac be 47 5a 38 3e 0d 4a e8 3a
       -0.29752967 -0.3361986 0.18003188 0.0017722264
000290 66 f0 92 be f9 07 02 be 09 ee 49 3c ac 1a 3b 3e
       -0.28699034 -0.12698354 0.012324818 0.18271893
0002a0 cd b0 14 be 65 fe 8e be b5 b8 7c 3d 20 f4 6f 3e
       -0.14520569 -0.27928463 0.061699588 0.2343297
0002b0 a4 a6 93 3e 1b 37 fa bd 07 86 5e 3e 38 6d 84 3e
       0.28838074 -0.12217542 0.21730815 0.25864577
0002c0 de ce 80 3e 4e a9 b7 be a6 dc 81 be da de 98 3d
       0.25157827 -0.35871357 -0.25363654 0.074643806
0002d0 51 2a 85 3e cd c2 30 be fc 64 8b 3e 9d 4b 62 be
       0.26008847 -0.1726181 0.27225482 -0.22099157
0002e0 bb 76 54 be 36 3e 82 be 2b 5d 85 bc 34 f6 b4 be
       -0.20748417 -0.25438088 -0.016279778 -0.35344088
0002f0 10 d6 60 3e 61 10 42 3d d7 f6 aa be cb eb bb be
       0.21956658 0.0473789 -0.3339145 -0.36703333
000300 16 97 8c 3e c5 ff f0 3d 18 47 01 be a0 36 8b be
       0.2745902 0.11767534 -0.12624776 -0.27190113
000310 ed a9 55 be 47 99 c5 bd 7a 78 07 be e9 87 a7 be
       -0.20865603 -0.09648376 -0.13229552 -0.3272088
000320 a4 3a 80 be 59 cc 85 3e f9 e8 60 3e 8c 81 77 be
       -0.2504474 0.26132467 0.21963872 -0.24170512
000330 bb d7 26 be 64 2c 8f 3e 5b 29 69 3d 1e f3 91 3c
       -0.16293232 0.27963555 0.056924205 0.017816123
000340 ac 6e a9 3e f3 cb ab 3e 06 0f 7f 3e 81 93 8e be
       0.33092248 0.33554038 0.24908075 -0.27846912
000350 ca c6 00 bd 2f 97 93 be 88 cf 09 3e 94 2b 74 3e
       -0.03143958 -0.2882628 0.13458073 0.23844749
000360 2c 48 94 3e ed eb 7a 3e d2 1f 83 3e cf 3a 29 bd
       0.28961313 0.24504061 0.25610214 -0.04131585
000370 f0 49 05 be c2 c2 f3 bd 39 8c b2 be 4d 68 40 3e
       -0.13016486 -0.119023815 -0.34872606 0.18789788
000380 8a f0 64 3e 18 ca 8d 3c 53 f5 62 3e f6 0d b7 3e
       0.22357383 0.01730828 0.22163896 0.3575284
000390 e9 16 40 3e d3 f7 2a 3e ed 82 d0 bd 04 ed e1 bd
       0.1875874 0.166961 -0.10181222 -0.11031535
0003a0 41 d8 b3 be 80 09 97 be 47 62 aa be 76 f8 82 3e
       -0.35125926 -0.29499435 -0.33278105 0.25580186
0003b0 33 49 78 3e 8c b4 aa 3e 32 28 80 3d 92 ca 0f 3e
       0.24246673 0.3334087 0.06257667 0.14042118
0003c0 a0 4a 94 be 76 a4 68 be a9 74 89 3d 30 20 5d bc
       -0.28963184 -0.22718987 0.06711704 -0.013496444
0003d0 7e 7d c0 3b c7 29 46 3e 83 5a 67 be a7 70 ad be
       0.005874335 0.19351874 -0.22593121 -0.3387501
0003e0 8a 33 50 be df 84 b6 bc b2 37 41 bb 39 4d 83 3d
       -0.2033216 -0.022280155 -0.002948266 0.064112134
0003f0 91 5d 99 bd be 0d 64 3d 03 4b 9d be d1 a9 aa 3e
       -0.074885495 0.055677168 -0.30721292 0.33332685

variational_latent.hidden_to_mu.bias f4 [15]
000000 54 85 1a be 30 e1 02 3e 4c 79 b3 bd 77 b7 b0 bd
       -0.15089923 0.12781215 -0.0876337 -0.08628743
000010 fb e1 0b bc 87 b5 86 3d 39 48 23 3e 82 15 a9 bc
       -0.008537765 0.06577592 0.1594552 -0.020640139
000020 09 b9 a3 3d 4c e0 ea 3d cb cd b0 3d 0b 19 ee 3d
       0.07994277 0.114685625 0.08633002 0.1162587
000030 d7 7b a0 3c 13 3c 7b 3d e9 10 06 3b
       0.019590301 0.061336588 0.0020456857
