models/20200923_212102/epoch_0200_loss_360453.68245.pt (torch, 857809 bytes, 96 tensors)

encoder.model.weight_ih_l0 f4 [256, 3]
0	0xbd1c92a3	-0.03822578
1	0x3d32a411	0.043613497
2	0xbd5f0d46	-0.054456018
3	0x3e03b476	0.12861809
4	0xbda7fdb6	-0.082026884
5	0x3d8990f2	0.06717099
6	0xbcab88c1	-0.020939233
7	0xbbb8f8c0	-0.0056448877
8	0x3e247ae1	0.160625
9	0x3c972b72	0.018453334
10	0x3e3cb622	0.18428853
11	0xbd7d2be9	-0.061809454
12	0x3d335492	0.043781824
13	0xbd3c18d1	-0.045922104
14	0x3dc71670	0.097210765
15	0x3e223a7f	0.15842627
16	0x3e8faae9	0.28060082
17	0x3d0db811	0.034599368
18	0xbe16d1fa	-0.14728537
19	0xbd83d5c1	-0.06437255
20	0xbd16adc5	-0.036786813
21	0x3c9e1c85	0.019300709
22	0x3ca761c0	0.020432353
23	0x3dc406a9	0.09571583
24	0xbda0b817	-0.07847612
25	0x3c81acda	0.015829492
26	0xbe2b8d6a	-0.16753164
27	0xbb93f0b9	-0.0045147804
28	0xbd9e3afb	-0.077260934
29	0x3d820989	0.06349475
30	0xbca3b5fc	-0.019984238
31	0x3dd03d16	0.10167901
32	0x3e5c58b0	0.21518207
33	0xbbaf3b27	-0.0053476277
34	0xbd1314c6	-0.035908483
35	0xbe15d75a	-0.14632931
36	0x3c88cc61	0.016699018
37	0xbdaa4a84	-0.08314994
38	0xbd3e1372	-0.046405263
39	0xbb6115e5	-0.0034345326
40	0xbe206bd2	-0.1566613
41	0xbdd1503f	-0.10220384
42	0xbe058775	-0.13039954
43	0xbd79dc01	-0.061000828
44	0x3d17e85b	0.037086826
45	0xbd12b720	-0.035819173
46	0x3d798eef	0.060927328
47	0xbde323f3	-0.11090841
48	0x3d94929d	0.07254527
49	0x3bda867e	0.0066688647
50	0xbdf3986f	-0.11894309
51	0x3bd1d71b	0.0064038164
52	0x3ced10b0	0.028938621
53	0x3dcd8537	0.10035174
54	0xbde34461	-0.110970266
55	0x3ab1a9d5	0.0013554642
56	0x3c5a5e9e	0.013328223
57	0x3d11ddc2	0.035611875
58	0xbe37ec81	-0.17961313
59	0x3c1f299a	0.009714508
60	0xbd9d0996	-0.07667844
61	0xbe2e50ab	-0.1702296
62	0xbd8adba1	-0.06780172
63	0x3d65df35	0.05612107
64	0x3d1c9102	0.038224228
65	0x3cd9f259	0.026604818
66	0x3cebdd91	0.028792175
67	0xbe7e528e	-0.2483618
68	0x3d338fb4	0.043838218
69	0x3d6508c2	0.055916555
70	0xbbfc8473	-0.007706219
71	0x3de66ac0	0.1125083
72	0x3e0cca41	0.13749029
73	0x3b750abd	0.0037390434
74	0xbb676373	-0.003530708
75	0x3c29b361	0.010357709
76	0xbcb46319	-0.02201991
77	0xbd8e904e	-0.06961118
78	0xbe8e73ec	-0.27822816
79	0xbe6b4544	-0.22975641
80	0xbe5f595f	-0.21811436
81	0x3d6d9e5b	0.058012348
82	0x3cb2ec51	0.0218412
83	0x3bfdc60b	0.007744556
84	0xbce6a722	-0.028155867
85	0x3d2300ff	0.03979587
86	0xbd06b495	-0.03288706
87	0xbe628d83	-0.22124295
88	0x3ddd069a	0.10792275
89	0xbc0a6c21	-0.0084486315
90	0xbd97eeab	-0.07418569
91	0xbd7fbc74	-0.062435582
92	0xbddeb8f3	-0.1087512
93	0x3c809e9d	0.015700633
94	0xbdcc5bae	-0.09978424
95	0xbd9029ad	-0.07039199
96	0xbe186de2	-0.14885667
97	0x3d749025	0.05970778
98	0xbd73f9e0	-0.05956447
99	0xbd3b8098	-0.045776933
100	0x3daa9b2e	0.083303794
101	0x3daf0a28	0.08546859
102	0x3d8ca7c3	0.068679355
103	0x38ed3adc	0.00011312004
104	0xbdd0b7a6	-0.10191278
105	0xbe7b87a6	-0.24563465
106	0xbe60d52c	-0.21956319
107	0xbe798964	-0.24368817
108	0xbe096d84	-0.13420683
109	0xbe1c1b65	-0.15244825
110	0xbd82eb5a	-0.06392546
111	0x3dc92f62	0.09823491
112	0x3d8c4478	0.06848997
113	0xbc217d7e	-0.00985658
114	0xbe8ed37c	-0.27895725
115	0xbdfb2083	-0.122620605
116	0xbe0b9c8b	-0.13633935
117	0x3d97c41e	0.07410453
118	0xbdda421e	-0.10657142
119	0x3d3bf44a	0.04588727
120	0xbd949653	-0.072552346
121	0xbe327690	-0.1742804
122	0xbcede6c7	-0.029040707
123	0x3c367ab1	0.01113765
124	0xbe1364d8	-0.14393938
125	0xbd090087	-0.03344777
126	0xbc297b5d	-0.0103443535
127	0x3e3f8d23	0.18706183
128	0x3e8f26ec	0.27959383
129	0x3cfd2958	0.030903503
130	0xbb1b3fe3	-0.0023689202
131	0xbe130712	-0.14358166
132	0xbd9c98bb	-0.076463185
133	0x3e14603d	0.14489837
134	0xbd5c1a7c	-0.053736195
135	0x3e1fed67	0.15617906
136	0x3cd5f0db	0.026115825
137	0x3e53c08c	0.2067892
138	0xbda24309	-0.07922942
139	0xbe61757e	-0.22017476
140	0xbe574888	-0.21023762
141	0xbdc61cf6	-0.096734926
142	0xbdc3243a	-0.09528394
143	0x3d26540c	0.040607497
144	0xbd50f233	-0.05101223
145	0x3e414823	0.18875174
146	0x3e3bd42b	0.18342654
147	0x3c712a6e	0.014719589
148	0x3e11e79e	0.14248511
149	0xbd83529d	-0.064122416
150	0xbd1701d5	-0.03686698
151	0xbd7b95a0	-0.06142199
152	0xbdc4a6cc	-0.096021265
153	0xbd86263f	-0.065502636
154	0x3d8e2876	0.06941311
155	0x3e08a950	0.13345838
156	0xbbc27d36	-0.0059353365
157	0xbd7c0362	-0.061526664
158	0xbcebd353	-0.02878729
159	0xbd1cb2c8	-0.038256437
160	0x3d32fe67	0.04369965
161	0x3b1d18cf	0.0023971086
162	0xbe2fb2c1	-0.17158033
163	0xbd761f50	-0.060088456
164	0x3d317a9b	0.043329816
165	0x3baecb41	0.0053342883
166	0xbe36c915	-0.17850144
167	0x3d0ca7b6	0.03433963
168	0xbc15a05a	-0.009132469
169	0xbd7f03fb	-0.062259655
170	0xbdb5157d	-0.08841989
171	0xbde5476f	-0.111952655
172	0xbc2575c6	-0.01009888
173	0xbe0abafa	-0.13547888
174	0x3c7d0e74	0.01544534
175	0x3cd3a25f	0.02583426
176	0x3dc39e70	0.09551704
177	0xbdd4244c	-0.103584856
178	0x3e00e6f6	0.12588105
179	0x3d79bc34	0.0609705
180	0xbdf69f7c	-0.12042138
181	0xbd49ecae	-0.04929798
182	0xbcd4cc41	-0.025976302
183	0x3cea3d3e	0.028593656
184	0xbdce0ad7	-0.10060661
185	0x3d1ee5af	0.038793262
186	0xbd0c9856	-0.034324966
187	0x3d608a0c	0.05481915
188	0x3d9cabd3	0.0764996
189	0x3da79d67	0.08184319
190	0x3e1a9cdc	0.150989
191	0x3eb3dc58	0.35129046
192	0xbd9a305d	-0.07528756
193	0xbe27ce56	-0.16387305
194	0x3d12688a	0.035744227
195	0x3d776c78	0.06040618
196	0xbe1538be	-0.14572427
197	0x3c28be86	0.010299331
198	0xbe7bc5fb	-0.24587242
199	0xbce21836	-0.027599435
200	0xbd43dcb9	-0.04781792
201	0xbdfae1db	-0.1225011
202	0x3e0cbeb5	0.13744624
203	0xbdac316a	-0.084078625
204	0xbe8e429c	-0.27785194
205	0xbe8459cc	-0.2584976
206	0xbdd990ab	-0.10623296
207	0xbbdd6ff6	-0.0067577315
208	0x3e095f93	0.13415365
209	0x3e8ebbe5	0.27877727
210	0xbe49336e	-0.19648525
211	0xbde9a6c8	-0.11408764
212	0x3dd425c3	0.10358765
213	0xbe77473b	-0.24148266
214	0xbe963300	-0.29335785
215	0xbdd2fc19	-0.1030199
216	0xbd91fa78	-0.07127851
217	0xbe7ec9e0	-0.24881697
218	0xbeb4ba49	-0.35298374
219	0xbe27f635	-0.16402514
220	0x3d87f0cc	0.06637725
221	0xbdbd4118	-0.09240931
222	0xbdc8d200	-0.09805679
223	0x3d33fb0a	0.04394058
224	0x3deb7caa	0.11498387
225	0x3dc07d25	0.093988694
226	0xbe59295a	-0.2120718
227	0xbdd6bcfc	-0.10485265
228	0x3e026544	0.12733942
229	0xbd977e66	-0.073971555
230	0xbddc9491	-0.10770524
231	0xbd506f7f	-0.05088758
232	0xbe87f1fd	-0.2655181
233	0x3d67b15d	0.05656563
234	0xbe37bc3f	-0.17942904
235	0xbe7e19b7	-0.24814497
236	0xbe7e2138	-0.2481736
237	0x3e0fc51f	0.1404004
238	0x3e98b65d	0.29826632
239	0x3b8474cd	0.004042244
240	0xbcab1413	-0.020883596
241	0x3e30e5e9	0.17275204
242	0x3cdba3ac	0.026811443
243	0xbe2b6f6e	-0.16741726
244	0xbe86353b	-0.26212487
245	0xbdf682ab	-0.12036642
246	0x3dafa3bf	0.08576154
247	0xbe05b249	-0.13056292
248	0xbcb7fbd3	-0.022458946
249	0xbcecb5ad	-0.028895224
250	0x3c8a1c83	0.016859299
251	0xbdbc62e3	-0.09198549
252	0x3ba8f12b	0.0051557026
253	0xbdf4b7d5	-0.11949126
254	0xbccaffb2	-0.024780128
255	0x3d074fd8	0.03303513

encoder.model.weight_hh_l0 f4 [256, 64]
0	0x3d20b681	0.03923655
1	0xbd8f9333	-0.07010498
2	0x3d53cf57	0.051711407
3	0x3e48b4ae	0.19600174
4	0xbd4a63f1	-0.049411718
5	0x3e8d0aab	0.27547202
6	0xbe7cfcd2	-0.24705818
7	0x3d1260af	0.035736736
8	0x3de9a6ee	0.114087924
9	0xbdb0a57b	-0.08625313
10	0x3c88bd7f	0.016691921
11	0xbe16406e	-0.14673015
12	0xbe2cb3b5	-0.16865428
13	0xbc17fba6	-0.009276306
14	0xbd3416bf	-0.043967005
15	0xbd284c8a	-0.04108862
16	0xbc494592	-0.012284653
17	0x3c514323	0.012772354
18	0x3e45bc20	0.19310045
19	0xbdb04bc6	-0.08608203
20	0xbd9a79d6	-0.075427696
21	0xbd0b71d7	-0.034044113
22	0xbcb59386	-0.022165071
23	0x3b9d13ba	0.0047936114
24	0x3d94cb12	0.07265295
25	0x3d941c55	0.072319664
26	0xbc907ccd	-0.017637635
27	0xbddae977	-0.10689061
28	0x3ec732be	0.389059
29	0xbd077849	-0.033073697
30	0x3be2a30d	0.00691641
31	0x3e2868c5	0.16446216
32	0x3e7a2f23	0.24432044
33	0xbdc71df5	-0.09722511
34	0x3c9079c0	0.01763618
35	0x3d3998c0	0.04531169
36	0xbdbc6a5d	-0.09199975
37	0x3eb541ff	0.35401914
38	0x3d7900ef	0.060791906
39	0xbc8c1d42	-0.017103795
40	0x3df4a139	0.11944813
41	0xbd246b83	-0.040141594
42	0x3ea22cba	0.3167475
43	0xbe5f9333	-0.21833496
44	0x3e4b8d02	0.19878009
45	0xbe301fc2	-0.17199615
46	0x3cd1dee1	0.025618972
47	0xbe6d5e40	-0.23180485
48	0x3cc50c82	0.024053816
49	0xbe5ec0ac	-0.21753186
50	0x3d120d55	0.035657246
51	0xbd778f35	-0.060439307
52	0x3dd4daab	0.1039327
53	0x3e8a9b85	0.27071777
54	0xbd6787e3	-0.056526076
55	0x3e0c229b	0.13685076
56	0xbddddd93	-0.108332776
57	0x3db44596	0.08802335
58	0x3e616ef6	0.22014984
59	0xbe261fdf	-0.16223095
60	0xbde73cbd	-0.11290882
61	0xbb63630a	-0.0034696483
62	0xbe8e156b	-0.27750716
63	0x3e3a15c5	0.18172367
64	0xbe1db4b4	-0.15400964
65	0xbe066f6c	-0.13128442
66	0x3de31d7d	0.11089609
67	0x3dfdb2c3	0.12387612
68	0x3d276cfb	0.040875416
69	0x3e2fe9db	0.17179053
70	0xbddb1a3a	-0.10698362
71	0xbd586bff	-0.052837368
72	0xbd41f732	-0.047354884
73	0xbdf39154	-0.118929535
74	0x3d9e0dbd	0.07717464
75	0xbdec89c4	-0.11549714
76	0x3caeb91d	0.021328503
77	0xbd651d8d	-0.055936385
78	0xbbb4da3e	-0.0055191806
79	0xbd1d3a86	-0.03838589
80	0xbcc38a48	-0.023869649
81	0xbdefd990	-0.11711419
82	0xbc237406	-0.009976393
83	0xbdee0363	-0.1162174
84	0xbde495f4	-0.11161414
85	0x3e0637ab	0.13107173
86	0x3c7436c3	0.014905634
87	0x3daf0048	0.085449755
88	0x3d947085	0.07248024
89	0xbceb9136	-0.028755765
90	0xbd658821	-0.056038026
91	0xbe09227f	-0.13392065
92	0x3e228410	0.1587069
93	0xbe0a8ba9	-0.13529839
94	0x3d8bc35a	0.0682437
95	0xbdf9b688	-0.12193018
96	0x3dd950d3	0.10611119
97	0xbdeb4592	-0.11487879
98	0xbe443dcd	-0.191642
99	0xbdce7d5b	-0.100825034
100	0xbd1cddc9	-0.03829745
101	0x3e4d5777	0.20052896
102	0x3dad3b92	0.08458628
103	0xbd31fccf	-0.043453988
104	0xbdabd705	-0.08390621
105	0x3d6ca22a	0.05777184
106	0x3d09a5b2	0.033605285
107	0xbe27e530	-0.16396022
108	0x3e2c60e6	0.16833839
109	0x3d61d0cf	0.055130776
110	0xbcca7118	-0.02471213
111	0xbd8a67eb	-0.06758102
112	0x3cb1c340	0.021699548
113	0xbe1da832	-0.15396193
114	0x3e089f9c	0.13342136
115	0x3dda5cb7	0.10662215
116	0xbd9ee7b9	-0.07759041
117	0xbc8d0b4e	-0.017217305
118	0xbdba08bd	-0.09083698
119	0x3dc305dd	0.09522603
120	0xbd9b7a70	-0.075917125
121	0xbca0478d	-0.019565368
122	0x3a5383e8	0.0008068667
123	0xbdbd609a	-0.09246941
124	0xbd97e0f6	-0.07415955
125	0xbbe1f8ea	-0.006896128
126	0xbe08468b	-0.1330816
127	0x3e36d922	0.17856267
128	0x3d2cca48	0.042185098
129	0xbc5551da	-0.013020003
130	0xbba22a2d	-0.0049488754
131	0xbde9245a	-0.11383887
132	0x3c20e2cb	0.009819697
133	0xbd5831f2	-0.052782007
134	0xbe305ae1	-0.17222168
135	0xbc6117fe	-0.01373863
136	0xbd70d34d	-0.058795262
137	0x3d8dd113	0.06924643
138	0xbe041ecb	-0.12902372
139	0xba1c92df	-0.0005972813
140	0xbe122c1c	-0.14274639
141	0xbd34c5c7	-0.044133928
142	0xbd8a437d	-0.067511536
143	0xbdc51990	-0.09624016
144	0xbd99a8e2	-0.07502915
145	0x3d8b3421	0.06797052
146	0xbd52d1cd	-0.051469613
147	0xbdcacabb	-0.09901949
148	0x3b2c27d2	0.0026268852
149	0x3dabde75	0.0839204
150	0x3d848066	0.064698026
151	0x3d789cd7	0.06069645
152	0xbdcbba72	-0.09947671
153	0x3dbd7c91	0.09252275
154	0x3de81a6e	0.11333166
155	0xbdbb2c5f	-0.091393225
156	0x3b512394	0.0031912075
157	0x3d04f429	0.03245941
158	0xbde0379d	-0.109481074
159	0x3d7d5fbd	0.06185888
160	0xbcad78a1	-0.021175684
161	0xbda132ad	-0.07870994
162	0xbd1a7edd	-0.037718643
163	0x3db6bf9f	0.089232676
164	0x3dacb14d	0.08432255
165	0x3e017296	0.12641367
166	0xbe165c23	-0.14683585
167	0xbe117c1c	-0.142075
168	0x3e05766f	0.1303346
169	0xbddbcbaf	-0.10732209
170	0x3ac7edef	0.0015253405
171	0x3cf7e205	0.030259142
172	0x3d64ffd0	0.055908024
173	0x3d847561	0.06467701
174	0x3da5ac1e	0.080894694
175	0xbe30d69d	-0.17269368
176	0xbca4b866	-0.02010746
177	0xbdc99104	-0.09842113
178	0xbe08eab3	-0.1337078
179	0xbdc9535f	-0.09830355
180	0xbcc27231	-0.023736091
181	0x3dd8b20c	0.10580835
182	0xbe2bf980	-0.16794395
183	0x3c798add	0.0152308615
184	0xbdf7fbd5	-0.1210858
185	0xbc7277a2	-0.0147990305
186	0x3e3734ae	0.1789119
187	0x3c6f7488	0.014615186
188	0xbda141b2	-0.078738585
189	0xbd3b508c	-0.045731112
190	0xbd351ef5	-0.044218976
191	0xbdafce59	-0.085842796
192	0x3ded4715	0.115858234
193	0x3e0ef246	0.13959607
194	0x3defa0c1	0.11700583
195	0xbd358838	-0.04431936
196	0xbc98f580	-0.018671751
197	0xbd028635	-0.03186627
198	0xbd81b483	-0.06333258
199	0xbd711e16	-0.058866583
200	0xbd90c522	-0.0706885
201	0xbd9000a7	-0.070313744
202	0xbcf0a560	-0.029375732
203	0xbe074937	-0.13211523
204	0xbe12a574	-0.14320928
205	0xbe16df20	-0.14733553
206	0x3d8d199e	0.06889652
207	0x3b93f43d	0.0045151995
208	0x3d920533	0.07129898
209	0x3d8048df	0.06263899
210	0x3e24aae1	0.1608081
211	0xbd45f654	-0.04833062
212	0xbd079ce2	-0.0331086
213	0xbd762d1b	-0.06010161
214	0xbe21cbf1	-0.15800454
215	0x3e118966	0.1421257
216	0x3d154741	0.036444906
217	0x3c86f410	0.0164738
218	0x3d45850b	0.048222583
219	0x3c7503ce	0.01495452
220	0x3c2445e9	0.0100264335
221	0xbdced9ca	-0.10100134
222	0xbdcaf24a	-0.09909494
223	0x3dd47121	0.1037314
224	0xbdc5f2ca	-0.09665449
225	0xbe029f5e	-0.12756106
226	0xbd86ef31	-0.06588591
227	0xbda84e40	-0.0821805
228	0xbe0bd3fc	-0.13655084
229	0x3e28b61e	0.16475722
230	0x3d5fa3c1	0.054599527
231	0x3d1d4757	0.038398113
232	0x3e175816	0.14779696
233	0x3c590045	0.013244693
234	0xbda9e1d4	-0.082950264
235	0x3d86528c	0.06558713
236	0x3e34d859	0.17660655
237	0x3d4f050f	0.050541934
238	0x3d84ed76	0.064906046
239	0xbdbc201f	-0.09185814
240	0xbc7e5e54	-0.015525419
241	0xbde04a99	-0.109517284
242	0x3d4029fa	0.046915032
243	0xbd3aa5c9	-0.04556826
244	0x3dacee16	0.08443849
245	0x3da344a3	0.07972076
246	0xbbee622a	-0.0072748857
247	0x3c97267e	0.018450972
248	0xbe11449f	-0.14186333
249	0xbd95b106	-0.07309155
250	0x3e33a24e	0.17542383
251	0xbe291c29	-0.16514648
252	0xbe2608fd	-0.16214366
253	0xbc9ab3bd	-0.018884534
254	0xbb620a82	-0.0034491126
255	0x3dda02b1	0.106450446

encoder.model.bias_ih_l0 f4 [256]
0	0x3d2ae297	0.04172
1	0x3d939472	0.07206048
2	0xbc99ba16	-0.01876549
3	0x3d6df190	0.0580917
4	0x3dd64e5d	0.10464165
5	0x3e12f603	0.14351659
6	0x3d6bb929	0.05754963
7	0x3e6184f1	0.2202337
8	0x3dc9c494	0.098519474
9	0x3d5ea908	0.05436042
10	0x3ea912b2	0.33022076
11	0x3e06c783	0.13162045
12	0x3d9f1f26	0.07769613
13	0x3df7c7ed	0.1209868
14	0x3e340e17	0.175835
15	0xbd6d6721	-0.05795968
16	0x3db56a8f	0.08858215
17	0x3e62ea53	0.221597
18	0xbd7ff2e6	-0.062487505
19	0xbd9d89f0	-0.07692325
20	0x3d917a0a	0.07103355
21	0x3e051522	0.12996343
22	0xba4e3190	-0.0007865662
23	0x3e454673	0.19265155
24	0xbd1d833a	-0.038455226
25	0x3de11fed	0.109924175
26	0xbd33260a	-0.04373745
27	0x3d851b5b	0.06499358
28	0x3e067f73	0.13134556
29	0xbd2279e8	-0.03966704
30	0x3d609ed3	0.054838967
31	0x3e268b06	0.1626397
32	0x3d985d20	0.07439637
33	0x3eb694e9	0.35660484
34	0x3e6986a7	0.22805272
35	0xbc863da5	-0.016386816
36	0xbb360f7a	-0.002778022
37	0xbc509cea	-0.012732724
38	0x3de76a8f	0.11299621
39	0x3d909c5f	0.070610754
40	0x3d130cb7	0.035900798
41	0x3da625c6	0.081126735
42	0x3db38b63	0.0876682
43	0xbd9bcd8b	-0.076075636
44	0xbd1f3bb8	-0.03887531
45	0x3e964804	0.2935182
46	0xbba33985	-0.004981222
47	0x3d4fcfd5	0.050735313
48	0x3d03d0a7	0.03218141
49	0x3b18c734	0.0023312094
50	0x3d481c42	0.048855074
51	0xbc46b0f1	-0.012127147
52	0xbd021a0f	-0.031763133
53	0xbca7eab8	-0.020497665
54	0x3d917059	0.07101507
55	0x3dc97306	0.09836392
56	0x3dbad6fd	0.09123037
57	0xbc40518b	-0.011738191
58	0x3d177363	0.036975276
59	0x3dc1626a	0.09442599
60	0x3da19c7b	0.078911744
61	0xbc6856e0	-0.014180869
62	0x3e70bf20	0.23510408
63	0x3d4ebd6b	0.05047361
64	0xbd77b3cd	-0.060474206
65	0x3cf746f6	0.030185204
66	0xbdbb4bff	-0.091453545
67	0xbd983489	-0.07431895
68	0xbdc9e393	-0.098578595
69	0xbd2dbc63	-0.042415988
70	0x3e19dc44	0.15025431
71	0xbda1476d	-0.078749515
72	0xbda17c4b	-0.07885035
73	0xbd9e2d40	-0.077234745
74	0xbd1626c7	-0.036658075
75	0x3cc61672	0.024180625
76	0xbdb6a544	-0.08918241
77	0xbc9dc2bd	-0.019257898
78	0xbd05ba08	-0.032648116
79	0xbc8ebcec	-0.01742407
80	0x3bcdc384	0.006279411
81	0x3d23c094	0.03997858
82	0x3abe4573	0.0014516547
83	0xbdbab861	-0.09117199
84	0xbd2aa393	-0.041659903
85	0x3e308c1d	0.17240949
86	0xbd760cce	-0.060070805
87	0x3d7eefe7	0.062240507
88	0x3dd6e4dd	0.10492871
89	0xbd5b9106	-0.053605102
90	0x3da4ff35	0.080564894
91	0x3db8dbb9	0.09026284
92	0xbe025d80	-0.1273098
93	0x3dc1ba8b	0.094594084
94	0xbc04b0c5	-0.008098786
95	0x3cccd50e	0.025003936
96	0x3d80defb	0.0629253
97	0xbdfec68e	-0.12440215
98	0x3d6a4e84	0.057203785
99	0x3de64ab3	0.112447165
100	0xbe238465	-0.15968473
101	0xbdd99439	-0.10623974
102	0x3da7b059	0.081879325
103	0x3e081b4d	0.13291664
104	0x3d330a8b	0.043711226
105	0x3c8705f0	0.016482323
106	0x3cfdc1f2	0.03097627
107	0x3e310aff	0.17289351
108	0xbd474359	-0.048648212
109	0x3bdbbfc7	0.0067062113
110	0x3df6f49a	0.12058373
111	0xbda1597f	-0.07878398
112	0xbdba15cb	-0.09086188
113	0xbd7d589f	-0.061852094
114	0xbded309e	-0.115815386
115	0x3c3d0ddc	0.011538949
116	0x3d7a0935	0.061043937
117	0xbd1503d8	-0.03638062
118	0xbdc464b1	-0.09589518
119	0x3dcdf5cb	0.10056647
120	0x3c766268	0.01503811
121	0xbde59129	-0.11209328
122	0xbd3a6061	-0.04550207
123	0xbdb8ebcc	-0.0902935
124	0xbd99059d	-0.07471774
125	0xbce3afce	-0.027793791
126	0xbcd3a0c1	-0.02583349
127	0x3da52820	0.08064294
128	0x3c8dcf26	0.01731069
129	0x3d82c5fc	0.06385419
130	0xbe05f15f	-0.13080357
131	0xbe07e8b8	-0.13272369
132	0xbd880d84	-0.06643203
133	0x3d2d010f	0.042237338
134	0xbb511ed9	-0.0031909256
135	0xbd970959	-0.0737483
136	0x3d02ea91	0.03196198
137	0x3ca9cf43	0.020728713
138	0xbd82c1b2	-0.06384601
139	0xbe03f010	-0.12884545
140	0x3d512386	0.05105927
141	0xbc860e8a	-0.016364355
142	0x3de93198	0.113864124
143	0x3d8095e6	0.06278591
144	0xbcda1f4a	-0.026626248
145	0x3dbf9abc	0.09355685
146	0xbd724730	-0.05914992
147	0x3d8a4335	0.067511
148	0xbd1b0109	-0.037842784
149	0xbdadf837	-0.08494609
150	0xbda1764e	-0.07883893
151	0x3da0d6af	0.07853448
152	0xbda174a4	-0.078835756
153	0x3da10c3b	0.07863661
154	0x3d298448	0.04138592
155	0xbdd1e431	-0.10248602
156	0x3d1177a4	0.03551449
157	0x3bb370f7	0.005476113
158	0xbda1a45c	-0.07892677
159	0x3e0d1bb9	0.13780107
160	0x3d20c2b8	0.0392482
161	0x3c3e28c9	0.011606404
162	0x3dc81fa7	0.09771662
163	0x3df68413	0.1203691
164	0x3a37dbcd	0.0007013649
165	0xbd1c3814	-0.038139418
166	0x3df7de7b	0.12102982
167	0xbdd6014f	-0.10449468
168	0x3d2351f6	0.039873086
169	0xbdd10dc9	-0.102077074
170	0xbd98a520	-0.0745337
171	0x3dad641c	0.0846636
172	0x3dd01286	0.10159783
173	0x3d98e564	0.07465628
174	0xbc969284	-0.018380411
175	0xbe03e4dd	-0.12880273
176	0x3dd07ca7	0.101800255
177	0xbe1581e8	-0.14600337
178	0xbdd0b5a9	-0.10190899
179	0xbc9d4db0	-0.019202083
180	0x3e379199	0.17926635
181	0xbbb7dcbe	-0.0056110313
182	0x3c05a1e2	0.008156272
183	0x3e01e3e0	0.12684584
184	0xbc510fb7	-0.012760094
185	0x3df8f008	0.12155157
186	0x3db207c7	0.0869289
187	0x3d2823ed	0.041049886
188	0xbd37a385	-0.04483368
189	0x3c080579	0.008302086
190	0xbcfeb78e	-0.031093385
191	0xbd079b64	-0.033107176
192	0x3db4adf3	0.08822241
193	0x3de7f447	0.11325889
194	0xbd442152	-0.04788334
195	0x3c905247	0.017617358
196	0x3db34124	0.08752659
197	0x3e00a997	0.12564693
198	0xbb6c06ed	-0.003601487
199	0x3d8fddb4	0.070247084
200	0x3ce62173	0.028092122
201	0x3e6045b1	0.21901585
202	0x3e9c8791	0.3057218
203	0x3df64129	0.12024147
204	0x3e066281	0.13123514
205	0xbc378127	-0.011200226
206	0x3de9d9f6	0.11418526
207	0x3e41115a	0.18854275
208	0x3de48d2b	0.11159738
209	0x3e0da41e	0.13832137
210	0xbd6876f8	-0.056754082
211	0xbd230cf2	-0.039807267
212	0x3e2d7ccd	0.16942139
213	0xbcf786b5	-0.0302156
214	0x3d547c41	0.05187631
215	0x3da0d37b	0.07852837
216	0x3e0b7fbf	0.1362295
217	0xbd34b80a	-0.044120826
218	0xbd3d3f67	-0.046203043
219	0x3dc3c2fb	0.09558674
220	0xbdc115fd	-0.09428022
221	0xbc30eaf5	-0.010798206
222	0x3de7f7f1	0.11326588
223	0x3d2b982e	0.041893177
224	0x3ce125e8	0.027483895
225	0x3e29a0e7	0.16565286
226	0x3c630a1f	0.0138573935
227	0x3da99f19	0.082822986
228	0x3dc46e79	0.095913835
229	0x3dda2f9d	0.10653613
230	0xbd7c52d0	-0.061602414
231	0x3d9940ff	0.074831
232	0xbc2fe3ee	-0.010735495
233	0xbced7707	-0.02898742
234	0x3e16f5f8	0.14742267
235	0x3e12988a	0.14316002
236	0xbc461315	-0.01208951
237	0x3eae6c50	0.3406701
238	0xbca3186a	-0.019909102
239	0x3d2d205e	0.042267196
240	0xb91eef6a	-0.00015157243
241	0x3d92541d	0.071449496
242	0x3d654433	0.055973243
243	0x3e06b75b	0.13155882
244	0x3dce1d78	0.100642145
245	0xbd8d3878	-0.06895536
246	0x3e0b2fe1	0.13592483
247	0xbc282670	-0.01026307
248	0x3db3e587	0.08784013
249	0xbcebc0f6	-0.028778534
250	0x3d081195	0.033219893
251	0x3e2f7977	0.17136179
252	0xbd8488ec	-0.06471428
253	0x3d607046	0.054794572
254	0x3cd4037b	0.025880566
255	0x3e2d079c	0.16897434

encoder.model.bias_hh_l0 f4 [256]
0	0x3d5942ad	0.053042103
1	0xbcfc9bcd	-0.03083601
2	0x3e0b48dc	0.13602012
3	0x3dc04239	0.09387631
4	0x3e82a06f	0.25513026
5	0x3b576114	0.003286426
6	0xbd8fa094	-0.0701305
7	0x3e82fe84	0.25584805
8	0x3e4edada	0.20200673
9	0x3e1bff48	0.15234101
10	0x3e2afcba	0.1669797
11	0x3cbf60c6	0.023361575
12	0x3dc6f7f8	0.09715265
13	0x3dd8cf08	0.10586363
14	0x3db911b7	0.09036582
15	0xbc1e043e	-0.009644566
16	0x3cc802ea	0.024415452
17	0x3d993075	0.074799456
18	0x3dc80840	0.097671986
19	0xbd8afae2	-0.06786133
20	0x3d0c9c9e	0.03432905
21	0xbce37295	-0.027764598
22	0xbd24f83c	-0.040275797
23	0x3e0f5e13	0.1400073
24	0x3da961f3	0.082706355
25	0xbd4785bc	-0.048711523
26	0x3db96b12	0.09053625
27	0x3d5dd41a	0.054157354
28	0x3ddfe783	0.10932829
29	0xbdba0b69	-0.090842076
30	0x3de9c28d	0.11414061
31	0x3ded31b1	0.115817435
32	0xbde1c339	-0.11023564
33	0x3e526e3f	0.20549868
34	0x3e331029	0.17486633
35	0x3d058a85	0.032602806
36	0x3d39d459	0.045368526
37	0x3e17fa97	0.14841686
38	0x3e039394	0.12849265
39	0x3db8f709	0.09031493
40	0x3d9e1765	0.07719306
41	0x3d85fa55	0.06541888
42	0x3d6801ae	0.056642227
43	0xbd2917e5	-0.041282553
44	0xbd83676f	-0.06416213
45	0x3ea5f75b	0.3241528
46	0xbab76b18	-0.0013993708
47	0x3dda3543	0.1065469
48	0xbcbac8c2	-0.022800807
49	0x3e299437	0.16560446
50	0x3e21af2c	0.15789479
51	0x3e2a48e0	0.16629362
52	0x3d10bcae	0.03533619
53	0x3de939cd	0.11387978
54	0x3cc7d66b	0.024394235
55	0x3d0a32c0	0.033739805
56	0x3e0f0ccc	0.13969725
57	0xbc824da6	-0.015906166
58	0x3e036018	0.12829626
59	0x3d83f4dd	0.06443188
60	0xbd15bb43	-0.03655554
61	0x3e219347	0.15778838
62	0x3d49e78d	0.04929309
63	0x3e76cdc1	0.24101926
64	0x3d966530	0.07343519
65	0x3cffca68	0.031224445
66	0xbd110659	-0.035406444
67	0x3db02529	0.08600838
68	0xbd7fe9d0	-0.06247884
69	0x3c12b5e0	0.008954495
70	0x3e1bcd19	0.15214957
71	0x3bca1a2a	0.00616767
72	0xbdbc41ec	-0.09192261
73	0xbdf73b8d	-0.12071905
74	0x3d86094e	0.065447435
75	0x3dc4dd29	0.096124955
76	0x3e043066	0.12909088
77	0x3dfd0686	0.1235476
78	0x3dfa42ec	0.122197956
79	0xbb5d76c2	-0.003379271
80	0x3db65636	0.08903162
81	0xbd62fcb9	-0.055416796
82	0x3b1dcbed	0.0024077848
83	0xbc293a48	-0.010328837
84	0xbd8aef27	-0.06783896
85	0x3dce7814	0.10081497
86	0xbdb8e796	-0.090285465
87	0xbd352f54	-0.04423459
88	0xbbc530ae	-0.006017766
89	0xbc3ff9ad	-0.011717242
90	0x3df82280	0.12115955
91	0x3c1657d6	0.009176215
92	0xbcc5b431	-0.024133774
93	0x3d9cac65	0.07650069
94	0x3d41dcb1	0.04732961
95	0x3d664ed1	0.05622751
96	0x3d1ed3c9	0.038776193
97	0x3ce7c724	0.0282932
98	0xbcab0d92	-0.020880494
99	0xbd124918	-0.03571424
100	0xbdeeb294	-0.11655155
101	0xbc0a2dbf	-0.008433758
102	0xbbe6f6b1	-0.007048451
103	0x3d8697cf	0.06571924
104	0x3c849222	0.016182963
105	0x3d80c9fa	0.06288524
106	0x3e13fd0f	0.14452003
107	0x3d2a4014	0.041565016
108	0x3e0b1e30	0.13585734
109	0xbdf049c8	-0.11732823
110	0x3d8d47a8	0.06898433
111	0xbd147df7	-0.036252942
112	0x3d6fe720	0.058570027
113	0x3d843be5	0.064567365
114	0x3d308ce6	0.04310312
115	0x3d5b66c5	0.053564806
116	0x3e0c42cf	0.1369736
117	0xbdd87885	-0.10569862
118	0xbe0d4c57	-0.13798653
119	0x3d8537d7	0.06504791
120	0xbcb517ad	-0.022106016
121	0xbcda8c50	-0.026678234
122	0x3d6014dc	0.054707393
123	0x3e01027e	0.12598607
124	0x3d326de6	0.04356184
125	0x3d88c050	0.06677306
126	0xbd00a86f	-0.03141063
127	0x3d8489da	0.064716056
128	0x3e1f456a	0.15553823
129	0xbd81b011	-0.0633241
130	0xbdac442c	-0.0841144
131	0x3d5108be	0.051033728
132	0xbda85110	-0.082185864
133	0x3deaa0ce	0.11456452
134	0xbe175680	-0.14779091
135	0xbdb1d657	-0.0868346
136	0x3c721beb	0.014777164
137	0x3cd1713f	0.025566695
138	0xbdf6a8b2	-0.12043895
139	0xbd56b582	-0.052419193
140	0xbd95dcf3	-0.07317533
141	0xbdb9dfd6	-0.090758964
142	0x3e135db3	0.14391212
143	0xbda93be6	-0.08263378
144	0xbd8b7fc2	-0.06811477
145	0x3dfebac7	0.12437969
146	0xbc95b3f5	-0.018274287
147	0xbdd7e0a3	-0.10540893
148	0xbd8d8009	-0.069091864
149	0x3ddead19	0.108728595
150	0xbd1c866c	-0.038214132
151	0x3d2d02d5	0.04223903
152	0x3d834b4d	0.06410847
153	0x3dfe7753	0.12425103
154	0x3db26634	0.087109
155	0x3ce8f839	0.028438674
156	0xbe0109b5	-0.12601359
157	0xbe03614b	-0.12830083
158	0xbc9d24bf	-0.019182561
159	0xbd8ff6b9	-0.070294805
160	0x3dc1fcd3	0.094720505
161	0xbe05e1ca	-0.13074413
162	0x3d9d295d	0.07673905
163	0xbc7a3d62	-0.015273424
164	0x3cde6cbd	0.02715146
165	0x3cafb365	0.021447847
166	0xbdc9e32d	-0.098577835
167	0xbd521197	-0.051286306
168	0x3c3fc687	0.011705047
169	0x3cc6c9da	0.024266172
170	0x3a8792f6	0.001034348
171	0xbda23da4	-0.07921913
172	0x3d6ae12c	0.057343647
173	0xbd0b64a7	-0.034031536
174	0x3d48e22a	0.04904381
175	0xbd691ea2	-0.05691398
176	0x3e04ffcb	0.12988202
177	0xbe1466bb	-0.14492314
178	0x3c652b5e	0.01398739
179	0xbde3404f	-0.1109625
180	0xbd820c1f	-0.06349968
181	0x3cbc2e38	0.022971258
182	0x3cc10abc	0.023564689
183	0x3d1f4614	0.03888519
184	0xbc34aa4b	-0.011026929
185	0xbb890365	-0.004181313
186	0x3da00c1c	0.0781481
187	0xbda9f6ac	-0.08299002
188	0xbd9e2257	-0.077213936
189	0x3db7c935	0.08973924
190	0x3d91de14	0.07122436
191	0x3d62bd8e	0.055356555
192	0x3e4217e4	0.18954426
193	0x3cd5003c	0.026001088
194	0x3c1afc75	0.0094596045
195	0x3e32f357	0.1747564
196	0x3e72986f	0.23690961
197	0x3dd4325f	0.1036117
198	0x3dea4b78	0.11440176
199	0x3e3cdfcd	0.18444748
200	0x3d578189	0.05261377
201	0x3d6055de	0.05476939
202	0x3e1a623d	0.15076537
203	0xbd87a175	-0.06622592
204	0x3c01c424	0.007920299
205	0xbdbe780e	-0.09300242
206	0x3e0da9a9	0.13834251
207	0x3d5cbfa6	0.053893708
208	0xbcd2296a	-0.025654513
209	0x3d0d3109	0.03447059
210	0x3da61894	0.08110157
211	0x3d89e9b4	0.067340285
212	0xbd77f767	-0.060538676
213	0x3d7c5911	0.061608378
214	0x3d93e943	0.072222255
215	0x3db66ab1	0.089070685
216	0x3e380b67	0.179731
217	0x3c8b49a5	0.01700289
218	0xbd142fa7	-0.036178257
219	0x3d7a80bf	0.061157938
220	0xbbb252d2	-0.005442002
221	0xbd483662	-0.04887999
222	0x3e186fd4	0.14886409
223	0x3e079fad	0.13244505
224	0xbbcd348b	-0.006262367
225	0x3eaaea9f	0.33382127
226	0x3e4555a8	0.19270957
227	0xbcedb218	-0.029015586
228	0xbbe42516	-0.006962429
229	0x3d2fb8fd	0.042901028
230	0x3e0c7b78	0.13718975
231	0xbcd33a42	-0.025784615
232	0x3e106682	0.14101604
233	0x3dc07de0	0.09399009
234	0x3e150f18	0.14556539
235	0x3df6bd15	0.12047783
236	0xbca7a6ac	-0.020465218
237	0x3e51e1ea	0.20496336
238	0x3d8ee361	0.06976963
239	0xbd8ee451	-0.06977142
240	0x3da012d4	0.07816091
241	0xbcff6905	-0.031178007
242	0x3d91a035	0.07110635
243	0x3e1c60a8	0.15271246
244	0x3dbcc9be	0.09218167
245	0x3da8bb92	0.08238901
246	0x3d6a771c	0.057242498
247	0x3de0585f	0.109543554
248	0x3dc30c86	0.09523873
249	0xbd0dc64e	-0.034612946
250	0x3bdd43c3	0.0067524626
251	0xbc7cfa73	-0.015440571
252	0x3c70fb27	0.014708317
253	0x3d21e5da	0.039525844
254	0x3deeca26	0.116596505
255	0x3d67af1d	0.056563485

encoder.model.weight_ih_l1 f4 [256, 64]
0	0xbd1f5635	-0.038900573
1	0xbde8ecf0	-0.11373317
2	0xbdf2d7c7	-0.118575625
3	0xbd1d19db	-0.038354736
4	0xbd806139	-0.06268544
5	0xbd9aed2a	-0.07564767
6	0xbd2a5053	-0.04158051
7	0x3d81a595	0.063304104
8	0x3defe0a4	0.11712769
9	0x3c1505c3	0.009095612
10	0xbd98f8bd	-0.07469318
11	0x3d031d35	0.032010276
12	0x3cbcb9e2	0.023037855
13	0x3d3c325f	0.045946475
14	0x3e1dcbf9	0.1540984
15	0xbe2c1d85	-0.16808136
16	0xbe28fad9	-0.16501941
17	0x3d656762	0.056006797
18	0xbcc44510	-0.023958713
19	0xbd5e0ee6	-0.054213427
20	0x3cef1e78	0.029189333
21	0xbdfe4835	-0.12416116
22	0xbe4621ff	-0.19348906
23	0xbd734642	-0.059393175
24	0x3d25c78c	0.040473506
25	0x3dfaed9a	0.1225235
26	0xbda640f8	-0.081178606
27	0xbd3e3b0b	-0.046443027
28	0xbcc22b90	-0.023702413
29	0xbcd6e826	-0.026233744
30	0xbd079d11	-0.033108775
31	0x3cef7f86	0.029235613
32	0x3d69b129	0.05705372
33	0x3d15ce01	0.036573414
34	0x3c4966b1	0.01229255
35	0x3e0c5fbd	0.13708396
36	0x3dca665c	0.09882805
37	0x3e17cdc3	0.14824586
38	0x3c677386	0.014126664
39	0xbe0b5d06	-0.13609704
40	0x3b8d0627	0.004303712
41	0xbca3196d	-0.019909585
42	0xbd94d313	-0.07266822
43	0xbe10d914	-0.14145309
44	0x3c97f5dc	0.018549852
45	0xbc5357a5	-0.012899314
46	0xbd1d3b3c	-0.03838657
47	0xbb1a5c9d	-0.0023553737
48	0x3cd5466b	0.026034554
49	0xbe1c1620	-0.15242815
50	0x3d2c3591	0.042043272
51	0xbce7872e	-0.0282627
52	0x3d348bc6	0.04407861
53	0xbc8a6799	-0.016895102
54	0xbc964f80	-0.018348455
55	0x3dfed8ad	0.124436714
56	0x3cfa62d1	0.030564697
57	0x3dfbe594	0.12299648
58	0x3e25c1c0	0.16187191
59	0xbe22e76f	-0.15908597
60	0xbd753dea	-0.0598735
61	0x3e32c559	0.17458095
62	0xbd9765c5	-0.07392458
63	0xbd26256b	-0.04056303
64	0xbcdc6b39	-0.026906596
65	0x3d9cb8dd	0.076524474
66	0xbd8fdf2f	-0.07024991
67	0xbe1f5a7e	-0.15561864
68	0xbd00c7e6	-0.031440638
69	0xbce6ce8a	-0.028174657
70	0xbdae0d06	-0.08498578
71	0x3b2f2df3	0.0026730269
72	0x3de95ff5	0.113952555
73	0xbd924118	-0.07141322
74	0xbd932c6a	-0.07186206
75	0xbdc6ec0f	-0.09712993
76	0xbd59ccfe	-0.05317401
77	0xbdeb4e49	-0.11489541
78	0xbad76813	-0.0016434215
79	0xbc0e5c8b	-0.008689056
80	0xbbaa8747	-0.0052041146
81	0xbc076f7f	-0.008266329
82	0x3d9d68e0	0.07686019
83	0xbd9f6ee6	-0.07784824
84	0x3bf250e1	0.0073948954
85	0xbe33ee61	-0.17571403
86	0xbe27b0d7	-0.16376053
87	0xbd4b24c6	-0.049595617
88	0xbcc525d2	-0.024065886
89	0xbcb3c070	-0.021942347
90	0xbd49c5f5	-0.049261052
91	0xbd41dc67	-0.047329333
92	0xbd0bb8f8	-0.034111947
93	0xbcfa151b	-0.030527642
94	0xbe223c65	-0.15843351
95	0x3e280086	0.1640645
96	0x3da3dc2b	0.08000978
97	0x3da4ca55	0.08046404
98	0x3d72e887	0.059303787
99	0xbd687449	-0.056751523
100	0xbda77b36	-0.081777975
101	0x3c58ff14	0.013244409
102	0xbe4b8704	-0.19875723
103	0xbe0f662b	-0.14003818
104	0x3dd5aeed	0.10433755
105	0x3ceb0627	0.028689457
106	0xbcde6f9a	-0.027152825
107	0x3c36e848	0.011163779
108	0xbd9a7e31	-0.075436
109	0x3df07b84	0.11742309
110	0x3e370424	0.17872673
111	0xbe17d47c	-0.1482715
112	0x3e0de2d6	0.13856062
113	0x3da8d8ab	0.08244451
114	0xbe26da09	-0.16294111
115	0xbd4dc83e	-0.050239794
116	0x3d916f24	0.071012765
117	0xbe0fffab	-0.14062373
118	0xbdea4cb8	-0.11440414
119	0x3dab233b	0.08356329
120	0x3c91c2be	0.017793056
121	0x3c0d8274	0.0086370595
122	0x3d884571	0.0665387
123	0xbd915e40	-0.07098055
124	0x3cbbcd59	0.022925066
125	0x3dc48aec	0.0959681
126	0xbd9224ca	-0.07135923
127	0xbd8f8e2b	-0.07009538
128	0x3e62a8c6	0.22134694
129	0xbdc45aa6	-0.09587602
130	0xbc80f437	-0.01574145
131	0xbd96ea70	-0.07368934
132	0xbda71383	-0.081580184
133	0x3d091d8d	0.033475447
134	0x3c20ded2	0.0098187495
135	0xbe16c272	-0.14722613
136	0xbd8759ba	-0.06608911
137	0x3da0b8ba	0.07847734
138	0xbd976f09	-0.07394225
139	0xbdf23859	-0.11827154
140	0xbdb2f70f	-0.08738529
141	0xbc9b11d2	-0.018929396
142	0x3d879e7e	0.06622027
143	0x3d8aeaf2	0.067830935
144	0xbcd785ad	-0.026308859
145	0x3dec4653	0.11536851
146	0xbdcc57bb	-0.09977671
147	0xbd53fb23	-0.051753175
148	0xbab3d067	-0.0013718725
149	0x3d89eaa8	0.0673421
150	0xbc16845b	-0.009186829
151	0x3d6f4b51	0.058421437
152	0x3b2cb1ad	0.002635102
153	0x3e26726a	0.16254583
154	0x3de6bf70	0.112669826
155	0x3dd85fcc	0.10565147
156	0x3b8c0bb7	0.0042738575
157	0xbd5d3386	-0.054004215
158	0xbe4cda22	-0.20005086
159	0x3d8d742b	0.06906923
160	0xbce2d852	-0.02769104
161	0xbdabf7bb	-0.0839686
162	0x3e77edb9	0.24211778
163	0x3dbb0792	0.09132303
164	0x3bd376bf	0.0064533646
165	0xbc935df5	-0.017989138
166	0xbe1281ed	-0.14307375
167	0xbda2b1a3	-0.07944038
168	0xbd679a7b	-0.05654381
169	0xbdaca1da	-0.08429308
170	0xbe02e527	-0.12782727
171	0xbdec9112	-0.115511075
172	0x3d908ba8	0.07057887
173	0x3e558c0c	0.20854205
174	0x3c68fbc4	0.014220182
175	0x3d04cb3c	0.032420382
176	0x3dec947c	0.11551759
177	0xbd572e6e	-0.052534513
178	0xbdafb507	-0.0857945
179	0xbd9a4f05	-0.07534603
180	0x3d910bdf	0.07082342
181	0xbc94f1da	-0.01818173
182	0xbc1bd239	-0.00951057
183	0x3c8fb4b4	0.01754222
184	0xbdc9e0b5	-0.098573126
185	0x3e078634	0.13234788
186	0xbe137926	-0.14401683
187	0xbcf1f2dd	-0.029534752
188	0x3da020cd	0.07818756
189	0x3e49b22a	0.1969687
190	0xbdad7d50	-0.08471167
191	0xbe23d31e	-0.15998504
192	0xbd0e8f95	-0.0348049
193	0x3dd428ac	0.1035932
194	0xbb107ad4	-0.0022045868
195	0xbdb8b420	-0.09018731
196	0xbe35ddca	-0.17760387
197	0xbd3283c4	-0.043582693
198	0xbcefd490	-0.029276162
199	0xbe47d71b	-0.1951565
200	0x3bc19463	0.0059075817
201	0x3e0e4830	0.13894725
202	0xbe09d58f	-0.13460372
203	0xbd9f9434	-0.077919394
204	0xbe1fc396	-0.15601954
205	0xbda30962	-0.07960774
206	0x3e44ef4d	0.19231911
207	0xbe3c5d44	-0.18394953
208	0xbe1947e7	-0.14968835
209	0x3e59e83d	0.21279998
210	0xbc9234d3	-0.017847454
211	0xbe5c6159	-0.2152151
212	0xbd8a2965	-0.06746177
213	0xbe400d69	-0.18755116
214	0xbdfcc90b	-0.123430334
215	0x3deddd72	0.11614503
216	0xbe1d411f	-0.15356873
217	0x3db14f81	0.08657742
218	0x3e570523	0.20998053
219	0x3dfdf02c	0.12399325
220	0x3cf5ee2e	0.0300208
221	0x3d555058	0.052078575
222	0xbe33602f	-0.1751716
223	0x3e435fec	0.1907956
224	0x3daeec96	0.08541219
225	0x3dc44428	0.09583312
226	0x3dd50c20	0.10402703
227	0x3b34e7c5	0.0027603966
228	0x3d74073b	0.059577208
229	0x3dd25bca	0.102714136
230	0xbd86c788	-0.06581026
231	0xbe375cac	-0.17906445
232	0xbb2e54b2	-0.0026600775
233	0xbe19f2b3	-0.15033989
234	0xbe0135e3	-0.12618212
235	0x3dcb74a0	0.09934354
236	0x3e2f7645	0.1713496
237	0x3e35fbf5	0.17771895
238	0x3da1f53c	0.07908103
239	0xbda92481	-0.08258916
240	0x3c45d189	0.012073883
241	0xbe476e07	-0.19475566
242	0xbdd9edff	-0.10641097
243	0xbe0ae3c2	-0.13563445
244	0x3e00447b	0.12526123
245	0x3c12abf8	0.008952133
246	0xbc25065d	-0.010072318
247	0x3df2e00a	0.11859138
248	0xbe3e988c	-0.1861288
249	0x3dba946d	0.09110341
250	0x3c11f716	0.008909008
251	0x3daf62e7	0.08563786
252	0xbd240500	-0.04004383
253	0x3dc3d0d8	0.09561318
254	0xbcff7001	-0.031181337
255	0xbb3123fa	-0.00270295

encoder.model.weight_hh_l1 f4 [256, 64]
0	0x3d272f80	0.040816784
1	0x3e2f9d67	0.17149888
2	0x3cf4e5aa	0.029894669
3	0x3d6c490e	0.057686858
4	0x3de1965a	0.110150054
5	0xbc52b92d	-0.012861532
6	0xbdc95cf4	-0.098321825
7	0xbe3e7113	-0.18597822
8	0x3bb1a6a9	0.0054214788
9	0xbd293434	-0.04130955
10	0x3e0fd82e	0.1404731
11	0xbdd692ae	-0.10477196
12	0xbc9019b7	-0.017590387
13	0x3b87bfaf	0.0041427235
14	0x3d932637	0.07185023
15	0xbe24e609	-0.16103376
16	0xbe384042	-0.17993262
17	0x3b9de203	0.0048182025
18	0x3d3ca793	0.04605825
19	0xbd23493d	-0.039864767
20	0x3d90a539	0.07062764
21	0x3d77c45e	0.060490005
22	0x3c479a23	0.012182745
23	0xbdeeae2b	-0.11654314
24	0xbd2edb20	-0.042689443
25	0xbd5d007f	-0.05395555
26	0x3e0dafa2	0.1383653
27	0xbd168dfb	-0.036756497
28	0x3d61dadc	0.05514036
29	0x3e3fe735	0.18740542
30	0xbdd13ab5	-0.102162756
31	0x3c7e39c5	0.015516703
32	0x3d87de26	0.06634168
33	0x3d0f00d1	0.034912888
34	0x3d546939	0.05185816
35	0x3d68f73e	0.056876414
36	0xbd1b7d1c	-0.03796111
37	0xbd87f363	-0.06638219
38	0x3dc2f6e9	0.095197506
39	0x3d25fcb8	0.040524215
40	0xbcebe352	-0.028794918
41	0xbd85564e	-0.06510602
42	0xbd28038a	-0.041019
43	0x3c9b2064	0.018936343
44	0x3df241e5	0.11828975
45	0x3b6551ac	0.0034991307
46	0x3a952afb	0.0011380607
47	0x3c8a9f65	0.016921708
48	0xbe31ee80	-0.17376137
49	0x3d0121e2	0.031526454
50	0x3dedfd15	0.11620537
51	0x3d1d1c06	0.038356803
52	0xbc6e1b26	-0.01453284
53	0x3d5a1fa1	0.05325282
54	0x3df1a95d	0.117998816
55	0xbcab058f	-0.020876674
56	0x3d94d44d	0.07267056
57	0xbc5adb9a	-0.013358021
58	0x3d5ffc11	0.05468375
59	0xbc792a1a	-0.015207792
60	0x3dc0f952	0.09422554
61	0xbca1edd7	-0.019766731
62	0x3d081f55	0.033233006
63	0xbbd2fe1a	-0.0064389827
64	0x3dd4073b	0.103529416
65	0x3cd6f82f	0.02624139
66	0xbda7b08b	-0.0818797
67	0xbc1a1f37	-0.009406856
68	0xbe05a488	-0.13051045
69	0xbe231d68	-0.15929186
70	0x3d6fea23	0.0585729
71	0x3cefe59c	0.029284291
72	0xbd139b6d	-0.036036897
73	0xbe18f9d0	-0.14939046
74	0x3cac13df	0.021005569
75	0x3d2af8dc	0.041741237
76	0xbd920450	-0.07129729
77	0xbdfc259a	-0.123118594
78	0x3e2c1862	0.16806176
79	0x3d978145	0.07397703
80	0xbdca296a	-0.0987118
81	0xbd4cfd0b	-0.050046008
82	0x3e1d1bc5	0.15342624
83	0xbdfcf871	-0.12352074
84	0xbdbb336c	-0.09140667
85	0xbcc4dd8a	-0.02403142
86	0x3dcbafc7	0.09945636
87	0xbd874176	-0.066042826
88	0xbdb9c639	-0.09071011
89	0xbd949276	-0.07254498
90	0x3d764533	0.060124587
91	0xbd93b541	-0.07212306
92	0x3e7161c8	0.23572457
93	0xbd32d570	-0.04366058
94	0xbc40489d	-0.011736062
95	0x3db5ab5d	0.088705756
96	0xbd67f8e2	-0.056633838
97	0xbde140b8	-0.10998672
98	0x3e266bd8	0.16252077
99	0x3e7e7b56	0.24851736
100	0x3d67101f	0.05641186
101	0xbdbd6c08	-0.09249121
102	0x3dc0fd75	0.09423343
103	0x3dffc2da	0.12488337
104	0xbdc70b1c	-0.09718916
105	0xbe605fd0	-0.2191155
106	0xbc991b83	-0.018689876
107	0xbe35997b	-0.1773433
108	0x3dec7648	0.11545998
109	0xbe290944	-0.16507441
110	0x3cc5ae1f	0.024130879
111	0xbc223755	-0.0099008875
112	0xbe1a64e2	-0.15077546
113	0x3e05f6fb	0.13082497
114	0x3d9a6f05	0.075407065
115	0x3e113487	0.14180194
116	0x3cc77513	0.024347818
117	0xbe058f8d	-0.13043042
118	0x3d9dfde6	0.07714443
119	0x3da22469	0.07917101
120	0xbc578307	-0.013153798
121	0xbcba65a0	-0.022753537
122	0x3e4e9077	0.20172296
123	0x3d8e5761	0.0695026
124	0x3e665258	0.22492349
125	0xbd8b35f5	-0.06797401
126	0xbd64c778	-0.05585429
127	0xbd951eea	-0.07281287
128	0x3e4cbe63	0.19994502
129	0x3e13fcb3	0.14451866
130	0x3d8b6128	0.068056405
131	0xbdf0f472	-0.11765374
132	0x3c93072a	0.017947752
133	0x3dd57650	0.10422957
134	0xbcfba59d	-0.030718619
135	0xbe091e5c	-0.13390487
136	0x3d66e1fb	0.056367856
137	0xbe12d0fb	-0.14337532
138	0x3dd7e7d7	0.10542267
139	0x3e2b36b8	0.16720092
140	0x3d0988f5	0.033577878
141	0xbd1d5654	-0.038412407
142	0x3e263d56	0.16234335
143	0x3d44fea7	0.048094418
144	0x3d052994	0.032510355
145	0xbc75f7d1	-0.015012697
146	0x3cb70568	0.022341445
147	0xbd565d40	-0.052335024
148	0xbe71a834	-0.2359932
149	0x3d1a2b9e	0.037639253
150	0x3da520da	0.080629066
151	0x3d67166f	0.05641788
152	0xbdb3baed	-0.08775888
153	0xbcd26c78	-0.025686488
154	0x3c00364a	0.0078254435
155	0xbd422cf8	-0.047406167
156	0xbd19aa08	-0.03751567
157	0x3e14b979	0.14523877
158	0xbcf9ce85	-0.030493984
159	0x3d8dc73b	0.06922766
160	0x3d4639e2	0.048395045
161	0xbe210e8e	-0.15728208
162	0xbd9d64d5	-0.07685248
163	0x3e0d089c	0.13772815
164	0x3c2c06f1	0.010499702
165	0xbd8b3ce1	-0.06798721
166	0xbcb1b198	-0.021691129
167	0x3dd6c517	0.10486811
168	0xbdfc6bb0	-0.12325227
169	0x3c2fb887	0.010725147
170	0x3c9ec738	0.019382104
171	0x3d763184	0.060105816
172	0xbd8635fa	-0.06553264
173	0xbdc04f68	-0.093901455
174	0xbd3d116c	-0.046159193
175	0xbcdebad3	-0.027188694
176	0xbdd2517b	-0.102694474
177	0x3e1261a7	0.14295064
178	0xbd4b4ea6	-0.049635552
179	0x3d81770b	0.06321534
180	0x3da9672a	0.0827163
181	0xbdffe5e2	-0.124950185
182	0x3a0508a9	0.0005074838
183	0x3dbf7018	0.09347552
184	0xbce7bcc7	-0.028288258
185	0x3cddc29c	0.027070336
186	0x3cf8654f	0.030321745
187	0x3e0ebc2d	0.13938971
188	0x3cd28074	0.025696017
189	0x3d32b52f	0.04362982
190	0x3cc23259	0.023705648
191	0x3d04924f	0.032366093
192	0x3e6b16e8	0.22957957
193	0x3e28cd62	0.16484597
194	0xbd0ed2ee	-0.034869127
195	0xbd8eca2b	-0.06972154
196	0xbd955e89	-0.07293422
197	0xbe04b931	-0.1296127
198	0xbd04da05	-0.032434482
199	0xbe04c97a	-0.12967482
200	0xbd58612a	-0.052827038
201	0xbd6c5af2	-0.05770392
202	0x3d4b6365	0.049655337
203	0x3e52128c	0.20514888
204	0xbd0f5d96	-0.03500136
205	0xbdf50420	-0.119636774
206	0x3daf4c4c	0.08559474
207	0x3e3b9e14	0.18322021
208	0x3d74a197	0.059724417
209	0x3d7b3bd0	0.06133634
210	0xbda2a650	-0.07941878
211	0xbd020067	-0.031738665
212	0xbdbbe45f	-0.09174418
213	0xbe4cb446	-0.19990644
214	0x3c953af8	0.018216595
215	0xbd44fc64	-0.04809226
216	0xbd74da25	-0.05977835
217	0xbd958f3f	-0.07302713
218	0xbb94fc65	-0.0045466893
219	0xbccd2173	-0.025040364
220	0x3cb03038	0.021507367
221	0x3e0b4d19	0.13603629
222	0x3badbb6f	0.005301885
223	0x3e1efb66	0.15525588
224	0xbd826283	-0.06366446
225	0x3cd135c7	0.025538338
226	0x3d6e0b18	0.05811605
227	0x3e58ffcd	0.2119133
228	0x3d64c059	0.0558475
229	0xbe1d412a	-0.1535689
230	0x3d80caa9	0.06288654
231	0xbd843eda	-0.064573005
232	0xbd8e0337	-0.06934207
233	0x3bc6e50e	0.006069786
234	0xbe512fae	-0.20428345
235	0xbe304cc9	-0.17216791
236	0x3d1d0511	0.03833491
237	0xbd9b27ff	-0.07575988
238	0x3de8981a	0.11357136
239	0x3e1f2f58	0.15545404
240	0xbe32dcbf	-0.1746702
241	0x3e132089	0.1436788
242	0x3d638c16	0.05555352
243	0xbca58a37	-0.020207508
244	0x3ca93015	0.02065281
245	0x3c73e5a0	0.01488629
246	0x3c2c1998	0.010504149
247	0x3c63d069	0.013904669
248	0x3d88b7b7	0.06675666
249	0xbd83e7cd	-0.06440697
250	0x3c98a271	0.018632146
251	0x3d99f920	0.0751822
252	0x3df280a3	0.11840942
253	0x3b0ecc3d	0.0021789216
254	0xbdab164b	-0.083538614
255	0xbe497467	-0.1967331

encoder.model.bias_ih_l1 f4 [256]
0	0x3d5eed29	0.054425392
1	0x3d45ee36	0.04832288
2	0xbc2414a9	-0.010014691
3	0x3e2885e7	0.1645733
4	0x3cebdf57	0.02879302
5	0x3e04356e	0.12911007
6	0x3d6c075d	0.05762421
7	0xbb1e53dd	-0.0024158873
8	0x3dd66773	0.1046895
9	0x3e8145b0	0.2524848
10	0x3e032c86	0.12809953
11	0x3dd4020c	0.10351953
12	0x3dcbc472	0.09949578
13	0x3db2d79c	0.087325305
14	0xbce063bf	-0.027391313
15	0x3e2a29b1	0.16617467
16	0x3e7e2bb1	0.24821354
17	0xbd3d9231	-0.046281997
18	0x3d63a42c	0.05557649
19	0xbd57266c	-0.052526876
20	0x3eb01a9b	0.34395298
21	0x3e0d4684	0.13796431
22	0xbd6f4190	-0.058412135
23	0x3cf6ee12	0.030142818
24	0x3e88249c	0.2659043
25	0x3d98dd5d	0.07464097
26	0x3e27237e	0.16322133
27	0x3e1d8865	0.15384062
28	0x3c8c24a6	0.01710732
29	0x3e185d03	0.14879231
30	0x3e9ccff1	0.30627397
31	0x3dc18b7e	0.09450434
32	0x3d35ed86	0.044415973
33	0x3e2ff419	0.1718296
34	0x3d8dc18c	0.06921682
35	0xbc3a3b43	-0.011366668
36	0x3d115633	0.035482597
37	0xbd4520e9	-0.04812709
38	0x3cce6f18	0.025199458
39	0xbd698fcf	-0.057021912
40	0xbd9ebfee	-0.077514514
41	0xba816aa1	-0.0009873697
42	0xbd37c022	-0.044860967
43	0xbd704e24	-0.05866827
44	0xbd4d6bd2	-0.050151654
45	0xbd363a29	-0.04448906
46	0x3d9fa5ba	0.07795282
47	0xbd23adc5	-0.03996064
48	0x3debc380	0.11511898
49	0x3dc14932	0.09437789
50	0x3e2d8b0b	0.16947572
51	0x3e3d799e	0.18503425
52	0x3e35840a	0.1772615
53	0xbc7b18d4	-0.015325744
54	0x3decc467	0.11560898
55	0x3d3260c7	0.043549325
56	0x3e844f8b	0.25841936
57	0x3e1d77ea	0.15377775
58	0x3dd0f9b9	0.10203881
59	0x3b9960bb	0.0046807206
60	0xbbfe91d6	-0.00776885
61	0x3b6fcabd	0.0036589347
62	0xbdc63d51	-0.09679664
63	0xbda56fd9	-0.08077974
64	0x3d8e8ddf	0.069606535
65	0x3d80c3ec	0.06287369
66	0xbdb4bd12	-0.08825125
67	0x3dfe90c6	0.12429957
68	0xbda51a56	-0.08061664
69	0xbdde1872	-0.10844506
70	0xbd9e92ef	-0.07742869
71	0xbd882570	-0.06647766
72	0xbd58a980	-0.052896023
73	0xbe00ccd0	-0.1257813
74	0xbd207e53	-0.039182972
75	0x3d904327	0.07044058
76	0xbd23fbbb	-0.04003499
77	0xbb7d2a0e	-0.0038629803
78	0x3cd1bdf0	0.025603265
79	0x3d1b6436	0.037937365
80	0xbd8643b7	-0.06555884
81	0xbd879f1a	-0.06622143
82	0x3e1ddecd	0.15417023
83	0x3dad019e	0.08447574
84	0xbd4042db	-0.04693876
85	0xbd13e74e	-0.03610926
86	0x3d59b567	0.053151514
87	0x3e0be3b4	0.1366108
88	0x3d8dc6e1	0.06922699
89	0x3d878528	0.066171944
90	0xbcf3baf2	-0.029752228
91	0xbd787752	-0.060660668
92	0xbe03f1f6	-0.1288527
93	0x3d8b4013	0.067993306
94	0x3c6afa03	0.014341834
95	0xbbd0affa	-0.0063686343
96	0xbdeb1cbd	-0.11480091
97	0x3dc09f88	0.09405428
98	0x3bad9f89	0.005298559
99	0xbd0eb16f	-0.034837183
100	0x3de2c1ce	0.110721216
101	0xbd8eff8d	-0.06982336
102	0x3d446d76	0.047955953
103	0x3d4d1bf1	0.050075475
104	0x3dd26fc8	0.10275227
105	0x3db0a125	0.08624486
106	0xbdda9654	-0.10673204
107	0xbca014fb	-0.019541254
108	0x3dedba96	0.11607854
109	0xbdb39b3f	-0.08769845
110	0x3d4e8db3	0.050428104
111	0xbd6a64ef	-0.057225164
112	0x3d7ea179	0.06216571
113	0x3d2b6f14	0.04185398
114	0x3e277937	0.16354834
115	0xbbea5af2	-0.007151955
116	0xbc7fa34e	-0.0156029
117	0xbbb29f54	-0.0054511223
118	0xbce2878f	-0.02765253
119	0x3e1899f9	0.14902486
120	0x3cc95600	0.02457714
121	0xbdacc4c0	-0.084359646
122	0xbd8d1692	-0.068890706
123	0xb9da00c7	-0.0004158078
124	0x3da1311d	0.07870696
125	0x3c738381	0.014862896
126	0xbdb85692	-0.09000887
127	0x3b8d6744	0.0043152887
128	0x3de751f3	0.112949274
129	0xbc9246b2	-0.017855976
130	0x3beb0803	0.007172586
131	0xbdc1f6e0	-0.09470916
132	0xbdeb419a	-0.11487122
133	0xbd994aa4	-0.0748494
134	0xbd18b3bc	-0.037280783
135	0x3c77ef4b	0.0151327355
136	0xbb4559cb	-0.0030113335
137	0xbdba66cc	-0.09101638
138	0x3ca94b6c	0.020665847
139	0x3d83de65	0.06438903
140	0xbc58ecff	-0.013240098
141	0xbe0d471a	-0.13796654
142	0x3c73d474	0.014882196
143	0x3db4edef	0.08834445
144	0xbdb77f1b	-0.0895979
145	0xbd8c6a7b	-0.06856247
146	0xbd7e1212	-0.062028952
147	0xbe52735f	-0.20551823
148	0x3d1faae5	0.038981337
149	0xbd1192b1	-0.035540286
150	0xbd1f888e	-0.038948588
151	0x3d5324fb	0.05154894
152	0xbe696255	-0.22791417
153	0x3df58f6d	0.11990247
154	0xbc9fd6a3	-0.019511526
155	0xbc99b896	-0.018764775
156	0x3da55817	0.080734424
157	0xbb8eac00	-0.004354
158	0xbd1e6c30	-0.038677394
159	0x3cd8ed33	0.026480293
160	0x3d3cf2e8	0.04613009
161	0x3d66a025	0.05630507
162	0x3e876750	0.2644601
163	0x3e054e74	0.13018209
164	0x3d69d7e1	0.057090644
165	0xbd8b84e7	-0.068124585
166	0xbc7f620d	-0.015587342
167	0x3d68aa94	0.0568033
168	0xbc3c0d49	-0.011477777
169	0xbbd620c1	-0.0065346663
170	0xbdd32e27	-0.10311537
171	0x3d6168a6	0.05503144
172	0xbd8446e1	-0.064588316
173	0x3ca13a18	0.019681022
174	0xbd82d930	-0.063890815
175	0xbcad1cf6	-0.021131974
176	0xbe2f3054	-0.1710828
177	0x3dda1109	0.106477804
178	0x3c0c9e8c	0.008582722
179	0xbbad922e	-0.005296967
180	0x3deeaf64	0.11654547
181	0x3de3c2df	0.11121153
182	0x3e001ba5	0.12510546
183	0x3d487585	0.0489402
184	0x3ce6674d	0.02812543
185	0x3d1b7486	0.037952922
186	0x3e0c7fa9	0.13720573
187	0xbd071296	-0.03297671
188	0x3c656b70	0.014002666
189	0x3c033858	0.008009039
190	0x3d9cd58f	0.076579206
191	0xbe010c18	-0.1260227
192	0x3da8284b	0.0821081
193	0x3d1e17fa	0.038597085
194	0x3db0708e	0.08615218
195	0x3e562ca3	0.20915465
196	0x3db5c450	0.08875334
197	0xbd58eedb	-0.052962165
198	0xbd1932d1	-0.037401978
199	0xbd66696e	-0.05625289
200	0x3cf38b05	0.029729376
201	0x3d9143a4	0.070929796
202	0x3d8322a0	0.064030886
203	0x3e54486d	0.20730753
204	0xbd6809fa	-0.05665014
205	0xbddb065c	-0.10694572
206	0x3e31072f	0.17287897
207	0x3d557e6a	0.05212251
208	0x3ea9911f	0.3311853
209	0x3c8348e0	0.01602596
210	0x3b9441a9	0.004524429
211	0x3e0dbbac	0.13841122
212	0x3e7aa5b5	0.24477275
213	0xbce7577d	-0.02823996
214	0xbc40c7ee	-0.011766417
215	0xbd885f90	-0.06658852
216	0x3defda77	0.11711591
217	0x3c98248e	0.018572118
218	0x3e07f86c	0.13278359
219	0x3e220a96	0.1582435
220	0x3e1adb37	0.15122686
221	0x3dd157ff	0.10221862
222	0xbcff90e9	-0.031197028
223	0x3e75a143	0.23987298
224	0x3e1fc361	0.15601875
225	0x3cf3f57d	0.029780144
226	0xbd964fcc	-0.07339439
227	0x3e2d1d04	0.169056
228	0x3d7c3c41	0.0615809
229	0x3dc794f4	0.097452074
230	0x3ccdb935	0.025112728
231	0xbd44d01b	-0.048050027
232	0x3e207ba5	0.15672167
233	0x3c1d180a	0.009588251
234	0xbd80de16	-0.062923595
235	0x3d036845	0.03208186
236	0x3e3c2d0c	0.18376559
237	0xbcdac5da	-0.026705671
238	0x3c7f0157	0.015564284
239	0xbd76d240	-0.060259104
240	0x3d8a322e	0.06747852
241	0x3de87684	0.1135073
242	0x3dfda738	0.1238541
243	0x3d4ede9d	0.05050527
244	0x3da06f9c	0.07833788
245	0x3df4d1cc	0.11954078
246	0x3dd6e229	0.104923554
247	0x3e30d42b	0.17268436
248	0x3d61d267	0.055132296
249	0xbc52c623	-0.012864622
250	0x3d93a433	0.07209053
251	0x3e1d7594	0.15376884
252	0x3e10b38a	0.14130989
253	0x3e427519	0.18989982
254	0x3df75b21	0.12077928
255	0x3e0d058a	0.13771644
