models/20200923_212102/epoch_0000_loss_1200361.61328.pt (torch, 857809 bytes, 96 tensors)

encoder.model.weight_ih_l0 f4 [256, 3]
0	0x3c17b348	0.009259053
1	0x3da69345	0.08133558
2	0xbbce9a80	-0.006305039
3	0x3de2220c	0.1104165
4	0xbdbf9f1a	-0.09356518
5	0x3d7e152c	0.06203191
6	0xbdc367f2	-0.0954131
7	0x3b8fa99a	0.0043842318
8	0x3bf18284	0.007370295
9	0x3d0fe4c2	0.03513027
10	0x3df85d68	0.12127191
11	0xbd8044ca	-0.062631205
12	0x3d3eeb93	0.04661138
13	0xbdbb7f8d	-0.09155188
14	0x3d819780	0.063277245
15	0x3d939202	0.07205583
16	0x3da81579	0.082072206
17	0xbdc5380f	-0.09629833
18	0xbd7e5333	-0.062091064
19	0xbd611163	-0.054948222
20	0xbdde4c98	-0.10854453
21	0xbd0c82d8	-0.03430447
22	0xbca12948	-0.019673005
23	0xbd7df7ac	-0.062003776
24	0xbbc09f4e	-0.0058783656
25	0x3dd1754b	0.1022745
26	0xbd7d4200	-0.06183052
27	0x3d6f3af8	0.058405846
28	0xbdbe6f17	-0.092985325
29	0x3df77df3	0.1208457
30	0xbbeb8a10	-0.007188089
31	0x3d4b6b6c	0.049662992
32	0x3d804de8	0.062648594
33	0x3d3c750e	0.04601007
34	0x3d71fa54	0.059076622
35	0xbd5e2784	-0.054236904
36	0x3d7b7fe7	0.061401274
37	0x3a81c8cb	0.000990176
38	0xbb9d1965	-0.004794287
39	0x3d9e9f4f	0.077452295
40	0xbcd928c1	-0.02650869
41	0xbd17d5e2	-0.03706921
42	0xbd99ff88	-0.07519442
43	0x3df51a50	0.11967909
44	0x3dc48072	0.095948115
45	0xb9775990	-0.0002358912
46	0x3cbc2dc6	0.022971045
47	0xbdab3f3a	-0.08361669
48	0x3dc42e70	0.0957917
49	0xbd3511cf	-0.044206437
50	0xbdab9665	-0.08378295
51	0x3d94f453	0.07273164
52	0x3c9584ae	0.018251743
53	0x3df8f8cc	0.12156829
54	0xbd95310e	-0.07284747
55	0x3cdc0c54	0.026861347
56	0x3d505ca0	0.050869584
57	0x3dba6c90	0.09102738
58	0xbdee21fa	-0.11627574
59	0x3d877056	0.06613223
60	0xbcdc025f	-0.0268566
61	0xbd91073b	-0.07081457
62	0xbced952c	-0.029001795
63	0x3df97c2d	0.12181888
64	0x3d988ea0	0.074490786
65	0x3da3d123	0.07998874
66	0x3db2b60d	0.0872613
67	0xbdd0c23b	-0.101932965
68	0x3dc44f77	0.09585469
69	0x3cc4c425	0.02401931
70	0xbc8a5983	-0.016888386
71	0x3d8dfdd7	0.06933182
72	0x3df15bc1	0.11785079
73	0x3c896bab	0.016774973
74	0xbcc9713d	-0.024590129
75	0x3daf8906	0.08571057
76	0x3d827a62	0.06370999
77	0x3afbdeb6	0.0019216153
78	0xbdea556e	-0.11442076
79	0xbdf58e67	-0.11990052
80	0xbce451d8	-0.027871057
81	0x3dae528a	0.08511837
82	0xba150873	-0.0005685158
83	0x3d0c9333	0.034320068
84	0x3b98aed8	0.004659515
85	0x3d142be7	0.03617468
86	0xb9d94e57	-0.00041447833
87	0xbdd1ebc0	-0.10250044
88	0x3da2be3f	0.07946443
89	0x3d05ee3a	0.032697894
90	0xbce4da85	-0.02793623
91	0xbd43a2e6	-0.047762774
92	0xbddaade6	-0.106777
93	0x3da0bcd9	0.0784852
94	0x3c1ad5ec	0.009450417
95	0xbd2fe066	-0.042938612
96	0xbdd82dfe	-0.10555647
97	0x3db897b6	0.090133116
98	0xbc783938	-0.015150361
99	0xbcdb7bd9	-0.026792454
100	0xbc0bde0f	-0.00853683
101	0x3dbecf24	0.09316853
102	0x3df715f9	0.12064738
103	0xbc9d7403	-0.019220358
104	0xbd4ef93b	-0.050530653
105	0xbdc06668	-0.093945324
106	0xbbdd9e14	-0.006763229
107	0xbcf65647	-0.030070437
108	0xbddc1052	-0.107453
109	0xbded7aa7	-0.1159566
110	0xbbcb89e2	-0.0062115053
111	0x3dda43f8	0.10657495
112	0x3c455094	0.012043137
113	0xbbbcbf72	-0.0057601267
114	0xbdac5fa7	-0.08416682
115	0xbc2547bc	-0.010087904
116	0xbc09c75c	-0.008409347
117	0x3dfb45d8	0.12269181
118	0xbd4dfbc9	-0.05028895
119	0x3dbdb23a	0.0926251
120	0x3bd05c46	0.006358656
121	0xbd484677	-0.048895326
122	0x3d24ed1d	0.04026519
123	0x3ba3adf7	0.0049951035
124	0xbd15dce4	-0.03658761
125	0xbd39ebf5	-0.04539104
126	0x3c9ce30e	0.019151237
127	0x3dcb79ad	0.09935317
128	0x3deb216d	0.11480985
129	0x3db88aee	0.09010874
130	0x3caab6f5	0.020839194
131	0xbdb3f011	-0.087860234
132	0xbdad515f	-0.08462786
133	0x3d887c68	0.066643536
134	0xbda10db3	-0.07863941
135	0x3cc4e199	0.024033355
136	0xbda6cfc1	-0.08145095
137	0xbd8a206f	-0.067444675
138	0x3df25705	0.11833004
139	0xbd317b0a	-0.04333023
140	0xbd9d7bfc	-0.07689664
141	0xbd95d45c	-0.07315895
142	0xb9bad5f0	-0.0003563608
143	0x3d6dcc0b	0.05805592
144	0x3d003144	0.031296983
145	0x3df7ce7b	0.1209993
146	0x3defcbc4	0.11708787
147	0x3d059f2f	0.032622512
148	0x3dbc89b0	0.09205949
149	0xbdd4df04	-0.10394099
150	0x3b67f45a	0.0035393448
151	0xbd43058e	-0.04761272
152	0xbd90a988	-0.070635855
153	0xbdb7209f	-0.08941769
154	0x3dcaad5f	0.09896349
155	0x3ddb78f9	0.10716433
156	0x3d0dc7c7	0.03461435
157	0xbc49e56f	-0.012322768
158	0x3c2ce124	0.010551725
159	0xbc7f03fe	-0.015564917
160	0xbcf167e2	-0.02946848
161	0x3cbac47c	0.02279877
162	0xbd15f417	-0.036609735
163	0xbd63f6c5	-0.05565526
164	0xbd1b0168	-0.037843138
165	0x3d80461a	0.06263371
166	0xbd8da6ed	-0.06916604
167	0x3dba1523	0.09086063
168	0xbccfcc03	-0.025365835
169	0xbdda256e	-0.106516704
170	0xbdd1ec44	-0.10250142
171	0xbd8d6892	-0.06904711
172	0x3a63b2b7	0.00086859934
173	0xbd9fc73d	-0.078016736
174	0xbbe4f0cc	-0.006986713
175	0xbd509807	-0.050926235
176	0x3d48311d	0.048874963
177	0xbda21e24	-0.07915905
178	0x3b974871	0.00461679
179	0xbdfe93a9	-0.12430508
180	0xbdc07de9	-0.093990155
181	0xbd1c130e	-0.03810411
182	0xbd8b6510	-0.068063855
183	0x3d614fb3	0.055007648
184	0xbd8fc2e9	-0.07019598
185	0xbc42c4dc	-0.011887755
186	0xbd524c3a	-0.051342227
187	0xbcc37f16	-0.02386431
188	0x3d50e724	0.051001683
189	0x3bc77b32	0.006087684
190	0x3db93c90	0.090447545
191	0x3dba4e3f	0.090969555
192	0xbd19424a	-0.037416734
193	0xbd882b40	-0.06648874
194	0x3d93b98f	0.07213127
195	0x3d99a986	0.07503037
196	0xbca2b254	-0.019860424
197	0x3d31e9ee	0.043435983
198	0xbdc75852	-0.09733643
199	0x3dcd3ba4	0.10021141
200	0x3c43c226	0.011948144
201	0xbdae2b2d	-0.08504329
202	0x3d801c1c	0.062553614
203	0xbdef634d	-0.11688862
204	0xbde9d584	-0.11417678
205	0xbdc69722	-0.09696795
206	0xbcc35ab9	-0.02384697
207	0xbcdf5f2b	-0.02726706
208	0x3dd8e03a	0.10589643
209	0x3d554123	0.052064072
210	0xbddad863	-0.10685804
211	0xbdae3586	-0.085063025
212	0x3db29a85	0.087208785
213	0xbde38581	-0.11109448
214	0xbdd6108c	-0.10452375
215	0x3d9cbf53	0.0765368
216	0xbd573167	-0.052537348
217	0xbdededb1	-0.11617602
218	0xbdcbc654	-0.099499375
219	0xbdece315	-0.1156675
220	0x3dd5d88d	0.104416944
221	0xbd63504b	-0.055496495
222	0xbcc661e3	-0.024216598
223	0x3d949282	0.07254507
224	0xbc1d44ae	-0.009598894
225	0x3d881d20	0.0664618
226	0xbdca4981	-0.09877301
227	0xbdc32752	-0.09528984
228	0x3dfbef68	0.123015225
229	0xbd30e048	-0.04318264
230	0xbdea60e1	-0.114442594
231	0x3d06b6a8	0.03288904
232	0xbdeab54a	-0.114603594
233	0x3dffda1f	0.12492775
234	0xbdee5490	-0.11637223
235	0xbccc9a97	-0.024976058
236	0xbd968246	-0.073490664
237	0x3dd4c7a8	0.10389644
238	0x3dbe6b23	0.092977785
239	0xbde815a4	-0.113322526
240	0xbd00f579	-0.0314841
241	0x3d9d58e3	0.076829694
242	0xbd3b25fa	-0.045690514
243	0xbda0303b	-0.07821699
244	0xbdcf9d6d	-0.101374485
245	0xbcf9d2ff	-0.030496119
246	0x3df1774f	0.117903344
247	0xbdc93759	-0.0982501
248	0x3c1cbadc	0.009566035
249	0xbcb9f9fe	-0.022702213
250	0x3d1557a0	0.03646052
251	0xbdae357a	-0.085062936
252	0x3d2579e0	0.040399432
253	0xbc20d564	-0.009816501
254	0x3c0f1101	0.008732081
255	0x3ddaaa89	0.10677058

encoder.model.weight_hh_l0 f4 [256, 64]
0	0x3cb53ba2	0.022123162
1	0x3dd8aba4	0.10579613
2	0xbbc87ba3	-0.0061182543
3	0xbd84e7b5	-0.06489507
4	0xbd0d7e73	-0.03454442
5	0x3dd57b23	0.10423877
6	0xbe05996d	-0.13046809
7	0x3dd7bc26	0.10533933
8	0xba455e95	-0.00075290474
9	0xbdb36d4b	-0.0876108
10	0xbdddde0d	-0.108333685
11	0xbd3c3c5f	-0.04595601
12	0xbdd976c2	-0.106183544
13	0x3d9180b8	0.07104629
14	0xbdc84bd2	-0.097800866
15	0x3c5be0da	0.013420308
16	0x3dee276d	0.116286136
17	0x3c8415ac	0.016123615
18	0x3d79fdbf	0.061033007
19	0x3cbbece1	0.022940101
20	0xbc86da30	-0.016461462
21	0xbd2a3287	-0.041552093
22	0x3de20ac9	0.11037213
23	0x3ca2b70d	0.019862676
24	0x3ddf33ea	0.10898574
25	0xbcd9f167	-0.026604367
26	0xbdf21609	-0.11820609
27	0x3d243016	0.04008492
28	0x3db3d079	0.087799974
29	0x3deb6904	0.114946395
30	0xba3ee45b	-0.00072819524
31	0x3d9da37c	0.07697198
32	0x3d5e9e7c	0.05435036
33	0xbc30fe33	-0.010802793
34	0x3d858b1d	0.065206744
35	0xbce37642	-0.02776635
36	0xbd0b1c34	-0.033962443
37	0x3d9d3333	0.07675781
38	0x3dcfa9a7	0.101397805
39	0x3db82a06	0.0899239
40	0x3c76048c	0.0150157325
41	0x3d93fb80	0.07225704
42	0x3de405ca	0.11133917
43	0xbdd86b66	-0.105673596
44	0x3cc91f53	0.02455107
45	0xbdaefdd0	-0.08544505
46	0xbd7a59fb	-0.06112097
47	0xbdfb75ba	-0.12278314
48	0xbddd6a4d	-0.10811291
49	0xbd8cdc50	-0.06877959
50	0x3cbbabc0	0.022909045
51	0xbd954309	-0.072881766
52	0x3d526d0d	0.05137353
53	0x3d4e0d91	0.050305907
54	0xbceebc16	-0.02914242
55	0xbd1e85fb	-0.038701992
56	0xbd830dd3	-0.06399121
57	0x3dc6ab1e	0.09700607
58	0xbc8455f9	-0.016154276
59	0x3da1ca35	0.07899896
60	0x3cce447b	0.025179138
61	0x3cbb4341	0.022859218
62	0xbd33b7c7	-0.043876436
63	0x3caf928b	0.021432182
64	0xbdbe3449	-0.09287316
65	0xbddc22d5	-0.10748831
66	0x3d7ef260	0.062242866
67	0x3a6ca603	0.0009027423
68	0x3c855475	0.016275624
69	0x3de0d82d	0.10978732
70	0xbd94cea5	-0.07265977
71	0xbd48df03	-0.049040806
72	0xbd8f0a30	-0.06984365
73	0xbdc3d4d1	-0.09562076
74	0xbcc96874	-0.02458594
75	0xbdca1fa4	-0.09869316
76	0x3d665952	0.056237526
77	0xbd36ac7f	-0.0445981
78	0xbc274c1d	-0.010211018
79	0xbd395ed5	-0.045256454
80	0x3ba6c8ed	0.00508987
81	0xbd908b27	-0.07057791
82	0xbd8e8be3	-0.06960275
83	0xbd9e17b7	-0.07719367
84	0xbdef1439	-0.11673779
85	0x3e0289bd	0.12747855
86	0x3d2c2816	0.042030416
87	0x3dc57634	0.09641686
88	0x3d817c09	0.06322486
89	0xbd61e3cb	-0.05514888
90	0xbd9bbcb6	-0.07604353
91	0xbda1f629	-0.079082794
92	0x3ca6ce07	0.020361913
93	0xbda870bd	-0.08224628
94	0x3b943fe7	0.0045242193
95	0xbdfd7f1b	-0.12377759
96	0xbc9df32e	-0.019280996
97	0x3d30cb7f	0.04316282
98	0xbd8a87f0	-0.06764209
99	0xbde84774	-0.113417536
100	0xbd267ce2	-0.04064644
101	0x3ddf3479	0.1089868
102	0x3db72bdc	0.089439124
103	0xbca324f9	-0.01991509
104	0xbdc67fd6	-0.096923515
105	0x3d9aff16	0.07568185
106	0xbcbda7b6	-0.02315126
107	0xbc6a2713	-0.014291543
108	0x3df5e381	0.120062836
109	0x3df3c894	0.119034916
110	0xbd34e996	-0.044168077
111	0xbd533c8c	-0.051571414
112	0xbc493b58	-0.012282215
113	0xbde0d54e	-0.10978185
114	0x3dc4d04b	0.09610041
115	0x3dbab895	0.091172375
116	0xbda34bd4	-0.079734474
117	0xbdc8b3b1	-0.097998984
118	0xbd9b45f1	-0.075817
119	0x3d74f8d4	0.059807613
120	0xbd996c1c	-0.07491323
121	0xbcdd0410	-0.026979476
122	0xbdaa82f7	-0.08325761
123	0xbca6d7a2	-0.020366494
124	0xbd0c5a53	-0.034265827
125	0x3cadc240	0.02121079
126	0xbd096593	-0.033544134
127	0x3dab0100	0.083498
128	0xbdadf468	-0.084938824
129	0xbd59b7f7	-0.05315396
130	0x3cbdde1a	0.023177195
131	0xbdc76917	-0.09736841
132	0x3d97b154	0.074068695
133	0xbdd7a5f5	-0.10529701
134	0xbdf37415	-0.11887375
135	0x3c86ce20	0.01645571
136	0xbdb7a702	-0.08967401
137	0x3cf9a837	0.030475719
138	0xbde6cc38	-0.112694204
139	0x3d6c2a51	0.057657544
140	0xbdf13987	-0.117785506
141	0x3ad66516	0.001635703
142	0xbded3c4c	-0.11583766
143	0xbd2f020a	-0.042726554
144	0xbc92da81	-0.017926456
145	0x3b2f7b05	0.0026776206
146	0xbd5c2303	-0.053744327
147	0xbd8b4816	-0.06800859
148	0x3d5f770d	0.054556895
149	0x3de3481f	0.110977404
150	0x3dea61d1	0.11444438
151	0x3c64c211	0.013962285
152	0xbd60f8ed	-0.054924894
153	0x3d238f0b	0.03993134
154	0x3d7af555	0.061269123
155	0xbdd80896	-0.10548513
156	0x3dae4cfd	0.08510778
157	0x3db9c648	0.09071022
158	0xbc934796	-0.01797847
159	0x3c8ad2c9	0.016946213
160	0xbd875d2a	-0.066095665
161	0xbd7316f3	-0.059348058
162	0xbded3bf8	-0.11583704
163	0x3d2ea5e1	0.042638663
164	0x3e0597fd	0.1304626
165	0x3da0523e	0.078281865
166	0xbdd3de7b	-0.10345169
167	0xbdb36b97	-0.087607555
168	0x3daec70e	0.085340604
169	0xbd810d9f	-0.06301426
170	0xbce9d266	-0.028542709
171	0xbbf4bf4e	-0.0074690944
172	0xbb1dd04c	-0.0024080453
173	0x3c723999	0.01478424
174	0x3d3022e5	0.043002028
175	0xbdfd2074	-0.123597056
176	0xbda4c6e8	-0.08045751
177	0xbd369d04	-0.044583336
178	0xbdaa598f	-0.08317863
179	0xbd37ebfa	-0.04490278
180	0xbd954723	-0.07288959
181	0x3de12527	0.10993414
182	0xbdd5d0c4	-0.104402095
183	0xbca4ab01	-0.020101072
184	0xbd967953	-0.073473595
185	0xbdac3bfb	-0.08409878
186	0x3df8bd84	0.12145522
187	0x3d8feef1	0.07027996
188	0xbc9038f3	-0.01760528
189	0xbdb8c540	-0.090219975
190	0xbdcf4c85	-0.10122017
191	0xbd811354	-0.06302515
192	0x3dbc7fb6	0.092040464
193	0x3d76d029	0.06025711
194	0x3dda3bed	0.10655961
195	0xbd89dcf4	-0.067315966
196	0x3c440348	0.011963673
197	0xbdd9929d	-0.106236674
198	0xba893d81	-0.00104706
199	0xbd1a7c0b	-0.037715953
200	0xbd902c36	-0.070396826
201	0xbd911ef2	-0.070859805
202	0xbd7104bb	-0.058842402
203	0xbdb64c84	-0.08901313
204	0xbdbff229	-0.0937236
205	0xbde5ae97	-0.11214941
206	0x3d631b15	0.05544575
207	0x3d8053fb	0.06266018
208	0x3dfc0962	0.12306477
209	0x3d45bb1f	0.048274156
210	0x3dc042bf	0.09387731
211	0x3bbd02ba	0.0057681473
212	0xbcbc5304	-0.022988804
213	0xbcbf4ae6	-0.023351144
214	0xbdb9ce7e	-0.090725884
215	0x3df90b24	0.12160328
216	0x3da16a27	0.07881575
217	0xbd3df4f8	-0.0463762
218	0x3cad9ade	0.02119201
219	0xbd0c73ab	-0.034289997
220	0xbc828f71	-0.015937539
221	0xbd03fd0f	-0.032223757
222	0xbde061ae	-0.10956131
223	0x3d6d4fde	0.057937495
224	0xbde289de	-0.11061452
225	0xbdb84ca3	-0.08998992
226	0xbda6c49d	-0.0814297
227	0xbde2f0c1	-0.110810764
228	0xbdf17bd8	-0.117911994
229	0x3db929a3	0.09041145
230	0x3daea97d	0.08528421
231	0x3dca7df3	0.09887304
232	0x3df961bb	0.12176844
233	0x3d5cba9c	0.053888902
234	0xbdf7b4f9	-0.12095065
235	0x3d7e7147	0.06211975
236	0x3dd9eb5a	0.10640593
237	0x3c758320	0.014984876
238	0x3ba718da	0.005099398
239	0xbd5e6e36	-0.054304324
240	0xbd91c150	-0.071169496
241	0xbd3cc852	-0.046089478
242	0x3d34d323	0.04414667
243	0xbc821283	-0.015877968
244	0x3d5aa5e1	0.05338085
245	0x3d33528d	0.0437799
246	0x3d07ef46	0.033187173
247	0xbcd9eaca	-0.026601214
248	0xbdbf2aa0	-0.09334302
249	0xbdb1fc2f	-0.08690678
250	0x3dbc7af3	0.09203138
251	0xbdcf05a6	-0.10108499
252	0xbdaba9f0	-0.083820224
253	0xbd24f951	-0.04027683
254	0xbbbab619	-0.0056979773
255	0x3da118f7	0.0786609

encoder.model.bias_ih_l0 f4 [256]
0	0xbdeb6b15	-0.11495034
1	0x3b391c77	0.0028245726
2	0xbda3712a	-0.07980569
3	0xbc678e71	-0.014133082
4	0xbd81f710	-0.063459516
5	0x3d04f7cc	0.03246288
6	0x3cf2426c	0.029572688
7	0x3da68dfd	0.08132551
8	0x3c91f722	0.017818037
9	0xbdc14df2	-0.09438695
10	0x3dc11f0e	0.09429751
11	0x3da570cf	0.08078157
12	0x3d354f02	0.0442648
13	0x3dd1212f	0.102114074
14	0x3df7a633	0.12092247
15	0xbdf001bc	-0.11719081
16	0x3d133346	0.03593757
17	0x3de9c817	0.11415117
18	0xbde82d90	-0.11336815
19	0xbdd0cc8b	-0.101952635
20	0x3d3aa0e8	0.04556361
21	0x3d12d8bc	0.035851225
22	0xbcc0712b	-0.023491463
23	0x3db349a6	0.08754282
24	0xbddce908	-0.10786635
25	0x3d86a7e2	0.0657499
26	0xbd8b4730	-0.06800687
27	0x3b3c8de7	0.0028771104
28	0x3df9d0cc	0.12198028
29	0xbd71e3c7	-0.059055116
30	0xbc8fcc36	-0.01755343
31	0x3de8208e	0.11334334
32	0x3d622037	0.055206504
33	0x3d994893	0.074845456
34	0x3dc3c50f	0.0955907
35	0xbcfc3df6	-0.030791264
36	0x3bc5a226	0.0060312925
37	0xbd7cb887	-0.061699416
38	0x3dbef397	0.09323805
39	0x3cb85d1e	0.02250534
40	0xbcabacc4	-0.020956405
41	0x3d4696ab	0.048483532
42	0x3cd3c167	0.025849057
43	0xbdf3e0c3	-0.11908104
44	0xbd7aeacd	-0.06125908
45	0x3d8bcefc	0.068265885
46	0xbd1fc1e6	-0.039003275
47	0xbbaa9aea	-0.0052064555
48	0x3ce1d75e	0.027568515
49	0xbd23bd3f	-0.0399754
50	0x3c3560f8	0.011070482
51	0xbdda4d9d	-0.10659335
52	0xbd74a893	-0.059731077
53	0xbd8f000d	-0.069824316
54	0xbd0bb13b	-0.034104567
55	0x3d1357e4	0.03597249
56	0x3d6f3da3	0.05840839
57	0xbc88a2cb	-0.016679188
58	0xbca1b392	-0.019738946
59	0x3cf6a99a	0.03011017
60	0x3d31287f	0.04325151
61	0xbdb75e70	-0.089535594
62	0x3d61e6db	0.0551518
63	0xbdc1485b	-0.09437629
64	0xbd8f790d	-0.070055105
65	0x3d52ecb9	0.051495288
66	0xbd8d9ceb	-0.06914695
67	0xbd0d82a7	-0.034548428
68	0xbdb34541	-0.087534435
69	0xbd0d94ee	-0.03456586
70	0x3df7b952	0.12095894
71	0xbdac4423	-0.084114335
72	0xbd7b10c4	-0.061295286
73	0xbc71ce3a	-0.014758641
74	0xbabbc12c	-0.0014324537
75	0xbc08a39c	-0.008339789
76	0xbde36c91	-0.11104692
77	0xbd2ebdab	-0.04266135
78	0xbd29f76c	-0.041495726
79	0xbd937a03	-0.07201006
80	0xbd3eb500	-0.046559334
81	0x3d523f5d	0.05132996
82	0xbd598e45	-0.053114194
83	0xbdecf126	-0.11569433
84	0xbd7274d7	-0.05919346
85	0x3dfb2da4	0.12264565
86	0xbda32dca	-0.07967718
87	0x3d67afee	0.056564264
88	0x3dce5809	0.10075385
89	0xbda7b1f8	-0.08188242
90	0x3d6f0512	0.058354445
91	0x3ce5f932	0.028072927
92	0xbde858ce	-0.11345063
93	0x3da99e07	0.082820944
94	0x3ca0bed8	0.019622251
95	0x3b57248b	0.0032828178
96	0xbcea7694	-0.028620996
97	0xbdd49fb4	-0.103820235
98	0x3dfcef8c	0.123503774
99	0x3db52098	0.088441074
100	0xbe035963	-0.12827067
101	0xbdf3da7b	-0.11906906
102	0x3db3e3ef	0.08783709
103	0x3db3fc8a	0.087884024
104	0x3cd452fa	0.025918473
105	0xbb4e6d8b	-0.0031498398
106	0x3b431c4e	0.002977151
107	0x3de237a5	0.110457696
108	0xbd841c1e	-0.064506754
109	0x3d6d9ceb	0.058010977
110	0x3ddbb289	0.10727412
111	0xbdc08a1e	-0.09401344
112	0xbdbfa74f	-0.093580835
113	0xbd942efb	-0.07235523
114	0xbde9a5f3	-0.114086054
115	0xbbd819b7	-0.0065948623
116	0x3d5f0f44	0.054457918
117	0xbd413e6c	-0.04717867
118	0xbd3bd5ec	-0.04585831
119	0x3daf1c02	0.08550264
120	0xbcadd228	-0.021218374
121	0xbdc7d173	-0.09756746
122	0xbd807653	-0.062725686
123	0xbdcccb2e	-0.09999691
124	0xbded33cf	-0.11582147
125	0xbce909f2	-0.028447125
126	0xba5c06c2	-0.0008393341
127	0x3dd05de6	0.1017416
128	0xbc0cd4e8	-0.008595683
129	0x3d8a2eb8	0.06747192
130	0xbe01f7a5	-0.12692125
131	0xbdf401e5	-0.11914424
132	0xbd9f4b33	-0.07778015
133	0x3d2e3d2d	0.04253881
134	0x3ce1a862	0.027546111
135	0xbdc3d51b	-0.09562131
136	0x3d2d054e	0.042241387
137	0x3d448644	0.04797961
138	0xbd7eddc4	-0.06222321
139	0xbd8f7f5d	-0.070067145
140	0x3d75452d	0.059880424
141	0x3ca66a8c	0.020314477
142	0x3dd075c2	0.101787105
143	0x3d956bed	0.07295976
144	0xbaa8d43f	-0.0012880637
145	0x3db73467	0.08945542
146	0xbd56f3b0	-0.052478492
147	0x3dca0e50	0.09866011
148	0xbc9ce60d	-0.019152666
149	0xbdd18a92	-0.10231508
150	0xbd8092c1	-0.06277991
151	0x3d914aaa	0.07094319
152	0xbdd5c90f	-0.104387395
153	0x3d45b76d	0.04827063
154	0x3c8d0cd0	0.017218024
155	0xbdac0a67	-0.084004216
156	0x3d712321	0.058871392
157	0x3cf780c3	0.030212766
158	0xbd808a53	-0.06276383
159	0x3dea789a	0.11448784
160	0x3cd27bea	0.025693852
161	0x3ca56a32	0.02019224
162	0x3dcd8c9b	0.10036584
163	0x3db72a9c	0.08943674
164	0x3d36aef3	0.04460044
165	0xbd2e2c41	-0.042522673
166	0x3dc159a9	0.094409294
167	0xbc8e26d0	-0.017352492
168	0x3d04f8f7	0.032463994
169	0xbda2d4a2	-0.07950713
170	0xbd9804d7	-0.07422798
171	0x3dc30cc9	0.09523923
172	0x3d914fca	0.07095297
173	0x3dbd69a6	0.092486665
174	0xbbd2de40	-0.0064351857
175	0xbdd08c26	-0.10182981
176	0x3db66027	0.08905058
177	0xbde49f39	-0.11163182
178	0xbddfdc73	-0.10930719
179	0xbc0ceb8b	-0.00860108
180	0x3e000781	0.12502863
181	0xbc7543f9	-0.014969819
182	0x3c3846fd	0.011247394
183	0x3ddd7999	0.108142085
184	0xbaefa96d	-0.0018284746
185	0x3dc215bc	0.09476802
186	0x3d2296b0	0.039694488
187	0x3ce4d3dc	0.027933054
188	0xbc4b5996	-0.012411496
189	0x3bd2243f	0.0064130123
190	0xbccac5b3	-0.024752473
191	0xbd0716f1	-0.032980863
192	0xbd9778c0	-0.07396078
193	0x3d11e375	0.03561731
194	0xbde9298d	-0.11384878
195	0xbd75eb3e	-0.060038798
196	0xbdabca26	-0.08388166
197	0x3cb3d150	0.021950394
198	0xbd3d5bc4	-0.046230093
199	0xbd85886e	-0.065201625
200	0xbd18ea62	-0.0373329
201	0x3d9e1a9c	0.07719919
202	0x3d9c7cf6	0.07641022
203	0x3da142e3	0.07874086
204	0x3ddb6895	0.10713307
205	0xbc77bfda	-0.015121425
206	0x3d8585f1	0.06519688
207	0x3def4d99	0.116847225
208	0x3d6a41c5	0.05719163
209	0x3d03f406	0.03221514
210	0xbdb65c22	-0.08904292
211	0xbd80455b	-0.062632285
212	0x3e05388e	0.13009855
213	0xbdf65cee	-0.12029444
214	0x3cc94688	0.024569765
215	0xbcb94097	-0.022613807
216	0x3d8e1ee9	0.069394894
217	0xbd8c1926	-0.06840734
218	0xbd8246da	-0.0636117
219	0x3cacceef	0.021094767
220	0xbdeb4d3c	-0.11489341
221	0xbd35d6f6	-0.044394456
222	0x3d175bf8	0.036952943
223	0xbc109e42	-0.008826794
224	0xbd411a21	-0.04714406
225	0xbda11d08	-0.078668654
226	0xbde29100	-0.11062813
227	0x3d8a09d8	0.06740159
228	0x3dd2e436	0.10297434
229	0x3d2249ac	0.03962104
230	0xbd969c7a	-0.07354064
231	0x3d2a4b80	0.04157591
232	0xbd6e17d1	-0.05812818
233	0xbd685700	-0.056723595
234	0x3d945f6d	0.072447635
235	0x3d9e264d	0.07722149
236	0xbcc9fd11	-0.024656804
237	0x3df8b4a1	0.12143827
238	0xbd687502	-0.056752212
239	0x39d0825c	0.00039769977
240	0xbc39a87b	-0.011331673
241	0x3d08eb43	0.033427488
242	0x3c82d3c8	0.015970126
243	0x3d3b790a	0.04576973
244	0x3df03eee	0.11730753
245	0xbddd510f	-0.10806476
246	0x3bf7566e	0.007548145
247	0xbd89af20	-0.067228556
248	0x3d6de914	0.05808361
249	0xbd55ea3e	-0.052225344
250	0x3bc5efcb	0.0060405484
251	0x3de15447	0.11002403
252	0xbdbc1796	-0.09184186
253	0xbc525c2e	-0.01283936
254	0xbe052ee8	-0.13006175
255	0x3d2a20aa	0.041535057

encoder.model.bias_hh_l0 f4 [256]
0	0xbdd43b09	-0.103628226
1	0xbdccf2a3	-0.10007217
2	0x3d998ee6	0.07497959
3	0x3cb15e96	0.021651547
4	0x3db23c54	0.08702913
5	0xbddcb53c	-0.10776755
6	0xbdc8eca3	-0.0981076
7	0x3def7e67	0.11694031
8	0x3df86eec	0.12130532
9	0x3b6b7e93	0.0035933598
10	0xbd8d3216	-0.06894319
11	0xbce11781	-0.027477028
12	0x3d828052	0.063721314
13	0x3db22817	0.08699053
14	0x3d113751	0.035453144
15	0xbd8d0eb0	-0.06887567
16	0xbce740c5	-0.028229127
17	0xbd05b827	-0.032646324
18	0x3d3fa842	0.046791323
19	0xbdbe3d7d	-0.09289072
20	0x3c112480	0.0088588
21	0xbdf99a80	-0.12187672
22	0xbd80fc07	-0.062980704
23	0x3d0ef1e3	0.03489865
24	0x3c59d43f	0.013295232
25	0xbdbe3ae8	-0.09288579
26	0x3d87b6f7	0.06626695
27	0xbc0266f6	-0.007959118
28	0x3dccb94c	0.0999628
29	0xbde1c04b	-0.11023005
30	0x3d2b0024	0.04174818
31	0x3d883c48	0.06652123
32	0xbe048823	-0.12942557
33	0xbd9c2ead	-0.0762609
34	0x3d2dafe2	0.042404063
35	0x3c9514ea	0.01819845
36	0x3d5de98f	0.054177817
37	0x3dcbaca4	0.09945038
38	0x3ddeb01f	0.10873436
39	0x3d2ce3ea	0.042209543
40	0x3ca69744	0.020335801
41	0x3d063fcf	0.032775696
42	0xbba9a1e3	-0.005176769
43	0xbdac9f09	-0.08428771
44	0xbdb13eeb	-0.08654579
45	0x3dca8c3e	0.0989003
46	0xbd11160e	-0.035421424
47	0x3d4f4743	0.05060507
48	0xbce0929b	-0.027413657
49	0x3dfc83ba	0.12329812
50	0x3df5fc51	0.12011016
51	0x3d931a3d	0.07182739
52	0x3bf17058	0.0073681287
53	0x3d84346f	0.064553134
54	0xbda55362	-0.08072545
55	0xbceab6f3	-0.02865169
56	0x3ddae152	0.10687508
57	0xbcaac793	-0.020847118
58	0x3d92997f	0.07158183
59	0x38f31a06	0.0001159199
60	0xbd93e5e7	-0.07221585
61	0x3da8d30e	0.082433805
62	0xbe05cb96	-0.13065943
63	0x3dc4f49d	0.09616969
64	0x3d82c5f3	0.06385412
65	0x3d572e65	0.05253448
66	0xbc56a0cc	-0.01309986
67	0x3e00cc34	0.12577897
68	0xbd52acf7	-0.051434483
69	0x3c89a9dc	0.016804628
70	0x3dfb9afe	0.12285422
71	0x3a52855a	0.0008030735
72	0xbd984e07	-0.074367575
73	0xbd6e9008	-0.058242828
74	0x3dce2dae	0.100673065
75	0x3d824319	0.06360454
76	0x3ddb9965	0.10722617
77	0x3dcd182d	0.10014377
78	0x3de8244a	0.113350466
79	0xbd6d6cf9	-0.057965253
80	0x3d143f08	0.036192924
81	0xbd347df3	-0.044065427
82	0xbd55a3b1	-0.05215806
83	0xbd0ec02e	-0.034851246
84	0xbdaed7c0	-0.08537245
85	0x3d511a7f	0.05105066
86	0xbde10efe	-0.10989188
87	0xbd4c6f52	-0.04991085
88	0xbc26ff21	-0.010192663
89	0xbd23d157	-0.039994564
90	0x3dcaa5d3	0.0989491
91	0xbd5924c4	-0.053013578
92	0xbc285687	-0.010274536
93	0x3d848fe1	0.06472755
94	0x3d99b418	0.07505053
95	0x3d0d566c	0.034506246
96	0xbd58257c	-0.052770123
97	0x3d483178	0.048875302
98	0x3d3a09bd	0.045419443
99	0xbd749d40	-0.059720278
100	0xbdae5cbd	-0.08513782
101	0xbcae2f93	-0.02126292
102	0xba8ef04e	-0.0010905357
103	0x3ca97662	0.020686332
104	0xbad2ff39	-0.0016097791
105	0x3d312a09	0.04325298
106	0x3deea29f	0.11652111
107	0xbcaaf88d	-0.020870471
108	0x3df5c1b9	0.1199984
109	0xbd87374a	-0.066023424
110	0x3d640b18	0.055674642
111	0xbd52df2c	-0.051482365
112	0x3d64c41a	0.05585108
113	0x3d5d727b	0.054064255
114	0x3d37a253	0.04483254
115	0x3d112019	0.035431
116	0x3e058451	0.13038756
117	0xbdee95bd	-0.11649654
118	0xbdb41ecf	-0.08794939
119	0x3d4cbc36	0.04998418
120	0xbd6f0d77	-0.05836245
121	0xbc471a11	-0.012152211
122	0x3d19889a	0.03748379
123	0x3dee25bc	0.11628291
124	0x3b21190c	0.002458158
125	0x3d8769c8	0.06611973
126	0xbbd240f8	-0.0064164363
127	0x3dafbfa6	0.08581476
128	0x3e04be32	0.12963179
129	0xbd748eb1	-0.059706394
130	0xbda450e1	-0.08023239
131	0x3d84540f	0.064613454
132	0xbdbf8ebf	-0.093533985
133	0x3deb3ef0	0.11486614
134	0xbdefb9c3	-0.11705353
135	0xbddea21d	-0.108707644
136	0x3ccd4369	0.025056558
137	0x3d585758	0.052817672
138	0xbdf355ec	-0.11881623
139	0x3bd05ee6	0.006358969
140	0xbd83cc0f	-0.064354055
141	0xbd5d8331	-0.054080192
142	0x3e06ff9c	0.13183445
143	0xbd9465c7	-0.07245975
144	0xbd2f364d	-0.042776395
145	0x3df65491	0.120278485
146	0xbc3e1a5e	-0.011602966
147	0xbd98158c	-0.07425985
148	0xbd4e71d5	-0.050401527
149	0x3dbb1abe	0.0913596
150	0xbcb57e5b	-0.022154978
151	0x3d0deafc	0.034647927
152	0x3d1deddf	0.03855693
153	0x3dc046d4	0.093885094
154	0x3d80e731	0.06294096
155	0x3d402f69	0.046920214
156	0xbdd23dc8	-0.1026569
157	0xbdd4199f	-0.10356449
158	0xbb45e345	-0.0030195278
159	0xbdbfb58c	-0.09360799
160	0x3da63a78	0.08116621
161	0xbdfa2e75	-0.12215892
162	0x3da29651	0.07938827
163	0xbd3d4287	-0.046206024
164	0x3d9182f3	0.07105055
165	0x3c8bcabe	0.017064448
166	0xbe003402	-0.1251984
167	0x3d12ddc0	0.03585601
168	0x3b8cc47b	0.0042958832
169	0x3d3fd748	0.046836168
170	0x3aafa467	0.0013400436
171	0xbd8c94fd	-0.06864355
172	0x3cdab73c	0.026698701
173	0xbc84b82e	-0.016201105
174	0x3d79cf87	0.06098893
175	0xbcf5475c	-0.029941253
176	0x3defe2f1	0.117132075
177	0xbde268df	-0.11055159
178	0x3bd7ea8b	0.006589239
179	0xbdcd8a51	-0.100361474
180	0xbdf12017	-0.11773699
181	0x3c5f06b4	0.013612438
182	0x3cda5d3e	0.02665579
183	0x3ca55448	0.02018179
184	0xb8c7dec4	-9.530553e-05
185	0xbcfdaa28	-0.030964926
186	0x3cfd3ec0	0.03091371
187	0xbdc4d3a6	-0.09610681
188	0xbd377781	-0.044791702
189	0x3db3eac3	0.087850116
190	0x3d9eda78	0.07756513
191	0x3d634201	0.055482868
192	0x3ce02444	0.027361043
193	0xbd538517	-0.051640596
194	0xbd67729f	-0.056505796
195	0x3dc6dc7b	0.09710022
196	0x3d8625a9	0.06550152
197	0xb8b1f0cf	-8.484872e-05
198	0x3d92fde1	0.0717733
199	0x3d48b31e	0.048998944
200	0xbc51e5da	-0.012811149
201	0xbdb245c4	-0.08704713
202	0xbda0dcda	-0.07854624
203	0xbddc9fbb	-0.10772654
204	0xbc848fb6	-0.016181808
205	0xbdc67fd8	-0.09692353
206	0x3db6ff69	0.08935434
207	0xbc91d548	-0.017801896
208	0xbda3f689	-0.08006007
209	0xbd92b5ad	-0.07163558
210	0x3d47efdb	0.04881273
211	0x3d3655a3	0.044515263
212	0xbdcc8419	-0.09986133
213	0xbce93ac9	-0.028470414
214	0x3d37f993	0.044915747
215	0xbc45c799	-0.012071514
216	0x3de7366b	0.11289676
217	0xbbeeac57	-0.007283728
218	0xbd5b7df6	-0.053586923
219	0xbc5a76f3	-0.013334024
220	0xbcd571fd	-0.02605533
221	0xbda8e947	-0.08247619
222	0x3d9495b0	0.07255113
223	0x3da75f75	0.08172504
224	0xbda5a9da	-0.08089037
225	0x3db74b64	0.089499265
226	0x3d8bb921	0.0682242
227	0xbd3603ac	-0.044437096
228	0x38cde4a0	9.8177465e-05
229	0xbcc4b88b	-0.024013778
230	0x3e0041d4	0.12525111
231	0xbd71d3c4	-0.059039846
232	0x3dbfbd9a	0.093623355
233	0x3d87b02f	0.06625401
234	0x3d9091a9	0.070590325
235	0x3d5f6470	0.054539144
236	0xbd074d14	-0.03303249
237	0xbc69c5a5	-0.014268314
238	0x3d06de2a	0.032926716
239	0xbde4a419	-0.11164112
240	0x3d892d41	0.066980846
241	0xbd8db8d6	-0.0692002
242	0x3cfecc30	0.031103224
243	0x3d890f4d	0.066923715
244	0x3ddeeb3a	0.1088471
245	0x3d314607	0.043279674
246	0xbd91aeda	-0.071134284
247	0x3d575c14	0.052578047
248	0x3d861b88	0.0654822
249	0xbd6dd016	-0.058059774
250	0xbca7564c	-0.020426892
251	0xbd9d3def	-0.076778285
252	0xbc4b7992	-0.012419121
253	0xbce642e3	-0.028108066
254	0xbd212939	-0.039345954
255	0xbd91272d	-0.0708755

encoder.model.weight_ih_l1 f4 [256, 64]
0	0xbda25d44	-0.07927945
1	0xbdca807a	-0.09887786
2	0xbdca0541	-0.09864283
3	0xbd2b1be5	-0.04177465
4	0xbc25a105	-0.010109191
5	0xbdc267da	-0.09492464
6	0x3ce86e72	0.028372977
7	0x3dc2a101	0.09503365
8	0x3dbc44cb	0.09192809
9	0xbc324933	-0.01088171
10	0xbd777881	-0.060417656
11	0x3db5c6f6	0.088758394
12	0x3d1cdc71	0.038296167
13	0x3d9c7ce0	0.076410055
14	0x3dc4ee44	0.09615758
15	0xbdf15e9f	-0.11785626
16	0xbdce9a2b	-0.10087999
17	0x3c182c17	0.009287856
18	0xbcba902e	-0.022773828
19	0xbd2fbfe6	-0.042907618
20	0x3d6bd938	0.057580203
21	0xbdb67ab1	-0.0891012
22	0xbdc4cfcf	-0.09609949
23	0xbdb86452	-0.090035096
24	0x3daad087	0.08340555
25	0x3d8ba138	0.068178594
26	0xbdea0fca	-0.11428793
27	0x3c8982bf	0.016785977
28	0xbdb7ba9b	-0.08971139
29	0x3d21a752	0.03946621
30	0xbcc93e5e	-0.024565872
31	0xbcd1b8cc	-0.025600813
32	0xbc4433f0	-0.0119752735
33	0x3db0817d	0.08618448
34	0xbb694586	-0.0035594418
35	0x3deb775e	0.11497377
36	0x3dda02c3	0.10645058
37	0x3ddbe6e2	0.10737397
38	0x3cf2a075	0.029617527
39	0xbda47686	-0.08030419
40	0xbc8bb8bf	-0.017055867
41	0x3d57b29b	0.052660566
42	0xbda0bcf9	-0.07848544
43	0xbdb7db33	-0.08977356
44	0xbd460231	-0.048341934
45	0xbd961f39	-0.07330174
46	0xbdd578a0	-0.10423398
47	0x3d7690a7	0.060196545
48	0xbd48ec13	-0.049053263
49	0xbda056a1	-0.07829023
50	0x3d45189a	0.048119165
51	0x3d16340a	0.036670722
52	0x3cbac7d2	0.02280036
53	0xbcf37b9c	-0.029722027
54	0xbcf9cead	-0.030494059
55	0x3d65c9ea	0.056100763
56	0x3d95f131	0.07321394
57	0x3df4e12c	0.119570106
58	0x3dddc3ef	0.10828387
59	0xbe0420b0	-0.12903094
60	0x3c598684	0.0132767
61	0x3dfcce3a	0.12344022
62	0xbd96d237	-0.07364314
63	0xbbdd70f2	-0.006757849
64	0xbd898f73	-0.06716814
65	0x3cd67c88	0.026182428
66	0xbc7f83d5	-0.015595396
67	0xbdf11865	-0.11772231
68	0x3d7f7f0c	0.06237702
69	0xbce4ea68	-0.027943805
70	0xbcd869d8	-0.026417658
71	0x3ce99655	0.028514067
72	0x3de268b4	0.11055127
73	0xbdc6e50f	-0.09711658
74	0xbc04b114	-0.008098859
75	0xbcf0be3a	-0.029387582
76	0xbbccb253	-0.006246844
77	0xbd806088	-0.06268412
78	0xbdac4e60	-0.08413386
79	0x3d5fc845	0.05463435
80	0x3d239119	0.039933298
81	0xbdc03d14	-0.0938665
82	0x3dbb3910	0.09141743
83	0xbd5ee8f0	-0.054421365
84	0x3de66276	0.11249249
85	0xbddc472f	-0.10755765
86	0xbdc531cf	-0.09628641
87	0xbdd86475	-0.10566036
88	0x3d67b8cf	0.05657273
89	0xbd95413b	-0.07287832
90	0xbdb3e702	-0.087842956
91	0xbde248a5	-0.11049012
92	0x3cb2e2f4	0.021836735
93	0xbc35a005	-0.011085515
94	0xbdc1892f	-0.09449994
95	0x3dc8194d	0.09770451
96	0x3df1dc09	0.118095465
97	0x3da30094	0.07959095
98	0x3b992eeb	0.0046747825
99	0xbdd6014f	-0.10449468
100	0xbd81216c	-0.06305203
101	0x3d3834e1	0.044972304
102	0xbe050959	-0.12991847
103	0xbd97947b	-0.07401367
104	0x3d79ce49	0.060987744
105	0x3de015ee	0.10941683
106	0x3c9ae888	0.018909708
107	0xbd44466c	-0.047918722
108	0xbdcbe426	-0.09955625
109	0x3d224b04	0.03962232
110	0x3de0b879	0.10972685
111	0xbdac721e	-0.084202036
112	0x3dd98b5c	0.10622284
113	0x3dde13bd	0.108436085
114	0xbdc7f174	-0.097628504
115	0x3d12fc4c	0.03588514
116	0x3c8114be	0.015756961
117	0xbddf815b	-0.109133445
118	0xbdd84549	-0.1056009
119	0x3cee3e0c	0.02908232
120	0x3dc821da	0.09772082
121	0xbcd6d56e	-0.026224818
122	0x3d8c11fb	0.06839367
123	0xbdbba310	-0.09161961
124	0x3daf70c8	0.08566433
125	0x3aa6c67d	0.0012723949
126	0xbdd9496d	-0.10609708
127	0x3b1e3017	0.002413755
128	0x3d975f30	0.073912024
129	0xbd9fabac	-0.07796416
130	0x3d8bab4d	0.068197824
131	0xbcf86853	-0.030323183
132	0x3d3d824a	0.04626683
133	0x3d459330	0.048236072
134	0x3d422848	0.047401696
135	0xbdcead6b	-0.100916706
136	0xbdc4431d	-0.09583113
137	0x3cebc97c	0.028782599
138	0x3b02d26b	0.0019961845
139	0xbd5cc7fd	-0.05390166
140	0xbda144cf	-0.07874452
141	0x3d136b06	0.035990737
142	0xbc4ae387	-0.012383348
143	0x3d98abcb	0.07454642
144	0xbc4dc8e0	-0.012560099
145	0x3adad0bf	0.0016694291
146	0xbdbdaa6e	-0.092610225
147	0xbd5595e1	-0.05214489
148	0x3dd3c30e	0.10339938
149	0x3dc18f57	0.09451168
150	0x3c4456f9	0.0119836265
151	0x3babc216	0.0052416427
152	0x3d74ac04	0.05973436
153	0x3df7454c	0.12073764
154	0x3d893f2e	0.06701504
155	0x3dd63273	0.10458841
156	0x3cb52017	0.022110028
157	0xbc8025be	-0.015642997
158	0xbdb5405a	-0.08850165
159	0xba818115	-0.0009880388
160	0xbd15dfc4	-0.036590353
161	0xbdcc9344	-0.09989026
162	0x3dda93e9	0.10672743
163	0x3d48911a	0.048966505
164	0x3d7ece4f	0.06220847
165	0x3c7f6fd9	0.015590631
166	0xbde17933	-0.11009445
167	0xbc793958	-0.015211426
168	0xbdcb5a86	-0.09929375
169	0xbd07492d	-0.03302877
170	0xbd9ff177	-0.07809728
171	0xbdf7159f	-0.12064671
172	0x3d974754	0.07386652
173	0x3dcb6dcf	0.09933054
174	0xbcdeab3b	-0.027181258
175	0x3db5fa9c	0.088856906
176	0x3de08807	0.10963445
177	0xbd2247f4	-0.0396194
178	0xbd10331d	-0.035204995
179	0xbc955a3b	-0.018231502
180	0x3ca484b2	0.020082805
181	0xbbccf56c	-0.0062548425
182	0x3c660123	0.014038357
183	0xbd03793e	-0.032098047
184	0xbd9aed24	-0.07564762
185	0x3dd73cba	0.105096295
186	0xbdec6547	-0.115427546
187	0xbd15e1ea	-0.0365924
188	0x3d86369e	0.06553386
189	0x3e062812	0.13101223
190	0xbdf113c7	-0.1177135
191	0xbdbed1f8	-0.09317392
192	0xbdd8b32c	-0.10581049
193	0x3da0de0e	0.078548536
194	0x3d700523	0.05859865
195	0xbd6c5029	-0.057693634
196	0xbd4b4b14	-0.049632147
197	0xbd894efd	-0.06704519
198	0x3dc9b972	0.09849824
199	0xbdfed31d	-0.124426104
200	0x3b25106c	0.002518679
201	0x3dbe5fee	0.09295641
202	0xbd702dcb	-0.05863742
203	0x3dab2f2b	0.08358606
204	0xbdbcac94	-0.09212604
205	0x3c473387	0.012158281
206	0x3cd3cac4	0.025853522
207	0xbd74b995	-0.059747297
208	0xbd551f88	-0.052032024
209	0x3dbb0191	0.09131158
210	0xbd4337fa	-0.047660805
211	0xbdfe2b66	-0.12410621
212	0x3d85563f	0.06510591
213	0xbdce9ece	-0.10088883
214	0x3d350420	0.044193387
215	0x3d07cae5	0.03315248
216	0xbd35822a	-0.044313587
217	0xbcf2340b	-0.029565832
218	0x3dfdf2b2	0.12399806
219	0x3dc80a56	0.097675964
220	0x3d4f3066	0.050583266
221	0x3de05052	0.1095282
222	0xbdd13492	-0.10215105
223	0x3d354c70	0.04426235
224	0x3de78c3f	0.11306047
225	0x3dcf8b29	0.101339646
226	0x3cb54a76	0.022130232
227	0xbda02dd0	-0.07821238
228	0x3dcf5d13	0.101251744
229	0x3dc3e17f	0.09564494
230	0xbca10fd6	-0.019660871
231	0xbd4c3c9a	-0.04986248
232	0xbda8c0ec	-0.08239922
233	0x3ca2eea1	0.019889178
234	0xbddb83f2	-0.10718526
235	0x3cd3ff29	0.025878506
236	0x3d92d067	0.07168656
237	0x3d6177c3	0.055045854
238	0xbd391c73	-0.045193147
239	0x3d8f5e3a	0.07000394
240	0xbdbb4443	-0.09143879
241	0xbdc04e77	-0.09389966
242	0xbd00499c	-0.0313202
243	0xbd33dda3	-0.04391254
244	0x3cb8c69a	0.022555638
245	0x3cd666cc	0.026172064
246	0xbc78e566	-0.015191412
247	0xbd11ab22	-0.035563596
248	0xbd5e79b5	-0.054315288
249	0x3d5bda25	0.053674836
250	0xbd184539	-0.03717539
251	0x3dc16f48	0.09445053
252	0x3dafa74a	0.0857683
253	0x3c806c65	0.015676687
254	0xbd86e958	-0.065874755
255	0x3d785b37	0.060633864

encoder.model.weight_hh_l1 f4 [256, 64]
0	0x3ce6cdcc	0.028174303
1	0x3dd2c22d	0.10290942
2	0x3ddd23d0	0.10797846
3	0x3dec2617	0.115307026
4	0x3e01dd62	0.12682107
5	0x3d93709c	0.07199213
6	0xbdc9c311	-0.09851659
7	0xbdc56164	-0.096377164
8	0xbc48ca8b	-0.012255321
9	0xbd9bcfeb	-0.076080166
10	0x3ddba4d2	0.10724796
11	0xbdc8060b	-0.097667776
12	0x3cc34bf2	0.023839924
13	0x3da7927e	0.08182238
14	0x3ddaf0b3	0.10690441
15	0xbde2bb8c	-0.11070928
16	0xbdff36b4	-0.12461606
17	0xbcaf9d10	-0.021437198
18	0x3d8a60c9	0.067567416
19	0x3d1e079b	0.038581472
20	0x3cc3cd6b	0.023901662
21	0x3dce93ca	0.10086782
22	0x3b2ee3af	0.0026686003
23	0xbd999a8b	-0.0750018
24	0x3d38aa24	0.045084134
25	0xbcc03e00	-0.023467064
26	0x3d8c6c7d	0.0685663
27	0x3bc080ba	0.0058747204
28	0xbcdf4c70	-0.027258128
29	0x3dfe296e	0.12410246
30	0xbcd69154	-0.026192345
31	0x3d364419	0.044498537
32	0x3c2232da	0.009899819
33	0x3d22d0db	0.03974996
34	0xbd2b68e3	-0.041848075
35	0x3c8145b6	0.015780311
36	0xbd4d3675	-0.050100762
37	0x3cc7b53d	0.024378413
38	0x3d8e6ccf	0.06954347
39	0xbcf0c60f	-0.029391317
40	0x3c90468b	0.017611763
41	0xbcfa17a4	-0.03052885
42	0x3b7552a2	0.0037433286
43	0x39bfef56	0.00036608678
44	0x3d35c486	0.044376872
45	0x3cf6c01b	0.0301209
46	0x3d222477	0.039585557
47	0xbceb9794	-0.028758802
48	0xbde4bd02	-0.11168863
49	0xbcdcf1ee	-0.02697083
50	0x3d9da7d2	0.07698025
51	0xbd05e089	-0.032684837
52	0xbca163fa	-0.019700993
53	0x3dda456e	0.10657774
54	0x3d0d7463	0.034534823
55	0xbc1a5d2c	-0.009421628
56	0xbca11815	-0.019664804
57	0xbdc051a5	-0.093905725
58	0xbcaf7032	-0.021415804
59	0x3d46d647	0.048544195
60	0x3d3d744c	0.046253487
61	0x3d5574c7	0.05211332
62	0x3cfd17e7	0.030895187
63	0x3d08bcde	0.033383243
64	0x3cefe1bb	0.029282441
65	0xbbe339c8	-0.0069343783
66	0xbbdad819	-0.006678593
67	0x3d9a7dad	0.07543502
68	0xbdac0513	-0.08399405
69	0xbdf32945	-0.11873106
70	0x3de31fa9	0.11090023
71	0x3ddbbfb9	0.107299276
72	0xbc737946	-0.014860457
73	0xbd9fb3e9	-0.07797987
74	0xbd0a1e47	-0.03372028
75	0xbd7c44c1	-0.061589006
76	0xbd910bf3	-0.07082357
77	0xbde2efce	-0.11080895
78	0x3d9fc0c6	0.078004405
79	0xbc7d64cf	-0.015465929
80	0xbdcdd4c9	-0.10050351
81	0xbde7ec9f	-0.11324429
82	0x3dde687c	0.108597726
83	0xbd63717f	-0.05552816
84	0xbd341085	-0.043961067
85	0x3db2c427	0.08728819
86	0x3d8d9f00	0.069150925
87	0xbd9e5e23	-0.07732799
88	0xbd75d90f	-0.060021456
89	0xbde040ee	-0.10949884
90	0x3da66148	0.08124024
91	0xbc405d45	-0.011740987
92	0x3d9bc809	0.07606513
93	0xbdedc96d	-0.116106845
94	0x3b6b9285	0.0035945487
95	0x3dc60abe	0.09670018
96	0xbd81afa9	-0.06332333
97	0xbd2f9bc3	-0.042873155
98	0x3e016714	0.12636977
99	0x3dfdf3d5	0.12400023
100	0xbc773f22	-0.015090736
101	0xbcd79be1	-0.026319446
102	0x3dc0c6df	0.09412932
103	0x3d57ac8a	0.05265478
104	0x3d53767a	0.05162666
105	0xbe02caf5	-0.12772734
106	0x3d9b1edc	0.07574245
107	0xbe05035b	-0.12989561
108	0x3db0607c	0.08612153
109	0xbc321792	-0.010869877
110	0x3cc65270	0.024209231
111	0xbdde208d	-0.10846052
112	0xbd9d7a1a	-0.07689305
113	0x3d85bfec	0.06530747
114	0x3ca46823	0.020069188
115	0x3de18ac2	0.11012794
116	0xbd8795a1	-0.06620336
117	0xbd04f2fe	-0.032458298
118	0x3cc7364f	0.024317889
119	0x3dbac722	0.09120013
120	0xbd841c4f	-0.06450712
121	0xbd040823	-0.032234322
122	0x3dfcf403	0.12351229
123	0xbb79dc79	-0.0038125797
124	0x3db3288a	0.087479666
125	0x3bbf1954	0.005831877
126	0x3be9aac5	0.007130953
127	0x3d62375d	0.05522858
128	0x3db287e4	0.08717325
129	0x3dbc3d6a	0.09191401
130	0x3dcb721a	0.099338725
131	0xbcad24df	-0.021135746
132	0x3cc688f4	0.024235226
133	0x3dd22c45	0.1026235
134	0x3d95b1a6	0.073092744
135	0xbddf1394	-0.10892406
136	0x3dc3f807	0.09568792
137	0xbd418abc	-0.047251448
138	0x3cf01a9f	0.029309569
139	0x3d57082d	0.05249803
140	0x3d27c790	0.040961802
141	0xbd2ba7b8	-0.041907996
142	0x3d9032c2	0.07040931
143	0xbd870dde	-0.06594442
144	0xbce6e199	-0.028183745
145	0xbd010637	-0.031500068
146	0xbc5fa760	-0.013650745
147	0xbce7415a	-0.028229404
148	0xbdf87043	-0.12130787
149	0x3dddb31a	0.108251765
150	0x3cae15f1	0.021250697
151	0x3db6730b	0.089086615
152	0xbda0f59a	-0.07859345
153	0xbda8936c	-0.082312435
154	0x3cfb4084	0.030670412
155	0x3d23d5d2	0.039998837
156	0xbdc71376	-0.09720509
157	0x3df591ab	0.119906746
158	0xbd6a65cd	-0.05722599
159	0x3d4e9db6	0.050443374
160	0x3d8d4222	0.068973795
161	0xbd824834	-0.06361428
162	0xbdbad1e9	-0.091220684
163	0x3d1d3e54	0.03838952
164	0xbd93b816	-0.07212846
165	0xbd0337e7	-0.032035735
166	0xbd6dd381	-0.058063034
167	0x3cd38aec	0.025823079
168	0xbd4aadd7	-0.049482193
169	0x3defa65e	0.11701654
170	0x3db3e101	0.087831505
171	0x3d8a2226	0.067447945
172	0xbddc12e8	-0.107457936
173	0xbd20dfa3	-0.039275777
174	0xbd8c7463	-0.068581365
175	0xbd0cc94d	-0.034371663
176	0xbd7070b2	-0.058701225
177	0x3d9fd035	0.07803384
178	0xbd1b0928	-0.03785053
179	0x3d03b7e0	0.03215778
180	0xbc84aa31	-0.016194435
181	0xbd372a37	-0.044717994
182	0xbca34ae9	-0.01993318
183	0x3d6c2f36	0.05766221
184	0xbd3af892	-0.04564721
185	0x3c9b44ac	0.018953644
186	0x3ba74716	0.0051049097
187	0x3cfb018f	0.030640392
188	0xbd512a7e	-0.051065914
189	0x3dcd9ad4	0.10039297
190	0x3d64a466	0.055820845
191	0x3d66364b	0.05620412
192	0x3d967cb4	0.07348004
193	0x3db2e0ee	0.08734308
194	0x3cb71cb3	0.022352552
195	0x3c8b4755	0.017001787
196	0x3cdbb063	0.026817506
197	0xbd54a53e	-0.0519154
198	0x3d8bea19	0.0683176
199	0xbda9c104	-0.08288768
200	0x3ba818fd	0.005129932
201	0x3d06d1ed	0.032915045
202	0xbdaa8bfa	-0.0832748
203	0x3dfc5fe7	0.123229794
204	0xb8aa4c08	-8.1203936e-05
205	0xbd53e9ad	-0.051736522
206	0x3c8fc866	0.017551612
207	0x3d5a82ef	0.053347524
208	0xbb2729ab	-0.0025507014
209	0xbaf4be95	-0.001867252
210	0xbd97833b	-0.07398077
211	0x3d6e2138	0.05813715
212	0xbce3e3cc	-0.027818583
213	0xbdbfdd50	-0.09368384
214	0xbd643669	-0.055715952
215	0xbcb473bd	-0.022027845
216	0x3d28f030	0.041244686
217	0xbdeb52bf	-0.11490392
218	0xbcfe8fbb	-0.031074395
219	0x3d3e715c	0.046494827
220	0xbe018835	-0.12649615
221	0x3d3e87a2	0.04651607
222	0x3d71babe	0.05901598
223	0x3da7b96a	0.08189662
224	0xbd6038e5	-0.05474176
225	0x3d9aeda8	0.075648606
226	0xbd2246a2	-0.039618142
227	0x3ddea1a4	0.10870674
228	0xbce8a16b	-0.028397283
229	0xbd7445a4	-0.059636727
230	0x3ca0e595	0.019640723
231	0xbdfb61fd	-0.12274549
232	0x3d57087f	0.052498337
233	0x3ddd497e	0.10805033
234	0xbd97fe9c	-0.0742161
235	0xbde7c92d	-0.11317668
236	0x3bd7d3ab	0.006586512
237	0x3d381a89	0.04494718
238	0x3dd88aba	0.10573335
239	0x3dcb9882	0.09941198
240	0xbd3d7059	-0.04624972
241	0x3c30acd2	0.010783391
242	0x3d07eaeb	0.03318302
243	0xbd4c7223	-0.049913537
244	0xbd9eeaa2	-0.077595964
245	0x3da59ac1	0.080861576
246	0xbda03aae	-0.07823692
247	0x3d12b358	0.035815567
248	0xbca67d72	-0.020323489
249	0xbddb3e13	-0.10705199
250	0xbda3ca49	-0.07997567
251	0x3c694e15	0.014239808
252	0x3c42d41a	0.011891389
253	0x3db099e4	0.08623102
254	0xbd8dc7a8	-0.06922847
255	0xbdc329e3	-0.09529474

encoder.model.bias_ih_l1 f4 [256]
0	0xbc989f9a	-0.018630791
1	0x3d0d26d1	0.034460846
2	0xbcd0959a	-0.02546196
3	0x3d81e048	0.063416064
4	0xbcf7483d	-0.030185813
5	0x3da4aa70	0.08040321
6	0x3af55f11	0.0018720349
7	0xbd87313c	-0.066011876
8	0x3dd1ec57	0.102501564
9	0x3deea8fe	0.116533265
10	0x3dbf4ee7	0.09341221
11	0x38412506	4.6049267e-05
12	0x3dd2a817	0.10285967
13	0x3d3badf8	0.045820206
14	0xbdd27cad	-0.10277686
15	0x3d96f0a9	0.07370121
16	0xbdac7e3a	-0.08422513
17	0xbd3e0860	-0.046394706
18	0x3cd8b2fe	0.026452538
19	0xbdead8c6	-0.114671275
20	0x3d557404	0.052112594
21	0x3dede3a5	0.116156854
22	0xbde0a5cf	-0.109691255
23	0x3a1971a7	0.00058534223
24	0xbc6ef40b	-0.014584552
25	0xbcc49f6a	-0.024001796
26	0x3dd52a40	0.10408449
27	0x3da1ced5	0.07900778
28	0xbd9a8240	-0.075443745
29	0x3d849a51	0.06474746
30	0xbc53ae75	-0.012920012
31	0xbdaf4909	-0.08558852
32	0xbd9e781b	-0.07737752
33	0x3de1aebf	0.11019658
34	0xbdea4e89	-0.11440761
35	0xbd8785b6	-0.066173
36	0xbba3057d	-0.0049750195
37	0xbdb21c88	-0.08696848
38	0xb98b17f3	-0.0002652999
39	0xbdbf1cfa	-0.09331699
40	0xbde3afc6	-0.111175105
41	0xbd9118a6	-0.070847794
42	0xbdbefd1c	-0.093256205
43	0xbda40892	-0.08009447
44	0xbdb3d78d	-0.087813474
45	0xbda812a0	-0.082066774
46	0xbd12c097	-0.0358282
47	0xbd95dd4c	-0.073176
48	0x3db6674d	0.08906422
49	0x3d48c338	0.0490143
50	0x3d615f7d	0.055022705
51	0x3de22b4a	0.11043413
52	0x3de4876d	0.11158643
53	0xbd764061	-0.06011999
54	0x3d9f14e7	0.07767659
55	0xbc89d9cf	-0.016827492
56	0x3e00af8e	0.12566969
57	0x3dbeabcc	0.093101114
58	0x3d8c4110	0.06848347
59	0xbdad8d06	-0.08474164
60	0xbce9865a	-0.028506447
61	0xbd67d0ce	-0.056595616
62	0xbdf34cd1	-0.11879886
63	0xbddda517	-0.10822504
64	0x3dcf7a95	0.101308025
65	0x3bedfa7f	0.0072625275
66	0xbd7904b2	-0.060795493
67	0x3dcf0857	0.101090126
68	0xbdd8cfeb	-0.10586532
69	0xbdcd7bbd	-0.10033367
70	0xbd5ef2b3	-0.054430675
71	0xbdc28218	-0.0949747
72	0xbd7844b4	-0.060612395
73	0xbd18a6cc	-0.037268445
74	0xbcff0fcf	-0.031135468
75	0x3ddcf086	0.10788064
76	0xbd0996cc	-0.033591077
77	0xbce21933	-0.027599907
78	0x3d3011ea	0.042985834
79	0x3d80f344	0.06296399
80	0xbd0196a9	-0.03163782
81	0xbda9158e	-0.08256064
82	0x3de2ecfd	0.11080358
83	0x3da64e44	0.08120397
84	0x3c92bf4a	0.01791348
85	0xbd30500b	-0.043045085
86	0x3d907255	0.07053057
87	0x3dffcd5c	0.12490341
88	0xbb18ecae	-0.0023334431
89	0x3da4dc18	0.08049792
90	0xbcaa6c64	-0.020803638
91	0xbd9c58d3	-0.076341294
92	0xbddf398b	-0.10899647
93	0x3d609835	0.054832656
94	0xbdbf32dc	-0.093358725
95	0x3c995808	0.018718734
96	0xbda7a2f8	-0.08185381
97	0x3deca81d	0.115555026
98	0xbda36bc8	-0.07979542
99	0xbd93fbf7	-0.07225793
100	0x3ddc46a0	0.10755658
101	0xbd9aa1c3	-0.07550385
102	0x3d2bc08e	0.04193168
103	0x3d5c167a	0.053732373
104	0x3da6482b	0.08119234
105	0x3d9a4353	0.07532372
106	0xbdd195c8	-0.10233647
107	0xbc50bbb7	-0.012740067
108	0x3da9ba4d	0.08287487
109	0xbdd4823b	-0.10376402
110	0x3db1ca32	0.08681144
111	0xbd7b7715	-0.061392862
112	0x3d4f06cd	0.050543595
113	0x3c76d5a8	0.015065588
114	0x3d52dec4	0.051481977
115	0x3c18d3fa	0.009327883
116	0x3c722398	0.014778994
117	0xbcaed9ad	-0.02134403
118	0xbd41da07	-0.047327068
119	0x3e027170	0.12738585
120	0xbce1cf46	-0.027564656
121	0xbdbe1112	-0.092806
122	0xbd677bbf	-0.056514498
123	0x3cc2bad7	0.023770733
124	0x3d97e8a7	0.07417422
125	0xbb3c6324	-0.0028745616
126	0xbde61a68	-0.11235505
127	0xbc0df177	-0.008663527
128	0x3dcd7260	0.10031581
129	0x3a2801bd	0.00064089504
130	0x3bf0678a	0.0073365616
131	0xbdf07ea3	-0.11742904
132	0xbd1219bb	-0.03566907
133	0xbd90f63c	-0.070782155
134	0xbcfea400	-0.03108406
135	0x3bd9a745	0.0066422545
136	0x3d2d4858	0.04230532
137	0xbdc75018	-0.097320735
138	0x3bcdf9ee	0.0062858975
139	0x3d92ad02	0.07161905
140	0x3d80f753	0.06297173
141	0xbd7d8a7d	-0.06189965
142	0x3c60517f	0.013691305
143	0x3da7e7ee	0.08198534
144	0xbdb69126	-0.089144036
145	0xbdc21fa7	-0.094786935
146	0xbc99868b	-0.018740913
147	0xbe03aae4	-0.12858158
148	0x3b0f1bbb	0.0021836597
149	0xbc9aab51	-0.018880518
150	0xbcc80fba	-0.024421562
151	0x3d6084d5	0.05481418
152	0xbd4ac19e	-0.049501054
153	0x3e027676	0.12740502
154	0xbc02a911	-0.007974879
155	0xbce06e2d	-0.027396286
156	0x3d39258f	0.045201834
157	0x3d0d5955	0.03450902
158	0x3cf1ed82	0.029532198
159	0x3c98d5f6	0.018656712
160	0x3d2709c5	0.0407808
161	0x3d4f9a1a	0.050684072
162	0x3dad7dc2	0.08471252
163	0x3dfb6b21	0.122762926
164	0x3d6854a5	0.05672135
165	0xbd4722c1	-0.04861713
166	0xbccee396	-0.025255006
167	0x3d70729a	0.058703043
168	0xbc0aafa5	-0.0084647285
169	0xbd0cdb47	-0.034388807
170	0xbd9f96bf	-0.077924244
171	0x3d8f4733	0.06996002
172	0xbd637568	-0.05553189
173	0xbb0bfb52	-0.0021359515
174	0xbd84542c	-0.06461367
175	0xbca604fa	-0.020266045
176	0xbe00c0d1	-0.12573554
177	0x3dae3015	0.08505265
178	0x3d25a0bf	0.040436503
179	0x3bcb378e	0.006201691
180	0x3ddd9d1e	0.10820983
181	0x3dbfd29f	0.09366345
182	0x3d88e815	0.06684891
183	0x3d96876f	0.07350051
184	0xbd849c6a	-0.06475146
185	0x3cdc6e62	0.026908103
186	0x3dc4ffd8	0.09619111
187	0xbcef4e4e	-0.029212143
188	0x3ce2d13d	0.027687663
189	0xbc8b00d6	-0.016968172
190	0x3d9ff555	0.07810465
191	0xbe006dff	-0.1254196
192	0x3c4bfbc5	0.012450163
193	0x3a4cdcfb	0.0007814911
194	0x3ca155a8	0.019694164
195	0x3defb2ab	0.11704
196	0x3d2d2aef	0.042277273
197	0xbdbe5775	-0.09294025
198	0xbdd06514	-0.10175529
199	0xbded13d0	-0.115760446
200	0x3cefbe7b	0.029265633
201	0xbd9290aa	-0.07156499
202	0x3ce8f9ee	0.028439488
203	0x3dd85efd	0.105649926
204	0xbc55877f	-0.013032793
205	0xbde0a91a	-0.109697536
206	0x3db61f17	0.08892649
207	0xbc851c03	-0.016248709
208	0x3c63db7f	0.013907312
209	0xbb83d27c	-0.0040228944
210	0xbd2dee59	-0.042463634
211	0x3db778c4	0.08958581
212	0xbc9c0ecd	-0.019050026
213	0xbd6e7b11	-0.058222834
214	0xbd678010	-0.056518614
215	0xbdad5a93	-0.08464541
216	0x3dceb926	0.10093908
217	0xbd9c90a3	-0.07644775
218	0x3d7e71e0	0.06212032
219	0x3d942cab	0.07235082
220	0x3d288a03	0.041147243
221	0x3d015876	0.031578504
222	0xbd154e96	-0.0364519
223	0x3daf8678	0.0857057
224	0x3d38fc0f	0.045162257
225	0xbd0afa5c	-0.033930168
226	0xbdb82251	-0.0899092
227	0x3dea2021	0.11431909
228	0xbb81a1bb	-0.0039560474
229	0x3d3229cc	0.04349689
230	0xbc3baa6d	-0.011454207
231	0xbdcf3e7d	-0.101193406
232	0x3de8dc7d	0.1137018
233	0xbda72928	-0.08162147
234	0xbdcf3822	-0.10118128
235	0x3c243db4	0.010024477
236	0x3de89014	0.11355606
237	0xbd83511f	-0.06411957
238	0xbdc3d41f	-0.09561943
239	0xbdb0abee	-0.08626543
240	0x3d199b59	0.037501667
241	0x3d8bbe19	0.068233676
242	0x3c11264e	0.00885923
243	0xbd195aeb	-0.03744022
244	0x3b91c990	0.004449077
245	0x3d7ab039	0.061203215
246	0x3dac2d10	0.084070325
247	0x3df4fb50	0.119619966
248	0x3a4f86c3	0.00079165044
249	0xbd38e68a	-0.045141734
250	0xb7f4bfdb	-2.9176406e-05
251	0x3d807507	0.06272321
252	0x3dd2c50f	0.10291492
253	0x3de96bac	0.1139749
254	0x3db8882b	0.09010347
255	0x3dd7a824	0.10530117
