models/20200923_212102/epoch_1300_loss_3472.98049.pt (torch, 857809 bytes, 96 tensors)

encoder.model.weight_ih_l0 f4 [256, 3]
00000000: 5f4e a8bd aad6 b83c 2329 4ebd fd14 9b3d
00000010: 1039 383e 1ebd b03d eddf b9bc eb0d aa3c
00000020: 4ea7 263e a112 4b3b 00a0 513e e7a4 6ebd
00000030: 8661 183d eb8d 7dbd 2db0 c43d 972b 20be
00000040: 37d7 bc3e f787 09bd 4600 1dbf e105 7cbc
00000050: 1653 1f3e 29fa 7a3d 7e86 c13d db8e 113e
00000060: cd5f 90be 0fdb ab3b 931c 91be 298e 46be
00000070: b43f f3bb 7ee3 c83d 7a57 ecbe f515 ce3d
00000080: 531b 1c3f 33f4 3fbe cb3e b6bd 6548 73be
00000090: 2842 9fbd 01aa f3bd 6607 59bc 5aeb 2bbe
000000a0: 8a62 b2be 9b5f 85be 3e7f a4be d09f 8bbd
000000b0: 655f 393e ca2e 6ebe f1f3 193d c0e2 26be
000000c0: d53d 52be f819 723c 2efb 5ebe 6995 74bc
000000d0: 0131 2a3d a93d bc3d 840e b1be b329 a53d
000000e0: 3ef6 11be fd3d 26be 0917 59be 3d2c 80bd
000000f0: 384b 8cbd 60ef 70be e4e7 50bd a3f6 393d
00000100: a640 523d bee2 cc3c 749b 42be 02d6 14bf
00000110: fd28 aabe 8aa7 283d d5c8 b1bc 3399 ce3d
00000120: 92a6 013e 4879 51ba e125 90bc e35c 55be
00000130: eb7b 7abd 9e37 e0be 6c72 91be f477 7ebe
00000140: da5e a1bd e63f a73b fb17 1cbd 3947 20bd
00000150: 32d9 433d 37a0 033c e821 04bd aae8 9fbe
00000160: 9351 753e 5f9b 8fbc d0d2 89be 7595 453d
00000170: 3abb ac3d 5898 d1be cd82 c8bc 4d79 273e
00000180: 035c 4ebe 0820 883d 5a6d 5dbd bc10 3ebe
00000190: 46ca 543e 8da7 173d 353d 57bd 88d0 073e
000001a0: dc74 10bd 2630 cebe e9c2 36bf 790f edbe
000001b0: d692 a73c 04de 34bd 9c28 e73d 1471 a13d
000001c0: 9e17 b53d 116e efbc 5a4c 03be 5cad eabd
000001d0: ca75 31bd 5770 f53d bfac dabd 284f c93d
000001e0: 6aac e8bd 4a64 d4be aa6b 9ebe 0eb5 05be
000001f0: 93a8 9bbe ea69 42bd 6b79 8fbd 87a6 383e
00000200: 9624 163f 7bc5 45be 6067 a0bc 1b4d 3ebe
00000210: c891 febd 24d1 6a3e 0677 9ebd b5cd e63e
00000220: 2072 d63d 8a9b 253f 5dc1 3abe 0ce4 9bbe
00000230: c2f4 62be 72b4 1abe c748 0dbe 1131 fa3d
00000240: cc53 6dbe a11f 2e3e cf02 163e 8718 76be
00000250: 0cf8 453e a536 73ba 90be fa3d 959e fbbd
00000260: d1dc 37be c198 8bbd bd67 a83d 2e23 063e
00000270: 1a61 9cbe b908 59be 7e93 44be d2b6 bcbd
00000280: b8ce 5e3d fa84 8ebc ddd0 c0be eb92 f0bc
00000290: f79e 5f3e 5d31 0cbe ef48 b9bd 4181 083e
000002a0: 0453 1cbe 8c31 70bd 029f 9abd f1d2 50be
000002b0: 43d3 6fbd 246b 89be 608d c53d 5762 143e
000002c0: 0856 5f3e 5c11 0dbe 27d4 f53d 7fbb 963e
000002d0: 8748 fabe 17c4 03be 4ff0 5dbe ebd9 a03d
000002e0: 543a 02be 5778 143e dbef 5bbd 0b21 793d
000002f0: 8f44 6b3d f529 3f3e a6d8 1b3e b953 643f
00000300: e7ba c7bd 3a3f 18be e6f3 e73d 2eb1 dd3d
00000310: 3a3b 3fbe 4bf0 b63e 6fb5 73be 4866 05bd
00000320: c39d 513c 48e9 1cbe 7922 173e dc2b abbd
00000330: b612 27be 843e 90be 7292 0a3e 57ef b2be
00000340: 8a83 3e3e c437 113f 3fbe 1cbf fef2 aabd
00000350: c4e5 403e 6aa6 a8be ab13 cdbe 793b 70be
00000360: b361 80bd dc4d 8bbe 6f32 1ebf aa69 01bf
00000370: c2a1 013e bef6 b83d af0d 67be e5b0 313d
00000380: 32bc d43e a907 263e 25d8 6fbe cc46 e5bc
00000390: 29e8 053e b65d d7bd baf5 9bbd f207 4dbe
000003a0: 9b8c cbbe 408f c2bd a468 8dbe c018 cdbe
000003b0: 132e 9bbe 9986 53bd c531 d43e 9ed7 aeba
000003c0: 9f13 53be ce73 273e 7ca1 1e3d 8a53 18be
000003d0: 366d a9be dddb b93c 757c 3dbc 2c08 8cbd
000003e0: 6acc 7ebe 0f17 44be d284 543d 0ff4 b2bd
000003f0: db6e 8d3d 29ba 4fbd 3172 843d 783d e6bd
-0.08218073 0.022563297 -0.0503322 0.075723626 0.17990518 0.08629821 -0.022689784 0.02075859
0.16274759 0.0030986445 0.20471191 -0.058262732 0.03720238 -0.06190292 0.09603915 -0.15641628
0.36882946 -0.03357693 -0.6132854 -0.015382261 0.15559039 0.061273728 0.094494805 0.14214651
-0.2819809 0.0052446197 -0.28342113 -0.19390167 -0.0074233655 0.09809016 -0.4616049 0.10062782
0.60979193 -0.18745498 -0.088986956 -0.23758085 -0.0777629 -0.1189766 -0.013246393 -0.16788998
-0.34840804 -0.26049504 -0.32128328 -0.06817591 0.18102796 -0.23260036 0.037586156 -0.16297436
-0.205314 0.014776699 -0.21775505 -0.0149282 0.04155064 0.09191448 -0.34581387 0.08064594
-0.1425409 -0.16234584 -0.21200193 -0.06258438 -0.06850284 -0.23528814 -0.051002398 0.045401227
0.051331185 0.025010463 -0.19004613 -0.5813905 -0.33234397 0.041175403 -0.02170221 0.10087814
0.12661198 -0.00079907896 -0.017596187 -0.20836215 -0.061153334 -0.43792433 -0.2840761 -0.24850446
-0.078794196 0.005104053 -0.038108807 -0.039130423 0.047814555 0.008033804 -0.032258898 -0.31232196
0.239569 -0.017530141 -0.2691865 0.048238236 0.08434148 -0.40936542 -0.024476433 0.16354866
-0.20152287 0.066467345 -0.054059364 -0.18561071 0.20780286 0.037025023 -0.052548606 0.13263142
-0.035267696 -0.4027111 -0.7139116 -0.46300867 0.020455759 -0.044157043 0.112870425 0.07882896
0.08842395 -0.029227288 -0.12822095 -0.11458847 -0.043325223 0.11984318 -0.1067748 0.09829551
-0.113610104 -0.41482764 -0.30941516 -0.13057348 -0.3040205 -0.04746429 -0.070055805 0.18032275
0.58649576 -0.19313614 -0.019580543 -0.18584101 -0.12430149 0.22931343 -0.07737546 0.45078817
0.10470986 0.6469046 -0.18237825 -0.30447423 -0.2216368 -0.15107897 -0.13797294 0.1221639
-0.23176497 0.17004253 0.14649509 -0.24032794 0.19332904 -0.0009277857 0.12243378 -0.122861065
-0.17955329 -0.06816245 0.082229115 0.13099357 -0.30542833 -0.21194734 -0.19196889 -0.09214558
0.05439636 -0.017397393 -0.3765935 -0.029366931 0.21837984 -0.13690706 -0.09047114 0.13330556
-0.15266043 -0.058641 -0.075498596 -0.20392968 -0.058551084 -0.26839554 0.09646106 0.14490639
0.21810162 -0.13776153 0.120033555 0.29439923 -0.4888346 -0.12867771 -0.21673702 0.078540646
-0.12717563 0.14499031 -0.05369554 0.060822528 0.05743843 0.18668349 0.15219364 0.8919025
-0.09752446 -0.14867869 0.11325817 0.1082481 -0.18674937 0.35730204 -0.2379968 -0.032568246
0.012793961 -0.15323365 0.14759244 -0.08357975 -0.16315731 -0.28172696 0.13532427 -0.34948227
0.18604866 0.56725717 -0.6122779 -0.08347128 0.18837649 -0.32939464 -0.40054068 -0.23460187
-0.06268635 -0.2720784 -0.61795706 -0.50551856 0.12659362 0.09031437 -0.22563814 0.04338159
0.41549832 0.1621386 -0.23422296 -0.02798786 0.13076843 -0.10515921 -0.07615228 -0.20022562
-0.3975571 -0.09499979 -0.27618897 -0.40057945 -0.3030859 -0.051642034 0.4144422 -0.0013339405
-0.20612954 0.1635277 0.038728222 -0.14875618 -0.33091134 0.022687847 -0.011565317 -0.06837496
-0.24882665 -0.19149421 0.05188448 -0.08737957 0.0690591 -0.050714646 0.06467093 -0.11242193

encoder.model.weight_hh_l0 f4 [256, 64]
00000000: 12bd 373d 79fe 7fbd 08e2 703e bf51 a03e
00000010: 0030 04bd 08fd 8e3e e787 7cbe 3051 603d
00000020: 4fe8 363e ac84 17be dfe1 8b3d c2d7 0bbe
00000030: 32e0 babd 83ed 123c e2e0 9fbd 2753 8dbc
00000040: 0b4c a7bc ee8f 51bd 0a01 653e fd97 c2bd
00000050: 7085 12bd 907d b9ba ad2c 2bbc 0157 86bd
00000060: 6e4f 073e 29f0 753d e86b 4dbc 29ec 20be
00000070: 7eab 1f3f b6fd b3bd 0811 693d 2a03 053e
00000080: 12ba a13e 0502 18be 400c e6bc 97db 123d
00000090: 5955 5cbd 1aef d73e bd79 0f3e f715 4ebc
000000a0: fefe f93d 9e13 36bd d0ab cc3e a8b7 8fbe
000000b0: a6ba 5e3e 06cf 70be 692f 513d ebcc 58be
000000c0: fab6 463d 84e0 6bbe 04f1 223e 1a61 81bb
000000d0: 1f9f cb3d 306d b23e 1c48 c7bd 44bd 133e
000000e0: 5a98 98bd fdfa 66bd 4b4a 893e f60e 6abe
000000f0: 58d7 ddbd d12e bcbd b9fd b8be b874 753e
00000100: 2086 62be 7a85 3ebe c236 733e c9c1 823e
00000110: bcb9 1c3e a568 0c3e 9c4b d2bd 8086 74bd
00000120: 5124 9f3d e7af 15be c0f7 6e3e fe46 dfbd
00000130: daf1 503d 3634 02bd 48fe 07be 4532 553c
00000140: ad4b a4bc 4d83 66be ce49 133a 3944 cabd
00000150: afcb 45bd 771b ec3d 7ac5 863c e2b5 543d
00000160: e766 023e 1624 10bd 5f87 87bd 24e2 2ebe
00000170: 2739 a33e f091 90be 8e6d 4a3e 08ab 50be
00000180: 3aba 623e 53af 12be 2d6a 99be 759f d3bd
00000190: 28af 1d3d e8ce 9e3e 7ec7 ef3d ad52 dcbc
000001a0: a01d 94bd 21cb cd3d 006a a53d cdac abbe
000001b0: 152e 573e 7d10 b9bc 3f16 ccbc d0e0 d7bc
000001c0: 6b8d e83c ca9c 23be 7e2a 4c3e 928b 253e
000001d0: 6b63 c6bd 907f 113d b102 5fbe 38aa a93d
000001e0: 70f2 7b3d 02c2 cebd ad83 4d3d a32f 1abe
000001f0: 4a1d a1bd 568d 1ebd 258c 4dbe a2e9 753e
00000200: 6198 9c3d 4e1b 2bbd bc31 013d e47f b7bd
00000210: 5638 8bbc c4d6 3e3b acc6 2dbe df44 c2bc
00000220: fb98 2fbd 6755 a23c adfd 17be d197 82bc
00000230: f985 16be 14f0 32bd baed 53bd 8b9a b3bd
00000240: 8153 b0bd 2d6d a33d 491a 15bd eb4b debd
00000250: 79df b8bb b17d 993d c3c4 3b3d df3c 9d3d
00000260: a7fa f8bd 4ae3 a93d 0ff8 f13d 3422 e7bd
00000270: 3ecb 623c 6354 903c 591b d8bd d355 823d
00000280: 3835 8f3c 72d7 8dbd f881 97bc 9c63 b73d
00000290: d22a 033e d243 1e3e de51 13be 6330 24be
000002a0: 69e4 fe3d 7d71 02be 36b0 a8bc 0c19 523b
000002b0: e589 8f3d 4de3 923d ffd2 bc3d 7dd7 31be
000002c0: 77a3 18bd 6f3e 8dbd 9bf9 e1bd 1afd f0bd
000002d0: cbab 03bd a20d db3d 3e93 2ebe 8d4e 043d
000002e0: 9941 ddbd 7464 afbd b78c 393e bd0f d83c
000002f0: ae37 32bd 1dce aabb be87 84bd ad40 bdbd
00000300: be7f 2f3e 0598 a23d 3916 283e 341f 053d
00000310: e862 f63c 74c5 51bd 99ec 5ebd 82d7 94bd
00000320: 7210 383d 2435 94bd f685 3fbc a35f ffbd
00000330: 069f 0dbe 48fd cfbd 4e36 3d3d ab0e ae3d
00000340: 8159 e73d f023 3f3d a67c 1e3e f0c1 a1bc
00000350: 46d0 8fbc bc63 d7bb 5f28 16be 85ad d03d
00000360: 2199 a33d d565 10bd 79ce cd3b e20f 33bd
00000370: 8b89 123e b574 65be fd9c 47bd a2aa 883d
00000380: 1bb8 7d3c 24ef fcbd 871e 6fbd 27ea 0bbe
00000390: 2bf8 cfbd 456e 8e3e 0f9f 983d 8edb d53c
000003a0: 7a03 fb3d a968 fe3c 4552 abbd 60f1 7fbd
000003b0: 8b64 863e e08b 793b edc0 823d 6de8 28bd
000003c0: c8ca d5bc e478 afbd efe6 cd3d cde1 62bb
000003d0: 35d9 1f3d 9b55 df3d 896e ccbd 147d f23c
000003e0: b765 d2bb 3f38 afbd f25f 663e 4209 45be
000003f0: 1880 1bbe 3b2f 14bd 9e1c bbbd 2787 0d3e
0.044858046 -0.062498543 0.23523724 0.31312367 -0.03227234 0.27927423 -0.24661218 0.054764926
0.17862056 -0.14796704 0.06830191 -0.13656524 -0.09124793 0.00896776 -0.07806565 -0.017251564
-0.020422002 -0.051162653 0.22363678 -0.09501646 -0.035771787 -0.00141518 -0.010447663 -0.065595634
0.13213894 0.060043488 -0.012537934 -0.15715088 0.6237105 -0.08788626 0.056901008 0.12989488
0.31587273 -0.1484452 -0.028082013 0.03585395 -0.05379233 0.42174608 0.14011283 -0.012578479
0.12206839 -0.044452302 0.39974833 -0.28069806 0.21750888 -0.23516473 0.051070604 -0.2117192
0.048514344 -0.23034865 0.15912253 -0.003948343 0.09942459 0.34848928 -0.09730551 0.14427668
-0.07450934 -0.056391705 0.26814494 -0.2285727 -0.10832089 -0.09188617 -0.36131075 0.23970306
-0.22121477 -0.18605605 0.23751357 0.2553847 0.15305227 0.13711794 -0.102683276 -0.05969858
0.07770599 -0.14617883 0.23336697 -0.109022126 0.051011898 -0.031788073 -0.13280594 0.0130124735
-0.020055616 -0.22511025 0.0005618603 -0.09876294 -0.04828995 0.11528676 0.016451586 0.05193127
0.12734567 -0.035190664 -0.06617617 -0.17078453 0.3187954 -0.2823634 0.19768354 -0.20377743
0.22141352 -0.14324693 -0.29963818 -0.103331484 0.03849712 0.31017232 0.11707972 -0.026894892
-0.07232213 0.100485094 0.080768585 -0.33530274 0.21013673 -0.02259087 -0.024912952 -0.026352316
0.028387746 -0.15977779 0.19938084 0.16166523 -0.09686931 0.035522044 -0.2177837 0.0828442
0.061510503 -0.10095598 0.050174404 -0.15057234 -0.078669146 -0.038709007 -0.20072992 0.24014905
0.076462515 -0.041774087 0.03154157 -0.0895994 -0.016994637 0.002911971 -0.16970319 -0.02371448
-0.042870503 0.019816114 -0.14842863 -0.015941532 -0.14699544 -0.043685988 -0.051740386 -0.08769711
-0.08609677 0.07979808 -0.03640202 -0.10854324 -0.0056418744 0.07494677 0.045841943 0.07677626
-0.12157183 0.08295305 0.118148915 -0.112858206 0.013842402 0.017618364 -0.10552091 0.06364026
0.017481431 -0.069258586 -0.018494591 0.08954546 0.12809303 0.15455559 -0.14386699 -0.16034083
0.124459095 -0.12738605 -0.020591836 0.0032058386 0.07008723 0.071722604 0.09219932 -0.17367359
-0.037265267 -0.06896674 -0.110339366 -0.11767025 -0.032146256 0.1069596 -0.17048356 0.032301474
-0.108035274 -0.08564082 0.18120085 0.026374692 -0.04351013 -0.005212559 -0.06471203 -0.092408516
0.17138574 0.07939152 0.16414727 0.03250046 0.030076459 -0.051213697 -0.054424856 -0.07267667
0.04493756 -0.07236698 -0.011689654 -0.12469413 -0.13830194 -0.101557314 0.046194367 0.084988914
0.112963684 0.046665132 0.15477237 -0.019745797 -0.017555367 -0.0065731686 -0.14663838 0.10189346
0.079881914 -0.035253365 0.006280717 -0.04371632 0.14310281 -0.22407801 -0.0487337 0.066731706
0.015485789 -0.123503 -0.058378723 -0.13663541 -0.10154756 0.27818504 0.07452213 0.026105668
0.122565225 0.031055765 -0.08365301 -0.062486053 0.26248583 0.0038077757 0.06384454 -0.041237283
-0.02609767 -0.0856798 0.10053813 -0.003461945 0.039025504 0.10905 -0.099820204 0.029600658
-0.0064208168 -0.0855565 0.22497538 -0.19241813 -0.15185583 -0.036177855 -0.09136318 0.13821088

encoder.model.bias_ih_l0 f4 [256]
00000000: baf2 e63d 5ff1 8f3d f48e 4c3d 3414 113e
00000010: 0a77 6d3e 87fd dd3d c880 2a3d ee47 863e
00000020: 6072 5f3e 4b77 2f3e 183b c93e 8492 ba3d
00000030: bb4b 9c3d 2194 803d 2916 533e c250 78bd
00000040: 0fbd 953d b82a a93e 2c91 26bd 27e7 b0bd
00000050: 3482 903d 9f9c 403e d870 1e3d d330 7f3e
00000060: a5aa 863d 72b5 bd3d ff7b 3bbd 3ea8 743d
00000070: 4f16 f03d 066a 53bd 880b b83d 4aef 0a3e
00000080: ef21 723d 307b 133f 0cbd ed3e a2ca 2bbd
00000090: 27fa 82bc 2d7c dcbc 3329 f93d 4ee3 a03d
000000a0: f188 fa3c a575 913d e646 983d f7e2 bcbd
000000b0: 7334 98bd 39d2 253f e8be 453d e173 2e3d
000000c0: e553 74bb fba3 2fbd 54c3 043e 8071 8e3d
000000d0: 55fe 73bd a505 92bc cf19 f63d 8a49 e43d
000000e0: bc41 943d ff37 423f 019e 853c 27e4 853d
000000f0: 07f2 303d 00c3 473c 9735 ca3e 458d e53d
00000100: d619 75bd 0418 f73c f446 0bbe 4cc8 d5bd
00000110: 0f02 b9bd d564 b5bd 91cb 093e 8695 bcbd
00000120: d36f 10be 05cb 04be d858 7cbd 35c6 82bc
00000130: 5c52 cfbd d276 a2bd 51e7 5dbd 3cf4 6abc
00000140: 0c99 4dbc 0224 0a3c 97c5 a5bb d832 07be
00000150: a315 22bc 2ae1 523e 2448 8ebd 2245 453d
00000160: 12a6 a93d f17d 9cbd 82c1 8e3d ef82 b73d
00000170: 9e9b 31be 1371 f13d dab9 18bd 5533 86bc
00000180: 4a2d 5d3d a2e5 fdbd 06dc fb3c e57b b73d
00000190: 6e3b 1dbe e319 10be fc20 603d 6cb1 0a3e
000001a0: 3116 c93b 6356 e0bb 55c8 1e3b f1d5 273e
000001b0: 0a20 c0bd d867 c13c aab0 e93d c44b d9bd
000001c0: 1e44 1cbe 3867 edbd ca62 54be 2fd1 023c
000001d0: cd78 e43c 82d2 86bd 03e2 b7bd f8eb d03d
000001e0: a6d0 033b 5ddd 1cbf aac5 8bbd ea26 03be
000001f0: 21c3 dfbd a1b2 febc 4632 0ebd c4a7 613d
00000200: 3bc5 103d 2783 4e3d 64a7 01be f095 17be
00000210: 8061 78bd 305b b93a 308b a93c fdf2 a0bd
00000220: 9fff 9b3d 1c21 793d 9e83 7cbd 0b00 e1bd
00000230: 9f80 613d bf5e 14bc 7a4e f73d 971f 723d
00000240: e734 23bc e4d6 c53d 40a6 8abd 680b b33d
00000250: 5783 15bd 8a63 abbd 5d05 aabd f96f 853d
00000260: a1dd abbd a196 883d 24a9 5c3d afa2 cebd
00000270: 6666 283c b52e d93c 9227 bcbd b69f 163e
00000280: 0c17 9f3c 3949 373d 00fb dc3d f60d e13d
00000290: d378 17bd 94d9 8fbd d5e4 ff3d f4dc fabd
000002a0: 8877 5b3d cac6 cabd fbdc a8bd ad42 ba3d
000002b0: f86c 5c3d 24a9 aa3d 7905 07bd 647c f1bd
000002c0: 35a7 963d 22b8 e4bd 0078 15be 2654 a1bc
000002d0: af5e 413e 5d65 cfbc 05d2 6f3c fdba 123e
000002e0: 7583 b0bb dd48 aa3e 74a4 873d 5e17 7e3d
000002f0: 85d6 e4bc af15 5d3b cced c8b9 059f 22bd
00000300: a657 333e b170 f13d de5c 4e3c d125 863d
00000310: 5fc3 783e f7ab c23d 713c 8abc 1ecf 063e
00000320: c50a 783d 726d c33e 29d7 c43e f114 8f3d
00000330: a8e1 003e 859a a1bd 19ce 1a3e 3e93 373e
00000340: 4241 bc3d 68ce 803e b310 15bd f156 54bd
00000350: b555 373e 2ebd ea3c d0b0 a43d c7c1 083e
00000360: 9c42 603e b0f8 80bd 6e37 71bd 3b85 c13d
00000370: 74b1 c3bd a2b2 723d 8675 313e d8f3 cd3c
00000380: 78df 493c c551 bf3e 97f7 5b3e baaa 593d
00000390: b649 fe3d 9af0 913d 7de2 5abd 952d 6d3d
000003a0: a39d 04bd d30b 34bd a040 0f3e a88d 063e
000003b0: c0f6 45bd f8cb 2e3f 6f28 0d3d c01f 013d
000003c0: 7986 28bd a651 9d3c a421 fa3d eb7e 4e3e
000003d0: 9b97 7c3d a80d 97bd a0f8 393e c61a 49bb
000003e0: 1ce1 7e3d 1af8 133f 7d77 6eba 50b9 f43d
000003f0: 7cb0 cbbd bbae a03d 1dd7 313e ed08 5d3e
0.11276765 0.0702846 0.04994102 0.14167863 0.23189941 0.10839372 0.04162672 0.26226753
0.21820974 0.1713535 0.39302897 0.09109977 0.07631632 0.06278253 0.20613922 -0.06062389
0.07311451 0.33040404 -0.04066579 -0.08637839 0.07056084 0.18809746 0.038681835 0.24920969
0.065755166 0.092631236 -0.04577255 0.05973076 0.11723005 -0.051614784 0.089865744 0.13567844
0.059114393 0.57609844 0.46433294 -0.041941293 -0.015988423 -0.02691468 0.12166061 0.07855855
0.030582877 0.07102517 0.07435398 -0.092229776 -0.07431879 0.647739 0.048277766 0.04259098
-0.003728145 -0.042880993 0.12965137 0.06955242 -0.05956872 -0.017824957 0.12016641 0.11146839
0.072391 0.75866693 0.016310694 0.06537657 0.043199565 0.012192488 0.3949401 0.11208586
-0.059839092 0.030162819 -0.13601285 -0.10438594 -0.09033596 -0.08857123 0.1345656 -0.09208207
-0.14105158 -0.12968071 -0.061608166 -0.015963653 -0.10123131 -0.079328194 -0.05417568 -0.014340457
-0.012548696 0.0084314365 -0.005058955 -0.13202989 -0.009892854 0.20593706 -0.069473535 0.048161633
0.082836285 -0.07641209 0.069705024 0.089605205 -0.1734452 0.11789145 -0.037286617 -0.016381899
0.05399827 -0.123973146 0.030744564 0.08959178 -0.15354702 -0.14072375 0.054718956 0.13544244
0.0061366786 -0.0068462356 0.0024228294 0.16390206 -0.09381111 0.023609087 0.11410649 -0.10610154
-0.1526036 -0.11591953 -0.2074081 0.007984444 0.027889634 -0.0658312 -0.08978655 0.102012575
0.0020113378 -0.61275274 -0.06824811 -0.12807813 -0.1092589 -0.031091036 -0.034715913 0.055091634
0.035344344 0.050418045 -0.1266151 -0.1480329 -0.06063986 0.0014141556 0.020696253 -0.07858846
0.07617115 0.06082259 -0.061648957 -0.10986336 0.055054303 -0.009055792 0.12075515 0.059112158
-0.009961343 0.09660128 -0.06769991 0.0874241 -0.03650221 -0.08368595 -0.08301804 0.06515498
-0.08391882 0.06669355 0.053872243 -0.10089623 0.01027832 0.02651153 -0.09187235 0.14709362
0.01942017 0.044747565 0.10790062 0.10988991 -0.03698046 -0.070239216 0.12494818 -0.12249175
0.05358079 -0.09901197 -0.08245274 0.09094749 0.05381486 0.08333042 -0.032964204 -0.11791304
0.07356111 -0.11167933 -0.14596558 -0.019693445 0.18883775 -0.025316888 0.014637475 0.14329143
-0.0053867646 0.33258715 0.06623164 0.062034003 -0.027934322 0.0033734848 -0.00038324145 -0.039702434
0.17513904 0.11789072 0.012595383 0.06550182 0.24293278 0.09505456 -0.016874524 0.13164946
0.060557146 0.38169438 0.38445404 0.06986416 0.12586081 -0.078908004 0.15117683 0.17927262
0.091921344 0.25157475 -0.03639288 -0.051840726 0.17903788 0.028654661 0.08041537 0.1335517
0.2190041 -0.062974334 -0.058890752 0.0944924 -0.09555331 0.05925239 0.17329988 0.025140688
0.0123213455 0.37367073 0.21481167 0.053141333 0.12416403 0.07125969 -0.053438652 0.0579048
-0.032376897 -0.04395659 0.13989496 0.13139975 -0.048331022 0.6827998 0.03446239 0.03152442
-0.041143868 0.019203972 0.12213448 0.20165603 0.06166802 -0.073756516 0.18161249 -0.0030686124
0.0622264 0.5780045 -0.00090967846 0.11949408 -0.09945771 0.07845827 0.17367215 0.21585436

encoder.model.bias_hh_l0 f4 [256]
00000000: c522 fe3d a193 05bd 93a3 513e 06b9 353e
00000010: 18c8 c33e 7f66 02bd f33c b0bd 0a84 983e
00000020: 60b5 a43e 40e6 893e 8a4d 6b3e a991 8cbc
00000030: 8d24 c43d ad36 433d b221 f73d 1dac 49bc
00000040: 4598 123c 2c03 3c3e 62b9 f43d 1958 9ebd
00000050: c1ad 0a3d 6cca f83c 62a9 53ba 7348 493e
00000060: ee66 3f3e 472d 87bd 7740 b53d 8445 483d
00000070: e7fe c23d 4f83 d2bd 65bf 183e 20fa b53d
00000080: a587 00be 9898 d93e bd81 d23e 60f6 e63b
00000090: 41b8 033d 9574 093e d172 0c3e f83d c93d
000000a0: 4433 933d b594 623d d478 313d 6c43 6bbd
000000b0: dcfd cbbd e4a9 2d3f d16a 543d 8787 c93d
000000c0: 2e7a 70bd 5190 f63d 666b 743e c3ec 7d3e
000000d0: 65c2 f63b ecb2 ee3d ee9e 963d e8df 3f3d
000000e0: 8484 f73d db26 413f fc6d dc3d 56ed 103d
000000f0: fc00 94bd d494 3c3e 8825 563e 8df2 9a3e
00000100: 69b2 973d 399b ff3c 4ac5 a3bd 9b22 653d
00000110: 5627 5ebd 6e5f 18bd 66bc 0b3e b1c7 eabb
00000120: 8bd2 1dbe 5d52 31be ade0 253d a44b 653d
00000130: c4b3 ef3d 7700 823d e92b ce3d c80d 9bb9
00000140: eac6 8f3d 0d1a b2bd 0a71 86bb ada9 51bd
00000150: 62c0 13bd df90 093e 7e29 ccbd 2dda 6ebd
00000160: 5a47 e6bc 1e69 0dbd cde4 e13d 938f 0b3c
00000170: 38e9 8fbd ed62 cc3d 329e 943c da2a 733c
00000180: bb85 f43c f04a eb3c 72e7 41bd 94e6 6fbd
00000190: 9720 e2bd 29ca 2fbd a71e 0cbd 7dc4 8b3d
000001a0: 863d afbc 2d06 223d 3480 ed3d 726b 053d
000001b0: f9bd b93d c5ab cdbd ad03 803d 7e31 82bd
000001c0: 6ed8 4fbb cc05 2c3c 9d9c 46bd 98d7 4c3d
000001d0: 4b9f d43d 6a64 0abe 1b0b 07be 042e 883d
000001e0: 97e7 0fbd abff 06bf 0cea 023d f6a2 b43d
000001f0: f2cc 133c a8ff 813d 860a 25bd 286b 203d
00000200: c3bc 313e 7334 9dbd 7fb0 a3bd 4d53 123d
00000210: 5574 9cbd b105 973d 63c1 fdbd fbbf bbbd
00000220: c59b 713d 0179 863d c128 f2bd aaf4 08bd
00000230: 4eae 8dbd f7e7 aabd 406c 1a3e 03c2 b0bd
00000240: 71bd 52bd 637b 023e 16be dbbc 7018 afbd
00000250: fcc0 8abd c641 e13d 63a4 2dbd 1c6b ec3c
00000260: dbc4 713d b901 e63d 28f8 cb3d 72fe f53c
00000270: 3fe1 1abe 05ae dbbd b398 03bd bddd 79bd
00000280: 1b61 993d 15e4 c7bd b604 b23d 2ef7 d2bc
00000290: 0a87 2cbc 9f85 2ebc 6bdc c1bd 11e4 8dbd
000002a0: a62e d03c 38e5 df3c 9b95 e1bb 135f 95bd
000002b0: e5a5 1c3c b5ba cfbc d025 0d3d 9583 3cbd
000002c0: 942a d03d cb81 e2bd bf52 f6bc ca41 e4bd
000002d0: e0e3 5cbd c700 563b a122 f63c aca3 623d
000002e0: 2971 6fbb bad1 533e a551 6b3d 42fa 7dbd
000002f0: 9c0c 77bd 39b1 ad3d 3cc3 d03d edb9 473d
00000300: 398c 8d3e 35f1 fa3c d53b 8f3d d9fb 633e
00000310: 9edd c83e 4b8b 953d a51c cf3d 4fc0 7b3e
00000320: 993d ae3d 86aa 5e3e 8f01 6b3e accd eebd
00000330: 40df 263b 2291 24be b28a 333e 5fc7 363d
00000340: c3ac 39bd bb44 173e 76cb cf3d 3489 623d
00000350: 3b94 50bd c3bd f63d 385c ce3d 658d 133e
00000360: 3267 863e 7184 f2ba ae27 48bd 4b05 763d
00000370: ee0a dcbb 0b6e ad3c 60e9 553e 54f0 ec3d
00000380: f482 afbc f8b5 0a3f 358e c93e d56c 70bd
00000390: 7263 ae3c a2d8 f93b 6ad7 143e cff1 2ebd
000003a0: 747a f43d b1d5 a13d c059 0d3e 34a7 de3d
000003b0: 5245 68bd 400e 0c3f 8c3d fe3d 98e4 a4bd
000003c0: 403e 183d d6d9 aabd f78f 0c3e 3828 643e
000003d0: 33f0 593d 60e6 9e3d 21cd d23d 6b14 ef3d
000003e0: 8f97 8e3d b679 123f 2646 e0bc ced8 89bd
000003f0: b020 a4bc 6369 813d d35d 873e 3cda d33d
0.124089755 -0.032611493 0.20472555 0.17746362 0.38238597 -0.03183603 -0.08605375 0.29788238
0.32169628 0.2693348 0.22978798 -0.0171593 0.09577284 0.047659565 0.12066974 -0.012309101
0.008947437 0.18360585 0.119494215 -0.07731647 0.03385711 0.03036996 -0.0008074251 0.19656543
0.18691608 -0.06600433 0.08850186 0.04889442 0.09521275 -0.102789514 0.14916761 0.08885598
-0.12551744 0.42499232 0.41114607 0.007048413 0.03215814 0.13423379 0.13715674 0.09826273
0.071875125 0.0553176 0.04332812 -0.057437345 -0.09960529 0.6783736 0.05185968 0.09840303
-0.05871027 0.12039245 0.23869094 0.24797349 0.007530498 0.116552204 0.07354532 0.046844393
0.12085822 0.75449914 0.10763165 0.03538259 -0.0722675 0.18416148 0.20912755 0.30263177
0.07407076 0.031201946 -0.07996614 0.055941205 -0.054236732 -0.037200384 0.13646087 -0.0071649184
-0.15412347 -0.17316575 0.04049747 0.05598034 0.117042094 0.06347745 0.10066969 -0.00029574172
0.07020362 -0.08696375 -0.004102831 -0.051187206 -0.036072142 0.1343417 -0.099688515 -0.058313537
-0.028110195 -0.034524076 0.110299684 0.0085181175 -0.07026905 0.09979806 0.01814184 0.01484176
0.029848924 0.028722256 -0.047339864 -0.058569506 -0.11041372 -0.042917404 -0.03420892 0.068245865
-0.021391641 0.03955667 0.115967184 0.03257317 0.090694375 -0.10042528 0.06250701 -0.06357096
-0.0031714696 0.010499429 -0.0484892 0.050010294 0.10381945 -0.13514867 -0.1318783 0.06649402
-0.03513297 -0.5273387 0.031961486 0.08820145 0.009021031 0.06347591 -0.04029324 0.039164692
0.17357163 -0.076760195 -0.07992648 0.035723973 -0.07639376 0.073741324 -0.12390401 -0.09167477
0.058986444 0.065660484 -0.118241794 -0.033436455 -0.069180116 -0.08345025 0.15080357 -0.08630755
-0.051450197 0.12742381 -0.026824038 -0.08549583 -0.0677509 0.109988734 -0.0423931 0.028859667
0.059025627 0.11230797 0.099594414 0.030028556 -0.15124987 -0.10726551 -0.032128047 -0.06100248
0.074892245 -0.097603 0.08692305 -0.02575263 -0.010530243 -0.010651975 -0.094658695 -0.06928266
0.025412869 0.02733098 -0.0068842894 -0.072935246 0.009561037 -0.025357584 0.03445989 -0.046023924
0.10164371 -0.11059912 -0.030068753 -0.11145361 -0.053928256 0.0032654272 0.03004581 0.05533187
-0.0036535955 0.20685473 0.05745091 -0.062006243 -0.06031476 0.08481068 0.10193488 0.048761297
0.27646044 0.030632595 0.06993834 0.22264041 0.3923158 0.07301959 0.101128854 0.24585079
0.085078426 0.21744737 0.22949813 -0.116603225 0.0025462657 -0.16070989 0.17533377 0.04462373
-0.045330774 0.14772312 0.10146229 0.05530663 -0.050922614 0.12047913 0.10076183 0.14409406
0.26250607 -0.0018502605 -0.048865966 0.06006364 -0.00671517 0.021170637 0.20889807 0.115692765
-0.021424748 0.5418391 0.39366308 -0.05869754 0.021287654 0.0076247016 0.14535299 -0.042711075
0.119374186 0.079020865 0.13803768 0.10871735 -0.056706734 0.54709244 0.12414083 -0.08051413
0.03716874 -0.0834233 0.13726793 0.22280967 0.053207587 0.07758784 0.102930315 0.11673816
0.06962501 0.57216966 -0.0273772 -0.06730805 -0.020035118 0.06318929 0.2643877 0.10344359

encoder.model.weight_ih_l1 f4 [256, 64]
00000000: 0f2d 8cbd b3c1 acbd 88f0 11be 0959 bfbd
00000010: 3ca5 35be 9476 20bd 82a7 6cbd ac61 2e3d
00000020: e302 ae3d 25e2 d1bc 31da 04be 214a d63c
00000030: 5bff 36bc f7cb 043b fb24 483e 8589 6bbe
00000040: 6660 63be e665 843d 362f 863c 7c27 a7bd
00000050: db26 f8ba b823 37be 6f36 83be fbde c93b
00000060: 1b7b b8bc 276a 393e ca21 22bd f4af abbc
00000070: 99f6 03be d7b2 8f3d 8446 02bb 7a38 9e3d
00000080: 9e4e 37bc 543e 9b3d d8b8 da3b f427 5b3e
00000090: cc4c 353e da3b ef3d d006 d0bc 8eef ffbd
000000a0: 2ac7 5d3d 25f5 1fbd c562 1bbd 1180 80bd
000000b0: fe9d 03bc 9c7c d53d ece7 e7bb 76c3 1bbd
000000c0: 9dfc 503d 4e95 31be 2802 0ebd ce11 a2bd
000000d0: 2e36 b03d d65d 78bc a1e7 9e3d fef2 033e
000000e0: 6b89 9fbd 4517 b13d e03d 1e3e 9a35 16be
000000f0: c0da c7bd fd27 733e 8081 933c 1bad 88bd
00000100: 0517 823d 7b81 813d 7293 b0bd 8606 17be
00000110: 11d9 8bbc 07b9 82bb cba0 01be baf0 443c
00000120: 933e 1b3e 6c68 ec3b 72ed aebd 49c3 03be
00000130: 7579 b7bc 61d3 20be d8a6 163d 0d2f f2bb
00000140: ecd2 81bc f557 1d3d 0737 953d 2fa4 99bd
00000150: e70e a5bd 79d4 1ebe f3dd 31be 981c 27bc
00000160: f70b 98bc 9d89 5a3c a54b ffbc 32c7 5bbd
00000170: 7d84 ecbc a7d6 8cbd 406f 5cbe 0047 273e
00000180: b1bb eb3d 40be 3a3d 132e a03d 8400 aabc
00000190: 9323 bcbd 5f57 fc3c cc95 6cbe 0d77 29be
000001a0: 3b6e fd3d d29d 933c 6795 11bd e4f2 88bb
000001b0: e8d9 84bd 4c5d 863d 4e49 2f3e bd26 31be
000001c0: bc62 233e c23e 8a3d d304 2cbe a669 83bd
000001d0: 2138 b43d 39cb 12be 2c01 19be 13a3 ae3d
000001e0: 8e22 be3c 829d a73d b106 9d3d 0dc2 82bd
000001f0: 7ea8 d73b 0883 383e 6fe3 f1bd 4640 5dbd
00000200: 1a81 1a3f 0c55 39be fb01 e3bd a741 e9bd
00000210: 15e1 2dbe 859d 59bd 02f9 253d 0dcf ecbd
00000220: 829d 383d 38bb 1a3e e9e5 ecbd 5d7f f5bd
00000230: 8367 08bd feb3 9e3b fab5 e83d 2475 0a3e
00000240: ff45 e43c c787 993e 8983 41be 5657 bc3a
00000250: 3ac0 b9bd ceea f93d 5722 3d3b b25d 0b3e
00000260: 7001 4ebc 2367 003e bdbd 9a3d 1868 033d
00000270: 4146 8d3d b1e6 f0bd 34dc b2be e300 c53c
00000280: 5216 373d 9583 1fbe 040d ee3e 74b5 853d
00000290: 3891 b6bc 6f95 d1bc a046 3cbe be96 5ebd
000002a0: 32cf a7bd a9b9 62bd ac46 78be 0d50 5dbe
000002b0: 606d 853d 3d92 863e f89d c33c dbab 213d
000002c0: 33ba ad3d d991 8dba c11f dfbd e202 1bbe
000002d0: e728 233d 02d7 ddbd 08e0 c0bd b37f 8abc
000002e0: 5705 adbc 0306 6c3e 6ae6 2bbe 367f 153d
000002f0: 5dc7 e23d 7dbd 9c3e f3b2 b9bd b5e8 6cbe
00000300: 0786 603d 0082 85be 4a54 80bc bcc7 08be
00000310: ed16 2bbe ac26 bbbd 7038 8bbd d86a 9bbe
00000320: 3be2 fe3a 9efa 343e 5f0a 37be c88d 4bbe
00000330: 9557 63bd fad0 1cbe 7f2f 643e d82f 92be
00000340: 247b 5abe e1ee 753e baee 8dbd b09a 72be
00000350: 9757 d8bd 1ac2 26be 414e 07be 4b7a ba3d
00000360: 0490 0abe b794 1e3e 51fb 9c3e 70c4 0d3e
00000370: 0587 5dbd 5b1d de3d d392 a2be 551a 5e3e
00000380: deeb 6b3d 45ef c03d 230e 783e 649f 3d3d
00000390: 6614 b7bb 0fd6 d33d 6c8a fe39 be62 91be
000003a0: aa4b 913b 9905 60be 8e97 31be b876 2d3e
000003b0: 1fe9 693e 54a3 393e 1431 a5bd 2959 44be
000003c0: e0de ff3c 8608 52be cdd1 06be bd02 bdbd
000003d0: 501b 8a3e 3aac 8cbd 7997 983c 63d3 6e3e
000003e0: ee8a 8cbe 1a1a 393e b0d4 0a3d b182 aa3d
000003f0: 1557 b5bd 3b5d 213d a906 43bd 7fbc 80bc
-0.06844532 -0.08435383 -0.14251912 -0.09343154 -0.17738813 -0.039175585 -0.057776935 0.042573616
0.08496644 -0.02562053 -0.12973858 0.026158394 -0.01116928 0.0020263174 0.19545357 -0.23001678
-0.22204742 0.06464748 0.016379934 -0.08161828 -0.0018932478 -0.1788472 -0.25627467 0.0061606145
-0.022519639 0.181069 -0.039583005 -0.020957924 -0.12887038 0.07016533 -0.0019878456 0.07725616
-0.011188177 0.075802475 0.006674867 0.2140196 0.17705077 0.11681338 -0.025393873 -0.12496863
0.054145016 -0.039052147 -0.03793599 -0.06274427 -0.008033274 0.10424158 -0.007077208 -0.038028203
0.05102216 -0.17342111 -0.034670025 -0.07913552 0.08604084 -0.015159091 0.077590235 0.12885663
-0.07789882 0.086470164 0.15453291 -0.14668885 -0.0975852 0.23745723 0.018006086 -0.06673642
0.06352047 0.063235246 -0.08621873 -0.14748582 -0.017071279 -0.003989342 -0.12658994 0.012020284
0.15160589 0.0072145965 -0.08541383 -0.12867464 -0.022396782 -0.15705635 0.03678021 -0.007390863
-0.015847646 0.03841396 0.07285886 -0.07502019 -0.08059483 -0.1551074 -0.17369823 -0.010199688
-0.018560393 0.013338474 -0.031164 -0.053656764 -0.02887177 -0.06876879 -0.21526814 0.16335678
0.11510409 0.045591593 0.07821288 -0.020752199 -0.09186473 0.03080338 -0.23104018 -0.1654932
0.123745404 0.01801959 -0.03554287 -0.0041793454 -0.06486875 0.06560764 0.17117807 -0.17299934
0.15955633 0.06750251 -0.16798715 -0.06416635 0.08799768 -0.14335336 -0.14941853 0.08527198
0.023209836 0.08184339 0.07667292 -0.063846685 0.006581365 0.18018734 -0.11810958 -0.054016374
0.60353243 -0.18098849 -0.11084362 -0.11389475 -0.16980393 -0.053128738 0.040520675 -0.11562929
0.045072086 0.15110481 -0.115672894 -0.11987183 -0.03330184 0.004843234 0.11362834 0.13521248
0.027865408 0.29986402 -0.18897833 0.001436929 -0.090698674 0.122029886 0.002885958 0.1360996
-0.012573585 0.12539344 0.07555721 0.032081693 0.068981655 -0.11762751 -0.34933627 0.024048274
0.04469902 -0.15577538 0.46494305 0.0652875 -0.022286043 -0.02558395 -0.18386316 -0.054342978
-0.08193816 -0.05535284 -0.24245709 -0.21612568 0.06515002 0.26283446 0.023879036 0.039470535
0.0848278 -0.0010800912 -0.108947285 -0.15137818 0.03983393 -0.10832025 -0.094177306 -0.016906595
-0.02112071 0.23049168 -0.16787115 0.03649827 0.11073182 0.30613318 -0.09067335 -0.23135646
0.05481532 -0.26075745 -0.015665192 -0.13357443 -0.16707964 -0.091382354 -0.06797874 -0.30354953
0.0019446084 0.17673728 -0.1787505 -0.19878304 -0.055503447 -0.15314093 0.22283743 -0.28552127
-0.21336037 0.24016906 -0.06930299 -0.23691821 -0.105635814 -0.16284981 -0.13213445 0.09105357
-0.135315 0.15486418 0.3066049 0.13844466 -0.054083843 0.10845443 -0.31752643 0.21689732
0.057597987 0.09420637 0.24224143 0.046294585 -0.0055871485 0.10343563 0.00048549788 -0.28395647
0.0044340687 -0.21877135 -0.1734297 0.16939819 0.22842835 0.18128711 -0.080660015 -0.19174637
0.031234205 -0.20511064 -0.1316597 -0.09229038 0.26973963 -0.06868787 0.018626915 0.23322825
-0.27449745 0.18076363 0.03389424 0.08325709 -0.088545 0.039395552 -0.047613773 -0.015714882

encoder.model.weight_hh_l1 f4 [256, 64]
00000000: 21fa f23c 90d9 213e 9afb 98b9 d529 353d
00000010: 17f0 d33d 317a 3abd 637d 13be 7a62 4dbe
00000020: d88b aebc 2b99 28be a73a 2b3e 47ef 4abd
00000030: 61fa 0c3d 4fa8 303d e1da d53d 72b9 29be
00000040: f1b5 f0bd 3ced ae3c 29fd 3c3d 6da7 1bbd
00000050: 9cf6 493d 77bf 8f3d db47 433d d986 e6bc
00000060: 4ba3 2abd 4b98 f3bc 9021 143e 556b 90bd
00000070: 72c5 c43d 6c57 513e 134a 13be 869e 9a3d
00000080: fd9e e83c 9152 e33b 1a02 703d b835 b93d
00000090: 8343 a6bc 06b4 44bc 4998 aa3d a6c6 f53c
000000a0: e64a 74bd cac9 b4bd 709b 7fbd 649c 693c
000000b0: 5b0e 593d 5a32 6d3c 03f8 033e 1b47 9d3c
000000c0: e2d1 3abe b169 253d 9263 b33d 34c9 0a3d
000000d0: a639 79ba c18c 2c3d 7f62 e13d 9c60 1dbc
000000e0: 1c78 1c3d be17 03bd fd5a 4a3d 918a 83bc
000000f0: 603a c93d a856 4ebc a723 fe3c fbd3 cfbc
00000100: 42d6 103e 5dbf 8abd 18af b8bd 7d10 0d3c
00000110: 1bd5 1bbe 9171 3cbe f0f6 713d 580f 113d
00000120: 86ea 9fbd 5a4c 30be ce20 813d 9cdb 0b3e
00000130: 53a4 26be 836f 28be 20ea 4d3e 5312 dd3d
00000140: dc7a d2bd 41c7 e6bb 65e5 f23d 568a a5bd
00000150: 772d adbd 7454 f4bd 6678 d53d 89b2 c7bd
00000160: cd64 f1bd 11af 62bd 8e5a 89ba db06 88bd
00000170: e013 cb3e 0d61 acbd 14aa 29bd 6d4a 763c
00000180: bdf0 cdba 158a e8bd eb34 493e 241d 753e
00000190: ae5b cd3d 8e55 dfbd b1ea 9d3d 65cf 543e
000001a0: 9f97 0abe b5a5 53be 27d0 55bd ecd5 5abe
000001b0: d02a c83d b697 81be 840c 8bbd 82ef 50bc
000001c0: 7c49 38be edb4 4e3e 73d4 733d 034c 113e
000001d0: 45df a73c b942 15be e683 cc3d 2b11 503d
000001e0: 7227 233d ab37 07bd e13a ba3e b3f7 8a3d
000001f0: 2cd8 7d3e 7058 0dbe 2f68 0ebd 8a32 29be
00000200: 58b9 3a3e d5ad 133e 9467 a33c b8ad 34be
00000210: e869 5f3d abe1 8a3d c1f0 d9bd a656 3ebe
00000220: 17fd f83d 139d b2bd 0e33 903d 7f41 163e
00000230: 6c2e 953d f283 75bd d851 c13d 8089 2e3e
00000240: bb8d 58bc a92f 86bd 5cd1 4a3c e0a5 e9bb
00000250: d2ac 94be c106 1dbe 5215 fcbb ef35 38bb
00000260: 297f 94bd f1af b2bd 7535 ed3c ea7e e0bd
00000270: 6521 403d 6a05 233e 64b0 a93c 37b8 d0bb
00000280: ff4b aa3d dff6 2dbe d3d8 5fbd f450 483e
00000290: 540f 1c3d 21ac 28be 344b f3bc 029f eb3d
000002a0: 046f 6dbe 16d3 80bd a567 483d 5802 023e
000002b0: b32e 40bc d50c 08bd 70e3 ffbd 8ed2 02bd
000002c0: 9677 8ebd 5a23 3f3e 1248 40be 5fa2 a53d
000002d0: c174 283e 7834 3ebe 34a6 4ebd 7f07 043e
000002e0: 8498 0bbc 8afe 09bc cbe3 bc3d e955 203e
000002f0: 378b e9bc 553e d5bc 83f8 643d 617a 613d
00000300: ef39 8e3e f33a ffbc 30b8 98bc 1ef6 f0bc
00000310: fa20 14be 8878 20be 45c6 9f3c 5b40 a63c
00000320: 06c9 0bbe 60c0 6bbd f03a fa3d f5c0 5a3e
00000330: 9085 edbd 3aad 24be f679 183e 0f9f 2e3e
00000340: 69da 4d3c c58d 833d 6494 f4bd 756c 663d
00000350: 9fb8 9ebc c2cd afbe e57b 163d b269 70bd
00000360: d833 08be 1ebe cb3c d604 2bbd 4b3d 553c
00000370: 0ab3 913d fefe 193e 4bd7 ccbc a32f 073e
00000380: e51e 8fbc 8b15 3d3d f291 063e 73cd 373e
00000390: cb84 b13c 0615 29be 9955 9d3b 137b 4fbd
000003a0: bdf5 dcbd 7e62 163b 303c 8bbe f870 7bbe
000003b0: a5b6 3a3c 8768 44be 5bdd c23d 5714 8c3e
000003c0: 6b90 74be f831 573e ea03 083d 6a11 3abd
000003d0: 38cd 453c 4c4d cb3d 06c4 be3d 0f30 9dbc
000003e0: 323f d43d 063e 753b b07b a53d a1b7 973d
000003f0: b2d6 0f3e 737e 2bbc 62e7 44bd 2e71 a5be
0.029660286 0.1580565 -0.00029179157 0.044229347 0.10348528 -0.045526687 -0.144033 -0.20057097
-0.021306917 -0.16464679 0.16721593 -0.0495446 0.034418467 0.04312926 0.104421385 -0.16574648
-0.117534526 0.021353357 0.04613987 -0.038001467 0.04930745 0.07018941 0.04767595 -0.028140472
-0.041659635 -0.029735705 0.14465928 -0.07051722 0.09607972 0.20443505 -0.14383726 0.07549767
0.028396124 0.006937333 0.058595754 0.09043449 -0.020295864 -0.012005812 0.08329827 0.03000195
-0.05964174 -0.08827551 -0.062404096 0.014258478 0.052992206 0.014477337 0.12887578 0.019198945
-0.18244126 0.040384 0.08759226 0.03388329 -0.00095071865 0.04212642 0.11005115 -0.009605553
0.038200483 -0.032005064 0.04940318 -0.016057285 0.09825587 -0.012593903 0.03102286 -0.025369635
0.14144233 -0.06774781 -0.090177715 0.008609888 -0.15218012 -0.18402697 0.05907339 0.035415024
-0.07808404 -0.17216626 0.06305085 0.13657993 -0.16273622 -0.16448788 0.20108843 0.10794511
-0.1027734 -0.007042796 0.1186016 -0.08083026 -0.08455937 -0.11930171 0.10423355 -0.0975085
-0.11786804 -0.055342738 -0.0010479258 -0.066419326 0.396636 -0.084169485 -0.041421965 0.015032393
-0.0015712004 -0.11354462 0.19649093 0.23936898 0.10027252 -0.1090499 0.077107795 0.2078224
-0.13534401 -0.20668681 -0.052200463 -0.21370667 0.09773791 -0.2531106 -0.067894965 -0.012752416
-0.17996782 0.20186205 0.05952878 0.14189152 0.020492205 -0.14576234 0.09986095 0.050797623
0.03983254 -0.033012073 0.36373046 0.06785526 0.24789494 -0.13803267 -0.034767326 -0.16523185
0.18234766 0.1442178 0.01994685 -0.17644393 0.05454436 0.06781324 -0.10641623 -0.18587741
0.12157648 -0.08721366 0.07040988 0.14673422 0.07284245 -0.059940286 0.094394386 0.1704464
-0.013217385 -0.06552059 0.012379017 -0.0071303695 -0.290381 -0.15334608 -0.0076929713 -0.0028108319
-0.072508164 -0.087249644 0.028956154 -0.10961707 0.046906848 0.15920034 0.020713992 -0.0063696164
0.08315276 -0.16988705 -0.05465014 0.19562131 0.038100556 -0.16471912 -0.029698946 0.11504938
-0.2318688 -0.062902614 0.048926968 0.12696207 -0.011729884 -0.033215363 -0.12494552 -0.03193908
-0.06956403 0.1866583 -0.18777493 0.080876105 0.16450788 -0.18574703 -0.050451472 0.12893485
-0.008520249 -0.008422503 0.092231356 0.15657772 -0.028508766 -0.026030699 0.05590106 0.05504835
0.27778575 -0.031156039 -0.018642515 -0.029414233 -0.14465705 -0.15670979 0.019503722 0.020294359
-0.13650903 -0.05755651 0.12218273 0.2136267 -0.11597741 -0.16081706 0.14890274 0.17052864
0.01256428 0.06423525 -0.11942366 0.056255776 -0.019375144 -0.34336668 0.03673925 -0.05869455
-0.13301027 0.024870928 -0.04175266 0.013015102 0.07114227 0.15038678 -0.025005003 0.13201766
-0.017470786 0.046163123 0.13141611 0.17949466 0.021669766 -0.16511926 0.004801464 -0.050654482
-0.10789058 0.002294689 -0.27194357 -0.24554813 0.011396085 -0.19180499 0.095148765 0.27359268
-0.23883216 0.21015155 0.033206858 -0.045426764 0.012072854 0.099268526 0.09314732 -0.019187955
0.10363616 0.0037421002 0.08080232 0.07408071 0.14046744 -0.01046716 -0.048072226 -0.32312912

encoder.model.bias_ih_l1 f4 [256]
00000000: bcb1 523d 7412 963d 4a94 c2bb 8000 823e
00000010: 940a 413d fc90 0c3e 2257 3e3d acae da3b
00000020: c814 763d 8b21 8f3e 5c4c e73d dba3 6e3e
00000030: a769 3a3e f7b7 943d 6763 6dbd e00d 0e3e
00000040: 386c 943f c8f2 7bbd 9337 503d 674c 97bb
00000050: 0527 423f 7c6b 7b3d 88f0 8cbd 8032 1bbc
00000060: d795 d63e 0ffd a23d 519a 273e 3fe9 1a3e
00000070: c0dd 893d ca30 143e 3e04 953e 8415 e93e
00000080: 57d2 5f3d fa63 433e 384a 113e 17d4 2abc
00000090: b4ae b43c edc6 14bd 007d 2fbb f2f3 15bd
000000a0: adcf bfbd b3c1 4c3d 7cfc 9bbd 237d a3bd
000000b0: 9970 88bd 8d4e 60bd 1e2a 303e 44be 9dbd
000000c0: cdea f23d d846 7d3d 3d9b 443e f727 403e
000000d0: dc30 453e c50d cc3b 8f1e c13d f126 423e
000000e0: e7df 6c3e c896 3d3e f4fb b43d 06d1 aa3c
000000f0: 67d8 0ebc cee6 7bbd 1dd3 6dbd 42a7 e2bd
00000100: 6423 5a3d 294a 143e e8ce 01be 04ab 213e
00000110: 8a89 90bd c3eb 15be 6e8b bebd c277 28bd
00000120: c735 e4bd c21c 22be 2e64 93bd 491f ea3c
00000130: 0fb8 33bd 4aec b1bc 9032 fabc 2f2a 80bc
00000140: 0c3a 92bd 681b b9bd 9199 243e 0e91 843d
00000150: 4ad8 dfbd fb4e bdbd 6220 a9bc 463a b03c
00000160: f732 683d 1d9f 903d 5d56 96bd 5a37 6abd
00000170: 170c cdbd 9380 323d ee4f ab3d 1c78 383d
00000180: 1c9a 0fbe b5f9 943d a7f0 87bd ef6f 52bd
00000190: 0cf0 493d 6b54 47bd 81f8 d73c e87e 903d
000001a0: ace3 f73d 4ea5 b73d 94e7 f7bd 28d5 0ebd
000001b0: 7559 973d 8740 cabd 390a ca3c d855 e9bd
000001c0: 3b61 f43d 1437 f63c d377 4d3e 518a ed3c
000001d0: 1c6e d3bc 67ed c73c df8d afbc 5db5 623e
000001e0: 3fdb e2bc 79c3 17be d2b2 adbd 52f7 70bd
000001f0: 2712 d03d a5e2 e0bc da02 b2bd 98e1 d2bc
00000200: 42a8 fa3d 52b4 e4bc 6893 443b 8a19 9fbd
00000210: 6f9a fcbd 57b9 82bd 16be febc 474e a63c
00000220: 3e1e 3abd d773 c0bd 5e41 3d3d 6e21 ae3d
00000230: fb19 4fbd 8d3a 0abe 49cc 133d 9d66 bf3d
00000240: d85c 40bd a854 64bd b0d6 58bd 886b 53be
00000250: 0121 e23c c8b6 02bd 4dbb 05ba 3eaf f63c
00000260: 17b7 dbbe 9bf2 0d3e adef c6bc 30dc 013c
00000270: f813 cc3d f58b 2f3d c433 35bd ba64 7a3d
00000280: df40 3e3d ae65 2e3d e067 033f b005 083e
00000290: cc1e 943d 4987 afbd 7b2f 1cbc 0575 1c3d
000002a0: 7ac2 61bc 52a6 9e3a 434e e9bd a308 363d
000002b0: 5aa9 71bd a807 4a3c 86af 34bd a00d 9fbc
000002c0: 3b16 1abe e199 d23d 1abd 8fbc 384b 53bc
000002d0: 2bf2 083e a716 f73d 3757 0a3e 9411 703d
000002e0: 8169 c43c 7d89 083d 3fc4 113e 550c 23bc
000002f0: 7a6c ee3c 9002 173c b394 6b3d 4ec3 f7bd
00000300: 8d81 983d 55dd 883d 90ce ae3d 853e 823e
00000310: 9378 bc3d 5942 17bd 2c05 5ebd 7115 38bd
00000320: f6c0 c0bc 6ad3 d03d 5390 823d 410f 9c3e
00000330: 38e7 08bd 40fb 06be b902 083e aad7 df3c
00000340: b01a 933f d50f bdbb 9e61 2fbc 3420 273e
00000350: 28a1 383f 824d cbbd 00a8 febc 56bb a4bd
00000360: 9791 ba3d 03f4 823c 62d8 133e b126 0b3e
00000370: bcfa 203e ed8d 9c3d 7c38 2bbd 341d 1e3f
00000380: 4c9f 2d3e 2174 4e3d 4d89 0cbe e475 193e
00000390: 072c 443d af05 a43d 1a3e a83b d63b 70bd
000003a0: 104b 033e 3dd5 173d 1374 ebbd 654b a43b
000003b0: 5b73 d83d 24d6 31bd 5591 b73d c6e9 d3bd
000003c0: 1b0e 843d f563 b13d fff9 323e 94ce 1a3d
000003d0: 5103 ca3d 06be 053e 371e 8a3d 7fd6 523e
000003e0: d661 063c 2257 0e3c f203 373d 4e0a 2a3e
000003f0: 93d1 023e baeb dc3d 0f57 003e 7017 d53d
0.051439032 0.073277384 -0.0059380876 0.25391006 0.04712923 0.13727182 0.046469815 0.0066736545
0.060078412 0.2795528 0.11293861 0.23304693 0.18204366 0.07261651 -0.057956126 0.1387248
1.1595526 -0.06151083 0.05083425 -0.004617262 0.7584079 0.061381802 -0.06881815 -0.009472489
0.41911194 0.07958423 0.16367461 0.15128039 0.067317486 0.14471737 0.291048 0.45524228
0.054643955 0.19081107 0.14188468 -0.010426543 0.022055961 -0.036322523 -0.0026777387 -0.036609598
-0.09365783 0.049989413 -0.07616517 -0.07982852 -0.06662101 -0.05476241 0.17203566 -0.07702306
0.11861191 0.06183514 0.19199844 0.18765245 0.1925692 0.0062272274 0.09429657 0.18960167
0.23132287 0.1851455 0.08837119 0.020851623 -0.0087185865 -0.06149941 -0.05806266 -0.11067058
0.053256407 0.14481415 -0.12676585 0.15787894 -0.070574835 -0.14640717 -0.09303938 -0.041129835
-0.1114307 -0.15831283 -0.07196842 0.028579371 -0.043876704 -0.021719117 -0.030541688 -0.015645115
-0.07139978 -0.090384305 0.16074206 0.064729795 -0.10929926 -0.0924358 -0.020645324 0.021512162
0.05668923 0.070615984 -0.07340691 -0.057181694 -0.100120716 0.04357965 0.08364855 0.04503642
-0.14023632 0.0727419 -0.06637698 -0.05137628 0.049301192 -0.04866449 0.026363613 0.070554554
0.12103972 0.08967076 -0.12104717 -0.03487125 0.073901094 -0.09875589 0.024663078 -0.113933265
0.11932608 0.03005556 0.2006524 0.028996618 -0.02580934 0.024405194 -0.021429954 0.22139497
-0.027692435 -0.1482066 -0.08481373 -0.058829613 0.10159712 -0.027451823 -0.0869195 -0.025742337
0.12239124 -0.027918015 0.0029995088 -0.07768543 -0.12334143 -0.06383007 -0.0310965 0.020300997
-0.045438997 -0.09397095 0.046204917 0.0850247 -0.050561886 -0.13498898 0.036083493 0.09345744
-0.046963543 -0.055744797 -0.052939117 -0.20646489 0.027603628 -0.031912595 -0.00051014574 0.030112859
-0.42913124 0.13862078 -0.024284208 0.007926032 0.09964746 0.042858083 -0.04423882 0.061131217
0.046448585 0.042577438 0.51330376 0.1328342 0.072324365 -0.085707255 -0.009532805 0.038197536
-0.013779277 0.0012104011 -0.1139188 0.04444183 -0.058999397 0.012330927 -0.044112705 -0.019415677
-0.15047543 0.10283256 -0.017546225 -0.0128963515 0.1337363 0.120648675 0.13509832 0.058610514
0.02397609 0.033334244 0.14235018 -0.009951671 0.02910446 0.00921692 0.057514858 -0.12097798
0.07446585 0.06682841 0.085354924 0.25438324 0.09202685 -0.03692851 -0.05420415 -0.044942323
-0.023529511 0.10196574 0.06375184 0.30480388 -0.033423632 -0.13181782 0.13282289 0.027324516
1.1492519 -0.0057697096 -0.010704426 0.16320878 0.72120905 -0.09926893 -0.031085968 -0.08043544
0.091098 0.015985494 0.14438012 0.13588978 0.15720648 0.07644258 -0.041801915 0.6176331
0.16955298 0.050403718 -0.13724251 0.14986378 0.04789355 0.080088966 0.005134356 -0.058650814
0.12821603 0.037068594 -0.11496749 0.0050138705 0.10568877 -0.04341711 0.08963267 -0.10347323
0.06448003 0.086616434 0.17478178 0.037794665 0.09863914 0.1306077 0.06744044 0.20589636
0.008202037 0.008687766 0.044681497 0.16605493 0.12775259 0.10787149 0.1253321 0.10404861

encoder.model.bias_hh_l1 f4 [256]
00000000: 9aff c23d cb51 ed3d f6f8 34bd 2622 cc3d
00000010: c4ca 0e3d 2f02 083c 8e37 56bd 29b1 9d3d
00000020: c33b 27be 31ed 2b3e 305a 233d b374 5f3e
00000030: 0016 343e 41cf 8b3d 6d7e 36bd 9d68 263e
00000040: 6b11 913f f3b5 8b3d 6a22 cebd e8ee 423e
00000050: ed44 2c3f 268f c7bd 5152 36bd 82ad 3fbd
00000060: fbf7 d43e 8ba4 d33d 5421 de3d 594e 233c
00000070: 84c9 fe3d c67a 8c3c e401 c63e 4c30 0d3f
00000080: c63f 9c3d 3cf8 73bc 1ffa 423e c00c 5b3d
00000090: 6222 ccbc 3350 2b3c 75d8 b53d 468a 953d
000000a0: bfcb 49bc dec4 283e 6771 f73d 9dca e53d
000000b0: 33b8 083d 71ed 4a3c 191a 833e 94ab 54bd
000000c0: d718 7bbd b4dd e03d 9a7e 7f3e 0edf 7d3c
000000d0: 6c12 0a3e 7c9c 923d b250 ee3d a203 a03e
000000e0: 31a6 17bc eec2 e83c 7f58 083d 763c 4e3e
000000f0: a70c 283d 2c59 1bbb be2f 61bd 6cc3 c4bd
00000100: a59f 0cbe 6bcf 8a3d 8a76 ccbd 4b08 d43b
00000110: 4266 8fbd 031b d9bd b736 103d c2cc 1f3d
00000120: cd7c 30be 3489 f4bc c9bd 8dbd 3fdc edbd
00000130: ac61 473d e348 6e3d 2b7f 15be 14c6 22be
00000140: c3bb 9e3c 313b df3d 98b8 e3bc c4f6 02be
00000150: af1d 5bbd 23a7 b3bd 3a54 ddbd d7f7 a0bd
00000160: a0ed 123e d437 4ebd 0445 04be d13f d63d
00000170: 2cd1 cbbd bb9c 02be cdb7 ee3d 0b9c 813d
00000180: 5c2b 34be 1be0 b23c effa 423c b62b abbd
00000190: 2d3d 26be 6158 ef3c 590d 173d 0683 f83d
000001a0: 2211 89bd e4e4 4dbd a3ff db3d c6d4 c03d
000001b0: 5014 de3d f6d2 98bd e967 bdbd 839a 5bbd
000001c0: bd5b 46bd be30 c6bc a66a 813e 9a65 9f3d
000001d0: 6d01 dbbc b043 053e 477c 8a3d 7b0f 433e
000001e0: 25af 9ebd 7816 bfbd cbfa 203d de4b 29bd
000001f0: 5808 953d e060 87bc daa7 693d 288f 493d
00000200: 1656 85bc 7716 9f3d 8f31 ddbd fdc8 073e
00000210: a887 c13c 68ab d0bd 92bc 6a3d 62cf 55bd
00000220: 606a eb3c 0bce 01bc 8382 273e e503 ac3d
00000230: 8f4c 76bc 3945 c8bd 951a 703d c7b3 27bd
00000240: 6671 b53d b5bc 0f3e 2c4c a6bd ecb2 42bd
00000250: 4c2d 953d d0d4 d73b a7f7 643d aa17 963c
00000260: 4588 a8be 59d0 3dbc 059e 023d c833 bc3c
00000270: de84 943d f53a fc3c 901b 51be e8ae 70bd
00000280: 230c e43d 2503 2cbd af45 fb3e d66a c0bd
00000290: e725 ecba f935 5bbc a562 6fbc 9840 c23d
000002a0: a901 cbbd 8e64 bd3d c9f1 a9bd 7ebb 9abd
000002b0: 6ff2 9c3d 8bf5 d3bd 576d 8dbd cc19 603d
000002c0: 88f9 2cbd 2c13 0c3e 8559 c53b 879a c93d
000002d0: d3cd 3dbd 637c 95bd 022c ef3d 76d9 6f3d
000002e0: f243 573e 2f21 9b3d a5d9 833d d7a4 f53c
000002f0: 6ebf 9cbc 94d4 4ebd 1c05 09be 77e6 bcbd
00000300: fa09 703b 21f9 133e bca9 2a3e 903e 413c
00000310: 79fc 9f3d 5bb2 c43c d8ad 0f3e eb1b 273e
00000320: 9243 95bd e144 ee3d dfd3 61bd 5a34 633e
00000330: 0414 533d c4e9 693c 518e 253e 355a eebc
00000340: b0eb 843f 1203 a63c 388f 9cbd a98e e73d
00000350: 746e 2d3f 016c 82bd bbe8 0f3e 193a abbc
00000360: e43f 8cbc 8fea b7bc 0d59 473e b500 30bd
00000370: 0d6a 4a3e fb8c 1a3d fcc6 f6bd 3020 123f
00000380: 9f06 493e eb34 fb3d 68c2 9dbd 51ce d33c
00000390: 46c8 a0bb 2af3 1d3e 1eba 673d 7634 95bc
000003a0: cda3 babd 7cd3 573e 33e0 fdbd 6bfe 53bd
000003b0: 91cc e03d a7f0 c13c 67ec 2e3e fe19 bd3d
000003c0: 6b47 9fbd f90a 9cbd 5480 843e ac85 2dbd
000003d0: 2d8c d23d f2fc fc3a 008b d43c 94ef 903d
000003e0: 5041 c8bd 6389 f63c 961b f63d 81ee 5f3e
000003f0: 6d23 c3bd 76f7 c5bc a190 b03d cbf7 c83d
0.095214084 0.115878664 -0.04418274 0.09967451 0.03486134 0.008301302 -0.052299075 0.07699806
-0.16331391 0.167897 0.03988093 0.21821861 0.17586517 0.0682664 -0.044554163 0.16250844
1.133344 0.068218134 -0.10065158 0.19036448 0.6729267 -0.097441 -0.044512097 -0.04679633
0.41595444 0.103341185 0.108462006 0.00996741 0.1244078 0.017148387 0.38673317 0.5515182
0.07629351 -0.014890727 0.19040726 0.053478956 -0.024918739 0.010456133 0.088791765 0.07301764
-0.012316643 0.16481349 0.12082177 0.11220286 0.03337879 0.012385712 0.25605848 -0.051921442
-0.061302986 0.109797865 0.24950638 0.015495075 0.1348359 0.07158753 0.11636485 0.31252772
-0.009255932 0.028413262 0.03328752 0.20140252 0.04102769 -0.0023704274 -0.05497717 -0.09607586
-0.13732775 0.06777843 -0.09983547 0.006470715 -0.07001926 -0.10600855 0.03520843 0.03901363
-0.17235108 -0.02985058 -0.06920964 -0.11614274 0.04867713 0.05817498 -0.14599292 -0.15895873
0.019376641 0.10899962 -0.027797982 -0.12789446 -0.053495105 -0.08772113 -0.108070806 -0.07859772
0.14348459 -0.05034621 -0.12916952 0.10461391 -0.09952006 -0.127551 0.11656151 0.06328591
-0.17594665 0.021835377 0.011900648 -0.083579466 -0.16234274 0.029216947 0.036877964 0.12134366
-0.06692721 -0.050267115 0.10742118 0.09415583 0.10843718 -0.074621126 -0.09248335 -0.05361415
-0.048427332 -0.024193164 0.2527668 0.07783051 -0.026734078 0.13014102 0.06761985 0.19048874
-0.0774825 -0.093304574 0.039301675 -0.04133212 0.07276982 -0.016525686 0.05704484 0.04920879
-0.0162764 0.07767957 -0.10800468 0.13260265 0.023624256 -0.10188943 0.05730874 -0.05219973
0.028737247 -0.00792266 0.1635838 0.0839918 -0.015032901 -0.09778828 0.0586191 -0.040942933
0.0885952 0.1403683 -0.081199974 -0.047533914 0.0728403 0.0065866485 0.055900242 0.01832183
-0.32916465 -0.0115853185 0.03188898 0.02297391 0.07251905 0.030789832 -0.2042067 -0.058760554
0.111351274 -0.041995186 0.49076602 -0.09395377 -0.0018016667 -0.013379567 -0.014610921 0.094849765
-0.09912426 0.09247695 -0.0829807 -0.075552925 0.07663428 -0.10349568 -0.069056205 0.0547121
-0.04223016 0.13679188 0.0060226345 0.09843927 -0.046338867 -0.072991155 0.11678316 0.058556996
0.21022013 0.07574689 0.06437997 0.029985828 -0.01913425 -0.0504957 -0.13380855 -0.09223645
0.003662704 0.14450504 0.16666311 0.011794701 0.07811827 0.024010828 0.1403116 0.16319244
-0.07288279 0.11634231 -0.055133697 0.2218794 0.05153276 0.0142769255 0.1616757 -0.029095748
1.0384426 0.020265136 -0.07644504 0.11306507 0.67746663 -0.06368256 0.14053623 -0.020901727
-0.01712031 -0.022450713 0.19467564 -0.042969424 0.19767018 0.037732106 -0.12049672 0.57080364
0.19631432 0.12265953 -0.07703096 0.025855215 -0.004906687 0.15424791 0.05657398 -0.018213492
-0.09113274 0.21076769 -0.12396278 -0.051756304 0.10976518 0.023674322 0.17082368 0.09233473
-0.07777294 -0.0761928 0.25879157 -0.042363808 0.10280643 0.0019301458 0.025945187 0.07076946
-0.09778082 0.030094808 0.1201698 0.21868326 -0.09528241 -0.02416585 0.08621336 0.09812888
