models/20200923_212102/epoch_0900_loss_51446.58563.pt (torch, 857809 bytes, 96 tensors)

encoder.model.weight_ih_l0 f4 [256, 3]
-0.039944023 0.02809536 -0.024398945 0.07179283 0.072117895 0.043979883 -0.016491124 0.021224923
0.16936043 0.033933762 0.19370633 -0.030673748 0.04567616 -0.04538567 0.103536345 0.0124213295
0.35221797 -0.0052192835 -0.52408415 -0.019544458 0.09112012 0.042952176 0.067650914 0.12276629
-0.21883348 0.007314164 -0.25890154 -0.09968245 -0.042759456 0.05204212 -0.24056299 0.08229571
0.4831365 -0.09234612 -0.06517201 -0.18619278 -0.074567966 -0.10759871 -0.02954517 -0.14064766
-0.26017755 -0.1620449 -0.24841116 -0.06217074 0.13923196 -0.13911636 0.06718157 -0.13322765
-0.082815744 0.0327364 -0.20466104 0.0047825165 0.05079237 0.10724692 -0.21918967 0.06167464
-0.07634242 -0.051195037 -0.18892008 -0.032569025 -0.10227132 -0.22787389 -0.02361151 0.06414931
0.064637996 0.043117832 -0.08958163 -0.42779842 -0.057283062 0.040357508 -0.0086398395 0.100505665
0.13853808 0.013341028 -0.0034408523 -0.1536473 -0.03993248 -0.19066861 -0.29721066 -0.24209616
-0.096334256 -0.030004647 -0.01958163 -0.02673794 -0.008185896 0.03579404 -0.025647316 -0.2724165
0.21735243 0.005686758 -0.21538058 0.022563932 0.035243068 -0.292106 -0.028788181 0.120526634
-0.17921525 0.054401122 -0.052161288 -0.111804225 0.17962134 0.04490766 0.0048928405 0.06300127
-0.08214778 -0.41061455 -0.40533546 -0.34474763 0.006820733 -0.049957827 0.0948168 0.09672172
0.08745294 -0.012179364 -0.29169917 -0.11514896 -0.057931095 0.111872196 -0.09411624 0.09068283
-0.1434401 -0.26221502 -0.15567827 -0.085641384 -0.21610883 -0.014110308 -0.017220173 0.17084375
0.47559407 -0.11928614 0.0020322774 -0.15800722 -0.07524542 0.21507561 -0.038259145 0.4453263
0.039381497 0.53834134 -0.19597021 -0.25857738 -0.21044484 -0.12621565 -0.1278318 0.09893314
-0.1817052 0.18130697 0.1312617 -0.113716915 0.18794423 -0.016606642 0.06076764 -0.09825999
-0.14639299 -0.056077532 0.087003194 0.14343745 -0.0561227 -0.15914704 -0.05334389 -0.05741971
0.052998945 -0.020136539 -0.30118114 -0.036166597 0.1814262 -0.07570779 -0.12535319 0.07019057
-0.06351928 -0.046928328 -0.077188015 -0.14438456 0.06260349 -0.23495425 0.08289655 0.08653678
0.143669 -0.09848868 0.118499 0.19826844 -0.38394538 -0.091296494 -0.10505223 0.009190946
-0.11074853 0.11099044 -0.032171447 0.07151772 0.07849489 0.16866623 0.14750804 0.7298123
-0.06703224 -0.1515276 0.12327624 0.12599657 -0.15598756 0.19963324 -0.33218408 -0.022979578
-0.03825906 -0.17359033 0.1298736 -0.10484767 -0.23006918 -0.2680678 0.1356246 -0.2532224
0.17434749 0.47351485 -0.5118666 -0.08517151 0.1410658 -0.30334988 -0.34131438 -0.15476938
-0.071590275 -0.25204784 -0.5221059 -0.37024122 0.1231124 0.050085947 -0.23461442 0.061788008
0.33833575 0.15014955 -0.22281316 -0.04199589 0.13036105 -0.085932836 -0.08366903 -0.1697375
-0.34138045 -3.0949595e-06 -0.24471687 -0.32466194 -0.20017001 0.033473317 0.3845597 0.013831637
-0.13143162 0.17892054 0.02656834 -0.1864703 -0.2950317 0.027580393 0.0045524626 -0.057321172
-0.13722529 -0.07777275 0.043540545 -0.08171769 0.05180715 -0.07463589 0.04982263 -0.07963827
00000000: 589c 23bd 3e28 e63c 4ce0 c7bc 1f08 933d
00000010: 8cb2 933d 4024 343d 6518 87bc e4df ad3c
00000020: d26c 2d3e 21fe 0a3d f45a 463e 8347 fbbc
00000030: ed16 3b3d 53e6 39bd dd0a d43d d582 4b3c
00000040: ea55 b43e 8606 abbb 612a 06bf b31b a0bc
00000050: 2f9d ba3d 9fee 2f3d 908c 8a3d e56c fb3d
00000060: e215 60be a8ab ef3b be8e 84be 5026 ccbd
00000070: 8a24 2fbd 1e2a 553d 2556 76be a78a a83d
00000080: ab5d f73e f61f bdbd e778 85bd 52a9 3ebe
00000090: 17b7 98bd b65c dcbd b608 f2bc f105 10be
000000a0: fe35 85be 19ef 25be 7f5f 7ebe bfa6 7ebd
000000b0: d392 0e3e 8574 0ebe 7e96 893d d46c 08be
000000c0: 4d9b a9bd 9a16 063d aa92 51be a8b6 9c3b
000000d0: a90b 503d 46a4 db3d 4273 60be 8c9e 7c3d
000000e0: 6a59 9cbd e3b1 51bd 4474 41be 1967 05bd
000000f0: a073 d1bd c657 69be ed6c c1bc b760 833d
00000100: ed60 843d 539c 303d 9376 b7bd 6508 dbbe
00000110: a5a1 6abd ea4d 253d 1d8e 0dbc ead5 cd3d
00000120: eddc 0d3e 5494 5a3c ec7f 61bb b855 1dbe
00000130: 3d90 23bd a23e 43be ff2b 98be 0ee8 77be
00000140: e54a c5bd 4ecc f5bc a869 a0bc 8609 dbbc
00000150: 231e 06bc c59c 123d 521a d2bc 2d7a 8bbe
00000160: a391 5e3e fc57 ba3b ba8c 5cbe ffd7 b83c
00000170: 095b 103d eb8e 95be 31d5 ebbc abd6 f63d
00000180: 3484 37be b6d3 5e3d 13a7 55bd 9df9 e4bd
00000190: a8ee 373e 18f1 373d 1f54 a03b cf06 813d
000001a0: 183d a8bd 123c d2be 2188 cfbe c382 b0be
000001b0: 7580 df3b 94a0 4cbd 4f2f c23d 0a16 c63d
000001c0: 871a b33d f58b 47bc 9859 95be 38d3 ebbd
000001d0: 2849 6dbd 401d e53d 04c0 c0bd ebb7 b93d
000001e0: f6e1 12be 0c41 86be 206a 1fbe c064 afbd
000001f0: a24b 5dbe ec2e 67bc 5211 8dbc aaf1 2e3e
00000200: 1181 f33e 4b4c f4bd f52f 053b a5cc 21be
00000210: 451a 9abd c83c 5c3e 9fb5 1cbd cf01 e43e
00000220: 7e4e 213d bdd0 093f 6aac 48be 4164 84be
00000230: da7e 57be ad3e 01be 57e6 02be 759d ca3d
00000240: ee10 3abe 89a8 393e 7869 063e 6ae4 e8bd
00000250: 7474 403e a70a 88bc 7de7 783d 893c c9bd
00000260: 0be8 15be 8eb1 65bd bb2e b23d 44e1 123e
00000270: ebe0 65bd 71f7 22be 1f7f 5abd ee30 6bbd
00000280: 6c15 593d 62f5 a4bc 6a34 9abe 6d23 14bd
00000290: cac7 393e b00c 9bbd 965c 00be 13c0 8f3d
000002a0: 6516 82bd eb37 40bd c014 9ebd 8cd9 13be
000002b0: 4236 803d d997 70be abc5 a93d 323a b13d
000002c0: f71d 133e 6fb4 c9bd 9baf f23d e206 4b3e
000002d0: 7d94 c4be a8f9 babd a025 d7bd 9f95 163c
000002e0: 20d0 e2bd f54e e33d 35c6 03bd e277 923d
000002f0: eec1 a03d d7b6 2c3e 590c 173e fbd4 3a3f
00000300: 3348 89bd 0d2a 1bbe 4178 fc3d 3f05 013e
00000310: 34bb 1fbe a86c 4c3e 0814 aabe ab3f bcbc
00000320: 88b5 1cbd aac1 31be 96fd 043e 60ba d6bd
00000330: 4197 6bbe 2f40 89be 2de1 0a3e 5ea6 81be
00000340: 2688 323e 8a70 f23e b109 03bf 676e aebd
00000350: 8e73 103e ad50 9bbe c2c0 aebe dd7b 1ebe
00000360: ec9d 92bd 6a0c 81be bba8 05bf 4290 bdbe
00000370: 5b22 fc3d ec26 4d3d c33e 70be 6c15 7d3d
00000380: 583a ad3e cec0 193e 2229 64be e203 2cbd
00000390: 5e7d 053e 8efd afbd ab5a abbd abcf 2dbe
000003a0: 6bc9 aebe 00b3 4fb6 0f97 7abe 173a a6be
000003b0: 5ef9 4cbe 511b 093d 02e5 c43e 179e 623c
000003c0: 0396 06be f236 373e d9a5 d93c 12f2 3ebe
000003d0: 650e 97be 47f0 e13c d32c 953b 9bc9 6abd
000003e0: c984 0cbe 5247 9fbd 9257 323d 9b5b a7bd
000003f0: bc33 543d b4da 98bd d012 4c3d 6419 a3bd

encoder.model.weight_hh_l0 f4 [256, 64]
0.059729792 -0.06701771 0.2195981 0.2699943 -0.05039404 0.29528433 -0.25221217 0.077788636
0.123256825 -0.17889921 0.06837511 -0.16007602 -0.08224576 -0.0030231795 -0.0651974 -0.039841406
-0.02025022 -0.018654622 0.20086503 -0.08963902 -0.06873508 0.012229557 -0.014765793 -0.05182542
0.11100067 0.060759433 -0.011724994 -0.17837894 0.52803236 -0.06780719 0.031436842 0.14855218
0.29838264 -0.16011009 -0.008791188 0.0362315 -0.037978053 0.40509135 0.11118247 -0.023237847
0.11296448 -0.048963036 0.35598788 -0.2611192 0.21868974 -0.2293133 0.004012568 -0.22526573
0.050940163 -0.23413196 0.102883145 -0.021555876 0.10984553 0.32028458 -0.0967257 0.14557874
-0.09524502 0.008944998 0.26509324 -0.20470248 -0.10285466 -0.061177395 -0.37163895 0.22060238
-0.21282355 -0.16306823 0.22098894 0.22205034 0.14495061 0.18379912 -0.11050775 -0.052209698
0.057107672 -0.18082216 0.19226916 -0.117997706 0.059093826 -0.043384936 -0.11243988 -0.01145723
-0.035838872 -0.21548113 0.0015248063 -0.1051082 -0.049312998 0.14306381 0.018760273 0.032977156
0.1441503 -0.025738481 -0.053629864 -0.18626975 0.26951873 -0.2518093 0.18789947 -0.18986069
0.1991795 -0.15129802 -0.28164014 -0.098992035 0.048365377 0.2801961 0.1163986 -0.036240846
-0.069409445 0.083321474 0.086823605 -0.28883603 0.20138334 -0.025314426 -0.04056193 -0.05251312
0.045846414 -0.17556027 0.1972065 0.15421894 -0.086523846 0.04160986 -0.18121485 0.0956716
0.0057179434 -0.071269326 0.04746791 -0.14696631 -0.076475576 -0.043657567 -0.19039126 0.24029274
0.07179872 0.028120939 -0.006512929 -0.09236452 -0.011868189 -0.0049699876 -0.18339644 -0.018454727
-0.04051691 0.056915235 -0.12234347 -0.020553293 -0.1413968 -0.0515651 -0.06222565 -0.07711075
-0.085876495 0.085643336 -0.04701695 -0.10233796 -0.009498683 0.061262164 0.056182247 0.09825646
-0.12989572 0.09470455 0.12153016 -0.122135855 0.024898253 -0.0064919996 -0.10846341 0.063781664
0.019244008 -0.08905785 -0.028281933 0.095466584 0.0930134 0.14550155 -0.15047948 -0.15482233
0.13332646 -0.11762538 0.003064932 -0.0015063852 0.063324735 0.05354695 0.08514688 -0.17960854
-0.012478046 -0.104212515 -0.11939072 -0.13392586 -0.021032283 0.10729258 -0.1831674 0.012917133
-0.09633787 -0.048554614 0.18880285 0.0075958646 -0.08121071 -0.022063771 -0.048636504 -0.07042904
0.17217007 0.19279717 0.11578819 -0.029022858 -0.0072992644 -0.033405017 -0.08311327 -0.066836216
0.008488482 -0.05824108 -0.025741117 -0.15094106 -0.13300805 -0.15523207 0.06524734 0.058799323
0.087617524 0.06852859 0.15189587 -0.013652216 -0.06664678 -0.067159876 -0.14474961 0.13938874
0.03692682 0.018730788 0.050749276 0.0004293869 0.07737135 -0.1906465 -0.077748194 0.083991826
-0.051558807 -0.12338871 -0.05043454 -0.079219036 -0.12799487 0.18568988 0.01007421 0.03272908
0.16372773 0.02844325 -0.08367936 -0.015444943 0.1965442 0.037032086 0.058050126 -0.08779018
-0.016217532 -0.10804905 0.052667543 -0.04813005 0.07593767 0.08079645 -0.062492125 0.0045407717
-0.080767654 -0.074620664 0.18665855 -0.17026937 -0.16807716 -0.0066492027 -0.027580256 0.114659436
00000000: 3aa7 743d 9540 89bd 53de 603e b13c 8a3e
00000010: fb69 4ebd 822f 973e f421 81be a64f 9f3d
00000020: 136e fc3d 5b31 37be 4008 8c3d f8ea 23be
00000030: 7770 a8bd 8920 46bb 3786 85bd be30 23bd
00000040: cae3 a5bc 94d1 98bc 90af 4d3e aa94 b7bd
00000050: fac4 8cbd 7b5e 483c 3aec 71bc e446 54bd
00000060: 5254 e33d e2de 783d 301a 40bc f8a8 36be
00000070: 212d 073f 7fde 8abd ebc3 003d 101e 183e
00000080: 9cc5 983e e6f3 23be ea08 10bc 7b67 143d
00000090: e08e 1bbd 2268 cf3e a3b3 e33d 4c5d bebc
000000a0: ec59 e73d 778d 48bd 0b44 b63e 6ab1 85be
000000b0: 34f0 5f3e 1bd1 6abe dc7b 833b 0fac 66be
000000c0: a2a6 503d 4ac0 6fbe 66b4 d23d f395 b0bc
000000d0: b1f6 e03d 57fc a33e 2018 c6bd 9812 153e
000000e0: d20f c3bd 0a8e 123c 4dba 873e 879d 51be
000000f0: 77a5 d2bd 2695 7abd 7647 bebe 97e5 613e
00000100: 6bee 59be 5cfb 26be ed4a 623e 2a61 633e
00000110: ef6d 143e d635 3c3e e351 e2bd d6d9 55bd
00000120: bce9 693d 7229 39be 35e2 443e c8a8 f1bd
00000130: 5e0c 723d 67b4 31bd e146 e6bd 1bb7 3bbc
00000140: c8cb 12bd 16a7 5cbe 02dc c73a f842 d7bd
00000150: 6dfc 49bd 527f 123e 25af 993c 0e13 073d
00000160: 239c 133e 82d9 d2bc fdaa 5bbd 7fbd 3ebe
00000170: 5cfe 893e 26ed 80be b868 403e d76a 42be
00000180: b6f5 4b3e deed 1abe 2333 90be 56bc cabd
00000190: c61a 463d dd75 8f3e 6462 ee3d 4871 14bd
000001a0: 8a26 8ebd 73a4 aa3d 93d0 b13d 51e2 93be
000001b0: 6f37 4e3e 3360 cfbc 4424 26bd ff17 57bd
000001c0: 73c9 3b3d 12c6 33be 80f0 493e 92eb 1d3e
000001d0: 6a33 b1bd 1a6f 2a3d 6390 39be 79ef c33d
000001e0: 965d bb3b a7f5 91bd b66d 423d 567e 16be
000001f0: 3a9f 9cbd 47d2 32bd edf5 42be 4d0f 763e
00000200: 350b 933d e25d e63c 696a d5bb 9c29 bdbd
00000210: cb72 42bc 47db a2bb 47cc 3bbe 5e2e 97bc
00000220: 0ff5 25bd f31f 693d 378f fabd 615f a8bc
00000230: 53ca 10be ed35 53bd 53e0 7ebd 3eec 9dbd
00000240: 04e0 afbd c665 af3d d894 40bd 9096 d1bd
00000250: 5da0 1bbc 09ee 7a3d 5b1f 663d af3a c93d
00000260: 6203 05be 76f4 c13d cee4 f83d 5d22 fabd
00000270: 6cf7 cb3c d7ba d4bb 1022 debd f69f 823d
00000280: 9ca5 9d3c f663 b6bd 83af e7bc fc83 c33d
00000290: cf7d be3d 5cfe 143e 4b17 1abe bf89 1ebe
000002a0: bb86 083e 93e5 f0bd 07dd 483b e671 c5ba
000002b0: 66b0 813d 0c54 5b3d 7d61 ae3d 4deb 37be
000002c0: b870 4cbc 5f6d d5bd 1f83 f4bd dc23 09be
000002d0: e54b acbc 36bc db3d 3c90 3bbe 62a2 533c
000002e0: ca4c c5bd 34e1 46bd 8955 413e bbe6 f83b
000002f0: cd51 a6bd 15bf b4bc 1237 47bd 1a3d 90bd
00000300: 5a4d 303e 9f6c 453e 5c22 ed3d 58c1 edbc
00000310: ab2e efbb b3d3 08bd 4a37 aabd 6de1 88bd
00000320: 4613 0b3c 338e 6ebd 09df d2bc 4b90 1abe
00000330: 4333 08be 28f5 1ebe 66a0 853d 8fd7 703d
00000340: d170 b33d b858 8c3d 978a 1b3e 8bad 5fbc
00000350: 1b7e 88bd 1e8b 89bd 3e39 14be ecbb 0e3e
00000360: 9440 173d 4f71 993c 79de 4f3d 561f e139
00000370: df74 9e3d d638 43be 723a 9fbd e803 ac3d
00000380: 542f 53bd 38b3 fcbd 7394 4ebd 973d a2bd
00000390: 1611 03be 7d25 3e3e 4d0e 253c ee0e 063d
000003a0: 3ea8 273e d201 e93c 1660 abbd c90c 7dbc
000003b0: e242 493e f5ae 173d f8c5 6d3d 57cb b3bd
000003c0: a1da 84bc d248 ddbd ecb9 573d 0424 45bd
000003d0: 3685 9b3d 9c78 a53d bef7 7fbd c1ca 943b
000003e0: 8369 a5bd b8d2 98bd 6b23 3f3e 185b 2ebe
000003f0: 6b1c 2cbe 8ee1 d9bb fdef e1bc 91d2 ea3d

encoder.model.bias_ih_l0 f4 [256]
0.09424659 0.090490066 0.017143494 0.08780959 0.19790782 0.13517737 0.05053667 0.26445425
0.16317406 0.108506516 0.37570748 0.11431402 0.077169806 0.09105415 0.19549997 -0.06033814
0.08317254 0.28208795 -0.048039675 -0.094329014 0.07155301 0.1755317 0.013342261 0.23310511
0.038264375 0.09938836 -0.043880537 0.07139416 0.11617964 -0.04957252 0.08772088 0.15762308
0.067941174 0.57031393 0.39791474 -0.031052928 -0.0044037653 -0.025570855 0.12007785 0.0874428
0.027681055 0.07656468 0.08255314 -0.0877251 -0.058858626 0.6155639 0.034883786 0.044876844
0.009778062 -0.0059471107 0.07452874 0.03945059 -0.04716184 -0.010550757 0.11348012 0.11107002
0.08230269 0.44625303 0.030070577 0.091206074 0.058357947 0.002993071 0.35683078 0.10674685
-0.053368516 0.040883806 -0.115252785 -0.08482043 -0.09333453 -0.07782443 0.14176574 -0.08199108
-0.10410933 -0.11909268 -0.050348178 0.004129704 -0.0959837 -0.04977061 -0.047713567 -0.0155171715
-0.0020716027 0.021077255 0.006409967 -0.11094566 -0.033218347 0.20191567 -0.06615925 0.054672975
0.087691285 -0.06742186 0.07452517 0.09936412 -0.15524478 0.11430369 -0.020169115 0.00866655
0.051170625 -0.121729024 0.041931536 0.09742553 -0.12521432 -0.12685452 0.05775774 0.14101799
0.026215494 0.0028492527 0.013019242 0.16342261 -0.06984364 0.021931414 0.12040031 -0.09524475
-0.12495952 -0.09433035 -0.17160186 0.007953889 0.039248772 -0.04908259 -0.088289395 0.106055535
0.012871599 -0.45264575 -0.055800464 -0.1118185 -0.092005916 -0.034977186 -0.02410143 0.059686232
0.019688327 0.05517711 -0.12176621 -0.13323149 -0.06082045 0.016375605 0.009814714 -0.07539591
0.036439095 0.04030149 -0.062242385 -0.12107827 0.057131488 -0.016246475 0.11862716 0.05967693
-0.017808305 0.08929056 -0.061416857 0.081334874 -0.032631025 -0.0820616 -0.082666375 0.06954011
-0.07576062 0.0682869 0.05147115 -0.10386304 0.024961492 0.022018261 -0.085593715 0.13399312
0.03222146 0.025066178 0.09942333 0.10946826 -0.0241741 -0.049294196 0.13230994 -0.13932328
0.041799113 -0.104022786 -0.07872122 0.08724942 0.08384309 0.07562025 -0.023203574 -0.12237525
0.092656165 -0.1430849 -0.11276775 -0.017240735 0.19062825 -0.013187672 0.011985801 0.14212093
-0.010006742 0.22721045 0.08593783 0.05433713 -0.0352445 0.002667654 -0.028038496 -0.03403002
0.15438163 0.13237813 -0.016251054 0.03027457 0.19659027 0.12138964 -0.009445632 0.11495163
0.043900147 0.31179237 0.36399242 0.09338412 0.12898453 -0.04645984 0.13796742 0.18169343
0.10186308 0.20700192 -0.041459005 -0.058200892 0.18006743 0.02073728 0.060276933 0.116550036
0.20100568 -0.05515549 -0.05480706 0.104959294 -0.116869025 0.04573439 0.16419092 0.0374024
0.023251409 0.36867747 0.16634268 0.06605631 0.12840551 0.089075916 -0.054594122 0.06852714
-0.026246775 -0.037417505 0.14944051 0.13439481 -0.03560806 0.66763353 0.020151671 0.03406425
-0.02490365 0.05684866 0.0700775 0.17919318 0.08178771 -0.06808646 0.17484458 -0.0041622426
0.07460714 0.3394113 0.015968602 0.1571388 -0.08538002 0.06868364 0.13319659 0.21763182
00000000: 5b04 c13d db52 b93d 8370 8c3c 84d5 b33d
00000010: 59a8 4a3e f06b 0a3e 8aff 4e3d 8c66 873e
00000020: 1a17 273e aa38 de3d bb5c c03e 781d ea3d
00000030: 340b 9e3d 997a ba3d 2531 483e 2025 77bd
00000040: 5d56 aa3d d56d 903e 40c5 44bd 922f c1bd
00000050: 628a 923d 95be 333e 8099 5a3c 1bb3 6e3e
00000060: 1bbb 1c3d 208c cb3d 14bc 33bd 1a37 923d
00000070: 97ef ed3d 8e0c 4bbd 01a7 b33d f267 213e
00000080: be24 8b3d 1800 123f 7bbb cb3e b662 febc
00000090: 764d 90bb f879 d1bc 60eb f53d 3615 b33d
000000a0: 61c3 e23c f1cd 9c3d 9f11 a93d 38a9 b3bd
000000b0: be15 71bd 9995 1d3f 4de2 0e3d c8d0 373d
000000c0: 2a34 203c fbdf c2bb 86a2 983d f196 213d
000000d0: c62c 41bd 15dd 2cbc 4468 e83d ae78 e33d
000000e0: 508e a83d 477b e43e 9256 f63c 40ca ba3d
000000f0: be08 6f3d 6627 443b 86b2 b63e 189e da3d
00000100: f298 5abd c775 273d a709 ecbd 55b6 adbd
00000110: 2d26 bfbd 6a62 9fbd 0a2b 113e f0ea a7bd
00000120: 4637 d5bd dde6 f3bd e439 4ebd 7852 873b
00000130: 1a93 c4bd 44dc 4bbd 4d6f 43bd bc3b 7ebc
00000140: bac3 07bb 35aa ac3c b30a d23b 7a37 e3bd
00000150: f60f 08bd fbc2 4e3e 807e 87bd c5f0 5f3d
00000160: 7d97 b33d 7914 8abd a7a0 983d 6a7f cb3d
00000170: 7df8 1ebe 0e18 ea3d b339 a5bc 25fe 0d3c
00000180: 4a98 513d 114d f9bd 67c0 2b3d 0987 c73d
00000190: 2f38 00be 27e6 01be 6193 6c3d 0567 103e
000001a0: e0c1 d63c 87ba 3a3b a94e 553c 4258 273e
000001b0: 2f0a 8fbd 82a9 b33c 7094 f63d ae0f c3bd
000001c0: c7ea ffbd 4530 c1bd 66b8 2fbe 0751 023c
000001d0: 52c3 203d d30a 49bd 12d1 b4bd a533 d93d
000001e0: 66e3 523c 2fc1 e7be 078f 64bd 1901 e5bd
000001f0: 996d bcbd 3d44 0fbd 5d70 c5bc 8d79 743d
00000200: 6a49 a13c 6501 623d 9060 f9bd d66d 08be
00000210: dd1e 79bd 2226 863c e5cd 203c 2c69 9abd
00000220: 2941 153d 2d13 253d dff1 7ebd e2f7 f7bd
00000230: b502 6a3d 5417 85bc ccf2 f23d cc6f 743d
00000240: b9e2 91bc f8dd b63d 3e90 7bbd e692 a63d
00000250: 1ca8 05bd ea0f a8bd fd4c a9bd 0c6b 8e3d
00000260: 6228 9bbd 01da 8b3d 6ad3 523d 25b6 d4bd
00000270: 0b7c cc3c a45f b43c c24b afbd 7e35 093e
00000280: a6fa 033d 9657 cd3c 759e cb3d e530 e03d
00000290: c308 c6bc b6e8 49bd 427c 073e c3aa 0ebe
000002a0: 8c35 2b3d e609 d5bd 9738 a1bd d3af b23d
000002b0: edb5 ab3d cade 9a3d 6c15 bebc e09f fabd
000002c0: 84c2 bd3d d984 12be c7f2 e6bd 713c 8dbc
000002d0: 0d34 433e 1b11 58bc 1860 443c 2688 113e
000002e0: 51f3 23bc dba9 683e 2c00 b03d 9c90 5e3d
000002f0: 895c 10bd cfd3 2e3b fdb0 e5bc 1063 0bbd
00000300: 3816 1e3e 228e 073e ee20 85bc 6002 f83c
00000310: f64e 493e 229b f83d dac1 1abc c36b eb3d
00000320: a4d0 333d 40a3 9f3e 375d ba3e 2c40 bf3d
00000330: 8514 043e ac4c 3ebd 5547 0d3e d80d 3a3e
00000340: 979d d03d 50f8 533e ebd0 29bd 0f64 6ebd
00000350: 9963 383e 3ae1 a93c f2e4 763d c9b1 ee3d
00000360: 6fd4 4d3e b9ea 61bd 5e7d 60bd e6f4 d63d
00000370: 0759 efbd fc53 3b3d aa21 283e 4233 193d
00000380: bd79 be3c 4bc3 bc3e bc55 2a3e 8848 873d
00000390: bc7c 033e 6f6d b63d 169e 5fbd f557 8c3d
000003a0: 7a03 d7bc 1943 19bd ef06 193e cb9e 093e
000003b0: c2d9 11bd 08ea 2a3f 1e15 a53c f486 0b3d
000003c0: bd02 ccbc 24da 683d cb84 8f3d 6b7e 373e
000003d0: 5180 a73d ea70 8bbd 750a 333e 6c63 88bb
000003e0: a1cb 983d 51c7 ad3e 96d0 823c fee8 203e
000003f0: b8db aebd 02aa 8c3d b064 083e e0da 5e3e

encoder.model.bias_hh_l0 f4 [256]
0.10556869 -0.012406107 0.17192842 0.123594336 0.34839535 -0.0050527714 -0.07714365 0.3000691
0.26666117 0.20648733 0.21246672 0.0060548247 0.09662633 0.07593098 0.11003035 -0.012023191
0.019005423 0.13529035 0.11212034 -0.0852671 0.03484908 0.017804505 -0.026146984 0.18046086
0.15942544 -0.059246913 0.09039377 0.060557853 0.09416234 -0.10074726 0.14702289 0.11080059
-0.11669084 0.41920957 0.34472787 0.017936625 0.043742772 0.13557798 0.13557453 0.10714698
0.06897321 0.060856864 0.051527236 -0.052932367 -0.08414512 0.6461985 0.0384657 0.100688994
-0.0452041 0.15732653 0.18356857 0.21787117 0.019937458 0.12382659 0.06685903 0.046446018
0.13076949 0.44208518 0.12139157 0.061211884 -0.057109293 0.1749621 0.17101946 0.29729295
0.080540985 0.041923016 -0.05920579 0.0755069 -0.05723509 -0.026453717 0.143661 0.0029261003
-0.11718159 -0.16257766 0.05175746 0.07607365 0.1222897 0.09303505 0.107132256 -0.0014724075
0.08068063 -0.074318066 0.007366097 -0.030103141 -0.059397694 0.13032031 -0.09637423 -0.051802196
-0.023255289 -0.025533877 0.11511983 0.018277267 -0.052069258 0.0962103 0.035259318 0.03989018
0.027021257 0.030966166 -0.03615284 -0.05073574 -0.082080774 -0.029048637 -0.031170096 0.07382195
-0.001312798 0.04925223 0.12656331 0.03209367 0.11466184 -0.102103 0.06880091 -0.052714244
0.024472684 0.032088716 -0.012682969 0.049979713 0.11517884 -0.11840052 -0.13038123 0.07053698
-0.024272574 -0.36723125 0.044409 0.104461014 0.026273701 0.059589636 -0.02967869 0.04375929
0.15791577 -0.07200126 -0.0750774 0.05052536 -0.07657449 0.08870254 -0.13478562 -0.088482216
0.019254297 0.045139417 -0.11883536 -0.04465111 -0.06710284 -0.090641 0.1486759 -0.08574282
-0.05929711 0.120113455 -0.02054123 -0.091585055 -0.06387977 0.11161308 -0.042041272 0.03324485
0.06718361 0.113901325 0.09719402 0.027061373 -0.13656674 -0.11175884 -0.025849309 -0.074103184
0.08769366 -0.117284164 0.078445755 -0.026174614 0.0022760413 0.010293096 -0.08729743 -0.08611496
0.0136311585 0.02232027 -0.003153091 -0.07663331 0.03958913 -0.033067834 0.044220507 -0.050486
0.12073877 -0.14200467 0.0031287505 -0.109000795 -0.052137665 0.015394619 0.027394114 0.05416131
-0.008273578 0.101477616 0.07715703 -0.06970286 -0.067624755 0.084104694 0.07427943 0.05443371
0.25570318 0.045119874 0.041091807 0.18741328 0.34597328 0.09935467 0.10855766 0.22915296
0.06842183 0.14754573 0.20903535 -0.09308327 0.0056699454 -0.12826188 0.16212437 0.047044475
-0.03538888 0.103150696 0.096396305 0.048946463 -0.04989295 0.112561546 0.080623224 0.12709223
0.24450718 0.005968438 -0.044782273 0.07053052 -0.028030895 0.007652673 0.1997891 0.12795432
-0.010494764 0.53684646 0.3451953 -0.045782592 0.025529321 0.025441231 0.14419793 -0.03208862
0.12550429 0.08555993 0.14758323 0.11171247 -0.043983772 0.53192616 0.10983024 -0.077974275
0.05340887 -0.045778703 0.085210696 0.20034683 0.073327236 0.0832579 0.09616248 0.11564442
0.08200574 0.3335768 -0.010498994 -0.029662928 -0.005957536 0.053414878 0.2239128 0.105220914
00000000: 6634 d83d fc42 4bbc 010e 303e 071f fd3d
00000010: e060 b23e b891 a5bb 7dfd 9dbd a8a2 993e
00000020: d087 883e 6a71 533e e090 593e 8d67 c63b
00000030: 06e4 c53d b481 9b3d 9857 e13d ebfc 44bc
00000040: 43b1 9b3c 8e89 0a3e 599f e53d 84a0 aebd
00000050: e9bd 0e3d c1da 913c 3332 d6bc bbca 383e
00000060: 6c40 233e e4ac 72bd 5e20 b93d 830b 783d
00000070: 2fd8 c03d 9454 cebd 2b8d 163e 6beb e23d
00000080: 9bfb eebd a3a2 d63e 2c80 b03e d4ef 923c
00000090: 9f2b 333d f4d4 0a3e 0dd4 0a3e e06f db3d
000000a0: d441 8d3d 0c45 793d 390e 533d 9ccf 58bd
000000b0: 4754 acbd 446d 253f 368e 1d3d 0836 ce3d
000000c0: ef27 39bd 351a 213e 66f9 3b3e 9f19 5f3e
000000d0: e153 a33c cc98 fd3d 63ed 883d 2e3e 3e3d
000000e0: 70e8 053e fd58 e23e 259c f83d 50b9 7a3d
000000f0: 6feb 69bd 4429 333e ba1f 2f3e c836 983e
00000100: acf2 a43d 78b7 2b3d c581 72bd 5da3 9a3d
00000110: 576f 6abd 77b5 d8bc df1b 133e d1c3 3f3b
00000120: e7fc efbd c27a 26be a1ff 533d 80cc 9b3d
00000130: 0673 fa3d 2989 be3d 2868 db3d ccfd c0ba
00000140: e33b a53d 1234 98bd 4d5f f13b dd9a f6bc
00000150: ff4a 73bd b072 053e da5f c5bd 8a2e 54bd
00000160: e081 bebc 6c2c d1bc f2c3 eb3d 35ba 953c
00000170: 9346 55bd e809 c53d 136c 103d e363 233d
00000180: af5b dd3c c2ac fd3c 0015 14bd 48d0 4fbd
00000190: f719 a8bd 68f7 edbc 6e58 ffbc f62f 973d
000001a0: 3112 acba b5bc 493d d099 013e a774 033d
000001b0: d4d3 ea3d 611b d1bd 7ee7 8c3d e4ea 57bd
000001c0: f07a c83c 756f 033d 3acc 4fbc 87b7 4c3d
000001d0: e2e2 eb3d f97b f2bd a882 05be b175 903d
000001e0: 47d7 c6bc bc05 bcbe 36e6 353d a8ef d53d
000001f0: f23b d73c 4314 743d b920 f3bc f13c 333d
00000200: acb4 213e 6675 93bd 2ec2 99bd aef3 4e3d
00000210: 16d3 9cbd ada9 b53d 3e05 0abe 2a36 b5bd
00000220: 30bb 9d3c 1ce4 383d f45f f3bd 15e4 36bd
00000230: 376d 89bd fda1 b9bd 7f3e 183e ee99 afbd
00000240: 87e1 72bd 0bfe f53d 1546 a8bc f290 bbbd
00000250: 66d3 82bd 6695 e43d 7833 2cbd c02b 083d
00000260: 8f97 893d 1945 e93d a90d c73d d0af dd3c
00000270: 27d8 0bbe d2e1 e4bd eec1 d3bc 69c3 97bd
00000280: bc98 b33d ae32 f0bd 2ba8 a03d 256c d6bc
00000290: a329 153b 60a4 283c ffc8 b2bd 0a5d b0bd
000002a0: 3955 5f3c 00d9 b63c 17a4 4ebb edf1 9cbd
000002b0: 3628 223d 2372 07bd 9020 353d 68ca 4ebd
000002c0: e345 f73d ac69 11be b90b 4d3b cf3b dfbd
000002d0: 4e8e 55bd b639 7c3c 9f69 e03c 40d8 5d3d
000002e0: e78d 07bc 7fd3 cf3d 8104 9e3d 60c0 8ebd
000002f0: d97e 8abd 153f ac3d d01f 983d e2f5 5e3d
00000300: 87eb 823e 9ecf 383d e24f 283d 44e9 3f3e
00000310: 6923 b13e 767a cb3d 7a53 de3d 13a7 6a3e
00000320: bf20 8c3d 3a16 173e 5d0d 563e 71a2 bebd
00000330: f3ca b93b 1557 03be ee03 263e b5b1 403d
00000340: eef3 10bd ac40 d33d 6d6b c53d 167c 483d
00000350: 8d5c 4cbd ab86 e63d ca1d a53d 7724 023e
00000360: 1760 7a3e e392 c33b 9e6d 37bd 4e72 903d
00000370: 0ca1 e5bc 46c3 fa3b 8495 4c3e 7506 033e
00000380: 3bf2 2bbc c56e 093f 70bd b03e 8786 3bbd
00000390: de22 d13c 216a d03c 9fa8 133e 5b6f 03bd
000003a0: 3284 003e 0b3a af3d 0f20 173e 82c9 e43d
000003b0: 5428 34bd 502c 083f adee e03d fab0 9fbd
000003c0: 42c3 5a3d 7382 3bbd f282 ae3d b827 4d3e
000003d0: 972c 963d 1e83 aa3d d6f0 c43d fbd6 ec3d
000003e0: a0f2 a73d 94ca aa3e f903 2cbc abff f2bc
000003f0: 6f37 c3bb 8fc9 5a3d 6649 653e 107e d73d

encoder.model.weight_ih_l1 f4 [256, 64]
-0.056183435 -0.10861099 -0.146697 -0.0878966 -0.15008105 -0.0533087 -0.037912957 0.041435324
0.087417506 -0.028480137 -0.13276236 0.03434133 -0.012071434 0.032745935 0.19226053 -0.21729624
-0.19837558 0.07767479 0.009298237 -0.08879772 0.025232632 -0.1599632 -0.2405589 -0.007437049
-0.004163071 0.14360954 -0.064110346 -0.040874586 -0.086501695 0.059734013 -0.0023245409 0.08032473
0.0021513295 0.07361387 0.008228692 0.16201296 0.17466727 0.11578986 0.010719689 -0.13430217
0.018888779 -0.04282765 -0.06337075 -0.07494965 0.015913092 0.077003166 -0.015612939 -0.014575399
0.038843937 -0.1578563 -0.0024760822 -0.06631783 0.060822517 -0.011564094 0.0678167 0.14174144
-0.04410988 0.09351736 0.1547575 -0.14034027 -0.07576145 0.21649352 -0.009213927 -0.06775029
0.066373065 0.088907585 -0.089655995 -0.15786973 -0.02311277 -0.0077474136 -0.1072147 0.02237108
0.12106414 -0.017303497 -0.078610644 -0.11700934 -0.034722 -0.13699 0.025678594 -0.0072288187
-0.007442539 0.04625186 0.06605358 -0.07204811 -0.090233535 -0.13934866 -0.16531016 -0.023696842
-0.027571876 -0.004060805 -0.04279746 -0.05923268 -0.03306244 -0.058861293 -0.20833535 0.16944021
0.10102917 0.047776416 0.063646995 -0.038958833 -0.1116303 0.019708382 -0.23583886 -0.15385635
0.11081684 0.024381816 -0.052401453 0.0025353567 -0.07074317 0.08487678 0.17066368 -0.1610386
0.14485146 0.07568778 -0.16945638 -0.070102975 0.08003489 -0.14978203 -0.14631715 0.07838595
0.01930123 0.059840146 0.06714226 -0.05978803 0.009643345 0.17234102 -0.107058726 -0.06872726
0.55836767 -0.15649414 -0.095795356 -0.11094619 -0.16317494 -0.045162138 0.03239716 -0.11720547
0.02243612 0.13950492 -0.106638834 -0.11997612 -0.031403456 0.0002675246 0.10610653 0.12503693
0.012744486 0.2756079 -0.16723174 -0.01010528 -0.06914852 0.11545257 0.005925932 0.12560086
-0.008829815 0.13432328 0.08424576 0.039005205 0.068561345 -0.11874007 -0.3228864 0.03161395
0.036972445 -0.1602799 0.41314578 0.07017904 -0.032058194 -0.025707018 -0.1724962 -0.059158858
-0.07886046 -0.060771924 -0.21134152 -0.2020573 0.06530974 0.25152883 0.023162391 0.040335335
0.09597205 -0.021418132 -0.09052759 -0.13385114 0.043567374 -0.06754855 -0.08685031 -0.006720936
-0.033379674 0.20526323 -0.16208224 0.015792085 0.103051335 0.26786637 -0.08704241 -0.21601035
0.048246343 -0.2191529 -0.011428923 -0.1339065 -0.18509336 -0.07649908 -0.06287681 -0.2755939
-0.00021662403 0.15539253 -0.17318861 -0.18108399 -0.080268465 -0.1438995 0.2283231 -0.2891737
-0.21074244 0.24220693 -0.037622392 -0.25386113 -0.110878214 -0.14883398 -0.13520822 0.09879559
-0.1484595 0.14386079 0.29835626 0.13054913 -0.051339116 0.100951366 -0.29283038 0.21801765
0.058475 0.096106924 0.21937925 0.03998872 0.015501111 0.10530132 -0.0121205235 -0.26947796
0.0038030606 -0.23062095 -0.15976775 0.17067084 0.21613339 0.18714626 -0.05306186 -0.19503523
0.04243594 -0.20969588 -0.13704982 -0.10459325 0.25472927 -0.0369219 0.018466432 0.2319991
-0.2846224 0.14633873 0.032370318 0.08323077 -0.07693346 0.050950155 -0.03724653 -0.015371898
00000000: 9a20 66bd 706f debd bd37 16be 2203 b4bd
00000010: d9ae 19be 395a 5abd 9e4a 1bbd 16b8 293d
00000020: f307 b33d 2d4f e9bc dbf2 07be 7fa9 0c3d
00000030: 44c7 45bc 9a20 063d f2df 443e e882 5ebe
00000040: f822 4bbe f613 9f3d a257 183c 94db b5bd
00000050: aab4 ce3c 65cd 23be 1355 76be 7db2 f3bb
00000060: 5f6a 88bb 610e 133e 494c 83bd 1c6c 27bd
00000070: cd27 b1bd a7ab 743d 5357 18bb 4b81 a43d
00000080: 52fd 0c3b dec2 963d a3d1 063c bae6 253e
00000090: fadb 323e 3c23 ed3d a2a1 2f3c 8286 09be
000000a0: a4bc 9a3c 0c6c 2fbd 86c8 81bd 347f 99bd
000000b0: 2c5c 823c d6b3 9d3d 6acd 7fbc a8cd 6ebc
000000c0: d21a 1f3d 15a5 21be c445 22bb a4d1 87bd
000000d0: 0821 793d 5377 3dbc 7be3 8a3d ab24 113e
000000e0: 90ac 34bd 0886 bf3d c078 1e3e 5cb5 0fbe
000000f0: d228 9bbd 7ab0 5d3e 03f6 16bc aac0 8abd
00000100: 9aee 873d 2e15 b63d 909d b7bd 9aa8 21be
00000110: fe56 bdbc 04de fdbb 6193 dbbd 8e43 b73c
00000120: 7af0 f73d 10c0 8dbc 9efe a0bd 98a2 efbd
00000130: a838 0ebd 1b47 0cbe ea5b d23c badf ecbb
00000140: 8be0 f3bb 9772 3d3d 1947 873d f68d 93bd
00000150: 5ccc b8bd 6ab1 0ebe 1147 29be e11f c2bc
00000160: 6ade e1bc 8010 85bb 644c 2fbd f79d 72bd
00000170: 7b6c 07bd 8a18 71bd dd55 55be bc81 2d3e
00000180: 62e8 ce3d 34b1 433d 5b59 823d 4c93 1fbd
00000190: 6d9e e4bd 7973 a13c be7f 71be 858c 1dbe
000001a0: f0f3 e23d 60bc c73c e8a2 56bd 3a28 263b
000001b0: cce1 90bd e1d3 ad3d 76c2 2e3e 4ee7 24be
000001c0: f153 143e 3202 9b3d f985 2dbe 2692 8fbd
000001d0: 55e9 a33d 7660 19be 2ad4 15be d088 a03d
000001e0: 9d1d 9e3c f11a 753d e281 893d 4be4 74bd
000001f0: 1fff 1d3c 2a7a 303e 9b41 dbbd e1c0 8cbd
00000200: 2ff1 0e3f 0040 20be 5b30 c4bd c237 e3bd
00000210: 5517 27be effb 38bd e2b2 043d 6c09 f0bd
00000220: f4cb b73c 61da 0e3e 7665 dabd 0ab6 f5bd
00000230: e9a0 00bd 8b42 8c39 614e d93d ae09 003e
00000240: 40ce 503c 7b1c 8d3e cc3e 2bbe 9e90 25bc
00000250: bd9d 8dbd 6672 ec3d 522e c23b 839d 003e
00000260: eeaa 10bc 0b8c 093e 0b89 ac3d ecc3 1f3d
00000270: e469 8c3d fe2d f3bd 5e51 a5be a17d 013d
00000280: 6b70 173d 6a20 24be d887 d33e 07ba 8f3d
00000290: 744f 03bd 8697 d2bc d8a2 30be 8f50 72bd
000002a0: 9881 a1bd fbeb 78bd e969 58be 1ce8 4ebe
000002b0: 1dc1 853d 63c8 803e 0ebf bd3c aa36 253d
000002c0: ff8c c43d 1475 afbc 8766 b9bd 4610 09be
000002d0: b473 323d e556 8abd 93de b1bd 4c3b dcbb
000002e0: 20b9 08bd 8630 523e e3f8 25be 675e 813c
000002f0: 940c d33d c825 893e 4b43 b2bd d131 5dbe
00000300: f59d 453d 9e69 60be 6140 3bbc c91e 09be
00000310: 1d89 3dbe 8dab 9cbd 8fc5 80bd a51a 8dbe
00000320: 9225 63b9 381f 1f3e 5b58 31be 156e 39be
00000330: cb63 a4bd 645a 13be 88cd 693e 930e 94be
00000340: decc 57be 1805 783e f019 1abd 16fa 81be
00000350: 1e14 e3bd ef67 18be 0674 0abe 5855 ca3d
00000360: c405 18be 3e50 133e 27c2 983e acae 053e
00000370: f748 52bd 97bf ce3d dded 95be 0540 5f3e
00000380: 7b83 6f3d b5d3 c43d f4a4 603e 36cb 233d
00000390: 5ff8 7d3c 38a8 d73d 2995 46bc 04f9 89be
000003a0: c53c 793b e627 6cbe 289a 23be 56c4 2e3e
000003b0: 1252 5d3e 45a3 3f3e 6557 59bd 51b7 47be
000003c0: 4fd1 2d3d 84ba 56be ca56 0cbe fc34 d6bd
000003d0: e06b 823e 6b3b 17bd ea46 973c 2c91 6d3e
000003e0: 07ba 91be d2d9 153e bd96 043d e574 aa3d
000003f0: 4a8f 9dbd 1cb1 503d d18f 18bd 6ada 7bbc

encoder.model.weight_hh_l1 f4 [256, 64]
0.039038375 0.16312003 0.0035167949 0.043616183 0.10816899 -0.047569197 -0.13474256 -0.1874699
0.007236114 -0.12277882 0.14841199 -0.07477085 0.020719755 0.026961952 0.0797534 -0.149733
-0.13221002 -0.004119823 0.048584867 -0.026149143 0.06617426 0.07781745 0.0148373805 -0.05106826
-0.040372074 -0.05283368 0.13634491 -0.06283292 0.0900663 0.20172575 -0.12520128 0.041883316
0.040755235 0.014595973 0.05390123 0.07997608 -0.040970437 -0.02122349 0.0731821 0.030707749
-0.052906714 -0.08234385 -0.04308672 0.011439832 0.070015304 0.004160081 0.07594473 0.025939211
-0.16917676 0.05476522 0.09514778 0.03810499 0.010152361 0.049588434 0.11262164 -0.011873804
0.054306112 -0.03189279 0.05314771 -0.008812677 0.094318084 -0.026816696 0.03090967 -0.0092274705
0.12536193 -0.04192061 -0.100224234 -0.009578905 -0.14213802 -0.18893033 0.049649213 0.029644433
-0.06630785 -0.16918117 0.04562638 0.12525855 -0.121623576 -0.14570972 0.19710514 0.108753
-0.10955323 -0.00080089 0.13756843 -0.08648881 -0.088979214 -0.09677607 0.1060803 -0.08231623
-0.10428024 -0.06672941 0.007306824 -0.07727205 0.38436827 -0.052006196 -0.027467797 0.02963782
-0.0060253753 -0.110518165 0.18352716 0.2559881 0.08214209 -0.1042117 0.085766815 0.13967474
-0.15363944 -0.22401956 -0.0360761 -0.20060563 0.10396346 -0.22320981 -0.047231317 -9.96961e-05
-0.16464198 0.17721963 0.050785497 0.113148585 0.033119716 -0.14717905 0.08296118 0.066567086
0.015521924 -0.025750816 0.3288403 0.072417945 0.2342188 -0.13023786 -0.051695906 -0.12676863
0.18471484 0.14854847 0.045002755 -0.16784082 0.04689664 0.07574748 -0.087514974 -0.17404795
0.11092955 -0.09294234 0.07884558 0.13756886 0.07023053 -0.051879384 0.104919836 0.11963279
-0.0009402087 -0.056534123 0.009440736 -0.017275434 -0.28657076 -0.043989927 0.03177743 -0.00381919
-0.07697244 -0.07134004 0.03278619 -0.0899532 0.012577462 0.14288203 0.013571398 0.01665465
0.0791453 -0.16220915 -0.058410805 0.184272 0.036223948 -0.13565564 -0.009701268 0.10525789
-0.18312058 -0.0480736 0.043974586 0.11725671 -0.016866866 -0.02243809 -0.10847687 -0.05301823
-0.074950635 0.17694125 -0.17682625 0.058431424 0.14977738 -0.17421842 -0.048143663 0.12179864
-0.017767236 0.0009554703 0.07994077 0.15024115 -0.02338205 0.020117499 0.05574212 0.066706635
0.28853363 -0.01283425 -0.00261246 -0.031339306 -0.13360672 -0.14087716 0.00896962 0.012591987
-0.13532329 -0.07386888 0.12676728 0.219592 -0.07465076 -0.14896801 0.14760104 0.18702789
0.03134788 0.0685373 -0.12152215 0.016848201 -0.03659942 -0.22665542 0.040165048 -0.04028004
-0.12361159 0.04519698 -0.052054875 0.0074987463 0.06350726 0.15012692 -0.0315146 0.15170534
-0.03915722 0.030742632 0.105144165 0.1720485 0.0356495 -0.097641274 0.0072103683 -0.0719282
-0.09342655 0.004707408 -0.26291 -0.2485094 -0.015420632 -0.1639019 0.10924948 0.23356672
-0.22500356 0.20051982 0.036716536 -0.06192608 0.016093198 0.07667162 0.06182512 -0.0099720415
0.08637068 -0.056180336 0.045545567 0.07914279 0.13536662 0.0020657938 -0.050662685 -0.29107708
00000000: b4e6 1f3d f008 273e 077a 663b e2a6 323d
00000010: b487 dd3d ebd7 42bd f4f9 09be 1cf8 3fbe
00000020: ec1c ed3b 7673 fbbd 50f9 173e 7621 99bd
00000030: 7abc a93c 50df dc3c c055 a33d 9c53 19be
00000040: 1062 07be 95ff 86bb ed00 473d ba36 d6bc
00000050: 5f86 873d c15e 9f3d 7c18 733c f42c 51bd
00000060: 305d 25bd 2168 58bd 009e 0b3e 8cae 80bd
00000070: ae74 b83d 3291 4e3e c434 00be d78d 2b3d
00000080: f6ee 263d f323 6f3c 89c7 5c3d 80ca a33d
00000090: 9ed0 27bd e2dc adbc 7fe0 953d d18e fb3c
000000a0: b6b4 58bd e4a3 a8bd b37b 30bd 226e 3b3c
000000b0: 2f64 8f3d 4a51 883b e988 9b3d 787e d43c
000000c0: ac3c 2dbe 7f51 603d d7dc c23d fa13 1c3d
000000d0: 1756 263c 3e1d 4b3d 2da6 e63d 588a 42bc
000000e0: 1670 5e3d 04a2 02bd 6ab1 593d 0c63 10bc
000000f0: d729 c13d b0ae dbbc 4736 fd3c d12e 17bc
00000100: e15e 003e f2b4 2bbd 5d42 cdbd d7f0 1cbc
00000110: a18c 11be f476 41be f95c 4b3d e2d8 f23c
00000120: 69cc 87bd d43d 2dbe bae2 3a3d c743 003e
00000130: c815 f9bd ee34 15be eed5 493e e5b9 de3d
00000140: 725d e0bd d1f2 51ba bdde 0c3e 0c21 b1bd
00000150: bc3a b6bd 8832 c6bd a140 d93d 6995 a8bd
00000160: e190 d5bd 6ea9 88bd 156e ef3b cf40 9ebd
00000170: ebcb c43e 7304 55bd 2504 e1bc 03cb f23c
00000180: 8370 c5bb 5957 e2bd 8bee 3b3e df10 833e
00000190: 1d3a a83d f26c d5bd 83a6 af3d e506 0f3e
000001a0: a853 1dbe 6265 65be 88c4 13bd 906b 4dbe
000001b0: cbea d43d 1d91 64be a075 41bd f013 d1b8
000001c0: e897 28be 1079 353e 7404 503d 72ba e73d
000001d0: 8aa8 073d 1bb6 16be 8de7 a93d 5354 883d
000001e0: ab4f 7e3c 60f3 d2bc c15d a83e dc4f 943d
000001f0: 0ed7 6f3e 135d 05be 16bf 53bd a3cf 01be
00000200: e325 3d3e 171d 183e cf54 383d 77de 2bbe
00000210: b116 403d 7f21 9b3d 0d3b b3bd a039 32be
00000220: 082f e33d 8e58 bebd cb79 a13d dade 0c3e
00000230: 06d5 8f3d 7a7f 54bd 36e0 d63d 0902 f53d
00000240: 5678 76ba 5390 67bd 51ad 1a3c 3685 8dbc
00000250: 67b9 92be c82e 34bd 0d29 023d 604b 7abb
00000260: baa3 9dbd ba1a 92bd d04a 063d 6239 b8bd
00000270: b311 4e3c ab4f 123e 925a 5e3c 556f 883c
00000280: ee16 a23d 281a 26be 2b40 6fbd cdb1 3c3e
00000290: 905f 143d 50e9 0abe 11f2 1ebc 7391 d73d
000002a0: f683 3bbe d3e8 44bd b21e 343d 4924 f03d
000002b0: 622c 8abc 16d0 b7bc 1f29 debd a529 59bd
000002c0: b87f 99bd 1630 353e f111 35be ca55 6f3d
000002d0: 3e5f 193e 5066 32be 4a32 45bd 9171 f93d
000002e0: 988c 91bc 8778 7a3a fdb7 a33d d1d8 193e
000002f0: b78b bfbc 74cd a43c d951 643d 7d9d 883d
00000300: aeba 933e bf46 52bc ce35 2bbb a55d 00bd
00000310: 33d0 08be 1a42 10be 50f5 123c 9f4e 4e3c
00000320: 3092 0abe 9148 97bd 48cf 013e badc 603e
00000330: 7fe2 98bd 128b 18be ba24 173e 3d84 3f3e
00000340: a266 003d 495d 8c3d 9be0 f8bd 3d05 8a3c
00000350: 46e9 15bd 5c18 68be 1b84 243d affc 24bd
00000360: 1328 fdbd 7820 393d 7e37 55bd 0bb8 f53b
00000370: 1810 823d dfba 193e 7415 01bd a558 1b3e
00000380: 5263 20bd f9d7 fb3c d355 d73d 7b2d 303e
00000390: 3605 123d 26f8 c7bd f444 ec3b 184f 93bd
000003a0: 6b56 bfbd 9a40 9a3b 249c 86be 4079 7ebe
000003b0: d2a6 7cbc e6d5 27be 31be df3d 1d2c 6f3e
000003c0: 5567 66be 1155 4d3e 1464 163d 34a6 7dbd
000003d0: e2d5 833c 0306 9d3d 563c 7d3d c661 23bc
000003e0: 1ce3 b03d 5a1d 66bd fd8d 3a3d 9d15 a23d
000003f0: 8c9d 0a3e 4562 073b ad83 4fbd 0e08 95be

encoder.model.bias_ih_l1 f4 [256]
0.058666375 0.060007807 -0.00263523 0.24368973 0.05014625 0.13757668 0.053859197 -0.0040199733
0.077250496 0.2853792 0.1165328 0.17809394 0.10893904 0.076907195 -0.03695638 0.14989528
1.0094086 -0.05067193 0.04963832 -0.022143217 0.7871428 0.08757297 -0.060584288 0.0028331627
0.39735785 0.08083869 0.17465408 0.15639032 0.04925088 0.15163788 0.30299893 0.3794553
0.06447786 0.19183333 0.16658749 -0.0031235402 0.023688354 -0.044672288 0.007758119 -0.034217753
-0.08657192 0.053295758 -0.052859344 -0.06762347 -0.055954617 -0.054135893 0.16680694 -0.059039086
0.118043974 0.07369197 0.19422624 0.18982877 0.19474125 -0.009154655 0.09634133 0.16369718
0.24001198 0.18179372 0.08674503 0.01827067 0.0034056378 -0.043782447 -0.05940313 -0.099295534
0.06379234 0.12873477 -0.116843574 0.150695 -0.06506434 -0.12929206 -0.08937304 -0.04751921
-0.08714549 -0.15100469 -0.057774827 0.045160204 -0.07424935 -0.015196808 0.0012703484 0.010593795
-0.06477299 -0.08604159 0.15455858 0.074617855 -0.09779009 -0.079242915 0.0029178008 0.07735883
0.06359481 0.073289424 -0.058536354 -0.058901872 -0.10941825 0.05412236 0.07551754 0.04116559
-0.12984186 0.08238413 -0.05492706 -0.03838766 0.087597564 -0.06411619 0.037269946 0.069917984
0.11295013 0.09259383 -0.113197505 -0.025282757 0.0888705 -0.0909819 0.026533362 -0.08387405
0.09871185 0.0323892 0.19154423 0.009072359 -0.016242482 0.01139834 -0.016213827 0.2094226
-0.01205569 -0.13174362 -0.076074384 -0.039297048 0.10195207 -0.0062281373 -0.08081615 -0.012716313
0.12151178 -0.017745633 0.0032718831 -0.07882012 -0.13388662 -0.06705441 -0.029956685 0.014466407
-0.026253592 -0.09237177 0.040902607 0.083365716 -0.050066166 -0.13708887 0.0277146 0.09173061
-0.0666493 -0.057964318 -0.05141784 -0.19892633 0.046435308 -0.033920385 -0.016901195 0.034953263
-0.4098988 0.13198328 -0.024778068 0.002820684 0.09708497 0.036249686 -0.047301218 0.03861888
0.04730572 0.04948447 0.5462671 0.128953 0.065738074 -0.083414875 -0.0099009145 0.049426656
-0.01644517 7.214872e-05 -0.11179417 0.0421533 -0.05742133 0.017235575 -0.051709183 -0.02482332
-0.1564723 0.10479451 -0.011056978 -0.012048724 0.12818225 0.111519486 0.13196231 0.055862796
0.030928412 0.036203086 0.1389558 -0.01684967 0.029839866 0.012076737 0.05875597 -0.12375474
0.08133926 0.058612138 0.09123719 0.25694016 0.09956698 -0.04135075 -0.047727734 -0.05391173
-0.001703223 0.10508722 0.06367121 0.2963556 -0.066468 -0.11793591 0.15483831 0.03966597
1.0496504 -0.0027497686 -0.003482313 0.15495041 0.71881545 -0.07402731 -0.021407843 -0.07666703
0.09849311 0.020815203 0.15399796 0.14432077 0.15117233 0.08845954 -0.036608305 0.55579305
0.17971581 0.053987924 -0.11894862 0.16130213 0.04988915 0.07894096 0.011822569 -0.04894208
0.13587984 0.04244969 -0.086207815 0.0146014225 0.1286913 -0.039496496 0.085482456 -0.084339924
0.06511026 0.09530107 0.16859806 0.04604135 0.09804663 0.11882482 0.08825936 0.20771083
0.027001709 0.009860176 0.04795361 0.16403773 0.13869828 0.12692887 0.13296713 0.11913028
00000000: 274c 703d bfca 753d d3b3 2cbb cd89 793e
00000010: 2766 4d3d e7e0 0c3e 769b 5c3d fbb9 83bb
00000020: 8235 9e3d 391d 923e c0a8 ee3d 425e 363e
00000030: 6e1b df3d 8581 9d3d 935f 17bd 267e 193e
00000040: 4d34 813f 5f8d 4fbd 8d51 4b3d b165 b5bc
00000050: 3182 493f 7559 b33d 3b27 78bd 95ac 393b
00000060: 7d72 cb3e c18e a53d 85d8 323e c924 203e
00000070: 4abb 493d f646 1b3e ad22 9b3e f747 c23e
00000080: f80c 843d f56f 443e e995 2a3e 4fb4 4cbb
00000090: 140e c23c 4afa 36bd d237 fe3b ea27 0cbd
000000a0: 9e4c b1bd a74c 5a3d 0a83 58bd 2d7e 8abd
000000b0: ab30 65bd 99bd 5dbd 70cf 2a3e f8d2 71bd
000000c0: 0ac1 f13d d1eb 963d 3ee3 463e 7962 423e
000000d0: 406a 473e 68fd 15bc 9a4e c53d 3ca0 273e
000000e0: b3c5 753e 2228 3a3e 61a7 b13d 5fac 953c
000000f0: 1f31 5f3b 3955 33bd b250 73bd 755b cbbd
00000100: 8fa5 823d 0cd3 033e af4b efbd ca4f 1a3e
00000110: 7440 85bd 2365 04be 3609 b7bd 81a3 42bd
00000120: 5679 b2bd f9a0 1abe 4ca5 6cbd e8f9 383d
00000130: 0b10 98bd 08fc 78bc d281 a63a 9991 2d3c
00000140: b4a7 84bd 9336 b0bd 9b44 1e3e 3fd1 983d
00000150: 2c46 c8bd 1c4a a2bd 9338 3f3b 4e6e 9e3d
00000160: ff3d 823d c418 963d d1c3 6fbd 1743 71bd
00000170: ad16 e0bd 68af 5d3d f1a8 9a3d 409d 283d
00000180: 44f5 04be 03b9 a83d 32fb 60bd 613c 1dbd
00000190: 5a66 b33d 594f 83bd 5fa8 183d 2931 8f3d
000001a0: 6652 e73d d5a1 bd3d 18d4 e7bd c91d cfbc
000001b0: bd01 b63d b854 babd 7e5c d93c 28c6 abbd
000001c0: 7029 ca3d 8aaa 043d 2c24 443e 3ba4 143c
000001d0: f40e 85bc 1ac0 3a3c dcd2 84bc e172 563e
000001e0: 3b85 45bc cde7 06be e3cc 9bbd f1f5 20bd
000001f0: 3fcc d03d 6715 ccbb f082 a5bd 1558 50bc
00000200: 2bdb f83d 4a5f 91bc 176d 563b 716c a1bd
00000210: 9319 09be d353 89bd b967 f5bc 8204 6d3c
00000220: c611 d7bc 692d bdbd 7e89 273d a5bb aa3d
00000230: 2e12 4dbd 0661 0cbe bb09 e33c 42dd bb3d
00000240: 6e7f 88bd fe6b 6dbd 839b 52bd 58b3 4bbe
00000250: f332 3e3d 1af0 0abd 6074 8abc 272b 0f3d
00000260: 41de d1be a026 073e 60fb cabc 3adb 383b
00000270: 7cd4 c63d 8d7a 143d ecbe 41bd d52e 1e3d
00000280: a5c3 413d 3ab0 4a3d 29d8 0b3f 410c 043e
00000290: afa1 863d 6bd5 aabd 7237 22bc 9b73 4a3d
000002a0: 05b8 86bc 8d4e 9738 58f4 e4bd f0a8 2c3d
000002b0: a132 6bbd 9f31 8d3c 02cd 53bd 465a cbbc
000002c0: 463a 20be 819e d63d 5428 35bc 0368 45bc
000002d0: 3542 033e 5464 e43d 2121 073e 63d0 643d
000002e0: 955d fd3c b049 143d 6e4a 0e3e 5208 8abc
000002f0: bc72 f43c 82dd 453c 1aaa 703d 2073 fdbd
00000300: 3395 a63d 4813 703d 90da ba3d a98d 833e
00000310: c6e9 cb3d 675f 29bd 287e 43bd 8cd2 5cbd
00000320: ae3e dfba f837 d73d 0d66 823d ecbb 973e
00000330: 6020 88bd 6288 f1bd ef8d 1e3e c978 223d
00000340: f25a 863f 7635 34bb 8437 64bb 52ab 1e3e
00000350: 4a04 383f a19b 97bd 805f afbc 9b03 9dbd
00000360: c1b6 c93d a584 aa3c a4b1 1d3e d3c8 133e
00000370: ebcc 1a3e 462a b53d 97f2 15bd 7448 0e3f
00000380: 6c07 383e 7122 5d3d 569b f3bd 632c 253e
00000390: 9158 4c3d ccab a13d 73b3 413c 7e77 48bd
000003a0: 1624 0b3e badf 2d3d b98d b0bd ce3a 6f3c
000003b0: a7c7 033e 14c7 21bd 6d11 af3d 69ba acbd
000003c0: 8758 853d 352d c33d f8a4 2c3e db95 3c3d
000003d0: accc c83d 6d5a f33d 53c1 b43d 26b2 543e
000003e0: b032 dd3c 938c 213c 016b 443d 82f9 273e
000003f0: ec06 0e3e a4f9 013e 8928 083e 94fa f33d

encoder.model.bias_hh_l1 f4 [256]
0.10244114 0.10260898 -0.04088012 0.08945403 0.03787836 0.008605975 -0.044909693 0.066304535
-0.14614262 0.17372288 0.043474972 0.16326562 0.10276064 0.072557084 -0.023554435 0.17367892
0.98319995 0.079057045 -0.10184727 0.17283796 0.70166165 -0.07124999 -0.036278293 -0.03449073
0.39420035 0.10459564 0.11944196 0.015076915 0.10634128 0.024069214 0.3986841 0.47573122
0.08612757 -0.0138682015 0.21511006 0.060781933 -0.023286346 0.0021063644 0.09922755 0.07540937
-0.00523041 0.16812034 0.1441277 0.124407865 0.04404521 0.013012308 0.2508301 -0.033937447
-0.061870903 0.12165481 0.25173393 0.017671078 0.13700795 0.056205537 0.11840961 0.28662217
-0.0005665594 0.025061904 0.031661678 0.19882159 0.05315187 0.015346676 -0.05631764 -0.084700815
-0.12679222 0.05170006 -0.08991299 -0.000713267 -0.064508766 -0.08889389 0.03887476 0.032624256
-0.14806636 -0.0225431 -0.055016067 -0.09956202 0.01830462 0.0646973 -0.11418055 -0.13272037
0.026003296 0.11334233 -0.033982094 -0.11800604 -0.041986126 -0.07452825 -0.08450747 -0.02275128
0.15039024 -0.047672756 -0.114298925 0.10289352 -0.10881759 -0.117008194 0.1084305 0.05941506
-0.1655522 0.03147756 0.02335043 -0.070590965 -0.12404596 0.013765317 0.047784224 0.12070709
-0.0750168 -0.047343727 0.115270846 0.10374432 0.12340659 -0.06684714 -0.09061284 -0.023555031
-0.069041416 -0.021859495 0.24365842 0.057906084 -0.01716722 0.11713441 0.072835885 0.17851637
-0.061845765 -0.0768414 0.048040785 -0.021799644 0.07312477 0.0046980297 0.06314781 0.062234797
-0.017156012 0.087852135 -0.107732 0.13146771 0.013078467 -0.105113745 0.05844847 -0.058034357
0.047922727 -0.006323419 0.15828139 0.08233282 -0.014537184 -0.09988868 0.050250273 -0.04266985
0.06890915 0.13814889 -0.07967825 -0.039995667 0.09167183 0.0045787315 0.03950912 0.023162233
-0.3099322 -0.018222412 0.031395316 0.017868571 0.069956556 0.024181413 -0.20726869 -0.08127245
0.1122085 -0.035088155 0.52372885 -0.0978349 -0.008388186 -0.011086881 -0.014979035 0.106079236
-0.101789944 0.09133885 -0.08085607 -0.07784146 0.078212716 -0.098591045 -0.07665232 0.04930436
-0.048226826 0.13875388 0.012511876 0.09928683 -0.051892076 -0.082120344 0.11364566 0.055809285
0.21717258 0.078615844 0.060986158 0.023087792 -0.018398834 -0.04763598 -0.13256733 -0.09501321
0.010536114 0.13628902 0.17254472 0.014351795 0.0856584 0.019588578 0.14678766 0.15422323
-0.051056366 0.119463794 -0.05521416 0.21343093 0.018488355 0.028159127 0.18369113 -0.016754344
0.93884 0.023285056 -0.06922294 0.10480707 0.675073 -0.038440883 0.15021454 -0.017133713
-0.0097252475 -0.017621007 0.20429347 -0.034538444 0.19163603 0.04974932 -0.11530316 0.5089636
0.20647715 0.12624338 -0.058736987 0.03729336 -0.0029111116 0.15310001 0.06326239 -0.008504675
-0.083469644 0.2161489 -0.09520311 -0.042168774 0.1327677 0.027594993 0.16667326 0.11146804
-0.07714271 -0.06750817 0.25260872 -0.03411712 0.10221392 -0.009852691 0.046764087 0.07258377
-0.078980744 0.031267315 0.12344222 0.21666606 -0.0843357 -0.0051082987 0.09384818 0.11321055
00000000: a9cc d13d a824 d23d ea71 27bd ad33 b73d
00000010: 5726 1b3d 1300 0d3c 3af3 37bd acca 873d
00000020: 69a6 15be 69e4 313e d012 323d 1a2f 273e
00000030: 2c74 d23d cf98 943d 3bf5 c0bc e3d8 313e
00000040: feb2 7b3f a9e8 a13d 4d95 d0bd 6ffc 303e
00000050: 19a0 333f 84eb 91bd 8c98 14bd 2746 0dbd
00000060: a1d4 c93e 3d36 d63d fc9d f43d 2a05 773c
00000070: 75c9 d93d cd2c c53c 5320 cc3e 0b93 f33e
00000080: a763 b03d 7437 63bc d045 5c3e 7af6 783d
00000090: 02c3 bebc ee0a 0a3b d037 cb3d 3a70 9a3d
000000a0: dc63 abbb bd27 2c3e 3696 133e 8dc9 fe3d
000000b0: c068 343d 9331 553c ce6c 803e fe01 0bbd
000000c0: 586c 7dbd 2826 f93d 45e3 803e f0c2 903c
000000d0: d04b 0c3e c737 663d bd80 f23d 24c0 923e
000000e0: 2885 14ba 9f4e cd3c adaf 013d e397 4b3e
000000f0: c6b5 593d a070 7b3c 53ad 66bd 9f77 adbd
00000100: d2d5 01be 71c3 533d 4d24 b8bd 8afa 3aba
00000110: 2c1d 84bd 000e b6bd 243b 1f3d 03a1 053d
00000120: b59e 17be 4fac b8bc 8758 61bd 2ce7 cbbd
00000130: 92f3 953c 0580 843d 7ed7 e9bd d9e7 07be
00000140: dd04 d53c 0620 e83d cf30 0bbd 27ad f1bd
00000150: a5f9 2bbd 44a2 98bd 4112 adbd e460 babc
00000160: e6ff 193e 8244 43bd 8e15 eabd d6b9 d23d
00000170: c2db debd fea1 efbd cf10 de3d 355d 733d
00000180: 8486 29be 9dee 003d 6749 bf3c ff91 90bd
00000190: cf0b febd ed87 613c 64b9 433d 4735 f73d
000001a0: 68a2 99bd 7feb 41bd 1f13 ec3d e777 d43d
000001b0: 98bc fc3d 27e7 88bd 3a93 b9bd 7bf6 c0bc
000001c0: 9665 8dbd af12 b3bc 9881 793e ee2e 6d3d
000001d0: 45a2 8cbc 2ae4 ef3d fb2a 953d ffcc 363e
000001e0: fc51 7dbd 065f 9dbd 6ac6 443d 2b95 b2bc
000001f0: 70c2 953d eef1 993b a453 813d eae9 7e3d
00000200: c48a 8cbc d2eb b33d 98a2 dcbd 799f 063e
00000210: 1147 563c e045 d7bd aa67 6f3d 6fb5 6dbd
00000220: 9f4a 443d af34 cfbb 8414 223e 1c9e a83d
00000230: 5e2d 6ebc 7092 ccbd 3bd3 4d3d 95c6 2ebd
00000240: 3e20 8d3d e776 0d3e 5a2e a3bd 7fd2 23bd
00000250: 71be bb3d 2f09 963b 51d4 213d b9be bd3c
00000260: 6faf 9ebe 2b47 95bc 6098 003d 1c61 923c
00000270: 6245 8f3d 1918 c63c 3e3e 54be 2c72 a6bd
00000280: 92cd e53d 99b8 0fbd 1813 063f aa5d c8bd
00000290: 9a6e 09bc c0a5 35bc a06a 75bc 1240 d93d
000002a0: 3f77 d0bd dd0f bb3d de97 a5bd 586b 9fbd
000002b0: fd2d a03d 1aea c9bd e4fb 9cbd 5ef3 493d
000002c0: 7e89 45bd 7f15 0e3e 9dfe 4c3c e556 cb3d
000002d0: c98c 54bd b62e a8bd 0ebf e83d 4798 643d
000002e0: 7d62 5e3e 5801 a13d 9fcc 793d 9c22 bd3c
000002f0: 27b9 96bc f21d 43bd bbbf 07be 4996 c2bd
00000300: aa9f 2c3c 598f 0b3e 90af 303e cb23 6b3c
00000310: ac6d af3d 3a78 a03c 814f 163e b2ec 1d3e
00000320: 7b20 51bd 6fa9 f43d 3e28 62bd a38d 5a3e
00000330: e474 973c f8ad e63c 8719 3c3e 6840 89bc
00000340: d157 703f 4dc0 be3c c2c4 8dbd 17a5 d63d
00000350: 96d1 2c3f 3074 1dbd d7d1 193e 005c 8cbc
00000360: a556 1fbc ee59 90bc 4f32 513e 2f78 0dbd
00000370: 3c3c 443e f1c5 4b3d 1024 ecbd 704b 023f
00000380: bf6e 533e f245 013e 3296 70bd ecc0 183d
00000390: 59c8 3ebb 40c6 1c3e b68f 813d 3157 0bbc
000003a0: 22f2 aabd 2356 5d3e d9f9 c2bd 2ab9 2cbd
000003b0: 42f4 073e e50e e23c 65ac 2a3e 5b49 e43d
000003c0: fffc 9dbd b941 8abd ee55 813e 65be 0bbd
000003d0: 8855 d13d 2e6d 21bc b38b 3f3d cda6 943d
000003e0: a8c0 a1bd 2812 003d 46cf fc3d b5dd 5d3e
000003f0: 32b8 acbd 8463 a7bb 7933 c03d efda e73d
