models/20200923_212102/epoch_0500_loss_194384.07858.pt (torch, 857809 bytes, 96 tensors)

encoder.model.weight_ih_l0 f4 [256, 3]
0	0xbd0c2538	-0.034215182
1	0x3d3e8176	0.046510182
2	0xbd3ee4fd	-0.0466051
3	0x3ddb8a18	0.10719699
4	0x3b056c1c	0.0020358628
5	0x3d819fdf	0.06329321
6	0xbb4fcf88	-0.0031709392
7	0x3cd3634b	0.025804183
8	0x3e3a267b	0.18178742
9	0x3bee0b9a	0.0072645666
10	0x3e306225	0.17224939
11	0xbd8e4385	-0.06946472
12	0x3d4b38fd	0.049614895
13	0xbd1504b6	-0.036381446
14	0x3dd4d3d4	0.103919655
15	0x3e00cd02	0.12578204
16	0x3ea0dc7e	0.31418222
17	0xbc9f3c22	-0.019437853
18	0xbeac4b7b	-0.33651337
19	0xbcf9e81c	-0.030506186
20	0x3c439459	0.011937224
21	0x3d55687e	0.052101605
22	0x3d772d20	0.06034577
23	0x3e049ec2	0.12951186
24	0xbdb6bb0e	-0.089223966
25	0x3cd678eb	0.026180705
26	0xbe54c4e2	-0.2077823
27	0xbc77472b	-0.015092651
28	0xbd67726d	-0.05650561
29	0x3d6c9a2d	0.05776422
30	0xbdc44db2	-0.09585132
31	0x3da592c1	0.08084632
32	0x3e947376	0.2899434
33	0xbce7d11f	-0.028297959
34	0xbd0910e7	-0.033463385
35	0xbe17a6a2	-0.14809659
36	0xbc01a65b	-0.007913197
37	0xbdd4bd8a	-0.10387714
38	0xbd565b7c	-0.05233334
39	0xbd30c45a	-0.043156005
40	0xbe46ee55	-0.19426854
41	0xbdb88997	-0.09010618
42	0xbe2324ab	-0.15931956
43	0xbd7427e1	-0.059608344
44	0x3da03109	0.07821853
45	0xbd87566f	-0.06608283
46	0x3d8b01e8	0.06787473
47	0xbe05d4ad	-0.1306941
48	0x3c7f25fc	0.015573021
49	0x3d23890b	0.039925616
50	0xbe1a2f27	-0.1505705
51	0x3ca277eb	0.019832572
52	0x3d44efd1	0.04808027
53	0x3ded3f74	0.11584368
54	0xbe045c68	-0.12925875
55	0xb920e7db	-0.00015345162
56	0x3bf7a13e	0.0075570634
57	0x3ca21ee1	0.019790115
58	0xbe2eb621	-0.17061664
59	0xbb4470e0	-0.0029974505
60	0xbd9ff261	-0.07809902
61	0xbe489699	-0.19588698
62	0xbcf4d7ae	-0.029888
63	0x3db1dcba	0.086846784
64	0x3d960350	0.073248506
65	0x3d7d7a9e	0.061884515
66	0xbb76f6ef	-0.0037683805
67	0xbeabe5d1	-0.33573774
68	0x3ca3370f	0.019923715
69	0x3d43e330	0.047824085
70	0x3af0baf4	0.0018366263
71	0x3dda6e4c	0.10665569
72	0x3e1906d1	0.14944007
73	0x3cc54301	0.024079802
74	0x3c178bb4	0.009249616
75	0xbd0429f2	-0.032266565
76	0xbd0272a8	-0.031847626
77	0xbdbde658	-0.0927245
78	0xbe901e30	-0.2814803
79	0xbe725d20	-0.23668337
80	0xbdf6cd24	-0.12050846
81	0x3d0950b2	0.033524223
82	0xbba68e6a	-0.005082895
83	0x3c44b480	0.012005925
84	0xbcf9f47e	-0.03051209
85	0x3d08d7c9	0.033408914
86	0xbd207769	-0.03917638
87	0xbe67d06b	-0.22638099
88	0x3e22f8c7	0.15915214
89	0x3ca9e417	0.020738645
90	0xbe18b1b6	-0.14911541
91	0xbc263522	-0.010144504
92	0xbd0175e4	-0.03160657
93	0xbdcbd2a9	-0.099522896
94	0xbdad3eb0	-0.08459222
95	0xbceac9c5	-0.028660664
96	0xbe3150e5	-0.17316015
97	0x3d2d15c1	0.042257074
98	0xbd98cf98	-0.0746147
99	0xbd9a016d	-0.07519803
100	0x3e0ad553	0.13557939
101	0x3d6739df	0.056451675
102	0x3d85d59f	0.065348856
103	0x3cf9a69a	0.03047495
104	0xbdceb510	-0.10093129
105	0xbe9ed639	-0.31022814
106	0xbe87413d	-0.2641696
107	0xbe5d8673	-0.2163332
108	0xbc005a40	-0.007834017
109	0xbd741abe	-0.059595816
110	0x3da15f1b	0.07879468
111	0x3dc8f980	0.09813213
112	0x3d8c143c	0.06839797
113	0xbc4c7e4b	-0.012481282
114	0xbe970ed4	-0.295035
115	0xbdcd9550	-0.10038245
116	0xbd770df2	-0.060316034
117	0x3dd3cf16	0.10342233
118	0xbdaaed71	-0.083460696
119	0x3da6987d	0.081345536
120	0xbdceebfe	-0.10103606
121	0xbe43dcbe	-0.19127175
122	0xbca0ee4c	-0.019644879
123	0xbc66602f	-0.014061018
124	0xbe3379af	-0.17526887
125	0xbd0249bb	-0.031808596
126	0x3c9ce342	0.019151334
127	0x3e353ac6	0.17698202
128	0x3ebab83c	0.36468685
129	0xbd000ef9	-0.03126428
130	0x39c09fc1	0.0003674012
131	0xbe247243	-0.16059212
132	0xbd9dd2f3	-0.07706251
133	0x3e3e7f74	0.18603307
134	0xbd447532	-0.04796333
135	0x3ec49072	0.38391453
136	0x3d0ef932	0.03490562
137	0x3eb9968d	0.36247674
138	0xbe29aeff	-0.16570662
139	0xbe751d6b	-0.23937003
140	0xbe55ea89	-0.2089025
141	0xbda28b2d	-0.07936702
142	0xbdf3e872	-0.1190957
143	0x3dabe451	0.08393157
144	0xbdd83886	-0.10557656
145	0x3e455d97	0.19273983
146	0x3e180966	0.14847335
147	0xbc59d4b8	-0.013295345
148	0x3e2e4e26	0.17021999
149	0xbd20a1c1	-0.03921676
150	0x3c134e89	0.008990892
151	0xbda13a8b	-0.07872494
152	0xbddd355d	-0.10801194
153	0xbd393771	-0.04521889
154	0x3dc2ec42	0.09517719
155	0x3e1d3544	0.1535235
156	0xbc510bb8	-0.012759142
157	0xbda3c2d6	-0.079961464
158	0xbcf5109b	-0.029915145
159	0xbd3dbf66	-0.04632511
160	0x3cde2689	0.027117984
161	0xbc2034c4	-0.009778205
162	0xbe6b0a6b	-0.22953193
163	0xbd32d60f	-0.043661173
164	0x3d84e979	0.06489844
165	0xbc9b1531	-0.018931003
166	0xbe2eec9f	-0.17082451
167	0x3cf2ca99	0.029637622
168	0xbcf75c6f	-0.030195443
169	0xbd68d5dd	-0.05684458
170	0xbdb31a1d	-0.08745215
171	0xbdcab739	-0.09898228
172	0x3d6c018f	0.057618674
173	0xbe359242	-0.17731574
174	0x3d8c4bf9	0.06850428
175	0x3ced414d	0.028961802
176	0x3daec713	0.08534064
177	0xbd9c611a	-0.07635708
178	0x3deb0412	0.11475386
179	0x3dcc639e	0.09979938
180	0xbe873bbf	-0.2641277
181	0xbd5a7577	-0.05333468
182	0xbd6b4ab9	-0.057444308
183	0x3c89fd81	0.016844513
184	0xbdd9ad6b	-0.1062878
185	0x3d8e3658	0.06943959
186	0xbc9da203	-0.019242292
187	0x3da1a0e5	0.07892016
188	0x3dbb47e0	0.091445684
189	0x3e1c6ce7	0.15275918
190	0x3e23a88a	0.15982261
191	0x3ef9c048	0.4877951
192	0xbd864dd0	-0.0655781
193	0xbe2f6897	-0.17129742
194	0x3d8829cf	0.06648599
195	0x3de93d62	0.11388661
196	0xbe115bb5	-0.1419514
197	0x3db64ce0	0.089013815
198	0xbea21d3c	-0.3166293
199	0xbce36af5	-0.027760962
200	0xbd588344	-0.05285956
201	0xbe06601a	-0.13122597
202	0x3e09efa9	0.1347033
203	0xbda70ead	-0.08157096
204	0xbe5101be	-0.20410821
205	0xbe8a7ef1	-0.27049974
206	0x3db9cf5a	0.09072752
207	0xbdd20d5c	-0.10256454
208	0x3e366050	0.17810178
209	0x3eb6c13a	0.35694295
210	0xbeafefb3	-0.34362563
211	0xbdcd2e0d	-0.10018549
212	0x3de1f26f	0.11032569
213	0xbe91b088	-0.28454995
214	0xbea02f52	-0.31286103
215	0xbdff1887	-0.1245585
216	0xbd1bd926	-0.038048886
217	0xbe856f38	-0.26061416
218	0xbed6804f	-0.41894767
219	0xbe5f8462	-0.21827844
220	0x3e138ab3	0.14408378
221	0xbd581bb5	-0.0527608
222	0xbe5284f6	-0.20558533
223	0x3d1931b7	0.037400927
224	0x3e2a7db4	0.16649514
225	0x3dd40974	0.103533655
226	0xbe53c1d7	-0.20679413
227	0xbd970e09	-0.07375724
228	0x3e1fa80d	0.1559145
229	0xbd8f59e9	-0.06999571
230	0xbd8dff98	-0.06933516
231	0xbdc84d80	-0.09780407
232	0xbe975869	-0.2955964
233	0x3d4a0288	0.04931882
234	0xbe3cf6ce	-0.18453524
235	0xbe92c652	-0.2866693
236	0xbe35b76f	-0.17745756
237	0x3dd759fb	0.10515209
238	0x3eb2f3cc	0.34951627
239	0x3c0f37ef	0.008741363
240	0xbd761b84	-0.060084835
241	0x3e55f3b5	0.20893748
242	0x3d2600de	0.04052817
243	0xbe1eb35f	-0.15498112
244	0xbe9650ff	-0.2935867
245	0xbcb56a82	-0.022145513
246	0x3d948466	0.072518155
247	0xbdd77a9f	-0.10521435
248	0xbcb2821f	-0.021790562
249	0xbd068e8f	-0.0328508
250	0x3d2ac75e	0.041694038
251	0xbdbb897b	-0.09157082
252	0x3bbdc3ce	0.005791164
253	0xbdf05e80	-0.117367744
254	0xbc2bc65e	-0.010484306
255	0xbd35a185	-0.04434349

encoder.model.weight_hh_l0 f4 [256, 64]
0	0x3d712c17	0.058879938
1	0xbd813145	-0.063082255
2	0x3e0e1ec6	0.13878927
3	0x3e6c7f2e	0.2309539
4	0xbd704169	-0.05865613
5	0x3e9d6ba0	0.30746174
6	0xbe816bec	-0.2527765
7	0x3d9d50b4	0.076814085
8	0x3de383ef	0.11109149
9	0xbe3c4809	-0.18386854
10	0x3d51c9e0	0.051217914
11	0xbe25515e	-0.1614432
12	0xbddb48e8	-0.10707265
13	0xbbc89125	-0.006120818
14	0xbd4c7895	-0.049919683
15	0xbd53dd55	-0.05172475
16	0xbcc9d3f6	-0.024637204
17	0x3c04f93d	0.008116064
18	0x3e3d5872	0.1849077
19	0xbdacf0eb	-0.08444389
20	0xbda1e8e0	-0.079057455
21	0x3c6f21a6	0.014595425
22	0xbc4d072d	-0.012513918
23	0xbd2d3016	-0.042282186
24	0x3dda262f	0.10651814
25	0x3d882c9e	0.06649135
26	0xbc51c13e	-0.01280242
27	0xbe22e3ed	-0.1590726
28	0x3ee57210	0.44813585
29	0xbd690205	-0.05688669
30	0x3c5372b2	0.012905763
31	0x3e2037aa	0.15646234
32	0x3e8d6566	0.27616423
33	0xbe1b519d	-0.15167852
34	0x3c4a768e	0.012357367
35	0x3d17fe1a	0.037107565
36	0xbd35b417	-0.0443612
37	0x3ec49cd2	0.38400894
38	0x3daf2942	0.08552791
39	0xbccb603c	-0.024826162
40	0x3dd63a66	0.10460357
41	0xbd3ba327	-0.04580989
42	0x3eaab015	0.33337465
43	0xbe7320ac	-0.23742932
44	0x3e593cab	0.21214549
45	0xbe5d135b	-0.21589415
46	0xbbef1293	-0.0072959154
47	0xbe71d428	-0.23616087
48	0x3d3d6d72	0.046246953
49	0xbe715151	-0.23566176
50	0x3d91f33e	0.07126473
51	0xbd535d88	-0.05160287
52	0x3de6e324	0.112737924
53	0x3e9ce2a0	0.3064165
54	0xbd99c081	-0.0750742
55	0x3e14c285	0.14527328
56	0xbdd80d50	-0.10549414
57	0x3d2ea90d	0.04264169
58	0x3e811543	0.25211534
59	0xbe430db1	-0.19048192
60	0xbde3db06	-0.1112576
61	0xbcfc6ec3	-0.030814534
62	0xbeb9afba	-0.3626688
63	0x3e528974	0.20560247
64	0xbe4e4369	-0.20142902
65	0xbe0fe936	-0.14053807
66	0x3e3dc467	0.18531953
67	0x3e33e907	0.17569362
68	0x3dd876cf	0.10569536
69	0x3e568dd5	0.20952542
70	0xbde904f8	-0.11377901
71	0xbd43d2ca	-0.047808446
72	0xbc019395	-0.007908721
73	0xbe38848c	-0.18019313
74	0x3e0e68fb	0.13907234
75	0xbdf90e3f	-0.1216092
76	0x3d597337	0.053088393
77	0xbd615f4b	-0.05502252
78	0xbd93bc23	-0.072136186
79	0xbd170131	-0.03686637
80	0xbd2e6e2b	-0.042585533
81	0xbe3e2333	-0.18568115
82	0xbb5a5769	-0.003331626
83	0xbde958a4	-0.1139386
84	0xbd8d32e2	-0.06894471
85	0x3e1914de	0.14949366
86	0x3cab193e	0.02088606
87	0x3d1d0dfd	0.03834342
88	0x3e0aae1f	0.13542984
89	0xbcbdf943	-0.023190146
90	0xbd45d67e	-0.04830026
91	0xbe2cd757	-0.1687902
92	0x3e50e815	0.20401032
93	0xbe368b45	-0.17826565
94	0x3e178f06	0.14800653
95	0xbe104a11	-0.14090754
96	0x3e1d38a6	0.15353641
97	0xbe17e86a	-0.14834753
98	0xbe84bf96	-0.25927418
99	0xbdca90ed	-0.09890924
100	0xba81cf9c	-0.0009903791
101	0x3e7467d4	0.23867732
102	0x3dd4b66b	0.10386356
103	0xbd3a8612	-0.045538016
104	0xbda27e95	-0.079343
105	0x3d86574f	0.065596215
106	0x3d8a76ba	0.067609265
107	0xbe594920	-0.21219301
108	0x3e402a3f	0.18766116
109	0x38700979	5.722928e-05
110	0xbd2b2d88	-0.04179147
111	0xbd87386e	-0.0660256
112	0x3d228d38	0.039685458
113	0xbe2f41fb	-0.17115013
114	0x3e358360	0.17725897
115	0x3e0f11a0	0.13971567
116	0xbd9f73e7	-0.077857785
117	0x3c8b81f2	0.017029736
118	0xbe0ed658	-0.13948953
119	0x3dcdcb8f	0.10048591
120	0xbd6b6c9a	-0.057476617
121	0xbd5c3fd2	-0.0537718
122	0x3cf333de	0.029687818
123	0xbdffb244	-0.12485173
124	0xbd9ff13b	-0.07809683
125	0xbd10a66d	-0.035314966
126	0xbe325f8c	-0.1741926
127	0x3e601f59	0.21886958
128	0x3d8c4ec8	0.06850964
129	0x3d033b97	0.03203925
130	0xbc3640b0	-0.011123821
131	0xbdb8e3fd	-0.0902786
132	0xbc141057	-0.009037099
133	0xbd4a5508	-0.0493975
134	0xbe3d744c	-0.18501395
135	0xbca8d89a	-0.020611096
136	0xbcbe0f27	-0.023200585
137	0x3dccbb2b	0.09996637
138	0xbe07a346	-0.13245878
139	0xbca36dc5	-0.019949803
140	0xbe03268a	-0.1280767
141	0xbd773c91	-0.060360495
142	0xbd848bb6	-0.0647196
143	0xbd8d65ff	-0.0690422
144	0xbd9243f9	-0.07141871
145	0x3d9c4c14	0.07631698
146	0xbd755d06	-0.059903167
147	0xbdb2702c	-0.08712801
148	0xbc211fce	-0.009834243
149	0x3d83c7aa	0.06434567
150	0x3d963f03	0.07336237
151	0x3db1cd00	0.08681679
152	0xbdf1ea57	-0.11812275
153	0x3ddb64e5	0.107126035
154	0x3e041872	0.1289995
155	0xbdd23ba2	-0.1026528
156	0x3c905964	0.01762075
157	0x3b9bd4dc	0.0047555994
158	0xbe03db2e	-0.12876579
159	0x3d5448e7	0.051827338
160	0x3cb04aed	0.021520102
161	0xbda11855	-0.07865969
162	0xbc278790	-0.010225192
163	0x3dd80cbd	0.10549305
164	0x3d929465	0.0715721
165	0x3e138645	0.14406689
166	0xbe21748d	-0.15767117
167	0xbe14b081	-0.14520456
168	0x3e16b80c	0.14718646
169	0xbdce6cb4	-0.10079327
170	0x3c5a3372	0.01331793
171	0xbc04ea9e	-0.008112578
172	0x3d8300cf	0.063966386
173	0x3d7ae61d	0.06125461
174	0x3d909167	0.07058983
175	0xbe4377cf	-0.19088672
176	0xbc11afd3	-0.008892017
177	0xbdde97fd	-0.10868833
178	0xbe096de2	-0.13420823
179	0xbdfa52e6	-0.12222843
180	0xbc4e8c3d	-0.012606678
181	0x3dda9045	0.106720485
182	0xbe41d8f5	-0.18930419
183	0x3c0a10ed	0.008426887
184	0xbdbe31c8	-0.09286839
185	0x3bc9b522	0.006155626
186	0x3e42d2f5	0.19025786
187	0x3b5c5708	0.003362121
188	0xbda714a7	-0.08158236
189	0xbd21e978	-0.039529294
190	0xbd0b164b	-0.033956807
191	0xbd8f2d04	-0.06991008
192	0x3e1665be	0.14687249
193	0x3e36c6a1	0.17849208
194	0x3ddef903	0.10887339
195	0xbd141dc1	-0.036161188
196	0xbcb27509	-0.021784322
197	0xbd219d84	-0.03945686
198	0xbd8fcdb1	-0.070216544
199	0xbd882110	-0.06646931
200	0xbd48df76	-0.049041234
201	0xbd84a5f6	-0.06476967
202	0xbcfb0bcd	-0.030645275
203	0xbe09d1b4	-0.13458902
204	0xbe28a142	-0.16467765
205	0xbe1c59e3	-0.15268664
206	0x3d95c735	0.07313386
207	0x3d0e69e3	0.03476895
208	0x3da177e4	0.078841954
209	0x3d8fde05	0.07024769
210	0x3e273175	0.1632746
211	0xbd42f27f	-0.047594544
212	0xbd72172f	-0.05910414
213	0xbda12f61	-0.07870365
214	0xbe288e73	-0.1646059
215	0x3e1af5d7	0.15132843
216	0x3cb96f1d	0.02263599
217	0x3c9dc107	0.019257082
218	0x3d4b6c91	0.049664084
219	0x3c06713b	0.008205707
220	0x3d3d1664	0.04616393
221	0xbe071272	-0.1319063
222	0xbd9c54f3	-0.0763339
223	0x3dd6653c	0.10468528
224	0xbda8bfc2	-0.082397
225	0xbdfcca56	-0.1234328
226	0xbd7cbad3	-0.061701607
227	0xbd9c0e01	-0.076198585
228	0xbe14bbba	-0.14524737
229	0x3e2ec4a1	0.17067195
230	0x3ca306a3	0.019900626
231	0x3d0ef019	0.034896944
232	0x3e1b65da	0.15175572
233	0x3c1eb289	0.009686121
234	0xbdae6b53	-0.08516564
235	0x3cecb2dd	0.028893882
236	0x3e380632	0.17971113
237	0x3d3609b3	0.044442844
238	0x3da1508d	0.07876692
239	0xbdb4b621	-0.08823801
240	0xbc5cf45b	-0.013485993
241	0xbddf5a1b	-0.10905858
242	0x3d537da3	0.05163349
243	0xbd6eabc7	-0.05826929
244	0x3d9b490b	0.07582291
245	0x3db855cb	0.09000739
246	0xbc77977e	-0.015111802
247	0x3c82dfc0	0.015975833
248	0xbde793dd	-0.113074996
249	0xbd9ac791	-0.075575955
250	0x3e372b66	0.17887649
251	0xbe2995ea	-0.16561094
252	0xbe2d1b94	-0.16905051
253	0xb9171760	-0.0001440919
254	0xbc23b314	-0.009991426
255	0x3dd70d4e	0.105005845

encoder.model.bias_ih_l0 f4 [256]
0	0x3d8c8f27	0.06863242
1	0x3dafb3c2	0.08579208
2	0xbbaa39e6	-0.0051948903
3	0x3d700700	0.058600426
4	0x3e1e279e	0.154448
5	0x3e0ed583	0.13948636
6	0x3d639b29	0.055567894
7	0x3e736ecb	0.23772733
8	0x3df7d079	0.1210031
9	0x3d9ba4e8	0.07599813
10	0x3eb6a046	0.35669154
11	0x3e0f41b0	0.13989902
12	0x3d9f455d	0.07776902
13	0x3de40eb8	0.1113562
14	0x3e3afcf2	0.18260553
15	0xbd6b3e41	-0.057432417
16	0x3db63bea	0.088981465
17	0x3e77be1a	0.24193612
18	0xbd677c1f	-0.056514855
19	0xbdac751b	-0.084207736
20	0x3d853ec8	0.06506115
21	0x3e1db3b5	0.15400584
22	0xbb6e4659	-0.0036357848
23	0x3e5b08df	0.21390103
24	0x3bd6833c	0.006546406
25	0x3dd610f9	0.10452456
26	0xbd28047f	-0.041019913
27	0x3d941652	0.0723082
28	0x3de16c94	0.11007038
29	0xbd4cde73	-0.05001683
30	0x3d9f3912	0.07774557
31	0x3e21ba1c	0.15793651
32	0x3d9d68d8	0.07686013
33	0x3ef6f94f	0.48237082
34	0x3e9bdccc	0.30441892
35	0xbca41cdc	-0.020033292
36	0x3c9e288e	0.019306447
37	0xbc9ce548	-0.019152299
38	0x3dfa1185	0.12210373
39	0x3db7b572	0.08970155
40	0x3d06faf5	0.032954175
41	0x3da39784	0.07987884
42	0x3daee08a	0.08538921
43	0xbdab704f	-0.083710305
44	0xbd3592c2	-0.044329412
45	0x3f0173e6	0.5056747
46	0x3c759340	0.01498872
47	0x3d4d4646	0.050115846
48	0x3cd8778b	0.02642419
49	0x3a0f546d	0.00054675975
50	0x3d862427	0.06549864
51	0x3c1610bf	0.009159266
52	0xbd0b280a	-0.03397373
53	0xbc5142b6	-0.012772253
54	0x3dca5978	0.09880346
55	0x3dddbc3d	0.10826919
56	0x3db4809f	0.08813595
57	0x3d02bb72	0.031917043
58	0x3d1565d8	0.03647408
59	0x3dca0ff3	0.09866323
60	0x3d937935	0.07200853
61	0xbb9d22cb	-0.0047954074
62	0x3e9c675c	0.30547607
63	0x3d9961dd	0.07489369
64	0xbd6bbd3b	-0.05755351
65	0x3d0ce8ab	0.034401577
66	0xbdca8715	-0.09889046
67	0xbd9c677a	-0.07636924
68	0xbdc09e1c	-0.09405157
69	0xbd5c7bf2	-0.05382914
70	0x3e16a177	0.14710031
71	0xbda177d3	-0.07884183
72	0xbddc0e6a	-0.10744937
73	0xbda74f09	-0.08169372
74	0xbd2d2c69	-0.04227868
75	0x3cd73171	0.026268693
76	0xbdbafa94	-0.09129825
77	0xbcef6299	-0.02922182
78	0xbd2144f8	-0.039372414
79	0xbc623f76	-0.013809076
80	0x3be83bfe	0.0070872298
81	0x3d063a0e	0.03277021
82	0x3b989f70	0.0046576783
83	0xbdc6b515	-0.097025074
84	0xbd41c39b	-0.047305685
85	0x3e3ed6a9	0.18636574
86	0xbd841486	-0.06449227
87	0x3d772fb6	0.060348235
88	0x3dc9e69b	0.09858438
89	0xbd7187e0	-0.05896747
90	0x3da1290c	0.07869157
91	0x3dc7604e	0.097351655
92	0xbe0a1c79	-0.13487424
93	0x3dcb5224	0.099277765
94	0xbc41cbcf	-0.011828377
95	0x3c90d81b	0.017681172
96	0x3d68dc75	0.05685087
97	0xbe00287f	-0.12515448
98	0x3d4aac62	0.049480803
99	0x3ddcc6e5	0.107801236
100	0xbe08f276	-0.13373742
101	0xbded495f	-0.1158626
102	0x3d975b29	0.07390434
103	0x3e17df47	0.14831267
104	0x3d1c2172	0.038117833
105	0x3c463378	0.012097232
106	0x3cc69aa3	0.024243658
107	0x3e2a7f86	0.16650209
108	0xbd5b0c99	-0.05347881
109	0x3cb18cc6	0.021673571
110	0x3df6555a	0.12027998
111	0xbdaba968	-0.08381921
112	0xbdc96ce2	-0.09835221
113	0xbd92a7c0	-0.07160902
114	0xbe12fd6b	-0.14354484
115	0x3c2cfb35	0.010557939
116	0x3d67819e	0.056520097
117	0xbd01d3f8	-0.03169629
118	0xbdbf2b65	-0.09334449
119	0x3ddc1b89	0.107474394
120	0x3c7f5e24	0.01558641
121	0xbe36f895	-0.17868264
122	0xbd333661	-0.04375303
123	0xbdc33a6a	-0.09532626
124	0xbda274b3	-0.07932415
125	0xbcfa805d	-0.030578787
126	0xbce3ed45	-0.0278231
127	0x3d9866a7	0.074414544
128	0x3c9c795f	0.019100843
129	0x3d7108a8	0.058846146
130	0xbdffaba0	-0.12483907
131	0xbe08421c	-0.13306469
132	0xbd84df81	-0.064879425
133	0x3cfd1bc6	0.030897032
134	0x3af0a463	0.0018359538
135	0xbd95b6a9	-0.0731023
136	0x3d024528	0.031804234
137	0x3ce317aa	0.027721245
138	0xbd817575	-0.06321231
139	0xbe0f4f8e	-0.13995191
140	0x3d63a366	0.05557575
141	0xbc8345c6	-0.016024482
142	0x3dedbf01	0.11608697
143	0x3d74594a	0.059655465
144	0xbcca2930	-0.024677843
145	0x3dbbb04e	0.09164487
146	0xbd78dda6	-0.060758255
147	0x3d95c747	0.073134
148	0xbd15fee5	-0.03662004
149	0xbda09998	-0.07841796
150	0xbda6ce91	-0.08144868
151	0x3d9885e6	0.07447414
152	0xbd95bdd9	-0.07311601
153	0x3d9704dc	0.07373974
154	0x3d546bc8	0.0518606
155	0xbdd51207	-0.10403829
156	0x3d29234f	0.04129344
157	0x3c5be831	0.013422058
158	0xbda7c502	-0.08191873
159	0x3e08f378	0.13374126
160	0x3d291926	0.04128375
161	0x3c4f50b9	0.012653523
162	0x3dc6aa4e	0.09700452
163	0x3def5cf9	0.11687655
164	0xbbfac638	-0.007653024
165	0xbd1f6faf	-0.03892487
166	0x3dfd5285	0.12369255
167	0xbe079d7a	-0.13243666
168	0x3d235b71	0.039882127
169	0xbddad140	-0.106844425
170	0xbd9ef514	-0.07761589
171	0x3dafac82	0.08577825
172	0x3dc99eb5	0.09844724
173	0x3d94bd30	0.07262647
174	0xbca060ec	-0.019577466
175	0xbe0514cc	-0.12996215
176	0x3dd1d9f4	0.102466494
177	0xbe183c6d	-0.148668
178	0xbdbd6fce	-0.09249841
179	0xbc907cdc	-0.017637663
180	0x3e4601cd	0.19336624
181	0xbb445cc9	-0.002996253
182	0x3c1dae15	0.009624024
183	0x3e0f5d14	0.1400035
184	0xbc6550c2	-0.013996305
185	0x3e00a3e1	0.12562515
186	0x3dbce0f3	0.09222593
187	0x3d3c61a0	0.04599154
188	0xbd324f70	-0.04353279
189	0x3bc83e77	0.006110962
190	0xbd1d0f44	-0.038344637
191	0xbd056d66	-0.032575034
192	0x3e0190f5	0.12652953
193	0x3dfe83fd	0.124275185
194	0xbd1bf750	-0.038077652
195	0x3c3d9a64	0.011572454
196	0x3e15805b	0.14599745
197	0x3dfdf1f0	0.123996615
198	0xbbaab9ac	-0.005210122
199	0x3dbe4e1d	0.09292243
200	0x3cc3ab07	0.023885263
201	0x3e8463af	0.25857303
202	0x3ead098d	0.3379635
203	0x3df6bf19	0.12048168
204	0x3e0547a1	0.13015606
205	0xbcbe9f94	-0.023269452
206	0x3dfbb695	0.12290684
207	0x3e413603	0.1886826
208	0x3ddda8d3	0.10823216
209	0x3e282a91	0.16422488
210	0xbd5180ab	-0.051148098
211	0xbd42a8f6	-0.047524415
212	0x3e2c1b63	0.16807322
213	0xbb1eec00	-0.0024249554
214	0x3d43fe1a	0.047849752
215	0x3dcb6501	0.09931374
216	0x3e388e1d	0.18022962
217	0xbd4a541c	-0.04939662
218	0xbd49ed96	-0.049298845
219	0x3dd7f46f	0.10544669
220	0xbe051f1b	-0.13000147
221	0x3c02d98b	0.007986437
222	0x3e1a5838	0.15072715
223	0x3d1ae5c6	0.037816785
224	0x3d02a653	0.0318969
225	0x3e9384ee	0.28812355
226	0x3dc08c20	0.09401727
227	0x3da1d774	0.079024225
228	0x3df805dd	0.12110493
229	0x3dd1e691	0.10249055
230	0xbd51bcbd	-0.051205385
231	0x3da1fd24	0.07909611
232	0xbc861cb4	-0.016371109
233	0xbd060b54	-0.032725647
234	0x3e17dc2e	0.14830086
235	0x3e0dc552	0.13844803
236	0xbc997810	-0.018734008
237	0x3f0e58ea	0.5560442
238	0xba756c2c	-0.0009362127
239	0x3d2410cb	0.040055078
240	0xbc0143ce	-0.007889701
241	0x3d8944c3	0.067025684
242	0x3d88843a	0.06665845
243	0x3e1d681e	0.15371749
244	0x3dc5e45a	0.09662695
245	0xbd81caae	-0.06337486
246	0x3e205ebe	0.15661141
247	0xbb95e517	-0.004574429
248	0x3da83a6e	0.082142696
249	0x3c8c3136	0.01711331
250	0x3cf918e7	0.030407382
251	0x3e30545b	0.17219679
252	0xbd92bb35	-0.07164613
253	0x3d746f51	0.059676472
254	0x3dbbee02	0.09176256
255	0x3e40e15c	0.18835968

encoder.model.bias_hh_l0 f4 [256]
0	0x3da3bf32	0.07995452
1	0xbc8c1e86	-0.017104398
2	0x3e192e44	0.14959055
3	0x3dc14d0d	0.094385244
4	0x3e9c207f	0.30493543
5	0xba43153e	-0.0007441825
6	0xbd93afa2	-0.07211234
7	0x3e8bf388	0.27334237
8	0x3e65e0aa	0.22448984
9	0x3e32277f	0.17397879
10	0x3e4617dc	0.19345039
11	0x3d0198c7	0.03163984
12	0x3dc71e2f	0.09722554
13	0x3dc515d3	0.09623303
14	0x3dc6ef9a	0.09713669
15	0xbc1560bb	-0.009117301
16	0x3ccb47b3	0.024814462
17	0x3dc2d815	0.095138706
18	0x3dd443bb	0.10364481
19	0xbd99e60d	-0.07514582
20	0x3ce84ca3	0.028356856
21	0xbb73f03e	-0.0037222053
22	0xbd30a3d2	-0.04312498
23	0x3e25207f	0.16125678
24	0x3e02c5d7	0.12770782
25	0xbd5da371	-0.054110948
26	0x3dbefbfc	0.09325406
27	0x3d7bc9b5	0.06147166
28	0x3db4552c	0.08805308
29	0xbdcf3da8	-0.10119182
30	0x3e0c561c	0.13704723
31	0x3de38fa8	0.11111385
32	0xbddcb781	-0.10777188
33	0x3ea99b94	0.3312651
34	0x3e80a17d	0.25123206
35	0x3ced35b3	0.02895627
36	0x3d8a24d3	0.06745305
37	0x3e116789	0.14199652
38	0x3e0ce703	0.13759999
39	0x3de0101c	0.109405726
40	0x3d980e74	0.07424632
41	0x3d836c13	0.06417098
42	0x3d5eabef	0.054363187
43	0xbd485d95	-0.04891737
44	0xbd8e92f6	-0.06961624
45	0x3f094b91	0.5363093
46	0x3c98214e	0.018570568
47	0x3dd8f0ab	0.10592779
48	0xbce9f281	-0.028558018
49	0x3e27c05b	0.16381972
50	0x3e32ba3a	0.17453852
51	0x3e401508	0.18758023
52	0x3d07aea5	0.03312554
53	0x3df90c25	0.121605195
54	0x3d55bd3b	0.052182417
55	0x3d32c506	0.043644927
56	0x3e0be17e	0.13660237
57	0x3ce35215	0.0277491
58	0x3e02dca6	0.12779483
59	0x3d8ca266	0.068669125
60	0xbd3201b2	-0.043458648
61	0x3e2b2f8c	0.16717356
62	0x3df51319	0.11966533
63	0x3e87e7b3	0.2654396
64	0x3d9c6087	0.07635599
65	0x3d112a5c	0.035440788
66	0xbd2f7c93	-0.042843413
67	0x3dabf238	0.08395809
68	0xbd6d5ef5	-0.057951886
69	0xbb212093	-0.0024586066
70	0x3e18924c	0.14899558
71	0x3bc7134e	0.0060752993
72	0xbdf6d40b	-0.12052163
73	0xbe002ea9	-0.125178
74	0x3d750d1c	0.059826955
75	0x3dc923a5	0.09821252
76	0x3e0205b5	0.1269749
77	0x3de89e7b	0.11358353
78	0x3dec7d6a	0.11547358
79	0x3977272b	0.00023570347
80	0x3db7fdb6	0.089839384
81	0xbd804193	-0.06262507
82	0x3bb7f409	0.005613808
83	0xbc849056	-0.016182106
84	0xbd967f28	-0.07348472
85	0x3deb0cdc	0.11477062
86	0xbdc1f5e0	-0.09470725
87	0xbd3cef99	-0.046126936
88	0xbc4a89d2	-0.0123619605
89	0xbc8bea61	-0.017079534
90	0x3df44c57	0.11928623
91	0x3c853e21	0.016264977
92	0xbd01d5fb	-0.03169821
93	0x3da643fe	0.08118437
94	0x3d3295d3	0.043599915
95	0x3d485072	0.048904844
96	0x3d05f20b	0.032701533
97	0x3ce19c30	0.027540296
98	0xbcea51e9	-0.02860351
99	0xbd2550cc	-0.040360257
100	0xbdb98e70	-0.09060371
101	0xbc93eba2	-0.018056694
102	0xbc76250b	-0.01502348
103	0x3da6204f	0.08111631
104	0x3c2d7fa5	0.010589515
105	0x3d6f9dfc	0.058500275
106	0x3e0d1824	0.1377874
107	0x3d101193	0.03517301
108	0x3e062bd7	0.13102661
109	0xbdd1a28f	-0.10236084
110	0x3d8ca868	0.068680584
111	0xbd291de9	-0.04128829
112	0x3d513925	0.051079888
113	0x3d6080d4	0.05481036
114	0x3c7be1af	0.015373631
115	0x3d576221	0.052583817
116	0x3e07a107	0.13245021
117	0xbdcee09b	-0.10101434
118	0xbe0aafb4	-0.13543588
119	0x3d935d95	0.07195584
120	0xbcb099e3	-0.021557754
121	0xbdbf0352	-0.09326805
122	0x3d673edc	0.05645643
123	0x3df7b657	0.120953254
124	0x3d1f8fa8	0.03895536
125	0x3d830c25	0.06398801
126	0xbd08ceb7	-0.033400264
127	0x3d6f9095	0.058487494
128	0x3e211ab1	0.15732838
129	0xbd8bf1d5	-0.06833235
130	0xbda00d3c	-0.07815024
131	0x3d4fa2ac	0.050692245
132	0xbda5230d	-0.08063326
133	0x3dd36743	0.1032243
134	0xbe1230eb	-0.14276473
135	0xbdb083a7	-0.08618861
136	0x3c6f8622	0.014619382
137	0x3d055ce1	0.03255928
138	0xbdf55c75	-0.119805254
139	0xbd8219b7	-0.06352561
140	0xbd8c9cfd	-0.06865881
141	0xbdb92d98	-0.090418994
142	0x3e15a477	0.1461352
143	0xbdafa50e	-0.085764036
144	0xbd878246	-0.066166446
145	0x3dfad061	0.12246776
146	0xbca2e0a6	-0.019882511
147	0xbdcc5c91	-0.09978593
148	0xbd8afee0	-0.06786895
149	0x3dec0bb8	0.11525673
150	0xbd2736f5	-0.040823895
151	0x3d1c61b6	0.038179122
152	0x3d8f0218	0.06982821
153	0x3df46ff4	0.11935416
154	0x3dc7d9e1	0.09758354
155	0x3cdc4082	0.026886228
156	0xbdf63d9f	-0.12023472
157	0xbdf67cab	-0.12035497
158	0xbcb5a737	-0.02217446
159	0xbd98477e	-0.07435511
160	0x3dc627fe	0.09675597
161	0xbe04cf3f	-0.12969683
162	0x3d9bb404	0.07602695
163	0xbc99bb9b	-0.018766215
164	0x3c99fc73	0.018797135
165	0x3ca94454	0.020662464
166	0xbdc46f2f	-0.09591519
167	0xbda24281	-0.07922841
168	0x3c3fecb9	0.011714154
169	0x3c9fbbfe	0.019498821
170	0xbb06351b	-0.002047843
171	0xbd9ff53e	-0.07810448
172	0x3d5df998	0.05419311
173	0xbd13b525	-0.036061425
174	0x3d43fae9	0.04784671
175	0xbd6dddc8	-0.058072835
176	0x3e05aea0	0.13054895
177	0xbe172140	-0.14758778
178	0x3cbfad92	0.023398194
179	0xbde00bf4	-0.1093978
180	0xbd4a5712	-0.049399443
181	0x3cd199ba	0.025585998
182	0x3ccd109e	0.025032338
183	0x3d552ba6	0.05204358
184	0xbc48eb56	-0.01226314
185	0xb8e21405	-0.00010780249
186	0x3daae548	0.08344513
187	0xbd9fd7d2	-0.07804836
188	0xbd9b784d	-0.07591305
189	0x3db34c64	0.08754805
190	0x3d83044f	0.06397306
191	0x3d64eb8c	0.055888698
192	0x3e6951c9	0.22785105
193	0x3d179fad	0.037017513
194	0x3c9dd238	0.01926528
195	0x3e2cc29d	0.16871114
196	0x3e973c1d	0.2953805
197	0x3dd0d137	0.101961546
198	0x3de70003	0.11279299
199	0x3e541828	0.2071234
200	0x3d464681	0.04840708
201	0x3dc12e83	0.094326995
202	0x3e3b6635	0.18300708
203	0xbd872384	-0.06598571
204	0x3be02f3a	0.0068415673
205	0xbdd72fbd	-0.10507152
206	0x3e1697df	0.14706372
207	0x3d5d521d	0.054033387
208	0xbcedbad2	-0.029019747
209	0x3d774afe	0.060374252
210	0x3db193a6	0.0867074
211	0x3d74372f	0.05962294
212	0xbd7d7d4b	-0.061887067
213	0x3db716fc	0.08939931
214	0x3d8baa31	0.06819571
215	0x3de0fc37	0.10985606
216	0x3e6519c5	0.22373112
217	0x3c402363	0.011727187
218	0xbd20ddd6	-0.03927406
219	0x3d9171d7	0.07101791
220	0xbd289ac1	-0.04116321
221	0xbcf68a70	-0.030095309
222	0x3e3ecc12	0.18632534
223	0x3e037317	0.12836872
224	0xbaf261ad	-0.0018492244
225	0x3ee99f19	0.45629194
226	0x3e8bb57f	0.27286908
227	0xbd0668bc	-0.032814726
228	0x3c955471	0.018228741
229	0x3d1f270a	0.03885559
230	0x3e17210e	0.14758703
231	0xbcb049b8	-0.021519527
232	0x3e0aa129	0.1353804
233	0x3db8d5db	0.09025165
234	0x3e15f54e	0.14644358
235	0x3ded16b2	0.115765944
236	0xbcde1544	-0.02710975
237	0x3ed7365e	0.42033666
238	0x3db5be99	0.08874244
239	0xbd936c18	-0.071983516
240	0x3d9039d8	0.07042283
241	0xbd11d31c	-0.03560172
242	0x3da78261	0.08179165
243	0x3e33116b	0.17487113
244	0x3db490a0	0.088166475
245	0x3db4295c	0.08796951
246	0x3d9f9974	0.07792941
247	0x3debfedc	0.1152322
248	0x3db7616d	0.08954129
249	0x3c38cb23	0.0112789
250	0x3b8119b5	0.003939832
251	0xbc6f49d6	-0.014605006
252	0x3bfed0d6	0.00777636
253	0x3d35e4e5	0.044407744
254	0x3e3adbaa	0.18247858
255	0x3d9b8b0d	0.07594881

encoder.model.weight_ih_l1 f4 [256, 64]
0	0xbd372609	-0.044714008
1	0xbdd68844	-0.10475209
2	0xbdfa987a	-0.12236114
3	0xbd2f0590	-0.042729914
4	0xbdb67e9e	-0.08910869
5	0xbd869e25	-0.065731324
6	0xbd2c0588	-0.041997463
7	0x3d87021e	0.06592201
8	0x3de9525c	0.11392662
9	0xbc94559d	-0.01810723
10	0xbdba1045	-0.090851344
11	0x3d06b72a	0.032889523
12	0x3c29cc21	0.0103636095
13	0x3d29b299	0.04143009
14	0x3e2848f9	0.16434087
15	0xbe367baf	-0.17820619
16	0xbe322fde	-0.17401072
17	0x3d74fc8c	0.05981116
18	0xbcb42d57	-0.021994276
19	0xbd6a11db	-0.057145935
20	0x3cdc4851	0.026889952
21	0xbe021fea	-0.12707487
22	0xbe4ca202	-0.19983676
23	0xbd39baff	-0.04534435
24	0x3d0a00ef	0.033692297
25	0x3e03bdf0	0.12865424
26	0xbd9a824f	-0.07544386
27	0xbd722166	-0.059113882
28	0xbcbc8a5b	-0.023015192
29	0xbc1aa314	-0.009438295
30	0xbc411d1a	-0.0117867235
31	0x3d106028	0.03524795
32	0x3d53fbe1	0.051753882
33	0x3d2f70c4	0.04283215
34	0xba0396db	-0.00050197326
35	0x3e12bf71	0.14330842
36	0x3e17dc8f	0.1483023
37	0x3e121f4a	0.14269748
38	0x3c1a8e92	0.0094334055
39	0xbe03c5cd	-0.12868424
40	0x3c1d1359	0.009587132
41	0xbcacbc2d	-0.021085823
42	0xbd8bc6f6	-0.06825058
43	0xbe0c94b1	-0.13728596
44	0x3c8b0ab5	0.016972879
45	0x3cb2d31b	0.021829179
46	0xbd177202	-0.03697396
47	0xbc035ee3	-0.008018228
48	0x3cef758b	0.029230854
49	0xbe1e5f37	-0.15466009
50	0x3cd42a15	0.025898973
51	0xbd2b7ed9	-0.04186902
52	0x3d4781fe	0.048707955
53	0xbc899740	-0.016795754
54	0x3c1010ae	0.008793039
55	0x3e01134c	0.12605017
56	0x3c941f05	0.018081198
57	0x3dd1a813	0.10237136
58	0x3e256311	0.16151072
59	0xbe1f11e1	-0.15534164
60	0xbd7e4ac6	-0.06208303
61	0x3e4242de	0.1897082
62	0xbd72a3ce	-0.059238248
63	0xbd3ff890	-0.046867907
64	0x3c9bd07d	0.019020313
65	0x3da8aa26	0.08235578
66	0xbd95a58a	-0.07306965
67	0xbe2458b3	-0.16049461
68	0xbcbae1e3	-0.02281279
69	0xbcb393b1	-0.02192101
70	0xbdb96502	-0.09052469
71	0x3c4ccae2	0.012499543
72	0x3de05668	0.10953981
73	0xbd4b2413	-0.04959495
74	0xbd958afb	-0.07301899
75	0xbdd82f36	-0.1055588
76	0xbd14700c	-0.03623967
77	0xbdfaaa2b	-0.12239488
78	0x3c295dad	0.010337275
79	0xbc00de7b	-0.0078655435
80	0xbb9d30db	-0.004797084
81	0x3c360fe7	0.01111219
82	0x3d915366	0.07095985
83	0xbd9c0a19	-0.076191135
84	0xbcf424fe	-0.029802795
85	0xbe146b32	-0.14494017
86	0xbe23f71a	-0.1601223
87	0xbd70095e	-0.058602683
88	0xbc93d0ae	-0.018043842
89	0xbc8f3a79	-0.017483937
90	0xbd454848	-0.048164636
91	0xbd6826c8	-0.05667761
92	0xbd144c3e	-0.036205523
93	0xbd1ca497	-0.038242903
94	0xbe426c75	-0.18986686
95	0x3e283409	0.164261
96	0x3db48f06	0.08816342
97	0x3d8bac2f	0.06819951
98	0x3d793e85	0.06085064
99	0xbd5f9140	-0.05458188
100	0xbded5fdd	-0.1159055
101	0x3c6c2a7a	0.014414424
102	0xbe53075f	-0.2060828
103	0xbe165ff1	-0.14685036
104	0x3dd58fcd	0.104278184
105	0x3ce0b7b6	0.02743135
106	0xbd1e6fff	-0.038681027
107	0x3be156c8	0.0068768
108	0xbd951992	-0.07280268
109	0x3dc92304	0.09821132
110	0x3e29e0da	0.1658968
111	0xbe1bf62e	-0.15230629
112	0x3e0fad0a	0.14030853
113	0x3da493fe	0.0803604
114	0xbe25b696	-0.16182932
115	0xbd458aaa	-0.048227943
116	0x3d98844d	0.07447109
117	0xbe1178de	-0.14206263
118	0xbe058dd5	-0.13042386
119	0x3da4d41b	0.080482684
120	0x3c9a7e84	0.018859155
121	0x3d1b281a	0.03788004
122	0x3d883144	0.06650022
123	0xbd87da4c	-0.06633434
124	0x3c9420df	0.01808208
125	0x3de22d6d	0.110438205
126	0xbdb49118	-0.08816737
127	0xbd8f7f2e	-0.070066795
128	0x3ed37e83	0.41307458
129	0xbde3247c	-0.11090943
130	0xbd6b1344	-0.05739142
131	0xbdadb622	-0.08482005
132	0xbe314224	-0.17310387
133	0xbcbf9b2f	-0.023389427
134	0x3cd96ae0	0.02654022
135	0xbdf87353	-0.12131371
136	0xbd06ca92	-0.03290803
137	0x3df19734	0.11796418
138	0xbdaabed2	-0.08337177
139	0xbdf07a8b	-0.11742123
140	0xbd5894c4	-0.05287625
141	0xbb83ccdb	-0.0040222234
142	0x3db7f055	0.089813866
143	0x3defd5d3	0.117107056
144	0x3b3a5bb5	0.002843601
145	0x3e4baf86	0.19891176
146	0xbe133330	-0.14374995
147	0xbcd6afdb	-0.026206901
148	0xbd050824	-0.032478467
149	0x3df35e43	0.11883213
150	0x3a183568	0.0005806298
151	0x3dd274cb	0.10276183
152	0xbca1ad15	-0.019735852
153	0x3e111a9e	0.1417031
154	0x3dbe9ed4	0.09307638
155	0x3d3a6c7b	0.04551361
156	0x3d87c8e0	0.06630111
157	0xbddf170e	-0.10893069
158	0xbe88218f	-0.26588103
159	0x3d35629d	0.044283498
160	0x3ccd29de	0.025044378
161	0xbe2214cd	-0.15828247
162	0x3eaf554e	0.3424477
163	0x3d97691e	0.073930964
164	0xbd79f947	-0.061028745
165	0xbc8eab85	-0.017415771
166	0xbe27c595	-0.16383965
167	0xbd801bd1	-0.062553056
168	0xbd9820b5	-0.07428113
169	0xbd8e83f9	-0.069587655
170	0xbe268c42	-0.16264442
171	0xbe3bfe25	-0.18358667
172	0x3d85e68c	0.06538114
173	0x3e77f5b0	0.24214816
174	0x3ca7fb9d	0.02050572
175	0x3d24403e	0.04010033
176	0x3dd5cfba	0.10440011
177	0xbd1fd3ed	-0.039020468
178	0xbd99098c	-0.07472524
179	0xbe01c60f	-0.1267321
180	0x3d57d33a	0.052691676
181	0xbcb2756a	-0.021784503
182	0xbd9848d5	-0.074357666
183	0x3aee1902	0.0018165412
184	0xbd382657	-0.04495844
185	0x3e22e601	0.15908052
186	0xbe1a6891	-0.15078951
187	0xbc1a9b97	-0.00943651
188	0x3dc675ed	0.09690461
189	0x3e77296d	0.24136896
190	0xbda5e8ea	-0.081010655
191	0xbe466060	-0.19372702
192	0x3c5f793a	0.0136397425
193	0xbdc7f634	-0.097637564
194	0xb9caf5e0	-0.00038711634
195	0xbdeac9aa	-0.114642456
196	0xbe3a404b	-0.18188588
197	0xbd52d3b4	-0.051471427
198	0xbd8e2985	-0.06941513
199	0xbe74d6e5	-0.23910101
200	0xbbad49f9	-0.0052883592
201	0x3e1ca68e	0.1529791
202	0xbe199507	-0.14998256
203	0xbe262889	-0.162264
204	0xbdd2cebc	-0.10293338
205	0xbdfe2590	-0.12409508
206	0x3e5e3c2d	0.21702643
207	0xbe82060b	-0.25395235
208	0xbe45ae33	-0.19304733
209	0x3e6a381f	0.22872971
210	0xbc928c66	-0.017889213
211	0xbe84be3b	-0.25926384
212	0xbdc9d7b2	-0.09855594
213	0xbe141583	-0.14461331
214	0xbe124ad2	-0.14286354
215	0x3dc9d7ea	0.098556355
216	0xbe12b85a	-0.14328137
217	0x3e0961c9	0.13416208
218	0x3e8b7078	0.27234244
219	0x3dfe104f	0.12405454
220	0xbcbd9a6c	-0.023144923
221	0x3d9ee5be	0.077586636
222	0xbe7db631	-0.24776532
223	0x3e5572da	0.20844594
224	0x3d93d7ec	0.07218918
225	0x3da56e2e	0.08077656
226	0x3e304494	0.1721366
227	0x3d005d48	0.03133896
228	0x3c60b38f	0.013714685
229	0x3df03a8f	0.11729919
230	0xbc9387b9	-0.018009054
231	0xbe7ff352	-0.24995163
232	0x3bc535d8	0.0060183816
233	0xbe5a395c	-0.21310943
234	0xbe0c644d	-0.13710137
235	0x3e1ac4c2	0.1511412
236	0x3e5d1abf	0.21592234
237	0x3e35c829	0.17752136
238	0x3c8cb854	0.017177738
239	0xbe1df692	-0.1542609
240	0x3d5adcf3	0.05343337
241	0xbe6543a4	-0.22389084
242	0xbdfe87a7	-0.124282174
243	0xbdda7e29	-0.106685944
244	0x3e628ef8	0.22124851
245	0xbc35a09e	-0.011085657
246	0xb80d38eb	-3.367003e-05
247	0x3e4af2ce	0.19819185
248	0xbe85cf3e	-0.26134676
249	0x3df7e802	0.12104799
250	0x3d2379cf	0.039911088
251	0x3d91a738	0.071119726
252	0xbd9aafeb	-0.07553085
253	0x3d6d7891	0.05797631
254	0xbd299716	-0.041403852
255	0xba6ee0e0	-0.00091124885

encoder.model.weight_hh_l1 f4 [256, 64]
0	0x3d0fcc52	0.035106964
1	0x3e30b598	0.17256773
2	0x3c75026e	0.014954193
3	0x3d3b74ce	0.04576569
4	0x3de5f65a	0.112286285
5	0xbd0dafa1	-0.03459132
6	0xbdf25935	-0.11833421
7	0xbe45a8d9	-0.19302692
8	0x3c58c0ea	0.013229588
9	0xbd39fc47	-0.045406606
10	0x3e111d83	0.14171414
11	0xbdda387e	-0.10655306
12	0xbc8673e8	-0.01641269
13	0x3be241be	0.0069048097
14	0x3d806650	0.062695146
15	0xbe24aa60	-0.16080618
16	0xbe355497	-0.1770805
17	0xbbcfcd45	-0.0063416087
18	0x3d3527af	0.0442273
19	0xbd130548	-0.03589371
20	0x3d92a973	0.07161226
21	0x3d8187fd	0.06324766
22	0x3ae76069	0.0017652634
23	0xbdcfdcc7	-0.10149532
24	0xbd29c221	-0.0414449
25	0xbd809bea	-0.06279738
26	0x3e16668d	0.14687558
27	0xbd509269	-0.050920878
28	0x3d8a1d9a	0.06743927
29	0x3e44054c	0.19142646
30	0xbde2d676	-0.110760614
31	0x3c4fe4b6	0.012688806
32	0x3d859105	0.06521801
33	0x3d13e519	0.036107156
34	0x3d5c5285	0.053789634
35	0x3d9a1595	0.07523648
36	0xbd22e048	-0.039764673
37	0xbd706a2b	-0.058695
38	0x3db61cf3	0.088922404
39	0x3d184e77	0.037184205
40	0xbd1bb8a4	-0.038017884
41	0xbd95d461	-0.07315899
42	0xbd15a48c	-0.036533877
43	0x3cda5103	0.026649958
44	0x3de049f5	0.10951606
45	0x3bd88cf7	0.006608601
46	0x3cade36a	0.021226604
47	0x3cd6630f	0.026170282
48	0xbe2ddfc3	-0.1697989
49	0x3d0ce0ba	0.034394003
50	0x3dd8762e	0.10569416
51	0x3d218e82	0.039442547
52	0xba8d14ab	-0.0010763606
53	0x3d55d02e	0.05220049
54	0x3deebf1a	0.116575435
55	0xbc8af6c7	-0.016963376
56	0x3d9511f5	0.07278816
57	0xbbfd05aa	-0.0077216225
58	0x3d7cca70	0.061716497
59	0xbd00fb8e	-0.0314899
60	0x3db936fe	0.09043692
61	0xbc8fdc78	-0.017561182
62	0x3d1754ee	0.03694623
63	0xbc173054	-0.009227831
64	0x3de19ae5	0.11015872
65	0xbc95b7e2	-0.018276159
66	0xbdbfd74f	-0.09367239
67	0xbc98736e	-0.018609729
68	0xbe09fc6e	-0.134752
69	0xbe2d5129	-0.16925491
70	0x3d5232e3	0.05131806
71	0x3d10fb3a	0.03539584
72	0xbd5ceb55	-0.053935368
73	0xbe1fbca3	-0.15599303
74	0x3cc780d9	0.024353432
75	0x3d83ff59	0.06445188
76	0xbd97588e	-0.07389937
77	0xbe05a753	-0.1305211
78	0x3e3e5a78	0.18589199
79	0x3dc9061d	0.09815619
80	0xbde54e3c	-0.11196563
81	0xbc8281dd	-0.015931064
82	0x3e1920d4	0.14953929
83	0xbdc63d62	-0.096796766
84	0xbdb0b1d5	-0.08627669
85	0xbd29e8ec	-0.041481897
86	0x3ddb8f36	0.10720675
87	0xbd890366	-0.06690101
88	0xbdc35409	-0.09537513
89	0xbd923886	-0.07139687
90	0x3c885453	0.016641771
91	0xbd9ab32f	-0.07553708
92	0x3ea722a0	0.32643604
93	0xbd4d385a	-0.05010257
94	0xbca3913b	-0.019966712
95	0x3d52b5a8	0.051442772
96	0xbc8d078d	-0.017215515
97	0xbdb097fa	-0.08622737
98	0x3e2cd011	0.16876246
99	0x3e86a0e2	0.2629462
100	0x3d5278a9	0.0513846
101	0xbdb88e0a	-0.09011467
102	0x3dbea80a	0.09309395
103	0x3ddb2bbe	0.107017025
104	0xbdfbeb6c	-0.123007625
105	0xbe6c2252	-0.23059967
106	0xbcbc7e50	-0.02300945
107	0xbe440e2d	-0.19146033
108	0x3dd9662b	0.1061519
109	0xbe393995	-0.18088372
110	0xbb4d852b	-0.0031359892
111	0xbb9956b9	-0.0046795276
112	0xbe1caef0	-0.15301108
113	0x3e065ea3	0.13122039
114	0x3d510421	0.05102933
115	0x3ddca11a	0.10772915
116	0x3d0f84d6	0.03503879
117	0xbe0612fb	-0.13093178
118	0x3d98b28c	0.0745593
119	0x3d98f4a7	0.07468539
120	0xbb63eff6	-0.003478048
121	0xbcb8954f	-0.022532133
122	0x3e725962	0.2366691
123	0x3da12ae6	0.0786951
124	0x3e68690a	0.22696319
125	0xbd9f16ff	-0.07768058
126	0xbd733c6c	-0.059383795
127	0xbdb5e326	-0.08881216
128	0x3e3e2203	0.18567662
129	0x3e173537	0.14766394
130	0x3d675c3c	0.056484446
131	0xbe245f36	-0.16051945
132	0x3d2439ee	0.04009431
133	0x3dcdac3e	0.10042618
134	0xbd8403b6	-0.0644602
135	0xbe16e2e0	-0.14734983
136	0x3dbb691e	0.09150909
137	0xbdd59988	-0.104296744
138	0x3dab4a5d	0.08363793
139	0x3e0fb695	0.14034493
140	0x3d4122de	0.047152393
141	0xbd33737b	-0.043811303
142	0x3def84a9	0.11695225
143	0x3da056c9	0.07829053
144	0x3c940cb2	0.01807246
145	0xbcec4513	-0.02884153
146	0x3c4a1376	0.012333741
147	0xbce1c929	-0.027561741
148	0xbe89f3c5	-0.26943794
149	0x3d147a67	0.036249544
150	0x3d9d0590	0.076670766
151	0x3c2df193	0.010616678
152	0xbda473ab	-0.080298744
153	0xbd5e6870	-0.054298818
154	0x3ce8adbf	0.028403161
155	0xbd8fa6da	-0.07014246
156	0xbcaaf24b	-0.020867487
157	0x3e1340ac	0.14380139
158	0x3bd422fb	0.0064738966
159	0x3d87e362	0.06635167
160	0x3da8b720	0.08238053
161	0xbe1aae2c	-0.15105504
162	0xbd87fc22	-0.066398874
163	0x3e354f8e	0.17706129
164	0x3c39124f	0.011295869
165	0xbdccbbae	-0.099967346
166	0xbbe1b5e4	-0.006888138
167	0x3db22e54	0.08700243
168	0xbe067c17	-0.13133274
169	0xbd063dbc	-0.03277372
170	0x3d2a486d	0.041572977
171	0x3dda5dd9	0.10662431
172	0xbcbefe29	-0.023314552
173	0xbd0ec56e	-0.034856252
174	0xbd922f96	-0.071379825
175	0xbd8369c8	-0.064166605
176	0xbda200b5	-0.07910291
177	0x3e0c7463	0.13716273
178	0xbe211216	-0.15729555
179	0x3d822a4f	0.06355726
180	0x3e076928	0.13223708
181	0xbe0b22e4	-0.13587528
182	0xbd27c3e7	-0.04095831
183	0x3df30f62	0.118681684
184	0xbd05d6af	-0.03267544
185	0x3d2b9ee1	0.041899566
186	0x3d3963fb	0.045261364
187	0x3e11384e	0.14181635
188	0xbca2a657	-0.019854708
189	0x3d3af3b7	0.04564258
190	0x3d4c1ac9	0.04983023
191	0x3da0ad9f	0.078456156
192	0x3e91b176	0.28455704
193	0x3d83ef9b	0.064421855
194	0xbb2a280d	-0.0025963814
195	0xbd2a77cf	-0.041618165
196	0xbded41d8	-0.11584824
197	0xbe127e7f	-0.14306067
198	0x3a53af42	0.00080751267
199	0xbcdf10a3	-0.027229613
200	0xbdef4433	-0.1168293
201	0xbd9047c9	-0.07044942
202	0x3defb16f	0.11703765
203	0x3e5e6e0b	0.21721666
204	0xbd27e0f6	-0.040986024
205	0xbe1ba27b	-0.151987
206	0x3e062e32	0.1310356
207	0x3e46d118	0.194157
208	0x3d11be5d	0.035581935
209	0x3db7f142	0.08981563
210	0xbe02d0b2	-0.12774923
211	0xbd043b72	-0.032283254
212	0xbd3ff49f	-0.04686415
213	0xbe395117	-0.1809734
214	0x3d5d18d5	0.05397876
215	0xbd0dfbf4	-0.03466411
216	0xbdf0d4b0	-0.11759317
217	0x3cfe7bec	0.03106495
218	0xbd38d811	-0.045127932
219	0x3bbcf393	0.005766341
220	0x3d4f0ffb	0.05055235
221	0x3e0ca7ca	0.13735881
222	0xbcf5dd79	-0.030012833
223	0x3e1e6850	0.1546948
224	0xbd224c21	-0.039623383
225	0x3d09ba0c	0.033624694
226	0x3dc7c154	0.09753671
227	0x3e34e3e7	0.17665063
228	0x3d24214b	0.040070813
229	0xbdcac2b6	-0.099004194
230	0x3cd6634a	0.026170392
231	0xbdbcdb93	-0.09221568
232	0xbd8b62fa	-0.06805988
233	0x3c1b51ae	0.009479923
234	0xbe78772d	-0.24264212
235	0xbe65ee6e	-0.22454235
236	0xbcb26852	-0.02177826
237	0xbdfc7bb2	-0.123282805
238	0x3ddc78fe	0.10765265
239	0x3e463951	0.19357802
240	0xbe54a715	-0.20766862
241	0x3e2683f4	0.16261274
242	0x3d32f966	0.043694876
243	0xbd6b30d7	-0.057419624
244	0x3c575ab6	0.013144186
245	0x3d8e4acc	0.0694786
246	0x3d17eb9b	0.037089925
247	0xbb942ee1	-0.00452219
248	0x3dad8b58	0.08473843
249	0xbd87276b	-0.06599315
250	0x3d0a4a91	0.03376252
251	0x3d933223	0.07187297
252	0x3df28a9b	0.11842843
253	0x3bc3389f	0.0059576775
254	0xbd30119f	-0.042985555
255	0xbe8011e2	-0.25013644

encoder.model.bias_ih_l1 f4 [256]
0	0x3d65d16d	0.056107927
1	0x3d547a0c	0.051874205
2	0xbb9e5a30	-0.0048325285
3	0x3e759390	0.23982072
4	0x3d2b770f	0.04186159
5	0x3e06256a	0.1310021
6	0x3d737674	0.059439138
7	0xbb9590bd	-0.0045643733
8	0x3db2c67f	0.087292664
9	0x3e885d94	0.26633894
10	0x3dfa7505	0.12229351
11	0x3e09aecf	0.1344559
12	0x3dad6539	0.08466572
13	0x3da9c589	0.0828963
14	0xbcdc45ea	-0.026888806
15	0x3e2552f2	0.16144922
16	0x3f1c4fa2	0.6105901
17	0xbd40283d	-0.046913374
18	0x3d4dec87	0.0502744
19	0xbd13de62	-0.036100753
20	0x3f143307	0.5789036
21	0x3e007628	0.12545073
22	0xbd850617	-0.06495302
23	0x3cb12955	0.021626154
24	0x3e9eea3f	0.3103809
25	0x3da1517f	0.07876872
26	0x3e2a5e6e	0.16637585
27	0x3e24b470	0.16084456
28	0x3ca6cb10	0.0203605
29	0x3e2b3b64	0.16721874
30	0x3e8c9066	0.27453917
31	0x3e9661a6	0.29371375
32	0x3d73a8fe	0.059487335
33	0x3e43f60a	0.19136825
34	0x3e10c0c6	0.14136037
35	0xb92be0cb	-0.00016391573
36	0x3d141582	0.036153324
37	0xbd27d6b9	-0.04097626
38	0x3c3dcac6	0.0115839895
39	0xbd105ed0	-0.03524667
40	0xbdba99cb	-0.09111365
41	0x3d52f0d3	0.0514992
42	0xbd2e4cf3	-0.042553853
43	0xbd8e9601	-0.06962205
44	0xbd2ac205	-0.041688938
45	0xbd5911ba	-0.05299542
46	0x3e0ae302	0.13563159
47	0xbd3a5f95	-0.04550131
48	0x3df0a71a	0.11750622
49	0x3daa9e26	0.08330946
50	0x3e416a4a	0.18888202
51	0x3e45b22d	0.1930625
52	0x3e47554b	0.1946613
53	0xbc9892a6	-0.018624615
54	0x3deccf56	0.11562984
55	0x3de19f84	0.11016753
56	0x3e8055f6	0.25065583
57	0x3e1fe9c9	0.15616526
58	0x3dd47f49	0.1037584
59	0x3c5d35f0	0.013501629
60	0x3c2aec47	0.0104323095
61	0xbc8c820d	-0.017151857
62	0xbd9d5014	-0.07681289
63	0xbdafc10c	-0.08581743
64	0x3d881f4c	0.066465944
65	0x3ddd586f	0.10807883
66	0xbdde77cf	-0.108626954
67	0x3e0da6e7	0.138332
68	0xbd8cfb7f	-0.068839066
69	0xbdf339d1	-0.11876262
70	0xbd9e7f5a	-0.07739134
71	0xbd5a405f	-0.053284045
72	0xbd96a1a8	-0.07355052
73	0xbe110a22	-0.14164022
74	0xbd388b59	-0.045054767
75	0x3d8b2a44	0.06795171
76	0xbd519798	-0.05116996
77	0xbbfcbae3	-0.0077127083
78	0x3c8a350a	0.016870994
79	0x3d0ecb53	0.034861874
80	0xbd1716b5	-0.03688689
81	0xbd8f81c8	-0.07007176
82	0x3e1cce76	0.15313134
83	0x3db510dc	0.08841106
84	0xbd99261e	-0.074779734
85	0xbd45a9d5	-0.048257668
86	0x3cfcdcf4	0.030867077
87	0x3dfe6358	0.12421292
88	0x3d8a77b3	0.06761112
89	0x3d9bf380	0.07614803
90	0xbd4befc5	-0.04978921
91	0xbd6b1f98	-0.057403177
92	0xbe00dde1	-0.1258464
93	0x3d880cd9	0.066430755
94	0x3d2ef0af	0.042710003
95	0x3d3c776c	0.046012327
96	0xbe02bcaf	-0.1276729
97	0x3db95942	0.09050228
98	0xbd0dab5d	-0.034587253
99	0xbd04fd94	-0.032468393
100	0x3ddc75fb	0.107646905
101	0xbd8061a5	-0.06268624
102	0x3d255328	0.040362507
103	0x3d881c46	0.06646018
104	0x3dc2feb0	0.09521234
105	0x3dbcc24e	0.09216748
106	0xbddd8472	-0.108162776
107	0xbcae8483	-0.02130342
108	0x3dd842c5	0.1055961
109	0xbdb51dfc	-0.0884361
110	0x3d31f5b1	0.0434472
111	0xbd78d3c0	-0.060748816
112	0x3d9d6680	0.07685566
113	0x3d073b9c	0.033015832
114	0x3e3c075a	0.1836218
115	0xbc14f3ec	-0.009091359
116	0xbc080068	-0.008300878
117	0x3ad191cf	0.0015988889
118	0xbc82d22d	-0.01596936
119	0x3e369fae	0.1783435
120	0x3bb95990	0.0056564286
121	0xbded2ef7	-0.115812235
122	0xbd4da251	-0.050203625
123	0xbc52e626	-0.0128722545
124	0x3dbda455	0.092598595
125	0x3bacdd93	0.005275437
126	0xbd984ebf	-0.074368946
127	0x3b966e9d	0.004590823
128	0x3df00b85	0.11720947
129	0xbc50a40d	-0.012734425
130	0x3b208bf5	0.0024497483
131	0xbdaddb75	-0.08489124
132	0xbdfbcaff	-0.12294578
133	0xbd960b4f	-0.07326376
134	0xbd057513	-0.032582354
135	0x3c3c03a4	0.011475477
136	0xbc25f323	-0.010128769
137	0xbdb2efae	-0.087371215
138	0x3cf8777f	0.030330418
139	0x3d73b7d9	0.059501503
140	0xbcb313a9	-0.02185996
141	0xbe0c1220	-0.13678789
142	0x3cc9b897	0.024624152
143	0x3db7a384	0.08966735
144	0xbdb7bfad	-0.08972106
145	0xbd7824cc	-0.060581967
146	0xbd5a3d39	-0.053281043
147	0xbe471576	-0.1944178
148	0x3d55a10e	0.052155547
149	0xbd1b4f55	-0.037917454
150	0xbd0e3082	-0.03471423
151	0x3d46e35b	0.048556667
152	0xbe85e924	-0.26154435
153	0x3dfcc3ae	0.123420104
154	0xbcbdba13	-0.023160016
155	0xbc19cf94	-0.009387869
156	0x3dabb28c	0.083836645
157	0x3b9b779a	0.004744482
158	0xbcb3f4f8	-0.021967396
159	0x3c98c86d	0.018650258
160	0x3d4a6e2f	0.049421486
161	0x3d547a22	0.051874287
162	0x3ef09f75	0.46996656
163	0x3e032727	0.12807904
164	0x3d6c82b8	0.05774185
165	0xbd9e224b	-0.077213846
166	0xbc884a4a	-0.016636986
167	0x3d8a1120	0.067415476
168	0xbc87b004	-0.016563423
169	0xbb571d9e	-0.003282405
170	0xbddab5a1	-0.10679174
171	0x3d36d8a0	0.044640183
172	0xbd89a562	-0.067209974
173	0x3ca86047	0.020553721
174	0xbd7176dd	-0.058951247
175	0xbcbe8203	-0.023255354
176	0xbe273c95	-0.16331704
177	0x3dd1af63	0.102385305
178	0xbadfeab8	-0.0017083501
179	0xbbfb0e7e	-0.0076616397
180	0x3df0d823	0.11759975
181	0x3de0d53c	0.10978171
182	0x3e020713	0.12698011
183	0x3d479b63	0.048732173
184	0x3d277615	0.040884096
185	0x3d0a08ed	0.03369992
186	0x3e0adf10	0.13561654
187	0xbce01675	-0.027354458
188	0x3ccbc87f	0.024875877
189	0x3c25dd97	0.010123632
190	0x3d8ed95a	0.0697505
191	0xbdfe3134	-0.124117285
192	0x3da6a3d3	0.08136716
193	0x3d4e39cc	0.05034809
194	0x3db88257	0.09009235
195	0x3e82a6aa	0.2551778
196	0x3dc8061c	0.0976679
197	0xbd535546	-0.051594995
198	0xbd1e00a2	-0.038574822
199	0xbd67454e	-0.05646258
200	0x3c71aeed	0.014751178
201	0x3dae5219	0.08511753
202	0x3d7dae49	0.06193379
203	0x3e8120bc	0.25220287
204	0xbd9845c2	-0.0743518
205	0xbde2b1cb	-0.110690676
206	0x3e2ee1d9	0.17078342
207	0x3d580966	0.052743338
208	0x3f2cc650	0.674901
209	0x3c2e7d06	0.010649925
210	0x3b6c92bc	0.0036098203
211	0x3e186a28	0.14884245
212	0x3ef9580d	0.4869999
213	0xbd1ddd5f	-0.038541194
214	0xbc9da191	-0.01924208
215	0xbd94bf01	-0.072629936
216	0x3ddad9e2	0.10686089
217	0x3cbdce83	0.023169762
218	0x3e0f60ae	0.14001724
219	0x3e1f0595	0.15529473
220	0x3e134196	0.14380488
221	0x3dd72b91	0.105063565
222	0xbd03c094	-0.03216608
223	0x3eda2c23	0.426118
224	0x3e319337	0.17341314
225	0x3d4ea367	0.0504488
226	0xbdd8bc39	-0.105827756
227	0x3e304485	0.17213638
228	0x3d68baa7	0.05681863
229	0x3dbbc863	0.0916908
230	0x3c5b8cfa	0.013400311
231	0xbd1bec01	-0.038066868
232	0x3e10d7d5	0.14144833
233	0x3d3ff6c7	0.046866205
234	0xbd860a7f	-0.06544971
235	0x3c926777	0.017871602
236	0x3e294d30	0.16533351
237	0xbd10712d	-0.035264183
238	0x3d69e449	0.057102475
239	0xbd90d622	-0.070720926
240	0x3d8d5649	0.06901223
241	0x3dd39bed	0.10332475
242	0x3e23d0a1	0.15997554
243	0x3d560bd7	0.052257385
244	0x3dc5376f	0.09629714
245	0x3deb58f6	0.11491577
246	0x3de0fb60	0.10985446
247	0x3e50b4c2	0.20381454
248	0x3d35ab54	0.044352844
249	0xbc78ed58	-0.015193306
250	0x3d9a396a	0.07530482
251	0x3e21e23c	0.15808958
252	0x3e175a3d	0.14780517
253	0x3e25ba66	0.16184387
254	0x3e0e2470	0.13881087
255	0x3e09672d	0.13418265
