models/20200923_212102/epoch_1800_loss_489.93278.pt (torch, 857809 bytes, 96 tensors)

encoder.model.weight_ih_l0 f4 [256, 3]
-0.23493996 0.029780421 -0.043672133 0.051345993 0.2913821 0.16394725 -0.021755945 0.029537344
0.16231237 0.005835399 0.25070456 -0.051647287 0.05055083 -0.07126642 0.101046085 -0.30846927
0.37999892 -0.04301687 -0.68377167 -0.0067979484 0.13673191 0.06156708 0.10605419 0.14632057
-0.65215796 0.024882644 -0.3490266 -0.29226044 0.029025258 0.149326 -0.51288986 0.12763287
0.64528745 -0.26270398 -0.101815924 -0.2682388 -0.06621198 -0.12335543 -0.007847456 -0.16046453
-0.4310258 -0.3563336 -0.35772645 -0.10058182 0.12579885 -0.3238865 0.031318367 -0.17620432
-0.31138116 0.020168774 -0.17013492 -0.006406676 0.050170247 0.09829909 -0.55075365 0.11991605
-0.107918836 -0.24490035 -0.22586398 -0.16009055 -0.019892607 -0.23465674 -0.049840912 0.05316608
0.06759675 0.036069922 -0.20837629 -0.6784509 -0.566001 0.047936708 -0.028907847 0.10479514
0.14043403 0.00044563354 -0.00751381 -0.21284427 -0.074591056 -0.7233822 -0.2654587 -0.25140825
-0.051557627 -0.03192335 -0.042726427 -0.04847758 0.04096895 0.002398155 -0.035501942 -0.33923176
0.3166367 -0.021239955 -0.32384416 0.06858628 0.12122065 -0.560833 -0.024237458 0.18306689
-0.18608288 0.07255458 -0.033493236 -0.24373889 0.2518187 0.07647449 -0.13507408 0.19167681
0.0034982986 -0.3872451 -1.0682461 -0.51621485 0.007824835 -0.038683075 0.11510581 0.08667553
0.106329694 -0.02032635 0.0070039653 -0.116288826 -0.021921115 0.13329034 -0.10640992 0.11140169
-0.06270545 -0.7008778 -0.49322918 -0.11631971 -0.42386323 -0.09628792 -0.11013873 0.21062672
0.6467795 -0.2883126 -0.030604709 -0.19948205 -0.16233394 0.27004045 -0.068875566 0.40796313
0.14849183 0.65743846 -0.15673162 -0.32600042 -0.21131654 -0.14154662 -0.19597441 0.09642217
-0.25531396 0.20029669 0.26793575 -0.39978945 0.21137777 0.016242122 0.10378886 -0.13903296
-0.18768357 -0.0548582 0.10036094 0.14333701 -0.69046766 -0.23805176 -0.58018917 -0.124963045
0.098393545 0.031799532 -0.36268085 -0.046009954 0.20635177 -0.17388764 -0.05899257 0.14874195
-0.202165 -0.05734349 -0.068052046 -0.44941202 -0.102662325 -0.3418511 0.10882741 0.15981443
0.25000364 -0.13545229 0.11544261 0.32495686 -0.62609375 -0.124761306 -0.31317672 0.15697433
-0.14936508 0.16934869 -0.03952932 0.095832005 0.07300047 0.21815887 0.16641504 0.95628583
-0.11945323 -0.13877183 0.120952964 0.13087605 -0.2118848 0.44160897 -0.2328918 -0.03963745
-0.012114817 -0.14290985 0.15964876 -0.08987407 -0.081384115 -0.28896368 0.11884453 -0.37283483
0.20079572 0.62315977 -0.71776986 -0.08353534 0.15859379 -0.3710723 -0.44896162 -0.32562318
-0.009897107 -0.26498067 -0.67664325 -0.60066986 0.14610684 0.11105784 -0.09633474 0.007944558
0.38189527 0.16145827 -0.23113796 -0.024714626 0.08763076 -0.115080185 -0.09005142 -0.22329625
-0.4432677 -0.20552659 -0.30933493 -0.4349941 -0.45505986 -0.1258586 0.43764174 -0.026719509
-0.28454548 0.1668465 0.060507704 -0.10897118 -0.35052326 -0.1696174 -0.07302373 -0.06549122
-0.23238945 -0.4161949 0.043461893 -0.2646434 0.08252068 -0.057990383 0.061928812 -0.20734917
00000000: 1a94 70be 12f6 f33c 8de1 32bd 2d50 523d
00000010: 0930 953e cae1 273e 8639 b2bc 4df8 f13c
00000020: 3735 263e e036 bf3b 595c 803e 1b8c 53bd
00000030: 630e 4f3d 21f4 91bd 40f1 ce3d afef 9dbe
00000040: 388f c23e 7532 30bd a90b 2fbf 53c1 debb
00000050: 7303 0c3e c32d 7c3d f032 d93d 0fd5 153e
00000060: d3f3 26bf b0d6 cb3c 9db3 b2be 29a3 95be
00000070: 61c6 ed3c eae8 183e c04c 03bf 31b2 023e
00000080: 8f31 253f 2381 86be de84 d0bd 9956 89be
00000090: 269a 87bd c6a1 fcbd 9e92 00bc d050 24be
000000a0: 6aaf dcbe 5c71 b6be ec27 b7be d7fd cdbd
000000b0: 6ad1 003e 74d4 a5be b047 003d e86e 34be
000000c0: 5a6d 9fbe fc38 a53c d937 2ebe 18ef d1bb
000000d0: 517f 4d3d 0951 c93d 31fe 0cbf 8c96 f53d
000000e0: 8d04 ddbd 28c7 7abe e348 67be c7ee 23be
000000f0: d2f5 a2bc db49 70be fc25 4cbd adc4 593d
00000100: 2a70 8a3d 0ebe 133d 9860 55be f5ae 2dbf
00000110: 71e5 10bf 4859 443d 26d0 ecbc d69e d63d
00000120: f0cd 0f3e eca3 e939 6836 f6bb d9f3 59be
00000130: 32c3 98bd 932f 39bf 34ea 87be 95b8 80be
00000140: 172e 53bd 0fc2 02bd e801 2fbd 6d90 46bd
00000150: 0fcf 273d 5d2a 1d3b 7c6a 11bd c9af adbe
00000160: 351e a23e 6aff adbc e7ce a5be f776 8c3d
00000170: 8842 f83d c092 0fbf a28d c6bc e375 3b3e
00000180: 838c 3ebe 7f97 943d 3430 09bd b096 79be
00000190: 61ee 803e a89e 9c3d dc50 0abe ed46 443e
000001a0: b643 653b fd44 c6be 4abc 88bf a826 04bf
000001b0: bd33 003c 2572 1ebd 98bc eb3d f182 b13d
000001c0: 62c3 d93d 7283 a6bc 8581 e53b d628 eebd
000001d0: e993 b3bc 437d 083e 72ed d9bd 9226 e43d
000001e0: b76b 80bd ba6c 33bf 8988 fcbe 0739 eebd
000001f0: 9a04 d9be 9a32 c5bd 6a90 e1bd 88ae 573e
00000200: 5793 253f b69d 93be bab6 fabc 0645 4cbe
00000210: de3a 26be be42 8a3e a20e 8dbd 8be0 d03e
00000220: 3e0e 183e e34d 283f 417e 20be 87e9 a6be
00000230: 5d63 58be 99f1 10be 84ad 48be fd78 c53d
00000240: 83b8 82be 931a 4d3e e02e 893e 34b1 ccbe
00000250: 6a73 583e 330e 853c 418f d43d a85e 0ebe
00000260: 1f30 40be feb2 60bd 098a cd3d f0c6 123e
00000270: 7dc2 30bf d7c3 73be 4787 14bf a0ec ffbd
00000280: 8e82 c93d 3a40 023d 4eb1 b9be ef74 3cbd
00000290: e14d 533e 9a0f 32be 31a2 71bd cf4f 183e
000002a0: 5704 4fbe 02e1 6abd df5e 8bbd 5519 e6be
000002b0: a040 d2bd 1b07 afbe e8e0 de3d 65a6 233e
000002c0: 7a00 803e 01b4 0abe 2d6d ec3d bf60 a63e
000002d0: ae47 20bf db82 ffbd b358 a0be e1bd 203e
000002e0: 29f3 18be be69 2d3e 7fe9 21bd 9243 c43d
000002f0: 4581 953d 0a65 5f3e b468 2a3e 26cf 743f
00000300: e5a3 f4bd 341a 0ebe 30b6 f73d 5f04 063e
00000310: 54f8 58be 921a e23e 307b 6ebe e15a 22bd
00000320: 3a7d 46bc f656 12be f77a 233e e50f b8bd
00000330: b7ac a6bd 0cf3 93be c364 f33d 35e4 bebe
00000340: 659d 4d3e 6687 1f3f c4bf 37bf 9414 abbd
00000350: 6966 223e 30fd bdbe 4cde e5be 15b8 a6be
00000360: 7a27 22bc 8cab 87be 7e38 2dbf 80c5 19bf
00000370: 089d 153e 4b72 e33d 264b c5bd e429 023c
00000380: c787 c33e 5155 253e 6eaf 6cbe 5476 cabc
00000390: c277 b33d 29af ebbd e16c b8bd c6a7 64be
000003a0: fcf3 e2be 9075 52be 2661 9ebe 8cb7 debe
000003b0: 9bfd e8be 14e1 00be 9412 e03e dfe2 dabc
000003c0: f2af 91be cfd9 2a3e edd6 773d 482c dfbd
000003d0: c977 b3be 2fb0 2dbe 778d 95bd 4320 86bd
000003e0: 80f7 6dbe 7f17 d5be 1905 323d 577f 87be
000003f0: 9a00 a93d 5387 6dbd 11a9 7d3d 5753 54be

encoder.model.weight_hh_l0 f4 [256, 64]
0.07986639 -0.049008515 0.24174136 0.30725795 -0.04016973 0.26347888 -0.242931 0.06262368
0.1711813 -0.13518134 0.07447305 -0.13941696 -0.09320589 0.020536764 -0.077172495 -0.002336794
-0.009255413 -0.042307083 0.21160851 -0.07468143 -0.0037604587 -0.010832983 -0.008509904 -0.0680105
0.14379619 0.060000084 -0.015322248 -0.1552911 0.69317013 -0.11386161 0.05828317 0.122239284
0.37118357 -0.15205766 -0.022894276 0.050304387 -0.07862964 0.4400977 0.13288125 -0.0021754662
0.13215715 -0.03793203 0.40504476 -0.3008804 0.22560742 -0.22970308 0.09263846 -0.21469441
0.035943627 -0.21774705 0.17317936 -0.024150403 0.096115254 0.3254068 -0.122201435 0.13673207
-0.05395302 -0.0765242 0.2694756 -0.21954213 -0.0859451 -0.08672983 -0.35510868 0.23398268
-0.24211583 -0.17092137 0.2558822 0.28511316 0.16537805 0.15587468 -0.10922457 -0.042237915
0.026042463 -0.15020396 0.3049122 -0.10324819 0.041097846 -0.03231452 -0.15055528 0.017154254
-0.019605637 -0.24235912 0.036296554 -0.1236754 -0.059008956 0.07684015 0.00848185 0.06906304
0.11139386 -0.039676078 -0.079738855 -0.12858976 0.3662639 -0.30935505 0.21628882 -0.20010012
0.23084961 -0.16777205 -0.35060364 -0.10495975 0.030409731 0.3422848 0.1107531 -0.028674109
-0.070155084 0.099951416 0.08468869 -0.35004008 0.23731236 -0.024241706 -0.0041023493 0.0058132694
0.008460877 -0.16030914 0.22065067 0.1736958 -0.10390791 0.03163393 -0.26884294 0.0648943
0.087751515 -0.15915559 0.0526881 -0.15721963 -0.090854354 -0.034614675 -0.2222247 0.2465212
0.069001034 -0.0677959 0.030388584 -0.06865407 -0.039398212 -0.019276036 -0.16888385 -0.050005678
-0.018234722 0.028237278 -0.15289932 -0.022850579 -0.14716186 -0.042007647 -0.052539606 -0.07689851
-0.087325685 0.07822421 -0.03767095 -0.10523908 -0.0042427597 0.053090878 0.03432651 0.09967169
-0.14988157 0.0846898 0.13846332 -0.12548774 0.029983392 0.009007353 -0.08831113 0.05567897
0.033773832 -0.07075193 0.0028151367 0.101859495 0.15658799 0.16859168 -0.14658834 -0.17860122
0.12579736 -0.13837333 -0.015353856 -0.013138641 0.07196784 0.071408406 0.09396382 -0.18130726
-0.029412547 -0.07277071 -0.11992091 -0.13323149 -0.033673625 0.13052 -0.16370763 0.06007961
-0.08305201 -0.08281524 0.19953822 0.022705592 -0.021291846 0.02025012 -0.076428376 -0.08931486
0.16254209 0.017754044 0.21648493 0.06426676 0.09517323 -0.07028154 -0.06254302 -0.08674218
0.08758733 -0.065630935 0.029449433 -0.118958496 -0.11692631 -0.062986545 -0.0006716444 0.105286494
0.11578566 0.010848186 0.16828038 0.006555245 0.012862475 -0.006355733 -0.095627494 0.036294773
0.1583406 -0.05164588 -0.0051754666 0.0016468818 0.17079481 -0.25926346 -0.025630187 0.024416752
0.05852294 -0.081370905 -0.07056321 -0.14534982 -0.07048828 0.3416534 0.13391168 0.035450615
0.10007036 0.08785498 -0.065758154 -0.10523142 0.33302614 -0.051672265 0.033273596 -0.006017615
-0.04467475 -0.061570127 0.14213397 0.05415329 0.03964784 0.1216643 -0.18984942 0.02355657
0.05292911 -0.12104728 0.25190172 -0.218984 -0.15273699 -0.09407862 -0.12901412 0.17230812
00000000: fd90 a33d 27bd 48bd 0c8b 773e ea50 9d3e
00000010: 0489 24bd b4e6 863e e7c2 78be d840 803d
00000020: 274a 2f3e fa6c 0abe 5485 983d 52c3 0ebe
00000030: bbe2 bebd b73c a83c 9d0c 9ebd e624 19bb
00000040: 04a4 17bc 314a 2dbd e7af 583e 94f2 98bd
00000050: 0772 76bb d37c 31bc 206d 0bbc 1749 8bbd
00000060: 4f3f 133e a6c2 753d 2b0a 7bbc a104 1fbe
00000070: 9973 313f 4730 e9bd 55ba 6e3d 9758 fa3d
00000080: c60b be3e 01b5 1bbe c78c bbbc f90b 4e3d
00000090: 9408 a1bd 7c54 e13e 0612 083e 4492 0ebb
000000a0: 3454 073e 9e5e 1bbd 0762 cf3e ff0c 9abe
000000b0: a205 673e 4937 6bbe 3cb9 bd3d dad8 5bbe
000000c0: a039 133d 15f9 5ebe ee55 313e 11d7 c5bc
000000d0: 13d8 c43d b89b a63e bf44 fabd 7e03 0c3e
000000e0: d8fd 5cbd b8b8 9cbd b5f8 893e a7cf 60be
000000f0: fc03 b0bd 699f b1bd ced0 b5be 2899 6f3e
00000100: 36ed 77be 0306 2fbe fe02 833e 5afa 913e
00000110: dd58 293e 9d9d 1f3e 22b1 dfbd aa01 2dbd
00000120: 0157 d53c 11cf 19be 741d 9c3e c973 d3bd
00000130: 3756 283d 3b5c 04bd 2a2b 1abe 1487 8c3c
00000140: 009c a0bc fd2c 78be b2ab 143d 8749 fdbd
00000150: 60b3 71bd 5e5e 9d3d 75f7 0a3c ec70 8d3d
00000160: 7722 e43d 6283 22bd 204e a3bd 09ad 03be
00000170: f186 bb3e c963 9ebe d17a 5d3e 0ce7 4cbe
00000180: d763 6c3e 70cc 2bbe 5282 b3be 23f5 d6bd
00000190: d41d f93c f43f af3e 85d2 e23d f7e5 eabc
000001a0: 78ad 8fbd 54b3 cc3d 4471 ad3d 7438 b3be
000001b0: 0302 733e 8b96 c6bc 006d 86bb 3d7d be3b
000001c0: 7e9f 0a3c 1428 24be 40f2 613e 50dd 313e
000001d0: accd d4bd 9492 013d c8a5 89be 4ee7 843d
000001e0: 11b7 b33d aff9 22be 7acf 573d 2ffe 20be
000001f0: d911 babd 1ec8 0dbd df8e 63be 0e70 7c3e
00000200: 6a50 8d3d 94d8 8abd 7bf1 f83c 819a 8cbd
00000210: 0560 21bd c7e8 9dbc e3ef 2cbe c1d2 4cbd
00000220: fc60 95bc dd51 e73c a491 1cbe 2331 bbbc
00000230: 99b1 16be 3610 2cbd c533 57bd f77c 9dbd
00000240: cfd7 b2bd 0434 a03d db4c 1abd 9687 d7bd
00000250: d906 8bbb d275 593d f499 0c3d ac20 cc3d
00000260: 8e7a 19be d971 ad3d 54c9 0d3e dc7f 00be
00000270: bb9f f53c 9493 133c 77dc b4bd a20f 643d
00000280: 6e56 0a3d 63e6 90bd 287e 383b b69b d03d
00000290: 9a58 203e 4ca3 2c3e 411b 16be 3de3 36be
000002a0: 06d1 003e bdb1 0dbe bd8e 7bbc 7443 57bc
000002b0: e063 933d 923e 923d 1a70 c03d 9ca8 39be
000002c0: 95f2 f0bc cf08 95bd 1899 f5bd d66d 08be
000002d0: 5bed 09bd 09a7 053e f9a2 27be 0a16 763d
000002e0: 2c17 aabd 099b a9bd bf53 4c3e 1401 ba3c
000002f0: 3d6c aebc 94e3 a53c 7b86 9cbd b6ea b6bd
00000300: 6f71 263e ee70 913c 3aae 5d3e 4b9e 833d
00000310: 2fea c23d c5ef 8fbd 8e16 80bd e2a5 b1bd
00000320: fc60 b33d 8369 86bd f03f f13c 83a0 f3bd
00000330: 1077 efbd 17ff 80bd 4b11 30ba 72a0 d73d
00000340: 0821 ed3d 97bc 313c b151 2c3e 61cd d63b
00000350: 21bd 523c c143 d0bb 59d8 c3bd d4a9 143d
00000360: 0a24 223e a18a 53bd f696 a9bb 2fdc d73a
00000370: d6e4 2e3e 2ebe 84be 66f6 d1bc a405 c83c
00000380: c0b5 6f3d caa5 a6bd 7283 90bd 95d6 14be
00000390: 295c 90bd 32ed ae3e 2520 093e aa34 113d
000003a0: b0f1 cc3d 50ed b33d 36ac 86bd 9283 d7bd
000003b0: 6782 aa3e 4ca6 53bd e549 083d 6a2f c5bb
000003c0: dffc 36bd f530 7cbd 918b 113e d7cf 5d3d
000003d0: c665 223d 222b f93d e367 42be b5f9 c03c
000003e0: 32cc 583d a3e7 f7bd 43f9 803e 573d 60be
000003f0: 1667 1cbe 4bac c0bd 471c 04be 8a71 303e

encoder.model.bias_ih_l0 f4 [256]
0.09940355 0.05483652 0.085804515 0.14903486 0.25143456 0.080551304 0.031850588 0.26474217
0.23401596 0.19003713 0.40773326 0.06730924 0.0745876 0.034046073 0.20717661 -0.06084673
0.06262629 0.35871127 -0.020452853 -0.010292692 0.07479312 0.19674483 0.08028475 0.26294747
0.08870346 0.07956574 -0.047228348 0.045709323 0.0858687 -0.05167536 0.0815031 0.14417803
0.051187955 0.56840944 0.48115742 -0.052544437 -0.025921438 -0.048929475 0.12761684 0.07633699
0.027253078 0.06593951 0.059220802 -0.09827508 -0.0732105 0.65510434 0.061617635 0.03966572
-0.021705387 -0.07813364 0.17019925 0.08029881 -0.07507845 -0.02045072 0.1183812 0.11019583
0.059993435 0.76101804 -0.0024451872 0.04462592 0.05272575 0.0089234775 0.40440887 0.11694502
-0.06241713 0.018466461 -0.15026957 -0.108041994 -0.0878111 -0.09477536 0.12772653 -0.10390379
-0.14969094 -0.12430636 -0.07009574 -0.036683924 -0.112781145 -0.10640523 -0.057499044 -0.016732376
-0.021037715 -0.003557637 -0.009216374 -0.18355271 0.018178646 0.20989147 -0.073511004 0.043198816
0.07820837 -0.08433977 0.06589613 0.081306 -0.19219656 0.12437103 -0.049309067 -0.048818674
0.056086693 -0.1232311 0.02515771 0.079130515 -0.1709642 -0.14788483 0.056430783 0.14346035
-0.020014366 -0.017037472 -0.0005859304 0.16165227 -0.11394003 0.021164525 0.11276795 -0.11167175
-0.17622505 -0.122384876 -0.2064899 0.0032749542 0.03959844 -0.076042295 -0.09766704 0.101213895
-0.005426907 -0.62117475 -0.0745678 -0.14206687 -0.13696377 -0.03132 -0.035891365 0.053329326
0.03879945 0.04433357 -0.12688047 -0.15310614 -0.05952594 -0.01199168 0.032019593 -0.08188673
0.093483806 0.06308829 -0.059736818 -0.0849034 0.051162113 0.0006581509 0.11701161 0.062195804
-0.00063062157 0.09662197 -0.06781276 0.09253074 -0.036557227 -0.09047318 -0.08102628 0.0595054
-0.08910272 0.05912292 0.05462132 -0.098897405 0.012195554 0.02916005 -0.09353816 0.14623015
0.0054926868 0.05963728 0.11169942 0.103347406 -0.044945747 -0.079795755 0.12336879 -0.104429886
0.055751372 -0.0912581 -0.08482139 0.090047345 0.021543974 0.08713719 -0.047471095 -0.10588578
0.053132053 -0.088261105 -0.15215932 -0.01952763 0.1758241 -0.02799678 0.016259775 0.14140095
0.0015079572 0.32519293 0.050950613 0.06475439 -0.016804097 0.0014262445 0.009341981 -0.041210737
0.17138806 0.101864085 0.036512755 0.08202166 0.28012896 0.06874949 -0.026791185 0.13569565
0.066410795 0.395816 0.40147218 0.045360133 0.123511046 -0.110894606 0.15303883 0.17485671
0.08017338 0.2894549 -0.017982721 0.022068731 0.18147835 0.035510164 0.113576286 0.14921337
0.23979299 -0.07670743 -0.0625116 0.08027483 -0.12500386 0.065892726 0.17235775 0.04243351
-0.002225276 0.36771294 0.22703692 0.040400792 0.12415672 0.055108763 -0.04762437 0.053833198
-0.04883456 -0.05112893 0.121483654 0.124742076 -0.03822741 0.70232224 0.048045635 0.026697734
-0.060181696 -0.015466877 0.16216673 0.21490505 0.027306536 -0.081052944 0.19008885 -0.0037388715
0.046531934 0.5809591 -0.014197778 0.093796864 -0.08660891 0.07799472 0.20311204 0.22192422
00000000: 1794 cb3d 429c 603d 47ba af3d 989c 183e
00000010: 08bc 803e 15f8 a43d c375 023d 498c 873e
00000020: e1a1 6f3e 1899 423e 6ac2 d03e 6dd9 893d
00000030: 62c1 983d e573 0b3d 1b26 543e 6c3a 79bd
00000040: 3642 803d 01a9 b73e be8c a7bc aea2 28bc
00000050: 232d 993d 7a77 493e 556c a43d 0da1 863e
00000060: 29aa b53d 5df3 a23d 8372 41bd b339 3b3d
00000070: eedb af3d 8ba9 53bd 19eb a63d 68a3 133e
00000080: 76aa 513d 4883 113f 445a f63e d638 57bd
00000090: 3259 d4bc 466a 48bd fdad 023e 9156 9c3d
000000a0: d941 df3c 4b0b 873d 8391 723d 7244 c9bd
000000b0: 63ef 95bd ebb4 273f c662 7c3d 8678 223d
000000c0: 7fcf b1bc 8804 a0bd b648 2e3e b473 a43d
000000d0: bbc2 99bd 4588 a7bc d871 f23d 5aae e13d
000000e0: adbb 753d 14d2 423f 6f3f 20bb abc9 363d
000000f0: f5f6 573d c733 123c ae0e cf3e df80 ef3d
00000100: 1ba9 7fbd fa46 973c 44e0 19be 1f45 ddbd
00000110: 4ed6 b3bd 9519 c2bd beca 023e 83cb d4bd
00000120: 9548 19be 5594 febd 5b8e 8fbd e241 16bd
00000130: cdf9 e6bd fcea d9bd 1e84 6bbd 5612 89bc
00000140: 4957 acbc 3f27 69bb 4600 17bc 3ef5 3bbe
00000150: 62eb 943c caed 563e f08c 96bd 3ef1 303d
00000160: b62b a03d 54ba acbd 8df4 863d c383 a63d
00000170: 2dcf 44be 3db6 fe3d 4ef8 49bd 17f6 47bd
00000180: 29bb 653d 9660 fcbd 8b17 ce3c 2e0f a23d
00000190: 3d11 2fbe 1f6f 17be f723 673d 45e7 123e
000001a0: 2bf5 a3bc 2b92 8bbc 2099 19ba 2c88 253e
000001b0: 6459 e9bd 3a61 ad3c e2f2 e63d 29b4 e4bd
000001c0: 5774 34be eca4 fabd 1772 53be 9da0 563b
000001d0: f931 223d 10bc 9bbd a805 c8bd 3b49 cf3d
000001e0: 32d4 b1bb 4f05 1fbf 01b7 98bd fa79 11be
000001f0: 3b40 0cbe 6649 00bd d302 13bd da6f 5a3d
00000200: 2cec 1e3d 1e97 353d f4ec 01be dbc7 1cbe
00000210: 79d1 73bd c078 44bc fa26 033d 3bb4 a7bd
00000220: 7074 bf3d 6f34 813d 98ae 74bd d5e1 adbd
00000230: 5d8f 513d c287 2c3a c8a3 ef3d 07c1 7e3d
00000240: 4c50 25ba bde1 c53d 6be1 8abd c280 bd3d
00000250: 08bd 15bd 014a b9bd 1bf1 a5bd efbb 733d
00000260: 7d7b b6bd e02a 723d 9bba 5f3d b98a cabd
00000270: dccf 473c 0fe1 ee3c ef90 bfbd 5bbd 153e
00000280: fffb b33b 3846 743d aac2 e43d cea7 d33d
00000290: 0819 38bd f56b a3bd c7a8 fc3d 56df d5bd
000002a0: 8d5b 643d 87e5 babd d6b6 adbd be6a b83d
000002b0: fd7c b03c fc74 b23d 0d71 42bd a5da d8bd
000002c0: ffa0 593d 3dc2 b4bd a7cf 1bbe 69f8 9fbc
000002d0: 3c0b 343e 8159 e5bc 3833 853c 69cb 103e
000002e0: a6a6 c53a b07f a63e 97b1 503d f39d 843d
000002f0: bfa8 89bc d3f0 ba3a 1c0f 193c 97cc 28bd
00000300: 5a80 2f3e 1e9e d03d 668e 153d f9fa a73d
00000310: 106d 8f3e 88cc 8c3d 3079 dbbc cdf3 0a3e
00000320: 6202 883d 65a8 ca3e c38d cd3e 8ccb 393d
00000330: 5cf3 fc3d b61c e3bd 36b6 1c3e a30d 333e
00000340: f131 a43d 6f33 943e 8050 93bc 7cc9 b43c
00000350: 76d5 393e 1b73 113d af9a e83d 64cb 183e
00000360: 4b8c 753e c918 9dbd 1506 80bd 2167 a43d
00000370: 0301 00be c4f2 863d 8d7e 303e c3ce 2d3d
00000380: f0d5 11bb df44 bc3e 5e7c 683e 4d7b 253d
00000390: e145 fe3d bab9 613d c511 43bd 3380 5c3d
000003a0: bf06 48bd 926c 51bd 6ccc f83d c678 ff3d
000003b0: 5894 1cbd 64cb 333f 80cb 443d 35b5 da3c
000003c0: 1581 76bd c968 7dbc 090f 263e 1210 5c3e
000003d0: f5b1 df3c 16ff a5bd a7a6 423e db07 75bb
000003e0: 4598 3e3d bcb9 143f cc9d 68bc 9218 c03d
000003f0: 0360 b1bd b2bb 9f3d 9afc 4f3e 1a40 633e

encoder.model.bias_hh_l0 f4 [256]
0.11072565 -0.04805991 0.24058954 0.18481985 0.40192094 -0.059678473 -0.095830284 0.300357
0.3375029 0.28801847 0.24449177 -0.04094988 0.09404412 0.018923117 0.121705994 -0.012532105
-0.0015406881 0.21191189 0.13970788 -0.001230842 0.038089715 0.03901786 0.040795594 0.21030279
0.20986454 -0.07906982 0.087045945 0.034872983 0.0638514 -0.102849975 0.14080389 0.097356275
-0.13344397 0.41730642 0.42797056 -0.0035545437 0.022225164 0.11221907 0.14311202 0.096041165
0.06854546 0.050231967 0.028194565 -0.063482575 -0.098497 0.6857389 0.06519956 0.09547779
-0.07668742 0.08513955 0.27924016 0.2587202 -0.007979009 0.11392666 0.07176011 0.04557205
0.10846069 0.75685024 0.08887574 0.014631824 -0.06274158 0.18089236 0.21859615 0.3074899
0.071492754 0.019505601 -0.09422295 0.052285418 -0.05171192 -0.043404527 0.12962179 -0.018986685
-0.16276284 -0.16779123 0.03200996 0.035260055 0.10549226 0.03640067 0.09734659 -0.0026876775
0.06171448 -0.098952755 -0.008260257 -0.10271015 -0.008000636 0.13829611 -0.103725985 -0.06327647
-0.032738253 -0.042451628 0.10649079 0.00021855453 -0.089020975 0.106277645 0.0061195362 -0.0175949
0.031937312 0.029463977 -0.052926507 -0.06903092 -0.12783077 -0.050078698 -0.032497093 0.076263644
-0.047542594 0.029365478 0.11295846 0.030323705 0.070565455 -0.10286986 0.0611686 -0.06914117
-0.026793264 0.004034024 -0.047570873 0.045300793 0.11552828 -0.14535986 -0.1397589 0.06569534
-0.04257126 -0.5357607 0.02564164 0.07421256 -0.01868376 0.06324692 -0.0414687 0.037402384
0.17702663 -0.082844794 -0.08019178 0.030651055 -0.07527985 0.060335316 -0.11258075 -0.094973035
0.07629907 0.06792616 -0.116329744 -0.008476031 -0.07307253 -0.07373657 0.14706004 -0.08322411
-0.042119477 0.12744506 -0.026936771 -0.08038919 -0.067806154 0.1032015 -0.04040148 0.023210112
0.05384117 0.104737185 0.100343525 0.032027498 -0.14933296 -0.104616724 -0.03379419 -0.06186587
0.06096454 -0.08271317 0.090721846 -0.03229513 -0.018495714 -0.020208592 -0.09623841 -0.05122073
0.027583338 0.035084747 -0.00925272 -0.07383539 -0.022709949 -0.021550603 0.019953022 -0.033996314
0.08121468 -0.0871809 -0.03626272 -0.11128802 -0.06694176 0.0005855812 0.031668227 0.0534413
0.003241129 0.1994611 0.042169694 -0.059286013 -0.049184542 0.08286342 0.111660145 0.047252994
0.27270994 0.014605773 0.093855724 0.23916057 0.42951152 0.04671451 0.091212176 0.249897
0.09093198 0.23156789 0.24651636 -0.14110748 0.00019644624 -0.19269672 0.17719577 0.04020829
-0.057078898 0.18560322 0.1198723 0.12921606 -0.04848175 0.12733503 0.13392271 0.15975574
0.28329375 -0.015583066 -0.05248693 0.045845937 -0.036165763 0.027810706 0.20795594 0.13298558
-0.03597138 0.53588027 0.4058873 -0.07143774 0.021280644 -0.0085263485 0.15116668 -0.046782676
0.102916926 0.0718485 0.119626366 0.1020593 -0.04660312 0.56661487 0.13772431 -0.08534059
0.018131003 -0.11809404 0.1773003 0.2360587 0.01884607 0.070291415 0.111406796 0.116067745
0.053930517 0.57512426 -0.04066526 -0.09300527 -0.007186144 0.06272577 0.29382733 0.10951297
00000000: 21c4 e23d 78da 44bd 1b5d 763e 6a41 3d3e
00000010: 95c8 cd3e 6a71 74bd ab42 c4bd 65c8 993e
00000020: 2ecd ac3e 2877 933e 0d5c 7a3e 10bb 27bd
00000030: 349a c03d a704 9b3c fe40 f93d 7553 4dbc
00000040: eaf0 c9ba 6eff 583e 950f 0f3e 3454 a1ba
00000050: f603 1c3d 31d1 1f3d 4819 273d 9d59 573e
00000060: bbe6 563e 5cef a1bd 2545 b23d f9d6 0e3d
00000070: 86c4 823d 02a3 d2bd e52e 103e ba62 c73d
00000080: 89a5 08be 30a9 d53e f51e db3e 59f3 68bb
00000090: 8c11 b63c 1dd3 e53d f58b 123e 3bb1 c43d
000000a0: 9061 8c3d 09c0 4d3d 4af8 e63c 2703 82bd
000000b0: ccb8 c9bd 968c 2f3f 5987 853d dc89 c33d
000000c0: 4b0e 9dbd a55d ae3d 91f8 8e3e f976 843e
000000d0: 64ba 02bc 6152 e93d f7f6 923d c2a9 3a3d
000000e0: a320 de3d f0c0 413f 7c04 b63d 51ba 6f3c
000000f0: a87e 80bd d93b 393e abd7 5f3e 516f 9d3e
00000100: cb6a 923d 36ca 9f3c f6f7 c0bd 3c29 563d
00000110: e1cf 53bd f2c8 31bd 93bb 043e f789 9bbc
00000120: 4dab 26be 77d1 2bbe e01c 033d d96c 103d
00000130: 530c d83d de18 153d a65d c73d bf23 30bb
00000140: 53c8 7c3d bea7 cabd 0756 07bc b359 d2bd
00000150: 1915 03bc 7f9d 0d3e 4a6e d4bd 1897 81bd
00000160: 8c18 06bd c2e1 2dbd d817 da3d c92b 6539
00000170: a150 b6bd 18a8 d93d 6486 c83b 2e23 90bc
00000180: b3d0 023d 705e f13c 77c9 58bd 1560 8dbd
00000190: 12e6 02be 521f 4dbd ac1b 05bd 1d30 9c3d
000001a0: 06bc 42bd df8f f03c c456 e73d 6b69 f83c
000001b0: 9f84 903d 6fad d2bd ed8b 7a3d e399 8dbd
000001c0: 8c7d dbbc d92f 843b add9 42bd 538d 393d
000001d0: 179a ec3d 37d9 14be f51c 0fbe 478b 863d
000001e0: 345f 2ebd 9d27 09bf 6b0e d23c c1fc 973d
000001f0: af0e 99bc 9a87 813d 15db 29bd 3e33 193d
00000200: 7846 353e 88aa a9bd 973b a4bd ec17 fb3c
00000210: 522c 9abd 2a22 773d bc90 e6bd 3981 c2bd
00000220: b042 9c3d df1c 8b3d 4a3e eebd 0ddf 0abc
00000230: 0da7 95bd 3303 97bd e896 163e 6771 aabd
00000240: 7985 2cbd f580 023e 81aa dcbc 16a3 a4bd
00000250: f4dd 8abd 4f5b d33d 067c 25bd 2223 be3c
00000260: 8f88 5c3d 7380 d63d e880 cd3d 442f 033d
00000270: bdea 18be 4b41 d6bd c76b 0abd 1167 7dbd
00000280: f4b5 793d 8665 a9bd 60cc b93d e647 04bd
00000290: 5384 97bc 7d8c a5bc a518 c5bd d4cc 51bd
000002a0: 74f6 e13c 06b5 0f3d b898 17bc 0237 97bd
000002b0: 370a babc e48a b0bc 8574 a33c b83f 0bbd
000002c0: e253 a63d e68b b2bd 3888 14bd f9ea e3bd
000002d0: c318 89bd b081 193a 8bb6 013d 44e5 5a3d
000002e0: 1f69 543b 883f 4c3e 21ba 2c3d e4d5 72bd
000002f0: bb75 49bd 4cb4 a93d 13ae e43d 5b8c 413d
00000300: a3a0 8b3e 0d4d 6f3c 6e37 c03d 82e6 743e
00000310: efe8 db3e b757 3f3d 73cd ba3d 00e5 7f3e
00000320: 8c3a ba3d 2220 6d3e c96e 7c3e 7b7e 10be
00000330: 23fd 4d39 4a52 45be cf72 353e 73b1 243d
00000340: 90cb 69bd c50e 3e3e 9c7f f53d 3751 043e
00000350: cd94 46bd 1d64 023e 0923 093e 0297 233e
00000360: e10b 913e 1e50 7fbc 89fc 56bd f3c8 3b3d
00000370: 8d22 14bd 47d3 e33c 67f2 543e 5f2d 083e
00000380: ba56 13bd 732f 093f 76d0 cf3e f34d 92bd
00000390: bf54 ae3c 19b2 0bbc 70cb 1a3e 319f 3fbd
000003a0: 1cc6 d23d 4e25 933d abfe f43d 7704 d13d
000003b0: eae2 3ebd ac0d 113f 9a07 0d3e 0cc7 aebd
000003c0: 7887 943c 4adb f1bd 368e 353e 5fb9 713e
000003d0: 1363 9a3c f2f4 8f3d 3f29 e43d edb4 ed3d
000003e0: 3fe6 5c3d 583b 133f 9e90 26bd 8c79 bebd
000003f0: bf79 ebbb 5e76 803d 8970 963e 5648 e03d

encoder.model.weight_ih_l1 f4 [256, 64]
-0.0775925 -0.08261166 -0.14990962 -0.083808385 -0.21128148 -0.025041781 -0.045201562 0.044884026
0.07455506 -0.047890957 -0.12643881 0.032657247 -0.025024189 -0.01558968 0.18816003 -0.25594154
-0.22979577 0.06433151 0.02721244 -0.067685425 0.0012826989 -0.19950855 -0.29142264 0.035690464
-0.06139844 0.19323242 -0.03675021 -0.005742326 -0.16973957 0.095926985 0.0037195575 0.073773175
-0.026254905 0.07929496 -0.0020702737 0.2572791 0.18656245 0.10312129 -0.055262584 -0.11624186
0.07524718 -0.043305248 -0.026045311 -0.03357118 -0.02487765 0.11246863 0.02115678 -0.051795103
0.042322077 -0.16498032 -0.054657713 -0.10314743 0.09045888 -0.02004044 0.07769775 0.121055976
-0.10864271 0.08444244 0.15843335 -0.1525276 -0.091008365 0.25349036 0.035704456 -0.06474323
0.08259518 0.017611362 -0.08189983 -0.14269622 -0.009039756 -0.012274137 -0.13960089 -0.008430762
0.17597836 0.029771205 -0.08967798 -0.13511246 0.0032848157 -0.17202802 0.0449456 -0.0027232568
-0.017013397 0.031021053 0.07633559 -0.066036984 -0.061592575 -0.1631509 -0.17266229 -0.012317679
-0.0047511067 0.029709898 -0.018901024 -0.059233505 -0.025725154 -0.07294651 -0.22782567 0.15561937
0.12758934 0.044793323 0.0967872 -0.0046047545 -0.080221534 0.039685775 -0.22041301 -0.17179686
0.14648372 0.01481854 -0.02617994 -0.015300564 -0.06116215 0.057777904 0.15995604 -0.18700835
0.17316324 0.06124744 -0.17176683 -0.046525728 0.100051455 -0.13465634 -0.15176687 0.094707474
0.032376677 0.10369219 0.08356269 -0.06781049 0.004050401 0.15546966 -0.119312294 -0.04354443
0.6359192 -0.1875287 -0.11631551 -0.11374066 -0.16649994 -0.060084 0.041883536 -0.10493584
0.052620556 0.1589632 -0.11132503 -0.123352595 -0.041383848 0.010933853 0.11853917 0.14906043
0.04485769 0.31501108 -0.2015606 -0.0017895675 -0.11486752 0.12688507 -0.002141191 0.146625
-0.013068979 0.11659045 0.06736755 0.034066454 0.07597159 -0.124459885 -0.36810353 0.038024895
0.0573515 -0.1692045 0.4725717 0.05913649 -0.017789992 -0.018927442 -0.19371577 -0.050678413
-0.089533225 -0.054547146 -0.26478028 -0.23378418 0.076872945 0.26608908 0.031698834 0.04237342
0.07074507 0.012854141 -0.1145728 -0.16669858 0.043339897 -0.12291546 -0.10936921 -0.02769021
-0.0042312825 0.23071145 -0.17000146 0.055072844 0.109297514 0.33591908 -0.097404726 -0.23991331
0.0528552 -0.29876527 -0.01007458 -0.1295625 -0.13337782 -0.10006687 -0.07021142 -0.32509363
-0.007950394 0.17729297 -0.17679544 -0.20539635 -0.07671853 -0.14372915 0.21372657 -0.30675533
-0.22307643 0.23731211 -0.045526158 -0.29945895 -0.11371452 -0.19544847 -0.16942333 0.09096737
-0.12241368 0.15377676 0.30565163 0.16822754 -0.061540324 0.13298376 -0.32236984 0.2327794
0.042637922 0.09301711 0.2528098 0.051950723 0.010254837 0.100656986 0.026085185 -0.3098699
-0.0033492912 -0.22678143 -0.18477541 0.18751645 0.25922954 0.17367728 -0.03466148 -0.15231246
0.010357223 -0.19484106 -0.09645445 -0.07001126 0.28033793 -0.09677004 0.01818465 0.23794642
-0.27738777 0.14310215 0.03243911 0.085977554 -0.12700418 0.036884975 -0.061823703 -0.015657064
00000000: d1e8 9ebd 4d30 a9bd e881 19be bba3 abbd
00000010: 2c5a 58be 6c24 cdbc 4625 39bd 50d8 373d
00000020: 53b0 983d 4f29 44bd 2d79 01be 9bc3 053d
00000030: 87ff ccbc db6b 7fbc 06ad 403e c50a 83be
00000040: 954f 6bbe 3dc0 833d 9fec de3c a89e 8abd
00000050: 3c20 a83a f84b 4cbe 5935 95be 2a30 123d
00000060: ee7c 7bbd b8de 453e 6387 16bd 1f2a bcbb
00000070: 36d0 2dbe 5e75 c43d d2c3 733b 6416 973d
00000080: 8714 d7bc 6565 a23d 6ead 07bb 16ba 833e
00000090: 3a0a 3f3e 4131 d33d 055b 62bd 3610 eebd
000000a0: 321b 9a3d d860 31bd fa5c d5bc ef81 09bd
000000b0: 37cc cbbc f455 e63d fc50 ad3c 1a27 54bd
000000c0: ea59 2d3d 9af0 28be c4e0 5fbd f63e d3bd
000000d0: 8142 b93d d92b a4bc ff1f 9f3d 32ec f73d
000000e0: 1280 debd 28f0 ac3d 5a3c 223e 3230 1cbe
000000f0: 9862 babd 7dc9 813e d63e 123d 1998 84bd
00000100: a927 a93d b445 903c 19bb a7bd f51e 12be
00000110: 7c1b 14bc 7619 49bc 89f3 0ebe 2e21 0abc
00000120: ac33 343e bee2 f33c 17a9 b7bd ec5a 0abe
00000130: 1046 573b 1d28 30be e118 383d ab78 32bb
00000140: ae5f 8bbc dd1f fe3c d555 9c3d 663e 87bd
00000150: 7f48 7cbd 0811 27be 62ce 30be 17d0 49bc
00000160: 2caf 9bbb 2c62 f33c 52d6 9abc d59e 72bd
00000170: 8fbd d2bc fb64 95bd 224b 69be af5a 1f3e
00000180: c8a6 023e 3479 373d 5e38 c63d 7be3 96bb
00000190: 304b a4bd 8d8d 223d f3b3 61be 84eb 2fbe
000001a0: d4ff 153e 76c9 723c 5077 d6bc 37af 7abc
000001b0: 2a85 7abd 86a8 6c3d 84cb 233e 1e7f 3fbe
000001c0: b451 313e 98de 7a3d a5e3 2fbe c391 3ebd
000001d0: c7e7 cc3d 5ae3 09be c668 1bbe fef5 c13d
000001e0: 689d 043d 925c d43d ea22 ab3d 3ae0 8abd
000001f0: 3ab9 843b 7033 1f3e 015a f4bd a55b 32bd
00000200: 9acb 223f 8607 40be d336 eebd ddf0 e8bd
00000210: f67e 2abe a41a 76bd 128e 2b3d 9ae8 d6bd
00000220: a788 573d 40c7 223e 61fe e3bd 49a0 fcbd
00000230: 1c82 29bd e723 333c aac4 f23d 4ca3 183e
00000240: b2bc 373d 2249 a13e e765 4ebe ec8f eaba
00000250: aa3f ebbd 29ee 013e 3953 0cbb dd24 163e
00000260: 451f 56bc f9c6 ee3d 00f8 893d 4489 0b3d
00000270: fe96 9b3d d3e4 febd 1178 bcbe febf 1b3d
00000280: 68e9 6a3d f243 2dbe ebf4 f13e 1b39 723d
00000290: 51bc 91bc b90d 9bbc 6d5d 46be 2b94 4fbd
000002a0: 325d b7bd d46c 5fbd 4891 87be 1f65 6fbe
000002b0: 906f 9d3d d43c 883e a3d6 013d c08f 2d3d
000002c0: cbe2 903d 2d9a 523c 25a5 eabd 08b3 2abe
000002d0: 2d85 313d 1abb fbbd f7fc dfbd 94d6 e2bc
000002e0: 92a6 8abb 9f3f 6c3e dd14 2ebe 1094 613d
000002f0: 60d7 df3d 96fd ab3e 217c c7bd d6ab 75be
00000300: b27e 583d c3f7 98be da0f 25bc 08ac 04be
00000310: 3294 08be dcef ccbd 01cb 8fbd ac72 a6be
00000320: 5f42 02bc 4a8c 353e dd09 35be 6c53 52be
00000330: 9b1e 9dbd bc2d 13be 23db 5a3e 090f 9dbe
00000340: 266e 64be f201 733e a379 3abd af52 99be
00000350: 29e3 e8bd a523 48be 4f7d 2dbe 1a4d ba3d
00000360: 06b4 fabd a877 1d3e 5f7e 9c3e d743 2c3e
00000370: b511 7cbd e52c 083e a90d a5be b95d 6e3e
00000380: 1aa5 2e3d c17f be3d 4970 813e 48ca 543d
00000390: e703 283c 4025 ce3d 99b0 d53c 44a7 9ebe
000003a0: c87f 5bbb 6439 68be c435 3dbe 5004 403e
000003b0: bcb9 843e 75d8 313e 32f9 0dbd ccf7 1bbe
000003c0: 58b1 293c 6a84 47be e989 c5bd 1062 8fbd
000003d0: 7488 8f3e 5f2f c6bd faf7 943c 3aa8 733e
000003e0: c505 8ebe 5f89 123e dfde 043d 0015 b03d
000003f0: 620d 02be b314 173d da3a 7dbd 3e43 80bc

encoder.model.weight_hh_l1 f4 [256, 64]
0.011109538 0.14818078 -0.00034084416 0.038062092 0.11350632 -0.049614657 -0.17257535 -0.2123113
-0.047003455 -0.17537391 0.15179057 -0.054203708 0.082618244 0.058609102 0.1312788 -0.16565868
-0.11743682 0.05105708 0.046275854 -0.036721386 0.041752733 0.08352905 0.0654766 0.0020571265
-0.025873322 -0.022161245 0.13915867 -0.0916069 0.0982459 0.19151732 -0.16118783 0.077859744
0.024606504 0.013800827 0.036044564 0.09349875 -0.052020732 -0.0070241853 0.057929363 0.021810938
-0.067051455 -0.10997208 -0.03898738 0.0061541693 0.024457851 0.049290787 0.13921185 0.014588716
-0.17588383 0.031921215 0.072494194 0.015440124 0.004746941 0.009376888 0.0655727 -0.0061400263
0.01795909 -0.068279184 0.011718757 -0.008176056 0.08189875 -0.013244684 0.023836702 -0.003442116
0.14929134 -0.08039149 -0.07619768 0.02931025 -0.15770978 -0.15481886 0.06674268 0.03785889
-0.09228817 -0.17225593 0.06931803 0.13075256 -0.15141462 -0.17577703 0.20730634 0.10792943
-0.096699394 -0.01768924 0.10542675 -0.09061623 -0.08356162 -0.12410106 0.09820438 -0.10030668
-0.12994473 -0.04096402 -0.00970155 -0.057316802 0.3904372 -0.118054494 -0.050021317 0.0058158236
0.00023426212 -0.11247731 0.20261155 0.21759829 0.10134931 -0.11556823 0.07293466 0.22819553
-0.10922977 -0.18710095 -0.06738114 -0.22928822 0.09174871 -0.26053867 -0.074852996 -0.014512178
-0.1958113 0.21490319 0.0647863 0.17245728 0.00780245 -0.14432812 0.12400101 0.034578044
0.050122935 -0.0444507 0.3744879 0.05908164 0.26225588 -0.13135983 -0.02789847 -0.19798031
0.18156704 0.13518181 -0.0012954625 -0.18575907 0.060239717 0.07626335 -0.11491741 -0.18867388
0.123679765 -0.08124366 0.065361805 0.16011068 0.060109418 -0.067765005 0.08973109 0.20904675
-0.021095326 -0.07521331 0.018296344 0.008908354 -0.2911563 -0.28405598 -0.036628295 -0.014925542
-0.07159086 -0.09902386 0.022097472 -0.12414842 0.08015021 0.19131206 0.036395878 -0.015517873
0.08909962 -0.17947538 -0.045017138 0.20887336 0.038412124 -0.17798896 -0.03001254 0.116661735
-0.25940126 -0.07927698 0.054281574 0.1326442 0.0021736096 -0.049043857 -0.13279781 -0.018285261
-0.06824141 0.18607025 -0.19720435 0.1514338 0.18082781 -0.18133861 -0.04896906 0.13836789
-0.008271845 -0.009073111 0.105427705 0.15800573 -0.032201856 -0.072530456 0.05085695 0.033850644
0.26595935 -0.018201888 -0.047755517 -0.031136312 -0.1659257 -0.17876343 0.0050836485 -0.0077655744
-0.11165813 -0.05093447 0.10302351 0.21406294 -0.14121902 -0.17186344 0.13898769 0.1694073
-0.0017503034 0.056538455 -0.104095 0.052691776 -0.009298522 -0.58273596 0.013305598 -0.06434534
-0.13852462 -0.0094834 -0.034536112 0.0035163201 0.08718734 0.1625757 -0.018883895 0.1133973
-0.007051713 0.050136287 0.15713015 0.19061017 -0.00231274 -0.2678436 0.009569712 -0.012356099
-0.13628148 -0.01139863 -0.28504315 -0.24903345 0.054550618 -0.25275797 0.08097168 0.30897275
-0.26003972 0.27317038 0.047308825 -0.02404822 0.023119524 0.07912125 0.13908474 -0.02697493
0.13373767 0.05203486 0.14292827 0.07618952 0.15404348 -0.051646266 -0.07103318 -0.3730354
00000000: c804 363c b4bc 173e 54b3 b2b9 ffe6 1b3d
00000010: 0076 e83d bd38 4bbd 98b7 30be 2268 59be
00000020: b286 40bd 3895 33be fd6e 1b3e b504 5ebd
00000030: c133 a93d 1910 703d f36d 063e 6ea2 29be
00000040: b782 f0bd 3b21 513d c08b 3d3d 2a69 16bd
00000050: ea04 2b3d 4711 ab3d 9818 863d dbd0 063b
00000060: 4af4 d3bc 808b b5bc 9c7f 0e3e 669c bbbd
00000070: 2535 c93d 1e1d 443e 6c0e 25be ee74 9f3d
00000080: 9493 c93c dd1c 623c 77a3 133d 467c bf3d
00000090: b113 55bd 232b e6bb 5747 6d3d daac b23c
000000a0: 4652 89bd 0b39 e1bd 3bb1 1fbd eaa8 c93b
000000b0: d55b c83c 23e5 493d 8d8d 0e3e 8305 6f3c
000000c0: e41a 34be d2bf 023d d677 943d 93f8 7c3c
000000d0: 3a8c 9b3b 85a1 193c fb4a 863d 4632 c9bb
000000e0: f11e 933c f5d5 8bbd 0800 403c ddf4 05bc
000000f0: 88ba a73d 3b00 59bc 3045 c33c 2095 61bb
00000100: d4df 183e 4ba4 a4bd 870d 9cbd 0d1c f03c
00000110: ac7e 21be d688 1ebe 63b0 883d ec11 1b3d
00000120: 9401 bdbd dc63 30be 9cf6 8d3d 00e4 053e
00000130: 6f0c 1bbe e5fe 33be 1d48 543e 1b0a dd3d
00000140: 550a c6bd 06e9 90bc fbe9 d73d 0195 b9bd
00000150: 5b22 abbd b228 febd 611f c93d 976d cdbd
00000160: 3b10 05be e3c9 27bd 40f3 1ebc 06c5 6abd
00000170: 62e7 c73e 8ec6 f1bd 27e3 4cbd aa92 be3b
00000180: 42a4 7539 815a e6bd 6779 4f3e 16d2 5e3e
00000190: 3a90 cf3d 09af ecbd c45e 953d 17ac 693e
000001a0: dcb3 dfbd 6497 3fbe 20ff 89bd 88ca 6abe
000001b0: bfe6 bb3d 5365 85be 874c 99bd 7cc4 6dbc
000001c0: c282 48be 950f 5c3e aeae 843d a498 303e
000001d0: b2ab ff3b c0ca 13be 3ef4 fd3d b5a1 0d3d
000001e0: b54d 4d3d f011 36bd e1bc bf3e 97ff 713d
000001f0: 6746 863e 3183 06be 558b e4bc 5abb 4abe
00000200: b6ec 393e 1a6d 0a3e 82cc a9ba a037 3ebe
00000210: ecbd 763d f62f 9c3d d259 ebbd ba33 41be
00000220: d14b fd3d 1363 a6bd 69dc 853d 0ef4 233e
00000230: 4b35 763d 61c8 8abd efc4 b73d 5a10 563e
00000240: 1bd0 acbc 7009 9abd 37e2 953c 58f4 113c
00000250: 7012 95be c96f 91be 8d07 16bd 438a 74bc
00000260: 3b9e 92bd 06cd cabd c205 b53c 8741 febd
00000270: cb25 a43d 4fe7 433e d813 153d ad3e 7ebc
00000280: dd79 b63d 65c8 37be e463 38bd e6e2 553e
00000290: 0856 1d3d bd42 36be dcdc f5bc 59ec ee3d
000002a0: 3ed0 84be f85b a2bd 5b56 5e3d e2d3 073e
000002b0: 1e73 0e3b 36e2 48bd 26fc 07be f9ca 95bc
000002c0: 27c2 8bbd 3389 3e3e f0ef 49be 7611 1b3e
000002d0: ed2a 393e d4b0 39be c893 48bd 50b0 0d3e
000002e0: a286 07bc 63a7 14bc 7bea d73d 41cc 213e
000002f0: 18e6 03bd d98a 94bd 614f 503d f9a6 0a3d
00000300: d32b 883e 201c 95bc 4a9b 43bd 9411 ffbc
00000310: 6de8 29be c30d 37be bc94 a63b 5c76 febb
00000320: 05ad e4bd aaa0 50bd fdfd d23d 5133 5b3e
00000330: b89b 10be f8fc 2fbe ca52 0e3e 1b79 2d3e
00000340: 706a e5ba de94 673d c22f d5bd 55d3 573d
00000350: d458 18bc 2f2e 15bf b9ff 593c 7dc7 83bd
00000360: 66d9 0dbe 4360 1bbc bd75 0dbd 1072 663b
00000370: 478f b23d 3f7a 263e 66b2 9abc d83c e83d
00000380: 0e12 e7bb b55b 4d3d bae6 203e 502f 433e
00000390: 5791 17bb cc22 89be 48ca 1c3c 3c71 4abc
000003a0: 5f8d 0bbe 52c1 3abc 2df1 91be a002 7fbe
000003b0: 7870 5f3d 7e69 81be 7bd4 a53d ad31 9e3e
000003c0: ed23 85be fddc 8b3e e6c6 413d c600 c5bc
000003d0: 2865 bd3c 520a a23d 3b6c 0e3e 87fa dcbc
000003e0: 87f2 083e 8122 553d ca5b 123e 4009 9c3d
000003f0: 93bd 1d3e 098b 53bd d879 91bd 7ffe bebe

encoder.model.bias_ih_l1 f4 [256]
0.03943005 0.084681794 -0.011986578 0.24980822 0.049586754 0.12505561 0.036606494 0.020740367
0.054889616 0.27267224 0.10917566 0.24286301 0.24717787 0.06397086 -0.07908865 0.12264123
1.0956444 -0.075851716 0.048312437 0.02120727 0.71194273 0.0413176 -0.07913631 -0.038454965
0.41613483 0.07609165 0.14602734 0.14637803 0.09113464 0.1513014 0.28360042 0.41729495
0.048239667 0.18542416 0.11170443 -0.022228938 0.027205192 -0.0273604 -0.011441902 -0.028119227
-0.09221303 0.041151736 -0.09745338 -0.09699817 -0.08462031 -0.0562056 0.16102697 -0.08470868
0.110229574 0.03363676 0.195996 0.17963111 0.18167274 0.0075196163 0.083958775 0.19818632
0.22104439 0.13663135 0.076346904 0.013017239 -0.010884213 -0.085462704 -0.06418944 -0.12444809
0.030440846 0.16297488 -0.13537347 0.16254686 -0.076806694 -0.1775363 -0.09865244 -0.035780758
-0.12459448 -0.1695575 -0.0989411 0.01290745 -0.0118565755 -0.03285588 -0.061205566 -0.031155664
-0.07247945 -0.09013509 0.16371927 0.06251443 -0.10343382 -0.109145135 -0.0277914 -0.039649673
0.046231307 0.06722519 -0.08688545 -0.0588031 -0.10670766 0.03376269 0.10332256 0.042159583
-0.15578018 0.06275538 -0.07475794 -0.06735329 -0.004837958 -0.044948492 0.02385043 0.078752816
0.13989677 0.08303972 -0.13235267 -0.056000654 0.048886348 -0.11177178 0.017660862 -0.14658965
0.13388342 0.023795338 0.21541661 0.026460266 -0.042463772 0.026092792 -0.03501507 0.22805765
-0.0394251 -0.16617978 -0.11219593 -0.079493016 0.105001 -0.044568416 -0.09209286 -0.041783392
0.12028434 -0.0398717 0.007940596 -0.07547482 -0.122826934 -0.063713565 -0.028308518 0.025925105
-0.061581373 -0.090832725 0.045577846 0.08251038 -0.05481987 -0.13131575 0.044909187 0.09287179
-0.039710622 -0.057142757 -0.05299813 -0.21311462 0.034038052 -0.028596796 0.0098644495 0.026401155
-0.41175404 0.14778802 -0.02444142 0.017649544 0.10135253 0.047996383 -0.041752174 0.07408125
0.046857156 0.035962157 0.47424012 0.13365942 0.061245766 -0.0856474 -0.0070173168 0.030229103
-0.0072225165 0.0027199117 -0.115415074 0.05123105 -0.05317155 0.007149435 -0.035951488 -0.014005682
-0.14908928 0.09997535 -0.024392983 -0.017924499 0.13291837 0.12916875 0.13617383 0.050683443
0.019639907 0.03108572 0.14258479 -0.009443669 0.028976044 0.009605448 0.0574867 -0.12131256
0.062529616 0.07289774 0.07656232 0.24766652 0.08422112 -0.048167363 -0.06486996 -0.037252523
-0.033688486 0.10134341 0.062625326 0.2913643 -0.0008029889 -0.14679484 0.108542554 0.008573742
1.0979931 -0.009243279 -0.018495793 0.17992176 0.6853904 -0.11424001 -0.043950584 -0.10996951
0.07865858 0.008311053 0.12949897 0.1252751 0.17002705 0.06828111 -0.04689722 0.5977046
0.16137326 0.04345095 -0.15553969 0.13519229 0.06164062 0.07900004 -0.0029371593 -0.06384152
0.121072076 0.02806351 -0.14180863 -0.014820745 0.07926702 -0.04627891 0.083393194 -0.11657806
0.05894284 0.067206964 0.17913082 0.020456696 0.09072804 0.13639386 0.02953345 0.19652788
-0.011007968 -0.026462192 0.025002096 0.15835908 0.12044965 0.08412668 0.11638344 0.08382888
00000000: 6781 213d a66d ad3d 5a63 44bc bacd 7f3e
00000010: 7b1b 4b3d 940e 003e b1f0 153d b4e7 a93c
00000020: efd3 603d b29b 8b3e 7d97 df3d 15b1 783e
00000030: 321c 7d3e 2703 833d 3bf9 a1bd 532b fb3d
00000040: 133e 8c3f 2558 9bbd 43e3 453d deba ad3c
00000050: e141 363f a53c 293d 3812 a2bd f482 1dbd
00000060: a00f d53e f0d5 9b3d 3188 153e 1fe4 153e
00000070: cca4 ba3d c1ee 1a3e 1334 913e afa7 d53e
00000080: f596 453d d5df 3d3e 4bc5 e43d 7619 b6bc
00000090: 6cdd de3c eb22 e0bc d176 3bbc 4b5a e6bc
000000a0: 2fda bcbd b98e 283d a395 c7bd faa6 c6bd
000000b0: 6a4d adbd d837 66bd 41e4 243e bf7b adbd
000000c0: 0bc0 e13d b3c6 093d 2db3 483e 38f1 373e
000000d0: 6b08 3a3e 1d67 f63b 94f2 ab3d 5bf1 4a3e
000000e0: 7659 623e 17e9 0b3e c45b 9c3d 4246 553c
000000f0: b353 32bc 1207 afbd c175 83bd a4de febd
00000100: 155f f93c e3e2 263e 589f 0abe af72 263e
00000110: d44c 9dbd 13cc 35be 4a0a cabd d88e 12bd
00000120: 642b ffbd 7ba0 2dbe a2a1 cabd c579 533c
00000130: 1542 42bc e393 06bd b0b2 7abd 2a3a ffbc
00000140: 1b70 94bd bf98 b8bd 06a6 273e 9107 803d
00000150: 1cd5 d3bd 7c87 dfbd caaa e3bc b267 22bd
00000160: 0a5d 3d3d 5cad 893d 00f1 b1bd 85db 70bd
00000170: 8c89 dabd bf4a 0a3d c79a d33d 87af 2c3d
00000180: d784 1fbe e585 803d b11a 99bd 86f0 89bd
00000190: bc87 9ebb e91b 38bd fa61 c33c 2849 a13d
000001a0: 1941 0f3e bb10 aa3d 7587 07be f160 65bd
000001b0: 0d3d 483d 9ae8 e4bd 83ad 903c 991b 16be
000001c0: bc18 093e 71ee c23c 2c96 5c3e 33c3 d83c
000001d0: 7eee 2dbd 8dc0 d53c f66b 0fbd f287 693e
000001e0: 377c 21bd 082b 2abe fbc6 e5bd 3ccd a2bd
000001f0: c40a d73d 5f8d 36bd 2e9b bcbd 1025 2bbd
00000200: a357 f63d 8250 23bd 4619 023c 8b92 9abd
00000210: b08c fbbd 427c 82bd 44e7 e7bc e360 d43c
00000220: c03c 7cbd 8206 babd d6af 3a3d 34fb a83d
00000230: cd8a 60bd a377 06be b2f2 373d 9133 be3d
00000240: 9ba7 22bd 860e 6abd 9114 59bd b83a 5abe
00000250: 7c6b 0b3d d443 eabc 809e 213c 3c47 d83c
00000260: 6dd1 d2be be55 173e 5f39 c8bc c795 903c
00000270: ea91 cf3d db97 443d 5404 2bbd e9b7 973d
00000280: 4aed 3f3d 0e4d 133d 9acf f23e 04de 083e
00000290: d7dc 7a3d e767 afbd 85f1 e5bb 06a3 f73c
000002a0: dcaa ecbb 8c40 323b bd5e ecbd a6d7 513d
000002b0: 69ca 59bd cf45 ea3b de41 13bd 1778 65bc
000002c0: dcaa 18be e0bf cc3d cbd3 c7bc 66d6 92bc
000002d0: c11b 083e d044 043e 2771 0b3e 7199 4f3d
000002e0: dfe3 a03c 7ba7 fe3c bf01 123e 9eb9 1abc
000002f0: 2b5f ed3c 2b60 1d3c 2d77 6b3d b872 f8bd
00000300: 870f 803d 694b 953d b5cc 9c3d 4b9c 7d3e
00000310: 1f7c ac3d 244b 45bd 8bda 84bd 1a96 18bd
00000320: f0fc 09bd 228d cf3d b541 803d b42d 953e
00000330: ac7f 52ba 6351 16be 8f4b de3d e178 0c3c
00000340: 0a8b 8c3f 1f71 17bc 7d84 97bc 693d 383e
00000350: bf75 2f3f abf6 e9bd 8705 34bd b237 e1bd
00000360: c017 a13d 152b 083c 619b 043e 1e48 003e
00000370: 921b 2e3e f7d6 8b3d 4d17 40bd 2b03 193f
00000380: 083f 253e a0f9 313d cc45 1fbe d96f 0a3e
00000390: e07a 7c3d c6ca a13d 5b7d 40bb 58bf 82bd
000003a0: a3f4 f73d 72e5 e53c 4836 11be b6d2 72bc
000003b0: bf56 a23d f48e 3dbd 0dca aa3d 7ac0 eebd
000003c0: 0c6e 713d cea3 893d 126e 373e cd94 a73c
000003d0: 9fcf b93d d5aa 0b3e 22f0 f13c 9b3e 493e
000003e0: c45a 34bc 3dc7 d8bc 32d1 cc3c e228 223e
000003f0: 4eae f63d 9c4a ac3d 715a ee3d 7aae ab3d

encoder.model.bias_hh_l1 f4 [256]
0.083205126 0.12728289 -0.050231263 0.09557104 0.037318867 -0.003915556 -0.062162414 0.091064535
-0.16850287 0.16101661 0.036117945 0.22803472 0.24099939 0.05962086 -0.06568673 0.1464249
1.0694358 0.053876985 -0.10317338 0.21618843 0.62646157 -0.11750548 -0.054830402 -0.07577879
0.41297734 0.0998486 0.090815544 0.005064927 0.1482255 0.023732759 0.3792856 0.5135717
0.06988936 -0.020277388 0.16022708 0.041676722 -0.01976949 0.019418288 0.08002754 0.08150767
-0.010872089 0.15597613 0.09953356 0.09503321 0.015379979 0.010942433 0.24505103 -0.0596075
-0.06968538 0.0815991 0.25350356 0.0074743913 0.12393965 0.072879955 0.10602706 0.32111213
-0.019534595 -0.020099849 0.021263123 0.19356796 0.038861997 -0.0263336 -0.061103985 -0.10985343
-0.1601436 0.0859385 -0.10844283 0.011138238 -0.07625112 -0.13713786 0.029595189 0.04436271
-0.18551534 -0.041094873 -0.096182324 -0.13181488 0.08069715 0.047038015 -0.17665616 -0.17446962
0.018296905 0.10924883 -0.024820615 -0.13010998 -0.047629595 -0.10443047 -0.115216866 -0.13975936
0.13302723 -0.053737164 -0.14264807 0.102992535 -0.106107004 -0.13736826 0.1362352 0.060408957
-0.19149052 0.0118490085 0.0035195632 -0.09955644 -0.21648265 0.032933023 0.03436476 0.12954228
-0.048070278 -0.0568981 0.09611585 0.073026426 0.083422735 -0.087637015 -0.099485844 -0.08627029
-0.03387041 -0.030453404 0.26753077 0.07529393 -0.043388512 0.13182832 0.05403481 0.19715142
-0.08921517 -0.11127719 0.011919409 -0.061995823 0.0761737 -0.03364233 0.05187131 0.03316771
-0.018383559 0.06572558 -0.10306367 0.13481328 0.024138674 -0.10177295 0.06009664 -0.046575744
0.012594834 -0.004784696 0.16295666 0.081477486 -0.019291034 -0.09411459 0.06744484 -0.04152888
0.09584786 0.13897127 -0.081258655 -0.05418325 0.07927427 0.009902375 0.06627479 0.014610132
-0.31178746 -0.002418059 0.031731836 0.03269745 0.074224114 0.035928156 -0.20172001 -0.04581022
0.11176015 -0.048610467 0.4517037 -0.09312911 -0.012880248 -0.01331964 -0.012095407 0.08688159
-0.09256747 0.09398639 -0.08447697 -0.06876363 0.082461886 -0.108677015 -0.06089496 0.06012222
-0.04084413 0.1339357 -0.00082416896 0.093411 -0.047156353 -0.06447082 0.11785871 0.050629925
0.2058838 0.07349847 0.06461412 0.030493896 -0.019262666 -0.05010713 -0.13383663 -0.09257103
-0.0082735075 0.15057431 0.1578709 0.0050791306 0.07031254 0.012772132 0.12964593 0.17088115
-0.08304198 0.11571998 -0.056260437 0.2084403 0.0841532 -0.00070017134 0.13739498 -0.047846474
0.987181 0.016791562 -0.08423618 0.12977833 0.641648 -0.07865358 0.12767158 -0.050436076
-0.029559657 -0.030125279 0.17979449 -0.053583566 0.21049075 0.02957082 -0.12559202 0.5508751
0.1881346 0.11570677 -0.09532835 0.011183673 0.008840541 0.15315849 0.048502732 -0.023404356
-0.09827669 0.20176263 -0.15080406 -0.071590915 0.083343424 0.020812325 0.16458395 0.079229906
-0.083310075 -0.095602274 0.26314226 -0.059701815 0.094895326 0.007716081 -0.011961758 0.061400224
-0.11699088 -0.0050551975 0.10049051 0.2109874 -0.1025854 -0.047910932 0.07726453 0.07790915
00000000: 7367 aa3d 7256 023e 4cbf 4dbd c0ba c33d
00000010: abdb 183d 104e 80bb 049e 7ebd 0b80 ba3d
00000020: 048c 2cbe 8ae1 243e 69f0 133d ef81 693e
00000030: 8bc8 763e 0135 743d c486 86bd 69f0 153e
00000040: 46e3 883f 1dae 5c3d 914c d3bd 8060 5d3e
00000050: c95f 203f b7a6 f0bd d895 60bd e931 9bbd
00000060: c471 d33e 6c7d cc3d 80fd b93d b0f7 a53b
00000070: 6dc8 173e 346b c23c b931 c23e 6f79 033f
00000080: 2722 8f3d c41c a6bc 9112 243e 36b5 2a3d
00000090: a0f3 a1bc 1a13 9f3c 7be5 a33d 7eed a63d
000000a0: d920 32bc 35b8 1f3e 40d8 cb3d c6a0 c23d
000000b0: 4ffc 7b3c e447 333c a8ee 7a3e fe26 74bd
000000c0: 35b7 8ebd 6e1d a73d 38cb 813e bdeb f43b
000000d0: 12d4 fd3d 1642 953d b724 d93d cf68 a43e
000000e0: 0407 a0bc 70a8 a4bc 0030 ae3c ae36 463e
000000f0: c22d 1f3d 90b9 d7bc 2c48 7abd d6fa e0bd
00000100: affc 23be 8600 b03d 4617 debd 287d 363c
00000110: 8c29 9cbd de6d 0cbe 9c71 f23c acb5 353d
00000120: bcf7 3dbe 1953 28bd 3dfb c4bd 7bfa 06be
00000130: 8c44 a53d efaa 403d 5ae5 34be 2aa8 32be
00000140: 64e3 953c dabd df3d 9a54 cbbc 8d3b 05be
00000150: 4017 43bd a4df d5bd d2f6 ebbd 141d 0fbe
00000160: 4a38 083e 801b 5cbd 5612 12be c0ed d23d
00000170: a14e d9bd 44aa 0cbe 3e81 0b3e 626f 773d
00000180: 1716 44be 5822 423c 79a8 663b 3fe4 cbbd
00000190: a1ad 5dbe c7e4 063d 10c2 0c3d bba6 043e
000001a0: 57e5 44bd fb0d 69bd 63d8 c43d e18e 953d
000001b0: 8ad9 aa3d 097b b3bd 3cbf cbbd 7aae b0bd
000001c0: b3bb 0abd 6b79 f9bc cbf9 883e b433 9a3d
000001d0: 27b8 31bd 01fe 063e 9b53 5d3d 10e2 493e
000001e0: 71b6 b6bd 4ce5 e3bd a049 433c 55ef 7dbd
000001f0: f500 9c3d 8acc 09bd 0377 543d ddda 073d
00000200: 1e99 96bc 229b 863d 0c13 d3bd 7e0c 0a3e
00000210: 78be c53c 566e d0bd e527 763d 35c6 3ebd
00000220: 905a 4e3c f0c8 9cbb 1cde 263e abdd a63d
00000230: 3b08 9ebc 26bf c0bd 8520 8a3d 301a 2abd
00000240: e24b c43d 7c4e 0e3e f06a a6bd 41ef 5dbd
00000250: 8c5a a23d 923d 223c 14bb 873d 565f 6f3c
00000260: 9ba2 9fbe 4c78 1ebb 3ef9 013d c3ed 053d
00000270: d002 983d 6729 133d b18f 4ebe 7fa3 3bbd
00000280: 81e2 e43d c51b 47bd b545 e73e 7aba bebd
00000290: ad07 53bc 9f3a 5abc d02b 46bc faee b13d
000002a0: 0494 bdbd f07b c03d 4302 adbd f2d3 8cbd
000002b0: c7e1 a83d 0e92 debd fe6c 79bd b842 763d
000002c0: 2d4c 27bd 7126 093e 0b0d 58ba 444e bf3d
000002d0: 0527 41bd 4709 84bd e85f f13d 5361 4f3d
000002e0: 34d3 523e 5e86 963d 6854 843d 56ce f93c
000002f0: bdcc 9dbc 223d 4dbd 780c 09be e195 bdbd
00000300: 9b8d 07bc 2730 1a3e e9a8 213e d66e a63b
00000310: 0500 903d 3442 513c e7c1 043e 78fb 2e3e
00000320: ea11 aabd 99fe ec3d 5871 66bd 6071 553e
00000330: 8358 ac3d b48b 37ba 45b1 0c3e aafa 43bd
00000340: e5b7 7c3f 758e 893c 0584 acbd 9ce4 043e
00000350: 0b43 243f 2115 a1bd 57bc 023e 0f96 4ebd
00000360: 1827 f2bc 4ac9 f6bc 0c1c 383e 717a 5bbd
00000370: e38a 573e 813e f23c 329b 00be 2706 0d3f
00000380: 5ba6 403e acf7 ec3d 833b c3bd b93b 373c
00000390: ebd7 103c 94d5 1c3e cdaa 463d 7eba bfbc
000003a0: 4a45 c9bd dd9a 4e3e 616c 1abe 429e 92bd
000003b0: f5af aa3d 9c7e aa3c b288 283e 4a43 a23d
000003c0: 799e aabd 20cb c3bd 95ba 863e e489 74bd
000003d0: 7b58 c23d 2ed7 fc3b 40fb 43bc cd7e 7b3d
000003e0: ea98 efbd 12a6 a5bb f8cd cd3d 150d 583e
000003f0: 4b18 d2bd 413e 44bd de3c 9e3d d58e 9f3d
