models/20200923_212102/epoch_1100_loss_17801.13614.pt (torch, 857809 bytes, 96 tensors)

encoder.model.weight_ih_l0 f4 [256, 3]
-0.07093636 0.017717801 -0.051981594 0.092904516 0.11808441 0.07549003 -0.007616301 0.032155763
0.17813028 0.012174894 0.19355877 -0.05079657 0.047312018 -0.048655797 0.10581881 -0.072354816
0.3652422 -0.01992306 -0.5751175 -0.015695963 0.13365322 0.055759564 0.088033415 0.13651328
-0.24975714 0.004032068 -0.27835885 -0.15626054 -0.023815319 0.076510236 -0.3628272 0.098682426
0.5630319 -0.14330098 -0.07990591 -0.2147331 -0.06880142 -0.112074256 -0.0070913797 -0.15995839
-0.30028984 -0.20727713 -0.2884972 -0.06562897 0.16956332 -0.19745018 0.04269569 -0.15801476
-0.14471677 0.022276415 -0.2147849 0.0030257201 0.056023046 0.10826643 -0.28203604 0.07111891
-0.11897189 -0.10686212 -0.20015295 -0.043820463 -0.09834891 -0.24196647 -0.046444867 0.057235803
0.0620736 0.036627594 -0.14880212 -0.5003832 -0.18578933 0.04711424 -0.0077208276 0.10721799
0.14722133 0.015871646 0.003926626 -0.1901593 -0.051306915 -0.30206457 -0.29179177 -0.2459352
-0.08805963 -0.017241169 -0.027067022 -0.03605061 0.028078808 0.024056207 -0.026522519 -0.29535997
0.22878592 -0.011059312 -0.24036287 0.035100628 0.06270748 -0.33656302 -0.018921016 0.15511616
-0.1972991 0.057687316 -0.05960269 -0.13978656 0.19403839 0.05040229 -0.021892598 0.09450417
-0.059804436 -0.41288584 -0.5459 -0.41302225 0.0058099665 -0.054510463 0.095499575 0.072672226
0.078001745 -0.035670485 -0.22004272 -0.11585424 -0.05249324 0.12083288 -0.09984489 0.098961376
-0.13705972 -0.3316728 -0.24152127 -0.10972302 -0.2491542 -0.021243423 -0.04296786 0.17017993
0.5443195 -0.1634958 -0.0070342636 -0.1712823 -0.11119391 0.21305472 -0.07100165 0.44504496
0.0637379 0.59470034 -0.19076161 -0.28825107 -0.22019045 -0.14445491 -0.12697318 0.11422569
-0.20639017 0.1717452 0.13907562 -0.17378113 0.19333917 -0.01609639 0.10226088 -0.114539504
-0.16930726 -0.052424215 0.09312471 0.14696752 -0.12107167 -0.19536702 -0.0960444 -0.07055741
0.0626129 -0.02293325 -0.32962298 -0.031994842 0.22296412 -0.09744486 -0.11009788 0.11403947
-0.10788645 -0.05690524 -0.081017576 -0.17029934 0.005561328 -0.24739863 0.091078095 0.13212903
0.19318345 -0.1186151 0.121482916 0.25551897 -0.42834273 -0.11377175 -0.15830791 0.033915855
-0.12062953 0.122390606 -0.03697504 0.07000846 0.07383056 0.17298067 0.14637172 0.8359542
-0.09219873 -0.15239677 0.110899396 0.1084047 -0.16035149 0.2994394 -0.28922474 -0.022033533
-0.019437259 -0.1553315 0.13938493 -0.08333803 -0.20286027 -0.27112204 0.14582178 -0.30583623
0.17954995 0.52763623 -0.5689327 -0.07620463 0.17434993 -0.31955644 -0.37193653 -0.18990125
-0.07723514 -0.25787988 -0.5856892 -0.45577505 0.13169815 0.09120067 -0.24067146 0.066376075
0.3996619 0.16057713 -0.23716335 -0.030081498 0.13469954 -0.09300323 -0.07577503 -0.1899451
-0.3708221 -0.04394016 -0.2630011 -0.3631957 -0.24157791 -0.0059530595 0.39831328 0.00879982
-0.16658409 0.16319792 0.03155174 -0.17081256 -0.29957238 0.036784213 -0.010966069 -0.060913686
-0.2115818 -0.123070955 0.047116846 -0.07547159 0.051329006 -0.07205906 0.048531793 -0.096643336
00000000: 1547 91bd ec24 913c a7ea 54bd b944 be3d
00000010: 3dd6 f13d 849a 9a3d 2a92 f9bb c3b5 033d
00000020: c967 363e 3579 473c 4534 463e 1010 50bd
00000030: 3fca 413d 4d4b 47bd 88b7 d83d c32e 94bd
00000040: 0701 bb3e af35 a3bc e73a 13bf d294 80bc
00000050: 64dc 083e 2464 643d dd4a b43d 23ca 0b3e
00000060: 56c0 7fbe 701f 843b 0d85 8ebe c302 20be
00000070: 5818 c3bc 66b1 9c3d 7dc4 b9be 031a ca3d
00000080: dc22 103f 7ebd 12be b6a5 a3bd fee2 5bbe
00000090: c2e7 8cbd 3087 e5bd ce5e e8bb 22cc 23be
000000a0: 97bf 99be 7540 54be e8b5 93be 7b68 86bd
000000b0: 02a2 2d3e 6130 4abe ade1 2e3d 9fce 21be
000000c0: a230 14be 077d b63c 93f0 5bbe 294b 463b
000000d0: 6c78 653d caba dd3d 0767 90be cba6 913d
000000e0: 89a7 f3bd 87da dabd e5f4 4cbe 167d 33bd
000000f0: 276b c9bd 0fc6 77be f93c 3ebd 1770 6a3d
00000100: e340 7e3d d106 163d 955f 18be 1d19 00bf
00000110: 8f3f 3ebe dcfa 403d fffe fcbb 1b95 db3d
00000120: 30c1 163e 4105 823c edaa 803b 1fb9 42be
00000130: 3327 52bd 35a8 9abe bb65 95be 70d6 7bbe
00000140: 9b58 b4bd 5a3d 8dbc a9bb ddbc cea9 13bd
00000150: 8705 e63c 8611 c53c c145 d9bc 6c39 97be
00000160: db46 6a3e 1e32 35bc af21 76be adc5 0f3d
00000170: c76c 803d fd51 acbe 3f00 9bbc c5d6 1e3e
00000180: c608 4abe 8949 6c3d f321 74bd 3524 0fbe
00000190: 00b2 463e a272 4e3d 1b58 b3bc 678b c13d
000001a0: 7ff5 74bd c665 d3be 1ac0 0bbf a777 d3be
000001b0: 8861 be3b 5d46 5fbd 4895 c33d 2dd5 943d
000001c0: 61bf 9f3d 371b 12bd e152 61be fd44 edbd
000001d0: 2703 57bd 3b77 f73d 7a7b ccbd 43ac ca3d
000001e0: 6259 0cbe 04d1 a9be 5a51 77be 76b6 e0bd
000001f0: 4722 7fbe b006 aebc 11ff 2fbd a643 2e3e
00000200: 8658 0b3f 716b 27be ae7f e6bb a164 2fbe
00000210: a2b9 e3bd 042b 5a3e 5069 91bd efdc e33e
00000220: 0489 823d 483e 183f 0357 43be a595 93be
00000230: 9b79 61be fdeb 13be 4205 02be 29ef e93d
00000240: f257 53be f9dd 2f3e d769 0e3e aef3 31be
00000250: b4fa 453e 94dc 83bc 276e d13d b093 eabd
00000260: e25e 2dbe c6ba 56bd 2bb8 be3d a77e 163e
00000270: 6cf4 f7bd 4b0e 48be edb2 c4bd 6780 90bd
00000280: 313b 803d 83de bbbc 58c4 a8be 060d 03bd
00000290: b550 643e 2c91 c7bd ff7a e1bd 878d e93d
000002a0: 92f3 dcbd 7815 69bd 8bec a5bd f362 2ebe
000002b0: cd3b b63b 1156 7dbe 2787 ba3d d54c 073e
000002c0: e2d1 453e 79ec f2bd 09cc f83d 62d3 823e
000002d0: bd4f dbbe 2a01 e9bd 781b 22be 5aeb 0a3d
000002e0: 9d0c f7bd eda7 fa3d 2473 17bd 9860 8f3d
000002f0: 7a34 973d d821 313e 78e2 153e 1801 563f
00000300: b0d2 bcbd e60d 1cbe 391f e33d 4903 de3d
00000310: 2e33 24be 1f50 993e 4415 94be ab7f b4bc
00000320: e33a 9fbc 390f 1fbe ecba 0e3e 21ad aabd
00000330: 9aba 4fbe 82d0 8abe 4e52 153e 9196 9cbe
00000340: f1db 373e 2b13 073f 93a5 11bf 2c11 9cbd
00000350: ca88 323e e79c a3be 776e bebe 7975 42be
00000360: 752d 9ebd d508 84be baef 15bf 595b e9be
00000370: e1db 063e 6bc7 ba3d 9472 76be 2ef0 873d
00000380: 7ca0 cc3e 556e 243e f3da 72be 796d f6bc
00000390: adee 093e 7a78 bebd f02f 9bbd f880 42be
000003a0: 65dc bdbe 99fa 33bd 15a8 86be c9f4 b9be
000003b0: 3360 77be e211 c3bb b8ef cb3e 1f2d 103c
000003c0: 0595 2abe 5b1d 273e 663c 013d 7de9 2ebe
000003d0: 8d61 99be 0bab 163d 07ab 33bc a180 79bd
000003e0: e6a8 58be a00c fcbd 98fd 403d d990 9abd
000003f0: 5d3e 523d b393 93bd 46c9 463d f1ec c5bd

encoder.model.weight_hh_l0 f4 [256, 64]
0.046964034 -0.06534358 0.22895886 0.29923573 -0.040589422 0.28726527 -0.24848107 0.064711474
0.14845696 -0.16565794 0.06675084 -0.14611922 -0.088568 0.0041273944 -0.07381916 -0.028226214
-0.019846747 -0.03784266 0.2153244 -0.09553549 -0.049237177 0.0052119903 -0.0137159005 -0.05756862
0.11887781 0.059304312 -0.012847226 -0.16749273 0.5800899 -0.07677509 0.050982863 0.13904518
0.30436036 -0.15280287 -0.023291355 0.03362809 -0.041754935 0.4140552 0.13086686 -0.018535247
0.115317665 -0.04747453 0.3818739 -0.26860365 0.21689378 -0.23417884 0.027933301 -0.21475217
0.049988367 -0.23160632 0.14305723 -0.011160689 0.10231921 0.34078127 -0.09524757 0.14552641
-0.0854378 -0.036319494 0.26655495 -0.22005323 -0.104782045 -0.07976775 -0.36638907 0.23240061
-0.21252963 -0.16949217 0.22364503 0.23212032 0.14775784 0.154847 -0.10713014 -0.057661306
0.068881504 -0.1595623 0.1991903 -0.113349214 0.052995883 -0.03845845 -0.12004409 0.001973319
-0.028495135 -0.2165304 0.001322419 -0.10134899 -0.049617272 0.12756862 0.018480299 0.04391921
0.13491839 -0.027633958 -0.058611803 -0.17688438 0.292631 -0.273062 0.19340761 -0.194344
0.20554072 -0.13874927 -0.28615022 -0.09949109 0.0430493 0.28864118 0.11353362 -0.031461593
-0.066679075 0.09283154 0.08172804 -0.31304497 0.20217258 -0.022347355 -0.034296002 -0.04147999
0.038963705 -0.16744284 0.19412085 0.15475477 -0.09111097 0.038272955 -0.18900199 0.08897868
0.032893047 -0.08361882 0.045636058 -0.14620824 -0.07830071 -0.039665055 -0.18984686 0.23815913
0.07918251 0.003723441 0.019897478 -0.08370325 -0.0026252952 0.024853164 -0.18778917 -0.0070114895
-0.033149514 0.03488842 -0.12948507 -0.028921874 -0.13242 -0.059562534 -0.062968686 -0.07624599
-0.0925151 0.070330344 -0.051390592 -0.093556955 -0.019360872 0.08059969 0.06272397 0.08256131
-0.11643527 0.100166366 0.1300623 -0.1108364 0.011886395 -0.00084089086 -0.11190294 0.05256436
0.025224004 -0.0835091 -0.018965056 0.104130864 0.11304328 0.15814027 -0.15929426 -0.1449048
0.140613 -0.11003694 -0.0031037433 -0.0070546474 0.054441005 0.058356144 0.0775117 -0.18739294
-0.025393674 -0.09120908 -0.12563808 -0.11531781 -0.0144825205 0.097661264 -0.18765245 0.008422281
-0.10539922 -0.06373023 0.18693633 0.012050476 -0.058024365 -0.020580798 -0.06634255 -0.07632263
0.17087255 0.14980897 0.13980044 0.0018765617 0.006392793 -0.03893457 -0.061445653 -0.061023735
0.012005425 -0.06826435 -0.017890472 -0.13308878 -0.14335354 -0.12484168 0.057443943 0.07087453
0.10358053 0.060091145 0.15594548 -0.023568925 -0.04018175 -0.037238646 -0.1555942 0.12518992
0.051068828 -0.013631288 0.019912636 -0.029697323 0.11193613 -0.20855418 -0.060099807 0.08165956
-0.031296976 -0.12714544 -0.05927147 -0.11266128 -0.11726568 0.22811687 0.042223834 0.0279342
0.13973825 0.021834102 -0.084328935 -0.032074794 0.22485209 0.025488125 0.07140013 -0.06031636
-0.023406915 -0.098200545 0.08015121 -0.02986271 0.050634462 0.09848328 -0.075086474 0.014281104
-0.04847442 -0.09162442 0.20157743 -0.17937319 -0.1551639 -0.01596839 -0.0580121 0.12399181
00000000: 5c5d 403d dbd2 85bd 3174 6a3e 6d35 993e
00000010: 1841 26bd 6f14 933e d271 7ebe 7387 843d
00000020: 1a05 183e 3ca2 29be aab4 883d 47a0 15be
00000030: 2463 b5bd 183f 873b 802e 97bd a93a e7bc
00000040: a595 a2bc e800 1bbd 007e 5c3e 1ca8 c3bd
00000050: ecac 49bd 58c9 aa3b a8b8 60bc 13cd 6bbd
00000060: 3676 f33d 14e9 723d 2c7d 52bc 3783 2bbe
00000070: c680 143f 423c 9dbd 68d3 503d dc61 0e3e
00000080: 1fd5 9b3e 5b78 1cbe 83cd bebc 9cbd 093d
00000090: 3907 2bbd 0bff d33e f601 063e 3bd7 97bc
000000a0: ab2b ec3d a774 42bd fa84 c33e 6b86 89be
000000b0: 6719 5e3e 94cc 6fbe 61d4 e43c fee7 5bbe
000000c0: 9ac0 4c3d 352a 6dbe 987d 123e 53db 36bc
000000d0: bc8c d13d e27a ae3e 2811 c3bd e004 153e
000000e0: 03fa aebd c0c3 14bd e479 883e a255 61be
000000f0: f897 d6bd 465d a3bd 5997 bbbe 6dfa 6d3e
00000100: 5ea1 59be 5b8f 2dbe 3403 653e f3b0 6d3e
00000110: d54d 173e 3690 1e3e 0c67 dbbd 432e 6cbd
00000120: bf11 8d3d 4d64 23be 8bf8 4b3e a223 e8bd
00000130: 3612 593d 9c86 1dbd add9 f5bd cd52 013b
00000140: a16e e9bc 25ba 5dbe 0555 ad3a 0f90 cfbd
00000150: 7b3b 4bbd 59a1 023e ff63 973c a1e4 333d
00000160: 0c28 0a3e 9c60 e2bc ee12 70bd 2e21 35be
00000170: bbd3 953e c8ce 8bbe a50c 463e 1d02 47be
00000180: 4479 523e 4a14 0ebe 4882 92be fcc1 cbbd
00000190: 7654 303d c7c8 933e 5184 e83d dfdd 00bd
000001a0: 0a8f 88bd 761e be3d 0861 a73d 6e47 a0be
000001b0: 5406 4f3e cd11 b7bc f779 0cbd ece6 29bd
000001c0: 6898 1f3d 2376 2bbe 9ec7 463e 0978 1e3e
000001d0: 6398 babd 1ac4 1c3d bd89 41be 743a b63d
000001e0: dcba 063d 5840 abbd e0ec 3a3d 9db7 15be
000001f0: 1f5c a0bd d377 22bd 3767 42be fddf 733e
00000200: 712a a23d f904 743b 0900 a33c 9c6c abbd
00000210: 250d 2cbb dd98 cb3c ce4b 40be a3c0 e5bb
00000220: c9c7 07bd 29e7 0e3d bc97 04be 91ed ecbc
00000230: 1c99 07be d8f7 73bd baf5 80bd dc26 9cbd
00000240: 8f78 bdbd 5b09 903d f17e 52bd ca9a bfbd
00000250: b19a 9ebc 7311 a53d 6d75 803d e715 a93d
00000260: 9d75 eebd 0624 cd3d 0d2f 053e 32fe e2bd
00000270: 27bf 423c 3b6f 5cba 5e2d e5bd ba4d 573d
00000280: 92a2 ce3c d206 abbd 9b5c 9bbc 9042 d53d
00000290: 3c83 e73d 86ef 213e 091e 23be ed61 14be
000002a0: dbfc 0f3e 0c5b e1bd 2c68 4bbb ac2a e7bb
000002b0: 88fd 5e3d da06 6f3d 74be 9e3d efe3 3fbe
000002c0: 6506 d0bc d3cb babd 45a7 00be be2b ecbd
000002d0: 1848 6dbc a102 c83d f727 40be 9bfd 093c
000002e0: 8cdb d7bd ff84 82bd 3d6c 3f3e 5c6f 453c
000002f0: f5aa 6dbd 1099 a8bc 9ade 87bd 0a4f 9cbd
00000300: 37f9 2e3e 8667 193e d927 0f3e f6f6 f53a
00000310: a27a d13b db79 1fbd 70ae 7bbd 06f4 79bd
00000320: 67b2 443c 2ece 8bbd 0a8f 92bc 6d48 08be
00000330: 45cb 12be ffac ffbd 574a 6b3d aa26 913d
00000340: 0722 d43d 2222 763d 2cb0 1f3e 9e13 c1bc
00000350: 9e95 24bd 8d87 18bd 1654 1fbe c931 003e
00000360: 8c2d 513d c455 5fbc d31f a33c cd47 f3bc
00000370: c53e e53d 3a8f 55be 372b 76bd 213d a73d
00000380: 4231 00bd 6a32 02be a4c6 72bd f5ba e6bd
00000390: fd28 f0bd 7897 693e e6f2 2c3d 43d6 e43c
000003a0: 8b17 0f3e 6edd b23c a6b4 acbd dc60 03bd
000003b0: a03f 663e 79cc d03c 3b3a 923d 4a0e 77bd
000003c0: dcbf bfbc 5e1d c9bd 5126 a43d a4a2 f4bc
000003d0: 1566 4f3d 9ab1 c93d f0c6 99bd 4bfb 693c
000003e0: 1d8d 46bd 95a5 bbbd 506a 4e3e 9bad 37be
000003f0: 49e3 1ebe 24d0 82bc 199e 6dbd 6bef fd3d

encoder.model.bias_ih_l0 f4 [256]
0.109617144 0.07959285 0.031260896 0.119329825 0.21490549 0.12221047 0.046493072 0.26048636
0.20307896 0.14829685 0.38840857 0.1018864 0.07645871 0.07769371 0.20263132 -0.061976906
0.078751236 0.30408636 -0.04514633 -0.094608374 0.069420986 0.18150301 0.0239583 0.24124217
0.0469598 0.09679441 -0.04412787 0.066507526 0.12001638 -0.052610323 0.09098695 0.1509406
0.062875345 0.5782626 0.444121 -0.036917266 -0.011228508 -0.018393565 0.118365966 0.0829772
0.027898014 0.0734978 0.07924345 -0.08970509 -0.06890873 0.63294065 0.04054093 0.044326205
0.0018564658 -0.02214193 0.099001236 0.05292539 -0.051195316 -0.012035305 0.11764599 0.111562125
0.077254675 0.6973889 0.024124628 0.07847468 0.05038972 0.007359819 0.37405685 0.1060875
-0.057570606 0.037646983 -0.12388538 -0.0992331 -0.09258744 -0.08531509 0.13843611 -0.08671411
-0.12338054 -0.120836645 -0.05489199 -0.0053407904 -0.09792804 -0.064562194 -0.051822938 -0.015484222
-0.007513523 0.012976001 0.00069695123 -0.12034693 -0.022460464 0.20397109 -0.06755946 0.05111502
0.08536515 -0.07209363 0.0722789 0.093590856 -0.16905086 0.11449318 -0.030239068 -0.00087084644
0.047102977 -0.12297183 0.034958404 0.09273623 -0.13959044 -0.1371681 0.05568821 0.1366364
0.015305303 -0.0022018729 0.006210567 0.1621079 -0.081964545 0.022282526 0.11716537 -0.10143553
-0.1400573 -0.1062273 -0.19819786 0.0083766375 0.03368217 -0.058491632 -0.087570965 0.1039799
0.0075333086 -0.55993223 -0.06248638 -0.11926293 -0.10032505 -0.033323627 -0.028633915 0.056088094
0.027649058 0.05222441 -0.12596324 -0.1442813 -0.061094448 0.007407689 0.015376192 -0.0777656
0.061394054 0.054677226 -0.062836036 -0.11792742 0.056816757 -0.017736962 0.121447094 0.05890016
-0.014163594 0.0939186 -0.064610146 0.08464545 -0.03495768 -0.08298062 -0.083379686 0.06780892
-0.080032244 0.067861736 0.0537729 -0.10199543 0.014455141 0.024977824 -0.08990398 0.14388832
0.026124017 0.037195075 0.10433769 0.110498354 -0.032061752 -0.060518503 0.13061675 -0.13383724
0.048870903 -0.10226801 -0.08100016 0.089440726 0.06717296 0.080824375 -0.027511254 -0.12186624
0.084027305 -0.12890537 -0.13565037 -0.018617952 0.19317378 -0.022295808 0.014218395 0.14372958
-0.007565152 0.30613542 0.075371556 0.060154248 -0.030951545 0.0030353193 -0.010157988 -0.037643205
0.17083107 0.12454725 0.0027734165 0.047243565 0.21743573 0.10847867 -0.012725545 0.12616652
0.06262883 0.35903928 0.377294 0.08035607 0.12692411 -0.06202309 0.14600107 0.17919235
0.09749795 0.22958635 -0.039673615 -0.059195805 0.17836034 0.025163915 0.06871953 0.12394877
0.2061171 -0.058353234 -0.056258094 0.10045622 -0.10058578 0.052874237 0.17145462 0.030763596
0.016288849 0.37573484 0.20042573 0.05891888 0.12525132 0.08152013 -0.056755956 0.062829375
-0.030162109 -0.041064672 0.14617844 0.1328377 -0.044846248 0.6757896 0.025975766 0.033571612
-0.03538629 0.039889928 0.09229885 0.1902965 0.07528942 -0.07014509 0.17897016 -0.0035026271
0.0686993 0.53571266 0.0068404377 0.1384412 -0.09346999 0.072447054 0.15304801 0.21560678
00000000: f47e e03d 9301 a33d 6d0b 003d 3263 f43d
00000010: 2f10 5c3e 7c49 fa3d 856f 3e3d 785e 853e
00000020: eef3 4f3e 21db 173e 7ddd c63e d1a9 d03d
00000030: 6296 9c3d e11d 9f3d 967e 4f3e 7fdb 7dbd
00000040: 5448 a13d 35b1 9b3e 5ceb 38bd 09c2 c1bd
00000050: 972c 8e3d eddb 393e 3244 c43c 3008 773e
00000060: eb58 403d 263c c63d 6dbf 34bd 1935 883d
00000070: 26cb f53d ec7d 57bd 5e57 ba3d 2c90 1a3e
00000080: cac4 803d 0509 143f d463 e33e 8f36 17bd
00000090: c7f7 37bc 1aae 96bc db69 f23d f3ef a93d
000000a0: 608a e43c 0486 963d 644a a23d 4db7 b7bd
000000b0: 0520 8dbd 6608 223f 3f0e 263d 658f 353d
000000c0: a854 f33a fe62 b5bc 29c1 ca3d 4bc8 583d
000000d0: 2eb2 51bd ba2f 45bc 61f0 f03d af7a e43d
000000e0: b337 9e3d 1488 323f 03a1 c53c 55b7 a03d
000000f0: 7365 4e3d a32a f13b 6184 bf3e 6744 d93d
00000100: 28cf 6bbd b933 1a3d 9eb7 fdbd b93a cbbd
00000110: 7c9e bdbd aeb9 aebd 32c2 0d3e 2b97 b1bd
00000120: f0ae fcbd 3479 f7bd 6cd6 60bd cc01 afbb
00000130: 7f8e c8bd 2f39 84bd 4a44 54bd 89b1 7dbc
00000140: 0034 f6bb 4b99 543c 9bb3 363a 7478 f6bd
00000150: 02ff b7bc ccdd 503e 9d5c 8abd fc5d 513d
00000160: ecd3 ae3d d3a5 93bd f606 943d 90ac bf3d
00000170: ab1b 2dbe 667b ea3d ecb7 f7bc 8449 64ba
00000180: 0def 403d a8d8 fbbd 8b30 0f3d 7eec bd3d
00000190: ccf0 0ebe cb75 0cbe 5219 643d 6aea 0b3e
000001a0: 18c3 7a3c 4c4d 10bb 0382 cb3b 9dff 253e
000001b0: 07dd a7bd d889 b63c 66f4 ef3d 6ebd cfbd
000001c0: 2e6b 0fbe b38d d9bd 61f4 4abe 2a3e 093c
000001d0: 51f6 093d ec94 6fbd 6858 b3bd 6af3 d43d
000001e0: f9d9 f63b b857 0fbf b8f1 7fbd 1f40 f4bd
000001f0: 3877 cdbd 5b7e 08bd ac91 eabc a1bc 653d
00000200: 4780 e23c 43e9 553d 82fc 00be 7abe 13be
00000210: 2c3e 7abd 33bc f23b 6cec 7b3c 9243 9fbd
00000220: 5578 7b3d 3af5 5f3d 2eb0 80bd ee83 f1bd
00000230: b0b8 683d 1b4d 91bc 41b9 f83d 4b41 713d
00000240: 6b0e 68bc 6558 c03d 5352 84bd 985a ad3d
00000250: c92f 0fbd bef1 a9bd f8c2 aabd 67df 8a3d
00000260: f2e7 a3bd 18fb 8a3d f940 5c3d fbe2 d0bd
00000270: 41d5 6c3c 4b9e cc3c 941f b8bd 7657 133e
00000280: 0902 d63c dd59 183d 00af d53d f64c e23d
00000290: 2f53 03bd 40e2 77bd 66c0 053e a10c 09be
000002a0: db2c 483d e471 d1bd 69e3 a5bd b32c b73d
000002b0: fa91 893d 4087 a53d 485f e1bc 0295 f9bd
000002c0: 8216 ac3d c5ff 03be eee7 0abe ad84 98bc
000002d0: 59cf 453e b3a5 b6bc 45f4 683c d92d 133e
000002e0: 18e5 f7bb c8bd 9c3e 675c 9a3d 4d64 763d
000002f0: 188e fdbc 35ec 463b b16d 26bc c32f 1abd
00000300: 57ee 2e3e a112 ff3d 35c2 353b 7882 413d
00000310: 79a7 5e3e 112a de3d ce7e 50bc cc31 013e
00000320: 8b43 803d ffd3 b73e ae2c c13e b991 a43d
00000330: 65f8 013e ec0b 7ebd 4e81 153e 337e 373e
00000340: 01ad c73d af18 6b3e cd80 22bd 4d77 72bd
00000350: 18a4 363e 8e24 ce3c d3bc 8c3d dad8 fd3d
00000360: 5c10 533e cd03 6fbd e36e 66bd febb cd3d
00000370: ebff cdbd a892 583d cd91 2f3e f003 fc3c
00000380: 3170 853c 5160 c03e 673c 4d3e ec54 713d
00000390: e241 003e 07f4 a63d ef78 68bd b0ac 803d
000003a0: 8716 f7bc 6e33 28bd cdaf 153e 9b06 083e
000003b0: b3b0 37bd 8c00 2d3f 21cb d43c 6382 093d
000003c0: 37f1 10bd 9f63 233d 2e07 bd3d 16dd 423e
000003d0: 5731 9a3d 3ba8 8fbd f443 373e 558c 65bb
000003e0: 38b2 8c3d 7724 093f c025 e03b 88c3 0d3e
000003f0: 326d bfbd 1f5f 943d 9eb8 1c3e 06c8 5c3e

encoder.model.bias_hh_l0 f4 [256]
0.12093925 -0.023303306 0.1860454 0.15511474 0.36539236 -0.018019263 -0.08118757 0.2961012
0.30656585 0.24627765 0.22516751 -0.0063727032 0.09591523 0.062570535 0.11716184 -0.0136621045
0.014584124 0.1572885 0.115013756 -0.08554646 0.032717083 0.023775687 -0.015530945 0.18859792
0.16812089 -0.06184114 0.0901464 0.055671375 0.09799908 -0.10378501 0.15028894 0.10411841
-0.12175661 0.42715704 0.39093414 0.012072334 0.036918078 0.142755 0.13386245 0.102681376
0.06919005 0.057790194 0.048217554 -0.054912414 -0.09419523 0.66357523 0.044122845 0.10013828
-0.053125657 0.14113168 0.20804101 0.23134626 0.015903834 0.1223419 0.071024895 0.046938103
0.12572183 0.6932211 0.11544572 0.04848055 -0.06507748 0.17932895 0.18824461 0.29663333
0.07633917 0.038686194 -0.06783824 0.06109412 -0.056488138 -0.033944298 0.14033137 -0.0017968039
-0.13645242 -0.1643216 0.047213648 0.06660314 0.12034536 0.07824345 0.103022635 -0.0014395189
0.075238794 -0.08241921 0.0016530764 -0.03950443 -0.04863984 0.13237573 -0.09777444 -0.05536015
-0.025581365 -0.030205797 0.11287356 0.0125039825 -0.06587525 0.096399784 0.025189368 0.030352794
0.0229536 0.029723404 -0.043125972 -0.05542492 -0.09645732 -0.03936207 -0.033239666 0.0694399
-0.012223012 0.04420101 0.11975483 0.030779138 0.10254094 -0.10175176 0.06556597 -0.058905087
0.009374917 0.020191735 -0.039278805 0.050402507 0.1096121 -0.1278094 -0.12966263 0.06846134
-0.029610952 -0.47451875 0.037723076 0.09701659 0.017954754 0.061243195 -0.03421128 0.04016115
0.16587618 -0.07495393 -0.07927451 0.039475456 -0.076848395 0.079734825 -0.12922417 -0.0908519
0.044209328 0.059515152 -0.119428754 -0.04150045 -0.067417786 -0.09213141 0.15149595 -0.086519405
-0.055652358 0.1247415 -0.023734478 -0.08827448 -0.06620634 0.110694066 -0.04275472 0.031513598
0.06291197 0.11347616 0.09949542 0.02892927 -0.14707294 -0.10879919 -0.030159522 -0.06420764
0.081595995 -0.1051555 0.08336012 -0.02514437 -0.0056115473 -0.00093112886 -0.08899001 -0.080628574
0.020702947 0.024075123 -0.0054318765 -0.07444201 0.022919107 -0.027863672 0.039912786 -0.049977105
0.11210991 -0.12782514 -0.019753816 -0.11037815 -0.049592316 0.0062864968 0.0296267 0.055770013
-0.0058319885 0.18040282 0.066590756 -0.06388589 -0.06333201 0.08447241 0.09216007 0.050820526
0.2721525 0.037289068 0.06011635 0.20438232 0.3668193 0.0864437 0.10527798 0.24036784
0.087150306 0.1947921 0.22233737 -0.10611132 0.0036094442 -0.14382492 0.17015801 0.044543393
-0.039754063 0.12573497 0.09818133 0.04795155 -0.051599935 0.116988406 0.08906599 0.13449103
0.24961857 0.0027707536 -0.046233308 0.06602745 -0.011747701 0.014792473 0.20705281 0.12131552
-0.01745728 0.5439034 0.37927714 -0.052919995 0.022375017 0.017885357 0.1420361 -0.037786532
0.121589035 0.08191269 0.14432116 0.11015547 -0.05322196 0.5400822 0.115654215 -0.07846715
0.04292632 -0.06273743 0.107432045 0.21145014 0.066828944 0.081199266 0.100288235 0.11630399
0.0760979 0.52987784 -0.019627081 -0.04836081 -0.014047469 0.057177987 0.24376422 0.10319574
00000000: ffae f73d 93e6 bebc af82 3e3e 66d6 1e3e
00000010: b514 bb3e 229d 93bc ab45 a6bd 949a 973e
00000020: 33f6 9c3e 3530 7c3e 5092 663e 1cd2 d0bb
00000030: 346f c43d fb24 803d 8cf2 ef3d 05d7 5fbc
00000040: 40f2 6e3c 3d10 213e 558c eb3d fb32 afbd
00000050: 5902 063d 3bc5 c23c 8175 7ebc d01f 413e
00000060: e227 2c3e 234d 7dbd ad9e b83d ab07 643d
00000070: beb3 c83d 3c8d d4bd 58e5 193e 083c d53d
00000080: 885b f9bd 54b4 da3e 8528 c83e 0acb 453c
00000090: 6937 173d 5e2e 123e 3d13 093e 9d4a d23d
000000a0: 83b3 8d3d 69b5 6c3d c57f 453d d7eb 60bd
000000b0: 6ee9 c0bd 11e0 293f 28ba 343d 4c15 cd3d
000000c0: 4a9a 59bd d384 103e b408 553e 09e6 6c3e
000000d0: c248 823c 648e fa3d 8075 913d 2b42 403d
000000e0: 39bd 003e f076 313f ce6e ec3d 8b93 463d
000000f0: 5847 85bd 02a2 373e 32c3 403e 53e0 973e
00000100: b657 9c3d 6a75 1e3d c6ee 8abd d43d 7a3d
00000110: 1b60 67bd 2d09 0bbd 07b3 0f3e bc82 ebba
00000120: 2fba 0bbe ec43 28be 1963 413d 3a67 883d
00000130: a177 f63d 1a3e a03d 88fd d23d 3dae bcba
00000140: cc16 9a3d 67cb a8bd 0aac d83a 66cf 21bd
00000150: 923a 47bd 818d 073e f73d c8bd 53c1 62bd
00000160: 0390 d1bc 2672 f7bc 412a e73d 81dd 4c3c
00000170: 9ae9 86bd 406d c53d ef59 ce3c 6ca6 f83c
00000180: 3009 bc3c 7f7e f33c dca4 30bd 3e05 63bd
00000190: 6a8b c5bd 1f3a 21bd 5126 08bd 8236 8e3d
000001a0: 0743 48bc 1e0c 353d 0542 f53d 8824 fc3c
000001b0: fc00 d23d 3a63 d0bd 7447 863d 7646 71bd
000001c0: 4099 193c 2369 a53c d0e2 20bd dc72 4e3d
000001d0: 4f7c e03d 78e0 02be 48c6 04be 7635 8c3d
000001e0: ab92 f2bc 1ff4 f2be 8383 1a3d a2b0 c63d
000001f0: d915 933c 25da 7a3d 2121 0cbd 0580 243d
00000200: 72db 293e 7281 99bd ad5a a2bd 04b1 213d
00000210: b162 9dbd 034c a33d 5753 04be 9010 babd
00000220: d714 353d 29c6 733d 1097 f4bd 60fc 29bd
00000230: 5612 8abd 65af bcbd c121 1b3e 1631 b1bd
00000240: baf3 63bd 7978 ff3d cf6e c2bc 40c9 b4bd
00000250: 3197 87bd 92b3 e23d 931f 2fbd 6714 013d
00000260: fed7 803d 3066 e83d 41c4 cb3d 14fd ec3c
00000270: 4a9a 16be 1cd2 debd 1a11 f7bc 4c7f 83bd
00000280: cd1b a73d c45b d7bd b6b8 aa3d 91fb cdbc
00000290: 12e1 b7bb 0017 74ba 6540 b6bd 9820 a5bd
000002a0: 3a99 a93c 3139 c53c e2fd b1bb 0d75 98bd
000002b0: dac0 bb3c 5b42 e4bc 977b 233d cbb4 4cbd
000002c0: e199 e53d 98e4 02be c1d2 a1bc f10d e2bd
000002d0: 5021 4bbd f5fe cd3b b1b3 f23c 196f 643d
000002e0: 441a bfbb 84bb 383e bc60 883d 9bd6 82bd
000002f0: 36b4 81bd dfff ac3d 6bbe bc3d 2f29 503d
00000300: 9357 8b3e 6cbc 183d 903c 763d 9949 513e
00000310: bdcf bb3e 6509 b13d fb9b d73d fd22 763e
00000320: dc7b b23d 9577 473e 68ac 633e e450 d9bd
00000330: 6d8c 6c3b d746 13be e73d 2e3e 2273 363d
00000340: 28d5 22bd abc0 003e 4b13 c93d d868 443d
00000350: 745a 53bd 9e97 ef3d 3b68 b63d 04b8 093e
00000360: 039c 7f3e 8895 353b 235f 3dbd 6639 873d
00000370: 6e79 40bc 215c 723c a705 543e 4574 f83d
00000380: 9202 8fbc 413d 0b3f 9d30 c23e a3c2 58bd
00000390: d04b b73c 5084 923c e971 113e 0dc6 1abd
000003a0: ac03 f93d d7c1 a73d edc8 133e 3199 e13d
000003b0: 45ff 59bd d442 0a3f 1edc ec3d 63b3 a0bd
000003c0: 82d3 2f3d 7b7c 80bd 5505 dc3d 6386 583e
000003d0: 9ddd 883d cd4b a63d eb63 cd3d c930 ee3d
000003e0: 37d9 9b3d 13a6 073f f9c8 a0bc fc15 46bd
000003f0: 5b27 66bc 7733 6a3d 549d 793e 4a58 d33d

encoder.model.weight_ih_l1 f4 [256, 64]
-0.057769146 -0.093531735 -0.14191127 -0.0894167 -0.15709008 -0.045425843 -0.056581754 0.041129597
0.08976491 -0.020895602 -0.12988587 0.02285324 -0.0024348164 0.0047176923 0.19362274 -0.22035071
-0.21035409 0.06677009 0.0029371516 -0.07720275 0.0012034053 -0.16541736 -0.2380177 -0.004958482
-0.008891185 0.1723221 -0.044189166 -0.03703634 -0.1188478 0.06715972 -0.01116692 0.07674647
0.00086483866 0.0722036 0.013611747 0.19628537 0.16745834 0.11855227 -0.016885221 -0.12588872
0.045355022 -0.031694636 -0.05169453 -0.07347022 -0.0019407722 0.09106109 -0.021529073 -0.03431874
0.043779634 -0.16667266 -0.027951168 -0.069204606 0.08160095 -0.02657437 0.06246261 0.12894265
-0.06459823 0.09902129 0.15469855 -0.14306547 -0.08433181 0.22615775 0.0019581039 -0.06680705
0.06269312 0.0770183 -0.08874122 -0.14973673 -0.020135093 -0.0055218507 -0.118239045 0.017923875
0.14338231 -0.0019085461 -0.081944555 -0.12405847 -0.025781622 -0.14560375 0.032375086 -0.0075114937
-0.012840053 0.041390315 0.06965518 -0.0723502 -0.09369086 -0.14719613 -0.17081022 -0.016017785
-0.021847123 0.0056422697 -0.036679 -0.059991635 -0.029192973 -0.068455085 -0.2119639 0.1665277
0.11095567 0.045353994 0.07102758 -0.028514069 -0.097942546 0.027916832 -0.23798476 -0.16033559
0.118548036 0.02073021 -0.04347081 -0.0016676702 -0.067112185 0.07252887 0.17043027 -0.16781205
0.1527196 0.069926865 -0.17003372 -0.067402326 0.08530175 -0.14616744 -0.14972037 0.08183872
0.021075554 0.07276825 0.07294978 -0.06291516 0.006151009 0.18577687 -0.11637288 -0.060490992
0.58066446 -0.17163078 -0.10561053 -0.11270832 -0.1653951 -0.049669113 0.036530726 -0.11809599
0.039975647 0.14671978 -0.11408548 -0.11951652 -0.030353034 0.002003645 0.11083391 0.12991546
0.018753394 0.29007378 -0.1767781 -0.0029481612 -0.077145085 0.11809143 0.005222569 0.13070486
-0.01013402 0.13061024 0.08079769 0.03537515 0.06842141 -0.11907619 -0.33708954 0.025970735
0.040953834 -0.15300915 0.44573903 0.06817118 -0.023245605 -0.02588233 -0.17624336 -0.057099164
-0.07894309 -0.05751237 -0.2256541 -0.20970406 0.06470025 0.25638017 0.022535434 0.03914444
0.09217804 -0.0126426965 -0.10012637 -0.14129779 0.041716576 -0.0864378 -0.08955873 -0.010734041
-0.027401531 0.22223186 -0.16508037 0.025179988 0.10651151 0.28429702 -0.089139536 -0.22316748
0.054770973 -0.24408142 -0.015555163 -0.13680993 -0.18120718 -0.08715508 -0.06288018 -0.29194602
0.0010811148 0.16557182 -0.17997462 -0.19030344 -0.070838064 -0.14762433 0.23053466 -0.28893155
-0.209265 0.2444638 -0.05529148 -0.24723992 -0.10957515 -0.1551672 -0.13271414 0.096894324
-0.14478967 0.149277 0.30333698 0.13057253 -0.056656964 0.10913295 -0.30590034 0.21880235
0.05766876 0.09688688 0.232777 0.04086964 0.0067339875 0.10273645 -0.006642511 -0.27824304
0.0008566814 -0.22824952 -0.16865373 0.17172502 0.22053306 0.18648206 -0.07509135 -0.19868116
0.037472397 -0.205657 -0.13744017 -0.10268399 0.26260546 -0.052565217 0.021898642 0.23671366
-0.28221762 0.17196779 0.031809587 0.08540551 -0.08176129 0.047771543 -0.039710704 -0.017702585
00000000: 579f 6cbd 918d bfbd 3051 11be 1a20 b7bd
00000010: 39dc 20be 7310 3abd 45c2 67bd 8277 283d
00000020: aad6 b73d 412d abbc cd00 05be b836 bb3c
00000030: 7191 1fbb df96 9a3b 0a45 463e 9ea3 61be
00000040: 1067 57be c2be 883d 3a7d 403b 7a1c 9ebd
00000050: 95bb 9d3a 2b63 29be e9ba 73be c37a a2bb
00000060: 55ac 11bc 3475 303e b3ff 34bd 6bb3 17bd
00000070: 7a66 f3bd 098b 893d 75f5 36bc 412d 9d3d
00000080: 57b6 623a 7bdf 933d ce03 5f3c 08ff 483e
00000090: 337a 2b3e 88cb f23d e052 8abc f9e8 00be
000000a0: 30c6 393d 3cd2 01bd a5bd 53bd 8e77 96bd
000000b0: 8261 feba 3d7e ba3d bd5d b0bc cf91 0cbd
000000c0: 4652 333d 3dac 2abe d9f9 e4bc 25bb 8dbd
000000d0: 661e a73d 7eb2 d9bc cbd8 7f3d 8b09 043e
000000e0: 144c 84bd adcb ca3d 4c69 1e3e c17f 12be
000000f0: 28b6 acbd e695 673e 8853 003b 22d2 88bd
00000100: 4065 803d c5bb 9d3d f5bd b5bd 9654 19be
00000110: 5af2 a4bc a4f0 b4bb 5027 f2bd 17d5 923c
00000120: d0d2 123e 2e28 faba 8cd2 a7bd 5e12 febd
00000130: fb33 d3bc 2619 15be bd9b 043d fa22 f6bb
00000140: 165f 52bc e488 293d 60a7 8e3d 572c 94bd
00000150: fee0 bfbd 95ba 16be e0e8 2ebe bb37 83bc
00000160: bdf8 b2bc cae2 b83b b83c 16bd cab9 75bd
00000170: 1a26 efbc 2e32 8cbd 110d 59be 3d86 2a3e
00000180: ba3c e33d 1cc5 393d e876 913d 5696 e9bc
00000190: 1a96 c8bd d7b1 e43c 47b2 73be 032f 24be
000001a0: 50c9 f23d 67d2 a93c 730e 32bd ba95 daba
000001b0: 1d72 89bd 048a 943d 4685 2e3e ecd6 2bbe
000001c0: 8762 1c3e d135 8f3d 521d 2ebe 3b0a 8abd
000001d0: afb2 ae3d ebac 15be 4c50 19be 0f9b a73d
000001e0: a4a6 ac3c 8507 953d b266 953d aad9 80bd
000001f0: 678e c93b 4b3c 3e3e e854 eebd 67c5 77bd
00000200: 6da6 143f fbbf 2fbe 554a d8bd 9fd3 e6bd
00000210: 555d 29be d771 4bbd 3ea1 153d 4fdc f1bd
00000220: 81bd 233d b63d 163e a6a5 e9bd 14c5 f4bd
00000230: eda6 f8bc 964f 033b e4fc e23d 8f08 053e
00000240: b8a0 993c 8d84 943e 5105 35be f035 41bb
00000250: 3efe 9dbd ebd9 f13d 1622 ab3b 7fd7 053e
00000260: 2909 26bc b1be 053e 4279 a53d 89e5 103d
00000270: 8620 8c3d 38de f3bd 0097 acbe 94c0 d43c
00000280: 35bf 273d 6eae 1cbe e837 e43e 559d 8b3d
00000290: 916d bebc 2e07 d4bc 2479 34be d0e0 69bd
000002a0: eaac a1bd 1792 6bbd de11 67be a9bc 56be
000002b0: 9181 843d 4344 833e 3b9c b83c ec55 203d
000002c0: d7c7 bc3d 5023 4fbc 0e0f cdbd 5eb0 10be
000002d0: 00df 2a3d 4d06 b1bd 916a b7bd d5dd 2fbc
000002e0: 2d79 e0bc c090 633e d40a 29be 4346 ce3c
000002f0: b522 da3d 618f 913e ca8e b6bd 0486 64be
00000300: 8757 603d 7bf0 79be 15db 7ebc e717 0cbe
00000310: 608e 39be 5d7e b2bd 53c7 80bd f379 95be
00000320: 31b4 8d3a a98b 293e 444b 38be e8de 42be
00000330: 8c13 91bd d52a 17be 4711 6c3e d6ee 93be
00000340: 9049 56be b854 7a3e 5279 62bd 762c 7dbe
00000350: f068 e0bd 27e4 1ebe 37e6 07be 8870 c63d
00000360: be43 14be 12dc 183e fc4e 9b3e ceb4 053e
00000370: 2211 68bd 1981 df3d f89e 9cbe b90d 603e
00000380: 1436 6c3d a16c c63d 185d 6e3e ec66 273d
00000390: c8a8 dc3b 7d67 d23d 6ca9 d9bb df75 8ebe
000003a0: ea92 603a 3eba 69be 90b3 2cbe afd8 2f3e
000003b0: 6bd3 613e 27f5 3e3e 7ec9 99bd 1373 4bbe
000003c0: a87c 193d c097 52be 1ebd 0cbe fc4b d2bd
000003d0: 3974 863e a04e 57bd c864 b33c 1165 723e
000003e0: d47e 90be 5318 303e c54a 023d 16e9 ae3d
000003f0: 7772 a7bd 18ac 433d b1a7 22bd 0305 91bc

encoder.model.weight_hh_l1 f4 [256, 64]
0.03398046 0.16218866 0.0005161183 0.045193978 0.103083275 -0.042726897 -0.13606672 -0.19704707
-0.014436848 -0.14921522 0.16538143 -0.053946 0.028935207 0.037184503 0.10595929 -0.16291682
-0.12589549 0.018677805 0.047389224 -0.036037013 0.053351186 0.068084605 0.041004144 -0.031449538
-0.04184843 -0.033320587 0.1396251 -0.06573289 0.09517395 0.20459774 -0.13461894 0.06376257
0.031070253 0.012479861 0.05815841 0.08969838 -0.02153016 -0.015613407 0.08829565 0.030431591
-0.059755478 -0.08284317 -0.05948523 0.014512646 0.06151087 0.005052911 0.11238255 0.023565466
-0.17994922 0.04174856 0.09374287 0.040099375 -0.0012996924 0.050808948 0.117769465 -0.009701786
0.047817435 -0.0293751 0.06062157 -0.017743124 0.097624674 -0.020005988 0.032389864 -0.027779676
0.13422424 -0.055644765 -0.09665393 -0.0012443465 -0.14770618 -0.1902252 0.053720087 0.03198643
-0.0728007 -0.17025277 0.055777192 0.13192232 -0.15014026 -0.15765989 0.19830118 0.10729703
-0.106339715 -0.0032560695 0.12738584 -0.08486551 -0.08528367 -0.114603 0.10696271 -0.09174639
-0.111586526 -0.06159862 0.0049310257 -0.0723035 0.393802 -0.066136934 -0.033224117 0.020667827
-0.0011999969 -0.11213559 0.19201493 0.2482492 0.091808245 -0.107933775 0.08302158 0.17258285
-0.14793882 -0.21626276 -0.0444204 -0.20639156 0.102237105 -0.24062862 -0.062163237 -0.005914656
-0.1722836 0.19438511 0.050715607 0.12094285 0.027426342 -0.14754814 0.09033405 0.058776237
0.031010373 -0.025385492 0.35326508 0.06867043 0.2408455 -0.1321674 -0.041800477 -0.14581488
0.18234123 0.14752722 0.0338743 -0.17138925 0.0508471 0.07062159 -0.09815687 -0.18251918
0.117216855 -0.09029203 0.07367597 0.1399863 0.069224305 -0.056309033 0.09710343 0.1414806
-0.0051881457 -0.06393328 0.010592599 -0.015461033 -0.2886015 -0.095475756 0.011908214 -0.0018882968
-0.07482891 -0.07923166 0.034546915 -0.0995852 0.02423189 0.14732403 0.017545274 0.0017265305
0.08043576 -0.16568811 -0.056666993 0.18814889 0.041035544 -0.15182817 -0.02298928 0.11303739
-0.2055755 -0.05421548 0.045801487 0.122450344 -0.014465099 -0.02503392 -0.11916658 -0.043582432
-0.07245886 0.18804537 -0.18173145 0.066188835 0.15682377 -0.18433817 -0.048896402 0.12469146
-0.009937786 -0.0032613492 0.087822236 0.15406236 -0.025814895 0.000675017 0.055920456 0.06175175
0.28735885 -0.024491128 -0.011691599 -0.031548504 -0.1396442 -0.14773665 0.011768549 0.018236944
-0.1370639 -0.06953299 0.12469235 0.21825029 -0.09423644 -0.15293442 0.15269467 0.18346061
0.024377061 0.06732031 -0.12116612 0.04410425 -0.029128483 -0.27914023 0.036054414 -0.048060838
-0.12771814 0.037069216 -0.052630343 0.00881455 0.072525 0.15264621 -0.028110532 0.14362907
-0.032246124 0.036431078 0.11577725 0.17609489 0.029038794 -0.11839586 0.0021859906 -0.062011104
-0.10589538 0.0020734812 -0.2673012 -0.24575475 -0.00790956 -0.17890443 0.10372558 0.25003684
-0.23042715 0.2167783 0.029584544 -0.059158623 0.017473502 0.083475605 0.07295847 -0.013614398
0.0919813 -0.041547164 0.060486797 0.07912234 0.13812588 -0.0026016308 -0.047679864 -0.30524147
00000000: 182f 0b3d c914 263e 1d4c 073a 521d 393d
00000010: 531d d33d 6602 2fbd 1355 0bbe b5c6 49be
00000020: 8888 6cbc e0cb 18be c059 293e 7bf6 5cbd
00000030: 8709 ed3c c74e 183d 2f01 d93d abd3 26be
00000040: bfea 00be 3202 993c 341b 423d 8c9b 13bd
00000050: c686 5a3d f16f 8b3d f6f3 273d 3bd1 00bd
00000060: 4269 2bbd 2b7b 08bd e2f9 0e3e f79e 86bd
00000070: 8fea c23d 1282 513e 8cd9 09be f395 823d
00000080: 0b87 fe3c 5578 4c3c 8337 6e3d c9b3 b73d
00000090: 0560 b0bc 60cf 7fbc 5ad4 b43d ac4b f93c
000000a0: 29c2 74bd aea9 a9bd c9a6 73bd 73c6 6d3c
000000b0: d2f2 7b3d e492 a53b d328 e63d 5d0c c13c
000000c0: 9c44 38be 8a00 2b3d 43fc bf3d 3e3f 243d
000000d0: 715a aaba 0b1d 503d 1e31 f13d 3df4 1ebc
000000e0: 37dc 433d 0da4 f0bc 534e 783d 075a 91bc
000000f0: 72ef c73d 99e3 a3bc 3cab 043d 3492 e3bc
00000100: 1472 093e c4eb 63bd 7ff2 c5bd 5719 a3ba
00000110: 4a40 17be 65ca 42be 9809 5c3d 3404 033d
00000120: 8918 95bd be56 2ebe a076 643d a516 073e
00000130: 5ebe 19be 9871 21be 770f 4b3e 8cbe db3d
00000140: a3c8 d9bd c863 55bb 6f71 023e f8cd adbd
00000150: 34a9 aebd fab4 eabd 440f db3d 88e5 bbbd
00000160: 7a87 e4bd d64e 7cbd 7194 a13b db13 94bd
00000170: 6aa0 c93e cd72 87bd 0316 08bd 934f a93c
00000180: 3749 9dba 58a7 e5bd 909f 443e 0a35 7e3e
00000190: f605 bc3d 620c ddbd 3807 aa3d 8fb9 303e
000001a0: 467d 17be fc73 5dbe 2af2 35bd 4f58 53be
000001b0: b061 d13d 5967 76be e19e 7ebd bbcf c1bb
000001c0: 1d6b 30be e40c 473e 2bbb 4f3d e3b0 f73d
000001d0: 35ad e03c dc16 17be 0f01 b93d 5abf 703d
000001e0: 7709 fe3c 3cf5 cfbc 29df b43e 15a3 8c3d
000001f0: 34a0 763e e456 07be fa36 2bbd 7f50 15be
00000200: a9b7 3a3e 6011 173e c7bf 0a3d aa80 2fbe
00000210: 0c45 503d 0da2 903d 7806 c9bd 4fe6 3abe
00000220: 640f f03d 07eb b8bd 6de3 963d 9258 0f3e
00000230: 79c5 8d3d 4da4 66bd 2ade c63d 4ae0 103e
00000240: 5201 aabb 74ef 82bd 958c 2d3c 4650 7dbc
00000250: 93c3 93be cb88 c3bd ab1a 433c ba80 f7ba
00000260: e63f 99bd 3544 a2bd 1181 0d3d 53f3 cbbd
00000270: f581 c63c 1cdc 163e 1bbb 8f3c c04c e23a
00000280: 81bb a43d 25aa 29be a61b 68bd 1aaa 403e
00000290: e314 283d d878 1bbe 0454 bcbc 2680 e73d
000002a0: 6282 52be 0d11 5ebd 579a 3b3d 3fc7 fa3d
000002b0: 06ff 6cbc ef13 cdbc 9c0d f4bd 7e83 32bd
000002c0: 5065 94bd f78e 403e cf17 3abe 038e 873d
000002d0: 6996 203e 25c3 3cbe 9847 48bd 3c5e ff3d
000002e0: 18d2 22bc 5cbc 55bb 25dc b33d 86c2 1d3e
000002f0: c279 d3bc a0f3 303a d90c 653d 67ef 7c3d
00000300: b320 933e 9ea1 c8bc 1f8e 3fbc 0139 01bd
00000310: e4fe 0ebe 4748 17be dfd0 403c a565 953c
00000320: 7b5a 0cbe 5067 8ebd b45e ff3d 017d 5f3e
00000330: 09ff c0bd d79a 1cbe fe5b 1c3e 19dd 3b3e
00000340: 67b2 c73c 3bdf 893d f125 f8bd a8a6 343d
00000350: db9e eebc 78eb 8ebe cbad 133d 71db 44bd
00000360: 8bc8 02be e4d5 173d ea92 57bd e76a 103c
00000370: fd87 943d 4a4f 1c3e 0f48 e6bc 8013 133e
00000380: 8314 04bd c138 153d 9f1c ed3d 3852 343e
00000390: c4e2 ed3c 8779 f2bd d642 0f3b 5bff 7dbd
000003a0: addf d8bd 3ee3 073b b4db 88be 22a7 7bbe
000003b0: 1997 01bc b932 37be 146e d43d d404 803e
000003c0: 18f5 6bbe 21fb 5d3e 495b f23c 5050 72bd
000003d0: 9724 8f3c 42f5 aa3d 406b 953d ed0e 5fbc
000003e0: b160 bc3d 5c2d 2abd 01c1 773d e50a a23d
000003f0: df70 0d3e 1f80 2abb f64b 43bd 9c48 9cbe

encoder.model.bias_ih_l1 f4 [256]
0.054344494 0.0670252 -0.0033237112 0.2509498 0.04795666 0.13763304 0.049770005 -0.00032541243
0.06740622 0.28346252 0.11555739 0.21472551 0.14399604 0.074862935 -0.04823872 0.13869964
1.1286212 -0.055453487 0.051173665 -0.016006837 0.7822811 0.072481394 -0.06289348 -0.009975707
0.4105208 0.08060218 0.17073885 0.15404026 0.0553274 0.14800522 0.30044064 0.44288817
0.058917023 0.19194439 0.15608338 -0.005915526 0.022726635 -0.042545754 0.0025902356 -0.035643473
-0.08785549 0.052570865 -0.06525122 -0.072854504 -0.061224584 -0.05393495 0.16974866 -0.06917312
0.11953213 0.06903921 0.19420645 0.19074178 0.19420211 -0.0017569703 0.093629695 0.1826978
0.23275623 0.18291622 0.086197175 0.023587463 -0.004613037 -0.052973945 -0.05600237 -0.10588303
0.0581876 0.13863589 -0.12311911 0.1538016 -0.06749957 -0.13726518 -0.09362305 -0.04356107
-0.095941566 -0.15462244 -0.06279708 0.038682647 -0.06260776 -0.017215861 -0.014479453 -0.0053473394
-0.07069936 -0.08960635 0.15798183 0.0678658 -0.11110531 -0.08481754 -0.009939674 0.045933608
0.06344473 0.07103544 -0.06571212 -0.05914923 -0.106351584 0.049035043 0.08232985 0.041073162
-0.13472746 0.078248456 -0.061751325 -0.04426102 0.06938547 -0.055976097 0.0320019 0.07116155
0.1194249 0.09149984 -0.11742627 -0.030946879 0.0811902 -0.092878774 0.026310721 -0.09695873
0.11153465 0.030076819 0.19625503 0.020587642 -0.021431694 0.019020274 -0.019199666 0.21677165
-0.021511726 -0.14104754 -0.08226744 -0.049052548 0.10208255 -0.01603397 -0.083038755 -0.020509932
0.12235785 -0.022521809 0.00279184 -0.07956415 -0.12913503 -0.06565102 -0.030651905 0.0170472
-0.035397403 -0.09444771 0.04522606 0.08360809 -0.049982835 -0.13526876 0.03133746 0.09331329
-0.053402383 -0.056371566 -0.05251943 -0.20262708 0.032901786 -0.033054944 -0.005499044 0.03410189
-0.43501008 0.13594705 -0.024883745 0.0051368866 0.09925622 0.040569577 -0.048888974 0.054130573
0.046412863 0.045628652 0.53472406 0.13181338 0.07121219 -0.083999835 -0.008939904 0.04262247
-0.015755001 0.00027298118 -0.11286905 0.043968685 -0.05403492 0.0149503555 -0.046106514 -0.022667913
-0.15316239 0.10317351 -0.014412587 -0.01215837 0.13184994 0.115871646 0.13258788 0.060570102
0.02586823 0.03261719 0.14020193 -0.011530893 0.02988474 0.010848582 0.05763798 -0.122474454
0.07756861 0.06324002 0.08939511 0.2567326 0.09602093 -0.037283864 -0.051974986 -0.050128255
-0.014193293 0.104392424 0.06528971 0.30982018 -0.046744544 -0.12422769 0.14378504 0.029896373
1.1367658 -0.0068224207 -0.0070682345 0.15733477 0.7377729 -0.08370235 -0.025699642 -0.08202476
0.09454876 0.018831113 0.15004028 0.14046817 0.1520183 0.083967365 -0.03934516 0.6116483
0.17409068 0.05257986 -0.12783916 0.15656394 0.04962753 0.07755339 0.008784074 -0.054058176
0.13392597 0.040320586 -0.1006867 0.010121205 0.11583506 -0.040760707 0.08874911 -0.094472185
0.06563433 0.091795355 0.17238939 0.043583687 0.098190494 0.12376685 0.07808601 0.20771362
0.0140101435 0.008618397 0.045159556 0.1689244 0.13261272 0.11748108 0.1304449 0.11061984
00000000: 5598 5e3d 8244 893d 9fd2 59bb 7e7c 803e
00000010: 346e 443d adef 0c3e a2db 4b3d 1e9c aab9
00000020: 460c 8a3d 0022 913e 5aa9 ec3d 01e1 5b3e
00000030: b373 133e bd51 993d f795 45bd 4707 0e3e
00000040: a976 903f 3223 63bd 7a9b 513d c520 83bc
00000050: 9343 483f 2071 943d 4cce 80bd 2671 23bc
00000060: c82f d23e c112 a53d 2ad6 2e3e bbbc 1d3e
00000070: fc9e 623d ae8e 173e 5bd3 993e 3dc2 e23e
00000080: fa52 713d 128d 443e 52d4 1f3e 07d7 c1bb
00000090: 352d ba3c 7544 2ebd f1c0 293b e4fe 11bd
000000a0: 94ed b3bd 8c54 573d 6ea2 85bd be34 95bd
000000b0: a1c6 7abd e5ea 5cbd 98d2 2d3e a3aa 8dbd
000000c0: 43cd f43d 6e64 8d3d 0ede 463e d051 433e
000000d0: ebdc 463e 244a e6ba edc0 bf3d 2215 3b3e
000000e0: a657 6e3e 644e 3b3e 2588 b03d 7f3a c13c
000000f0: f628 97bb 35fb 58bd be62 65bd 34d9 d8bd
00000100: 1f56 6e3d 91f6 0d3e df25 fcbd 2b7e 1d3e
00000110: 373d 8abd 3e8f 0cbe 71bd bfbd 186d 32bd
00000120: 037d c4bd 5855 1ebe c19b 80bd b271 1e3d
00000130: 7f38 80bd 4708 8dbc 3a3b 6dbc bc38 afbb
00000140: d3ca 90bd 8983 b7bd fdc5 213e 39fd 8a3d
00000150: 2e8b e3bd d2b4 adbd 04da 22bc e124 3c3d
00000160: 50ef 813d 077b 913d 1394 86bd 7746 72bd
00000170: dcce d9bd f8d8 483d 8d9c a83d 553c 283d
00000180: fff5 09be ba40 a03d f5ee 7cbd 0b4b 35bd
00000190: f819 8e3d 3147 65bd 6d14 033d 26bd 913d
000001a0: 0b95 f43d 4564 bb3d 2f7d f0bd 4f84 fdbc
000001b0: 0c47 a63d 3a37 bebd 9589 d73c 4c92 c6bd
000001c0: 476c e43d a963 f63c 14f7 483e 6aa7 a83c
000001d0: 8591 afbc 68d0 9b3c 9e48 9dbc 63f9 5d3e
000001e0: 5c39 b0bc c46e 10be d57b a8bd 53eb 48bd
000001f0: a810 d13d ac59 83bc 3910 aabd 7204 a8bc
00000200: c196 fa3d a87f b8bc 4df7 363b 87f2 a2bd
00000210: f93b 04be 0b74 86bd b419 fbbc 92a6 8b3c
00000220: defc 10bd cd6d c1bd f63e 393d b83a ab3d
00000230: cdba 4cbd e583 0abe b55b 003d 0a1b bf3d
00000240: 75bc 5abd dfe5 66bd 9d1e 57bd 797d 4fbe
00000250: 06c4 063d 9f64 07bd 5331 b4bb 6cae 0b3d
00000260: a4b9 debe b435 0b3e ffd8 cbbc 5453 a83b
00000270: d846 cb3d 492c 263d ce3f 48bd 05b8 5d3d
00000280: 6a1b 3e3d 1ce5 3a3d ade3 083f 16fa 063e
00000290: b2d7 913d 1b08 acbd ad78 12bc e694 2e3d
000002a0: a210 81bc ea1e 8f39 e327 e7bd 8218 343d
000002b0: b853 5dbd 56f2 743c 2fda 3cbd 0fb2 b9bc
000002c0: 9ad6 1cbe a24c d33d c522 6cbc e633 47bc
000002d0: ac03 073e 1d4e ed3d 1ec5 073e 5b18 783d
000002e0: 9ce9 d33c 9a99 053d 1891 0f3e 12ec 3cbc
000002f0: d8d0 f43c 40be 313c cd15 6c3d e3d3 fabd
00000300: 4bdc 9e3d fc83 813d c914 b73d 7572 833e
00000310: 9fa6 c43d f7b6 18bd b9e3 54bd 4953 4dbd
00000320: fc8a 68bc b2cb d53d 9db6 853d c0a0 9e3e
00000330: 3577 3fbd 166b febd 633c 133e 3de9 f43c
00000340: 8b81 913f 9d8e dfbb a69c e7bb 5e1c 213e
00000350: afde 3c3f 236c abbd 0e88 d2bc 99fc a7bd
00000360: c8a2 c13d b543 9a3c 29a4 193e e3d6 0f3e
00000370: afaa 1b3e 15f7 ab3d 6428 21bd fc94 1c3f
00000380: d444 323e fb5d 573d 45e8 02be 4c52 203e
00000390: 3d46 4b3d 50d4 9e3d 14eb 0f3c 1b6c 5dbd
000003a0: e423 093e 3327 253d d434 cebd 69d3 253c
000003b0: ef3a ed3d b3f4 26bd 18c2 b53d a27a c1bd
000003c0: 4b6b 863d 34ff bb3d d886 303e cf84 323d
000003d0: 1918 c93d 7979 fd3d 8feb 9f3d e1b2 543e
000003e0: cd8a 653c 2d34 0d3c 3af9 383d 85fa 2c3e
000003f0: a1cb 073e ec99 f03d 5993 053e a88c e23d

encoder.model.bias_hh_l1 f4 [256]
0.09811925 0.10962648 -0.041568477 0.096714325 0.035688773 0.008662269 -0.048998885 0.069999
-0.1559863 0.1718063 0.042499654 0.19989718 0.13781756 0.070512824 -0.034836758 0.16248327
1.1024127 0.07427545 -0.100312166 0.1789747 0.69679993 -0.08634157 -0.038587324 -0.047299664
0.4073633 0.10435913 0.11552646 0.012727024 0.11241776 0.020436238 0.39612582 0.53916395
0.08056662 -0.013757332 0.20460595 0.05798992 -0.024248065 0.004232873 0.094059676 0.07398386
-0.00651413 0.1673954 0.131736 0.11917688 0.038775243 0.013213295 0.25377202 -0.04407165
-0.06038275 0.11700205 0.2517144 0.018584458 0.13646881 0.06360332 0.11569798 0.3056233
-0.007822459 0.026184203 0.03111378 0.20413871 0.045133155 0.006155161 -0.05291688 -0.09128831
-0.13239677 0.06160055 -0.09618852 0.0023931602 -0.066943996 -0.09686697 0.034624834 0.036582395
-0.15686218 -0.026160805 -0.060038324 -0.10603957 0.029946072 0.06267825 -0.12993051 -0.14866094
0.020076895 0.10977757 -0.030558452 -0.12475809 -0.055301335 -0.080102876 -0.0973652 -0.054176323
0.15024024 -0.049926892 -0.121474735 0.102646194 -0.105750926 -0.12209546 0.1152428 0.059322633
-0.1704378 0.02734193 0.016526263 -0.07646426 -0.14225817 0.02190539 0.04251618 0.121950656
-0.068542026 -0.048437867 0.11104208 0.09808006 0.115726285 -0.06874401 -0.09083559 -0.03663978
-0.056218617 -0.024171906 0.24836922 0.069421485 -0.022356432 0.12475631 0.0698503 0.18586542
-0.07130172 -0.086145 0.041847825 -0.031555053 0.07325525 -0.005107814 0.06092531 0.05444118
-0.016309904 0.08307594 -0.10821217 0.1307236 0.017830249 -0.10371035 0.057753295 -0.055453584
0.03877883 -0.0083993515 0.16260506 0.082575195 -0.014453806 -0.09806884 0.05387307 -0.04108717
0.08215607 0.13974188 -0.080780216 -0.043696262 0.07813855 0.0054441877 0.05091136 0.022310868
-0.3350435 -0.0142592965 0.03128952 0.02018475 0.072127804 0.028501311 -0.20885688 -0.06576104
0.11131551 -0.038943972 0.5121858 -0.09497461 -0.0029140315 -0.011672019 -0.014018016 0.0992748
-0.10109992 0.09153966 -0.08193094 -0.07602589 0.08159899 -0.10087628 -0.07104984 0.051459864
-0.04491707 0.13713238 0.009156268 0.09917714 -0.048224874 -0.077768184 0.11427226 0.060516585
0.21211223 0.075029835 0.062232163 0.028406579 -0.01835396 -0.04886413 -0.13368545 -0.09373292
0.006765418 0.14091676 0.17070301 0.014144993 0.08211235 0.023655446 0.14254056 0.15800644
-0.06354649 0.118769 -0.053595707 0.22689535 0.03821185 0.021867128 0.17263786 -0.026523888
1.0259565 0.019212455 -0.07280879 0.10719152 0.69403046 -0.04811601 0.14592265 -0.02249124
-0.013669581 -0.019605096 0.2003358 -0.038390853 0.192482 0.04525719 -0.11804001 0.56481886
0.20085202 0.12483548 -0.067627855 0.03255533 -0.003172757 0.15171285 0.06022378 -0.01362087
-0.08542324 0.21402003 -0.10968199 -0.046649024 0.11991147 0.026330693 0.16994011 0.10133578
-0.076618634 -0.07101388 0.25639918 -0.036574785 0.10235778 -0.004910758 0.036590617 0.07258646
-0.09197257 0.030025534 0.12064784 0.22155273 -0.09042169 -0.014556281 0.091326155 0.10470011
00000000: bff2 c83d d983 e03d b543 2abd 2912 c63d
00000010: 642e 123d 31ec 0d3c 0eb3 48bd a35b 8f3d
00000020: dfba 1fbe feed 2f3e 1e14 2e3d d9b1 4c3e
00000030: 0c20 0d3e 0769 903d fdb0 0ebd 0462 263e
00000040: dc1b 8d3f ba1d 983d 7770 cdbd 2545 373e
00000050: 7b61 323f d9d3 b0bd be0d 1ebd 4bbd 41bd
00000060: ec91 d03e 3dba d53d 2399 ec3d 0285 503c
00000070: 483b e63d e669 a73c 01d1 ca3e a606 0a3f
00000080: 1d00 a53d 6f66 61bc 3984 513e d786 6d3d
00000090: e1a3 c6bc eab3 8a3b 5ca2 c03d da84 973d
000000a0: 7c74 d5bb b369 2b3e cde5 063e 0213 f43d
000000b0: cad2 1e3d 937c 583c 68ee 813e 7984 34bd
000000c0: e753 77bd c59e ef3d b6e0 803e 6f3e 983c
000000d0: 7bbe 0b3e 7542 823d 10f3 ec3d a87a 9c3e
000000e0: c529 00bc 4180 d63c 53e2 fe3c bd09 513e
000000f0: 8bdd 383d 3cb1 c93b 5fbf 58bd 5ef5 babd
00000100: 0593 07be dc50 7c3d 7dfe c4bd 91d6 1c3b
00000110: ef19 89bd 3162 c6bd c5d2 0d3d 6cd7 153d
00000120: 7ba0 20be 2f4f d6bc bfea 75bd 462b d9bd
00000130: 7751 f53c 745d 803d 810c 05be 933a 18be
00000140: 4d78 a43c 10d3 e03d b855 fabc 2b81 ffbd
00000150: a783 62bd fa0c a4bd 6867 c7bd fee7 5dbd
00000160: 94d8 193e 2480 4cbd bfc7 f8bd 2b38 d23d
00000170: f193 d8bd 2f0d fabd 6b04 ec3d 4afc 723d
00000180: 3f87 2ebe 2ffc df3c 1662 873c 4b99 9cbd
00000190: 20ac 11be ef72 b33c 7225 2e3d 44c1 f93d
000001a0: c35f 8cbd c966 46bd 086a e33d 33de c83d
000001b0: e701 ed3d a9c9 8cbd 0308 babd 9813 16bd
000001c0: 7e45 66bd 2904 c6bc 8054 7e3e da2c 8e3d
000001d0: d624 b7bc 3c80 ff3d ad0d 8f3d 8153 3e3e
000001e0: a306 92bd ca6c b0bd a068 2b3d df3f 01bd
000001f0: d906 963d 735f a7bb d18c 793d b7fd 5e3d
00000200: 599c 85bc b823 aa3d 589e ddbd 68dc 053e
00000210: be10 923c 1866 d4bd b88e 6c3d 4c23 63bd
00000220: 8dd6 1e3d 6f9d 09bc f181 263e 2f1d a93d
00000230: a8cf 6cbc 51d8 c8bd 02aa 5c3d 054b 28bd
00000240: 7141 a83d 7f18 0f3e 1970 a5bd dafa 32bd
00000250: 1b07 a03d 2865 b23b 6e88 503d 48c5 b63c
00000260: d28a abbe d39f 69bc 7129 003d 7d5a a53c
00000270: beb7 933d 957b e93c 94de 55be b9ad 86bd
00000280: 63f9 e33d b783 1fbd 9c1e 033f 0c82 c2bd
00000290: 56f9 3ebb ff3b 3fbc d2ab 65bc 9650 cb3d
000002a0: 7a0d cfbd 2579 bb3d 69cb a7bd 76b3 9bbd
000002b0: 5f1d a73d 3998 cebd 9482 91bd 94c7 523d
000002c0: f6fa 37bd 6e6c 0c3e 2c04 163c 621d cb3d
000002d0: 7287 45bd ed44 9fbd 9307 ea3d 3de0 773d
000002e0: f333 593e 3ea9 993d 27e7 7e3d eab4 e83c
000002f0: 0b5b 96bc c125 48bd d7e4 08be 0cf7 bfbd
00000300: 71b0 dd3b 7c4c 103e c5cc 2e3e 67c0 673c
00000310: 852a a83d 11c9 c13c 27f6 113e 71cc 213e
00000320: aa24 82bd 293d f33d 2c87 5bbd 4157 683e
00000330: 0784 1c3d b122 b33c fbc7 303e a048 d9bc
00000340: 8b52 833f 7063 9d3c c61c 95bd 3a87 db3d
00000350: fbab 313f 4b15 45bd bf6c 153e 8d3f b8bc
00000360: 61f6 5fbc de9a a0bc d424 4d3e ba3f 1dbd
00000370: 001a 453e 9a5f 393d f6be f1bd f897 103f
00000380: 27ac 4d3e bea9 ff3d 7980 8abd bd58 053d
00000390: 08ee 4fbb 9d5a 1b3e 36ad 763d 122a 5fbc
000003a0: 61f2 aebd 1128 5b3e f4a0 e0bd 0c13 3fbd
000003b0: 2594 f53d 77b3 d73c c804 2e3e 2289 cf3d
000003c0: 3bea 9cbd ba6f 91bd c146 833e 71cf 15bd
000003d0: f5a0 d13d 6dea a0bb 0be0 153d 36a8 943d
000003e0: 1d5c bcbd 1cf8 f53c 3716 f73d b8de 623e
000003f0: 022f b9bd 787d 6ebc 3509 bb3d 036d d63d
