models/20200923_212102/epoch_1400_loss_1474.03670.pt (torch, 857809 bytes, 96 tensors)

encoder.model.weight_ih_l0 f4 [256, 3]
000000 a8 fb d1 bd b6 68 c2 3c e7 34 4d bd 89 d9 8d 3d
       -0.10253078 0.02373157 -0.05009928 0.06926257
000010 12 67 59 3e 02 13 cb 3d 5e 5d a5 bc 89 a0 d2 3c
       0.21230724 0.09915735 -0.020186123 0.025711315
000020 2b 19 29 3e b4 75 08 3c 01 d6 5c 3e fe 19 57 bd
       0.16513507 0.008328844 0.21566011 -0.052515022
000030 a1 5b 30 3d 4c d3 74 bd 7b ba cf 3d fc 15 4c be
       0.043056134 -0.05977182 0.1014299 -0.19930261
000040 73 05 be 3e 0c 35 15 bd bb 95 22 bf 7e f7 5d bc
       0.37113532 -0.036427543 -0.6350972 -0.013547776
000050 f1 4b 1a 3e d4 33 75 3d aa db c1 3d 8b 38 10 3e
       0.15068032 0.05986388 0.09465726 0.1408407
000060 51 6f a1 be fb 7c f0 3b cf 8c 92 be 59 1d 5a be
       -0.3153024 0.0073391176 -0.28623053 -0.21300258
000070 4c 8c 50 3b d2 61 e8 3d ec 08 f7 be 08 d9 dc 3d
       0.0031821905 0.11346783 -0.48248994 0.10783583
000080 64 ef 1d 3f 8d a0 56 be 08 5d b3 bd d8 c6 75 be
       0.61693406 -0.20959683 -0.08757979 -0.24001634
000090 4b 97 96 bd 1e cc f6 bd 85 84 47 bc a6 8c 2b be
       -0.073530756 -0.12050651 -0.012177591 -0.16752872
0000a0 8d a9 bb be ee e5 90 be 75 eb aa be 0e 9c 90 bd
       -0.36652794 -0.28300422 -0.33382764 -0.07061015
0000b0 e9 8d 31 3e d3 be 81 be 35 04 20 3d ac f9 26 be
       0.1733929 -0.253409 0.039066512 -0.1630618
0000c0 ef 1e 75 be 99 bd 6e 3c ba cf 59 be 6f 40 16 bc
       -0.23937581 0.014571571 -0.21270648 -0.009170636
0000d0 b3 5a 41 3d 94 cb c7 3d bc 39 c2 be 34 f5 c8 3d
       0.04720564 0.09755626 -0.37934673 0.09812394
0000e0 20 65 fc bd 7f 56 42 be 99 69 62 be d5 bd ac bd
       -0.123239756 -0.18978308 -0.22110595 -0.08434645
0000f0 46 25 82 bd ca 30 73 be 42 9c 65 bd ab 4b 57 3d
       -0.063547656 -0.2374908 -0.056057222 0.052562397
000100 69 5b 71 3d 5b eb 03 3d 8a 42 56 be 3e 44 1c bf
       0.058925066 0.032206874 -0.2092382 -0.6104163
000110 01 d9 c8 be a5 83 34 3d e2 7f 9f bc 6f 28 d4 3d
       -0.3922806 0.04407086 -0.019470159 0.103592746
000120 14 33 07 3e 47 3b 80 3b 78 2e 4b bc 78 13 5f be
       0.13203079 0.0039133164 -0.012401216 -0.2178477
000130 84 d5 86 bd bc 3e 05 bf 78 d1 8c be 41 b1 7e be
       -0.065836936 -0.5204885 -0.27503562 -0.24872304
000140 f5 24 93 bd f2 c2 42 bc ae cb 1a bd 93 5d 30 bd
       -0.07184783 -0.011887299 -0.0377919 -0.04305799
000150 50 70 47 3d 62 e5 48 3c 9f 06 f2 bc 61 bf a3 be
       0.048691094 0.01226172 -0.029544173 -0.31981948
000160 f9 4d 82 3e 22 8d ae bc c2 c5 8e be 82 bf 60 3d
       0.25450113 -0.021307532 -0.27885252 0.054870136
000170 40 9f c3 3d 1b 34 e7 be 0b 86 b0 bc d9 4d 2a 3e
       0.09551859 -0.4515694 -0.021548292 0.16631259
000180 b0 bc 4b be f8 b3 8c 3d 82 3a 45 bd c5 d3 3f be
       -0.19896197 0.06870264 -0.0481515 -0.18733127
000190 d4 3e 67 3e db 10 40 3d 56 2b 83 bd dd 9d 18 3e
       0.22582561 0.046891075 -0.0640475 0.1490397
0001a0 eb b3 c6 bc d4 78 cb be b5 cc 4a bf 8e 30 f3 be
       -0.024255713 -0.39740622 -0.7921861 -0.47497982
0001b0 29 ac 9d 3c 66 37 31 bd 43 81 e6 3d c0 71 a9 3d
       0.019247131 -0.043265723 0.112551235 0.08273649
0001c0 a4 2d bc 3d 27 2a cf bc f5 60 c5 bd 33 24 ea bd
       0.09188393 -0.025288654 -0.09637634 -0.11432686
0001d0 bd 38 1b bd c4 2e 03 3e d4 9b d4 bd a7 61 da 3d
       -0.037895907 0.12810808 -0.10381284 0.10663157
0001e0 2a 05 c4 bd 23 ee f0 be 1e 90 af be 47 cb 08 be
       -0.095712975 -0.47056684 -0.3428964 -0.13358794
0001f0 f0 59 a8 be d7 4b 6d bd f4 00 9e bd 94 61 3f 3e
       -0.32881117 -0.057933655 -0.077150255 0.18689567
000200 87 14 19 3f a8 67 57 be 3d 0d b9 bc 70 2a 42 be
       0.5979695 -0.21035635 -0.02258932 -0.18961501
000210 9b 4c 06 be d2 5c 76 3e c0 b5 99 bd f4 bc e3 3e
       -0.1311516 0.24058846 -0.07505369 0.44480097
000220 42 ca 02 3e 66 6b 29 3f 53 de 35 be 41 96 9e be
       0.12772468 0.661795 -0.17760591 -0.3097401
000230 ff a2 61 be b6 76 19 be b5 9c 16 be e8 67 f5 3d
       -0.22034834 -0.14986691 -0.14708216 0.11982709
000240 ca 06 74 be ad 75 35 3e ec 6d 27 3e de 12 91 be
       -0.23830715 0.17720671 0.16350526 -0.28334707
000250 91 48 4a 3e f4 35 4e 3a c9 dc f2 3d 37 1f 02 be
       0.19754244 0.0007866316 0.11858518 -0.1270722
000260 c2 14 3d be 2d 8d 7a bd d6 52 b6 3d fa 32 0d 3e
       -0.1846495 -0.061169792 0.089025185 0.13788977
000270 1f ab da be 2c 8b 5f be d5 70 87 be f2 52 d3 bd
       -0.4270868 -0.21830434 -0.26453272 -0.10318555
000280 11 b2 88 3d e7 fb 86 bb 69 39 c1 be fd 21 06 bd
       0.066745885 -0.0041193846 -0.37739113 -0.032747258
000290 54 26 5c 3e 38 67 15 be b6 b9 a8 bd 6b f7 0a 3e
       0.21498996 -0.14590156 -0.082385466 0.13570945
0002a0 af de 29 be 94 ad 6a bd 0c 07 93 bd 95 20 6e be
       -0.16588853 -0.057294443 -0.071790785 -0.23254617
0002b0 d9 d9 90 bd f4 7f 8a be 71 7e c8 3d ed ea 14 3e
       -0.07072801 -0.27050745 0.09789742 0.14542742
0002c0 1b ba 64 3e e2 ed 11 be c2 c1 f1 3d 24 b5 98 3e
       0.22336619 -0.14250901 0.118045345 0.298257
0002d0 5a b6 05 bf 57 58 06 be 5f be 79 be 71 4f c7 3d
       -0.5223137 -0.13119636 -0.24389027 0.09731949
0002e0 e2 bd 08 be 8a 47 18 3e 4e bd 45 bd 4f 2e 8c 3d
       -0.13353685 0.1487104 -0.04827624 0.0684477
0002f0 21 f8 80 3d 05 e9 41 3e b3 cf 20 3e dc 0e 69 3f
       0.06297327 0.18936546 0.15704231 0.910383
000300 49 22 d0 bd 8d 1f 14 be 6a b9 ee 3d 57 d3 e1 3d
       -0.101627894 -0.1446516 0.11656459 0.11026638
000310 80 eb 45 be c3 b3 bc 3e d0 c2 77 be 2d a0 f4 bc
       -0.19328117 0.36855897 -0.24195409 -0.029861534
000320 c7 54 e3 3b cf 19 21 be ac 16 1a 3e f0 bc b7 bd
       0.0069375965 -0.15732501 0.15047711 -0.08971584
000330 87 e8 0f be b3 65 91 be a4 f3 0b 3e d6 c9 b8 be
       -0.14053546 -0.28397903 0.1366716 -0.3609149
000340 7e f6 42 3e f9 8c 14 3f 03 1a 24 bf 0b 0b ad bd
       0.19039342 0.5802761 -0.6410219 -0.08449372
000350 1e d9 38 3e e5 23 ab be fe c2 d1 be 07 99 82 be
       0.18051574 -0.33425823 -0.4096908 -0.25507376
000360 16 aa 7a bd b5 71 8b be 85 8e 20 bf 0f 4c 07 bf
       -0.061197363 -0.2723519 -0.6271747 -0.5285043
000370 0b 54 0f 3e c0 dd e3 3d ab a4 50 be ed 2f 10 3d
       0.13996904 0.1112628 -0.20375316 0.035201956
000380 6e 74 cf 3e 21 d8 24 3e b2 d3 6d be 50 4b e8 bc
       0.40518516 0.16098072 -0.23225287 -0.028356224
000390 67 8f 05 3e 75 ee dd bd fa 59 9b bd 1c 2b 4e be
       0.13042985 -0.10836498 -0.07585521 -0.20133632
0003a0 64 c5 cf be 34 02 ef bd 9e da 8f be 24 c4 d2 be
       -0.40580285 -0.11670342 -0.2809648 -0.41165268
0003b0 db ba ab be 39 ae 91 bd 53 ac d8 3e f7 31 44 bb
       -0.33540997 -0.071133085 0.42318973 -0.0029937008
0003c0 c6 ed 69 be 3b dc 29 3e c0 89 35 3d d7 7f 16 be
       -0.2284461 0.16587918 0.04432082 -0.14697205
0003d0 7d d5 b0 be 08 74 e0 bb 2d 5c 90 bc 40 03 70 bd
       -0.3453788 -0.0068497695 -0.017622078 -0.05859685
0003e0 6e 67 71 be ba 90 72 be 1a ec 45 3d 6b 1f e9 bd
       -0.23574612 -0.23688021 0.048320867 -0.113829456
0003f0 4d 44 88 3d 3e b2 5c bd 70 01 7b 3d d2 36 00 be
       0.06653652 -0.053880922 0.061280668 -0.12520912

encoder.model.weight_hh_l0 f4 [256, 64]
000000 ed 87 5e 3d 63 7c 76 bd 1c a2 71 3e cf 51 9f 3e
       0.054328848 -0.06017722 0.23596996 0.31117103
000010 c4 0b 19 bd dc 60 8c 3e 2f 3e 7d be 42 df 60 3d
       -0.037364736 0.27417648 -0.24730752 0.054900415
000020 c0 2d 3a 3e 60 aa 11 be e0 fc 8e 3d 70 4c 0d be
       0.18181515 -0.14225149 0.06981826 -0.1379869
000030 61 99 bb bd f5 3e 17 3c ff 87 96 bd fa b3 36 bc
       -0.09160114 0.009231319 -0.07350158 -0.011151308
000040 42 d8 a3 bc f6 d4 3e bd d6 50 64 3e a1 99 bf bd
       -0.02000058 -0.046589814 0.22296461 -0.09355474
000050 13 60 ff bc ec 7f 36 bb 8f b6 58 bc cf 3b 81 bd
       -0.031173741 -0.0027847243 -0.013227119 -0.06310236
000060 e2 d1 07 3e 6a 8a 7c 3d 98 7d 38 bc a3 76 1f be
       0.13263658 0.06165544 -0.011260413 -0.155726
000070 ff 49 26 3f f4 c4 c9 bd a4 6f 6b 3d 71 a1 07 3e
       0.6495666 -0.09852019 0.057479516 0.13245179
000080 e3 77 a8 3e cc da 17 be 4c 7d d4 bc 4f 83 28 3d
       0.32903966 -0.14829558 -0.025938652 0.04114085
000090 e6 5f 78 bd 94 8c db 3e 63 e8 0d 3e 0a 18 38 bc
       -0.06063833 0.4288069 0.1385818 -0.0112362
0000a0 41 c1 02 3e cd e1 40 bd 1e 87 cd 3e e9 c9 93 be
       0.12769033 -0.04709034 0.4014215 -0.28864983
0000b0 bf 69 62 3e 3d 98 6c be dc 84 7d 3d 02 a5 5d be
       0.22110651 -0.2310495 0.061894283 -0.21644977
0000c0 9c b1 47 3d be 53 6a be 84 dd 24 3e 43 0d 55 bc
       0.048753366 -0.22883508 0.16100127 -0.01300365
0000d0 bf c9 d1 3d 0d 63 b1 3e 12 6a d5 bd 58 f4 13 3e
       0.10243558 0.34645882 -0.10420622 0.14448678
0000e0 f8 5f 88 bd f1 d8 84 bd ca 17 8a 3e 64 f9 66 be
       -0.066589296 -0.06486691 0.26971275 -0.22556072
0000f0 c3 ea d6 bd 63 82 b5 bd 77 ef b6 be 1c 26 73 3e
       -0.10493996 -0.0886276 -0.35729572 0.23745006
000100 4e 85 6d be 22 38 3f be 7b 26 79 3e 19 5d 88 3e
       -0.23195383 -0.18673757 0.24331085 0.26633528
000110 55 8b 20 3e 58 b1 10 3e 77 7b d2 bd 80 4a 75 bd
       0.15678151 0.14130151 -0.10277455 -0.0598855
000120 56 1a 96 3d 3a c8 1a be 34 e1 80 3e 65 e4 d9 bd
       0.07329242 -0.15115443 0.25171816 -0.10639266
000130 88 16 47 3d 9d 10 fc bc 95 79 0d be f1 4a 54 3c
       0.04860547 -0.03076964 -0.13815911 0.012957321
000140 09 e5 a3 bc 14 8d 6c be 12 cd 3b 3c ee 54 d3 bd
       -0.020006673 -0.23100692 0.011462467 -0.103189334
000150 18 1a 46 bd cf 61 d9 3d c3 4f 71 3c 29 7d 62 3d
       -0.04836473 0.10614359 0.014728489 0.055295143
000160 d5 da fe 3d d5 ac 16 bd 71 9e 8c bd f5 be 26 be
       0.12444083 -0.03678592 -0.06866158 -0.16283782
000170 10 96 a7 3e ea 20 91 be 25 b7 4f 3e c7 64 52 be
       0.32731676 -0.28345424 0.20284708 -0.20546256
000180 c0 c5 63 3e c5 39 16 be 0b ee 9f be 68 fb d3 bd
       0.22243404 -0.14670475 -0.312363 -0.10350686
000190 fa 0a 29 3d f3 a4 a3 3e 40 22 f2 3d 6a 2c d7 bc
       0.041270234 0.31961784 0.11822939 -0.026266295
0001a0 1a e2 93 bd 07 15 cf 3d 9c 6b af 3d 55 6f ad be
       -0.0722086 0.101114325 0.08565447 -0.33874002
0001b0 97 7b 5b 3e ff 3d c0 bc 8c a3 9e bc 16 7d 9e bc
       0.21433865 -0.023467062 -0.019365095 -0.019346755
0001c0 c9 fa cb 3c 1d 3d 22 be 7b 54 52 3e 12 aa 29 3e
       0.024899857 -0.15843625 0.20540039 0.16568783
0001d0 5b 12 ca bd cb d1 18 3d 7c b9 67 be 4f 0e a4 3d
       -0.09866782 0.03730945 -0.2262935 0.08010542
0001e0 d1 89 8b 3d 46 f1 e7 bd 32 7f 55 3d d0 f8 1d be
       0.06813396 -0.11325316 0.052123256 -0.15426946
0001f0 99 cf a5 bd ea 60 1e bd 0b 60 52 be d2 ab 78 3e
       -0.08096237 -0.038666643 -0.2054445 0.24284294
000200 39 79 99 3d 2e 91 38 bd 59 9a 06 3d 4f 09 ab bd
       0.074938245 -0.04506033 0.03286204 -0.08351385
000210 34 7c b3 bc 32 56 3c 3a 4e 95 30 be f1 db c6 bc
       -0.02190981 0.0007184475 -0.17244455 -0.024274798
000220 17 80 19 bd d7 04 8e 3c 90 b1 15 be e5 59 9c bc
       -0.03747567 0.017336292 -0.14618516 -0.019085834
000230 f0 7b 14 be dd ab 3a bd cf 54 57 bd 52 e5 a8 bd
       -0.14500403 -0.045574058 -0.052571114 -0.082468644
000240 21 ef b1 bd bb be a0 3d 77 fb 18 bd 53 a4 d9 bd
       -0.08688188 0.07848879 -0.03734919 -0.106270455
000250 83 2f 0d bc 0e f8 96 3d b5 1a 3d 3d 4e 0b aa 3d
       -0.008617285 0.073715314 0.046168048 0.083029374
000260 5c 14 03 be 67 ba ac 3d de 18 f9 3d cf ba e6 bd
       -0.12800735 0.08433991 0.12162946 -0.112661
000270 e3 55 ab 3c cd e7 42 3c 80 62 c5 bd 8b 8d 73 3d
       0.020914977 0.011896086 -0.09637928 0.059461158
000280 0b 01 c7 3c 59 be 94 bd f9 cc 99 bc 8a 6b bd 3d
       0.02429249 -0.072628684 -0.018774496 0.09249027
000290 79 96 10 3e 39 9d 22 3e d0 20 16 be 61 88 25 be
       0.14119901 0.15880288 -0.14660954 -0.16165306
0002a0 79 90 01 3e 8b 8a 01 be 31 af 8d bc fd c4 43 bb
       0.12652768 -0.12650506 -0.017295452 -0.0029872053
0002b0 55 96 8d 3d 09 53 90 3d b2 33 b8 3d ce c9 34 be
       0.06913439 0.07047088 0.08994235 -0.17655107
0002c0 63 fe 08 bd 65 ef 91 bd 52 b6 e8 bd ac 6c fe bd
       -0.033445727 -0.07125739 -0.113629 -0.12423071
0002d0 e4 e9 f5 bc 5d 0f e7 3d 3e 67 30 be 1c 5c 0a 3d
       -0.030018754 0.11282227 -0.17226884 0.03377925
0002e0 2b a7 c9 bd 05 59 b6 bd 1c ca 3f 3e 94 a6 c0 3c
       -0.09846338 -0.08903698 0.18729442 0.02351693
0002f0 75 66 1a bd 1c af db 3a e5 af 8c bd 78 23 b8 bd
       -0.037695367 0.0016760561 -0.06869487 -0.0899114
000300 3d d0 33 3e 54 9e 60 3d 78 2e 2e 3e 8f 56 24 3d
       0.17559905 0.054838493 0.17009914 0.04012161
000310 14 d0 38 3d a7 8c 67 bd 47 21 76 bd 3b 18 a5 bd
       0.045120314 -0.05653062 -0.06009033 -0.08061262
000320 32 40 6d 3d 3f f5 87 bd 13 0b 9c bb ce 79 04 be
       0.05792255 -0.06638574 -0.0047620623 -0.1293709
000330 9b 82 02 be 69 f4 cf bd 49 e1 23 3d 43 7c bb 3d
       -0.12745135 -0.101540394 0.04000977 0.091545604
000340 58 c3 ea 3d 1c fd 2a 3d d0 cc 1a 3e 7d 6c 3a bc
       0.1146304 0.04174529 0.15117192 -0.011378405
000350 31 17 65 bc 2d 34 89 bb 65 57 09 be fb 9e b8 3d
       -0.01398258 -0.004187128 -0.13412245 0.09014698
000360 e9 9d c2 3d 24 c0 0a bd 9e ff 0a 3c fd cf 1a bd
       0.09502775 -0.033874646 0.008483795 -0.03779601
000370 12 8b 15 3e bb 7a 71 be ee de 53 bd 37 95 66 3d
       0.14603832 -0.23581974 -0.051726274 0.056294646
000380 23 66 0b 3d 5b 42 f7 bd 2a 8c 5e bd b6 dd 0a be
       0.034032952 -0.12073203 -0.05433289 -0.13561139
000390 f8 9f ca bd 29 32 93 3e 49 90 a4 3d dc 93 dc 3c
       -0.09893793 0.28749207 0.08035333 0.026925974
0003a0 6a 28 fe 3d d5 1a 31 3d e3 4e ac bd 4f b9 9a bd
       0.12410052 0.04323848 -0.08413484 -0.07554876
0003b0 6c d2 8b 3e fe 58 0e bc 67 9e 48 3d 56 98 26 bd
       0.27308977 -0.00868821 0.04897919 -0.040672623
0003c0 51 43 ee bc ef d3 a6 bd 65 ca d1 3d 4a 22 ec 3b
       -0.029084833 -0.08145892 0.10243682 0.007206236
0003d0 56 ab 33 3d f7 d0 d6 3d 04 72 f7 bd 47 91 e8 3c
       0.04386457 0.10489076 -0.12082294 0.028389586
0003e0 7e e8 0f 3c 99 23 9c bd 7d 78 6e 3e d7 06 4a be
       0.008783458 -0.07623977 0.2328815 -0.19729172
0003f0 3c a2 1b be c1 dc 48 bd fe 4e ce bd 6a 38 15 3e
       -0.15198606 -0.049038652 -0.1007366 0.14572302

encoder.model.bias_ih_l0 f4 [256]
000000 30 ff e2 3d e4 ec 88 3d ed 48 6d 3d a2 25 16 3e
       0.110838294 0.06685808 0.057930876 0.14662793
000010 f2 b9 73 3e 49 06 d5 3d a0 0f 26 3d 01 46 87 3e
       0.23801401 0.104015894 0.040542245 0.26420596
000020 28 22 5f 3e 85 0a 34 3e 67 d8 ca 3e 6d a0 b2 3d
       0.21790373 0.17582138 0.39618227 0.08722005
000030 b5 c8 9d 3d 38 71 6e 3d 7d 3c 54 3e 2a be 71 bd
       0.077042975 0.058213443 0.207262 -0.059019245
000040 be e7 91 3d 36 62 ab 3e 37 9b 07 bd dd 25 9c bd
       0.071242794 0.33473366 -0.03310701 -0.07624409
000050 1a 18 92 3d 09 95 43 3e 66 36 42 3d 4c 8b 81 3e
       0.07133503 0.19099821 0.04741516 0.25301588
000060 0d 84 93 3d 3f 29 b9 3d 9d cc 3b bd 57 95 6d 3d
       0.07202921 0.0904107 -0.04584943 0.05800375
000070 04 3a f1 3d c8 e5 4d bd 98 e8 b6 3d cd 07 0d 3e
       0.11778644 -0.050267965 0.089310825 0.13772507
000080 82 02 6d 3d 6a 34 13 3f 0f 14 f1 3e b5 53 33 bd
       0.05786372 0.5750185 0.47085616 -0.043781
000090 fa 12 99 bc 94 04 0b bd 65 32 fc 3d 9b 27 9f 3d
       -0.018685807 -0.033939913 0.123142995 0.07771226
0000a0 03 7a f6 3c 23 3c 92 3d b0 85 92 3d d6 92 bd bd
       0.030087477 0.071403764 0.07154405 -0.09256522
0000b0 53 7f 98 bd a0 26 27 3f 4e 49 55 3d cd 82 30 3d
       -0.0744616 0.6529331 0.052071862 0.04309349
0000c0 81 2c a3 bb a1 4e 45 bd 11 1f 0d 3e 3a 62 93 3d
       -0.0049796705 -0.04817069 0.13781382 0.071964696
0000d0 c7 ec 82 bd 1d 39 82 bc 9e 85 f6 3d ef bc e4 3d
       -0.06392818 -0.015896374 0.12037204 0.11168849
0000e0 fc e8 90 3d 75 24 43 3f 05 8f 57 3c 9f 4a 7c 3d
       0.07075688 0.76227504 0.013156657 0.0615946
0000f0 e5 82 38 3d 23 eb 45 3c 0f fe ca 3e 65 a8 ee 3d
       0.045046706 0.012079987 0.39646956 0.116532125
000100 94 96 74 bd 45 4e e3 3c 7c ea 0c be 06 f2 d6 bd
       -0.059713915 0.027747283 -0.13761324 -0.10495381
000110 ba fd b4 bd 12 1a b5 bd 9c ed 08 3e 6b 4e c1 bd
       -0.08837457 -0.08842863 0.13371891 -0.09438785
000120 c3 28 12 be 77 9c f5 bd 73 3d 83 bd 7a 3a 9e bc
       -0.14273362 -0.11992734 -0.06408205 -0.019314993
000130 cc d6 d3 bd b0 d5 aa bd b9 0c 5f bd 82 f3 60 bc
       -0.10343704 -0.08341539 -0.054455493 -0.013729932
000140 17 11 68 bc 96 38 c7 3b b2 02 4e bb 60 74 0e be
       -0.014164231 0.0060797436 -0.0031434712 -0.13911581
000150 f5 cf 0d bb 8b 9f 54 3e 69 f1 90 bd e0 b3 41 3d
       -0.0021638845 0.20763986 -0.07077295 0.047290683
000160 12 24 a8 3d 9c c1 9f bd 9e 1f 8e 3d 00 5d b7 3d
       0.08210005 -0.078006 0.06939624 0.08953285
000170 25 0b 32 be da 22 f6 3d f4 81 1c bd 74 18 94 bc
       -0.17387064 0.12018366 -0.03820987 -0.018078066
000180 53 ad 6b 3d 24 6e fa bd c6 ba ff 3c 62 4d b5 3d
       0.05753834 -0.12228039 0.03121699 0.0885265
000190 ce 38 22 be b6 87 12 be eb c0 5e 3d 53 f6 0c 3e
       -0.15841982 -0.14309582 0.0543832 0.1376584
0001a0 2a 77 a8 3a 04 c5 f6 bb fd dc bf 3a 59 1c 29 3e
       0.0012852896 -0.0075308103 0.0014638003 0.1651472
0001b0 a0 14 bf bd b4 43 c2 3c 2c 19 eb 3d 79 2e d9 bd
       -0.09330106 0.023713924 0.114794105 -0.10604567
0001c0 c8 2b 20 be 0c 17 ea bd f9 fb 56 be 5d d8 eb 3b
       -0.15641701 -0.11430177 -0.20994557 0.0071974234
0001d0 19 62 ea 3c b4 b7 85 bd 1b 78 bb bd ba 36 d1 3d
       0.02861123 -0.06529179 -0.09153768 0.102155164
0001e0 d8 d6 79 3a ed ee 1c bf 85 c0 90 bd ce 13 07 be
       0.00095306104 -0.6130207 -0.0706797 -0.13191149
0001f0 31 87 e3 bd d3 1b 01 bd e6 56 08 bd f1 0d 61 3d
       -0.1110977 -0.031520676 -0.033285998 0.054944936
000200 8c ee 12 3d 03 05 4c 3d 92 d7 01 be 6d b1 17 be
       0.035872027 0.049809467 -0.1267989 -0.14813776
000210 32 7b 76 bd 39 c7 0b ba f8 bf b7 3c f4 eb a0 bd
       -0.060176082 -0.00053321157 0.022430405 -0.078575045
000220 76 de 9c 3d b7 d7 73 3d 04 a7 7a bd d3 43 d3 bd
       0.076596186 0.059531894 -0.061194435 -0.10315671
000230 f8 bf 5e 3d 2d 6c f7 bb 19 66 f5 3d a5 d2 71 3d
       0.054382294 -0.0075507374 0.11982364 0.059038777
000240 0f 5b 0e bc ac a8 c3 3d 68 fd 87 bd 99 e2 b4 3d
       -0.008688702 0.09553656 -0.0664013 0.088322826
000250 ef 27 15 bd f9 70 ae bd ba 25 a8 bd 25 20 83 3d
       -0.036415037 -0.085176416 -0.08210321 0.064026155
000260 dc 40 ae bd 51 6b 87 3d 50 80 5d 3d 98 31 ce bd
       -0.08508465 0.06612266 0.054077446 -0.10068053
000270 6f 40 35 3c bd c4 da 3c 96 6e bc bd a7 50 17 3e
       0.011062725 0.02670514 -0.0920078 0.1477686
000280 8f 50 85 3c 56 e1 42 3d 4d fb dd 3d 8d 03 e1 3d
       0.016273765 0.04757818 0.108389474 0.109870054
000290 c4 05 27 bd 99 8c 94 bd d4 4f fe 3d 95 97 f1 bd
       -0.040776983 -0.072533794 0.1241757 -0.1179649
0002a0 64 02 5f 3d a8 24 c9 bd 6b 11 a9 bd 9f 88 ba 3d
       0.05444564 -0.09821445 -0.08255275 0.0910809
0002b0 1f 95 3f 3d d4 6b ac 3d 34 b0 0c bd 51 cb ed bd
       0.046773072 0.08419004 -0.034347728 -0.11611045
0002c0 48 f6 8f 3d 4d 34 dd bd a8 8a 17 be de 0d a0 bc
       0.07029396 -0.10800991 -0.14798987 -0.019537862
0002d0 12 1a 3f 3e 79 02 c4 bc e0 94 72 3c cf 70 12 3e
       0.18662289 -0.02392696 0.014806002 0.14300846
0002e0 b2 e1 8a bb b6 eb a8 3e 98 f8 81 3d 4d 37 7c 3d
       -0.0042383308 0.32992333 0.063462436 0.061576176
0002f0 95 57 d3 bc 21 c7 37 3b b7 52 27 3b 5d 5c 23 bd
       -0.025798598 0.0028042274 0.002553148 -0.039883006
000300 13 b7 34 3e c4 54 eb 3d f9 d4 9f 3c 53 f3 92 3d
       0.17647962 0.11490777 0.019510733 0.07175317
000310 98 0f 82 3e 65 ec b9 3d af 86 91 bc 96 e7 08 3e
       0.25402522 0.09078292 -0.017764417 0.13369593
000320 cb fa 72 3d b8 09 c5 3e 7e 9a c6 3e ab 0e 88 3d
       0.059321206 0.38483977 0.38789743 0.06643423
000330 c7 3c 01 3e f1 4a ac bd 8c 82 1c 3e e0 33 38 3e
       0.12620841 -0.084127314 0.15284175 0.17988539
000340 ee 16 b8 3d 5e 4b 86 3e e8 56 eb bc c8 ee 2c bd
       0.089887485 0.26229376 -0.028727964 -0.042219907
000350 9f 85 39 3e 57 04 02 3d 0d 46 b3 3d 90 e1 0c 3e
       0.18117379 0.03174242 0.087535955 0.1375792
000360 42 65 67 3e f3 cc 85 bd 97 bd 73 bd 47 9a bd 3d
       0.2259722 -0.065332316 -0.05950698 0.09257942
000370 50 93 c8 bd 7a 8d 85 3d 33 d5 32 3e 51 7b f5 3c
       -0.09793723 0.06521125 0.17464142 0.029966028
000380 9e d5 4b 3c ec e9 be 3e 7c fa 60 3e 09 b3 51 3d
       0.012441067 0.37287843 0.21970552 0.05119613
000390 81 27 00 3e f6 69 90 3d 59 ee 53 bd 54 84 6d 3d
       0.1251507 0.070514604 -0.051740978 0.057987526
0003a0 0e 1a 12 bd 0b a1 33 bd a9 be 0b 3e cd 13 06 3e
       -0.03566938 -0.043854754 0.1364695 0.13093491
0003b0 35 82 36 bd 7c 40 30 3f 6a d1 1d 3d 3d b1 01 3d
       -0.04455777 0.68848395 0.03852979 0.03166317
0003c0 33 db 2e bd 31 61 61 3c 8d 52 05 3e fe ed 51 3e
       -0.042689513 0.013756082 0.13019772 0.20500943
0003d0 25 82 5d 3d 8f 5f 95 bd bc 7e 3c 3e 96 01 2f bb
       0.054079194 -0.07293617 0.1840772 -0.0026703826
0003e0 e2 b2 75 3d 57 38 14 3f c6 40 90 bb a6 fa ea 3d
       0.05998505 0.5789847 -0.004402253 0.11473589
0003f0 3c a2 c7 bd b4 41 a2 3d e0 cf 39 3e 05 20 60 3e
       -0.097477406 0.07922688 0.18145704 0.21887214

encoder.model.bias_hh_l0 f4 [256]
000000 3a 2f fa 3d c5 9c 13 bd 01 d2 59 3e 74 ca 3a 3e
       0.12216039 -0.03603818 0.21271516 0.18241292
000010 9f e9 c6 3e eb 54 14 bd 7d 75 b2 bd 1d 82 99 3e
       0.38850114 -0.036213797 -0.08713815 0.2998208
000020 57 8d a4 3e ca 2f 8c 3e 17 88 6e 3e 35 5a ac bc
       0.32139084 0.2738021 0.23294102 -0.021039108
000030 87 a1 c5 3d a8 7f 30 3d 59 6e f9 3d 04 62 2f bc
       0.096499495 0.043090492 0.1217925 -0.010704521
000040 f3 d9 e7 3b 0c 72 40 3e 34 1a 02 3e cf 96 89 bd
       0.007075542 0.18793505 0.12705308 -0.067182176
000050 b9 d9 0d 3d 67 47 08 3d 90 db 01 3c f8 2d 4d 3e
       0.034631465 0.03327122 0.007925883 0.20037067
000060 b8 d3 45 3e 7a b9 8b bd 2d 18 b5 3d 9d 32 41 3d
       0.19319046 -0.06822486 0.08842502 0.04716741
000070 9c 22 c4 3d 29 c1 cf bd d3 2d 18 3e 3b 2b ba 3d
       0.09576914 -0.10144264 0.1486123 0.09090277
000080 96 cf 01 be 37 0b d9 3e c0 d8 d5 3e 43 ae aa 3b
       -0.12676844 0.4239137 0.4176693 0.005208762
000090 c6 57 f1 3c f2 42 02 3e 56 f7 0d 3e 45 82 c7 3d
       0.029460799 0.1272085 0.13863882 0.09741644
0000a0 a4 2f 92 3d e2 21 64 3d 44 f6 25 3d 21 a3 6c bd
       0.07137993 0.055696376 0.04051806 -0.05777276
0000b0 bc 48 cc bd 4b fe 2e 3f 37 f5 63 3d f3 8e ca 3d
       -0.099748105 0.6835677 0.055653777 0.09890547
0000c0 7e 9a 75 bd fb ba eb 3d 23 c7 7c 3e 96 32 80 3e
       -0.05996179 0.11510273 0.2468534 0.25038594
0000d0 86 d2 4f 3b 19 a6 f2 3d bd 0a 97 3d d2 c6 40 3d
       0.0031711175 0.11848087 0.07375095 0.04706461
0000e0 c4 2b f4 3d 51 13 42 3f 4e f8 d5 3d a3 6f 01 3d
       0.1192241 0.75810724 0.10447751 0.031600606
0000f0 91 38 90 bd 56 77 3c 3e 5a b6 57 3e 4f 39 9d 3e
       -0.07042039 0.18404898 0.21065655 0.30707785
000100 12 f4 97 3d 81 d1 eb 3c 56 0c a7 bd 45 cf 62 3d
       0.074195996 0.028786423 -0.0815665 0.05537345
000110 a9 1e 56 bd 14 ca 17 bd 71 de 0a 3e b5 2a 1b bc
       -0.052275334 -0.03705795 0.13561417 -0.009470631
000120 7b 8b 1f be 97 55 27 be af be 1b 3d 80 91 57 3d
       -0.15580551 -0.16341244 0.038023647 0.052628994
000130 54 2f eb 3d 42 43 73 3d 3a 99 cd 3d a5 08 a5 39
       0.114836365 0.059390314 0.10038991 0.00031477693
000140 00 78 8c 3d f4 ea b6 bd 92 59 0f bb ae af 6e bd
       0.06858826 -0.089315325 -0.0021873456 -0.05827301
000150 f4 2f e8 bc 40 4f 0b 3e c3 d2 ce bd 6f 6b 72 bd
       -0.028343178 0.1360445 -0.10098793 -0.059184488
000160 64 4f ec bc 95 f0 13 bd e9 42 e1 3d 09 60 0a 3c
       -0.02884645 -0.03611811 0.1099909 0.008445748
000170 89 c8 90 bd b4 14 d1 3d f6 0d 8d 3c 7f 60 57 3c
       -0.07069499 0.10209027 0.017218571 0.013145565
000180 e1 c2 08 3d 99 28 f9 3c 0d f8 3f bd 92 43 74 bd
       0.033388976 0.030414866 -0.04686742 -0.059634753
000190 4b 1b ec bd 4c 81 39 bd b8 7e 0d bd 75 4e 90 3d
       -0.11528643 -0.045289323 -0.034544677 0.070462145
0001a0 96 fb d6 bc 58 38 1f 3d 60 89 eb 3d 26 85 0a 3d
       -0.026243012 0.038872093 0.115008116 0.033818386
0001b0 63 c9 ba 3d c2 74 cd bd 36 6c 81 3d 33 14 82 bd
       0.09120443 -0.100320354 0.06319468 -0.06351509
0001c0 50 e2 e4 bb 6e 87 46 3c 51 01 51 bd 44 9e 49 3d
       -0.0069849864 0.01211725 -0.051026646 0.0492232
0001d0 a9 19 d6 3d 06 d7 09 be 2d d6 08 be c6 78 88 3d
       0.10454113 -0.13460931 -0.13362952 0.06663661
0001e0 50 3d 14 bd 3b 11 07 bf 81 e8 f1 3c 26 c9 ac 3d
       -0.036191285 -0.52760667 0.029529812 0.084368035
0001f0 da 58 eb 3b 79 1e 81 3d 26 2f 1f bd 55 d1 1f 3d
       0.007182223 0.0630464 -0.038863324 0.039017994
000200 1f 47 32 3e 81 73 9e bd eb 10 a4 bd 8e e5 11 3d
       0.17409943 -0.07736874 -0.08011039 0.03561931
000210 11 81 9b bd ac 08 93 3d 37 34 fa bd f2 b8 bb bd
       -0.07592977 0.071793884 -0.122169904 -0.09166135
000220 74 59 73 3d 56 d4 83 3d 77 3a f1 bd 68 f8 da bc
       0.05941148 0.06436984 -0.117787294 -0.026729777
000230 b9 0e 8f bd c9 d2 a7 bd 20 78 19 3e 7c e8 b0 bd
       -0.0698523 -0.08194501 0.1498723 -0.08638093
000240 f8 86 4d bd 4b 64 01 3e 8c 1a d1 bc 3f 41 ad bd
       -0.050177544 0.12635915 -0.025525354 -0.0845971
000250 5b 93 8a bd 57 34 de 3d 0d e5 29 bd de 2b e3 3c
       -0.06766387 0.10849827 -0.041478205 0.027730878
000260 2e fe 6c 3d 69 d6 e4 3d b4 63 cc 3d f3 c2 f7 3c
       0.057859592 0.11173708 0.09979954 0.030244326
000270 af 13 1a be 7a 48 db bd cd 26 04 bd be 19 77 bd
       -0.15046571 -0.10707183 -0.032263566 -0.060327284
000280 6f ef 92 3d 1f 18 c2 bd 03 05 b3 3d ef 20 d3 bc
       0.071745746 -0.09477257 0.0874119 -0.02577254
000290 ea ba 6a bc cd 1d 54 bc 68 71 c3 bd b2 9e 84 bd
       -0.01432679 -0.012946558 -0.09543115 -0.06475581
0002a0 46 44 d7 3c c7 6d e6 3c 56 dc e4 bb 21 19 95 bd
       0.026277672 0.028128518 -0.006984274 -0.072801836
0002b0 c7 19 25 3b f0 af c8 bc 15 7b 07 3d 60 21 35 bd
       0.0025192366 -0.024497956 0.033076365 -0.044221282
0002c0 a7 79 c9 3d f6 fd da bd 28 74 03 bd 4f f0 e3 bd
       0.098376565 -0.106929705 -0.032093197 -0.111298196
0002d0 53 f6 65 bd cb 8b 98 3b 0d 84 f7 3c e7 7a 61 3d
       -0.056143116 0.0046553365 0.030214334 0.05504885
0002e0 a3 2d 24 bb 7a 17 51 3e c3 f9 5f 3d 56 da 7f bd
       -0.0025051616 0.20419112 0.05468155 -0.06246408
0002f0 26 4d 6e bd c5 86 ac 3d bf c6 d6 3d 95 fc 46 3d
       -0.058179043 0.08424143 0.104871266 0.048580725
000300 fb 3b 8e 3e 43 81 e2 3c 82 65 9d 3d 9e 62 6a 3e
       0.27780136 0.027649527 0.07685377 0.22889182
000310 77 8b ce 3e b9 cb 8c 3d 19 4a cd 3d c7 d8 7d 3e
       0.40340778 0.068747945 0.10023899 0.24789725
000320 92 b5 ab 3d 20 e3 61 3e 57 88 6e 3e f2 d3 f5 bd
       0.08384241 0.22059298 0.23294197 -0.12003316
000330 13 aa 3d 3b 57 e9 29 be 25 3f 35 3e cf 49 39 3d
       0.0028940483 -0.16592918 0.17699869 0.045236405
000340 75 01 42 bd a0 3e 22 3e 09 7e df 3d af f8 84 3d
       -0.04736467 0.15844202 0.10912711 0.06492745
000350 5f d4 47 bd 9c 10 fd 3d 75 f1 dc 3d 2e ad 17 3e
       -0.048786517 0.123566836 0.10788242 0.14812157
000360 7d f8 89 3e 28 e6 89 bb d7 ad 4a bd 57 2f 6e 3d
       0.26947394 -0.004208345 -0.049482193 0.058150616
000370 b7 14 15 bc 7a 3e de 3c 0d 49 57 3e 36 d2 f6 3d
       -0.009099177 0.0271294 0.2102396 0.12051813
000380 fe 87 ae bc 10 82 0a 3f b0 0f cc 3e 86 64 78 bd
       -0.02130508 0.5410471 0.3985572 -0.06064274
000390 0d 79 b6 3c c1 6d e1 3b 5c 94 16 3e 10 9b 2e bd
       0.022274518 0.0068795388 0.14705032 -0.042628348
0003a0 55 bc ed 3d 25 0b a2 3d c9 d7 09 3e 81 b3 dd 3d
       0.11608187 0.07912282 0.13461222 0.10825253
0003b0 c7 d0 58 bd c4 82 0d 3f 03 49 03 3e cb 9b a4 bd
       -0.05293348 0.5527766 0.1282082 -0.08037528
0003c0 86 e9 11 3d 1c 02 b6 bd ba d1 14 3e 4b 97 67 3e
       0.035623096 -0.08887121 0.1453313 0.22616307
0003d0 bd da 3a 3d 79 94 a0 3d 25 d9 d7 3d 2e e5 ef 3d
       0.04561876 0.07840819 0.10539464 0.117136344
0003e0 81 00 8a 3d f3 b9 12 3f a3 e2 fc bc 78 97 93 bd
       0.06738377 0.57314986 -0.030869788 -0.07206625
0003f0 ac e7 93 bc 5d fc 82 3d 2d 5a 8b 3e 82 08 da 3d
       -0.018054806 0.06395791 0.27217236 0.10646154

encoder.model.weight_ih_l1 f4 [256, 64]
000000 5d e8 8d bd be ad ab bd 4b a0 15 be e9 b8 bc bd
       -0.069290854 -0.08382748 -0.14611928 -0.09214956
000010 1e ce 40 be d2 84 16 bd 83 00 68 bd be 53 2c 3d
       -0.18828627 -0.03674776 -0.056641113 0.04207205
000020 10 25 aa 3d e3 42 e8 bc e4 19 04 be 9a 9e d1 3c
       0.0830785 -0.028352207 -0.12900501 0.025588322
000030 7b 3d 4a bc fe 7f 4d ba 76 61 49 3e 39 b0 6e be
       -0.01234376 -0.0007839202 0.19666085 -0.23309411
000040 82 fd 65 be 91 89 89 3d 2b c5 8b 3c a6 62 a7 bd
       -0.22459987 0.06715692 0.01706179 -0.081731126
000050 e4 b9 22 bb 17 6e 3c be 6c ac 86 be ac 7b 68 3c
       -0.0024830038 -0.18401371 -0.26303422 0.014189642
000060 d5 1a 06 bd 44 2d 3c 3e 9c c0 18 bd 9b b4 8b bc
       -0.032740433 0.18376642 -0.03729306 -0.017053893
000070 b0 fb 07 be f9 58 91 3d b6 62 20 ba d1 1c a0 3d
       -0.13279605 0.07097048 -0.00061182247 0.07817996
000080 f9 bf 22 bc 42 52 9c 3d 5a cd c1 3b 4e a4 62 3e
       -0.009933465 0.07632877 0.0059143724 0.2213299
000090 d2 a6 37 3e bf 38 e9 3d 8b d8 e9 bc ae c9 00 be
       0.1793473 0.113877766 -0.028545639 -0.12576935
0000a0 1e 7b 72 3d 32 94 2b bd eb 7b 0d bd 99 f6 75 bd
       0.059199445 -0.041889377 -0.034542006 -0.060049627
0000b0 82 6e 07 bc 3e 08 db 3d d0 03 77 bb c9 bd 2c bd
       -0.008266093 0.106949314 -0.0037691481 -0.04217318
0000c0 27 1e 57 3d fe b5 31 be 6d 96 21 bd 77 c4 b1 bd
       0.05251899 -0.17354581 -0.039450098 -0.08680051
0000d0 9a 3b b7 3d e5 a5 6a bc f1 5c 9c 3d 5f 8b 04 3e
       0.08946915 -0.014321779 0.07634915 0.12943791
0000e0 0e 89 a4 bd d1 6a b1 3d d4 3b 21 3e ee c6 17 be
       -0.080339536 0.08662952 0.15745479 -0.1482198
0000f0 36 ad c9 bd 70 2a 75 3e e4 92 c4 3c d8 38 87 bd
       -0.098474905 0.2394197 0.023995824 -0.06602639
000100 ba 16 8b 3d 40 4d 4f 3d eb ac ad bd 80 23 16 be
       0.06791444 0.05061078 -0.08480247 -0.1466198
000110 71 4e 65 bc ed d5 a5 bb e2 68 04 be 03 fb db 3b
       -0.013995753 -0.0050609023 -0.12930635 0.0067132725
000120 7e cf 20 3e 02 c3 45 3c 65 8c b3 bd 68 f1 05 be
       0.15704152 0.012070419 -0.087670125 -0.1308037
000130 46 32 82 bc a9 13 24 be ad dd 1e 3d fb a7 e9 bb
       -0.015893113 -0.16023125 0.038785625 -0.0071306205
000140 97 9e 8a bc b8 32 14 3d 4f dd 94 3d 59 33 96 bd
       -0.016921325 0.03618118 0.07268774 -0.073340125
000150 c3 52 9a bd 78 19 1f be 78 23 31 be ae aa 4e bc
       -0.07535317 -0.1553706 -0.17298687 -0.012613935
000160 7e c2 5c bc 4e 1a 89 3c 39 98 e6 bc dc 88 68 bd
       -0.013474105 0.016736176 -0.028148757 -0.056771144
000170 b0 98 eb bc 55 22 8d bd 6b 19 60 be 76 09 25 3e
       -0.02875933 -0.06891314 -0.21884696 0.1611689
000180 49 20 f0 3d bd 13 3c 3d 9e 0e ac 3d f2 4e 8f bc
       0.11724908 0.04591726 0.084012255 -0.017493699
000190 02 f4 b3 bd fb a5 04 3d 17 5c 6a be 14 0f 2b be
       -0.08786775 0.032384854 -0.22886692 -0.1670497
0001a0 66 d1 02 3e db c9 90 3c 12 54 06 bd 62 c7 d4 bb
       0.12775192 0.017674377 -0.03279502 -0.006493495
0001b0 09 ae 83 bd 11 15 81 3d 14 59 2a 3e 23 54 34 be
       -0.06429679 0.06302846 0.16635543 -0.1761022
0001c0 81 ac 26 3e f2 1f 88 3d e1 56 2c be fb e1 6e bd
       0.16276743 0.06646718 -0.16830017 -0.05832098
0001d0 36 17 b9 3d dc 5d 11 be 94 d5 18 be 59 55 b3 3d
       0.0903763 -0.14195961 -0.14925224 0.08756513
0001e0 18 6e c7 3c 7d 60 b4 3d c4 02 a0 3d b3 63 84 bd
       0.024344489 0.08807466 0.078130275 -0.064643286
0001f0 81 3b c7 3b cf 21 2e 3e 76 da f3 bd 78 65 53 bd
       0.0060800915 0.17005084 -0.119069025 -0.05161044
000200 3a 8e 1c 3f 82 af 3a be af a4 e6 bd 42 f2 e9 bd
       0.6115452 -0.18231013 -0.1126188 -0.1142316
000210 3d 5b 2f be 93 30 5e bd d0 2d 29 3d ac bc e8 bd
       -0.17124648 -0.054245543 0.041303456 -0.11364111
000220 f3 d2 3c 3d 19 e7 1b 3e 75 80 ea bd 56 3d f4 bd
       0.046099614 0.15224876 -0.114502825 -0.119257614
000230 83 b1 1a bd 68 22 bc 3b fe 1f ea 3d 0e a4 0c 3e
       -0.037766945 0.005741406 0.11431883 0.13734457
000240 ff a7 ff 3c ef 50 9b 3e f3 a7 44 be 3a 54 ad 3a
       0.031208036 0.30335185 -0.19204693 0.0013223954
000250 fe 3e c8 bd 83 0b fb 3d 8c 02 a2 3a 1c d2 0e 3e
       -0.0977764 0.12258055 0.0012360378 0.13947338
000260 77 67 72 bc 2d f5 fc 3d 9b 34 96 3d 50 ae 08 3d
       -0.014795176 0.12351451 0.073342524 0.033369362
000270 71 0c 8f 3d 5f 44 f2 bd c5 68 b5 be 40 e6 cc 3c
       0.06984795 -0.11829447 -0.35431495 0.025012136
000280 6f cf 3d 3d 2d 3f 22 be 08 47 ef 3e 68 c8 83 3d
       0.046340402 -0.15844412 0.4673388 0.06434709
000290 6a 8a ae bc 19 8e ce bc b0 ef 41 be 88 7c 5a bd
       -0.021306235 -0.025214242 -0.1893909 -0.05334142
0002a0 f3 a6 ab bd 50 fa 61 bd 24 12 7e be a9 87 60 be
       -0.083814524 -0.055170357 -0.24811608 -0.2192675
0002b0 ef b2 85 3d 39 80 87 3e bb 9b e0 3c 13 09 26 3d
       0.065282695 0.26465014 0.027418008 0.040535998
0002c0 d0 9a a6 3d 61 67 4a 3b 8d 6b e4 bd da 91 20 be
       0.08134997 0.0030884373 -0.11153326 -0.15680638
0002d0 49 ed 21 3d 69 23 ea bd e3 9c c5 bd 66 30 a3 bc
       0.039532933 -0.11432535 -0.096490644 -0.01992054
0002e0 2a a4 97 bc 43 0d 6d 3e 30 40 2d be 20 bf 28 3d
       -0.018510897 0.2314959 -0.16919017 0.041197896
0002f0 51 a7 e3 3d d7 1a a2 3e 22 bb ba bd 30 fa 6f be
       0.111158974 0.31661102 -0.09117724 -0.23435283
000300 fb 93 56 3d a6 34 8a be 4a 6a 60 bc 43 59 07 be
       0.05238722 -0.26993293 -0.013697216 -0.13217644
000310 eb 7e 23 be dd 4d bb bd d9 cf 8b bd 8b 92 9d be
       -0.15966384 -0.091457106 -0.06826753 -0.30775866
000320 44 38 c3 ba 24 a9 33 3e 8b a7 35 be 66 43 48 be
       -0.0014894088 0.17544991 -0.17739694 -0.1955696
000330 40 b5 7b bd aa 3b 19 be 75 2f 5f 3e f0 a4 95 be
       -0.06145215 -0.14964166 0.21795447 -0.292274
000340 e2 11 5d be d9 a4 73 3e 2a f3 81 bd 44 b8 7a be
       -0.21588853 0.23793353 -0.06345208 -0.24484354
000350 0c 44 d3 bd 41 ac 2f be b1 5b 0f be c0 38 b8 3d
       -0.10315713 -0.17155553 -0.13999821 0.08995199
000360 d0 e2 07 be d7 a6 1d 3e 7a 23 9c 3e bd f9 14 3e
       -0.13270116 0.15395676 0.30495816 0.14548393
000370 26 a4 6c bd e5 38 ef 3d 12 da a2 be 0a a8 60 3e
       -0.05777373 0.11680774 -0.31807 0.21939102
000380 48 5c 5d 3d 0a a3 bf 3d ef c7 78 3e 41 84 40 3d
       0.054043084 0.09357269 0.24295019 0.047001127
000390 f7 b4 db ba 9e 01 d3 3d e6 e6 d8 3b a2 59 93 be
       -0.0016762306 0.10303043 0.006619322 -0.28779322
0003a0 36 9b ae 3a 29 1a 61 be aa 58 33 be a5 f5 32 3e
       0.0013321403 -0.21982636 -0.17514291 0.17476518
0003b0 a9 3e 6f 3e 02 4d 37 3e 87 da 8b bd aa 0e 39 be
       0.23363747 0.1790047 -0.0682879 -0.18072
0003c0 19 b5 d1 3c bc f8 4f be 4d 9b ff bd 12 82 b1 bd
       0.02559905 -0.20309728 -0.12480793 -0.08667387
0003d0 c4 ef 88 3e bd 38 9c bd d3 b9 a0 3c 22 58 6e 3e
       0.26745427 -0.076280095 0.019619858 0.23275807
0003e0 f7 b6 8d be e8 cb 32 3e b4 13 0b 3d 86 77 a9 3d
       -0.27678654 0.17460597 0.033954337 0.082747504
0003f0 0f b9 c0 bd b0 c0 1a 3d f9 c7 4e bd 89 41 71 bc
       -0.09410297 0.037781417 -0.050483678 -0.014725097

encoder.model.weight_hh_l1 f4 [256, 64]
000000 79 4a e1 3c 1b ed 1d 3e a9 bd 15 39 dc 94 2f 3d
       0.027501332 0.1542248 0.00014280401 0.042866573
000010 35 33 d8 3d 53 9a 3f bd f8 d1 19 be 71 cd 4e be
       0.10556642 -0.046778034 -0.15021503 -0.20195557
000020 01 79 c6 bc 60 e0 29 be a7 82 29 3e 52 21 53 bd
       -0.024227621 -0.16589499 0.16553746 -0.05154545
000030 18 96 3d 3d 66 84 34 3d 8e 6a d6 3d 6c 24 29 be
       0.04628572 0.044071577 0.104695424 -0.165178
000040 13 73 ec bd 6e 37 dc 3c 4d 6d 36 3d 72 63 1c bd
       -0.11545386 0.0268819 0.04453783 -0.038180776
000050 8d a1 45 3d 4b 96 96 3d 13 71 4d 3d ed c3 f0 bc
       0.04824977 0.07352885 0.050156664 -0.0293903
000060 22 bf 29 bd f4 07 f5 bc 8e 49 14 3e f9 9b 96 bd
       -0.041442044 -0.029911019 0.14481184 -0.07353968
000070 78 8b c7 3d 4e 3c 4e 3e e7 ec 16 be d6 02 98 3d
       0.097433984 0.20140192 -0.14738809 0.07422416
000080 7b 64 00 3d 71 f5 0f 3c de f6 69 3d da d7 b9 3d
       0.031345826 0.008786545 0.057120197 0.090743735
000090 a2 8b d2 bc d6 fe 1c bc d4 5e a0 3d 8c ce e8 3c
       -0.025701348 -0.009582242 0.07830587 0.028418802
0000a0 a8 74 77 bd 5d ee bd bd 6e e7 68 bd 03 6a 6a 3c
       -0.060413986 -0.0927398 -0.056861334 0.014307502
0000b0 ff 5b 4a 3d 89 12 af 3c 3c 81 05 3e f1 0c 80 3c
       0.04940414 0.021371143 0.1303758 0.015631171
0000c0 cb 34 38 be b2 ea 30 3d ed e6 a9 3d 48 17 ea 3c
       -0.17988889 0.043192573 0.08295999 0.028575554
0000d0 54 e4 c0 3a 2d de 16 3d 07 e8 cb 3d 06 49 22 bc
       0.0014716485 0.036832977 0.09956365 -0.009905105
0000e0 9b ca 07 3d be 91 13 bd ad 70 29 3d 12 01 50 bc
       0.033152204 -0.036027662 0.04136722 -0.012695568
0000f0 85 f0 c0 3d 14 de 40 bc 7a 83 f6 3c 08 ee 93 bc
       0.094208755 -0.011771698 0.03009199 -0.018057838
000100 17 db 12 3e 07 17 91 bd 87 fa af bd 02 5a 5d 3c
       0.14341389 -0.0708447 -0.08592706 0.013510229
000110 f1 26 1d be 9d dd 35 be 7f 26 7d 3d 59 bf 16 3d
       -0.15346886 -0.1776032 0.06180429 0.036803577
000120 a5 b7 ab bd 23 fe 30 be 7a 60 85 3d 7b 94 0b 3e
       -0.08384637 -0.17284445 0.06512542 0.1363086
000130 5b 06 27 be eb 92 2a be 14 94 51 3e c1 b8 d6 3d
       -0.16311018 -0.16657607 0.20466644 0.10484458
000140 6d 0e ce bd 9c b0 2b bc e4 f5 eb 3d d6 95 a6 bd
       -0.10061345 -0.010479119 0.11521509 -0.08134048
000150 d3 5f ab bd b2 aa f6 bd 3d a0 d7 3d 23 ec c7 bd
       -0.083678864 -0.12044276 0.1052861 -0.097618364
000160 aa e4 f6 bd d5 5d 52 bd 62 3e 70 bb 60 52 82 bd
       -0.12055333 -0.051359016 -0.0036658277 -0.06363368
000170 04 49 c9 3e 17 a9 c1 bd e3 47 35 bd be a3 5b 3c
       0.3931352 -0.094560795 -0.04425801 0.013405738
000180 23 a3 ef ba 34 40 e7 bd c3 7d 4a 3e 58 4a 70 3e
       -0.0018282871 -0.11291543 0.19774537 0.2346586
000190 e8 a9 d2 3d b3 d9 df bd 5f 86 9f 3d f2 04 5a 3e
       0.10286313 -0.10930195 0.07789301 0.21290949
0001a0 db c7 00 be d4 5b 4e be 4c 97 64 bd 8b c6 5e be
       -0.12576239 -0.20152217 -0.05580835 -0.21755426
0001b0 bb 29 c2 3d fc 38 82 be 7c 61 8d bd c5 48 7d bc
       0.09480616 -0.254341 -0.06903359 -0.015459244
0001c0 a9 f6 3b be d5 41 50 3e ac 22 7f 3d 84 6c 1d 3e
       -0.18355812 0.20337613 0.062288925 0.15373427
0001d0 9b 99 8a 3c 5f f7 13 be 65 36 d7 3d 7d 4b 41 3d
       0.016918948 -0.14449833 0.10508422 0.04719113
0001e0 33 ea 2e 3d 5e d8 14 bd b3 fd ba 3e df dd 87 3d
       0.04270382 -0.036339156 0.36521682 0.066341154
0001f0 2d 6e 80 3e d0 30 0a be 9e 31 04 bd 2c 0f 2f be
       0.25084057 -0.13495183 -0.03227388 -0.17095631
000200 5f 82 3a 3e b4 a5 11 3e 9c f6 69 3c 57 f2 36 be
       0.18213795 0.14223367 0.014279988 -0.17865883
000210 e4 78 63 3d 50 f5 8c 3d f2 8b e1 bd 59 f0 3e be
       0.055535212 0.06882727 -0.110130206 -0.18646373
000220 eb 8d f7 3d a2 9b b0 bd 92 5a 8d 3d d5 44 1a 3e
       0.120876156 -0.086234346 0.069020405 0.1506532
000230 64 c7 8d 3d 92 65 79 bd c3 8b c3 3d 85 c0 38 3e
       0.06922796 -0.06088788 0.09548142 0.1804219
000240 f6 08 80 bc 70 30 8a bd 95 a3 6e 3c 12 a5 1c ba
       -0.015629273 -0.0674752 0.014565368 -0.0005975525
000250 8b a3 94 be d7 b4 44 be f5 ca 7a bc 50 36 70 bb
       -0.29031023 -0.1920961 -0.015307178 -0.0036653467
000260 87 f5 91 bd 10 57 b9 bd 62 50 db 3c bf 9f e9 bd
       -0.07126909 -0.09049809 0.026771728 -0.11407422
000270 66 0a 67 3d 82 4e 2b 3e 5e 32 bf 3c 12 cb 0b bc
       0.0564064 0.16729167 0.023339447 -0.008532302
000280 9f 26 ac 3d 73 ab 30 be 49 d9 5c bd 82 94 4b 3e
       0.08405804 -0.17252903 -0.053918157 0.1988087
000290 35 c8 17 3d 2c c2 2d be fd 19 05 bd fe 1a ec 3d
       0.037056167 -0.16968602 -0.032495487 0.11528586
0002a0 fb 8e 76 be ae 04 89 bd f3 aa 4c 3d 73 dc 02 3e
       -0.2407798 -0.06690346 0.049967717 0.12779407
0002b0 b8 d5 1b bc a7 01 1c bd ee 7d 01 be c1 6a ec bc
       -0.009511404 -0.038087513 -0.12645695 -0.028859498
0002c0 b3 8f 8d bd 9e 7a 3e 3e 30 b2 42 be 42 eb c4 3d
       -0.06912174 0.18601462 -0.19013286 0.09615184
0002d0 84 8c 2c 3e 29 c4 3d be 25 38 4e bd f0 26 06 3e
       0.16850477 -0.1853186 -0.050346512 0.13100791
0002e0 94 68 1a bc 8c 45 22 bc da 26 c1 3d 71 c9 21 3e
       -0.009424347 -0.009904277 0.094312385 0.157995
0002f0 d7 cb ed bc 84 51 1e bd b9 32 60 3d d1 68 53 3d
       -0.029027862 -0.038651958 0.054735873 0.051613633
000300 a4 29 8c 3e 69 d5 e4 bc 00 33 d6 bc dd ca eb bc
       0.2737552 -0.027933793 -0.026147366 -0.028783256
000310 3d 05 18 be e8 32 26 be 7f 9a 8b 3c c8 f4 67 3c
       -0.14845748 -0.16230357 0.017041443 0.0141574815
000320 3b b6 05 be c2 51 60 bd 72 90 ed 3d 84 91 59 3e
       -0.13057797 -0.05476547 0.115998164 0.21246916
000330 88 a8 f6 bd 3e 45 27 be 31 76 16 3e 7f e8 2c 3e
       -0.120438635 -0.16335008 0.14693524 0.16885565
000340 69 d2 02 3c c6 8e 81 3d d1 c4 ee bd 5a 99 82 3d
       0.007984736 0.0632606 -0.116586335 0.06376906
000350 ec 23 83 bc 27 83 c6 be 1b ec e1 3c 8a 5f 66 bd
       -0.01600834 -0.38771936 0.027578404 -0.056243457
000360 3d bd 08 be e7 89 7e 3c c5 29 23 bd cc 75 31 3c
       -0.13353439 0.015535808 -0.039834756 0.010831308
000370 d3 8a 97 3d 7f f6 1a 3e ff ad c9 bc 4c 7c 02 3e
       0.073995255 0.15133093 -0.0246191 0.12742728
000380 5c f7 6c bc d7 48 44 3d 16 f1 0a 3e 3d 5c 39 3e
       -0.014463272 0.047921028 0.1356853 0.18101592
000390 90 ee 6f 3c 4f e5 43 be 1a da 5a 3a 28 f4 28 bd
       0.01464428 -0.19130443 0.00083485397 -0.04124847
0003a0 1e 22 e7 bd 68 f3 98 39 6c 8d 8c be 9c 78 7c be
       -0.11285804 0.0002917305 -0.27451646 -0.24655384
0003b0 6d a9 9e 3c 5f cd 4e be a7 7e ba 3d 41 43 91 3e
       0.019367898 -0.2019553 0.09106188 0.28371623
0003c0 6d ff 78 be e8 0c 61 3e 23 19 14 3d ee 44 22 bd
       -0.24316187 0.2197758 0.036156785 -0.039616518
0003d0 7a a2 4f 3c 87 99 c0 3d c5 86 d0 3d 6b 4f af bc
       0.012673015 0.09404283 0.10181955 -0.021400174
0003e0 7a 99 e0 3d 62 49 83 3c db e6 be 3d a8 25 95 3d
       0.10966773 0.016026203 0.09321376 0.07282573
0003f0 67 ad 12 3e fd ad 9f bc e0 a0 4d bd 15 1a a9 be
       0.1432396 -0.019492144 -0.05020225 -0.33027712

encoder.model.bias_ih_l1 f4 [256]
000000 d6 93 50 3d fe c6 9b 3d f6 1f f9 bb e6 67 81 3e
       0.050922237 0.07606314 -0.007602687 0.2527458
000010 ee 32 42 3d 69 99 0a 3e f7 b0 33 3d 5c 31 1f 3c
       0.04741185 0.13535084 0.04386994 0.009716358
000020 0c 78 78 3d 7d c2 8e 3e 61 1f e7 3d ec 34 6f 3e
       0.06066136 0.27882758 0.11285282 0.23360032
000030 4d 93 4c 3e 7a 9a 92 3d 0d 10 7e bd 50 4a 0c 3e
       0.19978066 0.0715837 -0.062027026 0.13700223
000040 37 bf 93 3f a5 9b 84 bd 35 5f 4e 3d 33 f1 08 3b
       1.1542729 -0.06474999 0.050383765 0.002089572
000050 04 56 3f 3f 33 35 72 3d e6 8f 8c bd 01 c3 53 bc
       0.74740624 0.059132766 -0.06863384 -0.0129249105
000060 1a 3b d7 3e d3 70 a1 3d ba 5f 24 3e 6e 60 19 3e
       0.42037278 0.07882848 0.16052142 0.14978191
000070 4e da 94 3d ff 2d 16 3e a7 13 92 3e be d1 e4 3e
       0.07268201 0.14665984 0.2853062 0.4469127
000080 57 5e 5b 3d 77 3d 43 3e ea cc 0b 3e 75 f2 52 bc
       0.053556766 0.19066416 0.13652387 -0.012875189
000090 0f 9a c3 3c 98 6d 07 bd 46 36 b2 bb fa af 10 bd
       0.023877172 -0.0330635 -0.005438599 -0.035324074
0000a0 42 dc c1 bd ae 3e 46 3d b6 16 a3 bd f2 7a a5 bd
       -0.09465839 0.04839962 -0.07963316 -0.080800906
0000b0 91 c5 8d bd e5 b1 5f bd d0 7c 30 3e c0 d0 9d bd
       -0.069224484 -0.054613013 0.17235112 -0.077058315
0000c0 cb e9 f0 3d 74 e1 74 3d 8a 8e 44 3e 50 ae 3c 3e
       0.117633425 0.05978532 0.19195 0.1842587
0000d0 7e 7d 43 3e 2b 88 bd 3b 2d 2b bf 3d 4b ff 43 3e
       0.1909084 0.0057840548 0.09334407 0.19140355
0000e0 10 70 6d 3e e9 53 3a 3e 5e c4 b3 3d 1b 29 a2 3c
       0.2318728 0.18196072 0.087776884 0.019794991
0000f0 51 eb 15 bc 05 ae 86 bd b7 00 73 bd 64 37 e5 bd
       -0.009150342 -0.0657616 -0.059326854 -0.111922055
000100 a0 b5 4f 3d 83 ad 16 3e 12 e6 03 be 7f ef 22 3e
       0.05071032 0.14714627 -0.12880734 0.15911673
000110 e3 09 92 bd ba 5f 1b be bf 4c c2 bd 10 62 23 bd
       -0.07130792 -0.15173236 -0.094872944 -0.03988844
000120 4d 14 e1 bd 0f a2 23 be a4 77 9a bd 2b 6f ce 3c
       -0.109902 -0.15979789 -0.07542351 0.025199493
000130 01 96 0b bd ad 11 be bc c7 eb 1e bd 44 03 ab bc
       -0.0340786 -0.023201788 -0.038799074 -0.02087558
000140 fa 88 93 bd 63 8c bd bd c0 1c 26 3e ac 45 85 3d
       -0.072038606 -0.09255292 0.16221905 0.065074295
000150 93 d4 d8 bd 28 41 c1 bd f1 45 98 bc 83 63 2a 3c
       -0.1058742 -0.09436256 -0.018588038 0.010399702
000160 5d 45 60 3d fc 6e 8e 3d 2a f7 97 bd 31 4d 6f bd
       0.05475365 0.06954762 -0.0742019 -0.058423225
000170 be 42 c7 bd 96 36 2c 3d d8 00 b6 3d 59 4c 31 3d
       -0.09729527 0.042044245 0.0888688 0.0432857
000180 7b 1d 12 be be e9 8d 3d fc 64 86 bd 2e 66 5f bd
       -0.14269058 0.069293484 -0.0656223 -0.054540806
000190 a0 ee 2a 3d bf aa 43 bd 68 57 c1 3c 32 8f 93 3d
       0.041731477 -0.047770258 0.023601249 0.07205047
0001a0 0f 14 00 3e 3d be b4 3d 32 42 fa bd 0a 4d 1b bd
       0.12507652 0.088253476 -0.12219657 -0.037915267
0001b0 d5 f7 91 3d d3 79 ce bd d1 e4 c7 3c 7f a7 f3 bd
       0.07127348 -0.1008183 0.0244011 -0.11897182
0001c0 2e 51 f8 3d c8 1c 00 3d cf 36 50 3e b9 27 e0 3c
       0.12124859 0.031277448 0.20333408 0.027362691
0001d0 fe 68 ef bc cf 0d d2 3c c0 76 c8 bc 8e 28 64 3e
       -0.029224869 0.02564135 -0.024470687 0.22281095
0001e0 97 6f e9 bc 02 97 10 be 12 93 b5 bd 1e d0 75 bd
       -0.028495593 -0.14120105 -0.08865942 -0.06001293
0001f0 04 cd d2 3d 15 9a ff bc 31 4f b3 bd 41 2a e9 bc
       0.1029301 -0.031201402 -0.08755339 -0.028462531
000200 e7 7e f9 3d 03 6f fa bc 71 d8 54 3b 6e e9 9c bd
       0.12182408 -0.030570513 0.0032477642 -0.07661711
000210 4d 8c f8 bd 2a 00 83 bd dc d4 fc bc ca b9 b2 3c
       -0.12136135 -0.06396516 -0.030863218 0.021817107
000220 2b 2b 47 bd e5 9f be bd 92 ac 3d 3d b7 a2 ad 3d
       -0.048625153 -0.09307841 0.046307154 0.08478301
000230 bf e6 54 bd 40 d2 09 be 9f b1 1d 3d 61 87 bf 3d
       -0.05197787 -0.1345911 0.03849947 0.09351993
000240 64 79 3e bd 4d 7e 63 bd 47 a1 59 bd f3 5c 54 be
       -0.046502486 -0.05554037 -0.05313232 -0.20738582
000250 5f e8 ea 3c 8d 6e 01 bd 00 b2 64 ba 69 b3 f2 3c
       0.028675256 -0.03159957 -0.0008724034 0.029626565
000260 ab 14 da be 09 90 0f 3e 37 d7 c5 bc 79 e0 22 3c
       -0.42593893 0.14019789 -0.024150474 0.009941214
000270 cf 99 cb 3d cd 23 34 3d 06 38 40 bd 13 1b 82 3d
       0.09941446 0.043979455 -0.046928428 0.0635282
000280 13 b3 3e 3d 34 0c 29 3d 99 34 00 3f 13 5e 08 3e
       0.046557497 0.041271403 0.5008026 0.13317136
000290 af 43 8e 3d f5 b3 af bd ef 6c 2c bc 18 2f 15 3d
       0.06946503 -0.08579246 -0.010524019 0.036421865
0002a0 8d a6 43 bc 4e b1 ef 3a 10 69 ea bd 07 f2 3c 3d
       -0.011941564 0.0018287094 -0.1144582 0.046129253
0002b0 9b d0 74 bd 9a 28 47 3c f0 ff 2e bd 8b a9 95 bc
       -0.059769254 0.012155676 -0.04272455 -0.018269321
0002c0 9b c7 18 be ed 63 cf 3d bf f2 96 bc a0 27 5e bc
       -0.14919893 0.10126481 -0.018426297 -0.013559252
0002d0 bc e8 08 3e 28 4f fb 3d 25 ce 0a 3e fa 4d 68 3d
       0.13370031 0.12270957 0.135552 0.05671499
0002e0 20 0e bc 3c ab 33 06 3d a8 9a 12 3e bd b2 27 bc
       0.022955954 0.03276412 0.14316809 -0.010235486
0002f0 17 32 f2 3c 4c eb 0b 3c 35 fb 6b 3d 3c 0a f6 bd
       0.0295649 0.008539986 0.057612617 -0.12013671
000300 a0 df 96 3d fb 9f 8b 3d f7 50 aa 3d 41 72 81 3e
       0.07366872 0.06817623 0.08316224 0.2528248
000310 13 8b b9 3d 2b fd 1b bd 26 d5 67 bd d6 be 2f bd
       0.090597294 -0.038083237 -0.05659976 -0.042906605
000320 4a f9 c8 bc b7 a4 d1 3d 54 17 84 3d 05 46 9a 3e
       -0.024532933 0.10236495 0.06449762 0.30131546
000330 eb 70 d8 bc 03 06 09 be ee f3 01 3e 24 b5 c6 3c
       -0.026421031 -0.133812 0.12690708 0.024256296
000340 c5 86 92 3f 46 b2 d0 bb e8 8f 45 bc 7a f2 2b 3e
       1.1447378 -0.006368908 -0.012058236 0.16791716
000350 fa 28 36 3f 4a f1 ca bd 7e df fd bc fd fa a9 bd
       0.71156275 -0.099093035 -0.030990358 -0.08299825
000360 49 7d b7 3d 25 06 6d 3c d0 07 11 3e a7 53 08 3e
       0.08959443 0.014466797 0.14163136 0.13313161
000370 94 b1 23 3e c0 84 98 3d a6 f5 2d bd 87 e2 1c 3f
       0.1598571 0.07447195 -0.042470597 0.61283153
000380 bc 45 2c 3e cd b4 4b 3d b5 ab 0e be 7b 68 16 3e
       0.16823477 0.049732972 -0.13932689 0.14688294
000390 e1 2f 52 3d a7 5d aa 3d 44 c2 41 3b c1 e1 73 bd
       0.051315192 0.08318644 0.0029565254 -0.059541468
0003a0 19 9a 00 3e 9f ed 11 3d 27 8d f5 bd 2f 5b 45 3b
       0.12558784 0.035627004 -0.11989813 0.0030114164
0003b0 9f e8 d4 3d 60 3b 32 bd 8a 7b b8 3d 77 29 d6 bd
       0.103959315 -0.043513656 0.09007938 -0.104571275
0003c0 be ec 82 3d 00 51 ad 3d f5 27 34 3e b6 1f 09 3d
       0.06392811 0.08462715 0.17593367 0.033477508
0003d0 1b 99 c7 3d 3b 26 07 3e 61 62 74 3d 6b 04 51 3e
       0.097459994 0.13198178 0.059664134 0.20411842
0003e0 af ab fa 3b 02 52 b9 3b bc b1 2e 3d 54 87 29 3e
       0.007649861 0.005655528 0.04264997 0.1655553
0003f0 a3 22 01 3e 6a 4c d2 3d 4d 96 fc 3d 56 9b cf 3d
       0.12610869 0.10268481 0.12333355 0.1013705
