models/20200923_212102/epoch_1500_loss_665.24480.pt (torch, 857809 bytes, 96 tensors)

encoder.model.weight_ih_l0 f4 [256, 3]
00000000: ee51 fdbd 4b27 d33c 90b8 40bd 3470 883d
00000010: 571a 6f3e 328e eb3d 4b29 b0bc 6397 da3c
00000020: ae85 273e 7195 0f3c b898 643e be0f 53bd
00000030: 097c 383d b9df 7abd f050 d23d 7d03 6cbe
00000040: 3c44 bf3e 1c67 1dbd 4f7b 26bf 34f7 56bc
00000050: 2b84 173e 95f8 733d 320a c33d dc24 103e
00000060: d1c7 b8be e960 263c 3d97 96be dd7f 6cbe
00000070: 3793 2b3c d083 f93d 83ee fdbe e385 e83d
00000080: 630c 203f f94a 62be d86a b6bd 8166 7abe
00000090: a970 88bd a58f f5bd 33a0 0abc 40b3 2bbe
000000a0: 4049 c3be af0d 9abe 4b82 afbe da28 a1bd
000000b0: 3647 283e b8cc 8bbe 48b4 1e3d 476b 29be
000000c0: e769 86be 0437 963c 7933 4ebe 3d87 f1bb
000000d0: ba50 4a3d 3f3e cb3d 223a d3be 9325 d83d
000000e0: bb79 eabd 9ece 56be bef6 65be e0ce cfbd
000000f0: 5c9f 3fbd 9c0c 72be f14b 5cbd 4763 633d
00000100: 52af 823d 71af 103d 00a1 5ebe efe3 20bf
00000110: 7aba ddbe 8888 333d 1350 a6bc 4ff6 d23d
00000120: e901 0a3e aa58 a73b 7919 25bc e509 67be
00000130: 27d2 8fbd e26f 15bf 0cef 8bbe 6aa5 7fbe
00000140: 6e7c 8bbd 47a3 76bc 65c1 17bd 5cf5 29bd
00000150: 1c40 453d 8e30 283c 8070 febc 7cef a4be
00000160: 2867 853e ce59 b4bc 040d 93be a912 6e3d
00000170: 1f02 d23d e42f f9be 346c c8bc b852 2c3e
00000180: 6d59 49be 5820 8b3d 814c 3fbd e6a1 46be
00000190: f297 703e 0502 633d 25ff 9bbd 3de1 233e
000001a0: 3f57 87bc 13b8 cabe 60a7 5abf 6d17 f7be
000001b0: fde7 943c 1d8a 25bd bd65 e73d 57c9 ae3d
000001c0: 72ab c23d b133 b9bc 1a18 88bd f4ec e6bd
000001d0: 6b86 04bd fa58 023e 9cd9 d9bd a813 d93d
000001e0: caea bebd 9371 06bf 1bcb c4be 9075 08be
000001f0: 9260 b3be 56f3 88bd 563e aebd e47a 443e
00000200: 9f3a 1c3f 56dc 70be f93b c5bc 2e6b 44be
00000210: 4c64 0ebe dbeb 7c3e f572 9abd ab5b e03e
00000220: 7673 0f3e 0340 2b3f b62c 2fbe fd84 9fbe
00000230: ed62 5dbe b2df 19be 2f2f 25be 2e81 e93d
00000240: 8aad 7abe fa17 403e 2706 3d3e e218 a1be
00000250: bffa 4c3e 6f19 ad3b d32e f23d f6b3 05be
00000260: f260 3ebe 2dda 70bd ca75 be3d 8d85 0f3e
00000270: 73a0 03bf 9532 63be f805 aebe ef48 e5bd
00000280: b7d4 9f3d 305c d83b 1c7d c0be b99e 13bd
00000290: 4634 5c3e 8760 1cbe 4073 9fbd ebe9 0f3e
000002a0: 8a69 3bbe cdc9 6abd f733 90bd 89a0 8bbe
000002b0: 4682 94bd 49ac 8dbe 2ffb cd3d e9a1 1a3e
000002c0: f912 6e3e a7c4 10be c6de ee3d 892a 9c3e
000002d0: 463e 0cbf 8f38 06be 50c4 86be c4e3 e93d
000002e0: 6387 07be 3c0b 203e 51a4 35bd 7fc8 993d
000002f0: 065b 893d 8fad 493e c5ed 243e 1303 6d3f
00000300: e513 d3bd 8299 10be 373c f53d 05fd e53d
00000310: 052d 4cbe 4849 c53e b6ab 77be bdbd fcbc
00000320: 593c 713b 4681 1fbe efdb 193e 7a98 bcbd
00000330: 1dfb ffbd 15ea 91be 6f0f 083e 3573 bbbe
00000340: 6090 443e 5a6d 173f 331f 2abf e200 b1bd
00000350: df59 333e 5165 b0be 774f d7be 56bb 8cbe
00000360: c2a9 41bd ca4c 8bbe f968 23bf ca84 0cbf
00000370: dc31 143e 2823 f03d 5e16 3cbe 81c3 e03c
00000380: eb2c cb3e d9a2 273e 44af 69be d1a8 ccbc
00000390: efad fa3d ba9f e1bd 5675 a6bd b519 54be
000003a0: 1ad3 d3be 6181 0bbe 79eb 92be 0bb0 d6be
000003b0: 414d babe b875 abbd 5341 da3e b327 16bc
000003c0: 9830 79be 31e6 2c3e 399b 553d a1f5 0bbe
000003d0: a0ef b1be 1124 0ebd dbd3 dfbc 8917 62bd
000003e0: ce20 6ebe 4650 8ebe 29c9 433d 9dd7 10be
000003f0: 7f3d 883d 41c5 60bd c002 733d e301 10be
-0.123691425 0.025775572 -0.047051013 0.06662026 0.23349892 0.11501731 -0.021504065 0.026683515
0.16359589 0.008763657 0.22323883 -0.051528685 0.045040164 -0.061248515 0.10269344 -0.23048206
0.37356746 -0.03842841 -0.65031904 -0.013120461 0.14796512 0.05956324 0.09523429 0.1407656
-0.36089948 0.010154941 -0.2941226 -0.23095651 0.0104721105 0.12183344 -0.49596033 0.11353662
0.625189 -0.22098912 -0.089070976 -0.24453165 -0.06662113 -0.11990289 -0.008461046 -0.16767597
-0.38141823 -0.30088565 -0.34279093 -0.0786912 0.16433415 -0.27304626 0.03874615 -0.1654483
-0.26252672 0.01833678 -0.20136823 -0.007370858 0.049393393 0.09923982 -0.4125529 0.10554042
-0.114489995 -0.20977256 -0.22457406 -0.1014688 -0.046782836 -0.23637623 -0.05378336 0.0555146
0.06381096 0.035323564 -0.21741104 -0.628478 -0.43306333 0.04383138 -0.020301854 0.10300886
0.13477291 0.005107005 -0.010076874 -0.22562368 -0.07022505 -0.58373845 -0.27330816 -0.24965444
-0.068108425 -0.015053577 -0.03704967 -0.04149376 0.048156843 0.010265483 -0.031059504 -0.32213962
0.26055264 -0.022015478 -0.28720868 0.058123264 0.10254311 -0.4866935 -0.024465658 0.1682843
-0.1966302 0.067932785 -0.04670382 -0.19397697 0.23495463 0.055421848 -0.07617024 0.1600389
-0.016521094 -0.39593562 -0.85411644 -0.4826006 0.018177027 -0.04041492 0.11298702 0.08534496
0.09505357 -0.022607656 -0.06645222 -0.11275664 -0.032354753 0.12729254 -0.10637209 0.10599452
-0.09322126 -0.5251705 -0.38436207 -0.13326097 -0.35034615 -0.06687038 -0.085079834 0.19187504
0.6102695 -0.23521551 -0.024076449 -0.19181511 -0.13905448 0.24699347 -0.075414576 0.43819937
0.14008889 0.6689455 -0.171069 -0.3115615 -0.21619768 -0.15026739 -0.1613128 0.11401592
-0.24480262 0.18759146 0.18459378 -0.31464297 0.20017527 0.005282573 0.11825337 -0.13056931
-0.18591669 -0.05880182 0.0929981 0.1401579 -0.514167 -0.22187264 -0.3398893 -0.111955516
0.07804244 0.0066027865 -0.3759545 -0.03604004 0.21504316 -0.15271197 -0.07785654 0.14054076
-0.18301979 -0.05732136 -0.070411615 -0.27270916 -0.0725141 -0.27670506 0.10057675 0.15100826
0.23249425 -0.14137517 0.116635844 0.30501202 -0.5478252 -0.13107513 -0.2632165 0.11420396
-0.1323524 0.15629286 -0.044346157 0.07508945 0.067068145 0.19695114 0.16106327 0.92582816
-0.10306529 -0.14121059 0.11974376 0.112299 -0.19939049 0.38532472 -0.24186596 -0.030852193
0.0036809652 -0.15576658 0.15025304 -0.0920877 -0.12499068 -0.28498903 0.13287137 -0.36611333
0.191957 0.5915123 -0.66453856 -0.086427465 0.17514752 -0.34452298 -0.42052814 -0.27486676
-0.047281034 -0.27207023 -0.6383205 -0.5489012 0.14472145 0.117254555 -0.18367907 0.027436974
0.39682707 0.16370715 -0.22820765 -0.024982842 0.122402065 -0.110167935 -0.08127849 -0.20712931
-0.41371995 -0.13623573 -0.28695276 -0.41931185 -0.36387065 -0.083720624 0.42627963 -0.0091647385
-0.24334943 0.16884686 0.052149985 -0.13667919 -0.34753132 -0.034702364 -0.0273227 -0.055198226
-0.23254701 -0.2779562 0.047799263 -0.1414475 0.066523544 -0.054875616 0.059328794 -0.1406322

encoder.model.weight_hh_l0 f4 [256, 64]
00000000: d622 823d 2223 60bd 670f 733e 2089 9f3e
00000010: 0f69 1ebd ff58 8b3e 26ad 7dbe b949 643d
00000020: 72e5 383e 1d3d 0fbe 4859 923d 0b88 0ebe
00000030: 0c7e bfbd f4c5 243c b300 95bd 513a 1dbc
00000040: 81a0 9bbc 8d7f 36bd 45ea 603e 4416 bcbd
00000050: eb81 d7bc 6d96 78bb f5f7 5cbc d5c7 82bd
00000060: 0aae 093e e93a 813d 7ea8 2dbc a47e 20be
00000070: 379a 2a3f e48b d5bd 4b3b 633d da0d 063e
00000080: a07b ad3e ec0d 1abe bb14 c3bc 0f52 333d
00000090: d796 8fbd a447 dd3e 3104 0a3e efeb 35bc
000000a0: 2274 043e aaaa 3cbd ee7b cd3e dfe8 94be
000000b0: 496c 633e 8485 6bbe 5d00 893d d3da 5ebe
000000c0: acb2 3d3d 5508 6abe 6e8e 263e d5cd 8dbc
000000d0: 9c6c cf3d 7e65 ae3e 1508 ddbd e375 133e
000000e0: 23c8 7abd 2c85 88bd 0183 8a3e f547 65be
000000f0: 2f1f d3bd 3023 b1bd 0b42 b7be 3a0d 733e
00000100: 5a7f 6fbe fbd5 3dbe 2265 7c3e 7d8e 8b3e
00000110: 5dc0 213e 98f4 103e e79d d1bd 876d 66bd
00000120: 98a4 833d 39fc 19be ecb5 873e 1f22 d7bd
00000130: 16e6 3b3d 7272 f7bc 542d 11be f55e 7c3c
00000140: 13a1 94bc 7eed 6ebe 6fbd 813c b508 debd
00000150: 96a1 4cbd 6bd8 c93d 3b4c 493c c318 743d
00000160: 3a73 f63d d66c 1fbd b0d1 93bd a073 1fbe
00000170: 70ac ad3e e0e9 93be a8e7 513e 58ad 50be
00000180: 65d6 663e 7567 1abe b175 a4be 5197 d4bd
00000190: e044 183d 93ac a63e 7ab8 ef3d 6706 d2bc
000001a0: 3260 95bd 291d cf3d 6ee3 ad3d efc2 afbe
000001b0: cd7a 5f3e be0c bbbc b5e2 69bc 46a7 57bc
000001c0: eb98 a03c 796d 20be 6c2a 573e 2235 2b3e
000001d0: 074f cebd 9680 0d3d 4894 73be 60f6 9b3d
000001e0: 0616 9a3d 8493 ffbd 1854 553d 0003 1ebe
000001f0: 366f a9bd 8dd1 17bd ef95 56be ad91 783e
00000200: 8725 973d 665d 49bd 382c 0d3d 9f5f a1bd
00000210: a626 e5bc ef4d 84bb c82a 2fbe 9c49 e0bc
00000220: dd1e 0dbd aafb 833c f266 16be 6dfb 98bc
00000230: a7b8 15be 7f8e 31bd 9569 5dbd e6d3 a3bd
00000240: ec0b aebd f556 a13d f744 0fbd 5ea1 dbbd
00000250: a249 c6bb 1969 913d 7676 343d 2de1 b23d
00000260: 2a46 09be ac42 a83d 00f1 fa3d e062 f2bd
00000270: ad62 d83c 0b72 313c eb9e bcbd 1c28 6f3d
00000280: 27d2 e73c 63d5 95bd dc8e 8dbc 1b11 bc3d
00000290: 1ea0 133e 5bbe 273e 3ae1 14be c50c 28be
000002a0: cfd4 ff3d 675e 04be 46b0 8cbc f3e0 bcbb
000002b0: 510f 913d 5485 903d 9ae9 ba3d d04e 34be
000002c0: 00c9 ffbc e51c 8fbd 0ba6 e8bd 6a3c 02be
000002d0: 8552 06bd aa88 f33d 1f7f 2ebe 3b62 233d
000002e0: 3704 bdbd 85bd c2bd 2bee 433e 0a38 ba3c
000002f0: 5a8a fcbc 2dee b83b 954a 91bd 72a6 b7bd
00000300: 6d3a 323e bbbd 173d c221 373e af9a 413d
00000310: 71e8 693d b74f 75bd 9d9e 76bd c64e b1bd
00000320: ecfd 8b3d 99da 88bd ac05 ee38 e431 02be
00000330: 43d1 fabd 49a4 c1bd 45a1 f63c 3395 c13d
00000340: 25aa ed3d 99ac 0d3d 77d5 1c3e bd24 b7bb
00000350: 6900 b7bb 1071 4ebb 082d fabd b6bb a03d
00000360: e328 de3d 93cc 18bd a5f1 cb3b de78 05bd
00000370: 7beb 183e 537b 73be 8255 45bd f51b 443d
00000380: 16d2 2b3d 6c58 e9bd 962f 60bd bac5 0ebe
00000390: 2af7 c2bd 5a59 983e c44c b93d 47b2 ee3c
000003a0: b1c6 f23d 2837 633d 903d a8bd 4d21 aabd
000003b0: 60b1 903e d477 9bbc 07a7 203d f62a 09bd
000003c0: e881 08bd 1046 9cbd ac67 dd3d 1a22 983c
000003d0: ed84 263d 0ca4 da3d a26a 07be 0fb5 e93c
000003e0: e410 983c d7a6 9abd 5668 733e ed27 4fbe
000003f0: be4e 1cbe fdcb 78bd bf41 debd 62f1 1b3e
0.06354301 -0.054721005 0.23736344 0.31159306 -0.03867441 0.27216336 -0.24773082 0.05573437
0.18056276 -0.13988157 0.07145935 -0.13919084 -0.093502134 0.010056961 -0.07275524 -0.009596423
-0.018997433 -0.044555236 0.21964367 -0.09183934 -0.026307067 -0.0037931458 -0.013486852 -0.06385771
0.13445297 0.06310064 -0.010599254 -0.1567331 0.66641563 -0.10427073 0.055476468 0.13091221
0.3388338 -0.15044373 -0.023813596 0.04377943 -0.07011192 0.4321872 0.13478161 -0.011103614
0.12934926 -0.046061195 0.40133613 -0.29083917 0.22209276 -0.23000151 0.066895224 -0.21763162
0.046312973 -0.22854741 0.1626527 -0.017310062 0.101281375 0.34061807 -0.10792557 0.14400439
-0.06122602 -0.066660255 0.27053073 -0.2239073 -0.10308682 -0.086492896 -0.35792574 0.23735514
-0.23388425 -0.18538658 0.24647954 0.27257147 0.15796037 0.14155805 -0.102351956 -0.056256797
0.06427878 -0.15037622 0.26505983 -0.10504555 0.045873724 -0.030205939 -0.14177448 0.015403499
-0.018143212 -0.23332784 0.0158374 -0.108415045 -0.049958788 0.098557316 0.012286241 0.059593927
0.120336965 -0.038922153 -0.07217729 -0.15571451 0.33920622 -0.2888937 0.20498526 -0.20378625
0.22542723 -0.15078528 -0.3212104 -0.10380424 0.03717506 0.3255354 0.11705108 -0.025637819
-0.072937384 0.10112984 0.084906444 -0.3432841 0.21824189 -0.022833224 -0.014275243 -0.01316244
0.019604167 -0.1566676 0.21012276 0.16719487 -0.10073667 0.034546457 -0.23787034 0.07615352
0.07523732 -0.12479308 0.05208215 -0.15430832 -0.08273165 -0.037065078 -0.20955633 0.24274321
0.07380205 -0.049161337 0.034466 -0.078795664 -0.02797253 -0.0040376107 -0.17106164 -0.02737885
-0.03445326 0.016111214 -0.14687708 -0.018674577 -0.1462122 -0.043348785 -0.05405577 -0.07999401
-0.08498368 0.07877914 -0.03497788 -0.10724138 -0.006051258 0.07100124 0.044058286 0.08734355
-0.13405672 0.08215842 0.12252998 -0.11835265 0.02641424 0.010830413 -0.09209999 0.05838786
0.02829845 -0.07316091 -0.017280035 0.0918295 0.14416549 0.16381209 -0.14539042 -0.16411121
0.12491762 -0.12926637 -0.017173897 -0.0057641207 0.070829995 0.0705668 0.09126587 -0.1760819
-0.031223774 -0.06987933 -0.11359795 -0.12718359 -0.03279354 0.11891301 -0.1704068 0.0398886
-0.092293195 -0.09508804 0.19133823 0.0227318 -0.03082769 0.005643627 -0.070943035 -0.08967294
0.174051 0.037046175 0.17883971 0.04726666 0.05710644 -0.059890475 -0.06020986 -0.08657603
0.06835541 -0.06682319 0.00011349781 -0.12714344 -0.12246945 -0.09455163 0.030106196 0.094522856
0.11604718 0.03458843 0.15315805 -0.0055890963 -0.0055847657 -0.0031500496 -0.1221562 0.07848303
0.10847642 -0.037304472 0.0062238746 -0.03258597 0.14933579 -0.23777513 -0.04817725 0.047878224
0.0419484 -0.11393818 -0.05473288 -0.13942614 -0.09519799 0.2975567 0.09047845 0.029137744
0.11854304 0.055472523 -0.08214867 -0.08307133 0.28260326 -0.018978037 0.03922179 -0.033488236
-0.033327013 -0.07630551 0.108107895 0.018570948 0.04065411 0.10675821 -0.13224271 0.028528718
0.018562742 -0.075513534 0.2377027 -0.20230074 -0.15264413 -0.060741413 -0.10852384 0.15228799

encoder.model.bias_ih_l0 f4 [256]
00000000: 9af3 e03d b127 823d c6da 843d fb2d 183e
00000010: dfea 773e 576c cc3d c967 1f3d 3f0c 883e
00000020: fe0b 603e 9a95 383e 127e cc3e 666d ab3d
00000030: 52cc a03d 36ad 523d 15d7 533e f22b 71bd
00000040: eac7 8f3d 5aa3 af3e d54f e5bc 32e3 80bd
00000050: bd0f 983d a231 473e f9b2 673d 782b 833e
00000060: 45af 9b3d 7902 b53d 3631 3fbd 5b1e 653d
00000070: efa4 e53d 3430 4cbd 34dd b23d aaee 0c3e
00000080: c510 663d 03db 123f 1bc6 f23e 4595 3bbd
00000090: cf5e 9dbc 10b6 1ebd 958c ff3d b0d6 9b3d
000000a0: 5847 013d 9fca 8f3d 2333 8d3d 9ca0 bebd
000000b0: bcdb 9bbd 51b1 273f eb34 673d c18f 293d
000000c0: bf84 e6bb f798 60bd d986 143e fe2f 993d
000000d0: 3308 88bd 5ea9 80bc 3811 f63d c507 e33d
000000e0: 3d6c 8d3d e4aa 433f ac53 293c 68a4 6d3d
000000f0: ac07 3e3d f2c5 4e3c 43de cb3e c686 f13d
00000100: 7522 71bd fa23 cb3c 5bfe 0fbe 6a6b dbbd
00000110: d0cc b4bd 5c08 b8bd 7db2 073e 14e3 c5bd
00000120: 0bbd 15be 59f7 eebd 5c1c 87bd 6796 b7bc
00000130: ef2e d6bd 4aea b7bd c608 64bd aefc 72bc
00000140: 6113 73bc e9fd 8c3b c6df 37bb 399e 15be
00000150: 56e6 993b 2fc1 553e a111 91bd d31d 403d
00000160: 4942 a73d 6e7d a2bd 40bd 8b3d cdba b53d
00000170: 4e28 37be 0c36 f13d c709 26bd b9fd d2bc
00000180: bdfc 6a3d c3ea f8bd 0cab f43c 3970 b13d
00000190: 6d64 23be dff4 10be 912a 633d a52c 0c3e
000001a0: 8546 f0ba fe9a 1dbc 6916 b33a 8d9b 273e
000001b0: 73fd c7bd a3c4 bf3c 888b ed3d cb99 ddbd
000001c0: f8d3 23be 809c ebbd 1524 55be 0637 db3b
000001d0: 8a10 f93c f297 87bd fbff bebd 5cec cf3d
000001e0: 0802 6a38 2888 1bbf ed6b 91bd 4b3e 09be
000001f0: 12a4 ebbd 5954 fdbc 207d 0abd 7ff1 5e3d
00000200: 06c6 173d 8636 4b3d 5549 01be 07a0 18be
00000210: 89ff 73bd 7e5d 0fbb 01e3 c63c ac42 9fbd
00000220: 6055 a63d 1e49 713d c78b 75bd 1eb8 c8bd
00000230: 5cf0 5d3d e253 90bb 0ffd f13d 5df6 723d
00000240: 74e7 f6bb 48f6 c23d 3243 89bd dd5b b63d
00000250: ac2b 13bd 6270 acbd c767 a6bd 5d04 7e3d
00000260: 064e afbd d5a1 853d 21ae 5a3d 2f37 cdbd
00000270: ce68 263c c2ad d73c 3ca3 bbbd efea 143e
00000280: 9188 783c 4337 483d 3c81 df3d 0362 dc3d
00000290: 0ed8 26bd 30b2 96bd 55ea fc3d 8bc1 e3bd
000002a0: 9709 623d 99ba c4bd def4 a8bd be60 b93d
000002b0: 4184 273d 7a1d ad3d 1e1d 1abd 3604 e8bd
000002c0: c2ef 8b3d ee69 d6bd dd1b 1abe a23d 9ebc
000002d0: 5381 3c3e c484 c2bc f3ba 663c 683c 113e
000002e0: 30a6 6fbb 6508 a93e 1ff6 793d d4d2 7a3d
000002f0: 7b70 c3bc 23e7 103b 9754 873b 6998 22bd
00000300: c548 353e 9c62 e43d 1dd9 c43c bca9 973d
00000310: 30f5 853e d88d b13d 4193 9ebc 316a 0a3e
00000320: 567d 733d 9c47 c73e c368 c83e 786c 803d
00000330: 237d 023e aa85 bbbd 2f28 1c3e 7878 373e
00000340: 470b b53d 805b 8b3e ca30 c5bc 30d3 f1bc
00000350: 4f03 3b3e 5fac 0d3d 81a2 c23d 186d 103e
00000360: 3e35 6b3e 0c39 8abd ab99 78bd 5b5c b93d
00000370: 6de2 d6bd 7daa 863d d838 323e 15d7 003d
00000380: bbea 1d3c d04f be3e 7a41 633e 2986 473d
00000390: 356c 003e 040b 873d de2e 4dbd b4f0 633d
000003a0: 37a6 15bd 34ec 39bd db9c 083e 1402 053e
000003b0: 938e 2ebd 1405 313f 883d 303d 5819 f33c
000003c0: f6ac 37bd 8ac8 ef3b 37a4 0c3e dca7 553e
000003d0: 2c48 453d dfe1 97bd dbdb 3d3e 650f 5abb
000003e0: efa8 6c3d cdb3 143f 0ed0 cebb 7e15 e23d
000003f0: 9290 c3bd 89bf a33d 3d63 3f3e ce84 613e
0.10983963 0.06355227 0.0648704 0.1486129 0.2421069 0.09981602 0.038917337 0.26571843
0.21879575 0.18025818 0.39939934 0.083704755 0.07851471 0.051434718 0.20687516 -0.0588798
0.070205525 0.34304315 -0.027992168 -0.06293334 0.07424877 0.19452527 0.056567166 0.25619102
0.076017894 0.08838362 -0.04667779 0.055937152 0.11213099 -0.049850658 0.087335974 0.13762918
0.056168336 0.57365435 0.47416767 -0.04579665 -0.019210247 -0.038747847 0.12477986 0.07609308
0.03156218 0.07021069 0.06894519 -0.093079776 -0.076102704 0.6550494 0.05644695 0.04139686
-0.0070348675 -0.05483338 0.14504565 0.07479857 -0.06642189 -0.01570576 0.12015003 0.11085466
0.069054104 0.76432633 0.01033489 0.05801812 0.046394035 0.012620436 0.3981801 0.11793284
-0.05887075 0.024797428 -0.14061873 -0.10713847 -0.088281274 -0.089859694 0.13251682 -0.09662452
-0.14622895 -0.116682716 -0.06597206 -0.022410585 -0.104581706 -0.08980234 -0.05567243 -0.014830751
-0.014836163 0.0043027294 -0.0028056963 -0.14611138 0.0046966476 0.20874475 -0.070834406 0.046903443
0.0816694 -0.0793408 0.06823206 0.0887352 -0.17886469 0.11777887 -0.04053667 -0.02575575
0.057369936 -0.12154152 0.029866718 0.08663983 -0.15956278 -0.14155911 0.055460516 0.13688906
-0.0018331563 -0.009619473 0.0013663295 0.16367932 -0.097651385 0.023409193 0.11598879 -0.10820349
-0.15998828 -0.115044594 -0.20814545 0.006689909 0.030403394 -0.06620778 -0.09326168 0.10152504
5.579184e-05 -0.6075463 -0.07100663 -0.13402669 -0.11505903 -0.03092401 -0.033810735 0.054429527
0.037054084 0.049612544 -0.1262563 -0.14904796 -0.05956987 -0.0021875794 0.024278166 -0.077763885
0.08121753 0.05890762 -0.059947755 -0.098007426 0.054184303 -0.004404531 0.11815845 0.05931698
-0.0075349156 0.09519631 -0.067022696 0.0890424 -0.03593032 -0.08419873 -0.08125263 0.06201588
-0.08559804 0.06525008 0.05338872 -0.10020291 0.010156823 0.026327971 -0.09161994 0.14542745
0.015169279 0.048880827 0.109133214 0.10760882 -0.04073339 -0.07358205 0.12349383 -0.111209
0.055184927 -0.09605903 -0.0824983 0.09051655 0.04089761 0.08452888 -0.037625425 -0.11328928
0.068328395 -0.10469423 -0.15049691 -0.019316498 0.18408708 -0.023744948 0.014082658 0.141832
-0.0036567561 0.33014217 0.061025735 0.061236218 -0.023857346 0.0022110424 0.004129957 -0.03969613
0.1770354 0.11151621 0.024029309 0.07405421 0.26163626 0.08669633 -0.019357326 0.13517071
0.0594457 0.3892182 0.39142427 0.06270689 0.12743048 -0.09156354 0.15249704 0.17917049
0.088400416 0.27218246 -0.024071116 -0.029519647 0.18262981 0.034588214 0.095036514 0.14104116
0.22969529 -0.06749162 -0.060693424 0.090508185 -0.10492406 0.06575487 0.17404497 0.03145512
0.009638484 0.37170267 0.22192946 0.04871193 0.12541278 0.06593898 -0.050093524 0.055649474
-0.036535468 -0.045391276 0.13341086 0.12989074 -0.042616438 0.69148374 0.04302743 0.02967517
-0.044842683 0.0073176073 0.13734518 0.20864815 0.04816453 -0.07416128 0.185409 -0.0033273336
0.057778295 0.58086854 -0.006311423 0.110392556 -0.09549059 0.07995517 0.186902 0.22023317

encoder.model.bias_hh_l0 f4 [256]
00000000: a423 f83d 4827 21bd 35ed 603e cdd2 3c3e
00000010: 1502 c93e e088 25bd 74c9 b5bd 5b48 9a3e
00000020: 4c02 a53e 6175 8e3e 7ad3 713e 1e26 c9bc
00000030: 24a5 c83d a6bb 143d 48a3 f83d 2c19 2dbc
00000040: d6dd c53b 28f4 483e 1857 073e 5da8 5cbd
00000050: 34c9 193d d8b9 163d 0be7 8b3c 6a6e 503e
00000060: 53e9 493e 40e0 8fbd ea65 b33d a1bb 383d
00000070: 878d b83d 50e6 cebd 1228 163e e2f8 b93d
00000080: 0e8c 03be 8a58 d83e cc8a d73e 3e44 513b
00000090: ef0b ed3c 3cad fa3d 4aa4 0f3e 5a31 c43d
000000a0: d634 953d e73e 5f3d 0c51 1b3d 9abe 6ebd
000000b0: 25a5 cfbd fc88 2f3f d4e0 753d 7c15 c73d
000000c0: 7605 7ebd ca15 de3d 8717 823e 03a6 813e
000000d0: 2493 313a 1d0a f33d 5796 963d 955c 3d3d
000000e0: 05af f03d c099 423f f530 d03d d292 e53c
000000f0: 2c76 8dbd 0005 3d3e b276 593e e1f0 9d3e
00000100: 1eae 993d 36a7 d33c 3934 adbd 6cdc 593d
00000110: bebc 55bd afa6 1dbd 52a3 093e dacf 3fbc
00000120: c31f 23be f202 24be e400 143d 8de3 4a3d
00000130: 31d7 e83d 401a 593d 3c1b cb3d ae0e 4eba
00000140: b717 8b3d a38e babd 596d f2ba 9cab 85bd
00000150: 5dfc afbc e470 0c3e fbf2 cebd 7c01 74bd
00000160: d5d6 efbc 1c68 19bd 8be0 de3d ec9b fa3b
00000170: ea02 9bbd e627 cc3d a6fc 733c e82b b33b
00000180: 4d12 083d fd35 ff3c e37f 45bd e6fd 7bbd
00000190: 8e72 eebd 1c36 33bd 1215 09bd 0cbb 8e3d
000001a0: 6787 f0bc 3daa 163d 5156 eb3d 1082 043d
000001b0: 90e0 b13d 9114 cebd 94de 833d 857f 86bd
000001c0: 9bf4 2cbc dd5b 3a3c 90a1 49bd 118a 473d
000001d0: 52c5 d93d 20c7 0abe 249a 0abe 682e 873d
000001e0: 2cea 17bd 76aa 05bf 993a ef3c 4274 a83d
000001f0: e013 533b 5057 823d 6055 21bd e3b4 1d3d
00000200: f57c 333e c1da 9ebd 73f4 a2bd 4e2b 0e3d
00000210: 5343 9abd 46a5 8f3d 6e6b f6bd aa0f babd
00000220: a523 833d 038d 823d e1ac eebd 6fc9 b0bc
00000230: 8276 8fbd 5261 a1bd 9ec3 173e ab56 b0bd
00000240: 25cd 48bd 190b 013e b031 d6bc fbc7 abbd
00000250: 4395 89bd ee34 e03d 3669 26bd 26b4 d23c
00000260: b6e3 6a3d ed0c e33d 9dfa ca3d b5ac fb3c
00000270: 1c01 1bbe 2a0e dcbd 2990 02bd 4858 80bd
00000280: 60ac 903d 206d bfbd f28a b43d 18a7 e5bc
00000290: e203 6abc c04a 65bc eed6 c4bd 4c91 6dbd
000002a0: 8a52 dd3c 4516 f83c be13 e3bb 0241 96bd
000002b0: a6f5 5bbb 59e9 c5bc 471c f43c 1493 29bd
000002c0: 2173 c53d 9733 d4bd acb8 0dbd 3d7c e3bd
000002d0: 3a59 70bd e682 9e3b 1797 f13c 40a9 5c3d
000002e0: d320 fcba fb50 513e a9fe 553d 6f9f 80bd
000002f0: 9759 66bd ba4f ab3d 7901 da3d 89c0 473d
00000300: ca84 8e3e c9b8 c63c 87a6 a63d e5bd 6c3e
00000310: 0f71 d23e 2c6d 843d fe06 ca3d 635b 7f3e
00000320: d8f6 ab3d c95e 663e cd24 723e 3d76 fdbd
00000330: f7df 863b ad86 31be c8e4 343e 585c 363d
00000340: d618 48bd ea5e 2c3e 9407 e93d 53fb 9e3d
00000350: 6fdd 41bd 6672 013e e94d ec3d b638 1b3e
00000360: 71e0 8b3e c8a6 d0bb eb89 4fbd 71b3 653d
00000370: 89c6 83bc 51b2 e23c b2ac 563e ecde f93d
00000380: 6f7d c5bc ec34 0a3f 2733 cd3e 9c48 81bd
00000390: a29e b83c 83ff 163b 3544 183e b02e 38bd
000003a0: 54f6 eb3d 7be5 9e3d fbb5 063e de8f db3d
000003b0: 25dd 50bd 5c47 0e3f 0ee4 073e 0dae a8bd
000003c0: c417 093d af31 c3bd 6423 1c3e 2951 6b3e
000003d0: c4a0 223d 2912 9e3d 7b93 da3d b28c ee3d
000003e0: 857b 853d 6935 133f 3e43 06bd a07c 9cbd
000003f0: fca0 83bc 327a 843d ec23 8e3e 2ad2 dc3d
0.12116173 -0.039344102 0.21965487 0.18439789 0.392594 -0.040413737 -0.08876315 0.30133328
0.32228315 0.27823928 0.23615828 -0.024554309 0.09797123 0.036311768 0.121405184 -0.0105650835
0.006038408 0.19624388 0.13216817 -0.0538715 0.037545398 0.03679833 0.017077943 0.2035462
0.19717912 -0.07025194 0.08759673 0.045100812 0.09011369 -0.101025224 0.14663723 0.09080674
-0.12846395 0.4225505 0.4209808 0.0031931545 0.028936354 0.12240073 0.14027515 0.095797256
0.07285468 0.054503348 0.03791909 -0.05828724 -0.10138921 0.68568397 0.060028866 0.09720895
-0.062016927 0.10844 0.25408575 0.2532197 0.000677394 0.11867163 0.07352894 0.04623087
0.11752132 0.76015854 0.10165588 0.028024111 -0.06907305 0.18458939 0.21236685 0.3084784
0.07503913 0.025836568 -0.08457226 0.053188726 -0.05218195 -0.03848904 0.13441208 -0.0117072705
-0.15930085 -0.16016749 0.036133662 0.049533416 0.113691695 0.05300355 0.09917304 -0.0007860464
0.067916326 -0.09109237 -0.0018495723 -0.065268725 -0.02148264 0.1371494 -0.101049386 -0.059571728
-0.029277245 -0.037452802 0.10882672 0.007647982 -0.07568915 0.099685475 0.014891779 0.0054678805
0.033220578 0.031153673 -0.048217665 -0.061521433 -0.11642943 -0.043752775 -0.03346736 0.0696927
-0.02936144 0.036783446 0.11491073 0.0323506 0.0868541 -0.100625165 0.06438938 -0.06567291
-0.010556365 0.011374441 -0.049226344 0.048715655 0.10633339 -0.13552523 -0.13535362 0.06600648
-0.037088558 -0.5221323 0.029202746 0.082252994 0.0032207891 0.0636431 -0.03938806 0.038502585
0.17528136 -0.07756568 -0.07956781 0.034709267 -0.07532372 0.07013945 -0.12032209 -0.09085019
0.06403283 0.06374552 -0.11654068 -0.021580426 -0.070050254 -0.078798905 0.14820716 -0.086102806
-0.049023766 0.1260189 -0.02614674 -0.083877526 -0.067179225 0.109475955 -0.04062768 0.025720667
0.05734607 0.1108645 0.09911082 0.030722002 -0.15137142 -0.10744889 -0.031875763 -0.06266838
0.07064128 -0.09346986 0.08815564 -0.028033778 -0.014283152 -0.013994873 -0.09611307 -0.057999894
0.027016897 0.030284056 -0.0069298437 -0.07336618 -0.0033563166 -0.02415912 0.02979864 -0.04140003
0.096411 -0.103614025 -0.034599945 -0.11107681 -0.058678843 0.0048373817 0.02949099 0.053872347
-0.0019235857 0.20441048 0.052244816 -0.062804095 -0.056237783 0.08364816 0.10644812 0.0487676
0.27835685 0.024258034 0.08137231 0.23119314 0.41101882 0.064661354 0.09864615 0.24937205
0.08396691 0.22497095 0.23646851 -0.12376068 0.004116054 -0.17336531 0.17665398 0.04452166
-0.04885181 0.16833082 0.113783985 0.0776278 -0.047330316 0.12641296 0.11538298 0.15158352
0.27319673 -0.006367538 -0.05066864 0.05607933 -0.01608588 0.027672919 0.20964316 0.12200722
-0.024107663 0.53987 0.4007809 -0.06312677 0.02253658 0.002304048 0.14869769 -0.0449664
0.11521593 0.07758614 0.13155358 0.107208 -0.05099215 0.55577636 0.1327059 -0.082363226
0.03346993 -0.09530961 0.15247875 0.22980179 0.0397041 0.077183075 0.10672661 0.11647929
0.065177 0.5750337 -0.03277897 -0.07640958 -0.016067974 0.064686194 0.2776178 0.10782273

encoder.model.weight_ih_l1 f4 [256, 64]
00000000: 9ca5 8fbd 823f acbd 19fd 16be 4ab8 b7bd
00000010: 289e 46be be64 0dbd 5d9c 61bd 839e 273d
00000020: 5067 a93d 81ea 01bd bac3 03be 2da6 d23c
00000030: 1446 4dbc 48e1 b6bb f52f 483e fa74 72be
00000040: 1e05 68be 7276 893d e3a7 8d3c 14fa 9ebd
00000050: b8ee 73bb e152 41be 64e8 88be 9131 9b3c
00000060: 0d40 20bd f1d1 403e 35b6 0dbd 8241 6bbc
00000070: fe62 10be a9ea 963d dae8 b4ba 5c35 9e3d
00000080: 72a6 38bc bc72 9e3d 0959 b93b 608a 6c3e
00000090: ca3f 383e 4daf e33d 0b8c 10bd d144 febd
000000a0: cb1c 873d f349 26bd 3c76 04bd 8de2 66bd
000000b0: 6529 4dbc ab94 dd3d 4aa5 4eba 009d 3ebd
000000c0: 50ea 4e3d 5709 30be 76ad 37bd f7f7 b9bd
000000d0: 03e1 bd3d 82e9 8abc 3da3 993d 75b6 033e
000000e0: 7f95 afbd f6c0 b03d 0c00 223e 35b4 18be
000000f0: 991a ccbd 423d 773e 3232 df3c c1e1 86bd
00000100: 960e 953d f444 2a3d 405c abbd 36fe 14be
00000110: 35bb 5ebc ba15 cebb dc25 07be db84 5c3b
00000120: dd60 263e 16b1 843c f06a b5bd 55ab 07be
00000130: 376e 2cbc 54b2 26be ba73 253d ef98 b8bb
00000140: 70d8 8ebc 822b 0e3d 6922 963d 4bc8 93bd
00000150: 7ca0 92bd 6b5e 1ebe 6dfe 30be 22db 66bc
00000160: 968c 29bc bcc6 a03c 5fbe d2bc d6e4 6fbd
00000170: 1b66 e5bc fee5 8ebd b0b2 61be e1b9 223e
00000180: 8374 f63d d4f8 383d 9f0e b53d 20a8 71bc
00000190: f568 acbd 94af 0b3d c050 68be 4c6c 2cbe
000001a0: 5390 063e b003 8b3c 4cdf f7bc 5389 1ebc
000001b0: 9d1f 82bd c338 7c3d 6632 263e c290 37be
000001c0: e7e7 293e aa00 863d c7c0 2cbe e0c3 65bd
000001d0: 21c8 be3d 49f4 0ebe 9174 19be 989a b73d
000001e0: 00b9 d93c 52d8 bb3d 7186 a33d 8fdb 85bd
000001f0: c989 bb3b 36de 293e 7804 f5bd 2a6c 4abd
00000200: 4422 1e3f e80c 3bbe 5baf eabd c966 ebbd
00000210: 97ed 30be 1372 61bd 0783 293d 6582 e4bd
00000220: 8f53 423d 22e5 1c3e d371 eabd efd8 f4bd
00000230: 3405 26bd 7476 c53b 8bf6 ec3d 4dd9 0e3e
00000240: 6546 0a3d ee5c 9d3e 1491 46be c215 ad3a
00000250: 5591 d4bd 059c fb3d 2223 afb9 6c07 133e
00000260: d70c 8cbc dcc2 fa3d 2a61 933d 0b35 0c3d
00000270: 2e51 903d 6571 f3bd 7bd8 b5be 603f d83c
00000280: 7ffe 453d 478d 24be 57c7 ef3e 28b2 823d
00000290: 1be3 96bc 8153 c9bc 0723 46be c426 58bd
000002a0: d15e adbd 2123 63bd dc01 81be cddb 63be
000002b0: f79c 873d c2af 883e c8a8 f13c c23b 263d
000002c0: 9e48 a33d c0fb c23b 1b89 ebbd ee8a 25be
000002d0: 39bc 253d b9ee efbd 65bc c9bd 4124 b5bc
000002e0: 73ec 82bc 402d 6d3e 445b 2ebe 25c9 393d
000002f0: 3d44 e43d a196 a63e 5b53 bbbd 9f84 72be
00000300: cf24 4c3d f92f 8ebe f44f 3abc f521 05be
00000310: 4ac9 1bbe d004 bdbd bb14 8fbd 2695 9fbe
00000320: d919 8bba 78b2 313e 1d70 34be 1d16 49be
00000330: b7ce 80bd e969 18be fb03 5c3e 618f 98be
00000340: ca39 60be 0699 713e fe08 6cbd aad6 80be
00000350: 6aa4 d4bd 7433 35be 1b83 15be c195 b63d
00000360: e0f6 04be 1131 1e3e 1640 9c3e 2aa3 1a3e
00000370: 4ab3 6fbd 12ec f93d 901d a1be ea96 603e
00000380: a8ec 553d 1dc0 bd3d f69a 793e 8575 473d
00000390: 81fa 023c 7934 d43d 5c18 2a3c f958 95be
000003a0: 13b2 093a 7ed1 60be edab 33be f787 353e
000003b0: db56 743e 450e 353e 43c6 76bd d583 31be
000003c0: daec c23c 888b 4ebe ce02 f4bd 1ac2 a6bd
000003d0: 1ea5 893e 9654 a2bd a9f7 9c3c 5268 6f3e
000003e0: 61ed 8dbe 233e 2b3e 4fdd 0d3d 3cc5 a83d
000003f0: a8e3 cdbd 8a47 153d 366e 5fbd e6f2 64bc
-0.07014009 -0.08410551 -0.14744987 -0.08970697 -0.1939627 -0.034519903 -0.05508076 0.040922653
0.082716584 -0.03171778 -0.12867633 0.025714004 -0.012528915 -0.005581055 0.19549544 -0.23677436
-0.22658202 0.06712045 0.017291969 -0.07762542 -0.0037221145 -0.18879272 -0.267398 0.018944534
-0.039123584 0.18830086 -0.034597594 -0.01435888 -0.14100263 0.073689766 -0.0013802305 0.07725021
-0.011270152 0.077367276 0.005656366 0.23099661 0.17993084 0.1111742 -0.035289805 -0.124154694
0.06597289 -0.040597867 -0.03233932 -0.0563684 -0.012522076 0.10819372 -0.00078829064 -0.046536446
0.050516427 -0.17191063 -0.04484316 -0.09080499 0.09271433 -0.016957048 0.07501838 0.1286257
-0.08573436 0.086305544 0.1582033 -0.14912494 -0.099660106 0.24144462 0.027245615 -0.06586028
0.07278173 0.041569665 -0.08367205 -0.14550099 -0.013594438 -0.006289211 -0.13198036 0.0033648524
0.16247888 0.016197722 -0.08858287 -0.13248952 -0.010524324 -0.16278964 0.04039357 -0.0056334655
-0.01743719 0.03470946 0.07330782 -0.07215937 -0.07159516 -0.15465705 -0.17284556 -0.014090331
-0.01034846 0.019626014 -0.025725542 -0.058567844 -0.02800279 -0.06977461 -0.2204082 0.1589122
0.120339416 0.045159176 0.088406794 -0.014749557 -0.084184565 0.03410299 -0.22687054 -0.16838187
0.13140993 0.016969532 -0.030257843 -0.009676295 -0.06353686 0.06157757 0.16230163 -0.17926314
0.1659237 0.065430954 -0.16870414 -0.056095004 0.09315515 -0.13960375 -0.14985873 0.08965033
0.026577473 0.09172119 0.07984627 -0.06536018 0.0057232124 0.16588673 -0.11963743 -0.04941956
0.61771035 -0.18266642 -0.11459228 -0.11494214 -0.17278133 -0.05504043 0.041384723 -0.11157683
0.04744297 0.15321782 -0.114474915 -0.11955439 -0.040532306 0.0060260836 0.11570462 0.13950081
0.03375854 0.30734962 -0.1939128 0.0013205337 -0.103792824 0.12285618 -0.00033404777 0.143583
-0.017095966 0.12244198 0.07196267 0.034230273 0.07046734 -0.11886863 -0.35516724 0.026397407
0.04833841 -0.16069518 0.46831772 0.06381637 -0.01841884 -0.02457595 -0.193493 -0.052771345
-0.084653504 -0.055453423 -0.2519673 -0.22251816 0.066217355 0.26696593 0.029499426 0.040584333
0.07972835 0.005950421 -0.1150076 -0.16166279 0.040462706 -0.117154546 -0.098503865 -0.022112014
-0.015981888 0.23161793 -0.17027003 0.045357842 0.11145828 0.32536796 -0.09146758 -0.23683403
0.04983979 -0.27770975 -0.011371601 -0.13001235 -0.15213504 -0.092294335 -0.06986376 -0.3116848
-0.0010612562 0.17353237 -0.17620893 -0.19637342 -0.06289428 -0.14884152 0.21485893 -0.2979689
-0.21897045 0.2359353 -0.057625763 -0.25163776 -0.10382922 -0.17695409 -0.14600794 0.08915282
-0.129848 0.15448405 0.30517644 0.15101305 -0.058520593 0.1220323 -0.31467867 0.21932569
0.052227646 0.09265158 0.24375519 0.04869606 0.007994295 0.10361571 0.010381784 -0.29169443
0.00052526704 -0.21954915 -0.17546053 0.17727648 0.23861258 0.17681225 -0.06024767 -0.17335446
0.02379458 -0.20170414 -0.119145975 -0.08142491 0.26883787 -0.0792629 0.019161062 0.23379639
-0.27720168 0.16722922 0.034634884 0.082407445 -0.100531876 0.036445178 -0.054548465 -0.013973927

encoder.model.weight_hh_l1 f4 [256, 64]
00000000: ba7b c23c 7a67 1c3e 6a85 2139 4376 263d
00000010: 23a6 db3d e541 42bd a119 20be 0f3f 51be
00000020: a49c f6bc 69f3 2bbe 0980 273e b367 57bd
00000030: d3fb 633d 063f 413d 0fd5 e43d 9693 2abe
00000040: 3574 eebd 0910 063d 7e89 353d f781 1bbd
00000050: 5c8f 413d c608 993d 04a8 683d 29e1 a7bc
00000060: 9ca6 1fbd 7871 ebbc 9329 153e c6dd 9ebd
00000070: 183f c83d 011d 4c3e 4f97 19be 0935 993d
00000080: 3541 fe3c 2086 213c a86b 5a3d 9ee8 bc3d
00000090: c10b f5bc eac7 09bc 68cf 9a3d c5b6 d73c
000000a0: b836 7bbd 6b1e c7bd d1dc 58bd db85 623c
000000b0: 5390 383d 744b e53c ffde 083e e27e 7a3c
000000c0: d6f9 36be e952 283d 373c a33d eff6 c63c
000000d0: 3cd9 433b c436 fa3c 32de b93d d16e 19bc
000000e0: 6e28 ea3c 1aff 24bd 8d89 0d3d 75b3 30bc
000000f0: 410c bb3d 568f 40bc 246a ee3c bcca 64bc
00000100: a287 143e 8202 97bd bf1e a9bd 84e1 903c
00000110: 5329 1ebe af29 33be 9051 833d f2da 1a3d
00000120: 296c aabd 77b9 30be cd25 883d 9bad 0a3e
00000130: dc47 26be b334 2dbe 9eaa 503e d11a d93d
00000140: 1220 cabd c615 59bc 060b e63d cbb2 a7bd
00000150: 8ace aabd f8b0 f6bd d374 cf3d 12f9 cdbd
00000160: 0006 fcbd e97c 49bd d186 b9bb ae25 7bbd
00000170: d583 c83e 45f8 d0bd 7f8f 3dbd c2ef 2e3c
00000180: 9e37 a7ba 17e2 e6bd 1a4a 4c3e 60cc 6b3e
00000190: b3f0 d33d eb82 e2bd 0961 9b3d ee4f 5e3e
000001a0: 99c8 f2bd 2a55 4abe 46fc 6fbd 0e29 61be
000001b0: b1a8 c03d dd07 83be 6d3e 91bd 647d 92bc
000001c0: 130f 3fbe 3563 533e 47a5 823d ab66 263e
000001d0: 64be 653c 643f 13be efcc de3d 73dc 333d
000001e0: 3b81 393d dfcd 1fbd 3e18 bb3e 5f5e 853d
000001f0: 91ce 813e f73e 07be b9fb f7bc 8919 34be
00000200: 6003 3b3e 0b95 0f3e ce32 2b3c 79ab 38be
00000210: 4cde 653d 0018 8a3d c3f6 e6bd 3639 40be
00000220: e22c 023e 77d0 afbd 30c7 8c3d af68 1d3e
00000230: fb4a 853d 9ec6 7dbd 7742 bd3d 83e9 423e
00000240: 0b9d 7dbc 8859 90bd b09d 843c 16ea 2c3b
00000250: 047b 95be 0a35 62be 2bc9 d6bc 9359 1abc
00000260: a2d6 90bd ce17 c0bd 70ab c63c e6f3 efbd
00000270: e298 833d d3f7 323e d1bb cf3c a50b 2dbc
00000280: 98bc ad3d 82db 33be 6baf 53bd bff7 4d3e
00000290: fc81 1c3d 554d 32be 0a9b 07bd edee ed3d
000002a0: 4867 7dbe f205 90bd ad44 4f3d 7548 043e
000002b0: 056f e1bb 6045 2ebd 3dce 02be 6283 e5bc
000002c0: c6bf 8dbd c2c3 403e 3bf2 44be 36c8 da3d
000002d0: 597a 303e 6ba6 3ebe 465e 4dbd 0ebf 073e
000002e0: af0c 13bc 5bd1 3dbc 0ce2 c63d 04ec 233e
000002f0: 5cbe efbc 28ef 3ebd 3c8a 5b3d 72eb 403d
00000300: dd86 8a3e f84f d2bc 4a11 f6bc 6674 ecbc
00000310: 8022 1cbe 7e78 2cbe b9d4 783c 2e3f f63b
00000320: dd25 f2bd 5bea 54bd c44b e43d 40d9 573e
00000330: 725e 00be 5981 2abe 53be 0f3e c7c5 2b3e
00000340: 8eb0 6a3b 1197 763d a2ea e9bd 37ef 823d
00000350: 4e6b 4bbc e857 dfbe a30b 7b3c f2aa 73bd
00000360: 0ba6 0abe 8524 cb3b df85 17bd 9056 203c
00000370: 5f9a 9c3d 0d72 1c3e 7474 cabc c712 fb3d
00000380: de1a 2dbc ff55 4b3d b499 103e 2c68 3b3e
00000390: 5719 eb3b ccc1 5cbe e394 b73a 1e72 09bd
000003a0: 6f29 f1bd 4dd0 f1ba 6fde 8dbe f8ba 7bbe
000003b0: 448f f63c 8da4 59be fc68 b23d a3f6 953e
000003c0: ce2b 7dbe 9982 6d3e 9aaf 1e3d 97e3 19bd
000003d0: 7128 6a3c a9fe b63d 2150 e33d 8ac9 c2bc
000003e0: 6cb1 ef3d b3eb ee3c 4dc3 d73d 3338 943d
000003f0: bf28 153e d0ef c3bc acaa 59bd b303 aebe
0.023740638 0.15273848 0.00015403857 0.040640127 0.107250474 -0.047426123 -0.15634777 -0.20434211
-0.030103989 -0.16792072 0.16357435 -0.05258913 0.05566008 0.047179244 0.1117345 -0.16657862
-0.116432585 0.032730136 0.044320576 -0.03796574 0.04725586 0.074723765 0.056800857 -0.020493107
-0.03897725 -0.02874063 0.1456664 -0.07757144 0.09777659 0.19932939 -0.14999126 0.07480819
0.031036953 0.009858638 0.053325325 0.09224056 -0.029912831 -0.00840948 0.07559091 0.026332268
-0.06133148 -0.09722599 -0.052944962 0.013825859 0.045059513 0.02799008 0.13366316 0.01528904
-0.17868742 0.041094694 0.079704694 0.024287669 0.002988412 0.030543692 0.090755835 -0.0093648
0.028583732 -0.040282346 0.034555007 -0.010784973 0.091331966 -0.011752924 0.029103346 -0.013964351
0.14504865 -0.07373525 -0.082578175 0.01768566 -0.15445451 -0.1749637 0.06412041 0.03780646
-0.08321411 -0.17258249 0.06647835 0.13542788 -0.1623835 -0.16914634 0.20377585 0.10600818
-0.09869398 -0.01324982 0.11232571 -0.08188399 -0.083401754 -0.12045473 0.10129704 -0.10057272
-0.12305832 -0.04919139 -0.0056618233 -0.06131523 0.3916308 -0.10203604 -0.046279427 0.01067728
-0.0012757664 -0.11273592 0.19950143 0.23027182 0.10348644 -0.11060127 0.07586867 0.21710178
-0.11854667 -0.1975905 -0.058590196 -0.21988317 0.09407175 -0.25591937 -0.07091985 -0.017882057
-0.18658094 0.20643313 0.063791804 0.16250102 0.014022443 -0.1437965 0.10878932 0.04391141
0.04528926 -0.039014693 0.36541933 0.065121405 0.2535291 -0.13207613 -0.030271398 -0.17587866
0.18263006 0.14021699 0.0104491245 -0.18034162 0.056120202 0.06742859 -0.11277535 -0.18771824
0.12712434 -0.085846834 0.068739295 0.15371965 0.06508442 -0.061956994 0.09241193 0.1903439
-0.0154793365 -0.07048327 0.016188473 0.0026384643 -0.29195416 -0.22090545 -0.026218971 -0.00942077
-0.07072188 -0.093795404 0.02425167 -0.11716442 0.064256445 0.1747735 0.025358113 -0.010561858
0.08483237 -0.17564204 -0.051680963 0.20114039 0.0382099 -0.17412312 -0.03310684 0.11617837
-0.2474643 -0.07032384 0.050602604 0.12918265 -0.0068796896 -0.04254663 -0.12773986 -0.02801675
-0.069213435 0.18824676 -0.19233029 0.106827185 0.17234172 -0.18618171 -0.050138734 0.13256475
-0.008975192 -0.011585559 0.09711084 0.16008002 -0.029265575 -0.046614796 0.053598627 0.04709954
0.27056018 -0.025672898 -0.030037541 -0.028864097 -0.15247536 -0.16842839 0.015187436 0.007514856
-0.11823628 -0.05198131 0.11147264 0.21078968 -0.12536028 -0.16650905 0.14037447 0.16774665
0.0035810801 0.060202662 -0.11421706 0.06393283 -0.01241572 -0.43621755 0.015322599 -0.059489198
-0.13539903 0.006199422 -0.036992904 0.009786263 0.076466314 0.15277882 -0.024713732 0.12259441
-0.010565488 0.04964256 0.14121133 0.18301457 0.0071746516 -0.21558303 0.0014006164 -0.033556096
-0.11775481 -0.0018448919 -0.27708766 -0.24583042 0.030097611 -0.21254177 0.087114304 0.2928973
-0.24723741 0.2319435 0.038741685 -0.037570562 0.014291869 0.08935291 0.11099268 -0.023777742
0.117037624 0.029165125 0.105352975 0.07237282 0.14566325 -0.023918062 -0.05314128 -0.33987197

encoder.model.bias_ih_l1 f4 [256]
00000000: ae95 483d 36c0 a03d a080 0dbc 6c0d 813e
00000010: 8ebc 433d 74b4 073e 53f8 2b3d 92c7 393c
00000020: 97b6 6c3d 2561 8e3e 0081 e63d 1cf1 733e
00000030: 5fd7 5a3e fb27 913d e2da 8abd f78b 0a3e
00000040: 795a 923f ded2 89bd a245 4e3d b92f 0f3c
00000050: e10e 3d3f 6ed6 683d 499b 90bd 0730 a6bc
00000060: 5fa4 d73e 09e3 9f3d 7073 203e 7139 183e
00000070: 808b a03d 41ea 183e 3a31 923e 25e6 df3e
00000080: c542 5a3d 5eba 413e f3f4 073e b115 73bc
00000090: 1727 df3c 20dc 00bd 47e2 f5bb c6b8 0bbd
000000a0: 392f c1bd 641f 413d b504 a9bd 9668 abbd
000000b0: 4843 95bd 90eb 5fbd 0dce 2e3e 304e a2bd
000000c0: a094 e93d 0ef5 633d 8d0c 453e 5433 3a3e
000000d0: 2f56 423e 546d b83b 35cd c33d ff20 463e
000000e0: d38c 6d3e 83a7 2f3e 83f0 b03d 2acb 9f3c
000000f0: ae97 11bc 243d 8fbd 534b 77bd b734 e8bd
00000100: 77bc 3e3d 2448 1a3e 664f 05be 3da2 233e
00000110: e5c2 94bd 0645 20be a4b9 c5bd cf0e 1dbd
00000120: 041d eabd bc59 25be e268 a3bd bec7 a23c
00000130: a84f d7bc d30f cbbc f76b 32bd bcd3 b8bc
00000140: c4c1 91bd 61aa bdbd 3960 273e dfa2 883d
00000150: 30de cfbd c912 c8bd 0b27 a9bc f360 9cbb
00000160: bc0f 5c3d 21db 8d3d 91e6 9cbd 13d7 71bd
00000170: 8edd c4bd 007a 263d a237 bd3d 8495 293d
00000180: 3fb1 14be e741 883d 4c8a 85bd f4f0 6abd
00000190: 1471 0e3d 9f3a 41bd 46c1 b83c 4f8e 963d
000001a0: 5d54 043e 0860 b33d a1de fbbd aed9 28bd
000001b0: 7a61 863d ad47 d2bd 9344 bd3c cddb febd
000001c0: 4211 013e 311d f73c bb85 523e 09e7 cf3c
000001d0: 775d 01bd 09e4 d93c d6de ccbc 04d7 653e
000001e0: 788d e9bc 805f 0fbe 042b bfbd 9cf4 80bd
000001f0: ce29 d33d 1682 0fbd 0c06 b5bd 01aa f9bc
00000200: 21e7 f73d f6a2 06bd da32 353b c8e6 9bbd
00000210: 628e f4bd 5b60 85bd 5cbb f4bc b3aa bd3c
00000220: 1e84 54bd b260 bcbd 15e7 3a3d 7c6f ad3d
00000230: 1223 5abd b0ef 09be ef93 213d 2f33 be3d
00000240: 62ed 39bd 07d9 68bd 3d01 5bbd 0447 56be
00000250: a7c4 f63c a141 fcbc feed f638 cfad ec3c
00000260: 4018 d8be 702b 103e d8c6 b8bc e852 433c
00000270: 3233 cb3d 2f07 363d c56d 41bd d8e9 863d
00000280: 90cf 423d e1f1 253d bf05 fc3e 0bb0 083e
00000290: 3847 8f3d ce32 b1bd ea94 34bc 70b2 113d
000002a0: afc1 0abc ca38 1b3b f1c6 eabd a730 413d
000002b0: 2234 6ebd 538c 343c d666 2abd d82f 80bc
000002c0: b8ec 18be 5f3f d03d 22c7 a0bc 2a9e 60bc
000002d0: 4c4c 083e 3629 003e e05b 0c3e 62ce 623d
000002e0: 4071 bf3c 7f3a 0e3d b2e9 123e f839 45bc
000002f0: 7031 ed3c e994 053c 1abb 6c3d feee f5bd
00000300: 5a15 933d a613 8e3d 7eb3 a63d f2ee 803e
00000310: 5f17 b63d 8b64 26bd 8c76 70bd c29b 2abd
00000320: 5892 eabc f79f d23d 1106 853d 00a7 993e
00000330: dcf9 99bc e096 0abe a7fb f63d 69b8 b13c
00000340: ed66 913f 00a4 f4bb dadb 57bc c9b2 303e
00000350: 7050 343f 33bd cdbd 3bda 07bd 2114 b8bd
00000360: 5af9 b43d 5639 563c 3aa7 0d3e 0119 063e
00000370: 0ebe 273e 771f 963d fbcf 30bd 8c15 1b3f
00000380: 156a 2b3e 9d3f 433d c118 10be 46c8 133e
00000390: 279b 633d 9537 aa3d c1f5 993a 938e 77bd
000003a0: 3afd fe3d 2771 0d3d 7eaa fcbd ee2d d739
000003b0: 3b14 c73d d8a7 34bd 8493 b63d d548 dcbd
000003c0: e939 813d 9802 a83d 6dd0 343e bb50 f33c
000003d0: 0c39 c63d ae3c 083e 79e3 643d 470c 503e
000003e0: e5e6 b83b 9aec 1cbb f6be 263d b988 2a3e
000003f0: ca5d 003e 1197 c93d 636c f93d 7c50 c93d
0.04897087 0.07849161 -0.008636624 0.25205553 0.04778724 0.13252431 0.041984867 0.011339085
0.05779132 0.2780849 0.112550735 0.23822445 0.2137122 0.07087704 -0.0678003 0.13529955
1.143386 -0.06729673 0.050359376 0.008739405 0.7385083 0.05684512 -0.07060868 -0.020286573
0.42117593 0.078069754 0.15669036 0.14865662 0.078391075 0.14933111 0.28553182 0.43730274
0.053286333 0.1891875 0.13277034 -0.014836715 0.02724032 -0.031459928 -0.007503781 -0.03411176
-0.09432835 0.047149077 -0.08252851 -0.083695576 -0.072882235 -0.05466801 0.1707079 -0.07925069
0.11405301 0.055653624 0.19243069 0.18183643 0.18978189 0.0056282673 0.095606245 0.19348525
0.23198251 0.17153744 0.08639624 0.019506056 -0.008886261 -0.069940835 -0.06037457 -0.113381796
0.046566453 0.15066582 -0.1301857 0.15979858 -0.07263736 -0.1565133 -0.09654549 -0.0383442
-0.114313155 -0.16147512 -0.07978989 0.019870635 -0.0262831 -0.024787819 -0.043559995 -0.0225619
-0.07117036 -0.09261013 0.163453 0.0667169 -0.10149801 -0.09769208 -0.0206485 -0.0047722994
0.053725943 0.06926561 -0.076611646 -0.059043 -0.09612571 0.040643692 0.09239127 0.041402355
-0.14520739 0.06653195 -0.06520519 -0.057358697 0.03477581 -0.047175046 0.022553097 0.07351362
0.12922807 0.08758551 -0.122983225 -0.04122322 0.06561561 -0.10267577 0.023103988 -0.124442674
0.1260424 0.030165287 0.20558827 0.02537872 -0.031583276 0.026597993 -0.0250086 0.22445303
-0.02850984 -0.14001274 -0.093343765 -0.062966555 0.10310708 -0.03503617 -0.08839044 -0.030476572
0.12104631 -0.032870255 0.0027648718 -0.076123774 -0.1194122 -0.06512519 -0.029874496 0.023152685
-0.05188381 -0.09198131 0.045630533 0.084685296 -0.053256102 -0.1347034 0.03944772 0.09287106
-0.0453924 -0.0568476 -0.053467978 -0.20925528 0.030123068 -0.030793013 0.000117745236 0.028891472
-0.42206 0.1407907 -0.022555754 0.011921622 0.09921874 0.044440445 -0.047223825 0.06587571
0.04756123 0.040513877 0.49223134 0.13348405 0.06996006 -0.08652268 -0.011021832 0.035570562
-0.008469029 0.0023684972 -0.11463726 0.04716554 -0.058155186 0.011019784 -0.04160198 -0.015647814
-0.14934051 0.10168337 -0.019626204 -0.013709584 0.13310355 0.1251572 0.13706923 0.055372603
0.023369431 0.034723755 0.1434696 -0.012037747 0.028954238 0.008153179 0.05779562 -0.12008475
0.07181807 0.069373414 0.08139704 0.251823 0.088911764 -0.04062323 -0.058706805 -0.04165245
-0.028634235 0.10284417 0.06495298 0.30010223 -0.0187959 -0.13534117 0.120597176 0.021694379
1.1359535 -0.0074658394 -0.013174975 0.17255701 0.7043524 -0.100458525 -0.033167105 -0.08988214
0.088366225 0.013075193 0.13833323 0.13095476 0.16381094 0.0733022 -0.043167096 0.6057975
0.16739686 0.04766809 -0.14071943 0.14431867 0.055567887 0.08311383 0.0011746214 -0.060438704
0.12450643 0.03453174 -0.12337206 0.00041042216 0.097206555 -0.04410538 0.08914855 -0.10756079
0.063098736 0.0820362 0.17657633 0.029701581 0.096788496 0.13304397 0.055880997 0.20317183
0.005642759 -0.0023944736 0.04070946 0.16653718 0.12535778 0.09843267 0.12178876 0.09829804

encoder.model.bias_hh_l1 f4 [256]
00000000: a0f1 bd3d 8dff f73d 9b06 40bd 2955 c83d
00000010: be7c 113d fce1 683b 5d96 68bd 233f a73d
00000020: 5893 29be 7e6c 2a3e 3ec3 213d f4c1 643e
00000030: b883 543e 453f 883d b7d0 5ebd b4e6 223e
00000040: acff 8e3f e2b8 7f3d 4b1b cfbd 389c 503e
00000050: c92c 273f ded9 d0bd dfa7 3dbd e3f8 6bbd
00000060: 8306 d63e 858a d03d b4d3 cf3d a8a3 f03b
00000070: babb 0a3e 4c47 b23c e02e c33e a498 083f
00000080: 0d78 993d 5948 87bc daa4 393e 6ffc 483d
00000090: ffa9 a1bc a7fb 7a3c 3df6 ab3d c6a7 9a3d
000000a0: 5ac8 54bc 4adc 253e 2e69 ea3d 2adf dd3d
000000b0: b425 de3c 8279 4c3c 256c 823e cecb 5dbd
000000c0: 9fe2 86bd a634 d43d ecef 7f3e e295 1e3c
000000d0: bf37 073e 6962 913d 58ff f03d a200 a23e
000000e0: dbd7 0cbc 0b93 723c 9e41 003d bbdb 4c3e
000000f0: d45c 273d e523 31bc f4a7 6abd e150 cabd
00000100: 5b79 13be 75cb 963d 4977 d3bd c476 093c
00000110: 9d9f 93bd 9acd edbd 36da 013d b535 2b3d
00000120: 8570 33be 4b38 07bd 7dc2 9dbd 12b2 ffbd
00000130: f9b8 873d 1cb7 613d d0d3 22be 64db 29be
00000140: b39c a03c 38ac da3d 7383 cdbc d9ed 00be
00000150: 6629 3bbd f16a bebd e655 ddbd 80cc d6bd
00000160: e0e4 0f3e a8bf 53bd 108d 07be ee6f d23d
00000170: a3a2 c3bd 5c9e 05be bc4f 003e 5d55 743d
00000180: 7f42 39be 2701 803c 4f2d 563c 2b6c b7bd
00000190: f41c 35be 238c fb3c ba71 073d 6c92 fe3d
000001a0: 4398 70bd 896f 56bd 9208 d83d 81d2 b33d
000001b0: 551c cd3d 1cda a0bd 6999 c0bd 3b53 83bd
000001c0: 49d9 2abd 9a4a c5bc 9ff1 833e b6fc 973d
000001d0: 2027 05bd 8582 073e 0d28 833d 2231 463e
000001e0: ad5b a0bd 314e aebd bd14 fc3c d33d 3abd
000001f0: ff1f 983d 6a82 c5bc 71a1 633d e92a 363d
00000200: b35a 90bc 03f2 943d 9fac ddbd 6562 093e
00000210: efb7 e13c 6c52 d3bd e6bd 6f3d 3f21 4abd
00000220: 8b9e b63c f36a c2bb f7eb 263e f351 ab3d
00000230: 6538 91bc 73af c7bd 36e2 7d3d bb1a 2abd
00000240: 26a9 b83d b49b 0e3e 4c61 a7bd bc20 4ebd
00000250: 2e56 9a3d cd83 fc3b 0d8a 673d 3916 8c3c
00000260: 6ee9 a4be f441 1abc 85b2 093d 29ef dc3c
00000270: 18a4 933d bb98 043d 062a 54be dd3f 5dbd
00000280: 8453 e63d f276 34bd da7b f03e 4516 bfbd
00000290: 3781 88bb 4c92 68bc 07e4 83bc 79df bc3d
000002a0: 9921 c0bd c0c3 bf3d 776a abbd 7427 95bd
000002b0: deac 9e3d e7a4 d6bd f348 88bd c688 6f3d
000002c0: bd53 28bd 07e6 0a3e 3231 813b 47f0 c73d
000002d0: 2865 40bd 9a40 8cbd 4f35 f33d 4496 623d
000002e0: f8a4 563e bbf9 9d3d 6424 863d fc8d e43c
000002f0: 78fa 9dbc f42f 53bd 7abb 08be 2712 bbbd
00000300: 8e09 853a 4594 163e 349c 263e bd4d 173c
00000310: 459b 993d 506e a63c 8a11 0b3e 447a 2a3e
00000320: efb7 9fbd 6e11 f03d a9e8 5cbd e263 5e3e
00000330: 157f 873d 9f2f 303c 6a09 193e ba3c 0ebd
00000340: ed37 833f f41d 983c 659e a1bd a9b3 fa3d
00000350: bc1d 293f a9db 84bd 2ac7 0d3e 589d f8bc
00000360: a2a0 a2bc 1ac2 cfbc e527 413e 3937 44bd
00000370: 5f2d 513e 13b0 0d3d b792 f9bd 8818 0f3f
00000380: 68d1 463e a09a f53d 7ae1 a4bd 6061 a63c
00000390: 7661 353b 090c 213e 3182 573d e2d9 a3bc
000003a0: 923c c2bd 753a 553e 5f8b 07be 77d9 66bd
000003b0: 716d cf3d 1a4d bc3c 756d 2e3e efba b43d
000003c0: 9d1b a2bd 566c a5bd 966b 853e e6ab 4ebd
000003d0: e8c1 ce3d ab13 8f3b 0db2 6b3c 3c5b 8b3d
000003e0: 127f cdbd 37c0 9b3c 14f9 ed3d ec6c 603e
000003f0: 130b c8bd 2da5 09bd d04e a93d d730 bd3d
0.09274602 0.12109289 -0.0468813 0.09781868 0.035519354 0.0035535088 -0.056784023 0.08166339
-0.16560113 0.16642949 0.039492838 0.22339612 0.20753372 0.06652693 -0.054398265 0.15908319
1.1171775 0.062432177 -0.101126276 0.20372093 0.6530271 -0.10197805 -0.046302672 -0.057610404
0.41801843 0.101826705 0.10147801 0.007343728 0.13548175 0.021762513 0.381217 0.5335791
0.07493601 -0.01651399 0.18129292 0.049068864 -0.01973438 0.015318788 0.083965756 0.075515315
-0.012987221 0.16197315 0.11445843 0.10833581 0.027117588 0.012480142 0.25473133 -0.05414944
-0.06586193 0.103616044 0.24993867 0.00967929 0.13204859 0.070988484 0.11767453 0.31641108
-0.008596386 0.014805566 0.031312577 0.20005696 0.040860012 -0.010811781 -0.05728908 -0.09878708
-0.14401762 0.07363025 -0.10325486 0.008390132 -0.07208178 -0.11611481 0.031702243 0.041799266
-0.17523392 -0.03301267 -0.07703111 -0.12485136 0.066270776 0.055106267 -0.15901113 -0.16587597
0.01960597 0.10677379 -0.025087094 -0.12590732 -0.045693778 -0.09297741 -0.108073995 -0.10488224
0.14052153 -0.05169645 -0.13237405 0.10275255 -0.09552505 -0.1304869 0.12530416 0.05965172
-0.18091772 0.01562555 0.013072326 -0.08956178 -0.17686826 0.03070647 0.033067442 0.124302715
-0.058738958 -0.052352462 0.1054851 0.08780385 0.100151695 -0.07854101 -0.09404261 -0.06412359
-0.041711126 -0.024083424 0.2577028 0.07421248 -0.032508016 0.13233383 0.064041235 0.1935468
-0.07829986 -0.085110076 0.030771608 -0.045469116 0.07427978 -0.024110038 0.055573884 0.044474516
-0.017621374 0.072727226 -0.108239405 0.13416441 0.027553527 -0.10318455 0.05853071 -0.049348112
0.022292396 -0.0059331595 0.16300951 0.0836524 -0.017727086 -0.09750261 0.06198331 -0.0415294
0.090166375 0.13926584 -0.08172855 -0.050324187 0.07535969 0.0077061416 0.05652814 0.01710044
-0.32209343 -0.0094151385 0.033617515 0.02696951 0.07209033 0.032372218 -0.20719156 -0.054015983
0.11246398 -0.044058748 0.4696949 -0.093304195 -0.0041657942 -0.014195036 -0.016099943 0.092223115
-0.09381408 0.09363508 -0.08369916 -0.07282916 0.077478155 -0.104806714 -0.06654539 0.058480047
-0.041095484 0.13564311 0.003942632 0.09762626 -0.04697147 -0.06848259 0.11875402 0.055319086
0.20961368 0.07713648 0.0654991 0.027899735 -0.019284472 -0.051559404 -0.13352767 -0.09134322
0.0010149942 0.14704998 0.16270524 0.009234843 0.075003184 0.020316273 0.1358091 0.16648203
-0.077987544 0.117220744 -0.05393282 0.2171779 0.06616036 0.010753541 0.14944997 -0.034725882
1.0251442 0.01856897 -0.078915395 0.12241299 0.66060996 -0.06487209 0.13845506 -0.030348465
-0.019851986 -0.02536111 0.18862875 -0.047904227 0.20427464 0.034591746 -0.12186187 0.55896807
0.1941582 0.11992383 -0.08050819 0.020310104 0.00276765 0.15727247 0.052614395 -0.020001356
-0.09484209 0.20823081 -0.1323676 -0.056359734 0.10128296 0.022985984 0.17033942 0.08824717
-0.07915423 -0.08077304 0.26058644 -0.050456904 0.100955784 0.0043663583 0.014385712 0.06804511
-0.10034002 0.019012554 0.116197735 0.2191655 -0.09767737 -0.03360479 0.082669854 0.09237831
