models/20200923_212102/epoch_1200_loss_8455.43929.pt (torch, 857809 bytes, 96 tensors)

encoder.model.weight_ih_l0 f4 [256, 3]
000000 99 2a 9f bd 1d 0c a0 3c e1 12 55 bd 4a c5 bc 3d
       -0.07771797 0.019537026 -0.052019957 0.092173174
000010 8b a9 18 3e cd b5 b2 3d 70 b7 65 3b 0a 93 2f 3d
       0.14908426 0.08726082 0.0035051964 0.042864837
000020 e0 97 41 3e 7e 89 99 3c f6 e3 54 3e b3 72 31 bd
       0.18905592 0.01874232 0.20790085 -0.043322276
000030 78 53 51 3d f6 84 5b bd 0d 94 e0 3d 9e ff f2 bd
       0.051104993 -0.0535936 0.109657384 -0.11865161
000040 5d f1 bb 3e 05 a8 ec bc 6d 2e 18 bf 70 37 7d bc
       0.36707583 -0.028888712 -0.5944584 -0.015455112
000050 94 22 16 3e 1a d0 6b 3d 27 88 b8 3d bb b1 0d 3e
       0.14661628 0.057571508 0.09010344 0.1383733
000060 8a 0c 85 be ee f4 3a 3b 3f f5 8f be 2b 03 3e be
       -0.2598613 0.0028527337 -0.28116795 -0.18555896
000070 b4 18 00 bc a4 cb c4 3d 86 c6 d5 be 6f ca be 3d
       -0.00781839 0.09609154 -0.41753024 0.09315955
000080 27 75 17 3f 8f 85 2d be 25 f8 a8 bd 6a 88 68 be
       0.59163135 -0.1694548 -0.08250455 -0.22708288
000090 50 ea 85 bd c0 94 ef bd d7 2f 3f bb 10 d0 2a be
       -0.06538832 -0.11698294 -0.0029172802 -0.16680932
0000a0 4d f2 a7 be 30 b7 71 be 03 52 9c be 6f 67 93 bd
       -0.32802048 -0.23605037 -0.3053132 -0.07197463
0000b0 fe dc 33 3e 88 d9 58 be a0 9d 19 3d e8 91 25 be
       0.1756477 -0.21176732 0.03750384 -0.1616894
0000c0 75 09 39 be 32 ae b9 3c 90 09 5c be 2f 7f 2e 3b
       -0.18070014 0.02266607 -0.21488023 0.00266261
0000d0 6d eb 64 3d d5 65 df 3d 68 2d a5 be 93 9b b1 3d
       0.055888582 0.10908095 -0.32261205 0.086722516
0000e0 4b 83 fc bd be 02 07 be 97 7d 51 be 20 a0 43 bd
       -0.1232973 -0.1318464 -0.20458065 -0.04776013
0000f0 fc c2 c5 bd e3 0a 7d be 73 6a 6d bd b9 2d 7a 3d
       -0.09656331 -0.24711184 -0.057962846 0.06107876
000100 73 3a 84 3d a4 52 26 3d 90 4f 2f be e0 92 0b bf
       0.06456461 0.040606156 -0.17120194 -0.5452099
000110 a7 2e 87 be 7f e1 89 3d 3a d1 75 3b 34 44 02 3e
       -0.2640278 0.06732463 0.0037508742 0.1272133
000120 de f9 19 3e 10 ec 8e 3c 3c 97 d3 3b 68 a5 51 be
       0.15036723 0.017446548 0.0064572375 -0.20473254
000130 37 26 6c bd d2 62 c0 be f4 59 94 be fb 64 7d be
       -0.057653632 -0.37575394 -0.2897488 -0.24745552
000140 d3 35 ab bd 4e 6d af bc 09 42 03 bd e2 49 2e bd
       -0.083598755 -0.021414425 -0.032045398 -0.04255093
000150 ee 87 63 3d cc 2c b7 3c c9 37 88 bc 1d 56 9b be
       0.055549555 0.022360228 -0.016628163 -0.30339137
000160 e5 df 6e 3e ba 19 5a bc ca 55 86 be 69 69 35 3d
       0.23327596 -0.013311798 -0.26237327 0.04428998
000170 cd d9 9b 3d 11 fc be be f7 88 c0 bc 0b dd 22 3e
       0.076099016 -0.37301686 -0.02350281 0.15904634
000180 09 73 48 be 52 0f 83 3d 9e 56 5c bd c8 c3 19 be
       -0.19575132 0.063994065 -0.053793542 -0.15016091
000190 e1 2a 51 3e c4 5f 67 3d 3e df 25 bd fe fd e4 3d
       0.20426513 0.056487814 -0.040496103 0.11181258
0001a0 69 23 3c bd 5b 68 d1 be d1 9b 21 bf 9d 3e e3 be
       -0.045932207 -0.4089993 -0.6312838 -0.44383708
0001b0 ce 20 30 bc a8 ba 4d bd 6f 6e aa 3d dc 58 ad 3d
       -0.010750009 -0.050226837 0.08321845 0.08464214
0001c0 22 d5 b9 3d 42 50 c1 bc 0c 5d 35 be c1 74 ea bd
       0.09073855 -0.02359784 -0.17711276 -0.1144805
0001d0 9a 1a 41 bd d1 0f fb 3d d4 db cf bd ee 83 ce 3d
       -0.04714451 0.12258876 -0.10149351 0.10083757
0001e0 70 f8 04 be a9 a3 c1 be b0 b7 91 be f8 d8 fa bd
       -0.12985396 -0.37820175 -0.28460455 -0.12248415
0001f0 fd fb 8d be a8 2b 10 bd 56 57 62 bd 2e ec 2f 3e
       -0.27731314 -0.035197884 -0.05525907 0.17179939
000200 2a c3 11 3f 01 07 2c be f8 b7 69 bc 50 6a 36 be
       0.5693842 -0.16799547 -0.014265053 -0.17813993
000210 7e 51 fb bd 6e 38 66 3e b5 16 a0 bd 4a a5 e5 3e
       -0.12271403 0.22482464 -0.07816831 0.44852668
000220 77 70 af 3d 1f 6a 1f 3f 5a 2b 41 be 32 6f 98 be
       0.08566373 0.622713 -0.18864194 -0.29772335
000230 97 6b 64 be e4 65 17 be d8 d5 0b be 20 a8 f7 3d
       -0.22306667 -0.14784962 -0.13655794 0.12092614
000240 84 7d 62 be 41 45 2f 3e 83 18 10 3e 11 89 50 be
       -0.22118193 0.17116262 0.1407185 -0.20364787
000250 e8 21 46 3e f2 2d cd bb 1d cf f5 3d 6a 00 f6 bd
       0.19348872 -0.0062615806 0.12002394 -0.12011798
000260 ab 2f 33 be 46 9c 50 bd af ff c4 3d fc de 17 3e
       -0.17498653 -0.050930284 0.0961908 0.14831156
000270 ad c0 46 be 5f ee 56 be 2a a9 0e be 64 a1 ae bd
       -0.19409437 -0.20989369 -0.13931718 -0.085268766
000280 87 b3 81 3d 28 26 8a bc 23 df af be 06 bf 0e bd
       0.0633307 -0.016863897 -0.34349927 -0.034850143
000290 74 a9 68 3e 94 17 f1 bd 95 35 cb bd 22 c6 06 3e
       0.22720891 -0.11772075 -0.09922329 0.13161519
0002a0 f1 62 0a be b8 9b 6f bd 29 09 9d bd aa c6 3c be
       -0.13514306 -0.058498114 -0.07667763 -0.1843516
0002b0 40 b9 68 bc bc e5 7f be 46 61 c0 3d da f1 10 3e
       -0.014204323 -0.2498998 0.093935534 0.14154759
0002c0 55 8d 55 3e da bb 00 be 1e 7f ee 3d d9 75 8d 3e
       0.20854695 -0.1257166 0.116453394 0.27628973
0002d0 5b 46 eb be 32 0d 01 be ce 80 40 be a0 60 73 3d
       -0.45952114 -0.1260269 -0.18799135 0.05941832
0002e0 11 fb 04 be c8 10 0b 3e 6c f6 10 bd 8b 37 9c 3d
       -0.12986399 0.1358062 -0.035391256 0.076277815
0002f0 9c e0 9a 3d 99 4a 3c 3e 99 c7 16 3e ec e8 5d 3f
       0.07562372 0.18387832 0.14724578 0.86683536
000300 1b b4 c6 bd 3e de 19 be 9a 12 e8 3d 89 37 d5 3d
       -0.09702321 -0.15026185 0.11331673 0.10410983
000310 39 33 32 be 75 12 ad 3e a6 e8 8a be fd 0e a0 bc
       -0.17402352 0.33803144 -0.27130622 -0.019538397
000320 1b 68 75 bc 3c dc 21 be 4e 1c 16 3e 57 0d b1 bd
       -0.014978434 -0.15806669 0.14659235 -0.086451225
000330 5a 06 3b be dd bb 8d be 5e 2c 11 3e 2f 63 ad be
       -0.18264142 -0.2768239 0.14177081 -0.33864734
000340 a1 f1 3d 3e 80 03 0d 3f 46 04 18 bf 11 24 a2 bd
       0.18549205 0.55083466 -0.5938152 -0.07917035
000350 0f 9b 3b 3e 19 2f a7 be 89 86 c7 be f7 92 5b be
       0.18320869 -0.3265312 -0.3896983 -0.21442781
000360 2e a7 89 bd 50 0c 88 be 15 27 1a bf 80 96 01 bf
       -0.0672134 -0.26571894 -0.60215884 -0.5062027
000370 61 17 0f 3e 01 8d cf 3d a4 74 74 be dc dd 41 3d
       0.13973762 0.10134316 -0.2387262 0.047330722
000380 e5 b2 d1 3e ea 08 24 3e 4d ec 71 be bb 77 f7 bc
       0.40956798 0.16019025 -0.23625298 -0.03020846
000390 d0 4a 01 3e c8 67 cd bd a3 83 a8 bd c0 5b 4a be
       0.12626195 -0.1002956 -0.08228233 -0.19761562
0003a0 3a b6 c5 be f1 32 90 bd c6 a7 89 be e0 18 c5 be
       -0.3861559 -0.07040966 -0.26885813 -0.3849554
0003b0 13 b8 8b be 99 76 d4 bc 2e b6 cf 3e a4 8a 2a 3c
       -0.27288875 -0.025935458 0.4056868 0.010409031
0003c0 d6 84 43 be a5 23 29 3e 4b b9 15 3d f5 83 2a be
       -0.19093642 0.16517504 0.036553662 -0.166519
0003d0 db 24 a3 be 3e ba c9 3c 21 9f 8a bc 7c f7 56 bd
       -0.31864056 0.02462494 -0.016921582 -0.052482113
0003e0 fc be 67 be ef 5b 1e be 2a b4 4c 3d 7d 97 9c bd
       -0.22631449 -0.15464757 0.049976505 -0.076460816
0003f0 3c ff 43 3d 08 94 99 bd ba a8 35 3d 48 fd d8 bd
       0.047850832 -0.07498938 0.044350363 -0.105951846

encoder.model.weight_hh_l0 f4 [256, 64]
000000 5f af 3e 3d 09 de 84 bd eb 85 6c 3e 1c c6 9c 3e
       0.046553966 -0.06487662 0.2309796 0.30619895
000010 d4 12 1b bd ed 2e 90 3e b8 af 7d be 01 7f 6f 3d
       -0.037859753 0.28160802 -0.24774063 0.05847073
000020 f9 8c 2f 3e fe fa 1b be 11 4b 8a 3d b6 d1 0f be
       0.1714362 -0.15232465 0.06752599 -0.14044842
000030 8c c9 bb bd 39 8b be 3b dc 4f 98 bd 8a 45 a8 bc
       -0.091693014 0.0058149365 -0.07437107 -0.020540971
000040 b8 d1 a6 bc c1 92 31 bd 43 71 62 3e 89 b4 c4 bd
       -0.020363674 -0.043352846 0.22113518 -0.09604747
000050 34 32 3b bd c5 5e bb b9 b7 53 63 bc aa fc 6f bd
       -0.045702174 -0.00035738028 -0.01387494 -0.05859057
000060 c9 f7 fb 3d 0c 36 77 3d 15 d2 4f bc e9 f7 22 be
       0.12303121 0.060354277 -0.012684365 -0.15914883
000070 72 ad 1a 3f c8 9f b1 bd cf f3 63 3d 8f e5 0a 3e
       0.60420907 -0.08673054 0.055652436 0.13564132
000080 cb 2c 9f 3e 6a 86 18 be b0 70 e2 bc 02 42 13 3d
       0.31088862 -0.14895025 -0.027641624 0.03595162
000090 5b 33 3f bd ab 1d d6 3e 9a cb 08 3e 3e dc 74 bc
       -0.046679836 0.4181951 0.13358918 -0.014945088
0000a0 6b 63 f7 3d f1 c9 40 bd 67 9b c8 3e c6 83 8e be
       0.12079509 -0.047067586 0.39181063 -0.2783491
0000b0 70 62 5f 3e fa a6 6e be bb 56 3c 3d 1a 12 5a be
       0.21814895 -0.23305884 0.04598115 -0.21295968
0000c0 2c c1 4c 3d 7d de 6c be 7d 5f 17 3e 58 32 1c bc
       0.04998891 -0.23131748 0.1478252 -0.009533487
0000d0 d9 b5 d2 3d ee 8a b0 3e 1f 4d c7 bd fd c1 13 3e
       0.10288591 0.34480995 -0.097315066 0.1442947
0000e0 df 5b a2 bd ed ac 48 bd 2f bc 88 3e c7 64 65 be
       -0.07927679 -0.04899304 0.26706073 -0.22401725
0000f0 30 c4 dd bd f9 a4 aa bd 4a d3 b8 be e5 33 71 3e
       -0.108284354 -0.08332247 -0.360987 0.23554952
000100 a8 27 5c be ce f3 37 be fc b9 6d 3e ea 10 7a 3e
       -0.21499503 -0.17964098 0.23215479 0.24420515
000110 c3 6c 1b 3e a7 3b 11 3e 27 ef d0 bd 2b c0 6f bd
       0.15178208 0.14182912 -0.10201865 -0.058532875
000120 c1 81 98 3d e1 e2 1b be a6 a0 61 3e 22 f7 e0 bd
       0.074466236 -0.15223266 0.22033939 -0.10984637
000130 2e 1f 58 3d 69 00 02 bd b8 66 03 be 75 6e 19 3c
       0.05276411 -0.031738672 -0.12832153 0.009364714
000140 12 8c b5 bc 06 9a 62 be ea 83 44 bb 80 64 c7 bd
       -0.022161517 -0.22129068 -0.0029985853 -0.09735966
000150 98 b1 41 bd 8c 70 fa 3d 69 b9 9d 3c ff d1 41 3d
       -0.047288507 0.12228498 0.01925345 0.04731941
000160 bf d8 06 3e 17 86 0b bd 0c 87 83 bd 3f 01 33 be
       0.1316862 -0.034063425 -0.064222425 -0.17480944
000170 da df 9c 3e 9d 50 8e be 55 37 48 3e b0 3e 4e be
       0.30639535 -0.27795878 0.19552357 -0.20141101
000180 48 34 5b 3e 20 eb 0e be cb 58 96 be f5 f3 d5 bd
       0.21406662 -0.1395688 -0.2936462 -0.10446922
000190 58 fe 28 3d 2c ca 99 3e 73 25 ef 3d 6c 1b dd bc
       0.041258186 0.30037057 0.11677065 -0.026990615
0001a0 56 24 95 bd 47 3b cc 3d 45 bd a5 3d 4a ca a7 be
       -0.07282321 0.09972244 0.08092741 -0.32771522
0001b0 38 44 53 3e ad 9b b8 bc 4b 44 f6 bc a1 10 03 bd
       0.20631492 -0.02253517 -0.030061862 -0.03199828
0001c0 93 c7 04 3d 6e 08 26 be 93 46 49 3e ee d3 22 3e
       0.03241689 -0.16214153 0.19655828 0.15901157
0001d0 94 50 c3 bd 2e 07 0f 3d 82 e6 53 be 7c a2 ad 3d
       -0.095368534 0.034918956 -0.206934 0.08478257
0001e0 45 fc 4e 3d 4a b0 b9 bd 0a b4 42 3d 45 41 18 be
       0.05053355 -0.090668276 0.04753498 -0.14868648
0001f0 1e 73 9e bd ef e4 25 bd 2c 8e 47 be 85 bc 74 3e
       -0.077368006 -0.04050153 -0.19487828 0.2390004
000200 de fe b4 3d 51 ad 82 bc 78 c2 c3 3c 12 89 9e bd
       0.088376746 -0.015951784 0.02389644 -0.07740988
000210 30 9d 6c 3b 34 e1 82 3c 6f e6 49 be 0a 35 8f bc
       0.0036104433 0.015976526 -0.1971681 -0.017481346
000220 0b f9 96 bc 85 6b 1a 3d c7 6b 07 be 28 0e 26 bd
       -0.0184293 0.037700195 -0.13224708 -0.040540844
000230 ac af f8 bd da b7 8f bd 9d fa 7f bd 55 8d 88 bd
       -0.12142882 -0.07017489 -0.062494863 -0.06667582
000240 1e a9 bc bd 10 42 7c 3d 5f 71 72 bd 7b b1 a8 bd
       -0.09211944 0.06158644 -0.05919015 -0.08236977
000250 90 76 f3 bc ff ff b9 3d cf f9 93 3d f4 44 a0 3d
       -0.029719621 0.090820305 0.072253816 0.07825652
000260 83 de de bd 60 e3 e0 3d 8e 95 10 3e 9c 3c 01 be
       -0.108822845 0.10980868 0.1411955 -0.12620777
000270 32 02 e4 3b 16 ba 81 bb fc 27 ed bd 00 a6 24 3d
       0.0069582695 -0.0039589508 -0.11579892 0.040197372
000280 64 3a 18 3d 69 b4 a9 bd 0b 47 fa bb 72 c8 eb 3d
       0.03716506 -0.08286364 -0.0076378635 0.11512841
000290 19 2c 01 3e f6 29 2b 3e 14 61 2e be 4f 69 0c be
       0.12614478 0.16715226 -0.1702922 -0.13712047
0002a0 f6 c5 1a 3e 3b de cc bd d6 e0 a9 bb 17 67 a1 bc
       0.15114579 -0.100033246 -0.0051842732 -0.019702477
0002b0 3a a6 2d 3d 19 7d 73 3d 21 3d 88 3d 0e 8b 4b be
       0.042394854 0.059445474 0.066522844 -0.19877264
0002c0 12 9f c5 bc e4 95 b1 bd dd 7f 0b be 12 db dc bd
       -0.024123702 -0.086711675 -0.13622995 -0.10783972
0002d0 9c 9c b2 bb 85 1a bb 3d 8f a0 47 be 25 94 68 3b
       -0.005450798 0.091359176 -0.19494842 0.0035488692
0002e0 16 b7 c5 bd 20 eb 7d bd 71 28 44 3e e3 35 57 3c
       -0.096540615 -0.06199181 0.19156052 0.013135406
0002f0 83 02 4b bd 4c 62 54 bc 3e 3d 9e bd 03 b3 a0 bd
       -0.049562942 -0.012962889 -0.07726525 -0.07846644
000300 dd c6 31 3e 0e 96 ee 3d a5 8a 17 3e da 96 ab 3c
       0.17361017 0.116497144 0.14798982 0.020945955
000310 c6 77 a5 3c 88 b6 2d bd 85 0f 89 bd 9d de 8b bd
       0.020198714 -0.042410403 -0.06692413 -0.068295695
000320 bb c1 31 3d 74 9e 88 bd 1e 96 53 bc 2a ba 0c be
       0.043397646 -0.066708475 -0.012914209 -0.13742891
000330 be f1 03 be 49 8b fe bd 32 d0 4b 3d 2a a7 a6 3d
       -0.12885186 -0.1242891 0.049759097 0.08137353
000340 db 49 db 3d 6e 25 56 3d b1 38 16 3e 20 e0 1e bc
       0.10707446 0.05228179 0.14670064 -0.00969699
000350 b2 61 1c bd 95 d3 c4 bc 8b ad 11 be 1b 4c ec 3d
       -0.038179107 -0.024026671 -0.14226358 0.115379535
000360 78 c7 82 3d 60 4a 76 bc a4 72 b0 3c 50 e8 1a bd
       0.06385702 -0.015032381 0.02153904 -0.037819207
000370 a2 84 f9 3d 2e 93 60 be 5f 5c 72 bd bc 58 7d 3d
       0.12183501 -0.21931145 -0.059170123 0.0618522
000380 91 4d b1 3b 92 d7 03 be af b8 60 bd 4b 42 ea bd
       0.005410858 -0.12875202 -0.054863628 -0.11438426
000390 6f 2d e0 bd ce e1 7f 3e 73 b3 47 3d 79 10 fc 3c
       -0.10946166 0.24988481 0.04875512 0.030769574
0003a0 2b 79 11 3e 51 d2 14 3d bd 22 a9 bd 75 c7 76 bd
       0.14206378 0.036333386 -0.08258579 -0.06024881
0003b0 ef 15 73 3e de f1 41 3c c8 eb 69 3d 4e 4c 73 bd
       0.23738836 0.011837451 0.057109624 -0.05939894
0003c0 71 ba b1 bc dc e3 c0 bd 91 f6 a8 3d d6 10 97 bc
       -0.021695348 -0.09418461 0.08250154 -0.018440645
0003d0 dd c3 5f 3d b0 9c c5 3d e4 d5 cb bd b3 66 57 3c
       0.05463015 0.096490264 -0.09952906 0.013147044
0003e0 a8 25 d6 bc bf 0f 9f bd c4 5b 5d 3e 51 66 41 be
       -0.026141003 -0.07766675 0.21617037 -0.18886687
0003f0 ec 0b 1f be e6 74 c6 bc 22 62 9b bd c5 e3 08 3e
       -0.15531892 -0.024225663 -0.07587077 0.13368137

encoder.model.bias_ih_l0 f4 [256]
000000 85 2a e1 3d 63 7f 97 3d 2a 36 1e 3d 9e 8e 06 3e
       0.10994438 0.07397344 0.038625874 0.13140342
000010 fc 23 64 3e 4c 18 e9 3d 81 5c 32 3d 32 ec 85 3e
       0.22279352 0.113815874 0.04354525 0.26156765
000020 48 a1 56 3e 83 7b 26 3e 4a b1 c7 3e f1 29 c1 3d
       0.20959961 0.16258053 0.39002448 0.09431828
000030 ed 70 99 3d 0a 35 8d 3d a3 68 50 3e 0f d4 7d bd
       0.07492242 0.06894882 0.20352416 -0.061969813
000040 e9 7c 9a 3d 0a ba 9f 3e 70 0a 2d bd 95 3b be bd
       0.07543356 0.31196624 -0.042246282 -0.09288708
000050 3a 7a 88 3d d6 ea 3c 3e ec 66 fc 3c f5 1a 7b 3e
       0.06663938 0.18448958 0.030810796 0.24522002
000060 17 61 60 3d 5e a2 c0 3d 90 cd 39 bd e5 f7 81 3d
       0.054780092 0.09405969 -0.045362055 0.0634611
000070 e8 f4 f5 3d f0 9e 59 bd ca 01 b8 3d 05 96 0e 3e
       0.12009603 -0.05313009 0.08984716 0.13924415
000080 83 9e 7c 3d e9 fb 13 3f d1 6c e8 3e ad 43 24 bd
       0.061674606 0.5780626 0.4539552 -0.040103603
000090 4f 95 45 bc 95 d6 dc bc 46 8a f4 3d 27 e7 a3 3d
       -0.012059524 -0.02695779 0.11940436 0.08003073
0000a0 1a 95 df 3c 17 b0 92 3d 68 5d 98 3d af 6f bb bd
       0.027292777 0.07162493 0.07439691 -0.09152161
0000b0 c5 af 95 bd eb 9c 24 3f 7f c1 32 3d 92 8c 2d 3d
       -0.07308916 0.6430194 0.043641564 0.042370386
0000c0 4d 25 59 bb d6 14 0b bd cc d2 e9 3d 75 3b 76 3d
       -0.0033133805 -0.033955418 0.114171594 0.060115296
0000d0 87 fd 6a bd 05 10 6d bc 19 5f f0 3d ca f6 e3 3d
       -0.05737069 -0.014469151 0.117368884 0.11131056
0000e0 4d ff 96 3d a6 31 3a 3f 79 7e 9e 3c 47 5e 8b 3d
       0.073729135 0.7273201 0.019347416 0.06805091
0000f0 7c a0 3b 3d 55 63 0f 3c 14 5d c2 3e dc 88 e2 3d
       0.045807347 0.00875171 0.37961638 0.1106126
000100 88 3a 73 bd 54 6a 08 3d 70 0a 02 be ff 92 cc bd
       -0.05938199 0.033304527 -0.12699294 -0.09988975
000110 0e 45 b9 bd e4 5e b3 bd 3f 70 0b 3e 63 ea b6 bd
       -0.09046374 -0.08758333 0.13617037 -0.089314245
000120 54 46 08 be 02 95 f0 bd 59 1c 72 bd 96 73 4b bc
       -0.13308078 -0.11747171 -0.059109066 -0.012417695
000130 be ce cd bd 2e 06 96 bd 4b e5 5b bd ea b8 7c bc
       -0.100491986 -0.073253974 -0.053685468 -0.015424946
000140 f0 04 31 bc da 56 2a 3c a7 52 0f 39 ff a3 01 be
       -0.0108044 0.010396684 0.00013668333 -0.12660216
000150 da 7e 8b bc ca 95 52 3e 66 45 8d bd 84 77 49 3d
       -0.017028261 0.20564952 -0.06898002 0.049186245
000160 b5 c8 ac 3d 59 af 99 bd fb 73 90 3d ae e7 bd 3d
       0.08436719 -0.07504148 0.070533715 0.09272705
000170 fe be 2d be a9 1b f1 3d 06 c6 05 bd 51 ef 09 bc
       -0.16967389 0.11772854 -0.032659553 -0.008418874
000180 5b 9c 59 3d 49 74 fc bd a1 4b 07 3d f7 21 b9 3d
       0.053127628 -0.12326867 0.03303111 0.090396814
000190 c9 6e 17 be 0f 6c 0d be 1a 51 5e 3d a4 a9 0a 3e
       -0.14788355 -0.13810752 0.054276563 0.13541275
0001a0 23 fb 19 3c d2 0a ad bb 6c 43 19 3b cf 3d 27 3e
       0.009398255 -0.005280831 0.0023386134 0.16332172
0001b0 3f 7c b2 bd 09 c9 ba 3c 54 44 eb 3d 99 85 d6 bd
       -0.08715104 0.02280094 0.11487642 -0.104747005
0001c0 65 b7 18 be 9f 60 e9 bd 6e 74 53 be 1f 1a 0c 3c
       -0.1491371 -0.11395382 -0.20649883 0.00855115
0001d0 76 ae ea 3c 74 12 7d bd f9 dc b5 bd ed 21 d2 3d
       0.028647643 -0.061785176 -0.08880038 0.10260377
0001e0 1e 26 87 3b e6 5e 15 bf 08 5e 88 bd 85 f6 01 be
       0.004124417 -0.5834793 -0.0665856 -0.12691696
0001f0 1f c2 d8 bd 2a 66 06 bd 21 94 ff bc e3 69 62 3d
       -0.10583901 -0.032812275 -0.031198563 0.055276763
000200 a0 25 fe 3c 09 8f 4d 3d b5 c2 00 be 4e dd 13 be
       0.0310238 0.050185237 -0.12574275 -0.1443989
000210 47 0c 79 bd 19 80 20 3b 67 38 9a 3c 48 a7 a1 bd
       -0.060802724 0.0024490415 0.018825723 -0.078932345
000220 bc 44 8b 3d a5 6e 6e 3d b7 1f 7e bd 23 36 e4 bd
       0.068002194 0.058210988 -0.062041964 -0.11143138
000230 67 fd 64 3d ff fa 88 bc 06 83 f8 3d 0d 9c 73 3d
       0.055905726 -0.016721247 0.12134366 0.059474993
000240 15 68 2d bc 3c dc c1 3d 85 ec 84 bd e9 16 b1 3d
       -0.010583897 0.094658345 -0.06490425 0.08646948
000250 84 3f 0e bd 34 82 ac bd 73 c6 a9 bd a6 31 88 3d
       -0.034728542 -0.08423272 -0.08289804 0.06650095
000260 58 07 a9 bd 73 65 88 3d 7a 83 5c 3d e8 94 d0 bd
       -0.08253354 0.06659975 0.053836323 -0.101846516
000270 ae 7d 60 3c 81 f0 d6 3c bf 32 bb bd 84 8e 14 3e
       0.013701839 0.026237728 -0.091405384 0.1450749
000280 df 38 b7 3c e8 b5 2c 3d a6 ee d8 3d c5 96 e1 3d
       0.022365985 0.042165667 0.105923936 0.11015085
000290 1b 42 19 bd 4b ac 84 bd 2d 31 02 3e 71 b7 02 be
       -0.03741656 -0.06478175 0.12714072 -0.1276529
0002a0 da 89 52 3d e8 1d cd bd 12 ee a7 bd e2 32 b8 3d
       0.051400997 -0.1001547 -0.08199705 0.0899408
0002b0 fd c4 74 3d ae e4 a8 3d 89 56 f4 bc 1b 1b f4 bd
       0.059758175 0.08246742 -0.02982642 -0.119192325
0002c0 5e 69 9b 3d 19 99 f2 bd f2 c6 0f be fe 3c 9b bc
       0.075884566 -0.11845607 -0.14040735 -0.018949982
0002d0 f6 f2 41 3e 2a 82 c0 bc 2b 2b 76 3c 4c 2f 13 3e
       0.18940338 -0.023499567 0.0150249405 0.14373511
0002e0 d1 31 c4 bb e5 fc a0 3e ae 03 8f 3d e1 6e 7c 3d
       -0.005987384 0.31442943 0.06983124 0.06162918
0002f0 59 21 ed bc 2f ec 41 3b ab 5a 8a bb a6 5e 1e bd
       -0.028946565 0.002959024 -0.0042222342 -0.038664483
000300 43 c6 30 3e 18 4e f7 3d 2f ea 2a 3c 01 07 6d 3d
       0.17263131 0.12075442 0.01043181 0.057868008
000310 3b a7 6c 3e 44 82 cd 3d 8b f0 7b bc c3 42 04 3e
       0.23110668 0.10034612 -0.015377174 0.12916093
000320 b8 c7 7a 3d 76 96 be 3e a3 d9 c2 3e cc 91 96 3d
       0.061225623 0.37224168 0.3805667 0.07352027
000330 60 7a ff 3d 1d f6 92 bd e4 c2 16 3e 0f c9 36 3e
       0.12474513 -0.07175849 0.14722782 0.17850135
000340 be ce c0 3d 7f d2 74 3e a3 b6 17 bd e9 3d 6d bd
       0.09414433 0.23908423 -0.03703941 -0.05792037
000350 3f 34 35 3e de bf df 3c 74 bd 97 3d fc 6d 03 3e
       0.17695712 0.02731317 0.07409182 0.12834924
000360 81 21 5a 3e 63 2e 7b bd 8b a0 6d bd 7c 0f c8 3d
       0.21301843 -0.061323535 -0.058014434 0.097685784
000370 33 03 ca bd a0 70 6a 3d c7 11 30 3e 0f b7 ae 3c
       -0.098638915 0.057236314 0.17194282 0.021327524
000380 cc f0 7b 3c 33 17 c0 3e c1 c3 53 3e f8 1f 62 3d
       0.015377235 0.375177 0.20680143 0.05520627
000390 b0 2f ff 3d 3c b4 92 3d 66 5a 63 bd bf ea 75 3d
       0.124602675 0.07163283 -0.055506133 0.060038324
0003a0 04 1d 08 bd c8 b1 30 bd e9 2a 11 3e 17 fa 06 3e
       -0.033230796 -0.043138295 0.14176525 0.13181339
0003b0 df 54 37 bd d3 fa 2d 3f ed e2 ef 3c ca 9c 00 3d
       -0.044758674 0.6796085 0.029283011 0.031399526
0003c0 5d 8d 25 bd 39 ed e7 3c 06 da da 3d 6a bd 48 3e
       -0.040418018 0.028311359 0.10686116 0.19603506
0003d0 3a 50 89 3d ab 3f 93 bd 7c 2c 39 3e 52 bf 5e bb
       0.06704755 -0.07189878 0.18083376 -0.0033988548
0003e0 03 fb 83 3d c2 e3 0d 3f db 1c 0b 3b e5 21 00 3e
       0.06444361 0.55425656 0.0021226916 0.1251293
0003f0 bf b8 c8 bd 73 be 98 3d 5c 0a 29 3e 7a 77 5d 3e
       -0.098008625 0.074582 0.16507858 0.21627608

encoder.model.bias_hh_l0 f4 [256]
000000 90 5a f8 3d 03 ef ec bc 55 0d 46 3e 70 33 2b 3e
       0.121266484 -0.028922563 0.19341023 0.1671884
000010 8d 1e bf 3e 01 62 d8 bc 0c 4f ac bd 4e 28 98 3e
       0.37327996 -0.02641392 -0.084135145 0.2971825
000020 f0 4c a0 3e 4a 68 85 3e f2 39 68 3e b3 67 64 bc
       0.313087 0.2605613 0.22678354 -0.013940739
000030 bf 49 c1 3d 67 78 5c 3d bf c6 f1 3d 06 b9 5f bc
       0.09437894 0.053825762 0.11805486 -0.013654953
000040 fb 96 38 3c e8 21 29 3e c3 7c f1 3d 87 ac ab bd
       0.011266465 0.1651684 0.117913745 -0.08382516
000050 5e 3b f5 3c f5 3b db 3c 1e 30 0e bc 95 32 45 3e
       0.029935535 0.026761988 -0.008678464 0.19257577
000060 e4 29 34 3e 5b 40 84 bd b4 17 b6 3d 1d 8d 57 3d
       0.17594105 -0.06457587 0.0889124 0.05262481
000070 80 dd c8 3d b8 9d d5 bd 75 ba 18 3e d7 47 bd 3d
       0.09807873 -0.10430473 0.14914878 0.09242218
000080 0d d1 fb bd 1f 9a da 3e 82 31 cd 3e bb 96 11 3c
       -0.12295733 0.4269571 0.40076834 0.008886035
000090 0b d0 13 3d 54 69 09 3e 64 23 0a 3e d1 41 cc 3d
       0.036087077 0.13419086 0.13490063 0.09973491
0000a0 42 76 8c 3d 9c 09 65 3d d1 a5 31 3d c5 5c 68 bd
       0.068584934 0.055917367 0.043371025 -0.056729097
0000b0 2e 79 c9 bd 96 74 2c 3f 68 6d 41 3d e6 13 c9 3d
       -0.09837566 0.67365396 0.04722348 0.098182485
0000c0 43 c7 6e bd f5 6b 04 3e 81 91 64 3e e1 42 74 3e
       -0.0582955 0.12931807 0.2232113 0.23853637
0000d0 2e 64 1f 3c 58 92 f5 3d 38 e4 90 3d 72 3a 3f 3d
       0.009728475 0.119908035 0.07074779 0.046686597
0000e0 15 42 fa 3d 82 20 39 3f 19 a6 e2 3d 5f e1 1b 3d
       0.122196354 0.7231523 0.11066837 0.038056727
0000f0 c2 a9 8e bd da 0e 39 3e 87 74 46 3e 6e 31 9a 3e
       -0.069659725 0.18072072 0.19380389 0.30115837
000100 07 a2 98 3d 05 ac 0c 3d 40 4c 91 bd 53 8d 77 3d
       0.07452779 0.034343738 -0.07094622 0.06043751
000110 48 ad 5e bd a1 53 14 bd 14 61 0d 3e 73 14 90 bb
       -0.054364473 -0.036212567 0.13806564 -0.004396969
000120 0c a9 15 be d0 d1 24 be 2c 1d 30 3d dc d1 73 3d
       -0.14615268 -0.16095662 0.04299657 0.05952631
000130 62 37 f1 3d 1b 71 8e 3d ec 2c cf 3d a8 e8 b4 ba
       0.117781416 0.06955167 0.1011599 -0.0013802247
000140 73 59 93 3d a6 13 ae bd 8f 3c 8f 3a a5 6e 3b bd
       0.071947955 -0.084998414 0.0010928082 -0.045759816
000150 73 fa 30 bd 7f 45 09 3e c0 26 cb bd cb a7 6a bd
       -0.043207597 0.13405417 -0.099195 -0.057288926
000160 9c bc d9 bc 01 cc 07 bd 46 97 e3 3d fc b5 3e 3c
       -0.026579194 -0.033153538 0.111128375 0.011640068
000170 f4 2f 88 bd 83 0d cc 3d af 85 ba 3c 1b d1 ba 3c
       -0.06649771 0.09963515 0.022768823 0.022804787
000180 df 63 ed 3c 41 10 f1 3c c6 89 38 bd 64 9a 6c bd
       0.028978286 0.029426696 -0.045053266 -0.057764426
000190 4f 87 d6 bd fe 12 25 bd 89 ee 0d bd de b4 8b 3d
       -0.10475027 -0.040301315 -0.034651313 0.06821607
0001a0 86 85 94 bc 90 6f 28 3d 0a 54 ed 3d 32 0b 03 3d
       -0.018130075 0.04112202 0.11588295 0.0319931
0001b0 c4 61 c7 3d 7a 53 cf bd 5e 97 81 3d aa d6 7e bd
       0.09735444 -0.10123344 0.06327699 -0.06221644
0001c0 37 ac 9a 39 c9 3a 4c 3c 3e e3 42 bd dd 29 4f 3d
       0.0002950148 0.012465187 -0.047579996 0.050577033
0001d0 bb 2c d6 3d d2 3f 06 be 95 08 06 be f9 63 89 3d
       0.104577504 -0.13110283 -0.13089211 0.067085214
0001e0 d8 3f 07 bd 6b 02 ff be 58 b9 09 3d 97 03 b7 3d
       -0.03301987 -0.49806532 0.033624023 0.089362316
0001f0 12 d5 4b 3c 55 f2 7c 3d 5c a2 16 bd 47 2d 21 3d
       0.012440937 0.061754543 -0.03677593 0.03934982
000200 2c 50 2d 3e 8c ae 9d bd 05 e7 a1 bd d0 35 21 3d
       0.16925114 -0.07699308 -0.079053916 0.03935796
000210 b3 c9 9c bd 47 24 99 3d 03 cb 00 be 46 74 bc bd
       -0.076556586 0.074776225 -0.12577443 -0.09201865
000220 04 26 50 3d c1 1f 81 3d b5 f6 f2 bd d4 60 0f bd
       0.050817505 0.06304885 -0.11863462 -0.035004452
000230 ec ef 8b bd e1 9a ba bd 9e 06 1b 3e b6 03 b0 bd
       -0.06832871 -0.09111572 0.15139243 -0.08594458
000240 37 4a 55 bd 2e 7e 00 3e 42 d7 c4 bc ef 0c b1 bd
       -0.05207273 0.12548134 -0.024028424 -0.08645045
000250 12 1f 87 bd 1c 23 e0 3d 86 26 2d bd b5 71 f7 3c
       -0.06597723 0.109441966 -0.042273067 0.030205587
000260 66 71 77 3d 8b d0 e5 3d 70 e5 cb 3d 73 35 ee 3c
       0.06041088 0.11221417 0.09955871 0.029078221
000270 c8 5f 17 be 8b 3d dc bd 00 af 01 bd 51 11 81 bd
       -0.14782631 -0.10753926 -0.031661034 -0.06302131
000280 85 69 9f 3d b5 2d cd bd 5c f8 ad 3d 47 d4 d0 bc
       0.07783798 -0.100184835 0.084946364 -0.025491847
000290 15 ac 33 bc 00 36 aa bb dc 5e bd bd 29 76 98 bd
       -0.0109663205 -0.0051944256 -0.092466086 -0.07444412
0002a0 49 53 be 3c d7 88 d6 3c 00 a8 d2 bb de 6e 97 bd
       0.023233073 0.026188297 -0.0064287186 -0.07394193
0002b0 12 06 7e 3c 8d cc d6 bc ff ff 19 3d e3 c0 41 bd
       0.015504377 -0.026220584 0.037597653 -0.04730309
0002c0 bd ec d4 3d c2 62 f0 bd ae ca c8 bc 01 bc e2 bd
       0.10396717 -0.117375866 -0.024510708 -0.11071015
0002d0 84 92 5a bd 49 8d a6 3b 31 4f f9 3c ba 74 64 3d
       -0.053362384 0.0050827605 0.03043327 0.05577538
0002e0 fb 66 8b bb d9 39 41 3e 04 10 7a 3d b2 a2 7f bd
       -0.0042542196 0.18869723 0.06105043 -0.062411018
0002f0 0b 32 7b bd e2 d7 ac 3d 7d e6 c8 3d 4c fa 4b 3d
       -0.06132702 0.08439614 0.09809587 0.04979925
000300 9a 43 8c 3e 82 33 09 3d 70 cd 8a 3d ad 2a 5c 3e
       0.27395326 0.033496387 0.06777465 0.21500655
000310 97 cf c2 3e 98 61 a0 3d b7 2d d2 3d f4 33 79 3e
       0.38049003 0.078311145 0.10262626 0.24336225
000320 22 9c af 3d 79 fc 54 3e 71 06 67 3e d1 50 e7 bd
       0.08574702 0.20799436 0.22561051 -0.112947114
000330 2d 81 bb 3a e7 3e 1d be 7d 7f 2f 3e a4 9e 33 3d
       0.0014305465 -0.15356027 0.17138477 0.043852463
000340 b1 91 30 bd 80 7a 0a 3e 77 78 ce 3d 3c a2 49 3d
       -0.043107692 0.13523293 0.100815706 0.049226984
000350 ce 19 59 bd 72 fe f3 3d dc 68 c1 3d 9a 39 0e 3e
       -0.053003125 0.11913766 0.094438285 0.13889161
000360 9d 56 83 3e 61 30 51 b9 cb 90 44 bd e4 8c 81 3d
       0.25652018 -0.00019949816 -0.047989648 0.06325701
000370 e0 93 20 bc 0e ea 9c 3c a1 85 54 3e 1b 21 e5 3d
       -0.009800881 0.019154575 0.207541 0.11187955
000380 52 7a 96 bc a7 18 0b 3f 4c 74 c5 3e 97 f7 67 bd
       -0.018368874 0.5433449 0.3856529 -0.056632604
000390 53 fb b1 3c 80 09 03 3c 7d b9 12 3e a5 34 26 bd
       0.021726286 0.00799787 0.1432857 -0.04057755
0003a0 ac ba f2 3d c0 82 a3 3d 09 44 0f 3e 21 80 df 3d
       0.11852011 0.07983923 0.13990797 0.109131105
0003b0 71 a3 59 bd 1b 3d 0b 3f 0e a2 f3 3d 2e 26 a5 bd
       -0.053134385 0.54390115 0.11896144 -0.08063923
0003c0 5c 37 1b 3d f4 32 98 bd 2d d8 f9 3d b7 66 5e 3e
       0.03789459 -0.074315935 0.121994354 0.2171887
0003d0 16 f9 6f 3d 5d b4 a2 3d 08 35 d1 3d 3e 67 ee 3d
       0.058587156 0.07944558 0.10215193 0.11640786
0003e0 02 22 93 3d 5e 65 0c 3f d1 6e c7 bc b3 9c 7c bd
       0.07184221 0.54842174 -0.024344834 -0.061672878
0003f0 9d 41 98 bc 37 f2 72 3d 85 f7 82 3e 32 b7 d4 3d
       -0.018585974 0.059313025 0.25579467 0.10386504

encoder.model.weight_ih_l1 f4 [256, 64]
000000 2a ef 7a bd 69 2d b3 bd b0 45 18 be a1 e2 c2 bd
       -0.06126324 -0.08748896 -0.14870334 -0.09515882
000010 7c ea 31 be c8 a5 2a bd a1 15 68 bd e0 91 21 3d
       -0.17374605 -0.041662008 -0.056661252 0.039445758
000020 36 a7 b2 3d 26 ce b2 bc 10 4a 06 be a3 a7 c2 3c
       0.08723299 -0.021826815 -0.1311419 0.023761576
000030 d5 0b f3 bb fe ed de b9 09 98 49 3e 51 f7 65 be
       -0.007417182 -0.00042520458 0.19686903 -0.22457625
000040 f7 4b 5d be 3e 2d 8f 3d 5d bd 0c 3c ad d2 a1 bd
       -0.2161101 0.06991051 0.00859007 -0.07901511
000050 fd 18 71 ba 92 69 35 be e6 f4 7e be 40 ff 07 3c
       -0.0009197144 -0.17716053 -0.24898109 0.008300602
000060 69 44 b5 bc 30 16 37 3e bb da 28 bd b5 84 f5 bc
       -0.022127347 0.17879558 -0.041224223 -0.029970506
000070 8e 2e 00 be d0 ae 89 3d 9f 9a 01 bc 35 52 a6 3d
       -0.12517759 0.06722796 -0.0079104 0.081211485
000080 a6 5c ba bb 3d 89 9a 3d 38 6f 2d 3c 9c ad 54 3e
       -0.005687314 0.075457074 0.010585599 0.20769352
000090 f9 17 2b 3e 09 7a ea 3d d8 18 b8 bc e0 38 00 be
       0.16708364 0.114490576 -0.022472784 -0.12521696
0000a0 e4 d4 56 3d c8 65 10 bd ac 2c 38 bd 0f 8c 88 bd
       0.052449122 -0.035253316 -0.044964477 -0.06667339
0000b0 46 13 89 bb 9d 06 d1 3d b5 15 54 bc 2a f2 19 bd
       -0.004183206 0.102063395 -0.0129446285 -0.03758446
0000c0 1a fe 3a 3d fc ce 2d be 20 29 0d bd 13 39 a5 bd
       0.045652486 -0.1697349 -0.034463048 -0.08067527
0000d0 e2 64 ae 3d f8 78 bd bc 0f 2e 8c 3d 94 15 03 3e
       0.085153356 -0.023128971 0.068447225 0.128012
0000e0 c2 f4 93 bd 3a 4a c4 3d f8 93 1d 3e ca fd 12 be
       -0.07224418 0.0958447 0.15388477 -0.14354625
0000f0 12 a2 bd bd 07 b0 70 3e 5c 30 85 3c de 88 8a bd
       -0.09259428 0.23504649 0.016258411 -0.067643866
000100 f0 ca 83 3d 36 f8 97 3d fc 49 ba bd 27 c3 18 be
       0.06435192 0.07420389 -0.09096143 -0.14918195
000110 93 fc 96 bc ed a6 24 bb 32 68 fd bd 93 40 7e 3c
       -0.018430984 -0.002512391 -0.12373389 0.015518325
000120 1f 7c 16 3e 5d 9e b5 3b 9d 7a ad bd 7e 19 02 be
       0.14695786 0.00554256 -0.08470652 -0.12705037
000130 76 2e da bc 63 b8 19 be f9 07 10 3d 84 31 f5 bb
       -0.026633482 -0.15011744 0.035163853 -0.0074827094
000140 29 5c 75 bc b5 12 25 3d 53 b8 8e 3d 87 99 97 bd
       -0.014975586 0.040301044 0.06968751 -0.0740233
000150 a3 9a b5 bd 11 41 1e be 2b 19 30 be bf 7f fc bb
       -0.08867385 -0.15454508 -0.17197101 -0.007705658
000160 eb b7 ac bc 7a 94 35 3c 40 59 08 bd 3d f8 5e bd
       -0.021083793 0.011082763 -0.03328824 -0.054435957
000170 5c fc f1 bc 84 2c 8d bd a7 4b 5d be 85 25 2a 3e
       -0.02953928 -0.06893256 -0.2161089 0.16615875
000180 0b df e6 3d a3 67 41 3d 32 f0 9b 3d ed 6b bb bc
       0.11273011 0.047217976 0.07614173 -0.022878611
000190 74 73 c4 bd b2 62 ef 3c 14 ad 71 be 41 c3 26 be
       -0.095923334 0.029221866 -0.2360118 -0.16285421
0001a0 bf 2a fa 3d ee 15 a3 3c f3 16 22 bd a1 5e 25 bb
       0.122151844 0.019907918 -0.039572667 -0.0025233405
0001b0 e7 de 8a bd 16 1c 8e 3d d0 ff 32 3e f4 9f 2f be
       -0.067807965 0.06938951 0.17480397 -0.17150861
0001c0 11 84 1f 3e b5 20 8d 3d cc 45 2e be d6 fb 89 bd
       0.15577723 0.06891004 -0.17018813 -0.06737487
0001d0 0f 82 b1 3d 90 1f 17 be 84 8c 19 be fd f2 a8 3d
       0.08667385 -0.14758134 -0.14995009 0.08249471
0001e0 29 5e b2 3c 5e f4 9f 3d b7 9b 97 3d 9f 43 7f bd
       0.021773415 0.07810281 0.07402747 -0.062320348
0001f0 36 4f d4 3b 28 49 41 3e 6e 1d ef bd 91 01 6c bd
       0.0064791692 0.18875563 -0.11675535 -0.05761868
000200 a7 38 18 3f 06 3e 37 be db 32 de bd 14 e7 e7 bd
       0.59461445 -0.17894754 -0.10849544 -0.113233715
000210 7c 26 2a be 19 6b 52 bd 09 d5 1d 3d 82 0c f3 bd
       -0.16616243 -0.051371668 0.038533244 -0.1186762
000220 29 be 34 3d 3a b6 19 3e 3a 4f ee bd 08 fc f5 bd
       0.044126663 0.1501092 -0.11636205 -0.12010962
000230 0d e9 f2 bc 0f 80 56 3b 12 81 e6 3d eb a8 07 3e
       -0.029652143 0.0032730137 0.11255087 0.13248031
000240 6b 98 bf 3c 1d 19 97 3e 2b 0d 3c be c3 bf 20 ba
       0.023388108 0.29511347 -0.18364398 -0.00061320903
000250 28 21 a9 bd 8e 7e f4 3d 14 d3 99 3b 2d 7d 08 3e
       -0.08258277 0.11938201 0.004694352 0.13329001
000260 19 d3 22 bc 16 29 03 3e b3 fa a0 3d ed 4a 0e 3d
       -0.009938025 0.12808642 0.07860317 0.034739424
000270 0f bf 8c 3d 01 9d f1 bd 7e 02 b1 be 6f 87 cc 3c
       0.06872379 -0.11797524 -0.34572214 0.024966924
000280 07 a7 2f 3d 4f 90 1b be 93 a4 eb 3e cf ad 88 3d
       0.0428839 -0.15191768 0.46023998 0.06673776
000290 ff 02 ba bc 24 ec d2 bc 44 4c 36 be 58 83 66 bd
       -0.022706507 -0.025747366 -0.1780253 -0.056277603
0002a0 a4 ef a3 bd 38 69 66 bd 7f 5a 71 be 9b db 59 be
       -0.08004692 -0.05625269 -0.23569678 -0.21275179
0002b0 fe d6 85 3d e1 b5 84 3e d9 e4 b5 3c 9b d3 1f 3d
       0.06535147 0.25920013 0.02220385 0.039020162
0002c0 e6 84 b5 3d b1 6c b9 bb fc a3 d4 bd 0f 4f 13 be
       0.08863239 -0.005658709 -0.1038284 -0.14385627
0002d0 70 ef 26 3d aa 45 cf bd d4 9c bb bd d9 00 5a bc
       0.04075569 -0.10120709 -0.09160772 -0.013305866
0002e0 a7 0a c3 bc 7a dd 68 3e f5 8f 2a be d8 70 00 3d
       -0.02380879 0.22740737 -0.16656478 0.031357616
0002f0 ef 00 df 3d 1f dc 95 3e ed bc b8 bd 72 ad 68 be
       0.1088885 0.29269502 -0.0902041 -0.22722414
000300 47 a8 5e 3d 1a 9a 83 be 51 3b 52 bc 35 85 09 be
       0.0543597 -0.25703508 -0.012831525 -0.1342972
000310 3d 93 2f be 5f 8c b7 bd 8f f7 86 bd e6 c9 98 be
       -0.1714601 -0.089623205 -0.06590187 -0.29841536
000320 bc 3c 51 3b 3a 40 2d 3e df 1b 37 be ba cd 49 be
       0.003192707 0.16919032 -0.17881726 -0.19707385
000330 96 01 65 bd f5 ef 19 be 6a b9 66 3e 4e 01 94 be
       -0.055909716 -0.15032943 0.22531667 -0.28907245
000340 61 cd 58 be 78 80 76 3e df 0a 86 bd 00 8b 72 be
       -0.21172096 0.24072444 -0.06545042 -0.23685837
000350 7a 46 d7 bd 3a bf 1d be 5a cc 04 be a7 af b6 3d
       -0.10511489 -0.15404978 -0.12968579 0.08920222
000360 de f6 0a be 2b 8c 1b 3e 78 9f 9c 3e e1 7e 05 3e
       -0.13570735 0.15190189 0.30590415 0.13036682
000370 19 73 65 bd 9d 99 e3 3d 7c 4f a0 be d4 32 5d 3e
       -0.05601797 0.11113284 -0.31310642 0.2160142
000380 a4 c1 6d 3d 66 55 c2 3d 0e 8a 73 3e dc 2e 32 3d
       0.058046 0.09488945 0.23783132 0.04350172
000390 fc 18 a7 ba cc 42 d6 3d da 2e 04 ba 7e 2a 90 be
       -0.0012748535 0.10461959 -0.0005042382 -0.2815742
0003a0 27 f5 66 3b 52 f4 63 be b7 df 2f be 32 48 30 3e
       0.0035241337 -0.2226117 -0.17175184 0.1721504
0003b0 93 59 68 3e 40 02 3b 3e 27 44 ac bd 1d 59 48 be
       0.2269042 0.18262577 -0.084114365 -0.19565244
0003c0 b4 e2 0e 3d ba b8 50 be c7 e0 07 be c6 2d c0 bd
       0.03488417 -0.20382968 -0.1326934 -0.093837306
0003d0 82 29 89 3e b9 e6 80 bd 02 0b 9b 3c 2a 74 72 3e
       0.2678948 -0.06294007 0.018926147 0.23677126
0003e0 3e 0f 8e be bf 55 33 3e 10 a9 0b 3d 56 7e ab 3d
       -0.27746004 0.17513178 0.034096777 0.08373706
0003f0 9d 37 ab bd 21 a0 24 3d fe 86 3b bd 71 94 84 bc
       -0.08360217 0.040191773 -0.045783035 -0.016184064

encoder.model.weight_hh_l1 f4 [256, 64]
000000 33 b4 04 3d f8 23 26 3e d4 51 56 ba 29 8f 30 3d
       0.032398414 0.16224658 -0.00081756455 0.04310528
000010 80 85 d3 3d 4d 93 2b bd 24 87 0f be 60 78 4c be
       0.103281975 -0.041888524 -0.14016396 -0.19967794
000020 4b 5f 94 bc 4a 49 23 be 68 35 2a 3e cf 9c 48 bd
       -0.018111845 -0.15945926 0.16621935 -0.04897767
000030 ff 48 00 3d f9 e6 28 3d 32 d4 df 3d 46 b9 27 be
       0.031319614 0.041235898 0.10929145 -0.1637927
000040 0f 87 ea bd 27 38 dc 3c 76 62 4b 3d 15 67 19 bd
       -0.11451542 0.026882244 0.049654447 -0.037451822
000050 01 b7 40 3d 23 58 95 3d 97 57 39 3d a0 9e 08 bd
       0.047049526 0.07292201 0.045249548 -0.0333544
000060 b5 70 26 bd 40 c1 fc bc d6 fc 10 3e 36 49 8c bd
       -0.04063483 -0.030853868 0.1415895 -0.068499014
000070 a0 b4 c4 3d 5a 98 53 3e b5 12 0d be cd c2 93 3d
       0.09604764 0.20663586 -0.13776667 0.0721489
000080 74 15 e1 3c 39 60 19 3c c7 b7 6c 3d a7 e9 b9 3d
       0.02747605 0.00936132 0.05779245 0.09077769
000090 a8 93 a6 bc 40 99 73 bc b6 21 b2 3d 42 72 02 3d
       -0.02033408 -0.014868081 0.08697836 0.031847246
0000a0 47 07 74 bd 1e 80 b0 bd 60 1e 77 bd d1 e4 71 3c
       -0.059577253 -0.086181864 -0.060331702 0.014764027
0000b0 ea cc 77 3d f6 6a 17 3c 32 58 fa 3d d2 f7 9f 3c
       0.060498156 0.00924181 0.12223853 0.01952735
0000c0 12 55 38 be b9 9c 27 3d 62 ef be 3d 7c 7f 1a 3d
       -0.18001202 0.040920947 0.093230024 0.037719235
0000d0 dc 65 99 38 51 bd 3e 3d 2c 48 e3 3d e7 d6 f8 bb
       7.314581e-05 0.046567265 0.1109775 -0.0075939777
0000e0 0b b5 27 3d af 1c 07 bd ed 36 57 3d 4e 2a 62 bc
       0.04094414 -0.03298634 0.052542616 -0.013804032
0000f0 09 43 ca 3d 86 01 a0 bc 00 c9 e6 3c c2 b7 da bc
       0.09876067 -0.019531976 0.028172016 -0.02669895
000100 34 1c 0e 3e 16 22 80 bd 7e b6 bf bd 95 f8 73 3b
       0.13877946 -0.062565014 -0.093609795 0.0037227024
000110 5b ce 19 be 88 59 3e be 53 00 67 3d 58 00 0a 3d
       -0.15020125 -0.18588841 0.056396794 0.033691734
000120 50 1f 9f bd 48 78 30 be f7 bc 7b 3d 19 f8 0c 3e
       -0.07769644 -0.17233384 0.061459508 0.13766517
000130 2b 45 24 be 67 a5 24 be 67 21 4e 3e 9e 47 dc 3d
       -0.1604201 -0.16078721 0.2012993 0.107558474
000140 53 19 d2 bd 9b f5 8e bb e9 72 fc 3d e4 74 a5 bd
       -0.102587365 -0.0043627745 0.12326605 -0.08078936
000150 ac 28 b2 bd f2 2d f4 bd 47 d2 df 3d ab b1 c8 bd
       -0.08699164 -0.11922826 0.10928779 -0.097995125
000160 11 e4 ea bd 6c a6 6d bd 0a 93 2b 3b b5 72 8e bd
       -0.114692815 -0.05802004 0.0026180171 -0.069554724
000170 3c b9 cb 3e af ba 94 bd 01 17 16 bd f0 55 9f 3c
       0.3978976 -0.072621696 -0.036643032 0.019450158
000180 e2 88 1b bb 3e 02 eb bd 3c 75 47 3e d1 fd 79 3e
       -0.0023732712 -0.11475037 0.19478315 0.2441323
000190 55 12 ce 3d 95 6d de bd c6 54 a3 3d dd 0f 4a 3e
       0.1006209 -0.10860745 0.079751536 0.19732614
0001a0 70 79 13 be 8e 91 58 be e9 60 48 bd 0e 16 58 be
       -0.14401793 -0.21149275 -0.048920546 -0.21102163
0001b0 f6 ca cc 3d bf e9 7f be 39 01 82 bd 99 42 1e bc
       0.09999649 -0.24991511 -0.063478895 -0.009659433
0001c0 fe fc 34 be 53 95 4a 3e c8 71 70 3d 94 96 0b 3e
       -0.17674634 0.19783525 0.05870226 0.1363166
0001d0 0e 83 c1 3c 0b 54 16 be cd e2 c4 3d 1e 99 60 3d
       0.023622062 -0.14680497 0.09613571 0.054833524
0001e0 cf 74 0e 3d d7 c4 e4 bc 18 b4 b9 3e 3d d0 8d 3d
       0.034779366 -0.027925892 0.36270213 0.06924484
0001f0 ab f6 7a 3e 87 a4 0d be a2 0f 1d bd e8 62 24 be
       0.24508159 -0.13832293 -0.038344987 -0.16053355
000200 13 2c 3b 3e 9a 78 16 3e ce 5a e1 3c c5 6b 31 be
       0.18278532 0.14694443 0.02750912 -0.17326267
000210 31 31 56 3d d9 32 8f 3d 7c 9f d4 bd 7b 1d 3e be
       0.052293006 0.0699212 -0.10381982 -0.18565933
000220 25 18 f7 3d f3 2a b6 bd 38 54 94 3d c4 54 12 3e
       0.12065152 -0.08894911 0.07242626 0.14290148
000230 9e 26 9a 3d 73 91 70 bd 6b 83 c3 3d 33 2b 21 3e
       0.07526897 -0.05873246 0.0954655 0.15739135
000240 81 35 14 bc 45 5e 85 bd 15 28 30 3c e8 8a 3d bc
       -0.009045959 -0.06512121 0.010751744 -0.011568762
000250 49 3a 94 be 18 d5 01 be 57 d7 3c 3b c7 eb 76 bb
       -0.28950718 -0.12678945 0.0028814876 -0.0037677155
000260 fb 19 98 bd 90 bf aa bd 71 be 08 3d 86 48 d7 bd
       -0.074268304 -0.08337319 0.033384744 -0.105118796
000270 3e dc 13 3d 3c 11 1c 3e d0 d8 9d 3c 92 1b 5c bb
       0.03609871 0.1524095 0.019268423 -0.003358577
000280 ef 08 a6 3d 52 bb 2b be 80 0d 62 bd ba 80 43 3e
       0.08107173 -0.16770676 -0.055188656 0.19092074
000290 60 74 32 3d c1 47 23 be 57 18 d1 bc 74 36 ed 3d
       0.043568015 -0.1594534 -0.025524301 0.11582652
0002a0 70 29 61 be 57 da 6c bd c6 75 3f 3d 13 53 fd 3d
       -0.21988463 -0.057825413 0.046743177 0.12369361
0002b0 70 99 64 bc d1 bc f5 bc f3 f4 fa bd 17 d3 18 bd
       -0.013952598 -0.029997261 -0.122537516 -0.037310686
0002c0 c3 01 93 bd 86 03 42 3e 9d d0 3b be 3e fe 94 3d
       -0.071780704 0.18946657 -0.18341298 0.07275055
0002d0 38 9b 24 3e e7 b1 3f be 29 1e 47 bd 56 f2 00 3e
       0.16074836 -0.18720208 -0.048612747 0.12592444
0002e0 c9 47 fd bb 70 a8 cd bb c1 65 bd 3d e8 60 1f 3e
       -0.0077295047 -0.006276183 0.09247924 0.1556431
0002f0 5d 5a d8 bc 5a 9d 58 bc 42 99 69 3d d8 53 68 3d
       -0.026410276 -0.013221109 0.057030924 0.056720585
000300 83 07 90 3e ef 11 0b bd 39 b7 3c bc c3 f7 eb bc
       0.2813073 -0.03395265 -0.011518293 -0.028804665
000310 49 44 12 be fd 03 1c be e1 77 9a 3c 55 f0 cb 3c
       -0.14283861 -0.15235896 0.01885599 0.024894873
000320 1f d9 0a be 58 0f 7e bd 27 02 fa 3d 21 36 5a 3e
       -0.13559388 -0.06202635 0.12207442 0.21309711
000330 17 ee d5 bd 3a 09 22 be 5d 33 1d 3e a1 1a 34 3e
       -0.10445803 -0.15823832 0.15351625 0.17588283
000340 70 ae 87 3c 80 2d 87 3d b7 cb fb bd 4b c0 5f 3d
       0.01656267 0.06600475 -0.12294715 0.054626744
000350 80 d4 b9 bc 1a 68 9e be 20 37 1f 3d 02 86 51 bd
       -0.022684336 -0.30938798 0.03887093 -0.05115319
000360 33 d9 06 be 50 38 07 3d 81 d7 45 bd 36 c4 5b 3c
       -0.13168792 0.03301269 -0.048301224 0.01341348
000370 66 3c 92 3d 00 d1 18 3e c3 87 e0 bc 92 d4 0a 3e
       0.07140426 0.14923477 -0.027408486 0.13557652
000380 bc bc bb bc 42 56 35 3d 0d 41 fa 3d bc 20 35 3e
       -0.022917144 0.044271715 0.12219439 0.17688268
000390 48 e0 ba 3c 82 78 09 be b8 eb 3b 3b f5 ce 6e bd
       0.022812024 -0.13424876 0.0028674435 -0.05830284
0003a0 3d f5 d7 bd 0c 78 7b 3b 55 5d 8a be 09 6a 7c be
       -0.10544822 0.0038371114 -0.27024332 -0.24649824
0003b0 62 96 24 bb a6 f1 3b be 5b b9 c8 3d e6 1e 86 3e
       -0.002511405 -0.183539 0.09800979 0.2619545
0003c0 78 b9 70 be e9 50 52 3e f4 4e e7 3c 03 dc 56 bd
       -0.2350825 0.20538677 0.02823589 -0.052455913
0003d0 4d e5 3a 3c b8 53 cd 3d a7 54 ac 3d 35 25 96 bc
       0.011407209 0.10025734 0.08414584 -0.018328289
0003e0 8e 1e ca 3d 8c bf aa bc a7 89 8b 3d 66 d2 98 3d
       0.09869109 -0.02084329 0.068133645 0.07462005
0003f0 25 7e 0e 3e e6 14 96 bb 73 9b 34 bd 13 e4 9f be
       0.13915308 -0.004580128 -0.04409356 -0.31228694

encoder.model.bias_ih_l1 f4 [256]
000000 95 bf 57 3d 4a 54 8f 3d f3 6a 8d bb 6f 8d 81 3e
       0.05267294 0.06998499 -0.004315728 0.25303218
000010 66 a4 43 3d 8d 00 0b 3e 1d 5e 43 3d 5d 21 1f 3b
       0.047764204 0.13574429 0.047697175 0.002428136
000020 6f f6 81 3d d3 9e 90 3e 0b 13 ea 3d 97 89 65 3e
       0.063458316 0.28246173 0.114294134 0.22415768
000030 07 d3 22 3e 33 7d 96 3d 96 9b 57 bd e0 79 0e 3e
       0.15900813 0.073480986 -0.052638613 0.13913679
000040 8d 31 93 3f 65 9f 76 bd b8 a9 4f 3d 59 23 4f bc
       1.1499497 -0.060210604 0.050698966 -0.012642705
000050 80 81 45 3f a3 e2 86 3d 17 e8 85 bd ab 3c 1d bc
       0.77150726 0.06586196 -0.06538408 -0.009596984
000060 3b 9a d3 3e 15 8a a2 3d a2 ee 2a 3e 40 6b 1c 3e
       0.41328606 0.07936493 0.16692594 0.15275288
000070 29 bd 78 3d 53 c5 11 3e 5a 44 9a 3e 75 d7 e6 3e
       0.060727272 0.1423543 0.30130273 0.45086256
000080 01 05 66 3d e1 2c 44 3e ca 9e 15 3e d8 19 04 bc
       0.056157116 0.19157745 0.14611354 -0.008062802
000090 37 d9 b5 3c eb 0b 28 bd 96 b1 3e 39 34 8c 19 bd
       0.022198303 -0.04102699 0.00018185968 -0.037487224
0000a0 41 10 bf bd 92 5f 50 3d f6 f2 92 bd 0c 70 99 bd
       -0.09329272 0.050872393 -0.07175247 -0.07492074
0000b0 5d e8 82 bd 2d 35 66 bd 2f 0f 2e 3e 45 8d 97 bd
       -0.06391976 -0.056203056 0.1699798 -0.07399992
0000c0 1a 07 ed 3d 05 3b 80 3d 01 75 45 3e 61 08 40 3e
       0.1157362 0.06261257 0.19282915 0.18753196
0000d0 4e c2 46 3e ce 54 11 3b 5d c2 bb 3d d5 37 3f 3e
       0.19410059 0.0022175792 0.09167931 0.18673642
0000e0 89 12 6c 3e 9d b5 3f 3e 4f 28 af 3d 01 a6 b7 3c
       0.23053946 0.18721624 0.0855261 0.022418024
0000f0 c7 64 0c bc 1a 6f 6d bd d5 3f 6e bd 59 d5 e2 bd
       -0.008568949 -0.057967283 -0.058166344 -0.11075849
000100 38 a5 62 3d c9 86 11 3e 1c 02 00 be 63 53 20 3e
       0.055333346 0.14211573 -0.12500805 0.1565681
000110 ab 24 8c bd 8f 90 14 be a4 b3 c2 bd bf 78 2b bd
       -0.06842931 -0.1450827 -0.0950692 -0.0418632
000120 8d 51 ce bd 73 dc 20 be a9 c8 89 bd 84 02 f4 3c
       -0.10074148 -0.15709095 -0.06727726 0.029786356
000130 14 e4 61 bd 26 4c 9f bc e0 27 b8 bc 9f 99 3b bc
       -0.055149153 -0.01944549 -0.022479951 -0.0114502
000140 1b d3 8f bd 2a 4f c2 bd 09 ef 22 3e 66 42 84 3d
       -0.07022687 -0.094877556 0.15911497 0.06457977
000150 27 ee e0 bd c5 64 b8 bd 36 42 2a bc 72 94 07 3d
       -0.10982924 -0.09003595 -0.0103917625 0.033100553
000160 ea 90 7c 3d 4f 02 8f 3d 73 e4 91 bd b2 be 6f bd
       0.06166164 0.06982862 -0.07123651 -0.05853147
000170 bf c5 d2 bd bc e2 36 3d dd d3 aa 3d fb 74 1f 3d
       -0.10291623 0.044649825 0.08341191 0.03892992
000180 43 33 0d be 02 23 9a 3d 53 11 86 bd 05 66 46 bd
       -0.13789086 0.075262085 -0.06546273 -0.048437137
000190 c4 b1 79 3d 89 d4 5b bd 84 9d ed 3c 2c 83 8f 3d
       0.060960546 -0.053669486 0.029005773 0.07007441
0001a0 03 be f0 3d fe 3d b9 3d 1c a7 f6 bd 33 9f 01 bd
       0.11754992 0.09045027 -0.12043592 -0.031645965
0001b0 52 1b a4 3d 49 96 c5 bd 87 51 ae 3c bd 77 db bd
       0.080130234 -0.09647805 0.02127911 -0.10716198
0001c0 77 8b e9 3d 54 f2 ed 3c aa 03 4b 3e 9f 62 bd 3c
       0.11403554 0.029046215 0.19825616 0.023118315
0001d0 9a 98 b8 bc 48 fe b5 3c dc ec a6 bc 8b 39 61 3e
       -0.022533704 0.022215977 -0.020376615 0.21994607
0001e0 74 24 d9 bc 7e 71 14 be 75 e2 ad bd 69 4f 5f bd
       -0.02650664 -0.14496419 -0.08490459 -0.05451909
0001f0 1e 92 d0 3d 19 0b bc bc e2 e0 ad bd 82 16 d0 bc
       0.1018412 -0.02295451 -0.084901586 -0.025401358
000200 ff d8 fc 3d 2b 69 d1 bc 4f 36 80 3b 43 44 a0 bd
       0.12346076 -0.025562843 0.003912724 -0.0782552
000210 c5 f7 02 be 94 72 81 bd 8e f5 fa bc 8b e9 9a 3c
       -0.12789829 -0.06320682 -0.030634668 0.01891019
000220 19 89 24 bd ea 96 c1 bd 83 b3 3d 3d 45 89 ac 3d
       -0.04016981 -0.09452613 0.046313774 0.084246196
000230 a1 e7 50 bd 11 de 09 be 0e eb 0b 3d 85 34 c1 3d
       -0.05100215 -0.13463618 0.034159712 0.094338454
000240 86 68 4e bd 0a 02 6b bd 5f 5f 57 bd f8 35 51 be
       -0.05039265 -0.05737499 -0.052581187 -0.20430744
000250 f0 f9 f3 3c c6 bb 03 bd 5f f0 48 bb 64 3b 0c 3d
       0.029782265 -0.032161497 -0.003066085 0.034236327
000260 27 95 de be 56 36 0e 3e 1f dc d0 bc 15 0b e4 3b
       -0.4347317 0.13887915 -0.025495587 0.006959329
000270 20 2b cc 3d 18 3e 2c 3d a0 ef 40 bd 5f be 6f 3d
       0.09969163 0.042051405 -0.047103524 0.05853116
000280 cc a0 3b 3d f4 aa 34 3d 0f ef 03 3f bf 66 07 3e
       0.045807645 0.044108346 0.5153665 0.13222788
000290 d9 68 92 3d 19 bf ad bd 52 60 11 bc 3f 0e 24 3d
       0.07148904 -0.084837146 -0.008873062 0.04005265
0002a0 7f a4 77 bc 49 8d 51 3a 60 c0 e8 bd 65 c3 32 3d
       -0.0151149025 0.00079937704 -0.113648176 0.043643374
0002b0 c9 77 6a bd 48 77 59 3c d8 b1 36 bd 13 04 b5 bc
       -0.057243142 0.013273068 -0.0446032 -0.02209667
0002c0 9e 60 1b be 43 22 d0 3d 15 91 89 bc 68 73 54 bc
       -0.15173575 0.10162785 -0.016792813 -0.012966968
0002d0 ea 29 08 3e 08 88 f2 3d 1c ee 08 3e 87 7e 73 3d
       0.13297239 0.11842352 0.13372082 0.059446838
0002e0 da b4 c1 3c 83 4c f8 3c a7 bf 10 3e 70 3b 1f bc
       0.023645807 0.030309921 0.1413561 -0.009718761
0002f0 d1 19 f8 3c 9e e1 24 3c 4e 3d 6b 3d dd 84 f9 bd
       0.030285748 0.010063557 0.05743151 -0.12183545
000300 9b 53 9a 3d aa ae 85 3d 6e 9a b3 3d 81 ee 82 3e
       0.07535478 0.06527455 0.087696895 0.2557259
000310 1f 78 c1 3d da bc 19 bd a1 74 5b bd 83 6b 44 bd
       0.094467394 -0.03753362 -0.053578023 -0.047954094
000320 84 9d 99 bc 7d bc d3 3d aa 15 84 3d 4b 5f 9c 3e
       -0.018751867 0.10338686 0.064494446 0.30541453
000330 c5 b6 30 bd 7d 8f 03 be 3b c4 0d 3e fa eb e5 3c
       -0.043143053 -0.12847705 0.13844387 0.028066624
000340 d4 7d 93 3f 0e b2 c3 bb 4e 6b 18 bc d3 d1 22 3e
       1.1522775 -0.0059721535 -0.009302927 0.15900354
000350 11 60 3b 3f df 9d b7 bd e9 8f d8 bc 79 25 a5 bd
       0.7319346 -0.089656584 -0.02643581 -0.08063788
000360 29 d2 bc 3d 06 12 89 3c e2 91 16 3e d1 1e 0d 3e
       0.09219772 0.016732227 0.14704087 0.13781287
000370 69 10 1d 3e 4e 83 9d 3d c1 06 27 bd b4 00 1e 3f
       0.15338291 0.0769106 -0.040777925 0.6171982
000380 f3 a7 2f 3e d1 8a 54 3d 7d 73 09 be a1 26 1d 3e
       0.17153911 0.0518902 -0.13422962 0.15346767
000390 0a a9 4d 3d b4 1f 9f 3d ce 31 f9 3b 04 07 6c bd
       0.050210036 0.07769719 0.007604814 -0.057623878
0003a0 71 d3 03 3e 41 68 1c 3d a1 0c e1 bd 88 db f1 3b
       0.12873627 0.03818536 -0.10988737 0.0073809065
0003b0 36 5b e2 3d 40 7e 33 bd 80 f9 b6 3d 8b 03 cd bd
       0.11052553 -0.043821573 0.08934307 -0.100104414
0003c0 7a f2 83 3d 51 f9 b2 3d 86 96 31 3e ca eb 1f 3d
       0.06442733 0.087389596 0.17342576 0.039043225
0003d0 f2 7e ca 3d d2 70 01 3e 45 75 90 3d 8f 48 54 3e
       0.09887494 0.12640694 0.070536174 0.20730804
0003e0 25 22 1b 3c 03 f5 2d 3c 9f 9d 2e 3d d7 d1 2a 3e
       0.00946859 0.010617497 0.042630788 0.1668161
0003f0 ca 97 04 3e 7a df e4 3d 8a bc 01 3e 2c 6b d7 3d
       0.12948528 0.11175437 0.12669578 0.10518488
