models/20200923_212102/epoch_0600_loss_148057.52191.pt (torch, 857809 bytes, 96 tensors)

encoder.model.weight_ih_l0 f4 [256, 3]
0	0xbcee4408	-0.029085174
1	0x3d47033b	0.048587065
2	0xbd14825f	-0.036257144
3	0x3db6970d	0.089155294
4	0x3cd6d490	0.026224405
5	0x3d525117	0.051346865
6	0xbc1f2ee1	-0.009715767
7	0x3caeb552	0.021326695
8	0x3e33e1b1	0.17566563
9	0x3abe6c2b	0.0014528086
10	0x3e340292	0.17579105
11	0xbd8fa32e	-0.07013546
12	0x3d3aba31	0.045587722
13	0xbd2df17a	-0.042466618
14	0x3dce5974	0.100756556
15	0x3dc89384	0.097937614
16	0x3ea7062e	0.32621902
17	0xbc9431db	-0.01809018
18	0xbecd476b	-0.4009355
19	0xbcdc6c3a	-0.026907075
20	0x3c797e7d	0.015227911
21	0x3d3191bc	0.043351874
22	0x3d6c8f42	0.05775381
23	0x3df7eaa1	0.12105299
24	0xbdf529fa	-0.11970897
25	0x3cd1ffa7	0.0256346
26	0xbe5a848e	-0.21339628
27	0xbcf271d9	-0.029595302
28	0xbd47c645	-0.04877307
29	0x3d54650b	0.051854175
30	0xbdfed2ca	-0.124425486
31	0x3daf5c26	0.08562498
32	0x3ea74a0b	0.32673678
33	0xbd0d55da	-0.034505703
34	0xbd2246f2	-0.03961844
35	0xbe1fae57	-0.15593849
36	0xbce2f935	-0.027706722
37	0xbdddba3f	-0.10826539
38	0xbd5943ce	-0.05304318
39	0xbd9a0ab1	-0.075215705
40	0xbe555468	-0.2083298
41	0xbdd119c5	-0.10209993
42	0xbe3c6f15	-0.1840175
43	0xbd739277	-0.05946585
44	0x3dafe360	0.0858829
45	0xbd9f7604	-0.077861816
46	0x3d8952f2	0.06705274
47	0xbe05da94	-0.13071662
48	0xbbc30c8e	-0.0059524244
49	0x3d12498d	0.035714675
50	0xbe2dfccc	-0.16990966
51	0x3c54c112	0.012985485
52	0x3d3fafc4	0.046798483
53	0x3de21ddb	0.11040851
54	0xbe128c9a	-0.14311448
55	0x3c38c514	0.011277456
56	0x3c14f83e	0.009092389
57	0x3c207304	0.009793047
58	0xbe3204bc	-0.17384619
59	0xbbfcd50f	-0.0077158283
60	0xbdb09e94	-0.086239964
61	0xbe423af8	-0.18967807
62	0xbb63a554	-0.0034735994
63	0x3da4befc	0.0804424
64	0x3d9286cd	0.071546175
65	0x3d6aa8d1	0.057289902
66	0xbcb17161	-0.021660509
67	0xbeb47c0f	-0.352509
68	0x3c25ceb2	0.010120081
69	0x3d33a6bb	0.04386018
70	0xbb4a3aa2	-0.0030857702
71	0x3dd34a60	0.1031692
72	0x3e1220e9	0.14270367
73	0x3c92606b	0.017868241
74	0x3b1ed267	0.0024234296
75	0xbd8039c8	-0.06261021
76	0xbd0388f1	-0.03211302
77	0xbdd8c9a7	-0.10585337
78	0xbe93d719	-0.28875044
79	0xbe722fa7	-0.2365099
80	0xbde1f8de	-0.11033796
81	0x3c9cd1ac	0.019142948
82	0xbbd5dfd6	-0.0065269275
83	0x3c3f9ef9	0.011695617
84	0xbce3b4db	-0.0277962
85	0x3d13f8ce	0.03612595
86	0xbd120e4a	-0.03565816
87	0xbe7b122d	-0.24518652
88	0x3e351b2a	0.17686144
89	0x3c5e29b8	0.013559751
90	0xbe301d51	-0.17198683
91	0xb950571a	-0.00019868874
92	0xbc9ae5d9	-0.018908428
93	0xbe25fc61	-0.16209556
94	0xbd871ea5	-0.06597642
95	0x3cad2c2f	0.021139232
96	0xbe33dfe8	-0.17565882
97	0x3d43d9e3	0.047815215
98	0xbd8be4d5	-0.068307556
99	0xbdc2a5b5	-0.09504262
100	0x3e1bdd92	0.15221241
101	0x3d25b287	0.04045346
102	0x3d6e9639	0.058248732
103	0x3d33d8a1	0.043907765
104	0xbdbfcb6e	-0.09364973
105	0xbeb21bce	-0.34786838
106	0xbe9062d2	-0.28200394
107	0xbe72d2bc	-0.23713201
108	0xbaeb0f02	-0.001793355
109	0xbd4b8762	-0.049689658
110	0x3dae3cb5	0.08507673
111	0x3dcb5fc3	0.099303745
112	0x3d919cd2	0.07109989
113	0xbc3312f4	-0.010929812
114	0xbe9e47d4	-0.30914176
115	0xbdd68f1b	-0.10476514
116	0xbd6cbd3a	-0.057797648
117	0x3de02798	0.10945052
118	0xbdaaf23e	-0.08346985
119	0x3db48456	0.088143036
120	0xbdef0def	-0.116725795
121	0xbe4b4103	-0.19849019
122	0xbcee61c3	-0.02909935
123	0xbd0adde2	-0.03390301
124	0xbe38df79	-0.18053998
125	0xbcea9f34	-0.028640367
126	0x3c185fca	0.009300182
127	0x3e37c847	0.17947493
128	0x3ec55db5	0.38548055
129	0xbd6fea73	-0.058573198
130	0x3b96a7dd	0.0045976476
131	0xbe20c4f0	-0.15700126
132	0xbd8da02d	-0.06915317
133	0x3e4d680b	0.2005922
134	0xbd18fb98	-0.037349313
135	0x3ed6214d	0.4182228
136	0x3d3fbb39	0.04680941
137	0x3ed7acfa	0.42124158
138	0xbe3c7347	-0.1840335
139	0xbe75aeb0	-0.23992419
140	0xbe5349f8	-0.20633686
141	0xbdacd90b	-0.08439835
142	0xbdf5fc92	-0.120110646
143	0x3dbf557b	0.09342476
144	0xbe02a305	-0.127575
145	0x3e405415	0.18782075
146	0x3e068562	0.13136819
147	0xbd25cfea	-0.040481485
148	0x3e335c3c	0.17515653
149	0xbd27286f	-0.040810045
150	0x3ce027ca	0.027362723
151	0xbda3c9a6	-0.07997446
152	0xbde2f526	-0.110819146
153	0xbd555208	-0.052080184
154	0x3db4fd47	0.08837371
155	0x3e167b32	0.14695433
156	0xbcb38c33	-0.021917438
157	0xbdc08575	-0.09400455
158	0xbd0e6254	-0.03476174
159	0xbd3f1605	-0.04665186
160	0x3d103ad9	0.03521237
161	0xbc0fc3e9	-0.008774736
162	0xbe7fb602	-0.24971774
163	0xbd2c3c45	-0.042049665
164	0x3d9a9d5c	0.07549545
165	0xbcfb28b7	-0.030659063
166	0xbe2172fe	-0.15766522
167	0x3d0e80d0	0.034790814
168	0xbd0e2865	-0.034706492
169	0xbd3efa92	-0.04662568
170	0xbd98e712	-0.07465948
171	0xbde255fc	-0.110515565
172	0x3d92d02a	0.071686104
173	0xbe45e90b	-0.1932718
174	0x3d9c032e	0.07617794
175	0x3d1e624d	0.038667966
176	0x3dc42f30	0.09579313
177	0xbda45a62	-0.08025052
178	0x3dee1224	0.11624554
179	0x3df6f32b	0.12058099
180	0xbe9d87db	-0.30767712
181	0xbd7dc6e9	-0.061957274
182	0xbd93b423	-0.07212093
183	0x3ba20e5a	0.0049455585
184	0xbdda5ef1	-0.1066264
185	0x3da18ec8	0.078885615
186	0xbcbba170	-0.022904128
187	0x3d9ef046	0.07760672
188	0x3db3ba57	0.08775776
189	0x3e230472	0.15919665
190	0x3e278c53	0.16362123
191	0x3f08afdb	0.53393334
192	0xbd6874a7	-0.056751873
193	0xbe2bc0db	-0.16772787
194	0x3da754f9	0.08170504
195	0x3e01df18	0.1268276
196	0xbe1ad97e	-0.15122029
197	0x3de62f47	0.11239486
198	0xbea78f70	-0.32726622
199	0xbcdf6ea5	-0.02727444
200	0xbd461b3a	-0.04836581
201	0xbe0235a9	-0.12715782
202	0x3e0baebf	0.13640879
203	0xbd9cc610	-0.07654965
204	0xbe5e063b	-0.21682064
205	0xbe8ab9ff	-0.2709503
206	0x3dd89c66	0.10576706
207	0xbe1557ab	-0.14584224
208	0x3e33ee15	0.1757129
209	0x3ebbfbaa	0.36715442
210	0xbecb16fb	-0.3966597
211	0xbdc714fa	-0.09720798
212	0x3dcc7f68	0.09985238
213	0xbe925718	-0.28582072
214	0xbea2e721	-0.31816962
215	0xbe0c5ef0	-0.13708091
216	0xbd3155af	-0.043294605
217	0xbe81d73a	-0.25359517
218	0xbed94037	-0.42431805
219	0xbe82471f	-0.25444886
220	0x3e133ebc	0.143794
221	0xbd4a36c1	-0.049368624
222	0xbe5a7333	-0.21333008
223	0x3d3b1eb6	0.045683585
224	0x3e49b5e4	0.19698292
225	0x3de13e57	0.109982185
226	0xbe57d01b	-0.2107548
227	0xbd946b33	-0.07247009
228	0x3e154595	0.14577325
229	0xbd9bbbd5	-0.076041855
230	0xbd9d2266	-0.076725766
231	0xbdec2b64	-0.115317136
232	0xbe9b23b2	-0.3030067
233	0x3d33d9af	0.04390877
234	0xbe516765	-0.20449598
235	0xbe97a274	-0.2961613
236	0xbe385b8b	-0.18003671
237	0x3db4e517	0.08832758
238	0x3eb5ca81	0.3550606
239	0x3bb828a1	0.0056200777
240	0xbd9fab40	-0.07796335
241	0x3e522842	0.2052317
242	0x3d012836	0.03153249
243	0xbe2c2b55	-0.16813405
244	0xbe9868a2	-0.29767329
245	0xbb0853fe	-0.0020802016
246	0x3d775704	0.06038572
247	0xbdb5b4c1	-0.08872367
248	0xbc84d5f8	-0.01621531
249	0xbd23ac64	-0.039959326
250	0x3d3a380c	0.045463607
251	0xbdb8e228	-0.09027511
252	0x3cdf8e15	0.02728943
253	0xbdc2fc9c	-0.09520838
254	0x3cc615c1	0.024180295
255	0xbd7ba11a	-0.061432935

encoder.model.weight_hh_l0 f4 [256, 64]
0	0x3d8581e5	0.06518916
1	0xbd837450	-0.06418669
2	0x3e30648d	0.17225857
3	0x3e6fdbd9	0.23423709
4	0xbd8c3527	-0.068460755
5	0x3e9e6fcd	0.30944672
6	0xbe8285e3	-0.25492772
7	0x3da47baa	0.080313995
8	0x3ddb4c2d	0.10707889
9	0xbe46bc27	-0.19407712
10	0x3d6b7224	0.0574819
11	0xbe29c7dc	-0.16580147
12	0xbdbc01d9	-0.0918004
13	0xbbe4538c	-0.0069679674
14	0xbd504f93	-0.050857138
15	0xbd594e4f	-0.053053197
16	0xbcd720f8	-0.026260838
17	0x3bc4e5b6	0.006008829
18	0x3e41022c	0.18848485
19	0xbdb1ed57	-0.08687847
20	0xbda7976a	-0.08183177
21	0x3c92ecbf	0.017935155
22	0xbc6792b5	-0.014134099
23	0xbd3f571e	-0.04671394
24	0x3ddbf6c7	0.107404284
25	0x3d86bdc6	0.06579165
26	0xbc2070d9	-0.00979253
27	0xbe31f41a	-0.17378274
28	0x3eef1f79	0.467037
29	0xbd707411	-0.05870444
30	0x3c5b377b	0.013379927
31	0x3e21c935	0.1579941
32	0x3e924b4e	0.28573078
33	0xbe230b1e	-0.1592221
34	0x3c562611	0.013070599
35	0x3d1c1fd2	0.038116284
36	0xbd05c92b	-0.03266255
37	0x3ec7570a	0.38933593
38	0x3dbc6e07	0.092006736
39	0xbcdd6a72	-0.027028296
40	0x3dd98aff	0.106222145
41	0xbd4bf7e5	-0.049796958
42	0x3eac42d6	0.33644742
43	0xbe7a92f6	-0.24470124
44	0x3e5d2ed1	0.2159989
45	0xbe5dfb9f	-0.21678017
46	0xbc429be2	-0.011877986
47	0xbe7321dd	-0.23743387
48	0x3d5493da	0.051898815
49	0xbe747243	-0.23871712
50	0x3d93fde0	0.07226157
51	0xbd446713	-0.04794986
52	0x3decc16c	0.1156033
53	0x3e9e8385	0.30959716
54	0xbdabbfed	-0.08386216
55	0x3e184972	0.14871767
56	0xbddbc80f	-0.107315175
57	0x3d22dad8	0.039759487
58	0x3e84b340	0.25918007
59	0xbe456402	-0.19276431
60	0xbde2542f	-0.11051213
61	0xbd1c82f5	-0.038210828
62	0xbebdebf0	-0.3709407
63	0x3e5312a5	0.20612581
64	0xbe5272bb	-0.20551579
65	0xbe12eb0b	-0.14347474
66	0x3e4b1964	0.19833905
67	0x3e44f136	0.1923264
68	0x3deff01e	0.117157206
69	0x3e59fc4f	0.21287654
70	0xbdec5644	-0.11539891
71	0xbd44b4d5	-0.048024017
72	0x3bfc055f	0.00769107
73	0xbe417e7a	-0.18895903
74	0x3e1c784b	0.15280263
75	0xbdfb9837	-0.12284892
76	0x3d668fe3	0.056289565
77	0xbd60f278	-0.054918736
78	0xbdb1f5ec	-0.08689484
79	0xbd07c60d	-0.03314786
80	0xbd343d9f	-0.04400408
81	0xbe49cb41	-0.19706441
82	0xbb1d7cb1	-0.002403062
83	0xbde687cf	-0.11256372
84	0xbd7f3816	-0.062309347
85	0x3e18d7eb	0.14926116
86	0x3ca8e80c	0.020618461
87	0x3d0ad2fa	0.03389261
88	0x3e10a707	0.14126216
89	0xbcb344ed	-0.021883452
90	0xbd42955f	-0.047505733
91	0xbe34cda4	-0.1765657
92	0x3e670b9a	0.2256302
93	0xbe4c2a10	-0.1993792
94	0x3e22cc56	0.1589826
95	0xbe1c5f1e	-0.1527066
96	0x3e2d2ae6	0.16910896
97	0xbe1c73bd	-0.15278526
98	0xbe894483	-0.26810083
99	0xbdc6ac32	-0.097008124
100	0x3c0be691	0.008538858
101	0x3e803d9b	0.25047
102	0x3ddbed10	0.107385755
103	0xbd389b35	-0.045069892
104	0xbd9d5111	-0.07681478
105	0x3d8c5c8e	0.06853591
106	0x3d9af73f	0.0756669
107	0xbe6dd234	-0.23224717
108	0x3e45278c	0.19253367
109	0xbc208b47	-0.009798831
110	0xbd313efb	-0.043272953
111	0xbd85c583	-0.06531813
112	0x3d3158ac	0.043297455
113	0xbe336ce4	-0.17522007
114	0x3e3f157d	0.18660541
115	0x3e138a7a	0.14408293
116	0xbda1ac56	-0.078941986
117	0x3cd0aaa5	0.025471995
118	0xbe1c0b48	-0.15238678
119	0x3dcdf2a2	0.10056044
120	0xbd364f89	-0.044509444
121	0xbd81cc23	-0.06337764
122	0x3d16749e	0.03673231
123	0xbe07fa93	-0.1327918
124	0xbda1f89e	-0.07908748
125	0xbd1ff263	-0.039049517
126	0xbe37f26e	-0.17963573
127	0x3e6965ce	0.22792742
128	0x3d8e1e5a	0.06939383
129	0x3cda4997	0.026646418
130	0xbc304554	-0.010758717
131	0xbdbaf90a	-0.09129532
132	0xbc225b9e	-0.009909539
133	0xbd485c9f	-0.048916455
134	0xbe3bc2af	-0.18335985
135	0xbca93c39	-0.0206586
136	0xbce39750	-0.027782112
137	0x3dc20ad9	0.09474725
138	0xbe03f0dd	-0.12884851
139	0xbca566e9	-0.020190673
140	0xbe0709ae	-0.13187286
141	0xbd6518f1	-0.05593199
142	0xbd826524	-0.06366947
143	0xbd91d851	-0.07121337
144	0xbd9197b7	-0.071090154
145	0x3da8f05f	0.08248972
146	0xbd6bd96a	-0.05758039
147	0xbdbdbb4d	-0.092642404
148	0xbc009950	-0.007849053
149	0x3d87f82f	0.06639134
150	0x3d8b3476	0.067971155
151	0x3dbd967d	0.09257219
152	0xbdfd7221	-0.12375284
153	0x3dcfeb56	0.10152309
154	0x3dfff5ca	0.124980524
155	0xbddccb15	-0.10780922
156	0x3cadd193	0.021218097
157	0x3b07828b	0.0020677175
158	0xbe00c8c7	-0.1257659
159	0x3d6697b4	0.05629702
160	0x3cae9d5f	0.021315275
161	0xbdaa6ca5	-0.083215035
162	0xbc5ab7fc	-0.013349529
163	0x3dcc9e2d	0.09991107
164	0x3d9a3a51	0.07530654
165	0x3e15aa33	0.14615707
166	0xbe1bb905	-0.15207298
167	0xbe18db03	-0.14927296
168	0x3e10a65c	0.14125961
169	0xbdda8295	-0.10669438
170	0x3c0960e5	0.008384918
171	0xbbb39d09	-0.0054813665
172	0x3d8907b4	0.066909224
173	0x3d6c5706	0.05770018
174	0x3d9a1fc5	0.07525591
175	0xbe3edf78	-0.18639934
176	0xbc188695	-0.009309431
177	0xbddd8ad4	-0.10817495
178	0xbe0227bb	-0.12710468
179	0xbe0097c6	-0.12557897
180	0xbc8207e4	-0.015872903
181	0x3ddd7ef1	0.10815228
182	0xbe405040	-0.18780613
183	0x3c2cfa6a	0.01055775
184	0xbdbc57a3	-0.09196403
185	0xbb152b25	-0.0022761312
186	0x3e431a00	0.19052887
187	0x3b8ba307	0.0042613777
188	0xbda8c632	-0.08240928
189	0xbd12bf37	-0.035826888
190	0xbd1bbdfa	-0.038022973
191	0xbd8f1177	-0.06985753
192	0x3e19568a	0.14974418
193	0x3e3d1299	0.18464126
194	0x3de748aa	0.112931564
195	0xbd010062	-0.031494506
196	0xbc9778ee	-0.018490281
197	0xbd1098c4	-0.03530194
198	0xbd95fe5e	-0.07323907
199	0xbd893102	-0.066988006
200	0xbd014665	-0.031561274
201	0xbd876d65	-0.06612662
202	0xbcf3f897	-0.029781623
203	0xbe0c24fd	-0.13685985
204	0xbe274cb5	-0.16337855
205	0xbe1a0127	-0.15039502
206	0x3d8f993a	0.070116475
207	0x3d24abb0	0.040202796
208	0x3da0d882	0.078537956
209	0x3d8b521a	0.06802769
210	0x3e294c07	0.16532908
211	0xbd368f4e	-0.04457026
212	0xbd7d40d8	-0.061829418
213	0xbd9b5d43	-0.07586148
214	0xbe29a6ae	-0.1656749
215	0x3e1624d6	0.1466249
216	0x3cdee5f0	0.027209252
217	0x3c916c4c	0.017751835
218	0x3d4ec32d	0.050479103
219	0x3addad6f	0.0016912649
220	0x3d74bde8	0.05975142
221	0xbe174908	-0.14773953
222	0xbd8dd4b6	-0.06925337
223	0x3dcf090e	0.10109149
224	0xbd971bb2	-0.07378329
225	0xbdfc4abd	-0.12318943
226	0xbd7793bb	-0.06044362
227	0xbd9d5e3f	-0.07683992
228	0xbe018b1b	-0.12650721
229	0x3e3556c4	0.1770888
230	0x3c8db6bc	0.017299049
231	0x3d07c4bf	0.033146616
232	0x3e1a0aff	0.15043257
233	0x3c225620	0.009908229
234	0xbda88667	-0.0822876
235	0x3c617ff5	0.0137634175
236	0x3e3bd9d3	0.18344812
237	0x3d2bfffb	0.04199217
238	0x3da4d525	0.080484666
239	0xbdaea144	-0.08526853
240	0xbc3f4da9	-0.0116762305
241	0xbde18948	-0.110125124
242	0x3d5f1eec	0.05447285
243	0xbd6434ec	-0.055714533
244	0x3d922e7b	0.07137772
245	0x3dc5c39d	0.09656451
246	0xbcc92899	-0.024555491
247	0x3c90a256	0.017655533
248	0xbdd5a03d	-0.10430954
249	0xbda9d804	-0.08293155
250	0x3e3adf5c	0.18249267
251	0xbe2be771	-0.16787507
252	0xbe2f681c	-0.17129558
253	0x3a08bff6	0.00052165927
254	0xbc915a62	-0.017743293
255	0x3ddd4117	0.108034305

encoder.model.bias_ih_l0 f4 [256]
0	0x3d9c5913	0.07634177
1	0x3db6dcae	0.0892881
2	0x3a1ef0ae	0.0006063086
3	0x3d82c9aa	0.063861206
4	0x3e29c083	0.16577344
5	0x3e0f1ce5	0.13975866
6	0x3d617041	0.055038694
7	0x3e7db614	0.24776489
8	0x3e049f6a	0.12951437
9	0x3db33458	0.08750218
10	0x3eba8623	0.36430463
11	0x3e0c2f6e	0.13689968
12	0x3da10b69	0.078635044
13	0x3ddd71b0	0.108127
14	0x3e3d7e74	0.1850527
15	0xbd6ea5a9	-0.058263455
16	0x3db4d8d8	0.08830422
17	0x3e8077ce	0.25091404
18	0xbd5e1b2b	-0.05422513
19	0xbdb0d5af	-0.08634507
20	0x3d8ce2ef	0.06879222
21	0x3e24f481	0.16108896
22	0xb94822fd	-0.0001908652
23	0x3e61b39c	0.22041172
24	0x3c945d38	0.018110856
25	0x3dd4ce64	0.103909284
26	0xbd288783	-0.04114486
27	0x3d96dd5e	0.07366441
28	0x3de54437	0.111946516
29	0xbd45538e	-0.048175387
30	0x3da7ee7f	0.081997864
31	0x3e223858	0.15841806
32	0x3d9c51b7	0.07632773
33	0x3f0348d4	0.51283
34	0x3ea93ff2	0.330566
35	0xbca837e4	-0.020534463
36	0x3c9190b3	0.017769193
37	0xbcb41e39	-0.021987068
38	0x3dfab1d1	0.12240947
39	0x3dbcaf54	0.09213129
40	0x3d066c38	0.03281805
41	0x3da2b907	0.079454474
42	0x3dad43df	0.08460211
43	0xbdabcb43	-0.083883785
44	0xbd39998e	-0.045312457
45	0x3f0c211b	0.54738015
46	0x3cb9dc40	0.022688031
47	0x3d4aec43	0.049541723
48	0x3cc3f0f1	0.0239186
49	0x3a83afa1	0.0010046848
50	0x3d8def19	0.0693037
51	0x3c85f406	0.016351711
52	0xbd17d847	-0.037071493
53	0xbc183ef8	-0.009292357
54	0x3dd4d0a7	0.1039136
55	0x3de12c4b	0.10994776
56	0x3db49c92	0.08818926
57	0x3d9883d1	0.07447017
58	0x3d1608df	0.036629554
59	0x3dc9c18c	0.09851369
60	0x3d8fb5a8	0.0701707
61	0xbb4ff306	-0.0031730547
62	0x3ea53db0	0.32273626
63	0x3db1244c	0.08649501
64	0xbd62479a	-0.055244066
65	0x3d0ec9c4	0.034860387
66	0xbdd38d07	-0.10329633
67	0xbd9eeb6f	-0.07759749
68	0xbdc2cf60	-0.0951221
69	0xbd74d610	-0.05977446
70	0x3e15ee19	0.14641608
71	0xbda1de2f	-0.07903706
72	0xbdce5808	-0.100753844
73	0xbdb96625	-0.09052686
74	0xbd38fd29	-0.045163307
75	0x3cc35ec8	0.023848906
76	0xbdbcbc95	-0.09215657
77	0xbd066e47	-0.032820012
78	0xbd2996ae	-0.041403465
79	0xbc6c2fc8	-0.014415689
80	0x3bb94099	0.0056534526
81	0x3cef4c86	0.029211294
82	0x3bb69af5	0.0055726715
83	0xbdcb2c28	-0.099205315
84	0xbd32c06f	-0.04364055
85	0x3e449494	0.19197303
86	0xbd86c078	-0.06579679
87	0x3d72b27b	0.059252243
88	0x3dbfd853	0.093674324
89	0xbd773dfb	-0.060361844
90	0x3da018af	0.07817208
91	0x3dced3c6	0.10098986
92	0xbe0f3e99	-0.13988723
93	0x3dd8daae	0.10588585
94	0xbc54b110	-0.012981668
95	0x3c7851bb	0.015156205
96	0x3d6ee8ec	0.0583276
97	0xbdfaeb3c	-0.12251899
98	0x3d47a6ce	0.04874306
99	0x3ddaacc3	0.10677483
100	0xbdfcb725	-0.123396195
101	0xbdf56cd6	-0.119836494
102	0x3d9085ef	0.07056796
103	0x3e184620	0.148705
104	0x3d14d408	0.03633502
105	0x3c2da4f3	0.010598409
106	0x3ca4dda2	0.020125214
107	0x3e2a15de	0.16609904
108	0xbd60bc38	-0.054867
109	0x3cacd4a2	0.021097485
110	0x3dfae3ea	0.122505024
111	0xbdaf7611	-0.08567441
112	0xbdd2b164	-0.10287741
113	0xbd997f21	-0.07494951
114	0xbe17c1f2	-0.14820078
115	0x3c115906	0.0088713225
116	0x3d5730ea	0.052536882
117	0xbcfb3af4	-0.03066776
118	0xbdbc34dd	-0.0918977
119	0x3ddcbbca	0.107780054
120	0x3c871338	0.016488656
121	0xbe4dbfc3	-0.20092683
122	0xbd37662e	-0.04477518
123	0xbdcadbe1	-0.0990522
124	0xbda5f914	-0.081041485
125	0xbd08209f	-0.033234235
126	0xbcd896e5	-0.02643914
127	0x3d9278a9	0.0715192
128	0x3c98b209	0.018639581
129	0x3d6e172c	0.058127567
130	0xbdfb23be	-0.12262677
131	0xbe05b175	-0.13055976
132	0xbd823e9e	-0.063595995
133	0x3ce8fe1e	0.028441485
134	0x3b416d9a	0.002951479
135	0xbd99a817	-0.07502764
136	0x3cfb7695	0.030696193
137	0x3ceca026	0.028884958
138	0xbd809b3d	-0.06279609
139	0xbe0c7492	-0.13716343
140	0x3d660b30	0.056163013
141	0xbc880b42	-0.01660693
142	0x3dee3b6a	0.11632426
143	0x3d765785	0.06014206
144	0xbcbf60b3	-0.02336154
145	0x3db80384	0.089850456
146	0xbd7159f4	-0.058923677
147	0x3d9751ec	0.07388672
148	0xbd0f4a09	-0.034982715
149	0xbda40fec	-0.08010849
150	0xbda88372	-0.08228196
151	0x3d967a14	0.07347503
152	0xbd95cc42	-0.0731435
153	0x3d960338	0.07324833
154	0x3d56342a	0.05229584
155	0xbdd4ced0	-0.10391009
156	0x3d22e6fa	0.039771058
157	0x3c78dc6b	0.0151892705
158	0xbda85271	-0.082188495
159	0x3e095300	0.13410568
160	0x3d216a4a	0.039408006
161	0x3c78a2b4	0.01517551
162	0x3dc672f2	0.09689893
163	0x3deea8df	0.11653303
164	0xbc085109	-0.008320102
165	0xbd22a58d	-0.039708663
166	0x3e0041ea	0.12525144
167	0xbe0e3dad	-0.13890715
168	0x3d257f88	0.040404826
169	0xbddb7fa8	-0.10717708
170	0xbd9e8c02	-0.07741548
171	0x3db03547	0.08603912
172	0x3dc87fd5	0.09790007
173	0x3d9328c4	0.0718551
174	0xbc97b6d8	-0.018519804
175	0xbe03d6d9	-0.12874927
176	0x3dd2e429	0.10297424
177	0xbe199df4	-0.1500166
178	0xbdbf7adc	-0.093496054
179	0xbc89c2cd	-0.016816521
180	0x3e456103	0.19275288
181	0xbb79fa83	-0.0038143701
182	0x3c2145fe	0.009843348
183	0x3e10a3e7	0.14125024
184	0xbc5e3079	-0.0135613615
185	0x3e0e8c77	0.1392077
186	0x3dbf3bc2	0.0933757
187	0x3d3fb5d4	0.046804264
188	0xbd30504e	-0.043045335
189	0x3b9bb834	0.0047521833
190	0xbd1d8a57	-0.03846201
191	0xbd044853	-0.032295536
192	0x3e0c3121	0.13690616
193	0x3e02ed0e	0.12785742
194	0xbd03ccf9	-0.0321779
195	0x3c74dcf2	0.014945256
196	0x3e2385c2	0.15968993
197	0x3dff523d	0.124668576
198	0xbbb70be5	-0.0055861347
199	0x3dcd2420	0.10016656
200	0x3ce3bdfe	0.027800556
201	0x3e8cbddc	0.274886
202	0x3eb17aa0	0.34663868
203	0x3deee341	0.11664439
204	0x3e05ef98	0.13079679
205	0xbcdf1fdf	-0.027236877
206	0x3e00e011	0.12585475
207	0x3e401557	0.1875814
208	0x3ddbdfdf	0.107360594
209	0x3e3249c8	0.17410958
210	0xbd473cfe	-0.04864215
211	0xbd4ba910	-0.049721777
212	0x3e31b44b	0.17353933
213	0x3bbc2216	0.005741368
214	0x3d4c8a3f	0.04993653
215	0x3dd8a180	0.10577679
216	0x3e42435d	0.1897101
217	0xbd4ddd50	-0.05025989
218	0xbd4f3260	-0.05058515
219	0x3ddc5ebb	0.10760256
220	0xbe04ac89	-0.12956442
221	0x3cbdf5f9	0.023188578
222	0x3e1f4154	0.15552264
223	0x3d21a067	0.039459612
224	0x3d050477	0.03247496
225	0x3ea1dd1f	0.31614015
226	0x3dedae3a	0.11605497
227	0x3d9fcc87	0.07802682
228	0x3e04b6db	0.12960379
229	0x3dcc87bb	0.09986826
230	0xbd4f7300	-0.050646782
231	0x3da0773a	0.07835241
232	0xbc8c7ebc	-0.017150275
233	0xbd0980b8	-0.03357002
234	0x3e18592d	0.14877768
235	0x3e0dba6f	0.1384065
236	0xbca9114a	-0.020638127
237	0x3f194b76	0.5988077
238	0x3c0086e1	0.007844658
239	0x3d20c79e	0.03925287
240	0xbc38b8bd	-0.011274514
241	0x3d87a6a4	0.06623581
242	0x3d8c3213	0.068454884
243	0x3e23f310	0.1601069
244	0x3dbeb7e2	0.093124166
245	0xbd7ea7d5	-0.062171776
246	0x3e27086a	0.16311803
247	0xbb88962a	-0.0041682916
248	0x3da747ab	0.081679665
249	0x3d5395f1	0.051656667
250	0x3ce61777	0.02808736
251	0x3e2eec24	0.17082268
252	0xbd969d05	-0.07354168
253	0x3d7d0456	0.061771713
254	0x3dd83f8b	0.10558995
255	0x3e4bf79a	0.19918671

encoder.model.bias_hh_l0 f4 [256]
0	0x3db3891e	0.087663874
1	0xbc5ef4a8	-0.013608135
2	0x3e1f1ef4	0.15539151
3	0x3dcc132d	0.09964595
4	0x3ea1ece4	0.31626046
5	0xb9f75d82	-0.0004718118
6	0xbd94c50f	-0.072641484
7	0x3e911726	0.28337973
8	0x3e6e97d3	0.23300104
9	0x3e3def3c	0.18548292
10	0x3e4de3a3	0.20106368
11	0x3cea9ee5	0.02864022
12	0x3dc8e43b	0.098091565
13	0x3dbe78cb	0.09300383
14	0x3dcbf295	0.09958378
15	0xbc22fed7	-0.009948454
16	0x3cc5bb68	0.024137214
17	0x3dd53b2c	0.10411677
18	0x3dd8f42c	0.10593447
19	0xbd9e46a1	-0.07728315
20	0x3d036eb4	0.032087997
21	0x3b5c4701	0.0033611658
22	0xbd22878c	-0.03968005
23	0x3e2bcb3c	0.16776747
24	0x3e0e9d59	0.13927211
25	0xbd602895	-0.054726202
26	0x3dbeba81	0.093129165
27	0x3d80abed	0.06282792
28	0x3db82ccf	0.089929216
29	0xbdcb7827	-0.099350266
30	0x3e10b0d8	0.1412996
31	0x3de48bfa	0.11159511
32	0xbdddcea2	-0.10830428
33	0x3eb933fa	0.36172467
34	0x3e8e04a3	0.27737913
35	0x3ce91aab	0.0284551
36	0x3d86fecf	0.0659157
37	0x3e0e8066	0.13916168
38	0x3e0d3724	0.13790566
39	0x3de509fe	0.111835465
40	0x3d97c732	0.0741104
41	0x3d828d96	0.063746616
42	0x3d5b72b2	0.05357618
43	0xbd491371	-0.049090806
44	0xbd909665	-0.070599355
45	0x3f13f8c6	0.57801473
46	0x3cd733f4	0.02626989
47	0x3dd7c3aa	0.10535367
48	0xbcfe791b	-0.031063607
49	0x3e28387c	0.16427797
50	0x3e369fa0	0.1783433
51	0x3e477273	0.19477253
52	0x3cf5fcbf	0.030027745
53	0x3e001647	0.12508498
54	0x3d6aab6f	0.057292398
55	0x3d39a51b	0.045323472
56	0x3e0bef83	0.13665585
57	0x3d8ffaa1	0.070302255
58	0x3e030567	0.1279503
59	0x3d8c53ff	0.068519585
60	0xbd3988d3	-0.0452965
61	0x3e2cd8d2	0.16879585
62	0x3e0c361b	0.13692515
63	0x3e8dd851	0.277041
64	0x3da11b5d	0.07866547
65	0x3d130b75	0.0358996
66	0xbd4188bd	-0.047249544
67	0x3da96e43	0.08272984
68	0xbd71c18f	-0.059022482
69	0xbc09b074	-0.008403886
70	0x3e17deee	0.14831135
71	0x3bc0ac9c	0.0058799516
72	0xbde91da9	-0.1138261
73	0xbe093a4a	-0.13401142
74	0x3d693c5c	0.05694233
75	0x3dc42f06	0.095792815
76	0x3e0124b9	0.12611665
77	0x3de13fff	0.109985344
78	0x3de85498	0.1134426
79	0xb9c27689	-0.0003709088
80	0x3db50e07	0.08840566
81	0xbd878b71	-0.06618393
82	0x3bd5ef8e	0.0065288013
83	0xbc966cf0	-0.018362492
84	0xbd8efdad	-0.069819786
85	0x3df6888d	0.12037764
86	0xbdc4a1d2	-0.09601177
87	0xbd416cd4	-0.047222927
88	0xbc8d7e52	-0.017272148
89	0xbc975655	-0.018473784
90	0x3df33bfa	0.11876674
91	0x3ca30bf6	0.019903164
92	0xbd165e8a	-0.036711253
93	0x3db3cc88	0.087792456
94	0x3d2ddc8c	0.042446658
95	0x3d3df8d7	0.04637989
96	0x3d0bfe7f	0.034178253
97	0x3cf73366	0.030175876
98	0xbcf05d11	-0.029341253
99	0xbd29850a	-0.04138664
100	0xbda460ab	-0.080262505
101	0xbcb479b2	-0.022030685
102	0xbc96678f	-0.018359927
103	0x3da6ee17	0.08150881
104	0x3c104a02	0.008806707
105	0x3d697a51	0.057001416
106	0x3e08e08d	0.1336691
107	0x3d0e6b07	0.034770038
108	0x3e04bff2	0.12963846
109	0xbdd2d099	-0.10293693
110	0x3d9136f8	0.070905626
111	0xbd30b75d	-0.04314362
112	0x3d3eb02e	0.046554737
113	0x3d52d211	0.051469866
114	0x3c2f99e9	0.010717847
115	0x3d507993	0.050897192
116	0x3e038cd5	0.12846692
117	0xbdccc555	-0.099985756
118	0xbe093478	-0.13398921
119	0x3d93fdd6	0.0722615
120	0xbca935bd	-0.020655507
121	0xbdec91b0	-0.11551225
122	0x3d630f0f	0.055434283
123	0x3df014e0	0.117227316
124	0x3d1886fb	0.037238102
125	0x3d7b37e1	0.061332587
126	0xbd032398	-0.032016367
127	0x3d63b47c	0.055592045
128	0x3e20a1c4	0.15686709
129	0xbd8d6a89	-0.069050856
130	0xbd9b855c	-0.07593796
131	0x3d59e527	0.053197052
132	0xbda2822a	-0.07934983
133	0x3dce5fdb	0.10076877
134	0xbe110c65	-0.14164884
135	0xbdb47515	-0.08811394
136	0x3c5d5efe	0.013511417
137	0x3d0a2112	0.033722945
138	0xbdf48238	-0.119389
139	0xbd78c6fd	-0.060736645
140	0xbd8b6919	-0.06807155
141	0xbdba5ef4	-0.09100142
142	0x3e15e2bf	0.14637278
143	0xbdaea5f7	-0.08527749
144	0xbd84d040	-0.06485033
145	0x3df72397	0.12067335
146	0xbc93d96d	-0.018048013
147	0xbdcad1ec	-0.09903321
148	0xbd87a469	-0.066231556
149	0x3de89564	0.11356619
150	0xbd2aa092	-0.041657038
151	0x3d1849ff	0.037179943
152	0x3d8ef3af	0.06980073
153	0x3df36e50	0.11886275
154	0x3dc8be04	0.098018676
155	0x3cdd4d70	0.027014464
156	0xbdf95bdb	-0.12175723
157	0xbdf2de19	-0.11858768
158	0xbcb7dcc5	-0.022444138
159	0xbd978874	-0.07399073
160	0x3dc25083	0.09488013
161	0xbe023a2a	-0.127175
162	0x3d9b7ca8	0.07592136
163	0xbc9c8be0	-0.019109666
164	0x3c948579	0.018130051
165	0x3ca2d874	0.019878604
166	0xbdc13ddc	-0.09435627
167	0xbdaf82f3	-0.085698985
168	0x3c487d4d	0.012236905
169	0x3c9d0297	0.019166274
170	0xbaf22889	-0.0018475215
171	0xbd9f6c79	-0.077843614
172	0x3d5bbbd1	0.053645913
173	0xbd16ddf4	-0.036832765
174	0x3d484ff9	0.048904393
175	0xbd68e5fd	-0.05685996
176	0x3e0633ae	0.13105652
177	0xbe1882c7	-0.14893638
178	0x3cb78118	0.022400424
179	0xbdde5d5c	-0.10857651
180	0xbd4cda4a	-0.050012864
181	0x3ccae60c	0.024767898
182	0x3ccedc8b	0.025251647
183	0x3d5a4710	0.053290427
184	0xbc41cb0d	-0.011828196
185	0x3c5cc562	0.013474794
186	0x3dad4017	0.0845949
187	0xbd9e2da6	-0.077235505
188	0xbd9a78c9	-0.07542569
189	0x3db08407	0.08618932
190	0x3d82c6cc	0.06385574
191	0x3d66109f	0.056168195
192	0x3e73f1f5	0.23822768
193	0x3d264bdc	0.04059969
194	0x3cce26fc	0.025165074
195	0x3e3036b1	0.17208363
196	0x3e9e3ed9	0.30907324
197	0x3dd2318b	0.10263356
198	0x3de63af1	0.11241711
199	0x3e5b832f	0.21436761
200	0x3d56500d	0.052322436
201	0x3de29797	0.1106407
202	0x3e444857	0.1916822
203	0xbd8eff5c	-0.069823
204	0x3bf52da6	0.0074822484
205	0xbddf4fcb	-0.10903891
206	0x3e199caa	0.15001169
207	0x3d58cf74	0.052932218
208	0xbcf4de8e	-0.029891279
209	0x3d8fe3ed	0.07025895
210	0x3db6b56e	0.08921324
211	0x3d6b3715	0.057425577
212	0xbd6719a4	-0.056420937
213	0x3dc7d082	0.097565666
214	0x3d8ff04f	0.07028257
215	0x3dee38b6	0.116319105
216	0x3e6ecf05	0.23321159
217	0x3c31fe7e	0.010863898
218	0xbd2622a0	-0.040560365
219	0x3d95dc23	0.07317378
220	0xbd26d084	-0.0407262
221	0xbc74026e	-0.014893157
222	0x3e43b52e	0.19112083
223	0x3e0521b4	0.13001138
224	0xbaa69d44	-0.0012711664
225	0x3ef7f74a	0.48430854
226	0x3e96fe05	0.29490677
227	0xbd0a7e9b	-0.033812147
228	0x3cdaf3d8	0.026727602
229	0x3d14698d	0.036233474
230	0x3e17b378	0.14814556
231	0xbcb6618c	-0.02226331
232	0x3e09d4d6	0.13460097
233	0x3db71b3a	0.0894074
234	0x3e16724d	0.1469204
235	0x3ded00dd	0.1157243
236	0xbcedae7e	-0.029013868
237	0x3eed1b76	0.46310014
238	0x3dc7ba4e	0.09752332
239	0xbd9510ad	-0.07278571
240	0x3d894b32	0.067037955
241	0xbd150f61	-0.03639162
242	0x3dab303a	0.08358808
243	0x3e399c5d	0.18126054
244	0x3dad6428	0.08466369
245	0x3db6a020	0.0891726
246	0x3dacecdf	0.08443617
247	0x3decd3cd	0.11563835
248	0x3db66eaa	0.08907826
249	0x3d3bb01e	0.045822255
250	0x3ad44fa2	0.0016198049
251	0xbc82e63a	-0.015978921
252	0x3bc0b450	0.00588087
253	0x3d3e79ec	0.046502993
254	0x3e49046f	0.19630598
255	0x3db1b763	0.08677556

encoder.model.weight_ih_l1 f4 [256, 64]
0	0xbd4ae316	-0.049532972
1	0xbddaa431	-0.10675848
2	0xbe0651b1	-0.131171
3	0xbd511b10	-0.0510512
4	0xbdd5bb43	-0.10436108
5	0xbd7cc250	-0.06170875
6	0xbd2b5444	-0.04182841
7	0x3d70554a	0.058675088
8	0x3dddfb29	0.108389206
9	0xbcc35aba	-0.023846973
10	0xbdd639a7	-0.10460215
11	0x3d076ef4	0.033064798
12	0x3ba1a69d	0.004933192
13	0x3d202de1	0.039106254
14	0x3e3071b2	0.17230871
15	0xbe42c564	-0.19020611
16	0xbe38ff61	-0.1806617
17	0x3d86494d	0.0655695
18	0xbc686385	-0.014183884
19	0xbd82c76f	-0.06385695
20	0x3cdc4a48	0.026890889
21	0xbe09d971	-0.13461854
22	0xbe53f882	-0.20700267
23	0xbd136271	-0.035982553
24	0x3cc89749	0.0244862
25	0x3e079609	0.13240828
26	0xbd9313f8	-0.07181543
27	0xbd5c0fbe	-0.05372595
28	0xbd2959cc	-0.041345403
29	0x3c58b70f	0.013227238
30	0xbbf46de4	-0.007459389
31	0x3d31d952	0.043420143
32	0x3d1db9e4	0.038507357
33	0x3d5d36e0	0.05400741
34	0x3a53b475	0.00080759014
35	0x3e16fb61	0.14744331
36	0x3e28296b	0.1642205
37	0x3e0ac75d	0.13552614
38	0x3c20a8f9	0.009805911
39	0xbe054e69	-0.13018192
40	0x3c49f223	0.012325796
41	0xbcd52cef	-0.026022403
42	0xbd8a23a2	-0.06745078
43	0xbdf6adf0	-0.12044895
44	0x3c81b1db	0.015831878
45	0x3d16f6e4	0.036856547
46	0xbd0a0b96	-0.033702455
47	0xbc2ce080	-0.010551572
48	0x3d01b44c	0.031666085
49	0xbe1f0437	-0.15528952
50	0x3c8b1e9f	0.016982375
51	0xbd4251a5	-0.047441144
52	0x3d54cf29	0.051955376
53	0xbc857cc1	-0.016294839
54	0x3cd00ad5	0.02539579
55	0x3e0600ac	0.13086194
56	0xb8fed102	-0.000121505946
57	0x3dcc1d80	0.09966564
58	0x3e236b46	0.1595889
59	0xbe1af9a4	-0.15134293
60	0xbd84f8af	-0.06492745
61	0x3e48d1e2	0.19611314
62	0xbd3ece38	-0.046583384
63	0xbd5a4c4d	-0.053295422
64	0x3d2a6597	0.04160079
65	0x3daac5e6	0.083385274
66	0xbda18a3d	-0.07887695
67	0xbe277100	-0.163517
68	0xbcbe9ac0	-0.02326715
69	0xbc9fdf59	-0.01951568
70	0xbdbe1eb5	-0.09283201
71	0x3c871f8c	0.016494535
72	0x3de026f2	0.10944928
73	0xbd2529f5	-0.040323216
74	0xbd9a9180	-0.07547283
75	0xbddc9758	-0.10771054
76	0xbd12244a	-0.03567914
77	0xbdfe073d	-0.12403724
78	0x3c650480	0.013978124
79	0xbbf8ee97	-0.0075968015
80	0xbb8b9f9c	-0.0042609703
81	0x3cf061c7	0.029343499
82	0x3d8cee16	0.06881349
83	0xbd9a147c	-0.07523438
84	0xbd3acf2d	-0.045607734
85	0xbe0c298a	-0.13687721
86	0xbe240b6d	-0.16019984
87	0xbd51b22e	-0.051195316
88	0xbcb8c1b7	-0.022553308
89	0xbc84fdcc	-0.016234301
90	0xbd45c38b	-0.048282187
91	0xbd61060e	-0.054937415
92	0xbd16bb3f	-0.036799666
93	0xbd298046	-0.041382097
94	0xbe4753dd	-0.19465585
95	0x3e2a1975	0.16611274
96	0x3db78066	0.08960037
97	0x3d7fa531	0.0624134
98	0x3d7b3800	0.061332703
99	0xbd5b51ca	-0.053544797
100	0xbde68beb	-0.11257156
101	0x3c6957aa	0.014242092
102	0xbe593f9e	-0.21215674
103	0xbe176749	-0.14785494
104	0x3dd25b25	0.10271291
105	0x3cde060e	0.027102496
106	0xbd3af09c	-0.04563962
107	0x3be0e03e	0.0068626693
108	0xbd94c897	-0.07264822
109	0x3dc38b98	0.0954811
110	0x3e2840b7	0.16430937
111	0xbe1c95e8	-0.1529156
112	0x3e0fb1e7	0.14032708
113	0x3da4b5e3	0.08042505
114	0xbe265dfd	-0.16246791
115	0xbd652521	-0.055943612
116	0x3d98e96e	0.07466398
117	0xbe13a7f1	-0.14419533
118	0xbe0ac523	-0.13551764
119	0x3da2b026	0.07943754
120	0x3c99b591	0.018763335
121	0x3d32ef58	0.043685287
122	0x3d8615e9	0.06547148
123	0xbd81bb4f	-0.063345544
124	0x3c84c709	0.016208189
125	0x3dfe12dc	0.12405941
126	0xbdbef0e3	-0.09323289
127	0xbd92804e	-0.071533784
128	0x3ef47d29	0.4775174
129	0xbe0750e2	-0.13214448
130	0xbd84f400	-0.06491852
131	0xbdb44c19	-0.08803577
132	0xbe2ab61c	-0.16671032
133	0xbd2df0e7	-0.04246607
134	0x3ce1e63c	0.027575605
135	0xbdf950ad	-0.12173591
136	0x3aec020a	0.0018005979
137	0x3e05ecd5	0.13078626
138	0xbdba61bb	-0.09100672
139	0xbdf50cb6	-0.11965315
140	0xbd25a2cc	-0.04043846
141	0xbafb54db	-0.0019175069
142	0x3dc383d6	0.0954663
143	0x3dff247a	0.12458129
144	0x3be60191	0.0070192297
145	0x3e62161e	0.2207875
146	0xbe1a12b1	-0.15046193
147	0xbca5ac73	-0.020223832
148	0xbd354dc8	-0.04426363
149	0x3df6c88e	0.120499715
150	0x3b1caedb	0.0023907933
151	0x3de0bdf0	0.10973728
152	0xbc605c7f	-0.013693928
153	0x3e0e3696	0.1388801
154	0x3db8c952	0.09022774
155	0x3d0981d1	0.03357107
156	0x3da0cdc0	0.07851744
157	0xbdfe1416	-0.12406175
158	0xbe8f14d5	-0.2794558
159	0x3d154430	0.03644198
160	0x3d1ac791	0.037787978
161	0xbe2656d0	-0.16244054
162	0x3ec03552	0.3754068
163	0x3d92f352	0.07175316
164	0xbd27ce5c	-0.040968284
165	0xbc6c8ce5	-0.014437889
166	0xbe2993eb	-0.16560332
167	0xbd7c47ab	-0.061591785
168	0xbd9c4be1	-0.0763166
169	0xbd894642	-0.06702854
170	0xbe339be9	-0.17539944
171	0xbe4c8aea	-0.19974867
172	0x3d89817e	0.06714152
173	0x3e79557c	0.24349016
174	0x3cb8a1e7	0.022538139
175	0x3d24db51	0.04024822
176	0x3dd3474d	0.10316334
177	0xbd0fc15f	-0.035096522
178	0xbd99aee9	-0.075040646
179	0xbe03c3b7	-0.12867628
180	0x3d4bbfb8	0.049743384
181	0xbcd6e742	-0.02623332
182	0xbdabdb2a	-0.083914116
183	0x39f38d92	0.0004645405
184	0xbd0f3e5e	-0.034971587
185	0x3e2b7f40	0.16747761
186	0xbe1b9d3b	-0.15196697
187	0xbb8bdac4	-0.0042680223
188	0x3dc95b4a	0.09831865
189	0x3e7ec94c	0.24881476
190	0xbdb6bcf6	-0.0892276
191	0xbe4cd022	-0.20001271
192	0x3cdd7c26	0.027036738
193	0xbe1a5c27	-0.15074216
194	0xbb877792	-0.004134127
195	0xbdf826a3	-0.12116744
196	0xbe3c168c	-0.18367976
197	0xbd6d0f25	-0.05787577
198	0xbd88f118	-0.0668661
199	0xbe8043de	-0.2505178
200	0xbb4f4e95	-0.0031632532
201	0x3e199ee8	0.15002024
202	0xbe20a2a3	-0.15687041
203	0xbe2a0a98	-0.16605604
204	0xbdc4a604	-0.096019775
205	0xbe03e822	-0.1288152
206	0x3e60e796	0.21963343
207	0xbe8933c0	-0.26797295
208	0xbe4c663d	-0.19960876
209	0x3e6e5512	0.23274639
210	0xbca10e0b	-0.019660017
211	0xbe856ee8	-0.26061177
212	0xbdcf9355	-0.10135523
213	0xbe15b5bf	-0.14620112
214	0xbe12f49c	-0.14351124
215	0x3dcad094	0.09903064
216	0xbe151c2b	-0.14561526
217	0x3e0b5c58	0.13609445
218	0x3e8fbbe3	0.28073034
219	0x3e01eb96	0.12687525
220	0xbd02c0fd	-0.03192233
221	0x3daf89ae	0.08571182
222	0xbe850d7d	-0.25986853
223	0x3e57d267	0.21076356
224	0x3d89af88	0.06722933
225	0x3dafbff3	0.08581533
226	0x3e4243fb	0.18971245
227	0x3d08cac5	0.0333965
228	0x3cc2eec0	0.023795485
229	0x3de8ef13	0.11373725
230	0xbc70e645	-0.014703338
231	0xbe82e0ec	-0.25562227
232	0x3b05856f	0.0020373722
233	0xbe62adf4	-0.2213667
234	0xbe1243b5	-0.1428364
235	0x3e218496	0.15773234
236	0x3e5c900f	0.21539329
237	0x3e390339	0.18067636
238	0xb984fab5	-0.00025363793
239	0xbe295b9c	-0.16538852
240	0x3d5248cb	0.051338952
241	0xbe603663	-0.21895747
242	0xbe039e48	-0.12853348
243	0xbdd87259	-0.10568685
244	0x3e6d6af6	0.23185334
245	0xbc8fcfc3	-0.017555123
246	0x3bd11558	0.006380718
247	0x3e573bff	0.2101898
248	0xbe8a9d06	-0.27072924
249	0x3dfe3560	0.12412524
250	0x3d19822d	0.03747766
251	0x3d989b61	0.07451511
252	0xbd9a6366	-0.0753849
253	0x3d624ea9	0.055250797
254	0xbd2212a7	-0.03956857
255	0xbbb341f3	-0.0054705082

encoder.model.weight_hh_l1 f4 [256, 64]
0	0x3d1bbd1d	0.03802215
1	0x3e2abde4	0.16674
2	0x3c412b44	0.0117901005
3	0x3d3e6873	0.04648633
4	0x3de3b6bc	0.11118838
5	0xbd1c52b0	-0.038164794
6	0xbdfcab44	-0.12337354
7	0xbe427bdf	-0.18992566
8	0x3c35b5df	0.011090725
9	0xbd8196fd	-0.06327627
10	0x3e14e073	0.14538746
11	0xbdc889be	-0.09791897
12	0xbc3889b5	-0.011263301
13	0x3c459ffe	0.012062071
14	0x3d8813b5	0.06644384
15	0xbe2022e3	-0.15638308
16	0xbe2744bf	-0.16334818
17	0xbc5e7c2b	-0.013579409
18	0x3d39869f	0.0452944
19	0xbce0ea04	-0.027455337
20	0x3d92b27d	0.0716295
21	0x3d86b589	0.06577594
22	0x3ae3096e	0.0017321536
23	0xbdaf870b	-0.08570679
24	0xbd2790a0	-0.04090941
25	0xbd7a6517	-0.061131563
26	0x3e1149ab	0.14188258
27	0xbd5e7aa7	-0.05431619
28	0x3d99edc5	0.07516054
29	0x3e460a63	0.193399
30	0xbdee54ac	-0.11637244
31	0x3c9aea3a	0.018910516
32	0x3d7225dc	0.059118137
33	0x3cf3994c	0.029736184
34	0x3d568045	0.05236842
35	0x3d9a08bf	0.075211994
36	0xbd22edc3	-0.03977753
37	0xbd350290	-0.044191897
38	0x3da9808a	0.0827647
39	0x3d0eeee4	0.034895793
40	0xbd33b699	-0.04387531
41	0xbd9c377e	-0.07627772
42	0xbd184fda	-0.037185527
43	0x3cb15d1e	0.021650847
44	0x3dc4cf92	0.096099034
45	0x3b6ca3f3	0.0036108464
46	0x3d0f98aa	0.0350577
47	0x3ce17d8d	0.027525688
48	0xbe2cf6d7	-0.16891037
49	0x3d239627	0.03993812
50	0x3dd1064b	0.102062784
51	0x3d1c3406	0.03813555
52	0x3aeb9a8d	0.0017975137
53	0x3d4f24e2	0.050572284
54	0x3dec7c68	0.11547166
55	0xbc890601	-0.016726496
56	0x3d8d580a	0.06901558
57	0xbc444676	-0.01197969
58	0x3d6d471c	0.057929143
59	0xbcb312da	-0.021859575
60	0x3dbc7651	0.092022546
61	0xbca4a0fc	-0.020096295
62	0x3d111d9f	0.03542864
63	0xbc345d92	-0.011008637
64	0x3de7810d	0.11303911
65	0xbccb147e	-0.024790045
66	0xbdc5bfe6	-0.09655742
67	0xbc904d62	-0.017615024
68	0xbe0ac842	-0.13552955
69	0xbe33fe96	-0.17577586
70	0x3d4c5137	0.04988214
71	0x3d06445a	0.03278003
72	0xbd60f885	-0.054924507
73	0xbe24bae1	-0.16086914
74	0x3ce26ef2	0.027640793
75	0x3daa6978	0.08320898
76	0xbda3fbe8	-0.08007032
77	0xbe08571f	-0.13314484
78	0x3e40d0c2	0.18829635
79	0x3dd5f61e	0.10447334
80	0xbde8041d	-0.113289095
81	0xbc5288e0	-0.012850016
82	0x3e16db0e	0.14732
83	0xbdb5d14d	-0.088778116
84	0xbdb125a9	-0.08649761
85	0xbd6328a7	-0.05545869
86	0x3dd3e7b9	0.10346932
87	0xbd9240b3	-0.07141247
88	0xbdc60f0d	-0.096708395
89	0xbd91ec9d	-0.071252085
90	0x3c4a89ba	0.012361938
91	0xbd9e355f	-0.077250235
92	0x3eb2b1d6	0.34901303
93	0xbd4d2a6b	-0.05008928
94	0xbcb1ad52	-0.02168909
95	0x3d2d0e5b	0.04225002
96	0xbc40d659	-0.011769854
97	0xbdbc9de4	-0.09209803
98	0x3e2f7f89	0.17138495
99	0x3e867158	0.2625835
100	0x3d66b9cb	0.05632953
101	0xbdbf4df3	-0.093410395
102	0x3db3428c	0.08752927
103	0x3de3e855	0.11128298
104	0xbe094ec0	-0.13408947
105	0xbe6bdc50	-0.23033261
106	0xbccc6cb8	-0.024954185
107	0xbe462739	-0.193509
108	0x3dd71435	0.10501901
109	0xbe41533b	-0.18879406
110	0xbc92126b	-0.017831048
111	0xbb25ca1e	-0.0025297473
112	0xbe1e37a6	-0.15450916
113	0x3e12c175	0.1433161
114	0x3d4090d0	0.047013104
115	0x3dd2f722	0.10301043
116	0x3d13a427	0.03604522
117	0xbe0bb19d	-0.13641973
118	0x3d9976b3	0.07493343
119	0x3d9630f6	0.07333557
120	0xb982554c	-0.00024859083
121	0xbcdeb024	-0.0271836
122	0x3e86a067	0.26294252
123	0x3da17d04	0.07885173
124	0x3e6811b8	0.22663009
125	0xbdb2eb74	-0.08736315
126	0xbd6f2f96	-0.05839499
127	0xbdc27473	-0.09494867
128	0x3e3cc0bc	0.18432897
129	0x3e17fc50	0.14842343
130	0x3d603263	0.054735553
131	0xbe26d0f4	-0.16290647
132	0x3d2cb4c8	0.042164594
133	0x3dbecd35	0.09316484
134	0xbd8ee97a	-0.06978126
135	0xbe1e908a	-0.15484825
136	0x3dd0a3c8	0.10187489
137	0xbdbcb38e	-0.09213935
138	0x3da5c844	0.08094838
139	0x3e0221a7	0.1270815
140	0x3d30423b	0.043031912
141	0xbd4eab9c	-0.05045663
142	0x3ddd3969	0.10801966
143	0x3dabd938	0.083910406
144	0x3b75de58	0.003751656
145	0xbd3f4d2a	-0.04670445
146	0x3c1b13c8	0.009465165
147	0xbcc30459	-0.023805784
148	0xbe8c05e6	-0.2734825
149	0x3c9bc585	0.019015083
150	0x3d6a82df	0.057253715
151	0xbc0a5324	-0.008442674
152	0xbda5e37d	-0.081000306
153	0xbd7b0e53	-0.061292958
154	0x3d0c75f6	0.034292184
155	0xbd98611e	-0.07440399
156	0xbc85ab62	-0.016317073
157	0x3e102f7d	0.14080615
158	0x3c5ac45d	0.013352481
159	0x3d3601a6	0.044435166
160	0x3db218b4	0.08696118
161	0xbe1ae2ea	-0.15125623
162	0xbd76d8d6	-0.060265385
163	0x3e37d33e	0.17951676
164	0x3c4f591c	0.012655523
165	0xbde8da10	-0.11369717
166	0xbb826175	-0.003978903
167	0x3db99a59	0.090626426
168	0xbe0f9e60	-0.14025259
169	0xbd1b01fa	-0.037843682
170	0x3d2dba63	0.04241408
171	0x3de78865	0.11305312
172	0xbc83cbe8	-0.016088441
173	0xbcded91d	-0.027203137
174	0xbdbba94e	-0.09163152
175	0xbd88bc13	-0.06676497
176	0xbd9fda8e	-0.07805358
177	0x3e198ade	0.1499438
178	0xbe28ebe0	-0.16496229
179	0x3d76745b	0.06016956
180	0x3e0bee88	0.13665211
181	0xbe142a9f	-0.14469384
182	0xbd34555a	-0.04402671
183	0x3df2a46a	0.11847766
184	0xbcdd73d7	-0.027032776
185	0x3d183dec	0.03716843
186	0x3d668ef7	0.056288686
187	0x3e0cc3b4	0.1374653
188	0xbcb1a0d0	-0.021683127
189	0x3d434886	0.047676586
190	0x3d5bdcb5	0.05367728
191	0x3da0d984	0.07853988
192	0x3e91a1b3	0.2844368
193	0x3d151f8a	0.03640703
194	0xbb041d85	-0.0020159197
195	0xbd18fe3c	-0.03735183
196	0xbdf578d9	-0.119859405
197	0xbe11df20	-0.14245272
198	0x3b81d24a	0.003961836
199	0xbc4f31fd	-0.0126461955
200	0xbdf63b35	-0.120230116
201	0xbd94b63d	-0.07261322
202	0x3df6ffcc	0.12060508
203	0x3e607bae	0.2192218
204	0xbd618a0a	-0.055063285
205	0xbe1a1ae1	-0.15049316
206	0x3e0c4ae5	0.13700445
207	0x3e412404	0.18861395
208	0x3d11000b	0.03540043
209	0x3da5e3dd	0.08100102
210	0xbdff490b	-0.12465104
211	0xbcf811fe	-0.030282017
212	0xbd342d8c	-0.04398875
213	0xbe35c6d3	-0.17751627
214	0x3d50f9f1	0.051019613
215	0xbd003d4f	-0.03130847
216	0xbdf3cfff	-0.119049065
217	0x3d1ed3d5	0.038776238
218	0xbd38edfb	-0.04514883
219	0x3bbdb7c2	0.005789728
220	0x3d4b95ac	0.049703285
221	0x3e10f579	0.1415614
222	0xbceb20d3	-0.028702175
223	0x3e1fe57c	0.15614885
224	0xbd24b868	-0.040214926
225	0x3cf98d22	0.030462805
226	0x3dc9b245	0.09848455
227	0x3e309489	0.17244162
228	0x3d1f978a	0.03896288
229	0xbdbe7131	-0.09298933
230	0x3c6aedc9	0.014338919
231	0xbda9fc93	-0.08300128
232	0xbd91a48d	-0.07111464
233	0x3c1340bd	0.008987603
234	0xbe80116f	-0.250133
235	0xbe6e91e2	-0.23297837
236	0xbccc85a6	-0.024966072
237	0xbe08a855	-0.13345464
238	0x3ddfd193	0.10928645
239	0x3e590c39	0.21196069
240	0xbe5a70e8	-0.21332133
241	0x3e352f66	0.17693862
242	0x3d4b07b9	0.04956791
243	0xbd5f4271	-0.054506723
244	0x3c534653	0.012895185
245	0x3d933a3e	0.07188843
246	0x3d3a14dd	0.045430053
247	0xbbb01ea4	-0.0053747464
248	0x3dad0f80	0.08450222
249	0xbd84685d	-0.06465218
250	0x3d0d6f5d	0.034530032
251	0x3d97a574	0.074046046
252	0x3e00d4a4	0.12581116
253	0x3b908c48	0.004411254
254	0xbd44fcd4	-0.04809268
255	0xbe86ca9e	-0.2632646

encoder.model.bias_ih_l1 f4 [256]
0	0x3d6bc7f9	0.057563756
1	0x3d59e30f	0.053195056
2	0xbb58b51c	-0.0033066934
3	0x3e764a3f	0.2405176
4	0x3d3a886d	0.045540262
5	0x3e0954b7	0.13411222
6	0x3d6e63f1	0.05820078
7	0xbba7874b	-0.0051125637
8	0x3db12f72	0.086516276
9	0x3e8c3fe6	0.273925
10	0x3df7e4fd	0.12104223
11	0x3e1152b3	0.14191703
12	0x3db3e4ed	0.087838985
13	0x3da89119	0.082308
14	0xbce40d33	-0.027838325
15	0x3e220378	0.15821636
16	0x3f35c8e8	0.71009684
17	0xbd3e3628	-0.046438366
18	0x3d4d8c2e	0.050182514
19	0xbcf64c86	-0.030065786
20	0x3f265895	0.64978915
21	0x3df19e04	0.11797717
22	0xbd7c817f	-0.061646935
23	0x3cac1f51	0.021011027
24	0x3eac02d1	0.335959
25	0x3da479d4	0.08031049
26	0x3e2f5854	0.17123538
27	0x3e23500c	0.15948504
28	0x3ce13a09	0.027493494
29	0x3e2a6e93	0.16643743
30	0x3e94c38c	0.2905544
31	0x3ea4e309	0.32204464
32	0x3d7e6c78	0.062115163
33	0x3e444566	0.19167098
34	0x3e18b03b	0.14910977
35	0xbaac0eda	-0.0013126985
36	0x3d0c03e7	0.03418341
37	0xbd298c66	-0.04139366
38	0x3c59b1eb	0.013287048
39	0xbd07460e	-0.033025794
40	0xbdb787e3	-0.08961465
41	0x3d59d0c0	0.053177595
42	0xbd2a46dd	-0.041571487
43	0xbd8db204	-0.069187194
44	0xbd2da3da	-0.04239259
45	0xbd55eb7e	-0.052226536
46	0x3e1c88e2	0.15286592
47	0xbd35c19d	-0.044374097
48	0x3df2763a	0.11838956
49	0x3da628b1	0.0811323
50	0x3e43ba38	0.19114006
51	0x3e449356	0.19196829
52	0x3e47d868	0.19516146
53	0xbc9e600c	-0.019332908
54	0x3de56458	0.1120078
55	0x3e01be10	0.1267016
56	0x3e7ea07f	0.24865912
57	0x3e26a61f	0.16274308
58	0x3dcf50fb	0.10122868
59	0x3c80f849	0.015743392
60	0x3c4504bd	0.0120250555
61	0xbcbf4209	-0.023346918
62	0xbd8edde2	-0.069759145
63	0xbdb523ed	-0.08844743
64	0x3d8749fe	0.0660591
65	0x3de67e75	0.112545885
66	0xbde414e5	-0.11136798
67	0x3e124aee	0.14286396
68	0xbd88d840	-0.066818714
69	0xbdfbab1e	-0.122884974
70	0xbda4fdef	-0.080562465
71	0xbd51f4e8	-0.05125895
72	0xbd9d0290	-0.076665044
73	0xbe12e15c	-0.1434378
74	0xbd40b954	-0.047051743
75	0x3d823179	0.063570924
76	0xbd709541	-0.05873609
77	0xbc0f4006	-0.008743292
78	0x3c602a7c	0.013682004
79	0x3ce45d6c	0.027876578
80	0xbd1f2ae3	-0.03885926
81	0xbd95d6b1	-0.0731634
82	0x3e1c9c2c	0.1529395
83	0x3db81276	0.08987896
84	0xbd9c69c1	-0.076373585
85	0xbd6494fb	-0.05580614
86	0x3cceed46	0.025259625
87	0x3df07d3f	0.11742639
88	0x3d8afbf8	0.067863405
89	0x3d9bb4f5	0.07602874
90	0xbd59f864	-0.0532154
91	0xbd6d9dbe	-0.058011763
92	0xbdf438f2	-0.11924924
93	0x3d855ba2	0.06511618
94	0x3d55a9e9	0.052163992
95	0x3d3a377c	0.04546307
96	0xbe03881e	-0.12844893
97	0x3db32769	0.08747751
98	0xbd1dd1a0	-0.038529992
99	0xbd0767de	-0.03305804
100	0x3dd73028	0.10507232
101	0xbd7f28af	-0.06229466
102	0x3d35cee1	0.04438675
103	0x3d8bbc35	0.06823007
104	0x3dca9ae5	0.09892825
105	0x3dbe5553	0.09293618
106	0xbddbe154	-0.10736337
107	0xbcace24a	-0.021103997
108	0x3dd2cf96	0.102935
109	0xbdb630c1	-0.08896018
110	0x3d209eeb	0.039214056
111	0xbd81da84	-0.06340507
112	0x3da92795	0.08259503
113	0x3d0783a2	0.03308452
114	0x3e3f4a15	0.18680604
115	0xbba5eeed	-0.0050638826
116	0xbc1dd15a	-0.009632433
117	0x3b30bbe9	0.0026967472
118	0xbc6be611	-0.014398114
119	0x3e3ea04f	0.1861584
120	0x3adcb81d	0.0016839538
121	0xbdf902f0	-0.121587634
122	0xbd59c8bd	-0.053169955
123	0xbc925ce6	-0.017866563
124	0x3dc741cf	0.09729349
125	0x3b0e6187	0.0021725611
126	0xbd9763dc	-0.073920935
127	0x3b04fe27	0.0020293088
128	0x3df42644	0.11921361
129	0xbc4db788	-0.012555964
130	0x3b396fec	0.002829547
131	0xbda45bab	-0.08025297
132	0xbe0341fe	-0.12818143
133	0xbd93e9cf	-0.0722233
134	0xbd015c64	-0.03158225
135	0x3c3d1eba	0.01154297
136	0xbc5f78f5	-0.013639678
137	0xbdb4e604	-0.088329345
138	0x3d07a06c	0.033111975
139	0x3d80d537	0.062906675
140	0xbce11d52	-0.027479801
141	0xbe0ce0ca	-0.13757625
142	0x3cd5e913	0.026112115
143	0x3db96d50	0.09054053
144	0xbdaf2300	-0.085515976
145	0xbd76126e	-0.06007617
146	0xbd576035	-0.052581985
147	0xbe4798fa	-0.1949195
148	0x3d5362a3	0.05160774
149	0xbd1a7dff	-0.037717815
150	0xbd08917f	-0.03334188
151	0x3d4213fc	0.04738234
152	0xbe97613c	-0.2956637
153	0x3e0159c1	0.12631895
154	0xbcc19b55	-0.023633638
155	0xbba02692	-0.0048874104
156	0x3db34306	0.08753018
157	0x3c48d970	0.012258872
158	0xbce52a98	-0.027974412
159	0x3cabe890	0.020984918
160	0x3d484403	0.048892986
161	0x3d537f1f	0.051634904
162	0x3ef80013	0.48437557
163	0x3e016e75	0.12639792
164	0x3d701df4	0.058622316
165	0xbda192f0	-0.07889354
166	0xbc7a1dbc	-0.015265878
167	0x3d851df0	0.06499851
168	0xbc8dd1c6	-0.017311942
169	0xba5f9971	-0.00085296395
170	0xbddfa7f3	-0.10920706
171	0x3d3027ee	0.04300683
172	0xbd8a0834	-0.06739846
173	0x3ca09996	0.019604485
174	0xbd716e34	-0.05894299
175	0xbcc79f37	-0.024367912
176	0xbe267751	-0.16256453
177	0x3dd2c7e4	0.10292032
178	0xbb77c9e9	-0.0037809557
179	0xbc14396d	-0.0090468945
180	0x3df51450	0.11966765
181	0x3de057a6	0.109542176
182	0x3e039d5a	0.12852994
183	0x3d3a0cf9	0.045422528
184	0x3d219337	0.039447036
185	0x3d0dcc90	0.034618914
186	0x3e0bf540	0.13667774
187	0xbcd46713	-0.025928056
188	0x3ce2909f	0.027656851
189	0x3c2a833d	0.010407266
190	0x3d88b3d5	0.06674925
191	0xbdfddfcd	-0.12396202
192	0x3da81e2e	0.08208881
193	0x3d57d263	0.052690875
194	0x3dbb9ad2	0.09160389
195	0x3e837bb8	0.25680327
196	0x3dcb51da	0.09927721
197	0xbd4572b6	-0.0482051
198	0xbd28351e	-0.04106628
199	0xbd641ac5	-0.055689592
200	0x3c4c54ba	0.012471372
201	0x3dbeff97	0.09326094
202	0x3d7f62a5	0.062349934
203	0x3e86e076	0.26343125
204	0xbd975e77	-0.073910646
205	0xbde533ab	-0.111914955
206	0x3e2d449d	0.16920705
207	0x3d4bec79	0.049786065
208	0x3f488d7c	0.7834089
209	0x3bcadd83	0.006190957
210	0x3b4796b9	0.0030454828
211	0x3e1baf53	0.152036
212	0x3f0f48db	0.55970544
213	0xbd3bc52f	-0.045842346
214	0xbc8f2c68	-0.01747723
215	0xbd922187	-0.07135301
216	0x3dd7ef45	0.10543684
217	0x3cc74170	0.024323195
218	0x3e166e27	0.14690457
219	0x3e1b6ce6	0.1517826
220	0x3e1382da	0.14405385
221	0x3dd275a5	0.10276345
222	0xbd03b557	-0.03215536
223	0x3eecdc3f	0.46261784
224	0x3e344f28	0.1760832
225	0x3d51c639	0.05121443
226	0xbddf7a04	-0.109119445
227	0x3e2d4421	0.1692052
228	0x3d65b64a	0.056082048
229	0x3db41e6f	0.08794867
230	0x3c719fb3	0.014747548
231	0xbd22810d	-0.039673854
232	0x3e0f7f26	0.14013347
233	0x3d3d39be	0.046197645
234	0xbd886c94	-0.06661335
235	0x3c8a220c	0.016861938
236	0x3e2250e2	0.15851167
237	0xbd0ee193	-0.034883093
238	0x3d9147e3	0.070937894
239	0xbd934f4a	-0.071928576
240	0x3d8ed690	0.06974518
241	0x3dce16d3	0.10062947
242	0x3e26e512	0.16298321
243	0x3d4f835c	0.050662383
244	0x3dc702bc	0.097173184
245	0x3de88cf2	0.11355008
246	0x3ddb6b7f	0.10713863
247	0x3e52a375	0.20570166
248	0x3d26424d	0.040590573
249	0xbc167931	-0.009184168
250	0x3d91b35c	0.07114288
251	0x3e23e6cc	0.16006011
252	0x3e163bef	0.146713
253	0x3e1b7e79	0.15184964
254	0x3e0fcddb	0.14043371
255	0x3e06fac7	0.13181601
