models/20200923_212102/epoch_0700_loss_109442.96280.pt (torch, 857809 bytes, 96 tensors)

encoder.model.weight_ih_l0 f4 [256, 3]
000000 43 a1 20 bd b7 7b 31 3d 67 a5 18 bd 43 74 9e 3d
       -0.03921629 0.043330874 -0.037267115 0.07737019
000010 2a 19 37 3d dd 35 31 3d e8 12 94 bc 40 5f 84 3c
       0.044701733 0.04326426 -0.018075421 0.0161587
000020 cd 7a 2b 3e fe 30 2f 3c 3c 9a 39 3e 59 47 69 bd
       0.16746064 0.010692833 0.18125242 -0.056952808
000030 dd 41 29 3d 32 65 42 bd c7 2b c8 3d e9 8c 98 3d
       0.041322578 -0.04745979 0.09773975 0.074487515
000040 2d d5 aa 3e 7b a9 73 bc 55 d3 e5 be 44 16 cf bc
       0.33365765 -0.01487195 -0.44887796 -0.025279172
000050 70 a9 bf 3c 3a ea 26 3d ce 0b 7b 3d 3c 78 f3 3d
       0.023396224 0.04075072 0.061290555 0.11888167
000060 14 f6 1a be e9 61 a6 3c 77 17 64 be ef 8b 6d bd
       -0.15132934 0.02031036 -0.22274576 -0.05799478
000070 f9 b1 3e bd ec fb 21 3d d6 43 21 be 6b 03 b5 3d
       -0.046556447 0.039546892 -0.15748534 0.088385426
000080 6f eb b7 3e 8a 5b 6f bd 77 ab 44 bd 2b d2 24 be
       0.3592181 -0.058436908 -0.048015084 -0.16095798
000090 36 dc 57 bd eb b9 e2 bd 23 d7 6e bd a7 7d d6 bd
       -0.052700244 -0.11070617 -0.05831064 -0.10473185
0000a0 cf 0c 66 be 70 54 f8 bd 97 fb 55 be eb 40 74 bd
       -0.22465824 -0.1212548 -0.20896755 -0.059632223
0000b0 ae f9 c2 3d a1 4c bc bd 66 6f 89 3d a5 a2 05 be
       0.09520279 -0.09194303 0.06710701 -0.13050325
0000c0 6e 99 ce bc d0 5d 10 3d 43 bd 38 be e0 04 3e 3b
       -0.025219645 0.035245717 -0.18040948 0.0028994605
0000d0 d2 5f 31 3d f5 15 d1 3d 88 fd 2d be 96 39 b3 3c
       0.043304272 0.10209266 -0.16991246 0.021878045
0000e0 b6 24 b2 bb 08 a4 29 bc 9f 2c 37 be ea eb ad bc
       -0.005436505 -0.0103540495 -0.17888115 -0.021230657
0000f0 82 6a cb bd 9c fe 4c be b6 a8 04 bc e7 cc 74 3d
       -0.09932424 -0.20019001 -0.008096864 0.059765723
000100 b4 c1 75 3d 1e 23 1c 3d 11 e7 34 bd da f8 bf be
       0.059999183 0.038119428 -0.044165675 -0.37494546
000110 f2 95 d7 bb a5 d7 23 3d 57 d6 b8 bb f4 6a cc 3d
       -0.006579154 0.040000577 -0.0056407857 0.09981337
000120 87 a9 0e 3e 02 1a 79 3c 73 7e b4 ba aa ed c8 bd
       0.13931857 0.015203955 -0.0013770595 -0.09810956
000130 e2 77 0b bd ef e6 04 be bd 79 97 be d4 bb 72 be
       -0.034049876 -0.12978719 -0.29585066 -0.23704463
000140 9b 4a d3 bd b7 c0 21 bb 8c 68 1c bc 44 4c 81 3b
       -0.10316964 -0.0024681517 -0.00954641 0.003945859
000150 17 7f e9 bc 08 17 0b 3d 5e 44 11 bd 3e e9 81 be
       -0.028502984 0.03395751 -0.03546559 -0.25373262
000160 e7 74 43 3e 91 9a 5e 3c 6d 7b 43 be 5a 00 05 3c
       0.19087563 0.013586656 -0.19090052 0.00811776
000170 64 87 a0 bb 80 2d 5e be 4f ef 4b bd d0 40 67 3d
       -0.0048989523 -0.21697044 -0.04978877 0.056458294
000180 28 2f 3b be e4 46 47 3d 43 64 88 bd ff 42 eb bd
       -0.18279707 0.04865159 -0.066597484 -0.11487388
000190 26 4d 26 3e 10 16 cc 3c 63 e1 08 3d 41 f5 59 3d
       0.16240367 0.024912864 0.03341807 0.053212408
0001a0 ef 6d c6 bd b3 f7 c1 be ce 27 9e be c6 82 89 be
       -0.09688937 -0.37884292 -0.30889744 -0.26857585
0001b0 bb f0 0f 3c 40 9c 21 bd a4 a7 c4 3d 2b f0 d6 3d
       0.008785422 -0.039455652 0.096022874 0.10495027
0001c0 bd 5d a1 3d 8c 11 a0 bb cb f7 9e be a3 f9 e1 bd
       0.07879207 -0.0048849043 -0.31048426 -0.110339426
0001d0 62 a3 6e bd 7c 59 d0 3d e5 d5 ba bd 2c 03 a6 3d
       -0.058261283 0.10173318 -0.091228284 0.08106074
0001e0 9f 14 07 be 30 b1 56 be 12 1e 64 bd e9 29 5b bd
       -0.1319146 -0.20966029 -0.05569274 -0.053506766
0001f0 8b ac 42 be 6e ff c0 bc c7 b1 87 ba 40 b7 37 3e
       -0.19011132 -0.023559298 -0.0010352664 0.17940998
000200 d5 5d cd 3e 66 5d a2 bd 00 3a 85 3b b2 b3 1f be
       0.4011065 -0.079279706 0.004065752 -0.15595892
000210 4b 62 8b bd 95 92 56 3e dd 0d 0c bd 9a b5 df 3e
       -0.06805857 0.20954354 -0.03419291 0.43693238
000220 40 58 50 3d 6b df ed 3e 68 2b 42 be 2f a6 78 be
       0.05086541 0.46459517 -0.1896187 -0.24282144
000230 4a dd 51 be 03 9a e0 bd 0b 02 fb bd 59 5e a8 3d
       -0.20494571 -0.109668754 -0.12256249 0.082211204
000240 34 96 13 be a9 27 3c 3e 32 55 fa 3d 01 3d 69 bd
       -0.14412767 0.18374504 0.12223281 -0.056942943
000250 1c 14 37 3e bb 8e fc bc b7 eb 08 3d c8 e1 aa bd
       0.17878765 -0.030829778 0.03342792 -0.083438456
000260 d1 c9 f3 bd 87 80 77 bd 36 90 a7 3d b0 3a 0e 3e
       -0.11903728 -0.060425308 0.08181803 0.13889575
000270 36 2e fb bc 5f ff e5 bd d0 08 1c bd 5b a3 47 bd
       -0.030661684 -0.11230349 -0.03809434 -0.048739772
000280 1c 5f 16 3d 33 e2 1f bc be b9 87 be 10 68 22 bd
       0.036711797 -0.00975852 -0.26508898 -0.039650023
000290 82 11 c7 3d dc b6 48 bd af e7 1a be 64 ae 01 3d
       0.09720136 -0.049002513 -0.15127443 0.031660452
0002a0 57 f7 24 bd 9b b1 2c bd e2 f0 8d bd 4f e2 ff bd
       -0.040274944 -0.042161565 -0.069307104 -0.12494337
0002b0 3a 82 a6 3d 71 23 54 be 73 9e aa 3d 70 46 39 3d
       0.081303075 -0.20716645 0.08331003 0.04523319
0002c0 ae 31 d7 3d 4d 1f aa bd 4c e9 f4 3d 9d 67 0d 3e
       0.105075225 -0.083067514 0.1195856 0.13809057
0002d0 c2 d4 ac be ac f1 96 bd d1 39 b8 bd d1 32 9d 3a
       -0.3375607 -0.07370314 -0.089954026 0.0011993294
0002e0 14 75 db bd eb 9f b7 3d 50 16 07 bd 87 41 8e 3d
       -0.1071569 0.08966049 -0.032980263 0.06946092
0002f0 98 04 9f 3d 56 7b 29 3e a0 3d 26 3e 6e e7 14 3f
       0.07764548 0.16550955 0.16234446 0.58165634
000300 62 87 81 bd 48 e1 2a be 83 0e a6 3d f8 83 09 3e
       -0.0632465 -0.166875 0.08108237 0.13429248
000310 48 24 26 be a1 d6 02 3e 89 28 aa be 9c 7d f0 bc
       -0.16224778 0.12777187 -0.3323405 -0.02935677
000320 f1 63 4f bd 3b 6f 0f be 51 35 0b 3e a0 b1 ae bd
       -0.05063242 -0.14007275 0.13594557 -0.08529973
000330 66 07 75 be 80 90 8b be df 7e cd 3d 8a 6c 3d be
       -0.23928604 -0.27258682 0.10033964 -0.18498436
000340 d8 f1 32 3e 01 c4 c7 3e 61 b2 e0 be 13 2a c2 bd
       0.17475069 0.39016727 -0.43886092 -0.09480681
000350 48 a3 c5 3d 83 c7 95 be 63 11 a5 be 25 b7 13 be
       0.09650284 -0.29253778 -0.32239828 -0.14425333
000360 42 ce 50 bd 31 5c 80 be d7 1e e1 be f9 e1 96 be
       -0.050977953 -0.25070336 -0.4396884 -0.29469278
000370 dd 81 0d 3e bb 98 0a bd 4f c8 63 be 0e d1 4d 3d
       0.1381907 -0.03383706 -0.2224438 0.0502482
000380 1e 7b 64 3e 28 90 0e 3e 82 b8 5a be f2 f9 4d bd
       0.2231259 0.13922179 -0.21359447 -0.050287195
000390 4f 4e 09 3e a2 5c a9 bd ef 8b b0 bd 4e b8 0b be
       0.13408779 -0.082696214 -0.0862044 -0.13644525
0003a0 47 b6 a0 be b8 54 09 3d b9 32 63 be 70 4d 9b be
       -0.31389067 0.03352806 -0.22187318 -0.30332518
0003b0 66 5f 3d be 35 71 8f 3d d8 97 b9 3e 3a a8 6a 3b
       -0.18493423 0.070040144 0.3624866 0.0035805837
0003c0 0d 24 c0 bd e3 ac 4e 3e 94 50 de 3c b5 32 31 be
       -0.09381876 0.20183139 0.027138032 -0.173045
0003d0 6a 0b 99 be 8d 78 48 3c 92 9c e0 3c 39 e0 a7 bd
       -0.2989152 0.012235773 0.027418409 -0.08197064
0003e0 ff 49 29 bd bc 0b 46 bd 4d ed 3a 3d f1 d0 b4 bd
       -0.041330334 -0.048351035 0.045636464 -0.08828915
0003f0 9c f3 4d 3d fd 3d 98 bd 2a 09 47 3d bc cd 88 bd
       0.050281152 -0.07433698 0.048592724 -0.06679866

encoder.model.weight_hh_l0 f4 [256, 64]
000000 1f 67 88 3d 32 8c 83 bd 0c d3 45 3e b3 1d 76 3e
       0.06660294 -0.064232245 0.19318789 0.24034767
000010 0e 13 85 bd b4 4a 9c 3e bc 3d 82 be 41 c7 a7 3d
       -0.06497775 0.30525744 -0.25437725 0.081923015
000020 42 b5 e0 3d c4 5b 46 be 13 7b 82 3d a3 60 29 be
       0.10972072 -0.19370943 0.06371131 -0.1654077
000030 a3 2b b3 bd b6 65 b3 bb 76 0f 5f bd a4 e9 49 bd
       -0.087485574 -0.0054747714 -0.054458104 -0.049295083
000040 ca 5b c5 bc f5 9d 21 3a 96 33 45 3e 66 5a b5 bd
       -0.02409162 0.00061652 0.1925796 -0.08855133
000050 56 b1 a7 bd 5b f1 85 3c 53 99 77 bc 45 25 43 bd
       -0.08188121 0.016350439 -0.015112239 -0.047642965
000060 e6 ab da 3d c5 a3 81 3d 1f 8b 32 bc a6 a8 37 be
       0.10677318 0.06330065 -0.010897427 -0.17935428
000070 85 19 fa 3e e5 ab 7c bd fb 2c 97 3c cb e6 20 3e
       0.48847595 -0.06168737 0.018454066 0.1571304
000080 61 ea 94 3e 70 57 25 be b5 7c a6 3b be 04 18 3d
       0.29085067 -0.16146636 0.005080784 0.037113898
000090 ce 67 f5 bc 1e 8d c9 3e ff 1e c9 3d 3e 15 d6 bc
       -0.029956724 0.39365476 0.09820365 -0.026133176
0000a0 33 c5 dc 3d f2 9d 4f bd 52 2d ae 3e 41 97 81 be
       0.107798 -0.050687738 0.34018952 -0.2531071
0000b0 a6 d1 5e 3e 0c df 61 be c4 0b df bb 0b 35 6f be
       0.21759662 -0.22057742 -0.0068068225 -0.23360078
0000c0 d8 79 58 3d f6 52 73 be dc ae 9d 3d c6 00 2a bd
       0.052850574 -0.23762116 0.076993674 -0.041504644
0000d0 d8 45 ea 3d d7 7c 9f 3e 44 eb b8 bd a6 46 17 3e
       0.11439103 0.31149933 -0.09029248 0.14773044
0000e0 dc fb d3 bd 6d d8 07 3d 73 d3 85 3e 32 f7 46 be
       -0.10350773 0.033165384 0.26137885 -0.19430235
0000f0 6a db dc bd 7e 79 33 bd db 3d be be df 30 55 3e
       -0.107840374 -0.043817036 -0.37156567 0.20819424
000100 0b b3 54 be 7c 15 19 be 5e f9 55 3e 34 01 52 3e
       -0.20771424 -0.14949602 0.20895907 0.20508271
000110 39 1a 07 3e 25 a2 55 3e 20 89 ea bd df 1d 40 bd
       0.13193597 0.20862634 -0.11451936 -0.046903487
000120 38 8f d8 3c 54 82 44 be c6 7b 2e 3e 69 d7 fa bd
       0.02643548 -0.19190341 0.17039403 -0.122481175
000130 91 0a 73 3d ee 14 54 bd 05 d2 ca bd ed d4 db bc
       0.05933625 -0.051777773 -0.09903339 -0.02683493
000140 0a 78 2a bd 96 0d 52 be 1a c8 36 bb 15 c0 de bd
       -0.041618384 -0.20512995 -0.0027890266 -0.108764805
000150 f8 c3 6c bd ff 6c 19 3e a2 10 b9 3c 10 e4 fa 3c
       -0.057804078 0.14982985 0.022590939 0.030626327
000160 50 18 14 3e 48 6a bf bc 82 7e 4c bd 6e a9 3a be
       0.144624 -0.023366109 -0.049925335 -0.18228695
000170 59 b3 77 3e 5a 5a 61 be 96 92 2d 3e ff c6 2d be
       0.2418951 -0.22007123 0.1695045 -0.16970442
000180 2e 1d 3a 3e 7d 59 20 be 6b 85 8c be 9a 02 ca bd
       0.18175194 -0.15659137 -0.2744554 -0.098637775
000190 71 c5 cb 3c 73 15 86 3e ca 4f e2 3d d3 b9 2c bd
       0.02487442 0.2618824 0.11050375 -0.042169403
0001a0 b2 43 9a bd 20 34 98 3d cb 52 a4 3d 76 c1 81 be
       -0.07532443 0.07431817 0.08023604 -0.2534291
0001b0 21 06 49 3e eb 2d 97 bc 02 99 36 bd 99 65 7c bd
       0.19631244 -0.018454513 -0.044579513 -0.06162033
0001c0 7d ec 35 3d 3b b5 34 be 93 94 45 3e 4d e0 17 3e
       0.044414986 -0.17647259 0.19294958 0.14831658
0001d0 fc ca a6 bd fa 7d 00 3d 1c a9 2a be d2 58 c9 3d
       -0.08144185 0.03137014 -0.16666073 0.09831394
0001e0 b5 c9 e1 bc 60 e6 8e bd 6d 76 29 3d 33 e2 0d be
       -0.027562002 -0.06977534 0.041372705 -0.1385582
0001f0 1e 33 9f bd 2e 11 29 bd 58 1d 3e be 97 78 6f 3e
       -0.07773422 -0.04127615 -0.18565881 0.23385845
000200 44 40 91 3d f8 25 d7 3c 19 df 6d bc 66 4a bd bd
       0.07092336 0.026263222 -0.014518523 -0.09242706
000210 ae ac 65 bc 49 82 3f bd 87 af 3a be 4a 2f be bc
       -0.014018221 -0.04675511 -0.18231021 -0.023215909
000220 13 62 18 bd f0 dd b9 3d 54 1c 04 be 50 5d 9d bc
       -0.037202906 0.09075534 -0.12901431 -0.019209534
000230 f5 c1 10 be b2 c4 51 bd ea 09 70 bd f2 21 93 bd
       -0.14136489 -0.051212974 -0.058603205 -0.07184209
000240 b1 61 96 bd 5a 23 b3 3d 0b 0c 53 bd 33 d5 cf bd
       -0.07342852 0.08746977 -0.051525157 -0.101480864
000250 34 36 ae bb f7 8a 75 3d 1d 51 6b 3d b0 5a cd 3d
       -0.00531652 0.05994698 0.057450403 0.10027063
000260 d7 17 03 be 34 c6 c6 3d fb 54 fb 3d 69 ea de bd
       -0.12802063 0.09705773 0.12272068 -0.10884554
000270 48 3d c6 3c 97 ba 2c ba 49 2f f6 bd e5 5e 85 3d
       0.024199143 -0.00065890834 -0.12020738 0.0651224
000280 3d 22 a5 3c 04 c4 ab bd 24 27 94 bc 8b be c3 3d
       0.020157928 -0.083869964 -0.01808507 0.095578276
000290 fe 02 a5 3d de 16 14 3e e5 9f 17 be bd 45 1a be
       0.08057211 0.14461848 -0.14807089 -0.15065666
0002a0 d6 f5 09 3e 88 a3 ec bd fa 80 97 3b e8 48 61 bb
       0.13472685 -0.115546286 0.0046235295 -0.003437573
0002b0 1f af 88 3d 94 9c 6d 3d 9e c5 ad 3d c4 f7 39 be
       0.06674027 0.058010653 0.08484958 -0.18160921
0002c0 80 29 17 bc 87 7b dc bd b0 e3 fb bd c3 8c 08 be
       -0.009226203 -0.107657485 -0.12299287 -0.13334946
0002d0 55 a9 a0 bc 5d 5d dd 3d 78 a3 3c be 81 8d 4a 3c
       -0.019611994 0.10808823 -0.18421733 0.012362839
0002e0 ca f8 ba bd c9 88 75 bc 4d 31 42 3e b0 b1 cc 3b
       -0.09129484 -0.014986225 0.1896412 0.006246768
0002f0 af d9 ac bd 79 02 e8 bc a7 01 27 bd df 07 92 bd
       -0.08439957 -0.028321492 -0.04077306 -0.071304075
000300 fe fd 21 3e 12 06 3e 3e 0b 50 e9 3d 4f 8d f8 bc
       0.15819547 0.18557003 0.1139222 -0.030340819
000310 28 c8 72 bc 49 f4 0f bd f6 e4 9e bd 29 e7 8d bd
       -0.014818229 -0.035145078 -0.077585146 -0.06928856
000320 dd 52 8b bc ec 44 81 bd e8 95 ee bc 43 05 12 be
       -0.017007286 -0.06311974 -0.029124215 -0.1425982
000330 53 45 20 be e6 37 1d be 5b 2a 8d 3d 80 1d 3d 3d
       -0.15651445 -0.15353355 0.06892844 0.04617071
000340 e8 03 a4 3d 7d 36 8c 3d a6 fc 26 3e ff a4 1a bd
       0.080085576 0.0684633 0.16307315 -0.03775501
000350 24 8b 88 bd ca d7 9c bd 8a 2d 25 be 7b 8c 14 3e
       -0.06667164 -0.07658346 -0.16130653 0.14506714
000360 b5 d2 ef 3c 7f 7c a2 3c 1d d6 57 3d d3 00 d0 b9
       0.029275278 0.019834755 0.05269443 -0.00039673466
000370 e5 13 8a 3d 2c 6a 28 be c2 13 93 bd b7 37 c6 3d
       0.06742076 -0.16446751 -0.07181503 0.096785955
000380 cb 78 84 bd 79 c4 f8 bd 88 a0 66 bd 09 bd 99 bd
       -0.06468352 -0.12146849 -0.05630544 -0.07506759
000390 45 0f 00 be a2 2d 39 3e 75 e7 48 3c 39 2a ff 3c
       -0.12505825 0.18083814 0.012262215 0.031148063
0003a0 3f 40 1f 3e 4a 9f 5c 3c ad 3a a9 bd be 35 1b 3a
       0.15551852 0.013465712 -0.08263145 0.0005920789
0003b0 a5 73 40 3e 50 df 24 3d a9 1f 9b 3d 60 10 b2 bd
       0.18794115 0.04025203 0.07574398 -0.086945295
0003c0 4f 2b 41 bc 75 43 e0 bd 7d 8e 5a 3d c3 c3 5e bd
       -0.011790111 -0.109503664 0.053358544 -0.05438591
0003d0 b8 30 95 3d cb d8 be 3d 5e ae 19 bd 72 8b 80 3c
       0.07284683 0.09318694 -0.037519805 0.015691493
0003e0 f0 8e c2 bd 15 a3 a2 bd 05 cb 3c 3e a3 86 2c be
       -0.094999194 -0.07941262 0.18436821 -0.16848235
0003f0 8e e4 30 be d8 b7 cb 39 be d7 b3 bc 75 e4 e0 3d
       -0.17274687 0.00038856152 -0.02195346 0.10981075

encoder.model.bias_ih_l0 f4 [256]
000000 01 d4 a5 3d 8b 55 ba 3d 35 c2 99 3b ff bf 8d 3d
       0.08097077 0.09098347 0.0046923407 0.06921386
000010 5b 7c 36 3e 56 d1 0d 3e ec a0 5b 3d 54 34 82 3e
       0.17820875 0.13849387 0.053620264 0.25430548
000020 e4 f4 0c 3e 34 55 bf 3d 9a ea bc 3e ce 59 04 3e
       0.13765293 0.09342423 0.36897737 0.12924883
000030 be 6d a1 3d a3 d9 d3 3d 65 5f 40 3e 0e a5 73 bd
       0.0788226 0.10344245 0.1878639 -0.05948358
000040 2d 22 b2 3d 1b 71 86 3e 74 48 58 bd 6c 34 b6 bd
       0.08697925 0.26258168 -0.05280347 -0.088967174
000050 20 0d 91 3d 30 7c 2c 3e 81 aa 82 3b 3f dc 67 3e
       0.070825815 0.16844249 0.003987611 0.22642611
000060 14 92 e4 3c 1f 3c d1 3d 03 ed 2a bd d5 5e 96 3d
       0.027901687 0.10216545 -0.04172994 0.073423065
000070 2b f3 e3 3d 4c ad 48 bd 2e ae aa 3d 7d 96 22 3e
       0.11130365 -0.048993394 0.083340034 0.15877719
000080 c7 f5 94 3d 02 b1 09 3f 56 88 b4 3e 2d c2 bf bc
       0.07273441 0.5378572 0.35260266 -0.02340802
000090 90 4d 3a 3c 80 df c0 bc af 47 fb 3d 40 de bc 3d
       0.011371031 -0.023544073 0.12269532 0.09222078
0000a0 fe 56 04 3d 8b 5d a1 3d b2 8d ab 3d 29 c7 ae bd
       0.032309525 0.0787917 0.083766356 -0.085340805
0000b0 ce 63 44 bd 99 ed 13 3f 79 55 f2 3c a2 ee 44 3d
       -0.047946744 0.5778442 0.029581772 0.04807914
0000c0 96 27 9f 3c 61 f6 cd 39 8b 10 92 3d 5b 1f d7 3c
       0.019428056 0.00039284214 0.071320616 0.026260069
0000d0 28 87 25 bd e7 ef 27 bc 51 77 dd 3d 77 6a e2 3d
       -0.0404121 -0.010250068 0.108137734 0.11055463
0000e0 a5 73 b1 3d 78 b4 17 3e 05 47 11 3d 02 f3 ca 3d
       0.086646356 0.14814937 0.03546812 0.09909631
0000f0 f8 7b 88 3d 54 d9 2b b9 55 7d ae 3e 5f 2e c6 3d
       0.0666427 -0.00016388792 0.34079996 0.09676813
000100 10 4c 5d bd 70 31 0f 3d c2 03 da bd ab 87 a0 bd
       -0.054027617 0.034959257 -0.10645248 -0.078383766
000110 85 05 c1 bd b0 23 87 bd 25 59 14 3e 85 20 a2 bd
       -0.09424881 -0.06598604 0.14487131 -0.07916359
000120 66 1a c5 bd f9 e2 cf bd f2 62 3f bd 50 12 92 3c
       -0.09624176 -0.101507135 -0.04672522 0.017830998
000130 92 f4 bd bd de c5 19 bd 16 0a 31 bd 7e 1e 76 bc
       -0.09275164 -0.037542216 -0.04322251 -0.015021918
000140 98 3f 82 3b 73 e6 e3 3c e5 3d be 3b 3e 7f d1 bd
       0.003974866 0.027819848 0.0058057182 -0.10229348
000150 41 07 27 bd 1d ac 49 3e 36 26 87 bd 3a e6 70 3d
       -0.040778402 0.19694562 -0.06599085 0.05881331
000160 5c 97 bc 3d 81 84 80 bd 6b 6d 9e 3d ed 71 d2 3d
       0.09208557 -0.06275273 0.077357136 0.10275636
000170 f1 43 12 be 87 b4 e1 3d 8a dc 84 bc eb d6 56 3c
       -0.1428373 0.11020761 -0.016218442 0.013112764
000180 2c 4d 65 3d 92 43 f5 bd f1 7d 46 3d 90 f9 d3 3d
       0.0559818 -0.11975779 0.04845995 0.10350335
000190 12 ea f2 bd a1 d0 f6 bd 03 32 89 3d 74 fa 16 3e
       -0.118610516 -0.120515116 0.06698992 0.14743978
0001a0 54 f8 0b 3d 0d 08 0b 3c e7 cd 8f 3c 89 b5 29 3e
       0.03417237 0.008485806 0.017554237 0.16573156
0001b0 8f d5 6a bd ea 56 b0 3c a9 7d fd 3d f0 eb b4 bd
       -0.05733257 0.021525819 0.123774834 -0.08834064
0001c0 f9 69 e0 bd 6b 5b a4 bd 2c c6 1c be 77 c0 15 3c
       -0.10957713 -0.08025249 -0.15309972 0.0091401255
0001d0 2a 1a 45 3d 1d 18 14 bd a7 94 b9 bd b0 14 dc 3d
       0.048120655 -0.03615581 -0.09061556 0.10746133
0001e0 55 ec 82 3c 12 41 83 be 4c 16 40 bd ae e0 cf bd
       0.015981833 -0.25635582 -0.046896264 -0.10150276
0001f0 e5 59 ac bd 2c 03 09 bd 2f 4d d9 bc 43 12 8c 3d
       -0.084155835 -0.03345029 -0.026526062 0.06839421
000200 ad 5d 93 3c a6 24 6b 3d fe 12 f7 bd 18 b1 04 be
       0.017989004 0.057407998 -0.12064169 -0.12958181
000210 de af 7d bd 5f 35 cd 3c 78 b8 a6 3b 13 c4 98 bd
       -0.0619353 0.025049863 0.0050879084 -0.07459273
000220 5c b0 d9 3c 51 89 04 3d ba cd 7e bd c8 96 05 be
       0.026573353 0.032357518 -0.062207915 -0.130458
000230 f5 bb 68 3d 5c ea 80 bc e6 47 ee 3d 1f bd 75 3d
       0.056819875 -0.015736751 0.11634807 0.059994813
000240 d9 2a b4 bc e2 7b b4 3d d8 fb 70 bd b6 82 9a 3d
       -0.021993088 0.08812691 -0.058833927 0.075444624
000250 d3 e2 07 bd 29 2c a4 bd f4 3a a8 bd ad 05 92 3d
       -0.0331753 -0.080162354 -0.082143694 0.07129989
000260 18 42 95 bd 8c e7 91 3d 2e e6 53 3d ac 42 d4 bd
       -0.07287997 0.07124242 0.05173319 -0.10364279
000270 45 bb 11 3d 91 d9 95 3c cb 89 a9 bd 2c 28 08 3e
       0.035578985 0.01829222 -0.08278235 0.13296574
000280 09 bb 14 3d e2 15 8f 3c 90 40 c8 3d 2a 2e e5 3d
       0.036311183 0.01746649 0.09777939 0.11190446
000290 37 7f 46 bc ea 25 28 bd 66 85 05 3e f4 72 10 be
       -0.012115291 -0.041051783 0.13039169 -0.14106351
0002a0 b8 e8 1f 3d 81 e1 d9 bd c0 dd 9e bd 96 9d b1 3d
       0.039040297 -0.106387146 -0.07757139 0.08672635
0002b0 8e ff c3 3d 7a 67 93 3d 3e af b2 bc d5 88 01 be
       0.095702276 0.07197471 -0.021812078 -0.12649854
0002c0 64 80 ce 3d 3d b4 19 be ab 61 c4 bd e9 b8 84 bc
       0.10083082 -0.15010162 -0.09588941 -0.016201453
0002d0 98 4a 44 3e 1d dc a3 bb bc 82 28 3c 65 1e 11 3e
       0.1916908 -0.005000605 0.010285076 0.14171751
0002e0 f1 66 4f bc 2f 49 24 3e af 28 c0 3d d2 ba 44 3d
       -0.0126588205 0.16043542 0.0938276 0.04802973
0002f0 5b 0e 29 bd e5 61 47 3b bd 50 22 bd 20 4f 03 bd
       -0.041273456 0.003042334 -0.03962778 -0.03205788
000300 f0 f6 12 3e 83 55 05 3e 69 65 dd bc f1 d6 8f 3c
       0.14352012 0.13020901 -0.027025895 0.017558547
000310 bb 88 30 3e 48 fa fd 3d d9 b5 e4 bb 13 a4 d8 3d
       0.17239659 0.12401253 -0.0069796857 0.1057817
000320 58 88 fb 3c ce 72 92 3e 41 a2 b4 3e cb fa df 3d
       0.030704662 0.28603214 0.3528004 0.10936507
000330 a6 1c 06 3e 09 36 05 bd 7f 5f 04 3e 57 dc 3d 3e
       0.13096866 -0.032522235 0.12927054 0.18541084
000340 c9 9c d8 3d c0 10 3d 3e 70 d3 40 bd 24 d1 56 bd
       0.105767794 0.18463421 -0.047076643 -0.052445546
000350 92 cd 35 3e 83 89 53 3c bb 16 59 3d 95 5b e4 3d
       0.177542 0.012911203 0.053000193 0.111502804
000360 87 c2 48 3e cd 24 55 bd c3 8f 53 bd 7f 1d dc 3d
       0.19605456 -0.05203705 -0.051650774 0.107478134
000370 75 02 02 be ea 41 0d 3d 2c 5e 21 3e 4b 48 27 3d
       -0.1269625 0.03448669 0.1575858 0.04084043
000380 8e 5c f4 3c 7d 92 ad 3e 6d 00 08 3e d2 33 99 3d
       0.02982929 0.33900824 0.13281412 0.07480587
000390 1e 9b 07 3e e4 5e c8 3d 50 3f 51 bd 6c a5 9a 3d
       0.13242766 0.09783724 -0.05108577 0.07551083
0003a0 4a 3c 98 bc 20 74 0d bd b0 91 18 3e e2 bd 0c 3e
       -0.018583436 -0.034534574 0.14899325 0.1374431
0003b0 85 60 c4 bc c4 60 21 3f a2 e8 75 3c ed 9c 19 3d
       -0.023971805 0.6303828 0.015009077 0.03750317
0003c0 b5 d8 82 bc 28 23 84 3d f5 e7 8c 3d 55 42 2b 3e
       -0.015972475 0.06452018 0.0688018 0.16724522
0003d0 3a 48 b7 3d d9 fb 84 bd 04 00 2c 3e 7b c3 8c bb
       0.08949323 -0.06493349 0.16796881 -0.004295764
0003e0 d9 14 a3 3d 6c f7 d7 3d 82 d7 c7 3c 04 a6 2d 3e
       0.07962961 0.10545239 0.024394754 0.16957861
0003f0 04 bd 9d bd f8 1d 85 3d 3c 37 ef 3d e7 21 55 3e
       -0.077020675 0.06499857 0.11680457 0.20813714

encoder.model.bias_hh_l0 f4 [256]
000000 0c 04 bd 3d 90 2d 43 bc 03 4e 23 3e 82 09 d7 3d
       0.092292875 -0.011912718 0.15947728 0.1049986
000010 c0 4a a8 3e 2a 9a e3 ba a8 ac 97 bd 70 70 94 3e
       0.3286953 -0.001736467 -0.074059784 0.28992033
000020 4d ed 76 3e aa ff 43 3e 92 ac 52 3e 53 f2 ab 3c
       0.2411396 0.19140497 0.20573643 0.020989573
000030 90 46 c9 3d be e0 b4 3d 5c b4 d1 3d 6e fc 36 bc
       0.09827912 0.08831929 0.10239479 -0.011168582
000040 ce e0 ba 3c 4d 20 ed 3d 9f dd db 3d 5e a5 a3 bd
       0.022812273 0.115784265 0.1073563 -0.07990526
000050 32 c3 0b 3d 1c 8d 2f 3c 1f 6a 11 bd df f3 31 3e
       0.0341217 0.010714795 -0.035501596 0.17378186
000060 f3 a3 18 3e 02 4d 67 bd d3 87 bd 3d 75 2d 80 3d
       0.14906292 -0.056469925 0.09254422 0.0625867
000070 c3 db b6 3d 12 25 cd bd b9 10 12 3e 73 48 e5 3d
       0.08928635 -0.10016836 0.14264192 0.11195459
000080 92 2a e5 bd 3c 04 c6 3e 07 4d 99 3e 62 90 d1 3c
       -0.1118976 0.38675106 0.2994158 0.025581542
000090 a7 c8 73 3d 44 e8 0c 3e 17 82 0d 3e ea 38 e5 3d
       0.05951753 0.13760477 0.13819157 0.11192496
0000a0 8a bc 96 3d 1a 32 81 3d 69 06 58 3d 63 0b 4f bd
       0.0736018 0.06308384 0.05274049 -0.05054797
0000b0 56 fb 95 bd 44 c5 1b 3f a3 d6 07 3d d2 c4 d4 3d
       -0.07323329 0.6084788 0.033163678 0.10389103
0000c0 45 a1 11 bd 19 98 27 3e 61 b0 38 3e d0 97 51 3e
       -0.03555419 0.16366614 0.18036033 0.20468068
0000d0 ff 9e da 3c 7d 36 fe 3d c4 f8 7b 3d 73 21 3c 3d
       0.026687143 0.124127366 0.06151654 0.045930337
0000e0 22 5b 0a 3e df 6f 13 3e fa d4 01 3e 75 85 8d 3d
       0.13511327 0.14398144 0.126789 0.069102205
0000f0 43 fc 47 bd aa ed 2f 3e 85 b5 1e 3e cc 1a 93 3e
       -0.04882456 0.17180505 0.15498932 0.28731382
000100 1d 99 a3 3d 21 73 13 3d 1d 76 4e bd 07 d2 a7 3d
       0.079881884 0.035998467 -0.05040561 0.081943564
000110 0d 2e 6e bd 5f 75 6f bc fa 49 16 3e a7 86 bc 3b
       -0.058149386 -0.014615386 0.14676657 0.0057533565
000120 07 e0 df bd c1 78 14 be 93 d6 62 3d e5 db b7 3d
       -0.10931402 -0.14499189 0.055380415 0.089774884
000130 c5 88 00 3e 5d 94 d7 3d e9 9a e4 3d 6e 13 80 ba
       0.12552173 0.10526345 0.11162359 -0.0009771415
000140 fa 9d b1 3d fb 64 8a bd 7e 92 dd 3b ae b9 af bc
       0.0867271 -0.06757542 0.006761848 -0.021450844
000150 18 21 89 bd d4 5b 00 3e 90 07 c5 bd 15 39 43 bd
       -0.06695765 0.1253503 -0.09620583 -0.04766186
000160 47 82 9a bc 80 ec aa bc b6 90 f1 3d 78 84 b1 3c
       -0.01886095 -0.020864725 0.117951795 0.021669611
000170 45 74 22 bd 61 a6 bc 3d 8f 9a 20 3d 1a 9a 35 3d
       -0.039661665 0.09211422 0.0392099 0.044336416
000180 c0 62 02 3d 2e e9 06 3d e0 ae f2 bc 74 eb 36 bd
       0.031832457 0.03293722 -0.029624403 -0.04465814
000190 98 93 9a bd b4 08 ba bc 6a b7 b3 bc e4 56 a4 3d
       -0.075476825 -0.022709228 -0.021938045 0.080243856
0001a0 3d b6 d9 3b 2d d3 60 3d 91 3e 06 3e 87 e9 0c 3d
       0.006644039 0.054888893 0.13109805 0.034402397
0001b0 98 39 02 3e 00 f0 d1 bd b7 d0 93 3d 20 a3 3b bd
       0.12717283 -0.102508545 0.072175436 -0.045809865
0001c0 fe 3e 23 3d 70 19 3d 3d 50 ac be 3b 6b 93 51 3d
       0.039854996 0.046166837 0.005818881 0.05116598
0001d0 4a 0e fe 3d ae 02 d8 bd 62 e4 07 be bc 56 93 3d
       0.12405069 -0.10547386 -0.13270715 0.07194278
0001e0 9f 5c ad bc 33 0b 2f be f1 5e 5a 3d 13 10 eb 3d
       -0.02116233 -0.17094116 0.0533132 0.11477675
0001f0 31 c5 0b 3d 54 55 7a 3d c1 7e 03 bd d1 e7 56 3d
       0.034123603 0.06111653 -0.032103304 0.05246717
000200 2e f7 1f 3e e2 e3 8e bd 9c 74 97 bd f8 e6 5d 3d
       0.15621635 -0.06977059 -0.07395288 0.054175347
000210 7c 1b 9f bd a5 6d c7 3d 3c dc 0e be 11 91 b3 bd
       -0.07768914 0.0973771 -0.139512 -0.087679036
000220 af d2 19 3c 47 5a 18 3d e3 4d f3 bd ce 4f 5d bd
       0.00938861 0.03719547 -0.1188009 -0.054031186
000230 ab 10 8a bd ae 96 b8 bd 01 e9 15 3e 3b f3 ae bd
       -0.067414604 -0.09013115 0.14639665 -0.08542486
000240 c7 02 82 bd f5 9b f3 3d 4d 1d 93 bc 22 a1 c7 bd
       -0.06348186 0.11894981 -0.017958308 -0.097475305
000250 d1 f0 83 bd 27 79 e8 3d 7a 0f 2a bd 01 61 0f 3d
       -0.064424165 0.11351233 -0.041518666 0.03500462
000260 d9 7d 8f 3d a4 52 ef 3d 02 97 c7 3d f4 7d df 3c
       0.070064254 0.11685684 0.09745599 0.027281739
000270 d8 f8 00 be 46 83 ec bd 11 ba bc bc 2e de 99 bd
       -0.12594926 -0.11548476 -0.023037942 -0.075130805
000280 e2 f8 bb 3d 29 c3 ff bd 46 4a 9d 3d d2 76 c2 bc
       0.0917833 -0.12488396 0.07680182 -0.023738299
000290 c3 dc 6a 3c c0 d7 97 3c ca b6 b6 bd 7c ed b3 bd
       0.01433486 0.018535495 -0.08921583 -0.08785531
0002a0 ec 21 32 3c 8f 7a a3 3c 8a 4a 03 bb 2a 04 9e bd
       0.010872345 0.019955901 -0.0020033442 -0.07715638
0002b0 30 bb 52 3d 9f 60 16 bd bb d3 3a 3d cc ad 5f bd
       0.051448047 -0.03671324 0.04561208 -0.054609105
0002c0 d0 01 04 3e 10 99 18 be c0 e5 a3 3c f3 1a dd bd
       0.12891316 -0.14902139 0.020007014 -0.10796156
0002d0 e9 33 51 bd 56 2e c1 3c f6 7a d2 3c 18 31 5c 3d
       -0.051074896 0.023581665 0.025693398 0.053757757
0002e0 85 01 33 bc 29 24 0e 3d 04 2d ae 3d 34 ab 9b bd
       -0.010925655 0.034702454 0.0850468 -0.07601014
0002f0 d4 d7 96 bd 97 03 ad 3d a5 63 80 3d d2 09 67 3d
       -0.07365385 0.0844795 0.06269006 0.05640585
000300 c4 b7 7a 3e a2 ed 2f 3d 73 5b f8 3c cc e3 32 3e
       0.24484164 0.042951234 0.030317044 0.1746971
000310 44 c0 a4 3e 96 d9 d0 3d 5f 60 e3 3d 37 43 61 3e
       0.32177937 0.10197751 0.11102366 0.21998297
000320 29 35 62 3d 24 6b f9 3d 71 97 4a 3e d2 e7 9d bd
       0.05522648 0.121786386 0.19784333 -0.07710232
000330 40 d2 fa 3b d7 22 ea bd 18 1c 1d 3e 8b eb 4f 3d
       0.0076544583 -0.114324264 0.15342748 0.05076174
000340 38 f5 00 bd ea 71 a5 3d 3e ea b9 3d 01 0f 60 3d
       -0.03148386 0.08078368 0.09077881 0.05470181
000350 a0 b4 56 bd 7e 7f d6 3d 98 36 96 3d cb f2 f9 3d
       -0.05241835 0.10473536 0.07334632 0.12204512
000360 2f 4e 75 3e ac e0 14 3c 03 80 2a bd e7 9a 95 3d
       0.23955606 0.009086769 -0.041625988 0.07304936
000370 3b 28 1c bd 13 9b 6b bb 06 d2 45 3e a6 8b 06 3e
       -0.038124304 -0.0035950586 0.19318399 0.13139209
000380 31 59 80 bb 59 d6 01 3f bb 92 9f 3e ff af 17 bd
       -0.0039168824 0.50717694 0.31166634 -0.037033077
000390 d0 15 f2 3c d2 17 0c 3d 5a 40 17 3e de a8 cd bc
       0.029551417 0.034202404 0.14770642 -0.025104936
0003a0 2a 5d 08 3e 74 21 b5 3d d0 aa 16 3e c3 07 eb 3d
       0.1331679 0.08844271 0.14713597 0.1147609
0003b0 db 7e 04 bd 1f 46 fd 3e 77 66 d6 3d f5 a5 98 bd
       -0.03234754 0.4946756 0.10468762 -0.07453529
0003c0 3c 58 7f 3d 44 16 1c bd 1c e6 ab 3d a2 eb 40 3e
       0.062340006 -0.03810717 0.08393499 0.18839887
0003d0 80 f4 a5 3d 2f f8 b0 3d 31 dc b6 3d fe 90 ec 3d
       0.08103275 0.08641087 0.08928717 0.115510926
0003e0 d8 3b b2 3d 77 04 cc 3d 27 d8 07 bb 7f 17 8d bc
       0.087028205 0.09961789 -0.0020728202 -0.017223118
0003f0 c8 69 1d 3b 76 b1 4b 3d 4b 80 54 3e 23 0c c4 3d
       0.002401935 0.049729787 0.20752065 0.095726274

encoder.model.weight_ih_l1 f4 [256, 64]
000000 6e 81 44 bd 0b 0d e3 bd 27 d2 08 be f3 e9 7b bd
       -0.047974996 -0.11086472 -0.13361417 -0.06150241
000010 71 29 ea bd c0 85 75 bd 4f 23 31 bd fd c9 5b 3d
       -0.114336856 -0.059942007 -0.043246564 0.053659428
000020 97 9c e5 3d 2c 34 c0 bc 81 b3 ef bd fb f8 fe 3c
       0.11211508 -0.023462377 -0.117041595 0.031124583
000030 a8 46 94 3b 5f 61 02 3d 65 7d 38 3e e3 5c 4b be
       0.0045250244 0.03183114 0.18016584 -0.19859652
000040 e0 97 3f be 36 c5 88 3d 91 46 35 bc be f6 85 bd
       -0.1871028 0.0667824 -0.011064188 -0.06541203
000050 b8 1e b1 3c 9a a3 0f be 9b 7f 58 be b8 af fa bc
       0.021621093 -0.14027253 -0.21142428 -0.030601367
000060 ee a8 a8 3c b1 a8 0f 3e de 75 87 bd fb b7 4b bd
       0.020588364 0.14029194 -0.06614278 -0.049736004
000070 c1 53 82 bd cb b9 fb 3c 41 b7 0a bc 34 d5 43 3d
       -0.06363631 0.030728241 -0.008466543 0.04781075
000080 8b 48 f7 3c d1 9f 81 3d 7e 9a 00 3c e1 3e 20 3e
       0.030185958 0.06329311 0.007849334 0.15648986
000090 3d 04 30 3e 59 d3 04 3e 4a 90 a5 3b 79 37 05 be
       0.17189117 0.12971248 0.005052601 -0.13009442
0000a0 2d ab ad 3c 2b 3f e0 bc bf 42 89 bd 0f 05 e0 bd
       0.021199787 -0.02737387 -0.06702184 -0.10938465
0000b0 8c 00 79 3c ef 81 51 3d 8b 70 05 bd 6b e3 84 bc
       0.015197884 0.051149305 -0.032578032 -0.016221723
0000c0 6d 58 0c 3d d6 7c 1f be ca 69 57 3b ba c6 45 bd
       0.034264017 -0.15574965 0.0032869452 -0.048285224
0000d0 52 82 6e 3d b0 31 a4 bc 0b fe 0d 3d 60 75 08 3e
       0.058229752 -0.020043224 0.034666102 0.13326025
0000e0 43 f2 86 bc 1a 37 d2 3d e8 b9 21 3e f7 87 16 be
       -0.016472941 0.10264416 0.15793574 -0.14700304
0000f0 2e f1 89 bd 3c 96 4f 3e a3 a0 13 bd b4 2a 74 bd
       -0.067354545 0.20272154 -0.036041867 -0.059611037
000100 5c ff 4c 3d 90 aa af 3d bd 49 bb bd dd 49 28 be
       0.050048217 0.08577454 -0.09144924 -0.16434427
000110 3f 16 ea bc a4 a1 77 bc 44 30 c3 bd 07 46 94 3c
       -0.02857506 -0.015114222 -0.0953069 0.018099798
000120 8b 73 ce 3d a2 ec 1d bd 27 9e 9c bd cf ce df bd
       0.10080632 -0.03855575 -0.07647353 -0.109281175
000130 67 bc 2f bd 2c c8 fd bd ca 5f 96 3c b3 63 17 bc
       -0.042904284 -0.123916954 0.018356223 -0.009240079
000140 a4 3b a0 bb d4 b6 4a 3d 8e 61 90 3d 7f 38 a1 bd
       -0.004889922 0.049490765 0.07049857 -0.07872104
000150 74 88 67 bd 7c 0a 0e be a0 42 29 be 73 83 01 bd
       -0.056526616 -0.13871187 -0.16529322 -0.0316195
000160 b1 33 12 bd 9e a2 7e bc 4a 59 46 bd 98 ed 62 bd
       -0.035693828 -0.015541701 -0.048424996 -0.05540237
000170 c6 14 00 bd 87 8d 3f bd 9b aa 47 be a8 1d 31 3e
       -0.03126981 -0.04676583 -0.19498675 0.17296469
000180 8c 61 b8 3d 6c a1 5f 3d 92 f8 66 3d 4a 83 57 bd
       0.090029806 0.054597303 0.0563894 -0.05261544
000190 be f9 ec bd 26 a3 77 3c ac 17 5a be a2 a3 1a be
       -0.11571072 0.015114581 -0.21298093 -0.15101483
0001a0 72 d9 ca 3d 96 7e c0 3c e1 d6 4e bd 5f 84 1f 3c
       0.09904756 0.02349786 -0.050497893 0.00973615
0001b0 6d 6d 92 bd 70 53 bc 3d 89 b5 31 3e ce 44 1c be
       -0.071497776 0.09195602 0.17354406 -0.15260622
0001c0 db c6 10 3e 31 d7 a1 3d 5f 0c 21 be bb 28 8f bd
       0.14138357 0.07902373 -0.15727375 -0.069901906
0001d0 22 1c 98 3d 26 53 12 be ca a1 0a be 2a b4 a4 3d
       0.07427241 -0.14289531 -0.1353828 0.08042176
0001e0 03 16 97 3c a4 26 30 3d 6a fa 86 3d 45 5b 7d bd
       0.018443113 0.0430056 0.065907314 -0.06185462
0001f0 3c 1f 5e 3c 75 82 0e 3e 84 fa c0 bd 43 69 91 bd
       0.013557252 0.13916953 -0.09422782 -0.07100155
000200 b1 15 04 3f a8 9c 13 be 99 a1 9b bd f7 04 ca bd
       0.515956 -0.14415228 -0.07599182 -0.09864228
000210 48 c7 26 be 7b a5 39 bd a6 aa f1 3c 44 f4 f5 bd
       -0.16286957 -0.04532383 0.029500317 -0.120094806
000220 ce 73 42 3c cb 5b 09 3e 2f 64 c7 bd 6f 27 f6 bd
       0.01186843 0.13413922 -0.097359054 -0.1201924
000230 e4 30 0b bd ab 3d e8 b9 9f 2d cb 3d e6 a9 ff 3d
       -0.033982173 -0.00044296434 0.09920811 0.124835774
000240 56 38 12 3c c8 32 78 3e 80 5c 20 be a3 02 85 bc
       0.008924564 0.24238122 -0.15660286 -0.016236609
000250 f3 09 65 bd 01 72 f4 3d cb 06 a4 3b 14 b2 eb 3d
       -0.05591769 0.11935807 0.0050056926 0.11508575
000260 a3 33 23 bc 9d e7 0b 3e 1d e5 b3 3d c2 c4 09 3d
       -0.009961042 0.13662572 0.08783934 0.03363491
000270 4c 85 98 3d 1e 2e fa bd 0c 3c 98 be ac dd 07 3d
       0.07447299 -0.122158274 -0.29733312 0.033170387
000280 06 e4 1c 3d 44 6a 27 be c3 2a c8 3e fa fe 8f 3d
       0.038303398 -0.16349131 0.39095125 0.07031055
000290 e5 af 0d bd 17 22 98 bc 3b c5 2b be 0a c8 78 bd
       -0.034591574 -0.018570943 -0.16774456 -0.060737647
0002a0 8b 8f a0 bd 07 29 84 bd bd 6f 41 be 4e 18 4e be
       -0.07839879 -0.06453138 -0.18890281 -0.20126459
0002b0 a2 e8 88 3d 67 01 7c 3e bd 02 b0 3c cc e7 25 3d
       0.06684996 0.2460991 0.02148568 0.04050426
0002c0 e4 47 ce 3d 89 8e f7 bc 50 78 a4 bd 33 8f 03 be
       0.10072306 -0.030219333 -0.0803076 -0.12847595
0002d0 38 ef 41 3d c8 c3 29 bd 23 d8 ae bd 9b e1 ec ba
       0.047347277 -0.041446477 -0.085373186 -0.0018072607
0002e0 c9 ee 0b bd 56 81 3a 3e 0b 4d 1f be 5c d1 3d 3b
       -0.03416327 0.182134 -0.15556733 0.00289639
0002f0 50 c4 cc 3d 5d f6 81 3e 58 2f b7 bd 57 31 53 be
       0.09998381 0.25383273 -0.08944577 -0.2062429
000300 13 a2 09 3d bd f0 39 be bd 40 cd bb 80 e1 00 be
       0.03360183 -0.1815824 -0.006263821 -0.12586021
000310 5b 5b 3c be 16 b4 82 bd c0 68 85 bd 12 2e 85 be
       -0.18394224 -0.06382005 -0.0651412 -0.2601171
000320 2b c0 7e bb 6c 9e 1a 3e ef 2a 26 be cc 01 2e be
       -0.0038871865 0.15099496 -0.16227315 -0.16992873
000330 bc 38 b9 bd 26 64 09 be 50 8d 62 3e 54 6f 8d be
       -0.09044024 -0.1341711 0.22124219 -0.27624
000340 ae be 51 be 20 35 71 3e c4 26 d6 bc 69 04 85 be
       -0.20482895 0.23555422 -0.026141532 -0.25979927
000350 9f f5 d4 bd c2 ee 16 be e6 14 10 be f3 38 ca 3d
       -0.10398411 -0.14739516 -0.14070472 0.098741435
000360 81 8b 16 be 57 10 0e 3e e4 76 93 3e 5a 48 04 3e
       -0.14701654 0.1387342 0.28801644 0.12918225
000370 73 c2 1e bd 1c f8 bc 3d 38 2c 8c be 5c e5 59 3e
       -0.03875966 0.092270106 -0.27377486 0.212789
000380 72 8c 82 3d 61 9f b7 3d d0 ed 4e 3e 28 82 15 3d
       0.06374444 0.08965946 0.20207906 0.03650108
000390 ae d4 9f 3c 65 ee e2 3d 59 8b 5b bc bc 82 85 be
       0.019510593 0.110806264 -0.013399922 -0.26076305
0003a0 0e 76 89 3a 3e 43 67 be 6e 6c 17 be 98 b1 26 3e
       0.0010487454 -0.22584245 -0.14787456 0.16278684
0003b0 f5 39 5c 3e fd 29 3b 3e 81 3f 98 bc 4e ab 34 be
       0.21506484 0.18277736 -0.018584969 -0.17643473
0003c0 d5 b2 48 3d 7e 83 5c be e0 a6 06 be 17 66 d5 bd
       0.048998673 -0.21534535 -0.13149595 -0.10419863
0003d0 c1 01 76 3e 28 c8 bf bc 57 89 31 3c 59 25 60 3e
       0.24024107 -0.023410872 0.010835967 0.21889247
0003e0 d3 9d 8d be af a1 04 3e 06 97 12 3d f5 3b 9e 3d
       -0.27659473 0.12952302 0.03578856 0.0772628
0003f0 66 a1 99 bd cb fd 56 3d c2 b1 1e bd 65 76 11 bc
       -0.075014874 0.05248813 -0.03874374 -0.008878325

encoder.model.weight_hh_l1 f4 [256, 64]
000000 24 f3 20 3d c8 05 28 3e a3 e6 0a 3c be cc 39 3d
       0.039294377 0.16408455 0.00847784 0.045361273
000010 01 a6 e1 3d 63 32 21 bd 1a ae 02 be e7 ee 41 be
       0.11017991 -0.039354693 -0.12761727 -0.1893879
000020 61 a8 9f 3b 56 8a a7 bd e5 02 1a 3e 02 11 b0 bd
       0.0048723673 -0.08180682 0.15040167 -0.08596994
000030 ad f5 0d bb ab 56 87 3c 6a f3 94 3d 1c e8 1c be
       -0.0021661327 0.016520819 0.0727299 -0.15322918
000040 22 36 1d be 9c d7 2a bc 5b dd 3d 3d 1a ff ba bc
       -0.15352681 -0.010427382 0.04635368 -0.02282672
000050 9c a2 8c 3d ab 06 84 3d c5 d4 18 3c 9f 3d 97 bd
       0.06866953 0.06446584 0.009328072 -0.073848
000060 e1 73 25 bd ae 9b 6a bd 3f e4 0d 3e 10 a0 6a bd
       -0.040393714 -0.057277374 0.138566 -0.057281554
000070 e3 10 aa 3d e2 5d 49 3e 81 e2 f3 bd e0 3e d1 3c
       0.08304002 0.1966472 -0.119084366 0.025542676
000080 8c 90 5a 3d ef 77 d2 3c c1 fd 54 3d bd db a3 3d
       0.053360507 0.025691954 0.05199981 0.08000896
000090 9d cd 0b bd 47 77 0e bd c2 4c ae 3d 7a 9f 04 3d
       -0.034131635 -0.03478172 0.08510734 0.03237865
0000a0 7e 04 49 bd 04 66 a3 bd e1 15 24 bd 46 9b af 3c
       -0.04907655 -0.07978442 -0.040059928 0.021436345
0000b0 77 a9 b2 3d 81 c0 8d b9 fa d2 4e 3d 4b 43 db 3c
       0.08723729 -0.00027037042 0.05049417 0.026765486
0000c0 34 e2 2b be d5 3a 29 3d 79 ad ca 3d 02 77 1c 3d
       -0.16785508 0.041315872 0.098963685 0.038199432
0000d0 3d a0 87 3b 16 03 4c 3d f3 ad e7 3d 6a df 6d bc
       0.004138975 0.04980763 0.11312475 -0.014518598
0000e0 00 91 85 3d 50 cc 9c bc e0 f9 68 3d 9d a1 8e bc
       0.06521797 -0.019140393 0.056878924 -0.017411048
0000f0 a2 00 be 3d f6 ec ac bc 1c 86 0d 3d a7 27 72 bc
       0.092774644 -0.021109086 0.034551725 -0.014779962
000100 af 87 f0 3d 2f 2f fd bc 14 1d c9 bd ed 5e 75 bc
       0.117446296 -0.030906288 -0.09819999 -0.014976245
000110 6b f1 0c be 14 dc 3f be 17 39 4b 3d e4 b8 02 3d
       -0.13763969 -0.18736297 0.049614992 0.031914607
000120 fb 75 61 bd 99 1c 29 be d3 71 00 3d cf 3f c5 3d
       -0.055044156 -0.16514815 0.03135855 0.09631311
000130 cb 56 b6 bd 10 84 0c be c5 d5 42 3e d7 d5 de 3d
       -0.08903273 -0.13722253 0.19026859 0.108806305
000140 fd 2c e0 bd 3b 51 16 bc c2 49 14 3e 77 ee af bd
       -0.10946081 -0.00917464 0.14481261 -0.085904054
000150 3c 69 ae bd 76 f3 84 bd 82 45 ca 3d f7 19 a0 bd
       -0.085161656 -0.06491749 0.09876539 -0.078174524
000160 8b 71 cb bd 5c c3 90 bd 12 0b 18 3c 58 c1 9e bd
       -0.09933766 -0.07068512 0.009279983 -0.07751721
000170 aa dc b9 3e 89 b6 50 bd 3d 5b c7 bc 96 e8 19 3d
       0.36301166 -0.05095533 -0.024335498 0.037575327
000180 f4 99 13 bc 7f 4c d0 bd 56 b1 33 3e 81 c5 84 3e
       -0.009008873 -0.101708405 0.17548117 0.25931934
000190 fa d9 70 3d 35 8b c5 bd a2 40 a0 3d 8c 4d f5 3d
       0.05880163 -0.09645692 0.07824828 0.119776815
0001a0 30 4f 11 be 75 cb 69 be 52 14 e2 bc 0d e7 49 be
       -0.14190364 -0.22831519 -0.02759758 -0.19717045
0001b0 24 b1 d4 3d 2d ac 4b be da a8 05 bd cc ca 11 3a
       0.103853494 -0.19889899 -0.032631733 0.000556153
0001c0 b9 75 21 be 05 6c 27 3e ac 7c 3e 3d 7b 63 d0 3d
       -0.15767564 0.163498 0.046505615 0.101752244
0001d0 63 b7 13 3d 03 97 10 be 67 5d 9e 3d a9 90 90 3d
       0.036063563 -0.14120106 0.07732659 0.07058842
0001e0 1f 5e 8b 3b bb 65 e1 bc 15 47 91 3e f0 84 a4 3d
       0.0042531635 -0.02751433 0.28374544 0.08033168
0001f0 0f 51 6a 3e aa 4b da bd f2 60 73 bd fd d7 d1 bd
       0.22882484 -0.10658963 -0.059418626 -0.102462746
000200 31 96 3c 3e 48 76 17 3e 38 d2 56 3d fe 72 28 be
       0.18416668 0.14791214 0.052446574 -0.16450116
000210 ef 2d 35 3d 36 22 a9 3d 95 08 99 bd 72 9b 24 be
       0.04423326 0.08258478 -0.0747234 -0.16074923
000220 a3 7c d9 3d bf 16 bb bd 2f 0b a4 3d 33 c1 05 3e
       0.10619476 -0.09135198 0.080099456 0.13061981
000230 b5 ba 48 3d c4 41 52 bd 7a 62 d8 3d ac df bd 3d
       0.049006183 -0.05133225 0.10565658 0.09271178
000240 15 a7 02 ba 57 0b 5f bd 6a 0b 0e 3c 06 34 a5 bc
       -0.00049840036 -0.054454174 0.0086697135 -0.020166408
000250 8c 9e 8d be 2a cb 20 3b 5a f9 45 3d 4f d7 e4 bb
       -0.27660024 0.0024535158 0.048333503 -0.0069836746
000260 46 05 a4 bd 7f b8 84 bd 79 b7 08 3d ab ae a2 bd
       -0.08008818 -0.06480502 0.0333781 -0.079434715
000270 7e 14 ec bb 9f f9 0f 3e f0 5c 53 3c 33 01 05 3d
       -0.0072045913 0.14060067 0.012900576 0.032471847
000280 46 41 ad 3d f5 29 1e be eb a6 70 bd d1 ca 39 3e
       0.084597155 -0.15445693 -0.058752935 0.18143775
000290 87 6f 99 3c 79 0e f5 bd aa 6c ba bb b3 2b c0 3d
       0.018729938 -0.11965651 -0.0056892233 0.09383335
0002a0 6c 6a 1c be c0 0b 2a bd f7 d0 31 3d f0 79 eb 3d
       -0.15274972 -0.041515112 0.043412175 0.11497867
0002b0 96 6c 85 bc ee 2c b9 bc 44 63 cc bd 0d b0 72 bd
       -0.01628713 -0.022604432 -0.09979871 -0.059249926
0002c0 55 0c 9d bd 25 f5 21 3e b9 df 2e be 02 4d 70 3d
       -0.07668368 0.15816171 -0.17077531 0.05866719
0002d0 09 53 10 3e 9e 00 1d be 12 35 3d bd a0 db f4 3d
       0.14094175 -0.15332267 -0.04619319 0.11955953
0002e0 d0 28 c4 bc 3e 03 bc 3c 48 bd 82 3d 9f bc 0f 3e
       -0.023945242 0.022950765 0.06383759 0.14036797
0002f0 6b 62 bb bc 5d 14 27 3d d7 a0 5e 3d 82 61 9a 3d
       -0.022874078 0.040790904 0.054352608 0.075381294
000300 40 bc 91 3e 8e dd 8b 3c 10 2e 9b ba 23 03 08 bd
       0.28463936 0.017073419 -0.0011839289 -0.033206116
000310 d3 6a ff bd 57 f8 11 be f6 49 dc 3b f7 dd a8 ba
       -0.12471547 -0.1425489 0.006722684 -0.0012883533
000320 04 71 01 be 44 f6 94 bd 12 e1 f9 3d 51 c1 60 3e
       -0.12640768 -0.07273534 0.12201132 0.21948744
000330 ef d9 70 bd 4a 47 19 be 51 5a 0f 3e 94 1f 3e 3e
       -0.058801588 -0.14968601 0.13999297 0.18566734
000340 7f 46 09 3d 00 ee 9b 3d 4b a3 fc bd 11 84 ba bc
       0.033514496 0.07613754 -0.12335833 -0.022768052
000350 64 86 26 bd fd c4 3d be 27 fe 3f 3d 5e 65 f8 bc
       -0.04065551 -0.18532176 0.046873238 -0.030321773
000360 73 b5 f7 bd fd 5a 36 3d 63 e8 34 bd 73 ae de 3b
       -0.120951556 0.044520367 -0.044166934 0.0067956983
000370 90 87 4f 3d ab f8 13 3e 6f 58 fa bc 4d 32 1f 3e
       0.05066639 0.14450328 -0.030559747 0.15546532
000380 48 ce 23 bd 98 7d f5 3c 42 d6 cc 3d 17 71 2e 3e
       -0.039991647 0.029967114 0.10001804 0.17035328
000390 be ab 1b 3d 7f 44 bc bd d3 56 11 3c 19 46 a0 bd
       0.038005583 -0.09192752 0.008870798 -0.0782587
0003a0 ad 5a 9a bd 25 8f 0f 3c af 0c 83 be c5 5b 78 be
       -0.07536826 0.008762156 -0.25595614 -0.24253757
0003b0 8e 95 cb bc b5 51 11 be 0d ad df 3d 6b 1f 66 3e
       -0.024851587 -0.14191325 0.10921679 0.22472923
0003c0 49 da 5f be 7b f6 38 3e a8 d8 4a 3d 03 5a 60 bd
       -0.21860613 0.18062775 0.049523026 -0.054773342
0003d0 e5 e1 50 3c 35 7a 98 3d 1b 2c 59 3d 70 b7 e5 bb
       0.01274917 0.07445184 0.053020578 -0.007010393
0003e0 5f 35 ae 3d 62 b9 78 bd ca 4f 18 3d d2 90 99 3d
       0.085062735 -0.06072367 0.037185468 0.074983254
0003f0 ed a4 05 3e 9a 8f 7f 3b 7f 55 4e bd 53 a6 8c be
       0.13051195 0.0038995505 -0.050374504 -0.27470645

encoder.model.bias_ih_l1 f4 [256]
000000 8a 43 6d 3d f9 b0 65 3d ff 93 40 bb 79 81 76 3e
       0.05792574 0.056076977 -0.0029385088 0.24072827
000010 7c c5 45 3d ae d5 0a 3e e2 65 6c 3d 82 fe 8b bb
       0.04828404 0.13558075 0.05771435 -0.004272283
000020 d0 d2 ac 3d de cf 8e 3e f3 4c f4 3d 6f 4b 1a 3e
       0.08438647 0.27892965 0.119287394 0.15067838
000030 8e d9 b7 3d 71 34 a5 3d e9 0c f9 bc c2 31 20 3e
       0.08977042 0.08066643 -0.030401664 0.15643981
000040 d6 11 51 3f 31 03 3c bd d1 54 49 3d 0b 31 e2 bc
       0.8166784 -0.04590148 0.049153153 -0.027611276
000050 9d 47 37 3f 3a 93 dd 3d 53 50 7e bd a4 9d 56 3c
       0.7159365 0.10819097 -0.062088322 0.013099108
000060 89 0f b9 3e 4d d6 a5 3d 13 fe 31 3e 88 b4 22 3e
       0.36144665 0.08097515 0.17382078 0.1588918
000070 20 4b 0c 3d 6d ea 24 3e 3d 4d 99 3e ce d6 ad 3e
       0.034251332 0.16105051 0.2994174 0.33952945
000080 f5 67 83 3d 9b 5c 44 3e 83 9f 20 3e 6f 1a c1 ba
       0.064163126 0.19175951 0.15685849 -0.0014732609
000090 a2 7b 03 3d 47 5a 2f bd 97 9a 2c 3c e7 5b 01 bd
       0.032100327 -0.042810705 0.010534904 -0.031581786
0000a0 ed be b2 bd 47 19 5c 3d ef 23 32 bd a7 9e 8a bd
       -0.087278225 0.053735044 -0.0434913 -0.06768542
0000b0 e7 2c 41 bd bd d3 57 bd ff c2 25 3e c4 15 48 bd
       -0.047161963 -0.052692164 0.16187666 -0.048848882
0000c0 1f be f1 3d f8 ea 9f 3d 12 ab 45 3e 06 94 44 3e
       0.11803841 0.078084886 0.1930354 0.19197091
0000d0 08 b1 47 3e 6a 07 84 bc c5 a5 d9 3d d8 da 0f 3e
       0.19501126 -0.016116817 0.10627321 0.14048326
0000e0 ad ee 7b 3e 44 a1 2d 3e 7a 7f c4 3d b0 53 96 3c
       0.24602766 0.16956049 0.09594627 0.018350452
0000f0 48 e0 35 3c c8 ad 05 bd 2c e4 86 bd c5 97 bb bd
       0.011100836 -0.032636434 -0.06586489 -0.09159807
000100 29 20 86 3d d6 72 ef 3d fe d6 e7 bd 22 a7 15 3e
       0.06549103 0.11691825 -0.113203034 0.14614537
000110 d9 1c 85 bd 58 4b 02 be 80 bd aa bd f3 e5 4a bd
       -0.06499643 -0.12724054 -0.083369255 -0.049535703
000120 c0 94 a4 bd f8 55 15 be a1 40 4c bd 6f 51 6b 3d
       -0.08036184 -0.14583576 -0.049866322 0.057450708
000130 a9 bd 97 bd 28 4a 2b bc b2 85 03 3c 54 6d ae 3c
       -0.07409222 -0.010454692 0.008027481 0.021292366
000140 08 70 40 bd 86 1e 96 bd cd eb 1b 3e d9 37 b2 3d
       -0.04698184 -0.07330041 0.1522667 0.08702058
000150 9d 74 a9 bd a2 88 84 bd 1c e8 4b 3c 2f b0 cb 3d
       -0.08274195 -0.06471373 0.012445476 0.09945714
000160 e6 fb 83 3d db b6 9a 3d a5 49 64 bd 1b c1 6c bd
       0.0644453 0.07554408 -0.055734295 -0.057801347
000170 74 33 ea bd 98 ac 7c 3d bb 8b 76 3d 20 c9 30 3d
       -0.11435595 0.061688036 0.06019185 0.043160558
000180 d0 ec 03 be ba 89 af 3d bf a5 31 bd b9 e1 0a bd
       -0.12883306 0.08571191 -0.04337096 -0.033906672
000190 5f 4d d0 3d cd fb 81 bd 88 0a 26 3d a9 a2 8f 3d
       0.10171007 -0.06346855 0.040537387 0.07013447
0001a0 7e e0 d6 3d 80 0e bf 3d fd 36 de bd f1 5d ac bc
       0.10492037 0.093289375 -0.10850332 -0.021040889
0001b0 ce 6e cc 3d fc 4d b7 bd 78 65 07 3d dd b8 93 bd
       0.09982072 -0.08950421 0.033055753 -0.07212994
0001c0 b7 65 b4 3d 51 5e 08 3d 2d 40 40 3e f1 fb d8 3a
       0.08808463 0.033293072 0.18774481 0.0016554577
0001d0 a4 a5 3b bc 02 be a8 3b 38 d9 6a bc b2 aa 49 3e
       -0.011453066 0.005149604 -0.014334016 0.19694021
0001e0 8c 28 43 bb 0a 85 04 be 0a 73 75 bd 40 dc cd bc
       -0.0029778806 -0.12941375 -0.059924163 -0.025129437
0001f0 9d 1b cc 3d 2c 38 11 bb 6b bd 9d bd be dd f9 ba
       0.09966204 -0.0022158725 -0.07702144 -0.0019063277
000200 db c7 f5 3d 5f ce 6b bc 8b 4d 79 3b 4c 1d a3 bd
       0.1200101 -0.014392464 0.0038040604 -0.07964572
000210 6b f5 06 be fe 3e 8f bd 01 de fb bc 8f 2d 5b 3c
       -0.13179557 -0.06994437 -0.030745508 0.013377561
000220 fc 9f 98 bc d8 62 b6 bd 4c 1f 10 3d 15 7b 87 3d
       -0.018630974 -0.08905572 0.035186097 0.06615273
000230 0e a0 14 bd 54 72 0d be ae 82 e0 3c b1 ed b9 3d
       -0.036285453 -0.13813144 0.027406063 0.09078539
000240 ab 3a a7 bd 48 7f 6f bd e5 f9 52 bd 95 77 47 be
       -0.08165487 -0.058470994 -0.05150785 -0.1947921
000250 70 2c 5b 3d 7b e1 10 bd 35 cd f4 bc fe 94 2c 3d
       0.053509176 -0.035371285 -0.029883007 0.042134278
000260 b9 3d aa be f9 4e 04 3e 9a 72 ca bc 54 d4 b8 ba
       -0.33250216 0.1292075 -0.02471285 -0.0014101365
000270 f9 4b ba 3d d0 a1 ad 3c 41 1d 08 bd 2d 2c c0 3c
       0.09096522 0.021195322 -0.033231024 0.023458565
000280 7d 83 47 3d 56 2d 54 3d 7b 21 01 3f ea c7 01 3e
       0.04870938 0.05180105 0.5044171 0.12673917
000290 57 da 71 3d 0b fc a3 bd f9 cd 56 bc 8b 3e 73 3d
       0.059046116 -0.08007058 -0.013110631 0.059385817
0002a0 30 92 8e bc 10 6e 04 ba 01 19 e1 bd 47 2e 2c 3d
       -0.017403692 -0.0005051801 -0.10991097 0.04203632
0002b0 36 63 84 bd 1b 51 9d 3c a9 e1 6c bd 8d 12 ce bc
       -0.064642355 0.019203713 -0.057832394 -0.02515533
0002c0 36 87 23 be 43 a1 d0 3d f0 eb de bb bc 6d 2f bc
       -0.15969548 0.10187008 -0.0068030283 -0.010707315
0002d0 d7 7f fa 3d a4 69 e1 3d 8d 29 04 3e bd 98 3e 3d
       0.12231415 0.110064775 0.12906475 0.04653238
0002e0 0b 15 18 3d 19 9e 0f 3d 66 ed 0b 3e 13 4e bc bc
       0.037129443 0.035062883 0.13664779 -0.022986447
0002f0 52 db e1 3c be f5 3d 3c b7 c7 84 3d 1d bc fc bd
       0.0275704 0.011594234 0.06483405 -0.12340567
000300 f3 2e a8 3d 51 26 60 3d 26 4d bc 3d 38 a8 83 3e
       0.0821208 0.05472404 0.091944024 0.25714278
000310 a6 4c cd 3d fb 43 41 bd ff 9f 2e bd d8 9c 60 bd
       0.10024385 -0.04718397 -0.042633053 -0.054837078
000320 89 cb 01 3c 14 a5 c9 3d b1 78 81 3d b1 5a 8c 3e
       0.007922062 0.09845939 0.06321848 0.27412942
000330 f8 19 9a bd d5 de e8 bd 5c 8d 28 3e 3b 4e 42 3d
       -0.075244844 -0.11370627 0.16460174 0.047437888
000340 37 8b 62 3f 02 28 b2 3b d2 01 47 3a 2e 3b 1c 3e
       0.88493675 0.005436898 0.0007591519 0.1525695
000350 d7 17 22 3f ad eb 62 bd 3a 4a ac bc 8a ca 9a bd
       0.63317627 -0.05540054 -0.021031488 -0.075581625
000360 0b 5c d3 3d ba 29 c0 3c 2f 2c 1b 3e 85 f4 18 3e
       0.1032029 0.023457397 0.15153573 0.14937027
000370 87 e8 13 3e a5 0c c8 3d 25 3a 08 bd 2f 13 fd 3e
       0.14444171 0.09768037 -0.033258576 0.49428698
000380 f7 95 36 3e 81 d5 55 3d f4 a6 e6 bd 2d 89 2a 3e
       0.17830645 0.052205566 -0.112623125 0.16653891
000390 a0 30 65 3d 7b 0b ac 3d 51 f5 50 3c 12 44 2a bd
       0.055954576 0.08400627 0.0127538005 -0.041568823
0003a0 05 53 0e 3e b4 ac 39 3d 15 71 92 bd 41 9b 88 3c
       0.13898857 0.04533072 -0.07150475 0.016675593
0003b0 fe b7 15 3e 86 da 12 bd 7b fb a1 3d 2c 7a 9b bd
       0.14620969 -0.03585293 0.07909294 -0.07591662
0003c0 8e 9d 8c 3d b3 2a c8 3d c4 82 29 3e 00 80 4d 3d
       0.06865989 0.09773769 0.1655379 0.0501709
0003d0 5b a1 c7 3d 5c ec ea 3d 50 58 cf 3d 9d 76 54 3e
       0.09747573 0.11470863 0.10124266 0.20748372
0003e0 7c f7 15 3d 9c f0 6f ba 63 4c 82 3d 48 0e 27 3e
       0.036612973 -0.000915298 0.06362226 0.16314042
0003f0 19 f9 13 3e c7 e7 0e 3e 55 b5 0c 3e 3c 83 03 3e
       0.14450492 0.13955604 0.13741048 0.1284303
