models/20200923_212102/epoch_0800_loss_77742.74428.pt (torch, 857809 bytes, 96 tensors)

encoder.model.weight_ih_l0 f4 [256, 3]
-0.052406583 0.036865298 -0.038944747 0.07861287 0.06386037 0.0476384 -0.02033682 0.015575072
0.16542104 0.019668221 0.18652539 -0.04600918 0.04022519 -0.04881549 0.09736512 0.04933966
0.34177014 -0.0054416736 -0.48581338 -0.02252148 0.049391665 0.03405275 0.059248224 0.11287583
-0.18212898 0.013736135 -0.23575264 -0.072369665 -0.04768855 0.043495554 -0.19559908 0.08594287
0.4165268 -0.07766032 -0.054656938 -0.17168643 -0.06146225 -0.10849346 -0.04579872 -0.124888904
-0.24127023 -0.14147735 -0.22822997 -0.060872942 0.11347405 -0.11203259 0.06657342 -0.13148221
-0.05187066 0.033977382 -0.1952051 -0.0007664469 0.041807737 0.09967537 -0.19099687 0.041639898
-0.03142456 -0.027727343 -0.18178797 -0.025788892 -0.09917583 -0.21097231 -0.011919766 0.057535876
0.05875124 0.036227114 -0.06300449 -0.3987265 -0.024007417 0.03618246 -0.010367978 0.096217394
0.13226657 0.009897388 -0.008764409 -0.12697494 -0.03517894 -0.15246603 -0.29884306 -0.23838553
-0.09921599 -0.012867263 -0.0135196075 -0.005913866 -0.020010734 0.032012086 -0.03252064 -0.2604361
0.20603871 0.0127992695 -0.20487235 0.015785433 0.013508127 -0.2541393 -0.036864337 0.09009296
-0.18236792 0.05058675 -0.061378144 -0.111121014 0.17381181 0.035288833 0.01975694 0.059791826
-0.08720771 -0.39852327 -0.34843186 -0.30560172 0.0068434407 -0.044830926 0.094306536 0.10601134
0.085499346 -0.0034372448 -0.3001249 -0.1135295 -0.057600856 0.101075836 -0.09414946 0.08057186
-0.14346133 -0.23061942 -0.09830421 -0.06981522 -0.20355566 -0.017748475 -0.007688405 0.17671467
0.42836934 -0.09845156 0.0026745934 -0.15621437 -0.07398719 0.2121829 -0.038612187 0.44695014
0.04725536 0.5063524 -0.19202003 -0.24875136 -0.20521587 -0.11761592 -0.12507781 0.08824293
-0.16205613 0.18275593 0.12162035 -0.078447685 0.18478312 -0.019420812 0.046730895 -0.090786465
-0.12929384 -0.06216444 0.080534406 0.13725972 -0.04107468 -0.13628377 -0.043923378 -0.05116175
0.04221978 -0.0118799 -0.283187 -0.038282007 0.13635845 -0.061575297 -0.14175026 0.045091156
-0.047587592 -0.04456294 -0.07145459 -0.12616429 0.08040033 -0.21592972 0.084593296 0.06428849
0.12368667 -0.08737633 0.12047296 0.16212271 -0.36003143 -0.08343821 -0.09844204 0.001825585
-0.10752281 0.0988111 -0.035535607 0.06772418 0.07510859 0.16942102 0.15864228 0.6471334
-0.07392878 -0.15960874 0.09249008 0.13377765 -0.16482233 0.15173724 -0.33157185 -0.028478479
-0.042566948 -0.14813384 0.13520564 -0.08853074 -0.23385443 -0.27227437 0.118139155 -0.22077549
0.1739918 0.42499873 -0.4749173 -0.0918077 0.10879457 -0.30238113 -0.32947922 -0.14763607
-0.060737852 -0.24925189 -0.4706985 -0.32705072 0.12843272 -0.0020299102 -0.23243405 0.05482702
0.27510294 0.14450434 -0.2169171 -0.04637371 0.12783018 -0.08437642 -0.089698635 -0.15484083
-0.32596755 0.018791554 -0.23414569 -0.31190348 -0.19086047 0.051841356 0.37202895 0.008088467
-0.1121289 0.1930414 0.020658547 -0.17648019 -0.29818928 0.020402363 0.014671991 -0.067249805
-0.069255784 -0.061865192 0.045472775 -0.08600789 0.05315179 -0.072081424 0.05129481 -0.076663345
00000000: 49a8 56bd 1100 173d 8784 1fbd c9ff a03d
00000010: 3ac9 823d 7c20 433d 6799 a6bc 962e 7f3c
00000020: 2264 293e 401f a13c 8300 3f3e 1f74 3cbd
00000030: 2bc3 243d c0f2 47bd 5d67 c73d 6218 4a3d
00000040: 7ffc ae3e 1150 b2bb 88bc f8be f87e b8bc
00000050: ea4e 4a3d e57a 0b3d 44ae 723d 712b e73d
00000060: 0580 3abe 870d 613c 2469 71be 8c36 94bd
00000070: 1255 43bd 6528 323d 204b 48be d102 b03d
00000080: 0043 d53e 600c 9fbd f4df 5fbd 91ce 2fbe
00000090: d7bf 7bbd d231 debd 7097 3bbd c1c5 ffbd
000000a0: 8b0f 77be 70df 10be 1eb5 69be e855 79bd
000000b0: 1565 e83d 5871 e5bd a557 883d 46a3 06be
000000c0: 5476 54bd de2b 0b3d d9e3 47be 61eb 48ba
000000d0: 973e 2b3d 9a22 cc3d af94 43be 998e 2a3d
000000e0: 0ab7 00bd 7424 e3bc a026 3abe 3a43 d3bc
000000f0: b31c cbbd 2009 58be 1f4b 43bc bdaa 6b3d
00000100: 24a5 703d e262 143d 8008 81bd e125 ccbe
00000110: 34ab c4bc 0f34 143d 74de 29bc a00d c53d
00000120: e370 073e a728 223c 9998 0fbc b805 02be
00000130: cb17 10bd 0e20 1cbe f501 99be 561b 74be
00000140: c131 cbbd 36d1 52bc 5881 5dbc 1bc9 c1bb
00000150: 8ded a3bc 1b1f 033d 5d34 05bd e157 85be
00000160: d0fb 523e 07b4 513c 0fca 51be 7450 813c
00000170: 3151 5d3c 8c1e 82be 0fff 16bd a882 b83d
00000180: a8be 3abe 0d34 4f3d a667 7bbd 6a93 e3bd
00000190: b9fb 313e 068b 103d 4ed9 a13c 46e8 743d
000001a0: f599 b2bd 3e0b ccbe a965 b2be d477 9cbe
000001b0: f13e e03b a2a0 37bd c923 c13d 791c d93d
000001c0: 481a af3d 6643 61bb f9a9 99be 2882 e8bd
000001d0: e0ee 6bbd d900 cf3d 6fd1 c0bd dc02 a53d
000001e0: 87e7 12be 7f27 6cbe b853 c9bd 48fb 8ebd
000001f0: e570 50be 4065 91bc 04ef fbbb b1f4 343e
00000200: 3a53 db3e f9a0 c9bd 3b48 2f3b a9f6 1fbe
00000210: 9986 97bd 7946 593e d027 1ebd a6d6 e43e
00000220: d68e 413d 50a0 013f e6a0 44be adb8 7ebe
00000230: 1c24 52be 9ee0 f0bd 6614 00be b6b8 b43d
00000240: 0bf2 25be 5f24 3b3e 1714 f93d 2ea9 a0bd
00000250: c937 3d3e 6518 9fbc e568 3f3d 41ee b9bd
00000260: 9b65 04be 24a0 7ebd 39ef a43d d08d 0c3e
00000270: ec3d 28bd f98d 0bbe 00e9 33bd fc8e 51bd
00000280: a6ee 2c3d e9a3 42bc e3fd 90be 98cd 1cbd
00000290: 8da1 0b3e 6136 7cbd fb26 11be 81b1 383d
000002a0: 35eb 42bd a187 36bd c956 92bd 3631 01be
000002b0: eea8 a43d ae1c 5dbe 403f ad3d afa9 833d
000002c0: 704f fd3d 5cf2 b2bd 87ba f63d 7f03 263e
000002d0: 0a56 b8be a7e1 aabd fb9b c9bd 7848 ef3a
000002e0: eb34 dcbd 795d ca3d c98d 11bd fab2 8a3d
000002f0: 88d2 993d b47c 2d3e 1f73 223e 89aa 253f
00000300: f967 97bd 7970 23be 706b bd3d 02fd 083e
00000310: 2fc7 28be 0261 1b3e c9c3 a9be b34b e9bc
00000320: ae5a 2ebd 66b0 17be 5973 0a3e 9b4f b5bd
00000330: 8977 6fbe 8c67 8bbe f1f2 f13d f812 62be
00000340: e82a 323e 6f99 d93e 5c28 f3be ad05 bcbd
00000350: b0cf de3d b3d1 9abe 80b1 a8be e92d 17be
00000360: 41c8 78bd e33b 7fbe 65ff f0be 3173 a7be
00000370: de83 033e 3e08 05bb 3103 6ebe 4c92 603d
00000380: 4bda 8c3e f2f8 133e 841f 5ebe 5cf2 3dbd
00000390: eae5 023e 8bcd acbd ebb3 b7bd 988e 1ebe
000003a0: 38e5 a6be bff0 993c e3c3 6fbe d0b1 9fbe
000003b0: ed70 43be 9a57 543d 947a be3e 7d85 043c
000003c0: d6a3 e5bd a5ac 453e 1d3c a93c 39b7 34be
000003d0: 44ac 98be db22 a73c ca62 703c 44ba 89bd
000003e0: fad5 8dbd 5b66 7dbd a941 3a3d e824 b0bd
000003f0: b1b5 593d 6d9f 93bd 821a 523d ac01 9dbd

encoder.model.weight_hh_l0 f4 [256, 64]
0.0660864 -0.07097852 0.20903967 0.25405166 -0.056432504 0.29690838 -0.25317603 0.080899835
0.1147851 -0.18561906 0.06853901 -0.16423842 -0.08156377 -0.0035971622 -0.05927669 -0.042765826
-0.02053443 -0.0070930007 0.19540706 -0.08880621 -0.07603512 0.016061913 -0.014687495 -0.050191
0.11002317 0.061029613 -0.012344438 -0.18214783 0.51039785 -0.066445954 0.022785505 0.15337226
0.2973985 -0.16280672 0.0012553734 0.03551721 -0.03646765 0.40152094 0.11044162 -0.02491976
0.11049689 -0.050068587 0.34574795 -0.25939354 0.2201465 -0.22779773 -0.0037931763 -0.22951885
0.0521813 -0.2359881 0.08998172 -0.03009656 0.11257254 0.31424665 -0.096692026 0.14663754
-0.09688512 0.030367387 0.26472467 -0.19886316 -0.10383448 -0.05460553 -0.3738404 0.21401335
-0.20934385 -0.1575546 0.21699752 0.21447904 0.1430239 0.19795306 -0.11363963 -0.04819491
0.041767746 -0.18615076 0.18583903 -0.12145023 0.061164405 -0.04808178 -0.10716758 -0.019707682
-0.038463395 -0.21143977 -0.0024288667 -0.10543153 -0.053335838 0.14858888 0.022251183 0.02952559
0.14679302 -0.024427999 -0.051668655 -0.18583967 0.25445083 -0.23660575 0.17580946 -0.18190706
0.19174714 -0.15714093 -0.27765352 -0.09903521 0.031936176 0.27199775 0.11382876 -0.039621383
-0.07250622 0.079412974 0.08371059 -0.27070218 0.19994038 -0.024596374 -0.043924116 -0.057790797
0.04499314 -0.17682847 0.19729397 0.152603 -0.083747715 0.035511542 -0.17865486 0.09686239
-0.01068356 -0.06713179 0.045471705 -0.14357248 -0.07659122 -0.043609113 -0.19017214 0.23824336
0.069195576 0.026338702 -0.009665111 -0.09293092 -0.01292382 -0.03657218 -0.1819378 -0.020956442
-0.040730834 0.07965766 -0.12638375 -0.018224563 -0.14426659 -0.049230915 -0.058020286 -0.07443775
-0.07767253 0.087220214 -0.047333423 -0.104987174 -0.005427687 0.06103256 0.05398458 0.09780812
-0.12658168 0.09424664 0.12046946 -0.117368676 0.026967434 -0.003130275 -0.11326219 0.0671457
0.018494444 -0.085832916 -0.025368508 0.09330752 0.08562203 0.1459338 -0.1468254 -0.15454797
0.13167804 -0.11966953 0.001980765 -0.00089448504 0.06695017 0.05671188 0.08779174 -0.17848939
-0.010106988 -0.10635776 -0.11881025 -0.13233498 -0.021897273 0.10911973 -0.18222694 0.014130051
-0.09261247 -0.029068304 0.18878795 0.0075435503 -0.08571156 -0.02400276 -0.04579898 -0.07173091
0.16669977 0.1885127 0.11657726 -0.029733617 -0.010815529 -0.035838574 -0.08141813 -0.06599225
-0.0066545457 -0.06038945 -0.025883947 -0.14914617 -0.14397557 -0.15282364 0.06775977 0.05485564
0.08498574 0.06863161 0.15751544 -0.027453097 -0.06780835 -0.06880378 -0.15297328 0.14165449
0.033952616 0.017942639 0.050388113 -0.0044213803 0.07592448 -0.18229562 -0.074556835 0.09173498
-0.056130726 -0.12412373 -0.054410797 -0.07949228 -0.12677717 0.18481416 0.012954268 0.030547349
0.15927726 0.01902519 -0.08372595 -0.010081346 0.1948427 0.038380984 0.066193394 -0.08727843
-0.013239652 -0.10987443 0.053642325 -0.050947957 0.075327136 0.08752789 -0.05226949 0.011155661
-0.08386637 -0.07537727 0.1865912 -0.16938213 -0.17035663 -0.0033592023 -0.025847215 0.112031266
00000000: 4e58 873d 305d 91bd 7f0e 563e 0f13 823e
00000010: c525 67bd 6004 983e 4aa0 81be d0ae a53d
00000020: 7314 eb3d ec12 3ebe 2e5e 8c3d 1e2e 28be
00000030: e80a a7bd 5ebe 6bbb 1dcc 72bd 382b 2fbd
00000040: d237 a8bc 676c e8bb ca18 483e 08e0 b5bd
00000050: 4db8 9bbd 4694 833c d2a3 70bc 1495 4dbd
00000060: d453 e13d 30fa 793d 5340 4abc f684 3abe
00000070: 6fa9 023f d114 88bd aba8 ba3c 9e0d 1d3e
00000080: 9e44 983e ceb6 26be 578b a43a 7e7a 113d
00000090: 1a5f 15bd 2794 cd3e 372f e23d 8624 ccbc
000000a0: 324c e23d b814 4dbd e005 b13e 3bcf 84be
000000b0: 166e 613e cf43 69be f096 78bb fd06 6bbe
000000c0: 0fbc 553d dda6 71be 5648 b83d 108d f6bc
000000d0: 6f8c e63d f0e4 a03e 7806 c6bd 2728 163e
000000e0: b56b c6bd 07c5 f83c fe89 873e c9a2 4bbe
000000f0: 2ca7 d4bd 0caa 5fbd 0268 bfbe 5126 5b3e
00000100: 3c5e 56be fe55 21be 9934 5e3e 65a0 5b3e
00000110: db74 123e 35b4 4a3e e5bb e8bd 0768 45bd
00000120: a814 2b3d 4e9e 3ebe 964c 3e3e e6ba f8bd
00000130: 8787 7a3d 67f1 44bd ad7a dbbd 0172 a1bc
00000140: cb8b 1dbd ab83 58be 9f2d 1fbb 7cec d7bd
00000150: ae76 5abd af27 183e 1d48 b63c a6df f13c
00000160: e950 163e 3a1d c8bc 83a2 53bd c14c 3ebe
00000170: 6147 823e c748 72be 6507 343e d845 3abe
00000180: 5d59 443e 8de9 20be 9a28 8ebe f9d2 cabd
00000190: 82cf 023d 4a43 8b3e 0e1f e93d 084a 22bd
000001a0: 247e 94bd 45a3 a23d 7570 ab3d 7a99 8abe
000001b0: 2cbd 4c3e 567e c9bc c6e9 33bd 0bb6 6cbd
000001c0: ba4a 383d 8612 35be 6e07 4a3e f643 1c3e
000001d0: ec83 abbd 8d74 113d 4df1 36be ca5f c63d
000001e0: 190a 2fbc 647c 89bd 8a40 3a3d aa04 13be
000001f0: dcdb 9cbd 789f 32bd 7cbc 42be 11f6 733e
00000200: 69b6 8d3d 43c4 d73c 6a5a 1ebc 9152 bebd
00000210: 6ebe 53bc b6cc 15bd e74d 3abe d8ac abbc
00000220: 60d5 26bd 8e23 a33d be6a 01be ae4b 95bc
00000230: 9fba 13be 5ba6 49bd aea6 6dbd d272 98bd
00000240: c712 9fbd 83a0 b23d b1e0 41bd 8403 d7bd
00000250: bdda b1bb 47fd 793d ef1e 5d3d a04f c83d
00000260: a19e 01be 6204 c13d b1b8 f63d fd5e f0bd
00000270: cfea dc3c 4d25 4dbb 02f6 e7bd af83 893d
00000280: a981 973c 2bc9 afbd 9ed1 cfbc 0318 bf3d
00000290: 9a5a af3d ac6f 153e 6659 16be d341 1ebe
000002a0: 9cd6 063e 4c15 f5bd b9cf 013b e07b 6aba
000002b0: 2c1d 893d b74a 683d 28cc b33d ecc5 36be
000002c0: c897 25bc 19d2 d9bd ca52 f3bd d282 07be
000002d0: e961 b3bc 2a7a df3d b399 3abe bb81 673c
000002e0: 9bab bdbd a720 eebc a151 413e e32f f73b
000002f0: 8b89 afbd 70a1 c4bc b697 3bbd a8e7 92bd
00000300: 58b3 2a3e 7909 413e 0fc0 ee3d ea93 f3bc
00000310: 9e33 31bc 78cb 12bd 8cbe a6bd f226 87bd
00000320: 600e dabb ee5a 77bd 920a d4bc c6b9 18be
00000330: 556e 13be cd7d 1cbe a2c5 8a3d 4fb0 603d
00000340: 010d ae3d bb8e 8c3d ba4b 213e 51e5 e0bc
00000350: 1bdf 8abd ffe8 8cbd 07a5 1cbe e00d 113e
00000360: e611 0b3d 71fc 923c c463 4e3d 3ae1 90bb
00000370: 4b7e 9b3d b4ab 3abe 41b1 98bd 8ddf bb3d
00000380: 55e9 65bd 9534 febd dbdd 5ebd d9cc a2bd
00000390: e0d1 01be ec3f 3d3e 233e 543c 6f3e fa3c
000003a0: 9419 233e b7da 9b3c 8378 abbd 3b2c 25bc
000003b0: d884 473e 6135 1d3d 6790 873d 09bf b2bd
000003c0: 20eb 58bc d805 e1bd 0eb8 5b3d ceae 50bd
000003d0: 1d45 9a3d d341 b33d 8818 56bd 3cc6 363c
000003e0: 22c2 abbd 665f 9abd c311 3f3e 8272 2dbe
000003f0: f871 2ebe 1026 5cbb 8abd d3bc a670 e53d

encoder.model.bias_ih_l0 f4 [256]
0.087241836 0.09269114 0.009749877 0.07798824 0.18899854 0.13836057 0.05207329 0.2581847
0.14859325 0.09815269 0.37242204 0.12321907 0.07829447 0.09755317 0.19152635 -0.06020598
0.08504497 0.27354923 -0.051003497 -0.091728546 0.07490822 0.17191935 0.008639794 0.23046906
0.036625642 0.10068507 -0.043015517 0.07273373 0.111123316 -0.049562667 0.08566443 0.16027887
0.07083825 0.55947983 0.37508187 -0.027415086 0.004374386 -0.024994865 0.1226537 0.090804674
0.02935273 0.07810805 0.08337866 -0.08680687 -0.05232959 0.6028566 0.033179052 0.046369575
0.014912721 -0.00063716073 0.07214628 0.034267176 -0.0435884 -0.010326345 0.110602945 0.11085323
0.08443155 0.2847921 0.03413995 0.097076714 0.0628728 0.0023699484 0.35253486 0.105489336
-0.053209558 0.0374147 -0.11079614 -0.08166965 -0.09420526 -0.07216077 0.14314255 -0.08158274
-0.09608504 -0.11252393 -0.048367694 0.01257787 -0.09459643 -0.042978138 -0.044965137 -0.015234627
0.0012667263 0.023830622 0.0060860137 -0.1061769 -0.035914462 0.19911672 -0.065900445 0.05706576
0.090414025 -0.06496173 0.07594737 0.10191277 -0.1486381 0.111043036 -0.01813639 0.011586768
0.055045094 -0.12026328 0.04529962 0.10007199 -0.1205468 -0.12361616 0.06242305 0.14515111
0.029949639 0.0061366586 0.015613749 0.16513762 -0.062156826 0.02155222 0.1226684 -0.0914545
-0.11703634 -0.08624349 -0.16034417 0.0083096195 0.043843813 -0.041290324 -0.08923921 0.10688946
0.0145535655 -0.34638238 -0.050451238 -0.10624477 -0.08753362 -0.03455312 -0.024684858 0.06364096
0.01846922 0.05643694 -0.12035051 -0.1299795 -0.060963545 0.020999707 0.0071699494 -0.074356616
0.028270734 0.031775657 -0.06188156 -0.12579383 0.05674127 -0.015550858 0.11729316 0.059893828
-0.01989067 0.088526115 -0.060198426 0.07801155 -0.03313651 -0.080870375 -0.08196169 0.07014448
-0.07350904 0.06978306 0.05076457 -0.10386266 0.0306388 0.020554727 -0.08378339 0.13141485
0.03466445 0.019308167 0.09822692 0.10871545 -0.016836356 -0.04442225 0.13261378 -0.14071058
0.0386803 -0.1052165 -0.07815417 0.08685781 0.091226585 0.0730569 -0.022900136 -0.12399448
0.098082 -0.14842667 -0.10214357 -0.01675304 0.19099644 -0.008162901 0.010783209 0.14186126
-0.011347099 0.19050714 0.09216138 0.050789993 -0.03886757 0.0029236816 -0.037625443 -0.03259036
0.14983661 0.13326153 -0.022652833 0.022796666 0.18516217 0.12444782 -0.008293962 0.10877793
0.0351891 0.29673955 0.3583862 0.10278829 0.13033259 -0.039119303 0.13353088 0.18360995
0.10374283 0.19625956 -0.04478468 -0.05537798 0.18153036 0.016721055 0.056487583 0.11453885
0.2009141 -0.05369455 -0.053405534 0.10629697 -0.1214256 0.042154558 0.16091208 0.041413575
0.02762427 0.3587971 0.14974625 0.070171915 0.13192204 0.094598204 -0.05167047 0.07245573
-0.022865651 -0.03556802 0.14932954 0.13610563 -0.028487563 0.65648806 0.018646343 0.03563856
-0.020314617 0.06281507 0.06861884 0.17400339 0.08594234 -0.06592852 0.17161854 -0.0044162567
0.07724301 0.21171579 0.021537598 0.16573404 -0.08085484 0.067750886 0.12698779 0.21555834
00000000: d9ab b23d dad4 bd3d f3bd 1f3c 4cb8 9f3d
00000010: d588 413e 65ae 0d3e cd4a 553d c930 843e
00000020: d428 183e 4704 c93d 1aae be3e 485a fc3d
00000030: da58 a03d f5c9 c73d 7c1f 443e 8c9a 76bd
00000040: 0f2c ae3d a50e 8c3e 0be9 50bd 2ddc bbbd
00000050: 7b69 993d a00b 303e ec8d 0d3c 1500 6c3e
00000060: c504 163d f933 ce3d 0a31 30bd 6cf5 943d
00000070: 9f94 e33d 3902 4bbd d570 af3d 2520 243e
00000080: a513 913d 123a 0f3f bb0a c03e 9a95 e0bc
00000090: 0257 8f3b 08c2 ccbc dd31 fb3d cdf7 b93d
000000a0: 2375 f03c 1df7 9f3d 6ec2 aa3d cdc7 b1bd
000000b0: 8d57 56bd cf54 1a3f c2e6 073d 06ee 3d3d
000000c0: 7c54 743c 2207 27ba 6ec1 933d bd5b 0c3d
000000d0: c089 32bd d52f 29bc cc83 e23d 0507 e33d
000000e0: 73ea ac3d 45d0 913e 55d6 0b3d 28d0 c63d
000000f0: 74c3 803d 2351 1b3b 737f b43e cb0a d83d
00000100: 44f2 59bd 2840 193d 16e9 e2bd 6b42 a7bd
00000110: b0ee c0bd 07c9 93bd f693 123e da14 a7bd
00000120: 3cc8 c4bd f272 e6bd 341d 46bd 6913 4e3c
00000130: c6bb c1bd d809 30bd 5d2d 38bd a89a 79bc
00000140: 4808 a63a 7038 c33c 2f6d c73b 4673 d9bd
00000150: 0b1b 13bd 41e5 4b3e d0f6 86bd c9bd 693d
00000160: fd2a b93d a80a 85bd 4b8a 9b3d a4b7 d03d
00000170: 9634 18be 886a e33d c492 94bc 6dd6 3d3c
00000180: f776 613d 984c f6bd 188c 393d 8bf2 cc3d
00000190: 3ee1 f6bd 782a fdbd 50af 7f3d 7ea2 143e
000001a0: f258 f53c 0616 c93b cfd0 7f3c d619 293e
000001b0: 2898 7ebd 488e b03c 9239 fb3d 7f4c bbbd
000001c0: c0b0 efbd 6da0 b0bd 4331 24be 1225 083c
000001d0: 9295 333d 0b20 29bd 0cc3 b6bd dce8 da3d
000001e0: 1472 6e3c 0859 b1be f5a5 4ebd dc96 d9bd
000001f0: d444 b3bd 9387 0dbd e637 cabc 3156 823d
00000200: c34c 973c 6c2a 673d 547a f6bd 5919 05be
00000210: e9b4 79bd 9407 ac3c e5f1 ea3b 4848 98bd
00000220: 0798 e73c 3127 023d 8577 7dbd 19d0 00be
00000230: 8969 683d 07c9 7ebc 6537 f03d 3b53 753d
00000240: c2f1 a2bc 2e4d b53d a092 76bd 85c4 9f3d
00000250: 26ba 07bd 5e9f a5bd 88db a7bd e9a7 8f3d
00000260: e88b 96bd 6cea 8e3d 82ee 4f3d f2b5 d4bd
00000270: 38fe fa3c 6362 a83c a096 abbd 9d91 063e
00000280: 4ffc 0d3d 292c 9e3c 322b c93d 35a6 de3d
00000290: 66ec 89bc 1bf4 35bd e8cb 073e 6f16 10be
000002a0: 3c6f 1e3d c07b d7bd 4b0f a0bd 82e2 b13d
000002b0: 01d5 ba3d db9e 953d 1199 bbbc d1f0 fdbd
000002c0: 37df c83d 29fd 17be a630 d1bd ac3d 89bc
000002d0: 9294 433e b0bd 05bc 0fac 303c 1444 113e
000002e0: 2fe9 39bc 4e14 433e 1bbf bc3d 2b09 503d
000002f0: 9a33 1fbd 3d9b 3f3b 231d 1abd 787d 05bd
00000300: c56e 193e b675 083e 6f92 b9bc 13c0 ba3c
00000310: 279b 3d3e 80de fe3d 66e3 07bc f7c6 de3d
00000320: 7222 103d 3fee 973e 657e b73e ab82 d23d
00000330: e875 053e 903b 20bd 52bc 083e 3f04 3c3e
00000340: 1f77 d43d 44f8 483e 2470 37bd 05d4 62bd
00000350: 18e3 393e 98fa 883c 865f 673d 5893 ea3d
00000360: 6dbc 4d3e d1ee 5bbd c3bf 5abd 3ab2 d93d
00000370: fcad f8bd 42aa 2c3d 23c6 243e 48a1 293d
00000380: 4b4c e23c 41b4 b73e 1557 193e 4bb6 8f3d
00000390: 9216 073e b4bc c13d 6aa4 53bd ab63 943d
000003a0: bf50 bbbc c6af 11bd d8e9 183e 465f 0b3e
000003b0: c05e e9bc 9a0f 283f 37c0 983c bdf9 113d
000003c0: d76a a6bc 30a5 803d 0988 8c3d f22d 323e
000003d0: 8a02 b03d 8805 87bd c5bc 2f3e 3fb6 90bb
000003e0: 9531 9e3d 06cc 583e 9e6f b03c 2fb6 293e
000003f0: 3997 a5bd fac0 8a3d 1609 023e 53bb 5c3e

encoder.model.bias_hh_l0 f4 [256]
0.09856394 -0.010204976 0.16453497 0.11377298 0.33948523 -0.0018695535 -0.07560693 0.29379955
0.25207996 0.19613355 0.20918071 0.014959878 0.09775099 0.082430005 0.10605704 -0.011891045
0.020877933 0.12675163 0.10915641 -0.08266663 0.038204227 0.014191855 -0.030849433 0.17782481
0.15778682 -0.05795015 0.09125886 0.06189745 0.089106016 -0.10073752 0.14496641 0.11345627
-0.11379376 0.40837425 0.321895 0.021574477 0.052520905 0.13615389 0.13815032 0.11050885
0.070644855 0.06240021 0.052352812 -0.05201404 -0.077616125 0.63349116 0.036760963 0.102181606
-0.040069554 0.16263628 0.18118626 0.21268775 0.02351089 0.124051034 0.06398185 0.046228983
0.1328984 0.28062424 0.12546091 0.067082606 -0.05259445 0.17433904 0.16672446 0.29603517
0.0806999 0.03845391 -0.05474921 0.07865768 -0.058105744 -0.020790044 0.14503781 0.0033343625
-0.1091573 -0.1560089 0.053737942 0.08452171 0.12367697 0.099827565 0.10988078 -0.0011898393
0.08401887 -0.071564786 0.0070421444 -0.025334237 -0.06209379 0.12752137 -0.096115425 -0.04940941
-0.020532418 -0.023073712 0.11654203 0.020825958 -0.045462567 0.092949644 0.037292 0.042810414
0.030895786 0.03243184 -0.032784756 -0.048089452 -0.07741311 -0.025810318 -0.026504876 0.077955134
0.0024213158 0.052539736 0.12915766 0.03380852 0.12234864 -0.10248226 0.071069 -0.048923776
0.03239595 0.04017589 -0.0014253891 0.05033544 0.11977372 -0.11060841 -0.131331 0.0713709
-0.02259061 -0.26096788 0.049758226 0.11003474 0.030745853 0.0600137 -0.030262122 0.047714002
0.15669663 -0.07074161 -0.0736617 0.053777583 -0.076717414 0.093326725 -0.13743022 -0.08744292
0.011086001 0.03661358 -0.11847446 -0.04936684 -0.067493044 -0.08994528 0.14734186 -0.08552582
-0.0613795 0.11934901 -0.019322725 -0.09490838 -0.06438549 0.11280431 -0.041336693 0.033849075
0.06943519 0.11539748 0.096487306 0.027061868 -0.13088971 -0.11322231 -0.024038963 -0.07668146
0.0901366 -0.12304219 0.07724935 -0.026927376 0.009613786 0.015165018 -0.08699357 -0.0875024
0.0105123045 0.021126505 -0.002586123 -0.07702492 0.046972618 -0.03563112 0.044523977 -0.05210516
0.12616454 -0.14734644 0.013752862 -0.10851307 -0.051769726 0.020419398 0.026191551 0.0539017
-0.009613934 0.064774185 0.08338058 -0.07324998 -0.07124788 0.08436073 0.06469252 0.05587337
0.25115824 0.04600328 0.034690093 0.17993523 0.33454502 0.102412805 0.109709434 0.22297901
0.059710924 0.13249351 0.20342924 -0.083679095 0.007018229 -0.120921195 0.15768783 0.04896104
-0.03350901 0.09240866 0.0930707 0.051769376 -0.048429996 0.10854524 0.07683386 0.12508117
0.2444156 0.007429323 -0.04338075 0.071868196 -0.03258747 0.0040728142 0.19651027 0.13196532
-0.006121926 0.526966 0.32859895 -0.04166696 0.029045824 0.030963479 0.1471216 -0.028159993
0.1288855 0.087409265 0.14747226 0.11342362 -0.036863234 0.5207807 0.10832489 -0.0763999
0.057997856 -0.039812326 0.083752036 0.19515704 0.077481866 0.08541584 0.09293631 0.11539042
0.084641606 0.20588137 -0.0049299905 -0.021067508 -0.0014323146 0.0524821 0.217704 0.103147164
00000000: e4db c93d c632 27bc db7b 283e cf01 e93d
00000010: 02d1 ad3e ce0b f5ba ced7 9abd e56c 963e
00000020: a010 813e 3cd7 483e 7833 563e 471a 753c
00000030: ac31 c83d 10d1 a83d 6f34 d93d a8d2 42bc
00000040: 3308 ab3c 2ecb 013e 658d df3d 1f4d a9bd
00000050: 097c 1c3d f484 683c f3b7 fcbc b517 363e
00000060: de92 213e 235d 6dbd ede5 ba3d 2e88 7d3d
00000070: 377d b63d 794f cebd 1372 143e c35b e83d
00000080: b40c e9bd 6e16 d13e 6ccf a43e f5bc b03c
00000090: 2920 573d ed6b 0b3e 4777 0d3e 7752 e23d
000000a0: 40ae 903d 5d97 7f3d e76f 563d ad0c 55bd
000000b0: 34f5 9ebd 7a2c 223f aa92 163d 9744 d13d
000000c0: f91f 24bd 208a 263e e488 393e d1ca 593e
000000d0: e999 c03c 780e fe3d eb08 833d 9a5a 3d3d
000000e0: 8516 083e fbad 8f3e d378 003e 9b62 893d
000000f0: 476d 57bd ef85 323e d1b9 2a3e ec91 973e
00000100: fd45 a53d d981 1d3d b540 60bd 4717 a13d
00000110: 4a00 6ebd e24f aabc cb84 143e 5285 5a3b
00000120: dd8d dfbd ccc0 1fbe 511c 5c3d b819 ad3d
00000130: 5a4a fd3d 6572 cc3d 2d09 e13d 62f4 9bba
00000140: 1612 ac3d 8f90 92bd cac1 e63b bf89 cfbc
00000150: 0f56 7ebd f694 023e 2ad8 c4bd 8661 4abd
00000160: 9a33 a8bc 1505 bdbc 96ad ee3d 339b aa3c
00000170: f536 3abd 625c be3d 7fbf 183d f959 2f3d
00000180: 2919 fd3c 40d7 043d 4f49 06bd 72f9 44bd
00000190: c48a 9ebd 2970 d3bc c120 d9bc f1a6 9f3d
000001a0: f0ae 1e3b e833 573d e841 043e cd7a 0a3d
000001b0: ec91 fa3d 38e2 d1bd a08c 913d 4c64 48bd
000001c0: 9eb1 043d 798f 243d 1fd4 baba 892c 4e3d
000001d0: ed4b f53d a986 e2bd a27b 06be e82a 923d
000001e0: f10f b9bc 959d 85be 48cf 4b3d e559 e13d
000001f0: bade fb3c edd0 753d 45e8 f7bc c26f 433d
00000200: 1575 203e fae0 90bd f2db 96bd e245 5c3d
00000210: 051e 9dbd 1522 bf3d 82ba 0cbe 4615 b3bd
00000220: 0fa2 353c 1ff8 153d bda2 f2bd e234 4abd
00000230: cb39 8abd 3b35 b8bd c9e0 163e 2928 afbd
00000240: 1269 7bbd 416d f43d b14a 9ebc 535f c2bd
00000250: 8adc 83bd f205 e73d aa50 29bd 54a5 0a3d
00000260: 0934 8e3d 8455 ec3d 239b c53d dab0 dd3c
00000270: f407 06be 19e1 e7bd 5ced c4bc 2b0b 9dbd
00000280: 8a99 b83d 8bfd fbbd e834 9e3d cd96 dcbc
00000290: 2483 1d3c b276 783c af29 b2bd 7534 b3bd
000002a0: cd3b 2c3c 7e11 ad3c f27b 29bb 3ebf 9dbd
000002b0: 5c66 403d f0f1 11bd c65e 363d 386c 55bd
000002c0: 4731 013e fce1 16be af53 613c 1a3c debd
000002d0: 7e0c 54bd 9546 a73c aa8f d63c 07c8 5c3d
000002e0: c383 1dbc 54a8 843d 70c3 aa3d 1604 96bd
000002f0: 69ea 91bd 52c5 ac3d 837d 843d 7adb 643d
00000300: d097 803e ef6d 3c3d 3317 0e3d f140 383e
00000310: 7c49 ab3e cebd d13d 57af e03d 9c54 643e
00000320: 7193 743d 61ac 073e c14f 503e f25f abbd
00000330: 2cf9 e53b 88a5 f7bd eb78 213e 5f8b 483d
00000340: be40 09bd c040 bd3d da9b be3d 200c 543d
00000350: 885e 46bd f74c de3d 125b 9d3d 4715 003e
00000360: 1548 7a3e ae71 f33b 03b0 31bd a22f 933d
00000370: 707a 05bd 3e75 853b fd39 493e eb21 073e
00000380: 709a c8bb 3ee7 063f 1f3e a83e f9aa 2abd
00000390: 82f1 ed3c 1fa7 fd3c 0ba7 163e c9af e6bc
000003a0: 8ffa 033e a103 b33d f802 173e a54a e83d
000003b0: e7fd 16bd e251 053f 71d9 dd3d 8d77 9cbd
000003c0: 298f 6d3d 4012 23bd 3086 ab3d 3fd7 473e
000003d0: d0ae 9e3d 80ee ae3d 6455 be3d d051 ec3d
000003e0: 9458 ad3d 91d2 523e c28b a1bb c495 acbc
000003f0: 81bc bbba 78f7 563d cced 5e3e d23e d33d

encoder.model.weight_ih_l1 f4 [256, 64]
-0.05004546 -0.11134328 -0.13580449 -0.07499325 -0.12823829 -0.056549225 -0.042018384 0.050389387
0.102784656 -0.025563367 -0.12473457 0.031311553 -0.00074456143 0.02969086 0.18702538 -0.2076445
-0.19301252 0.06999432 -0.005361715 -0.07263149 0.020943033 -0.14675167 -0.2219 -0.022954736
0.012802276 0.14361703 -0.06403384 -0.0483301 -0.07843571 0.047047503 -0.007498544 0.060180515
0.018139502 0.06770551 0.009188126 0.16095439 0.174094 0.12436107 0.005229224 -0.13140039
0.023678975 -0.03292764 -0.066142306 -0.09394825 0.015643178 0.064030945 -0.02681137 -0.017552843
0.0364652 -0.1567129 -0.004150659 -0.053355202 0.06118181 -0.02210035 0.0465216 0.1367442
-0.030857923 0.102308445 0.15664741 -0.14325918 -0.07022768 0.20940238 -0.025045285 -0.06424703
0.05572549 0.08980144 -0.098458886 -0.162999 -0.030097224 -0.009948243 -0.099979065 0.01945787
0.10167309 -0.032291576 -0.0772522 -0.11191408 -0.045768462 -0.12749836 0.022794679 -0.0097929
-0.006113178 0.057174906 0.07078547 -0.07939735 -0.07008176 -0.14422491 -0.16854681 -0.019161247
-0.03917428 -0.011744862 -0.04684963 -0.052465342 -0.029781153 -0.052792724 -0.19776541 0.17635065
0.09240971 0.049441345 0.055611894 -0.04811492 -0.116971575 0.015951674 -0.21963552 -0.15350893
0.10040802 0.021693511 -0.053270202 0.009749047 -0.07047694 0.0897259 0.17805032 -0.15465836
0.14285344 0.077193975 -0.15865795 -0.079202205 0.075707495 -0.14357261 -0.138128 0.08034748
0.01826841 0.045056798 0.0663286 -0.06046003 0.010715122 0.158061 -0.09708134 -0.07021172
0.53960735 -0.15085532 -0.08786999 -0.10660464 -0.16254544 -0.04493835 0.030675821 -0.118895695
0.016081885 0.13703041 -0.102865025 -0.12030951 -0.033275694 -0.0001932457 0.10388115 0.12437639
0.010562014 0.26356962 -0.16139361 -0.013748962 -0.06515251 0.115768425 0.0052341637 0.12212296
-0.009454353 0.13594146 0.08610499 0.03805256 0.07082246 -0.12012191 -0.31111112 0.033781275
0.03664286 -0.16141544 0.40182716 0.07055359 -0.034475215 -0.02322265 -0.17056225 -0.0602723
-0.07840968 -0.062751554 -0.20250618 -0.20016861 0.06620924 0.24985069 0.023155287 0.04034218
0.098131776 -0.025736375 -0.0854174 -0.1313672 0.045463216 -0.05475245 -0.08554592 -0.004173574
-0.03429757 0.1922547 -0.1594758 0.01041876 0.101070985 0.26150122 -0.087518394 -0.2119988
0.04169371 -0.20332415 -0.009111227 -0.13068394 -0.18513456 -0.07143218 -0.0629241 -0.26886323
-0.0042898916 0.15313874 -0.16830693 -0.1745884 -0.08690639 -0.13812497 0.22468328 -0.28306574
-0.20784555 0.23954402 -0.033425916 -0.25858244 -0.106876686 -0.14925715 -0.13834637 0.09973644
-0.14911403 0.14020379 0.29296863 0.1309277 -0.045331046 0.098067135 -0.28514975 0.21639332
0.060206756 0.09395686 0.21213557 0.037889343 0.014778355 0.10736285 -0.013116348 -0.26505092
0.0015617873 -0.22908635 -0.15468986 0.167674 0.21475838 0.18574853 -0.03487918 -0.18591405
0.045160655 -0.21141091 -0.13464116 -0.10482182 0.24620329 -0.030139701 0.015559879 0.22582115
-0.28115073 0.13471593 0.0333778 0.081033185 -0.0743927 0.052095328 -0.037234 -0.012968028
00000000: 78fc 4cbd f207 e4bd 5510 0bbe 1096 99bd
00000010: e650 03be 29a0 67bd 781b 2cbd 1a65 4e3d
00000020: c380 d23d 446a d1bc d774 ffbd 8b40 003d
00000030: ac2e 43ba 3f3a f33c 9583 3f3e c3a0 54be
00000040: 13a5 45be 2f59 8f3d 53b1 afbb d2bf 94bd
00000050: b990 ab3c 1246 16be c139 63be 920b bcbc
00000060: a3c0 513c 5810 133e 2d24 83bd c8f5 45bd
00000070: e7a2 a0bd e2b4 403d 59b6 f5bb d87f 763d
00000080: 4b99 943c 30a9 8a3d cb89 163c 3ad1 243e
00000090: b345 323e 04b1 fe3d e959 ab3b d38d 06be
000000a0: 69fa c13c 22df 06bd 9e75 87bd f167 c0bd
000000b0: 1f26 803c a822 833d 85a3 dbbc fbca 8fbc
000000c0: 895c 153d 5979 20be 4002 88bb fc8a 5abd
000000d0: c799 7a3d cb0b b5bc 6f8d 3e3d ac06 0c3e
000000e0: c1c9 fcbc 1787 d13d 2e68 203e 89b2 12be
000000f0: 88d3 8fbd 946d 563e c52b cdbc f293 83bd
00000100: 6940 643d d1e9 b73d d0a4 c9bd 36e9 26be
00000110: 748e f6bc f5fd 22bc d3c1 ccbd 1c66 9f3c
00000120: fb39 d03d 2c44 04bd 6736 9ebd 3633 e5bd
00000130: b677 3bbd ee8e 02be e8bb ba3c 6672 20bc
00000140: 0e51 c8bb 3c30 6a3d f9f7 903d 149b a2bd
00000150: 0787 8fbd b2af 13be 8997 2cbe 0cf8 9cbc
00000160: 3675 20bd 866d 40bc 66e5 3fbd e6e5 56bd
00000170: 9bf7 f3bc 2f3d 58bd 0483 4abe 4495 343e
00000180: 4d41 bd3d 0283 4a3d 4cc9 633d 2614 45bd
00000190: cb8e efbd 16ad 823c 22e8 60be 7231 1dbe
000001a0: b8a2 cd3d 97b6 b13c db31 5abd 78ba 1f3c
000001b0: 3756 90bd 36c2 b73d d352 363e c35e 1ebe
000001c0: 2c48 123e e017 9e3d 3b77 22be c434 a2bd
000001d0: 880c 9b3d b304 13be 6d71 0dbe 388d a43d
000001e0: a2a7 953c 7a8d 383d 4ad7 873d f0a4 77bd
000001f0: 7b8e 2f3c beda 213e 95d2 c6bd 2acb 8fbd
00000200: b523 0a3f d179 1abe 2ef5 b3bd 8953 dabd
00000210: 5072 26be 4611 38bd dc4b fb3c 967f f3bd
00000220: 28be 833c b351 0c3e e6aa d2bd d564 f6bd
00000230: 184c 08bd ffa1 4ab9 a4bf d43d 0cb9 fe3d
00000240: 4c0c 2d3c 99f2 863e 5e44 25be 5443 61bc
00000250: ae6e 85bd ff17 ed3d 5983 ab3b 9a1b fa3d
00000260: 6ee6 1abc 3d34 0b3e d057 b03d 00dd 1b3d
00000270: 5e0b 913d 7a02 f6bd f549 9fbe 3c5e 0a3d
00000280: d316 163d 174a 25be 4abc cd3e 677e 903d
00000290: e235 0dbd 6d3d bebc dfa7 2ebe 16e0 76bd
000002a0: 4195 a0bd e383 80bd c85d 4fbe 00f9 4cbe
000002b0: b698 873d dcd8 7f3e 28b0 bd3c d73d 253d
000002c0: 50f9 c83d 17d5 d2bc 51ef aebd 2085 06be
000002d0: a337 3a3d 1b44 60bd b332 afbd 7ac2 88bb
000002e0: 9c7b 0cbd 6bde 443e a04d 23be 72b3 2a3c
000002f0: 4efe ce3d 7de3 853e d83c b3bd 3716 59be
00000300: 06c7 2a3d 3534 50be 4147 15bc 03d2 05be
00000310: ea93 3dbe 094b 92bd 5ade 80bd 71a8 89be
00000320: 3892 8cbb 67d0 1c3e a758 2cbe 4dc7 32be
00000330: fafb b1bd a270 0dbe 6013 663e feed 90be
00000340: 77d5 54be 074b 753e 9de9 08bd eb64 84be
00000350: 2ae2 dabd ded6 18be acaa 0dbe 9e42 cc3d
00000360: 59b1 18be 9591 0f3e fcff 953e e911 063e
00000370: 0cad 39bd 6cd7 c83d 26ff 91be 3696 5d3e
00000380: 5c9b 763d 746c c03d 113a 593e db31 1b3d
00000390: ea20 723c 0ee1 db3d f3e5 56bc c1b4 87be
000003a0: e3b4 cc3a 9d95 6abe 0567 1ebe bcb2 2b3e
000003b0: 9fe9 5b3e dd34 3e3e 79dd 0ebd 4160 3ebe
000003c0: 61fa 383d 1a7c 58be 5fdf 09be d3ac d6bd
000003d0: b71c 7c3e 89e7 f6bc ddee 7e3c a93d 673e
000003e0: fdf2 8fbe f9f2 093e 29b7 083d baf4 a53d
000003f0: 335b 98bd e961 553d ae82 18bd da77 54bc

encoder.model.weight_hh_l1 f4 [256, 64]
0.039197374 0.16366877 0.0058422387 0.04443551 0.108764805 -0.042733643 -0.13171688 -0.18907794
0.003282574 -0.10173592 0.1510918 -0.07815119 0.011508214 0.021533908 0.078809395 -0.15158644
-0.14492081 -0.005928079 0.046740294 -0.02434188 0.06661127 0.067194514 0.015713938 -0.057187293
-0.040367927 -0.05410464 0.13667946 -0.06038656 0.08797102 0.19956686 -0.121999815 0.033166714
0.047430042 0.021562383 0.052692425 0.08184291 -0.033474833 -0.027966043 0.08456374 0.03094227
-0.052509844 -0.08133638 -0.04267352 0.017377732 0.077694446 0.00033313723 0.06378325 0.02668795
-0.16853154 0.045150425 0.09668707 0.038137 0.0060036355 0.04978355 0.11282741 -0.013314758
0.060632426 -0.027758636 0.05798734 -0.015560319 0.093032055 -0.02358113 0.033965144 -0.014592685
0.121933006 -0.03695009 -0.099403314 -0.012349978 -0.13999918 -0.19462718 0.04925753 0.03093742
-0.057891294 -0.16854168 0.03697557 0.11098939 -0.103676304 -0.14140323 0.19238713 0.11258411
-0.10693189 -0.004694342 0.14176133 -0.085362606 -0.085938856 -0.07662202 0.0983502 -0.08721621
-0.10185057 -0.06950636 0.007269353 -0.07768473 0.376434 -0.050689988 -0.026568102 0.033601172
-0.007992188 -0.109068245 0.17966315 0.25668454 0.06650072 -0.10015121 0.07556079 0.1289781
-0.14948511 -0.22661667 -0.031125268 -0.19963358 0.10378233 -0.20992747 -0.04225171 -0.00023358404
-0.16097908 0.17615895 0.045993082 0.10325016 0.03555296 -0.1450638 0.07972579 0.06843437
0.009039232 -0.026776904 0.30472434 0.07917148 0.23165473 -0.12345109 -0.05738054 -0.11161931
0.1846339 0.14820434 0.04911996 -0.16611874 0.045390885 0.078257956 -0.08096312 -0.16747586
0.10905999 -0.0926171 0.07985717 0.13545302 0.0631314 -0.051352866 0.104981765 0.106610194
-0.00064176595 -0.05481435 0.008804339 -0.018780088 -0.28247103 -0.018845618 0.03905193 -0.0048207575
-0.07860365 -0.06786215 0.030497117 -0.08479689 0.0044073714 0.1419436 0.011907239 0.02463813
0.08114111 -0.15853956 -0.05883483 0.18282239 0.027501307 -0.12699178 -0.007088 0.098983005
-0.16926804 -0.044914957 0.043661125 0.11583345 -0.016568754 -0.022043133 -0.104141764 -0.05568629
-0.075964935 0.16673397 -0.17457518 0.057805035 0.14540642 -0.16366942 -0.047452454 0.12064391
-0.021511937 0.009766425 0.07268416 0.14497435 -0.022903133 0.030029936 0.05518216 0.07102018
0.28626552 0.0009506307 -0.0005785516 -0.031403232 -0.12909175 -0.1408743 0.008045766 0.0074905492
-0.13155456 -0.073524535 0.123544656 0.219825 -0.064831935 -0.14869687 0.14456251 0.1864504
0.032604475 0.0723632 -0.122218035 -0.0062693106 -0.03895546 -0.19884536 0.042875327 -0.033608355
-0.12198167 0.0465312 -0.050614778 0.0072848434 0.055724192 0.1473773 -0.032069575 0.15431255
-0.04027064 0.029948333 0.10125102 0.17030999 0.036998525 -0.09272481 0.007455503 -0.07490439
-0.083508216 0.007169729 -0.25956333 -0.2482769 -0.020847913 -0.15139295 0.10947127 0.22924356
-0.22227882 0.18524195 0.045215074 -0.05725356 0.014057673 0.07652481 0.05807251 -0.008272419
0.08517031 -0.06020941 0.039685417 0.076853216 0.13326623 0.0029107784 -0.05115002 -0.282584
00000000: 6d8d 203d c998 273e 4070 bf3b 0202 363d
00000010: 15c0 de3d 7909 2fbd cae0 06be a69d 41be
00000020: 7420 573b ec5a d0bd cfb7 1a3e bb0d a0bd
00000030: f38c 3c3c e167 b03c d266 a13d 7a39 1bbe
00000040: 1f66 14be 5540 c2bb c072 3f3d 9f68 c7bc
00000050: 7d6b 883d 479d 893d 84ba 803c 393d 6abd
00000060: d758 25bd d49c 5dbd b3f5 0b3e e657 77bd
00000070: 262a b43d 415b 4c3e 0adb f9bd d2d9 073d
00000080: 0146 423d 98a3 b03c 03d4 573d 419d a73d
00000090: e81c 09bd 0b19 e5bc c12f ad3d a57a fd3c
000000a0: 9014 57bd b093 a6bd 6eca 2ebd bf5b 8e3c
000000b0: 441e 9f3d eca8 ae39 cba0 823d b0a0 da3c
000000c0: 8893 2cbe a7ef 383d df03 c63d 8b35 1c3d
000000d0: 25ba c43b d6e9 4b3d 0f12 e73d 2526 5abc
000000e0: b559 783d 1466 e3bc 2284 6d3d b5f0 7ebc
000000f0: 9787 be3d 372d c1bc 091f 0b3d 2816 6fbc
00000100: 03b8 f93d fa58 17bd f793 cbbd 9057 4abc
00000110: f25b 0fbe 594c 47be 44c2 493d 7970 fd3c
00000120: 6c1f 6dbd 3196 2cbe b273 173d 684e e33d
00000130: 3e54 d4bd 02cc 10be 2201 453e 7f92 e63d
00000140: 1bff dabd ffd2 99bb e229 113e 97d2 aebd
00000150: b600 b0bd 01ec 9cbd d46b c93d 6a9e b2bd
00000160: 0897 d0bd 5a59 8ebd c133 ee3b 2c19 9fbd
00000170: f5bb c03e 4ea0 4fbd 59a5 d9bc 62a1 093d
00000180: abf1 02bc 2c5f dfbd 9ef9 373e 286c 833e
00000190: 8831 883d 141c cdbd 9ebf 9a3d d612 043e
000001a0: a012 19be 330e 68be 6bfa febc bf6c 4cbe
000001b0: d58b d43d 3af7 56be 2110 2dbd 3dee 74b9
000001c0: b3d7 24be 0363 343e 3e63 3c3d d274 d33d
000001d0: fb9f 113d 9b8b 14be 4647 a33d 5227 8c3d
000001e0: 4919 143c 3d5b dbbc d404 9c3e a824 a23d
000001f0: e636 6d3e edd3 fcbd db07 6bbd aa98 e4bd
00000200: ab10 3d3e e1c2 173e 0332 493d 081b 2abe
00000210: cbeb 393d b545 a03d fecf a5bd cb7e 2bbe
00000220: d85a df3d 09ae bdbd 288c a33d 32b4 0a3e
00000230: 094b 813d 6257 52bd ae00 d73d 7256 da3d
00000240: 2f3c 28ba 0385 60bd 1340 103c b3d8 99bc
00000250: 0ba0 90be 2062 9abc ebf4 1f3d 72f7 9dbb
00000260: f3fa a0bd 50fb 8abd 17d5 f93c fea9 adbd
00000270: b66b 903b aa59 113e 9516 433c e7d5 c93c
00000280: 4f2d a63d 3258 22be cafc 70bd cb35 3b3e
00000290: 6c4a e13c 220a 02be 7442 e8bb 9ab7 ca3d
000002a0: 9a54 2dbe bff8 37bd 02d6 323d 163a ed3d
000002b0: 32bb 87bc cd93 b4bc 4748 d5bd 4f17 64bd
000002c0: 8193 9bbd 4fbc 2a3e d6c3 32be f9c4 6c3d
000002d0: 6ce5 143e f598 27be 815d 42bd 2714 f73d
000002e0: cd39 b0bc 5b03 203c 6fdb 943d 2874 143e
000002f0: 5a9f bbbc 5701 f63c b006 623d 0773 913d
00000300: 6591 923e bf33 793a f1a9 17ba ada0 00bd
00000310: a130 04be 5a41 10be 63d2 033c 4873 f53b
00000320: 3db6 06be 0894 96bd fb04 fd3d ce19 613e
00000330: 9bc6 84bd fe43 18be 3208 143e dbec 3e3e
00000340: 458c 053d 2833 943d 734d fabd ca6e cdbb
00000350: c38f 1fbd 1e9e 4bbe 0a9e 2f3d eaa8 09bd
00000360: 87d1 f9bd 8097 3e3d 7151 4fbd b2b5 ee3b
00000370: 0d3f 643d 13ea 163e 635b 03bd 1c04 1e3e
00000380: d4f2 24bd 3556 f53c b25c cf3d be65 2e3e
00000390: c48b 173d 81e6 bdbd 4b4d f43b 7967 99bd
000003a0: 5b06 abbd 0cf0 ea3b 7ce5 84be 4d3c 7ebe
000003b0: 3ec9 aabc c106 1bbe 7932 e03d d3be 6a3e
000003c0: 0f9d 63be 11b0 3d3e 7133 393d b582 6abd
000003d0: 2752 663c 0ab9 9c3d 71dd 6d3d 0a89 07bc
000003e0: c66d ae3d 249e 76bd 2d8d 223d 3865 9d3d
000003f0: f176 083e c2c2 3e3b af82 51bd daae 90be

encoder.model.bias_ih_l1 f4 [256]
0.05839969 0.058501437 -0.0025795193 0.24052629 0.049781356 0.13786842 0.056408517 -0.0025896034
0.08037064 0.28328732 0.11745906 0.16449751 0.09929042 0.078825556 -0.032888457 0.15671743
0.92426103 -0.047952753 0.049109682 -0.022876652 0.7697316 0.098251924 -0.061521363 0.009079822
0.38288614 0.08076579 0.17607771 0.15798885 0.04454184 0.15733606 0.3021733 0.3547726
0.06582039 0.19238202 0.16474295 -0.0020858217 0.028046079 -0.042178273 0.009361576 -0.03213318
-0.0835701 0.053450327 -0.047421318 -0.0667288 -0.0504979 -0.052827694 0.1661989 -0.052875794
0.1182206 0.075689025 0.19400771 0.19139332 0.19483887 -0.0120834485 0.10156502 0.15207241
0.24300793 0.17743254 0.09286906 0.018777039 0.008489155 -0.037974607 -0.061251614 -0.09526654
0.064942196 0.12270844 -0.11441141 0.14869805 -0.06443763 -0.12770295 -0.0864926 -0.047805473
-0.08413833 -0.14856322 -0.05394038 0.05305105 -0.07616466 -0.012847592 0.0049964697 0.017040009
-0.05663559 -0.07810088 0.15305135 0.08274434 -0.08921421 -0.07183887 0.0075810277 0.092414975
0.06490947 0.07466156 -0.054216888 -0.057903837 -0.110466346 0.058359314 0.06831168 0.04053791
-0.12910129 0.08438108 -0.04865933 -0.03550323 0.09584958 -0.06338772 0.03932286 0.07118664
0.11129259 0.09322826 -0.10992008 -0.02195375 0.09689192 -0.08946022 0.028433496 -0.07827273
0.09401454 0.03327414 0.19001728 0.008576247 -0.013843031 0.008670287 -0.01458468 0.20458633
-0.00771985 -0.1300463 -0.06646208 -0.03148691 0.10130859 -0.003197893 -0.079355255 -0.0068953587
0.1203273 -0.016133856 0.0033454353 -0.08009613 -0.13279086 -0.06912606 -0.030035932 0.01417158
-0.02219178 -0.09009047 0.03766385 0.073246226 -0.043918736 -0.1382371 0.026636617 0.09155921
-0.07536525 -0.058307063 -0.050837923 -0.19646586 0.052714355 -0.03378257 -0.024669608 0.03771863
-0.37839925 0.13051851 -0.024739902 0.00083594274 0.09447152 0.030585516 -0.041442696 0.029195717
0.048608016 0.05109761 0.53109896 0.12834755 0.06149287 -0.0818464 -0.011529257 0.053985156
-0.017158324 -0.00072974636 -0.11024148 0.042104304 -0.061676905 0.018121172 -0.05557954 -0.02532562
-0.15727775 0.102249764 -0.008970736 -0.011433746 0.12538874 0.110971585 0.12971115 0.052886613
0.034084834 0.036331214 0.13754153 -0.02042841 0.028104931 0.012010733 0.061445456 -0.123070166
0.0820001 0.056860812 0.091890156 0.25674993 0.100406416 -0.04352429 -0.04459567 -0.053717155
0.002702575 0.10294537 0.063301474 0.28916198 -0.07000499 -0.11564104 0.16017592 0.04508344
0.9801005 0.001058061 -0.001121672 0.15621874 0.69058627 -0.062289577 -0.021563226 -0.074250214
0.100778796 0.022002753 0.15523703 0.1469942 0.14976013 0.09413493 -0.034754936 0.52331793
0.18039247 0.053928845 -0.11482063 0.16410327 0.053830795 0.08319948 0.012539198 -0.044560496
0.14026207 0.04383675 -0.077820495 0.016365413 0.13833271 -0.03660424 0.084345184 -0.0789664
0.067228734 0.09593148 0.16744837 0.049162388 0.097704336 0.116879635 0.095489256 0.20786113
0.031822424 0.0070603527 0.057988387 0.16456667 0.14203472 0.1333252 0.13623393 0.12447262
00000000: 8334 6f3d 349f 6f3d 270d 29bb 864c 763e
00000010: 89e7 4b3d 612d 0d3e 9e0c 673d 56b6 29bb
00000020: 5d99 a43d 090b 913e 608e f03d 0972 283e
00000030: c758 cb3d 4b6f a13d 0cb6 06bd 897a 203e
00000040: 5f9c 6c3f 1b6a 44bd 3c27 493d d167 bbbc
00000050: 210d 453f 4e38 c93d d3fd 7bbd 89c3 143c
00000060: a709 c43e 8968 a53d b74d 343e d4c7 213e
00000070: 8171 363d b41c 213e 75b6 9a3e c1a4 b53e
00000080: d7cc 863d cbff 443e 60b2 283e 48b2 08bb
00000090: e4c0 e53c 20c3 2cbd 4c61 193c 159e 03bd
000000a0: cd26 abbd bbee 5a3d db3c 42bd 1ca9 88bd
000000b0: e3d6 4ebd da61 58bd 0b30 2a3e 4a94 58bd
000000c0: a41d f23d d902 9b3d f5a9 463e 9cfc 433e
000000d0: d783 473e a8f9 45bc 5201 d03d dfb8 1b3e
000000e0: 12d7 783e e0b0 353e 2232 be3d 4ed2 993c
000000f0: 1916 0b3c 438b 1bbd f9e2 7abd 1b1b c3bd
00000100: 6a00 853d 904e fb3d 8850 eabd 4d44 183e
00000110: e0f7 83bd 90c4 02be 0823 b1bd accf 43bd
00000120: b750 acbd f520 18be 97f0 5cbd 0f4c 593d
00000130: 38fc 9bbd b57e 52bc 6db9 a33b 7d97 8b3c
00000140: b8fa 67bd 5bf3 9fbd 7eb9 1c3e dd75 a93d
00000150: f1b5 b6bd 4220 93bd 456a f83b 1044 bd3d
00000160: 42ef 843d 29e8 983d 8712 5ebd 932c 6dbd
00000170: 2e3c e2bd 2d0a 6f3d fee6 8b3d 140b 263d
00000180: 2133 04be fdcf ac3d 014f 47bd d66b 11bd
00000190: c94c c43d 6cd1 81bd 0211 213d 4dca 913d
000001a0: 5fed e33d 75ee be3d c71d e1bd 5ad8 b3bc
000001b0: 456f c63d eb36 b7bd 5ded e83c 744d a0bd
000001c0: b28a c03d 774a 083d e493 423e 6383 0c3c
000001d0: e1cd 62bc d20d 0e3c 95f4 6ebc 147f 513e
000001e0: ccf6 fcbb db2a 05be 451d 88bd 6bf8 00bd
000001f0: e17a cf3d be93 51bb 0285 a2bd 76f2 e1bb
00000200: 296e f63d 262b 84bc 173f 5b3b 7109 a4bd
00000210: 54fa 07be f791 8dbd ea0d f6bc ea2f 683c
00000220: 89cb b5bc 5a81 b8bd 6945 1a3d 1e02 963d
00000230: 22e4 33bd 078e 0dbe 0935 da3c 6583 bb3d
00000240: 1959 9abd 63d3 6ebd 6d3b 50bd 592e 49be
00000250: 02eb 573d 985f 0abd eb17 cabc da7e 1a3d
00000260: 8cbd c1be a5a6 053e 56ab cabc 2b23 5b3a
00000270: 497a c13d 7a8e fa3c d1bf 29bd db2b ef3c
00000280: 3319 473d ba4b 513d 1af6 073f 8a6d 033e
00000290: f3df 7b3d 169f a7bd 35e5 3cbc 8a1f 5d3d
000002a0: 9d8f 8cbc 734c 3fba 49c6 e1bd 9075 2c3d
000002b0: eca0 7cbd da72 943c 5fa7 63bd ad77 cfbc
000002c0: 6b0d 21be 5368 d13d fef9 12bc 9b54 3bbc
000002d0: e865 003e 1245 e33d 00d3 043e a29f 583d
000002e0: 8a9c 0b3d 0ad0 143d b0d7 0c3e 7b59 a7bc
000002f0: 503c e63c aac8 443c 3bae 7b3d 360c fcbd
00000300: abef a73d e2e6 683d e830 bc3d ba74 833e
00000310: e1a1 cd3d 8746 32bd f3a9 36bd 8506 5cbd
00000320: af1d 313b 06d5 d23d 34a4 813d 0a0d 943e
00000330: c75e 8fbd 36d5 ecbd 2805 243e 6aa9 383d
00000340: dee7 7a3f a3ae 8a3a 1105 93ba cef7 1f3e
00000350: 43ca 303f 5b23 7fbd 5da5 b0bc 7f10 98bd
00000360: 1d65 ce3d 1e3f b43c 75f6 1e3e a685 163e
00000370: b85a 193e d0c9 c03d 315b 0ebd 2af8 053f
00000380: ceb8 383e 7ee4 5c3d 1427 ebbd b00a 283e
00000390: ae7d 5c3d 7d64 aa3d 3571 4d3c 1185 36bd
000003a0: dca0 0f3e 2a8e 333d 5a60 9fbd c210 863c
000003b0: 17a7 0d3e 54ee 15bd 2bbd ac3d 23b9 a1bd
000003c0: 38af 893d b977 c43d 9677 2b3e 805e 493d
000003d0: 3619 c83d 975e ef3d df8f c33d 8cd9 543e
000003e0: 3b58 023d 885a e73b 3b85 6d3d 2a84 283e
000003f0: 8d71 113e 6786 083e e880 0b3e 80eb fe3d

encoder.model.bias_hh_l1 f4 [256]
0.102174304 0.10110257 -0.040824402 0.086290754 0.03751347 0.008897703 -0.042360373 0.06773489
-0.1430225 0.17163081 0.044401128 0.14966919 0.09311203 0.074475445 -0.019486563 0.18050107
0.8980524 0.08177617 -0.10237587 0.17210437 0.6842504 -0.060571045 -0.037215367 -0.02824401
0.37972865 0.10452274 0.12086546 0.016675297 0.101632096 0.029767355 0.39785847 0.45104852
0.0874701 -0.013319525 0.21326552 0.061819676 -0.018928621 0.004600394 0.100831024 0.07749393
-0.0022285741 0.16827491 0.14956571 0.12530236 0.049501926 0.014320492 0.25022197 -0.02777415
-0.061694287 0.12365186 0.25151575 0.019235592 0.13710557 0.05327678 0.1236333 0.27499735
0.002429075 0.020700816 0.037785772 0.19932772 0.05823544 0.021154549 -0.058166124 -0.080671825
-0.12564258 0.045674052 -0.08748083 -0.002710245 -0.06388205 -0.08730464 0.041755047 0.032337993
-0.14505927 -0.02010173 -0.05118162 -0.09167117 0.016389323 0.06704657 -0.11045442 -0.12627414
0.034140762 0.12128304 -0.035489563 -0.10987956 -0.033410247 -0.0671242 -0.079844296 -0.0076952116
0.15170477 -0.046300665 -0.109979525 0.103891544 -0.10986569 -0.11277116 0.10122463 0.05878738
-0.16481163 0.03347438 0.02961817 -0.06770659 -0.11579394 0.01449366 0.04983714 0.12197574
-0.076674335 -0.04670909 0.118548274 0.1070733 0.13142785 -0.065325454 -0.08871267 -0.017953781
-0.073738724 -0.020974487 0.24213147 0.057410013 -0.014767781 0.11440624 0.07446519 0.1736801
-0.05750998 -0.07514389 0.05765308 -0.013989506 0.07248129 0.0077282735 0.06460871 0.06805578
-0.018340336 0.08946394 -0.10765851 0.13019162 0.01417428 -0.10718539 0.058369324 -0.058329154
0.05198459 -0.0040420583 0.15504251 0.07221333 -0.008389766 -0.101036906 0.049172234 -0.042841353
0.06019322 0.13780592 -0.07909835 -0.037535142 0.09795072 0.004716588 0.03174065 0.025927562
-0.27843267 -0.01968736 0.031433474 0.015883837 0.06734311 0.018517205 -0.20141016 -0.090695605
0.11351076 -0.033475015 0.5085607 -0.09844038 -0.012633444 -0.009518524 -0.016607396 0.110637635
-0.10250314 0.09053696 -0.07930338 -0.07789042 0.07395719 -0.09770543 -0.080522716 0.04880201
-0.049032323 0.1362093 0.014598119 0.09990174 -0.05468595 -0.082668245 0.11139482 0.052833103
0.220329 0.07874402 0.05957217 0.019509053 -0.02013377 -0.047702067 -0.12987807 -0.094328634
0.011196954 0.13453758 0.17319803 0.014161449 0.086497836 0.017415095 0.14991984 0.15441772
-0.046650548 0.117321946 -0.05558391 0.20623732 0.014951466 0.030453905 0.18902874 -0.011336829
0.86928946 0.027092874 -0.06686214 0.10607536 0.64684385 -0.026702965 0.15005916 -0.014716831
-0.0074395793 -0.016433457 0.20553255 -0.031865064 0.19022383 0.05542485 -0.1134498 0.47648892
0.20715381 0.12618403 -0.054608997 0.04009468 0.0010305456 0.1573585 0.06397899 -0.004123075
-0.07908771 0.21753594 -0.08681579 -0.040404752 0.14240912 0.030487178 0.16553606 0.11684156
-0.07502423 -0.06687776 0.25145805 -0.030996092 0.101871625 -0.011797686 0.053993862 0.07273404
-0.07416 0.028467448 0.13347703 0.21719499 -0.08099913 0.0012878338 0.09711478 0.118552886
00000000: c340 d13d dd0e cf3d 7d37 27bd 35b9 b03d
00000010: b9a7 193d acc7 113c 1282 2dbd 97b8 8a3d
00000020: 7e74 12be fdbf 2f3e f5dd 353d e142 193e
00000030: 85b1 be3d 9586 983d 49a2 9fbc 46d5 383e
00000040: c3e6 653f 447a a73d 71aa d1bd 213c 303e
00000050: 092b 2f3f 5819 78bd 246f 18bd fb5f e7bc
00000060: cb6b c23e 0510 d63d 4f88 f73d a29a 883c
00000070: 7d24 d03d abda f33c 1bb4 cb3e d5ef e63e
00000080: 8623 b33d 233a 5abc 4762 5a3e a136 7d3d
00000090: 3210 9bbc e7be 963b 7f80 ce3d 23b5 9e3d
000000a0: 450d 12bb 4250 2c3e c127 193e 434f 003e
000000b0: 88c2 4a3d 7fa0 6a3c 181d 803e 9d86 e3bc
000000c0: 26b3 7cbd 303d fd3d acc6 803e f693 9d3c
000000d0: 6765 0c3e c138 5a3d 7533 fd3d 74cc 8c3e
000000e0: 1e31 1f3b c294 a93c 41c5 1a3d 911c 4c3e
000000f0: 4988 6e3d 4e4c ad3c 9a3f 6ebd 4537 a5bd
00000100: 73a8 00be b714 3b3d 2629 b3bd 5e9e 31bb
00000110: 98d4 82bd c6cc b2bd 5707 2b3d d874 043d
00000120: 6b8a 14be 62ac a4bc d2a3 51bd 18be bbbd
00000130: e742 863c b64f 893d ed35 e2bd 024e 01be
00000140: 2fd7 0b3d 3e63 f83d 815d 11bd 8908 e1bd
00000150: 2fd9 08bd 6a78 89bd 6885 a3bd 1d28 fcbb
00000160: 7f58 1b3e c4a5 3dbd f23c e1bd 17c5 d43d
00000170: 4301 e1bd 91f4 e6bd dc4e cf3d 09cb 703d
00000180: 61c4 28be 6e1c 093d cea1 f23c c1a9 8abd
00000190: 6025 edbd d176 6d3c 0722 4c3d 6bce f93d
000001a0: 6f07 9dbd 0852 3fbd 70c9 f23d 3f49 db3d
000001b0: 0695 063e 5ac9 85bd fdae b5bd cf13 93bc
000001c0: 5404 97bd b0d2 abbc 50f1 773e c326 6b3d
000001d0: 90f4 71bc d24d ea3d 3581 983d 32d9 313e
000001e0: 968f 6bbd 0ae5 99bd a325 6c3d 3e34 65bc
000001f0: 1271 943d 753d fd3b 9251 843d d460 8b3d
00000200: 793e 96bc df38 b73d 117c dcbd f450 053e
00000210: 3d3b 683c 0484 dbbd ac14 6f3d 8dea 6ebd
00000220: cbed 543d 3e73 84bb 77c3 1e3e 95e4 933d
00000230: 3b75 09bc 70ec cebd d368 493d 6a7a 2fbd
00000240: 2a8d 763d ff1c 0d3e 51fe a1bd 73be 19bd
00000250: 639a c83d 9c8d 9a3b 7c02 023d 0a66 d43c
00000260: ba8e 8ebe 6347 a1bc 63c0 003d d21e 823c
00000270: 2feb 893d 65b1 973c 773e 4ebe 9ebe b9bd
00000280: 5478 e83d 191d 09bd 0931 023f 1c9b c9bd
00000290: 81fc 4ebc 95f3 1bbc 3c0c 88bc fc95 e23d
000002a0: 2bed d1bd 716b b93d cf69 a2bd 0385 9fbd
000002b0: de76 973d c919 c8bd 18e9 a4bd 9ee4 473d
000002c0: 1ed6 48bd 737a 0b3e f32c 6f3c 4999 cc3d
000002d0: 60fe 5fbd f84d a9bd f822 e43d 8667 583d
000002e0: ed9d 613e 8b44 a13d f301 743d 73d1 9f3c
000002f0: 93ef a4bc 3e63 43bd c2fe 04be 5f2f c1bd
00000300: 6e73 373c 38c4 093e d35a 313e 6c05 683c
00000310: c725 b13d 1aaa 8e3c 9684 193e ae1f 1e3e
00000320: a514 3fbd 7d46 f03d f4ab 63bd e02f 533e
00000330: fef6 743c 787a f93c c090 413e 1bbe 39bc
00000340: c189 5e3f e0f1 dd3c 05ef 88bd 0a3e d93d
00000350: 8f97 253f 2dc0 dabc 1ca9 193e dd1e 71bc
00000360: b7c7 f3bb 759f 86bc 2077 523e f184 02bd
00000370: 09ca 423e 2b05 633d 5e58 e8bd 5bf6 f33e
00000380: 2120 543e 6336 013e afad 5fbd 523a 243d
00000390: 5f13 873a 9622 213e 6b07 833d dc1a 87bb
000003a0: bdf8 a1bd bec1 5e3e 7acc b1bd 747f 25bd
000003b0: b2d3 113e 3fc0 f93c 4982 293e a14a ef3d
000003c0: 4ea6 99bd 35f7 88bd 1cbf 803e 84eb fdbc
000003d0: 12a2 d03d 154b 41bc ab28 5d3d 96f5 943d
000003e0: 33e1 97bd 9134 e93c 34ae 083e 5d68 5e3e
000003f0: dfe2 a5bd 88cc a83a 1de4 c63d dbcb f23d
